…
	Token occurrences: 42020
	MWE number: 451
	MWE occurrences: 670
	Continuous occurrences: 75.0 %
	MWE length: 2.14
	Seen occurrences : 57% 
	Recognizable MWEs: 100.0 %
	MWT occurrences: 1

==================================================================================================
__________________________________________________________________________________________________
Layer (type)                    Output Shape         Param #     Connected to                     
==================================================================================================
input_1 (InputLayer)            (None, 8)            0                                            
__________________________________________________________________________________________________
input_2 (InputLayer)            (None, 8)            0                                            
__________________________________________________________________________________________________
embedding_1 (Embedding)         (None, 8, 425)       500650      input_1[0][0]                    
__________________________________________________________________________________________________
embedding_2 (Embedding)         (None, 8, 61)        1159        input_2[0][0]                    
__________________________________________________________________________________________________
lstm_1 (LSTM)                   (None, 8, 134)       300160      embedding_1[0][0]                
__________________________________________________________________________________________________
lstm_2 (LSTM)                   (None, 8, 58)        27840       embedding_2[0][0]                
__________________________________________________________________________________________________
flatten_1 (Flatten)             (None, 1072)         0           lstm_1[0][0]                     
__________________________________________________________________________________________________
flatten_2 (Flatten)             (None, 464)          0           lstm_2[0][0]                     
__________________________________________________________________________________________________
dropout_1 (Dropout)             (None, 1072)         0           flatten_1[0][0]                  
__________________________________________________________________________________________________
dropout_2 (Dropout)             (None, 464)          0           flatten_2[0][0]                  
__________________________________________________________________________________________________
concatenate_1 (Concatenate)     (None, 1536)         0           dropout_1[0][0]                  
                                                                 dropout_2[0][0]                  
__________________________________________________________________________________________________
dense_1 (Dense)                 (None, 194)          298178      concatenate_1[0][0]              
__________________________________________________________________________________________________
dropout_3 (Dropout)             (None, 194)          0           dense_1[0][0]                    
__________________________________________________________________________________________________
dense_2 (Dense)                 (None, 4)            780         dropout_3[0][0]                  
==================================================================================================
Total params: 1,128,767
Trainable params: 1,128,767
Non-trainable params: 0
__________________________________________________________________________________________________
None
==================================================================================================
…
	MWE occurrences: 553
	Continuous occurrences: 59.0 %
	MWE length: 2.25
	Seen occurrences : 62% 
	Recognizable MWEs: 98.0 %
	Embedded occurrences: 4
	Interleaving occurrences: 8

==================================================================================================
__________________________________________________________________________________________________
Layer (type)                    Output Shape         Param #     Connected to                     
==================================================================================================
input_3 (InputLayer)            (None, 8)            0                                            
__________________________________________________________________________________________________
input_4 (InputLayer)            (None, 8)            0                                            
__________________________________________________________________________________________________
embedding_3 (Embedding)         (None, 8, 425)       481950      input_3[0][0]                    
__________________________________________________________________________________________________
embedding_4 (Embedding)         (None, 8, 61)        1159        input_4[0][0]                    
__________________________________________________________________________________________________
lstm_3 (LSTM)                   (None, 8, 134)       300160      embedding_3[0][0]                
__________________________________________________________________________________________________
lstm_4 (LSTM)                   (None, 8, 58)        27840       embedding_4[0][0]                
__________________________________________________________________________________________________
flatten_3 (Flatten)             (None, 1072)         0           lstm_3[0][0]                     
__________________________________________________________________________________________________
flatten_4 (Flatten)             (None, 464)          0           lstm_4[0][0]                     
__________________________________________________________________________________________________
dropout_4 (Dropout)             (None, 1072)         0           flatten_3[0][0]                  
__________________________________________________________________________________________________
dropout_5 (Dropout)             (None, 464)          0           flatten_4[0][0]                  
__________________________________________________________________________________________________
concatenate_2 (Concatenate)     (None, 1536)         0           dropout_4[0][0]                  
                                                                 dropout_5[0][0]                  
__________________________________________________________________________________________________
dense_3 (Dense)                 (None, 194)          298178      concatenate_2[0][0]              
__________________________________________________________________________________________________
dropout_6 (Dropout)             (None, 194)          0           dense_3[0][0]                    
__________________________________________________________________________________________________
dense_4 (Dense)                 (None, 4)            780         dropout_6[0][0]                  
==================================================================================================
Total params: 1,110,067
Trainable params: 1,110,067
Non-trainable params: 0
__________________________________________________________________________________________________
None
==================================================================================================
…
	Important sentence: 385
	Token occurrences: 27196
	MWE number: 418
	MWE occurrences: 510
	Continuous occurrences: 50.0 %
	MWE length: 2.07
	Seen occurrences : 43% 
	Recognizable MWEs: 100.0 %

==================================================================================================
__________________________________________________________________________________________________
Layer (type)                    Output Shape         Param #     Connected to                     
==================================================================================================
input_5 (InputLayer)            (None, 8)            0                                            
__________________________________________________________________________________________________
input_6 (InputLayer)            (None, 8)            0                                            
__________________________________________________________________________________________________
embedding_5 (Embedding)         (None, 8, 425)       920550      input_5[0][0]                    
__________________________________________________________________________________________________
embedding_6 (Embedding)         (None, 8, 61)        854         input_6[0][0]                    
__________________________________________________________________________________________________
lstm_5 (LSTM)                   (None, 8, 134)       300160      embedding_5[0][0]                
__________________________________________________________________________________________________
lstm_6 (LSTM)                   (None, 8, 58)        27840       embedding_6[0][0]                
__________________________________________________________________________________________________
flatten_5 (Flatten)             (None, 1072)         0           lstm_5[0][0]                     
__________________________________________________________________________________________________
flatten_6 (Flatten)             (None, 464)          0           lstm_6[0][0]                     
__________________________________________________________________________________________________
dropout_7 (Dropout)             (None, 1072)         0           flatten_5[0][0]                  
__________________________________________________________________________________________________
dropout_8 (Dropout)             (None, 464)          0           flatten_6[0][0]                  
__________________________________________________________________________________________________
concatenate_3 (Concatenate)     (None, 1536)         0           dropout_7[0][0]                  
                                                                 dropout_8[0][0]                  
__________________________________________________________________________________________________
dense_5 (Dense)                 (None, 194)          298178      concatenate_3[0][0]              
__________________________________________________________________________________________________
dropout_9 (Dropout)             (None, 194)          0           dense_5[0][0]                    
__________________________________________________________________________________________________
dense_6 (Dense)                 (None, 4)            780         dropout_9[0][0]                  
==================================================================================================
Total params: 1,548,362
Trainable params: 1,548,362
Non-trainable params: 0
__________________________________________________________________________________________________
None
==================================================================================================
…
	Token occurrences: 42020
	MWE number: 451
	MWE occurrences: 670
	Continuous occurrences: 75.0 %
	MWE length: 2.14
	Seen occurrences : 57% 
	Recognizable MWEs: 100.0 %
	MWT occurrences: 1

==================================================================================================
__________________________________________________________________________________________________
Layer (type)                    Output Shape         Param #     Connected to                     
==================================================================================================
input_7 (InputLayer)            (None, 11)           0                                            
__________________________________________________________________________________________________
input_8 (InputLayer)            (None, 11)           0                                            
__________________________________________________________________________________________________
embedding_7 (Embedding)         (None, 11, 484)      4539436     input_7[0][0]                    
__________________________________________________________________________________________________
embedding_8 (Embedding)         (None, 11, 97)       1843        input_8[0][0]                    
__________________________________________________________________________________________________
gru_1 (GRU)                     (None, 130)          239850      embedding_7[0][0]                
__________________________________________________________________________________________________
gru_2 (GRU)                     (None, 158)          121344      embedding_8[0][0]                
__________________________________________________________________________________________________
dropout_10 (Dropout)            (None, 130)          0           gru_1[0][0]                      
__________________________________________________________________________________________________
dropout_11 (Dropout)            (None, 158)          0           gru_2[0][0]                      
__________________________________________________________________________________________________
concatenate_4 (Concatenate)     (None, 288)          0           dropout_10[0][0]                 
                                                                 dropout_11[0][0]                 
__________________________________________________________________________________________________
dense_7 (Dense)                 (None, 59)           17051       concatenate_4[0][0]              
__________________________________________________________________________________________________
dropout_12 (Dropout)            (None, 59)           0           dense_7[0][0]                    
__________________________________________________________________________________________________
dense_8 (Dense)                 (None, 4)            240         dropout_12[0][0]                 
==================================================================================================
Total params: 4,919,764
Trainable params: 4,919,764
Non-trainable params: 0
__________________________________________________________________________________________________
None
==================================================================================================
…
	MWE occurrences: 553
	Continuous occurrences: 59.0 %
	MWE length: 2.25
	Seen occurrences : 62% 
	Recognizable MWEs: 98.0 %
	Embedded occurrences: 4
	Interleaving occurrences: 8

==================================================================================================
__________________________________________________________________________________________________
Layer (type)                    Output Shape         Param #     Connected to                     
==================================================================================================
input_9 (InputLayer)            (None, 11)           0                                            
__________________________________________________________________________________________________
input_10 (InputLayer)           (None, 11)           0                                            
__________________________________________________________________________________________________
embedding_9 (Embedding)         (None, 11, 484)      3508032     input_9[0][0]                    
__________________________________________________________________________________________________
embedding_10 (Embedding)        (None, 11, 97)       1843        input_10[0][0]                   
__________________________________________________________________________________________________
gru_3 (GRU)                     (None, 130)          239850      embedding_9[0][0]                
__________________________________________________________________________________________________
gru_4 (GRU)                     (None, 158)          121344      embedding_10[0][0]               
__________________________________________________________________________________________________
dropout_13 (Dropout)            (None, 130)          0           gru_3[0][0]                      
__________________________________________________________________________________________________
dropout_14 (Dropout)            (None, 158)          0           gru_4[0][0]                      
__________________________________________________________________________________________________
concatenate_5 (Concatenate)     (None, 288)          0           dropout_13[0][0]                 
                                                                 dropout_14[0][0]                 
__________________________________________________________________________________________________
dense_9 (Dense)                 (None, 59)           17051       concatenate_5[0][0]              
__________________________________________________________________________________________________
dropout_15 (Dropout)            (None, 59)           0           dense_9[0][0]                    
__________________________________________________________________________________________________
dense_10 (Dense)                (None, 4)            240         dropout_15[0][0]                 
==================================================================================================
Total params: 3,888,360
Trainable params: 3,888,360
Non-trainable params: 0
__________________________________________________________________________________________________
None
==================================================================================================
…
	Important sentence: 385
	Token occurrences: 27196
	MWE number: 418
	MWE occurrences: 510
	Continuous occurrences: 50.0 %
	MWE length: 2.07
	Seen occurrences : 43% 
	Recognizable MWEs: 100.0 %

==================================================================================================
__________________________________________________________________________________________________
Layer (type)                    Output Shape         Param #     Connected to                     
==================================================================================================
input_11 (InputLayer)           (None, 11)           0                                            
__________________________________________________________________________________________________
input_12 (InputLayer)           (None, 11)           0                                            
__________________________________________________________________________________________________
embedding_11 (Embedding)        (None, 11, 484)      8884304     input_11[0][0]                   
__________________________________________________________________________________________________
embedding_12 (Embedding)        (None, 11, 97)       1358        input_12[0][0]                   
__________________________________________________________________________________________________
gru_5 (GRU)                     (None, 130)          239850      embedding_11[0][0]               
__________________________________________________________________________________________________
gru_6 (GRU)                     (None, 158)          121344      embedding_12[0][0]               
__________________________________________________________________________________________________
dropout_16 (Dropout)            (None, 130)          0           gru_5[0][0]                      
__________________________________________________________________________________________________
dropout_17 (Dropout)            (None, 158)          0           gru_6[0][0]                      
__________________________________________________________________________________________________
concatenate_6 (Concatenate)     (None, 288)          0           dropout_16[0][0]                 
                                                                 dropout_17[0][0]                 
__________________________________________________________________________________________________
dense_11 (Dense)                (None, 59)           17051       concatenate_6[0][0]              
__________________________________________________________________________________________________
dropout_18 (Dropout)            (None, 59)           0           dense_11[0][0]                   
__________________________________________________________________________________________________
dense_12 (Dense)                (None, 4)            240         dropout_18[0][0]                 
==================================================================================================
Total params: 9,264,147
Trainable params: 9,264,147
Non-trainable params: 0
__________________________________________________________________________________________________
None
==================================================================================================
…
	Token occurrences: 42020
	MWE number: 451
	MWE occurrences: 670
	Continuous occurrences: 75.0 %
	MWE length: 2.14
	Seen occurrences : 57% 
	Recognizable MWEs: 100.0 %
	MWT occurrences: 1

==================================================================================================
__________________________________________________________________________________________________
Layer (type)                    Output Shape         Param #     Connected to                     
==================================================================================================
input_13 (InputLayer)           (None, 9)            0                                            
__________________________________________________________________________________________________
input_14 (InputLayer)           (None, 9)            0                                            
__________________________________________________________________________________________________
embedding_13 (Embedding)        (None, 9, 568)       3444920     input_13[0][0]                   
__________________________________________________________________________________________________
embedding_14 (Embedding)        (None, 9, 43)        817         input_14[0][0]                   
__________________________________________________________________________________________________
lstm_7 (LSTM)                   (None, 149)          427928      embedding_13[0][0]               
__________________________________________________________________________________________________
lstm_8 (LSTM)                   (None, 85)           43860       embedding_14[0][0]               
__________________________________________________________________________________________________
dropout_19 (Dropout)            (None, 149)          0           lstm_7[0][0]                     
__________________________________________________________________________________________________
dropout_20 (Dropout)            (None, 85)           0           lstm_8[0][0]                     
__________________________________________________________________________________________________
concatenate_7 (Concatenate)     (None, 234)          0           dropout_19[0][0]                 
                                                                 dropout_20[0][0]                 
__________________________________________________________________________________________________
dense_13 (Dense)                (None, 131)          30785       concatenate_7[0][0]              
__________________________________________________________________________________________________
dropout_21 (Dropout)            (None, 131)          0           dense_13[0][0]                   
__________________________________________________________________________________________________
dense_14 (Dense)                (None, 4)            528         dropout_21[0][0]                 
==================================================================================================
Total params: 3,948,838
Trainable params: 3,948,838
Non-trainable params: 0
__________________________________________________________________________________________________
None
==================================================================================================
…
	MWE occurrences: 553
	Continuous occurrences: 59.0 %
	MWE length: 2.25
	Seen occurrences : 62% 
	Recognizable MWEs: 98.0 %
	Embedded occurrences: 4
	Interleaving occurrences: 8

==================================================================================================
__________________________________________________________________________________________________
Layer (type)                    Output Shape         Param #     Connected to                     
==================================================================================================
input_15 (InputLayer)           (None, 9)            0                                            
__________________________________________________________________________________________________
input_16 (InputLayer)           (None, 9)            0                                            
__________________________________________________________________________________________________
embedding_15 (Embedding)        (None, 9, 568)       3300080     input_15[0][0]                   
__________________________________________________________________________________________________
embedding_16 (Embedding)        (None, 9, 43)        817         input_16[0][0]                   
__________________________________________________________________________________________________
lstm_9 (LSTM)                   (None, 149)          427928      embedding_15[0][0]               
__________________________________________________________________________________________________
lstm_10 (LSTM)                  (None, 85)           43860       embedding_16[0][0]               
__________________________________________________________________________________________________
dropout_22 (Dropout)            (None, 149)          0           lstm_9[0][0]                     
__________________________________________________________________________________________________
dropout_23 (Dropout)            (None, 85)           0           lstm_10[0][0]                    
__________________________________________________________________________________________________
concatenate_8 (Concatenate)     (None, 234)          0           dropout_22[0][0]                 
                                                                 dropout_23[0][0]                 
__________________________________________________________________________________________________
dense_15 (Dense)                (None, 131)          30785       concatenate_8[0][0]              
__________________________________________________________________________________________________
dropout_24 (Dropout)            (None, 131)          0           dense_15[0][0]                   
__________________________________________________________________________________________________
dense_16 (Dense)                (None, 4)            528         dropout_24[0][0]                 
==================================================================================================
Total params: 3,803,998
Trainable params: 3,803,998
Non-trainable params: 0
__________________________________________________________________________________________________
None
==================================================================================================
…
	Important sentence: 385
	Token occurrences: 27196
	MWE number: 418
	MWE occurrences: 510
	Continuous occurrences: 50.0 %
	MWE length: 2.07
	Seen occurrences : 43% 
	Recognizable MWEs: 100.0 %

==================================================================================================
__________________________________________________________________________________________________
Layer (type)                    Output Shape         Param #     Connected to                     
==================================================================================================
input_17 (InputLayer)           (None, 9)            0                                            
__________________________________________________________________________________________________
input_18 (InputLayer)           (None, 9)            0                                            
__________________________________________________________________________________________________
embedding_17 (Embedding)        (None, 9, 568)       6178704     input_17[0][0]                   
__________________________________________________________________________________________________
embedding_18 (Embedding)        (None, 9, 43)        602         input_18[0][0]                   
__________________________________________________________________________________________________
lstm_11 (LSTM)                  (None, 149)          427928      embedding_17[0][0]               
__________________________________________________________________________________________________
lstm_12 (LSTM)                  (None, 85)           43860       embedding_18[0][0]               
__________________________________________________________________________________________________
dropout_25 (Dropout)            (None, 149)          0           lstm_11[0][0]                    
__________________________________________________________________________________________________
dropout_26 (Dropout)            (None, 85)           0           lstm_12[0][0]                    
__________________________________________________________________________________________________
concatenate_9 (Concatenate)     (None, 234)          0           dropout_25[0][0]                 
                                                                 dropout_26[0][0]                 
__________________________________________________________________________________________________
dense_17 (Dense)                (None, 131)          30785       concatenate_9[0][0]              
__________________________________________________________________________________________________
dropout_27 (Dropout)            (None, 131)          0           dense_17[0][0]                   
__________________________________________________________________________________________________
dense_18 (Dense)                (None, 4)            528         dropout_27[0][0]                 
==================================================================================================
Total params: 6,682,407
Trainable params: 6,682,407
Non-trainable params: 0
__________________________________________________________________________________________________
None
==================================================================================================
…
	Token occurrences: 42020
	MWE number: 451
	MWE occurrences: 670
	Continuous occurrences: 75.0 %
	MWE length: 2.14
	Seen occurrences : 57% 
	Recognizable MWEs: 100.0 %
	MWT occurrences: 1

==================================================================================================
__________________________________________________________________________________________________
Layer (type)                    Output Shape         Param #     Connected to                     
==================================================================================================
input_19 (InputLayer)           (None, 7)            0                                            
__________________________________________________________________________________________________
input_20 (InputLayer)           (None, 7)            0                                            
__________________________________________________________________________________________________
embedding_19 (Embedding)        (None, 7, 582)       3529830     input_19[0][0]                   
__________________________________________________________________________________________________
embedding_20 (Embedding)        (None, 7, 42)        798         input_20[0][0]                   
__________________________________________________________________________________________________
gru_7 (GRU)                     (None, 95)           193230      embedding_19[0][0]               
__________________________________________________________________________________________________
gru_8 (GRU)                     (None, 116)          55332       embedding_20[0][0]               
__________________________________________________________________________________________________
dropout_28 (Dropout)            (None, 95)           0           gru_7[0][0]                      
__________________________________________________________________________________________________
dropout_29 (Dropout)            (None, 116)          0           gru_8[0][0]                      
__________________________________________________________________________________________________
concatenate_10 (Concatenate)    (None, 211)          0           dropout_28[0][0]                 
                                                                 dropout_29[0][0]                 
__________________________________________________________________________________________________
dense_19 (Dense)                (None, 25)           5300        concatenate_10[0][0]             
__________________________________________________________________________________________________
dropout_30 (Dropout)            (None, 25)           0           dense_19[0][0]                   
__________________________________________________________________________________________________
dense_20 (Dense)                (None, 4)            104         dropout_30[0][0]                 
==================================================================================================
Total params: 3,784,594
Trainable params: 3,784,594
Non-trainable params: 0
__________________________________________________________________________________________________
None
==================================================================================================
…
	MWE occurrences: 553
	Continuous occurrences: 59.0 %
	MWE length: 2.25
	Seen occurrences : 62% 
	Recognizable MWEs: 98.0 %
	Embedded occurrences: 4
	Interleaving occurrences: 8

==================================================================================================
__________________________________________________________________________________________________
Layer (type)                    Output Shape         Param #     Connected to                     
==================================================================================================
input_21 (InputLayer)           (None, 7)            0                                            
__________________________________________________________________________________________________
input_22 (InputLayer)           (None, 7)            0                                            
__________________________________________________________________________________________________
embedding_21 (Embedding)        (None, 7, 582)       3381420     input_21[0][0]                   
__________________________________________________________________________________________________
embedding_22 (Embedding)        (None, 7, 42)        798         input_22[0][0]                   
__________________________________________________________________________________________________
gru_9 (GRU)                     (None, 95)           193230      embedding_21[0][0]               
__________________________________________________________________________________________________
gru_10 (GRU)                    (None, 116)          55332       embedding_22[0][0]               
__________________________________________________________________________________________________
dropout_31 (Dropout)            (None, 95)           0           gru_9[0][0]                      
__________________________________________________________________________________________________
dropout_32 (Dropout)            (None, 116)          0           gru_10[0][0]                     
__________________________________________________________________________________________________
concatenate_11 (Concatenate)    (None, 211)          0           dropout_31[0][0]                 
                                                                 dropout_32[0][0]                 
__________________________________________________________________________________________________
dense_21 (Dense)                (None, 25)           5300        concatenate_11[0][0]             
__________________________________________________________________________________________________
dropout_33 (Dropout)            (None, 25)           0           dense_21[0][0]                   
__________________________________________________________________________________________________
dense_22 (Dense)                (None, 4)            104         dropout_33[0][0]                 
==================================================================================================
Total params: 3,636,184
Trainable params: 3,636,184
Non-trainable params: 0
__________________________________________________________________________________________________
None
==================================================================================================
…
	Important sentence: 385
	Token occurrences: 27196
	MWE number: 418
	MWE occurrences: 510
	Continuous occurrences: 50.0 %
	MWE length: 2.07
	Seen occurrences : 43% 
	Recognizable MWEs: 100.0 %

==================================================================================================
__________________________________________________________________________________________________
Layer (type)                    Output Shape         Param #     Connected to                     
==================================================================================================
input_23 (InputLayer)           (None, 7)            0                                            
__________________________________________________________________________________________________
input_24 (InputLayer)           (None, 7)            0                                            
__________________________________________________________________________________________________
embedding_23 (Embedding)        (None, 7, 582)       6330996     input_23[0][0]                   
__________________________________________________________________________________________________
embedding_24 (Embedding)        (None, 7, 42)        588         input_24[0][0]                   
__________________________________________________________________________________________________
gru_11 (GRU)                    (None, 95)           193230      embedding_23[0][0]               
__________________________________________________________________________________________________
gru_12 (GRU)                    (None, 116)          55332       embedding_24[0][0]               
__________________________________________________________________________________________________
dropout_34 (Dropout)            (None, 95)           0           gru_11[0][0]                     
__________________________________________________________________________________________________
dropout_35 (Dropout)            (None, 116)          0           gru_12[0][0]                     
__________________________________________________________________________________________________
concatenate_12 (Concatenate)    (None, 211)          0           dropout_34[0][0]                 
                                                                 dropout_35[0][0]                 
__________________________________________________________________________________________________
dense_23 (Dense)                (None, 25)           5300        concatenate_12[0][0]             
__________________________________________________________________________________________________
dropout_36 (Dropout)            (None, 25)           0           dense_23[0][0]                   
__________________________________________________________________________________________________
dense_24 (Dense)                (None, 4)            104         dropout_36[0][0]                 
==================================================================================================
Total params: 6,585,550
Trainable params: 6,585,550
Non-trainable params: 0
__________________________________________________________________________________________________
None
==================================================================================================
…
	Token occurrences: 42020
	MWE number: 451
	MWE occurrences: 670
	Continuous occurrences: 75.0 %
	MWE length: 2.14
	Seen occurrences : 57% 
	Recognizable MWEs: 100.0 %
	MWT occurrences: 1

==================================================================================================
__________________________________________________________________________________________________
Layer (type)                    Output Shape         Param #     Connected to                     
==================================================================================================
input_25 (InputLayer)           (None, 11)           0                                            
__________________________________________________________________________________________________
input_26 (InputLayer)           (None, 11)           0                                            
__________________________________________________________________________________________________
embedding_25 (Embedding)        (None, 11, 491)      2977915     input_25[0][0]                   
__________________________________________________________________________________________________
embedding_26 (Embedding)        (None, 11, 87)       1653        input_26[0][0]                   
__________________________________________________________________________________________________
gru_13 (GRU)                    (None, 145)          277095      embedding_25[0][0]               
__________________________________________________________________________________________________
gru_14 (GRU)                    (None, 191)          159867      embedding_26[0][0]               
__________________________________________________________________________________________________
dropout_37 (Dropout)            (None, 145)          0           gru_13[0][0]                     
__________________________________________________________________________________________________
dropout_38 (Dropout)            (None, 191)          0           gru_14[0][0]                     
__________________________________________________________________________________________________
concatenate_13 (Concatenate)    (None, 336)          0           dropout_37[0][0]                 
                                                                 dropout_38[0][0]                 
__________________________________________________________________________________________________
dense_25 (Dense)                (None, 116)          39092       concatenate_13[0][0]             
__________________________________________________________________________________________________
dropout_39 (Dropout)            (None, 116)          0           dense_25[0][0]                   
__________________________________________________________________________________________________
dense_26 (Dense)                (None, 4)            468         dropout_39[0][0]                 
==================================================================================================
Total params: 3,456,090
Trainable params: 3,456,090
Non-trainable params: 0
__________________________________________________________________________________________________
None
==================================================================================================
…
	MWE occurrences: 553
	Continuous occurrences: 59.0 %
	MWE length: 2.25
	Seen occurrences : 62% 
	Recognizable MWEs: 98.0 %
	Embedded occurrences: 4
	Interleaving occurrences: 8

==================================================================================================
__________________________________________________________________________________________________
Layer (type)                    Output Shape         Param #     Connected to                     
==================================================================================================
input_27 (InputLayer)           (None, 11)           0                                            
__________________________________________________________________________________________________
input_28 (InputLayer)           (None, 11)           0                                            
__________________________________________________________________________________________________
embedding_27 (Embedding)        (None, 11, 491)      2852710     input_27[0][0]                   
__________________________________________________________________________________________________
embedding_28 (Embedding)        (None, 11, 87)       1653        input_28[0][0]                   
__________________________________________________________________________________________________
gru_15 (GRU)                    (None, 145)          277095      embedding_27[0][0]               
__________________________________________________________________________________________________
gru_16 (GRU)                    (None, 191)          159867      embedding_28[0][0]               
__________________________________________________________________________________________________
dropout_40 (Dropout)            (None, 145)          0           gru_15[0][0]                     
__________________________________________________________________________________________________
dropout_41 (Dropout)            (None, 191)          0           gru_16[0][0]                     
__________________________________________________________________________________________________
concatenate_14 (Concatenate)    (None, 336)          0           dropout_40[0][0]                 
                                                                 dropout_41[0][0]                 
__________________________________________________________________________________________________
dense_27 (Dense)                (None, 116)          39092       concatenate_14[0][0]             
__________________________________________________________________________________________________
dropout_42 (Dropout)            (None, 116)          0           dense_27[0][0]                   
__________________________________________________________________________________________________
dense_28 (Dense)                (None, 4)            468         dropout_42[0][0]                 
==================================================================================================
Total params: 3,330,885
Trainable params: 3,330,885
Non-trainable params: 0
__________________________________________________________________________________________________
None
==================================================================================================
…
	Important sentence: 385
	Token occurrences: 27196
	MWE number: 418
	MWE occurrences: 510
	Continuous occurrences: 50.0 %
	MWE length: 2.07
	Seen occurrences : 43% 
	Recognizable MWEs: 100.0 %

==================================================================================================
__________________________________________________________________________________________________
Layer (type)                    Output Shape         Param #     Connected to                     
==================================================================================================
input_29 (InputLayer)           (None, 11)           0                                            
__________________________________________________________________________________________________
input_30 (InputLayer)           (None, 11)           0                                            
__________________________________________________________________________________________________
embedding_29 (Embedding)        (None, 11, 491)      5341098     input_29[0][0]                   
__________________________________________________________________________________________________
embedding_30 (Embedding)        (None, 11, 87)       1218        input_30[0][0]                   
__________________________________________________________________________________________________
gru_17 (GRU)                    (None, 145)          277095      embedding_29[0][0]               
__________________________________________________________________________________________________
gru_18 (GRU)                    (None, 191)          159867      embedding_30[0][0]               
__________________________________________________________________________________________________
dropout_43 (Dropout)            (None, 145)          0           gru_17[0][0]                     
__________________________________________________________________________________________________
dropout_44 (Dropout)            (None, 191)          0           gru_18[0][0]                     
__________________________________________________________________________________________________
concatenate_15 (Concatenate)    (None, 336)          0           dropout_43[0][0]                 
                                                                 dropout_44[0][0]                 
__________________________________________________________________________________________________
dense_29 (Dense)                (None, 116)          39092       concatenate_15[0][0]             
__________________________________________________________________________________________________
dropout_45 (Dropout)            (None, 116)          0           dense_29[0][0]                   
__________________________________________________________________________________________________
dense_30 (Dense)                (None, 4)            468         dropout_45[0][0]                 
==================================================================================================
Total params: 5,818,838
Trainable params: 5,818,838
Non-trainable params: 0
__________________________________________________________________________________________________
None
==================================================================================================
…
	Token occurrences: 42020
	MWE number: 451
	MWE occurrences: 670
	Continuous occurrences: 75.0 %
	MWE length: 2.14
	Seen occurrences : 57% 
	Recognizable MWEs: 100.0 %
	MWT occurrences: 1

==================================================================================================
__________________________________________________________________________________________________
Layer (type)                    Output Shape         Param #     Connected to                     
==================================================================================================
input_31 (InputLayer)           (None, 8)            0                                            
__________________________________________________________________________________________________
input_32 (InputLayer)           (None, 8)            0                                            
__________________________________________________________________________________________________
embedding_31 (Embedding)        (None, 8, 545)       5111555     input_31[0][0]                   
__________________________________________________________________________________________________
embedding_32 (Embedding)        (None, 8, 75)        1425        input_32[0][0]                   
__________________________________________________________________________________________________
gru_19 (GRU)                    (None, 118)          235056      embedding_31[0][0]               
__________________________________________________________________________________________________
gru_20 (GRU)                    (None, 196)          159936      embedding_32[0][0]               
__________________________________________________________________________________________________
dropout_46 (Dropout)            (None, 118)          0           gru_19[0][0]                     
__________________________________________________________________________________________________
dropout_47 (Dropout)            (None, 196)          0           gru_20[0][0]                     
__________________________________________________________________________________________________
concatenate_16 (Concatenate)    (None, 314)          0           dropout_46[0][0]                 
                                                                 dropout_47[0][0]                 
__________________________________________________________________________________________________
dense_31 (Dense)                (None, 98)           30870       concatenate_16[0][0]             
__________________________________________________________________________________________________
dropout_48 (Dropout)            (None, 98)           0           dense_31[0][0]                   
__________________________________________________________________________________________________
dense_32 (Dense)                (None, 4)            396         dropout_48[0][0]                 
==================================================================================================
Total params: 5,539,238
Trainable params: 5,539,238
Non-trainable params: 0
__________________________________________________________________________________________________
None
==================================================================================================
…
	MWE occurrences: 553
	Continuous occurrences: 59.0 %
	MWE length: 2.25
	Seen occurrences : 62% 
	Recognizable MWEs: 98.0 %
	Embedded occurrences: 4
	Interleaving occurrences: 8

==================================================================================================
__________________________________________________________________________________________________
Layer (type)                    Output Shape         Param #     Connected to                     
==================================================================================================
input_33 (InputLayer)           (None, 8)            0                                            
__________________________________________________________________________________________________
input_34 (InputLayer)           (None, 8)            0                                            
__________________________________________________________________________________________________
embedding_33 (Embedding)        (None, 8, 545)       3950160     input_33[0][0]                   
__________________________________________________________________________________________________
embedding_34 (Embedding)        (None, 8, 75)        1425        input_34[0][0]                   
__________________________________________________________________________________________________
gru_21 (GRU)                    (None, 118)          235056      embedding_33[0][0]               
__________________________________________________________________________________________________
gru_22 (GRU)                    (None, 196)          159936      embedding_34[0][0]               
__________________________________________________________________________________________________
dropout_49 (Dropout)            (None, 118)          0           gru_21[0][0]                     
__________________________________________________________________________________________________
dropout_50 (Dropout)            (None, 196)          0           gru_22[0][0]                     
__________________________________________________________________________________________________
concatenate_17 (Concatenate)    (None, 314)          0           dropout_49[0][0]                 
                                                                 dropout_50[0][0]                 
__________________________________________________________________________________________________
dense_33 (Dense)                (None, 98)           30870       concatenate_17[0][0]             
__________________________________________________________________________________________________
dropout_51 (Dropout)            (None, 98)           0           dense_33[0][0]                   
__________________________________________________________________________________________________
dense_34 (Dense)                (None, 4)            396         dropout_51[0][0]                 
==================================================================================================
Total params: 4,377,843
Trainable params: 4,377,843
Non-trainable params: 0
__________________________________________________________________________________________________
None
==================================================================================================
…
	Important sentence: 385
	Token occurrences: 27196
	MWE number: 418
	MWE occurrences: 510
	Continuous occurrences: 50.0 %
	MWE length: 2.07
	Seen occurrences : 43% 
	Recognizable MWEs: 100.0 %

==================================================================================================
__________________________________________________________________________________________________
Layer (type)                    Output Shape         Param #     Connected to                     
==================================================================================================
input_35 (InputLayer)           (None, 8)            0                                            
__________________________________________________________________________________________________
input_36 (InputLayer)           (None, 8)            0                                            
__________________________________________________________________________________________________
embedding_35 (Embedding)        (None, 8, 545)       10004020    input_35[0][0]                   
__________________________________________________________________________________________________
embedding_36 (Embedding)        (None, 8, 75)        1050        input_36[0][0]                   
__________________________________________________________________________________________________
gru_23 (GRU)                    (None, 118)          235056      embedding_35[0][0]               
__________________________________________________________________________________________________
gru_24 (GRU)                    (None, 196)          159936      embedding_36[0][0]               
__________________________________________________________________________________________________
dropout_52 (Dropout)            (None, 118)          0           gru_23[0][0]                     
__________________________________________________________________________________________________
dropout_53 (Dropout)            (None, 196)          0           gru_24[0][0]                     
__________________________________________________________________________________________________
concatenate_18 (Concatenate)    (None, 314)          0           dropout_52[0][0]                 
                                                                 dropout_53[0][0]                 
__________________________________________________________________________________________________
dense_35 (Dense)                (None, 98)           30870       concatenate_18[0][0]             
__________________________________________________________________________________________________
dropout_54 (Dropout)            (None, 98)           0           dense_35[0][0]                   
__________________________________________________________________________________________________
dense_36 (Dense)                (None, 4)            396         dropout_54[0][0]                 
==================================================================================================
Total params: 10,431,328
Trainable params: 10,431,328
Non-trainable params: 0
__________________________________________________________________________________________________
None
==================================================================================================
…
	Token occurrences: 42020
	MWE number: 451
	MWE occurrences: 670
	Continuous occurrences: 75.0 %
	MWE length: 2.14
	Seen occurrences : 57% 
	Recognizable MWEs: 100.0 %
	MWT occurrences: 1

==================================================================================================
__________________________________________________________________________________________________
Layer (type)                    Output Shape         Param #     Connected to                     
==================================================================================================
input_37 (InputLayer)           (None, 7)            0                                            
__________________________________________________________________________________________________
input_38 (InputLayer)           (None, 7)            0                                            
__________________________________________________________________________________________________
embedding_37 (Embedding)        (None, 7, 388)       457064      input_37[0][0]                   
__________________________________________________________________________________________________
embedding_38 (Embedding)        (None, 7, 66)        1254        input_38[0][0]                   
__________________________________________________________________________________________________
lstm_13 (LSTM)                  (None, 7, 91)        174720      embedding_37[0][0]               
__________________________________________________________________________________________________
lstm_14 (LSTM)                  (None, 7, 153)       134640      embedding_38[0][0]               
__________________________________________________________________________________________________
flatten_7 (Flatten)             (None, 637)          0           lstm_13[0][0]                    
__________________________________________________________________________________________________
flatten_8 (Flatten)             (None, 1071)         0           lstm_14[0][0]                    
__________________________________________________________________________________________________
dropout_55 (Dropout)            (None, 637)          0           flatten_7[0][0]                  
__________________________________________________________________________________________________
dropout_56 (Dropout)            (None, 1071)         0           flatten_8[0][0]                  
__________________________________________________________________________________________________
concatenate_19 (Concatenate)    (None, 1708)         0           dropout_55[0][0]                 
                                                                 dropout_56[0][0]                 
__________________________________________________________________________________________________
dense_37 (Dense)                (None, 175)          299075      concatenate_19[0][0]             
__________________________________________________________________________________________________
dropout_57 (Dropout)            (None, 175)          0           dense_37[0][0]                   
__________________________________________________________________________________________________
dense_38 (Dense)                (None, 4)            704         dropout_57[0][0]                 
==================================================================================================
Total params: 1,067,457
Trainable params: 1,067,457
Non-trainable params: 0
__________________________________________________________________________________________________
None
==================================================================================================
…
	MWE occurrences: 553
	Continuous occurrences: 59.0 %
	MWE length: 2.25
	Seen occurrences : 62% 
	Recognizable MWEs: 98.0 %
	Embedded occurrences: 4
	Interleaving occurrences: 8

==================================================================================================
__________________________________________________________________________________________________
Layer (type)                    Output Shape         Param #     Connected to                     
==================================================================================================
input_39 (InputLayer)           (None, 7)            0                                            
__________________________________________________________________________________________________
input_40 (InputLayer)           (None, 7)            0                                            
__________________________________________________________________________________________________
embedding_39 (Embedding)        (None, 7, 388)       439992      input_39[0][0]                   
__________________________________________________________________________________________________
embedding_40 (Embedding)        (None, 7, 66)        1254        input_40[0][0]                   
__________________________________________________________________________________________________
lstm_15 (LSTM)                  (None, 7, 91)        174720      embedding_39[0][0]               
__________________________________________________________________________________________________
lstm_16 (LSTM)                  (None, 7, 153)       134640      embedding_40[0][0]               
__________________________________________________________________________________________________
flatten_9 (Flatten)             (None, 637)          0           lstm_15[0][0]                    
__________________________________________________________________________________________________
flatten_10 (Flatten)            (None, 1071)         0           lstm_16[0][0]                    
__________________________________________________________________________________________________
dropout_58 (Dropout)            (None, 637)          0           flatten_9[0][0]                  
__________________________________________________________________________________________________
dropout_59 (Dropout)            (None, 1071)         0           flatten_10[0][0]                 
__________________________________________________________________________________________________
concatenate_20 (Concatenate)    (None, 1708)         0           dropout_58[0][0]                 
                                                                 dropout_59[0][0]                 
__________________________________________________________________________________________________
dense_39 (Dense)                (None, 175)          299075      concatenate_20[0][0]             
__________________________________________________________________________________________________
dropout_60 (Dropout)            (None, 175)          0           dense_39[0][0]                   
__________________________________________________________________________________________________
dense_40 (Dense)                (None, 4)            704         dropout_60[0][0]                 
==================================================================================================
Total params: 1,050,385
Trainable params: 1,050,385
Non-trainable params: 0
__________________________________________________________________________________________________
None
==================================================================================================
…
	Important sentence: 385
	Token occurrences: 27196
	MWE number: 418
	MWE occurrences: 510
	Continuous occurrences: 50.0 %
	MWE length: 2.07
	Seen occurrences : 43% 
	Recognizable MWEs: 100.0 %

==================================================================================================
__________________________________________________________________________________________________
Layer (type)                    Output Shape         Param #     Connected to                     
==================================================================================================
input_41 (InputLayer)           (None, 7)            0                                            
__________________________________________________________________________________________________
input_42 (InputLayer)           (None, 7)            0                                            
__________________________________________________________________________________________________
embedding_41 (Embedding)        (None, 7, 388)       840408      input_41[0][0]                   
__________________________________________________________________________________________________
embedding_42 (Embedding)        (None, 7, 66)        924         input_42[0][0]                   
__________________________________________________________________________________________________
lstm_17 (LSTM)                  (None, 7, 91)        174720      embedding_41[0][0]               
__________________________________________________________________________________________________
lstm_18 (LSTM)                  (None, 7, 153)       134640      embedding_42[0][0]               
__________________________________________________________________________________________________
flatten_11 (Flatten)            (None, 637)          0           lstm_17[0][0]                    
__________________________________________________________________________________________________
flatten_12 (Flatten)            (None, 1071)         0           lstm_18[0][0]                    
__________________________________________________________________________________________________
dropout_61 (Dropout)            (None, 637)          0           flatten_11[0][0]                 
__________________________________________________________________________________________________
dropout_62 (Dropout)            (None, 1071)         0           flatten_12[0][0]                 
__________________________________________________________________________________________________
concatenate_21 (Concatenate)    (None, 1708)         0           dropout_61[0][0]                 
                                                                 dropout_62[0][0]                 
__________________________________________________________________________________________________
dense_41 (Dense)                (None, 175)          299075      concatenate_21[0][0]             
__________________________________________________________________________________________________
dropout_63 (Dropout)            (None, 175)          0           dense_41[0][0]                   
__________________________________________________________________________________________________
dense_42 (Dense)                (None, 4)            704         dropout_63[0][0]                 
==================================================================================================
Total params: 1,450,471
Trainable params: 1,450,471
Non-trainable params: 0
__________________________________________________________________________________________________
None
==================================================================================================
…
	Token occurrences: 42020
	MWE number: 451
	MWE occurrences: 670
	Continuous occurrences: 75.0 %
	MWE length: 2.14
	Seen occurrences : 57% 
	Recognizable MWEs: 100.0 %
	MWT occurrences: 1

==================================================================================================
__________________________________________________________________________________________________
Layer (type)                    Output Shape         Param #     Connected to                     
==================================================================================================
input_43 (InputLayer)           (None, 10)           0                                            
__________________________________________________________________________________________________
input_44 (InputLayer)           (None, 10)           0                                            
__________________________________________________________________________________________________
embedding_43 (Embedding)        (None, 10, 306)      1855890     input_43[0][0]                   
__________________________________________________________________________________________________
embedding_44 (Embedding)        (None, 10, 42)       798         input_44[0][0]                   
__________________________________________________________________________________________________
gru_25 (GRU)                    (None, 74)           84582       embedding_43[0][0]               
__________________________________________________________________________________________________
gru_26 (GRU)                    (None, 88)           34584       embedding_44[0][0]               
__________________________________________________________________________________________________
dropout_64 (Dropout)            (None, 74)           0           gru_25[0][0]                     
__________________________________________________________________________________________________
dropout_65 (Dropout)            (None, 88)           0           gru_26[0][0]                     
__________________________________________________________________________________________________
concatenate_22 (Concatenate)    (None, 162)          0           dropout_64[0][0]                 
                                                                 dropout_65[0][0]                 
__________________________________________________________________________________________________
dense_43 (Dense)                (None, 91)           14833       concatenate_22[0][0]             
__________________________________________________________________________________________________
dropout_66 (Dropout)            (None, 91)           0           dense_43[0][0]                   
__________________________________________________________________________________________________
dense_44 (Dense)                (None, 4)            368         dropout_66[0][0]                 
==================================================================================================
Total params: 1,991,055
Trainable params: 1,991,055
Non-trainable params: 0
__________________________________________________________________________________________________
None
==================================================================================================
…
	MWE occurrences: 553
	Continuous occurrences: 59.0 %
	MWE length: 2.25
	Seen occurrences : 62% 
	Recognizable MWEs: 98.0 %
	Embedded occurrences: 4
	Interleaving occurrences: 8

==================================================================================================
__________________________________________________________________________________________________
Layer (type)                    Output Shape         Param #     Connected to                     
==================================================================================================
input_45 (InputLayer)           (None, 10)           0                                            
__________________________________________________________________________________________________
input_46 (InputLayer)           (None, 10)           0                                            
__________________________________________________________________________________________________
embedding_45 (Embedding)        (None, 10, 306)      1777860     input_45[0][0]                   
__________________________________________________________________________________________________
embedding_46 (Embedding)        (None, 10, 42)       798         input_46[0][0]                   
__________________________________________________________________________________________________
gru_27 (GRU)                    (None, 74)           84582       embedding_45[0][0]               
__________________________________________________________________________________________________
gru_28 (GRU)                    (None, 88)           34584       embedding_46[0][0]               
__________________________________________________________________________________________________
dropout_67 (Dropout)            (None, 74)           0           gru_27[0][0]                     
__________________________________________________________________________________________________
dropout_68 (Dropout)            (None, 88)           0           gru_28[0][0]                     
__________________________________________________________________________________________________
concatenate_23 (Concatenate)    (None, 162)          0           dropout_67[0][0]                 
                                                                 dropout_68[0][0]                 
__________________________________________________________________________________________________
dense_45 (Dense)                (None, 91)           14833       concatenate_23[0][0]             
__________________________________________________________________________________________________
dropout_69 (Dropout)            (None, 91)           0           dense_45[0][0]                   
__________________________________________________________________________________________________
dense_46 (Dense)                (None, 4)            368         dropout_69[0][0]                 
==================================================================================================
Total params: 1,913,025
Trainable params: 1,913,025
Non-trainable params: 0
__________________________________________________________________________________________________
None
==================================================================================================
…
	Important sentence: 385
	Token occurrences: 27196
	MWE number: 418
	MWE occurrences: 510
	Continuous occurrences: 50.0 %
	MWE length: 2.07
	Seen occurrences : 43% 
	Recognizable MWEs: 100.0 %

==================================================================================================
__________________________________________________________________________________________________
Layer (type)                    Output Shape         Param #     Connected to                     
==================================================================================================
input_47 (InputLayer)           (None, 10)           0                                            
__________________________________________________________________________________________________
input_48 (InputLayer)           (None, 10)           0                                            
__________________________________________________________________________________________________
embedding_47 (Embedding)        (None, 10, 306)      3328668     input_47[0][0]                   
__________________________________________________________________________________________________
embedding_48 (Embedding)        (None, 10, 42)       588         input_48[0][0]                   
__________________________________________________________________________________________________
gru_29 (GRU)                    (None, 74)           84582       embedding_47[0][0]               
__________________________________________________________________________________________________
gru_30 (GRU)                    (None, 88)           34584       embedding_48[0][0]               
__________________________________________________________________________________________________
dropout_70 (Dropout)            (None, 74)           0           gru_29[0][0]                     
__________________________________________________________________________________________________
dropout_71 (Dropout)            (None, 88)           0           gru_30[0][0]                     
__________________________________________________________________________________________________
concatenate_24 (Concatenate)    (None, 162)          0           dropout_70[0][0]                 
                                                                 dropout_71[0][0]                 
__________________________________________________________________________________________________
dense_47 (Dense)                (None, 91)           14833       concatenate_24[0][0]             
__________________________________________________________________________________________________
dropout_72 (Dropout)            (None, 91)           0           dense_47[0][0]                   
__________________________________________________________________________________________________
dense_48 (Dense)                (None, 4)            368         dropout_72[0][0]                 
==================================================================================================
Total params: 3,463,623
Trainable params: 3,463,623
Non-trainable params: 0
__________________________________________________________________________________________________
None
==================================================================================================
…
	Token occurrences: 42020
	MWE number: 451
	MWE occurrences: 670
	Continuous occurrences: 75.0 %
	MWE length: 2.14
	Seen occurrences : 57% 
	Recognizable MWEs: 100.0 %
	MWT occurrences: 1

==================================================================================================
__________________________________________________________________________________________________
Layer (type)                    Output Shape         Param #     Connected to                     
==================================================================================================
input_49 (InputLayer)           (None, 11)           0                                            
__________________________________________________________________________________________________
input_50 (InputLayer)           (None, 11)           0                                            
__________________________________________________________________________________________________
embedding_49 (Embedding)        (None, 11, 382)      2316830     input_49[0][0]                   
__________________________________________________________________________________________________
embedding_50 (Embedding)        (None, 11, 68)       1292        input_50[0][0]                   
__________________________________________________________________________________________________
lstm_19 (LSTM)                  (None, 118)          236472      embedding_49[0][0]               
__________________________________________________________________________________________________
lstm_20 (LSTM)                  (None, 39)           16848       embedding_50[0][0]               
__________________________________________________________________________________________________
dropout_73 (Dropout)            (None, 118)          0           lstm_19[0][0]                    
__________________________________________________________________________________________________
dropout_74 (Dropout)            (None, 39)           0           lstm_20[0][0]                    
__________________________________________________________________________________________________
concatenate_25 (Concatenate)    (None, 157)          0           dropout_73[0][0]                 
                                                                 dropout_74[0][0]                 
__________________________________________________________________________________________________
dense_49 (Dense)                (None, 126)          19908       concatenate_25[0][0]             
__________________________________________________________________________________________________
dropout_75 (Dropout)            (None, 126)          0           dense_49[0][0]                   
__________________________________________________________________________________________________
dense_50 (Dense)                (None, 4)            508         dropout_75[0][0]                 
==================================================================================================
Total params: 2,591,858
Trainable params: 2,591,858
Non-trainable params: 0
__________________________________________________________________________________________________
None
==================================================================================================
…
	MWE occurrences: 553
	Continuous occurrences: 59.0 %
	MWE length: 2.25
	Seen occurrences : 62% 
	Recognizable MWEs: 98.0 %
	Embedded occurrences: 4
	Interleaving occurrences: 8

==================================================================================================
__________________________________________________________________________________________________
Layer (type)                    Output Shape         Param #     Connected to                     
==================================================================================================
input_51 (InputLayer)           (None, 11)           0                                            
__________________________________________________________________________________________________
input_52 (InputLayer)           (None, 11)           0                                            
__________________________________________________________________________________________________
embedding_51 (Embedding)        (None, 11, 382)      2219420     input_51[0][0]                   
__________________________________________________________________________________________________
embedding_52 (Embedding)        (None, 11, 68)       1292        input_52[0][0]                   
__________________________________________________________________________________________________
lstm_21 (LSTM)                  (None, 118)          236472      embedding_51[0][0]               
__________________________________________________________________________________________________
lstm_22 (LSTM)                  (None, 39)           16848       embedding_52[0][0]               
__________________________________________________________________________________________________
dropout_76 (Dropout)            (None, 118)          0           lstm_21[0][0]                    
__________________________________________________________________________________________________
dropout_77 (Dropout)            (None, 39)           0           lstm_22[0][0]                    
__________________________________________________________________________________________________
concatenate_26 (Concatenate)    (None, 157)          0           dropout_76[0][0]                 
                                                                 dropout_77[0][0]                 
__________________________________________________________________________________________________
dense_51 (Dense)                (None, 126)          19908       concatenate_26[0][0]             
__________________________________________________________________________________________________
dropout_78 (Dropout)            (None, 126)          0           dense_51[0][0]                   
__________________________________________________________________________________________________
dense_52 (Dense)                (None, 4)            508         dropout_78[0][0]                 
==================================================================================================
Total params: 2,494,448
Trainable params: 2,494,448
Non-trainable params: 0
__________________________________________________________________________________________________
None
==================================================================================================
…
	Important sentence: 385
	Token occurrences: 27196
	MWE number: 418
	MWE occurrences: 510
	Continuous occurrences: 50.0 %
	MWE length: 2.07
	Seen occurrences : 43% 
	Recognizable MWEs: 100.0 %

==================================================================================================
__________________________________________________________________________________________________
Layer (type)                    Output Shape         Param #     Connected to                     
==================================================================================================
input_53 (InputLayer)           (None, 11)           0                                            
__________________________________________________________________________________________________
input_54 (InputLayer)           (None, 11)           0                                            
__________________________________________________________________________________________________
embedding_53 (Embedding)        (None, 11, 382)      4155396     input_53[0][0]                   
__________________________________________________________________________________________________
embedding_54 (Embedding)        (None, 11, 68)       952         input_54[0][0]                   
__________________________________________________________________________________________________
lstm_23 (LSTM)                  (None, 118)          236472      embedding_53[0][0]               
__________________________________________________________________________________________________
lstm_24 (LSTM)                  (None, 39)           16848       embedding_54[0][0]               
__________________________________________________________________________________________________
dropout_79 (Dropout)            (None, 118)          0           lstm_23[0][0]                    
__________________________________________________________________________________________________
dropout_80 (Dropout)            (None, 39)           0           lstm_24[0][0]                    
__________________________________________________________________________________________________
concatenate_27 (Concatenate)    (None, 157)          0           dropout_79[0][0]                 
                                                                 dropout_80[0][0]                 
__________________________________________________________________________________________________
dense_53 (Dense)                (None, 126)          19908       concatenate_27[0][0]             
__________________________________________________________________________________________________
dropout_81 (Dropout)            (None, 126)          0           dense_53[0][0]                   
__________________________________________________________________________________________________
dense_54 (Dense)                (None, 4)            508         dropout_81[0][0]                 
==================================================================================================
Total params: 4,430,084
Trainable params: 4,430,084
Non-trainable params: 0
__________________________________________________________________________________________________
None
==================================================================================================
…
	Token occurrences: 42020
	MWE number: 451
	MWE occurrences: 670
	Continuous occurrences: 75.0 %
	MWE length: 2.14
	Seen occurrences : 57% 
	Recognizable MWEs: 100.0 %
	MWT occurrences: 1

==================================================================================================
__________________________________________________________________________________________________
Layer (type)                    Output Shape         Param #     Connected to                     
==================================================================================================
input_55 (InputLayer)           (None, 10)           0                                            
__________________________________________________________________________________________________
input_56 (InputLayer)           (None, 10)           0                                            
__________________________________________________________________________________________________
embedding_55 (Embedding)        (None, 10, 558)      3384270     input_55[0][0]                   
__________________________________________________________________________________________________
embedding_56 (Embedding)        (None, 10, 34)       646         input_56[0][0]                   
__________________________________________________________________________________________________
gru_31 (GRU)                    (None, 144)          303696      embedding_55[0][0]               
__________________________________________________________________________________________________
gru_32 (GRU)                    (None, 175)          110250      embedding_56[0][0]               
__________________________________________________________________________________________________
dropout_82 (Dropout)            (None, 144)          0           gru_31[0][0]                     
__________________________________________________________________________________________________
dropout_83 (Dropout)            (None, 175)          0           gru_32[0][0]                     
__________________________________________________________________________________________________
concatenate_28 (Concatenate)    (None, 319)          0           dropout_82[0][0]                 
                                                                 dropout_83[0][0]                 
__________________________________________________________________________________________________
dense_55 (Dense)                (None, 74)           23680       concatenate_28[0][0]             
__________________________________________________________________________________________________
dropout_84 (Dropout)            (None, 74)           0           dense_55[0][0]                   
__________________________________________________________________________________________________
dense_56 (Dense)                (None, 4)            300         dropout_84[0][0]                 
==================================================================================================
Total params: 3,822,842
Trainable params: 3,822,842
Non-trainable params: 0
__________________________________________________________________________________________________
None
==================================================================================================
…
	MWE occurrences: 553
	Continuous occurrences: 59.0 %
	MWE length: 2.25
	Seen occurrences : 62% 
	Recognizable MWEs: 98.0 %
	Embedded occurrences: 4
	Interleaving occurrences: 8

==================================================================================================
__________________________________________________________________________________________________
Layer (type)                    Output Shape         Param #     Connected to                     
==================================================================================================
input_57 (InputLayer)           (None, 10)           0                                            
__________________________________________________________________________________________________
input_58 (InputLayer)           (None, 10)           0                                            
__________________________________________________________________________________________________
embedding_57 (Embedding)        (None, 10, 558)      3241980     input_57[0][0]                   
__________________________________________________________________________________________________
embedding_58 (Embedding)        (None, 10, 34)       646         input_58[0][0]                   
__________________________________________________________________________________________________
gru_33 (GRU)                    (None, 144)          303696      embedding_57[0][0]               
__________________________________________________________________________________________________
gru_34 (GRU)                    (None, 175)          110250      embedding_58[0][0]               
__________________________________________________________________________________________________
dropout_85 (Dropout)            (None, 144)          0           gru_33[0][0]                     
__________________________________________________________________________________________________
dropout_86 (Dropout)            (None, 175)          0           gru_34[0][0]                     
__________________________________________________________________________________________________
concatenate_29 (Concatenate)    (None, 319)          0           dropout_85[0][0]                 
                                                                 dropout_86[0][0]                 
__________________________________________________________________________________________________
dense_57 (Dense)                (None, 74)           23680       concatenate_29[0][0]             
__________________________________________________________________________________________________
dropout_87 (Dropout)            (None, 74)           0           dense_57[0][0]                   
__________________________________________________________________________________________________
dense_58 (Dense)                (None, 4)            300         dropout_87[0][0]                 
==================================================================================================
Total params: 3,680,552
Trainable params: 3,680,552
Non-trainable params: 0
__________________________________________________________________________________________________
None
==================================================================================================
…
	Important sentence: 385
	Token occurrences: 27196
	MWE number: 418
	MWE occurrences: 510
	Continuous occurrences: 50.0 %
	MWE length: 2.07
	Seen occurrences : 43% 
	Recognizable MWEs: 100.0 %

==================================================================================================
__________________________________________________________________________________________________
Layer (type)                    Output Shape         Param #     Connected to                     
==================================================================================================
input_59 (InputLayer)           (None, 10)           0                                            
__________________________________________________________________________________________________
input_60 (InputLayer)           (None, 10)           0                                            
__________________________________________________________________________________________________
embedding_59 (Embedding)        (None, 10, 558)      6069924     input_59[0][0]                   
__________________________________________________________________________________________________
embedding_60 (Embedding)        (None, 10, 34)       476         input_60[0][0]                   
__________________________________________________________________________________________________
gru_35 (GRU)                    (None, 144)          303696      embedding_59[0][0]               
__________________________________________________________________________________________________
gru_36 (GRU)                    (None, 175)          110250      embedding_60[0][0]               
__________________________________________________________________________________________________
dropout_88 (Dropout)            (None, 144)          0           gru_35[0][0]                     
__________________________________________________________________________________________________
dropout_89 (Dropout)            (None, 175)          0           gru_36[0][0]                     
__________________________________________________________________________________________________
concatenate_30 (Concatenate)    (None, 319)          0           dropout_88[0][0]                 
                                                                 dropout_89[0][0]                 
__________________________________________________________________________________________________
dense_59 (Dense)                (None, 74)           23680       concatenate_30[0][0]             
__________________________________________________________________________________________________
dropout_90 (Dropout)            (None, 74)           0           dense_59[0][0]                   
__________________________________________________________________________________________________
dense_60 (Dense)                (None, 4)            300         dropout_90[0][0]                 
==================================================================================================
Total params: 6,508,326
Trainable params: 6,508,326
Non-trainable params: 0
__________________________________________________________________________________________________
None
==================================================================================================
…
	Token occurrences: 42020
	MWE number: 451
	MWE occurrences: 670
	Continuous occurrences: 75.0 %
	MWE length: 2.14
	Seen occurrences : 57% 
	Recognizable MWEs: 100.0 %
	MWT occurrences: 1

==================================================================================================
__________________________________________________________________________________________________
Layer (type)                    Output Shape         Param #     Connected to                     
==================================================================================================
input_61 (InputLayer)           (None, 7)            0                                            
__________________________________________________________________________________________________
input_62 (InputLayer)           (None, 7)            0                                            
__________________________________________________________________________________________________
embedding_61 (Embedding)        (None, 7, 526)       3190190     input_61[0][0]                   
__________________________________________________________________________________________________
embedding_62 (Embedding)        (None, 7, 67)        1273        input_62[0][0]                   
__________________________________________________________________________________________________
gru_37 (GRU)                    (None, 148)          299700      embedding_61[0][0]               
__________________________________________________________________________________________________
gru_38 (GRU)                    (None, 180)          133920      embedding_62[0][0]               
__________________________________________________________________________________________________
dropout_91 (Dropout)            (None, 148)          0           gru_37[0][0]                     
__________________________________________________________________________________________________
dropout_92 (Dropout)            (None, 180)          0           gru_38[0][0]                     
__________________________________________________________________________________________________
concatenate_31 (Concatenate)    (None, 328)          0           dropout_91[0][0]                 
                                                                 dropout_92[0][0]                 
__________________________________________________________________________________________________
dense_61 (Dense)                (None, 33)           10857       concatenate_31[0][0]             
__________________________________________________________________________________________________
dropout_93 (Dropout)            (None, 33)           0           dense_61[0][0]                   
__________________________________________________________________________________________________
dense_62 (Dense)                (None, 4)            136         dropout_93[0][0]                 
==================================================================================================
Total params: 3,636,076
Trainable params: 3,636,076
Non-trainable params: 0
__________________________________________________________________________________________________
None
==================================================================================================
…
	MWE occurrences: 553
	Continuous occurrences: 59.0 %
	MWE length: 2.25
	Seen occurrences : 62% 
	Recognizable MWEs: 98.0 %
	Embedded occurrences: 4
	Interleaving occurrences: 8

==================================================================================================
__________________________________________________________________________________________________
Layer (type)                    Output Shape         Param #     Connected to                     
==================================================================================================
input_63 (InputLayer)           (None, 7)            0                                            
__________________________________________________________________________________________________
input_64 (InputLayer)           (None, 7)            0                                            
__________________________________________________________________________________________________
embedding_63 (Embedding)        (None, 7, 526)       3056060     input_63[0][0]                   
__________________________________________________________________________________________________
embedding_64 (Embedding)        (None, 7, 67)        1273        input_64[0][0]                   
__________________________________________________________________________________________________
gru_39 (GRU)                    (None, 148)          299700      embedding_63[0][0]               
__________________________________________________________________________________________________
gru_40 (GRU)                    (None, 180)          133920      embedding_64[0][0]               
__________________________________________________________________________________________________
dropout_94 (Dropout)            (None, 148)          0           gru_39[0][0]                     
__________________________________________________________________________________________________
dropout_95 (Dropout)            (None, 180)          0           gru_40[0][0]                     
__________________________________________________________________________________________________
concatenate_32 (Concatenate)    (None, 328)          0           dropout_94[0][0]                 
                                                                 dropout_95[0][0]                 
__________________________________________________________________________________________________
dense_63 (Dense)                (None, 33)           10857       concatenate_32[0][0]             
__________________________________________________________________________________________________
dropout_96 (Dropout)            (None, 33)           0           dense_63[0][0]                   
__________________________________________________________________________________________________
dense_64 (Dense)                (None, 4)            136         dropout_96[0][0]                 
==================================================================================================
Total params: 3,501,946
Trainable params: 3,501,946
Non-trainable params: 0
__________________________________________________________________________________________________
None
==================================================================================================
…
	Important sentence: 385
	Token occurrences: 27196
	MWE number: 418
	MWE occurrences: 510
	Continuous occurrences: 50.0 %
	MWE length: 2.07
	Seen occurrences : 43% 
	Recognizable MWEs: 100.0 %

==================================================================================================
__________________________________________________________________________________________________
Layer (type)                    Output Shape         Param #     Connected to                     
==================================================================================================
input_65 (InputLayer)           (None, 7)            0                                            
__________________________________________________________________________________________________
input_66 (InputLayer)           (None, 7)            0                                            
__________________________________________________________________________________________________
embedding_65 (Embedding)        (None, 7, 526)       5721828     input_65[0][0]                   
__________________________________________________________________________________________________
embedding_66 (Embedding)        (None, 7, 67)        938         input_66[0][0]                   
__________________________________________________________________________________________________
gru_41 (GRU)                    (None, 148)          299700      embedding_65[0][0]               
__________________________________________________________________________________________________
gru_42 (GRU)                    (None, 180)          133920      embedding_66[0][0]               
__________________________________________________________________________________________________
dropout_97 (Dropout)            (None, 148)          0           gru_41[0][0]                     
__________________________________________________________________________________________________
dropout_98 (Dropout)            (None, 180)          0           gru_42[0][0]                     
__________________________________________________________________________________________________
concatenate_33 (Concatenate)    (None, 328)          0           dropout_97[0][0]                 
                                                                 dropout_98[0][0]                 
__________________________________________________________________________________________________
dense_65 (Dense)                (None, 33)           10857       concatenate_33[0][0]             
__________________________________________________________________________________________________
dropout_99 (Dropout)            (None, 33)           0           dense_65[0][0]                   
__________________________________________________________________________________________________
dense_66 (Dense)                (None, 4)            136         dropout_99[0][0]                 
==================================================================================================
Total params: 6,167,379
Trainable params: 6,167,379
Non-trainable params: 0
__________________________________________________________________________________________________
None
==================================================================================================
…
	Token occurrences: 42020
	MWE number: 451
	MWE occurrences: 670
	Continuous occurrences: 75.0 %
	MWE length: 2.14
	Seen occurrences : 57% 
	Recognizable MWEs: 100.0 %
	MWT occurrences: 1

==================================================================================================
__________________________________________________________________________________________________
Layer (type)                    Output Shape         Param #     Connected to                     
==================================================================================================
input_67 (InputLayer)           (None, 8)            0                                            
__________________________________________________________________________________________________
input_68 (InputLayer)           (None, 8)            0                                            
__________________________________________________________________________________________________
embedding_67 (Embedding)        (None, 8, 355)       178565      input_67[0][0]                   
__________________________________________________________________________________________________
embedding_68 (Embedding)        (None, 8, 70)        1330        input_68[0][0]                   
__________________________________________________________________________________________________
lstm_25 (LSTM)                  (None, 54)           88560       embedding_67[0][0]               
__________________________________________________________________________________________________
lstm_26 (LSTM)                  (None, 176)          173888      embedding_68[0][0]               
__________________________________________________________________________________________________
dropout_100 (Dropout)           (None, 54)           0           lstm_25[0][0]                    
__________________________________________________________________________________________________
dropout_101 (Dropout)           (None, 176)          0           lstm_26[0][0]                    
__________________________________________________________________________________________________
concatenate_34 (Concatenate)    (None, 230)          0           dropout_100[0][0]                
                                                                 dropout_101[0][0]                
__________________________________________________________________________________________________
dense_67 (Dense)                (None, 137)          31647       concatenate_34[0][0]             
__________________________________________________________________________________________________
dropout_102 (Dropout)           (None, 137)          0           dense_67[0][0]                   
__________________________________________________________________________________________________
dense_68 (Dense)                (None, 4)            552         dropout_102[0][0]                
==================================================================================================
Total params: 474,542
Trainable params: 474,542
Non-trainable params: 0
__________________________________________________________________________________________________
None
==================================================================================================
…
	MWE occurrences: 553
	Continuous occurrences: 59.0 %
	MWE length: 2.25
	Seen occurrences : 62% 
	Recognizable MWEs: 98.0 %
	Embedded occurrences: 4
	Interleaving occurrences: 8

==================================================================================================
__________________________________________________________________________________________________
Layer (type)                    Output Shape         Param #     Connected to                     
==================================================================================================
input_69 (InputLayer)           (None, 8)            0                                            
__________________________________________________________________________________________________
input_70 (InputLayer)           (None, 8)            0                                            
__________________________________________________________________________________________________
embedding_69 (Embedding)        (None, 8, 355)       338315      input_69[0][0]                   
__________________________________________________________________________________________________
embedding_70 (Embedding)        (None, 8, 70)        1330        input_70[0][0]                   
__________________________________________________________________________________________________
lstm_27 (LSTM)                  (None, 54)           88560       embedding_69[0][0]               
__________________________________________________________________________________________________
lstm_28 (LSTM)                  (None, 176)          173888      embedding_70[0][0]               
__________________________________________________________________________________________________
dropout_103 (Dropout)           (None, 54)           0           lstm_27[0][0]                    
__________________________________________________________________________________________________
dropout_104 (Dropout)           (None, 176)          0           lstm_28[0][0]                    
__________________________________________________________________________________________________
concatenate_35 (Concatenate)    (None, 230)          0           dropout_103[0][0]                
                                                                 dropout_104[0][0]                
__________________________________________________________________________________________________
dense_69 (Dense)                (None, 137)          31647       concatenate_35[0][0]             
__________________________________________________________________________________________________
dropout_105 (Dropout)           (None, 137)          0           dense_69[0][0]                   
__________________________________________________________________________________________________
dense_70 (Dense)                (None, 4)            552         dropout_105[0][0]                
==================================================================================================
Total params: 634,292
Trainable params: 634,292
Non-trainable params: 0
__________________________________________________________________________________________________
None
==================================================================================================
…
	Important sentence: 385
	Token occurrences: 27196
	MWE number: 418
	MWE occurrences: 510
	Continuous occurrences: 50.0 %
	MWE length: 2.07
	Seen occurrences : 43% 
	Recognizable MWEs: 100.0 %

==================================================================================================
__________________________________________________________________________________________________
Layer (type)                    Output Shape         Param #     Connected to                     
==================================================================================================
input_71 (InputLayer)           (None, 8)            0                                            
__________________________________________________________________________________________________
input_72 (InputLayer)           (None, 8)            0                                            
__________________________________________________________________________________________________
embedding_71 (Embedding)        (None, 8, 355)       690475      input_71[0][0]                   
__________________________________________________________________________________________________
embedding_72 (Embedding)        (None, 8, 70)        980         input_72[0][0]                   
__________________________________________________________________________________________________
lstm_29 (LSTM)                  (None, 54)           88560       embedding_71[0][0]               
__________________________________________________________________________________________________
lstm_30 (LSTM)                  (None, 176)          173888      embedding_72[0][0]               
__________________________________________________________________________________________________
dropout_106 (Dropout)           (None, 54)           0           lstm_29[0][0]                    
__________________________________________________________________________________________________
dropout_107 (Dropout)           (None, 176)          0           lstm_30[0][0]                    
__________________________________________________________________________________________________
concatenate_36 (Concatenate)    (None, 230)          0           dropout_106[0][0]                
                                                                 dropout_107[0][0]                
__________________________________________________________________________________________________
dense_71 (Dense)                (None, 137)          31647       concatenate_36[0][0]             
__________________________________________________________________________________________________
dropout_108 (Dropout)           (None, 137)          0           dense_71[0][0]                   
__________________________________________________________________________________________________
dense_72 (Dense)                (None, 4)            552         dropout_108[0][0]                
==================================================================================================
Total params: 986,102
Trainable params: 986,102
Non-trainable params: 0
__________________________________________________________________________________________________
None
==================================================================================================
…
	Token occurrences: 42020
	MWE number: 451
	MWE occurrences: 670
	Continuous occurrences: 75.0 %
	MWE length: 2.14
	Seen occurrences : 57% 
	Recognizable MWEs: 100.0 %
	MWT occurrences: 1

==================================================================================================
__________________________________________________________________________________________________
Layer (type)                    Output Shape         Param #     Connected to                     
==================================================================================================
input_73 (InputLayer)           (None, 10)           0                                            
__________________________________________________________________________________________________
input_74 (InputLayer)           (None, 10)           0                                            
__________________________________________________________________________________________________
embedding_73 (Embedding)        (None, 10, 385)      2335025     input_73[0][0]                   
__________________________________________________________________________________________________
embedding_74 (Embedding)        (None, 10, 47)       893         input_74[0][0]                   
__________________________________________________________________________________________________
lstm_31 (LSTM)                  (None, 105)          206220      embedding_73[0][0]               
__________________________________________________________________________________________________
lstm_32 (LSTM)                  (None, 186)          174096      embedding_74[0][0]               
__________________________________________________________________________________________________
dropout_109 (Dropout)           (None, 105)          0           lstm_31[0][0]                    
__________________________________________________________________________________________________
dropout_110 (Dropout)           (None, 186)          0           lstm_32[0][0]                    
__________________________________________________________________________________________________
concatenate_37 (Concatenate)    (None, 291)          0           dropout_109[0][0]                
                                                                 dropout_110[0][0]                
__________________________________________________________________________________________________
dense_73 (Dense)                (None, 11)           3212        concatenate_37[0][0]             
__________________________________________________________________________________________________
dropout_111 (Dropout)           (None, 11)           0           dense_73[0][0]                   
__________________________________________________________________________________________________
dense_74 (Dense)                (None, 4)            48          dropout_111[0][0]                
==================================================================================================
Total params: 2,719,494
Trainable params: 2,719,494
Non-trainable params: 0
__________________________________________________________________________________________________
None
==================================================================================================
…
	MWE occurrences: 553
	Continuous occurrences: 59.0 %
	MWE length: 2.25
	Seen occurrences : 62% 
	Recognizable MWEs: 98.0 %
	Embedded occurrences: 4
	Interleaving occurrences: 8

==================================================================================================
__________________________________________________________________________________________________
Layer (type)                    Output Shape         Param #     Connected to                     
==================================================================================================
input_75 (InputLayer)           (None, 10)           0                                            
__________________________________________________________________________________________________
input_76 (InputLayer)           (None, 10)           0                                            
__________________________________________________________________________________________________
embedding_75 (Embedding)        (None, 10, 385)      2236850     input_75[0][0]                   
__________________________________________________________________________________________________
embedding_76 (Embedding)        (None, 10, 47)       893         input_76[0][0]                   
__________________________________________________________________________________________________
lstm_33 (LSTM)                  (None, 105)          206220      embedding_75[0][0]               
__________________________________________________________________________________________________
lstm_34 (LSTM)                  (None, 186)          174096      embedding_76[0][0]               
__________________________________________________________________________________________________
dropout_112 (Dropout)           (None, 105)          0           lstm_33[0][0]                    
__________________________________________________________________________________________________
dropout_113 (Dropout)           (None, 186)          0           lstm_34[0][0]                    
__________________________________________________________________________________________________
concatenate_38 (Concatenate)    (None, 291)          0           dropout_112[0][0]                
                                                                 dropout_113[0][0]                
__________________________________________________________________________________________________
dense_75 (Dense)                (None, 11)           3212        concatenate_38[0][0]             
__________________________________________________________________________________________________
dropout_114 (Dropout)           (None, 11)           0           dense_75[0][0]                   
__________________________________________________________________________________________________
dense_76 (Dense)                (None, 4)            48          dropout_114[0][0]                
==================================================================================================
Total params: 2,621,319
Trainable params: 2,621,319
Non-trainable params: 0
__________________________________________________________________________________________________
None
==================================================================================================
…
	Important sentence: 385
	Token occurrences: 27196
	MWE number: 418
	MWE occurrences: 510
	Continuous occurrences: 50.0 %
	MWE length: 2.07
	Seen occurrences : 43% 
	Recognizable MWEs: 100.0 %

==================================================================================================
__________________________________________________________________________________________________
Layer (type)                    Output Shape         Param #     Connected to                     
==================================================================================================
input_77 (InputLayer)           (None, 10)           0                                            
__________________________________________________________________________________________________
input_78 (InputLayer)           (None, 10)           0                                            
__________________________________________________________________________________________________
embedding_77 (Embedding)        (None, 10, 385)      4188030     input_77[0][0]                   
__________________________________________________________________________________________________
embedding_78 (Embedding)        (None, 10, 47)       658         input_78[0][0]                   
__________________________________________________________________________________________________
lstm_35 (LSTM)                  (None, 105)          206220      embedding_77[0][0]               
__________________________________________________________________________________________________
lstm_36 (LSTM)                  (None, 186)          174096      embedding_78[0][0]               
__________________________________________________________________________________________________
dropout_115 (Dropout)           (None, 105)          0           lstm_35[0][0]                    
__________________________________________________________________________________________________
dropout_116 (Dropout)           (None, 186)          0           lstm_36[0][0]                    
__________________________________________________________________________________________________
concatenate_39 (Concatenate)    (None, 291)          0           dropout_115[0][0]                
                                                                 dropout_116[0][0]                
__________________________________________________________________________________________________
dense_77 (Dense)                (None, 11)           3212        concatenate_39[0][0]             
__________________________________________________________________________________________________
dropout_117 (Dropout)           (None, 11)           0           dense_77[0][0]                   
__________________________________________________________________________________________________
dense_78 (Dense)                (None, 4)            48          dropout_117[0][0]                
==================================================================================================
Total params: 4,572,264
Trainable params: 4,572,264
Non-trainable params: 0
__________________________________________________________________________________________________
None
==================================================================================================
…
	Token occurrences: 42020
	MWE number: 451
	MWE occurrences: 670
	Continuous occurrences: 75.0 %
	MWE length: 2.14
	Seen occurrences : 57% 
	Recognizable MWEs: 100.0 %
	MWT occurrences: 1

==================================================================================================
__________________________________________________________________________________________________
Layer (type)                    Output Shape         Param #     Connected to                     
==================================================================================================
input_79 (InputLayer)           (None, 8)            0                                            
__________________________________________________________________________________________________
input_80 (InputLayer)           (None, 8)            0                                            
__________________________________________________________________________________________________
embedding_79 (Embedding)        (None, 8, 258)       1564770     input_79[0][0]                   
__________________________________________________________________________________________________
embedding_80 (Embedding)        (None, 8, 25)        475         input_80[0][0]                   
__________________________________________________________________________________________________
gru_43 (GRU)                    (None, 8, 104)       113256      embedding_79[0][0]               
__________________________________________________________________________________________________
gru_44 (GRU)                    (None, 8, 59)        15045       embedding_80[0][0]               
__________________________________________________________________________________________________
flatten_13 (Flatten)            (None, 832)          0           gru_43[0][0]                     
__________________________________________________________________________________________________
flatten_14 (Flatten)            (None, 472)          0           gru_44[0][0]                     
__________________________________________________________________________________________________
dropout_118 (Dropout)           (None, 832)          0           flatten_13[0][0]                 
__________________________________________________________________________________________________
dropout_119 (Dropout)           (None, 472)          0           flatten_14[0][0]                 
__________________________________________________________________________________________________
concatenate_40 (Concatenate)    (None, 1304)         0           dropout_118[0][0]                
                                                                 dropout_119[0][0]                
__________________________________________________________________________________________________
dense_79 (Dense)                (None, 54)           70470       concatenate_40[0][0]             
__________________________________________________________________________________________________
dropout_120 (Dropout)           (None, 54)           0           dense_79[0][0]                   
__________________________________________________________________________________________________
dense_80 (Dense)                (None, 4)            220         dropout_120[0][0]                
==================================================================================================
Total params: 1,764,236
Trainable params: 1,764,236
Non-trainable params: 0
__________________________________________________________________________________________________
None
==================================================================================================
…
	MWE occurrences: 553
	Continuous occurrences: 59.0 %
	MWE length: 2.25
	Seen occurrences : 62% 
	Recognizable MWEs: 98.0 %
	Embedded occurrences: 4
	Interleaving occurrences: 8

==================================================================================================
__________________________________________________________________________________________________
Layer (type)                    Output Shape         Param #     Connected to                     
==================================================================================================
input_81 (InputLayer)           (None, 8)            0                                            
__________________________________________________________________________________________________
input_82 (InputLayer)           (None, 8)            0                                            
__________________________________________________________________________________________________
embedding_81 (Embedding)        (None, 8, 258)       1498980     input_81[0][0]                   
__________________________________________________________________________________________________
embedding_82 (Embedding)        (None, 8, 25)        475         input_82[0][0]                   
__________________________________________________________________________________________________
gru_45 (GRU)                    (None, 8, 104)       113256      embedding_81[0][0]               
__________________________________________________________________________________________________
gru_46 (GRU)                    (None, 8, 59)        15045       embedding_82[0][0]               
__________________________________________________________________________________________________
flatten_15 (Flatten)            (None, 832)          0           gru_45[0][0]                     
__________________________________________________________________________________________________
flatten_16 (Flatten)            (None, 472)          0           gru_46[0][0]                     
__________________________________________________________________________________________________
dropout_121 (Dropout)           (None, 832)          0           flatten_15[0][0]                 
__________________________________________________________________________________________________
dropout_122 (Dropout)           (None, 472)          0           flatten_16[0][0]                 
__________________________________________________________________________________________________
concatenate_41 (Concatenate)    (None, 1304)         0           dropout_121[0][0]                
                                                                 dropout_122[0][0]                
__________________________________________________________________________________________________
dense_81 (Dense)                (None, 54)           70470       concatenate_41[0][0]             
__________________________________________________________________________________________________
dropout_123 (Dropout)           (None, 54)           0           dense_81[0][0]                   
__________________________________________________________________________________________________
dense_82 (Dense)                (None, 4)            220         dropout_123[0][0]                
==================================================================================================
Total params: 1,698,446
Trainable params: 1,698,446
Non-trainable params: 0
__________________________________________________________________________________________________
None
==================================================================================================
…
	Important sentence: 385
	Token occurrences: 27196
	MWE number: 418
	MWE occurrences: 510
	Continuous occurrences: 50.0 %
	MWE length: 2.07
	Seen occurrences : 43% 
	Recognizable MWEs: 100.0 %

==================================================================================================
__________________________________________________________________________________________________
Layer (type)                    Output Shape         Param #     Connected to                     
==================================================================================================
input_83 (InputLayer)           (None, 8)            0                                            
__________________________________________________________________________________________________
input_84 (InputLayer)           (None, 8)            0                                            
__________________________________________________________________________________________________
embedding_83 (Embedding)        (None, 8, 258)       2806524     input_83[0][0]                   
__________________________________________________________________________________________________
embedding_84 (Embedding)        (None, 8, 25)        350         input_84[0][0]                   
__________________________________________________________________________________________________
gru_47 (GRU)                    (None, 8, 104)       113256      embedding_83[0][0]               
__________________________________________________________________________________________________
gru_48 (GRU)                    (None, 8, 59)        15045       embedding_84[0][0]               
__________________________________________________________________________________________________
flatten_17 (Flatten)            (None, 832)          0           gru_47[0][0]                     
__________________________________________________________________________________________________
flatten_18 (Flatten)            (None, 472)          0           gru_48[0][0]                     
__________________________________________________________________________________________________
dropout_124 (Dropout)           (None, 832)          0           flatten_17[0][0]                 
__________________________________________________________________________________________________
dropout_125 (Dropout)           (None, 472)          0           flatten_18[0][0]                 
__________________________________________________________________________________________________
concatenate_42 (Concatenate)    (None, 1304)         0           dropout_124[0][0]                
                                                                 dropout_125[0][0]                
__________________________________________________________________________________________________
dense_83 (Dense)                (None, 54)           70470       concatenate_42[0][0]             
__________________________________________________________________________________________________
dropout_126 (Dropout)           (None, 54)           0           dense_83[0][0]                   
__________________________________________________________________________________________________
dense_84 (Dense)                (None, 4)            220         dropout_126[0][0]                
==================================================================================================
Total params: 3,005,865
Trainable params: 3,005,865
Non-trainable params: 0
__________________________________________________________________________________________________
None
==================================================================================================
…
	Token occurrences: 42020
	MWE number: 451
	MWE occurrences: 670
	Continuous occurrences: 75.0 %
	MWE length: 2.14
	Seen occurrences : 57% 
	Recognizable MWEs: 100.0 %
	MWT occurrences: 1

==================================================================================================
__________________________________________________________________________________________________
Layer (type)                    Output Shape         Param #     Connected to                     
==================================================================================================
input_85 (InputLayer)           (None, 9)            0                                            
__________________________________________________________________________________________________
input_86 (InputLayer)           (None, 9)            0                                            
__________________________________________________________________________________________________
embedding_85 (Embedding)        (None, 9, 525)       618450      input_85[0][0]                   
__________________________________________________________________________________________________
embedding_86 (Embedding)        (None, 9, 95)        1805        input_86[0][0]                   
__________________________________________________________________________________________________
lstm_37 (LSTM)                  (None, 136)          360128      embedding_85[0][0]               
__________________________________________________________________________________________________
lstm_38 (LSTM)                  (None, 86)           62608       embedding_86[0][0]               
__________________________________________________________________________________________________
dropout_127 (Dropout)           (None, 136)          0           lstm_37[0][0]                    
__________________________________________________________________________________________________
dropout_128 (Dropout)           (None, 86)           0           lstm_38[0][0]                    
__________________________________________________________________________________________________
concatenate_43 (Concatenate)    (None, 222)          0           dropout_127[0][0]                
                                                                 dropout_128[0][0]                
__________________________________________________________________________________________________
dense_85 (Dense)                (None, 38)           8474        concatenate_43[0][0]             
__________________________________________________________________________________________________
dropout_129 (Dropout)           (None, 38)           0           dense_85[0][0]                   
__________________________________________________________________________________________________
dense_86 (Dense)                (None, 4)            156         dropout_129[0][0]                
==================================================================================================
Total params: 1,051,621
Trainable params: 1,051,621
Non-trainable params: 0
__________________________________________________________________________________________________
None
==================================================================================================
…
	MWE occurrences: 553
	Continuous occurrences: 59.0 %
	MWE length: 2.25
	Seen occurrences : 62% 
	Recognizable MWEs: 98.0 %
	Embedded occurrences: 4
	Interleaving occurrences: 8

==================================================================================================
__________________________________________________________________________________________________
Layer (type)                    Output Shape         Param #     Connected to                     
==================================================================================================
input_87 (InputLayer)           (None, 9)            0                                            
__________________________________________________________________________________________________
input_88 (InputLayer)           (None, 9)            0                                            
__________________________________________________________________________________________________
embedding_87 (Embedding)        (None, 9, 525)       595350      input_87[0][0]                   
__________________________________________________________________________________________________
embedding_88 (Embedding)        (None, 9, 95)        1805        input_88[0][0]                   
__________________________________________________________________________________________________
lstm_39 (LSTM)                  (None, 136)          360128      embedding_87[0][0]               
__________________________________________________________________________________________________
lstm_40 (LSTM)                  (None, 86)           62608       embedding_88[0][0]               
__________________________________________________________________________________________________
dropout_130 (Dropout)           (None, 136)          0           lstm_39[0][0]                    
__________________________________________________________________________________________________
dropout_131 (Dropout)           (None, 86)           0           lstm_40[0][0]                    
__________________________________________________________________________________________________
concatenate_44 (Concatenate)    (None, 222)          0           dropout_130[0][0]                
                                                                 dropout_131[0][0]                
__________________________________________________________________________________________________
dense_87 (Dense)                (None, 38)           8474        concatenate_44[0][0]             
__________________________________________________________________________________________________
dropout_132 (Dropout)           (None, 38)           0           dense_87[0][0]                   
…
dense_634 (Dense)               (None, 4)            528         dropout_951[0][0]                
==================================================================================================
Total params: 3,009,072
Trainable params: 3,009,072
Non-trainable params: 0
__________________________________________________________________________________________________
None
==================================================================================================
…
	Important sentence: 385
	Token occurrences: 27196
	MWE number: 418
	MWE occurrences: 510
	Continuous occurrences: 50.0 %
	MWE length: 2.07
	Seen occurrences : 43% 
	Recognizable MWEs: 100.0 %

==================================================================================================
__________________________________________________________________________________________________
Layer (type)                    Output Shape         Param #     Connected to                     
==================================================================================================
input_635 (InputLayer)          (None, 10)           0                                            
__________________________________________________________________________________________________
input_636 (InputLayer)          (None, 10)           0                                            
__________________________________________________________________________________________________
embedding_635 (Embedding)       (None, 10, 384)      7048704     input_635[0][0]                  
__________________________________________________________________________________________________
embedding_636 (Embedding)       (None, 10, 47)       658         input_636[0][0]                  
__________________________________________________________________________________________________
gru_413 (GRU)                   (None, 70)           95550       embedding_635[0][0]              
__________________________________________________________________________________________________
gru_414 (GRU)                   (None, 159)          98739       embedding_636[0][0]              
__________________________________________________________________________________________________
dropout_952 (Dropout)           (None, 70)           0           gru_413[0][0]                    
__________________________________________________________________________________________________
dropout_953 (Dropout)           (None, 159)          0           gru_414[0][0]                    
__________________________________________________________________________________________________
concatenate_318 (Concatenate)   (None, 229)          0           dropout_952[0][0]                
                                                                 dropout_953[0][0]                
__________________________________________________________________________________________________
dense_635 (Dense)               (None, 131)          30130       concatenate_318[0][0]            
__________________________________________________________________________________________________
dropout_954 (Dropout)           (None, 131)          0           dense_635[0][0]                  
__________________________________________________________________________________________________
dense_636 (Dense)               (None, 4)            528         dropout_954[0][0]                
==================================================================================================
Total params: 7,274,309
Trainable params: 7,274,309
Non-trainable params: 0
__________________________________________________________________________________________________
None
==================================================================================================
…
	Token occurrences: 42020
	MWE number: 451
	MWE occurrences: 670
	Continuous occurrences: 75.0 %
	MWE length: 2.14
	Seen occurrences : 57% 
	Recognizable MWEs: 100.0 %
	MWT occurrences: 1

==================================================================================================
__________________________________________________________________________________________________
Layer (type)                    Output Shape         Param #     Connected to                     
==================================================================================================
input_637 (InputLayer)          (None, 7)            0                                            
__________________________________________________________________________________________________
input_638 (InputLayer)          (None, 7)            0                                            
__________________________________________________________________________________________________
embedding_637 (Embedding)       (None, 7, 520)       3153800     input_637[0][0]                  
__________________________________________________________________________________________________
embedding_638 (Embedding)       (None, 7, 35)        665         input_638[0][0]                  
__________________________________________________________________________________________________
gru_415 (GRU)                   (None, 7, 25)        40950       embedding_637[0][0]              
__________________________________________________________________________________________________
gru_416 (GRU)                   (None, 7, 189)       127575      embedding_638[0][0]              
__________________________________________________________________________________________________
flatten_151 (Flatten)           (None, 175)          0           gru_415[0][0]                    
__________________________________________________________________________________________________
flatten_152 (Flatten)           (None, 1323)         0           gru_416[0][0]                    
__________________________________________________________________________________________________
dropout_955 (Dropout)           (None, 175)          0           flatten_151[0][0]                
__________________________________________________________________________________________________
dropout_956 (Dropout)           (None, 1323)         0           flatten_152[0][0]                
__________________________________________________________________________________________________
concatenate_319 (Concatenate)   (None, 1498)         0           dropout_955[0][0]                
                                                                 dropout_956[0][0]                
__________________________________________________________________________________________________
dense_637 (Dense)               (None, 126)          188874      concatenate_319[0][0]            
__________________________________________________________________________________________________
dropout_957 (Dropout)           (None, 126)          0           dense_637[0][0]                  
__________________________________________________________________________________________________
dense_638 (Dense)               (None, 4)            508         dropout_957[0][0]                
==================================================================================================
Total params: 3,512,372
Trainable params: 3,512,372
Non-trainable params: 0
__________________________________________________________________________________________________
None
==================================================================================================
…
	MWE occurrences: 553
	Continuous occurrences: 59.0 %
	MWE length: 2.25
	Seen occurrences : 62% 
	Recognizable MWEs: 98.0 %
	Embedded occurrences: 4
	Interleaving occurrences: 8

==================================================================================================
__________________________________________________________________________________________________
Layer (type)                    Output Shape         Param #     Connected to                     
==================================================================================================
input_639 (InputLayer)          (None, 7)            0                                            
__________________________________________________________________________________________________
input_640 (InputLayer)          (None, 7)            0                                            
__________________________________________________________________________________________________
embedding_639 (Embedding)       (None, 7, 520)       3021200     input_639[0][0]                  
__________________________________________________________________________________________________
embedding_640 (Embedding)       (None, 7, 35)        665         input_640[0][0]                  
__________________________________________________________________________________________________
gru_417 (GRU)                   (None, 7, 25)        40950       embedding_639[0][0]              
__________________________________________________________________________________________________
gru_418 (GRU)                   (None, 7, 189)       127575      embedding_640[0][0]              
__________________________________________________________________________________________________
flatten_153 (Flatten)           (None, 175)          0           gru_417[0][0]                    
__________________________________________________________________________________________________
flatten_154 (Flatten)           (None, 1323)         0           gru_418[0][0]                    
__________________________________________________________________________________________________
dropout_958 (Dropout)           (None, 175)          0           flatten_153[0][0]                
__________________________________________________________________________________________________
dropout_959 (Dropout)           (None, 1323)         0           flatten_154[0][0]                
__________________________________________________________________________________________________
concatenate_320 (Concatenate)   (None, 1498)         0           dropout_958[0][0]                
                                                                 dropout_959[0][0]                
__________________________________________________________________________________________________
dense_639 (Dense)               (None, 126)          188874      concatenate_320[0][0]            
__________________________________________________________________________________________________
dropout_960 (Dropout)           (None, 126)          0           dense_639[0][0]                  
__________________________________________________________________________________________________
dense_640 (Dense)               (None, 4)            508         dropout_960[0][0]                
==================================================================================================
Total params: 3,379,772
Trainable params: 3,379,772
Non-trainable params: 0
__________________________________________________________________________________________________
None
==================================================================================================
…
	Important sentence: 385
	Token occurrences: 27196
	MWE number: 418
	MWE occurrences: 510
	Continuous occurrences: 50.0 %
	MWE length: 2.07
	Seen occurrences : 43% 
	Recognizable MWEs: 100.0 %

==================================================================================================
__________________________________________________________________________________________________
Layer (type)                    Output Shape         Param #     Connected to                     
==================================================================================================
input_641 (InputLayer)          (None, 7)            0                                            
__________________________________________________________________________________________________
input_642 (InputLayer)          (None, 7)            0                                            
__________________________________________________________________________________________________
embedding_641 (Embedding)       (None, 7, 520)       5656560     input_641[0][0]                  
__________________________________________________________________________________________________
embedding_642 (Embedding)       (None, 7, 35)        490         input_642[0][0]                  
__________________________________________________________________________________________________
gru_419 (GRU)                   (None, 7, 25)        40950       embedding_641[0][0]              
__________________________________________________________________________________________________
gru_420 (GRU)                   (None, 7, 189)       127575      embedding_642[0][0]              
__________________________________________________________________________________________________
flatten_155 (Flatten)           (None, 175)          0           gru_419[0][0]                    
__________________________________________________________________________________________________
flatten_156 (Flatten)           (None, 1323)         0           gru_420[0][0]                    
__________________________________________________________________________________________________
dropout_961 (Dropout)           (None, 175)          0           flatten_155[0][0]                
__________________________________________________________________________________________________
dropout_962 (Dropout)           (None, 1323)         0           flatten_156[0][0]                
__________________________________________________________________________________________________
concatenate_321 (Concatenate)   (None, 1498)         0           dropout_961[0][0]                
                                                                 dropout_962[0][0]                
__________________________________________________________________________________________________
dense_641 (Dense)               (None, 126)          188874      concatenate_321[0][0]            
__________________________________________________________________________________________________
dropout_963 (Dropout)           (None, 126)          0           dense_641[0][0]                  
__________________________________________________________________________________________________
dense_642 (Dense)               (None, 4)            508         dropout_963[0][0]                
==================================================================================================
Total params: 6,014,957
Trainable params: 6,014,957
Non-trainable params: 0
__________________________________________________________________________________________________
None
==================================================================================================
…
	Token occurrences: 42020
	MWE number: 451
	MWE occurrences: 670
	Continuous occurrences: 75.0 %
	MWE length: 2.14
	Seen occurrences : 57% 
	Recognizable MWEs: 100.0 %
	MWT occurrences: 1

==================================================================================================
__________________________________________________________________________________________________
Layer (type)                    Output Shape         Param #     Connected to                     
==================================================================================================
input_643 (InputLayer)          (None, 7)            0                                            
__________________________________________________________________________________________________
input_644 (InputLayer)          (None, 7)            0                                            
__________________________________________________________________________________________________
embedding_643 (Embedding)       (None, 7, 365)       183595      input_643[0][0]                  
__________________________________________________________________________________________________
embedding_644 (Embedding)       (None, 7, 30)        570         input_644[0][0]                  
__________________________________________________________________________________________________
gru_421 (GRU)                   (None, 7, 179)       292665      embedding_643[0][0]              
__________________________________________________________________________________________________
gru_422 (GRU)                   (None, 7, 102)       40698       embedding_644[0][0]              
__________________________________________________________________________________________________
flatten_157 (Flatten)           (None, 1253)         0           gru_421[0][0]                    
__________________________________________________________________________________________________
flatten_158 (Flatten)           (None, 714)          0           gru_422[0][0]                    
__________________________________________________________________________________________________
dropout_964 (Dropout)           (None, 1253)         0           flatten_157[0][0]                
__________________________________________________________________________________________________
dropout_965 (Dropout)           (None, 714)          0           flatten_158[0][0]                
__________________________________________________________________________________________________
concatenate_322 (Concatenate)   (None, 1967)         0           dropout_964[0][0]                
                                                                 dropout_965[0][0]                
__________________________________________________________________________________________________
dense_643 (Dense)               (None, 61)           120048      concatenate_322[0][0]            
__________________________________________________________________________________________________
dropout_966 (Dropout)           (None, 61)           0           dense_643[0][0]                  
__________________________________________________________________________________________________
dense_644 (Dense)               (None, 4)            248         dropout_966[0][0]                
==================================================================================================
Total params: 637,824
Trainable params: 637,824
Non-trainable params: 0
__________________________________________________________________________________________________
None
==================================================================================================
…
	MWE occurrences: 553
	Continuous occurrences: 59.0 %
	MWE length: 2.25
	Seen occurrences : 62% 
	Recognizable MWEs: 98.0 %
	Embedded occurrences: 4
	Interleaving occurrences: 8

==================================================================================================
__________________________________________________________________________________________________
Layer (type)                    Output Shape         Param #     Connected to                     
==================================================================================================
input_645 (InputLayer)          (None, 7)            0                                            
__________________________________________________________________________________________________
input_646 (InputLayer)          (None, 7)            0                                            
__________________________________________________________________________________________________
embedding_645 (Embedding)       (None, 7, 365)       347845      input_645[0][0]                  
__________________________________________________________________________________________________
embedding_646 (Embedding)       (None, 7, 30)        570         input_646[0][0]                  
__________________________________________________________________________________________________
gru_423 (GRU)                   (None, 7, 179)       292665      embedding_645[0][0]              
__________________________________________________________________________________________________
gru_424 (GRU)                   (None, 7, 102)       40698       embedding_646[0][0]              
__________________________________________________________________________________________________
flatten_159 (Flatten)           (None, 1253)         0           gru_423[0][0]                    
__________________________________________________________________________________________________
flatten_160 (Flatten)           (None, 714)          0           gru_424[0][0]                    
__________________________________________________________________________________________________
dropout_967 (Dropout)           (None, 1253)         0           flatten_159[0][0]                
__________________________________________________________________________________________________
dropout_968 (Dropout)           (None, 714)          0           flatten_160[0][0]                
__________________________________________________________________________________________________
concatenate_323 (Concatenate)   (None, 1967)         0           dropout_967[0][0]                
                                                                 dropout_968[0][0]                
__________________________________________________________________________________________________
dense_645 (Dense)               (None, 61)           120048      concatenate_323[0][0]            
__________________________________________________________________________________________________
dropout_969 (Dropout)           (None, 61)           0           dense_645[0][0]                  
__________________________________________________________________________________________________
dense_646 (Dense)               (None, 4)            248         dropout_969[0][0]                
==================================================================================================
Total params: 802,074
Trainable params: 802,074
Non-trainable params: 0
__________________________________________________________________________________________________
None
==================================================================================================
…
	Important sentence: 385
	Token occurrences: 27196
	MWE number: 418
	MWE occurrences: 510
	Continuous occurrences: 50.0 %
	MWE length: 2.07
	Seen occurrences : 43% 
	Recognizable MWEs: 100.0 %

==================================================================================================
__________________________________________________________________________________________________
Layer (type)                    Output Shape         Param #     Connected to                     
==================================================================================================
input_647 (InputLayer)          (None, 7)            0                                            
__________________________________________________________________________________________________
input_648 (InputLayer)          (None, 7)            0                                            
__________________________________________________________________________________________________
embedding_647 (Embedding)       (None, 7, 365)       709925      input_647[0][0]                  
__________________________________________________________________________________________________
embedding_648 (Embedding)       (None, 7, 30)        420         input_648[0][0]                  
__________________________________________________________________________________________________
gru_425 (GRU)                   (None, 7, 179)       292665      embedding_647[0][0]              
__________________________________________________________________________________________________
gru_426 (GRU)                   (None, 7, 102)       40698       embedding_648[0][0]              
__________________________________________________________________________________________________
flatten_161 (Flatten)           (None, 1253)         0           gru_425[0][0]                    
__________________________________________________________________________________________________
flatten_162 (Flatten)           (None, 714)          0           gru_426[0][0]                    
__________________________________________________________________________________________________
dropout_970 (Dropout)           (None, 1253)         0           flatten_161[0][0]                
__________________________________________________________________________________________________
dropout_971 (Dropout)           (None, 714)          0           flatten_162[0][0]                
__________________________________________________________________________________________________
concatenate_324 (Concatenate)   (None, 1967)         0           dropout_970[0][0]                
                                                                 dropout_971[0][0]                
__________________________________________________________________________________________________
dense_647 (Dense)               (None, 61)           120048      concatenate_324[0][0]            
__________________________________________________________________________________________________
dropout_972 (Dropout)           (None, 61)           0           dense_647[0][0]                  
__________________________________________________________________________________________________
dense_648 (Dense)               (None, 4)            248         dropout_972[0][0]                
==================================================================================================
Total params: 1,164,004
Trainable params: 1,164,004
Non-trainable params: 0
__________________________________________________________________________________________________
None
==================================================================================================
…
	Token occurrences: 42020
	MWE number: 451
	MWE occurrences: 670
	Continuous occurrences: 75.0 %
	MWE length: 2.14
	Seen occurrences : 57% 
	Recognizable MWEs: 100.0 %
	MWT occurrences: 1

==================================================================================================
__________________________________________________________________________________________________
Layer (type)                    Output Shape         Param #     Connected to                     
==================================================================================================
input_649 (InputLayer)          (None, 10)           0                                            
__________________________________________________________________________________________________
input_650 (InputLayer)          (None, 10)           0                                            
__________________________________________________________________________________________________
embedding_649 (Embedding)       (None, 10, 294)      2757426     input_649[0][0]                  
__________________________________________________________________________________________________
embedding_650 (Embedding)       (None, 10, 94)       1786        input_650[0][0]                  
__________________________________________________________________________________________________
gru_427 (GRU)                   (None, 42)           42462       embedding_649[0][0]              
__________________________________________________________________________________________________
gru_428 (GRU)                   (None, 28)           10332       embedding_650[0][0]              
__________________________________________________________________________________________________
dropout_973 (Dropout)           (None, 42)           0           gru_427[0][0]                    
__________________________________________________________________________________________________
dropout_974 (Dropout)           (None, 28)           0           gru_428[0][0]                    
__________________________________________________________________________________________________
concatenate_325 (Concatenate)   (None, 70)           0           dropout_973[0][0]                
                                                                 dropout_974[0][0]                
__________________________________________________________________________________________________
dense_649 (Dense)               (None, 21)           1491        concatenate_325[0][0]            
__________________________________________________________________________________________________
dropout_975 (Dropout)           (None, 21)           0           dense_649[0][0]                  
__________________________________________________________________________________________________
dense_650 (Dense)               (None, 4)            88          dropout_975[0][0]                
==================================================================================================
Total params: 2,813,585
Trainable params: 2,813,585
Non-trainable params: 0
__________________________________________________________________________________________________
None
==================================================================================================
…
	MWE occurrences: 553
	Continuous occurrences: 59.0 %
	MWE length: 2.25
	Seen occurrences : 62% 
	Recognizable MWEs: 98.0 %
	Embedded occurrences: 4
	Interleaving occurrences: 8

==================================================================================================
__________________________________________________________________________________________________
Layer (type)                    Output Shape         Param #     Connected to                     
==================================================================================================
input_651 (InputLayer)          (None, 10)           0                                            
__________________________________________________________________________________________________
input_652 (InputLayer)          (None, 10)           0                                            
__________________________________________________________________________________________________
embedding_651 (Embedding)       (None, 10, 294)      2130912     input_651[0][0]                  
__________________________________________________________________________________________________
embedding_652 (Embedding)       (None, 10, 94)       1786        input_652[0][0]                  
__________________________________________________________________________________________________
gru_429 (GRU)                   (None, 42)           42462       embedding_651[0][0]              
__________________________________________________________________________________________________
gru_430 (GRU)                   (None, 28)           10332       embedding_652[0][0]              
__________________________________________________________________________________________________
dropout_976 (Dropout)           (None, 42)           0           gru_429[0][0]                    
__________________________________________________________________________________________________
dropout_977 (Dropout)           (None, 28)           0           gru_430[0][0]                    
__________________________________________________________________________________________________
concatenate_326 (Concatenate)   (None, 70)           0           dropout_976[0][0]                
                                                                 dropout_977[0][0]                
__________________________________________________________________________________________________
dense_651 (Dense)               (None, 21)           1491        concatenate_326[0][0]            
__________________________________________________________________________________________________
dropout_978 (Dropout)           (None, 21)           0           dense_651[0][0]                  
__________________________________________________________________________________________________
dense_652 (Dense)               (None, 4)            88          dropout_978[0][0]                
==================================================================================================
Total params: 2,187,071
Trainable params: 2,187,071
Non-trainable params: 0
__________________________________________________________________________________________________
None
==================================================================================================
…
	Important sentence: 385
	Token occurrences: 27196
	MWE number: 418
	MWE occurrences: 510
	Continuous occurrences: 50.0 %
	MWE length: 2.07
	Seen occurrences : 43% 
	Recognizable MWEs: 100.0 %

==================================================================================================
__________________________________________________________________________________________________
Layer (type)                    Output Shape         Param #     Connected to                     
==================================================================================================
input_653 (InputLayer)          (None, 10)           0                                            
__________________________________________________________________________________________________
input_654 (InputLayer)          (None, 10)           0                                            
__________________________________________________________________________________________________
embedding_653 (Embedding)       (None, 10, 294)      5396664     input_653[0][0]                  
__________________________________________________________________________________________________
embedding_654 (Embedding)       (None, 10, 94)       1316        input_654[0][0]                  
__________________________________________________________________________________________________
gru_431 (GRU)                   (None, 42)           42462       embedding_653[0][0]              
__________________________________________________________________________________________________
gru_432 (GRU)                   (None, 28)           10332       embedding_654[0][0]              
__________________________________________________________________________________________________
dropout_979 (Dropout)           (None, 42)           0           gru_431[0][0]                    
__________________________________________________________________________________________________
dropout_980 (Dropout)           (None, 28)           0           gru_432[0][0]                    
__________________________________________________________________________________________________
concatenate_327 (Concatenate)   (None, 70)           0           dropout_979[0][0]                
                                                                 dropout_980[0][0]                
__________________________________________________________________________________________________
dense_653 (Dense)               (None, 21)           1491        concatenate_327[0][0]            
__________________________________________________________________________________________________
dropout_981 (Dropout)           (None, 21)           0           dense_653[0][0]                  
__________________________________________________________________________________________________
dense_654 (Dense)               (None, 4)            88          dropout_981[0][0]                
==================================================================================================
Total params: 5,452,353
Trainable params: 5,452,353
Non-trainable params: 0
__________________________________________________________________________________________________
None
==================================================================================================
…
	Token occurrences: 42020
	MWE number: 451
	MWE occurrences: 670
	Continuous occurrences: 75.0 %
	MWE length: 2.14
	Seen occurrences : 57% 
	Recognizable MWEs: 100.0 %
	MWT occurrences: 1

==================================================================================================
__________________________________________________________________________________________________
Layer (type)                    Output Shape         Param #     Connected to                     
==================================================================================================
input_655 (InputLayer)          (None, 10)           0                                            
__________________________________________________________________________________________________
input_656 (InputLayer)          (None, 10)           0                                            
__________________________________________________________________________________________________
embedding_655 (Embedding)       (None, 10, 454)      2753510     input_655[0][0]                  
__________________________________________________________________________________________________
embedding_656 (Embedding)       (None, 10, 86)       1634        input_656[0][0]                  
__________________________________________________________________________________________________
lstm_223 (LSTM)                 (None, 80)           171200      embedding_655[0][0]              
__________________________________________________________________________________________________
lstm_224 (LSTM)                 (None, 124)          104656      embedding_656[0][0]              
__________________________________________________________________________________________________
dropout_982 (Dropout)           (None, 80)           0           lstm_223[0][0]                   
__________________________________________________________________________________________________
dropout_983 (Dropout)           (None, 124)          0           lstm_224[0][0]                   
__________________________________________________________________________________________________
concatenate_328 (Concatenate)   (None, 204)          0           dropout_982[0][0]                
                                                                 dropout_983[0][0]                
__________________________________________________________________________________________________
dense_655 (Dense)               (None, 144)          29520       concatenate_328[0][0]            
__________________________________________________________________________________________________
dropout_984 (Dropout)           (None, 144)          0           dense_655[0][0]                  
__________________________________________________________________________________________________
dense_656 (Dense)               (None, 4)            580         dropout_984[0][0]                
==================================================================================================
Total params: 3,061,100
Trainable params: 3,061,100
Non-trainable params: 0
__________________________________________________________________________________________________
None
==================================================================================================
…
	MWE occurrences: 553
	Continuous occurrences: 59.0 %
	MWE length: 2.25
	Seen occurrences : 62% 
	Recognizable MWEs: 98.0 %
	Embedded occurrences: 4
	Interleaving occurrences: 8

==================================================================================================
__________________________________________________________________________________________________
Layer (type)                    Output Shape         Param #     Connected to                     
==================================================================================================
input_657 (InputLayer)          (None, 10)           0                                            
__________________________________________________________________________________________________
input_658 (InputLayer)          (None, 10)           0                                            
__________________________________________________________________________________________________
embedding_657 (Embedding)       (None, 10, 454)      2637740     input_657[0][0]                  
__________________________________________________________________________________________________
embedding_658 (Embedding)       (None, 10, 86)       1634        input_658[0][0]                  
__________________________________________________________________________________________________
lstm_225 (LSTM)                 (None, 80)           171200      embedding_657[0][0]              
__________________________________________________________________________________________________
lstm_226 (LSTM)                 (None, 124)          104656      embedding_658[0][0]              
__________________________________________________________________________________________________
dropout_985 (Dropout)           (None, 80)           0           lstm_225[0][0]                   
__________________________________________________________________________________________________
dropout_986 (Dropout)           (None, 124)          0           lstm_226[0][0]                   
__________________________________________________________________________________________________
concatenate_329 (Concatenate)   (None, 204)          0           dropout_985[0][0]                
                                                                 dropout_986[0][0]                
__________________________________________________________________________________________________
dense_657 (Dense)               (None, 144)          29520       concatenate_329[0][0]            
__________________________________________________________________________________________________
dropout_987 (Dropout)           (None, 144)          0           dense_657[0][0]                  
__________________________________________________________________________________________________
dense_658 (Dense)               (None, 4)            580         dropout_987[0][0]                
==================================================================================================
Total params: 2,945,330
Trainable params: 2,945,330
Non-trainable params: 0
__________________________________________________________________________________________________
None
==================================================================================================
…
	Important sentence: 385
	Token occurrences: 27196
	MWE number: 418
	MWE occurrences: 510
	Continuous occurrences: 50.0 %
	MWE length: 2.07
	Seen occurrences : 43% 
	Recognizable MWEs: 100.0 %

==================================================================================================
__________________________________________________________________________________________________
Layer (type)                    Output Shape         Param #     Connected to                     
==================================================================================================
input_659 (InputLayer)          (None, 10)           0                                            
__________________________________________________________________________________________________
input_660 (InputLayer)          (None, 10)           0                                            
__________________________________________________________________________________________________
embedding_659 (Embedding)       (None, 10, 454)      4938612     input_659[0][0]                  
__________________________________________________________________________________________________
embedding_660 (Embedding)       (None, 10, 86)       1204        input_660[0][0]                  
__________________________________________________________________________________________________
lstm_227 (LSTM)                 (None, 80)           171200      embedding_659[0][0]              
__________________________________________________________________________________________________
lstm_228 (LSTM)                 (None, 124)          104656      embedding_660[0][0]              
__________________________________________________________________________________________________
dropout_988 (Dropout)           (None, 80)           0           lstm_227[0][0]                   
__________________________________________________________________________________________________
dropout_989 (Dropout)           (None, 124)          0           lstm_228[0][0]                   
__________________________________________________________________________________________________
concatenate_330 (Concatenate)   (None, 204)          0           dropout_988[0][0]                
                                                                 dropout_989[0][0]                
__________________________________________________________________________________________________
dense_659 (Dense)               (None, 144)          29520       concatenate_330[0][0]            
__________________________________________________________________________________________________
dropout_990 (Dropout)           (None, 144)          0           dense_659[0][0]                  
__________________________________________________________________________________________________
dense_660 (Dense)               (None, 4)            580         dropout_990[0][0]                
==================================================================================================
Total params: 5,245,772
Trainable params: 5,245,772
Non-trainable params: 0
__________________________________________________________________________________________________
None
==================================================================================================
…
	Token occurrences: 42020
	MWE number: 451
	MWE occurrences: 670
	Continuous occurrences: 75.0 %
	MWE length: 2.14
	Seen occurrences : 57% 
	Recognizable MWEs: 100.0 %
	MWT occurrences: 1

==================================================================================================
__________________________________________________________________________________________________
Layer (type)                    Output Shape         Param #     Connected to                     
==================================================================================================
input_661 (InputLayer)          (None, 8)            0                                            
__________________________________________________________________________________________________
input_662 (InputLayer)          (None, 8)            0                                            
__________________________________________________________________________________________________
embedding_661 (Embedding)       (None, 8, 471)       554838      input_661[0][0]                  
__________________________________________________________________________________________________
embedding_662 (Embedding)       (None, 8, 37)        703         input_662[0][0]                  
__________________________________________________________________________________________________
lstm_229 (LSTM)                 (None, 8, 128)       307200      embedding_661[0][0]              
__________________________________________________________________________________________________
lstm_230 (LSTM)                 (None, 8, 171)       142956      embedding_662[0][0]              
__________________________________________________________________________________________________
flatten_163 (Flatten)           (None, 1024)         0           lstm_229[0][0]                   
__________________________________________________________________________________________________
flatten_164 (Flatten)           (None, 1368)         0           lstm_230[0][0]                   
__________________________________________________________________________________________________
dropout_991 (Dropout)           (None, 1024)         0           flatten_163[0][0]                
__________________________________________________________________________________________________
dropout_992 (Dropout)           (None, 1368)         0           flatten_164[0][0]                
__________________________________________________________________________________________________
concatenate_331 (Concatenate)   (None, 2392)         0           dropout_991[0][0]                
                                                                 dropout_992[0][0]                
__________________________________________________________________________________________________
dense_661 (Dense)               (None, 193)          461849      concatenate_331[0][0]            
__________________________________________________________________________________________________
dropout_993 (Dropout)           (None, 193)          0           dense_661[0][0]                  
__________________________________________________________________________________________________
dense_662 (Dense)               (None, 4)            776         dropout_993[0][0]                
==================================================================================================
Total params: 1,468,322
Trainable params: 1,468,322
Non-trainable params: 0
__________________________________________________________________________________________________
None
==================================================================================================
…
