…
	Token occurrences: 42020
	MWE number: 451
	MWE occurrences: 670
	Continuous occurrences: 75.0 %
	MWE length: 2.14
	Seen occurrences : 57% 
	Recognizable MWEs: 100.0 %
	MWT occurrences: 1

==================================================================================================
__________________________________________________________________________________________________
Layer (type)                    Output Shape         Param #     Connected to                     
==================================================================================================
input_1 (InputLayer)            (None, 7)            0                                            
__________________________________________________________________________________________________
input_2 (InputLayer)            (None, 7)            0                                            
__________________________________________________________________________________________________
embedding_1 (Embedding)         (None, 7, 279)       1692135     input_1[0][0]                    
__________________________________________________________________________________________________
embedding_2 (Embedding)         (None, 7, 64)        1216        input_2[0][0]                    
__________________________________________________________________________________________________
gru_1 (GRU)                     (None, 49)           48363       embedding_1[0][0]                
__________________________________________________________________________________________________
gru_2 (GRU)                     (None, 195)          152100      embedding_2[0][0]                
__________________________________________________________________________________________________
dropout_1 (Dropout)             (None, 49)           0           gru_1[0][0]                      
__________________________________________________________________________________________________
dropout_2 (Dropout)             (None, 195)          0           gru_2[0][0]                      
__________________________________________________________________________________________________
concatenate_1 (Concatenate)     (None, 244)          0           dropout_1[0][0]                  
                                                                 dropout_2[0][0]                  
__________________________________________________________________________________________________
dense_1 (Dense)                 (None, 14)           3430        concatenate_1[0][0]              
__________________________________________________________________________________________________
dropout_3 (Dropout)             (None, 14)           0           dense_1[0][0]                    
__________________________________________________________________________________________________
dense_2 (Dense)                 (None, 4)            60          dropout_3[0][0]                  
==================================================================================================
Total params: 1,897,304
Trainable params: 1,897,304
Non-trainable params: 0
__________________________________________________________________________________________________
None
==================================================================================================
…
	MWE occurrences: 553
	Continuous occurrences: 59.0 %
	MWE length: 2.25
	Seen occurrences : 62% 
	Recognizable MWEs: 98.0 %
	Embedded occurrences: 4
	Interleaving occurrences: 8

==================================================================================================
__________________________________________________________________________________________________
Layer (type)                    Output Shape         Param #     Connected to                     
==================================================================================================
input_3 (InputLayer)            (None, 7)            0                                            
__________________________________________________________________________________________________
input_4 (InputLayer)            (None, 7)            0                                            
__________________________________________________________________________________________________
embedding_3 (Embedding)         (None, 7, 279)       1620990     input_3[0][0]                    
__________________________________________________________________________________________________
embedding_4 (Embedding)         (None, 7, 64)        1216        input_4[0][0]                    
__________________________________________________________________________________________________
gru_3 (GRU)                     (None, 49)           48363       embedding_3[0][0]                
__________________________________________________________________________________________________
gru_4 (GRU)                     (None, 195)          152100      embedding_4[0][0]                
__________________________________________________________________________________________________
dropout_4 (Dropout)             (None, 49)           0           gru_3[0][0]                      
__________________________________________________________________________________________________
dropout_5 (Dropout)             (None, 195)          0           gru_4[0][0]                      
__________________________________________________________________________________________________
concatenate_2 (Concatenate)     (None, 244)          0           dropout_4[0][0]                  
                                                                 dropout_5[0][0]                  
__________________________________________________________________________________________________
dense_3 (Dense)                 (None, 14)           3430        concatenate_2[0][0]              
__________________________________________________________________________________________________
dropout_6 (Dropout)             (None, 14)           0           dense_3[0][0]                    
__________________________________________________________________________________________________
dense_4 (Dense)                 (None, 4)            60          dropout_6[0][0]                  
==================================================================================================
Total params: 1,826,159
Trainable params: 1,826,159
Non-trainable params: 0
__________________________________________________________________________________________________
None
==================================================================================================
…
	Important sentence: 385
	Token occurrences: 27196
	MWE number: 418
	MWE occurrences: 510
	Continuous occurrences: 50.0 %
	MWE length: 2.07
	Seen occurrences : 43% 
	Recognizable MWEs: 100.0 %

==================================================================================================
__________________________________________________________________________________________________
Layer (type)                    Output Shape         Param #     Connected to                     
==================================================================================================
input_5 (InputLayer)            (None, 7)            0                                            
__________________________________________________________________________________________________
input_6 (InputLayer)            (None, 7)            0                                            
__________________________________________________________________________________________________
embedding_5 (Embedding)         (None, 7, 279)       3034962     input_5[0][0]                    
__________________________________________________________________________________________________
embedding_6 (Embedding)         (None, 7, 64)        896         input_6[0][0]                    
__________________________________________________________________________________________________
gru_5 (GRU)                     (None, 49)           48363       embedding_5[0][0]                
__________________________________________________________________________________________________
gru_6 (GRU)                     (None, 195)          152100      embedding_6[0][0]                
__________________________________________________________________________________________________
dropout_7 (Dropout)             (None, 49)           0           gru_5[0][0]                      
__________________________________________________________________________________________________
dropout_8 (Dropout)             (None, 195)          0           gru_6[0][0]                      
__________________________________________________________________________________________________
concatenate_3 (Concatenate)     (None, 244)          0           dropout_7[0][0]                  
                                                                 dropout_8[0][0]                  
__________________________________________________________________________________________________
dense_5 (Dense)                 (None, 14)           3430        concatenate_3[0][0]              
__________________________________________________________________________________________________
dropout_9 (Dropout)             (None, 14)           0           dense_5[0][0]                    
__________________________________________________________________________________________________
dense_6 (Dense)                 (None, 4)            60          dropout_9[0][0]                  
==================================================================================================
Total params: 3,239,811
Trainable params: 3,239,811
Non-trainable params: 0
__________________________________________________________________________________________________
None
==================================================================================================
…
	Token occurrences: 42020
	MWE number: 451
	MWE occurrences: 670
	Continuous occurrences: 75.0 %
	MWE length: 2.14
	Seen occurrences : 57% 
	Recognizable MWEs: 100.0 %
	MWT occurrences: 1

==================================================================================================
__________________________________________________________________________________________________
Layer (type)                    Output Shape         Param #     Connected to                     
==================================================================================================
input_7 (InputLayer)            (None, 10)           0                                            
__________________________________________________________________________________________________
input_8 (InputLayer)            (None, 10)           0                                            
__________________________________________________________________________________________________
embedding_7 (Embedding)         (None, 10, 473)      2868745     input_7[0][0]                    
__________________________________________________________________________________________________
embedding_8 (Embedding)         (None, 10, 31)       589         input_8[0][0]                    
__________________________________________________________________________________________________
gru_7 (GRU)                     (None, 10, 168)      323568      embedding_7[0][0]                
__________________________________________________________________________________________________
gru_8 (GRU)                     (None, 10, 30)       5580        embedding_8[0][0]                
__________________________________________________________________________________________________
flatten_1 (Flatten)             (None, 1680)         0           gru_7[0][0]                      
__________________________________________________________________________________________________
flatten_2 (Flatten)             (None, 300)          0           gru_8[0][0]                      
__________________________________________________________________________________________________
dropout_10 (Dropout)            (None, 1680)         0           flatten_1[0][0]                  
__________________________________________________________________________________________________
dropout_11 (Dropout)            (None, 300)          0           flatten_2[0][0]                  
__________________________________________________________________________________________________
concatenate_4 (Concatenate)     (None, 1980)         0           dropout_10[0][0]                 
                                                                 dropout_11[0][0]                 
__________________________________________________________________________________________________
dense_7 (Dense)                 (None, 110)          217910      concatenate_4[0][0]              
__________________________________________________________________________________________________
dropout_12 (Dropout)            (None, 110)          0           dense_7[0][0]                    
__________________________________________________________________________________________________
dense_8 (Dense)                 (None, 4)            444         dropout_12[0][0]                 
==================================================================================================
Total params: 3,416,836
Trainable params: 3,416,836
Non-trainable params: 0
__________________________________________________________________________________________________
None
==================================================================================================
…
	MWE occurrences: 553
	Continuous occurrences: 59.0 %
	MWE length: 2.25
	Seen occurrences : 62% 
	Recognizable MWEs: 98.0 %
	Embedded occurrences: 4
	Interleaving occurrences: 8

==================================================================================================
__________________________________________________________________________________________________
Layer (type)                    Output Shape         Param #     Connected to                     
==================================================================================================
input_9 (InputLayer)            (None, 10)           0                                            
__________________________________________________________________________________________________
input_10 (InputLayer)           (None, 10)           0                                            
__________________________________________________________________________________________________
embedding_9 (Embedding)         (None, 10, 473)      2748130     input_9[0][0]                    
__________________________________________________________________________________________________
embedding_10 (Embedding)        (None, 10, 31)       589         input_10[0][0]                   
__________________________________________________________________________________________________
gru_9 (GRU)                     (None, 10, 168)      323568      embedding_9[0][0]                
__________________________________________________________________________________________________
gru_10 (GRU)                    (None, 10, 30)       5580        embedding_10[0][0]               
__________________________________________________________________________________________________
flatten_3 (Flatten)             (None, 1680)         0           gru_9[0][0]                      
__________________________________________________________________________________________________
flatten_4 (Flatten)             (None, 300)          0           gru_10[0][0]                     
__________________________________________________________________________________________________
dropout_13 (Dropout)            (None, 1680)         0           flatten_3[0][0]                  
__________________________________________________________________________________________________
dropout_14 (Dropout)            (None, 300)          0           flatten_4[0][0]                  
__________________________________________________________________________________________________
concatenate_5 (Concatenate)     (None, 1980)         0           dropout_13[0][0]                 
                                                                 dropout_14[0][0]                 
__________________________________________________________________________________________________
dense_9 (Dense)                 (None, 110)          217910      concatenate_5[0][0]              
__________________________________________________________________________________________________
dropout_15 (Dropout)            (None, 110)          0           dense_9[0][0]                    
__________________________________________________________________________________________________
dense_10 (Dense)                (None, 4)            444         dropout_15[0][0]                 
==================================================================================================
Total params: 3,296,221
Trainable params: 3,296,221
Non-trainable params: 0
__________________________________________________________________________________________________
None
==================================================================================================
…
	Important sentence: 385
	Token occurrences: 27196
	MWE number: 418
	MWE occurrences: 510
	Continuous occurrences: 50.0 %
	MWE length: 2.07
	Seen occurrences : 43% 
	Recognizable MWEs: 100.0 %

==================================================================================================
__________________________________________________________________________________________________
Layer (type)                    Output Shape         Param #     Connected to                     
==================================================================================================
input_11 (InputLayer)           (None, 10)           0                                            
__________________________________________________________________________________________________
input_12 (InputLayer)           (None, 10)           0                                            
__________________________________________________________________________________________________
embedding_11 (Embedding)        (None, 10, 473)      5145294     input_11[0][0]                   
__________________________________________________________________________________________________
embedding_12 (Embedding)        (None, 10, 31)       434         input_12[0][0]                   
__________________________________________________________________________________________________
gru_11 (GRU)                    (None, 10, 168)      323568      embedding_11[0][0]               
__________________________________________________________________________________________________
gru_12 (GRU)                    (None, 10, 30)       5580        embedding_12[0][0]               
__________________________________________________________________________________________________
flatten_5 (Flatten)             (None, 1680)         0           gru_11[0][0]                     
__________________________________________________________________________________________________
flatten_6 (Flatten)             (None, 300)          0           gru_12[0][0]                     
__________________________________________________________________________________________________
dropout_16 (Dropout)            (None, 1680)         0           flatten_5[0][0]                  
__________________________________________________________________________________________________
dropout_17 (Dropout)            (None, 300)          0           flatten_6[0][0]                  
__________________________________________________________________________________________________
concatenate_6 (Concatenate)     (None, 1980)         0           dropout_16[0][0]                 
                                                                 dropout_17[0][0]                 
__________________________________________________________________________________________________
dense_11 (Dense)                (None, 110)          217910      concatenate_6[0][0]              
__________________________________________________________________________________________________
dropout_18 (Dropout)            (None, 110)          0           dense_11[0][0]                   
__________________________________________________________________________________________________
dense_12 (Dense)                (None, 4)            444         dropout_18[0][0]                 
==================================================================================================
Total params: 5,693,230
Trainable params: 5,693,230
Non-trainable params: 0
__________________________________________________________________________________________________
None
==================================================================================================
…
	Token occurrences: 42020
	MWE number: 451
	MWE occurrences: 670
	Continuous occurrences: 75.0 %
	MWE length: 2.14
	Seen occurrences : 57% 
	Recognizable MWEs: 100.0 %
	MWT occurrences: 1

==================================================================================================
__________________________________________________________________________________________________
Layer (type)                    Output Shape         Param #     Connected to                     
==================================================================================================
input_13 (InputLayer)           (None, 8)            0                                            
__________________________________________________________________________________________________
input_14 (InputLayer)           (None, 8)            0                                            
__________________________________________________________________________________________________
embedding_13 (Embedding)        (None, 8, 450)       2729250     input_13[0][0]                   
__________________________________________________________________________________________________
embedding_14 (Embedding)        (None, 8, 58)        1102        input_14[0][0]                   
__________________________________________________________________________________________________
lstm_1 (LSTM)                   (None, 140)          330960      embedding_13[0][0]               
__________________________________________________________________________________________________
lstm_2 (LSTM)                   (None, 185)          180560      embedding_14[0][0]               
__________________________________________________________________________________________________
dropout_19 (Dropout)            (None, 140)          0           lstm_1[0][0]                     
__________________________________________________________________________________________________
dropout_20 (Dropout)            (None, 185)          0           lstm_2[0][0]                     
__________________________________________________________________________________________________
concatenate_7 (Concatenate)     (None, 325)          0           dropout_19[0][0]                 
                                                                 dropout_20[0][0]                 
__________________________________________________________________________________________________
dense_13 (Dense)                (None, 28)           9128        concatenate_7[0][0]              
__________________________________________________________________________________________________
dropout_21 (Dropout)            (None, 28)           0           dense_13[0][0]                   
__________________________________________________________________________________________________
dense_14 (Dense)                (None, 4)            116         dropout_21[0][0]                 
==================================================================================================
Total params: 3,251,116
Trainable params: 3,251,116
Non-trainable params: 0
__________________________________________________________________________________________________
None
==================================================================================================
…
	MWE occurrences: 553
	Continuous occurrences: 59.0 %
	MWE length: 2.25
	Seen occurrences : 62% 
	Recognizable MWEs: 98.0 %
	Embedded occurrences: 4
	Interleaving occurrences: 8

==================================================================================================
__________________________________________________________________________________________________
Layer (type)                    Output Shape         Param #     Connected to                     
==================================================================================================
input_15 (InputLayer)           (None, 8)            0                                            
__________________________________________________________________________________________________
input_16 (InputLayer)           (None, 8)            0                                            
__________________________________________________________________________________________________
embedding_15 (Embedding)        (None, 8, 450)       2614500     input_15[0][0]                   
__________________________________________________________________________________________________
embedding_16 (Embedding)        (None, 8, 58)        1102        input_16[0][0]                   
__________________________________________________________________________________________________
lstm_3 (LSTM)                   (None, 140)          330960      embedding_15[0][0]               
__________________________________________________________________________________________________
lstm_4 (LSTM)                   (None, 185)          180560      embedding_16[0][0]               
__________________________________________________________________________________________________
dropout_22 (Dropout)            (None, 140)          0           lstm_3[0][0]                     
__________________________________________________________________________________________________
dropout_23 (Dropout)            (None, 185)          0           lstm_4[0][0]                     
__________________________________________________________________________________________________
concatenate_8 (Concatenate)     (None, 325)          0           dropout_22[0][0]                 
                                                                 dropout_23[0][0]                 
__________________________________________________________________________________________________
dense_15 (Dense)                (None, 28)           9128        concatenate_8[0][0]              
__________________________________________________________________________________________________
dropout_24 (Dropout)            (None, 28)           0           dense_15[0][0]                   
__________________________________________________________________________________________________
dense_16 (Dense)                (None, 4)            116         dropout_24[0][0]                 
==================================================================================================
Total params: 3,136,366
Trainable params: 3,136,366
Non-trainable params: 0
__________________________________________________________________________________________________
None
==================================================================================================
…
	Important sentence: 385
	Token occurrences: 27196
	MWE number: 418
	MWE occurrences: 510
	Continuous occurrences: 50.0 %
	MWE length: 2.07
	Seen occurrences : 43% 
	Recognizable MWEs: 100.0 %

==================================================================================================
__________________________________________________________________________________________________
Layer (type)                    Output Shape         Param #     Connected to                     
==================================================================================================
input_17 (InputLayer)           (None, 8)            0                                            
__________________________________________________________________________________________________
input_18 (InputLayer)           (None, 8)            0                                            
__________________________________________________________________________________________________
embedding_17 (Embedding)        (None, 8, 450)       4895100     input_17[0][0]                   
__________________________________________________________________________________________________
embedding_18 (Embedding)        (None, 8, 58)        812         input_18[0][0]                   
__________________________________________________________________________________________________
lstm_5 (LSTM)                   (None, 140)          330960      embedding_17[0][0]               
__________________________________________________________________________________________________
lstm_6 (LSTM)                   (None, 185)          180560      embedding_18[0][0]               
__________________________________________________________________________________________________
dropout_25 (Dropout)            (None, 140)          0           lstm_5[0][0]                     
__________________________________________________________________________________________________
dropout_26 (Dropout)            (None, 185)          0           lstm_6[0][0]                     
__________________________________________________________________________________________________
concatenate_9 (Concatenate)     (None, 325)          0           dropout_25[0][0]                 
                                                                 dropout_26[0][0]                 
__________________________________________________________________________________________________
dense_17 (Dense)                (None, 28)           9128        concatenate_9[0][0]              
__________________________________________________________________________________________________
dropout_27 (Dropout)            (None, 28)           0           dense_17[0][0]                   
__________________________________________________________________________________________________
dense_18 (Dense)                (None, 4)            116         dropout_27[0][0]                 
==================================================================================================
Total params: 5,416,676
Trainable params: 5,416,676
Non-trainable params: 0
__________________________________________________________________________________________________
None
==================================================================================================
…
	Token occurrences: 42020
	MWE number: 451
	MWE occurrences: 670
	Continuous occurrences: 75.0 %
	MWE length: 2.14
	Seen occurrences : 57% 
	Recognizable MWEs: 100.0 %
	MWT occurrences: 1

==================================================================================================
__________________________________________________________________________________________________
Layer (type)                    Output Shape         Param #     Connected to                     
==================================================================================================
input_19 (InputLayer)           (None, 8)            0                                            
__________________________________________________________________________________________________
input_20 (InputLayer)           (None, 8)            0                                            
__________________________________________________________________________________________________
embedding_19 (Embedding)        (None, 8, 331)       166493      input_19[0][0]                   
__________________________________________________________________________________________________
embedding_20 (Embedding)        (None, 8, 29)        551         input_20[0][0]                   
__________________________________________________________________________________________________
gru_13 (GRU)                    (None, 107)          140919      embedding_19[0][0]               
__________________________________________________________________________________________________
gru_14 (GRU)                    (None, 131)          63273       embedding_20[0][0]               
__________________________________________________________________________________________________
dropout_28 (Dropout)            (None, 107)          0           gru_13[0][0]                     
__________________________________________________________________________________________________
dropout_29 (Dropout)            (None, 131)          0           gru_14[0][0]                     
__________________________________________________________________________________________________
concatenate_10 (Concatenate)    (None, 238)          0           dropout_28[0][0]                 
                                                                 dropout_29[0][0]                 
__________________________________________________________________________________________________
dense_19 (Dense)                (None, 150)          35850       concatenate_10[0][0]             
__________________________________________________________________________________________________
dropout_30 (Dropout)            (None, 150)          0           dense_19[0][0]                   
__________________________________________________________________________________________________
dense_20 (Dense)                (None, 4)            604         dropout_30[0][0]                 
==================================================================================================
Total params: 407,690
Trainable params: 407,690
Non-trainable params: 0
__________________________________________________________________________________________________
None
==================================================================================================
…
	MWE occurrences: 553
	Continuous occurrences: 59.0 %
	MWE length: 2.25
	Seen occurrences : 62% 
	Recognizable MWEs: 98.0 %
	Embedded occurrences: 4
	Interleaving occurrences: 8

==================================================================================================
__________________________________________________________________________________________________
Layer (type)                    Output Shape         Param #     Connected to                     
==================================================================================================
input_21 (InputLayer)           (None, 8)            0                                            
__________________________________________________________________________________________________
input_22 (InputLayer)           (None, 8)            0                                            
__________________________________________________________________________________________________
embedding_21 (Embedding)        (None, 8, 331)       315443      input_21[0][0]                   
__________________________________________________________________________________________________
embedding_22 (Embedding)        (None, 8, 29)        551         input_22[0][0]                   
__________________________________________________________________________________________________
gru_15 (GRU)                    (None, 107)          140919      embedding_21[0][0]               
__________________________________________________________________________________________________
gru_16 (GRU)                    (None, 131)          63273       embedding_22[0][0]               
__________________________________________________________________________________________________
dropout_31 (Dropout)            (None, 107)          0           gru_15[0][0]                     
__________________________________________________________________________________________________
dropout_32 (Dropout)            (None, 131)          0           gru_16[0][0]                     
__________________________________________________________________________________________________
concatenate_11 (Concatenate)    (None, 238)          0           dropout_31[0][0]                 
                                                                 dropout_32[0][0]                 
__________________________________________________________________________________________________
dense_21 (Dense)                (None, 150)          35850       concatenate_11[0][0]             
__________________________________________________________________________________________________
dropout_33 (Dropout)            (None, 150)          0           dense_21[0][0]                   
__________________________________________________________________________________________________
dense_22 (Dense)                (None, 4)            604         dropout_33[0][0]                 
==================================================================================================
Total params: 556,640
Trainable params: 556,640
Non-trainable params: 0
__________________________________________________________________________________________________
None
==================================================================================================
…
	Important sentence: 385
	Token occurrences: 27196
	MWE number: 418
	MWE occurrences: 510
	Continuous occurrences: 50.0 %
	MWE length: 2.07
	Seen occurrences : 43% 
	Recognizable MWEs: 100.0 %

==================================================================================================
__________________________________________________________________________________________________
Layer (type)                    Output Shape         Param #     Connected to                     
==================================================================================================
input_23 (InputLayer)           (None, 8)            0                                            
__________________________________________________________________________________________________
input_24 (InputLayer)           (None, 8)            0                                            
__________________________________________________________________________________________________
embedding_23 (Embedding)        (None, 8, 331)       643795      input_23[0][0]                   
__________________________________________________________________________________________________
embedding_24 (Embedding)        (None, 8, 29)        406         input_24[0][0]                   
__________________________________________________________________________________________________
gru_17 (GRU)                    (None, 107)          140919      embedding_23[0][0]               
__________________________________________________________________________________________________
gru_18 (GRU)                    (None, 131)          63273       embedding_24[0][0]               
__________________________________________________________________________________________________
dropout_34 (Dropout)            (None, 107)          0           gru_17[0][0]                     
__________________________________________________________________________________________________
dropout_35 (Dropout)            (None, 131)          0           gru_18[0][0]                     
__________________________________________________________________________________________________
concatenate_12 (Concatenate)    (None, 238)          0           dropout_34[0][0]                 
                                                                 dropout_35[0][0]                 
__________________________________________________________________________________________________
dense_23 (Dense)                (None, 150)          35850       concatenate_12[0][0]             
__________________________________________________________________________________________________
dropout_36 (Dropout)            (None, 150)          0           dense_23[0][0]                   
__________________________________________________________________________________________________
dense_24 (Dense)                (None, 4)            604         dropout_36[0][0]                 
==================================================================================================
Total params: 884,847
Trainable params: 884,847
Non-trainable params: 0
__________________________________________________________________________________________________
None
==================================================================================================
…
	Token occurrences: 42020
	MWE number: 451
	MWE occurrences: 670
	Continuous occurrences: 75.0 %
	MWE length: 2.14
	Seen occurrences : 57% 
	Recognizable MWEs: 100.0 %
	MWT occurrences: 1

==================================================================================================
__________________________________________________________________________________________________
Layer (type)                    Output Shape         Param #     Connected to                     
==================================================================================================
input_25 (InputLayer)           (None, 8)            0                                            
__________________________________________________________________________________________________
input_26 (InputLayer)           (None, 8)            0                                            
__________________________________________________________________________________________________
embedding_25 (Embedding)        (None, 8, 514)       605492      input_25[0][0]                   
__________________________________________________________________________________________________
embedding_26 (Embedding)        (None, 8, 75)        1425        input_26[0][0]                   
__________________________________________________________________________________________________
lstm_7 (LSTM)                   (None, 126)          323064      embedding_25[0][0]               
__________________________________________________________________________________________________
lstm_8 (LSTM)                   (None, 91)           60788       embedding_26[0][0]               
__________________________________________________________________________________________________
dropout_37 (Dropout)            (None, 126)          0           lstm_7[0][0]                     
__________________________________________________________________________________________________
dropout_38 (Dropout)            (None, 91)           0           lstm_8[0][0]                     
__________________________________________________________________________________________________
concatenate_13 (Concatenate)    (None, 217)          0           dropout_37[0][0]                 
                                                                 dropout_38[0][0]                 
__________________________________________________________________________________________________
dense_25 (Dense)                (None, 154)          33572       concatenate_13[0][0]             
__________________________________________________________________________________________________
dropout_39 (Dropout)            (None, 154)          0           dense_25[0][0]                   
__________________________________________________________________________________________________
dense_26 (Dense)                (None, 4)            620         dropout_39[0][0]                 
==================================================================================================
Total params: 1,024,961
Trainable params: 1,024,961
Non-trainable params: 0
__________________________________________________________________________________________________
None
==================================================================================================
…
	MWE occurrences: 553
	Continuous occurrences: 59.0 %
	MWE length: 2.25
	Seen occurrences : 62% 
	Recognizable MWEs: 98.0 %
	Embedded occurrences: 4
	Interleaving occurrences: 8

==================================================================================================
__________________________________________________________________________________________________
Layer (type)                    Output Shape         Param #     Connected to                     
==================================================================================================
input_27 (InputLayer)           (None, 8)            0                                            
__________________________________________________________________________________________________
input_28 (InputLayer)           (None, 8)            0                                            
__________________________________________________________________________________________________
embedding_27 (Embedding)        (None, 8, 514)       582876      input_27[0][0]                   
__________________________________________________________________________________________________
embedding_28 (Embedding)        (None, 8, 75)        1425        input_28[0][0]                   
__________________________________________________________________________________________________
lstm_9 (LSTM)                   (None, 126)          323064      embedding_27[0][0]               
__________________________________________________________________________________________________
lstm_10 (LSTM)                  (None, 91)           60788       embedding_28[0][0]               
__________________________________________________________________________________________________
dropout_40 (Dropout)            (None, 126)          0           lstm_9[0][0]                     
__________________________________________________________________________________________________
dropout_41 (Dropout)            (None, 91)           0           lstm_10[0][0]                    
__________________________________________________________________________________________________
concatenate_14 (Concatenate)    (None, 217)          0           dropout_40[0][0]                 
                                                                 dropout_41[0][0]                 
__________________________________________________________________________________________________
dense_27 (Dense)                (None, 154)          33572       concatenate_14[0][0]             
__________________________________________________________________________________________________
dropout_42 (Dropout)            (None, 154)          0           dense_27[0][0]                   
__________________________________________________________________________________________________
dense_28 (Dense)                (None, 4)            620         dropout_42[0][0]                 
==================================================================================================
Total params: 1,002,345
Trainable params: 1,002,345
Non-trainable params: 0
__________________________________________________________________________________________________
None
==================================================================================================
…
	Important sentence: 385
	Token occurrences: 27196
	MWE number: 418
	MWE occurrences: 510
	Continuous occurrences: 50.0 %
	MWE length: 2.07
	Seen occurrences : 43% 
	Recognizable MWEs: 100.0 %

==================================================================================================
__________________________________________________________________________________________________
Layer (type)                    Output Shape         Param #     Connected to                     
==================================================================================================
input_29 (InputLayer)           (None, 8)            0                                            
__________________________________________________________________________________________________
input_30 (InputLayer)           (None, 8)            0                                            
__________________________________________________________________________________________________
embedding_29 (Embedding)        (None, 8, 514)       1113324     input_29[0][0]                   
__________________________________________________________________________________________________
embedding_30 (Embedding)        (None, 8, 75)        1050        input_30[0][0]                   
__________________________________________________________________________________________________
lstm_11 (LSTM)                  (None, 126)          323064      embedding_29[0][0]               
__________________________________________________________________________________________________
lstm_12 (LSTM)                  (None, 91)           60788       embedding_30[0][0]               
__________________________________________________________________________________________________
dropout_43 (Dropout)            (None, 126)          0           lstm_11[0][0]                    
__________________________________________________________________________________________________
dropout_44 (Dropout)            (None, 91)           0           lstm_12[0][0]                    
__________________________________________________________________________________________________
concatenate_15 (Concatenate)    (None, 217)          0           dropout_43[0][0]                 
                                                                 dropout_44[0][0]                 
__________________________________________________________________________________________________
dense_29 (Dense)                (None, 154)          33572       concatenate_15[0][0]             
__________________________________________________________________________________________________
dropout_45 (Dropout)            (None, 154)          0           dense_29[0][0]                   
__________________________________________________________________________________________________
dense_30 (Dense)                (None, 4)            620         dropout_45[0][0]                 
==================================================================================================
Total params: 1,532,418
Trainable params: 1,532,418
Non-trainable params: 0
__________________________________________________________________________________________________
None
==================================================================================================
…
	Token occurrences: 42020
	MWE number: 451
	MWE occurrences: 670
	Continuous occurrences: 75.0 %
	MWE length: 2.14
	Seen occurrences : 57% 
	Recognizable MWEs: 100.0 %
	MWT occurrences: 1

==================================================================================================
__________________________________________________________________________________________________
Layer (type)                    Output Shape         Param #     Connected to                     
==================================================================================================
input_31 (InputLayer)           (None, 10)           0                                            
__________________________________________________________________________________________________
input_32 (InputLayer)           (None, 10)           0                                            
__________________________________________________________________________________________________
embedding_31 (Embedding)        (None, 10, 553)      651434      input_31[0][0]                   
__________________________________________________________________________________________________
embedding_32 (Embedding)        (None, 10, 75)       1425        input_32[0][0]                   
__________________________________________________________________________________________________
gru_19 (GRU)                    (None, 10, 185)      410145      embedding_31[0][0]               
__________________________________________________________________________________________________
gru_20 (GRU)                    (None, 10, 41)       14391       embedding_32[0][0]               
__________________________________________________________________________________________________
flatten_7 (Flatten)             (None, 1850)         0           gru_19[0][0]                     
__________________________________________________________________________________________________
flatten_8 (Flatten)             (None, 410)          0           gru_20[0][0]                     
__________________________________________________________________________________________________
dropout_46 (Dropout)            (None, 1850)         0           flatten_7[0][0]                  
__________________________________________________________________________________________________
dropout_47 (Dropout)            (None, 410)          0           flatten_8[0][0]                  
__________________________________________________________________________________________________
concatenate_16 (Concatenate)    (None, 2260)         0           dropout_46[0][0]                 
                                                                 dropout_47[0][0]                 
__________________________________________________________________________________________________
dense_31 (Dense)                (None, 11)           24871       concatenate_16[0][0]             
__________________________________________________________________________________________________
dropout_48 (Dropout)            (None, 11)           0           dense_31[0][0]                   
__________________________________________________________________________________________________
dense_32 (Dense)                (None, 4)            48          dropout_48[0][0]                 
==================================================================================================
Total params: 1,102,314
Trainable params: 1,102,314
Non-trainable params: 0
__________________________________________________________________________________________________
None
==================================================================================================
…
	MWE occurrences: 553
	Continuous occurrences: 59.0 %
	MWE length: 2.25
	Seen occurrences : 62% 
	Recognizable MWEs: 98.0 %
	Embedded occurrences: 4
	Interleaving occurrences: 8

==================================================================================================
__________________________________________________________________________________________________
Layer (type)                    Output Shape         Param #     Connected to                     
==================================================================================================
input_33 (InputLayer)           (None, 10)           0                                            
__________________________________________________________________________________________________
input_34 (InputLayer)           (None, 10)           0                                            
__________________________________________________________________________________________________
embedding_33 (Embedding)        (None, 10, 553)      627102      input_33[0][0]                   
__________________________________________________________________________________________________
embedding_34 (Embedding)        (None, 10, 75)       1425        input_34[0][0]                   
__________________________________________________________________________________________________
gru_21 (GRU)                    (None, 10, 185)      410145      embedding_33[0][0]               
__________________________________________________________________________________________________
gru_22 (GRU)                    (None, 10, 41)       14391       embedding_34[0][0]               
__________________________________________________________________________________________________
flatten_9 (Flatten)             (None, 1850)         0           gru_21[0][0]                     
__________________________________________________________________________________________________
flatten_10 (Flatten)            (None, 410)          0           gru_22[0][0]                     
__________________________________________________________________________________________________
dropout_49 (Dropout)            (None, 1850)         0           flatten_9[0][0]                  
__________________________________________________________________________________________________
dropout_50 (Dropout)            (None, 410)          0           flatten_10[0][0]                 
__________________________________________________________________________________________________
concatenate_17 (Concatenate)    (None, 2260)         0           dropout_49[0][0]                 
                                                                 dropout_50[0][0]                 
__________________________________________________________________________________________________
dense_33 (Dense)                (None, 11)           24871       concatenate_17[0][0]             
__________________________________________________________________________________________________
dropout_51 (Dropout)            (None, 11)           0           dense_33[0][0]                   
__________________________________________________________________________________________________
dense_34 (Dense)                (None, 4)            48          dropout_51[0][0]                 
==================================================================================================
Total params: 1,077,982
Trainable params: 1,077,982
Non-trainable params: 0
__________________________________________________________________________________________________
None
==================================================================================================
…
	Important sentence: 385
	Token occurrences: 27196
	MWE number: 418
	MWE occurrences: 510
	Continuous occurrences: 50.0 %
	MWE length: 2.07
	Seen occurrences : 43% 
	Recognizable MWEs: 100.0 %

==================================================================================================
__________________________________________________________________________________________________
Layer (type)                    Output Shape         Param #     Connected to                     
==================================================================================================
input_35 (InputLayer)           (None, 10)           0                                            
__________________________________________________________________________________________________
input_36 (InputLayer)           (None, 10)           0                                            
__________________________________________________________________________________________________
embedding_35 (Embedding)        (None, 10, 553)      1197798     input_35[0][0]                   
__________________________________________________________________________________________________
embedding_36 (Embedding)        (None, 10, 75)       1050        input_36[0][0]                   
__________________________________________________________________________________________________
gru_23 (GRU)                    (None, 10, 185)      410145      embedding_35[0][0]               
__________________________________________________________________________________________________
gru_24 (GRU)                    (None, 10, 41)       14391       embedding_36[0][0]               
__________________________________________________________________________________________________
flatten_11 (Flatten)            (None, 1850)         0           gru_23[0][0]                     
__________________________________________________________________________________________________
flatten_12 (Flatten)            (None, 410)          0           gru_24[0][0]                     
__________________________________________________________________________________________________
dropout_52 (Dropout)            (None, 1850)         0           flatten_11[0][0]                 
__________________________________________________________________________________________________
dropout_53 (Dropout)            (None, 410)          0           flatten_12[0][0]                 
__________________________________________________________________________________________________
concatenate_18 (Concatenate)    (None, 2260)         0           dropout_52[0][0]                 
                                                                 dropout_53[0][0]                 
__________________________________________________________________________________________________
dense_35 (Dense)                (None, 11)           24871       concatenate_18[0][0]             
__________________________________________________________________________________________________
dropout_54 (Dropout)            (None, 11)           0           dense_35[0][0]                   
__________________________________________________________________________________________________
dense_36 (Dense)                (None, 4)            48          dropout_54[0][0]                 
==================================================================================================
Total params: 1,648,303
Trainable params: 1,648,303
Non-trainable params: 0
__________________________________________________________________________________________________
None
==================================================================================================
…
	Token occurrences: 42020
	MWE number: 451
	MWE occurrences: 670
	Continuous occurrences: 75.0 %
	MWE length: 2.14
	Seen occurrences : 57% 
	Recognizable MWEs: 100.0 %
	MWT occurrences: 1

==================================================================================================
__________________________________________________________________________________________________
Layer (type)                    Output Shape         Param #     Connected to                     
==================================================================================================
input_37 (InputLayer)           (None, 10)           0                                            
__________________________________________________________________________________________________
input_38 (InputLayer)           (None, 10)           0                                            
__________________________________________________________________________________________________
embedding_37 (Embedding)        (None, 10, 584)      5477336     input_37[0][0]                   
__________________________________________________________________________________________________
embedding_38 (Embedding)        (None, 10, 63)       1197        input_38[0][0]                   
__________________________________________________________________________________________________
lstm_13 (LSTM)                  (None, 10, 115)      322000      embedding_37[0][0]               
__________________________________________________________________________________________________
lstm_14 (LSTM)                  (None, 10, 75)       41700       embedding_38[0][0]               
__________________________________________________________________________________________________
flatten_13 (Flatten)            (None, 1150)         0           lstm_13[0][0]                    
__________________________________________________________________________________________________
flatten_14 (Flatten)            (None, 750)          0           lstm_14[0][0]                    
__________________________________________________________________________________________________
dropout_55 (Dropout)            (None, 1150)         0           flatten_13[0][0]                 
__________________________________________________________________________________________________
dropout_56 (Dropout)            (None, 750)          0           flatten_14[0][0]                 
__________________________________________________________________________________________________
concatenate_19 (Concatenate)    (None, 1900)         0           dropout_55[0][0]                 
                                                                 dropout_56[0][0]                 
__________________________________________________________________________________________________
dense_37 (Dense)                (None, 6)            11406       concatenate_19[0][0]             
__________________________________________________________________________________________________
dropout_57 (Dropout)            (None, 6)            0           dense_37[0][0]                   
__________________________________________________________________________________________________
dense_38 (Dense)                (None, 4)            28          dropout_57[0][0]                 
==================================================================================================
Total params: 5,853,667
Trainable params: 5,853,667
Non-trainable params: 0
__________________________________________________________________________________________________
None
==================================================================================================
…
	MWE occurrences: 553
	Continuous occurrences: 59.0 %
	MWE length: 2.25
	Seen occurrences : 62% 
	Recognizable MWEs: 98.0 %
	Embedded occurrences: 4
	Interleaving occurrences: 8

==================================================================================================
__________________________________________________________________________________________________
Layer (type)                    Output Shape         Param #     Connected to                     
==================================================================================================
input_39 (InputLayer)           (None, 10)           0                                            
__________________________________________________________________________________________________
input_40 (InputLayer)           (None, 10)           0                                            
__________________________________________________________________________________________________
embedding_39 (Embedding)        (None, 10, 584)      4232832     input_39[0][0]                   
__________________________________________________________________________________________________
embedding_40 (Embedding)        (None, 10, 63)       1197        input_40[0][0]                   
__________________________________________________________________________________________________
lstm_15 (LSTM)                  (None, 10, 115)      322000      embedding_39[0][0]               
__________________________________________________________________________________________________
lstm_16 (LSTM)                  (None, 10, 75)       41700       embedding_40[0][0]               
__________________________________________________________________________________________________
flatten_15 (Flatten)            (None, 1150)         0           lstm_15[0][0]                    
__________________________________________________________________________________________________
flatten_16 (Flatten)            (None, 750)          0           lstm_16[0][0]                    
__________________________________________________________________________________________________
dropout_58 (Dropout)            (None, 1150)         0           flatten_15[0][0]                 
__________________________________________________________________________________________________
dropout_59 (Dropout)            (None, 750)          0           flatten_16[0][0]                 
__________________________________________________________________________________________________
concatenate_20 (Concatenate)    (None, 1900)         0           dropout_58[0][0]                 
                                                                 dropout_59[0][0]                 
__________________________________________________________________________________________________
dense_39 (Dense)                (None, 6)            11406       concatenate_20[0][0]             
__________________________________________________________________________________________________
dropout_60 (Dropout)            (None, 6)            0           dense_39[0][0]                   
__________________________________________________________________________________________________
dense_40 (Dense)                (None, 4)            28          dropout_60[0][0]                 
==================================================================================================
Total params: 4,609,163
Trainable params: 4,609,163
Non-trainable params: 0
__________________________________________________________________________________________________
None
==================================================================================================
…
	Important sentence: 385
	Token occurrences: 27196
	MWE number: 418
	MWE occurrences: 510
	Continuous occurrences: 50.0 %
	MWE length: 2.07
	Seen occurrences : 43% 
	Recognizable MWEs: 100.0 %

==================================================================================================
__________________________________________________________________________________________________
Layer (type)                    Output Shape         Param #     Connected to                     
==================================================================================================
input_41 (InputLayer)           (None, 10)           0                                            
__________________________________________________________________________________________________
input_42 (InputLayer)           (None, 10)           0                                            
__________________________________________________________________________________________________
embedding_41 (Embedding)        (None, 10, 584)      10719904    input_41[0][0]                   
__________________________________________________________________________________________________
embedding_42 (Embedding)        (None, 10, 63)       882         input_42[0][0]                   
__________________________________________________________________________________________________
lstm_17 (LSTM)                  (None, 10, 115)      322000      embedding_41[0][0]               
__________________________________________________________________________________________________
lstm_18 (LSTM)                  (None, 10, 75)       41700       embedding_42[0][0]               
__________________________________________________________________________________________________
flatten_17 (Flatten)            (None, 1150)         0           lstm_17[0][0]                    
__________________________________________________________________________________________________
flatten_18 (Flatten)            (None, 750)          0           lstm_18[0][0]                    
__________________________________________________________________________________________________
dropout_61 (Dropout)            (None, 1150)         0           flatten_17[0][0]                 
__________________________________________________________________________________________________
dropout_62 (Dropout)            (None, 750)          0           flatten_18[0][0]                 
__________________________________________________________________________________________________
concatenate_21 (Concatenate)    (None, 1900)         0           dropout_61[0][0]                 
                                                                 dropout_62[0][0]                 
__________________________________________________________________________________________________
dense_41 (Dense)                (None, 6)            11406       concatenate_21[0][0]             
__________________________________________________________________________________________________
dropout_63 (Dropout)            (None, 6)            0           dense_41[0][0]                   
__________________________________________________________________________________________________
dense_42 (Dense)                (None, 4)            28          dropout_63[0][0]                 
==================================================================================================
Total params: 11,095,920
Trainable params: 11,095,920
Non-trainable params: 0
__________________________________________________________________________________________________
None
==================================================================================================
…
	Token occurrences: 42020
	MWE number: 451
	MWE occurrences: 670
	Continuous occurrences: 75.0 %
	MWE length: 2.14
	Seen occurrences : 57% 
	Recognizable MWEs: 100.0 %
	MWT occurrences: 1

==================================================================================================
__________________________________________________________________________________________________
Layer (type)                    Output Shape         Param #     Connected to                     
==================================================================================================
input_43 (InputLayer)           (None, 10)           0                                            
__________________________________________________________________________________________________
input_44 (InputLayer)           (None, 10)           0                                            
__________________________________________________________________________________________________
embedding_43 (Embedding)        (None, 10, 277)      1680005     input_43[0][0]                   
__________________________________________________________________________________________________
embedding_44 (Embedding)        (None, 10, 97)       1843        input_44[0][0]                   
__________________________________________________________________________________________________
gru_25 (GRU)                    (None, 190)          266760      embedding_43[0][0]               
__________________________________________________________________________________________________
gru_26 (GRU)                    (None, 92)           52440       embedding_44[0][0]               
__________________________________________________________________________________________________
dropout_64 (Dropout)            (None, 190)          0           gru_25[0][0]                     
__________________________________________________________________________________________________
dropout_65 (Dropout)            (None, 92)           0           gru_26[0][0]                     
__________________________________________________________________________________________________
concatenate_22 (Concatenate)    (None, 282)          0           dropout_64[0][0]                 
                                                                 dropout_65[0][0]                 
__________________________________________________________________________________________________
dense_43 (Dense)                (None, 90)           25470       concatenate_22[0][0]             
__________________________________________________________________________________________________
dropout_66 (Dropout)            (None, 90)           0           dense_43[0][0]                   
__________________________________________________________________________________________________
dense_44 (Dense)                (None, 4)            364         dropout_66[0][0]                 
==================================================================================================
Total params: 2,026,882
Trainable params: 2,026,882
Non-trainable params: 0
__________________________________________________________________________________________________
None
==================================================================================================
…
	MWE occurrences: 553
	Continuous occurrences: 59.0 %
	MWE length: 2.25
	Seen occurrences : 62% 
	Recognizable MWEs: 98.0 %
	Embedded occurrences: 4
	Interleaving occurrences: 8

==================================================================================================
__________________________________________________________________________________________________
Layer (type)                    Output Shape         Param #     Connected to                     
==================================================================================================
input_45 (InputLayer)           (None, 10)           0                                            
__________________________________________________________________________________________________
input_46 (InputLayer)           (None, 10)           0                                            
__________________________________________________________________________________________________
embedding_45 (Embedding)        (None, 10, 277)      1609370     input_45[0][0]                   
__________________________________________________________________________________________________
embedding_46 (Embedding)        (None, 10, 97)       1843        input_46[0][0]                   
__________________________________________________________________________________________________
gru_27 (GRU)                    (None, 190)          266760      embedding_45[0][0]               
__________________________________________________________________________________________________
gru_28 (GRU)                    (None, 92)           52440       embedding_46[0][0]               
__________________________________________________________________________________________________
dropout_67 (Dropout)            (None, 190)          0           gru_27[0][0]                     
__________________________________________________________________________________________________
dropout_68 (Dropout)            (None, 92)           0           gru_28[0][0]                     
__________________________________________________________________________________________________
concatenate_23 (Concatenate)    (None, 282)          0           dropout_67[0][0]                 
                                                                 dropout_68[0][0]                 
__________________________________________________________________________________________________
dense_45 (Dense)                (None, 90)           25470       concatenate_23[0][0]             
__________________________________________________________________________________________________
dropout_69 (Dropout)            (None, 90)           0           dense_45[0][0]                   
__________________________________________________________________________________________________
dense_46 (Dense)                (None, 4)            364         dropout_69[0][0]                 
==================================================================================================
Total params: 1,956,247
Trainable params: 1,956,247
Non-trainable params: 0
__________________________________________________________________________________________________
None
==================================================================================================
…
	Important sentence: 385
	Token occurrences: 27196
	MWE number: 418
	MWE occurrences: 510
	Continuous occurrences: 50.0 %
	MWE length: 2.07
	Seen occurrences : 43% 
	Recognizable MWEs: 100.0 %

==================================================================================================
__________________________________________________________________________________________________
Layer (type)                    Output Shape         Param #     Connected to                     
==================================================================================================
input_47 (InputLayer)           (None, 10)           0                                            
__________________________________________________________________________________________________
input_48 (InputLayer)           (None, 10)           0                                            
__________________________________________________________________________________________________
embedding_47 (Embedding)        (None, 10, 277)      3013206     input_47[0][0]                   
__________________________________________________________________________________________________
embedding_48 (Embedding)        (None, 10, 97)       1358        input_48[0][0]                   
__________________________________________________________________________________________________
gru_29 (GRU)                    (None, 190)          266760      embedding_47[0][0]               
__________________________________________________________________________________________________
gru_30 (GRU)                    (None, 92)           52440       embedding_48[0][0]               
__________________________________________________________________________________________________
dropout_70 (Dropout)            (None, 190)          0           gru_29[0][0]                     
__________________________________________________________________________________________________
dropout_71 (Dropout)            (None, 92)           0           gru_30[0][0]                     
__________________________________________________________________________________________________
concatenate_24 (Concatenate)    (None, 282)          0           dropout_70[0][0]                 
                                                                 dropout_71[0][0]                 
__________________________________________________________________________________________________
dense_47 (Dense)                (None, 90)           25470       concatenate_24[0][0]             
__________________________________________________________________________________________________
dropout_72 (Dropout)            (None, 90)           0           dense_47[0][0]                   
__________________________________________________________________________________________________
dense_48 (Dense)                (None, 4)            364         dropout_72[0][0]                 
==================================================================================================
Total params: 3,359,598
Trainable params: 3,359,598
Non-trainable params: 0
__________________________________________________________________________________________________
None
==================================================================================================
…
	Token occurrences: 42020
	MWE number: 451
	MWE occurrences: 670
	Continuous occurrences: 75.0 %
	MWE length: 2.14
	Seen occurrences : 57% 
	Recognizable MWEs: 100.0 %
	MWT occurrences: 1

==================================================================================================
__________________________________________________________________________________________________
Layer (type)                    Output Shape         Param #     Connected to                     
==================================================================================================
input_49 (InputLayer)           (None, 7)            0                                            
__________________________________________________________________________________________________
input_50 (InputLayer)           (None, 7)            0                                            
__________________________________________________________________________________________________
embedding_49 (Embedding)        (None, 7, 580)       5439820     input_49[0][0]                   
__________________________________________________________________________________________________
embedding_50 (Embedding)        (None, 7, 83)        1577        input_50[0][0]                   
__________________________________________________________________________________________________
lstm_19 (LSTM)                  (None, 64)           165120      embedding_49[0][0]               
__________________________________________________________________________________________________
lstm_20 (LSTM)                  (None, 26)           11440       embedding_50[0][0]               
__________________________________________________________________________________________________
dropout_73 (Dropout)            (None, 64)           0           lstm_19[0][0]                    
__________________________________________________________________________________________________
dropout_74 (Dropout)            (None, 26)           0           lstm_20[0][0]                    
__________________________________________________________________________________________________
concatenate_25 (Concatenate)    (None, 90)           0           dropout_73[0][0]                 
                                                                 dropout_74[0][0]                 
__________________________________________________________________________________________________
dense_49 (Dense)                (None, 37)           3367        concatenate_25[0][0]             
__________________________________________________________________________________________________
dropout_75 (Dropout)            (None, 37)           0           dense_49[0][0]                   
__________________________________________________________________________________________________
dense_50 (Dense)                (None, 4)            152         dropout_75[0][0]                 
==================================================================================================
Total params: 5,621,476
Trainable params: 5,621,476
Non-trainable params: 0
__________________________________________________________________________________________________
None
==================================================================================================
…
	MWE occurrences: 553
	Continuous occurrences: 59.0 %
	MWE length: 2.25
	Seen occurrences : 62% 
	Recognizable MWEs: 98.0 %
	Embedded occurrences: 4
	Interleaving occurrences: 8

==================================================================================================
__________________________________________________________________________________________________
Layer (type)                    Output Shape         Param #     Connected to                     
==================================================================================================
input_51 (InputLayer)           (None, 7)            0                                            
__________________________________________________________________________________________________
input_52 (InputLayer)           (None, 7)            0                                            
__________________________________________________________________________________________________
embedding_51 (Embedding)        (None, 7, 580)       4203840     input_51[0][0]                   
__________________________________________________________________________________________________
embedding_52 (Embedding)        (None, 7, 83)        1577        input_52[0][0]                   
__________________________________________________________________________________________________
lstm_21 (LSTM)                  (None, 64)           165120      embedding_51[0][0]               
__________________________________________________________________________________________________
lstm_22 (LSTM)                  (None, 26)           11440       embedding_52[0][0]               
__________________________________________________________________________________________________
dropout_76 (Dropout)            (None, 64)           0           lstm_21[0][0]                    
__________________________________________________________________________________________________
dropout_77 (Dropout)            (None, 26)           0           lstm_22[0][0]                    
__________________________________________________________________________________________________
concatenate_26 (Concatenate)    (None, 90)           0           dropout_76[0][0]                 
                                                                 dropout_77[0][0]                 
__________________________________________________________________________________________________
dense_51 (Dense)                (None, 37)           3367        concatenate_26[0][0]             
__________________________________________________________________________________________________
dropout_78 (Dropout)            (None, 37)           0           dense_51[0][0]                   
__________________________________________________________________________________________________
dense_52 (Dense)                (None, 4)            152         dropout_78[0][0]                 
==================================================================================================
Total params: 4,385,496
Trainable params: 4,385,496
Non-trainable params: 0
__________________________________________________________________________________________________
None
==================================================================================================
…
	Important sentence: 385
	Token occurrences: 27196
	MWE number: 418
	MWE occurrences: 510
	Continuous occurrences: 50.0 %
	MWE length: 2.07
	Seen occurrences : 43% 
	Recognizable MWEs: 100.0 %

==================================================================================================
__________________________________________________________________________________________________
Layer (type)                    Output Shape         Param #     Connected to                     
==================================================================================================
input_53 (InputLayer)           (None, 7)            0                                            
__________________________________________________________________________________________________
input_54 (InputLayer)           (None, 7)            0                                            
__________________________________________________________________________________________________
embedding_53 (Embedding)        (None, 7, 580)       10646480    input_53[0][0]                   
__________________________________________________________________________________________________
embedding_54 (Embedding)        (None, 7, 83)        1162        input_54[0][0]                   
__________________________________________________________________________________________________
lstm_23 (LSTM)                  (None, 64)           165120      embedding_53[0][0]               
__________________________________________________________________________________________________
lstm_24 (LSTM)                  (None, 26)           11440       embedding_54[0][0]               
__________________________________________________________________________________________________
dropout_79 (Dropout)            (None, 64)           0           lstm_23[0][0]                    
__________________________________________________________________________________________________
dropout_80 (Dropout)            (None, 26)           0           lstm_24[0][0]                    
__________________________________________________________________________________________________
concatenate_27 (Concatenate)    (None, 90)           0           dropout_79[0][0]                 
                                                                 dropout_80[0][0]                 
__________________________________________________________________________________________________
dense_53 (Dense)                (None, 37)           3367        concatenate_27[0][0]             
__________________________________________________________________________________________________
dropout_81 (Dropout)            (None, 37)           0           dense_53[0][0]                   
__________________________________________________________________________________________________
dense_54 (Dense)                (None, 4)            152         dropout_81[0][0]                 
==================================================================================================
Total params: 10,827,721
Trainable params: 10,827,721
Non-trainable params: 0
__________________________________________________________________________________________________
None
==================================================================================================
…
	Token occurrences: 42020
	MWE number: 451
	MWE occurrences: 670
	Continuous occurrences: 75.0 %
	MWE length: 2.14
	Seen occurrences : 57% 
	Recognizable MWEs: 100.0 %
	MWT occurrences: 1

==================================================================================================
__________________________________________________________________________________________________
Layer (type)                    Output Shape         Param #     Connected to                     
==================================================================================================
input_55 (InputLayer)           (None, 9)            0                                            
__________________________________________________________________________________________________
input_56 (InputLayer)           (None, 9)            0                                            
__________________________________________________________________________________________________
embedding_55 (Embedding)        (None, 9, 447)       224841      input_55[0][0]                   
__________________________________________________________________________________________________
embedding_56 (Embedding)        (None, 9, 56)        1064        input_56[0][0]                   
__________________________________________________________________________________________________
gru_31 (GRU)                    (None, 72)           112320      embedding_55[0][0]               
__________________________________________________________________________________________________
gru_32 (GRU)                    (None, 118)          61950       embedding_56[0][0]               
__________________________________________________________________________________________________
dropout_82 (Dropout)            (None, 72)           0           gru_31[0][0]                     
__________________________________________________________________________________________________
dropout_83 (Dropout)            (None, 118)          0           gru_32[0][0]                     
__________________________________________________________________________________________________
concatenate_28 (Concatenate)    (None, 190)          0           dropout_82[0][0]                 
                                                                 dropout_83[0][0]                 
__________________________________________________________________________________________________
dense_55 (Dense)                (None, 183)          34953       concatenate_28[0][0]             
__________________________________________________________________________________________________
dropout_84 (Dropout)            (None, 183)          0           dense_55[0][0]                   
__________________________________________________________________________________________________
dense_56 (Dense)                (None, 4)            736         dropout_84[0][0]                 
==================================================================================================
Total params: 435,864
Trainable params: 435,864
Non-trainable params: 0
__________________________________________________________________________________________________
None
==================================================================================================
…
	MWE occurrences: 553
	Continuous occurrences: 59.0 %
	MWE length: 2.25
	Seen occurrences : 62% 
	Recognizable MWEs: 98.0 %
	Embedded occurrences: 4
	Interleaving occurrences: 8

==================================================================================================
__________________________________________________________________________________________________
Layer (type)                    Output Shape         Param #     Connected to                     
==================================================================================================
input_57 (InputLayer)           (None, 9)            0                                            
__________________________________________________________________________________________________
input_58 (InputLayer)           (None, 9)            0                                            
__________________________________________________________________________________________________
embedding_57 (Embedding)        (None, 9, 447)       425991      input_57[0][0]                   
__________________________________________________________________________________________________
embedding_58 (Embedding)        (None, 9, 56)        1064        input_58[0][0]                   
__________________________________________________________________________________________________
gru_33 (GRU)                    (None, 72)           112320      embedding_57[0][0]               
__________________________________________________________________________________________________
gru_34 (GRU)                    (None, 118)          61950       embedding_58[0][0]               
__________________________________________________________________________________________________
dropout_85 (Dropout)            (None, 72)           0           gru_33[0][0]                     
__________________________________________________________________________________________________
dropout_86 (Dropout)            (None, 118)          0           gru_34[0][0]                     
__________________________________________________________________________________________________
concatenate_29 (Concatenate)    (None, 190)          0           dropout_85[0][0]                 
                                                                 dropout_86[0][0]                 
__________________________________________________________________________________________________
dense_57 (Dense)                (None, 183)          34953       concatenate_29[0][0]             
__________________________________________________________________________________________________
dropout_87 (Dropout)            (None, 183)          0           dense_57[0][0]                   
__________________________________________________________________________________________________
dense_58 (Dense)                (None, 4)            736         dropout_87[0][0]                 
==================================================================================================
Total params: 637,014
Trainable params: 637,014
Non-trainable params: 0
__________________________________________________________________________________________________
None
==================================================================================================
…
	Important sentence: 385
	Token occurrences: 27196
	MWE number: 418
	MWE occurrences: 510
	Continuous occurrences: 50.0 %
	MWE length: 2.07
	Seen occurrences : 43% 
	Recognizable MWEs: 100.0 %

==================================================================================================
__________________________________________________________________________________________________
Layer (type)                    Output Shape         Param #     Connected to                     
==================================================================================================
input_59 (InputLayer)           (None, 9)            0                                            
__________________________________________________________________________________________________
input_60 (InputLayer)           (None, 9)            0                                            
__________________________________________________________________________________________________
embedding_59 (Embedding)        (None, 9, 447)       869415      input_59[0][0]                   
__________________________________________________________________________________________________
embedding_60 (Embedding)        (None, 9, 56)        784         input_60[0][0]                   
__________________________________________________________________________________________________
gru_35 (GRU)                    (None, 72)           112320      embedding_59[0][0]               
__________________________________________________________________________________________________
gru_36 (GRU)                    (None, 118)          61950       embedding_60[0][0]               
__________________________________________________________________________________________________
dropout_88 (Dropout)            (None, 72)           0           gru_35[0][0]                     
__________________________________________________________________________________________________
dropout_89 (Dropout)            (None, 118)          0           gru_36[0][0]                     
__________________________________________________________________________________________________
concatenate_30 (Concatenate)    (None, 190)          0           dropout_88[0][0]                 
                                                                 dropout_89[0][0]                 
__________________________________________________________________________________________________
dense_59 (Dense)                (None, 183)          34953       concatenate_30[0][0]             
__________________________________________________________________________________________________
dropout_90 (Dropout)            (None, 183)          0           dense_59[0][0]                   
__________________________________________________________________________________________________
dense_60 (Dense)                (None, 4)            736         dropout_90[0][0]                 
==================================================================================================
Total params: 1,080,158
Trainable params: 1,080,158
Non-trainable params: 0
__________________________________________________________________________________________________
None
==================================================================================================
…
	Token occurrences: 42020
	MWE number: 451
	MWE occurrences: 670
	Continuous occurrences: 75.0 %
	MWE length: 2.14
	Seen occurrences : 57% 
	Recognizable MWEs: 100.0 %
	MWT occurrences: 1

==================================================================================================
__________________________________________________________________________________________________
Layer (type)                    Output Shape         Param #     Connected to                     
==================================================================================================
input_61 (InputLayer)           (None, 8)            0                                            
__________________________________________________________________________________________________
input_62 (InputLayer)           (None, 8)            0                                            
__________________________________________________________________________________________________
embedding_61 (Embedding)        (None, 8, 542)       3287230     input_61[0][0]                   
__________________________________________________________________________________________________
embedding_62 (Embedding)        (None, 8, 58)        1102        input_62[0][0]                   
__________________________________________________________________________________________________
gru_37 (GRU)                    (None, 160)          337440      embedding_61[0][0]               
__________________________________________________________________________________________________
gru_38 (GRU)                    (None, 176)          124080      embedding_62[0][0]               
__________________________________________________________________________________________________
dropout_91 (Dropout)            (None, 160)          0           gru_37[0][0]                     
__________________________________________________________________________________________________
dropout_92 (Dropout)            (None, 176)          0           gru_38[0][0]                     
__________________________________________________________________________________________________
concatenate_31 (Concatenate)    (None, 336)          0           dropout_91[0][0]                 
                                                                 dropout_92[0][0]                 
__________________________________________________________________________________________________
dense_61 (Dense)                (None, 112)          37744       concatenate_31[0][0]             
__________________________________________________________________________________________________
dropout_93 (Dropout)            (None, 112)          0           dense_61[0][0]                   
__________________________________________________________________________________________________
dense_62 (Dense)                (None, 4)            452         dropout_93[0][0]                 
==================================================================================================
Total params: 3,788,048
Trainable params: 3,788,048
Non-trainable params: 0
__________________________________________________________________________________________________
None
==================================================================================================
…
	MWE occurrences: 553
	Continuous occurrences: 59.0 %
	MWE length: 2.25
	Seen occurrences : 62% 
	Recognizable MWEs: 98.0 %
	Embedded occurrences: 4
	Interleaving occurrences: 8

==================================================================================================
__________________________________________________________________________________________________
Layer (type)                    Output Shape         Param #     Connected to                     
==================================================================================================
input_63 (InputLayer)           (None, 8)            0                                            
__________________________________________________________________________________________________
input_64 (InputLayer)           (None, 8)            0                                            
__________________________________________________________________________________________________
embedding_63 (Embedding)        (None, 8, 542)       3149020     input_63[0][0]                   
__________________________________________________________________________________________________
embedding_64 (Embedding)        (None, 8, 58)        1102        input_64[0][0]                   
__________________________________________________________________________________________________
gru_39 (GRU)                    (None, 160)          337440      embedding_63[0][0]               
__________________________________________________________________________________________________
gru_40 (GRU)                    (None, 176)          124080      embedding_64[0][0]               
__________________________________________________________________________________________________
dropout_94 (Dropout)            (None, 160)          0           gru_39[0][0]                     
__________________________________________________________________________________________________
dropout_95 (Dropout)            (None, 176)          0           gru_40[0][0]                     
__________________________________________________________________________________________________
concatenate_32 (Concatenate)    (None, 336)          0           dropout_94[0][0]                 
                                                                 dropout_95[0][0]                 
__________________________________________________________________________________________________
dense_63 (Dense)                (None, 112)          37744       concatenate_32[0][0]             
__________________________________________________________________________________________________
dropout_96 (Dropout)            (None, 112)          0           dense_63[0][0]                   
__________________________________________________________________________________________________
dense_64 (Dense)                (None, 4)            452         dropout_96[0][0]                 
==================================================================================================
Total params: 3,649,838
Trainable params: 3,649,838
Non-trainable params: 0
__________________________________________________________________________________________________
None
==================================================================================================
…
	Important sentence: 385
	Token occurrences: 27196
	MWE number: 418
	MWE occurrences: 510
	Continuous occurrences: 50.0 %
	MWE length: 2.07
	Seen occurrences : 43% 
	Recognizable MWEs: 100.0 %

==================================================================================================
__________________________________________________________________________________________________
Layer (type)                    Output Shape         Param #     Connected to                     
==================================================================================================
input_65 (InputLayer)           (None, 8)            0                                            
__________________________________________________________________________________________________
input_66 (InputLayer)           (None, 8)            0                                            
__________________________________________________________________________________________________
embedding_65 (Embedding)        (None, 8, 542)       5895876     input_65[0][0]                   
__________________________________________________________________________________________________
embedding_66 (Embedding)        (None, 8, 58)        812         input_66[0][0]                   
__________________________________________________________________________________________________
gru_41 (GRU)                    (None, 160)          337440      embedding_65[0][0]               
__________________________________________________________________________________________________
gru_42 (GRU)                    (None, 176)          124080      embedding_66[0][0]               
__________________________________________________________________________________________________
dropout_97 (Dropout)            (None, 160)          0           gru_41[0][0]                     
__________________________________________________________________________________________________
dropout_98 (Dropout)            (None, 176)          0           gru_42[0][0]                     
__________________________________________________________________________________________________
concatenate_33 (Concatenate)    (None, 336)          0           dropout_97[0][0]                 
                                                                 dropout_98[0][0]                 
__________________________________________________________________________________________________
dense_65 (Dense)                (None, 112)          37744       concatenate_33[0][0]             
__________________________________________________________________________________________________
dropout_99 (Dropout)            (None, 112)          0           dense_65[0][0]                   
__________________________________________________________________________________________________
dense_66 (Dense)                (None, 4)            452         dropout_99[0][0]                 
==================================================================================================
Total params: 6,396,404
Trainable params: 6,396,404
Non-trainable params: 0
__________________________________________________________________________________________________
None
==================================================================================================
…
	Token occurrences: 42020
	MWE number: 451
	MWE occurrences: 670
	Continuous occurrences: 75.0 %
	MWE length: 2.14
	Seen occurrences : 57% 
	Recognizable MWEs: 100.0 %
	MWT occurrences: 1

==================================================================================================
__________________________________________________________________________________________________
Layer (type)                    Output Shape         Param #     Connected to                     
==================================================================================================
input_67 (InputLayer)           (None, 8)            0                                            
__________________________________________________________________________________________________
input_68 (InputLayer)           (None, 8)            0                                            
__________________________________________________________________________________________________
embedding_67 (Embedding)        (None, 8, 590)       296770      input_67[0][0]                   
__________________________________________________________________________________________________
embedding_68 (Embedding)        (None, 8, 47)        893         input_68[0][0]                   
__________________________________________________________________________________________________
gru_43 (GRU)                    (None, 103)          214446      embedding_67[0][0]               
__________________________________________________________________________________________________
gru_44 (GRU)                    (None, 58)           18444       embedding_68[0][0]               
__________________________________________________________________________________________________
dropout_100 (Dropout)           (None, 103)          0           gru_43[0][0]                     
__________________________________________________________________________________________________
dropout_101 (Dropout)           (None, 58)           0           gru_44[0][0]                     
__________________________________________________________________________________________________
concatenate_34 (Concatenate)    (None, 161)          0           dropout_100[0][0]                
                                                                 dropout_101[0][0]                
__________________________________________________________________________________________________
dense_67 (Dense)                (None, 132)          21384       concatenate_34[0][0]             
__________________________________________________________________________________________________
dropout_102 (Dropout)           (None, 132)          0           dense_67[0][0]                   
__________________________________________________________________________________________________
dense_68 (Dense)                (None, 4)            532         dropout_102[0][0]                
==================================================================================================
Total params: 552,469
Trainable params: 552,469
Non-trainable params: 0
__________________________________________________________________________________________________
None
==================================================================================================
…
	MWE occurrences: 553
	Continuous occurrences: 59.0 %
	MWE length: 2.25
	Seen occurrences : 62% 
	Recognizable MWEs: 98.0 %
	Embedded occurrences: 4
	Interleaving occurrences: 8

==================================================================================================
__________________________________________________________________________________________________
Layer (type)                    Output Shape         Param #     Connected to                     
==================================================================================================
input_69 (InputLayer)           (None, 8)            0                                            
__________________________________________________________________________________________________
input_70 (InputLayer)           (None, 8)            0                                            
__________________________________________________________________________________________________
embedding_69 (Embedding)        (None, 8, 590)       562270      input_69[0][0]                   
__________________________________________________________________________________________________
embedding_70 (Embedding)        (None, 8, 47)        893         input_70[0][0]                   
__________________________________________________________________________________________________
gru_45 (GRU)                    (None, 103)          214446      embedding_69[0][0]               
__________________________________________________________________________________________________
gru_46 (GRU)                    (None, 58)           18444       embedding_70[0][0]               
__________________________________________________________________________________________________
dropout_103 (Dropout)           (None, 103)          0           gru_45[0][0]                     
__________________________________________________________________________________________________
dropout_104 (Dropout)           (None, 58)           0           gru_46[0][0]                     
__________________________________________________________________________________________________
concatenate_35 (Concatenate)    (None, 161)          0           dropout_103[0][0]                
                                                                 dropout_104[0][0]                
__________________________________________________________________________________________________
dense_69 (Dense)                (None, 132)          21384       concatenate_35[0][0]             
__________________________________________________________________________________________________
dropout_105 (Dropout)           (None, 132)          0           dense_69[0][0]                   
__________________________________________________________________________________________________
dense_70 (Dense)                (None, 4)            532         dropout_105[0][0]                
==================================================================================================
Total params: 817,969
Trainable params: 817,969
Non-trainable params: 0
__________________________________________________________________________________________________
None
==================================================================================================
…
	Important sentence: 385
	Token occurrences: 27196
	MWE number: 418
	MWE occurrences: 510
	Continuous occurrences: 50.0 %
	MWE length: 2.07
	Seen occurrences : 43% 
	Recognizable MWEs: 100.0 %

==================================================================================================
__________________________________________________________________________________________________
Layer (type)                    Output Shape         Param #     Connected to                     
==================================================================================================
input_71 (InputLayer)           (None, 8)            0                                            
__________________________________________________________________________________________________
input_72 (InputLayer)           (None, 8)            0                                            
__________________________________________________________________________________________________
embedding_71 (Embedding)        (None, 8, 590)       1147550     input_71[0][0]                   
__________________________________________________________________________________________________
embedding_72 (Embedding)        (None, 8, 47)        658         input_72[0][0]                   
__________________________________________________________________________________________________
gru_47 (GRU)                    (None, 103)          214446      embedding_71[0][0]               
__________________________________________________________________________________________________
gru_48 (GRU)                    (None, 58)           18444       embedding_72[0][0]               
__________________________________________________________________________________________________
dropout_106 (Dropout)           (None, 103)          0           gru_47[0][0]                     
__________________________________________________________________________________________________
dropout_107 (Dropout)           (None, 58)           0           gru_48[0][0]                     
__________________________________________________________________________________________________
concatenate_36 (Concatenate)    (None, 161)          0           dropout_106[0][0]                
                                                                 dropout_107[0][0]                
__________________________________________________________________________________________________
dense_71 (Dense)                (None, 132)          21384       concatenate_36[0][0]             
__________________________________________________________________________________________________
dropout_108 (Dropout)           (None, 132)          0           dense_71[0][0]                   
__________________________________________________________________________________________________
dense_72 (Dense)                (None, 4)            532         dropout_108[0][0]                
==================================================================================================
Total params: 1,403,014
Trainable params: 1,403,014
Non-trainable params: 0
__________________________________________________________________________________________________
None
==================================================================================================
…
	Token occurrences: 42020
	MWE number: 451
	MWE occurrences: 670
	Continuous occurrences: 75.0 %
	MWE length: 2.14
	Seen occurrences : 57% 
	Recognizable MWEs: 100.0 %
	MWT occurrences: 1

==================================================================================================
__________________________________________________________________________________________________
Layer (type)                    Output Shape         Param #     Connected to                     
==================================================================================================
input_73 (InputLayer)           (None, 9)            0                                            
__________________________________________________________________________________________________
input_74 (InputLayer)           (None, 9)            0                                            
__________________________________________________________________________________________________
embedding_73 (Embedding)        (None, 9, 561)       3402465     input_73[0][0]                   
__________________________________________________________________________________________________
embedding_74 (Embedding)        (None, 9, 44)        836         input_74[0][0]                   
__________________________________________________________________________________________________
gru_49 (GRU)                    (None, 70)           132720      embedding_73[0][0]               
__________________________________________________________________________________________________
gru_50 (GRU)                    (None, 70)           24150       embedding_74[0][0]               
__________________________________________________________________________________________________
dropout_109 (Dropout)           (None, 70)           0           gru_49[0][0]                     
__________________________________________________________________________________________________
dropout_110 (Dropout)           (None, 70)           0           gru_50[0][0]                     
__________________________________________________________________________________________________
concatenate_37 (Concatenate)    (None, 140)          0           dropout_109[0][0]                
                                                                 dropout_110[0][0]                
__________________________________________________________________________________________________
dense_73 (Dense)                (None, 19)           2679        concatenate_37[0][0]             
__________________________________________________________________________________________________
dropout_111 (Dropout)           (None, 19)           0           dense_73[0][0]                   
__________________________________________________________________________________________________
dense_74 (Dense)                (None, 4)            80          dropout_111[0][0]                
==================================================================================================
Total params: 3,562,930
Trainable params: 3,562,930
Non-trainable params: 0
__________________________________________________________________________________________________
None
==================================================================================================
…
	MWE occurrences: 553
	Continuous occurrences: 59.0 %
	MWE length: 2.25
	Seen occurrences : 62% 
	Recognizable MWEs: 98.0 %
	Embedded occurrences: 4
	Interleaving occurrences: 8

==================================================================================================
__________________________________________________________________________________________________
Layer (type)                    Output Shape         Param #     Connected to                     
==================================================================================================
input_75 (InputLayer)           (None, 9)            0                                            
__________________________________________________________________________________________________
input_76 (InputLayer)           (None, 9)            0                                            
__________________________________________________________________________________________________
embedding_75 (Embedding)        (None, 9, 561)       3259410     input_75[0][0]                   
__________________________________________________________________________________________________
embedding_76 (Embedding)        (None, 9, 44)        836         input_76[0][0]                   
__________________________________________________________________________________________________
gru_51 (GRU)                    (None, 70)           132720      embedding_75[0][0]               
__________________________________________________________________________________________________
gru_52 (GRU)                    (None, 70)           24150       embedding_76[0][0]               
__________________________________________________________________________________________________
dropout_112 (Dropout)           (None, 70)           0           gru_51[0][0]                     
__________________________________________________________________________________________________
dropout_113 (Dropout)           (None, 70)           0           gru_52[0][0]                     
__________________________________________________________________________________________________
concatenate_38 (Concatenate)    (None, 140)          0           dropout_112[0][0]                
                                                                 dropout_113[0][0]                
__________________________________________________________________________________________________
dense_75 (Dense)                (None, 19)           2679        concatenate_38[0][0]             
__________________________________________________________________________________________________
dropout_114 (Dropout)           (None, 19)           0           dense_75[0][0]                   
__________________________________________________________________________________________________
dense_76 (Dense)                (None, 4)            80          dropout_114[0][0]                
==================================================================================================
Total params: 3,419,875
Trainable params: 3,419,875
Non-trainable params: 0
__________________________________________________________________________________________________
None
==================================================================================================
…
	Important sentence: 385
	Token occurrences: 27196
	MWE number: 418
	MWE occurrences: 510
	Continuous occurrences: 50.0 %
	MWE length: 2.07
	Seen occurrences : 43% 
	Recognizable MWEs: 100.0 %

==================================================================================================
__________________________________________________________________________________________________
Layer (type)                    Output Shape         Param #     Connected to                     
==================================================================================================
input_77 (InputLayer)           (None, 9)            0                                            
__________________________________________________________________________________________________
input_78 (InputLayer)           (None, 9)            0                                            
__________________________________________________________________________________________________
embedding_77 (Embedding)        (None, 9, 561)       6102558     input_77[0][0]                   
__________________________________________________________________________________________________
embedding_78 (Embedding)        (None, 9, 44)        616         input_78[0][0]                   
__________________________________________________________________________________________________
gru_53 (GRU)                    (None, 70)           132720      embedding_77[0][0]               
__________________________________________________________________________________________________
gru_54 (GRU)                    (None, 70)           24150       embedding_78[0][0]               
__________________________________________________________________________________________________
dropout_115 (Dropout)           (None, 70)           0           gru_53[0][0]                     
__________________________________________________________________________________________________
dropout_116 (Dropout)           (None, 70)           0           gru_54[0][0]                     
__________________________________________________________________________________________________
concatenate_39 (Concatenate)    (None, 140)          0           dropout_115[0][0]                
                                                                 dropout_116[0][0]                
__________________________________________________________________________________________________
dense_77 (Dense)                (None, 19)           2679        concatenate_39[0][0]             
__________________________________________________________________________________________________
dropout_117 (Dropout)           (None, 19)           0           dense_77[0][0]                   
__________________________________________________________________________________________________
dense_78 (Dense)                (None, 4)            80          dropout_117[0][0]                
==================================================================================================
Total params: 6,262,803
Trainable params: 6,262,803
Non-trainable params: 0
__________________________________________________________________________________________________
None
==================================================================================================
…
	Token occurrences: 42020
	MWE number: 451
	MWE occurrences: 670
	Continuous occurrences: 75.0 %
	MWE length: 2.14
	Seen occurrences : 57% 
	Recognizable MWEs: 100.0 %
	MWT occurrences: 1

==================================================================================================
__________________________________________________________________________________________________
Layer (type)                    Output Shape         Param #     Connected to                     
==================================================================================================
input_79 (InputLayer)           (None, 7)            0                                            
__________________________________________________________________________________________________
input_80 (InputLayer)           (None, 7)            0                                            
__________________________________________________________________________________________________
embedding_79 (Embedding)        (None, 7, 274)       322772      input_79[0][0]                   
__________________________________________________________________________________________________
embedding_80 (Embedding)        (None, 7, 47)        893         input_80[0][0]                   
__________________________________________________________________________________________________
lstm_25 (LSTM)                  (None, 107)          163496      embedding_79[0][0]               
__________________________________________________________________________________________________
lstm_26 (LSTM)                  (None, 87)           46980       embedding_80[0][0]               
__________________________________________________________________________________________________
dropout_118 (Dropout)           (None, 107)          0           lstm_25[0][0]                    
__________________________________________________________________________________________________
dropout_119 (Dropout)           (None, 87)           0           lstm_26[0][0]                    
__________________________________________________________________________________________________
concatenate_40 (Concatenate)    (None, 194)          0           dropout_118[0][0]                
                                                                 dropout_119[0][0]                
__________________________________________________________________________________________________
dense_79 (Dense)                (None, 19)           3705        concatenate_40[0][0]             
__________________________________________________________________________________________________
dropout_120 (Dropout)           (None, 19)           0           dense_79[0][0]                   
__________________________________________________________________________________________________
dense_80 (Dense)                (None, 4)            80          dropout_120[0][0]                
==================================================================================================
Total params: 537,926
Trainable params: 537,926
Non-trainable params: 0
__________________________________________________________________________________________________
None
==================================================================================================
…
	MWE occurrences: 553
	Continuous occurrences: 59.0 %
	MWE length: 2.25
	Seen occurrences : 62% 
	Recognizable MWEs: 98.0 %
	Embedded occurrences: 4
	Interleaving occurrences: 8

==================================================================================================
__________________________________________________________________________________________________
Layer (type)                    Output Shape         Param #     Connected to                     
==================================================================================================
input_81 (InputLayer)           (None, 7)            0                                            
__________________________________________________________________________________________________
input_82 (InputLayer)           (None, 7)            0                                            
__________________________________________________________________________________________________
embedding_81 (Embedding)        (None, 7, 274)       310716      input_81[0][0]                   
__________________________________________________________________________________________________
embedding_82 (Embedding)        (None, 7, 47)        893         input_82[0][0]                   
__________________________________________________________________________________________________
lstm_27 (LSTM)                  (None, 107)          163496      embedding_81[0][0]               
__________________________________________________________________________________________________
lstm_28 (LSTM)                  (None, 87)           46980       embedding_82[0][0]               
__________________________________________________________________________________________________
dropout_121 (Dropout)           (None, 107)          0           lstm_27[0][0]                    
__________________________________________________________________________________________________
dropout_122 (Dropout)           (None, 87)           0           lstm_28[0][0]                    
__________________________________________________________________________________________________
concatenate_41 (Concatenate)    (None, 194)          0           dropout_121[0][0]                
                                                                 dropout_122[0][0]                
__________________________________________________________________________________________________
dense_81 (Dense)                (None, 19)           3705        concatenate_41[0][0]             
__________________________________________________________________________________________________
dropout_123 (Dropout)           (None, 19)           0           dense_81[0][0]                   
__________________________________________________________________________________________________
dense_82 (Dense)                (None, 4)            80          dropout_123[0][0]                
==================================================================================================
Total params: 525,870
Trainable params: 525,870
Non-trainable params: 0
__________________________________________________________________________________________________
None
==================================================================================================
…
	Important sentence: 385
	Token occurrences: 27196
	MWE number: 418
	MWE occurrences: 510
	Continuous occurrences: 50.0 %
	MWE length: 2.07
	Seen occurrences : 43% 
	Recognizable MWEs: 100.0 %

==================================================================================================
__________________________________________________________________________________________________
Layer (type)                    Output Shape         Param #     Connected to                     
==================================================================================================
input_83 (InputLayer)           (None, 7)            0                                            
__________________________________________________________________________________________________
input_84 (InputLayer)           (None, 7)            0                                            
__________________________________________________________________________________________________
embedding_83 (Embedding)        (None, 7, 274)       593484      input_83[0][0]                   
__________________________________________________________________________________________________
embedding_84 (Embedding)        (None, 7, 47)        658         input_84[0][0]                   
__________________________________________________________________________________________________
lstm_29 (LSTM)                  (None, 107)          163496      embedding_83[0][0]               
__________________________________________________________________________________________________
lstm_30 (LSTM)                  (None, 87)           46980       embedding_84[0][0]               
__________________________________________________________________________________________________
dropout_124 (Dropout)           (None, 107)          0           lstm_29[0][0]                    
__________________________________________________________________________________________________
dropout_125 (Dropout)           (None, 87)           0           lstm_30[0][0]                    
__________________________________________________________________________________________________
concatenate_42 (Concatenate)    (None, 194)          0           dropout_124[0][0]                
                                                                 dropout_125[0][0]                
__________________________________________________________________________________________________
dense_83 (Dense)                (None, 19)           3705        concatenate_42[0][0]             
__________________________________________________________________________________________________
dropout_126 (Dropout)           (None, 19)           0           dense_83[0][0]                   
__________________________________________________________________________________________________
dense_84 (Dense)                (None, 4)            80          dropout_126[0][0]                
==================================================================================================
Total params: 808,403
Trainable params: 808,403
Non-trainable params: 0
__________________________________________________________________________________________________
None
==================================================================================================
…
	Token occurrences: 42020
	MWE number: 451
	MWE occurrences: 670
	Continuous occurrences: 75.0 %
	MWE length: 2.14
	Seen occurrences : 57% 
	Recognizable MWEs: 100.0 %
	MWT occurrences: 1

==================================================================================================
__________________________________________________________________________________________________
Layer (type)                    Output Shape         Param #     Connected to                     
==================================================================================================
input_85 (InputLayer)           (None, 8)            0                                            
__________________________________________________________________________________________________
input_86 (InputLayer)           (None, 8)            0                                            
__________________________________________________________________________________________________
embedding_85 (Embedding)        (None, 8, 471)       4417509     input_85[0][0]                   
__________________________________________________________________________________________________
embedding_86 (Embedding)        (None, 8, 31)        589         input_86[0][0]                   
__________________________________________________________________________________________________
gru_55 (GRU)                    (None, 184)          362112      embedding_85[0][0]               
__________________________________________________________________________________________________
gru_56 (GRU)                    (None, 105)          43155       embedding_86[0][0]               
__________________________________________________________________________________________________
dropout_127 (Dropout)           (None, 184)          0           gru_55[0][0]                     
__________________________________________________________________________________________________
dropout_128 (Dropout)           (None, 105)          0           gru_56[0][0]                     
__________________________________________________________________________________________________
concatenate_43 (Concatenate)    (None, 289)          0           dropout_127[0][0]                
                                                                 dropout_128[0][0]                
__________________________________________________________________________________________________
dense_85 (Dense)                (None, 171)          49590       concatenate_43[0][0]             
__________________________________________________________________________________________________
dropout_129 (Dropout)           (None, 171)          0           dense_85[0][0]                   
__________________________________________________________________________________________________
dense_86 (Dense)                (None, 4)            688         dropout_129[0][0]                
==================================================================================================
Total params: 4,873,643
Trainable params: 4,873,643
Non-trainable params: 0
__________________________________________________________________________________________________
None
==================================================================================================
…
	MWE occurrences: 553
	Continuous occurrences: 59.0 %
	MWE length: 2.25
	Seen occurrences : 62% 
	Recognizable MWEs: 98.0 %
	Embedded occurrences: 4
	Interleaving occurrences: 8

==================================================================================================
__________________________________________________________________________________________________
Layer (type)                    Output Shape         Param #     Connected to                     
==================================================================================================
input_87 (InputLayer)           (None, 8)            0                                            
__________________________________________________________________________________________________
input_88 (InputLayer)           (None, 8)            0                                            
__________________________________________________________________________________________________
embedding_87 (Embedding)        (None, 8, 471)       3413808     input_87[0][0]                   
__________________________________________________________________________________________________
embedding_88 (Embedding)        (None, 8, 31)        589         input_88[0][0]                   
__________________________________________________________________________________________________
gru_57 (GRU)                    (None, 184)          362112      embedding_87[0][0]               
__________________________________________________________________________________________________
gru_58 (GRU)                    (None, 105)          43155       embedding_88[0][0]               
__________________________________________________________________________________________________
dropout_130 (Dropout)           (None, 184)          0           gru_57[0][0]                     
__________________________________________________________________________________________________
dropout_131 (Dropout)           (None, 105)          0           gru_58[0][0]                     
__________________________________________________________________________________________________
concatenate_44 (Concatenate)    (None, 289)          0           dropout_130[0][0]                
                                                                 dropout_131[0][0]                
__________________________________________________________________________________________________
dense_87 (Dense)                (None, 171)          49590       concatenate_44[0][0]             
__________________________________________________________________________________________________
dropout_132 (Dropout)           (None, 171)          0           dense_87[0][0]                   
__________________________________________________________________________________________________
…
__________________________________________________________________________________________________
dense_125 (Dense)               (None, 137)          288385      concatenate_63[0][0]             
__________________________________________________________________________________________________
dropout_189 (Dropout)           (None, 137)          0           dense_125[0][0]                  
__________________________________________________________________________________________________
dense_126 (Dense)               (None, 4)            552         dropout_189[0][0]                
==================================================================================================
Total params: 11,110,563
Trainable params: 11,110,563
Non-trainable params: 0
__________________________________________________________________________________________________
None
==================================================================================================
…
	Token occurrences: 42020
	MWE number: 451
	MWE occurrences: 670
	Continuous occurrences: 75.0 %
	MWE length: 2.14
	Seen occurrences : 57% 
	Recognizable MWEs: 100.0 %
	MWT occurrences: 1

==================================================================================================
__________________________________________________________________________________________________
Layer (type)                    Output Shape         Param #     Connected to                     
==================================================================================================
input_127 (InputLayer)          (None, 11)           0                                            
__________________________________________________________________________________________________
input_128 (InputLayer)          (None, 11)           0                                            
__________________________________________________________________________________________________
embedding_127 (Embedding)       (None, 11, 589)      3572285     input_127[0][0]                  
__________________________________________________________________________________________________
embedding_128 (Embedding)       (None, 11, 91)       1729        input_128[0][0]                  
__________________________________________________________________________________________________
lstm_49 (LSTM)                  (None, 11, 66)       173184      embedding_127[0][0]              
__________________________________________________________________________________________________
lstm_50 (LSTM)                  (None, 11, 39)       20436       embedding_128[0][0]              
__________________________________________________________________________________________________
flatten_43 (Flatten)            (None, 726)          0           lstm_49[0][0]                    
__________________________________________________________________________________________________
flatten_44 (Flatten)            (None, 429)          0           lstm_50[0][0]                    
__________________________________________________________________________________________________
dropout_190 (Dropout)           (None, 726)          0           flatten_43[0][0]                 
__________________________________________________________________________________________________
dropout_191 (Dropout)           (None, 429)          0           flatten_44[0][0]                 
__________________________________________________________________________________________________
concatenate_64 (Concatenate)    (None, 1155)         0           dropout_190[0][0]                
                                                                 dropout_191[0][0]                
__________________________________________________________________________________________________
dense_127 (Dense)               (None, 40)           46240       concatenate_64[0][0]             
__________________________________________________________________________________________________
dropout_192 (Dropout)           (None, 40)           0           dense_127[0][0]                  
__________________________________________________________________________________________________
dense_128 (Dense)               (None, 4)            164         dropout_192[0][0]                
==================================================================================================
Total params: 3,814,038
Trainable params: 3,814,038
Non-trainable params: 0
__________________________________________________________________________________________________
None
==================================================================================================
…
	MWE occurrences: 553
	Continuous occurrences: 59.0 %
	MWE length: 2.25
	Seen occurrences : 62% 
	Recognizable MWEs: 98.0 %
	Embedded occurrences: 4
	Interleaving occurrences: 8

==================================================================================================
__________________________________________________________________________________________________
Layer (type)                    Output Shape         Param #     Connected to                     
==================================================================================================
input_129 (InputLayer)          (None, 11)           0                                            
__________________________________________________________________________________________________
input_130 (InputLayer)          (None, 11)           0                                            
__________________________________________________________________________________________________
embedding_129 (Embedding)       (None, 11, 589)      3422090     input_129[0][0]                  
__________________________________________________________________________________________________
embedding_130 (Embedding)       (None, 11, 91)       1729        input_130[0][0]                  
__________________________________________________________________________________________________
lstm_51 (LSTM)                  (None, 11, 66)       173184      embedding_129[0][0]              
__________________________________________________________________________________________________
lstm_52 (LSTM)                  (None, 11, 39)       20436       embedding_130[0][0]              
__________________________________________________________________________________________________
flatten_45 (Flatten)            (None, 726)          0           lstm_51[0][0]                    
__________________________________________________________________________________________________
flatten_46 (Flatten)            (None, 429)          0           lstm_52[0][0]                    
__________________________________________________________________________________________________
dropout_193 (Dropout)           (None, 726)          0           flatten_45[0][0]                 
__________________________________________________________________________________________________
dropout_194 (Dropout)           (None, 429)          0           flatten_46[0][0]                 
__________________________________________________________________________________________________
concatenate_65 (Concatenate)    (None, 1155)         0           dropout_193[0][0]                
                                                                 dropout_194[0][0]                
__________________________________________________________________________________________________
dense_129 (Dense)               (None, 40)           46240       concatenate_65[0][0]             
__________________________________________________________________________________________________
dropout_195 (Dropout)           (None, 40)           0           dense_129[0][0]                  
__________________________________________________________________________________________________
dense_130 (Dense)               (None, 4)            164         dropout_195[0][0]                
==================================================================================================
Total params: 3,663,843
Trainable params: 3,663,843
Non-trainable params: 0
__________________________________________________________________________________________________
None
==================================================================================================
…
	Important sentence: 385
	Token occurrences: 27196
	MWE number: 418
	MWE occurrences: 510
	Continuous occurrences: 50.0 %
	MWE length: 2.07
	Seen occurrences : 43% 
	Recognizable MWEs: 100.0 %

==================================================================================================
__________________________________________________________________________________________________
Layer (type)                    Output Shape         Param #     Connected to                     
==================================================================================================
input_131 (InputLayer)          (None, 11)           0                                            
__________________________________________________________________________________________________
input_132 (InputLayer)          (None, 11)           0                                            
__________________________________________________________________________________________________
embedding_131 (Embedding)       (None, 11, 589)      6407142     input_131[0][0]                  
__________________________________________________________________________________________________
embedding_132 (Embedding)       (None, 11, 91)       1274        input_132[0][0]                  
__________________________________________________________________________________________________
lstm_53 (LSTM)                  (None, 11, 66)       173184      embedding_131[0][0]              
__________________________________________________________________________________________________
lstm_54 (LSTM)                  (None, 11, 39)       20436       embedding_132[0][0]              
__________________________________________________________________________________________________
flatten_47 (Flatten)            (None, 726)          0           lstm_53[0][0]                    
__________________________________________________________________________________________________
flatten_48 (Flatten)            (None, 429)          0           lstm_54[0][0]                    
__________________________________________________________________________________________________
dropout_196 (Dropout)           (None, 726)          0           flatten_47[0][0]                 
__________________________________________________________________________________________________
dropout_197 (Dropout)           (None, 429)          0           flatten_48[0][0]                 
__________________________________________________________________________________________________
concatenate_66 (Concatenate)    (None, 1155)         0           dropout_196[0][0]                
                                                                 dropout_197[0][0]                
__________________________________________________________________________________________________
dense_131 (Dense)               (None, 40)           46240       concatenate_66[0][0]             
__________________________________________________________________________________________________
dropout_198 (Dropout)           (None, 40)           0           dense_131[0][0]                  
__________________________________________________________________________________________________
dense_132 (Dense)               (None, 4)            164         dropout_198[0][0]                
==================================================================================================
Total params: 6,648,440
Trainable params: 6,648,440
Non-trainable params: 0
__________________________________________________________________________________________________
None
==================================================================================================
…
	Token occurrences: 42020
	MWE number: 451
	MWE occurrences: 670
	Continuous occurrences: 75.0 %
	MWE length: 2.14
	Seen occurrences : 57% 
	Recognizable MWEs: 100.0 %
	MWT occurrences: 1

==================================================================================================
__________________________________________________________________________________________________
Layer (type)                    Output Shape         Param #     Connected to                     
==================================================================================================
input_133 (InputLayer)          (None, 8)            0                                            
__________________________________________________________________________________________________
input_134 (InputLayer)          (None, 8)            0                                            
__________________________________________________________________________________________________
embedding_133 (Embedding)       (None, 8, 275)       138325      input_133[0][0]                  
__________________________________________________________________________________________________
embedding_134 (Embedding)       (None, 8, 56)        1064        input_134[0][0]                  
__________________________________________________________________________________________________
gru_79 (GRU)                    (None, 86)           93396       embedding_133[0][0]              
__________________________________________________________________________________________________
gru_80 (GRU)                    (None, 84)           35532       embedding_134[0][0]              
__________________________________________________________________________________________________
dropout_199 (Dropout)           (None, 86)           0           gru_79[0][0]                     
__________________________________________________________________________________________________
dropout_200 (Dropout)           (None, 84)           0           gru_80[0][0]                     
__________________________________________________________________________________________________
concatenate_67 (Concatenate)    (None, 170)          0           dropout_199[0][0]                
                                                                 dropout_200[0][0]                
__________________________________________________________________________________________________
dense_133 (Dense)               (None, 176)          30096       concatenate_67[0][0]             
__________________________________________________________________________________________________
dropout_201 (Dropout)           (None, 176)          0           dense_133[0][0]                  
__________________________________________________________________________________________________
dense_134 (Dense)               (None, 4)            708         dropout_201[0][0]                
==================================================================================================
Total params: 299,121
Trainable params: 299,121
Non-trainable params: 0
__________________________________________________________________________________________________
None
==================================================================================================
…
	MWE occurrences: 553
	Continuous occurrences: 59.0 %
	MWE length: 2.25
	Seen occurrences : 62% 
	Recognizable MWEs: 98.0 %
	Embedded occurrences: 4
	Interleaving occurrences: 8

==================================================================================================
__________________________________________________________________________________________________
Layer (type)                    Output Shape         Param #     Connected to                     
==================================================================================================
input_135 (InputLayer)          (None, 8)            0                                            
__________________________________________________________________________________________________
input_136 (InputLayer)          (None, 8)            0                                            
__________________________________________________________________________________________________
embedding_135 (Embedding)       (None, 8, 275)       262075      input_135[0][0]                  
__________________________________________________________________________________________________
embedding_136 (Embedding)       (None, 8, 56)        1064        input_136[0][0]                  
__________________________________________________________________________________________________
gru_81 (GRU)                    (None, 86)           93396       embedding_135[0][0]              
__________________________________________________________________________________________________
gru_82 (GRU)                    (None, 84)           35532       embedding_136[0][0]              
__________________________________________________________________________________________________
dropout_202 (Dropout)           (None, 86)           0           gru_81[0][0]                     
__________________________________________________________________________________________________
dropout_203 (Dropout)           (None, 84)           0           gru_82[0][0]                     
__________________________________________________________________________________________________
concatenate_68 (Concatenate)    (None, 170)          0           dropout_202[0][0]                
                                                                 dropout_203[0][0]                
__________________________________________________________________________________________________
dense_135 (Dense)               (None, 176)          30096       concatenate_68[0][0]             
__________________________________________________________________________________________________
dropout_204 (Dropout)           (None, 176)          0           dense_135[0][0]                  
__________________________________________________________________________________________________
dense_136 (Dense)               (None, 4)            708         dropout_204[0][0]                
==================================================================================================
Total params: 422,871
Trainable params: 422,871
Non-trainable params: 0
__________________________________________________________________________________________________
None
==================================================================================================
…
	Important sentence: 385
	Token occurrences: 27196
	MWE number: 418
	MWE occurrences: 510
	Continuous occurrences: 50.0 %
	MWE length: 2.07
	Seen occurrences : 43% 
	Recognizable MWEs: 100.0 %

==================================================================================================
__________________________________________________________________________________________________
Layer (type)                    Output Shape         Param #     Connected to                     
==================================================================================================
input_137 (InputLayer)          (None, 8)            0                                            
__________________________________________________________________________________________________
input_138 (InputLayer)          (None, 8)            0                                            
__________________________________________________________________________________________________
embedding_137 (Embedding)       (None, 8, 275)       534875      input_137[0][0]                  
__________________________________________________________________________________________________
embedding_138 (Embedding)       (None, 8, 56)        784         input_138[0][0]                  
__________________________________________________________________________________________________
gru_83 (GRU)                    (None, 86)           93396       embedding_137[0][0]              
__________________________________________________________________________________________________
gru_84 (GRU)                    (None, 84)           35532       embedding_138[0][0]              
__________________________________________________________________________________________________
dropout_205 (Dropout)           (None, 86)           0           gru_83[0][0]                     
__________________________________________________________________________________________________
dropout_206 (Dropout)           (None, 84)           0           gru_84[0][0]                     
__________________________________________________________________________________________________
concatenate_69 (Concatenate)    (None, 170)          0           dropout_205[0][0]                
                                                                 dropout_206[0][0]                
__________________________________________________________________________________________________
dense_137 (Dense)               (None, 176)          30096       concatenate_69[0][0]             
__________________________________________________________________________________________________
dropout_207 (Dropout)           (None, 176)          0           dense_137[0][0]                  
__________________________________________________________________________________________________
dense_138 (Dense)               (None, 4)            708         dropout_207[0][0]                
==================================================================================================
Total params: 695,391
Trainable params: 695,391
Non-trainable params: 0
__________________________________________________________________________________________________
None
==================================================================================================
…
	Token occurrences: 42020
	MWE number: 451
	MWE occurrences: 670
	Continuous occurrences: 75.0 %
	MWE length: 2.14
	Seen occurrences : 57% 
	Recognizable MWEs: 100.0 %
	MWT occurrences: 1

==================================================================================================
__________________________________________________________________________________________________
Layer (type)                    Output Shape         Param #     Connected to                     
==================================================================================================
input_139 (InputLayer)          (None, 10)           0                                            
__________________________________________________________________________________________________
input_140 (InputLayer)          (None, 10)           0                                            
__________________________________________________________________________________________________
embedding_139 (Embedding)       (None, 10, 326)      384028      input_139[0][0]                  
__________________________________________________________________________________________________
embedding_140 (Embedding)       (None, 10, 77)       1463        input_140[0][0]                  
__________________________________________________________________________________________________
gru_85 (GRU)                    (None, 172)          257484      embedding_139[0][0]              
__________________________________________________________________________________________________
gru_86 (GRU)                    (None, 81)           38637       embedding_140[0][0]              
__________________________________________________________________________________________________
dropout_208 (Dropout)           (None, 172)          0           gru_85[0][0]                     
__________________________________________________________________________________________________
dropout_209 (Dropout)           (None, 81)           0           gru_86[0][0]                     
__________________________________________________________________________________________________
concatenate_70 (Concatenate)    (None, 253)          0           dropout_208[0][0]                
                                                                 dropout_209[0][0]                
__________________________________________________________________________________________________
dense_139 (Dense)               (None, 112)          28448       concatenate_70[0][0]             
__________________________________________________________________________________________________
dropout_210 (Dropout)           (None, 112)          0           dense_139[0][0]                  
__________________________________________________________________________________________________
dense_140 (Dense)               (None, 4)            452         dropout_210[0][0]                
==================================================================================================
Total params: 710,512
Trainable params: 710,512
Non-trainable params: 0
__________________________________________________________________________________________________
None
==================================================================================================
…
	MWE occurrences: 553
	Continuous occurrences: 59.0 %
	MWE length: 2.25
	Seen occurrences : 62% 
	Recognizable MWEs: 98.0 %
	Embedded occurrences: 4
	Interleaving occurrences: 8

==================================================================================================
__________________________________________________________________________________________________
Layer (type)                    Output Shape         Param #     Connected to                     
==================================================================================================
input_141 (InputLayer)          (None, 10)           0                                            
__________________________________________________________________________________________________
input_142 (InputLayer)          (None, 10)           0                                            
__________________________________________________________________________________________________
embedding_141 (Embedding)       (None, 10, 326)      369684      input_141[0][0]                  
__________________________________________________________________________________________________
embedding_142 (Embedding)       (None, 10, 77)       1463        input_142[0][0]                  
__________________________________________________________________________________________________
gru_87 (GRU)                    (None, 172)          257484      embedding_141[0][0]              
__________________________________________________________________________________________________
gru_88 (GRU)                    (None, 81)           38637       embedding_142[0][0]              
__________________________________________________________________________________________________
dropout_211 (Dropout)           (None, 172)          0           gru_87[0][0]                     
__________________________________________________________________________________________________
dropout_212 (Dropout)           (None, 81)           0           gru_88[0][0]                     
__________________________________________________________________________________________________
concatenate_71 (Concatenate)    (None, 253)          0           dropout_211[0][0]                
                                                                 dropout_212[0][0]                
__________________________________________________________________________________________________
dense_141 (Dense)               (None, 112)          28448       concatenate_71[0][0]             
__________________________________________________________________________________________________
dropout_213 (Dropout)           (None, 112)          0           dense_141[0][0]                  
__________________________________________________________________________________________________
dense_142 (Dense)               (None, 4)            452         dropout_213[0][0]                
==================================================================================================
Total params: 696,168
Trainable params: 696,168
Non-trainable params: 0
__________________________________________________________________________________________________
None
==================================================================================================
…
	Important sentence: 385
	Token occurrences: 27196
	MWE number: 418
	MWE occurrences: 510
	Continuous occurrences: 50.0 %
	MWE length: 2.07
	Seen occurrences : 43% 
	Recognizable MWEs: 100.0 %

==================================================================================================
__________________________________________________________________________________________________
Layer (type)                    Output Shape         Param #     Connected to                     
==================================================================================================
input_143 (InputLayer)          (None, 10)           0                                            
__________________________________________________________________________________________________
input_144 (InputLayer)          (None, 10)           0                                            
__________________________________________________________________________________________________
embedding_143 (Embedding)       (None, 10, 326)      706116      input_143[0][0]                  
__________________________________________________________________________________________________
embedding_144 (Embedding)       (None, 10, 77)       1078        input_144[0][0]                  
__________________________________________________________________________________________________
gru_89 (GRU)                    (None, 172)          257484      embedding_143[0][0]              
__________________________________________________________________________________________________
gru_90 (GRU)                    (None, 81)           38637       embedding_144[0][0]              
__________________________________________________________________________________________________
dropout_214 (Dropout)           (None, 172)          0           gru_89[0][0]                     
__________________________________________________________________________________________________
dropout_215 (Dropout)           (None, 81)           0           gru_90[0][0]                     
__________________________________________________________________________________________________
concatenate_72 (Concatenate)    (None, 253)          0           dropout_214[0][0]                
                                                                 dropout_215[0][0]                
__________________________________________________________________________________________________
dense_143 (Dense)               (None, 112)          28448       concatenate_72[0][0]             
__________________________________________________________________________________________________
dropout_216 (Dropout)           (None, 112)          0           dense_143[0][0]                  
__________________________________________________________________________________________________
dense_144 (Dense)               (None, 4)            452         dropout_216[0][0]                
==================================================================================================
Total params: 1,032,215
Trainable params: 1,032,215
Non-trainable params: 0
__________________________________________________________________________________________________
None
==================================================================================================
…
	Token occurrences: 42020
	MWE number: 451
	MWE occurrences: 670
	Continuous occurrences: 75.0 %
	MWE length: 2.14
	Seen occurrences : 57% 
	Recognizable MWEs: 100.0 %
	MWT occurrences: 1

==================================================================================================
__________________________________________________________________________________________________
Layer (type)                    Output Shape         Param #     Connected to                     
==================================================================================================
input_145 (InputLayer)          (None, 10)           0                                            
__________________________________________________________________________________________________
input_146 (InputLayer)          (None, 10)           0                                            
__________________________________________________________________________________________________
embedding_145 (Embedding)       (None, 10, 297)      1801305     input_145[0][0]                  
__________________________________________________________________________________________________
embedding_146 (Embedding)       (None, 10, 93)       1767        input_146[0][0]                  
__________________________________________________________________________________________________
gru_91 (GRU)                    (None, 10, 150)      201600      embedding_145[0][0]              
__________________________________________________________________________________________________
gru_92 (GRU)                    (None, 10, 58)       26448       embedding_146[0][0]              
__________________________________________________________________________________________________
flatten_49 (Flatten)            (None, 1500)         0           gru_91[0][0]                     
__________________________________________________________________________________________________
flatten_50 (Flatten)            (None, 580)          0           gru_92[0][0]                     
__________________________________________________________________________________________________
dropout_217 (Dropout)           (None, 1500)         0           flatten_49[0][0]                 
__________________________________________________________________________________________________
dropout_218 (Dropout)           (None, 580)          0           flatten_50[0][0]                 
__________________________________________________________________________________________________
concatenate_73 (Concatenate)    (None, 2080)         0           dropout_217[0][0]                
                                                                 dropout_218[0][0]                
__________________________________________________________________________________________________
dense_145 (Dense)               (None, 147)          305907      concatenate_73[0][0]             
__________________________________________________________________________________________________
dropout_219 (Dropout)           (None, 147)          0           dense_145[0][0]                  
__________________________________________________________________________________________________
dense_146 (Dense)               (None, 4)            592         dropout_219[0][0]                
==================================================================================================
Total params: 2,337,619
Trainable params: 2,337,619
Non-trainable params: 0
__________________________________________________________________________________________________
None
==================================================================================================
…
	MWE occurrences: 553
	Continuous occurrences: 59.0 %
	MWE length: 2.25
	Seen occurrences : 62% 
	Recognizable MWEs: 98.0 %
	Embedded occurrences: 4
	Interleaving occurrences: 8

==================================================================================================
__________________________________________________________________________________________________
Layer (type)                    Output Shape         Param #     Connected to                     
==================================================================================================
input_147 (InputLayer)          (None, 10)           0                                            
__________________________________________________________________________________________________
input_148 (InputLayer)          (None, 10)           0                                            
__________________________________________________________________________________________________
embedding_147 (Embedding)       (None, 10, 297)      1725570     input_147[0][0]                  
__________________________________________________________________________________________________
embedding_148 (Embedding)       (None, 10, 93)       1767        input_148[0][0]                  
__________________________________________________________________________________________________
gru_93 (GRU)                    (None, 10, 150)      201600      embedding_147[0][0]              
__________________________________________________________________________________________________
gru_94 (GRU)                    (None, 10, 58)       26448       embedding_148[0][0]              
__________________________________________________________________________________________________
flatten_51 (Flatten)            (None, 1500)         0           gru_93[0][0]                     
__________________________________________________________________________________________________
flatten_52 (Flatten)            (None, 580)          0           gru_94[0][0]                     
__________________________________________________________________________________________________
dropout_220 (Dropout)           (None, 1500)         0           flatten_51[0][0]                 
__________________________________________________________________________________________________
dropout_221 (Dropout)           (None, 580)          0           flatten_52[0][0]                 
__________________________________________________________________________________________________
concatenate_74 (Concatenate)    (None, 2080)         0           dropout_220[0][0]                
                                                                 dropout_221[0][0]                
__________________________________________________________________________________________________
dense_147 (Dense)               (None, 147)          305907      concatenate_74[0][0]             
__________________________________________________________________________________________________
dropout_222 (Dropout)           (None, 147)          0           dense_147[0][0]                  
__________________________________________________________________________________________________
dense_148 (Dense)               (None, 4)            592         dropout_222[0][0]                
==================================================================================================
Total params: 2,261,884
Trainable params: 2,261,884
Non-trainable params: 0
__________________________________________________________________________________________________
None
==================================================================================================
…
	Important sentence: 385
	Token occurrences: 27196
	MWE number: 418
	MWE occurrences: 510
	Continuous occurrences: 50.0 %
	MWE length: 2.07
	Seen occurrences : 43% 
	Recognizable MWEs: 100.0 %

==================================================================================================
__________________________________________________________________________________________________
Layer (type)                    Output Shape         Param #     Connected to                     
==================================================================================================
input_149 (InputLayer)          (None, 10)           0                                            
__________________________________________________________________________________________________
input_150 (InputLayer)          (None, 10)           0                                            
__________________________________________________________________________________________________
embedding_149 (Embedding)       (None, 10, 297)      3230766     input_149[0][0]                  
__________________________________________________________________________________________________
embedding_150 (Embedding)       (None, 10, 93)       1302        input_150[0][0]                  
__________________________________________________________________________________________________
gru_95 (GRU)                    (None, 10, 150)      201600      embedding_149[0][0]              
__________________________________________________________________________________________________
gru_96 (GRU)                    (None, 10, 58)       26448       embedding_150[0][0]              
__________________________________________________________________________________________________
flatten_53 (Flatten)            (None, 1500)         0           gru_95[0][0]                     
__________________________________________________________________________________________________
flatten_54 (Flatten)            (None, 580)          0           gru_96[0][0]                     
__________________________________________________________________________________________________
dropout_223 (Dropout)           (None, 1500)         0           flatten_53[0][0]                 
__________________________________________________________________________________________________
dropout_224 (Dropout)           (None, 580)          0           flatten_54[0][0]                 
__________________________________________________________________________________________________
concatenate_75 (Concatenate)    (None, 2080)         0           dropout_223[0][0]                
                                                                 dropout_224[0][0]                
__________________________________________________________________________________________________
dense_149 (Dense)               (None, 147)          305907      concatenate_75[0][0]             
__________________________________________________________________________________________________
dropout_225 (Dropout)           (None, 147)          0           dense_149[0][0]                  
__________________________________________________________________________________________________
dense_150 (Dense)               (None, 4)            592         dropout_225[0][0]                
==================================================================================================
Total params: 3,766,615
Trainable params: 3,766,615
Non-trainable params: 0
__________________________________________________________________________________________________
None
==================================================================================================
…
	Token occurrences: 42020
	MWE number: 451
	MWE occurrences: 670
	Continuous occurrences: 75.0 %
	MWE length: 2.14
	Seen occurrences : 57% 
	Recognizable MWEs: 100.0 %
	MWT occurrences: 1

==================================================================================================
__________________________________________________________________________________________________
Layer (type)                    Output Shape         Param #     Connected to                     
==================================================================================================
input_151 (InputLayer)          (None, 10)           0                                            
__________________________________________________________________________________________________
input_152 (InputLayer)          (None, 10)           0                                            
__________________________________________________________________________________________________
embedding_151 (Embedding)       (None, 10, 567)      3438855     input_151[0][0]                  
__________________________________________________________________________________________________
embedding_152 (Embedding)       (None, 10, 72)       1368        input_152[0][0]                  
__________________________________________________________________________________________________
lstm_55 (LSTM)                  (None, 34)           81872       embedding_151[0][0]              
__________________________________________________________________________________________________
lstm_56 (LSTM)                  (None, 195)          209040      embedding_152[0][0]              
__________________________________________________________________________________________________
dropout_226 (Dropout)           (None, 34)           0           lstm_55[0][0]                    
__________________________________________________________________________________________________
dropout_227 (Dropout)           (None, 195)          0           lstm_56[0][0]                    
__________________________________________________________________________________________________
concatenate_76 (Concatenate)    (None, 229)          0           dropout_226[0][0]                
                                                                 dropout_227[0][0]                
__________________________________________________________________________________________________
dense_151 (Dense)               (None, 6)            1380        concatenate_76[0][0]             
__________________________________________________________________________________________________
dropout_228 (Dropout)           (None, 6)            0           dense_151[0][0]                  
__________________________________________________________________________________________________
dense_152 (Dense)               (None, 4)            28          dropout_228[0][0]                
==================================================================================================
Total params: 3,732,543
Trainable params: 3,732,543
Non-trainable params: 0
__________________________________________________________________________________________________
None
==================================================================================================
…
	MWE occurrences: 553
	Continuous occurrences: 59.0 %
	MWE length: 2.25
	Seen occurrences : 62% 
	Recognizable MWEs: 98.0 %
	Embedded occurrences: 4
	Interleaving occurrences: 8

==================================================================================================
__________________________________________________________________________________________________
Layer (type)                    Output Shape         Param #     Connected to                     
==================================================================================================
input_153 (InputLayer)          (None, 10)           0                                            
__________________________________________________________________________________________________
input_154 (InputLayer)          (None, 10)           0                                            
__________________________________________________________________________________________________
embedding_153 (Embedding)       (None, 10, 567)      3294270     input_153[0][0]                  
__________________________________________________________________________________________________
embedding_154 (Embedding)       (None, 10, 72)       1368        input_154[0][0]                  
__________________________________________________________________________________________________
lstm_57 (LSTM)                  (None, 34)           81872       embedding_153[0][0]              
__________________________________________________________________________________________________
lstm_58 (LSTM)                  (None, 195)          209040      embedding_154[0][0]              
__________________________________________________________________________________________________
dropout_229 (Dropout)           (None, 34)           0           lstm_57[0][0]                    
__________________________________________________________________________________________________
dropout_230 (Dropout)           (None, 195)          0           lstm_58[0][0]                    
__________________________________________________________________________________________________
concatenate_77 (Concatenate)    (None, 229)          0           dropout_229[0][0]                
                                                                 dropout_230[0][0]                
__________________________________________________________________________________________________
dense_153 (Dense)               (None, 6)            1380        concatenate_77[0][0]             
__________________________________________________________________________________________________
dropout_231 (Dropout)           (None, 6)            0           dense_153[0][0]                  
__________________________________________________________________________________________________
dense_154 (Dense)               (None, 4)            28          dropout_231[0][0]                
==================================================================================================
Total params: 3,587,958
Trainable params: 3,587,958
Non-trainable params: 0
__________________________________________________________________________________________________
None
==================================================================================================
…
