…
	Token occurrences: 42020
	MWE number: 451
	MWE occurrences: 670
	Continuous occurrences: 75.0 %
	MWE length: 2.14
	Seen occurrences : 57% 
	Recognizable MWEs: 100.0 %
	MWT occurrences: 1

==================================================================================================
__________________________________________________________________________________________________
Layer (type)                    Output Shape         Param #     Connected to                     
==================================================================================================
input_1 (InputLayer)            (None, 7)            0                                            
__________________________________________________________________________________________________
input_2 (InputLayer)            (None, 7)            0                                            
__________________________________________________________________________________________________
embedding_1 (Embedding)         (None, 7, 300)       150900      input_1[0][0]                    
__________________________________________________________________________________________________
embedding_2 (Embedding)         (None, 7, 61)        1159        input_2[0][0]                    
__________________________________________________________________________________________________
gru_1 (GRU)                     (None, 57)           61218       embedding_1[0][0]                
__________________________________________________________________________________________________
gru_2 (GRU)                     (None, 56)           19824       embedding_2[0][0]                
__________________________________________________________________________________________________
dropout_1 (Dropout)             (None, 57)           0           gru_1[0][0]                      
__________________________________________________________________________________________________
dropout_2 (Dropout)             (None, 56)           0           gru_2[0][0]                      
__________________________________________________________________________________________________
concatenate_1 (Concatenate)     (None, 113)          0           dropout_1[0][0]                  
                                                                 dropout_2[0][0]                  
__________________________________________________________________________________________________
dense_1 (Dense)                 (None, 22)           2508        concatenate_1[0][0]              
__________________________________________________________________________________________________
dropout_3 (Dropout)             (None, 22)           0           dense_1[0][0]                    
__________________________________________________________________________________________________
dense_2 (Dense)                 (None, 4)            92          dropout_3[0][0]                  
==================================================================================================
Total params: 235,701
Trainable params: 235,701
Non-trainable params: 0
__________________________________________________________________________________________________
None
==================================================================================================
…
	MWE occurrences: 553
	Continuous occurrences: 59.0 %
	MWE length: 2.25
	Seen occurrences : 62% 
	Recognizable MWEs: 98.0 %
	Embedded occurrences: 4
	Interleaving occurrences: 8

==================================================================================================
__________________________________________________________________________________________________
Layer (type)                    Output Shape         Param #     Connected to                     
==================================================================================================
input_3 (InputLayer)            (None, 7)            0                                            
__________________________________________________________________________________________________
input_4 (InputLayer)            (None, 7)            0                                            
__________________________________________________________________________________________________
embedding_3 (Embedding)         (None, 7, 300)       285900      input_3[0][0]                    
__________________________________________________________________________________________________
embedding_4 (Embedding)         (None, 7, 61)        1159        input_4[0][0]                    
__________________________________________________________________________________________________
gru_3 (GRU)                     (None, 57)           61218       embedding_3[0][0]                
__________________________________________________________________________________________________
gru_4 (GRU)                     (None, 56)           19824       embedding_4[0][0]                
__________________________________________________________________________________________________
dropout_4 (Dropout)             (None, 57)           0           gru_3[0][0]                      
__________________________________________________________________________________________________
dropout_5 (Dropout)             (None, 56)           0           gru_4[0][0]                      
__________________________________________________________________________________________________
concatenate_2 (Concatenate)     (None, 113)          0           dropout_4[0][0]                  
                                                                 dropout_5[0][0]                  
__________________________________________________________________________________________________
dense_3 (Dense)                 (None, 22)           2508        concatenate_2[0][0]              
__________________________________________________________________________________________________
dropout_6 (Dropout)             (None, 22)           0           dense_3[0][0]                    
__________________________________________________________________________________________________
dense_4 (Dense)                 (None, 4)            92          dropout_6[0][0]                  
==================================================================================================
Total params: 370,701
Trainable params: 370,701
Non-trainable params: 0
__________________________________________________________________________________________________
None
==================================================================================================
…
	Important sentence: 385
	Token occurrences: 27196
	MWE number: 418
	MWE occurrences: 510
	Continuous occurrences: 50.0 %
	MWE length: 2.07
	Seen occurrences : 43% 
	Recognizable MWEs: 100.0 %

==================================================================================================
__________________________________________________________________________________________________
Layer (type)                    Output Shape         Param #     Connected to                     
==================================================================================================
input_5 (InputLayer)            (None, 7)            0                                            
__________________________________________________________________________________________________
input_6 (InputLayer)            (None, 7)            0                                            
__________________________________________________________________________________________________
embedding_5 (Embedding)         (None, 7, 300)       583500      input_5[0][0]                    
__________________________________________________________________________________________________
embedding_6 (Embedding)         (None, 7, 61)        854         input_6[0][0]                    
__________________________________________________________________________________________________
gru_5 (GRU)                     (None, 57)           61218       embedding_5[0][0]                
__________________________________________________________________________________________________
gru_6 (GRU)                     (None, 56)           19824       embedding_6[0][0]                
__________________________________________________________________________________________________
dropout_7 (Dropout)             (None, 57)           0           gru_5[0][0]                      
__________________________________________________________________________________________________
dropout_8 (Dropout)             (None, 56)           0           gru_6[0][0]                      
__________________________________________________________________________________________________
concatenate_3 (Concatenate)     (None, 113)          0           dropout_7[0][0]                  
                                                                 dropout_8[0][0]                  
__________________________________________________________________________________________________
dense_5 (Dense)                 (None, 22)           2508        concatenate_3[0][0]              
__________________________________________________________________________________________________
dropout_9 (Dropout)             (None, 22)           0           dense_5[0][0]                    
__________________________________________________________________________________________________
dense_6 (Dense)                 (None, 4)            92          dropout_9[0][0]                  
==================================================================================================
Total params: 667,996
Trainable params: 667,996
Non-trainable params: 0
__________________________________________________________________________________________________
None
==================================================================================================
…
