…
	Token occurrences: 42020
	MWE number: 451
	MWE occurrences: 670
	Continuous occurrences: 75.0 %
	MWE length: 2.14
	Seen occurrences : 57% 
	Recognizable MWEs: 100.0 %
	MWT occurrences: 1

==================================================================================================
__________________________________________________________________________________________________
Layer (type)                    Output Shape         Param #     Connected to                     
==================================================================================================
input_1 (InputLayer)            (None, 7)            0                                            
__________________________________________________________________________________________________
input_2 (InputLayer)            (None, 7)            0                                            
__________________________________________________________________________________________________
embedding_1 (Embedding)         (None, 7, 269)       316882      input_1[0][0]                    
__________________________________________________________________________________________________
embedding_2 (Embedding)         (None, 7, 82)        1558        input_2[0][0]                    
__________________________________________________________________________________________________
gru_1 (GRU)                     (None, 7, 42)        39312       embedding_1[0][0]                
__________________________________________________________________________________________________
gru_2 (GRU)                     (None, 7, 128)       81024       embedding_2[0][0]                
__________________________________________________________________________________________________
flatten_1 (Flatten)             (None, 294)          0           gru_1[0][0]                      
__________________________________________________________________________________________________
flatten_2 (Flatten)             (None, 896)          0           gru_2[0][0]                      
__________________________________________________________________________________________________
dropout_1 (Dropout)             (None, 294)          0           flatten_1[0][0]                  
__________________________________________________________________________________________________
dropout_2 (Dropout)             (None, 896)          0           flatten_2[0][0]                  
__________________________________________________________________________________________________
concatenate_1 (Concatenate)     (None, 1190)         0           dropout_1[0][0]                  
                                                                 dropout_2[0][0]                  
__________________________________________________________________________________________________
dense_1 (Dense)                 (None, 10)           11910       concatenate_1[0][0]              
__________________________________________________________________________________________________
dropout_3 (Dropout)             (None, 10)           0           dense_1[0][0]                    
__________________________________________________________________________________________________
dense_2 (Dense)                 (None, 4)            44          dropout_3[0][0]                  
==================================================================================================
Total params: 450,730
Trainable params: 450,730
Non-trainable params: 0
__________________________________________________________________________________________________
None
==================================================================================================
…
	MWE occurrences: 553
	Continuous occurrences: 59.0 %
	MWE length: 2.25
	Seen occurrences : 62% 
	Recognizable MWEs: 98.0 %
	Embedded occurrences: 4
	Interleaving occurrences: 8

==================================================================================================
__________________________________________________________________________________________________
Layer (type)                    Output Shape         Param #     Connected to                     
==================================================================================================
input_3 (InputLayer)            (None, 7)            0                                            
__________________________________________________________________________________________________
input_4 (InputLayer)            (None, 7)            0                                            
__________________________________________________________________________________________________
embedding_3 (Embedding)         (None, 7, 269)       305046      input_3[0][0]                    
__________________________________________________________________________________________________
embedding_4 (Embedding)         (None, 7, 82)        1558        input_4[0][0]                    
__________________________________________________________________________________________________
gru_3 (GRU)                     (None, 7, 42)        39312       embedding_3[0][0]                
__________________________________________________________________________________________________
gru_4 (GRU)                     (None, 7, 128)       81024       embedding_4[0][0]                
__________________________________________________________________________________________________
flatten_3 (Flatten)             (None, 294)          0           gru_3[0][0]                      
__________________________________________________________________________________________________
flatten_4 (Flatten)             (None, 896)          0           gru_4[0][0]                      
__________________________________________________________________________________________________
dropout_4 (Dropout)             (None, 294)          0           flatten_3[0][0]                  
__________________________________________________________________________________________________
dropout_5 (Dropout)             (None, 896)          0           flatten_4[0][0]                  
__________________________________________________________________________________________________
concatenate_2 (Concatenate)     (None, 1190)         0           dropout_4[0][0]                  
                                                                 dropout_5[0][0]                  
__________________________________________________________________________________________________
dense_3 (Dense)                 (None, 10)           11910       concatenate_2[0][0]              
__________________________________________________________________________________________________
dropout_6 (Dropout)             (None, 10)           0           dense_3[0][0]                    
__________________________________________________________________________________________________
dense_4 (Dense)                 (None, 4)            44          dropout_6[0][0]                  
==================================================================================================
Total params: 438,894
Trainable params: 438,894
Non-trainable params: 0
__________________________________________________________________________________________________
None
==================================================================================================
…
	Important sentence: 385
	Token occurrences: 27196
	MWE number: 418
	MWE occurrences: 510
	Continuous occurrences: 50.0 %
	MWE length: 2.07
	Seen occurrences : 43% 
	Recognizable MWEs: 100.0 %

==================================================================================================
__________________________________________________________________________________________________
Layer (type)                    Output Shape         Param #     Connected to                     
==================================================================================================
input_5 (InputLayer)            (None, 7)            0                                            
__________________________________________________________________________________________________
input_6 (InputLayer)            (None, 7)            0                                            
__________________________________________________________________________________________________
embedding_5 (Embedding)         (None, 7, 269)       582654      input_5[0][0]                    
__________________________________________________________________________________________________
embedding_6 (Embedding)         (None, 7, 82)        1148        input_6[0][0]                    
__________________________________________________________________________________________________
gru_5 (GRU)                     (None, 7, 42)        39312       embedding_5[0][0]                
__________________________________________________________________________________________________
gru_6 (GRU)                     (None, 7, 128)       81024       embedding_6[0][0]                
__________________________________________________________________________________________________
flatten_5 (Flatten)             (None, 294)          0           gru_5[0][0]                      
__________________________________________________________________________________________________
flatten_6 (Flatten)             (None, 896)          0           gru_6[0][0]                      
__________________________________________________________________________________________________
dropout_7 (Dropout)             (None, 294)          0           flatten_5[0][0]                  
__________________________________________________________________________________________________
dropout_8 (Dropout)             (None, 896)          0           flatten_6[0][0]                  
__________________________________________________________________________________________________
concatenate_3 (Concatenate)     (None, 1190)         0           dropout_7[0][0]                  
                                                                 dropout_8[0][0]                  
__________________________________________________________________________________________________
dense_5 (Dense)                 (None, 10)           11910       concatenate_3[0][0]              
__________________________________________________________________________________________________
dropout_9 (Dropout)             (None, 10)           0           dense_5[0][0]                    
__________________________________________________________________________________________________
dense_6 (Dense)                 (None, 4)            44          dropout_9[0][0]                  
==================================================================================================
Total params: 716,092
Trainable params: 716,092
Non-trainable params: 0
__________________________________________________________________________________________________
None
==================================================================================================
…
	Token occurrences: 42020
	MWE number: 451
	MWE occurrences: 670
	Continuous occurrences: 75.0 %
	MWE length: 2.14
	Seen occurrences : 57% 
	Recognizable MWEs: 100.0 %
	MWT occurrences: 1

==================================================================================================
__________________________________________________________________________________________________
Layer (type)                    Output Shape         Param #     Connected to                     
==================================================================================================
input_7 (InputLayer)            (None, 11)           0                                            
__________________________________________________________________________________________________
input_8 (InputLayer)            (None, 11)           0                                            
__________________________________________________________________________________________________
embedding_7 (Embedding)         (None, 11, 499)      587822      input_7[0][0]                    
__________________________________________________________________________________________________
embedding_8 (Embedding)         (None, 11, 60)       1140        input_8[0][0]                    
__________________________________________________________________________________________________
gru_7 (GRU)                     (None, 53)           87927       embedding_7[0][0]                
__________________________________________________________________________________________________
gru_8 (GRU)                     (None, 73)           29346       embedding_8[0][0]                
__________________________________________________________________________________________________
dropout_10 (Dropout)            (None, 53)           0           gru_7[0][0]                      
__________________________________________________________________________________________________
dropout_11 (Dropout)            (None, 73)           0           gru_8[0][0]                      
__________________________________________________________________________________________________
concatenate_4 (Concatenate)     (None, 126)          0           dropout_10[0][0]                 
                                                                 dropout_11[0][0]                 
__________________________________________________________________________________________________
dense_7 (Dense)                 (None, 148)          18796       concatenate_4[0][0]              
__________________________________________________________________________________________________
dropout_12 (Dropout)            (None, 148)          0           dense_7[0][0]                    
__________________________________________________________________________________________________
dense_8 (Dense)                 (None, 4)            596         dropout_12[0][0]                 
==================================================================================================
Total params: 725,627
Trainable params: 725,627
Non-trainable params: 0
__________________________________________________________________________________________________
None
==================================================================================================
…
	MWE occurrences: 553
	Continuous occurrences: 59.0 %
	MWE length: 2.25
	Seen occurrences : 62% 
	Recognizable MWEs: 98.0 %
	Embedded occurrences: 4
	Interleaving occurrences: 8

==================================================================================================
__________________________________________________________________________________________________
Layer (type)                    Output Shape         Param #     Connected to                     
==================================================================================================
input_9 (InputLayer)            (None, 11)           0                                            
__________________________________________________________________________________________________
input_10 (InputLayer)           (None, 11)           0                                            
__________________________________________________________________________________________________
embedding_9 (Embedding)         (None, 11, 499)      565866      input_9[0][0]                    
__________________________________________________________________________________________________
embedding_10 (Embedding)        (None, 11, 60)       1140        input_10[0][0]                   
__________________________________________________________________________________________________
gru_9 (GRU)                     (None, 53)           87927       embedding_9[0][0]                
__________________________________________________________________________________________________
gru_10 (GRU)                    (None, 73)           29346       embedding_10[0][0]               
__________________________________________________________________________________________________
dropout_13 (Dropout)            (None, 53)           0           gru_9[0][0]                      
__________________________________________________________________________________________________
dropout_14 (Dropout)            (None, 73)           0           gru_10[0][0]                     
__________________________________________________________________________________________________
concatenate_5 (Concatenate)     (None, 126)          0           dropout_13[0][0]                 
                                                                 dropout_14[0][0]                 
__________________________________________________________________________________________________
dense_9 (Dense)                 (None, 148)          18796       concatenate_5[0][0]              
__________________________________________________________________________________________________
dropout_15 (Dropout)            (None, 148)          0           dense_9[0][0]                    
__________________________________________________________________________________________________
dense_10 (Dense)                (None, 4)            596         dropout_15[0][0]                 
==================================================================================================
Total params: 703,671
Trainable params: 703,671
Non-trainable params: 0
__________________________________________________________________________________________________
None
==================================================================================================
…
	Important sentence: 385
	Token occurrences: 27196
	MWE number: 418
	MWE occurrences: 510
	Continuous occurrences: 50.0 %
	MWE length: 2.07
	Seen occurrences : 43% 
	Recognizable MWEs: 100.0 %

==================================================================================================
__________________________________________________________________________________________________
Layer (type)                    Output Shape         Param #     Connected to                     
==================================================================================================
input_11 (InputLayer)           (None, 11)           0                                            
__________________________________________________________________________________________________
input_12 (InputLayer)           (None, 11)           0                                            
__________________________________________________________________________________________________
embedding_11 (Embedding)        (None, 11, 499)      1080834     input_11[0][0]                   
__________________________________________________________________________________________________
embedding_12 (Embedding)        (None, 11, 60)       840         input_12[0][0]                   
__________________________________________________________________________________________________
gru_11 (GRU)                    (None, 53)           87927       embedding_11[0][0]               
__________________________________________________________________________________________________
gru_12 (GRU)                    (None, 73)           29346       embedding_12[0][0]               
__________________________________________________________________________________________________
dropout_16 (Dropout)            (None, 53)           0           gru_11[0][0]                     
__________________________________________________________________________________________________
dropout_17 (Dropout)            (None, 73)           0           gru_12[0][0]                     
__________________________________________________________________________________________________
concatenate_6 (Concatenate)     (None, 126)          0           dropout_16[0][0]                 
                                                                 dropout_17[0][0]                 
__________________________________________________________________________________________________
dense_11 (Dense)                (None, 148)          18796       concatenate_6[0][0]              
__________________________________________________________________________________________________
dropout_18 (Dropout)            (None, 148)          0           dense_11[0][0]                   
__________________________________________________________________________________________________
dense_12 (Dense)                (None, 4)            596         dropout_18[0][0]                 
==================================================================================================
Total params: 1,218,339
Trainable params: 1,218,339
Non-trainable params: 0
__________________________________________________________________________________________________
None
==================================================================================================
…
	Token occurrences: 42020
	MWE number: 451
	MWE occurrences: 670
	Continuous occurrences: 75.0 %
	MWE length: 2.14
	Seen occurrences : 57% 
	Recognizable MWEs: 100.0 %
	MWT occurrences: 1

==================================================================================================
__________________________________________________________________________________________________
Layer (type)                    Output Shape         Param #     Connected to                     
==================================================================================================
input_13 (InputLayer)           (None, 11)           0                                            
__________________________________________________________________________________________________
input_14 (InputLayer)           (None, 11)           0                                            
__________________________________________________________________________________________________
embedding_13 (Embedding)        (None, 11, 373)      2262245     input_13[0][0]                   
__________________________________________________________________________________________________
embedding_14 (Embedding)        (None, 11, 72)       1368        input_14[0][0]                   
__________________________________________________________________________________________________
gru_13 (GRU)                    (None, 146)          227760      embedding_13[0][0]               
__________________________________________________________________________________________________
gru_14 (GRU)                    (None, 130)          79170       embedding_14[0][0]               
__________________________________________________________________________________________________
dropout_19 (Dropout)            (None, 146)          0           gru_13[0][0]                     
__________________________________________________________________________________________________
dropout_20 (Dropout)            (None, 130)          0           gru_14[0][0]                     
__________________________________________________________________________________________________
concatenate_7 (Concatenate)     (None, 276)          0           dropout_19[0][0]                 
                                                                 dropout_20[0][0]                 
__________________________________________________________________________________________________
dense_13 (Dense)                (None, 129)          35733       concatenate_7[0][0]              
__________________________________________________________________________________________________
dropout_21 (Dropout)            (None, 129)          0           dense_13[0][0]                   
__________________________________________________________________________________________________
dense_14 (Dense)                (None, 4)            520         dropout_21[0][0]                 
==================================================================================================
Total params: 2,606,796
Trainable params: 2,606,796
Non-trainable params: 0
__________________________________________________________________________________________________
None
==================================================================================================
…
	MWE occurrences: 553
	Continuous occurrences: 59.0 %
	MWE length: 2.25
	Seen occurrences : 62% 
	Recognizable MWEs: 98.0 %
	Embedded occurrences: 4
	Interleaving occurrences: 8

==================================================================================================
__________________________________________________________________________________________________
Layer (type)                    Output Shape         Param #     Connected to                     
==================================================================================================
input_15 (InputLayer)           (None, 11)           0                                            
__________________________________________________________________________________________________
input_16 (InputLayer)           (None, 11)           0                                            
__________________________________________________________________________________________________
embedding_15 (Embedding)        (None, 11, 373)      2167130     input_15[0][0]                   
__________________________________________________________________________________________________
embedding_16 (Embedding)        (None, 11, 72)       1368        input_16[0][0]                   
__________________________________________________________________________________________________
gru_15 (GRU)                    (None, 146)          227760      embedding_15[0][0]               
__________________________________________________________________________________________________
gru_16 (GRU)                    (None, 130)          79170       embedding_16[0][0]               
__________________________________________________________________________________________________
dropout_22 (Dropout)            (None, 146)          0           gru_15[0][0]                     
__________________________________________________________________________________________________
dropout_23 (Dropout)            (None, 130)          0           gru_16[0][0]                     
__________________________________________________________________________________________________
concatenate_8 (Concatenate)     (None, 276)          0           dropout_22[0][0]                 
                                                                 dropout_23[0][0]                 
__________________________________________________________________________________________________
dense_15 (Dense)                (None, 129)          35733       concatenate_8[0][0]              
__________________________________________________________________________________________________
dropout_24 (Dropout)            (None, 129)          0           dense_15[0][0]                   
__________________________________________________________________________________________________
dense_16 (Dense)                (None, 4)            520         dropout_24[0][0]                 
==================================================================================================
Total params: 2,511,681
Trainable params: 2,511,681
Non-trainable params: 0
__________________________________________________________________________________________________
None
==================================================================================================
…
	Important sentence: 385
	Token occurrences: 27196
	MWE number: 418
	MWE occurrences: 510
	Continuous occurrences: 50.0 %
	MWE length: 2.07
	Seen occurrences : 43% 
	Recognizable MWEs: 100.0 %

==================================================================================================
__________________________________________________________________________________________________
Layer (type)                    Output Shape         Param #     Connected to                     
==================================================================================================
input_17 (InputLayer)           (None, 11)           0                                            
__________________________________________________________________________________________________
input_18 (InputLayer)           (None, 11)           0                                            
__________________________________________________________________________________________________
embedding_17 (Embedding)        (None, 11, 373)      4057494     input_17[0][0]                   
__________________________________________________________________________________________________
embedding_18 (Embedding)        (None, 11, 72)       1008        input_18[0][0]                   
__________________________________________________________________________________________________
gru_17 (GRU)                    (None, 146)          227760      embedding_17[0][0]               
__________________________________________________________________________________________________
gru_18 (GRU)                    (None, 130)          79170       embedding_18[0][0]               
__________________________________________________________________________________________________
dropout_25 (Dropout)            (None, 146)          0           gru_17[0][0]                     
__________________________________________________________________________________________________
dropout_26 (Dropout)            (None, 130)          0           gru_18[0][0]                     
__________________________________________________________________________________________________
concatenate_9 (Concatenate)     (None, 276)          0           dropout_25[0][0]                 
                                                                 dropout_26[0][0]                 
__________________________________________________________________________________________________
dense_17 (Dense)                (None, 129)          35733       concatenate_9[0][0]              
__________________________________________________________________________________________________
dropout_27 (Dropout)            (None, 129)          0           dense_17[0][0]                   
__________________________________________________________________________________________________
dense_18 (Dense)                (None, 4)            520         dropout_27[0][0]                 
==================================================================================================
Total params: 4,401,685
Trainable params: 4,401,685
Non-trainable params: 0
__________________________________________________________________________________________________
None
==================================================================================================
…
	Token occurrences: 42020
	MWE number: 451
	MWE occurrences: 670
	Continuous occurrences: 75.0 %
	MWE length: 2.14
	Seen occurrences : 57% 
	Recognizable MWEs: 100.0 %
	MWT occurrences: 1

==================================================================================================
__________________________________________________________________________________________________
Layer (type)                    Output Shape         Param #     Connected to                     
==================================================================================================
input_19 (InputLayer)           (None, 10)           0                                            
__________________________________________________________________________________________________
input_20 (InputLayer)           (None, 10)           0                                            
__________________________________________________________________________________________________
embedding_19 (Embedding)        (None, 10, 549)      3329685     input_19[0][0]                   
__________________________________________________________________________________________________
embedding_20 (Embedding)        (None, 10, 84)       1596        input_20[0][0]                   
__________________________________________________________________________________________________
gru_19 (GRU)                    (None, 47)           84177       embedding_19[0][0]               
__________________________________________________________________________________________________
gru_20 (GRU)                    (None, 182)          145782      embedding_20[0][0]               
__________________________________________________________________________________________________
dropout_28 (Dropout)            (None, 47)           0           gru_19[0][0]                     
__________________________________________________________________________________________________
dropout_29 (Dropout)            (None, 182)          0           gru_20[0][0]                     
__________________________________________________________________________________________________
concatenate_10 (Concatenate)    (None, 229)          0           dropout_28[0][0]                 
                                                                 dropout_29[0][0]                 
__________________________________________________________________________________________________
dense_19 (Dense)                (None, 64)           14720       concatenate_10[0][0]             
__________________________________________________________________________________________________
dropout_30 (Dropout)            (None, 64)           0           dense_19[0][0]                   
__________________________________________________________________________________________________
dense_20 (Dense)                (None, 4)            260         dropout_30[0][0]                 
==================================================================================================
Total params: 3,576,220
Trainable params: 3,576,220
Non-trainable params: 0
__________________________________________________________________________________________________
None
==================================================================================================
…
	MWE occurrences: 553
	Continuous occurrences: 59.0 %
	MWE length: 2.25
	Seen occurrences : 62% 
	Recognizable MWEs: 98.0 %
	Embedded occurrences: 4
	Interleaving occurrences: 8

==================================================================================================
__________________________________________________________________________________________________
Layer (type)                    Output Shape         Param #     Connected to                     
==================================================================================================
input_21 (InputLayer)           (None, 10)           0                                            
__________________________________________________________________________________________________
input_22 (InputLayer)           (None, 10)           0                                            
__________________________________________________________________________________________________
embedding_21 (Embedding)        (None, 10, 549)      3189690     input_21[0][0]                   
__________________________________________________________________________________________________
embedding_22 (Embedding)        (None, 10, 84)       1596        input_22[0][0]                   
__________________________________________________________________________________________________
gru_21 (GRU)                    (None, 47)           84177       embedding_21[0][0]               
__________________________________________________________________________________________________
gru_22 (GRU)                    (None, 182)          145782      embedding_22[0][0]               
__________________________________________________________________________________________________
dropout_31 (Dropout)            (None, 47)           0           gru_21[0][0]                     
__________________________________________________________________________________________________
dropout_32 (Dropout)            (None, 182)          0           gru_22[0][0]                     
__________________________________________________________________________________________________
concatenate_11 (Concatenate)    (None, 229)          0           dropout_31[0][0]                 
                                                                 dropout_32[0][0]                 
__________________________________________________________________________________________________
dense_21 (Dense)                (None, 64)           14720       concatenate_11[0][0]             
__________________________________________________________________________________________________
dropout_33 (Dropout)            (None, 64)           0           dense_21[0][0]                   
__________________________________________________________________________________________________
dense_22 (Dense)                (None, 4)            260         dropout_33[0][0]                 
==================================================================================================
Total params: 3,436,225
Trainable params: 3,436,225
Non-trainable params: 0
__________________________________________________________________________________________________
None
==================================================================================================
…
	Important sentence: 385
	Token occurrences: 27196
	MWE number: 418
	MWE occurrences: 510
	Continuous occurrences: 50.0 %
	MWE length: 2.07
	Seen occurrences : 43% 
	Recognizable MWEs: 100.0 %

==================================================================================================
__________________________________________________________________________________________________
Layer (type)                    Output Shape         Param #     Connected to                     
==================================================================================================
input_23 (InputLayer)           (None, 10)           0                                            
__________________________________________________________________________________________________
input_24 (InputLayer)           (None, 10)           0                                            
__________________________________________________________________________________________________
embedding_23 (Embedding)        (None, 10, 549)      5972022     input_23[0][0]                   
__________________________________________________________________________________________________
embedding_24 (Embedding)        (None, 10, 84)       1176        input_24[0][0]                   
__________________________________________________________________________________________________
gru_23 (GRU)                    (None, 47)           84177       embedding_23[0][0]               
__________________________________________________________________________________________________
gru_24 (GRU)                    (None, 182)          145782      embedding_24[0][0]               
__________________________________________________________________________________________________
dropout_34 (Dropout)            (None, 47)           0           gru_23[0][0]                     
__________________________________________________________________________________________________
dropout_35 (Dropout)            (None, 182)          0           gru_24[0][0]                     
__________________________________________________________________________________________________
concatenate_12 (Concatenate)    (None, 229)          0           dropout_34[0][0]                 
                                                                 dropout_35[0][0]                 
__________________________________________________________________________________________________
dense_23 (Dense)                (None, 64)           14720       concatenate_12[0][0]             
__________________________________________________________________________________________________
dropout_36 (Dropout)            (None, 64)           0           dense_23[0][0]                   
__________________________________________________________________________________________________
dense_24 (Dense)                (None, 4)            260         dropout_36[0][0]                 
==================================================================================================
Total params: 6,218,137
Trainable params: 6,218,137
Non-trainable params: 0
__________________________________________________________________________________________________
None
==================================================================================================
…
	Token occurrences: 42020
	MWE number: 451
	MWE occurrences: 670
	Continuous occurrences: 75.0 %
	MWE length: 2.14
	Seen occurrences : 57% 
	Recognizable MWEs: 100.0 %
	MWT occurrences: 1

==================================================================================================
__________________________________________________________________________________________________
Layer (type)                    Output Shape         Param #     Connected to                     
==================================================================================================
input_25 (InputLayer)           (None, 9)            0                                            
__________________________________________________________________________________________________
input_26 (InputLayer)           (None, 9)            0                                            
__________________________________________________________________________________________________
embedding_25 (Embedding)        (None, 9, 503)       3050695     input_25[0][0]                   
__________________________________________________________________________________________________
embedding_26 (Embedding)        (None, 9, 40)        760         input_26[0][0]                   
__________________________________________________________________________________________________
gru_25 (GRU)                    (None, 194)          406236      embedding_25[0][0]               
__________________________________________________________________________________________________
gru_26 (GRU)                    (None, 101)          43026       embedding_26[0][0]               
__________________________________________________________________________________________________
dropout_37 (Dropout)            (None, 194)          0           gru_25[0][0]                     
__________________________________________________________________________________________________
dropout_38 (Dropout)            (None, 101)          0           gru_26[0][0]                     
__________________________________________________________________________________________________
concatenate_13 (Concatenate)    (None, 295)          0           dropout_37[0][0]                 
                                                                 dropout_38[0][0]                 
__________________________________________________________________________________________________
dense_25 (Dense)                (None, 81)           23976       concatenate_13[0][0]             
__________________________________________________________________________________________________
dropout_39 (Dropout)            (None, 81)           0           dense_25[0][0]                   
__________________________________________________________________________________________________
dense_26 (Dense)                (None, 4)            328         dropout_39[0][0]                 
==================================================================================================
Total params: 3,525,021
Trainable params: 3,525,021
Non-trainable params: 0
__________________________________________________________________________________________________
None
==================================================================================================
…
	MWE occurrences: 553
	Continuous occurrences: 59.0 %
	MWE length: 2.25
	Seen occurrences : 62% 
	Recognizable MWEs: 98.0 %
	Embedded occurrences: 4
	Interleaving occurrences: 8

==================================================================================================
__________________________________________________________________________________________________
Layer (type)                    Output Shape         Param #     Connected to                     
==================================================================================================
input_27 (InputLayer)           (None, 9)            0                                            
__________________________________________________________________________________________________
input_28 (InputLayer)           (None, 9)            0                                            
__________________________________________________________________________________________________
embedding_27 (Embedding)        (None, 9, 503)       2922430     input_27[0][0]                   
__________________________________________________________________________________________________
embedding_28 (Embedding)        (None, 9, 40)        760         input_28[0][0]                   
__________________________________________________________________________________________________
gru_27 (GRU)                    (None, 194)          406236      embedding_27[0][0]               
__________________________________________________________________________________________________
gru_28 (GRU)                    (None, 101)          43026       embedding_28[0][0]               
__________________________________________________________________________________________________
dropout_40 (Dropout)            (None, 194)          0           gru_27[0][0]                     
__________________________________________________________________________________________________
dropout_41 (Dropout)            (None, 101)          0           gru_28[0][0]                     
__________________________________________________________________________________________________
concatenate_14 (Concatenate)    (None, 295)          0           dropout_40[0][0]                 
                                                                 dropout_41[0][0]                 
__________________________________________________________________________________________________
dense_27 (Dense)                (None, 81)           23976       concatenate_14[0][0]             
__________________________________________________________________________________________________
dropout_42 (Dropout)            (None, 81)           0           dense_27[0][0]                   
__________________________________________________________________________________________________
dense_28 (Dense)                (None, 4)            328         dropout_42[0][0]                 
==================================================================================================
Total params: 3,396,756
Trainable params: 3,396,756
Non-trainable params: 0
__________________________________________________________________________________________________
None
==================================================================================================
…
	Important sentence: 385
	Token occurrences: 27196
	MWE number: 418
	MWE occurrences: 510
	Continuous occurrences: 50.0 %
	MWE length: 2.07
	Seen occurrences : 43% 
	Recognizable MWEs: 100.0 %

==================================================================================================
__________________________________________________________________________________________________
Layer (type)                    Output Shape         Param #     Connected to                     
==================================================================================================
input_29 (InputLayer)           (None, 9)            0                                            
__________________________________________________________________________________________________
input_30 (InputLayer)           (None, 9)            0                                            
__________________________________________________________________________________________________
embedding_29 (Embedding)        (None, 9, 503)       5471634     input_29[0][0]                   
__________________________________________________________________________________________________
embedding_30 (Embedding)        (None, 9, 40)        560         input_30[0][0]                   
__________________________________________________________________________________________________
gru_29 (GRU)                    (None, 194)          406236      embedding_29[0][0]               
__________________________________________________________________________________________________
gru_30 (GRU)                    (None, 101)          43026       embedding_30[0][0]               
__________________________________________________________________________________________________
dropout_43 (Dropout)            (None, 194)          0           gru_29[0][0]                     
__________________________________________________________________________________________________
dropout_44 (Dropout)            (None, 101)          0           gru_30[0][0]                     
__________________________________________________________________________________________________
concatenate_15 (Concatenate)    (None, 295)          0           dropout_43[0][0]                 
                                                                 dropout_44[0][0]                 
__________________________________________________________________________________________________
dense_29 (Dense)                (None, 81)           23976       concatenate_15[0][0]             
__________________________________________________________________________________________________
dropout_45 (Dropout)            (None, 81)           0           dense_29[0][0]                   
__________________________________________________________________________________________________
dense_30 (Dense)                (None, 4)            328         dropout_45[0][0]                 
==================================================================================================
Total params: 5,945,760
Trainable params: 5,945,760
Non-trainable params: 0
__________________________________________________________________________________________________
None
==================================================================================================
…
	Token occurrences: 42020
	MWE number: 451
	MWE occurrences: 670
	Continuous occurrences: 75.0 %
	MWE length: 2.14
	Seen occurrences : 57% 
	Recognizable MWEs: 100.0 %
	MWT occurrences: 1

==================================================================================================
__________________________________________________________________________________________________
Layer (type)                    Output Shape         Param #     Connected to                     
==================================================================================================
input_31 (InputLayer)           (None, 7)            0                                            
__________________________________________________________________________________________________
input_32 (InputLayer)           (None, 7)            0                                            
__________________________________________________________________________________________________
embedding_31 (Embedding)        (None, 7, 295)       347510      input_31[0][0]                   
__________________________________________________________________________________________________
embedding_32 (Embedding)        (None, 7, 56)        1064        input_32[0][0]                   
__________________________________________________________________________________________________
gru_31 (GRU)                    (None, 145)          191835      embedding_31[0][0]               
__________________________________________________________________________________________________
gru_32 (GRU)                    (None, 69)           26082       embedding_32[0][0]               
__________________________________________________________________________________________________
dropout_46 (Dropout)            (None, 145)          0           gru_31[0][0]                     
__________________________________________________________________________________________________
dropout_47 (Dropout)            (None, 69)           0           gru_32[0][0]                     
__________________________________________________________________________________________________
concatenate_16 (Concatenate)    (None, 214)          0           dropout_46[0][0]                 
                                                                 dropout_47[0][0]                 
__________________________________________________________________________________________________
dense_31 (Dense)                (None, 77)           16555       concatenate_16[0][0]             
__________________________________________________________________________________________________
dropout_48 (Dropout)            (None, 77)           0           dense_31[0][0]                   
__________________________________________________________________________________________________
dense_32 (Dense)                (None, 4)            312         dropout_48[0][0]                 
==================================================================================================
Total params: 583,358
Trainable params: 583,358
Non-trainable params: 0
__________________________________________________________________________________________________
None
==================================================================================================
…
	MWE occurrences: 553
	Continuous occurrences: 59.0 %
	MWE length: 2.25
	Seen occurrences : 62% 
	Recognizable MWEs: 98.0 %
	Embedded occurrences: 4
	Interleaving occurrences: 8

==================================================================================================
__________________________________________________________________________________________________
Layer (type)                    Output Shape         Param #     Connected to                     
==================================================================================================
input_33 (InputLayer)           (None, 7)            0                                            
__________________________________________________________________________________________________
input_34 (InputLayer)           (None, 7)            0                                            
__________________________________________________________________________________________________
embedding_33 (Embedding)        (None, 7, 295)       334530      input_33[0][0]                   
__________________________________________________________________________________________________
embedding_34 (Embedding)        (None, 7, 56)        1064        input_34[0][0]                   
__________________________________________________________________________________________________
gru_33 (GRU)                    (None, 145)          191835      embedding_33[0][0]               
__________________________________________________________________________________________________
gru_34 (GRU)                    (None, 69)           26082       embedding_34[0][0]               
__________________________________________________________________________________________________
dropout_49 (Dropout)            (None, 145)          0           gru_33[0][0]                     
__________________________________________________________________________________________________
dropout_50 (Dropout)            (None, 69)           0           gru_34[0][0]                     
__________________________________________________________________________________________________
concatenate_17 (Concatenate)    (None, 214)          0           dropout_49[0][0]                 
                                                                 dropout_50[0][0]                 
__________________________________________________________________________________________________
dense_33 (Dense)                (None, 77)           16555       concatenate_17[0][0]             
__________________________________________________________________________________________________
dropout_51 (Dropout)            (None, 77)           0           dense_33[0][0]                   
__________________________________________________________________________________________________
dense_34 (Dense)                (None, 4)            312         dropout_51[0][0]                 
==================================================================================================
Total params: 570,378
Trainable params: 570,378
Non-trainable params: 0
__________________________________________________________________________________________________
None
==================================================================================================
…
	Important sentence: 385
	Token occurrences: 27196
	MWE number: 418
	MWE occurrences: 510
	Continuous occurrences: 50.0 %
	MWE length: 2.07
	Seen occurrences : 43% 
	Recognizable MWEs: 100.0 %

==================================================================================================
__________________________________________________________________________________________________
Layer (type)                    Output Shape         Param #     Connected to                     
==================================================================================================
input_35 (InputLayer)           (None, 7)            0                                            
__________________________________________________________________________________________________
input_36 (InputLayer)           (None, 7)            0                                            
__________________________________________________________________________________________________
embedding_35 (Embedding)        (None, 7, 295)       638970      input_35[0][0]                   
__________________________________________________________________________________________________
embedding_36 (Embedding)        (None, 7, 56)        784         input_36[0][0]                   
__________________________________________________________________________________________________
gru_35 (GRU)                    (None, 145)          191835      embedding_35[0][0]               
__________________________________________________________________________________________________
gru_36 (GRU)                    (None, 69)           26082       embedding_36[0][0]               
__________________________________________________________________________________________________
dropout_52 (Dropout)            (None, 145)          0           gru_35[0][0]                     
__________________________________________________________________________________________________
dropout_53 (Dropout)            (None, 69)           0           gru_36[0][0]                     
__________________________________________________________________________________________________
concatenate_18 (Concatenate)    (None, 214)          0           dropout_52[0][0]                 
                                                                 dropout_53[0][0]                 
__________________________________________________________________________________________________
dense_35 (Dense)                (None, 77)           16555       concatenate_18[0][0]             
__________________________________________________________________________________________________
dropout_54 (Dropout)            (None, 77)           0           dense_35[0][0]                   
__________________________________________________________________________________________________
dense_36 (Dense)                (None, 4)            312         dropout_54[0][0]                 
==================================================================================================
Total params: 874,538
Trainable params: 874,538
Non-trainable params: 0
__________________________________________________________________________________________________
None
==================================================================================================
…
	Token occurrences: 42020
	MWE number: 451
	MWE occurrences: 670
	Continuous occurrences: 75.0 %
	MWE length: 2.14
	Seen occurrences : 57% 
	Recognizable MWEs: 100.0 %
	MWT occurrences: 1

==================================================================================================
__________________________________________________________________________________________________
Layer (type)                    Output Shape         Param #     Connected to                     
==================================================================================================
input_37 (InputLayer)           (None, 8)            0                                            
__________________________________________________________________________________________________
input_38 (InputLayer)           (None, 8)            0                                            
__________________________________________________________________________________________________
embedding_37 (Embedding)        (None, 8, 461)       543058      input_37[0][0]                   
__________________________________________________________________________________________________
embedding_38 (Embedding)        (None, 8, 94)        1786        input_38[0][0]                   
__________________________________________________________________________________________________
gru_37 (GRU)                    (None, 29)           42717       embedding_37[0][0]               
__________________________________________________________________________________________________
gru_38 (GRU)                    (None, 124)          81468       embedding_38[0][0]               
__________________________________________________________________________________________________
dropout_55 (Dropout)            (None, 29)           0           gru_37[0][0]                     
__________________________________________________________________________________________________
dropout_56 (Dropout)            (None, 124)          0           gru_38[0][0]                     
__________________________________________________________________________________________________
concatenate_19 (Concatenate)    (None, 153)          0           dropout_55[0][0]                 
                                                                 dropout_56[0][0]                 
__________________________________________________________________________________________________
dense_37 (Dense)                (None, 70)           10780       concatenate_19[0][0]             
__________________________________________________________________________________________________
dropout_57 (Dropout)            (None, 70)           0           dense_37[0][0]                   
__________________________________________________________________________________________________
dense_38 (Dense)                (None, 4)            284         dropout_57[0][0]                 
==================================================================================================
Total params: 680,093
Trainable params: 680,093
Non-trainable params: 0
__________________________________________________________________________________________________
None
==================================================================================================
…
	MWE occurrences: 553
	Continuous occurrences: 59.0 %
	MWE length: 2.25
	Seen occurrences : 62% 
	Recognizable MWEs: 98.0 %
	Embedded occurrences: 4
	Interleaving occurrences: 8

==================================================================================================
__________________________________________________________________________________________________
Layer (type)                    Output Shape         Param #     Connected to                     
==================================================================================================
input_39 (InputLayer)           (None, 8)            0                                            
__________________________________________________________________________________________________
input_40 (InputLayer)           (None, 8)            0                                            
__________________________________________________________________________________________________
embedding_39 (Embedding)        (None, 8, 461)       522774      input_39[0][0]                   
__________________________________________________________________________________________________
embedding_40 (Embedding)        (None, 8, 94)        1786        input_40[0][0]                   
__________________________________________________________________________________________________
gru_39 (GRU)                    (None, 29)           42717       embedding_39[0][0]               
__________________________________________________________________________________________________
gru_40 (GRU)                    (None, 124)          81468       embedding_40[0][0]               
__________________________________________________________________________________________________
dropout_58 (Dropout)            (None, 29)           0           gru_39[0][0]                     
__________________________________________________________________________________________________
dropout_59 (Dropout)            (None, 124)          0           gru_40[0][0]                     
__________________________________________________________________________________________________
concatenate_20 (Concatenate)    (None, 153)          0           dropout_58[0][0]                 
                                                                 dropout_59[0][0]                 
__________________________________________________________________________________________________
dense_39 (Dense)                (None, 70)           10780       concatenate_20[0][0]             
__________________________________________________________________________________________________
dropout_60 (Dropout)            (None, 70)           0           dense_39[0][0]                   
__________________________________________________________________________________________________
dense_40 (Dense)                (None, 4)            284         dropout_60[0][0]                 
==================================================================================================
Total params: 659,809
Trainable params: 659,809
Non-trainable params: 0
__________________________________________________________________________________________________
None
==================================================================================================
…
	Important sentence: 385
	Token occurrences: 27196
	MWE number: 418
	MWE occurrences: 510
	Continuous occurrences: 50.0 %
	MWE length: 2.07
	Seen occurrences : 43% 
	Recognizable MWEs: 100.0 %

==================================================================================================
__________________________________________________________________________________________________
Layer (type)                    Output Shape         Param #     Connected to                     
==================================================================================================
input_41 (InputLayer)           (None, 8)            0                                            
__________________________________________________________________________________________________
input_42 (InputLayer)           (None, 8)            0                                            
__________________________________________________________________________________________________
embedding_41 (Embedding)        (None, 8, 461)       998526      input_41[0][0]                   
__________________________________________________________________________________________________
embedding_42 (Embedding)        (None, 8, 94)        1316        input_42[0][0]                   
__________________________________________________________________________________________________
gru_41 (GRU)                    (None, 29)           42717       embedding_41[0][0]               
__________________________________________________________________________________________________
gru_42 (GRU)                    (None, 124)          81468       embedding_42[0][0]               
__________________________________________________________________________________________________
dropout_61 (Dropout)            (None, 29)           0           gru_41[0][0]                     
__________________________________________________________________________________________________
dropout_62 (Dropout)            (None, 124)          0           gru_42[0][0]                     
__________________________________________________________________________________________________
concatenate_21 (Concatenate)    (None, 153)          0           dropout_61[0][0]                 
                                                                 dropout_62[0][0]                 
__________________________________________________________________________________________________
dense_41 (Dense)                (None, 70)           10780       concatenate_21[0][0]             
__________________________________________________________________________________________________
dropout_63 (Dropout)            (None, 70)           0           dense_41[0][0]                   
__________________________________________________________________________________________________
dense_42 (Dense)                (None, 4)            284         dropout_63[0][0]                 
==================================================================================================
Total params: 1,135,091
Trainable params: 1,135,091
Non-trainable params: 0
__________________________________________________________________________________________________
None
==================================================================================================
…
	Token occurrences: 42020
	MWE number: 451
	MWE occurrences: 670
	Continuous occurrences: 75.0 %
	MWE length: 2.14
	Seen occurrences : 57% 
	Recognizable MWEs: 100.0 %
	MWT occurrences: 1

==================================================================================================
__________________________________________________________________________________________________
Layer (type)                    Output Shape         Param #     Connected to                     
==================================================================================================
input_43 (InputLayer)           (None, 7)            0                                            
__________________________________________________________________________________________________
input_44 (InputLayer)           (None, 7)            0                                            
__________________________________________________________________________________________________
embedding_43 (Embedding)        (None, 7, 332)       3113828     input_43[0][0]                   
__________________________________________________________________________________________________
embedding_44 (Embedding)        (None, 7, 39)        741         input_44[0][0]                   
__________________________________________________________________________________________________
gru_43 (GRU)                    (None, 109)          144534      embedding_43[0][0]               
__________________________________________________________________________________________________
gru_44 (GRU)                    (None, 101)          42723       embedding_44[0][0]               
__________________________________________________________________________________________________
dropout_64 (Dropout)            (None, 109)          0           gru_43[0][0]                     
__________________________________________________________________________________________________
dropout_65 (Dropout)            (None, 101)          0           gru_44[0][0]                     
__________________________________________________________________________________________________
concatenate_22 (Concatenate)    (None, 210)          0           dropout_64[0][0]                 
                                                                 dropout_65[0][0]                 
__________________________________________________________________________________________________
dense_43 (Dense)                (None, 110)          23210       concatenate_22[0][0]             
__________________________________________________________________________________________________
dropout_66 (Dropout)            (None, 110)          0           dense_43[0][0]                   
__________________________________________________________________________________________________
dense_44 (Dense)                (None, 4)            444         dropout_66[0][0]                 
==================================================================================================
Total params: 3,325,480
Trainable params: 3,325,480
Non-trainable params: 0
__________________________________________________________________________________________________
None
==================================================================================================
…
	MWE occurrences: 553
	Continuous occurrences: 59.0 %
	MWE length: 2.25
	Seen occurrences : 62% 
	Recognizable MWEs: 98.0 %
	Embedded occurrences: 4
	Interleaving occurrences: 8

==================================================================================================
__________________________________________________________________________________________________
Layer (type)                    Output Shape         Param #     Connected to                     
==================================================================================================
input_45 (InputLayer)           (None, 7)            0                                            
__________________________________________________________________________________________________
input_46 (InputLayer)           (None, 7)            0                                            
__________________________________________________________________________________________________
embedding_45 (Embedding)        (None, 7, 332)       2406336     input_45[0][0]                   
__________________________________________________________________________________________________
embedding_46 (Embedding)        (None, 7, 39)        741         input_46[0][0]                   
__________________________________________________________________________________________________
gru_45 (GRU)                    (None, 109)          144534      embedding_45[0][0]               
__________________________________________________________________________________________________
gru_46 (GRU)                    (None, 101)          42723       embedding_46[0][0]               
__________________________________________________________________________________________________
dropout_67 (Dropout)            (None, 109)          0           gru_45[0][0]                     
__________________________________________________________________________________________________
dropout_68 (Dropout)            (None, 101)          0           gru_46[0][0]                     
__________________________________________________________________________________________________
concatenate_23 (Concatenate)    (None, 210)          0           dropout_67[0][0]                 
                                                                 dropout_68[0][0]                 
__________________________________________________________________________________________________
dense_45 (Dense)                (None, 110)          23210       concatenate_23[0][0]             
__________________________________________________________________________________________________
dropout_69 (Dropout)            (None, 110)          0           dense_45[0][0]                   
__________________________________________________________________________________________________
dense_46 (Dense)                (None, 4)            444         dropout_69[0][0]                 
==================================================================================================
Total params: 2,617,988
Trainable params: 2,617,988
Non-trainable params: 0
__________________________________________________________________________________________________
None
==================================================================================================
…
	Important sentence: 385
	Token occurrences: 27196
	MWE number: 418
	MWE occurrences: 510
	Continuous occurrences: 50.0 %
	MWE length: 2.07
	Seen occurrences : 43% 
	Recognizable MWEs: 100.0 %

==================================================================================================
__________________________________________________________________________________________________
Layer (type)                    Output Shape         Param #     Connected to                     
==================================================================================================
input_47 (InputLayer)           (None, 7)            0                                            
__________________________________________________________________________________________________
input_48 (InputLayer)           (None, 7)            0                                            
__________________________________________________________________________________________________
embedding_47 (Embedding)        (None, 7, 332)       6094192     input_47[0][0]                   
__________________________________________________________________________________________________
embedding_48 (Embedding)        (None, 7, 39)        546         input_48[0][0]                   
__________________________________________________________________________________________________
gru_47 (GRU)                    (None, 109)          144534      embedding_47[0][0]               
__________________________________________________________________________________________________
gru_48 (GRU)                    (None, 101)          42723       embedding_48[0][0]               
__________________________________________________________________________________________________
dropout_70 (Dropout)            (None, 109)          0           gru_47[0][0]                     
__________________________________________________________________________________________________
dropout_71 (Dropout)            (None, 101)          0           gru_48[0][0]                     
__________________________________________________________________________________________________
concatenate_24 (Concatenate)    (None, 210)          0           dropout_70[0][0]                 
                                                                 dropout_71[0][0]                 
__________________________________________________________________________________________________
dense_47 (Dense)                (None, 110)          23210       concatenate_24[0][0]             
__________________________________________________________________________________________________
dropout_72 (Dropout)            (None, 110)          0           dense_47[0][0]                   
__________________________________________________________________________________________________
dense_48 (Dense)                (None, 4)            444         dropout_72[0][0]                 
==================================================================================================
Total params: 6,305,649
Trainable params: 6,305,649
Non-trainable params: 0
__________________________________________________________________________________________________
None
==================================================================================================
…
	Token occurrences: 42020
	MWE number: 451
	MWE occurrences: 670
	Continuous occurrences: 75.0 %
	MWE length: 2.14
	Seen occurrences : 57% 
	Recognizable MWEs: 100.0 %
	MWT occurrences: 1

==================================================================================================
__________________________________________________________________________________________________
Layer (type)                    Output Shape         Param #     Connected to                     
==================================================================================================
input_49 (InputLayer)           (None, 10)           0                                            
__________________________________________________________________________________________________
input_50 (InputLayer)           (None, 10)           0                                            
__________________________________________________________________________________________________
embedding_49 (Embedding)        (None, 10, 527)      3196255     input_49[0][0]                   
__________________________________________________________________________________________________
embedding_50 (Embedding)        (None, 10, 68)       1292        input_50[0][0]                   
__________________________________________________________________________________________________
gru_49 (GRU)                    (None, 157)          322635      embedding_49[0][0]               
__________________________________________________________________________________________________
gru_50 (GRU)                    (None, 168)          119448      embedding_50[0][0]               
__________________________________________________________________________________________________
dropout_73 (Dropout)            (None, 157)          0           gru_49[0][0]                     
__________________________________________________________________________________________________
dropout_74 (Dropout)            (None, 168)          0           gru_50[0][0]                     
__________________________________________________________________________________________________
concatenate_25 (Concatenate)    (None, 325)          0           dropout_73[0][0]                 
                                                                 dropout_74[0][0]                 
__________________________________________________________________________________________________
dense_49 (Dense)                (None, 8)            2608        concatenate_25[0][0]             
__________________________________________________________________________________________________
dropout_75 (Dropout)            (None, 8)            0           dense_49[0][0]                   
__________________________________________________________________________________________________
dense_50 (Dense)                (None, 4)            36          dropout_75[0][0]                 
==================================================================================================
Total params: 3,642,274
Trainable params: 3,642,274
Non-trainable params: 0
__________________________________________________________________________________________________
None
==================================================================================================
…
	MWE occurrences: 553
	Continuous occurrences: 59.0 %
	MWE length: 2.25
	Seen occurrences : 62% 
	Recognizable MWEs: 98.0 %
	Embedded occurrences: 4
	Interleaving occurrences: 8

==================================================================================================
__________________________________________________________________________________________________
Layer (type)                    Output Shape         Param #     Connected to                     
==================================================================================================
input_51 (InputLayer)           (None, 10)           0                                            
__________________________________________________________________________________________________
input_52 (InputLayer)           (None, 10)           0                                            
__________________________________________________________________________________________________
embedding_51 (Embedding)        (None, 10, 527)      3061870     input_51[0][0]                   
__________________________________________________________________________________________________
embedding_52 (Embedding)        (None, 10, 68)       1292        input_52[0][0]                   
__________________________________________________________________________________________________
gru_51 (GRU)                    (None, 157)          322635      embedding_51[0][0]               
__________________________________________________________________________________________________
gru_52 (GRU)                    (None, 168)          119448      embedding_52[0][0]               
__________________________________________________________________________________________________
dropout_76 (Dropout)            (None, 157)          0           gru_51[0][0]                     
__________________________________________________________________________________________________
dropout_77 (Dropout)            (None, 168)          0           gru_52[0][0]                     
__________________________________________________________________________________________________
concatenate_26 (Concatenate)    (None, 325)          0           dropout_76[0][0]                 
                                                                 dropout_77[0][0]                 
__________________________________________________________________________________________________
dense_51 (Dense)                (None, 8)            2608        concatenate_26[0][0]             
__________________________________________________________________________________________________
dropout_78 (Dropout)            (None, 8)            0           dense_51[0][0]                   
__________________________________________________________________________________________________
dense_52 (Dense)                (None, 4)            36          dropout_78[0][0]                 
==================================================================================================
Total params: 3,507,889
Trainable params: 3,507,889
Non-trainable params: 0
__________________________________________________________________________________________________
None
==================================================================================================
…
	Important sentence: 385
	Token occurrences: 27196
	MWE number: 418
	MWE occurrences: 510
	Continuous occurrences: 50.0 %
	MWE length: 2.07
	Seen occurrences : 43% 
	Recognizable MWEs: 100.0 %

==================================================================================================
__________________________________________________________________________________________________
Layer (type)                    Output Shape         Param #     Connected to                     
==================================================================================================
input_53 (InputLayer)           (None, 10)           0                                            
__________________________________________________________________________________________________
input_54 (InputLayer)           (None, 10)           0                                            
__________________________________________________________________________________________________
embedding_53 (Embedding)        (None, 10, 527)      5732706     input_53[0][0]                   
__________________________________________________________________________________________________
embedding_54 (Embedding)        (None, 10, 68)       952         input_54[0][0]                   
__________________________________________________________________________________________________
gru_53 (GRU)                    (None, 157)          322635      embedding_53[0][0]               
__________________________________________________________________________________________________
gru_54 (GRU)                    (None, 168)          119448      embedding_54[0][0]               
__________________________________________________________________________________________________
dropout_79 (Dropout)            (None, 157)          0           gru_53[0][0]                     
__________________________________________________________________________________________________
dropout_80 (Dropout)            (None, 168)          0           gru_54[0][0]                     
__________________________________________________________________________________________________
concatenate_27 (Concatenate)    (None, 325)          0           dropout_79[0][0]                 
                                                                 dropout_80[0][0]                 
__________________________________________________________________________________________________
dense_53 (Dense)                (None, 8)            2608        concatenate_27[0][0]             
__________________________________________________________________________________________________
dropout_81 (Dropout)            (None, 8)            0           dense_53[0][0]                   
__________________________________________________________________________________________________
dense_54 (Dense)                (None, 4)            36          dropout_81[0][0]                 
==================================================================================================
Total params: 6,178,385
Trainable params: 6,178,385
Non-trainable params: 0
__________________________________________________________________________________________________
None
==================================================================================================
…
	Token occurrences: 42020
	MWE number: 451
	MWE occurrences: 670
	Continuous occurrences: 75.0 %
	MWE length: 2.14
	Seen occurrences : 57% 
	Recognizable MWEs: 100.0 %
	MWT occurrences: 1

==================================================================================================
__________________________________________________________________________________________________
Layer (type)                    Output Shape         Param #     Connected to                     
==================================================================================================
input_55 (InputLayer)           (None, 10)           0                                            
__________________________________________________________________________________________________
input_56 (InputLayer)           (None, 10)           0                                            
__________________________________________________________________________________________________
embedding_55 (Embedding)        (None, 10, 455)      4267445     input_55[0][0]                   
__________________________________________________________________________________________________
embedding_56 (Embedding)        (None, 10, 82)       1558        input_56[0][0]                   
__________________________________________________________________________________________________
lstm_1 (LSTM)                   (None, 83)           178948      embedding_55[0][0]               
__________________________________________________________________________________________________
lstm_2 (LSTM)                   (None, 38)           18392       embedding_56[0][0]               
__________________________________________________________________________________________________
dropout_82 (Dropout)            (None, 83)           0           lstm_1[0][0]                     
__________________________________________________________________________________________________
dropout_83 (Dropout)            (None, 38)           0           lstm_2[0][0]                     
__________________________________________________________________________________________________
concatenate_28 (Concatenate)    (None, 121)          0           dropout_82[0][0]                 
                                                                 dropout_83[0][0]                 
__________________________________________________________________________________________________
dense_55 (Dense)                (None, 150)          18300       concatenate_28[0][0]             
__________________________________________________________________________________________________
dropout_84 (Dropout)            (None, 150)          0           dense_55[0][0]                   
__________________________________________________________________________________________________
dense_56 (Dense)                (None, 4)            604         dropout_84[0][0]                 
==================================================================================================
Total params: 4,485,247
Trainable params: 4,485,247
Non-trainable params: 0
__________________________________________________________________________________________________
None
==================================================================================================
…
	MWE occurrences: 553
	Continuous occurrences: 59.0 %
	MWE length: 2.25
	Seen occurrences : 62% 
	Recognizable MWEs: 98.0 %
	Embedded occurrences: 4
	Interleaving occurrences: 8

==================================================================================================
__________________________________________________________________________________________________
Layer (type)                    Output Shape         Param #     Connected to                     
==================================================================================================
input_57 (InputLayer)           (None, 10)           0                                            
__________________________________________________________________________________________________
input_58 (InputLayer)           (None, 10)           0                                            
__________________________________________________________________________________________________
embedding_57 (Embedding)        (None, 10, 455)      3297840     input_57[0][0]                   
__________________________________________________________________________________________________
embedding_58 (Embedding)        (None, 10, 82)       1558        input_58[0][0]                   
__________________________________________________________________________________________________
lstm_3 (LSTM)                   (None, 83)           178948      embedding_57[0][0]               
__________________________________________________________________________________________________
lstm_4 (LSTM)                   (None, 38)           18392       embedding_58[0][0]               
__________________________________________________________________________________________________
dropout_85 (Dropout)            (None, 83)           0           lstm_3[0][0]                     
__________________________________________________________________________________________________
dropout_86 (Dropout)            (None, 38)           0           lstm_4[0][0]                     
__________________________________________________________________________________________________
concatenate_29 (Concatenate)    (None, 121)          0           dropout_85[0][0]                 
                                                                 dropout_86[0][0]                 
__________________________________________________________________________________________________
dense_57 (Dense)                (None, 150)          18300       concatenate_29[0][0]             
__________________________________________________________________________________________________
dropout_87 (Dropout)            (None, 150)          0           dense_57[0][0]                   
__________________________________________________________________________________________________
dense_58 (Dense)                (None, 4)            604         dropout_87[0][0]                 
==================================================================================================
Total params: 3,515,642
Trainable params: 3,515,642
Non-trainable params: 0
__________________________________________________________________________________________________
None
==================================================================================================
…
	Important sentence: 385
	Token occurrences: 27196
	MWE number: 418
	MWE occurrences: 510
	Continuous occurrences: 50.0 %
	MWE length: 2.07
	Seen occurrences : 43% 
	Recognizable MWEs: 100.0 %

==================================================================================================
__________________________________________________________________________________________________
Layer (type)                    Output Shape         Param #     Connected to                     
==================================================================================================
input_59 (InputLayer)           (None, 10)           0                                            
__________________________________________________________________________________________________
input_60 (InputLayer)           (None, 10)           0                                            
__________________________________________________________________________________________________
embedding_59 (Embedding)        (None, 10, 455)      8351980     input_59[0][0]                   
__________________________________________________________________________________________________
embedding_60 (Embedding)        (None, 10, 82)       1148        input_60[0][0]                   
__________________________________________________________________________________________________
lstm_5 (LSTM)                   (None, 83)           178948      embedding_59[0][0]               
__________________________________________________________________________________________________
lstm_6 (LSTM)                   (None, 38)           18392       embedding_60[0][0]               
__________________________________________________________________________________________________
dropout_88 (Dropout)            (None, 83)           0           lstm_5[0][0]                     
__________________________________________________________________________________________________
dropout_89 (Dropout)            (None, 38)           0           lstm_6[0][0]                     
__________________________________________________________________________________________________
concatenate_30 (Concatenate)    (None, 121)          0           dropout_88[0][0]                 
                                                                 dropout_89[0][0]                 
__________________________________________________________________________________________________
dense_59 (Dense)                (None, 150)          18300       concatenate_30[0][0]             
__________________________________________________________________________________________________
dropout_90 (Dropout)            (None, 150)          0           dense_59[0][0]                   
__________________________________________________________________________________________________
dense_60 (Dense)                (None, 4)            604         dropout_90[0][0]                 
==================================================================================================
Total params: 8,569,372
Trainable params: 8,569,372
Non-trainable params: 0
__________________________________________________________________________________________________
None
==================================================================================================
…
	Token occurrences: 42020
	MWE number: 451
	MWE occurrences: 670
	Continuous occurrences: 75.0 %
	MWE length: 2.14
	Seen occurrences : 57% 
	Recognizable MWEs: 100.0 %
	MWT occurrences: 1

==================================================================================================
__________________________________________________________________________________________________
Layer (type)                    Output Shape         Param #     Connected to                     
==================================================================================================
input_61 (InputLayer)           (None, 8)            0                                            
__________________________________________________________________________________________________
input_62 (InputLayer)           (None, 8)            0                                            
__________________________________________________________________________________________________
embedding_61 (Embedding)        (None, 8, 413)       3873527     input_61[0][0]                   
__________________________________________________________________________________________________
embedding_62 (Embedding)        (None, 8, 83)        1577        input_62[0][0]                   
__________________________________________________________________________________________________
gru_55 (GRU)                    (None, 35)           47145       embedding_61[0][0]               
__________________________________________________________________________________________________
gru_56 (GRU)                    (None, 164)          122016      embedding_62[0][0]               
__________________________________________________________________________________________________
dropout_91 (Dropout)            (None, 35)           0           gru_55[0][0]                     
__________________________________________________________________________________________________
dropout_92 (Dropout)            (None, 164)          0           gru_56[0][0]                     
__________________________________________________________________________________________________
concatenate_31 (Concatenate)    (None, 199)          0           dropout_91[0][0]                 
                                                                 dropout_92[0][0]                 
__________________________________________________________________________________________________
dense_61 (Dense)                (None, 27)           5400        concatenate_31[0][0]             
__________________________________________________________________________________________________
dropout_93 (Dropout)            (None, 27)           0           dense_61[0][0]                   
__________________________________________________________________________________________________
dense_62 (Dense)                (None, 4)            112         dropout_93[0][0]                 
==================================================================================================
Total params: 4,049,777
Trainable params: 4,049,777
Non-trainable params: 0
__________________________________________________________________________________________________
None
==================================================================================================
…
	MWE occurrences: 553
	Continuous occurrences: 59.0 %
	MWE length: 2.25
	Seen occurrences : 62% 
	Recognizable MWEs: 98.0 %
	Embedded occurrences: 4
	Interleaving occurrences: 8

==================================================================================================
__________________________________________________________________________________________________
Layer (type)                    Output Shape         Param #     Connected to                     
==================================================================================================
input_63 (InputLayer)           (None, 8)            0                                            
__________________________________________________________________________________________________
input_64 (InputLayer)           (None, 8)            0                                            
__________________________________________________________________________________________________
embedding_63 (Embedding)        (None, 8, 413)       2993424     input_63[0][0]                   
__________________________________________________________________________________________________
embedding_64 (Embedding)        (None, 8, 83)        1577        input_64[0][0]                   
__________________________________________________________________________________________________
gru_57 (GRU)                    (None, 35)           47145       embedding_63[0][0]               
__________________________________________________________________________________________________
gru_58 (GRU)                    (None, 164)          122016      embedding_64[0][0]               
__________________________________________________________________________________________________
dropout_94 (Dropout)            (None, 35)           0           gru_57[0][0]                     
__________________________________________________________________________________________________
dropout_95 (Dropout)            (None, 164)          0           gru_58[0][0]                     
__________________________________________________________________________________________________
concatenate_32 (Concatenate)    (None, 199)          0           dropout_94[0][0]                 
                                                                 dropout_95[0][0]                 
__________________________________________________________________________________________________
dense_63 (Dense)                (None, 27)           5400        concatenate_32[0][0]             
__________________________________________________________________________________________________
dropout_96 (Dropout)            (None, 27)           0           dense_63[0][0]                   
__________________________________________________________________________________________________
dense_64 (Dense)                (None, 4)            112         dropout_96[0][0]                 
==================================================================================================
Total params: 3,169,674
Trainable params: 3,169,674
Non-trainable params: 0
__________________________________________________________________________________________________
None
==================================================================================================
…
	Important sentence: 385
	Token occurrences: 27196
	MWE number: 418
	MWE occurrences: 510
	Continuous occurrences: 50.0 %
	MWE length: 2.07
	Seen occurrences : 43% 
	Recognizable MWEs: 100.0 %

==================================================================================================
__________________________________________________________________________________________________
Layer (type)                    Output Shape         Param #     Connected to                     
==================================================================================================
input_65 (InputLayer)           (None, 8)            0                                            
__________________________________________________________________________________________________
input_66 (InputLayer)           (None, 8)            0                                            
__________________________________________________________________________________________________
embedding_65 (Embedding)        (None, 8, 413)       7581028     input_65[0][0]                   
__________________________________________________________________________________________________
embedding_66 (Embedding)        (None, 8, 83)        1162        input_66[0][0]                   
__________________________________________________________________________________________________
gru_59 (GRU)                    (None, 35)           47145       embedding_65[0][0]               
__________________________________________________________________________________________________
gru_60 (GRU)                    (None, 164)          122016      embedding_66[0][0]               
__________________________________________________________________________________________________
dropout_97 (Dropout)            (None, 35)           0           gru_59[0][0]                     
__________________________________________________________________________________________________
dropout_98 (Dropout)            (None, 164)          0           gru_60[0][0]                     
__________________________________________________________________________________________________
concatenate_33 (Concatenate)    (None, 199)          0           dropout_97[0][0]                 
                                                                 dropout_98[0][0]                 
__________________________________________________________________________________________________
dense_65 (Dense)                (None, 27)           5400        concatenate_33[0][0]             
__________________________________________________________________________________________________
dropout_99 (Dropout)            (None, 27)           0           dense_65[0][0]                   
__________________________________________________________________________________________________
dense_66 (Dense)                (None, 4)            112         dropout_99[0][0]                 
==================================================================================================
Total params: 7,756,863
Trainable params: 7,756,863
Non-trainable params: 0
__________________________________________________________________________________________________
None
==================================================================================================
…
	Token occurrences: 42020
	MWE number: 451
	MWE occurrences: 670
	Continuous occurrences: 75.0 %
	MWE length: 2.14
	Seen occurrences : 57% 
	Recognizable MWEs: 100.0 %
	MWT occurrences: 1

==================================================================================================
__________________________________________________________________________________________________
Layer (type)                    Output Shape         Param #     Connected to                     
==================================================================================================
input_67 (InputLayer)           (None, 9)            0                                            
__________________________________________________________________________________________________
input_68 (InputLayer)           (None, 9)            0                                            
__________________________________________________________________________________________________
embedding_67 (Embedding)        (None, 9, 581)       292243      input_67[0][0]                   
__________________________________________________________________________________________________
embedding_68 (Embedding)        (None, 9, 47)        893         input_68[0][0]                   
__________________________________________________________________________________________________
lstm_7 (LSTM)                   (None, 136)          390592      embedding_67[0][0]               
__________________________________________________________________________________________________
lstm_8 (LSTM)                   (None, 197)          193060      embedding_68[0][0]               
__________________________________________________________________________________________________
dropout_100 (Dropout)           (None, 136)          0           lstm_7[0][0]                     
__________________________________________________________________________________________________
dropout_101 (Dropout)           (None, 197)          0           lstm_8[0][0]                     
__________________________________________________________________________________________________
concatenate_34 (Concatenate)    (None, 333)          0           dropout_100[0][0]                
                                                                 dropout_101[0][0]                
__________________________________________________________________________________________________
dense_67 (Dense)                (None, 38)           12692       concatenate_34[0][0]             
__________________________________________________________________________________________________
dropout_102 (Dropout)           (None, 38)           0           dense_67[0][0]                   
__________________________________________________________________________________________________
dense_68 (Dense)                (None, 4)            156         dropout_102[0][0]                
==================================================================================================
Total params: 889,636
Trainable params: 889,636
Non-trainable params: 0
__________________________________________________________________________________________________
None
==================================================================================================
…
	MWE occurrences: 553
	Continuous occurrences: 59.0 %
	MWE length: 2.25
	Seen occurrences : 62% 
	Recognizable MWEs: 98.0 %
	Embedded occurrences: 4
	Interleaving occurrences: 8

==================================================================================================
__________________________________________________________________________________________________
Layer (type)                    Output Shape         Param #     Connected to                     
==================================================================================================
input_69 (InputLayer)           (None, 9)            0                                            
__________________________________________________________________________________________________
input_70 (InputLayer)           (None, 9)            0                                            
__________________________________________________________________________________________________
embedding_69 (Embedding)        (None, 9, 581)       553693      input_69[0][0]                   
__________________________________________________________________________________________________
embedding_70 (Embedding)        (None, 9, 47)        893         input_70[0][0]                   
__________________________________________________________________________________________________
lstm_9 (LSTM)                   (None, 136)          390592      embedding_69[0][0]               
__________________________________________________________________________________________________
lstm_10 (LSTM)                  (None, 197)          193060      embedding_70[0][0]               
__________________________________________________________________________________________________
dropout_103 (Dropout)           (None, 136)          0           lstm_9[0][0]                     
__________________________________________________________________________________________________
dropout_104 (Dropout)           (None, 197)          0           lstm_10[0][0]                    
__________________________________________________________________________________________________
concatenate_35 (Concatenate)    (None, 333)          0           dropout_103[0][0]                
                                                                 dropout_104[0][0]                
__________________________________________________________________________________________________
dense_69 (Dense)                (None, 38)           12692       concatenate_35[0][0]             
__________________________________________________________________________________________________
dropout_105 (Dropout)           (None, 38)           0           dense_69[0][0]                   
__________________________________________________________________________________________________
dense_70 (Dense)                (None, 4)            156         dropout_105[0][0]                
==================================================================================================
Total params: 1,151,086
Trainable params: 1,151,086
Non-trainable params: 0
__________________________________________________________________________________________________
None
==================================================================================================
…
	Important sentence: 385
	Token occurrences: 27196
	MWE number: 418
	MWE occurrences: 510
	Continuous occurrences: 50.0 %
	MWE length: 2.07
	Seen occurrences : 43% 
	Recognizable MWEs: 100.0 %

==================================================================================================
__________________________________________________________________________________________________
Layer (type)                    Output Shape         Param #     Connected to                     
==================================================================================================
input_71 (InputLayer)           (None, 9)            0                                            
__________________________________________________________________________________________________
input_72 (InputLayer)           (None, 9)            0                                            
__________________________________________________________________________________________________
embedding_71 (Embedding)        (None, 9, 581)       1130045     input_71[0][0]                   
__________________________________________________________________________________________________
embedding_72 (Embedding)        (None, 9, 47)        658         input_72[0][0]                   
__________________________________________________________________________________________________
lstm_11 (LSTM)                  (None, 136)          390592      embedding_71[0][0]               
__________________________________________________________________________________________________
lstm_12 (LSTM)                  (None, 197)          193060      embedding_72[0][0]               
__________________________________________________________________________________________________
dropout_106 (Dropout)           (None, 136)          0           lstm_11[0][0]                    
__________________________________________________________________________________________________
dropout_107 (Dropout)           (None, 197)          0           lstm_12[0][0]                    
__________________________________________________________________________________________________
concatenate_36 (Concatenate)    (None, 333)          0           dropout_106[0][0]                
                                                                 dropout_107[0][0]                
__________________________________________________________________________________________________
dense_71 (Dense)                (None, 38)           12692       concatenate_36[0][0]             
__________________________________________________________________________________________________
dropout_108 (Dropout)           (None, 38)           0           dense_71[0][0]                   
__________________________________________________________________________________________________
dense_72 (Dense)                (None, 4)            156         dropout_108[0][0]                
==================================================================================================
Total params: 1,727,203
Trainable params: 1,727,203
Non-trainable params: 0
__________________________________________________________________________________________________
None
==================================================================================================
…
	Token occurrences: 42020
	MWE number: 451
	MWE occurrences: 670
	Continuous occurrences: 75.0 %
	MWE length: 2.14
	Seen occurrences : 57% 
	Recognizable MWEs: 100.0 %
	MWT occurrences: 1

==================================================================================================
__________________________________________________________________________________________________
Layer (type)                    Output Shape         Param #     Connected to                     
==================================================================================================
input_73 (InputLayer)           (None, 7)            0                                            
__________________________________________________________________________________________________
input_74 (InputLayer)           (None, 7)            0                                            
__________________________________________________________________________________________________
embedding_73 (Embedding)        (None, 7, 319)       375782      input_73[0][0]                   
__________________________________________________________________________________________________
embedding_74 (Embedding)        (None, 7, 92)        1748        input_74[0][0]                   
__________________________________________________________________________________________________
gru_61 (GRU)                    (None, 7, 184)       278208      embedding_73[0][0]               
__________________________________________________________________________________________________
gru_62 (GRU)                    (None, 7, 67)        32160       embedding_74[0][0]               
__________________________________________________________________________________________________
flatten_7 (Flatten)             (None, 1288)         0           gru_61[0][0]                     
__________________________________________________________________________________________________
flatten_8 (Flatten)             (None, 469)          0           gru_62[0][0]                     
__________________________________________________________________________________________________
dropout_109 (Dropout)           (None, 1288)         0           flatten_7[0][0]                  
__________________________________________________________________________________________________
dropout_110 (Dropout)           (None, 469)          0           flatten_8[0][0]                  
__________________________________________________________________________________________________
concatenate_37 (Concatenate)    (None, 1757)         0           dropout_109[0][0]                
                                                                 dropout_110[0][0]                
__________________________________________________________________________________________________
dense_73 (Dense)                (None, 151)          265458      concatenate_37[0][0]             
__________________________________________________________________________________________________
dropout_111 (Dropout)           (None, 151)          0           dense_73[0][0]                   
__________________________________________________________________________________________________
dense_74 (Dense)                (None, 4)            608         dropout_111[0][0]                
==================================================================================================
Total params: 953,964
Trainable params: 953,964
Non-trainable params: 0
__________________________________________________________________________________________________
None
==================================================================================================
…
	MWE occurrences: 553
	Continuous occurrences: 59.0 %
	MWE length: 2.25
	Seen occurrences : 62% 
	Recognizable MWEs: 98.0 %
	Embedded occurrences: 4
	Interleaving occurrences: 8

==================================================================================================
__________________________________________________________________________________________________
Layer (type)                    Output Shape         Param #     Connected to                     
==================================================================================================
input_75 (InputLayer)           (None, 7)            0                                            
__________________________________________________________________________________________________
input_76 (InputLayer)           (None, 7)            0                                            
__________________________________________________________________________________________________
embedding_75 (Embedding)        (None, 7, 319)       361746      input_75[0][0]                   
__________________________________________________________________________________________________
embedding_76 (Embedding)        (None, 7, 92)        1748        input_76[0][0]                   
__________________________________________________________________________________________________
gru_63 (GRU)                    (None, 7, 184)       278208      embedding_75[0][0]               
__________________________________________________________________________________________________
gru_64 (GRU)                    (None, 7, 67)        32160       embedding_76[0][0]               
__________________________________________________________________________________________________
flatten_9 (Flatten)             (None, 1288)         0           gru_63[0][0]                     
__________________________________________________________________________________________________
flatten_10 (Flatten)            (None, 469)          0           gru_64[0][0]                     
__________________________________________________________________________________________________
dropout_112 (Dropout)           (None, 1288)         0           flatten_9[0][0]                  
__________________________________________________________________________________________________
dropout_113 (Dropout)           (None, 469)          0           flatten_10[0][0]                 
__________________________________________________________________________________________________
concatenate_38 (Concatenate)    (None, 1757)         0           dropout_112[0][0]                
                                                                 dropout_113[0][0]                
__________________________________________________________________________________________________
dense_75 (Dense)                (None, 151)          265458      concatenate_38[0][0]             
__________________________________________________________________________________________________
dropout_114 (Dropout)           (None, 151)          0           dense_75[0][0]                   
__________________________________________________________________________________________________
dense_76 (Dense)                (None, 4)            608         dropout_114[0][0]                
==================================================================================================
Total params: 939,928
Trainable params: 939,928
Non-trainable params: 0
__________________________________________________________________________________________________
None
==================================================================================================
…
	Important sentence: 385
	Token occurrences: 27196
	MWE number: 418
	MWE occurrences: 510
	Continuous occurrences: 50.0 %
	MWE length: 2.07
	Seen occurrences : 43% 
	Recognizable MWEs: 100.0 %

==================================================================================================
__________________________________________________________________________________________________
Layer (type)                    Output Shape         Param #     Connected to                     
==================================================================================================
input_77 (InputLayer)           (None, 7)            0                                            
__________________________________________________________________________________________________
input_78 (InputLayer)           (None, 7)            0                                            
__________________________________________________________________________________________________
embedding_77 (Embedding)        (None, 7, 319)       690954      input_77[0][0]                   
__________________________________________________________________________________________________
embedding_78 (Embedding)        (None, 7, 92)        1288        input_78[0][0]                   
__________________________________________________________________________________________________
gru_65 (GRU)                    (None, 7, 184)       278208      embedding_77[0][0]               
__________________________________________________________________________________________________
gru_66 (GRU)                    (None, 7, 67)        32160       embedding_78[0][0]               
__________________________________________________________________________________________________
flatten_11 (Flatten)            (None, 1288)         0           gru_65[0][0]                     
__________________________________________________________________________________________________
flatten_12 (Flatten)            (None, 469)          0           gru_66[0][0]                     
__________________________________________________________________________________________________
dropout_115 (Dropout)           (None, 1288)         0           flatten_11[0][0]                 
__________________________________________________________________________________________________
dropout_116 (Dropout)           (None, 469)          0           flatten_12[0][0]                 
__________________________________________________________________________________________________
concatenate_39 (Concatenate)    (None, 1757)         0           dropout_115[0][0]                
                                                                 dropout_116[0][0]                
__________________________________________________________________________________________________
dense_77 (Dense)                (None, 151)          265458      concatenate_39[0][0]             
__________________________________________________________________________________________________
dropout_117 (Dropout)           (None, 151)          0           dense_77[0][0]                   
__________________________________________________________________________________________________
dense_78 (Dense)                (None, 4)            608         dropout_117[0][0]                
==================================================================================================
Total params: 1,268,676
Trainable params: 1,268,676
Non-trainable params: 0
__________________________________________________________________________________________________
None
==================================================================================================
…
	Token occurrences: 42020
	MWE number: 451
	MWE occurrences: 670
	Continuous occurrences: 75.0 %
	MWE length: 2.14
	Seen occurrences : 57% 
	Recognizable MWEs: 100.0 %
	MWT occurrences: 1

==================================================================================================
__________________________________________________________________________________________________
Layer (type)                    Output Shape         Param #     Connected to                     
==================================================================================================
input_79 (InputLayer)           (None, 9)            0                                            
__________________________________________________________________________________________________
input_80 (InputLayer)           (None, 9)            0                                            
__________________________________________________________________________________________________
embedding_79 (Embedding)        (None, 9, 265)       1607225     input_79[0][0]                   
__________________________________________________________________________________________________
embedding_80 (Embedding)        (None, 9, 97)        1843        input_80[0][0]                   
__________________________________________________________________________________________________
gru_67 (GRU)                    (None, 136)          164016      embedding_79[0][0]               
__________________________________________________________________________________________________
gru_68 (GRU)                    (None, 60)           28440       embedding_80[0][0]               
__________________________________________________________________________________________________
dropout_118 (Dropout)           (None, 136)          0           gru_67[0][0]                     
__________________________________________________________________________________________________
dropout_119 (Dropout)           (None, 60)           0           gru_68[0][0]                     
__________________________________________________________________________________________________
concatenate_40 (Concatenate)    (None, 196)          0           dropout_118[0][0]                
                                                                 dropout_119[0][0]                
__________________________________________________________________________________________________
dense_79 (Dense)                (None, 66)           13002       concatenate_40[0][0]             
__________________________________________________________________________________________________
dropout_120 (Dropout)           (None, 66)           0           dense_79[0][0]                   
__________________________________________________________________________________________________
dense_80 (Dense)                (None, 4)            268         dropout_120[0][0]                
==================================================================================================
Total params: 1,814,794
Trainable params: 1,814,794
Non-trainable params: 0
__________________________________________________________________________________________________
None
==================================================================================================
…
	MWE occurrences: 553
	Continuous occurrences: 59.0 %
	MWE length: 2.25
	Seen occurrences : 62% 
	Recognizable MWEs: 98.0 %
	Embedded occurrences: 4
	Interleaving occurrences: 8

==================================================================================================
__________________________________________________________________________________________________
Layer (type)                    Output Shape         Param #     Connected to                     
==================================================================================================
input_81 (InputLayer)           (None, 9)            0                                            
__________________________________________________________________________________________________
input_82 (InputLayer)           (None, 9)            0                                            
__________________________________________________________________________________________________
embedding_81 (Embedding)        (None, 9, 265)       1539650     input_81[0][0]                   
__________________________________________________________________________________________________
embedding_82 (Embedding)        (None, 9, 97)        1843        input_82[0][0]                   
__________________________________________________________________________________________________
gru_69 (GRU)                    (None, 136)          164016      embedding_81[0][0]               
__________________________________________________________________________________________________
gru_70 (GRU)                    (None, 60)           28440       embedding_82[0][0]               
__________________________________________________________________________________________________
dropout_121 (Dropout)           (None, 136)          0           gru_69[0][0]                     
__________________________________________________________________________________________________
dropout_122 (Dropout)           (None, 60)           0           gru_70[0][0]                     
__________________________________________________________________________________________________
concatenate_41 (Concatenate)    (None, 196)          0           dropout_121[0][0]                
                                                                 dropout_122[0][0]                
__________________________________________________________________________________________________
dense_81 (Dense)                (None, 66)           13002       concatenate_41[0][0]             
__________________________________________________________________________________________________
dropout_123 (Dropout)           (None, 66)           0           dense_81[0][0]                   
__________________________________________________________________________________________________
dense_82 (Dense)                (None, 4)            268         dropout_123[0][0]                
==================================================================================================
Total params: 1,747,219
Trainable params: 1,747,219
Non-trainable params: 0
__________________________________________________________________________________________________
None
==================================================================================================
…
	Important sentence: 385
	Token occurrences: 27196
	MWE number: 418
	MWE occurrences: 510
	Continuous occurrences: 50.0 %
	MWE length: 2.07
	Seen occurrences : 43% 
	Recognizable MWEs: 100.0 %

==================================================================================================
__________________________________________________________________________________________________
Layer (type)                    Output Shape         Param #     Connected to                     
==================================================================================================
input_83 (InputLayer)           (None, 9)            0                                            
__________________________________________________________________________________________________
input_84 (InputLayer)           (None, 9)            0                                            
__________________________________________________________________________________________________
embedding_83 (Embedding)        (None, 9, 265)       2882670     input_83[0][0]                   
__________________________________________________________________________________________________
embedding_84 (Embedding)        (None, 9, 97)        1358        input_84[0][0]                   
__________________________________________________________________________________________________
gru_71 (GRU)                    (None, 136)          164016      embedding_83[0][0]               
__________________________________________________________________________________________________
gru_72 (GRU)                    (None, 60)           28440       embedding_84[0][0]               
__________________________________________________________________________________________________
dropout_124 (Dropout)           (None, 136)          0           gru_71[0][0]                     
__________________________________________________________________________________________________
dropout_125 (Dropout)           (None, 60)           0           gru_72[0][0]                     
__________________________________________________________________________________________________
concatenate_42 (Concatenate)    (None, 196)          0           dropout_124[0][0]                
                                                                 dropout_125[0][0]                
__________________________________________________________________________________________________
dense_83 (Dense)                (None, 66)           13002       concatenate_42[0][0]             
__________________________________________________________________________________________________
dropout_126 (Dropout)           (None, 66)           0           dense_83[0][0]                   
__________________________________________________________________________________________________
dense_84 (Dense)                (None, 4)            268         dropout_126[0][0]                
==================================================================================================
Total params: 3,089,754
Trainable params: 3,089,754
Non-trainable params: 0
__________________________________________________________________________________________________
None
==================================================================================================
…
	Token occurrences: 42020
	MWE number: 451
	MWE occurrences: 670
	Continuous occurrences: 75.0 %
	MWE length: 2.14
	Seen occurrences : 57% 
	Recognizable MWEs: 100.0 %
	MWT occurrences: 1

==================================================================================================
__________________________________________________________________________________________________
Layer (type)                    Output Shape         Param #     Connected to                     
==================================================================================================
input_85 (InputLayer)           (None, 7)            0                                            
__________________________________________________________________________________________________
input_86 (InputLayer)           (None, 7)            0                                            
__________________________________________________________________________________________________
embedding_85 (Embedding)        (None, 7, 416)       490048      input_85[0][0]                   
__________________________________________________________________________________________________
embedding_86 (Embedding)        (None, 7, 49)        931         input_86[0][0]                   
__________________________________________________________________________________________________
lstm_13 (LSTM)                  (None, 151)          343072      embedding_85[0][0]               
__________________________________________________________________________________________________
lstm_14 (LSTM)                  (None, 29)           9164        embedding_86[0][0]               
__________________________________________________________________________________________________
dropout_127 (Dropout)           (None, 151)          0           lstm_13[0][0]                    
__________________________________________________________________________________________________
dropout_128 (Dropout)           (None, 29)           0           lstm_14[0][0]                    
__________________________________________________________________________________________________
concatenate_43 (Concatenate)    (None, 180)          0           dropout_127[0][0]                
                                                                 dropout_128[0][0]                
__________________________________________________________________________________________________
dense_85 (Dense)                (None, 188)          34028       concatenate_43[0][0]             
__________________________________________________________________________________________________
dropout_129 (Dropout)           (None, 188)          0           dense_85[0][0]                   
__________________________________________________________________________________________________
dense_86 (Dense)                (None, 4)            756         dropout_129[0][0]                
==================================================================================================
Total params: 877,999
Trainable params: 877,999
Non-trainable params: 0
__________________________________________________________________________________________________
None
==================================================================================================
…
	MWE occurrences: 553
	Continuous occurrences: 59.0 %
	MWE length: 2.25
	Seen occurrences : 62% 
	Recognizable MWEs: 98.0 %
	Embedded occurrences: 4
	Interleaving occurrences: 8

==================================================================================================
__________________________________________________________________________________________________
Layer (type)                    Output Shape         Param #     Connected to                     
==================================================================================================
input_87 (InputLayer)           (None, 7)            0                                            
__________________________________________________________________________________________________
input_88 (InputLayer)           (None, 7)            0                                            
__________________________________________________________________________________________________
embedding_87 (Embedding)        (None, 7, 416)       471744      input_87[0][0]                   
__________________________________________________________________________________________________
embedding_88 (Embedding)        (None, 7, 49)        931         input_88[0][0]                   
__________________________________________________________________________________________________
lstm_15 (LSTM)                  (None, 151)          343072      embedding_87[0][0]               
__________________________________________________________________________________________________
lstm_16 (LSTM)                  (None, 29)           9164        embedding_88[0][0]               
__________________________________________________________________________________________________
dropout_130 (Dropout)           (None, 151)          0           lstm_15[0][0]                    
__________________________________________________________________________________________________
dropout_131 (Dropout)           (None, 29)           0           lstm_16[0][0]                    
__________________________________________________________________________________________________
concatenate_44 (Concatenate)    (None, 180)          0           dropout_130[0][0]                
                                                                 dropout_131[0][0]                
__________________________________________________________________________________________________
dense_87 (Dense)                (None, 188)          34028       concatenate_44[0][0]             
__________________________________________________________________________________________________
dropout_132 (Dropout)           (None, 188)          0           dense_87[0][0]                   
__________________________________________________________________________________________________
dense_88 (Dense)                (None, 4)            756         dropout_132[0][0]                
==================================================================================================
Total params: 859,695
Trainable params: 859,695
Non-trainable params: 0
__________________________________________________________________________________________________
None
==================================================================================================
…
	Important sentence: 385
	Token occurrences: 27196
	MWE number: 418
	MWE occurrences: 510
	Continuous occurrences: 50.0 %
	MWE length: 2.07
	Seen occurrences : 43% 
	Recognizable MWEs: 100.0 %

==================================================================================================
__________________________________________________________________________________________________
Layer (type)                    Output Shape         Param #     Connected to                     
==================================================================================================
input_89 (InputLayer)           (None, 7)            0                                            
…
==================================================================================================
…
	MWE occurrences: 553
	Continuous occurrences: 59.0 %
	MWE length: 2.25
	Seen occurrences : 62% 
	Recognizable MWEs: 98.0 %
	Embedded occurrences: 4
	Interleaving occurrences: 8

==================================================================================================
__________________________________________________________________________________________________
Layer (type)                    Output Shape         Param #     Connected to                     
==================================================================================================
input_519 (InputLayer)          (None, 8)            0                                            
__________________________________________________________________________________________________
input_520 (InputLayer)          (None, 8)            0                                            
__________________________________________________________________________________________________
embedding_519 (Embedding)       (None, 8, 443)       3210864     input_519[0][0]                  
__________________________________________________________________________________________________
embedding_520 (Embedding)       (None, 8, 82)        1558        input_520[0][0]                  
__________________________________________________________________________________________________
gru_411 (GRU)                   (None, 8, 135)       234495      embedding_519[0][0]              
__________________________________________________________________________________________________
gru_412 (GRU)                   (None, 8, 88)        45144       embedding_520[0][0]              
__________________________________________________________________________________________________
flatten_147 (Flatten)           (None, 1080)         0           gru_411[0][0]                    
__________________________________________________________________________________________________
flatten_148 (Flatten)           (None, 704)          0           gru_412[0][0]                    
__________________________________________________________________________________________________
dropout_778 (Dropout)           (None, 1080)         0           flatten_147[0][0]                
__________________________________________________________________________________________________
dropout_779 (Dropout)           (None, 704)          0           flatten_148[0][0]                
__________________________________________________________________________________________________
concatenate_260 (Concatenate)   (None, 1784)         0           dropout_778[0][0]                
                                                                 dropout_779[0][0]                
__________________________________________________________________________________________________
dense_519 (Dense)               (None, 187)          333795      concatenate_260[0][0]            
__________________________________________________________________________________________________
dropout_780 (Dropout)           (None, 187)          0           dense_519[0][0]                  
__________________________________________________________________________________________________
dense_520 (Dense)               (None, 4)            752         dropout_780[0][0]                
==================================================================================================
Total params: 3,826,608
Trainable params: 3,826,608
Non-trainable params: 0
__________________________________________________________________________________________________
None
==================================================================================================
…
	Important sentence: 385
	Token occurrences: 27196
	MWE number: 418
	MWE occurrences: 510
	Continuous occurrences: 50.0 %
	MWE length: 2.07
	Seen occurrences : 43% 
	Recognizable MWEs: 100.0 %

==================================================================================================
__________________________________________________________________________________________________
Layer (type)                    Output Shape         Param #     Connected to                     
==================================================================================================
input_521 (InputLayer)          (None, 8)            0                                            
__________________________________________________________________________________________________
input_522 (InputLayer)          (None, 8)            0                                            
__________________________________________________________________________________________________
embedding_521 (Embedding)       (None, 8, 443)       8131708     input_521[0][0]                  
__________________________________________________________________________________________________
embedding_522 (Embedding)       (None, 8, 82)        1148        input_522[0][0]                  
__________________________________________________________________________________________________
gru_413 (GRU)                   (None, 8, 135)       234495      embedding_521[0][0]              
__________________________________________________________________________________________________
gru_414 (GRU)                   (None, 8, 88)        45144       embedding_522[0][0]              
__________________________________________________________________________________________________
flatten_149 (Flatten)           (None, 1080)         0           gru_413[0][0]                    
__________________________________________________________________________________________________
flatten_150 (Flatten)           (None, 704)          0           gru_414[0][0]                    
__________________________________________________________________________________________________
dropout_781 (Dropout)           (None, 1080)         0           flatten_149[0][0]                
__________________________________________________________________________________________________
dropout_782 (Dropout)           (None, 704)          0           flatten_150[0][0]                
__________________________________________________________________________________________________
concatenate_261 (Concatenate)   (None, 1784)         0           dropout_781[0][0]                
                                                                 dropout_782[0][0]                
__________________________________________________________________________________________________
dense_521 (Dense)               (None, 187)          333795      concatenate_261[0][0]            
__________________________________________________________________________________________________
dropout_783 (Dropout)           (None, 187)          0           dense_521[0][0]                  
__________________________________________________________________________________________________
dense_522 (Dense)               (None, 4)            752         dropout_783[0][0]                
==================================================================================================
Total params: 8,747,042
Trainable params: 8,747,042
Non-trainable params: 0
__________________________________________________________________________________________________
None
==================================================================================================
…
	Token occurrences: 42020
	MWE number: 451
	MWE occurrences: 670
	Continuous occurrences: 75.0 %
	MWE length: 2.14
	Seen occurrences : 57% 
	Recognizable MWEs: 100.0 %
	MWT occurrences: 1

==================================================================================================
__________________________________________________________________________________________________
Layer (type)                    Output Shape         Param #     Connected to                     
==================================================================================================
input_523 (InputLayer)          (None, 7)            0                                            
__________________________________________________________________________________________________
input_524 (InputLayer)          (None, 7)            0                                            
__________________________________________________________________________________________________
embedding_523 (Embedding)       (None, 7, 340)       2062100     input_523[0][0]                  
__________________________________________________________________________________________________
embedding_524 (Embedding)       (None, 7, 89)        1691        input_524[0][0]                  
__________________________________________________________________________________________________
gru_415 (GRU)                   (None, 7, 66)        80586       embedding_523[0][0]              
__________________________________________________________________________________________________
gru_416 (GRU)                   (None, 7, 126)       81648       embedding_524[0][0]              
__________________________________________________________________________________________________
flatten_151 (Flatten)           (None, 462)          0           gru_415[0][0]                    
__________________________________________________________________________________________________
flatten_152 (Flatten)           (None, 882)          0           gru_416[0][0]                    
__________________________________________________________________________________________________
dropout_784 (Dropout)           (None, 462)          0           flatten_151[0][0]                
__________________________________________________________________________________________________
dropout_785 (Dropout)           (None, 882)          0           flatten_152[0][0]                
__________________________________________________________________________________________________
concatenate_262 (Concatenate)   (None, 1344)         0           dropout_784[0][0]                
                                                                 dropout_785[0][0]                
__________________________________________________________________________________________________
dense_523 (Dense)               (None, 182)          244790      concatenate_262[0][0]            
__________________________________________________________________________________________________
dropout_786 (Dropout)           (None, 182)          0           dense_523[0][0]                  
__________________________________________________________________________________________________
dense_524 (Dense)               (None, 4)            732         dropout_786[0][0]                
==================================================================================================
Total params: 2,471,547
Trainable params: 2,471,547
Non-trainable params: 0
__________________________________________________________________________________________________
None
==================================================================================================
…
	MWE occurrences: 553
	Continuous occurrences: 59.0 %
	MWE length: 2.25
	Seen occurrences : 62% 
	Recognizable MWEs: 98.0 %
	Embedded occurrences: 4
	Interleaving occurrences: 8

==================================================================================================
__________________________________________________________________________________________________
Layer (type)                    Output Shape         Param #     Connected to                     
==================================================================================================
input_525 (InputLayer)          (None, 7)            0                                            
__________________________________________________________________________________________________
input_526 (InputLayer)          (None, 7)            0                                            
__________________________________________________________________________________________________
embedding_525 (Embedding)       (None, 7, 340)       1975400     input_525[0][0]                  
__________________________________________________________________________________________________
embedding_526 (Embedding)       (None, 7, 89)        1691        input_526[0][0]                  
__________________________________________________________________________________________________
gru_417 (GRU)                   (None, 7, 66)        80586       embedding_525[0][0]              
__________________________________________________________________________________________________
gru_418 (GRU)                   (None, 7, 126)       81648       embedding_526[0][0]              
__________________________________________________________________________________________________
flatten_153 (Flatten)           (None, 462)          0           gru_417[0][0]                    
__________________________________________________________________________________________________
flatten_154 (Flatten)           (None, 882)          0           gru_418[0][0]                    
__________________________________________________________________________________________________
dropout_787 (Dropout)           (None, 462)          0           flatten_153[0][0]                
__________________________________________________________________________________________________
dropout_788 (Dropout)           (None, 882)          0           flatten_154[0][0]                
__________________________________________________________________________________________________
concatenate_263 (Concatenate)   (None, 1344)         0           dropout_787[0][0]                
                                                                 dropout_788[0][0]                
__________________________________________________________________________________________________
dense_525 (Dense)               (None, 182)          244790      concatenate_263[0][0]            
__________________________________________________________________________________________________
dropout_789 (Dropout)           (None, 182)          0           dense_525[0][0]                  
__________________________________________________________________________________________________
dense_526 (Dense)               (None, 4)            732         dropout_789[0][0]                
==================================================================================================
Total params: 2,384,847
Trainable params: 2,384,847
Non-trainable params: 0
__________________________________________________________________________________________________
None
==================================================================================================
…
	Important sentence: 385
	Token occurrences: 27196
	MWE number: 418
	MWE occurrences: 510
	Continuous occurrences: 50.0 %
	MWE length: 2.07
	Seen occurrences : 43% 
	Recognizable MWEs: 100.0 %

==================================================================================================
__________________________________________________________________________________________________
Layer (type)                    Output Shape         Param #     Connected to                     
==================================================================================================
input_527 (InputLayer)          (None, 7)            0                                            
__________________________________________________________________________________________________
input_528 (InputLayer)          (None, 7)            0                                            
__________________________________________________________________________________________________
embedding_527 (Embedding)       (None, 7, 340)       3698520     input_527[0][0]                  
__________________________________________________________________________________________________
embedding_528 (Embedding)       (None, 7, 89)        1246        input_528[0][0]                  
__________________________________________________________________________________________________
gru_419 (GRU)                   (None, 7, 66)        80586       embedding_527[0][0]              
__________________________________________________________________________________________________
gru_420 (GRU)                   (None, 7, 126)       81648       embedding_528[0][0]              
__________________________________________________________________________________________________
flatten_155 (Flatten)           (None, 462)          0           gru_419[0][0]                    
__________________________________________________________________________________________________
flatten_156 (Flatten)           (None, 882)          0           gru_420[0][0]                    
__________________________________________________________________________________________________
dropout_790 (Dropout)           (None, 462)          0           flatten_155[0][0]                
__________________________________________________________________________________________________
dropout_791 (Dropout)           (None, 882)          0           flatten_156[0][0]                
__________________________________________________________________________________________________
concatenate_264 (Concatenate)   (None, 1344)         0           dropout_790[0][0]                
                                                                 dropout_791[0][0]                
__________________________________________________________________________________________________
dense_527 (Dense)               (None, 182)          244790      concatenate_264[0][0]            
__________________________________________________________________________________________________
dropout_792 (Dropout)           (None, 182)          0           dense_527[0][0]                  
__________________________________________________________________________________________________
dense_528 (Dense)               (None, 4)            732         dropout_792[0][0]                
==================================================================================================
Total params: 4,107,522
Trainable params: 4,107,522
Non-trainable params: 0
__________________________________________________________________________________________________
None
==================================================================================================
…
	Token occurrences: 42020
	MWE number: 451
	MWE occurrences: 670
	Continuous occurrences: 75.0 %
	MWE length: 2.14
	Seen occurrences : 57% 
	Recognizable MWEs: 100.0 %
	MWT occurrences: 1

==================================================================================================
__________________________________________________________________________________________________
Layer (type)                    Output Shape         Param #     Connected to                     
==================================================================================================
input_529 (InputLayer)          (None, 10)           0                                            
__________________________________________________________________________________________________
input_530 (InputLayer)          (None, 10)           0                                            
__________________________________________________________________________________________________
embedding_529 (Embedding)       (None, 10, 354)      417012      input_529[0][0]                  
__________________________________________________________________________________________________
embedding_530 (Embedding)       (None, 10, 48)       912         input_530[0][0]                  
__________________________________________________________________________________________________
gru_421 (GRU)                   (None, 10, 138)      204102      embedding_529[0][0]              
__________________________________________________________________________________________________
gru_422 (GRU)                   (None, 10, 178)      121218      embedding_530[0][0]              
__________________________________________________________________________________________________
flatten_157 (Flatten)           (None, 1380)         0           gru_421[0][0]                    
__________________________________________________________________________________________________
flatten_158 (Flatten)           (None, 1780)         0           gru_422[0][0]                    
__________________________________________________________________________________________________
dropout_793 (Dropout)           (None, 1380)         0           flatten_157[0][0]                
__________________________________________________________________________________________________
dropout_794 (Dropout)           (None, 1780)         0           flatten_158[0][0]                
__________________________________________________________________________________________________
concatenate_265 (Concatenate)   (None, 3160)         0           dropout_793[0][0]                
                                                                 dropout_794[0][0]                
__________________________________________________________________________________________________
dense_529 (Dense)               (None, 70)           221270      concatenate_265[0][0]            
__________________________________________________________________________________________________
dropout_795 (Dropout)           (None, 70)           0           dense_529[0][0]                  
__________________________________________________________________________________________________
dense_530 (Dense)               (None, 4)            284         dropout_795[0][0]                
==================================================================================================
Total params: 964,798
Trainable params: 964,798
Non-trainable params: 0
__________________________________________________________________________________________________
None
==================================================================================================
…
	MWE occurrences: 553
	Continuous occurrences: 59.0 %
	MWE length: 2.25
	Seen occurrences : 62% 
	Recognizable MWEs: 98.0 %
	Embedded occurrences: 4
	Interleaving occurrences: 8

==================================================================================================
__________________________________________________________________________________________________
Layer (type)                    Output Shape         Param #     Connected to                     
==================================================================================================
input_531 (InputLayer)          (None, 10)           0                                            
__________________________________________________________________________________________________
input_532 (InputLayer)          (None, 10)           0                                            
__________________________________________________________________________________________________
embedding_531 (Embedding)       (None, 10, 354)      401436      input_531[0][0]                  
__________________________________________________________________________________________________
embedding_532 (Embedding)       (None, 10, 48)       912         input_532[0][0]                  
__________________________________________________________________________________________________
gru_423 (GRU)                   (None, 10, 138)      204102      embedding_531[0][0]              
__________________________________________________________________________________________________
gru_424 (GRU)                   (None, 10, 178)      121218      embedding_532[0][0]              
__________________________________________________________________________________________________
flatten_159 (Flatten)           (None, 1380)         0           gru_423[0][0]                    
__________________________________________________________________________________________________
flatten_160 (Flatten)           (None, 1780)         0           gru_424[0][0]                    
__________________________________________________________________________________________________
dropout_796 (Dropout)           (None, 1380)         0           flatten_159[0][0]                
__________________________________________________________________________________________________
dropout_797 (Dropout)           (None, 1780)         0           flatten_160[0][0]                
__________________________________________________________________________________________________
concatenate_266 (Concatenate)   (None, 3160)         0           dropout_796[0][0]                
                                                                 dropout_797[0][0]                
__________________________________________________________________________________________________
dense_531 (Dense)               (None, 70)           221270      concatenate_266[0][0]            
__________________________________________________________________________________________________
dropout_798 (Dropout)           (None, 70)           0           dense_531[0][0]                  
__________________________________________________________________________________________________
dense_532 (Dense)               (None, 4)            284         dropout_798[0][0]                
==================================================================================================
Total params: 949,222
Trainable params: 949,222
Non-trainable params: 0
__________________________________________________________________________________________________
None
==================================================================================================
…
	Important sentence: 385
	Token occurrences: 27196
	MWE number: 418
	MWE occurrences: 510
	Continuous occurrences: 50.0 %
	MWE length: 2.07
	Seen occurrences : 43% 
	Recognizable MWEs: 100.0 %

==================================================================================================
__________________________________________________________________________________________________
Layer (type)                    Output Shape         Param #     Connected to                     
==================================================================================================
input_533 (InputLayer)          (None, 10)           0                                            
__________________________________________________________________________________________________
input_534 (InputLayer)          (None, 10)           0                                            
__________________________________________________________________________________________________
embedding_533 (Embedding)       (None, 10, 354)      766764      input_533[0][0]                  
__________________________________________________________________________________________________
embedding_534 (Embedding)       (None, 10, 48)       672         input_534[0][0]                  
__________________________________________________________________________________________________
gru_425 (GRU)                   (None, 10, 138)      204102      embedding_533[0][0]              
__________________________________________________________________________________________________
gru_426 (GRU)                   (None, 10, 178)      121218      embedding_534[0][0]              
__________________________________________________________________________________________________
flatten_161 (Flatten)           (None, 1380)         0           gru_425[0][0]                    
__________________________________________________________________________________________________
flatten_162 (Flatten)           (None, 1780)         0           gru_426[0][0]                    
__________________________________________________________________________________________________
dropout_799 (Dropout)           (None, 1380)         0           flatten_161[0][0]                
__________________________________________________________________________________________________
dropout_800 (Dropout)           (None, 1780)         0           flatten_162[0][0]                
__________________________________________________________________________________________________
concatenate_267 (Concatenate)   (None, 3160)         0           dropout_799[0][0]                
                                                                 dropout_800[0][0]                
__________________________________________________________________________________________________
dense_533 (Dense)               (None, 70)           221270      concatenate_267[0][0]            
__________________________________________________________________________________________________
dropout_801 (Dropout)           (None, 70)           0           dense_533[0][0]                  
__________________________________________________________________________________________________
dense_534 (Dense)               (None, 4)            284         dropout_801[0][0]                
==================================================================================================
Total params: 1,314,310
Trainable params: 1,314,310
Non-trainable params: 0
__________________________________________________________________________________________________
None
==================================================================================================
…
	Token occurrences: 42020
	MWE number: 451
	MWE occurrences: 670
	Continuous occurrences: 75.0 %
	MWE length: 2.14
	Seen occurrences : 57% 
	Recognizable MWEs: 100.0 %
	MWT occurrences: 1

==================================================================================================
__________________________________________________________________________________________________
Layer (type)                    Output Shape         Param #     Connected to                     
==================================================================================================
input_535 (InputLayer)          (None, 9)            0                                            
__________________________________________________________________________________________________
input_536 (InputLayer)          (None, 9)            0                                            
__________________________________________________________________________________________________
embedding_535 (Embedding)       (None, 9, 370)       2244050     input_535[0][0]                  
__________________________________________________________________________________________________
embedding_536 (Embedding)       (None, 9, 91)        1729        input_536[0][0]                  
__________________________________________________________________________________________________
gru_427 (GRU)                   (None, 122)          180438      embedding_535[0][0]              
__________________________________________________________________________________________________
gru_428 (GRU)                   (None, 116)          72384       embedding_536[0][0]              
__________________________________________________________________________________________________
dropout_802 (Dropout)           (None, 122)          0           gru_427[0][0]                    
__________________________________________________________________________________________________
dropout_803 (Dropout)           (None, 116)          0           gru_428[0][0]                    
__________________________________________________________________________________________________
concatenate_268 (Concatenate)   (None, 238)          0           dropout_802[0][0]                
                                                                 dropout_803[0][0]                
__________________________________________________________________________________________________
dense_535 (Dense)               (None, 111)          26529       concatenate_268[0][0]            
__________________________________________________________________________________________________
dropout_804 (Dropout)           (None, 111)          0           dense_535[0][0]                  
__________________________________________________________________________________________________
dense_536 (Dense)               (None, 4)            448         dropout_804[0][0]                
==================================================================================================
Total params: 2,525,578
Trainable params: 2,525,578
Non-trainable params: 0
__________________________________________________________________________________________________
None
==================================================================================================
…
	MWE occurrences: 553
	Continuous occurrences: 59.0 %
	MWE length: 2.25
	Seen occurrences : 62% 
	Recognizable MWEs: 98.0 %
	Embedded occurrences: 4
	Interleaving occurrences: 8

==================================================================================================
__________________________________________________________________________________________________
Layer (type)                    Output Shape         Param #     Connected to                     
==================================================================================================
input_537 (InputLayer)          (None, 9)            0                                            
__________________________________________________________________________________________________
input_538 (InputLayer)          (None, 9)            0                                            
__________________________________________________________________________________________________
embedding_537 (Embedding)       (None, 9, 370)       2149700     input_537[0][0]                  
__________________________________________________________________________________________________
embedding_538 (Embedding)       (None, 9, 91)        1729        input_538[0][0]                  
__________________________________________________________________________________________________
gru_429 (GRU)                   (None, 122)          180438      embedding_537[0][0]              
__________________________________________________________________________________________________
gru_430 (GRU)                   (None, 116)          72384       embedding_538[0][0]              
__________________________________________________________________________________________________
dropout_805 (Dropout)           (None, 122)          0           gru_429[0][0]                    
__________________________________________________________________________________________________
dropout_806 (Dropout)           (None, 116)          0           gru_430[0][0]                    
__________________________________________________________________________________________________
concatenate_269 (Concatenate)   (None, 238)          0           dropout_805[0][0]                
                                                                 dropout_806[0][0]                
__________________________________________________________________________________________________
dense_537 (Dense)               (None, 111)          26529       concatenate_269[0][0]            
__________________________________________________________________________________________________
dropout_807 (Dropout)           (None, 111)          0           dense_537[0][0]                  
__________________________________________________________________________________________________
dense_538 (Dense)               (None, 4)            448         dropout_807[0][0]                
==================================================================================================
Total params: 2,431,228
Trainable params: 2,431,228
Non-trainable params: 0
__________________________________________________________________________________________________
None
==================================================================================================
…
	Important sentence: 385
	Token occurrences: 27196
	MWE number: 418
	MWE occurrences: 510
	Continuous occurrences: 50.0 %
	MWE length: 2.07
	Seen occurrences : 43% 
	Recognizable MWEs: 100.0 %

==================================================================================================
__________________________________________________________________________________________________
Layer (type)                    Output Shape         Param #     Connected to                     
==================================================================================================
input_539 (InputLayer)          (None, 9)            0                                            
__________________________________________________________________________________________________
input_540 (InputLayer)          (None, 9)            0                                            
__________________________________________________________________________________________________
embedding_539 (Embedding)       (None, 9, 370)       4024860     input_539[0][0]                  
__________________________________________________________________________________________________
embedding_540 (Embedding)       (None, 9, 91)        1274        input_540[0][0]                  
__________________________________________________________________________________________________
gru_431 (GRU)                   (None, 122)          180438      embedding_539[0][0]              
__________________________________________________________________________________________________
gru_432 (GRU)                   (None, 116)          72384       embedding_540[0][0]              
__________________________________________________________________________________________________
dropout_808 (Dropout)           (None, 122)          0           gru_431[0][0]                    
__________________________________________________________________________________________________
dropout_809 (Dropout)           (None, 116)          0           gru_432[0][0]                    
__________________________________________________________________________________________________
concatenate_270 (Concatenate)   (None, 238)          0           dropout_808[0][0]                
                                                                 dropout_809[0][0]                
__________________________________________________________________________________________________
dense_539 (Dense)               (None, 111)          26529       concatenate_270[0][0]            
__________________________________________________________________________________________________
dropout_810 (Dropout)           (None, 111)          0           dense_539[0][0]                  
__________________________________________________________________________________________________
dense_540 (Dense)               (None, 4)            448         dropout_810[0][0]                
==================================================================================================
Total params: 4,305,933
Trainable params: 4,305,933
Non-trainable params: 0
__________________________________________________________________________________________________
None
==================================================================================================
…
	Token occurrences: 42020
	MWE number: 451
	MWE occurrences: 670
	Continuous occurrences: 75.0 %
	MWE length: 2.14
	Seen occurrences : 57% 
	Recognizable MWEs: 100.0 %
	MWT occurrences: 1

==================================================================================================
__________________________________________________________________________________________________
Layer (type)                    Output Shape         Param #     Connected to                     
==================================================================================================
input_541 (InputLayer)          (None, 10)           0                                            
__________________________________________________________________________________________________
input_542 (InputLayer)          (None, 10)           0                                            
__________________________________________________________________________________________________
embedding_541 (Embedding)       (None, 10, 540)      5064660     input_541[0][0]                  
__________________________________________________________________________________________________
embedding_542 (Embedding)       (None, 10, 78)       1482        input_542[0][0]                  
__________________________________________________________________________________________________
lstm_109 (LSTM)                 (None, 199)          589040      embedding_541[0][0]              
__________________________________________________________________________________________________
lstm_110 (LSTM)                 (None, 170)          169320      embedding_542[0][0]              
__________________________________________________________________________________________________
dropout_811 (Dropout)           (None, 199)          0           lstm_109[0][0]                   
__________________________________________________________________________________________________
dropout_812 (Dropout)           (None, 170)          0           lstm_110[0][0]                   
__________________________________________________________________________________________________
concatenate_271 (Concatenate)   (None, 369)          0           dropout_811[0][0]                
                                                                 dropout_812[0][0]                
__________________________________________________________________________________________________
dense_541 (Dense)               (None, 170)          62900       concatenate_271[0][0]            
__________________________________________________________________________________________________
dropout_813 (Dropout)           (None, 170)          0           dense_541[0][0]                  
__________________________________________________________________________________________________
dense_542 (Dense)               (None, 4)            684         dropout_813[0][0]                
==================================================================================================
Total params: 5,888,086
Trainable params: 5,888,086
Non-trainable params: 0
__________________________________________________________________________________________________
None
==================================================================================================
…
	MWE occurrences: 553
	Continuous occurrences: 59.0 %
	MWE length: 2.25
	Seen occurrences : 62% 
	Recognizable MWEs: 98.0 %
	Embedded occurrences: 4
	Interleaving occurrences: 8

==================================================================================================
__________________________________________________________________________________________________
Layer (type)                    Output Shape         Param #     Connected to                     
==================================================================================================
input_543 (InputLayer)          (None, 10)           0                                            
__________________________________________________________________________________________________
input_544 (InputLayer)          (None, 10)           0                                            
__________________________________________________________________________________________________
embedding_543 (Embedding)       (None, 10, 540)      3913920     input_543[0][0]                  
__________________________________________________________________________________________________
embedding_544 (Embedding)       (None, 10, 78)       1482        input_544[0][0]                  
__________________________________________________________________________________________________
lstm_111 (LSTM)                 (None, 199)          589040      embedding_543[0][0]              
__________________________________________________________________________________________________
lstm_112 (LSTM)                 (None, 170)          169320      embedding_544[0][0]              
__________________________________________________________________________________________________
dropout_814 (Dropout)           (None, 199)          0           lstm_111[0][0]                   
__________________________________________________________________________________________________
dropout_815 (Dropout)           (None, 170)          0           lstm_112[0][0]                   
__________________________________________________________________________________________________
concatenate_272 (Concatenate)   (None, 369)          0           dropout_814[0][0]                
                                                                 dropout_815[0][0]                
__________________________________________________________________________________________________
dense_543 (Dense)               (None, 170)          62900       concatenate_272[0][0]            
__________________________________________________________________________________________________
dropout_816 (Dropout)           (None, 170)          0           dense_543[0][0]                  
__________________________________________________________________________________________________
dense_544 (Dense)               (None, 4)            684         dropout_816[0][0]                
==================================================================================================
Total params: 4,737,346
Trainable params: 4,737,346
Non-trainable params: 0
__________________________________________________________________________________________________
None
==================================================================================================
…
	Important sentence: 385
	Token occurrences: 27196
	MWE number: 418
	MWE occurrences: 510
	Continuous occurrences: 50.0 %
	MWE length: 2.07
	Seen occurrences : 43% 
	Recognizable MWEs: 100.0 %

==================================================================================================
__________________________________________________________________________________________________
Layer (type)                    Output Shape         Param #     Connected to                     
==================================================================================================
input_545 (InputLayer)          (None, 10)           0                                            
__________________________________________________________________________________________________
input_546 (InputLayer)          (None, 10)           0                                            
__________________________________________________________________________________________________
embedding_545 (Embedding)       (None, 10, 540)      9912240     input_545[0][0]                  
__________________________________________________________________________________________________
embedding_546 (Embedding)       (None, 10, 78)       1092        input_546[0][0]                  
__________________________________________________________________________________________________
lstm_113 (LSTM)                 (None, 199)          589040      embedding_545[0][0]              
__________________________________________________________________________________________________
lstm_114 (LSTM)                 (None, 170)          169320      embedding_546[0][0]              
__________________________________________________________________________________________________
dropout_817 (Dropout)           (None, 199)          0           lstm_113[0][0]                   
__________________________________________________________________________________________________
dropout_818 (Dropout)           (None, 170)          0           lstm_114[0][0]                   
__________________________________________________________________________________________________
concatenate_273 (Concatenate)   (None, 369)          0           dropout_817[0][0]                
                                                                 dropout_818[0][0]                
__________________________________________________________________________________________________
dense_545 (Dense)               (None, 170)          62900       concatenate_273[0][0]            
__________________________________________________________________________________________________
dropout_819 (Dropout)           (None, 170)          0           dense_545[0][0]                  
__________________________________________________________________________________________________
dense_546 (Dense)               (None, 4)            684         dropout_819[0][0]                
==================================================================================================
Total params: 10,735,276
Trainable params: 10,735,276
Non-trainable params: 0
__________________________________________________________________________________________________
None
==================================================================================================
…
