…
	Token occurrences: 42020
	MWE number: 451
	MWE occurrences: 670
	Continuous occurrences: 75.0 %
	MWE length: 2.14
	Seen occurrences : 57% 
	Recognizable MWEs: 100.0 %
	MWT occurrences: 1

==================================================================================================
__________________________________________________________________________________________________
Layer (type)                    Output Shape         Param #     Connected to                     
==================================================================================================
S0_toks (InputLayer)            (None, 4)            0                                            
__________________________________________________________________________________________________
S0_Pos (InputLayer)             (None, 4)            0                                            
__________________________________________________________________________________________________
S1_toks (InputLayer)            (None, 4)            0                                            
__________________________________________________________________________________________________
S1_Pos (InputLayer)             (None, 4)            0                                            
__________________________________________________________________________________________________
S0_toksEmb (Embedding)          (None, 4, 110)       55330       S0_toks[0][0]                    
__________________________________________________________________________________________________
S0_tPosEmb (Embedding)          (None, 4, 65)        1235        S0_Pos[0][0]                     
__________________________________________________________________________________________________
S1_toksEmb (Embedding)          (None, 4, 110)       55330       S1_toks[0][0]                    
__________________________________________________________________________________________________
S1_PosEmb (Embedding)           (None, 4, 65)        1235        S1_Pos[0][0]                     
__________________________________________________________________________________________________
B_toks (InputLayer)             (None, 2)            0                                            
__________________________________________________________________________________________________
B_Pos (InputLayer)              (None, 2)            0                                            
__________________________________________________________________________________________________
concatenate_1 (Concatenate)     (None, 4, 175)       0           S0_toksEmb[0][0]                 
                                                                 S0_tPosEmb[0][0]                 
__________________________________________________________________________________________________
concatenate_2 (Concatenate)     (None, 4, 175)       0           S1_toksEmb[0][0]                 
                                                                 S1_PosEmb[0][0]                  
__________________________________________________________________________________________________
B_toksEmb (Embedding)           (None, 2, 110)       55330       B_toks[0][0]                     
__________________________________________________________________________________________________
B_PosEmb (Embedding)            (None, 2, 65)        1235        B_Pos[0][0]                      
__________________________________________________________________________________________________
s0Rnn (GRU)                     (None, 31)           19251       concatenate_1[0][0]              
__________________________________________________________________________________________________
s1Rnn (GRU)                     (None, 31)           19251       concatenate_2[0][0]              
__________________________________________________________________________________________________
B_toksFlat (Flatten)            (None, 220)          0           B_toksEmb[0][0]                  
__________________________________________________________________________________________________
B_PosFlat (Flatten)             (None, 130)          0           B_PosEmb[0][0]                   
__________________________________________________________________________________________________
dropout_1 (Dropout)             (None, 31)           0           s0Rnn[0][0]                      
__________________________________________________________________________________________________
dropout_2 (Dropout)             (None, 31)           0           s1Rnn[0][0]                      
__________________________________________________________________________________________________
concatenate_3 (Concatenate)     (None, 412)          0           B_toksFlat[0][0]                 
                                                                 B_PosFlat[0][0]                  
                                                                 dropout_1[0][0]                  
                                                                 dropout_2[0][0]                  
__________________________________________________________________________________________________
dense_1 (Dense)                 (None, 38)           15694       concatenate_3[0][0]              
__________________________________________________________________________________________________
dropout_3 (Dropout)             (None, 38)           0           dense_1[0][0]                    
__________________________________________________________________________________________________
dense_2 (Dense)                 (None, 4)            156         dropout_3[0][0]                  
==================================================================================================
Total params: 224,047
Trainable params: 224,047
Non-trainable params: 0
__________________________________________________________________________________________________
None
==================================================================================================
…
	MWE occurrences: 553
	Continuous occurrences: 59.0 %
	MWE length: 2.25
	Seen occurrences : 62% 
	Recognizable MWEs: 98.0 %
	Embedded occurrences: 4
	Interleaving occurrences: 8

==================================================================================================
__________________________________________________________________________________________________
Layer (type)                    Output Shape         Param #     Connected to                     
==================================================================================================
S0_toks (InputLayer)            (None, 4)            0                                            
__________________________________________________________________________________________________
S0_Pos (InputLayer)             (None, 4)            0                                            
__________________________________________________________________________________________________
S1_toks (InputLayer)            (None, 4)            0                                            
__________________________________________________________________________________________________
S1_Pos (InputLayer)             (None, 4)            0                                            
__________________________________________________________________________________________________
S0_toksEmb (Embedding)          (None, 4, 110)       104830      S0_toks[0][0]                    
__________________________________________________________________________________________________
S0_tPosEmb (Embedding)          (None, 4, 65)        1235        S0_Pos[0][0]                     
__________________________________________________________________________________________________
S1_toksEmb (Embedding)          (None, 4, 110)       104830      S1_toks[0][0]                    
__________________________________________________________________________________________________
S1_PosEmb (Embedding)           (None, 4, 65)        1235        S1_Pos[0][0]                     
__________________________________________________________________________________________________
B_toks (InputLayer)             (None, 2)            0                                            
__________________________________________________________________________________________________
B_Pos (InputLayer)              (None, 2)            0                                            
__________________________________________________________________________________________________
concatenate_4 (Concatenate)     (None, 4, 175)       0           S0_toksEmb[0][0]                 
                                                                 S0_tPosEmb[0][0]                 
__________________________________________________________________________________________________
concatenate_5 (Concatenate)     (None, 4, 175)       0           S1_toksEmb[0][0]                 
                                                                 S1_PosEmb[0][0]                  
__________________________________________________________________________________________________
B_toksEmb (Embedding)           (None, 2, 110)       104830      B_toks[0][0]                     
__________________________________________________________________________________________________
B_PosEmb (Embedding)            (None, 2, 65)        1235        B_Pos[0][0]                      
__________________________________________________________________________________________________
s0Rnn (GRU)                     (None, 31)           19251       concatenate_4[0][0]              
__________________________________________________________________________________________________
s1Rnn (GRU)                     (None, 31)           19251       concatenate_5[0][0]              
__________________________________________________________________________________________________
B_toksFlat (Flatten)            (None, 220)          0           B_toksEmb[0][0]                  
__________________________________________________________________________________________________
B_PosFlat (Flatten)             (None, 130)          0           B_PosEmb[0][0]                   
__________________________________________________________________________________________________
dropout_4 (Dropout)             (None, 31)           0           s0Rnn[0][0]                      
__________________________________________________________________________________________________
dropout_5 (Dropout)             (None, 31)           0           s1Rnn[0][0]                      
__________________________________________________________________________________________________
concatenate_6 (Concatenate)     (None, 412)          0           B_toksFlat[0][0]                 
                                                                 B_PosFlat[0][0]                  
                                                                 dropout_4[0][0]                  
                                                                 dropout_5[0][0]                  
__________________________________________________________________________________________________
dense_3 (Dense)                 (None, 38)           15694       concatenate_6[0][0]              
__________________________________________________________________________________________________
dropout_6 (Dropout)             (None, 38)           0           dense_3[0][0]                    
__________________________________________________________________________________________________
dense_4 (Dense)                 (None, 4)            156         dropout_6[0][0]                  
==================================================================================================
Total params: 372,547
Trainable params: 372,547
Non-trainable params: 0
__________________________________________________________________________________________________
None
==================================================================================================
…
	Important sentence: 385
	Token occurrences: 27196
	MWE number: 418
	MWE occurrences: 510
	Continuous occurrences: 50.0 %
	MWE length: 2.07
	Seen occurrences : 43% 
	Recognizable MWEs: 100.0 %

==================================================================================================
__________________________________________________________________________________________________
Layer (type)                    Output Shape         Param #     Connected to                     
==================================================================================================
S0_toks (InputLayer)            (None, 4)            0                                            
__________________________________________________________________________________________________
S0_Pos (InputLayer)             (None, 4)            0                                            
__________________________________________________________________________________________________
S1_toks (InputLayer)            (None, 4)            0                                            
__________________________________________________________________________________________________
S1_Pos (InputLayer)             (None, 4)            0                                            
__________________________________________________________________________________________________
S0_toksEmb (Embedding)          (None, 4, 110)       213950      S0_toks[0][0]                    
__________________________________________________________________________________________________
S0_tPosEmb (Embedding)          (None, 4, 65)        910         S0_Pos[0][0]                     
__________________________________________________________________________________________________
S1_toksEmb (Embedding)          (None, 4, 110)       213950      S1_toks[0][0]                    
__________________________________________________________________________________________________
S1_PosEmb (Embedding)           (None, 4, 65)        910         S1_Pos[0][0]                     
__________________________________________________________________________________________________
B_toks (InputLayer)             (None, 2)            0                                            
__________________________________________________________________________________________________
B_Pos (InputLayer)              (None, 2)            0                                            
__________________________________________________________________________________________________
concatenate_7 (Concatenate)     (None, 4, 175)       0           S0_toksEmb[0][0]                 
                                                                 S0_tPosEmb[0][0]                 
__________________________________________________________________________________________________
concatenate_8 (Concatenate)     (None, 4, 175)       0           S1_toksEmb[0][0]                 
                                                                 S1_PosEmb[0][0]                  
__________________________________________________________________________________________________
B_toksEmb (Embedding)           (None, 2, 110)       213950      B_toks[0][0]                     
__________________________________________________________________________________________________
B_PosEmb (Embedding)            (None, 2, 65)        910         B_Pos[0][0]                      
__________________________________________________________________________________________________
s0Rnn (GRU)                     (None, 31)           19251       concatenate_7[0][0]              
__________________________________________________________________________________________________
s1Rnn (GRU)                     (None, 31)           19251       concatenate_8[0][0]              
__________________________________________________________________________________________________
B_toksFlat (Flatten)            (None, 220)          0           B_toksEmb[0][0]                  
__________________________________________________________________________________________________
B_PosFlat (Flatten)             (None, 130)          0           B_PosEmb[0][0]                   
__________________________________________________________________________________________________
dropout_7 (Dropout)             (None, 31)           0           s0Rnn[0][0]                      
__________________________________________________________________________________________________
dropout_8 (Dropout)             (None, 31)           0           s1Rnn[0][0]                      
__________________________________________________________________________________________________
concatenate_9 (Concatenate)     (None, 412)          0           B_toksFlat[0][0]                 
                                                                 B_PosFlat[0][0]                  
                                                                 dropout_7[0][0]                  
                                                                 dropout_8[0][0]                  
__________________________________________________________________________________________________
dense_5 (Dense)                 (None, 38)           15694       concatenate_9[0][0]              
__________________________________________________________________________________________________
dropout_9 (Dropout)             (None, 38)           0           dense_5[0][0]                    
__________________________________________________________________________________________________
dense_6 (Dense)                 (None, 4)            156         dropout_9[0][0]                  
==================================================================================================
Total params: 698,932
Trainable params: 698,932
Non-trainable params: 0
__________________________________________________________________________________________________
None
==================================================================================================
…
	Token occurrences: 42020
	MWE number: 451
	MWE occurrences: 670
	Continuous occurrences: 75.0 %
	MWE length: 2.14
	Seen occurrences : 57% 
	Recognizable MWEs: 100.0 %
	MWT occurrences: 1

==================================================================================================
__________________________________________________________________________________________________
Layer (type)                    Output Shape         Param #     Connected to                     
==================================================================================================
S0_toks (InputLayer)            (None, 4)            0                                            
__________________________________________________________________________________________________
S0_Pos (InputLayer)             (None, 4)            0                                            
__________________________________________________________________________________________________
S1_toks (InputLayer)            (None, 4)            0                                            
__________________________________________________________________________________________________
S1_Pos (InputLayer)             (None, 4)            0                                            
__________________________________________________________________________________________________
S0_toksEmb (Embedding)          (None, 4, 300)       2797500     S0_toks[0][0]                    
__________________________________________________________________________________________________
S0_tPosEmb (Embedding)          (None, 4, 64)        1216        S0_Pos[0][0]                     
__________________________________________________________________________________________________
S1_toksEmb (Embedding)          (None, 4, 300)       2797500     S1_toks[0][0]                    
__________________________________________________________________________________________________
S1_PosEmb (Embedding)           (None, 4, 64)        1216        S1_Pos[0][0]                     
__________________________________________________________________________________________________
B_toks (InputLayer)             (None, 2)            0                                            
__________________________________________________________________________________________________
B_Pos (InputLayer)              (None, 2)            0                                            
__________________________________________________________________________________________________
concatenate_10 (Concatenate)    (None, 4, 364)       0           S0_toksEmb[0][0]                 
                                                                 S0_tPosEmb[0][0]                 
__________________________________________________________________________________________________
concatenate_11 (Concatenate)    (None, 4, 364)       0           S1_toksEmb[0][0]                 
                                                                 S1_PosEmb[0][0]                  
__________________________________________________________________________________________________
B_toksEmb (Embedding)           (None, 2, 300)       2797500     B_toks[0][0]                     
__________________________________________________________________________________________________
B_PosEmb (Embedding)            (None, 2, 64)        1216        B_Pos[0][0]                      
__________________________________________________________________________________________________
s0Rnn (GRU)                     (None, 176)          285648      concatenate_10[0][0]             
__________________________________________________________________________________________________
s1Rnn (GRU)                     (None, 176)          285648      concatenate_11[0][0]             
__________________________________________________________________________________________________
B_toksFlat (Flatten)            (None, 600)          0           B_toksEmb[0][0]                  
__________________________________________________________________________________________________
B_PosFlat (Flatten)             (None, 128)          0           B_PosEmb[0][0]                   
__________________________________________________________________________________________________
dropout_10 (Dropout)            (None, 176)          0           s0Rnn[0][0]                      
__________________________________________________________________________________________________
dropout_11 (Dropout)            (None, 176)          0           s1Rnn[0][0]                      
__________________________________________________________________________________________________
concatenate_12 (Concatenate)    (None, 1080)         0           B_toksFlat[0][0]                 
                                                                 B_PosFlat[0][0]                  
                                                                 dropout_10[0][0]                 
                                                                 dropout_11[0][0]                 
__________________________________________________________________________________________________
dense_7 (Dense)                 (None, 48)           51888       concatenate_12[0][0]             
__________________________________________________________________________________________________
dropout_12 (Dropout)            (None, 48)           0           dense_7[0][0]                    
__________________________________________________________________________________________________
dense_8 (Dense)                 (None, 4)            196         dropout_12[0][0]                 
==================================================================================================
Total params: 9,019,528
Trainable params: 9,019,528
Non-trainable params: 0
__________________________________________________________________________________________________
None
==================================================================================================
…
	MWE occurrences: 553
	Continuous occurrences: 59.0 %
	MWE length: 2.25
	Seen occurrences : 62% 
	Recognizable MWEs: 98.0 %
	Embedded occurrences: 4
	Interleaving occurrences: 8

==================================================================================================
__________________________________________________________________________________________________
Layer (type)                    Output Shape         Param #     Connected to                     
==================================================================================================
S0_toks (InputLayer)            (None, 4)            0                                            
__________________________________________________________________________________________________
S0_Pos (InputLayer)             (None, 4)            0                                            
__________________________________________________________________________________________________
S1_toks (InputLayer)            (None, 4)            0                                            
__________________________________________________________________________________________________
S1_Pos (InputLayer)             (None, 4)            0                                            
__________________________________________________________________________________________________
S0_toksEmb (Embedding)          (None, 4, 300)       2135700     S0_toks[0][0]                    
__________________________________________________________________________________________________
S0_tPosEmb (Embedding)          (None, 4, 64)        1216        S0_Pos[0][0]                     
__________________________________________________________________________________________________
S1_toksEmb (Embedding)          (None, 4, 300)       2135700     S1_toks[0][0]                    
__________________________________________________________________________________________________
S1_PosEmb (Embedding)           (None, 4, 64)        1216        S1_Pos[0][0]                     
__________________________________________________________________________________________________
B_toks (InputLayer)             (None, 2)            0                                            
__________________________________________________________________________________________________
B_Pos (InputLayer)              (None, 2)            0                                            
__________________________________________________________________________________________________
concatenate_13 (Concatenate)    (None, 4, 364)       0           S0_toksEmb[0][0]                 
                                                                 S0_tPosEmb[0][0]                 
__________________________________________________________________________________________________
concatenate_14 (Concatenate)    (None, 4, 364)       0           S1_toksEmb[0][0]                 
                                                                 S1_PosEmb[0][0]                  
__________________________________________________________________________________________________
B_toksEmb (Embedding)           (None, 2, 300)       2135700     B_toks[0][0]                     
__________________________________________________________________________________________________
B_PosEmb (Embedding)            (None, 2, 64)        1216        B_Pos[0][0]                      
__________________________________________________________________________________________________
s0Rnn (GRU)                     (None, 176)          285648      concatenate_13[0][0]             
__________________________________________________________________________________________________
s1Rnn (GRU)                     (None, 176)          285648      concatenate_14[0][0]             
__________________________________________________________________________________________________
B_toksFlat (Flatten)            (None, 600)          0           B_toksEmb[0][0]                  
__________________________________________________________________________________________________
B_PosFlat (Flatten)             (None, 128)          0           B_PosEmb[0][0]                   
__________________________________________________________________________________________________
dropout_13 (Dropout)            (None, 176)          0           s0Rnn[0][0]                      
__________________________________________________________________________________________________
dropout_14 (Dropout)            (None, 176)          0           s1Rnn[0][0]                      
__________________________________________________________________________________________________
concatenate_15 (Concatenate)    (None, 1080)         0           B_toksFlat[0][0]                 
                                                                 B_PosFlat[0][0]                  
                                                                 dropout_13[0][0]                 
                                                                 dropout_14[0][0]                 
__________________________________________________________________________________________________
dense_9 (Dense)                 (None, 48)           51888       concatenate_15[0][0]             
__________________________________________________________________________________________________
dropout_15 (Dropout)            (None, 48)           0           dense_9[0][0]                    
__________________________________________________________________________________________________
dense_10 (Dense)                (None, 4)            196         dropout_15[0][0]                 
==================================================================================================
Total params: 7,034,128
Trainable params: 7,034,128
Non-trainable params: 0
__________________________________________________________________________________________________
None
==================================================================================================
…
	Important sentence: 385
	Token occurrences: 27196
	MWE number: 418
	MWE occurrences: 510
	Continuous occurrences: 50.0 %
	MWE length: 2.07
	Seen occurrences : 43% 
	Recognizable MWEs: 100.0 %

==================================================================================================
__________________________________________________________________________________________________
Layer (type)                    Output Shape         Param #     Connected to                     
==================================================================================================
S0_toks (InputLayer)            (None, 4)            0                                            
__________________________________________________________________________________________________
S0_Pos (InputLayer)             (None, 4)            0                                            
__________________________________________________________________________________________________
S1_toks (InputLayer)            (None, 4)            0                                            
__________________________________________________________________________________________________
S1_Pos (InputLayer)             (None, 4)            0                                            
__________________________________________________________________________________________________
S0_toksEmb (Embedding)          (None, 4, 300)       5407800     S0_toks[0][0]                    
__________________________________________________________________________________________________
S0_tPosEmb (Embedding)          (None, 4, 64)        896         S0_Pos[0][0]                     
__________________________________________________________________________________________________
S1_toksEmb (Embedding)          (None, 4, 300)       5407800     S1_toks[0][0]                    
__________________________________________________________________________________________________
S1_PosEmb (Embedding)           (None, 4, 64)        896         S1_Pos[0][0]                     
__________________________________________________________________________________________________
B_toks (InputLayer)             (None, 2)            0                                            
__________________________________________________________________________________________________
B_Pos (InputLayer)              (None, 2)            0                                            
__________________________________________________________________________________________________
concatenate_16 (Concatenate)    (None, 4, 364)       0           S0_toksEmb[0][0]                 
                                                                 S0_tPosEmb[0][0]                 
__________________________________________________________________________________________________
concatenate_17 (Concatenate)    (None, 4, 364)       0           S1_toksEmb[0][0]                 
                                                                 S1_PosEmb[0][0]                  
__________________________________________________________________________________________________
B_toksEmb (Embedding)           (None, 2, 300)       5407800     B_toks[0][0]                     
__________________________________________________________________________________________________
B_PosEmb (Embedding)            (None, 2, 64)        896         B_Pos[0][0]                      
__________________________________________________________________________________________________
s0Rnn (GRU)                     (None, 176)          285648      concatenate_16[0][0]             
__________________________________________________________________________________________________
s1Rnn (GRU)                     (None, 176)          285648      concatenate_17[0][0]             
__________________________________________________________________________________________________
B_toksFlat (Flatten)            (None, 600)          0           B_toksEmb[0][0]                  
__________________________________________________________________________________________________
B_PosFlat (Flatten)             (None, 128)          0           B_PosEmb[0][0]                   
__________________________________________________________________________________________________
dropout_16 (Dropout)            (None, 176)          0           s0Rnn[0][0]                      
__________________________________________________________________________________________________
dropout_17 (Dropout)            (None, 176)          0           s1Rnn[0][0]                      
__________________________________________________________________________________________________
concatenate_18 (Concatenate)    (None, 1080)         0           B_toksFlat[0][0]                 
                                                                 B_PosFlat[0][0]                  
                                                                 dropout_16[0][0]                 
                                                                 dropout_17[0][0]                 
__________________________________________________________________________________________________
dense_11 (Dense)                (None, 48)           51888       concatenate_18[0][0]             
__________________________________________________________________________________________________
dropout_18 (Dropout)            (None, 48)           0           dense_11[0][0]                   
__________________________________________________________________________________________________
dense_12 (Dense)                (None, 4)            196         dropout_18[0][0]                 
==================================================================================================
Total params: 16,849,468
Trainable params: 16,849,468
Non-trainable params: 0
__________________________________________________________________________________________________
None
==================================================================================================
…
	Token occurrences: 42020
	MWE number: 451
	MWE occurrences: 670
	Continuous occurrences: 75.0 %
	MWE length: 2.14
	Seen occurrences : 57% 
	Recognizable MWEs: 100.0 %
	MWT occurrences: 1

==================================================================================================
__________________________________________________________________________________________________
Layer (type)                    Output Shape         Param #     Connected to                     
==================================================================================================
S0_toks (InputLayer)            (None, 4)            0                                            
__________________________________________________________________________________________________
S0_Pos (InputLayer)             (None, 4)            0                                            
__________________________________________________________________________________________________
S1_toks (InputLayer)            (None, 4)            0                                            
__________________________________________________________________________________________________
S1_Pos (InputLayer)             (None, 4)            0                                            
__________________________________________________________________________________________________
S0_toksEmb (Embedding)          (None, 4, 300)       2797500     S0_toks[0][0]                    
__________________________________________________________________________________________________
S0_tPosEmb (Embedding)          (None, 4, 34)        646         S0_Pos[0][0]                     
__________________________________________________________________________________________________
S1_toksEmb (Embedding)          (None, 4, 300)       2797500     S1_toks[0][0]                    
__________________________________________________________________________________________________
S1_PosEmb (Embedding)           (None, 4, 34)        646         S1_Pos[0][0]                     
__________________________________________________________________________________________________
B_toks (InputLayer)             (None, 3)            0                                            
__________________________________________________________________________________________________
B_Pos (InputLayer)              (None, 3)            0                                            
__________________________________________________________________________________________________
concatenate_19 (Concatenate)    (None, 4, 334)       0           S0_toksEmb[0][0]                 
                                                                 S0_tPosEmb[0][0]                 
__________________________________________________________________________________________________
concatenate_20 (Concatenate)    (None, 4, 334)       0           S1_toksEmb[0][0]                 
                                                                 S1_PosEmb[0][0]                  
__________________________________________________________________________________________________
B_toksEmb (Embedding)           (None, 3, 300)       2797500     B_toks[0][0]                     
__________________________________________________________________________________________________
B_PosEmb (Embedding)            (None, 3, 34)        646         B_Pos[0][0]                      
__________________________________________________________________________________________________
s0Rnn (GRU)                     (None, 39)           43758       concatenate_19[0][0]             
__________________________________________________________________________________________________
s1Rnn (GRU)                     (None, 39)           43758       concatenate_20[0][0]             
__________________________________________________________________________________________________
B_toksFlat (Flatten)            (None, 900)          0           B_toksEmb[0][0]                  
__________________________________________________________________________________________________
B_PosFlat (Flatten)             (None, 102)          0           B_PosEmb[0][0]                   
__________________________________________________________________________________________________
dropout_19 (Dropout)            (None, 39)           0           s0Rnn[0][0]                      
__________________________________________________________________________________________________
dropout_20 (Dropout)            (None, 39)           0           s1Rnn[0][0]                      
__________________________________________________________________________________________________
concatenate_21 (Concatenate)    (None, 1080)         0           B_toksFlat[0][0]                 
                                                                 B_PosFlat[0][0]                  
                                                                 dropout_19[0][0]                 
                                                                 dropout_20[0][0]                 
__________________________________________________________________________________________________
dense_13 (Dense)                (None, 114)          123234      concatenate_21[0][0]             
__________________________________________________________________________________________________
dropout_21 (Dropout)            (None, 114)          0           dense_13[0][0]                   
__________________________________________________________________________________________________
dense_14 (Dense)                (None, 4)            460         dropout_21[0][0]                 
==================================================================================================
Total params: 8,605,648
Trainable params: 8,605,648
Non-trainable params: 0
__________________________________________________________________________________________________
None
==================================================================================================
…
	MWE occurrences: 553
	Continuous occurrences: 59.0 %
	MWE length: 2.25
	Seen occurrences : 62% 
	Recognizable MWEs: 98.0 %
	Embedded occurrences: 4
	Interleaving occurrences: 8

==================================================================================================
__________________________________________________________________________________________________
Layer (type)                    Output Shape         Param #     Connected to                     
==================================================================================================
S0_toks (InputLayer)            (None, 4)            0                                            
__________________________________________________________________________________________________
S0_Pos (InputLayer)             (None, 4)            0                                            
__________________________________________________________________________________________________
S1_toks (InputLayer)            (None, 4)            0                                            
__________________________________________________________________________________________________
S1_Pos (InputLayer)             (None, 4)            0                                            
__________________________________________________________________________________________________
S0_toksEmb (Embedding)          (None, 4, 300)       2135700     S0_toks[0][0]                    
__________________________________________________________________________________________________
S0_tPosEmb (Embedding)          (None, 4, 34)        646         S0_Pos[0][0]                     
__________________________________________________________________________________________________
S1_toksEmb (Embedding)          (None, 4, 300)       2135700     S1_toks[0][0]                    
__________________________________________________________________________________________________
S1_PosEmb (Embedding)           (None, 4, 34)        646         S1_Pos[0][0]                     
__________________________________________________________________________________________________
B_toks (InputLayer)             (None, 3)            0                                            
__________________________________________________________________________________________________
B_Pos (InputLayer)              (None, 3)            0                                            
__________________________________________________________________________________________________
concatenate_22 (Concatenate)    (None, 4, 334)       0           S0_toksEmb[0][0]                 
                                                                 S0_tPosEmb[0][0]                 
__________________________________________________________________________________________________
concatenate_23 (Concatenate)    (None, 4, 334)       0           S1_toksEmb[0][0]                 
                                                                 S1_PosEmb[0][0]                  
__________________________________________________________________________________________________
B_toksEmb (Embedding)           (None, 3, 300)       2135700     B_toks[0][0]                     
__________________________________________________________________________________________________
B_PosEmb (Embedding)            (None, 3, 34)        646         B_Pos[0][0]                      
__________________________________________________________________________________________________
s0Rnn (GRU)                     (None, 39)           43758       concatenate_22[0][0]             
__________________________________________________________________________________________________
s1Rnn (GRU)                     (None, 39)           43758       concatenate_23[0][0]             
__________________________________________________________________________________________________
B_toksFlat (Flatten)            (None, 900)          0           B_toksEmb[0][0]                  
__________________________________________________________________________________________________
B_PosFlat (Flatten)             (None, 102)          0           B_PosEmb[0][0]                   
__________________________________________________________________________________________________
dropout_22 (Dropout)            (None, 39)           0           s0Rnn[0][0]                      
__________________________________________________________________________________________________
dropout_23 (Dropout)            (None, 39)           0           s1Rnn[0][0]                      
__________________________________________________________________________________________________
concatenate_24 (Concatenate)    (None, 1080)         0           B_toksFlat[0][0]                 
                                                                 B_PosFlat[0][0]                  
                                                                 dropout_22[0][0]                 
                                                                 dropout_23[0][0]                 
__________________________________________________________________________________________________
dense_15 (Dense)                (None, 114)          123234      concatenate_24[0][0]             
__________________________________________________________________________________________________
dropout_24 (Dropout)            (None, 114)          0           dense_15[0][0]                   
__________________________________________________________________________________________________
dense_16 (Dense)                (None, 4)            460         dropout_24[0][0]                 
==================================================================================================
Total params: 6,620,248
Trainable params: 6,620,248
Non-trainable params: 0
__________________________________________________________________________________________________
None
==================================================================================================
…
	Important sentence: 385
	Token occurrences: 27196
	MWE number: 418
	MWE occurrences: 510
	Continuous occurrences: 50.0 %
	MWE length: 2.07
	Seen occurrences : 43% 
	Recognizable MWEs: 100.0 %

==================================================================================================
__________________________________________________________________________________________________
Layer (type)                    Output Shape         Param #     Connected to                     
==================================================================================================
S0_toks (InputLayer)            (None, 4)            0                                            
__________________________________________________________________________________________________
S0_Pos (InputLayer)             (None, 4)            0                                            
__________________________________________________________________________________________________
S1_toks (InputLayer)            (None, 4)            0                                            
__________________________________________________________________________________________________
S1_Pos (InputLayer)             (None, 4)            0                                            
__________________________________________________________________________________________________
S0_toksEmb (Embedding)          (None, 4, 300)       5407800     S0_toks[0][0]                    
__________________________________________________________________________________________________
S0_tPosEmb (Embedding)          (None, 4, 34)        476         S0_Pos[0][0]                     
__________________________________________________________________________________________________
S1_toksEmb (Embedding)          (None, 4, 300)       5407800     S1_toks[0][0]                    
__________________________________________________________________________________________________
S1_PosEmb (Embedding)           (None, 4, 34)        476         S1_Pos[0][0]                     
__________________________________________________________________________________________________
B_toks (InputLayer)             (None, 3)            0                                            
__________________________________________________________________________________________________
B_Pos (InputLayer)              (None, 3)            0                                            
__________________________________________________________________________________________________
concatenate_25 (Concatenate)    (None, 4, 334)       0           S0_toksEmb[0][0]                 
                                                                 S0_tPosEmb[0][0]                 
__________________________________________________________________________________________________
concatenate_26 (Concatenate)    (None, 4, 334)       0           S1_toksEmb[0][0]                 
                                                                 S1_PosEmb[0][0]                  
__________________________________________________________________________________________________
B_toksEmb (Embedding)           (None, 3, 300)       5407800     B_toks[0][0]                     
__________________________________________________________________________________________________
B_PosEmb (Embedding)            (None, 3, 34)        476         B_Pos[0][0]                      
__________________________________________________________________________________________________
s0Rnn (GRU)                     (None, 39)           43758       concatenate_25[0][0]             
__________________________________________________________________________________________________
s1Rnn (GRU)                     (None, 39)           43758       concatenate_26[0][0]             
__________________________________________________________________________________________________
B_toksFlat (Flatten)            (None, 900)          0           B_toksEmb[0][0]                  
__________________________________________________________________________________________________
B_PosFlat (Flatten)             (None, 102)          0           B_PosEmb[0][0]                   
__________________________________________________________________________________________________
dropout_25 (Dropout)            (None, 39)           0           s0Rnn[0][0]                      
__________________________________________________________________________________________________
dropout_26 (Dropout)            (None, 39)           0           s1Rnn[0][0]                      
__________________________________________________________________________________________________
concatenate_27 (Concatenate)    (None, 1080)         0           B_toksFlat[0][0]                 
                                                                 B_PosFlat[0][0]                  
                                                                 dropout_25[0][0]                 
                                                                 dropout_26[0][0]                 
__________________________________________________________________________________________________
dense_17 (Dense)                (None, 114)          123234      concatenate_27[0][0]             
__________________________________________________________________________________________________
dropout_27 (Dropout)            (None, 114)          0           dense_17[0][0]                   
__________________________________________________________________________________________________
dense_18 (Dense)                (None, 4)            460         dropout_27[0][0]                 
==================================================================================================
Total params: 16,436,038
Trainable params: 16,436,038
Non-trainable params: 0
__________________________________________________________________________________________________
None
==================================================================================================
…
	Token occurrences: 42020
	MWE number: 451
	MWE occurrences: 670
	Continuous occurrences: 75.0 %
	MWE length: 2.14
	Seen occurrences : 57% 
	Recognizable MWEs: 100.0 %
	MWT occurrences: 1

==================================================================================================
__________________________________________________________________________________________________
Layer (type)                    Output Shape         Param #     Connected to                     
==================================================================================================
S0_toks (InputLayer)            (None, 4)            0                                            
__________________________________________________________________________________________________
S0_Pos (InputLayer)             (None, 4)            0                                            
__________________________________________________________________________________________________
S1_toks (InputLayer)            (None, 4)            0                                            
__________________________________________________________________________________________________
S1_Pos (InputLayer)             (None, 4)            0                                            
__________________________________________________________________________________________________
S0_toksEmb (Embedding)          (None, 4, 179)       210862      S0_toks[0][0]                    
__________________________________________________________________________________________________
S0_tPosEmb (Embedding)          (None, 4, 39)        741         S0_Pos[0][0]                     
__________________________________________________________________________________________________
S1_toksEmb (Embedding)          (None, 4, 179)       210862      S1_toks[0][0]                    
__________________________________________________________________________________________________
S1_PosEmb (Embedding)           (None, 4, 39)        741         S1_Pos[0][0]                     
__________________________________________________________________________________________________
B_toks (InputLayer)             (None, 2)            0                                            
__________________________________________________________________________________________________
B_Pos (InputLayer)              (None, 2)            0                                            
__________________________________________________________________________________________________
concatenate_28 (Concatenate)    (None, 4, 218)       0           S0_toksEmb[0][0]                 
                                                                 S0_tPosEmb[0][0]                 
__________________________________________________________________________________________________
concatenate_29 (Concatenate)    (None, 4, 218)       0           S1_toksEmb[0][0]                 
                                                                 S1_PosEmb[0][0]                  
__________________________________________________________________________________________________
B_toksEmb (Embedding)           (None, 2, 179)       210862      B_toks[0][0]                     
__________________________________________________________________________________________________
B_PosEmb (Embedding)            (None, 2, 39)        741         B_Pos[0][0]                      
__________________________________________________________________________________________________
s0Rnn (GRU)                     (None, 162)          185166      concatenate_28[0][0]             
__________________________________________________________________________________________________
s1Rnn (GRU)                     (None, 162)          185166      concatenate_29[0][0]             
__________________________________________________________________________________________________
B_toksFlat (Flatten)            (None, 358)          0           B_toksEmb[0][0]                  
__________________________________________________________________________________________________
B_PosFlat (Flatten)             (None, 78)           0           B_PosEmb[0][0]                   
__________________________________________________________________________________________________
dropout_28 (Dropout)            (None, 162)          0           s0Rnn[0][0]                      
__________________________________________________________________________________________________
dropout_29 (Dropout)            (None, 162)          0           s1Rnn[0][0]                      
__________________________________________________________________________________________________
concatenate_30 (Concatenate)    (None, 760)          0           B_toksFlat[0][0]                 
                                                                 B_PosFlat[0][0]                  
                                                                 dropout_28[0][0]                 
                                                                 dropout_29[0][0]                 
__________________________________________________________________________________________________
dense_19 (Dense)                (None, 43)           32723       concatenate_30[0][0]             
__________________________________________________________________________________________________
dropout_30 (Dropout)            (None, 43)           0           dense_19[0][0]                   
__________________________________________________________________________________________________
dense_20 (Dense)                (None, 4)            176         dropout_30[0][0]                 
==================================================================================================
Total params: 1,038,040
Trainable params: 1,038,040
Non-trainable params: 0
__________________________________________________________________________________________________
None
==================================================================================================
…
	MWE occurrences: 553
	Continuous occurrences: 59.0 %
	MWE length: 2.25
	Seen occurrences : 62% 
	Recognizable MWEs: 98.0 %
	Embedded occurrences: 4
	Interleaving occurrences: 8

==================================================================================================
__________________________________________________________________________________________________
Layer (type)                    Output Shape         Param #     Connected to                     
==================================================================================================
S0_toks (InputLayer)            (None, 4)            0                                            
__________________________________________________________________________________________________
S0_Pos (InputLayer)             (None, 4)            0                                            
__________________________________________________________________________________________________
S1_toks (InputLayer)            (None, 4)            0                                            
__________________________________________________________________________________________________
S1_Pos (InputLayer)             (None, 4)            0                                            
__________________________________________________________________________________________________
S0_toksEmb (Embedding)          (None, 4, 179)       202986      S0_toks[0][0]                    
__________________________________________________________________________________________________
S0_tPosEmb (Embedding)          (None, 4, 39)        741         S0_Pos[0][0]                     
__________________________________________________________________________________________________
S1_toksEmb (Embedding)          (None, 4, 179)       202986      S1_toks[0][0]                    
__________________________________________________________________________________________________
S1_PosEmb (Embedding)           (None, 4, 39)        741         S1_Pos[0][0]                     
__________________________________________________________________________________________________
B_toks (InputLayer)             (None, 2)            0                                            
__________________________________________________________________________________________________
B_Pos (InputLayer)              (None, 2)            0                                            
__________________________________________________________________________________________________
concatenate_31 (Concatenate)    (None, 4, 218)       0           S0_toksEmb[0][0]                 
                                                                 S0_tPosEmb[0][0]                 
__________________________________________________________________________________________________
concatenate_32 (Concatenate)    (None, 4, 218)       0           S1_toksEmb[0][0]                 
                                                                 S1_PosEmb[0][0]                  
__________________________________________________________________________________________________
B_toksEmb (Embedding)           (None, 2, 179)       202986      B_toks[0][0]                     
__________________________________________________________________________________________________
B_PosEmb (Embedding)            (None, 2, 39)        741         B_Pos[0][0]                      
__________________________________________________________________________________________________
s0Rnn (GRU)                     (None, 162)          185166      concatenate_31[0][0]             
__________________________________________________________________________________________________
s1Rnn (GRU)                     (None, 162)          185166      concatenate_32[0][0]             
__________________________________________________________________________________________________
B_toksFlat (Flatten)            (None, 358)          0           B_toksEmb[0][0]                  
__________________________________________________________________________________________________
B_PosFlat (Flatten)             (None, 78)           0           B_PosEmb[0][0]                   
__________________________________________________________________________________________________
dropout_31 (Dropout)            (None, 162)          0           s0Rnn[0][0]                      
__________________________________________________________________________________________________
dropout_32 (Dropout)            (None, 162)          0           s1Rnn[0][0]                      
__________________________________________________________________________________________________
concatenate_33 (Concatenate)    (None, 760)          0           B_toksFlat[0][0]                 
                                                                 B_PosFlat[0][0]                  
                                                                 dropout_31[0][0]                 
                                                                 dropout_32[0][0]                 
__________________________________________________________________________________________________
dense_21 (Dense)                (None, 43)           32723       concatenate_33[0][0]             
__________________________________________________________________________________________________
dropout_33 (Dropout)            (None, 43)           0           dense_21[0][0]                   
__________________________________________________________________________________________________
dense_22 (Dense)                (None, 4)            176         dropout_33[0][0]                 
==================================================================================================
Total params: 1,014,412
Trainable params: 1,014,412
Non-trainable params: 0
__________________________________________________________________________________________________
None
==================================================================================================
…
	Important sentence: 385
	Token occurrences: 27196
	MWE number: 418
	MWE occurrences: 510
	Continuous occurrences: 50.0 %
	MWE length: 2.07
	Seen occurrences : 43% 
	Recognizable MWEs: 100.0 %

==================================================================================================
__________________________________________________________________________________________________
Layer (type)                    Output Shape         Param #     Connected to                     
==================================================================================================
S0_toks (InputLayer)            (None, 4)            0                                            
__________________________________________________________________________________________________
S0_Pos (InputLayer)             (None, 4)            0                                            
__________________________________________________________________________________________________
S1_toks (InputLayer)            (None, 4)            0                                            
__________________________________________________________________________________________________
S1_Pos (InputLayer)             (None, 4)            0                                            
__________________________________________________________________________________________________
S0_toksEmb (Embedding)          (None, 4, 179)       387714      S0_toks[0][0]                    
__________________________________________________________________________________________________
S0_tPosEmb (Embedding)          (None, 4, 39)        546         S0_Pos[0][0]                     
__________________________________________________________________________________________________
S1_toksEmb (Embedding)          (None, 4, 179)       387714      S1_toks[0][0]                    
__________________________________________________________________________________________________
S1_PosEmb (Embedding)           (None, 4, 39)        546         S1_Pos[0][0]                     
__________________________________________________________________________________________________
B_toks (InputLayer)             (None, 2)            0                                            
__________________________________________________________________________________________________
B_Pos (InputLayer)              (None, 2)            0                                            
__________________________________________________________________________________________________
concatenate_34 (Concatenate)    (None, 4, 218)       0           S0_toksEmb[0][0]                 
                                                                 S0_tPosEmb[0][0]                 
__________________________________________________________________________________________________
concatenate_35 (Concatenate)    (None, 4, 218)       0           S1_toksEmb[0][0]                 
                                                                 S1_PosEmb[0][0]                  
__________________________________________________________________________________________________
B_toksEmb (Embedding)           (None, 2, 179)       387714      B_toks[0][0]                     
__________________________________________________________________________________________________
B_PosEmb (Embedding)            (None, 2, 39)        546         B_Pos[0][0]                      
__________________________________________________________________________________________________
s0Rnn (GRU)                     (None, 162)          185166      concatenate_34[0][0]             
__________________________________________________________________________________________________
s1Rnn (GRU)                     (None, 162)          185166      concatenate_35[0][0]             
__________________________________________________________________________________________________
B_toksFlat (Flatten)            (None, 358)          0           B_toksEmb[0][0]                  
__________________________________________________________________________________________________
B_PosFlat (Flatten)             (None, 78)           0           B_PosEmb[0][0]                   
__________________________________________________________________________________________________
dropout_34 (Dropout)            (None, 162)          0           s0Rnn[0][0]                      
__________________________________________________________________________________________________
dropout_35 (Dropout)            (None, 162)          0           s1Rnn[0][0]                      
__________________________________________________________________________________________________
concatenate_36 (Concatenate)    (None, 760)          0           B_toksFlat[0][0]                 
                                                                 B_PosFlat[0][0]                  
                                                                 dropout_34[0][0]                 
                                                                 dropout_35[0][0]                 
__________________________________________________________________________________________________
dense_23 (Dense)                (None, 43)           32723       concatenate_36[0][0]             
__________________________________________________________________________________________________
dropout_36 (Dropout)            (None, 43)           0           dense_23[0][0]                   
__________________________________________________________________________________________________
dense_24 (Dense)                (None, 4)            176         dropout_36[0][0]                 
==================================================================================================
Total params: 1,568,011
Trainable params: 1,568,011
Non-trainable params: 0
__________________________________________________________________________________________________
None
==================================================================================================
…
	Token occurrences: 42020
	MWE number: 451
	MWE occurrences: 670
	Continuous occurrences: 75.0 %
	MWE length: 2.14
	Seen occurrences : 57% 
	Recognizable MWEs: 100.0 %
	MWT occurrences: 1

==================================================================================================
__________________________________________________________________________________________________
Layer (type)                    Output Shape         Param #     Connected to                     
==================================================================================================
S0_toks (InputLayer)            (None, 4)            0                                            
__________________________________________________________________________________________________
S0_Pos (InputLayer)             (None, 4)            0                                            
__________________________________________________________________________________________________
S1_toks (InputLayer)            (None, 4)            0                                            
__________________________________________________________________________________________________
S1_Pos (InputLayer)             (None, 4)            0                                            
__________________________________________________________________________________________________
S0_toksEmb (Embedding)          (None, 4, 300)       150900      S0_toks[0][0]                    
__________________________________________________________________________________________________
S0_tPosEmb (Embedding)          (None, 4, 52)        988         S0_Pos[0][0]                     
__________________________________________________________________________________________________
S1_toksEmb (Embedding)          (None, 4, 300)       150900      S1_toks[0][0]                    
__________________________________________________________________________________________________
S1_PosEmb (Embedding)           (None, 4, 52)        988         S1_Pos[0][0]                     
__________________________________________________________________________________________________
B_toks (InputLayer)             (None, 3)            0                                            
__________________________________________________________________________________________________
B_Pos (InputLayer)              (None, 3)            0                                            
__________________________________________________________________________________________________
concatenate_37 (Concatenate)    (None, 4, 352)       0           S0_toksEmb[0][0]                 
                                                                 S0_tPosEmb[0][0]                 
__________________________________________________________________________________________________
concatenate_38 (Concatenate)    (None, 4, 352)       0           S1_toksEmb[0][0]                 
                                                                 S1_PosEmb[0][0]                  
__________________________________________________________________________________________________
B_toksEmb (Embedding)           (None, 3, 300)       150900      B_toks[0][0]                     
__________________________________________________________________________________________________
B_PosEmb (Embedding)            (None, 3, 52)        988         B_Pos[0][0]                      
__________________________________________________________________________________________________
s0Rnn (LSTM)                    (None, 26)           39416       concatenate_37[0][0]             
__________________________________________________________________________________________________
s1Rnn (LSTM)                    (None, 26)           39416       concatenate_38[0][0]             
__________________________________________________________________________________________________
B_toksFlat (Flatten)            (None, 900)          0           B_toksEmb[0][0]                  
__________________________________________________________________________________________________
B_PosFlat (Flatten)             (None, 156)          0           B_PosEmb[0][0]                   
__________________________________________________________________________________________________
dropout_37 (Dropout)            (None, 26)           0           s0Rnn[0][0]                      
__________________________________________________________________________________________________
dropout_38 (Dropout)            (None, 26)           0           s1Rnn[0][0]                      
__________________________________________________________________________________________________
concatenate_39 (Concatenate)    (None, 1108)         0           B_toksFlat[0][0]                 
                                                                 B_PosFlat[0][0]                  
                                                                 dropout_37[0][0]                 
                                                                 dropout_38[0][0]                 
__________________________________________________________________________________________________
dense_25 (Dense)                (None, 34)           37706       concatenate_39[0][0]             
__________________________________________________________________________________________________
dropout_39 (Dropout)            (None, 34)           0           dense_25[0][0]                   
__________________________________________________________________________________________________
dense_26 (Dense)                (None, 4)            140         dropout_39[0][0]                 
==================================================================================================
Total params: 572,342
Trainable params: 572,342
Non-trainable params: 0
__________________________________________________________________________________________________
None
==================================================================================================
…
	MWE occurrences: 553
	Continuous occurrences: 59.0 %
	MWE length: 2.25
	Seen occurrences : 62% 
	Recognizable MWEs: 98.0 %
	Embedded occurrences: 4
	Interleaving occurrences: 8

==================================================================================================
__________________________________________________________________________________________________
Layer (type)                    Output Shape         Param #     Connected to                     
==================================================================================================
S0_toks (InputLayer)            (None, 4)            0                                            
__________________________________________________________________________________________________
S0_Pos (InputLayer)             (None, 4)            0                                            
__________________________________________________________________________________________________
S1_toks (InputLayer)            (None, 4)            0                                            
__________________________________________________________________________________________________
S1_Pos (InputLayer)             (None, 4)            0                                            
__________________________________________________________________________________________________
S0_toksEmb (Embedding)          (None, 4, 300)       285900      S0_toks[0][0]                    
__________________________________________________________________________________________________
S0_tPosEmb (Embedding)          (None, 4, 52)        988         S0_Pos[0][0]                     
__________________________________________________________________________________________________
S1_toksEmb (Embedding)          (None, 4, 300)       285900      S1_toks[0][0]                    
__________________________________________________________________________________________________
S1_PosEmb (Embedding)           (None, 4, 52)        988         S1_Pos[0][0]                     
__________________________________________________________________________________________________
B_toks (InputLayer)             (None, 3)            0                                            
__________________________________________________________________________________________________
B_Pos (InputLayer)              (None, 3)            0                                            
__________________________________________________________________________________________________
concatenate_40 (Concatenate)    (None, 4, 352)       0           S0_toksEmb[0][0]                 
                                                                 S0_tPosEmb[0][0]                 
__________________________________________________________________________________________________
concatenate_41 (Concatenate)    (None, 4, 352)       0           S1_toksEmb[0][0]                 
                                                                 S1_PosEmb[0][0]                  
__________________________________________________________________________________________________
B_toksEmb (Embedding)           (None, 3, 300)       285900      B_toks[0][0]                     
__________________________________________________________________________________________________
B_PosEmb (Embedding)            (None, 3, 52)        988         B_Pos[0][0]                      
__________________________________________________________________________________________________
s0Rnn (LSTM)                    (None, 26)           39416       concatenate_40[0][0]             
__________________________________________________________________________________________________
s1Rnn (LSTM)                    (None, 26)           39416       concatenate_41[0][0]             
__________________________________________________________________________________________________
B_toksFlat (Flatten)            (None, 900)          0           B_toksEmb[0][0]                  
__________________________________________________________________________________________________
B_PosFlat (Flatten)             (None, 156)          0           B_PosEmb[0][0]                   
__________________________________________________________________________________________________
dropout_40 (Dropout)            (None, 26)           0           s0Rnn[0][0]                      
__________________________________________________________________________________________________
dropout_41 (Dropout)            (None, 26)           0           s1Rnn[0][0]                      
__________________________________________________________________________________________________
concatenate_42 (Concatenate)    (None, 1108)         0           B_toksFlat[0][0]                 
                                                                 B_PosFlat[0][0]                  
                                                                 dropout_40[0][0]                 
                                                                 dropout_41[0][0]                 
__________________________________________________________________________________________________
dense_27 (Dense)                (None, 34)           37706       concatenate_42[0][0]             
__________________________________________________________________________________________________
dropout_42 (Dropout)            (None, 34)           0           dense_27[0][0]                   
__________________________________________________________________________________________________
dense_28 (Dense)                (None, 4)            140         dropout_42[0][0]                 
==================================================================================================
Total params: 977,342
Trainable params: 977,342
Non-trainable params: 0
__________________________________________________________________________________________________
None
==================================================================================================
…
	Important sentence: 385
	Token occurrences: 27196
	MWE number: 418
	MWE occurrences: 510
	Continuous occurrences: 50.0 %
	MWE length: 2.07
	Seen occurrences : 43% 
	Recognizable MWEs: 100.0 %

==================================================================================================
__________________________________________________________________________________________________
Layer (type)                    Output Shape         Param #     Connected to                     
==================================================================================================
S0_toks (InputLayer)            (None, 4)            0                                            
__________________________________________________________________________________________________
S0_Pos (InputLayer)             (None, 4)            0                                            
__________________________________________________________________________________________________
S1_toks (InputLayer)            (None, 4)            0                                            
__________________________________________________________________________________________________
S1_Pos (InputLayer)             (None, 4)            0                                            
__________________________________________________________________________________________________
S0_toksEmb (Embedding)          (None, 4, 300)       583500      S0_toks[0][0]                    
__________________________________________________________________________________________________
S0_tPosEmb (Embedding)          (None, 4, 52)        728         S0_Pos[0][0]                     
__________________________________________________________________________________________________
S1_toksEmb (Embedding)          (None, 4, 300)       583500      S1_toks[0][0]                    
__________________________________________________________________________________________________
S1_PosEmb (Embedding)           (None, 4, 52)        728         S1_Pos[0][0]                     
__________________________________________________________________________________________________
B_toks (InputLayer)             (None, 3)            0                                            
__________________________________________________________________________________________________
B_Pos (InputLayer)              (None, 3)            0                                            
__________________________________________________________________________________________________
concatenate_43 (Concatenate)    (None, 4, 352)       0           S0_toksEmb[0][0]                 
                                                                 S0_tPosEmb[0][0]                 
__________________________________________________________________________________________________
concatenate_44 (Concatenate)    (None, 4, 352)       0           S1_toksEmb[0][0]                 
                                                                 S1_PosEmb[0][0]                  
__________________________________________________________________________________________________
B_toksEmb (Embedding)           (None, 3, 300)       583500      B_toks[0][0]                     
__________________________________________________________________________________________________
B_PosEmb (Embedding)            (None, 3, 52)        728         B_Pos[0][0]                      
__________________________________________________________________________________________________
s0Rnn (LSTM)                    (None, 26)           39416       concatenate_43[0][0]             
__________________________________________________________________________________________________
s1Rnn (LSTM)                    (None, 26)           39416       concatenate_44[0][0]             
__________________________________________________________________________________________________
B_toksFlat (Flatten)            (None, 900)          0           B_toksEmb[0][0]                  
__________________________________________________________________________________________________
B_PosFlat (Flatten)             (None, 156)          0           B_PosEmb[0][0]                   
__________________________________________________________________________________________________
dropout_43 (Dropout)            (None, 26)           0           s0Rnn[0][0]                      
__________________________________________________________________________________________________
dropout_44 (Dropout)            (None, 26)           0           s1Rnn[0][0]                      
__________________________________________________________________________________________________
concatenate_45 (Concatenate)    (None, 1108)         0           B_toksFlat[0][0]                 
                                                                 B_PosFlat[0][0]                  
                                                                 dropout_43[0][0]                 
                                                                 dropout_44[0][0]                 
__________________________________________________________________________________________________
dense_29 (Dense)                (None, 34)           37706       concatenate_45[0][0]             
__________________________________________________________________________________________________
dropout_45 (Dropout)            (None, 34)           0           dense_29[0][0]                   
__________________________________________________________________________________________________
dense_30 (Dense)                (None, 4)            140         dropout_45[0][0]                 
==================================================================================================
Total params: 1,869,362
Trainable params: 1,869,362
Non-trainable params: 0
__________________________________________________________________________________________________
None
==================================================================================================
…
	Token occurrences: 42020
	MWE number: 451
	MWE occurrences: 670
	Continuous occurrences: 75.0 %
	MWE length: 2.14
	Seen occurrences : 57% 
	Recognizable MWEs: 100.0 %
	MWT occurrences: 1

==================================================================================================
__________________________________________________________________________________________________
Layer (type)                    Output Shape         Param #     Connected to                     
==================================================================================================
S0_toks (InputLayer)            (None, 4)            0                                            
__________________________________________________________________________________________________
S0_Pos (InputLayer)             (None, 4)            0                                            
__________________________________________________________________________________________________
S1_toks (InputLayer)            (None, 4)            0                                            
__________________________________________________________________________________________________
S1_Pos (InputLayer)             (None, 4)            0                                            
__________________________________________________________________________________________________
S0_toksEmb (Embedding)          (None, 4, 142)       841492      S0_toks[0][0]                    
__________________________________________________________________________________________________
S0_tPosEmb (Embedding)          (None, 4, 24)        456         S0_Pos[0][0]                     
__________________________________________________________________________________________________
S1_toksEmb (Embedding)          (None, 4, 142)       841492      S1_toks[0][0]                    
__________________________________________________________________________________________________
S1_PosEmb (Embedding)           (None, 4, 24)        456         S1_Pos[0][0]                     
__________________________________________________________________________________________________
B_toks (InputLayer)             (None, 2)            0                                            
__________________________________________________________________________________________________
B_Pos (InputLayer)              (None, 2)            0                                            
__________________________________________________________________________________________________
concatenate_46 (Concatenate)    (None, 4, 166)       0           S0_toksEmb[0][0]                 
                                                                 S0_tPosEmb[0][0]                 
__________________________________________________________________________________________________
concatenate_47 (Concatenate)    (None, 4, 166)       0           S1_toksEmb[0][0]                 
                                                                 S1_PosEmb[0][0]                  
__________________________________________________________________________________________________
B_toksEmb (Embedding)           (None, 2, 142)       841492      B_toks[0][0]                     
__________________________________________________________________________________________________
B_PosEmb (Embedding)            (None, 2, 24)        456         B_Pos[0][0]                      
__________________________________________________________________________________________________
s0Rnn (GRU)                     (None, 36)           21924       concatenate_46[0][0]             
__________________________________________________________________________________________________
s1Rnn (GRU)                     (None, 36)           21924       concatenate_47[0][0]             
__________________________________________________________________________________________________
B_toksFlat (Flatten)            (None, 284)          0           B_toksEmb[0][0]                  
__________________________________________________________________________________________________
B_PosFlat (Flatten)             (None, 48)           0           B_PosEmb[0][0]                   
__________________________________________________________________________________________________
dropout_46 (Dropout)            (None, 36)           0           s0Rnn[0][0]                      
__________________________________________________________________________________________________
dropout_47 (Dropout)            (None, 36)           0           s1Rnn[0][0]                      
__________________________________________________________________________________________________
concatenate_48 (Concatenate)    (None, 404)          0           B_toksFlat[0][0]                 
                                                                 B_PosFlat[0][0]                  
                                                                 dropout_46[0][0]                 
                                                                 dropout_47[0][0]                 
__________________________________________________________________________________________________
dense_31 (Dense)                (None, 30)           12150       concatenate_48[0][0]             
__________________________________________________________________________________________________
dropout_48 (Dropout)            (None, 30)           0           dense_31[0][0]                   
__________________________________________________________________________________________________
dense_32 (Dense)                (None, 4)            124         dropout_48[0][0]                 
==================================================================================================
Total params: 2,581,966
Trainable params: 2,581,966
Non-trainable params: 0
__________________________________________________________________________________________________
None
==================================================================================================
…
	MWE occurrences: 553
	Continuous occurrences: 59.0 %
	MWE length: 2.25
	Seen occurrences : 62% 
	Recognizable MWEs: 98.0 %
	Embedded occurrences: 4
	Interleaving occurrences: 8

==================================================================================================
__________________________________________________________________________________________________
Layer (type)                    Output Shape         Param #     Connected to                     
==================================================================================================
S0_toks (InputLayer)            (None, 4)            0                                            
__________________________________________________________________________________________________
S0_Pos (InputLayer)             (None, 4)            0                                            
__________________________________________________________________________________________________
S1_toks (InputLayer)            (None, 4)            0                                            
__________________________________________________________________________________________________
S1_Pos (InputLayer)             (None, 4)            0                                            
__________________________________________________________________________________________________
S0_toksEmb (Embedding)          (None, 4, 142)       805424      S0_toks[0][0]                    
__________________________________________________________________________________________________
S0_tPosEmb (Embedding)          (None, 4, 24)        456         S0_Pos[0][0]                     
__________________________________________________________________________________________________
S1_toksEmb (Embedding)          (None, 4, 142)       805424      S1_toks[0][0]                    
__________________________________________________________________________________________________
S1_PosEmb (Embedding)           (None, 4, 24)        456         S1_Pos[0][0]                     
__________________________________________________________________________________________________
B_toks (InputLayer)             (None, 2)            0                                            
__________________________________________________________________________________________________
B_Pos (InputLayer)              (None, 2)            0                                            
__________________________________________________________________________________________________
concatenate_49 (Concatenate)    (None, 4, 166)       0           S0_toksEmb[0][0]                 
                                                                 S0_tPosEmb[0][0]                 
__________________________________________________________________________________________________
concatenate_50 (Concatenate)    (None, 4, 166)       0           S1_toksEmb[0][0]                 
                                                                 S1_PosEmb[0][0]                  
__________________________________________________________________________________________________
B_toksEmb (Embedding)           (None, 2, 142)       805424      B_toks[0][0]                     
__________________________________________________________________________________________________
B_PosEmb (Embedding)            (None, 2, 24)        456         B_Pos[0][0]                      
__________________________________________________________________________________________________
s0Rnn (GRU)                     (None, 36)           21924       concatenate_49[0][0]             
__________________________________________________________________________________________________
s1Rnn (GRU)                     (None, 36)           21924       concatenate_50[0][0]             
__________________________________________________________________________________________________
B_toksFlat (Flatten)            (None, 284)          0           B_toksEmb[0][0]                  
__________________________________________________________________________________________________
B_PosFlat (Flatten)             (None, 48)           0           B_PosEmb[0][0]                   
__________________________________________________________________________________________________
dropout_49 (Dropout)            (None, 36)           0           s0Rnn[0][0]                      
__________________________________________________________________________________________________
dropout_50 (Dropout)            (None, 36)           0           s1Rnn[0][0]                      
__________________________________________________________________________________________________
concatenate_51 (Concatenate)    (None, 404)          0           B_toksFlat[0][0]                 
                                                                 B_PosFlat[0][0]                  
                                                                 dropout_49[0][0]                 
                                                                 dropout_50[0][0]                 
__________________________________________________________________________________________________
dense_33 (Dense)                (None, 30)           12150       concatenate_51[0][0]             
__________________________________________________________________________________________________
dropout_51 (Dropout)            (None, 30)           0           dense_33[0][0]                   
__________________________________________________________________________________________________
dense_34 (Dense)                (None, 4)            124         dropout_51[0][0]                 
==================================================================================================
Total params: 2,473,762
Trainable params: 2,473,762
Non-trainable params: 0
__________________________________________________________________________________________________
None
==================================================================================================
…
	Important sentence: 385
	Token occurrences: 27196
	MWE number: 418
	MWE occurrences: 510
	Continuous occurrences: 50.0 %
	MWE length: 2.07
	Seen occurrences : 43% 
	Recognizable MWEs: 100.0 %

==================================================================================================
__________________________________________________________________________________________________
Layer (type)                    Output Shape         Param #     Connected to                     
==================================================================================================
S0_toks (InputLayer)            (None, 4)            0                                            
__________________________________________________________________________________________________
S0_Pos (InputLayer)             (None, 4)            0                                            
__________________________________________________________________________________________________
S1_toks (InputLayer)            (None, 4)            0                                            
__________________________________________________________________________________________________
S1_Pos (InputLayer)             (None, 4)            0                                            
__________________________________________________________________________________________________
S0_toksEmb (Embedding)          (None, 4, 142)       1499662     S0_toks[0][0]                    
__________________________________________________________________________________________________
S0_tPosEmb (Embedding)          (None, 4, 24)        336         S0_Pos[0][0]                     
__________________________________________________________________________________________________
S1_toksEmb (Embedding)          (None, 4, 142)       1499662     S1_toks[0][0]                    
__________________________________________________________________________________________________
S1_PosEmb (Embedding)           (None, 4, 24)        336         S1_Pos[0][0]                     
__________________________________________________________________________________________________
B_toks (InputLayer)             (None, 2)            0                                            
__________________________________________________________________________________________________
B_Pos (InputLayer)              (None, 2)            0                                            
__________________________________________________________________________________________________
concatenate_52 (Concatenate)    (None, 4, 166)       0           S0_toksEmb[0][0]                 
                                                                 S0_tPosEmb[0][0]                 
__________________________________________________________________________________________________
concatenate_53 (Concatenate)    (None, 4, 166)       0           S1_toksEmb[0][0]                 
                                                                 S1_PosEmb[0][0]                  
__________________________________________________________________________________________________
B_toksEmb (Embedding)           (None, 2, 142)       1499662     B_toks[0][0]                     
__________________________________________________________________________________________________
B_PosEmb (Embedding)            (None, 2, 24)        336         B_Pos[0][0]                      
__________________________________________________________________________________________________
s0Rnn (GRU)                     (None, 36)           21924       concatenate_52[0][0]             
__________________________________________________________________________________________________
s1Rnn (GRU)                     (None, 36)           21924       concatenate_53[0][0]             
__________________________________________________________________________________________________
B_toksFlat (Flatten)            (None, 284)          0           B_toksEmb[0][0]                  
__________________________________________________________________________________________________
B_PosFlat (Flatten)             (None, 48)           0           B_PosEmb[0][0]                   
__________________________________________________________________________________________________
dropout_52 (Dropout)            (None, 36)           0           s0Rnn[0][0]                      
__________________________________________________________________________________________________
dropout_53 (Dropout)            (None, 36)           0           s1Rnn[0][0]                      
__________________________________________________________________________________________________
concatenate_54 (Concatenate)    (None, 404)          0           B_toksFlat[0][0]                 
                                                                 B_PosFlat[0][0]                  
                                                                 dropout_52[0][0]                 
                                                                 dropout_53[0][0]                 
__________________________________________________________________________________________________
dense_35 (Dense)                (None, 30)           12150       concatenate_54[0][0]             
__________________________________________________________________________________________________
dropout_54 (Dropout)            (None, 30)           0           dense_35[0][0]                   
__________________________________________________________________________________________________
dense_36 (Dense)                (None, 4)            124         dropout_54[0][0]                 
==================================================================================================
Total params: 4,556,116
Trainable params: 4,556,116
Non-trainable params: 0
__________________________________________________________________________________________________
None
==================================================================================================
…
	Token occurrences: 42020
	MWE number: 451
	MWE occurrences: 670
	Continuous occurrences: 75.0 %
	MWE length: 2.14
	Seen occurrences : 57% 
	Recognizable MWEs: 100.0 %
	MWT occurrences: 1

==================================================================================================
__________________________________________________________________________________________________
Layer (type)                    Output Shape         Param #     Connected to                     
==================================================================================================
S0_toks (InputLayer)            (None, 4)            0                                            
__________________________________________________________________________________________________
S0_Pos (InputLayer)             (None, 4)            0                                            
__________________________________________________________________________________________________
S1_toks (InputLayer)            (None, 4)            0                                            
__________________________________________________________________________________________________
S1_Pos (InputLayer)             (None, 4)            0                                            
__________________________________________________________________________________________________
S0_toksEmb (Embedding)          (None, 4, 211)       106133      S0_toks[0][0]                    
__________________________________________________________________________________________________
S0_tPosEmb (Embedding)          (None, 4, 45)        855         S0_Pos[0][0]                     
__________________________________________________________________________________________________
S1_toksEmb (Embedding)          (None, 4, 211)       106133      S1_toks[0][0]                    
__________________________________________________________________________________________________
S1_PosEmb (Embedding)           (None, 4, 45)        855         S1_Pos[0][0]                     
__________________________________________________________________________________________________
B_toks (InputLayer)             (None, 3)            0                                            
__________________________________________________________________________________________________
B_Pos (InputLayer)              (None, 3)            0                                            
__________________________________________________________________________________________________
concatenate_55 (Concatenate)    (None, 4, 256)       0           S0_toksEmb[0][0]                 
                                                                 S0_tPosEmb[0][0]                 
__________________________________________________________________________________________________
concatenate_56 (Concatenate)    (None, 4, 256)       0           S1_toksEmb[0][0]                 
                                                                 S1_PosEmb[0][0]                  
__________________________________________________________________________________________________
B_toksEmb (Embedding)           (None, 3, 211)       106133      B_toks[0][0]                     
__________________________________________________________________________________________________
B_PosEmb (Embedding)            (None, 3, 45)        855         B_Pos[0][0]                      
__________________________________________________________________________________________________
s0Rnn (GRU)                     (None, 189)          252882      concatenate_55[0][0]             
__________________________________________________________________________________________________
s1Rnn (GRU)                     (None, 189)          252882      concatenate_56[0][0]             
__________________________________________________________________________________________________
B_toksFlat (Flatten)            (None, 633)          0           B_toksEmb[0][0]                  
__________________________________________________________________________________________________
B_PosFlat (Flatten)             (None, 135)          0           B_PosEmb[0][0]                   
__________________________________________________________________________________________________
dropout_55 (Dropout)            (None, 189)          0           s0Rnn[0][0]                      
__________________________________________________________________________________________________
dropout_56 (Dropout)            (None, 189)          0           s1Rnn[0][0]                      
__________________________________________________________________________________________________
concatenate_57 (Concatenate)    (None, 1146)         0           B_toksFlat[0][0]                 
                                                                 B_PosFlat[0][0]                  
                                                                 dropout_55[0][0]                 
                                                                 dropout_56[0][0]                 
__________________________________________________________________________________________________
dense_37 (Dense)                (None, 91)           104377      concatenate_57[0][0]             
__________________________________________________________________________________________________
dropout_57 (Dropout)            (None, 91)           0           dense_37[0][0]                   
__________________________________________________________________________________________________
dense_38 (Dense)                (None, 4)            368         dropout_57[0][0]                 
==================================================================================================
Total params: 931,473
Trainable params: 931,473
Non-trainable params: 0
__________________________________________________________________________________________________
None
==================================================================================================
…
	MWE occurrences: 553
	Continuous occurrences: 59.0 %
	MWE length: 2.25
	Seen occurrences : 62% 
	Recognizable MWEs: 98.0 %
	Embedded occurrences: 4
	Interleaving occurrences: 8

==================================================================================================
__________________________________________________________________________________________________
Layer (type)                    Output Shape         Param #     Connected to                     
==================================================================================================
S0_toks (InputLayer)            (None, 4)            0                                            
__________________________________________________________________________________________________
S0_Pos (InputLayer)             (None, 4)            0                                            
__________________________________________________________________________________________________
S1_toks (InputLayer)            (None, 4)            0                                            
__________________________________________________________________________________________________
S1_Pos (InputLayer)             (None, 4)            0                                            
__________________________________________________________________________________________________
S0_toksEmb (Embedding)          (None, 4, 211)       201083      S0_toks[0][0]                    
__________________________________________________________________________________________________
S0_tPosEmb (Embedding)          (None, 4, 45)        855         S0_Pos[0][0]                     
__________________________________________________________________________________________________
S1_toksEmb (Embedding)          (None, 4, 211)       201083      S1_toks[0][0]                    
__________________________________________________________________________________________________
S1_PosEmb (Embedding)           (None, 4, 45)        855         S1_Pos[0][0]                     
__________________________________________________________________________________________________
B_toks (InputLayer)             (None, 3)            0                                            
__________________________________________________________________________________________________
B_Pos (InputLayer)              (None, 3)            0                                            
__________________________________________________________________________________________________
concatenate_58 (Concatenate)    (None, 4, 256)       0           S0_toksEmb[0][0]                 
                                                                 S0_tPosEmb[0][0]                 
__________________________________________________________________________________________________
concatenate_59 (Concatenate)    (None, 4, 256)       0           S1_toksEmb[0][0]                 
                                                                 S1_PosEmb[0][0]                  
__________________________________________________________________________________________________
B_toksEmb (Embedding)           (None, 3, 211)       201083      B_toks[0][0]                     
__________________________________________________________________________________________________
B_PosEmb (Embedding)            (None, 3, 45)        855         B_Pos[0][0]                      
__________________________________________________________________________________________________
s0Rnn (GRU)                     (None, 189)          252882      concatenate_58[0][0]             
__________________________________________________________________________________________________
s1Rnn (GRU)                     (None, 189)          252882      concatenate_59[0][0]             
__________________________________________________________________________________________________
B_toksFlat (Flatten)            (None, 633)          0           B_toksEmb[0][0]                  
__________________________________________________________________________________________________
B_PosFlat (Flatten)             (None, 135)          0           B_PosEmb[0][0]                   
__________________________________________________________________________________________________
dropout_58 (Dropout)            (None, 189)          0           s0Rnn[0][0]                      
__________________________________________________________________________________________________
dropout_59 (Dropout)            (None, 189)          0           s1Rnn[0][0]                      
__________________________________________________________________________________________________
concatenate_60 (Concatenate)    (None, 1146)         0           B_toksFlat[0][0]                 
                                                                 B_PosFlat[0][0]                  
                                                                 dropout_58[0][0]                 
                                                                 dropout_59[0][0]                 
__________________________________________________________________________________________________
dense_39 (Dense)                (None, 91)           104377      concatenate_60[0][0]             
__________________________________________________________________________________________________
dropout_60 (Dropout)            (None, 91)           0           dense_39[0][0]                   
__________________________________________________________________________________________________
dense_40 (Dense)                (None, 4)            368         dropout_60[0][0]                 
==================================================================================================
Total params: 1,216,323
Trainable params: 1,216,323
Non-trainable params: 0
__________________________________________________________________________________________________
None
==================================================================================================
…
	Important sentence: 385
	Token occurrences: 27196
	MWE number: 418
	MWE occurrences: 510
	Continuous occurrences: 50.0 %
	MWE length: 2.07
	Seen occurrences : 43% 
	Recognizable MWEs: 100.0 %

==================================================================================================
__________________________________________________________________________________________________
Layer (type)                    Output Shape         Param #     Connected to                     
==================================================================================================
S0_toks (InputLayer)            (None, 4)            0                                            
__________________________________________________________________________________________________
S0_Pos (InputLayer)             (None, 4)            0                                            
__________________________________________________________________________________________________
S1_toks (InputLayer)            (None, 4)            0                                            
__________________________________________________________________________________________________
S1_Pos (InputLayer)             (None, 4)            0                                            
__________________________________________________________________________________________________
S0_toksEmb (Embedding)          (None, 4, 211)       410395      S0_toks[0][0]                    
__________________________________________________________________________________________________
S0_tPosEmb (Embedding)          (None, 4, 45)        630         S0_Pos[0][0]                     
__________________________________________________________________________________________________
S1_toksEmb (Embedding)          (None, 4, 211)       410395      S1_toks[0][0]                    
__________________________________________________________________________________________________
S1_PosEmb (Embedding)           (None, 4, 45)        630         S1_Pos[0][0]                     
__________________________________________________________________________________________________
B_toks (InputLayer)             (None, 3)            0                                            
__________________________________________________________________________________________________
B_Pos (InputLayer)              (None, 3)            0                                            
__________________________________________________________________________________________________
concatenate_61 (Concatenate)    (None, 4, 256)       0           S0_toksEmb[0][0]                 
                                                                 S0_tPosEmb[0][0]                 
__________________________________________________________________________________________________
concatenate_62 (Concatenate)    (None, 4, 256)       0           S1_toksEmb[0][0]                 
                                                                 S1_PosEmb[0][0]                  
__________________________________________________________________________________________________
B_toksEmb (Embedding)           (None, 3, 211)       410395      B_toks[0][0]                     
__________________________________________________________________________________________________
B_PosEmb (Embedding)            (None, 3, 45)        630         B_Pos[0][0]                      
__________________________________________________________________________________________________
s0Rnn (GRU)                     (None, 189)          252882      concatenate_61[0][0]             
__________________________________________________________________________________________________
s1Rnn (GRU)                     (None, 189)          252882      concatenate_62[0][0]             
__________________________________________________________________________________________________
B_toksFlat (Flatten)            (None, 633)          0           B_toksEmb[0][0]                  
__________________________________________________________________________________________________
B_PosFlat (Flatten)             (None, 135)          0           B_PosEmb[0][0]                   
__________________________________________________________________________________________________
dropout_61 (Dropout)            (None, 189)          0           s0Rnn[0][0]                      
__________________________________________________________________________________________________
dropout_62 (Dropout)            (None, 189)          0           s1Rnn[0][0]                      
__________________________________________________________________________________________________
concatenate_63 (Concatenate)    (None, 1146)         0           B_toksFlat[0][0]                 
                                                                 B_PosFlat[0][0]                  
                                                                 dropout_61[0][0]                 
                                                                 dropout_62[0][0]                 
__________________________________________________________________________________________________
dense_41 (Dense)                (None, 91)           104377      concatenate_63[0][0]             
__________________________________________________________________________________________________
dropout_63 (Dropout)            (None, 91)           0           dense_41[0][0]                   
__________________________________________________________________________________________________
dense_42 (Dense)                (None, 4)            368         dropout_63[0][0]                 
==================================================================================================
Total params: 1,843,584
Trainable params: 1,843,584
Non-trainable params: 0
__________________________________________________________________________________________________
None
==================================================================================================
…
	Token occurrences: 42020
	MWE number: 451
	MWE occurrences: 670
	Continuous occurrences: 75.0 %
	MWE length: 2.14
	Seen occurrences : 57% 
	Recognizable MWEs: 100.0 %
	MWT occurrences: 1

==================================================================================================
__________________________________________________________________________________________________
Layer (type)                    Output Shape         Param #     Connected to                     
==================================================================================================
S0_toks (InputLayer)            (None, 4)            0                                            
__________________________________________________________________________________________________
S0_Pos (InputLayer)             (None, 4)            0                                            
__________________________________________________________________________________________________
S1_toks (InputLayer)            (None, 4)            0                                            
__________________________________________________________________________________________________
S1_Pos (InputLayer)             (None, 4)            0                                            
__________________________________________________________________________________________________
S0_toksEmb (Embedding)          (None, 4, 300)       150900      S0_toks[0][0]                    
__________________________________________________________________________________________________
S0_tPosEmb (Embedding)          (None, 4, 35)        665         S0_Pos[0][0]                     
__________________________________________________________________________________________________
S1_toksEmb (Embedding)          (None, 4, 300)       150900      S1_toks[0][0]                    
__________________________________________________________________________________________________
S1_PosEmb (Embedding)           (None, 4, 35)        665         S1_Pos[0][0]                     
__________________________________________________________________________________________________
B_toks (InputLayer)             (None, 2)            0                                            
__________________________________________________________________________________________________
B_Pos (InputLayer)              (None, 2)            0                                            
__________________________________________________________________________________________________
concatenate_64 (Concatenate)    (None, 4, 335)       0           S0_toksEmb[0][0]                 
                                                                 S0_tPosEmb[0][0]                 
__________________________________________________________________________________________________
concatenate_65 (Concatenate)    (None, 4, 335)       0           S1_toksEmb[0][0]                 
                                                                 S1_PosEmb[0][0]                  
__________________________________________________________________________________________________
B_toksEmb (Embedding)           (None, 2, 300)       150900      B_toks[0][0]                     
__________________________________________________________________________________________________
B_PosEmb (Embedding)            (None, 2, 35)        665         B_Pos[0][0]                      
__________________________________________________________________________________________________
s0Rnn (GRU)                     (None, 33)           36531       concatenate_64[0][0]             
__________________________________________________________________________________________________
s1Rnn (GRU)                     (None, 33)           36531       concatenate_65[0][0]             
__________________________________________________________________________________________________
B_toksFlat (Flatten)            (None, 600)          0           B_toksEmb[0][0]                  
__________________________________________________________________________________________________
B_PosFlat (Flatten)             (None, 70)           0           B_PosEmb[0][0]                   
__________________________________________________________________________________________________
dropout_64 (Dropout)            (None, 33)           0           s0Rnn[0][0]                      
__________________________________________________________________________________________________
dropout_65 (Dropout)            (None, 33)           0           s1Rnn[0][0]                      
__________________________________________________________________________________________________
concatenate_66 (Concatenate)    (None, 736)          0           B_toksFlat[0][0]                 
                                                                 B_PosFlat[0][0]                  
                                                                 dropout_64[0][0]                 
                                                                 dropout_65[0][0]                 
__________________________________________________________________________________________________
dense_43 (Dense)                (None, 66)           48642       concatenate_66[0][0]             
__________________________________________________________________________________________________
dropout_66 (Dropout)            (None, 66)           0           dense_43[0][0]                   
__________________________________________________________________________________________________
dense_44 (Dense)                (None, 4)            268         dropout_66[0][0]                 
==================================================================================================
Total params: 576,667
Trainable params: 576,667
Non-trainable params: 0
__________________________________________________________________________________________________
None
==================================================================================================
…
	MWE occurrences: 553
	Continuous occurrences: 59.0 %
	MWE length: 2.25
	Seen occurrences : 62% 
	Recognizable MWEs: 98.0 %
	Embedded occurrences: 4
	Interleaving occurrences: 8

==================================================================================================
__________________________________________________________________________________________________
Layer (type)                    Output Shape         Param #     Connected to                     
==================================================================================================
S0_toks (InputLayer)            (None, 4)            0                                            
__________________________________________________________________________________________________
S0_Pos (InputLayer)             (None, 4)            0                                            
__________________________________________________________________________________________________
S1_toks (InputLayer)            (None, 4)            0                                            
__________________________________________________________________________________________________
S1_Pos (InputLayer)             (None, 4)            0                                            
__________________________________________________________________________________________________
S0_toksEmb (Embedding)          (None, 4, 300)       285900      S0_toks[0][0]                    
__________________________________________________________________________________________________
S0_tPosEmb (Embedding)          (None, 4, 35)        665         S0_Pos[0][0]                     
__________________________________________________________________________________________________
S1_toksEmb (Embedding)          (None, 4, 300)       285900      S1_toks[0][0]                    
__________________________________________________________________________________________________
S1_PosEmb (Embedding)           (None, 4, 35)        665         S1_Pos[0][0]                     
__________________________________________________________________________________________________
B_toks (InputLayer)             (None, 2)            0                                            
__________________________________________________________________________________________________
B_Pos (InputLayer)              (None, 2)            0                                            
__________________________________________________________________________________________________
concatenate_67 (Concatenate)    (None, 4, 335)       0           S0_toksEmb[0][0]                 
                                                                 S0_tPosEmb[0][0]                 
__________________________________________________________________________________________________
concatenate_68 (Concatenate)    (None, 4, 335)       0           S1_toksEmb[0][0]                 
                                                                 S1_PosEmb[0][0]                  
__________________________________________________________________________________________________
B_toksEmb (Embedding)           (None, 2, 300)       285900      B_toks[0][0]                     
__________________________________________________________________________________________________
B_PosEmb (Embedding)            (None, 2, 35)        665         B_Pos[0][0]                      
__________________________________________________________________________________________________
s0Rnn (GRU)                     (None, 33)           36531       concatenate_67[0][0]             
__________________________________________________________________________________________________
s1Rnn (GRU)                     (None, 33)           36531       concatenate_68[0][0]             
__________________________________________________________________________________________________
B_toksFlat (Flatten)            (None, 600)          0           B_toksEmb[0][0]                  
__________________________________________________________________________________________________
B_PosFlat (Flatten)             (None, 70)           0           B_PosEmb[0][0]                   
__________________________________________________________________________________________________
dropout_67 (Dropout)            (None, 33)           0           s0Rnn[0][0]                      
__________________________________________________________________________________________________
dropout_68 (Dropout)            (None, 33)           0           s1Rnn[0][0]                      
__________________________________________________________________________________________________
concatenate_69 (Concatenate)    (None, 736)          0           B_toksFlat[0][0]                 
                                                                 B_PosFlat[0][0]                  
                                                                 dropout_67[0][0]                 
                                                                 dropout_68[0][0]                 
__________________________________________________________________________________________________
dense_45 (Dense)                (None, 66)           48642       concatenate_69[0][0]             
__________________________________________________________________________________________________
dropout_69 (Dropout)            (None, 66)           0           dense_45[0][0]                   
__________________________________________________________________________________________________
dense_46 (Dense)                (None, 4)            268         dropout_69[0][0]                 
==================================================================================================
Total params: 981,667
Trainable params: 981,667
Non-trainable params: 0
__________________________________________________________________________________________________
None
==================================================================================================
…
	Important sentence: 385
	Token occurrences: 27196
	MWE number: 418
	MWE occurrences: 510
	Continuous occurrences: 50.0 %
	MWE length: 2.07
	Seen occurrences : 43% 
	Recognizable MWEs: 100.0 %

==================================================================================================
__________________________________________________________________________________________________
Layer (type)                    Output Shape         Param #     Connected to                     
==================================================================================================
S0_toks (InputLayer)            (None, 4)            0                                            
__________________________________________________________________________________________________
S0_Pos (InputLayer)             (None, 4)            0                                            
__________________________________________________________________________________________________
S1_toks (InputLayer)            (None, 4)            0                                            
__________________________________________________________________________________________________
S1_Pos (InputLayer)             (None, 4)            0                                            
__________________________________________________________________________________________________
S0_toksEmb (Embedding)          (None, 4, 300)       583500      S0_toks[0][0]                    
__________________________________________________________________________________________________
S0_tPosEmb (Embedding)          (None, 4, 35)        490         S0_Pos[0][0]                     
__________________________________________________________________________________________________
S1_toksEmb (Embedding)          (None, 4, 300)       583500      S1_toks[0][0]                    
__________________________________________________________________________________________________
S1_PosEmb (Embedding)           (None, 4, 35)        490         S1_Pos[0][0]                     
__________________________________________________________________________________________________
B_toks (InputLayer)             (None, 2)            0                                            
__________________________________________________________________________________________________
B_Pos (InputLayer)              (None, 2)            0                                            
__________________________________________________________________________________________________
concatenate_70 (Concatenate)    (None, 4, 335)       0           S0_toksEmb[0][0]                 
                                                                 S0_tPosEmb[0][0]                 
__________________________________________________________________________________________________
concatenate_71 (Concatenate)    (None, 4, 335)       0           S1_toksEmb[0][0]                 
                                                                 S1_PosEmb[0][0]                  
__________________________________________________________________________________________________
B_toksEmb (Embedding)           (None, 2, 300)       583500      B_toks[0][0]                     
__________________________________________________________________________________________________
B_PosEmb (Embedding)            (None, 2, 35)        490         B_Pos[0][0]                      
__________________________________________________________________________________________________
s0Rnn (GRU)                     (None, 33)           36531       concatenate_70[0][0]             
__________________________________________________________________________________________________
s1Rnn (GRU)                     (None, 33)           36531       concatenate_71[0][0]             
__________________________________________________________________________________________________
B_toksFlat (Flatten)            (None, 600)          0           B_toksEmb[0][0]                  
__________________________________________________________________________________________________
B_PosFlat (Flatten)             (None, 70)           0           B_PosEmb[0][0]                   
__________________________________________________________________________________________________
dropout_70 (Dropout)            (None, 33)           0           s0Rnn[0][0]                      
__________________________________________________________________________________________________
dropout_71 (Dropout)            (None, 33)           0           s1Rnn[0][0]                      
__________________________________________________________________________________________________
concatenate_72 (Concatenate)    (None, 736)          0           B_toksFlat[0][0]                 
                                                                 B_PosFlat[0][0]                  
                                                                 dropout_70[0][0]                 
                                                                 dropout_71[0][0]                 
__________________________________________________________________________________________________
dense_47 (Dense)                (None, 66)           48642       concatenate_72[0][0]             
__________________________________________________________________________________________________
dropout_72 (Dropout)            (None, 66)           0           dense_47[0][0]                   
__________________________________________________________________________________________________
dense_48 (Dense)                (None, 4)            268         dropout_72[0][0]                 
==================================================================================================
Total params: 1,873,942
Trainable params: 1,873,942
Non-trainable params: 0
__________________________________________________________________________________________________
None
==================================================================================================
…
	Token occurrences: 42020
	MWE number: 451
	MWE occurrences: 670
	Continuous occurrences: 75.0 %
	MWE length: 2.14
	Seen occurrences : 57% 
	Recognizable MWEs: 100.0 %
	MWT occurrences: 1

==================================================================================================
__________________________________________________________________________________________________
Layer (type)                    Output Shape         Param #     Connected to                     
==================================================================================================
S0_toks (InputLayer)            (None, 4)            0                                            
__________________________________________________________________________________________________
S0_Pos (InputLayer)             (None, 4)            0                                            
__________________________________________________________________________________________________
S1_toks (InputLayer)            (None, 4)            0                                            
__________________________________________________________________________________________________
S1_Pos (InputLayer)             (None, 4)            0                                            
__________________________________________________________________________________________________
S0_toksEmb (Embedding)          (None, 4, 208)       1939600     S0_toks[0][0]                    
__________________________________________________________________________________________________
S0_tPosEmb (Embedding)          (None, 4, 41)        779         S0_Pos[0][0]                     
__________________________________________________________________________________________________
S1_toksEmb (Embedding)          (None, 4, 208)       1939600     S1_toks[0][0]                    
__________________________________________________________________________________________________
S1_PosEmb (Embedding)           (None, 4, 41)        779         S1_Pos[0][0]                     
__________________________________________________________________________________________________
B_toks (InputLayer)             (None, 1)            0                                            
__________________________________________________________________________________________________
B_Pos (InputLayer)              (None, 1)            0                                            
__________________________________________________________________________________________________
concatenate_73 (Concatenate)    (None, 4, 249)       0           S0_toksEmb[0][0]                 
                                                                 S0_tPosEmb[0][0]                 
__________________________________________________________________________________________________
concatenate_74 (Concatenate)    (None, 4, 249)       0           S1_toksEmb[0][0]                 
                                                                 S1_PosEmb[0][0]                  
__________________________________________________________________________________________________
B_toksEmb (Embedding)           (None, 1, 208)       1939600     B_toks[0][0]                     
…
                                                                 dropout_802[0][0]                
                                                                 dropout_803[0][0]                
__________________________________________________________________________________________________
dense_535 (Dense)               (None, 48)           19824       concatenate_804[0][0]            
__________________________________________________________________________________________________
dropout_804 (Dropout)           (None, 48)           0           dense_535[0][0]                  
__________________________________________________________________________________________________
dense_536 (Dense)               (None, 4)            196         dropout_804[0][0]                
==================================================================================================
Total params: 2,453,830
Trainable params: 2,453,830
Non-trainable params: 0
__________________________________________________________________________________________________
None
==================================================================================================
…
	MWE occurrences: 553
	Continuous occurrences: 59.0 %
	MWE length: 2.25
	Seen occurrences : 62% 
	Recognizable MWEs: 98.0 %
	Embedded occurrences: 4
	Interleaving occurrences: 8

==================================================================================================
__________________________________________________________________________________________________
Layer (type)                    Output Shape         Param #     Connected to                     
==================================================================================================
S0_toks (InputLayer)            (None, 4)            0                                            
__________________________________________________________________________________________________
S0_Pos (InputLayer)             (None, 4)            0                                            
__________________________________________________________________________________________________
S1_toks (InputLayer)            (None, 4)            0                                            
__________________________________________________________________________________________________
S1_Pos (InputLayer)             (None, 4)            0                                            
__________________________________________________________________________________________________
S0_toksEmb (Embedding)          (None, 4, 133)       754376      S0_toks[0][0]                    
__________________________________________________________________________________________________
S0_tPosEmb (Embedding)          (None, 4, 18)        342         S0_Pos[0][0]                     
__________________________________________________________________________________________________
S1_toksEmb (Embedding)          (None, 4, 133)       754376      S1_toks[0][0]                    
__________________________________________________________________________________________________
S1_PosEmb (Embedding)           (None, 4, 18)        342         S1_Pos[0][0]                     
__________________________________________________________________________________________________
B_toks (InputLayer)             (None, 2)            0                                            
__________________________________________________________________________________________________
B_Pos (InputLayer)              (None, 2)            0                                            
__________________________________________________________________________________________________
concatenate_805 (Concatenate)   (None, 4, 151)       0           S0_toksEmb[0][0]                 
                                                                 S0_tPosEmb[0][0]                 
__________________________________________________________________________________________________
concatenate_806 (Concatenate)   (None, 4, 151)       0           S1_toksEmb[0][0]                 
                                                                 S1_PosEmb[0][0]                  
__________________________________________________________________________________________________
B_toksEmb (Embedding)           (None, 2, 133)       754376      B_toks[0][0]                     
__________________________________________________________________________________________________
B_PosEmb (Embedding)            (None, 2, 18)        342         B_Pos[0][0]                      
__________________________________________________________________________________________________
s0Rnn (GRU)                     (None, 55)           34155       concatenate_805[0][0]            
__________________________________________________________________________________________________
s1Rnn (GRU)                     (None, 55)           34155       concatenate_806[0][0]            
__________________________________________________________________________________________________
B_toksFlat (Flatten)            (None, 266)          0           B_toksEmb[0][0]                  
__________________________________________________________________________________________________
B_PosFlat (Flatten)             (None, 36)           0           B_PosEmb[0][0]                   
__________________________________________________________________________________________________
dropout_805 (Dropout)           (None, 55)           0           s0Rnn[0][0]                      
__________________________________________________________________________________________________
dropout_806 (Dropout)           (None, 55)           0           s1Rnn[0][0]                      
__________________________________________________________________________________________________
concatenate_807 (Concatenate)   (None, 412)          0           B_toksFlat[0][0]                 
                                                                 B_PosFlat[0][0]                  
                                                                 dropout_805[0][0]                
                                                                 dropout_806[0][0]                
__________________________________________________________________________________________________
dense_537 (Dense)               (None, 48)           19824       concatenate_807[0][0]            
__________________________________________________________________________________________________
dropout_807 (Dropout)           (None, 48)           0           dense_537[0][0]                  
__________________________________________________________________________________________________
dense_538 (Dense)               (None, 4)            196         dropout_807[0][0]                
==================================================================================================
Total params: 2,352,484
Trainable params: 2,352,484
Non-trainable params: 0
__________________________________________________________________________________________________
None
==================================================================================================
…
	Important sentence: 385
	Token occurrences: 27196
	MWE number: 418
	MWE occurrences: 510
	Continuous occurrences: 50.0 %
	MWE length: 2.07
	Seen occurrences : 43% 
	Recognizable MWEs: 100.0 %

==================================================================================================
__________________________________________________________________________________________________
Layer (type)                    Output Shape         Param #     Connected to                     
==================================================================================================
S0_toks (InputLayer)            (None, 4)            0                                            
__________________________________________________________________________________________________
S0_Pos (InputLayer)             (None, 4)            0                                            
__________________________________________________________________________________________________
S1_toks (InputLayer)            (None, 4)            0                                            
__________________________________________________________________________________________________
S1_Pos (InputLayer)             (None, 4)            0                                            
__________________________________________________________________________________________________
S0_toksEmb (Embedding)          (None, 4, 133)       1404613     S0_toks[0][0]                    
__________________________________________________________________________________________________
S0_tPosEmb (Embedding)          (None, 4, 18)        252         S0_Pos[0][0]                     
__________________________________________________________________________________________________
S1_toksEmb (Embedding)          (None, 4, 133)       1404613     S1_toks[0][0]                    
__________________________________________________________________________________________________
S1_PosEmb (Embedding)           (None, 4, 18)        252         S1_Pos[0][0]                     
__________________________________________________________________________________________________
B_toks (InputLayer)             (None, 2)            0                                            
__________________________________________________________________________________________________
B_Pos (InputLayer)              (None, 2)            0                                            
__________________________________________________________________________________________________
concatenate_808 (Concatenate)   (None, 4, 151)       0           S0_toksEmb[0][0]                 
                                                                 S0_tPosEmb[0][0]                 
__________________________________________________________________________________________________
concatenate_809 (Concatenate)   (None, 4, 151)       0           S1_toksEmb[0][0]                 
                                                                 S1_PosEmb[0][0]                  
__________________________________________________________________________________________________
B_toksEmb (Embedding)           (None, 2, 133)       1404613     B_toks[0][0]                     
__________________________________________________________________________________________________
B_PosEmb (Embedding)            (None, 2, 18)        252         B_Pos[0][0]                      
__________________________________________________________________________________________________
s0Rnn (GRU)                     (None, 55)           34155       concatenate_808[0][0]            
__________________________________________________________________________________________________
s1Rnn (GRU)                     (None, 55)           34155       concatenate_809[0][0]            
__________________________________________________________________________________________________
B_toksFlat (Flatten)            (None, 266)          0           B_toksEmb[0][0]                  
__________________________________________________________________________________________________
B_PosFlat (Flatten)             (None, 36)           0           B_PosEmb[0][0]                   
__________________________________________________________________________________________________
dropout_808 (Dropout)           (None, 55)           0           s0Rnn[0][0]                      
__________________________________________________________________________________________________
dropout_809 (Dropout)           (None, 55)           0           s1Rnn[0][0]                      
__________________________________________________________________________________________________
concatenate_810 (Concatenate)   (None, 412)          0           B_toksFlat[0][0]                 
                                                                 B_PosFlat[0][0]                  
                                                                 dropout_808[0][0]                
                                                                 dropout_809[0][0]                
__________________________________________________________________________________________________
dense_539 (Dense)               (None, 48)           19824       concatenate_810[0][0]            
__________________________________________________________________________________________________
dropout_810 (Dropout)           (None, 48)           0           dense_539[0][0]                  
__________________________________________________________________________________________________
dense_540 (Dense)               (None, 4)            196         dropout_810[0][0]                
==================================================================================================
Total params: 4,302,925
Trainable params: 4,302,925
Non-trainable params: 0
__________________________________________________________________________________________________
None
==================================================================================================
…
	Token occurrences: 42020
	MWE number: 451
	MWE occurrences: 670
	Continuous occurrences: 75.0 %
	MWE length: 2.14
	Seen occurrences : 57% 
	Recognizable MWEs: 100.0 %
	MWT occurrences: 1

==================================================================================================
__________________________________________________________________________________________________
Layer (type)                    Output Shape         Param #     Connected to                     
==================================================================================================
S0_toks (InputLayer)            (None, 4)            0                                            
__________________________________________________________________________________________________
S0_Pos (InputLayer)             (None, 4)            0                                            
__________________________________________________________________________________________________
S1_toks (InputLayer)            (None, 4)            0                                            
__________________________________________________________________________________________________
S1_Pos (InputLayer)             (None, 4)            0                                            
__________________________________________________________________________________________________
S0_toksEmb (Embedding)          (None, 4, 292)       343976      S0_toks[0][0]                    
__________________________________________________________________________________________________
S0_tPosEmb (Embedding)          (None, 4, 48)        912         S0_Pos[0][0]                     
__________________________________________________________________________________________________
S1_toksEmb (Embedding)          (None, 4, 292)       343976      S1_toks[0][0]                    
__________________________________________________________________________________________________
S1_PosEmb (Embedding)           (None, 4, 48)        912         S1_Pos[0][0]                     
__________________________________________________________________________________________________
B_toks (InputLayer)             (None, 1)            0                                            
__________________________________________________________________________________________________
B_Pos (InputLayer)              (None, 1)            0                                            
__________________________________________________________________________________________________
concatenate_811 (Concatenate)   (None, 4, 340)       0           S0_toksEmb[0][0]                 
                                                                 S0_tPosEmb[0][0]                 
__________________________________________________________________________________________________
concatenate_812 (Concatenate)   (None, 4, 340)       0           S1_toksEmb[0][0]                 
                                                                 S1_PosEmb[0][0]                  
__________________________________________________________________________________________________
B_toksEmb (Embedding)           (None, 1, 292)       343976      B_toks[0][0]                     
__________________________________________________________________________________________________
B_PosEmb (Embedding)            (None, 1, 48)        912         B_Pos[0][0]                      
__________________________________________________________________________________________________
s0Rnn (GRU)                     (None, 25)           27450       concatenate_811[0][0]            
__________________________________________________________________________________________________
s1Rnn (GRU)                     (None, 25)           27450       concatenate_812[0][0]            
__________________________________________________________________________________________________
B_toksFlat (Flatten)            (None, 292)          0           B_toksEmb[0][0]                  
__________________________________________________________________________________________________
B_PosFlat (Flatten)             (None, 48)           0           B_PosEmb[0][0]                   
__________________________________________________________________________________________________
dropout_811 (Dropout)           (None, 25)           0           s0Rnn[0][0]                      
__________________________________________________________________________________________________
dropout_812 (Dropout)           (None, 25)           0           s1Rnn[0][0]                      
__________________________________________________________________________________________________
concatenate_813 (Concatenate)   (None, 390)          0           B_toksFlat[0][0]                 
                                                                 B_PosFlat[0][0]                  
                                                                 dropout_811[0][0]                
                                                                 dropout_812[0][0]                
__________________________________________________________________________________________________
dense_541 (Dense)               (None, 156)          60996       concatenate_813[0][0]            
__________________________________________________________________________________________________
dropout_813 (Dropout)           (None, 156)          0           dense_541[0][0]                  
__________________________________________________________________________________________________
dense_542 (Dense)               (None, 4)            628         dropout_813[0][0]                
==================================================================================================
Total params: 1,151,188
Trainable params: 1,151,188
Non-trainable params: 0
__________________________________________________________________________________________________
None
==================================================================================================
…
	MWE occurrences: 553
	Continuous occurrences: 59.0 %
	MWE length: 2.25
	Seen occurrences : 62% 
	Recognizable MWEs: 98.0 %
	Embedded occurrences: 4
	Interleaving occurrences: 8

==================================================================================================
__________________________________________________________________________________________________
Layer (type)                    Output Shape         Param #     Connected to                     
==================================================================================================
S0_toks (InputLayer)            (None, 4)            0                                            
__________________________________________________________________________________________________
S0_Pos (InputLayer)             (None, 4)            0                                            
__________________________________________________________________________________________________
S1_toks (InputLayer)            (None, 4)            0                                            
__________________________________________________________________________________________________
S1_Pos (InputLayer)             (None, 4)            0                                            
__________________________________________________________________________________________________
S0_toksEmb (Embedding)          (None, 4, 292)       331128      S0_toks[0][0]                    
__________________________________________________________________________________________________
S0_tPosEmb (Embedding)          (None, 4, 48)        912         S0_Pos[0][0]                     
__________________________________________________________________________________________________
S1_toksEmb (Embedding)          (None, 4, 292)       331128      S1_toks[0][0]                    
__________________________________________________________________________________________________
S1_PosEmb (Embedding)           (None, 4, 48)        912         S1_Pos[0][0]                     
__________________________________________________________________________________________________
B_toks (InputLayer)             (None, 1)            0                                            
__________________________________________________________________________________________________
B_Pos (InputLayer)              (None, 1)            0                                            
__________________________________________________________________________________________________
concatenate_814 (Concatenate)   (None, 4, 340)       0           S0_toksEmb[0][0]                 
                                                                 S0_tPosEmb[0][0]                 
__________________________________________________________________________________________________
concatenate_815 (Concatenate)   (None, 4, 340)       0           S1_toksEmb[0][0]                 
                                                                 S1_PosEmb[0][0]                  
__________________________________________________________________________________________________
B_toksEmb (Embedding)           (None, 1, 292)       331128      B_toks[0][0]                     
__________________________________________________________________________________________________
B_PosEmb (Embedding)            (None, 1, 48)        912         B_Pos[0][0]                      
__________________________________________________________________________________________________
s0Rnn (GRU)                     (None, 25)           27450       concatenate_814[0][0]            
__________________________________________________________________________________________________
s1Rnn (GRU)                     (None, 25)           27450       concatenate_815[0][0]            
__________________________________________________________________________________________________
B_toksFlat (Flatten)            (None, 292)          0           B_toksEmb[0][0]                  
__________________________________________________________________________________________________
B_PosFlat (Flatten)             (None, 48)           0           B_PosEmb[0][0]                   
__________________________________________________________________________________________________
dropout_814 (Dropout)           (None, 25)           0           s0Rnn[0][0]                      
__________________________________________________________________________________________________
dropout_815 (Dropout)           (None, 25)           0           s1Rnn[0][0]                      
__________________________________________________________________________________________________
concatenate_816 (Concatenate)   (None, 390)          0           B_toksFlat[0][0]                 
                                                                 B_PosFlat[0][0]                  
                                                                 dropout_814[0][0]                
                                                                 dropout_815[0][0]                
__________________________________________________________________________________________________
dense_543 (Dense)               (None, 156)          60996       concatenate_816[0][0]            
__________________________________________________________________________________________________
dropout_816 (Dropout)           (None, 156)          0           dense_543[0][0]                  
__________________________________________________________________________________________________
dense_544 (Dense)               (None, 4)            628         dropout_816[0][0]                
==================================================================================================
Total params: 1,112,644
Trainable params: 1,112,644
Non-trainable params: 0
__________________________________________________________________________________________________
None
==================================================================================================
…
	Important sentence: 385
	Token occurrences: 27196
	MWE number: 418
	MWE occurrences: 510
	Continuous occurrences: 50.0 %
	MWE length: 2.07
	Seen occurrences : 43% 
	Recognizable MWEs: 100.0 %

==================================================================================================
__________________________________________________________________________________________________
Layer (type)                    Output Shape         Param #     Connected to                     
==================================================================================================
S0_toks (InputLayer)            (None, 4)            0                                            
__________________________________________________________________________________________________
S0_Pos (InputLayer)             (None, 4)            0                                            
__________________________________________________________________________________________________
S1_toks (InputLayer)            (None, 4)            0                                            
__________________________________________________________________________________________________
S1_Pos (InputLayer)             (None, 4)            0                                            
__________________________________________________________________________________________________
S0_toksEmb (Embedding)          (None, 4, 292)       632472      S0_toks[0][0]                    
__________________________________________________________________________________________________
S0_tPosEmb (Embedding)          (None, 4, 48)        672         S0_Pos[0][0]                     
__________________________________________________________________________________________________
S1_toksEmb (Embedding)          (None, 4, 292)       632472      S1_toks[0][0]                    
__________________________________________________________________________________________________
S1_PosEmb (Embedding)           (None, 4, 48)        672         S1_Pos[0][0]                     
__________________________________________________________________________________________________
B_toks (InputLayer)             (None, 1)            0                                            
__________________________________________________________________________________________________
B_Pos (InputLayer)              (None, 1)            0                                            
__________________________________________________________________________________________________
concatenate_817 (Concatenate)   (None, 4, 340)       0           S0_toksEmb[0][0]                 
                                                                 S0_tPosEmb[0][0]                 
__________________________________________________________________________________________________
concatenate_818 (Concatenate)   (None, 4, 340)       0           S1_toksEmb[0][0]                 
                                                                 S1_PosEmb[0][0]                  
__________________________________________________________________________________________________
B_toksEmb (Embedding)           (None, 1, 292)       632472      B_toks[0][0]                     
__________________________________________________________________________________________________
B_PosEmb (Embedding)            (None, 1, 48)        672         B_Pos[0][0]                      
__________________________________________________________________________________________________
s0Rnn (GRU)                     (None, 25)           27450       concatenate_817[0][0]            
__________________________________________________________________________________________________
s1Rnn (GRU)                     (None, 25)           27450       concatenate_818[0][0]            
__________________________________________________________________________________________________
B_toksFlat (Flatten)            (None, 292)          0           B_toksEmb[0][0]                  
__________________________________________________________________________________________________
B_PosFlat (Flatten)             (None, 48)           0           B_PosEmb[0][0]                   
__________________________________________________________________________________________________
dropout_817 (Dropout)           (None, 25)           0           s0Rnn[0][0]                      
__________________________________________________________________________________________________
dropout_818 (Dropout)           (None, 25)           0           s1Rnn[0][0]                      
__________________________________________________________________________________________________
concatenate_819 (Concatenate)   (None, 390)          0           B_toksFlat[0][0]                 
                                                                 B_PosFlat[0][0]                  
                                                                 dropout_817[0][0]                
                                                                 dropout_818[0][0]                
__________________________________________________________________________________________________
dense_545 (Dense)               (None, 156)          60996       concatenate_819[0][0]            
__________________________________________________________________________________________________
dropout_819 (Dropout)           (None, 156)          0           dense_545[0][0]                  
__________________________________________________________________________________________________
dense_546 (Dense)               (None, 4)            628         dropout_819[0][0]                
==================================================================================================
Total params: 2,015,956
Trainable params: 2,015,956
Non-trainable params: 0
__________________________________________________________________________________________________
None
==================================================================================================
…
	Token occurrences: 42020
	MWE number: 451
	MWE occurrences: 670
	Continuous occurrences: 75.0 %
	MWE length: 2.14
	Seen occurrences : 57% 
	Recognizable MWEs: 100.0 %
	MWT occurrences: 1

==================================================================================================
__________________________________________________________________________________________________
Layer (type)                    Output Shape         Param #     Connected to                     
==================================================================================================
S0_toks (InputLayer)            (None, 4)            0                                            
__________________________________________________________________________________________________
S0_Pos (InputLayer)             (None, 4)            0                                            
__________________________________________________________________________________________________
S1_toks (InputLayer)            (None, 4)            0                                            
__________________________________________________________________________________________________
S1_Pos (InputLayer)             (None, 4)            0                                            
__________________________________________________________________________________________________
S0_toksEmb (Embedding)          (None, 4, 117)       137826      S0_toks[0][0]                    
__________________________________________________________________________________________________
S0_tPosEmb (Embedding)          (None, 4, 15)        285         S0_Pos[0][0]                     
__________________________________________________________________________________________________
S1_toksEmb (Embedding)          (None, 4, 117)       137826      S1_toks[0][0]                    
__________________________________________________________________________________________________
S1_PosEmb (Embedding)           (None, 4, 15)        285         S1_Pos[0][0]                     
__________________________________________________________________________________________________
B_toks (InputLayer)             (None, 3)            0                                            
__________________________________________________________________________________________________
B_Pos (InputLayer)              (None, 3)            0                                            
__________________________________________________________________________________________________
concatenate_820 (Concatenate)   (None, 4, 132)       0           S0_toksEmb[0][0]                 
                                                                 S0_tPosEmb[0][0]                 
__________________________________________________________________________________________________
concatenate_821 (Concatenate)   (None, 4, 132)       0           S1_toksEmb[0][0]                 
                                                                 S1_PosEmb[0][0]                  
__________________________________________________________________________________________________
B_toksEmb (Embedding)           (None, 3, 117)       137826      B_toks[0][0]                     
__________________________________________________________________________________________________
B_PosEmb (Embedding)            (None, 3, 15)        285         B_Pos[0][0]                      
__________________________________________________________________________________________________
s0Rnn (LSTM)                    (None, 31)           20336       concatenate_820[0][0]            
__________________________________________________________________________________________________
s1Rnn (LSTM)                    (None, 31)           20336       concatenate_821[0][0]            
__________________________________________________________________________________________________
B_toksFlat (Flatten)            (None, 351)          0           B_toksEmb[0][0]                  
__________________________________________________________________________________________________
B_PosFlat (Flatten)             (None, 45)           0           B_PosEmb[0][0]                   
__________________________________________________________________________________________________
dropout_820 (Dropout)           (None, 31)           0           s0Rnn[0][0]                      
__________________________________________________________________________________________________
dropout_821 (Dropout)           (None, 31)           0           s1Rnn[0][0]                      
__________________________________________________________________________________________________
concatenate_822 (Concatenate)   (None, 458)          0           B_toksFlat[0][0]                 
                                                                 B_PosFlat[0][0]                  
                                                                 dropout_820[0][0]                
                                                                 dropout_821[0][0]                
__________________________________________________________________________________________________
dense_547 (Dense)               (None, 113)          51867       concatenate_822[0][0]            
__________________________________________________________________________________________________
dropout_822 (Dropout)           (None, 113)          0           dense_547[0][0]                  
__________________________________________________________________________________________________
dense_548 (Dense)               (None, 4)            456         dropout_822[0][0]                
==================================================================================================
Total params: 507,328
Trainable params: 507,328
Non-trainable params: 0
__________________________________________________________________________________________________
None
==================================================================================================
…
	MWE occurrences: 553
	Continuous occurrences: 59.0 %
	MWE length: 2.25
	Seen occurrences : 62% 
	Recognizable MWEs: 98.0 %
	Embedded occurrences: 4
	Interleaving occurrences: 8

==================================================================================================
__________________________________________________________________________________________________
Layer (type)                    Output Shape         Param #     Connected to                     
==================================================================================================
S0_toks (InputLayer)            (None, 4)            0                                            
__________________________________________________________________________________________________
S0_Pos (InputLayer)             (None, 4)            0                                            
__________________________________________________________________________________________________
S1_toks (InputLayer)            (None, 4)            0                                            
__________________________________________________________________________________________________
S1_Pos (InputLayer)             (None, 4)            0                                            
__________________________________________________________________________________________________
S0_toksEmb (Embedding)          (None, 4, 117)       132678      S0_toks[0][0]                    
__________________________________________________________________________________________________
S0_tPosEmb (Embedding)          (None, 4, 15)        285         S0_Pos[0][0]                     
__________________________________________________________________________________________________
S1_toksEmb (Embedding)          (None, 4, 117)       132678      S1_toks[0][0]                    
__________________________________________________________________________________________________
S1_PosEmb (Embedding)           (None, 4, 15)        285         S1_Pos[0][0]                     
__________________________________________________________________________________________________
B_toks (InputLayer)             (None, 3)            0                                            
__________________________________________________________________________________________________
B_Pos (InputLayer)              (None, 3)            0                                            
__________________________________________________________________________________________________
concatenate_823 (Concatenate)   (None, 4, 132)       0           S0_toksEmb[0][0]                 
                                                                 S0_tPosEmb[0][0]                 
__________________________________________________________________________________________________
concatenate_824 (Concatenate)   (None, 4, 132)       0           S1_toksEmb[0][0]                 
                                                                 S1_PosEmb[0][0]                  
__________________________________________________________________________________________________
B_toksEmb (Embedding)           (None, 3, 117)       132678      B_toks[0][0]                     
__________________________________________________________________________________________________
B_PosEmb (Embedding)            (None, 3, 15)        285         B_Pos[0][0]                      
__________________________________________________________________________________________________
s0Rnn (LSTM)                    (None, 31)           20336       concatenate_823[0][0]            
__________________________________________________________________________________________________
s1Rnn (LSTM)                    (None, 31)           20336       concatenate_824[0][0]            
__________________________________________________________________________________________________
B_toksFlat (Flatten)            (None, 351)          0           B_toksEmb[0][0]                  
__________________________________________________________________________________________________
B_PosFlat (Flatten)             (None, 45)           0           B_PosEmb[0][0]                   
__________________________________________________________________________________________________
dropout_823 (Dropout)           (None, 31)           0           s0Rnn[0][0]                      
__________________________________________________________________________________________________
dropout_824 (Dropout)           (None, 31)           0           s1Rnn[0][0]                      
__________________________________________________________________________________________________
concatenate_825 (Concatenate)   (None, 458)          0           B_toksFlat[0][0]                 
                                                                 B_PosFlat[0][0]                  
                                                                 dropout_823[0][0]                
                                                                 dropout_824[0][0]                
__________________________________________________________________________________________________
dense_549 (Dense)               (None, 113)          51867       concatenate_825[0][0]            
__________________________________________________________________________________________________
dropout_825 (Dropout)           (None, 113)          0           dense_549[0][0]                  
__________________________________________________________________________________________________
dense_550 (Dense)               (None, 4)            456         dropout_825[0][0]                
==================================================================================================
Total params: 491,884
Trainable params: 491,884
Non-trainable params: 0
__________________________________________________________________________________________________
None
==================================================================================================
…
	Important sentence: 385
	Token occurrences: 27196
	MWE number: 418
	MWE occurrences: 510
	Continuous occurrences: 50.0 %
	MWE length: 2.07
	Seen occurrences : 43% 
	Recognizable MWEs: 100.0 %

==================================================================================================
__________________________________________________________________________________________________
Layer (type)                    Output Shape         Param #     Connected to                     
==================================================================================================
S0_toks (InputLayer)            (None, 4)            0                                            
__________________________________________________________________________________________________
S0_Pos (InputLayer)             (None, 4)            0                                            
__________________________________________________________________________________________________
S1_toks (InputLayer)            (None, 4)            0                                            
__________________________________________________________________________________________________
S1_Pos (InputLayer)             (None, 4)            0                                            
__________________________________________________________________________________________________
S0_toksEmb (Embedding)          (None, 4, 117)       253422      S0_toks[0][0]                    
__________________________________________________________________________________________________
S0_tPosEmb (Embedding)          (None, 4, 15)        210         S0_Pos[0][0]                     
__________________________________________________________________________________________________
S1_toksEmb (Embedding)          (None, 4, 117)       253422      S1_toks[0][0]                    
__________________________________________________________________________________________________
S1_PosEmb (Embedding)           (None, 4, 15)        210         S1_Pos[0][0]                     
__________________________________________________________________________________________________
B_toks (InputLayer)             (None, 3)            0                                            
__________________________________________________________________________________________________
B_Pos (InputLayer)              (None, 3)            0                                            
__________________________________________________________________________________________________
concatenate_826 (Concatenate)   (None, 4, 132)       0           S0_toksEmb[0][0]                 
                                                                 S0_tPosEmb[0][0]                 
__________________________________________________________________________________________________
concatenate_827 (Concatenate)   (None, 4, 132)       0           S1_toksEmb[0][0]                 
                                                                 S1_PosEmb[0][0]                  
__________________________________________________________________________________________________
B_toksEmb (Embedding)           (None, 3, 117)       253422      B_toks[0][0]                     
__________________________________________________________________________________________________
B_PosEmb (Embedding)            (None, 3, 15)        210         B_Pos[0][0]                      
__________________________________________________________________________________________________
s0Rnn (LSTM)                    (None, 31)           20336       concatenate_826[0][0]            
__________________________________________________________________________________________________
s1Rnn (LSTM)                    (None, 31)           20336       concatenate_827[0][0]            
__________________________________________________________________________________________________
B_toksFlat (Flatten)            (None, 351)          0           B_toksEmb[0][0]                  
__________________________________________________________________________________________________
B_PosFlat (Flatten)             (None, 45)           0           B_PosEmb[0][0]                   
__________________________________________________________________________________________________
dropout_826 (Dropout)           (None, 31)           0           s0Rnn[0][0]                      
__________________________________________________________________________________________________
dropout_827 (Dropout)           (None, 31)           0           s1Rnn[0][0]                      
__________________________________________________________________________________________________
concatenate_828 (Concatenate)   (None, 458)          0           B_toksFlat[0][0]                 
                                                                 B_PosFlat[0][0]                  
                                                                 dropout_826[0][0]                
                                                                 dropout_827[0][0]                
__________________________________________________________________________________________________
dense_551 (Dense)               (None, 113)          51867       concatenate_828[0][0]            
__________________________________________________________________________________________________
dropout_828 (Dropout)           (None, 113)          0           dense_551[0][0]                  
__________________________________________________________________________________________________
dense_552 (Dense)               (None, 4)            456         dropout_828[0][0]                
==================================================================================================
Total params: 853,891
Trainable params: 853,891
Non-trainable params: 0
__________________________________________________________________________________________________
None
==================================================================================================
…
