…
	Token occurrences: 42020
	MWE number: 451
	MWE occurrences: 670
	Continuous occurrences: 75.0 %
	MWE length: 2.14
	Seen occurrences : 57% 
	Recognizable MWEs: 100.0 %
	MWT occurrences: 1

==================================================================================================
__________________________________________________________________________________________________
Layer (type)                    Output Shape         Param #     Connected to                     
==================================================================================================
S0_toks (InputLayer)            (None, 4)            0                                            
__________________________________________________________________________________________________
S0_Pos (InputLayer)             (None, 4)            0                                            
__________________________________________________________________________________________________
S1_toks (InputLayer)            (None, 4)            0                                            
__________________________________________________________________________________________________
S1_Pos (InputLayer)             (None, 4)            0                                            
__________________________________________________________________________________________________
S0_toksEmb (Embedding)          (None, 4, 333)       3105225     S0_toks[0][0]                    
__________________________________________________________________________________________________
S0_tPosEmb (Embedding)          (None, 4, 109)       2071        S0_Pos[0][0]                     
__________________________________________________________________________________________________
S1_toksEmb (Embedding)          (None, 4, 333)       3105225     S1_toks[0][0]                    
__________________________________________________________________________________________________
S1_PosEmb (Embedding)           (None, 4, 109)       2071        S1_Pos[0][0]                     
__________________________________________________________________________________________________
B_toks (InputLayer)             (None, 3)            0                                            
__________________________________________________________________________________________________
B_Pos (InputLayer)              (None, 3)            0                                            
__________________________________________________________________________________________________
concatenate_1 (Concatenate)     (None, 4, 442)       0           S0_toksEmb[0][0]                 
                                                                 S0_tPosEmb[0][0]                 
__________________________________________________________________________________________________
concatenate_2 (Concatenate)     (None, 4, 442)       0           S1_toksEmb[0][0]                 
                                                                 S1_PosEmb[0][0]                  
__________________________________________________________________________________________________
B_toksEmb (Embedding)           (None, 3, 333)       3105225     B_toks[0][0]                     
__________________________________________________________________________________________________
B_PosEmb (Embedding)            (None, 3, 109)       2071        B_Pos[0][0]                      
__________________________________________________________________________________________________
s0Rnn (LSTM)                    (None, 87)           184440      concatenate_1[0][0]              
__________________________________________________________________________________________________
s1Rnn (LSTM)                    (None, 87)           184440      concatenate_2[0][0]              
__________________________________________________________________________________________________
B_toksFlat (Flatten)            (None, 999)          0           B_toksEmb[0][0]                  
__________________________________________________________________________________________________
B_PosFlat (Flatten)             (None, 327)          0           B_PosEmb[0][0]                   
__________________________________________________________________________________________________
dropout_1 (Dropout)             (None, 87)           0           s0Rnn[0][0]                      
__________________________________________________________________________________________________
dropout_2 (Dropout)             (None, 87)           0           s1Rnn[0][0]                      
__________________________________________________________________________________________________
concatenate_3 (Concatenate)     (None, 1500)         0           B_toksFlat[0][0]                 
                                                                 B_PosFlat[0][0]                  
                                                                 dropout_1[0][0]                  
                                                                 dropout_2[0][0]                  
__________________________________________________________________________________________________
dense_1 (Dense)                 (None, 190)          285190      concatenate_3[0][0]              
__________________________________________________________________________________________________
dropout_3 (Dropout)             (None, 190)          0           dense_1[0][0]                    
__________________________________________________________________________________________________
dense_2 (Dense)                 (None, 4)            764         dropout_3[0][0]                  
==================================================================================================
Total params: 9,976,722
Trainable params: 9,976,722
Non-trainable params: 0
__________________________________________________________________________________________________
None
==================================================================================================
…
	Token occurrences: 42020
	MWE number: 451
	MWE occurrences: 670
	Continuous occurrences: 75.0 %
	MWE length: 2.14
	Seen occurrences : 57% 
	Recognizable MWEs: 100.0 %
	MWT occurrences: 1

==================================================================================================
__________________________________________________________________________________________________
Layer (type)                    Output Shape         Param #     Connected to                     
==================================================================================================
S0_toks (InputLayer)            (None, 4)            0                                            
__________________________________________________________________________________________________
S0_Pos (InputLayer)             (None, 4)            0                                            
__________________________________________________________________________________________________
S1_toks (InputLayer)            (None, 4)            0                                            
__________________________________________________________________________________________________
S1_Pos (InputLayer)             (None, 4)            0                                            
__________________________________________________________________________________________________
S0_toksEmb (Embedding)          (None, 4, 300)       1777800     S0_toks[0][0]                    
__________________________________________________________________________________________________
S0_tPosEmb (Embedding)          (None, 4, 101)       1919        S0_Pos[0][0]                     
__________________________________________________________________________________________________
S1_toksEmb (Embedding)          (None, 4, 300)       1777800     S1_toks[0][0]                    
__________________________________________________________________________________________________
S1_PosEmb (Embedding)           (None, 4, 101)       1919        S1_Pos[0][0]                     
__________________________________________________________________________________________________
B_toks (InputLayer)             (None, 3)            0                                            
__________________________________________________________________________________________________
B_Pos (InputLayer)              (None, 3)            0                                            
__________________________________________________________________________________________________
concatenate_4 (Concatenate)     (None, 4, 401)       0           S0_toksEmb[0][0]                 
                                                                 S0_tPosEmb[0][0]                 
__________________________________________________________________________________________________
concatenate_5 (Concatenate)     (None, 4, 401)       0           S1_toksEmb[0][0]                 
                                                                 S1_PosEmb[0][0]                  
__________________________________________________________________________________________________
B_toksEmb (Embedding)           (None, 3, 300)       1777800     B_toks[0][0]                     
__________________________________________________________________________________________________
B_PosEmb (Embedding)            (None, 3, 101)       1919        B_Pos[0][0]                      
__________________________________________________________________________________________________
s0Rnn (LSTM)                    (None, 36)           63072       concatenate_4[0][0]              
__________________________________________________________________________________________________
s1Rnn (LSTM)                    (None, 36)           63072       concatenate_5[0][0]              
__________________________________________________________________________________________________
B_toksFlat (Flatten)            (None, 900)          0           B_toksEmb[0][0]                  
__________________________________________________________________________________________________
B_PosFlat (Flatten)             (None, 303)          0           B_PosEmb[0][0]                   
__________________________________________________________________________________________________
dropout_4 (Dropout)             (None, 36)           0           s0Rnn[0][0]                      
__________________________________________________________________________________________________
dropout_5 (Dropout)             (None, 36)           0           s1Rnn[0][0]                      
__________________________________________________________________________________________________
concatenate_6 (Concatenate)     (None, 1275)         0           B_toksFlat[0][0]                 
                                                                 B_PosFlat[0][0]                  
                                                                 dropout_4[0][0]                  
                                                                 dropout_5[0][0]                  
__________________________________________________________________________________________________
dense_3 (Dense)                 (None, 111)          141636      concatenate_6[0][0]              
__________________________________________________________________________________________________
dropout_6 (Dropout)             (None, 111)          0           dense_3[0][0]                    
__________________________________________________________________________________________________
dense_4 (Dense)                 (None, 4)            448         dropout_6[0][0]                  
==================================================================================================
Total params: 5,607,385
Trainable params: 5,607,385
Non-trainable params: 0
__________________________________________________________________________________________________
None
==================================================================================================
…
	Token occurrences: 42020
	MWE number: 451
	MWE occurrences: 670
	Continuous occurrences: 75.0 %
	MWE length: 2.14
	Seen occurrences : 57% 
	Recognizable MWEs: 100.0 %
	MWT occurrences: 1

==================================================================================================
__________________________________________________________________________________________________
Layer (type)                    Output Shape         Param #     Connected to                     
==================================================================================================
S0_toks (InputLayer)            (None, 4)            0                                            
__________________________________________________________________________________________________
S0_Pos (InputLayer)             (None, 4)            0                                            
__________________________________________________________________________________________________
S1_toks (InputLayer)            (None, 4)            0                                            
__________________________________________________________________________________________________
S1_Pos (InputLayer)             (None, 4)            0                                            
__________________________________________________________________________________________________
S0_toksEmb (Embedding)          (None, 4, 300)       1777800     S0_toks[0][0]                    
__________________________________________________________________________________________________
S0_tPosEmb (Embedding)          (None, 4, 93)        1767        S0_Pos[0][0]                     
__________________________________________________________________________________________________
S1_toksEmb (Embedding)          (None, 4, 300)       1777800     S1_toks[0][0]                    
__________________________________________________________________________________________________
S1_PosEmb (Embedding)           (None, 4, 93)        1767        S1_Pos[0][0]                     
__________________________________________________________________________________________________
B_toks (InputLayer)             (None, 3)            0                                            
__________________________________________________________________________________________________
B_Pos (InputLayer)              (None, 3)            0                                            
__________________________________________________________________________________________________
concatenate_7 (Concatenate)     (None, 4, 393)       0           S0_toksEmb[0][0]                 
                                                                 S0_tPosEmb[0][0]                 
__________________________________________________________________________________________________
concatenate_8 (Concatenate)     (None, 4, 393)       0           S1_toksEmb[0][0]                 
                                                                 S1_PosEmb[0][0]                  
__________________________________________________________________________________________________
B_toksEmb (Embedding)           (None, 3, 300)       1777800     B_toks[0][0]                     
__________________________________________________________________________________________________
B_PosEmb (Embedding)            (None, 3, 93)        1767        B_Pos[0][0]                      
__________________________________________________________________________________________________
s0Rnn (GRU)                     (None, 83)           118773      concatenate_7[0][0]              
__________________________________________________________________________________________________
s1Rnn (GRU)                     (None, 83)           118773      concatenate_8[0][0]              
__________________________________________________________________________________________________
B_toksFlat (Flatten)            (None, 900)          0           B_toksEmb[0][0]                  
__________________________________________________________________________________________________
B_PosFlat (Flatten)             (None, 279)          0           B_PosEmb[0][0]                   
__________________________________________________________________________________________________
dropout_7 (Dropout)             (None, 83)           0           s0Rnn[0][0]                      
__________________________________________________________________________________________________
dropout_8 (Dropout)             (None, 83)           0           s1Rnn[0][0]                      
__________________________________________________________________________________________________
concatenate_9 (Concatenate)     (None, 1345)         0           B_toksFlat[0][0]                 
                                                                 B_PosFlat[0][0]                  
                                                                 dropout_7[0][0]                  
                                                                 dropout_8[0][0]                  
__________________________________________________________________________________________________
dense_5 (Dense)                 (None, 27)           36342       concatenate_9[0][0]              
__________________________________________________________________________________________________
dropout_9 (Dropout)             (None, 27)           0           dense_5[0][0]                    
__________________________________________________________________________________________________
dense_6 (Dense)                 (None, 4)            112         dropout_9[0][0]                  
==================================================================================================
Total params: 5,612,701
Trainable params: 5,612,701
Non-trainable params: 0
__________________________________________________________________________________________________
None
==================================================================================================
…
	Token occurrences: 42020
	MWE number: 451
	MWE occurrences: 670
	Continuous occurrences: 75.0 %
	MWE length: 2.14
	Seen occurrences : 57% 
	Recognizable MWEs: 100.0 %
	MWT occurrences: 1

==================================================================================================
__________________________________________________________________________________________________
Layer (type)                    Output Shape         Param #     Connected to                     
==================================================================================================
S0_toks (InputLayer)            (None, 4)            0                                            
__________________________________________________________________________________________________
S0_Pos (InputLayer)             (None, 4)            0                                            
__________________________________________________________________________________________________
S1_toks (InputLayer)            (None, 4)            0                                            
__________________________________________________________________________________________________
S1_Pos (InputLayer)             (None, 4)            0                                            
__________________________________________________________________________________________________
S0_toksEmb (Embedding)          (None, 4, 300)       2797500     S0_toks[0][0]                    
__________________________________________________________________________________________________
S0_tPosEmb (Embedding)          (None, 4, 36)        684         S0_Pos[0][0]                     
__________________________________________________________________________________________________
S1_toksEmb (Embedding)          (None, 4, 300)       2797500     S1_toks[0][0]                    
__________________________________________________________________________________________________
S1_PosEmb (Embedding)           (None, 4, 36)        684         S1_Pos[0][0]                     
__________________________________________________________________________________________________
B_toks (InputLayer)             (None, 2)            0                                            
__________________________________________________________________________________________________
B_Pos (InputLayer)              (None, 2)            0                                            
__________________________________________________________________________________________________
concatenate_10 (Concatenate)    (None, 4, 336)       0           S0_toksEmb[0][0]                 
                                                                 S0_tPosEmb[0][0]                 
__________________________________________________________________________________________________
concatenate_11 (Concatenate)    (None, 4, 336)       0           S1_toksEmb[0][0]                 
                                                                 S1_PosEmb[0][0]                  
__________________________________________________________________________________________________
B_toksEmb (Embedding)           (None, 2, 300)       2797500     B_toks[0][0]                     
__________________________________________________________________________________________________
B_PosEmb (Embedding)            (None, 2, 36)        684         B_Pos[0][0]                      
__________________________________________________________________________________________________
s0Rnn (GRU)                     (None, 29)           31842       concatenate_10[0][0]             
__________________________________________________________________________________________________
s1Rnn (GRU)                     (None, 29)           31842       concatenate_11[0][0]             
__________________________________________________________________________________________________
B_toksFlat (Flatten)            (None, 600)          0           B_toksEmb[0][0]                  
__________________________________________________________________________________________________
B_PosFlat (Flatten)             (None, 72)           0           B_PosEmb[0][0]                   
__________________________________________________________________________________________________
dropout_10 (Dropout)            (None, 29)           0           s0Rnn[0][0]                      
__________________________________________________________________________________________________
dropout_11 (Dropout)            (None, 29)           0           s1Rnn[0][0]                      
__________________________________________________________________________________________________
concatenate_12 (Concatenate)    (None, 730)          0           B_toksFlat[0][0]                 
                                                                 B_PosFlat[0][0]                  
                                                                 dropout_10[0][0]                 
                                                                 dropout_11[0][0]                 
__________________________________________________________________________________________________
dense_7 (Dense)                 (None, 206)          150586      concatenate_12[0][0]             
__________________________________________________________________________________________________
dropout_12 (Dropout)            (None, 206)          0           dense_7[0][0]                    
__________________________________________________________________________________________________
dense_8 (Dense)                 (None, 4)            828         dropout_12[0][0]                 
==================================================================================================
Total params: 8,609,650
Trainable params: 8,609,650
Non-trainable params: 0
__________________________________________________________________________________________________
None
==================================================================================================
…
	Token occurrences: 42020
	MWE number: 451
	MWE occurrences: 670
	Continuous occurrences: 75.0 %
	MWE length: 2.14
	Seen occurrences : 57% 
	Recognizable MWEs: 100.0 %
	MWT occurrences: 1

==================================================================================================
__________________________________________________________________________________________________
Layer (type)                    Output Shape         Param #     Connected to                     
==================================================================================================
S0_toks (InputLayer)            (None, 4)            0                                            
__________________________________________________________________________________________________
S0_Pos (InputLayer)             (None, 4)            0                                            
__________________________________________________________________________________________________
S1_toks (InputLayer)            (None, 4)            0                                            
__________________________________________________________________________________________________
S1_Pos (InputLayer)             (None, 4)            0                                            
__________________________________________________________________________________________________
S0_toksEmb (Embedding)          (None, 4, 253)       298034      S0_toks[0][0]                    
__________________________________________________________________________________________________
S0_tPosEmb (Embedding)          (None, 4, 16)        304         S0_Pos[0][0]                     
__________________________________________________________________________________________________
S1_toksEmb (Embedding)          (None, 4, 253)       298034      S1_toks[0][0]                    
__________________________________________________________________________________________________
S1_PosEmb (Embedding)           (None, 4, 16)        304         S1_Pos[0][0]                     
__________________________________________________________________________________________________
B_toks (InputLayer)             (None, 3)            0                                            
__________________________________________________________________________________________________
B_Pos (InputLayer)              (None, 3)            0                                            
__________________________________________________________________________________________________
concatenate_13 (Concatenate)    (None, 4, 269)       0           S0_toksEmb[0][0]                 
                                                                 S0_tPosEmb[0][0]                 
__________________________________________________________________________________________________
concatenate_14 (Concatenate)    (None, 4, 269)       0           S1_toksEmb[0][0]                 
                                                                 S1_PosEmb[0][0]                  
__________________________________________________________________________________________________
B_toksEmb (Embedding)           (None, 3, 253)       298034      B_toks[0][0]                     
__________________________________________________________________________________________________
B_PosEmb (Embedding)            (None, 3, 16)        304         B_Pos[0][0]                      
__________________________________________________________________________________________________
s0Rnn (GRU)                     (None, 28)           25032       concatenate_13[0][0]             
__________________________________________________________________________________________________
s1Rnn (GRU)                     (None, 28)           25032       concatenate_14[0][0]             
__________________________________________________________________________________________________
B_toksFlat (Flatten)            (None, 759)          0           B_toksEmb[0][0]                  
__________________________________________________________________________________________________
B_PosFlat (Flatten)             (None, 48)           0           B_PosEmb[0][0]                   
__________________________________________________________________________________________________
dropout_13 (Dropout)            (None, 28)           0           s0Rnn[0][0]                      
__________________________________________________________________________________________________
dropout_14 (Dropout)            (None, 28)           0           s1Rnn[0][0]                      
__________________________________________________________________________________________________
concatenate_15 (Concatenate)    (None, 863)          0           B_toksFlat[0][0]                 
                                                                 B_PosFlat[0][0]                  
                                                                 dropout_13[0][0]                 
                                                                 dropout_14[0][0]                 
__________________________________________________________________________________________________
dense_9 (Dense)                 (None, 83)           71712       concatenate_15[0][0]             
__________________________________________________________________________________________________
dropout_15 (Dropout)            (None, 83)           0           dense_9[0][0]                    
__________________________________________________________________________________________________
dense_10 (Dense)                (None, 4)            336         dropout_15[0][0]                 
==================================================================================================
Total params: 1,017,126
Trainable params: 1,017,126
Non-trainable params: 0
__________________________________________________________________________________________________
None
==================================================================================================
…
	Token occurrences: 42020
	MWE number: 451
	MWE occurrences: 670
	Continuous occurrences: 75.0 %
	MWE length: 2.14
	Seen occurrences : 57% 
	Recognizable MWEs: 100.0 %
	MWT occurrences: 1

==================================================================================================
__________________________________________________________________________________________________
Layer (type)                    Output Shape         Param #     Connected to                     
==================================================================================================
S0_toks (InputLayer)            (None, 4)            0                                            
__________________________________________________________________________________________________
S0_Pos (InputLayer)             (None, 4)            0                                            
__________________________________________________________________________________________________
S1_toks (InputLayer)            (None, 4)            0                                            
__________________________________________________________________________________________________
S1_Pos (InputLayer)             (None, 4)            0                                            
__________________________________________________________________________________________________
S0_toksEmb (Embedding)          (None, 4, 300)       1777800     S0_toks[0][0]                    
__________________________________________________________________________________________________
S0_tPosEmb (Embedding)          (None, 4, 29)        551         S0_Pos[0][0]                     
__________________________________________________________________________________________________
S1_toksEmb (Embedding)          (None, 4, 300)       1777800     S1_toks[0][0]                    
__________________________________________________________________________________________________
S1_PosEmb (Embedding)           (None, 4, 29)        551         S1_Pos[0][0]                     
__________________________________________________________________________________________________
B_toks (InputLayer)             (None, 2)            0                                            
__________________________________________________________________________________________________
B_Pos (InputLayer)              (None, 2)            0                                            
__________________________________________________________________________________________________
concatenate_16 (Concatenate)    (None, 4, 329)       0           S0_toksEmb[0][0]                 
                                                                 S0_tPosEmb[0][0]                 
__________________________________________________________________________________________________
concatenate_17 (Concatenate)    (None, 4, 329)       0           S1_toksEmb[0][0]                 
                                                                 S1_PosEmb[0][0]                  
__________________________________________________________________________________________________
B_toksEmb (Embedding)           (None, 2, 300)       1777800     B_toks[0][0]                     
__________________________________________________________________________________________________
B_PosEmb (Embedding)            (None, 2, 29)        551         B_Pos[0][0]                      
__________________________________________________________________________________________________
s0Rnn (GRU)                     (None, 191)          298533      concatenate_16[0][0]             
__________________________________________________________________________________________________
s1Rnn (GRU)                     (None, 191)          298533      concatenate_17[0][0]             
__________________________________________________________________________________________________
B_toksFlat (Flatten)            (None, 600)          0           B_toksEmb[0][0]                  
__________________________________________________________________________________________________
B_PosFlat (Flatten)             (None, 58)           0           B_PosEmb[0][0]                   
__________________________________________________________________________________________________
dropout_16 (Dropout)            (None, 191)          0           s0Rnn[0][0]                      
__________________________________________________________________________________________________
dropout_17 (Dropout)            (None, 191)          0           s1Rnn[0][0]                      
__________________________________________________________________________________________________
concatenate_18 (Concatenate)    (None, 1040)         0           B_toksFlat[0][0]                 
                                                                 B_PosFlat[0][0]                  
                                                                 dropout_16[0][0]                 
                                                                 dropout_17[0][0]                 
__________________________________________________________________________________________________
dense_11 (Dense)                (None, 524)          545484      concatenate_18[0][0]             
__________________________________________________________________________________________________
dropout_18 (Dropout)            (None, 524)          0           dense_11[0][0]                   
__________________________________________________________________________________________________
dense_12 (Dense)                (None, 4)            2100        dropout_18[0][0]                 
==================================================================================================
Total params: 6,479,703
Trainable params: 6,479,703
Non-trainable params: 0
__________________________________________________________________________________________________
None
==================================================================================================
…
	Token occurrences: 42020
	MWE number: 451
	MWE occurrences: 670
	Continuous occurrences: 75.0 %
	MWE length: 2.14
	Seen occurrences : 57% 
	Recognizable MWEs: 100.0 %
	MWT occurrences: 1

==================================================================================================
__________________________________________________________________________________________________
Layer (type)                    Output Shape         Param #     Connected to                     
==================================================================================================
S0_toks (InputLayer)            (None, 4)            0                                            
__________________________________________________________________________________________________
S0_Pos (InputLayer)             (None, 4)            0                                            
__________________________________________________________________________________________________
S1_toks (InputLayer)            (None, 4)            0                                            
__________________________________________________________________________________________________
S1_Pos (InputLayer)             (None, 4)            0                                            
__________________________________________________________________________________________________
S0_toksEmb (Embedding)          (None, 4, 300)       150900      S0_toks[0][0]                    
__________________________________________________________________________________________________
S0_tPosEmb (Embedding)          (None, 4, 18)        342         S0_Pos[0][0]                     
__________________________________________________________________________________________________
S1_toksEmb (Embedding)          (None, 4, 300)       150900      S1_toks[0][0]                    
__________________________________________________________________________________________________
S1_PosEmb (Embedding)           (None, 4, 18)        342         S1_Pos[0][0]                     
__________________________________________________________________________________________________
B_toks (InputLayer)             (None, 2)            0                                            
__________________________________________________________________________________________________
B_Pos (InputLayer)              (None, 2)            0                                            
__________________________________________________________________________________________________
concatenate_19 (Concatenate)    (None, 4, 318)       0           S0_toksEmb[0][0]                 
                                                                 S0_tPosEmb[0][0]                 
__________________________________________________________________________________________________
concatenate_20 (Concatenate)    (None, 4, 318)       0           S1_toksEmb[0][0]                 
                                                                 S1_PosEmb[0][0]                  
__________________________________________________________________________________________________
B_toksEmb (Embedding)           (None, 2, 300)       150900      B_toks[0][0]                     
__________________________________________________________________________________________________
B_PosEmb (Embedding)            (None, 2, 18)        342         B_Pos[0][0]                      
__________________________________________________________________________________________________
s0Rnn (GRU)                     (None, 48)           52848       concatenate_19[0][0]             
__________________________________________________________________________________________________
s1Rnn (GRU)                     (None, 48)           52848       concatenate_20[0][0]             
__________________________________________________________________________________________________
B_toksFlat (Flatten)            (None, 600)          0           B_toksEmb[0][0]                  
__________________________________________________________________________________________________
B_PosFlat (Flatten)             (None, 36)           0           B_PosEmb[0][0]                   
__________________________________________________________________________________________________
dropout_19 (Dropout)            (None, 48)           0           s0Rnn[0][0]                      
__________________________________________________________________________________________________
dropout_20 (Dropout)            (None, 48)           0           s1Rnn[0][0]                      
__________________________________________________________________________________________________
concatenate_21 (Concatenate)    (None, 732)          0           B_toksFlat[0][0]                 
                                                                 B_PosFlat[0][0]                  
                                                                 dropout_19[0][0]                 
                                                                 dropout_20[0][0]                 
__________________________________________________________________________________________________
dense_13 (Dense)                (None, 174)          127542      concatenate_21[0][0]             
__________________________________________________________________________________________________
dropout_21 (Dropout)            (None, 174)          0           dense_13[0][0]                   
__________________________________________________________________________________________________
dense_14 (Dense)                (None, 4)            700         dropout_21[0][0]                 
==================================================================================================
Total params: 687,664
Trainable params: 687,664
Non-trainable params: 0
__________________________________________________________________________________________________
None
==================================================================================================
…
	Token occurrences: 42020
	MWE number: 451
	MWE occurrences: 670
	Continuous occurrences: 75.0 %
	MWE length: 2.14
	Seen occurrences : 57% 
	Recognizable MWEs: 100.0 %
	MWT occurrences: 1

==================================================================================================
__________________________________________________________________________________________________
Layer (type)                    Output Shape         Param #     Connected to                     
==================================================================================================
S0_toks (InputLayer)            (None, 4)            0                                            
__________________________________________________________________________________________________
S0_Pos (InputLayer)             (None, 4)            0                                            
__________________________________________________________________________________________________
S1_toks (InputLayer)            (None, 4)            0                                            
__________________________________________________________________________________________________
S1_Pos (InputLayer)             (None, 4)            0                                            
__________________________________________________________________________________________________
S0_toksEmb (Embedding)          (None, 4, 583)       3454858     S0_toks[0][0]                    
__________________________________________________________________________________________________
S0_tPosEmb (Embedding)          (None, 4, 36)        684         S0_Pos[0][0]                     
__________________________________________________________________________________________________
S1_toksEmb (Embedding)          (None, 4, 583)       3454858     S1_toks[0][0]                    
__________________________________________________________________________________________________
S1_PosEmb (Embedding)           (None, 4, 36)        684         S1_Pos[0][0]                     
__________________________________________________________________________________________________
B_toks (InputLayer)             (None, 3)            0                                            
__________________________________________________________________________________________________
B_Pos (InputLayer)              (None, 3)            0                                            
__________________________________________________________________________________________________
concatenate_22 (Concatenate)    (None, 4, 619)       0           S0_toksEmb[0][0]                 
                                                                 S0_tPosEmb[0][0]                 
__________________________________________________________________________________________________
concatenate_23 (Concatenate)    (None, 4, 619)       0           S1_toksEmb[0][0]                 
                                                                 S1_PosEmb[0][0]                  
__________________________________________________________________________________________________
B_toksEmb (Embedding)           (None, 3, 583)       3454858     B_toks[0][0]                     
__________________________________________________________________________________________________
B_PosEmb (Embedding)            (None, 3, 36)        684         B_Pos[0][0]                      
__________________________________________________________________________________________________
s0Rnn (LSTM)                    (None, 34)           88944       concatenate_22[0][0]             
__________________________________________________________________________________________________
s1Rnn (LSTM)                    (None, 34)           88944       concatenate_23[0][0]             
__________________________________________________________________________________________________
B_toksFlat (Flatten)            (None, 1749)         0           B_toksEmb[0][0]                  
__________________________________________________________________________________________________
B_PosFlat (Flatten)             (None, 108)          0           B_PosEmb[0][0]                   
__________________________________________________________________________________________________
dropout_22 (Dropout)            (None, 34)           0           s0Rnn[0][0]                      
__________________________________________________________________________________________________
dropout_23 (Dropout)            (None, 34)           0           s1Rnn[0][0]                      
__________________________________________________________________________________________________
concatenate_24 (Concatenate)    (None, 1925)         0           B_toksFlat[0][0]                 
                                                                 B_PosFlat[0][0]                  
                                                                 dropout_22[0][0]                 
                                                                 dropout_23[0][0]                 
__________________________________________________________________________________________________
dense_15 (Dense)                (None, 43)           82818       concatenate_24[0][0]             
__________________________________________________________________________________________________
dropout_24 (Dropout)            (None, 43)           0           dense_15[0][0]                   
__________________________________________________________________________________________________
dense_16 (Dense)                (None, 4)            176         dropout_24[0][0]                 
==================================================================================================
Total params: 10,627,508
Trainable params: 10,627,508
Non-trainable params: 0
__________________________________________________________________________________________________
None
==================================================================================================
…
	Token occurrences: 42020
	MWE number: 451
	MWE occurrences: 670
	Continuous occurrences: 75.0 %
	MWE length: 2.14
	Seen occurrences : 57% 
	Recognizable MWEs: 100.0 %
	MWT occurrences: 1

==================================================================================================
__________________________________________________________________________________________________
Layer (type)                    Output Shape         Param #     Connected to                     
==================================================================================================
S0_toks (InputLayer)            (None, 4)            0                                            
__________________________________________________________________________________________________
S0_Pos (InputLayer)             (None, 4)            0                                            
__________________________________________________________________________________________________
S1_toks (InputLayer)            (None, 4)            0                                            
__________________________________________________________________________________________________
S1_Pos (InputLayer)             (None, 4)            0                                            
__________________________________________________________________________________________________
S0_toksEmb (Embedding)          (None, 4, 300)       1777800     S0_toks[0][0]                    
__________________________________________________________________________________________________
S0_tPosEmb (Embedding)          (None, 4, 20)        380         S0_Pos[0][0]                     
__________________________________________________________________________________________________
S1_toksEmb (Embedding)          (None, 4, 300)       1777800     S1_toks[0][0]                    
__________________________________________________________________________________________________
S1_PosEmb (Embedding)           (None, 4, 20)        380         S1_Pos[0][0]                     
__________________________________________________________________________________________________
B_toks (InputLayer)             (None, 2)            0                                            
__________________________________________________________________________________________________
B_Pos (InputLayer)              (None, 2)            0                                            
__________________________________________________________________________________________________
concatenate_25 (Concatenate)    (None, 4, 320)       0           S0_toksEmb[0][0]                 
                                                                 S0_tPosEmb[0][0]                 
__________________________________________________________________________________________________
concatenate_26 (Concatenate)    (None, 4, 320)       0           S1_toksEmb[0][0]                 
                                                                 S1_PosEmb[0][0]                  
__________________________________________________________________________________________________
B_toksEmb (Embedding)           (None, 2, 300)       1777800     B_toks[0][0]                     
__________________________________________________________________________________________________
B_PosEmb (Embedding)            (None, 2, 20)        380         B_Pos[0][0]                      
__________________________________________________________________________________________________
s0Rnn (GRU)                     (None, 49)           54390       concatenate_25[0][0]             
__________________________________________________________________________________________________
s1Rnn (GRU)                     (None, 49)           54390       concatenate_26[0][0]             
__________________________________________________________________________________________________
B_toksFlat (Flatten)            (None, 600)          0           B_toksEmb[0][0]                  
__________________________________________________________________________________________________
B_PosFlat (Flatten)             (None, 40)           0           B_PosEmb[0][0]                   
__________________________________________________________________________________________________
dropout_25 (Dropout)            (None, 49)           0           s0Rnn[0][0]                      
__________________________________________________________________________________________________
dropout_26 (Dropout)            (None, 49)           0           s1Rnn[0][0]                      
__________________________________________________________________________________________________
concatenate_27 (Concatenate)    (None, 738)          0           B_toksFlat[0][0]                 
                                                                 B_PosFlat[0][0]                  
                                                                 dropout_25[0][0]                 
                                                                 dropout_26[0][0]                 
__________________________________________________________________________________________________
dense_17 (Dense)                (None, 421)          311119      concatenate_27[0][0]             
__________________________________________________________________________________________________
dropout_27 (Dropout)            (None, 421)          0           dense_17[0][0]                   
__________________________________________________________________________________________________
dense_18 (Dense)                (None, 4)            1688        dropout_27[0][0]                 
==================================================================================================
Total params: 5,756,127
Trainable params: 5,756,127
Non-trainable params: 0
__________________________________________________________________________________________________
None
==================================================================================================
…
	Token occurrences: 42020
	MWE number: 451
	MWE occurrences: 670
	Continuous occurrences: 75.0 %
	MWE length: 2.14
	Seen occurrences : 57% 
	Recognizable MWEs: 100.0 %
	MWT occurrences: 1

==================================================================================================
__________________________________________________________________________________________________
Layer (type)                    Output Shape         Param #     Connected to                     
==================================================================================================
S0_toks (InputLayer)            (None, 4)            0                                            
__________________________________________________________________________________________________
S0_Pos (InputLayer)             (None, 4)            0                                            
__________________________________________________________________________________________________
S1_toks (InputLayer)            (None, 4)            0                                            
__________________________________________________________________________________________________
S1_Pos (InputLayer)             (None, 4)            0                                            
__________________________________________________________________________________________________
S0_toksEmb (Embedding)          (None, 4, 140)       164920      S0_toks[0][0]                    
__________________________________________________________________________________________________
S0_tPosEmb (Embedding)          (None, 4, 76)        1444        S0_Pos[0][0]                     
__________________________________________________________________________________________________
S1_toksEmb (Embedding)          (None, 4, 140)       164920      S1_toks[0][0]                    
__________________________________________________________________________________________________
S1_PosEmb (Embedding)           (None, 4, 76)        1444        S1_Pos[0][0]                     
__________________________________________________________________________________________________
B_toks (InputLayer)             (None, 3)            0                                            
__________________________________________________________________________________________________
B_Pos (InputLayer)              (None, 3)            0                                            
__________________________________________________________________________________________________
concatenate_28 (Concatenate)    (None, 4, 216)       0           S0_toksEmb[0][0]                 
                                                                 S0_tPosEmb[0][0]                 
__________________________________________________________________________________________________
concatenate_29 (Concatenate)    (None, 4, 216)       0           S1_toksEmb[0][0]                 
                                                                 S1_PosEmb[0][0]                  
__________________________________________________________________________________________________
B_toksEmb (Embedding)           (None, 3, 140)       164920      B_toks[0][0]                     
__________________________________________________________________________________________________
B_PosEmb (Embedding)            (None, 3, 76)        1444        B_Pos[0][0]                      
__________________________________________________________________________________________________
s0Rnn (GRU)                     (None, 92)           85284       concatenate_28[0][0]             
__________________________________________________________________________________________________
s1Rnn (GRU)                     (None, 92)           85284       concatenate_29[0][0]             
__________________________________________________________________________________________________
B_toksFlat (Flatten)            (None, 420)          0           B_toksEmb[0][0]                  
__________________________________________________________________________________________________
B_PosFlat (Flatten)             (None, 228)          0           B_PosEmb[0][0]                   
__________________________________________________________________________________________________
dropout_28 (Dropout)            (None, 92)           0           s0Rnn[0][0]                      
__________________________________________________________________________________________________
dropout_29 (Dropout)            (None, 92)           0           s1Rnn[0][0]                      
__________________________________________________________________________________________________
concatenate_30 (Concatenate)    (None, 832)          0           B_toksFlat[0][0]                 
                                                                 B_PosFlat[0][0]                  
                                                                 dropout_28[0][0]                 
                                                                 dropout_29[0][0]                 
__________________________________________________________________________________________________
dense_19 (Dense)                (None, 272)          226576      concatenate_30[0][0]             
__________________________________________________________________________________________________
dropout_30 (Dropout)            (None, 272)          0           dense_19[0][0]                   
__________________________________________________________________________________________________
dense_20 (Dense)                (None, 4)            1092        dropout_30[0][0]                 
==================================================================================================
Total params: 897,328
Trainable params: 897,328
Non-trainable params: 0
__________________________________________________________________________________________________
None
==================================================================================================
…
	Token occurrences: 42020
	MWE number: 451
	MWE occurrences: 670
	Continuous occurrences: 75.0 %
	MWE length: 2.14
	Seen occurrences : 57% 
	Recognizable MWEs: 100.0 %
	MWT occurrences: 1

==================================================================================================
__________________________________________________________________________________________________
Layer (type)                    Output Shape         Param #     Connected to                     
==================================================================================================
S0_toks (InputLayer)            (None, 4)            0                                            
__________________________________________________________________________________________________
S0_Pos (InputLayer)             (None, 4)            0                                            
__________________________________________________________________________________________________
S1_toks (InputLayer)            (None, 4)            0                                            
__________________________________________________________________________________________________
S1_Pos (InputLayer)             (None, 4)            0                                            
__________________________________________________________________________________________________
S0_toksEmb (Embedding)          (None, 4, 205)       1911625     S0_toks[0][0]                    
__________________________________________________________________________________________________
S0_tPosEmb (Embedding)          (None, 4, 19)        361         S0_Pos[0][0]                     
__________________________________________________________________________________________________
S1_toksEmb (Embedding)          (None, 4, 205)       1911625     S1_toks[0][0]                    
__________________________________________________________________________________________________
S1_PosEmb (Embedding)           (None, 4, 19)        361         S1_Pos[0][0]                     
__________________________________________________________________________________________________
B_toks (InputLayer)             (None, 2)            0                                            
__________________________________________________________________________________________________
B_Pos (InputLayer)              (None, 2)            0                                            
__________________________________________________________________________________________________
concatenate_31 (Concatenate)    (None, 4, 224)       0           S0_toksEmb[0][0]                 
                                                                 S0_tPosEmb[0][0]                 
__________________________________________________________________________________________________
concatenate_32 (Concatenate)    (None, 4, 224)       0           S1_toksEmb[0][0]                 
                                                                 S1_PosEmb[0][0]                  
__________________________________________________________________________________________________
B_toksEmb (Embedding)           (None, 2, 205)       1911625     B_toks[0][0]                     
__________________________________________________________________________________________________
B_PosEmb (Embedding)            (None, 2, 19)        361         B_Pos[0][0]                      
__________________________________________________________________________________________________
s0Rnn (GRU)                     (None, 42)           33642       concatenate_31[0][0]             
__________________________________________________________________________________________________
s1Rnn (GRU)                     (None, 42)           33642       concatenate_32[0][0]             
__________________________________________________________________________________________________
B_toksFlat (Flatten)            (None, 410)          0           B_toksEmb[0][0]                  
__________________________________________________________________________________________________
B_PosFlat (Flatten)             (None, 38)           0           B_PosEmb[0][0]                   
__________________________________________________________________________________________________
dropout_31 (Dropout)            (None, 42)           0           s0Rnn[0][0]                      
__________________________________________________________________________________________________
dropout_32 (Dropout)            (None, 42)           0           s1Rnn[0][0]                      
__________________________________________________________________________________________________
concatenate_33 (Concatenate)    (None, 532)          0           B_toksFlat[0][0]                 
                                                                 B_PosFlat[0][0]                  
                                                                 dropout_31[0][0]                 
                                                                 dropout_32[0][0]                 
__________________________________________________________________________________________________
dense_21 (Dense)                (None, 50)           26650       concatenate_33[0][0]             
__________________________________________________________________________________________________
dropout_33 (Dropout)            (None, 50)           0           dense_21[0][0]                   
__________________________________________________________________________________________________
dense_22 (Dense)                (None, 4)            204         dropout_33[0][0]                 
==================================================================================================
Total params: 5,830,096
Trainable params: 5,830,096
Non-trainable params: 0
__________________________________________________________________________________________________
None
==================================================================================================
…
	Token occurrences: 42020
	MWE number: 451
	MWE occurrences: 670
	Continuous occurrences: 75.0 %
	MWE length: 2.14
	Seen occurrences : 57% 
	Recognizable MWEs: 100.0 %
	MWT occurrences: 1

==================================================================================================
__________________________________________________________________________________________________
Layer (type)                    Output Shape         Param #     Connected to                     
==================================================================================================
S0_toks (InputLayer)            (None, 4)            0                                            
__________________________________________________________________________________________________
S0_Pos (InputLayer)             (None, 4)            0                                            
__________________________________________________________________________________________________
S1_toks (InputLayer)            (None, 4)            0                                            
__________________________________________________________________________________________________
S1_Pos (InputLayer)             (None, 4)            0                                            
__________________________________________________________________________________________________
S0_toksEmb (Embedding)          (None, 4, 300)       2797500     S0_toks[0][0]                    
__________________________________________________________________________________________________
S0_tPosEmb (Embedding)          (None, 4, 48)        912         S0_Pos[0][0]                     
__________________________________________________________________________________________________
S1_toksEmb (Embedding)          (None, 4, 300)       2797500     S1_toks[0][0]                    
__________________________________________________________________________________________________
S1_PosEmb (Embedding)           (None, 4, 48)        912         S1_Pos[0][0]                     
__________________________________________________________________________________________________
B_toks (InputLayer)             (None, 3)            0                                            
__________________________________________________________________________________________________
B_Pos (InputLayer)              (None, 3)            0                                            
__________________________________________________________________________________________________
concatenate_34 (Concatenate)    (None, 4, 348)       0           S0_toksEmb[0][0]                 
                                                                 S0_tPosEmb[0][0]                 
__________________________________________________________________________________________________
concatenate_35 (Concatenate)    (None, 4, 348)       0           S1_toksEmb[0][0]                 
                                                                 S1_PosEmb[0][0]                  
__________________________________________________________________________________________________
B_toksEmb (Embedding)           (None, 3, 300)       2797500     B_toks[0][0]                     
__________________________________________________________________________________________________
B_PosEmb (Embedding)            (None, 3, 48)        912         B_Pos[0][0]                      
__________________________________________________________________________________________________
s0Rnn (GRU)                     (None, 60)           73620       concatenate_34[0][0]             
__________________________________________________________________________________________________
s1Rnn (GRU)                     (None, 60)           73620       concatenate_35[0][0]             
__________________________________________________________________________________________________
B_toksFlat (Flatten)            (None, 900)          0           B_toksEmb[0][0]                  
__________________________________________________________________________________________________
B_PosFlat (Flatten)             (None, 144)          0           B_PosEmb[0][0]                   
__________________________________________________________________________________________________
dropout_34 (Dropout)            (None, 60)           0           s0Rnn[0][0]                      
__________________________________________________________________________________________________
dropout_35 (Dropout)            (None, 60)           0           s1Rnn[0][0]                      
__________________________________________________________________________________________________
concatenate_36 (Concatenate)    (None, 1164)         0           B_toksFlat[0][0]                 
                                                                 B_PosFlat[0][0]                  
                                                                 dropout_34[0][0]                 
                                                                 dropout_35[0][0]                 
__________________________________________________________________________________________________
dense_23 (Dense)                (None, 462)          538230      concatenate_36[0][0]             
__________________________________________________________________________________________________
dropout_36 (Dropout)            (None, 462)          0           dense_23[0][0]                   
__________________________________________________________________________________________________
dense_24 (Dense)                (None, 4)            1852        dropout_36[0][0]                 
==================================================================================================
Total params: 9,082,558
Trainable params: 9,082,558
Non-trainable params: 0
__________________________________________________________________________________________________
None
==================================================================================================
…
	Token occurrences: 42020
	MWE number: 451
	MWE occurrences: 670
	Continuous occurrences: 75.0 %
	MWE length: 2.14
	Seen occurrences : 57% 
	Recognizable MWEs: 100.0 %
	MWT occurrences: 1

==================================================================================================
__________________________________________________________________________________________________
Layer (type)                    Output Shape         Param #     Connected to                     
==================================================================================================
S0_toks (InputLayer)            (None, 4)            0                                            
__________________________________________________________________________________________________
S0_Pos (InputLayer)             (None, 4)            0                                            
__________________________________________________________________________________________________
S1_toks (InputLayer)            (None, 4)            0                                            
__________________________________________________________________________________________________
S1_Pos (InputLayer)             (None, 4)            0                                            
__________________________________________________________________________________________________
S0_toksEmb (Embedding)          (None, 4, 300)       1777800     S0_toks[0][0]                    
__________________________________________________________________________________________________
S0_tPosEmb (Embedding)          (None, 4, 98)        1862        S0_Pos[0][0]                     
__________________________________________________________________________________________________
S1_toksEmb (Embedding)          (None, 4, 300)       1777800     S1_toks[0][0]                    
__________________________________________________________________________________________________
S1_PosEmb (Embedding)           (None, 4, 98)        1862        S1_Pos[0][0]                     
__________________________________________________________________________________________________
B_toks (InputLayer)             (None, 3)            0                                            
__________________________________________________________________________________________________
B_Pos (InputLayer)              (None, 3)            0                                            
__________________________________________________________________________________________________
concatenate_37 (Concatenate)    (None, 4, 398)       0           S0_toksEmb[0][0]                 
                                                                 S0_tPosEmb[0][0]                 
__________________________________________________________________________________________________
concatenate_38 (Concatenate)    (None, 4, 398)       0           S1_toksEmb[0][0]                 
                                                                 S1_PosEmb[0][0]                  
__________________________________________________________________________________________________
B_toksEmb (Embedding)           (None, 3, 300)       1777800     B_toks[0][0]                     
__________________________________________________________________________________________________
B_PosEmb (Embedding)            (None, 3, 98)        1862        B_Pos[0][0]                      
__________________________________________________________________________________________________
s0Rnn (GRU)                     (None, 58)           79518       concatenate_37[0][0]             
__________________________________________________________________________________________________
s1Rnn (GRU)                     (None, 58)           79518       concatenate_38[0][0]             
__________________________________________________________________________________________________
B_toksFlat (Flatten)            (None, 900)          0           B_toksEmb[0][0]                  
__________________________________________________________________________________________________
B_PosFlat (Flatten)             (None, 294)          0           B_PosEmb[0][0]                   
__________________________________________________________________________________________________
dropout_37 (Dropout)            (None, 58)           0           s0Rnn[0][0]                      
__________________________________________________________________________________________________
dropout_38 (Dropout)            (None, 58)           0           s1Rnn[0][0]                      
__________________________________________________________________________________________________
concatenate_39 (Concatenate)    (None, 1310)         0           B_toksFlat[0][0]                 
                                                                 B_PosFlat[0][0]                  
                                                                 dropout_37[0][0]                 
                                                                 dropout_38[0][0]                 
__________________________________________________________________________________________________
dense_25 (Dense)                (None, 568)          744648      concatenate_39[0][0]             
__________________________________________________________________________________________________
dropout_39 (Dropout)            (None, 568)          0           dense_25[0][0]                   
__________________________________________________________________________________________________
dense_26 (Dense)                (None, 4)            2276        dropout_39[0][0]                 
==================================================================================================
Total params: 6,244,946
Trainable params: 6,244,946
Non-trainable params: 0
__________________________________________________________________________________________________
None
==================================================================================================
…
	Token occurrences: 42020
	MWE number: 451
	MWE occurrences: 670
	Continuous occurrences: 75.0 %
	MWE length: 2.14
	Seen occurrences : 57% 
	Recognizable MWEs: 100.0 %
	MWT occurrences: 1

==================================================================================================
__________________________________________________________________________________________________
Layer (type)                    Output Shape         Param #     Connected to                     
==================================================================================================
S0_toks (InputLayer)            (None, 4)            0                                            
__________________________________________________________________________________________________
S0_Pos (InputLayer)             (None, 4)            0                                            
__________________________________________________________________________________________________
S1_toks (InputLayer)            (None, 4)            0                                            
__________________________________________________________________________________________________
S1_Pos (InputLayer)             (None, 4)            0                                            
__________________________________________________________________________________________________
S0_toksEmb (Embedding)          (None, 4, 300)       2797500     S0_toks[0][0]                    
__________________________________________________________________________________________________
S0_tPosEmb (Embedding)          (None, 4, 47)        893         S0_Pos[0][0]                     
__________________________________________________________________________________________________
S1_toksEmb (Embedding)          (None, 4, 300)       2797500     S1_toks[0][0]                    
__________________________________________________________________________________________________
S1_PosEmb (Embedding)           (None, 4, 47)        893         S1_Pos[0][0]                     
__________________________________________________________________________________________________
B_toks (InputLayer)             (None, 2)            0                                            
__________________________________________________________________________________________________
B_Pos (InputLayer)              (None, 2)            0                                            
__________________________________________________________________________________________________
concatenate_40 (Concatenate)    (None, 4, 347)       0           S0_toksEmb[0][0]                 
                                                                 S0_tPosEmb[0][0]                 
__________________________________________________________________________________________________
concatenate_41 (Concatenate)    (None, 4, 347)       0           S1_toksEmb[0][0]                 
                                                                 S1_PosEmb[0][0]                  
__________________________________________________________________________________________________
B_toksEmb (Embedding)           (None, 2, 300)       2797500     B_toks[0][0]                     
__________________________________________________________________________________________________
B_PosEmb (Embedding)            (None, 2, 47)        893         B_Pos[0][0]                      
__________________________________________________________________________________________________
s0Rnn (LSTM)                    (None, 29)           43732       concatenate_40[0][0]             
__________________________________________________________________________________________________
s1Rnn (LSTM)                    (None, 29)           43732       concatenate_41[0][0]             
__________________________________________________________________________________________________
B_toksFlat (Flatten)            (None, 600)          0           B_toksEmb[0][0]                  
__________________________________________________________________________________________________
B_PosFlat (Flatten)             (None, 94)           0           B_PosEmb[0][0]                   
__________________________________________________________________________________________________
dropout_40 (Dropout)            (None, 29)           0           s0Rnn[0][0]                      
__________________________________________________________________________________________________
dropout_41 (Dropout)            (None, 29)           0           s1Rnn[0][0]                      
__________________________________________________________________________________________________
concatenate_42 (Concatenate)    (None, 752)          0           B_toksFlat[0][0]                 
                                                                 B_PosFlat[0][0]                  
                                                                 dropout_40[0][0]                 
                                                                 dropout_41[0][0]                 
__________________________________________________________________________________________________
dense_27 (Dense)                (None, 43)           32379       concatenate_42[0][0]             
__________________________________________________________________________________________________
dropout_42 (Dropout)            (None, 43)           0           dense_27[0][0]                   
__________________________________________________________________________________________________
dense_28 (Dense)                (None, 4)            176         dropout_42[0][0]                 
==================================================================================================
Total params: 8,515,198
Trainable params: 8,515,198
Non-trainable params: 0
__________________________________________________________________________________________________
None
==================================================================================================
…
	Token occurrences: 42020
	MWE number: 451
	MWE occurrences: 670
	Continuous occurrences: 75.0 %
	MWE length: 2.14
	Seen occurrences : 57% 
	Recognizable MWEs: 100.0 %
	MWT occurrences: 1

==================================================================================================
__________________________________________________________________________________________________
Layer (type)                    Output Shape         Param #     Connected to                     
==================================================================================================
S0_toks (InputLayer)            (None, 4)            0                                            
__________________________________________________________________________________________________
S0_Pos (InputLayer)             (None, 4)            0                                            
__________________________________________________________________________________________________
S1_toks (InputLayer)            (None, 4)            0                                            
__________________________________________________________________________________________________
S1_Pos (InputLayer)             (None, 4)            0                                            
__________________________________________________________________________________________________
S0_toksEmb (Embedding)          (None, 4, 300)       1777800     S0_toks[0][0]                    
__________________________________________________________________________________________________
S0_tPosEmb (Embedding)          (None, 4, 114)       2166        S0_Pos[0][0]                     
__________________________________________________________________________________________________
S1_toksEmb (Embedding)          (None, 4, 300)       1777800     S1_toks[0][0]                    
__________________________________________________________________________________________________
S1_PosEmb (Embedding)           (None, 4, 114)       2166        S1_Pos[0][0]                     
__________________________________________________________________________________________________
B_toks (InputLayer)             (None, 2)            0                                            
__________________________________________________________________________________________________
B_Pos (InputLayer)              (None, 2)            0                                            
__________________________________________________________________________________________________
concatenate_43 (Concatenate)    (None, 4, 414)       0           S0_toksEmb[0][0]                 
                                                                 S0_tPosEmb[0][0]                 
__________________________________________________________________________________________________
concatenate_44 (Concatenate)    (None, 4, 414)       0           S1_toksEmb[0][0]                 
                                                                 S1_PosEmb[0][0]                  
__________________________________________________________________________________________________
B_toksEmb (Embedding)           (None, 2, 300)       1777800     B_toks[0][0]                     
__________________________________________________________________________________________________
B_PosEmb (Embedding)            (None, 2, 114)       2166        B_Pos[0][0]                      
__________________________________________________________________________________________________
s0Rnn (GRU)                     (None, 189)          342468      concatenate_43[0][0]             
__________________________________________________________________________________________________
s1Rnn (GRU)                     (None, 189)          342468      concatenate_44[0][0]             
__________________________________________________________________________________________________
B_toksFlat (Flatten)            (None, 600)          0           B_toksEmb[0][0]                  
__________________________________________________________________________________________________
B_PosFlat (Flatten)             (None, 228)          0           B_PosEmb[0][0]                   
__________________________________________________________________________________________________
dropout_43 (Dropout)            (None, 189)          0           s0Rnn[0][0]                      
__________________________________________________________________________________________________
dropout_44 (Dropout)            (None, 189)          0           s1Rnn[0][0]                      
__________________________________________________________________________________________________
concatenate_45 (Concatenate)    (None, 1206)         0           B_toksFlat[0][0]                 
                                                                 B_PosFlat[0][0]                  
                                                                 dropout_43[0][0]                 
                                                                 dropout_44[0][0]                 
__________________________________________________________________________________________________
dense_29 (Dense)                (None, 35)           42245       concatenate_45[0][0]             
__________________________________________________________________________________________________
dropout_45 (Dropout)            (None, 35)           0           dense_29[0][0]                   
__________________________________________________________________________________________________
dense_30 (Dense)                (None, 4)            144         dropout_45[0][0]                 
==================================================================================================
Total params: 6,067,223
Trainable params: 6,067,223
Non-trainable params: 0
__________________________________________________________________________________________________
None
==================================================================================================
…
	Token occurrences: 42020
	MWE number: 451
	MWE occurrences: 670
	Continuous occurrences: 75.0 %
	MWE length: 2.14
	Seen occurrences : 57% 
	Recognizable MWEs: 100.0 %
	MWT occurrences: 1

==================================================================================================
__________________________________________________________________________________________________
Layer (type)                    Output Shape         Param #     Connected to                     
==================================================================================================
S0_toks (InputLayer)            (None, 4)            0                                            
__________________________________________________________________________________________________
S0_Pos (InputLayer)             (None, 4)            0                                            
__________________________________________________________________________________________________
S1_toks (InputLayer)            (None, 4)            0                                            
__________________________________________________________________________________________________
S1_Pos (InputLayer)             (None, 4)            0                                            
__________________________________________________________________________________________________
S0_toksEmb (Embedding)          (None, 4, 335)       1985210     S0_toks[0][0]                    
__________________________________________________________________________________________________
S0_tPosEmb (Embedding)          (None, 4, 75)        1425        S0_Pos[0][0]                     
__________________________________________________________________________________________________
S1_toksEmb (Embedding)          (None, 4, 335)       1985210     S1_toks[0][0]                    
__________________________________________________________________________________________________
S1_PosEmb (Embedding)           (None, 4, 75)        1425        S1_Pos[0][0]                     
__________________________________________________________________________________________________
B_toks (InputLayer)             (None, 3)            0                                            
__________________________________________________________________________________________________
B_Pos (InputLayer)              (None, 3)            0                                            
__________________________________________________________________________________________________
concatenate_46 (Concatenate)    (None, 4, 410)       0           S0_toksEmb[0][0]                 
                                                                 S0_tPosEmb[0][0]                 
__________________________________________________________________________________________________
concatenate_47 (Concatenate)    (None, 4, 410)       0           S1_toksEmb[0][0]                 
                                                                 S1_PosEmb[0][0]                  
__________________________________________________________________________________________________
B_toksEmb (Embedding)           (None, 3, 335)       1985210     B_toks[0][0]                     
__________________________________________________________________________________________________
B_PosEmb (Embedding)            (None, 3, 75)        1425        B_Pos[0][0]                      
__________________________________________________________________________________________________
s0Rnn (GRU)                     (None, 34)           45390       concatenate_46[0][0]             
__________________________________________________________________________________________________
s1Rnn (GRU)                     (None, 34)           45390       concatenate_47[0][0]             
__________________________________________________________________________________________________
B_toksFlat (Flatten)            (None, 1005)         0           B_toksEmb[0][0]                  
__________________________________________________________________________________________________
B_PosFlat (Flatten)             (None, 225)          0           B_PosEmb[0][0]                   
__________________________________________________________________________________________________
dropout_46 (Dropout)            (None, 34)           0           s0Rnn[0][0]                      
__________________________________________________________________________________________________
dropout_47 (Dropout)            (None, 34)           0           s1Rnn[0][0]                      
__________________________________________________________________________________________________
concatenate_48 (Concatenate)    (None, 1298)         0           B_toksFlat[0][0]                 
                                                                 B_PosFlat[0][0]                  
                                                                 dropout_46[0][0]                 
                                                                 dropout_47[0][0]                 
__________________________________________________________________________________________________
dense_31 (Dense)                (None, 43)           55857       concatenate_48[0][0]             
__________________________________________________________________________________________________
dropout_48 (Dropout)            (None, 43)           0           dense_31[0][0]                   
__________________________________________________________________________________________________
dense_32 (Dense)                (None, 4)            176         dropout_48[0][0]                 
==================================================================================================
Total params: 6,106,718
Trainable params: 6,106,718
Non-trainable params: 0
__________________________________________________________________________________________________
None
==================================================================================================
…
	Token occurrences: 42020
	MWE number: 451
	MWE occurrences: 670
	Continuous occurrences: 75.0 %
	MWE length: 2.14
	Seen occurrences : 57% 
	Recognizable MWEs: 100.0 %
	MWT occurrences: 1

==================================================================================================
__________________________________________________________________________________________________
Layer (type)                    Output Shape         Param #     Connected to                     
==================================================================================================
S0_toks (InputLayer)            (None, 4)            0                                            
__________________________________________________________________________________________________
S0_Pos (InputLayer)             (None, 4)            0                                            
__________________________________________________________________________________________________
S1_toks (InputLayer)            (None, 4)            0                                            
__________________________________________________________________________________________________
S1_Pos (InputLayer)             (None, 4)            0                                            
__________________________________________________________________________________________________
S0_toksEmb (Embedding)          (None, 4, 569)       3371894     S0_toks[0][0]                    
__________________________________________________________________________________________________
S0_tPosEmb (Embedding)          (None, 4, 49)        931         S0_Pos[0][0]                     
__________________________________________________________________________________________________
S1_toksEmb (Embedding)          (None, 4, 569)       3371894     S1_toks[0][0]                    
__________________________________________________________________________________________________
S1_PosEmb (Embedding)           (None, 4, 49)        931         S1_Pos[0][0]                     
__________________________________________________________________________________________________
B_toks (InputLayer)             (None, 3)            0                                            
__________________________________________________________________________________________________
B_Pos (InputLayer)              (None, 3)            0                                            
__________________________________________________________________________________________________
concatenate_49 (Concatenate)    (None, 4, 618)       0           S0_toksEmb[0][0]                 
                                                                 S0_tPosEmb[0][0]                 
__________________________________________________________________________________________________
concatenate_50 (Concatenate)    (None, 4, 618)       0           S1_toksEmb[0][0]                 
                                                                 S1_PosEmb[0][0]                  
__________________________________________________________________________________________________
B_toksEmb (Embedding)           (None, 3, 569)       3371894     B_toks[0][0]                     
__________________________________________________________________________________________________
B_PosEmb (Embedding)            (None, 3, 49)        931         B_Pos[0][0]                      
__________________________________________________________________________________________________
s0Rnn (GRU)                     (None, 36)           70740       concatenate_49[0][0]             
__________________________________________________________________________________________________
s1Rnn (GRU)                     (None, 36)           70740       concatenate_50[0][0]             
__________________________________________________________________________________________________
B_toksFlat (Flatten)            (None, 1707)         0           B_toksEmb[0][0]                  
__________________________________________________________________________________________________
B_PosFlat (Flatten)             (None, 147)          0           B_PosEmb[0][0]                   
__________________________________________________________________________________________________
dropout_49 (Dropout)            (None, 36)           0           s0Rnn[0][0]                      
__________________________________________________________________________________________________
dropout_50 (Dropout)            (None, 36)           0           s1Rnn[0][0]                      
__________________________________________________________________________________________________
concatenate_51 (Concatenate)    (None, 1926)         0           B_toksFlat[0][0]                 
                                                                 B_PosFlat[0][0]                  
                                                                 dropout_49[0][0]                 
                                                                 dropout_50[0][0]                 
__________________________________________________________________________________________________
dense_33 (Dense)                (None, 325)          626275      concatenate_51[0][0]             
__________________________________________________________________________________________________
dropout_51 (Dropout)            (None, 325)          0           dense_33[0][0]                   
__________________________________________________________________________________________________
dense_34 (Dense)                (None, 4)            1304        dropout_51[0][0]                 
==================================================================================================
Total params: 10,887,534
Trainable params: 10,887,534
Non-trainable params: 0
__________________________________________________________________________________________________
None
==================================================================================================
…
	Token occurrences: 42020
	MWE number: 451
	MWE occurrences: 670
	Continuous occurrences: 75.0 %
	MWE length: 2.14
	Seen occurrences : 57% 
	Recognizable MWEs: 100.0 %
	MWT occurrences: 1

==================================================================================================
__________________________________________________________________________________________________
Layer (type)                    Output Shape         Param #     Connected to                     
==================================================================================================
S0_toks (InputLayer)            (None, 4)            0                                            
__________________________________________________________________________________________________
S0_Pos (InputLayer)             (None, 4)            0                                            
__________________________________________________________________________________________________
S1_toks (InputLayer)            (None, 4)            0                                            
__________________________________________________________________________________________________
S1_Pos (InputLayer)             (None, 4)            0                                            
__________________________________________________________________________________________________
S0_toksEmb (Embedding)          (None, 4, 300)       353400      S0_toks[0][0]                    
__________________________________________________________________________________________________
S0_tPosEmb (Embedding)          (None, 4, 29)        551         S0_Pos[0][0]                     
__________________________________________________________________________________________________
S1_toksEmb (Embedding)          (None, 4, 300)       353400      S1_toks[0][0]                    
__________________________________________________________________________________________________
S1_PosEmb (Embedding)           (None, 4, 29)        551         S1_Pos[0][0]                     
__________________________________________________________________________________________________
B_toks (InputLayer)             (None, 2)            0                                            
__________________________________________________________________________________________________
B_Pos (InputLayer)              (None, 2)            0                                            
__________________________________________________________________________________________________
concatenate_52 (Concatenate)    (None, 4, 329)       0           S0_toksEmb[0][0]                 
                                                                 S0_tPosEmb[0][0]                 
__________________________________________________________________________________________________
concatenate_53 (Concatenate)    (None, 4, 329)       0           S1_toksEmb[0][0]                 
                                                                 S1_PosEmb[0][0]                  
__________________________________________________________________________________________________
B_toksEmb (Embedding)           (None, 2, 300)       353400      B_toks[0][0]                     
__________________________________________________________________________________________________
B_PosEmb (Embedding)            (None, 2, 29)        551         B_Pos[0][0]                      
__________________________________________________________________________________________________
s0Rnn (GRU)                     (None, 46)           51888       concatenate_52[0][0]             
__________________________________________________________________________________________________
s1Rnn (GRU)                     (None, 46)           51888       concatenate_53[0][0]             
__________________________________________________________________________________________________
B_toksFlat (Flatten)            (None, 600)          0           B_toksEmb[0][0]                  
__________________________________________________________________________________________________
B_PosFlat (Flatten)             (None, 58)           0           B_PosEmb[0][0]                   
__________________________________________________________________________________________________
dropout_52 (Dropout)            (None, 46)           0           s0Rnn[0][0]                      
__________________________________________________________________________________________________
dropout_53 (Dropout)            (None, 46)           0           s1Rnn[0][0]                      
__________________________________________________________________________________________________
concatenate_54 (Concatenate)    (None, 750)          0           B_toksFlat[0][0]                 
                                                                 B_PosFlat[0][0]                  
                                                                 dropout_52[0][0]                 
                                                                 dropout_53[0][0]                 
__________________________________________________________________________________________________
dense_35 (Dense)                (None, 42)           31542       concatenate_54[0][0]             
__________________________________________________________________________________________________
dropout_54 (Dropout)            (None, 42)           0           dense_35[0][0]                   
__________________________________________________________________________________________________
dense_36 (Dense)                (None, 4)            172         dropout_54[0][0]                 
==================================================================================================
Total params: 1,197,343
Trainable params: 1,197,343
Non-trainable params: 0
__________________________________________________________________________________________________
None
==================================================================================================
…
	Token occurrences: 42020
	MWE number: 451
	MWE occurrences: 670
	Continuous occurrences: 75.0 %
	MWE length: 2.14
	Seen occurrences : 57% 
	Recognizable MWEs: 100.0 %
	MWT occurrences: 1

==================================================================================================
__________________________________________________________________________________________________
Layer (type)                    Output Shape         Param #     Connected to                     
==================================================================================================
S0_toks (InputLayer)            (None, 4)            0                                            
__________________________________________________________________________________________________
S0_Pos (InputLayer)             (None, 4)            0                                            
__________________________________________________________________________________________________
S1_toks (InputLayer)            (None, 4)            0                                            
__________________________________________________________________________________________________
S1_Pos (InputLayer)             (None, 4)            0                                            
__________________________________________________________________________________________________
S0_toksEmb (Embedding)          (None, 4, 300)       1777800     S0_toks[0][0]                    
__________________________________________________________________________________________________
S0_tPosEmb (Embedding)          (None, 4, 30)        570         S0_Pos[0][0]                     
__________________________________________________________________________________________________
S1_toksEmb (Embedding)          (None, 4, 300)       1777800     S1_toks[0][0]                    
__________________________________________________________________________________________________
S1_PosEmb (Embedding)           (None, 4, 30)        570         S1_Pos[0][0]                     
__________________________________________________________________________________________________
B_toks (InputLayer)             (None, 2)            0                                            
__________________________________________________________________________________________________
B_Pos (InputLayer)              (None, 2)            0                                            
__________________________________________________________________________________________________
concatenate_55 (Concatenate)    (None, 4, 330)       0           S0_toksEmb[0][0]                 
                                                                 S0_tPosEmb[0][0]                 
__________________________________________________________________________________________________
concatenate_56 (Concatenate)    (None, 4, 330)       0           S1_toksEmb[0][0]                 
                                                                 S1_PosEmb[0][0]                  
__________________________________________________________________________________________________
B_toksEmb (Embedding)           (None, 2, 300)       1777800     B_toks[0][0]                     
__________________________________________________________________________________________________
B_PosEmb (Embedding)            (None, 2, 30)        570         B_Pos[0][0]                      
__________________________________________________________________________________________________
s0Rnn (LSTM)                    (None, 46)           69368       concatenate_55[0][0]             
__________________________________________________________________________________________________
s1Rnn (LSTM)                    (None, 46)           69368       concatenate_56[0][0]             
__________________________________________________________________________________________________
B_toksFlat (Flatten)            (None, 600)          0           B_toksEmb[0][0]                  
__________________________________________________________________________________________________
B_PosFlat (Flatten)             (None, 60)           0           B_PosEmb[0][0]                   
__________________________________________________________________________________________________
dropout_55 (Dropout)            (None, 46)           0           s0Rnn[0][0]                      
__________________________________________________________________________________________________
dropout_56 (Dropout)            (None, 46)           0           s1Rnn[0][0]                      
__________________________________________________________________________________________________
concatenate_57 (Concatenate)    (None, 752)          0           B_toksFlat[0][0]                 
                                                                 B_PosFlat[0][0]                  
                                                                 dropout_55[0][0]                 
                                                                 dropout_56[0][0]                 
__________________________________________________________________________________________________
dense_37 (Dense)                (None, 134)          100902      concatenate_57[0][0]             
__________________________________________________________________________________________________
dropout_57 (Dropout)            (None, 134)          0           dense_37[0][0]                   
__________________________________________________________________________________________________
dense_38 (Dense)                (None, 4)            540         dropout_57[0][0]                 
==================================================================================================
Total params: 5,575,288
Trainable params: 5,575,288
Non-trainable params: 0
__________________________________________________________________________________________________
None
==================================================================================================
…
	Token occurrences: 42020
	MWE number: 451
	MWE occurrences: 670
	Continuous occurrences: 75.0 %
	MWE length: 2.14
	Seen occurrences : 57% 
	Recognizable MWEs: 100.0 %
	MWT occurrences: 1

==================================================================================================
__________________________________________________________________________________________________
Layer (type)                    Output Shape         Param #     Connected to                     
==================================================================================================
S0_toks (InputLayer)            (None, 4)            0                                            
__________________________________________________________________________________________________
S0_Pos (InputLayer)             (None, 4)            0                                            
__________________________________________________________________________________________________
S1_toks (InputLayer)            (None, 4)            0                                            
__________________________________________________________________________________________________
S1_Pos (InputLayer)             (None, 4)            0                                            
__________________________________________________________________________________________________
S0_toksEmb (Embedding)          (None, 4, 159)       942234      S0_toks[0][0]                    
__________________________________________________________________________________________________
S0_tPosEmb (Embedding)          (None, 4, 145)       2755        S0_Pos[0][0]                     
__________________________________________________________________________________________________
S1_toksEmb (Embedding)          (None, 4, 159)       942234      S1_toks[0][0]                    
__________________________________________________________________________________________________
S1_PosEmb (Embedding)           (None, 4, 145)       2755        S1_Pos[0][0]                     
__________________________________________________________________________________________________
B_toks (InputLayer)             (None, 1)            0                                            
__________________________________________________________________________________________________
B_Pos (InputLayer)              (None, 1)            0                                            
__________________________________________________________________________________________________
concatenate_58 (Concatenate)    (None, 4, 304)       0           S0_toksEmb[0][0]                 
                                                                 S0_tPosEmb[0][0]                 
__________________________________________________________________________________________________
concatenate_59 (Concatenate)    (None, 4, 304)       0           S1_toksEmb[0][0]                 
                                                                 S1_PosEmb[0][0]                  
__________________________________________________________________________________________________
B_toksEmb (Embedding)           (None, 1, 159)       942234      B_toks[0][0]                     
__________________________________________________________________________________________________
B_PosEmb (Embedding)            (None, 1, 145)       2755        B_Pos[0][0]                      
__________________________________________________________________________________________________
s0Rnn (GRU)                     (None, 37)           37962       concatenate_58[0][0]             
__________________________________________________________________________________________________
s1Rnn (GRU)                     (None, 37)           37962       concatenate_59[0][0]             
__________________________________________________________________________________________________
B_toksFlat (Flatten)            (None, 159)          0           B_toksEmb[0][0]                  
__________________________________________________________________________________________________
B_PosFlat (Flatten)             (None, 145)          0           B_PosEmb[0][0]                   
__________________________________________________________________________________________________
dropout_58 (Dropout)            (None, 37)           0           s0Rnn[0][0]                      
__________________________________________________________________________________________________
dropout_59 (Dropout)            (None, 37)           0           s1Rnn[0][0]                      
__________________________________________________________________________________________________
concatenate_60 (Concatenate)    (None, 378)          0           B_toksFlat[0][0]                 
                                                                 B_PosFlat[0][0]                  
                                                                 dropout_58[0][0]                 
                                                                 dropout_59[0][0]                 
__________________________________________________________________________________________________
dense_39 (Dense)                (None, 94)           35626       concatenate_60[0][0]             
__________________________________________________________________________________________________
dropout_60 (Dropout)            (None, 94)           0           dense_39[0][0]                   
__________________________________________________________________________________________________
dense_40 (Dense)                (None, 4)            380         dropout_60[0][0]                 
==================================================================================================
Total params: 2,946,897
Trainable params: 2,946,897
Non-trainable params: 0
__________________________________________________________________________________________________
None
==================================================================================================
…
	Token occurrences: 42020
	MWE number: 451
	MWE occurrences: 670
	Continuous occurrences: 75.0 %
	MWE length: 2.14
	Seen occurrences : 57% 
	Recognizable MWEs: 100.0 %
	MWT occurrences: 1

==================================================================================================
__________________________________________________________________________________________________
Layer (type)                    Output Shape         Param #     Connected to                     
==================================================================================================
S0_toks (InputLayer)            (None, 4)            0                                            
__________________________________________________________________________________________________
S0_Pos (InputLayer)             (None, 4)            0                                            
__________________________________________________________________________________________________
S1_toks (InputLayer)            (None, 4)            0                                            
__________________________________________________________________________________________________
S1_Pos (InputLayer)             (None, 4)            0                                            
__________________________________________________________________________________________________
S0_toksEmb (Embedding)          (None, 4, 251)       1487426     S0_toks[0][0]                    
__________________________________________________________________________________________________
S0_tPosEmb (Embedding)          (None, 4, 44)        836         S0_Pos[0][0]                     
__________________________________________________________________________________________________
S1_toksEmb (Embedding)          (None, 4, 251)       1487426     S1_toks[0][0]                    
__________________________________________________________________________________________________
S1_PosEmb (Embedding)           (None, 4, 44)        836         S1_Pos[0][0]                     
__________________________________________________________________________________________________
B_toks (InputLayer)             (None, 3)            0                                            
__________________________________________________________________________________________________
B_Pos (InputLayer)              (None, 3)            0                                            
__________________________________________________________________________________________________
concatenate_61 (Concatenate)    (None, 4, 295)       0           S0_toksEmb[0][0]                 
                                                                 S0_tPosEmb[0][0]                 
__________________________________________________________________________________________________
concatenate_62 (Concatenate)    (None, 4, 295)       0           S1_toksEmb[0][0]                 
                                                                 S1_PosEmb[0][0]                  
__________________________________________________________________________________________________
B_toksEmb (Embedding)           (None, 3, 251)       1487426     B_toks[0][0]                     
__________________________________________________________________________________________________
B_PosEmb (Embedding)            (None, 3, 44)        836         B_Pos[0][0]                      
__________________________________________________________________________________________________
s0Rnn (GRU)                     (None, 118)          146556      concatenate_61[0][0]             
__________________________________________________________________________________________________
s1Rnn (GRU)                     (None, 118)          146556      concatenate_62[0][0]             
__________________________________________________________________________________________________
B_toksFlat (Flatten)            (None, 753)          0           B_toksEmb[0][0]                  
__________________________________________________________________________________________________
B_PosFlat (Flatten)             (None, 132)          0           B_PosEmb[0][0]                   
__________________________________________________________________________________________________
dropout_61 (Dropout)            (None, 118)          0           s0Rnn[0][0]                      
__________________________________________________________________________________________________
dropout_62 (Dropout)            (None, 118)          0           s1Rnn[0][0]                      
__________________________________________________________________________________________________
concatenate_63 (Concatenate)    (None, 1121)         0           B_toksFlat[0][0]                 
                                                                 B_PosFlat[0][0]                  
                                                                 dropout_61[0][0]                 
                                                                 dropout_62[0][0]                 
__________________________________________________________________________________________________
dense_41 (Dense)                (None, 347)          389334      concatenate_63[0][0]             
__________________________________________________________________________________________________
dropout_63 (Dropout)            (None, 347)          0           dense_41[0][0]                   
__________________________________________________________________________________________________
dense_42 (Dense)                (None, 4)            1392        dropout_63[0][0]                 
==================================================================================================
Total params: 5,148,624
Trainable params: 5,148,624
Non-trainable params: 0
__________________________________________________________________________________________________
None
==================================================================================================
…
	Token occurrences: 42020
	MWE number: 451
	MWE occurrences: 670
	Continuous occurrences: 75.0 %
	MWE length: 2.14
	Seen occurrences : 57% 
	Recognizable MWEs: 100.0 %
	MWT occurrences: 1

==================================================================================================
__________________________________________________________________________________________________
Layer (type)                    Output Shape         Param #     Connected to                     
==================================================================================================
S0_toks (InputLayer)            (None, 4)            0                                            
__________________________________________________________________________________________________
S0_Pos (InputLayer)             (None, 4)            0                                            
__________________________________________________________________________________________________
S1_toks (InputLayer)            (None, 4)            0                                            
__________________________________________________________________________________________________
S1_Pos (InputLayer)             (None, 4)            0                                            
__________________________________________________________________________________________________
S0_toksEmb (Embedding)          (None, 4, 300)       2797500     S0_toks[0][0]                    
__________________________________________________________________________________________________
S0_tPosEmb (Embedding)          (None, 4, 145)       2755        S0_Pos[0][0]                     
__________________________________________________________________________________________________
S1_toksEmb (Embedding)          (None, 4, 300)       2797500     S1_toks[0][0]                    
__________________________________________________________________________________________________
S1_PosEmb (Embedding)           (None, 4, 145)       2755        S1_Pos[0][0]                     
__________________________________________________________________________________________________
B_toks (InputLayer)             (None, 3)            0                                            
__________________________________________________________________________________________________
B_Pos (InputLayer)              (None, 3)            0                                            
__________________________________________________________________________________________________
concatenate_64 (Concatenate)    (None, 4, 445)       0           S0_toksEmb[0][0]                 
                                                                 S0_tPosEmb[0][0]                 
__________________________________________________________________________________________________
concatenate_65 (Concatenate)    (None, 4, 445)       0           S1_toksEmb[0][0]                 
                                                                 S1_PosEmb[0][0]                  
__________________________________________________________________________________________________
B_toksEmb (Embedding)           (None, 3, 300)       2797500     B_toks[0][0]                     
__________________________________________________________________________________________________
B_PosEmb (Embedding)            (None, 3, 145)       2755        B_Pos[0][0]                      
__________________________________________________________________________________________________
s0Rnn (GRU)                     (None, 30)           42840       concatenate_64[0][0]             
__________________________________________________________________________________________________
s1Rnn (GRU)                     (None, 30)           42840       concatenate_65[0][0]             
__________________________________________________________________________________________________
B_toksFlat (Flatten)            (None, 900)          0           B_toksEmb[0][0]                  
__________________________________________________________________________________________________
B_PosFlat (Flatten)             (None, 435)          0           B_PosEmb[0][0]                   
__________________________________________________________________________________________________
dropout_64 (Dropout)            (None, 30)           0           s0Rnn[0][0]                      
__________________________________________________________________________________________________
dropout_65 (Dropout)            (None, 30)           0           s1Rnn[0][0]                      
__________________________________________________________________________________________________
concatenate_66 (Concatenate)    (None, 1395)         0           B_toksFlat[0][0]                 
                                                                 B_PosFlat[0][0]                  
                                                                 dropout_64[0][0]                 
                                                                 dropout_65[0][0]                 
__________________________________________________________________________________________________
dense_43 (Dense)                (None, 122)          170312      concatenate_66[0][0]             
__________________________________________________________________________________________________
dropout_66 (Dropout)            (None, 122)          0           dense_43[0][0]                   
__________________________________________________________________________________________________
dense_44 (Dense)                (None, 4)            492         dropout_66[0][0]                 
==================================================================================================
Total params: 8,657,249
Trainable params: 8,657,249
Non-trainable params: 0
__________________________________________________________________________________________________
None
==================================================================================================
…
	Token occurrences: 42020
	MWE number: 451
	MWE occurrences: 670
	Continuous occurrences: 75.0 %
	MWE length: 2.14
	Seen occurrences : 57% 
	Recognizable MWEs: 100.0 %
	MWT occurrences: 1

==================================================================================================
__________________________________________________________________________________________________
Layer (type)                    Output Shape         Param #     Connected to                     
==================================================================================================
S0_toks (InputLayer)            (None, 4)            0                                            
__________________________________________________________________________________________________
S0_Pos (InputLayer)             (None, 4)            0                                            
__________________________________________________________________________________________________
S1_toks (InputLayer)            (None, 4)            0                                            
__________________________________________________________________________________________________
S1_Pos (InputLayer)             (None, 4)            0                                            
__________________________________________________________________________________________________
S0_toksEmb (Embedding)          (None, 4, 174)       1031124     S0_toks[0][0]                    
__________________________________________________________________________________________________
S0_tPosEmb (Embedding)          (None, 4, 95)        1805        S0_Pos[0][0]                     
__________________________________________________________________________________________________
S1_toksEmb (Embedding)          (None, 4, 174)       1031124     S1_toks[0][0]                    
__________________________________________________________________________________________________
S1_PosEmb (Embedding)           (None, 4, 95)        1805        S1_Pos[0][0]                     
__________________________________________________________________________________________________
B_toks (InputLayer)             (None, 2)            0                                            
__________________________________________________________________________________________________
B_Pos (InputLayer)              (None, 2)            0                                            
__________________________________________________________________________________________________
concatenate_67 (Concatenate)    (None, 4, 269)       0           S0_toksEmb[0][0]                 
                                                                 S0_tPosEmb[0][0]                 
__________________________________________________________________________________________________
concatenate_68 (Concatenate)    (None, 4, 269)       0           S1_toksEmb[0][0]                 
                                                                 S1_PosEmb[0][0]                  
__________________________________________________________________________________________________
B_toksEmb (Embedding)           (None, 2, 174)       1031124     B_toks[0][0]                     
__________________________________________________________________________________________________
B_PosEmb (Embedding)            (None, 2, 95)        1805        B_Pos[0][0]                      
__________________________________________________________________________________________________
s0Rnn (LSTM)                    (None, 27)           32076       concatenate_67[0][0]             
__________________________________________________________________________________________________
s1Rnn (LSTM)                    (None, 27)           32076       concatenate_68[0][0]             
__________________________________________________________________________________________________
B_toksFlat (Flatten)            (None, 348)          0           B_toksEmb[0][0]                  
__________________________________________________________________________________________________
B_PosFlat (Flatten)             (None, 190)          0           B_PosEmb[0][0]                   
__________________________________________________________________________________________________
dropout_67 (Dropout)            (None, 27)           0           s0Rnn[0][0]                      
__________________________________________________________________________________________________
dropout_68 (Dropout)            (None, 27)           0           s1Rnn[0][0]                      
__________________________________________________________________________________________________
concatenate_69 (Concatenate)    (None, 592)          0           B_toksFlat[0][0]                 
                                                                 B_PosFlat[0][0]                  
                                                                 dropout_67[0][0]                 
                                                                 dropout_68[0][0]                 
__________________________________________________________________________________________________
dense_45 (Dense)                (None, 41)           24313       concatenate_69[0][0]             
__________________________________________________________________________________________________
dropout_69 (Dropout)            (None, 41)           0           dense_45[0][0]                   
__________________________________________________________________________________________________
dense_46 (Dense)                (None, 4)            168         dropout_69[0][0]                 
==================================================================================================
Total params: 3,187,420
Trainable params: 3,187,420
Non-trainable params: 0
__________________________________________________________________________________________________
None
==================================================================================================
…
	Token occurrences: 42020
	MWE number: 451
	MWE occurrences: 670
	Continuous occurrences: 75.0 %
	MWE length: 2.14
	Seen occurrences : 57% 
	Recognizable MWEs: 100.0 %
	MWT occurrences: 1

==================================================================================================
__________________________________________________________________________________________________
Layer (type)                    Output Shape         Param #     Connected to                     
==================================================================================================
S0_toks (InputLayer)            (None, 4)            0                                            
__________________________________________________________________________________________________
S0_Pos (InputLayer)             (None, 4)            0                                            
__________________________________________________________________________________________________
S1_toks (InputLayer)            (None, 4)            0                                            
__________________________________________________________________________________________________
S1_Pos (InputLayer)             (None, 4)            0                                            
__________________________________________________________________________________________________
S0_toksEmb (Embedding)          (None, 4, 180)       212040      S0_toks[0][0]                    
__________________________________________________________________________________________________
S0_tPosEmb (Embedding)          (None, 4, 78)        1482        S0_Pos[0][0]                     
__________________________________________________________________________________________________
S1_toksEmb (Embedding)          (None, 4, 180)       212040      S1_toks[0][0]                    
__________________________________________________________________________________________________
S1_PosEmb (Embedding)           (None, 4, 78)        1482        S1_Pos[0][0]                     
__________________________________________________________________________________________________
B_toks (InputLayer)             (None, 2)            0                                            
__________________________________________________________________________________________________
B_Pos (InputLayer)              (None, 2)            0                                            
__________________________________________________________________________________________________
concatenate_70 (Concatenate)    (None, 4, 258)       0           S0_toksEmb[0][0]                 
                                                                 S0_tPosEmb[0][0]                 
__________________________________________________________________________________________________
concatenate_71 (Concatenate)    (None, 4, 258)       0           S1_toksEmb[0][0]                 
                                                                 S1_PosEmb[0][0]                  
__________________________________________________________________________________________________
B_toksEmb (Embedding)           (None, 2, 180)       212040      B_toks[0][0]                     
__________________________________________________________________________________________________
B_PosEmb (Embedding)            (None, 2, 78)        1482        B_Pos[0][0]                      
__________________________________________________________________________________________________
s0Rnn (GRU)                     (None, 35)           30870       concatenate_70[0][0]             
__________________________________________________________________________________________________
s1Rnn (GRU)                     (None, 35)           30870       concatenate_71[0][0]             
__________________________________________________________________________________________________
B_toksFlat (Flatten)            (None, 360)          0           B_toksEmb[0][0]                  
__________________________________________________________________________________________________
B_PosFlat (Flatten)             (None, 156)          0           B_PosEmb[0][0]                   
__________________________________________________________________________________________________
dropout_70 (Dropout)            (None, 35)           0           s0Rnn[0][0]                      
__________________________________________________________________________________________________
dropout_71 (Dropout)            (None, 35)           0           s1Rnn[0][0]                      
__________________________________________________________________________________________________
concatenate_72 (Concatenate)    (None, 586)          0           B_toksFlat[0][0]                 
                                                                 B_PosFlat[0][0]                  
                                                                 dropout_70[0][0]                 
                                                                 dropout_71[0][0]                 
__________________________________________________________________________________________________
dense_47 (Dense)                (None, 91)           53417       concatenate_72[0][0]             
__________________________________________________________________________________________________
dropout_72 (Dropout)            (None, 91)           0           dense_47[0][0]                   
__________________________________________________________________________________________________
dense_48 (Dense)                (None, 4)            368         dropout_72[0][0]                 
==================================================================================================
Total params: 756,091
Trainable params: 756,091
Non-trainable params: 0
__________________________________________________________________________________________________
None
==================================================================================================
…
	Token occurrences: 42020
	MWE number: 451
	MWE occurrences: 670
	Continuous occurrences: 75.0 %
	MWE length: 2.14
	Seen occurrences : 57% 
	Recognizable MWEs: 100.0 %
	MWT occurrences: 1

==================================================================================================
__________________________________________________________________________________________________
Layer (type)                    Output Shape         Param #     Connected to                     
==================================================================================================
S0_toks (InputLayer)            (None, 4)            0                                            
__________________________________________________________________________________________________
S0_Pos (InputLayer)             (None, 4)            0                                            
__________________________________________________________________________________________________
S1_toks (InputLayer)            (None, 4)            0                                            
__________________________________________________________________________________________________
S1_Pos (InputLayer)             (None, 4)            0                                            
__________________________________________________________________________________________________
S0_toksEmb (Embedding)          (None, 4, 186)       1102236     S0_toks[0][0]                    
__________________________________________________________________________________________________
S0_tPosEmb (Embedding)          (None, 4, 66)        1254        S0_Pos[0][0]                     
__________________________________________________________________________________________________
S1_toksEmb (Embedding)          (None, 4, 186)       1102236     S1_toks[0][0]                    
__________________________________________________________________________________________________
S1_PosEmb (Embedding)           (None, 4, 66)        1254        S1_Pos[0][0]                     
__________________________________________________________________________________________________
B_toks (InputLayer)             (None, 3)            0                                            
__________________________________________________________________________________________________
B_Pos (InputLayer)              (None, 3)            0                                            
__________________________________________________________________________________________________
concatenate_73 (Concatenate)    (None, 4, 252)       0           S0_toksEmb[0][0]                 
                                                                 S0_tPosEmb[0][0]                 
__________________________________________________________________________________________________
concatenate_74 (Concatenate)    (None, 4, 252)       0           S1_toksEmb[0][0]                 
                                                                 S1_PosEmb[0][0]                  
__________________________________________________________________________________________________
B_toksEmb (Embedding)           (None, 3, 186)       1102236     B_toks[0][0]                     
…
                                                                 dropout_124[0][0]                
                                                                 dropout_125[0][0]                
__________________________________________________________________________________________________
dense_83 (Dense)                (None, 382)          321262      concatenate_126[0][0]            
__________________________________________________________________________________________________
dropout_126 (Dropout)           (None, 382)          0           dense_83[0][0]                   
__________________________________________________________________________________________________
dense_84 (Dense)                (None, 4)            1532        dropout_126[0][0]                
==================================================================================================
Total params: 918,129
Trainable params: 918,129
Non-trainable params: 0
__________________________________________________________________________________________________
None
==================================================================================================
…
	Token occurrences: 42020
	MWE number: 451
	MWE occurrences: 670
	Continuous occurrences: 75.0 %
	MWE length: 2.14
	Seen occurrences : 57% 
	Recognizable MWEs: 100.0 %
	MWT occurrences: 1

==================================================================================================
__________________________________________________________________________________________________
Layer (type)                    Output Shape         Param #     Connected to                     
==================================================================================================
S0_toks (InputLayer)            (None, 4)            0                                            
__________________________________________________________________________________________________
S0_Pos (InputLayer)             (None, 4)            0                                            
__________________________________________________________________________________________________
S1_toks (InputLayer)            (None, 4)            0                                            
__________________________________________________________________________________________________
S1_Pos (InputLayer)             (None, 4)            0                                            
__________________________________________________________________________________________________
S0_toksEmb (Embedding)          (None, 4, 300)       2797500     S0_toks[0][0]                    
__________________________________________________________________________________________________
S0_tPosEmb (Embedding)          (None, 4, 74)        1406        S0_Pos[0][0]                     
__________________________________________________________________________________________________
S1_toksEmb (Embedding)          (None, 4, 300)       2797500     S1_toks[0][0]                    
__________________________________________________________________________________________________
S1_PosEmb (Embedding)           (None, 4, 74)        1406        S1_Pos[0][0]                     
__________________________________________________________________________________________________
B_toks (InputLayer)             (None, 3)            0                                            
__________________________________________________________________________________________________
B_Pos (InputLayer)              (None, 3)            0                                            
__________________________________________________________________________________________________
concatenate_127 (Concatenate)   (None, 4, 374)       0           S0_toksEmb[0][0]                 
                                                                 S0_tPosEmb[0][0]                 
__________________________________________________________________________________________________
concatenate_128 (Concatenate)   (None, 4, 374)       0           S1_toksEmb[0][0]                 
                                                                 S1_PosEmb[0][0]                  
__________________________________________________________________________________________________
B_toksEmb (Embedding)           (None, 3, 300)       2797500     B_toks[0][0]                     
__________________________________________________________________________________________________
B_PosEmb (Embedding)            (None, 3, 74)        1406        B_Pos[0][0]                      
__________________________________________________________________________________________________
s0Rnn (LSTM)                    (None, 28)           45136       concatenate_127[0][0]            
__________________________________________________________________________________________________
s1Rnn (LSTM)                    (None, 28)           45136       concatenate_128[0][0]            
__________________________________________________________________________________________________
B_toksFlat (Flatten)            (None, 900)          0           B_toksEmb[0][0]                  
__________________________________________________________________________________________________
B_PosFlat (Flatten)             (None, 222)          0           B_PosEmb[0][0]                   
__________________________________________________________________________________________________
dropout_127 (Dropout)           (None, 28)           0           s0Rnn[0][0]                      
__________________________________________________________________________________________________
dropout_128 (Dropout)           (None, 28)           0           s1Rnn[0][0]                      
__________________________________________________________________________________________________
concatenate_129 (Concatenate)   (None, 1178)         0           B_toksFlat[0][0]                 
                                                                 B_PosFlat[0][0]                  
                                                                 dropout_127[0][0]                
                                                                 dropout_128[0][0]                
__________________________________________________________________________________________________
dense_85 (Dense)                (None, 192)          226368      concatenate_129[0][0]            
__________________________________________________________________________________________________
dropout_129 (Dropout)           (None, 192)          0           dense_85[0][0]                   
__________________________________________________________________________________________________
dense_86 (Dense)                (None, 4)            772         dropout_129[0][0]                
==================================================================================================
Total params: 8,714,130
Trainable params: 8,714,130
Non-trainable params: 0
__________________________________________________________________________________________________
None
==================================================================================================
…
	Token occurrences: 42020
	MWE number: 451
	MWE occurrences: 670
	Continuous occurrences: 75.0 %
	MWE length: 2.14
	Seen occurrences : 57% 
	Recognizable MWEs: 100.0 %
	MWT occurrences: 1

==================================================================================================
__________________________________________________________________________________________________
Layer (type)                    Output Shape         Param #     Connected to                     
==================================================================================================
S0_toks (InputLayer)            (None, 4)            0                                            
__________________________________________________________________________________________________
S0_Pos (InputLayer)             (None, 4)            0                                            
__________________________________________________________________________________________________
S1_toks (InputLayer)            (None, 4)            0                                            
__________________________________________________________________________________________________
S1_Pos (InputLayer)             (None, 4)            0                                            
__________________________________________________________________________________________________
S0_toksEmb (Embedding)          (None, 4, 531)       3146706     S0_toks[0][0]                    
__________________________________________________________________________________________________
S0_tPosEmb (Embedding)          (None, 4, 24)        456         S0_Pos[0][0]                     
__________________________________________________________________________________________________
S1_toksEmb (Embedding)          (None, 4, 531)       3146706     S1_toks[0][0]                    
__________________________________________________________________________________________________
S1_PosEmb (Embedding)           (None, 4, 24)        456         S1_Pos[0][0]                     
__________________________________________________________________________________________________
B_toks (InputLayer)             (None, 2)            0                                            
__________________________________________________________________________________________________
B_Pos (InputLayer)              (None, 2)            0                                            
__________________________________________________________________________________________________
concatenate_130 (Concatenate)   (None, 4, 555)       0           S0_toksEmb[0][0]                 
                                                                 S0_tPosEmb[0][0]                 
__________________________________________________________________________________________________
concatenate_131 (Concatenate)   (None, 4, 555)       0           S1_toksEmb[0][0]                 
                                                                 S1_PosEmb[0][0]                  
__________________________________________________________________________________________________
B_toksEmb (Embedding)           (None, 2, 531)       3146706     B_toks[0][0]                     
__________________________________________________________________________________________________
B_PosEmb (Embedding)            (None, 2, 24)        456         B_Pos[0][0]                      
__________________________________________________________________________________________________
s0Rnn (GRU)                     (None, 43)           77271       concatenate_130[0][0]            
__________________________________________________________________________________________________
s1Rnn (GRU)                     (None, 43)           77271       concatenate_131[0][0]            
__________________________________________________________________________________________________
B_toksFlat (Flatten)            (None, 1062)         0           B_toksEmb[0][0]                  
__________________________________________________________________________________________________
B_PosFlat (Flatten)             (None, 48)           0           B_PosEmb[0][0]                   
__________________________________________________________________________________________________
dropout_130 (Dropout)           (None, 43)           0           s0Rnn[0][0]                      
__________________________________________________________________________________________________
dropout_131 (Dropout)           (None, 43)           0           s1Rnn[0][0]                      
__________________________________________________________________________________________________
concatenate_132 (Concatenate)   (None, 1196)         0           B_toksFlat[0][0]                 
                                                                 B_PosFlat[0][0]                  
                                                                 dropout_130[0][0]                
                                                                 dropout_131[0][0]                
__________________________________________________________________________________________________
dense_87 (Dense)                (None, 318)          380646      concatenate_132[0][0]            
__________________________________________________________________________________________________
dropout_132 (Dropout)           (None, 318)          0           dense_87[0][0]                   
__________________________________________________________________________________________________
dense_88 (Dense)                (None, 4)            1276        dropout_132[0][0]                
==================================================================================================
Total params: 9,977,950
Trainable params: 9,977,950
Non-trainable params: 0
__________________________________________________________________________________________________
None
==================================================================================================
…
	Token occurrences: 42020
	MWE number: 451
	MWE occurrences: 670
	Continuous occurrences: 75.0 %
	MWE length: 2.14
	Seen occurrences : 57% 
	Recognizable MWEs: 100.0 %
	MWT occurrences: 1

==================================================================================================
__________________________________________________________________________________________________
Layer (type)                    Output Shape         Param #     Connected to                     
==================================================================================================
S0_toks (InputLayer)            (None, 4)            0                                            
__________________________________________________________________________________________________
S0_Pos (InputLayer)             (None, 4)            0                                            
__________________________________________________________________________________________________
S1_toks (InputLayer)            (None, 4)            0                                            
__________________________________________________________________________________________________
S1_Pos (InputLayer)             (None, 4)            0                                            
__________________________________________________________________________________________________
S0_toksEmb (Embedding)          (None, 4, 300)       353400      S0_toks[0][0]                    
__________________________________________________________________________________________________
S0_tPosEmb (Embedding)          (None, 4, 16)        304         S0_Pos[0][0]                     
__________________________________________________________________________________________________
S1_toksEmb (Embedding)          (None, 4, 300)       353400      S1_toks[0][0]                    
__________________________________________________________________________________________________
S1_PosEmb (Embedding)           (None, 4, 16)        304         S1_Pos[0][0]                     
__________________________________________________________________________________________________
B_toks (InputLayer)             (None, 1)            0                                            
__________________________________________________________________________________________________
B_Pos (InputLayer)              (None, 1)            0                                            
__________________________________________________________________________________________________
concatenate_133 (Concatenate)   (None, 4, 316)       0           S0_toksEmb[0][0]                 
                                                                 S0_tPosEmb[0][0]                 
__________________________________________________________________________________________________
concatenate_134 (Concatenate)   (None, 4, 316)       0           S1_toksEmb[0][0]                 
                                                                 S1_PosEmb[0][0]                  
__________________________________________________________________________________________________
B_toksEmb (Embedding)           (None, 1, 300)       353400      B_toks[0][0]                     
__________________________________________________________________________________________________
B_PosEmb (Embedding)            (None, 1, 16)        304         B_Pos[0][0]                      
__________________________________________________________________________________________________
s0Rnn (LSTM)                    (None, 77)           121352      concatenate_133[0][0]            
__________________________________________________________________________________________________
s1Rnn (LSTM)                    (None, 77)           121352      concatenate_134[0][0]            
__________________________________________________________________________________________________
B_toksFlat (Flatten)            (None, 300)          0           B_toksEmb[0][0]                  
__________________________________________________________________________________________________
B_PosFlat (Flatten)             (None, 16)           0           B_PosEmb[0][0]                   
__________________________________________________________________________________________________
dropout_133 (Dropout)           (None, 77)           0           s0Rnn[0][0]                      
__________________________________________________________________________________________________
dropout_134 (Dropout)           (None, 77)           0           s1Rnn[0][0]                      
__________________________________________________________________________________________________
concatenate_135 (Concatenate)   (None, 470)          0           B_toksFlat[0][0]                 
                                                                 B_PosFlat[0][0]                  
                                                                 dropout_133[0][0]                
                                                                 dropout_134[0][0]                
__________________________________________________________________________________________________
dense_89 (Dense)                (None, 25)           11775       concatenate_135[0][0]            
__________________________________________________________________________________________________
dropout_135 (Dropout)           (None, 25)           0           dense_89[0][0]                   
__________________________________________________________________________________________________
dense_90 (Dense)                (None, 4)            104         dropout_135[0][0]                
==================================================================================================
Total params: 1,315,695
Trainable params: 1,315,695
Non-trainable params: 0
__________________________________________________________________________________________________
None
==================================================================================================
…
	Token occurrences: 42020
	MWE number: 451
	MWE occurrences: 670
	Continuous occurrences: 75.0 %
	MWE length: 2.14
	Seen occurrences : 57% 
	Recognizable MWEs: 100.0 %
	MWT occurrences: 1

==================================================================================================
__________________________________________________________________________________________________
Layer (type)                    Output Shape         Param #     Connected to                     
==================================================================================================
S0_toks (InputLayer)            (None, 4)            0                                            
__________________________________________________________________________________________________
S0_Pos (InputLayer)             (None, 4)            0                                            
__________________________________________________________________________________________________
S1_toks (InputLayer)            (None, 4)            0                                            
__________________________________________________________________________________________________
S1_Pos (InputLayer)             (None, 4)            0                                            
__________________________________________________________________________________________________
S0_toksEmb (Embedding)          (None, 4, 300)       353400      S0_toks[0][0]                    
__________________________________________________________________________________________________
S0_tPosEmb (Embedding)          (None, 4, 115)       2185        S0_Pos[0][0]                     
__________________________________________________________________________________________________
S1_toksEmb (Embedding)          (None, 4, 300)       353400      S1_toks[0][0]                    
__________________________________________________________________________________________________
S1_PosEmb (Embedding)           (None, 4, 115)       2185        S1_Pos[0][0]                     
__________________________________________________________________________________________________
B_toks (InputLayer)             (None, 3)            0                                            
__________________________________________________________________________________________________
B_Pos (InputLayer)              (None, 3)            0                                            
__________________________________________________________________________________________________
concatenate_136 (Concatenate)   (None, 4, 415)       0           S0_toksEmb[0][0]                 
                                                                 S0_tPosEmb[0][0]                 
__________________________________________________________________________________________________
concatenate_137 (Concatenate)   (None, 4, 415)       0           S1_toksEmb[0][0]                 
                                                                 S1_PosEmb[0][0]                  
__________________________________________________________________________________________________
B_toksEmb (Embedding)           (None, 3, 300)       353400      B_toks[0][0]                     
__________________________________________________________________________________________________
B_PosEmb (Embedding)            (None, 3, 115)       2185        B_Pos[0][0]                      
__________________________________________________________________________________________________
s0Rnn (GRU)                     (None, 53)           74571       concatenate_136[0][0]            
__________________________________________________________________________________________________
s1Rnn (GRU)                     (None, 53)           74571       concatenate_137[0][0]            
__________________________________________________________________________________________________
B_toksFlat (Flatten)            (None, 900)          0           B_toksEmb[0][0]                  
__________________________________________________________________________________________________
B_PosFlat (Flatten)             (None, 345)          0           B_PosEmb[0][0]                   
__________________________________________________________________________________________________
dropout_136 (Dropout)           (None, 53)           0           s0Rnn[0][0]                      
__________________________________________________________________________________________________
dropout_137 (Dropout)           (None, 53)           0           s1Rnn[0][0]                      
__________________________________________________________________________________________________
concatenate_138 (Concatenate)   (None, 1351)         0           B_toksFlat[0][0]                 
                                                                 B_PosFlat[0][0]                  
                                                                 dropout_136[0][0]                
                                                                 dropout_137[0][0]                
__________________________________________________________________________________________________
dense_91 (Dense)                (None, 65)           87880       concatenate_138[0][0]            
__________________________________________________________________________________________________
dropout_138 (Dropout)           (None, 65)           0           dense_91[0][0]                   
__________________________________________________________________________________________________
dense_92 (Dense)                (None, 4)            264         dropout_138[0][0]                
==================================================================================================
Total params: 1,304,041
Trainable params: 1,304,041
Non-trainable params: 0
__________________________________________________________________________________________________
None
==================================================================================================
…
	Token occurrences: 42020
	MWE number: 451
	MWE occurrences: 670
	Continuous occurrences: 75.0 %
	MWE length: 2.14
	Seen occurrences : 57% 
	Recognizable MWEs: 100.0 %
	MWT occurrences: 1

==================================================================================================
__________________________________________________________________________________________________
Layer (type)                    Output Shape         Param #     Connected to                     
==================================================================================================
S0_toks (InputLayer)            (None, 4)            0                                            
__________________________________________________________________________________________________
S0_Pos (InputLayer)             (None, 4)            0                                            
__________________________________________________________________________________________________
S1_toks (InputLayer)            (None, 4)            0                                            
__________________________________________________________________________________________________
S1_Pos (InputLayer)             (None, 4)            0                                            
__________________________________________________________________________________________________
S0_toksEmb (Embedding)          (None, 4, 340)       400520      S0_toks[0][0]                    
__________________________________________________________________________________________________
S0_tPosEmb (Embedding)          (None, 4, 35)        665         S0_Pos[0][0]                     
__________________________________________________________________________________________________
S1_toksEmb (Embedding)          (None, 4, 340)       400520      S1_toks[0][0]                    
__________________________________________________________________________________________________
S1_PosEmb (Embedding)           (None, 4, 35)        665         S1_Pos[0][0]                     
__________________________________________________________________________________________________
B_toks (InputLayer)             (None, 2)            0                                            
__________________________________________________________________________________________________
B_Pos (InputLayer)              (None, 2)            0                                            
__________________________________________________________________________________________________
concatenate_139 (Concatenate)   (None, 4, 375)       0           S0_toksEmb[0][0]                 
                                                                 S0_tPosEmb[0][0]                 
__________________________________________________________________________________________________
concatenate_140 (Concatenate)   (None, 4, 375)       0           S1_toksEmb[0][0]                 
                                                                 S1_PosEmb[0][0]                  
__________________________________________________________________________________________________
B_toksEmb (Embedding)           (None, 2, 340)       400520      B_toks[0][0]                     
__________________________________________________________________________________________________
B_PosEmb (Embedding)            (None, 2, 35)        665         B_Pos[0][0]                      
__________________________________________________________________________________________________
s0Rnn (GRU)                     (None, 102)          146268      concatenate_139[0][0]            
__________________________________________________________________________________________________
s1Rnn (GRU)                     (None, 102)          146268      concatenate_140[0][0]            
__________________________________________________________________________________________________
B_toksFlat (Flatten)            (None, 680)          0           B_toksEmb[0][0]                  
__________________________________________________________________________________________________
B_PosFlat (Flatten)             (None, 70)           0           B_PosEmb[0][0]                   
__________________________________________________________________________________________________
dropout_139 (Dropout)           (None, 102)          0           s0Rnn[0][0]                      
__________________________________________________________________________________________________
dropout_140 (Dropout)           (None, 102)          0           s1Rnn[0][0]                      
__________________________________________________________________________________________________
concatenate_141 (Concatenate)   (None, 954)          0           B_toksFlat[0][0]                 
                                                                 B_PosFlat[0][0]                  
                                                                 dropout_139[0][0]                
                                                                 dropout_140[0][0]                
__________________________________________________________________________________________________
dense_93 (Dense)                (None, 329)          314195      concatenate_141[0][0]            
__________________________________________________________________________________________________
dropout_141 (Dropout)           (None, 329)          0           dense_93[0][0]                   
__________________________________________________________________________________________________
dense_94 (Dense)                (None, 4)            1320        dropout_141[0][0]                
==================================================================================================
Total params: 1,811,606
Trainable params: 1,811,606
Non-trainable params: 0
__________________________________________________________________________________________________
None
==================================================================================================
…
	Token occurrences: 42020
	MWE number: 451
	MWE occurrences: 670
	Continuous occurrences: 75.0 %
	MWE length: 2.14
	Seen occurrences : 57% 
	Recognizable MWEs: 100.0 %
	MWT occurrences: 1

==================================================================================================
__________________________________________________________________________________________________
Layer (type)                    Output Shape         Param #     Connected to                     
==================================================================================================
S0_toks (InputLayer)            (None, 4)            0                                            
__________________________________________________________________________________________________
S0_Pos (InputLayer)             (None, 4)            0                                            
__________________________________________________________________________________________________
S1_toks (InputLayer)            (None, 4)            0                                            
__________________________________________________________________________________________________
S1_Pos (InputLayer)             (None, 4)            0                                            
__________________________________________________________________________________________________
S0_toksEmb (Embedding)          (None, 4, 300)       150900      S0_toks[0][0]                    
__________________________________________________________________________________________________
S0_tPosEmb (Embedding)          (None, 4, 24)        456         S0_Pos[0][0]                     
__________________________________________________________________________________________________
S1_toksEmb (Embedding)          (None, 4, 300)       150900      S1_toks[0][0]                    
__________________________________________________________________________________________________
S1_PosEmb (Embedding)           (None, 4, 24)        456         S1_Pos[0][0]                     
__________________________________________________________________________________________________
B_toks (InputLayer)             (None, 2)            0                                            
__________________________________________________________________________________________________
B_Pos (InputLayer)              (None, 2)            0                                            
__________________________________________________________________________________________________
concatenate_142 (Concatenate)   (None, 4, 324)       0           S0_toksEmb[0][0]                 
                                                                 S0_tPosEmb[0][0]                 
__________________________________________________________________________________________________
concatenate_143 (Concatenate)   (None, 4, 324)       0           S1_toksEmb[0][0]                 
                                                                 S1_PosEmb[0][0]                  
__________________________________________________________________________________________________
B_toksEmb (Embedding)           (None, 2, 300)       150900      B_toks[0][0]                     
__________________________________________________________________________________________________
B_PosEmb (Embedding)            (None, 2, 24)        456         B_Pos[0][0]                      
__________________________________________________________________________________________________
s0Rnn (GRU)                     (None, 49)           54978       concatenate_142[0][0]            
__________________________________________________________________________________________________
s1Rnn (GRU)                     (None, 49)           54978       concatenate_143[0][0]            
__________________________________________________________________________________________________
B_toksFlat (Flatten)            (None, 600)          0           B_toksEmb[0][0]                  
__________________________________________________________________________________________________
B_PosFlat (Flatten)             (None, 48)           0           B_PosEmb[0][0]                   
__________________________________________________________________________________________________
dropout_142 (Dropout)           (None, 49)           0           s0Rnn[0][0]                      
__________________________________________________________________________________________________
dropout_143 (Dropout)           (None, 49)           0           s1Rnn[0][0]                      
__________________________________________________________________________________________________
concatenate_144 (Concatenate)   (None, 746)          0           B_toksFlat[0][0]                 
                                                                 B_PosFlat[0][0]                  
                                                                 dropout_142[0][0]                
                                                                 dropout_143[0][0]                
__________________________________________________________________________________________________
dense_95 (Dense)                (None, 160)          119520      concatenate_144[0][0]            
__________________________________________________________________________________________________
dropout_144 (Dropout)           (None, 160)          0           dense_95[0][0]                   
__________________________________________________________________________________________________
dense_96 (Dense)                (None, 4)            644         dropout_144[0][0]                
==================================================================================================
Total params: 684,188
Trainable params: 684,188
Non-trainable params: 0
__________________________________________________________________________________________________
None
==================================================================================================
…
	Token occurrences: 42020
	MWE number: 451
	MWE occurrences: 670
	Continuous occurrences: 75.0 %
	MWE length: 2.14
	Seen occurrences : 57% 
	Recognizable MWEs: 100.0 %
	MWT occurrences: 1

==================================================================================================
__________________________________________________________________________________________________
Layer (type)                    Output Shape         Param #     Connected to                     
==================================================================================================
S0_toks (InputLayer)            (None, 4)            0                                            
__________________________________________________________________________________________________
S0_Pos (InputLayer)             (None, 4)            0                                            
__________________________________________________________________________________________________
S1_toks (InputLayer)            (None, 4)            0                                            
__________________________________________________________________________________________________
S1_Pos (InputLayer)             (None, 4)            0                                            
__________________________________________________________________________________________________
S0_toksEmb (Embedding)          (None, 4, 300)       353400      S0_toks[0][0]                    
__________________________________________________________________________________________________
S0_tPosEmb (Embedding)          (None, 4, 36)        684         S0_Pos[0][0]                     
__________________________________________________________________________________________________
S1_toksEmb (Embedding)          (None, 4, 300)       353400      S1_toks[0][0]                    
__________________________________________________________________________________________________
S1_PosEmb (Embedding)           (None, 4, 36)        684         S1_Pos[0][0]                     
__________________________________________________________________________________________________
B_toks (InputLayer)             (None, 2)            0                                            
__________________________________________________________________________________________________
B_Pos (InputLayer)              (None, 2)            0                                            
__________________________________________________________________________________________________
concatenate_145 (Concatenate)   (None, 4, 336)       0           S0_toksEmb[0][0]                 
                                                                 S0_tPosEmb[0][0]                 
__________________________________________________________________________________________________
concatenate_146 (Concatenate)   (None, 4, 336)       0           S1_toksEmb[0][0]                 
                                                                 S1_PosEmb[0][0]                  
__________________________________________________________________________________________________
B_toksEmb (Embedding)           (None, 2, 300)       353400      B_toks[0][0]                     
__________________________________________________________________________________________________
B_PosEmb (Embedding)            (None, 2, 36)        684         B_Pos[0][0]                      
__________________________________________________________________________________________________
s0Rnn (GRU)                     (None, 110)          147510      concatenate_145[0][0]            
__________________________________________________________________________________________________
s1Rnn (GRU)                     (None, 110)          147510      concatenate_146[0][0]            
__________________________________________________________________________________________________
B_toksFlat (Flatten)            (None, 600)          0           B_toksEmb[0][0]                  
__________________________________________________________________________________________________
B_PosFlat (Flatten)             (None, 72)           0           B_PosEmb[0][0]                   
__________________________________________________________________________________________________
dropout_145 (Dropout)           (None, 110)          0           s0Rnn[0][0]                      
__________________________________________________________________________________________________
dropout_146 (Dropout)           (None, 110)          0           s1Rnn[0][0]                      
__________________________________________________________________________________________________
concatenate_147 (Concatenate)   (None, 892)          0           B_toksFlat[0][0]                 
                                                                 B_PosFlat[0][0]                  
                                                                 dropout_145[0][0]                
                                                                 dropout_146[0][0]                
__________________________________________________________________________________________________
dense_97 (Dense)                (None, 556)          496508      concatenate_147[0][0]            
__________________________________________________________________________________________________
dropout_147 (Dropout)           (None, 556)          0           dense_97[0][0]                   
__________________________________________________________________________________________________
dense_98 (Dense)                (None, 4)            2228        dropout_147[0][0]                
==================================================================================================
Total params: 1,856,008
Trainable params: 1,856,008
Non-trainable params: 0
__________________________________________________________________________________________________
None
==================================================================================================
…
	Token occurrences: 42020
	MWE number: 451
	MWE occurrences: 670
	Continuous occurrences: 75.0 %
	MWE length: 2.14
	Seen occurrences : 57% 
	Recognizable MWEs: 100.0 %
	MWT occurrences: 1

==================================================================================================
__________________________________________________________________________________________________
Layer (type)                    Output Shape         Param #     Connected to                     
==================================================================================================
S0_toks (InputLayer)            (None, 4)            0                                            
__________________________________________________________________________________________________
S0_Pos (InputLayer)             (None, 4)            0                                            
__________________________________________________________________________________________________
S1_toks (InputLayer)            (None, 4)            0                                            
__________________________________________________________________________________________________
S1_Pos (InputLayer)             (None, 4)            0                                            
__________________________________________________________________________________________________
S0_toksEmb (Embedding)          (None, 4, 300)       353400      S0_toks[0][0]                    
__________________________________________________________________________________________________
S0_tPosEmb (Embedding)          (None, 4, 22)        418         S0_Pos[0][0]                     
__________________________________________________________________________________________________
S1_toksEmb (Embedding)          (None, 4, 300)       353400      S1_toks[0][0]                    
__________________________________________________________________________________________________
S1_PosEmb (Embedding)           (None, 4, 22)        418         S1_Pos[0][0]                     
__________________________________________________________________________________________________
B_toks (InputLayer)             (None, 2)            0                                            
__________________________________________________________________________________________________
B_Pos (InputLayer)              (None, 2)            0                                            
__________________________________________________________________________________________________
concatenate_148 (Concatenate)   (None, 4, 322)       0           S0_toksEmb[0][0]                 
                                                                 S0_tPosEmb[0][0]                 
__________________________________________________________________________________________________
concatenate_149 (Concatenate)   (None, 4, 322)       0           S1_toksEmb[0][0]                 
                                                                 S1_PosEmb[0][0]                  
__________________________________________________________________________________________________
B_toksEmb (Embedding)           (None, 2, 300)       353400      B_toks[0][0]                     
__________________________________________________________________________________________________
B_PosEmb (Embedding)            (None, 2, 22)        418         B_Pos[0][0]                      
__________________________________________________________________________________________________
s0Rnn (GRU)                     (None, 137)          189060      concatenate_148[0][0]            
__________________________________________________________________________________________________
s1Rnn (GRU)                     (None, 137)          189060      concatenate_149[0][0]            
__________________________________________________________________________________________________
B_toksFlat (Flatten)            (None, 600)          0           B_toksEmb[0][0]                  
__________________________________________________________________________________________________
B_PosFlat (Flatten)             (None, 44)           0           B_PosEmb[0][0]                   
__________________________________________________________________________________________________
dropout_148 (Dropout)           (None, 137)          0           s0Rnn[0][0]                      
__________________________________________________________________________________________________
dropout_149 (Dropout)           (None, 137)          0           s1Rnn[0][0]                      
__________________________________________________________________________________________________
concatenate_150 (Concatenate)   (None, 918)          0           B_toksFlat[0][0]                 
                                                                 B_PosFlat[0][0]                  
                                                                 dropout_148[0][0]                
                                                                 dropout_149[0][0]                
__________________________________________________________________________________________________
dense_99 (Dense)                (None, 117)          107523      concatenate_150[0][0]            
__________________________________________________________________________________________________
dropout_150 (Dropout)           (None, 117)          0           dense_99[0][0]                   
__________________________________________________________________________________________________
dense_100 (Dense)               (None, 4)            472         dropout_150[0][0]                
==================================================================================================
Total params: 1,547,569
Trainable params: 1,547,569
Non-trainable params: 0
__________________________________________________________________________________________________
None
==================================================================================================
…
