…
	Token occurrences: 42020
	MWE number: 451
	MWE occurrences: 670
	Continuous occurrences: 75.0 %
	MWE length: 2.14
	Seen occurrences : 57% 
	Recognizable MWEs: 100.0 %
	MWT occurrences: 1

==================================================================================================
__________________________________________________________________________________________________
Layer (type)                    Output Shape         Param #     Connected to                     
==================================================================================================
S0_toks (InputLayer)            (None, 4)            0                                            
__________________________________________________________________________________________________
S0_Pos (InputLayer)             (None, 4)            0                                            
__________________________________________________________________________________________________
S1_toks (InputLayer)            (None, 4)            0                                            
__________________________________________________________________________________________________
S1_Pos (InputLayer)             (None, 4)            0                                            
__________________________________________________________________________________________________
S0_toksEmb (Embedding)          (None, 4, 375)       441750      S0_toks[0][0]                    
__________________________________________________________________________________________________
S0_tPosEmb (Embedding)          (None, 4, 23)        437         S0_Pos[0][0]                     
__________________________________________________________________________________________________
S1_toksEmb (Embedding)          (None, 4, 375)       441750      S1_toks[0][0]                    
__________________________________________________________________________________________________
S1_PosEmb (Embedding)           (None, 4, 23)        437         S1_Pos[0][0]                     
__________________________________________________________________________________________________
B_toks (InputLayer)             (None, 3)            0                                            
__________________________________________________________________________________________________
B_Pos (InputLayer)              (None, 3)            0                                            
__________________________________________________________________________________________________
concatenate_1 (Concatenate)     (None, 4, 398)       0           S0_toksEmb[0][0]                 
                                                                 S0_tPosEmb[0][0]                 
__________________________________________________________________________________________________
concatenate_2 (Concatenate)     (None, 4, 398)       0           S1_toksEmb[0][0]                 
                                                                 S1_PosEmb[0][0]                  
__________________________________________________________________________________________________
B_toksEmb (Embedding)           (None, 3, 375)       441750      B_toks[0][0]                     
__________________________________________________________________________________________________
B_PosEmb (Embedding)            (None, 3, 23)        437         B_Pos[0][0]                      
__________________________________________________________________________________________________
s0Rnn (GRU)                     (None, 47)           62886       concatenate_1[0][0]              
__________________________________________________________________________________________________
s1Rnn (GRU)                     (None, 47)           62886       concatenate_2[0][0]              
__________________________________________________________________________________________________
B_toksFlat (Flatten)            (None, 1125)         0           B_toksEmb[0][0]                  
__________________________________________________________________________________________________
B_PosFlat (Flatten)             (None, 69)           0           B_PosEmb[0][0]                   
__________________________________________________________________________________________________
dropout_1 (Dropout)             (None, 47)           0           s0Rnn[0][0]                      
__________________________________________________________________________________________________
dropout_2 (Dropout)             (None, 47)           0           s1Rnn[0][0]                      
__________________________________________________________________________________________________
concatenate_3 (Concatenate)     (None, 1288)         0           B_toksFlat[0][0]                 
                                                                 B_PosFlat[0][0]                  
                                                                 dropout_1[0][0]                  
                                                                 dropout_2[0][0]                  
__________________________________________________________________________________________________
dense_1 (Dense)                 (None, 227)          292603      concatenate_3[0][0]              
__________________________________________________________________________________________________
dropout_3 (Dropout)             (None, 227)          0           dense_1[0][0]                    
__________________________________________________________________________________________________
dense_2 (Dense)                 (None, 4)            912         dropout_3[0][0]                  
==================================================================================================
Total params: 1,745,848
Trainable params: 1,745,848
Non-trainable params: 0
__________________________________________________________________________________________________
None
==================================================================================================
…
	Token occurrences: 42020
	MWE number: 451
	MWE occurrences: 670
	Continuous occurrences: 75.0 %
	MWE length: 2.14
	Seen occurrences : 57% 
	Recognizable MWEs: 100.0 %
	MWT occurrences: 1

==================================================================================================
__________________________________________________________________________________________________
Layer (type)                    Output Shape         Param #     Connected to                     
==================================================================================================
S0_toks (InputLayer)            (None, 4)            0                                            
__________________________________________________________________________________________________
S0_Pos (InputLayer)             (None, 4)            0                                            
__________________________________________________________________________________________________
S1_toks (InputLayer)            (None, 4)            0                                            
__________________________________________________________________________________________________
S1_Pos (InputLayer)             (None, 4)            0                                            
__________________________________________________________________________________________________
S0_toksEmb (Embedding)          (None, 4, 101)       118978      S0_toks[0][0]                    
__________________________________________________________________________________________________
S0_tPosEmb (Embedding)          (None, 4, 71)        1349        S0_Pos[0][0]                     
__________________________________________________________________________________________________
S1_toksEmb (Embedding)          (None, 4, 101)       118978      S1_toks[0][0]                    
__________________________________________________________________________________________________
S1_PosEmb (Embedding)           (None, 4, 71)        1349        S1_Pos[0][0]                     
__________________________________________________________________________________________________
B_toks (InputLayer)             (None, 3)            0                                            
__________________________________________________________________________________________________
B_Pos (InputLayer)              (None, 3)            0                                            
__________________________________________________________________________________________________
concatenate_4 (Concatenate)     (None, 4, 172)       0           S0_toksEmb[0][0]                 
                                                                 S0_tPosEmb[0][0]                 
__________________________________________________________________________________________________
concatenate_5 (Concatenate)     (None, 4, 172)       0           S1_toksEmb[0][0]                 
                                                                 S1_PosEmb[0][0]                  
__________________________________________________________________________________________________
B_toksEmb (Embedding)           (None, 3, 101)       118978      B_toks[0][0]                     
__________________________________________________________________________________________________
B_PosEmb (Embedding)            (None, 3, 71)        1349        B_Pos[0][0]                      
__________________________________________________________________________________________________
s0Rnn (GRU)                     (None, 106)          88722       concatenate_4[0][0]              
__________________________________________________________________________________________________
s1Rnn (GRU)                     (None, 106)          88722       concatenate_5[0][0]              
__________________________________________________________________________________________________
B_toksFlat (Flatten)            (None, 303)          0           B_toksEmb[0][0]                  
__________________________________________________________________________________________________
B_PosFlat (Flatten)             (None, 213)          0           B_PosEmb[0][0]                   
__________________________________________________________________________________________________
dropout_4 (Dropout)             (None, 106)          0           s0Rnn[0][0]                      
__________________________________________________________________________________________________
dropout_5 (Dropout)             (None, 106)          0           s1Rnn[0][0]                      
__________________________________________________________________________________________________
concatenate_6 (Concatenate)     (None, 728)          0           B_toksFlat[0][0]                 
                                                                 B_PosFlat[0][0]                  
                                                                 dropout_4[0][0]                  
                                                                 dropout_5[0][0]                  
__________________________________________________________________________________________________
dense_3 (Dense)                 (None, 60)           43740       concatenate_6[0][0]              
__________________________________________________________________________________________________
dropout_6 (Dropout)             (None, 60)           0           dense_3[0][0]                    
__________________________________________________________________________________________________
dense_4 (Dense)                 (None, 4)            244         dropout_6[0][0]                  
==================================================================================================
Total params: 582,409
Trainable params: 582,409
Non-trainable params: 0
__________________________________________________________________________________________________
None
==================================================================================================
…
	Token occurrences: 42020
	MWE number: 451
	MWE occurrences: 670
	Continuous occurrences: 75.0 %
	MWE length: 2.14
	Seen occurrences : 57% 
	Recognizable MWEs: 100.0 %
	MWT occurrences: 1

==================================================================================================
__________________________________________________________________________________________________
Layer (type)                    Output Shape         Param #     Connected to                     
==================================================================================================
S0_toks (InputLayer)            (None, 4)            0                                            
__________________________________________________________________________________________________
S0_Pos (InputLayer)             (None, 4)            0                                            
__________________________________________________________________________________________________
S1_toks (InputLayer)            (None, 4)            0                                            
__________________________________________________________________________________________________
S1_Pos (InputLayer)             (None, 4)            0                                            
__________________________________________________________________________________________________
S0_toksEmb (Embedding)          (None, 4, 172)       1019272     S0_toks[0][0]                    
__________________________________________________________________________________________________
S0_tPosEmb (Embedding)          (None, 4, 31)        589         S0_Pos[0][0]                     
__________________________________________________________________________________________________
S1_toksEmb (Embedding)          (None, 4, 172)       1019272     S1_toks[0][0]                    
__________________________________________________________________________________________________
S1_PosEmb (Embedding)           (None, 4, 31)        589         S1_Pos[0][0]                     
__________________________________________________________________________________________________
B_toks (InputLayer)             (None, 2)            0                                            
__________________________________________________________________________________________________
B_Pos (InputLayer)              (None, 2)            0                                            
__________________________________________________________________________________________________
concatenate_7 (Concatenate)     (None, 4, 203)       0           S0_toksEmb[0][0]                 
                                                                 S0_tPosEmb[0][0]                 
__________________________________________________________________________________________________
concatenate_8 (Concatenate)     (None, 4, 203)       0           S1_toksEmb[0][0]                 
                                                                 S1_PosEmb[0][0]                  
__________________________________________________________________________________________________
B_toksEmb (Embedding)           (None, 2, 172)       1019272     B_toks[0][0]                     
__________________________________________________________________________________________________
B_PosEmb (Embedding)            (None, 2, 31)        589         B_Pos[0][0]                      
__________________________________________________________________________________________________
s0Rnn (LSTM)                    (None, 54)           55728       concatenate_7[0][0]              
__________________________________________________________________________________________________
s1Rnn (LSTM)                    (None, 54)           55728       concatenate_8[0][0]              
__________________________________________________________________________________________________
B_toksFlat (Flatten)            (None, 344)          0           B_toksEmb[0][0]                  
__________________________________________________________________________________________________
B_PosFlat (Flatten)             (None, 62)           0           B_PosEmb[0][0]                   
__________________________________________________________________________________________________
dropout_7 (Dropout)             (None, 54)           0           s0Rnn[0][0]                      
__________________________________________________________________________________________________
dropout_8 (Dropout)             (None, 54)           0           s1Rnn[0][0]                      
__________________________________________________________________________________________________
concatenate_9 (Concatenate)     (None, 514)          0           B_toksFlat[0][0]                 
                                                                 B_PosFlat[0][0]                  
                                                                 dropout_7[0][0]                  
                                                                 dropout_8[0][0]                  
__________________________________________________________________________________________________
dense_5 (Dense)                 (None, 84)           43260       concatenate_9[0][0]              
__________________________________________________________________________________________________
dropout_9 (Dropout)             (None, 84)           0           dense_5[0][0]                    
__________________________________________________________________________________________________
dense_6 (Dense)                 (None, 4)            340         dropout_9[0][0]                  
==================================================================================================
Total params: 3,214,639
Trainable params: 3,214,639
Non-trainable params: 0
__________________________________________________________________________________________________
None
==================================================================================================
…
	Token occurrences: 42020
	MWE number: 451
	MWE occurrences: 670
	Continuous occurrences: 75.0 %
	MWE length: 2.14
	Seen occurrences : 57% 
	Recognizable MWEs: 100.0 %
	MWT occurrences: 1

==================================================================================================
__________________________________________________________________________________________________
Layer (type)                    Output Shape         Param #     Connected to                     
==================================================================================================
S0_toks (InputLayer)            (None, 4)            0                                            
__________________________________________________________________________________________________
S0_Pos (InputLayer)             (None, 4)            0                                            
__________________________________________________________________________________________________
S1_toks (InputLayer)            (None, 4)            0                                            
__________________________________________________________________________________________________
S1_Pos (InputLayer)             (None, 4)            0                                            
__________________________________________________________________________________________________
S0_toksEmb (Embedding)          (None, 4, 300)       353400      S0_toks[0][0]                    
__________________________________________________________________________________________________
S0_tPosEmb (Embedding)          (None, 4, 16)        304         S0_Pos[0][0]                     
__________________________________________________________________________________________________
S1_toksEmb (Embedding)          (None, 4, 300)       353400      S1_toks[0][0]                    
__________________________________________________________________________________________________
S1_PosEmb (Embedding)           (None, 4, 16)        304         S1_Pos[0][0]                     
__________________________________________________________________________________________________
B_toks (InputLayer)             (None, 2)            0                                            
__________________________________________________________________________________________________
B_Pos (InputLayer)              (None, 2)            0                                            
__________________________________________________________________________________________________
concatenate_10 (Concatenate)    (None, 4, 316)       0           S0_toksEmb[0][0]                 
                                                                 S0_tPosEmb[0][0]                 
__________________________________________________________________________________________________
concatenate_11 (Concatenate)    (None, 4, 316)       0           S1_toksEmb[0][0]                 
                                                                 S1_PosEmb[0][0]                  
__________________________________________________________________________________________________
B_toksEmb (Embedding)           (None, 2, 300)       353400      B_toks[0][0]                     
__________________________________________________________________________________________________
B_PosEmb (Embedding)            (None, 2, 16)        304         B_Pos[0][0]                      
__________________________________________________________________________________________________
s0Rnn (GRU)                     (None, 33)           34650       concatenate_10[0][0]             
__________________________________________________________________________________________________
s1Rnn (GRU)                     (None, 33)           34650       concatenate_11[0][0]             
__________________________________________________________________________________________________
B_toksFlat (Flatten)            (None, 600)          0           B_toksEmb[0][0]                  
__________________________________________________________________________________________________
B_PosFlat (Flatten)             (None, 32)           0           B_PosEmb[0][0]                   
__________________________________________________________________________________________________
dropout_10 (Dropout)            (None, 33)           0           s0Rnn[0][0]                      
__________________________________________________________________________________________________
dropout_11 (Dropout)            (None, 33)           0           s1Rnn[0][0]                      
__________________________________________________________________________________________________
concatenate_12 (Concatenate)    (None, 698)          0           B_toksFlat[0][0]                 
                                                                 B_PosFlat[0][0]                  
                                                                 dropout_10[0][0]                 
                                                                 dropout_11[0][0]                 
__________________________________________________________________________________________________
dense_7 (Dense)                 (None, 350)          244650      concatenate_12[0][0]             
__________________________________________________________________________________________________
dropout_12 (Dropout)            (None, 350)          0           dense_7[0][0]                    
__________________________________________________________________________________________________
dense_8 (Dense)                 (None, 4)            1404        dropout_12[0][0]                 
==================================================================================================
Total params: 1,376,466
Trainable params: 1,376,466
Non-trainable params: 0
__________________________________________________________________________________________________
None
==================================================================================================
…
	Token occurrences: 42020
	MWE number: 451
	MWE occurrences: 670
	Continuous occurrences: 75.0 %
	MWE length: 2.14
	Seen occurrences : 57% 
	Recognizable MWEs: 100.0 %
	MWT occurrences: 1

==================================================================================================
__________________________________________________________________________________________________
Layer (type)                    Output Shape         Param #     Connected to                     
==================================================================================================
S0_toks (InputLayer)            (None, 4)            0                                            
__________________________________________________________________________________________________
S0_Pos (InputLayer)             (None, 4)            0                                            
__________________________________________________________________________________________________
S1_toks (InputLayer)            (None, 4)            0                                            
__________________________________________________________________________________________________
S1_Pos (InputLayer)             (None, 4)            0                                            
__________________________________________________________________________________________________
S0_toksEmb (Embedding)          (None, 4, 210)       105630      S0_toks[0][0]                    
__________________________________________________________________________________________________
S0_tPosEmb (Embedding)          (None, 4, 16)        304         S0_Pos[0][0]                     
__________________________________________________________________________________________________
S1_toksEmb (Embedding)          (None, 4, 210)       105630      S1_toks[0][0]                    
__________________________________________________________________________________________________
S1_PosEmb (Embedding)           (None, 4, 16)        304         S1_Pos[0][0]                     
__________________________________________________________________________________________________
B_toks (InputLayer)             (None, 2)            0                                            
__________________________________________________________________________________________________
B_Pos (InputLayer)              (None, 2)            0                                            
__________________________________________________________________________________________________
concatenate_13 (Concatenate)    (None, 4, 226)       0           S0_toksEmb[0][0]                 
                                                                 S0_tPosEmb[0][0]                 
__________________________________________________________________________________________________
concatenate_14 (Concatenate)    (None, 4, 226)       0           S1_toksEmb[0][0]                 
                                                                 S1_PosEmb[0][0]                  
__________________________________________________________________________________________________
B_toksEmb (Embedding)           (None, 2, 210)       105630      B_toks[0][0]                     
__________________________________________________________________________________________________
B_PosEmb (Embedding)            (None, 2, 16)        304         B_Pos[0][0]                      
__________________________________________________________________________________________________
s0Rnn (GRU)                     (None, 84)           78372       concatenate_13[0][0]             
__________________________________________________________________________________________________
s1Rnn (GRU)                     (None, 84)           78372       concatenate_14[0][0]             
__________________________________________________________________________________________________
B_toksFlat (Flatten)            (None, 420)          0           B_toksEmb[0][0]                  
__________________________________________________________________________________________________
B_PosFlat (Flatten)             (None, 32)           0           B_PosEmb[0][0]                   
__________________________________________________________________________________________________
dropout_13 (Dropout)            (None, 84)           0           s0Rnn[0][0]                      
__________________________________________________________________________________________________
dropout_14 (Dropout)            (None, 84)           0           s1Rnn[0][0]                      
__________________________________________________________________________________________________
concatenate_15 (Concatenate)    (None, 620)          0           B_toksFlat[0][0]                 
                                                                 B_PosFlat[0][0]                  
                                                                 dropout_13[0][0]                 
                                                                 dropout_14[0][0]                 
__________________________________________________________________________________________________
dense_9 (Dense)                 (None, 183)          113643      concatenate_15[0][0]             
__________________________________________________________________________________________________
dropout_15 (Dropout)            (None, 183)          0           dense_9[0][0]                    
__________________________________________________________________________________________________
dense_10 (Dense)                (None, 4)            736         dropout_15[0][0]                 
==================================================================================================
Total params: 588,925
Trainable params: 588,925
Non-trainable params: 0
__________________________________________________________________________________________________
None
==================================================================================================
…
	Token occurrences: 42020
	MWE number: 451
	MWE occurrences: 670
	Continuous occurrences: 75.0 %
	MWE length: 2.14
	Seen occurrences : 57% 
	Recognizable MWEs: 100.0 %
	MWT occurrences: 1

==================================================================================================
__________________________________________________________________________________________________
Layer (type)                    Output Shape         Param #     Connected to                     
==================================================================================================
S0_toks (InputLayer)            (None, 4)            0                                            
__________________________________________________________________________________________________
S0_Pos (InputLayer)             (None, 4)            0                                            
__________________________________________________________________________________________________
S1_toks (InputLayer)            (None, 4)            0                                            
__________________________________________________________________________________________________
S1_Pos (InputLayer)             (None, 4)            0                                            
__________________________________________________________________________________________________
S0_toksEmb (Embedding)          (None, 4, 300)       150900      S0_toks[0][0]                    
__________________________________________________________________________________________________
S0_tPosEmb (Embedding)          (None, 4, 148)       2812        S0_Pos[0][0]                     
__________________________________________________________________________________________________
S1_toksEmb (Embedding)          (None, 4, 300)       150900      S1_toks[0][0]                    
__________________________________________________________________________________________________
S1_PosEmb (Embedding)           (None, 4, 148)       2812        S1_Pos[0][0]                     
__________________________________________________________________________________________________
B_toks (InputLayer)             (None, 2)            0                                            
__________________________________________________________________________________________________
B_Pos (InputLayer)              (None, 2)            0                                            
__________________________________________________________________________________________________
concatenate_16 (Concatenate)    (None, 4, 448)       0           S0_toksEmb[0][0]                 
                                                                 S0_tPosEmb[0][0]                 
__________________________________________________________________________________________________
concatenate_17 (Concatenate)    (None, 4, 448)       0           S1_toksEmb[0][0]                 
                                                                 S1_PosEmb[0][0]                  
__________________________________________________________________________________________________
B_toksEmb (Embedding)           (None, 2, 300)       150900      B_toks[0][0]                     
__________________________________________________________________________________________________
B_PosEmb (Embedding)            (None, 2, 148)       2812        B_Pos[0][0]                      
__________________________________________________________________________________________________
s0Rnn (GRU)                     (None, 109)          182466      concatenate_16[0][0]             
__________________________________________________________________________________________________
s1Rnn (GRU)                     (None, 109)          182466      concatenate_17[0][0]             
__________________________________________________________________________________________________
B_toksFlat (Flatten)            (None, 600)          0           B_toksEmb[0][0]                  
__________________________________________________________________________________________________
B_PosFlat (Flatten)             (None, 296)          0           B_PosEmb[0][0]                   
__________________________________________________________________________________________________
dropout_16 (Dropout)            (None, 109)          0           s0Rnn[0][0]                      
__________________________________________________________________________________________________
dropout_17 (Dropout)            (None, 109)          0           s1Rnn[0][0]                      
__________________________________________________________________________________________________
concatenate_18 (Concatenate)    (None, 1114)         0           B_toksFlat[0][0]                 
                                                                 B_PosFlat[0][0]                  
                                                                 dropout_16[0][0]                 
                                                                 dropout_17[0][0]                 
__________________________________________________________________________________________________
dense_11 (Dense)                (None, 48)           53520       concatenate_18[0][0]             
__________________________________________________________________________________________________
dropout_18 (Dropout)            (None, 48)           0           dense_11[0][0]                   
__________________________________________________________________________________________________
dense_12 (Dense)                (None, 4)            196         dropout_18[0][0]                 
==================================================================================================
Total params: 879,784
Trainable params: 879,784
Non-trainable params: 0
__________________________________________________________________________________________________
None
==================================================================================================
…
	Token occurrences: 42020
	MWE number: 451
	MWE occurrences: 670
	Continuous occurrences: 75.0 %
	MWE length: 2.14
	Seen occurrences : 57% 
	Recognizable MWEs: 100.0 %
	MWT occurrences: 1

==================================================================================================
__________________________________________________________________________________________________
Layer (type)                    Output Shape         Param #     Connected to                     
==================================================================================================
S0_toks (InputLayer)            (None, 4)            0                                            
__________________________________________________________________________________________________
S0_Pos (InputLayer)             (None, 4)            0                                            
__________________________________________________________________________________________________
S1_toks (InputLayer)            (None, 4)            0                                            
__________________________________________________________________________________________________
S1_Pos (InputLayer)             (None, 4)            0                                            
__________________________________________________________________________________________________
S0_toksEmb (Embedding)          (None, 4, 467)       4354775     S0_toks[0][0]                    
__________________________________________________________________________________________________
S0_tPosEmb (Embedding)          (None, 4, 129)       2451        S0_Pos[0][0]                     
__________________________________________________________________________________________________
S1_toksEmb (Embedding)          (None, 4, 467)       4354775     S1_toks[0][0]                    
__________________________________________________________________________________________________
S1_PosEmb (Embedding)           (None, 4, 129)       2451        S1_Pos[0][0]                     
__________________________________________________________________________________________________
B_toks (InputLayer)             (None, 2)            0                                            
__________________________________________________________________________________________________
B_Pos (InputLayer)              (None, 2)            0                                            
__________________________________________________________________________________________________
concatenate_19 (Concatenate)    (None, 4, 596)       0           S0_toksEmb[0][0]                 
                                                                 S0_tPosEmb[0][0]                 
__________________________________________________________________________________________________
concatenate_20 (Concatenate)    (None, 4, 596)       0           S1_toksEmb[0][0]                 
                                                                 S1_PosEmb[0][0]                  
__________________________________________________________________________________________________
B_toksEmb (Embedding)           (None, 2, 467)       4354775     B_toks[0][0]                     
__________________________________________________________________________________________________
B_PosEmb (Embedding)            (None, 2, 129)       2451        B_Pos[0][0]                      
__________________________________________________________________________________________________
s0Rnn (GRU)                     (None, 71)           142284      concatenate_19[0][0]             
__________________________________________________________________________________________________
s1Rnn (GRU)                     (None, 71)           142284      concatenate_20[0][0]             
__________________________________________________________________________________________________
B_toksFlat (Flatten)            (None, 934)          0           B_toksEmb[0][0]                  
__________________________________________________________________________________________________
B_PosFlat (Flatten)             (None, 258)          0           B_PosEmb[0][0]                   
__________________________________________________________________________________________________
dropout_19 (Dropout)            (None, 71)           0           s0Rnn[0][0]                      
__________________________________________________________________________________________________
dropout_20 (Dropout)            (None, 71)           0           s1Rnn[0][0]                      
__________________________________________________________________________________________________
concatenate_21 (Concatenate)    (None, 1334)         0           B_toksFlat[0][0]                 
                                                                 B_PosFlat[0][0]                  
                                                                 dropout_19[0][0]                 
                                                                 dropout_20[0][0]                 
__________________________________________________________________________________________________
dense_13 (Dense)                (None, 35)           46725       concatenate_21[0][0]             
__________________________________________________________________________________________________
dropout_21 (Dropout)            (None, 35)           0           dense_13[0][0]                   
__________________________________________________________________________________________________
dense_14 (Dense)                (None, 4)            144         dropout_21[0][0]                 
==================================================================================================
Total params: 13,403,115
Trainable params: 13,403,115
Non-trainable params: 0
__________________________________________________________________________________________________
None
==================================================================================================
…
	Token occurrences: 42020
	MWE number: 451
	MWE occurrences: 670
	Continuous occurrences: 75.0 %
	MWE length: 2.14
	Seen occurrences : 57% 
	Recognizable MWEs: 100.0 %
	MWT occurrences: 1

==================================================================================================
__________________________________________________________________________________________________
Layer (type)                    Output Shape         Param #     Connected to                     
==================================================================================================
S0_toks (InputLayer)            (None, 4)            0                                            
__________________________________________________________________________________________________
S0_Pos (InputLayer)             (None, 4)            0                                            
__________________________________________________________________________________________________
S1_toks (InputLayer)            (None, 4)            0                                            
__________________________________________________________________________________________________
S1_Pos (InputLayer)             (None, 4)            0                                            
__________________________________________________________________________________________________
S0_toksEmb (Embedding)          (None, 4, 300)       2797500     S0_toks[0][0]                    
__________________________________________________________________________________________________
S0_tPosEmb (Embedding)          (None, 4, 45)        855         S0_Pos[0][0]                     
__________________________________________________________________________________________________
S1_toksEmb (Embedding)          (None, 4, 300)       2797500     S1_toks[0][0]                    
__________________________________________________________________________________________________
S1_PosEmb (Embedding)           (None, 4, 45)        855         S1_Pos[0][0]                     
__________________________________________________________________________________________________
B_toks (InputLayer)             (None, 3)            0                                            
__________________________________________________________________________________________________
B_Pos (InputLayer)              (None, 3)            0                                            
__________________________________________________________________________________________________
concatenate_22 (Concatenate)    (None, 4, 345)       0           S0_toksEmb[0][0]                 
                                                                 S0_tPosEmb[0][0]                 
__________________________________________________________________________________________________
concatenate_23 (Concatenate)    (None, 4, 345)       0           S1_toksEmb[0][0]                 
                                                                 S1_PosEmb[0][0]                  
__________________________________________________________________________________________________
B_toksEmb (Embedding)           (None, 3, 300)       2797500     B_toks[0][0]                     
__________________________________________________________________________________________________
B_PosEmb (Embedding)            (None, 3, 45)        855         B_Pos[0][0]                      
__________________________________________________________________________________________________
s0Rnn (GRU)                     (None, 122)          171288      concatenate_22[0][0]             
__________________________________________________________________________________________________
s1Rnn (GRU)                     (None, 122)          171288      concatenate_23[0][0]             
__________________________________________________________________________________________________
B_toksFlat (Flatten)            (None, 900)          0           B_toksEmb[0][0]                  
__________________________________________________________________________________________________
B_PosFlat (Flatten)             (None, 135)          0           B_PosEmb[0][0]                   
__________________________________________________________________________________________________
dropout_22 (Dropout)            (None, 122)          0           s0Rnn[0][0]                      
__________________________________________________________________________________________________
dropout_23 (Dropout)            (None, 122)          0           s1Rnn[0][0]                      
__________________________________________________________________________________________________
concatenate_24 (Concatenate)    (None, 1279)         0           B_toksFlat[0][0]                 
                                                                 B_PosFlat[0][0]                  
                                                                 dropout_22[0][0]                 
                                                                 dropout_23[0][0]                 
__________________________________________________________________________________________________
dense_15 (Dense)                (None, 461)          590080      concatenate_24[0][0]             
__________________________________________________________________________________________________
dropout_24 (Dropout)            (None, 461)          0           dense_15[0][0]                   
__________________________________________________________________________________________________
dense_16 (Dense)                (None, 4)            1848        dropout_24[0][0]                 
==================================================================================================
Total params: 9,329,569
Trainable params: 9,329,569
Non-trainable params: 0
__________________________________________________________________________________________________
None
==================================================================================================
…
	Token occurrences: 42020
	MWE number: 451
	MWE occurrences: 670
	Continuous occurrences: 75.0 %
	MWE length: 2.14
	Seen occurrences : 57% 
	Recognizable MWEs: 100.0 %
	MWT occurrences: 1

==================================================================================================
__________________________________________________________________________________________________
Layer (type)                    Output Shape         Param #     Connected to                     
==================================================================================================
S0_toks (InputLayer)            (None, 4)            0                                            
__________________________________________________________________________________________________
S0_Pos (InputLayer)             (None, 4)            0                                            
__________________________________________________________________________________________________
S1_toks (InputLayer)            (None, 4)            0                                            
__________________________________________________________________________________________________
S1_Pos (InputLayer)             (None, 4)            0                                            
__________________________________________________________________________________________________
S0_toksEmb (Embedding)          (None, 4, 300)       1777800     S0_toks[0][0]                    
__________________________________________________________________________________________________
S0_tPosEmb (Embedding)          (None, 4, 45)        855         S0_Pos[0][0]                     
__________________________________________________________________________________________________
S1_toksEmb (Embedding)          (None, 4, 300)       1777800     S1_toks[0][0]                    
__________________________________________________________________________________________________
S1_PosEmb (Embedding)           (None, 4, 45)        855         S1_Pos[0][0]                     
__________________________________________________________________________________________________
B_toks (InputLayer)             (None, 3)            0                                            
__________________________________________________________________________________________________
B_Pos (InputLayer)              (None, 3)            0                                            
__________________________________________________________________________________________________
concatenate_25 (Concatenate)    (None, 4, 345)       0           S0_toksEmb[0][0]                 
                                                                 S0_tPosEmb[0][0]                 
__________________________________________________________________________________________________
concatenate_26 (Concatenate)    (None, 4, 345)       0           S1_toksEmb[0][0]                 
                                                                 S1_PosEmb[0][0]                  
__________________________________________________________________________________________________
B_toksEmb (Embedding)           (None, 3, 300)       1777800     B_toks[0][0]                     
__________________________________________________________________________________________________
B_PosEmb (Embedding)            (None, 3, 45)        855         B_Pos[0][0]                      
__________________________________________________________________________________________________
s0Rnn (GRU)                     (None, 71)           88821       concatenate_25[0][0]             
__________________________________________________________________________________________________
s1Rnn (GRU)                     (None, 71)           88821       concatenate_26[0][0]             
__________________________________________________________________________________________________
B_toksFlat (Flatten)            (None, 900)          0           B_toksEmb[0][0]                  
__________________________________________________________________________________________________
B_PosFlat (Flatten)             (None, 135)          0           B_PosEmb[0][0]                   
__________________________________________________________________________________________________
dropout_25 (Dropout)            (None, 71)           0           s0Rnn[0][0]                      
__________________________________________________________________________________________________
dropout_26 (Dropout)            (None, 71)           0           s1Rnn[0][0]                      
__________________________________________________________________________________________________
concatenate_27 (Concatenate)    (None, 1177)         0           B_toksFlat[0][0]                 
                                                                 B_PosFlat[0][0]                  
                                                                 dropout_25[0][0]                 
                                                                 dropout_26[0][0]                 
__________________________________________________________________________________________________
dense_17 (Dense)                (None, 142)          167276      concatenate_27[0][0]             
__________________________________________________________________________________________________
dropout_27 (Dropout)            (None, 142)          0           dense_17[0][0]                   
__________________________________________________________________________________________________
dense_18 (Dense)                (None, 4)            572         dropout_27[0][0]                 
==================================================================================================
Total params: 5,681,455
Trainable params: 5,681,455
Non-trainable params: 0
__________________________________________________________________________________________________
None
==================================================================================================
…
	Token occurrences: 42020
	MWE number: 451
	MWE occurrences: 670
	Continuous occurrences: 75.0 %
	MWE length: 2.14
	Seen occurrences : 57% 
	Recognizable MWEs: 100.0 %
	MWT occurrences: 1

==================================================================================================
__________________________________________________________________________________________________
Layer (type)                    Output Shape         Param #     Connected to                     
==================================================================================================
S0_toks (InputLayer)            (None, 4)            0                                            
__________________________________________________________________________________________________
S0_Pos (InputLayer)             (None, 4)            0                                            
__________________________________________________________________________________________________
S1_toks (InputLayer)            (None, 4)            0                                            
__________________________________________________________________________________________________
S1_Pos (InputLayer)             (None, 4)            0                                            
__________________________________________________________________________________________________
S0_toksEmb (Embedding)          (None, 4, 314)       1860764     S0_toks[0][0]                    
__________________________________________________________________________________________________
S0_tPosEmb (Embedding)          (None, 4, 16)        304         S0_Pos[0][0]                     
__________________________________________________________________________________________________
S1_toksEmb (Embedding)          (None, 4, 314)       1860764     S1_toks[0][0]                    
__________________________________________________________________________________________________
S1_PosEmb (Embedding)           (None, 4, 16)        304         S1_Pos[0][0]                     
__________________________________________________________________________________________________
B_toks (InputLayer)             (None, 2)            0                                            
__________________________________________________________________________________________________
B_Pos (InputLayer)              (None, 2)            0                                            
__________________________________________________________________________________________________
concatenate_28 (Concatenate)    (None, 4, 330)       0           S0_toksEmb[0][0]                 
                                                                 S0_tPosEmb[0][0]                 
__________________________________________________________________________________________________
concatenate_29 (Concatenate)    (None, 4, 330)       0           S1_toksEmb[0][0]                 
                                                                 S1_PosEmb[0][0]                  
__________________________________________________________________________________________________
B_toksEmb (Embedding)           (None, 2, 314)       1860764     B_toks[0][0]                     
__________________________________________________________________________________________________
B_PosEmb (Embedding)            (None, 2, 16)        304         B_Pos[0][0]                      
__________________________________________________________________________________________________
s0Rnn (GRU)                     (None, 132)          183348      concatenate_28[0][0]             
__________________________________________________________________________________________________
s1Rnn (GRU)                     (None, 132)          183348      concatenate_29[0][0]             
__________________________________________________________________________________________________
B_toksFlat (Flatten)            (None, 628)          0           B_toksEmb[0][0]                  
__________________________________________________________________________________________________
B_PosFlat (Flatten)             (None, 32)           0           B_PosEmb[0][0]                   
__________________________________________________________________________________________________
dropout_28 (Dropout)            (None, 132)          0           s0Rnn[0][0]                      
__________________________________________________________________________________________________
dropout_29 (Dropout)            (None, 132)          0           s1Rnn[0][0]                      
__________________________________________________________________________________________________
concatenate_30 (Concatenate)    (None, 924)          0           B_toksFlat[0][0]                 
                                                                 B_PosFlat[0][0]                  
                                                                 dropout_28[0][0]                 
                                                                 dropout_29[0][0]                 
__________________________________________________________________________________________________
dense_19 (Dense)                (None, 318)          294150      concatenate_30[0][0]             
__________________________________________________________________________________________________
dropout_30 (Dropout)            (None, 318)          0           dense_19[0][0]                   
__________________________________________________________________________________________________
dense_20 (Dense)                (None, 4)            1276        dropout_30[0][0]                 
==================================================================================================
Total params: 6,245,326
Trainable params: 6,245,326
Non-trainable params: 0
__________________________________________________________________________________________________
None
==================================================================================================
…
	Token occurrences: 42020
	MWE number: 451
	MWE occurrences: 670
	Continuous occurrences: 75.0 %
	MWE length: 2.14
	Seen occurrences : 57% 
	Recognizable MWEs: 100.0 %
	MWT occurrences: 1

==================================================================================================
__________________________________________________________________________________________________
Layer (type)                    Output Shape         Param #     Connected to                     
==================================================================================================
S0_toks (InputLayer)            (None, 4)            0                                            
__________________________________________________________________________________________________
S0_Pos (InputLayer)             (None, 4)            0                                            
__________________________________________________________________________________________________
S1_toks (InputLayer)            (None, 4)            0                                            
__________________________________________________________________________________________________
S1_Pos (InputLayer)             (None, 4)            0                                            
__________________________________________________________________________________________________
S0_toksEmb (Embedding)          (None, 4, 209)       1238534     S0_toks[0][0]                    
__________________________________________________________________________________________________
S0_tPosEmb (Embedding)          (None, 4, 24)        456         S0_Pos[0][0]                     
__________________________________________________________________________________________________
S1_toksEmb (Embedding)          (None, 4, 209)       1238534     S1_toks[0][0]                    
__________________________________________________________________________________________________
S1_PosEmb (Embedding)           (None, 4, 24)        456         S1_Pos[0][0]                     
__________________________________________________________________________________________________
B_toks (InputLayer)             (None, 3)            0                                            
__________________________________________________________________________________________________
B_Pos (InputLayer)              (None, 3)            0                                            
__________________________________________________________________________________________________
concatenate_31 (Concatenate)    (None, 4, 233)       0           S0_toksEmb[0][0]                 
                                                                 S0_tPosEmb[0][0]                 
__________________________________________________________________________________________________
concatenate_32 (Concatenate)    (None, 4, 233)       0           S1_toksEmb[0][0]                 
                                                                 S1_PosEmb[0][0]                  
__________________________________________________________________________________________________
B_toksEmb (Embedding)           (None, 3, 209)       1238534     B_toks[0][0]                     
__________________________________________________________________________________________________
B_PosEmb (Embedding)            (None, 3, 24)        456         B_Pos[0][0]                      
__________________________________________________________________________________________________
s0Rnn (GRU)                     (None, 119)          126021      concatenate_31[0][0]             
__________________________________________________________________________________________________
s1Rnn (GRU)                     (None, 119)          126021      concatenate_32[0][0]             
__________________________________________________________________________________________________
B_toksFlat (Flatten)            (None, 627)          0           B_toksEmb[0][0]                  
__________________________________________________________________________________________________
B_PosFlat (Flatten)             (None, 72)           0           B_PosEmb[0][0]                   
__________________________________________________________________________________________________
dropout_31 (Dropout)            (None, 119)          0           s0Rnn[0][0]                      
__________________________________________________________________________________________________
dropout_32 (Dropout)            (None, 119)          0           s1Rnn[0][0]                      
__________________________________________________________________________________________________
concatenate_33 (Concatenate)    (None, 937)          0           B_toksFlat[0][0]                 
                                                                 B_PosFlat[0][0]                  
                                                                 dropout_31[0][0]                 
                                                                 dropout_32[0][0]                 
__________________________________________________________________________________________________
dense_21 (Dense)                (None, 252)          236376      concatenate_33[0][0]             
__________________________________________________________________________________________________
dropout_33 (Dropout)            (None, 252)          0           dense_21[0][0]                   
__________________________________________________________________________________________________
dense_22 (Dense)                (None, 4)            1012        dropout_33[0][0]                 
==================================================================================================
Total params: 4,206,400
Trainable params: 4,206,400
Non-trainable params: 0
__________________________________________________________________________________________________
None
==================================================================================================
…
	Token occurrences: 42020
	MWE number: 451
	MWE occurrences: 670
	Continuous occurrences: 75.0 %
	MWE length: 2.14
	Seen occurrences : 57% 
	Recognizable MWEs: 100.0 %
	MWT occurrences: 1

==================================================================================================
__________________________________________________________________________________________________
Layer (type)                    Output Shape         Param #     Connected to                     
==================================================================================================
S0_toks (InputLayer)            (None, 4)            0                                            
__________________________________________________________________________________________________
S0_Pos (InputLayer)             (None, 4)            0                                            
__________________________________________________________________________________________________
S1_toks (InputLayer)            (None, 4)            0                                            
__________________________________________________________________________________________________
S1_Pos (InputLayer)             (None, 4)            0                                            
__________________________________________________________________________________________________
S0_toksEmb (Embedding)          (None, 4, 360)       181080      S0_toks[0][0]                    
__________________________________________________________________________________________________
S0_tPosEmb (Embedding)          (None, 4, 24)        456         S0_Pos[0][0]                     
__________________________________________________________________________________________________
S1_toksEmb (Embedding)          (None, 4, 360)       181080      S1_toks[0][0]                    
__________________________________________________________________________________________________
S1_PosEmb (Embedding)           (None, 4, 24)        456         S1_Pos[0][0]                     
__________________________________________________________________________________________________
B_toks (InputLayer)             (None, 2)            0                                            
__________________________________________________________________________________________________
B_Pos (InputLayer)              (None, 2)            0                                            
__________________________________________________________________________________________________
concatenate_34 (Concatenate)    (None, 4, 384)       0           S0_toksEmb[0][0]                 
                                                                 S0_tPosEmb[0][0]                 
__________________________________________________________________________________________________
concatenate_35 (Concatenate)    (None, 4, 384)       0           S1_toksEmb[0][0]                 
                                                                 S1_PosEmb[0][0]                  
__________________________________________________________________________________________________
B_toksEmb (Embedding)           (None, 2, 360)       181080      B_toks[0][0]                     
__________________________________________________________________________________________________
B_PosEmb (Embedding)            (None, 2, 24)        456         B_Pos[0][0]                      
__________________________________________________________________________________________________
s0Rnn (LSTM)                    (None, 78)           144456      concatenate_34[0][0]             
__________________________________________________________________________________________________
s1Rnn (LSTM)                    (None, 78)           144456      concatenate_35[0][0]             
__________________________________________________________________________________________________
B_toksFlat (Flatten)            (None, 720)          0           B_toksEmb[0][0]                  
__________________________________________________________________________________________________
B_PosFlat (Flatten)             (None, 48)           0           B_PosEmb[0][0]                   
__________________________________________________________________________________________________
dropout_34 (Dropout)            (None, 78)           0           s0Rnn[0][0]                      
__________________________________________________________________________________________________
dropout_35 (Dropout)            (None, 78)           0           s1Rnn[0][0]                      
__________________________________________________________________________________________________
concatenate_36 (Concatenate)    (None, 924)          0           B_toksFlat[0][0]                 
                                                                 B_PosFlat[0][0]                  
                                                                 dropout_34[0][0]                 
                                                                 dropout_35[0][0]                 
__________________________________________________________________________________________________
dense_23 (Dense)                (None, 160)          148000      concatenate_36[0][0]             
__________________________________________________________________________________________________
dropout_36 (Dropout)            (None, 160)          0           dense_23[0][0]                   
__________________________________________________________________________________________________
dense_24 (Dense)                (None, 4)            644         dropout_36[0][0]                 
==================================================================================================
Total params: 982,164
Trainable params: 982,164
Non-trainable params: 0
__________________________________________________________________________________________________
None
==================================================================================================
…
	Token occurrences: 42020
	MWE number: 451
	MWE occurrences: 670
	Continuous occurrences: 75.0 %
	MWE length: 2.14
	Seen occurrences : 57% 
	Recognizable MWEs: 100.0 %
	MWT occurrences: 1

==================================================================================================
__________________________________________________________________________________________________
Layer (type)                    Output Shape         Param #     Connected to                     
==================================================================================================
S0_toks (InputLayer)            (None, 4)            0                                            
__________________________________________________________________________________________________
S0_Pos (InputLayer)             (None, 4)            0                                            
__________________________________________________________________________________________________
S1_toks (InputLayer)            (None, 4)            0                                            
__________________________________________________________________________________________________
S1_Pos (InputLayer)             (None, 4)            0                                            
__________________________________________________________________________________________________
S0_toksEmb (Embedding)          (None, 4, 300)       353400      S0_toks[0][0]                    
__________________________________________________________________________________________________
S0_tPosEmb (Embedding)          (None, 4, 108)       2052        S0_Pos[0][0]                     
__________________________________________________________________________________________________
S1_toksEmb (Embedding)          (None, 4, 300)       353400      S1_toks[0][0]                    
__________________________________________________________________________________________________
S1_PosEmb (Embedding)           (None, 4, 108)       2052        S1_Pos[0][0]                     
__________________________________________________________________________________________________
B_toks (InputLayer)             (None, 3)            0                                            
__________________________________________________________________________________________________
B_Pos (InputLayer)              (None, 3)            0                                            
__________________________________________________________________________________________________
concatenate_37 (Concatenate)    (None, 4, 408)       0           S0_toksEmb[0][0]                 
                                                                 S0_tPosEmb[0][0]                 
__________________________________________________________________________________________________
concatenate_38 (Concatenate)    (None, 4, 408)       0           S1_toksEmb[0][0]                 
                                                                 S1_PosEmb[0][0]                  
__________________________________________________________________________________________________
B_toksEmb (Embedding)           (None, 3, 300)       353400      B_toks[0][0]                     
__________________________________________________________________________________________________
B_PosEmb (Embedding)            (None, 3, 108)       2052        B_Pos[0][0]                      
__________________________________________________________________________________________________
s0Rnn (GRU)                     (None, 102)          156366      concatenate_37[0][0]             
__________________________________________________________________________________________________
s1Rnn (GRU)                     (None, 102)          156366      concatenate_38[0][0]             
__________________________________________________________________________________________________
B_toksFlat (Flatten)            (None, 900)          0           B_toksEmb[0][0]                  
__________________________________________________________________________________________________
B_PosFlat (Flatten)             (None, 324)          0           B_PosEmb[0][0]                   
__________________________________________________________________________________________________
dropout_37 (Dropout)            (None, 102)          0           s0Rnn[0][0]                      
__________________________________________________________________________________________________
dropout_38 (Dropout)            (None, 102)          0           s1Rnn[0][0]                      
__________________________________________________________________________________________________
concatenate_39 (Concatenate)    (None, 1428)         0           B_toksFlat[0][0]                 
                                                                 B_PosFlat[0][0]                  
                                                                 dropout_37[0][0]                 
                                                                 dropout_38[0][0]                 
__________________________________________________________________________________________________
dense_25 (Dense)                (None, 104)          148616      concatenate_39[0][0]             
__________________________________________________________________________________________________
dropout_39 (Dropout)            (None, 104)          0           dense_25[0][0]                   
__________________________________________________________________________________________________
dense_26 (Dense)                (None, 4)            420         dropout_39[0][0]                 
==================================================================================================
Total params: 1,528,124
Trainable params: 1,528,124
Non-trainable params: 0
__________________________________________________________________________________________________
None
==================================================================================================
…
	Token occurrences: 42020
	MWE number: 451
	MWE occurrences: 670
	Continuous occurrences: 75.0 %
	MWE length: 2.14
	Seen occurrences : 57% 
	Recognizable MWEs: 100.0 %
	MWT occurrences: 1

==================================================================================================
__________________________________________________________________________________________________
Layer (type)                    Output Shape         Param #     Connected to                     
==================================================================================================
S0_toks (InputLayer)            (None, 4)            0                                            
__________________________________________________________________________________________________
S0_Pos (InputLayer)             (None, 4)            0                                            
__________________________________________________________________________________________________
S1_toks (InputLayer)            (None, 4)            0                                            
__________________________________________________________________________________________________
S1_Pos (InputLayer)             (None, 4)            0                                            
__________________________________________________________________________________________________
S0_toksEmb (Embedding)          (None, 4, 300)       353400      S0_toks[0][0]                    
__________________________________________________________________________________________________
S0_tPosEmb (Embedding)          (None, 4, 23)        437         S0_Pos[0][0]                     
__________________________________________________________________________________________________
S1_toksEmb (Embedding)          (None, 4, 300)       353400      S1_toks[0][0]                    
__________________________________________________________________________________________________
S1_PosEmb (Embedding)           (None, 4, 23)        437         S1_Pos[0][0]                     
__________________________________________________________________________________________________
B_toks (InputLayer)             (None, 3)            0                                            
__________________________________________________________________________________________________
B_Pos (InputLayer)              (None, 3)            0                                            
__________________________________________________________________________________________________
concatenate_40 (Concatenate)    (None, 4, 323)       0           S0_toksEmb[0][0]                 
                                                                 S0_tPosEmb[0][0]                 
__________________________________________________________________________________________________
concatenate_41 (Concatenate)    (None, 4, 323)       0           S1_toksEmb[0][0]                 
                                                                 S1_PosEmb[0][0]                  
__________________________________________________________________________________________________
B_toksEmb (Embedding)           (None, 3, 300)       353400      B_toks[0][0]                     
__________________________________________________________________________________________________
B_PosEmb (Embedding)            (None, 3, 23)        437         B_Pos[0][0]                      
__________________________________________________________________________________________________
s0Rnn (GRU)                     (None, 56)           63840       concatenate_40[0][0]             
__________________________________________________________________________________________________
s1Rnn (GRU)                     (None, 56)           63840       concatenate_41[0][0]             
__________________________________________________________________________________________________
B_toksFlat (Flatten)            (None, 900)          0           B_toksEmb[0][0]                  
__________________________________________________________________________________________________
B_PosFlat (Flatten)             (None, 69)           0           B_PosEmb[0][0]                   
__________________________________________________________________________________________________
dropout_40 (Dropout)            (None, 56)           0           s0Rnn[0][0]                      
__________________________________________________________________________________________________
dropout_41 (Dropout)            (None, 56)           0           s1Rnn[0][0]                      
__________________________________________________________________________________________________
concatenate_42 (Concatenate)    (None, 1081)         0           B_toksFlat[0][0]                 
                                                                 B_PosFlat[0][0]                  
                                                                 dropout_40[0][0]                 
                                                                 dropout_41[0][0]                 
__________________________________________________________________________________________________
dense_27 (Dense)                (None, 164)          177448      concatenate_42[0][0]             
__________________________________________________________________________________________________
dropout_42 (Dropout)            (None, 164)          0           dense_27[0][0]                   
__________________________________________________________________________________________________
dense_28 (Dense)                (None, 4)            660         dropout_42[0][0]                 
==================================================================================================
Total params: 1,367,299
Trainable params: 1,367,299
Non-trainable params: 0
__________________________________________________________________________________________________
None
==================================================================================================
…
	Token occurrences: 42020
	MWE number: 451
	MWE occurrences: 670
	Continuous occurrences: 75.0 %
	MWE length: 2.14
	Seen occurrences : 57% 
	Recognizable MWEs: 100.0 %
	MWT occurrences: 1

==================================================================================================
__________________________________________________________________________________________________
Layer (type)                    Output Shape         Param #     Connected to                     
==================================================================================================
S0_toks (InputLayer)            (None, 4)            0                                            
__________________________________________________________________________________________________
S0_Pos (InputLayer)             (None, 4)            0                                            
__________________________________________________________________________________________________
S1_toks (InputLayer)            (None, 4)            0                                            
__________________________________________________________________________________________________
S1_Pos (InputLayer)             (None, 4)            0                                            
__________________________________________________________________________________________________
S0_toksEmb (Embedding)          (None, 4, 112)       131936      S0_toks[0][0]                    
__________________________________________________________________________________________________
S0_tPosEmb (Embedding)          (None, 4, 48)        912         S0_Pos[0][0]                     
__________________________________________________________________________________________________
S1_toksEmb (Embedding)          (None, 4, 112)       131936      S1_toks[0][0]                    
__________________________________________________________________________________________________
S1_PosEmb (Embedding)           (None, 4, 48)        912         S1_Pos[0][0]                     
__________________________________________________________________________________________________
B_toks (InputLayer)             (None, 3)            0                                            
__________________________________________________________________________________________________
B_Pos (InputLayer)              (None, 3)            0                                            
__________________________________________________________________________________________________
concatenate_43 (Concatenate)    (None, 4, 160)       0           S0_toksEmb[0][0]                 
                                                                 S0_tPosEmb[0][0]                 
__________________________________________________________________________________________________
concatenate_44 (Concatenate)    (None, 4, 160)       0           S1_toksEmb[0][0]                 
                                                                 S1_PosEmb[0][0]                  
__________________________________________________________________________________________________
B_toksEmb (Embedding)           (None, 3, 112)       131936      B_toks[0][0]                     
__________________________________________________________________________________________________
B_PosEmb (Embedding)            (None, 3, 48)        912         B_Pos[0][0]                      
__________________________________________________________________________________________________
s0Rnn (LSTM)                    (None, 41)           33128       concatenate_43[0][0]             
__________________________________________________________________________________________________
s1Rnn (LSTM)                    (None, 41)           33128       concatenate_44[0][0]             
__________________________________________________________________________________________________
B_toksFlat (Flatten)            (None, 336)          0           B_toksEmb[0][0]                  
__________________________________________________________________________________________________
B_PosFlat (Flatten)             (None, 144)          0           B_PosEmb[0][0]                   
__________________________________________________________________________________________________
dropout_43 (Dropout)            (None, 41)           0           s0Rnn[0][0]                      
__________________________________________________________________________________________________
dropout_44 (Dropout)            (None, 41)           0           s1Rnn[0][0]                      
__________________________________________________________________________________________________
concatenate_45 (Concatenate)    (None, 562)          0           B_toksFlat[0][0]                 
                                                                 B_PosFlat[0][0]                  
                                                                 dropout_43[0][0]                 
                                                                 dropout_44[0][0]                 
__________________________________________________________________________________________________
dense_29 (Dense)                (None, 84)           47292       concatenate_45[0][0]             
__________________________________________________________________________________________________
dropout_45 (Dropout)            (None, 84)           0           dense_29[0][0]                   
__________________________________________________________________________________________________
dense_30 (Dense)                (None, 4)            340         dropout_45[0][0]                 
==================================================================================================
Total params: 512,432
Trainable params: 512,432
Non-trainable params: 0
__________________________________________________________________________________________________
None
==================================================================================================
…
	Token occurrences: 42020
	MWE number: 451
	MWE occurrences: 670
	Continuous occurrences: 75.0 %
	MWE length: 2.14
	Seen occurrences : 57% 
	Recognizable MWEs: 100.0 %
	MWT occurrences: 1

==================================================================================================
__________________________________________________________________________________________________
Layer (type)                    Output Shape         Param #     Connected to                     
==================================================================================================
S0_toks (InputLayer)            (None, 4)            0                                            
__________________________________________________________________________________________________
S0_Pos (InputLayer)             (None, 4)            0                                            
__________________________________________________________________________________________________
S1_toks (InputLayer)            (None, 4)            0                                            
__________________________________________________________________________________________________
S1_Pos (InputLayer)             (None, 4)            0                                            
__________________________________________________________________________________________________
S0_toksEmb (Embedding)          (None, 4, 312)       1848912     S0_toks[0][0]                    
__________________________________________________________________________________________________
S0_tPosEmb (Embedding)          (None, 4, 82)        1558        S0_Pos[0][0]                     
__________________________________________________________________________________________________
S1_toksEmb (Embedding)          (None, 4, 312)       1848912     S1_toks[0][0]                    
__________________________________________________________________________________________________
S1_PosEmb (Embedding)           (None, 4, 82)        1558        S1_Pos[0][0]                     
__________________________________________________________________________________________________
B_toks (InputLayer)             (None, 3)            0                                            
__________________________________________________________________________________________________
B_Pos (InputLayer)              (None, 3)            0                                            
__________________________________________________________________________________________________
concatenate_46 (Concatenate)    (None, 4, 394)       0           S0_toksEmb[0][0]                 
                                                                 S0_tPosEmb[0][0]                 
__________________________________________________________________________________________________
concatenate_47 (Concatenate)    (None, 4, 394)       0           S1_toksEmb[0][0]                 
                                                                 S1_PosEmb[0][0]                  
__________________________________________________________________________________________________
B_toksEmb (Embedding)           (None, 3, 312)       1848912     B_toks[0][0]                     
__________________________________________________________________________________________________
B_PosEmb (Embedding)            (None, 3, 82)        1558        B_Pos[0][0]                      
__________________________________________________________________________________________________
s0Rnn (GRU)                     (None, 30)           38250       concatenate_46[0][0]             
__________________________________________________________________________________________________
s1Rnn (GRU)                     (None, 30)           38250       concatenate_47[0][0]             
__________________________________________________________________________________________________
B_toksFlat (Flatten)            (None, 936)          0           B_toksEmb[0][0]                  
__________________________________________________________________________________________________
B_PosFlat (Flatten)             (None, 246)          0           B_PosEmb[0][0]                   
__________________________________________________________________________________________________
dropout_46 (Dropout)            (None, 30)           0           s0Rnn[0][0]                      
__________________________________________________________________________________________________
dropout_47 (Dropout)            (None, 30)           0           s1Rnn[0][0]                      
__________________________________________________________________________________________________
concatenate_48 (Concatenate)    (None, 1242)         0           B_toksFlat[0][0]                 
                                                                 B_PosFlat[0][0]                  
                                                                 dropout_46[0][0]                 
                                                                 dropout_47[0][0]                 
__________________________________________________________________________________________________
dense_31 (Dense)                (None, 36)           44748       concatenate_48[0][0]             
__________________________________________________________________________________________________
dropout_48 (Dropout)            (None, 36)           0           dense_31[0][0]                   
__________________________________________________________________________________________________
dense_32 (Dense)                (None, 4)            148         dropout_48[0][0]                 
==================================================================================================
Total params: 5,672,806
Trainable params: 5,672,806
Non-trainable params: 0
__________________________________________________________________________________________________
None
==================================================================================================
…
	Token occurrences: 42020
	MWE number: 451
	MWE occurrences: 670
	Continuous occurrences: 75.0 %
	MWE length: 2.14
	Seen occurrences : 57% 
	Recognizable MWEs: 100.0 %
	MWT occurrences: 1

==================================================================================================
__________________________________________________________________________________________________
Layer (type)                    Output Shape         Param #     Connected to                     
==================================================================================================
S0_toks (InputLayer)            (None, 4)            0                                            
__________________________________________________________________________________________________
S0_Pos (InputLayer)             (None, 4)            0                                            
__________________________________________________________________________________________________
S1_toks (InputLayer)            (None, 4)            0                                            
__________________________________________________________________________________________________
S1_Pos (InputLayer)             (None, 4)            0                                            
__________________________________________________________________________________________________
S0_toksEmb (Embedding)          (None, 4, 170)       200260      S0_toks[0][0]                    
__________________________________________________________________________________________________
S0_tPosEmb (Embedding)          (None, 4, 53)        1007        S0_Pos[0][0]                     
__________________________________________________________________________________________________
S1_toksEmb (Embedding)          (None, 4, 170)       200260      S1_toks[0][0]                    
__________________________________________________________________________________________________
S1_PosEmb (Embedding)           (None, 4, 53)        1007        S1_Pos[0][0]                     
__________________________________________________________________________________________________
B_toks (InputLayer)             (None, 3)            0                                            
__________________________________________________________________________________________________
B_Pos (InputLayer)              (None, 3)            0                                            
__________________________________________________________________________________________________
concatenate_49 (Concatenate)    (None, 4, 223)       0           S0_toksEmb[0][0]                 
                                                                 S0_tPosEmb[0][0]                 
__________________________________________________________________________________________________
concatenate_50 (Concatenate)    (None, 4, 223)       0           S1_toksEmb[0][0]                 
                                                                 S1_PosEmb[0][0]                  
__________________________________________________________________________________________________
B_toksEmb (Embedding)           (None, 3, 170)       200260      B_toks[0][0]                     
__________________________________________________________________________________________________
B_PosEmb (Embedding)            (None, 3, 53)        1007        B_Pos[0][0]                      
__________________________________________________________________________________________________
s0Rnn (GRU)                     (None, 183)          223443      concatenate_49[0][0]             
__________________________________________________________________________________________________
s1Rnn (GRU)                     (None, 183)          223443      concatenate_50[0][0]             
__________________________________________________________________________________________________
B_toksFlat (Flatten)            (None, 510)          0           B_toksEmb[0][0]                  
__________________________________________________________________________________________________
B_PosFlat (Flatten)             (None, 159)          0           B_PosEmb[0][0]                   
__________________________________________________________________________________________________
dropout_49 (Dropout)            (None, 183)          0           s0Rnn[0][0]                      
__________________________________________________________________________________________________
dropout_50 (Dropout)            (None, 183)          0           s1Rnn[0][0]                      
__________________________________________________________________________________________________
concatenate_51 (Concatenate)    (None, 1035)         0           B_toksFlat[0][0]                 
                                                                 B_PosFlat[0][0]                  
                                                                 dropout_49[0][0]                 
                                                                 dropout_50[0][0]                 
__________________________________________________________________________________________________
dense_33 (Dense)                (None, 64)           66304       concatenate_51[0][0]             
__________________________________________________________________________________________________
dropout_51 (Dropout)            (None, 64)           0           dense_33[0][0]                   
__________________________________________________________________________________________________
dense_34 (Dense)                (None, 4)            260         dropout_51[0][0]                 
==================================================================================================
Total params: 1,117,251
Trainable params: 1,117,251
Non-trainable params: 0
__________________________________________________________________________________________________
None
==================================================================================================
…
	Token occurrences: 42020
	MWE number: 451
	MWE occurrences: 670
	Continuous occurrences: 75.0 %
	MWE length: 2.14
	Seen occurrences : 57% 
	Recognizable MWEs: 100.0 %
	MWT occurrences: 1

==================================================================================================
__________________________________________________________________________________________________
Layer (type)                    Output Shape         Param #     Connected to                     
==================================================================================================
S0_toks (InputLayer)            (None, 4)            0                                            
__________________________________________________________________________________________________
S0_Pos (InputLayer)             (None, 4)            0                                            
__________________________________________________________________________________________________
S1_toks (InputLayer)            (None, 4)            0                                            
__________________________________________________________________________________________________
S1_Pos (InputLayer)             (None, 4)            0                                            
__________________________________________________________________________________________________
S0_toksEmb (Embedding)          (None, 4, 300)       2797500     S0_toks[0][0]                    
__________________________________________________________________________________________________
S0_tPosEmb (Embedding)          (None, 4, 118)       2242        S0_Pos[0][0]                     
__________________________________________________________________________________________________
S1_toksEmb (Embedding)          (None, 4, 300)       2797500     S1_toks[0][0]                    
__________________________________________________________________________________________________
S1_PosEmb (Embedding)           (None, 4, 118)       2242        S1_Pos[0][0]                     
__________________________________________________________________________________________________
B_toks (InputLayer)             (None, 3)            0                                            
__________________________________________________________________________________________________
B_Pos (InputLayer)              (None, 3)            0                                            
__________________________________________________________________________________________________
concatenate_52 (Concatenate)    (None, 4, 418)       0           S0_toksEmb[0][0]                 
                                                                 S0_tPosEmb[0][0]                 
__________________________________________________________________________________________________
concatenate_53 (Concatenate)    (None, 4, 418)       0           S1_toksEmb[0][0]                 
                                                                 S1_PosEmb[0][0]                  
__________________________________________________________________________________________________
B_toksEmb (Embedding)           (None, 3, 300)       2797500     B_toks[0][0]                     
__________________________________________________________________________________________________
B_PosEmb (Embedding)            (None, 3, 118)       2242        B_Pos[0][0]                      
__________________________________________________________________________________________________
s0Rnn (LSTM)                    (None, 139)          310248      concatenate_52[0][0]             
__________________________________________________________________________________________________
s1Rnn (LSTM)                    (None, 139)          310248      concatenate_53[0][0]             
__________________________________________________________________________________________________
B_toksFlat (Flatten)            (None, 900)          0           B_toksEmb[0][0]                  
__________________________________________________________________________________________________
B_PosFlat (Flatten)             (None, 354)          0           B_PosEmb[0][0]                   
__________________________________________________________________________________________________
dropout_52 (Dropout)            (None, 139)          0           s0Rnn[0][0]                      
__________________________________________________________________________________________________
dropout_53 (Dropout)            (None, 139)          0           s1Rnn[0][0]                      
__________________________________________________________________________________________________
concatenate_54 (Concatenate)    (None, 1532)         0           B_toksFlat[0][0]                 
                                                                 B_PosFlat[0][0]                  
                                                                 dropout_52[0][0]                 
                                                                 dropout_53[0][0]                 
__________________________________________________________________________________________________
dense_35 (Dense)                (None, 60)           91980       concatenate_54[0][0]             
__________________________________________________________________________________________________
dropout_54 (Dropout)            (None, 60)           0           dense_35[0][0]                   
__________________________________________________________________________________________________
dense_36 (Dense)                (None, 4)            244         dropout_54[0][0]                 
==================================================================================================
Total params: 9,111,946
Trainable params: 9,111,946
Non-trainable params: 0
__________________________________________________________________________________________________
None
==================================================================================================
…
	Token occurrences: 42020
	MWE number: 451
	MWE occurrences: 670
	Continuous occurrences: 75.0 %
	MWE length: 2.14
	Seen occurrences : 57% 
	Recognizable MWEs: 100.0 %
	MWT occurrences: 1

==================================================================================================
__________________________________________________________________________________________________
Layer (type)                    Output Shape         Param #     Connected to                     
==================================================================================================
S0_toks (InputLayer)            (None, 4)            0                                            
__________________________________________________________________________________________________
S0_Pos (InputLayer)             (None, 4)            0                                            
__________________________________________________________________________________________________
S1_toks (InputLayer)            (None, 4)            0                                            
__________________________________________________________________________________________________
S1_Pos (InputLayer)             (None, 4)            0                                            
__________________________________________________________________________________________________
S0_toksEmb (Embedding)          (None, 4, 300)       1777800     S0_toks[0][0]                    
__________________________________________________________________________________________________
S0_tPosEmb (Embedding)          (None, 4, 23)        437         S0_Pos[0][0]                     
__________________________________________________________________________________________________
S1_toksEmb (Embedding)          (None, 4, 300)       1777800     S1_toks[0][0]                    
__________________________________________________________________________________________________
S1_PosEmb (Embedding)           (None, 4, 23)        437         S1_Pos[0][0]                     
__________________________________________________________________________________________________
B_toks (InputLayer)             (None, 2)            0                                            
__________________________________________________________________________________________________
B_Pos (InputLayer)              (None, 2)            0                                            
__________________________________________________________________________________________________
concatenate_55 (Concatenate)    (None, 4, 323)       0           S0_toksEmb[0][0]                 
                                                                 S0_tPosEmb[0][0]                 
__________________________________________________________________________________________________
concatenate_56 (Concatenate)    (None, 4, 323)       0           S1_toksEmb[0][0]                 
                                                                 S1_PosEmb[0][0]                  
__________________________________________________________________________________________________
B_toksEmb (Embedding)           (None, 2, 300)       1777800     B_toks[0][0]                     
__________________________________________________________________________________________________
B_PosEmb (Embedding)            (None, 2, 23)        437         B_Pos[0][0]                      
__________________________________________________________________________________________________
s0Rnn (GRU)                     (None, 182)          276276      concatenate_55[0][0]             
__________________________________________________________________________________________________
s1Rnn (GRU)                     (None, 182)          276276      concatenate_56[0][0]             
__________________________________________________________________________________________________
B_toksFlat (Flatten)            (None, 600)          0           B_toksEmb[0][0]                  
__________________________________________________________________________________________________
B_PosFlat (Flatten)             (None, 46)           0           B_PosEmb[0][0]                   
__________________________________________________________________________________________________
dropout_55 (Dropout)            (None, 182)          0           s0Rnn[0][0]                      
__________________________________________________________________________________________________
dropout_56 (Dropout)            (None, 182)          0           s1Rnn[0][0]                      
__________________________________________________________________________________________________
concatenate_57 (Concatenate)    (None, 1010)         0           B_toksFlat[0][0]                 
                                                                 B_PosFlat[0][0]                  
                                                                 dropout_55[0][0]                 
                                                                 dropout_56[0][0]                 
__________________________________________________________________________________________________
dense_37 (Dense)                (None, 33)           33363       concatenate_57[0][0]             
__________________________________________________________________________________________________
dropout_57 (Dropout)            (None, 33)           0           dense_37[0][0]                   
__________________________________________________________________________________________________
dense_38 (Dense)                (None, 4)            136         dropout_57[0][0]                 
==================================================================================================
Total params: 5,920,762
Trainable params: 5,920,762
Non-trainable params: 0
__________________________________________________________________________________________________
None
==================================================================================================
…
	Token occurrences: 42020
	MWE number: 451
	MWE occurrences: 670
	Continuous occurrences: 75.0 %
	MWE length: 2.14
	Seen occurrences : 57% 
	Recognizable MWEs: 100.0 %
	MWT occurrences: 1

==================================================================================================
__________________________________________________________________________________________________
Layer (type)                    Output Shape         Param #     Connected to                     
==================================================================================================
S0_toks (InputLayer)            (None, 4)            0                                            
__________________________________________________________________________________________________
S0_Pos (InputLayer)             (None, 4)            0                                            
__________________________________________________________________________________________________
S1_toks (InputLayer)            (None, 4)            0                                            
__________________________________________________________________________________________________
S1_Pos (InputLayer)             (None, 4)            0                                            
__________________________________________________________________________________________________
S0_toksEmb (Embedding)          (None, 4, 191)       1131866     S0_toks[0][0]                    
__________________________________________________________________________________________________
S0_tPosEmb (Embedding)          (None, 4, 39)        741         S0_Pos[0][0]                     
__________________________________________________________________________________________________
S1_toksEmb (Embedding)          (None, 4, 191)       1131866     S1_toks[0][0]                    
__________________________________________________________________________________________________
S1_PosEmb (Embedding)           (None, 4, 39)        741         S1_Pos[0][0]                     
__________________________________________________________________________________________________
B_toks (InputLayer)             (None, 2)            0                                            
__________________________________________________________________________________________________
B_Pos (InputLayer)              (None, 2)            0                                            
__________________________________________________________________________________________________
concatenate_58 (Concatenate)    (None, 4, 230)       0           S0_toksEmb[0][0]                 
                                                                 S0_tPosEmb[0][0]                 
__________________________________________________________________________________________________
concatenate_59 (Concatenate)    (None, 4, 230)       0           S1_toksEmb[0][0]                 
                                                                 S1_PosEmb[0][0]                  
__________________________________________________________________________________________________
B_toksEmb (Embedding)           (None, 2, 191)       1131866     B_toks[0][0]                     
__________________________________________________________________________________________________
B_PosEmb (Embedding)            (None, 2, 39)        741         B_Pos[0][0]                      
__________________________________________________________________________________________________
s0Rnn (GRU)                     (None, 151)          173046      concatenate_58[0][0]             
__________________________________________________________________________________________________
s1Rnn (GRU)                     (None, 151)          173046      concatenate_59[0][0]             
__________________________________________________________________________________________________
B_toksFlat (Flatten)            (None, 382)          0           B_toksEmb[0][0]                  
__________________________________________________________________________________________________
B_PosFlat (Flatten)             (None, 78)           0           B_PosEmb[0][0]                   
__________________________________________________________________________________________________
dropout_58 (Dropout)            (None, 151)          0           s0Rnn[0][0]                      
__________________________________________________________________________________________________
dropout_59 (Dropout)            (None, 151)          0           s1Rnn[0][0]                      
__________________________________________________________________________________________________
concatenate_60 (Concatenate)    (None, 762)          0           B_toksFlat[0][0]                 
                                                                 B_PosFlat[0][0]                  
                                                                 dropout_58[0][0]                 
                                                                 dropout_59[0][0]                 
__________________________________________________________________________________________________
dense_39 (Dense)                (None, 57)           43491       concatenate_60[0][0]             
__________________________________________________________________________________________________
dropout_60 (Dropout)            (None, 57)           0           dense_39[0][0]                   
__________________________________________________________________________________________________
dense_40 (Dense)                (None, 4)            232         dropout_60[0][0]                 
==================================================================================================
Total params: 3,787,636
Trainable params: 3,787,636
Non-trainable params: 0
__________________________________________________________________________________________________
None
==================================================================================================
…
	Token occurrences: 42020
	MWE number: 451
	MWE occurrences: 670
	Continuous occurrences: 75.0 %
	MWE length: 2.14
	Seen occurrences : 57% 
	Recognizable MWEs: 100.0 %
	MWT occurrences: 1

==================================================================================================
__________________________________________________________________________________________________
Layer (type)                    Output Shape         Param #     Connected to                     
==================================================================================================
S0_toks (InputLayer)            (None, 4)            0                                            
__________________________________________________________________________________________________
S0_Pos (InputLayer)             (None, 4)            0                                            
__________________________________________________________________________________________________
S1_toks (InputLayer)            (None, 4)            0                                            
__________________________________________________________________________________________________
S1_Pos (InputLayer)             (None, 4)            0                                            
__________________________________________________________________________________________________
S0_toksEmb (Embedding)          (None, 4, 300)       1777800     S0_toks[0][0]                    
__________________________________________________________________________________________________
S0_tPosEmb (Embedding)          (None, 4, 92)        1748        S0_Pos[0][0]                     
__________________________________________________________________________________________________
S1_toksEmb (Embedding)          (None, 4, 300)       1777800     S1_toks[0][0]                    
__________________________________________________________________________________________________
S1_PosEmb (Embedding)           (None, 4, 92)        1748        S1_Pos[0][0]                     
__________________________________________________________________________________________________
B_toks (InputLayer)             (None, 3)            0                                            
__________________________________________________________________________________________________
B_Pos (InputLayer)              (None, 3)            0                                            
__________________________________________________________________________________________________
concatenate_61 (Concatenate)    (None, 4, 392)       0           S0_toksEmb[0][0]                 
                                                                 S0_tPosEmb[0][0]                 
__________________________________________________________________________________________________
concatenate_62 (Concatenate)    (None, 4, 392)       0           S1_toksEmb[0][0]                 
                                                                 S1_PosEmb[0][0]                  
__________________________________________________________________________________________________
B_toksEmb (Embedding)           (None, 3, 300)       1777800     B_toks[0][0]                     
__________________________________________________________________________________________________
B_PosEmb (Embedding)            (None, 3, 92)        1748        B_Pos[0][0]                      
__________________________________________________________________________________________________
s0Rnn (GRU)                     (None, 134)          211854      concatenate_61[0][0]             
__________________________________________________________________________________________________
s1Rnn (GRU)                     (None, 134)          211854      concatenate_62[0][0]             
__________________________________________________________________________________________________
B_toksFlat (Flatten)            (None, 900)          0           B_toksEmb[0][0]                  
__________________________________________________________________________________________________
B_PosFlat (Flatten)             (None, 276)          0           B_PosEmb[0][0]                   
__________________________________________________________________________________________________
dropout_61 (Dropout)            (None, 134)          0           s0Rnn[0][0]                      
__________________________________________________________________________________________________
dropout_62 (Dropout)            (None, 134)          0           s1Rnn[0][0]                      
__________________________________________________________________________________________________
concatenate_63 (Concatenate)    (None, 1444)         0           B_toksFlat[0][0]                 
                                                                 B_PosFlat[0][0]                  
                                                                 dropout_61[0][0]                 
                                                                 dropout_62[0][0]                 
__________________________________________________________________________________________________
dense_41 (Dense)                (None, 573)          827985      concatenate_63[0][0]             
__________________________________________________________________________________________________
dropout_63 (Dropout)            (None, 573)          0           dense_41[0][0]                   
__________________________________________________________________________________________________
dense_42 (Dense)                (None, 4)            2296        dropout_63[0][0]                 
==================================================================================================
Total params: 6,592,633
Trainable params: 6,592,633
Non-trainable params: 0
__________________________________________________________________________________________________
None
==================================================================================================
…
	Token occurrences: 42020
	MWE number: 451
	MWE occurrences: 670
	Continuous occurrences: 75.0 %
	MWE length: 2.14
	Seen occurrences : 57% 
	Recognizable MWEs: 100.0 %
	MWT occurrences: 1

==================================================================================================
__________________________________________________________________________________________________
Layer (type)                    Output Shape         Param #     Connected to                     
==================================================================================================
S0_toks (InputLayer)            (None, 4)            0                                            
__________________________________________________________________________________________________
S0_Pos (InputLayer)             (None, 4)            0                                            
__________________________________________________________________________________________________
S1_toks (InputLayer)            (None, 4)            0                                            
__________________________________________________________________________________________________
S1_Pos (InputLayer)             (None, 4)            0                                            
__________________________________________________________________________________________________
S0_toksEmb (Embedding)          (None, 4, 300)       2797500     S0_toks[0][0]                    
__________________________________________________________________________________________________
S0_tPosEmb (Embedding)          (None, 4, 16)        304         S0_Pos[0][0]                     
__________________________________________________________________________________________________
S1_toksEmb (Embedding)          (None, 4, 300)       2797500     S1_toks[0][0]                    
__________________________________________________________________________________________________
S1_PosEmb (Embedding)           (None, 4, 16)        304         S1_Pos[0][0]                     
__________________________________________________________________________________________________
B_toks (InputLayer)             (None, 3)            0                                            
__________________________________________________________________________________________________
B_Pos (InputLayer)              (None, 3)            0                                            
__________________________________________________________________________________________________
concatenate_64 (Concatenate)    (None, 4, 316)       0           S0_toksEmb[0][0]                 
                                                                 S0_tPosEmb[0][0]                 
__________________________________________________________________________________________________
concatenate_65 (Concatenate)    (None, 4, 316)       0           S1_toksEmb[0][0]                 
                                                                 S1_PosEmb[0][0]                  
__________________________________________________________________________________________________
B_toksEmb (Embedding)           (None, 3, 300)       2797500     B_toks[0][0]                     
__________________________________________________________________________________________________
B_PosEmb (Embedding)            (None, 3, 16)        304         B_Pos[0][0]                      
__________________________________________________________________________________________________
s0Rnn (LSTM)                    (None, 89)           144536      concatenate_64[0][0]             
__________________________________________________________________________________________________
s1Rnn (LSTM)                    (None, 89)           144536      concatenate_65[0][0]             
__________________________________________________________________________________________________
B_toksFlat (Flatten)            (None, 900)          0           B_toksEmb[0][0]                  
__________________________________________________________________________________________________
B_PosFlat (Flatten)             (None, 48)           0           B_PosEmb[0][0]                   
__________________________________________________________________________________________________
dropout_64 (Dropout)            (None, 89)           0           s0Rnn[0][0]                      
__________________________________________________________________________________________________
dropout_65 (Dropout)            (None, 89)           0           s1Rnn[0][0]                      
__________________________________________________________________________________________________
concatenate_66 (Concatenate)    (None, 1126)         0           B_toksFlat[0][0]                 
                                                                 B_PosFlat[0][0]                  
                                                                 dropout_64[0][0]                 
                                                                 dropout_65[0][0]                 
__________________________________________________________________________________________________
dense_43 (Dense)                (None, 480)          540960      concatenate_66[0][0]             
__________________________________________________________________________________________________
dropout_66 (Dropout)            (None, 480)          0           dense_43[0][0]                   
__________________________________________________________________________________________________
dense_44 (Dense)                (None, 4)            1924        dropout_66[0][0]                 
==================================================================================================
Total params: 9,225,368
Trainable params: 9,225,368
Non-trainable params: 0
__________________________________________________________________________________________________
None
==================================================================================================
…
	Token occurrences: 42020
	MWE number: 451
	MWE occurrences: 670
	Continuous occurrences: 75.0 %
	MWE length: 2.14
	Seen occurrences : 57% 
	Recognizable MWEs: 100.0 %
	MWT occurrences: 1

==================================================================================================
__________________________________________________________________________________________________
Layer (type)                    Output Shape         Param #     Connected to                     
==================================================================================================
S0_toks (InputLayer)            (None, 4)            0                                            
__________________________________________________________________________________________________
S0_Pos (InputLayer)             (None, 4)            0                                            
__________________________________________________________________________________________________
S1_toks (InputLayer)            (None, 4)            0                                            
__________________________________________________________________________________________________
S1_Pos (InputLayer)             (None, 4)            0                                            
__________________________________________________________________________________________________
S0_toksEmb (Embedding)          (None, 4, 144)       169632      S0_toks[0][0]                    
__________________________________________________________________________________________________
S0_tPosEmb (Embedding)          (None, 4, 27)        513         S0_Pos[0][0]                     
__________________________________________________________________________________________________
S1_toksEmb (Embedding)          (None, 4, 144)       169632      S1_toks[0][0]                    
__________________________________________________________________________________________________
S1_PosEmb (Embedding)           (None, 4, 27)        513         S1_Pos[0][0]                     
__________________________________________________________________________________________________
B_toks (InputLayer)             (None, 2)            0                                            
__________________________________________________________________________________________________
B_Pos (InputLayer)              (None, 2)            0                                            
__________________________________________________________________________________________________
concatenate_67 (Concatenate)    (None, 4, 171)       0           S0_toksEmb[0][0]                 
                                                                 S0_tPosEmb[0][0]                 
__________________________________________________________________________________________________
concatenate_68 (Concatenate)    (None, 4, 171)       0           S1_toksEmb[0][0]                 
                                                                 S1_PosEmb[0][0]                  
__________________________________________________________________________________________________
B_toksEmb (Embedding)           (None, 2, 144)       169632      B_toks[0][0]                     
__________________________________________________________________________________________________
B_PosEmb (Embedding)            (None, 2, 27)        513         B_Pos[0][0]                      
__________________________________________________________________________________________________
s0Rnn (LSTM)                    (None, 78)           78000       concatenate_67[0][0]             
__________________________________________________________________________________________________
s1Rnn (LSTM)                    (None, 78)           78000       concatenate_68[0][0]             
__________________________________________________________________________________________________
B_toksFlat (Flatten)            (None, 288)          0           B_toksEmb[0][0]                  
__________________________________________________________________________________________________
B_PosFlat (Flatten)             (None, 54)           0           B_PosEmb[0][0]                   
__________________________________________________________________________________________________
dropout_67 (Dropout)            (None, 78)           0           s0Rnn[0][0]                      
__________________________________________________________________________________________________
dropout_68 (Dropout)            (None, 78)           0           s1Rnn[0][0]                      
__________________________________________________________________________________________________
concatenate_69 (Concatenate)    (None, 498)          0           B_toksFlat[0][0]                 
                                                                 B_PosFlat[0][0]                  
                                                                 dropout_67[0][0]                 
                                                                 dropout_68[0][0]                 
__________________________________________________________________________________________________
dense_45 (Dense)                (None, 316)          157684      concatenate_69[0][0]             
__________________________________________________________________________________________________
dropout_69 (Dropout)            (None, 316)          0           dense_45[0][0]                   
__________________________________________________________________________________________________
dense_46 (Dense)                (None, 4)            1268        dropout_69[0][0]                 
==================================================================================================
Total params: 825,387
Trainable params: 825,387
Non-trainable params: 0
__________________________________________________________________________________________________
None
==================================================================================================
…
	Token occurrences: 42020
	MWE number: 451
	MWE occurrences: 670
	Continuous occurrences: 75.0 %
	MWE length: 2.14
	Seen occurrences : 57% 
	Recognizable MWEs: 100.0 %
	MWT occurrences: 1

==================================================================================================
__________________________________________________________________________________________________
Layer (type)                    Output Shape         Param #     Connected to                     
==================================================================================================
S0_toks (InputLayer)            (None, 4)            0                                            
__________________________________________________________________________________________________
S0_Pos (InputLayer)             (None, 4)            0                                            
__________________________________________________________________________________________________
S1_toks (InputLayer)            (None, 4)            0                                            
__________________________________________________________________________________________________
S1_Pos (InputLayer)             (None, 4)            0                                            
__________________________________________________________________________________________________
S0_toksEmb (Embedding)          (None, 4, 300)       150900      S0_toks[0][0]                    
__________________________________________________________________________________________________
S0_tPosEmb (Embedding)          (None, 4, 15)        285         S0_Pos[0][0]                     
__________________________________________________________________________________________________
S1_toksEmb (Embedding)          (None, 4, 300)       150900      S1_toks[0][0]                    
__________________________________________________________________________________________________
S1_PosEmb (Embedding)           (None, 4, 15)        285         S1_Pos[0][0]                     
__________________________________________________________________________________________________
B_toks (InputLayer)             (None, 3)            0                                            
__________________________________________________________________________________________________
B_Pos (InputLayer)              (None, 3)            0                                            
__________________________________________________________________________________________________
concatenate_70 (Concatenate)    (None, 4, 315)       0           S0_toksEmb[0][0]                 
                                                                 S0_tPosEmb[0][0]                 
__________________________________________________________________________________________________
concatenate_71 (Concatenate)    (None, 4, 315)       0           S1_toksEmb[0][0]                 
                                                                 S1_PosEmb[0][0]                  
__________________________________________________________________________________________________
B_toksEmb (Embedding)           (None, 3, 300)       150900      B_toks[0][0]                     
__________________________________________________________________________________________________
B_PosEmb (Embedding)            (None, 3, 15)        285         B_Pos[0][0]                      
__________________________________________________________________________________________________
s0Rnn (GRU)                     (None, 40)           42720       concatenate_70[0][0]             
__________________________________________________________________________________________________
s1Rnn (GRU)                     (None, 40)           42720       concatenate_71[0][0]             
__________________________________________________________________________________________________
B_toksFlat (Flatten)            (None, 900)          0           B_toksEmb[0][0]                  
__________________________________________________________________________________________________
B_PosFlat (Flatten)             (None, 45)           0           B_PosEmb[0][0]                   
__________________________________________________________________________________________________
dropout_70 (Dropout)            (None, 40)           0           s0Rnn[0][0]                      
__________________________________________________________________________________________________
dropout_71 (Dropout)            (None, 40)           0           s1Rnn[0][0]                      
__________________________________________________________________________________________________
concatenate_72 (Concatenate)    (None, 1025)         0           B_toksFlat[0][0]                 
                                                                 B_PosFlat[0][0]                  
                                                                 dropout_70[0][0]                 
                                                                 dropout_71[0][0]                 
__________________________________________________________________________________________________
dense_47 (Dense)                (None, 76)           77976       concatenate_72[0][0]             
__________________________________________________________________________________________________
dropout_72 (Dropout)            (None, 76)           0           dense_47[0][0]                   
__________________________________________________________________________________________________
dense_48 (Dense)                (None, 4)            308         dropout_72[0][0]                 
==================================================================================================
Total params: 617,279
Trainable params: 617,279
Non-trainable params: 0
__________________________________________________________________________________________________
None
==================================================================================================
…
	Token occurrences: 42020
	MWE number: 451
	MWE occurrences: 670
	Continuous occurrences: 75.0 %
	MWE length: 2.14
	Seen occurrences : 57% 
	Recognizable MWEs: 100.0 %
	MWT occurrences: 1

==================================================================================================
__________________________________________________________________________________________________
Layer (type)                    Output Shape         Param #     Connected to                     
==================================================================================================
S0_toks (InputLayer)            (None, 4)            0                                            
__________________________________________________________________________________________________
S0_Pos (InputLayer)             (None, 4)            0                                            
__________________________________________________________________________________________________
S1_toks (InputLayer)            (None, 4)            0                                            
__________________________________________________________________________________________________
S1_Pos (InputLayer)             (None, 4)            0                                            
__________________________________________________________________________________________________
S0_toksEmb (Embedding)          (None, 4, 300)       353400      S0_toks[0][0]                    
__________________________________________________________________________________________________
S0_tPosEmb (Embedding)          (None, 4, 48)        912         S0_Pos[0][0]                     
__________________________________________________________________________________________________
S1_toksEmb (Embedding)          (None, 4, 300)       353400      S1_toks[0][0]                    
__________________________________________________________________________________________________
S1_PosEmb (Embedding)           (None, 4, 48)        912         S1_Pos[0][0]                     
__________________________________________________________________________________________________
B_toks (InputLayer)             (None, 2)            0                                            
__________________________________________________________________________________________________
B_Pos (InputLayer)              (None, 2)            0                                            
__________________________________________________________________________________________________
concatenate_73 (Concatenate)    (None, 4, 348)       0           S0_toksEmb[0][0]                 
                                                                 S0_tPosEmb[0][0]                 
__________________________________________________________________________________________________
concatenate_74 (Concatenate)    (None, 4, 348)       0           S1_toksEmb[0][0]                 
                                                                 S1_PosEmb[0][0]                  
__________________________________________________________________________________________________
B_toksEmb (Embedding)           (None, 2, 300)       353400      B_toks[0][0]                     
…
                                                                 dropout_124[0][0]                
                                                                 dropout_125[0][0]                
__________________________________________________________________________________________________
dense_83 (Dense)                (None, 416)          756288      concatenate_126[0][0]            
__________________________________________________________________________________________________
dropout_126 (Dropout)           (None, 416)          0           dense_83[0][0]                   
__________________________________________________________________________________________________
dense_84 (Dense)                (None, 4)            1668        dropout_126[0][0]                
==================================================================================================
Total params: 2,894,736
Trainable params: 2,894,736
Non-trainable params: 0
__________________________________________________________________________________________________
None
==================================================================================================
…
	Token occurrences: 42020
	MWE number: 451
	MWE occurrences: 670
	Continuous occurrences: 75.0 %
	MWE length: 2.14
	Seen occurrences : 57% 
	Recognizable MWEs: 100.0 %
	MWT occurrences: 1

==================================================================================================
__________________________________________________________________________________________________
Layer (type)                    Output Shape         Param #     Connected to                     
==================================================================================================
S0_toks (InputLayer)            (None, 4)            0                                            
__________________________________________________________________________________________________
S0_Pos (InputLayer)             (None, 4)            0                                            
__________________________________________________________________________________________________
S1_toks (InputLayer)            (None, 4)            0                                            
__________________________________________________________________________________________________
S1_Pos (InputLayer)             (None, 4)            0                                            
__________________________________________________________________________________________________
S0_toksEmb (Embedding)          (None, 4, 399)       2364474     S0_toks[0][0]                    
__________________________________________________________________________________________________
S0_tPosEmb (Embedding)          (None, 4, 31)        589         S0_Pos[0][0]                     
__________________________________________________________________________________________________
S1_toksEmb (Embedding)          (None, 4, 399)       2364474     S1_toks[0][0]                    
__________________________________________________________________________________________________
S1_PosEmb (Embedding)           (None, 4, 31)        589         S1_Pos[0][0]                     
__________________________________________________________________________________________________
B_toks (InputLayer)             (None, 2)            0                                            
__________________________________________________________________________________________________
B_Pos (InputLayer)              (None, 2)            0                                            
__________________________________________________________________________________________________
concatenate_127 (Concatenate)   (None, 4, 430)       0           S0_toksEmb[0][0]                 
                                                                 S0_tPosEmb[0][0]                 
__________________________________________________________________________________________________
concatenate_128 (Concatenate)   (None, 4, 430)       0           S1_toksEmb[0][0]                 
                                                                 S1_PosEmb[0][0]                  
__________________________________________________________________________________________________
B_toksEmb (Embedding)           (None, 2, 399)       2364474     B_toks[0][0]                     
__________________________________________________________________________________________________
B_PosEmb (Embedding)            (None, 2, 31)        589         B_Pos[0][0]                      
__________________________________________________________________________________________________
s0Rnn (GRU)                     (None, 26)           35646       concatenate_127[0][0]            
__________________________________________________________________________________________________
s1Rnn (GRU)                     (None, 26)           35646       concatenate_128[0][0]            
__________________________________________________________________________________________________
B_toksFlat (Flatten)            (None, 798)          0           B_toksEmb[0][0]                  
__________________________________________________________________________________________________
B_PosFlat (Flatten)             (None, 62)           0           B_PosEmb[0][0]                   
__________________________________________________________________________________________________
dropout_127 (Dropout)           (None, 26)           0           s0Rnn[0][0]                      
__________________________________________________________________________________________________
dropout_128 (Dropout)           (None, 26)           0           s1Rnn[0][0]                      
__________________________________________________________________________________________________
concatenate_129 (Concatenate)   (None, 912)          0           B_toksFlat[0][0]                 
                                                                 B_PosFlat[0][0]                  
                                                                 dropout_127[0][0]                
                                                                 dropout_128[0][0]                
__________________________________________________________________________________________________
dense_85 (Dense)                (None, 52)           47476       concatenate_129[0][0]            
__________________________________________________________________________________________________
dropout_129 (Dropout)           (None, 52)           0           dense_85[0][0]                   
__________________________________________________________________________________________________
dense_86 (Dense)                (None, 4)            212         dropout_129[0][0]                
==================================================================================================
Total params: 7,214,169
Trainable params: 7,214,169
Non-trainable params: 0
__________________________________________________________________________________________________
None
==================================================================================================
…
	Token occurrences: 42020
	MWE number: 451
	MWE occurrences: 670
	Continuous occurrences: 75.0 %
	MWE length: 2.14
	Seen occurrences : 57% 
	Recognizable MWEs: 100.0 %
	MWT occurrences: 1

==================================================================================================
__________________________________________________________________________________________________
Layer (type)                    Output Shape         Param #     Connected to                     
==================================================================================================
S0_toks (InputLayer)            (None, 4)            0                                            
__________________________________________________________________________________________________
S0_Pos (InputLayer)             (None, 4)            0                                            
__________________________________________________________________________________________________
S1_toks (InputLayer)            (None, 4)            0                                            
__________________________________________________________________________________________________
S1_Pos (InputLayer)             (None, 4)            0                                            
__________________________________________________________________________________________________
S0_toksEmb (Embedding)          (None, 4, 300)       1777800     S0_toks[0][0]                    
__________________________________________________________________________________________________
S0_tPosEmb (Embedding)          (None, 4, 25)        475         S0_Pos[0][0]                     
__________________________________________________________________________________________________
S1_toksEmb (Embedding)          (None, 4, 300)       1777800     S1_toks[0][0]                    
__________________________________________________________________________________________________
S1_PosEmb (Embedding)           (None, 4, 25)        475         S1_Pos[0][0]                     
__________________________________________________________________________________________________
B_toks (InputLayer)             (None, 2)            0                                            
__________________________________________________________________________________________________
B_Pos (InputLayer)              (None, 2)            0                                            
__________________________________________________________________________________________________
concatenate_130 (Concatenate)   (None, 4, 325)       0           S0_toksEmb[0][0]                 
                                                                 S0_tPosEmb[0][0]                 
__________________________________________________________________________________________________
concatenate_131 (Concatenate)   (None, 4, 325)       0           S1_toksEmb[0][0]                 
                                                                 S1_PosEmb[0][0]                  
__________________________________________________________________________________________________
B_toksEmb (Embedding)           (None, 2, 300)       1777800     B_toks[0][0]                     
__________________________________________________________________________________________________
B_PosEmb (Embedding)            (None, 2, 25)        475         B_Pos[0][0]                      
__________________________________________________________________________________________________
s0Rnn (LSTM)                    (None, 117)          207324      concatenate_130[0][0]            
__________________________________________________________________________________________________
s1Rnn (LSTM)                    (None, 117)          207324      concatenate_131[0][0]            
__________________________________________________________________________________________________
B_toksFlat (Flatten)            (None, 600)          0           B_toksEmb[0][0]                  
__________________________________________________________________________________________________
B_PosFlat (Flatten)             (None, 50)           0           B_PosEmb[0][0]                   
__________________________________________________________________________________________________
dropout_130 (Dropout)           (None, 117)          0           s0Rnn[0][0]                      
__________________________________________________________________________________________________
dropout_131 (Dropout)           (None, 117)          0           s1Rnn[0][0]                      
__________________________________________________________________________________________________
concatenate_132 (Concatenate)   (None, 884)          0           B_toksFlat[0][0]                 
                                                                 B_PosFlat[0][0]                  
                                                                 dropout_130[0][0]                
                                                                 dropout_131[0][0]                
__________________________________________________________________________________________________
dense_87 (Dense)                (None, 118)          104430      concatenate_132[0][0]            
__________________________________________________________________________________________________
dropout_132 (Dropout)           (None, 118)          0           dense_87[0][0]                   
__________________________________________________________________________________________________
dense_88 (Dense)                (None, 4)            476         dropout_132[0][0]                
==================================================================================================
Total params: 5,854,379
Trainable params: 5,854,379
Non-trainable params: 0
__________________________________________________________________________________________________
None
==================================================================================================
…
	Token occurrences: 42020
	MWE number: 451
	MWE occurrences: 670
	Continuous occurrences: 75.0 %
	MWE length: 2.14
	Seen occurrences : 57% 
	Recognizable MWEs: 100.0 %
	MWT occurrences: 1

==================================================================================================
__________________________________________________________________________________________________
Layer (type)                    Output Shape         Param #     Connected to                     
==================================================================================================
S0_toks (InputLayer)            (None, 4)            0                                            
__________________________________________________________________________________________________
S0_Pos (InputLayer)             (None, 4)            0                                            
__________________________________________________________________________________________________
S1_toks (InputLayer)            (None, 4)            0                                            
__________________________________________________________________________________________________
S1_Pos (InputLayer)             (None, 4)            0                                            
__________________________________________________________________________________________________
S0_toksEmb (Embedding)          (None, 4, 391)       460598      S0_toks[0][0]                    
__________________________________________________________________________________________________
S0_tPosEmb (Embedding)          (None, 4, 85)        1615        S0_Pos[0][0]                     
__________________________________________________________________________________________________
S1_toksEmb (Embedding)          (None, 4, 391)       460598      S1_toks[0][0]                    
__________________________________________________________________________________________________
S1_PosEmb (Embedding)           (None, 4, 85)        1615        S1_Pos[0][0]                     
__________________________________________________________________________________________________
B_toks (InputLayer)             (None, 2)            0                                            
__________________________________________________________________________________________________
B_Pos (InputLayer)              (None, 2)            0                                            
__________________________________________________________________________________________________
concatenate_133 (Concatenate)   (None, 4, 476)       0           S0_toksEmb[0][0]                 
                                                                 S0_tPosEmb[0][0]                 
__________________________________________________________________________________________________
concatenate_134 (Concatenate)   (None, 4, 476)       0           S1_toksEmb[0][0]                 
                                                                 S1_PosEmb[0][0]                  
__________________________________________________________________________________________________
B_toksEmb (Embedding)           (None, 2, 391)       460598      B_toks[0][0]                     
__________________________________________________________________________________________________
B_PosEmb (Embedding)            (None, 2, 85)        1615        B_Pos[0][0]                      
__________________________________________________________________________________________________
s0Rnn (LSTM)                    (None, 95)           217360      concatenate_133[0][0]            
__________________________________________________________________________________________________
s1Rnn (LSTM)                    (None, 95)           217360      concatenate_134[0][0]            
__________________________________________________________________________________________________
B_toksFlat (Flatten)            (None, 782)          0           B_toksEmb[0][0]                  
__________________________________________________________________________________________________
B_PosFlat (Flatten)             (None, 170)          0           B_PosEmb[0][0]                   
__________________________________________________________________________________________________
dropout_133 (Dropout)           (None, 95)           0           s0Rnn[0][0]                      
__________________________________________________________________________________________________
dropout_134 (Dropout)           (None, 95)           0           s1Rnn[0][0]                      
__________________________________________________________________________________________________
concatenate_135 (Concatenate)   (None, 1142)         0           B_toksFlat[0][0]                 
                                                                 B_PosFlat[0][0]                  
                                                                 dropout_133[0][0]                
                                                                 dropout_134[0][0]                
__________________________________________________________________________________________________
dense_89 (Dense)                (None, 29)           33147       concatenate_135[0][0]            
__________________________________________________________________________________________________
dropout_135 (Dropout)           (None, 29)           0           dense_89[0][0]                   
__________________________________________________________________________________________________
dense_90 (Dense)                (None, 4)            120         dropout_135[0][0]                
==================================================================================================
Total params: 1,854,626
Trainable params: 1,854,626
Non-trainable params: 0
__________________________________________________________________________________________________
None
==================================================================================================
…
	Token occurrences: 42020
	MWE number: 451
	MWE occurrences: 670
	Continuous occurrences: 75.0 %
	MWE length: 2.14
	Seen occurrences : 57% 
	Recognizable MWEs: 100.0 %
	MWT occurrences: 1

==================================================================================================
__________________________________________________________________________________________________
Layer (type)                    Output Shape         Param #     Connected to                     
==================================================================================================
S0_toks (InputLayer)            (None, 4)            0                                            
__________________________________________________________________________________________________
S0_Pos (InputLayer)             (None, 4)            0                                            
__________________________________________________________________________________________________
S1_toks (InputLayer)            (None, 4)            0                                            
__________________________________________________________________________________________________
S1_Pos (InputLayer)             (None, 4)            0                                            
__________________________________________________________________________________________________
S0_toksEmb (Embedding)          (None, 4, 181)       91043       S0_toks[0][0]                    
__________________________________________________________________________________________________
S0_tPosEmb (Embedding)          (None, 4, 15)        285         S0_Pos[0][0]                     
__________________________________________________________________________________________________
S1_toksEmb (Embedding)          (None, 4, 181)       91043       S1_toks[0][0]                    
__________________________________________________________________________________________________
S1_PosEmb (Embedding)           (None, 4, 15)        285         S1_Pos[0][0]                     
__________________________________________________________________________________________________
B_toks (InputLayer)             (None, 2)            0                                            
__________________________________________________________________________________________________
B_Pos (InputLayer)              (None, 2)            0                                            
__________________________________________________________________________________________________
concatenate_136 (Concatenate)   (None, 4, 196)       0           S0_toksEmb[0][0]                 
                                                                 S0_tPosEmb[0][0]                 
__________________________________________________________________________________________________
concatenate_137 (Concatenate)   (None, 4, 196)       0           S1_toksEmb[0][0]                 
                                                                 S1_PosEmb[0][0]                  
__________________________________________________________________________________________________
B_toksEmb (Embedding)           (None, 2, 181)       91043       B_toks[0][0]                     
__________________________________________________________________________________________________
B_PosEmb (Embedding)            (None, 2, 15)        285         B_Pos[0][0]                      
__________________________________________________________________________________________________
s0Rnn (GRU)                     (None, 159)          169812      concatenate_136[0][0]            
__________________________________________________________________________________________________
s1Rnn (GRU)                     (None, 159)          169812      concatenate_137[0][0]            
__________________________________________________________________________________________________
B_toksFlat (Flatten)            (None, 362)          0           B_toksEmb[0][0]                  
__________________________________________________________________________________________________
B_PosFlat (Flatten)             (None, 30)           0           B_PosEmb[0][0]                   
__________________________________________________________________________________________________
dropout_136 (Dropout)           (None, 159)          0           s0Rnn[0][0]                      
__________________________________________________________________________________________________
dropout_137 (Dropout)           (None, 159)          0           s1Rnn[0][0]                      
__________________________________________________________________________________________________
concatenate_138 (Concatenate)   (None, 710)          0           B_toksFlat[0][0]                 
                                                                 B_PosFlat[0][0]                  
                                                                 dropout_136[0][0]                
                                                                 dropout_137[0][0]                
__________________________________________________________________________________________________
dense_91 (Dense)                (None, 266)          189126      concatenate_138[0][0]            
__________________________________________________________________________________________________
dropout_138 (Dropout)           (None, 266)          0           dense_91[0][0]                   
__________________________________________________________________________________________________
dense_92 (Dense)                (None, 4)            1068        dropout_138[0][0]                
==================================================================================================
Total params: 803,802
Trainable params: 803,802
Non-trainable params: 0
__________________________________________________________________________________________________
None
==================================================================================================
…
	Token occurrences: 42020
	MWE number: 451
	MWE occurrences: 670
	Continuous occurrences: 75.0 %
	MWE length: 2.14
	Seen occurrences : 57% 
	Recognizable MWEs: 100.0 %
	MWT occurrences: 1

==================================================================================================
__________________________________________________________________________________________________
Layer (type)                    Output Shape         Param #     Connected to                     
==================================================================================================
S0_toks (InputLayer)            (None, 4)            0                                            
__________________________________________________________________________________________________
S0_Pos (InputLayer)             (None, 4)            0                                            
__________________________________________________________________________________________________
S1_toks (InputLayer)            (None, 4)            0                                            
__________________________________________________________________________________________________
S1_Pos (InputLayer)             (None, 4)            0                                            
__________________________________________________________________________________________________
S0_toksEmb (Embedding)          (None, 4, 300)       1777800     S0_toks[0][0]                    
__________________________________________________________________________________________________
S0_tPosEmb (Embedding)          (None, 4, 25)        475         S0_Pos[0][0]                     
__________________________________________________________________________________________________
S1_toksEmb (Embedding)          (None, 4, 300)       1777800     S1_toks[0][0]                    
__________________________________________________________________________________________________
S1_PosEmb (Embedding)           (None, 4, 25)        475         S1_Pos[0][0]                     
__________________________________________________________________________________________________
B_toks (InputLayer)             (None, 2)            0                                            
__________________________________________________________________________________________________
B_Pos (InputLayer)              (None, 2)            0                                            
__________________________________________________________________________________________________
concatenate_139 (Concatenate)   (None, 4, 325)       0           S0_toksEmb[0][0]                 
                                                                 S0_tPosEmb[0][0]                 
__________________________________________________________________________________________________
concatenate_140 (Concatenate)   (None, 4, 325)       0           S1_toksEmb[0][0]                 
                                                                 S1_PosEmb[0][0]                  
__________________________________________________________________________________________________
B_toksEmb (Embedding)           (None, 2, 300)       1777800     B_toks[0][0]                     
__________________________________________________________________________________________________
B_PosEmb (Embedding)            (None, 2, 25)        475         B_Pos[0][0]                      
__________________________________________________________________________________________________
s0Rnn (GRU)                     (None, 37)           40293       concatenate_139[0][0]            
__________________________________________________________________________________________________
s1Rnn (GRU)                     (None, 37)           40293       concatenate_140[0][0]            
__________________________________________________________________________________________________
B_toksFlat (Flatten)            (None, 600)          0           B_toksEmb[0][0]                  
__________________________________________________________________________________________________
B_PosFlat (Flatten)             (None, 50)           0           B_PosEmb[0][0]                   
__________________________________________________________________________________________________
dropout_139 (Dropout)           (None, 37)           0           s0Rnn[0][0]                      
__________________________________________________________________________________________________
dropout_140 (Dropout)           (None, 37)           0           s1Rnn[0][0]                      
__________________________________________________________________________________________________
concatenate_141 (Concatenate)   (None, 724)          0           B_toksFlat[0][0]                 
                                                                 B_PosFlat[0][0]                  
                                                                 dropout_139[0][0]                
                                                                 dropout_140[0][0]                
__________________________________________________________________________________________________
dense_93 (Dense)                (None, 148)          107300      concatenate_141[0][0]            
__________________________________________________________________________________________________
dropout_141 (Dropout)           (None, 148)          0           dense_93[0][0]                   
__________________________________________________________________________________________________
dense_94 (Dense)                (None, 4)            596         dropout_141[0][0]                
==================================================================================================
Total params: 5,523,307
Trainable params: 5,523,307
Non-trainable params: 0
__________________________________________________________________________________________________
None
==================================================================================================
…
	Token occurrences: 42020
	MWE number: 451
	MWE occurrences: 670
	Continuous occurrences: 75.0 %
	MWE length: 2.14
	Seen occurrences : 57% 
	Recognizable MWEs: 100.0 %
	MWT occurrences: 1

==================================================================================================
__________________________________________________________________________________________________
Layer (type)                    Output Shape         Param #     Connected to                     
==================================================================================================
S0_toks (InputLayer)            (None, 4)            0                                            
__________________________________________________________________________________________________
S0_Pos (InputLayer)             (None, 4)            0                                            
__________________________________________________________________________________________________
S1_toks (InputLayer)            (None, 4)            0                                            
__________________________________________________________________________________________________
S1_Pos (InputLayer)             (None, 4)            0                                            
__________________________________________________________________________________________________
S0_toksEmb (Embedding)          (None, 4, 242)       1434092     S0_toks[0][0]                    
__________________________________________________________________________________________________
S0_tPosEmb (Embedding)          (None, 4, 34)        646         S0_Pos[0][0]                     
__________________________________________________________________________________________________
S1_toksEmb (Embedding)          (None, 4, 242)       1434092     S1_toks[0][0]                    
__________________________________________________________________________________________________
S1_PosEmb (Embedding)           (None, 4, 34)        646         S1_Pos[0][0]                     
__________________________________________________________________________________________________
B_toks (InputLayer)             (None, 3)            0                                            
__________________________________________________________________________________________________
B_Pos (InputLayer)              (None, 3)            0                                            
__________________________________________________________________________________________________
concatenate_142 (Concatenate)   (None, 4, 276)       0           S0_toksEmb[0][0]                 
                                                                 S0_tPosEmb[0][0]                 
__________________________________________________________________________________________________
concatenate_143 (Concatenate)   (None, 4, 276)       0           S1_toksEmb[0][0]                 
                                                                 S1_PosEmb[0][0]                  
__________________________________________________________________________________________________
B_toksEmb (Embedding)           (None, 3, 242)       1434092     B_toks[0][0]                     
__________________________________________________________________________________________________
B_PosEmb (Embedding)            (None, 3, 34)        646         B_Pos[0][0]                      
__________________________________________________________________________________________________
s0Rnn (GRU)                     (None, 52)           51324       concatenate_142[0][0]            
__________________________________________________________________________________________________
s1Rnn (GRU)                     (None, 52)           51324       concatenate_143[0][0]            
__________________________________________________________________________________________________
B_toksFlat (Flatten)            (None, 726)          0           B_toksEmb[0][0]                  
__________________________________________________________________________________________________
B_PosFlat (Flatten)             (None, 102)          0           B_PosEmb[0][0]                   
__________________________________________________________________________________________________
dropout_142 (Dropout)           (None, 52)           0           s0Rnn[0][0]                      
__________________________________________________________________________________________________
dropout_143 (Dropout)           (None, 52)           0           s1Rnn[0][0]                      
__________________________________________________________________________________________________
concatenate_144 (Concatenate)   (None, 932)          0           B_toksFlat[0][0]                 
                                                                 B_PosFlat[0][0]                  
                                                                 dropout_142[0][0]                
                                                                 dropout_143[0][0]                
__________________________________________________________________________________________________
dense_95 (Dense)                (None, 154)          143682      concatenate_144[0][0]            
__________________________________________________________________________________________________
dropout_144 (Dropout)           (None, 154)          0           dense_95[0][0]                   
__________________________________________________________________________________________________
dense_96 (Dense)                (None, 4)            620         dropout_144[0][0]                
==================================================================================================
Total params: 4,551,164
Trainable params: 4,551,164
Non-trainable params: 0
__________________________________________________________________________________________________
None
==================================================================================================
…
	Token occurrences: 42020
	MWE number: 451
	MWE occurrences: 670
	Continuous occurrences: 75.0 %
	MWE length: 2.14
	Seen occurrences : 57% 
	Recognizable MWEs: 100.0 %
	MWT occurrences: 1

==================================================================================================
__________________________________________________________________________________________________
Layer (type)                    Output Shape         Param #     Connected to                     
==================================================================================================
S0_toks (InputLayer)            (None, 4)            0                                            
__________________________________________________________________________________________________
S0_Pos (InputLayer)             (None, 4)            0                                            
__________________________________________________________________________________________________
S1_toks (InputLayer)            (None, 4)            0                                            
__________________________________________________________________________________________________
S1_Pos (InputLayer)             (None, 4)            0                                            
__________________________________________________________________________________________________
S0_toksEmb (Embedding)          (None, 4, 300)       353400      S0_toks[0][0]                    
__________________________________________________________________________________________________
S0_tPosEmb (Embedding)          (None, 4, 37)        703         S0_Pos[0][0]                     
__________________________________________________________________________________________________
S1_toksEmb (Embedding)          (None, 4, 300)       353400      S1_toks[0][0]                    
__________________________________________________________________________________________________
S1_PosEmb (Embedding)           (None, 4, 37)        703         S1_Pos[0][0]                     
__________________________________________________________________________________________________
B_toks (InputLayer)             (None, 2)            0                                            
__________________________________________________________________________________________________
B_Pos (InputLayer)              (None, 2)            0                                            
__________________________________________________________________________________________________
concatenate_145 (Concatenate)   (None, 4, 337)       0           S0_toksEmb[0][0]                 
                                                                 S0_tPosEmb[0][0]                 
__________________________________________________________________________________________________
concatenate_146 (Concatenate)   (None, 4, 337)       0           S1_toksEmb[0][0]                 
                                                                 S1_PosEmb[0][0]                  
__________________________________________________________________________________________________
B_toksEmb (Embedding)           (None, 2, 300)       353400      B_toks[0][0]                     
__________________________________________________________________________________________________
B_PosEmb (Embedding)            (None, 2, 37)        703         B_Pos[0][0]                      
__________________________________________________________________________________________________
s0Rnn (GRU)                     (None, 54)           63504       concatenate_145[0][0]            
__________________________________________________________________________________________________
s1Rnn (GRU)                     (None, 54)           63504       concatenate_146[0][0]            
__________________________________________________________________________________________________
B_toksFlat (Flatten)            (None, 600)          0           B_toksEmb[0][0]                  
__________________________________________________________________________________________________
B_PosFlat (Flatten)             (None, 74)           0           B_PosEmb[0][0]                   
__________________________________________________________________________________________________
dropout_145 (Dropout)           (None, 54)           0           s0Rnn[0][0]                      
__________________________________________________________________________________________________
dropout_146 (Dropout)           (None, 54)           0           s1Rnn[0][0]                      
__________________________________________________________________________________________________
concatenate_147 (Concatenate)   (None, 782)          0           B_toksFlat[0][0]                 
                                                                 B_PosFlat[0][0]                  
                                                                 dropout_145[0][0]                
                                                                 dropout_146[0][0]                
__________________________________________________________________________________________________
dense_97 (Dense)                (None, 36)           28188       concatenate_147[0][0]            
__________________________________________________________________________________________________
dropout_147 (Dropout)           (None, 36)           0           dense_97[0][0]                   
__________________________________________________________________________________________________
dense_98 (Dense)                (None, 4)            148         dropout_147[0][0]                
==================================================================================================
Total params: 1,217,653
Trainable params: 1,217,653
Non-trainable params: 0
__________________________________________________________________________________________________
None
==================================================================================================
…
	Token occurrences: 42020
	MWE number: 451
	MWE occurrences: 670
	Continuous occurrences: 75.0 %
	MWE length: 2.14
	Seen occurrences : 57% 
	Recognizable MWEs: 100.0 %
	MWT occurrences: 1

==================================================================================================
__________________________________________________________________________________________________
Layer (type)                    Output Shape         Param #     Connected to                     
==================================================================================================
S0_toks (InputLayer)            (None, 4)            0                                            
__________________________________________________________________________________________________
S0_Pos (InputLayer)             (None, 4)            0                                            
__________________________________________________________________________________________________
S1_toks (InputLayer)            (None, 4)            0                                            
__________________________________________________________________________________________________
S1_Pos (InputLayer)             (None, 4)            0                                            
__________________________________________________________________________________________________
S0_toksEmb (Embedding)          (None, 4, 300)       353400      S0_toks[0][0]                    
__________________________________________________________________________________________________
S0_tPosEmb (Embedding)          (None, 4, 89)        1691        S0_Pos[0][0]                     
__________________________________________________________________________________________________
S1_toksEmb (Embedding)          (None, 4, 300)       353400      S1_toks[0][0]                    
__________________________________________________________________________________________________
S1_PosEmb (Embedding)           (None, 4, 89)        1691        S1_Pos[0][0]                     
__________________________________________________________________________________________________
B_toks (InputLayer)             (None, 2)            0                                            
__________________________________________________________________________________________________
B_Pos (InputLayer)              (None, 2)            0                                            
__________________________________________________________________________________________________
concatenate_148 (Concatenate)   (None, 4, 389)       0           S0_toksEmb[0][0]                 
                                                                 S0_tPosEmb[0][0]                 
__________________________________________________________________________________________________
concatenate_149 (Concatenate)   (None, 4, 389)       0           S1_toksEmb[0][0]                 
                                                                 S1_PosEmb[0][0]                  
__________________________________________________________________________________________________
B_toksEmb (Embedding)           (None, 2, 300)       353400      B_toks[0][0]                     
__________________________________________________________________________________________________
B_PosEmb (Embedding)            (None, 2, 89)        1691        B_Pos[0][0]                      
__________________________________________________________________________________________________
s0Rnn (GRU)                     (None, 44)           57288       concatenate_148[0][0]            
__________________________________________________________________________________________________
s1Rnn (GRU)                     (None, 44)           57288       concatenate_149[0][0]            
__________________________________________________________________________________________________
B_toksFlat (Flatten)            (None, 600)          0           B_toksEmb[0][0]                  
__________________________________________________________________________________________________
B_PosFlat (Flatten)             (None, 178)          0           B_PosEmb[0][0]                   
__________________________________________________________________________________________________
dropout_148 (Dropout)           (None, 44)           0           s0Rnn[0][0]                      
__________________________________________________________________________________________________
dropout_149 (Dropout)           (None, 44)           0           s1Rnn[0][0]                      
__________________________________________________________________________________________________
concatenate_150 (Concatenate)   (None, 866)          0           B_toksFlat[0][0]                 
                                                                 B_PosFlat[0][0]                  
                                                                 dropout_148[0][0]                
                                                                 dropout_149[0][0]                
__________________________________________________________________________________________________
dense_99 (Dense)                (None, 586)          508062      concatenate_150[0][0]            
__________________________________________________________________________________________________
dropout_150 (Dropout)           (None, 586)          0           dense_99[0][0]                   
__________________________________________________________________________________________________
dense_100 (Dense)               (None, 4)            2348        dropout_150[0][0]                
==================================================================================================
Total params: 1,690,259
Trainable params: 1,690,259
Non-trainable params: 0
__________________________________________________________________________________________________
None
==================================================================================================
…
