…
__________________________________________________________________________________________________

__________________________________________________________________________________________________
	Optimizer : Adagrad,  learning rate = 0.012
__________________________________________________________________________________________________
__________________________________________________________________________________________________
Layer (type)                    Output Shape         Param #     Connected to                     
==================================================================================================
b0Tokens (InputLayer)           (None, 7)            0                                            
__________________________________________________________________________________________________
b0Affixes (InputLayer)          (None, 12)           0                                            
__________________________________________________________________________________________________
b0Capitalization (InputLayer)   (None, 3)            0                                            
__________________________________________________________________________________________________
b0Symbols (InputLayer)          (None, 1)            0                                            
__________________________________________________________________________________________________
b1Tokens (InputLayer)           (None, 7)            0                                            
__________________________________________________________________________________________________
b1Affixes (InputLayer)          (None, 12)           0                                            
__________________________________________________________________________________________________
b1Capitalization (InputLayer)   (None, 3)            0                                            
__________________________________________________________________________________________________
b1Symbols (InputLayer)          (None, 1)            0                                            
__________________________________________________________________________________________________
b2Tokens (InputLayer)           (None, 7)            0                                            
__________________________________________________________________________________________________
b2Affixes (InputLayer)          (None, 12)           0                                            
__________________________________________________________________________________________________
b2Capitalization (InputLayer)   (None, 3)            0                                            
__________________________________________________________________________________________________
b2Symbols (InputLayer)          (None, 1)            0                                            
__________________________________________________________________________________________________
s0Tokens (InputLayer)           (None, 7)            0                                            
__________________________________________________________________________________________________
s0Affixes (InputLayer)          (None, 12)           0                                            
__________________________________________________________________________________________________
s0Capitalization (InputLayer)   (None, 3)            0                                            
__________________________________________________________________________________________________
s0Symbols (InputLayer)          (None, 1)            0                                            
__________________________________________________________________________________________________
s1Tokens (InputLayer)           (None, 7)            0                                            
__________________________________________________________________________________________________
s1Affixes (InputLayer)          (None, 12)           0                                            
__________________________________________________________________________________________________
s1Capitalization (InputLayer)   (None, 3)            0                                            
__________________________________________________________________________________________________
s1Symbols (InputLayer)          (None, 1)            0                                            
__________________________________________________________________________________________________
s2Tokens (InputLayer)           (None, 7)            0                                            
__________________________________________________________________________________________________
s2Affixes (InputLayer)          (None, 12)           0                                            
__________________________________________________________________________________________________
s2Capitalization (InputLayer)   (None, 3)            0                                            
__________________________________________________________________________________________________
s2Symbols (InputLayer)          (None, 1)            0                                            
__________________________________________________________________________________________________
LM1(S1)Tokens (InputLayer)      (None, 7)            0                                            
__________________________________________________________________________________________________
LM1(S1)Affixes (InputLayer)     (None, 12)           0                                            
__________________________________________________________________________________________________
LM1(S1)Capitalization (InputLay (None, 3)            0                                            
__________________________________________________________________________________________________
LM1(S1)Symbols (InputLayer)     (None, 1)            0                                            
__________________________________________________________________________________________________
LM2(S1)Tokens (InputLayer)      (None, 7)            0                                            
__________________________________________________________________________________________________
LM2(S1)Affixes (InputLayer)     (None, 12)           0                                            
__________________________________________________________________________________________________
LM2(S1)Capitalization (InputLay (None, 3)            0                                            
__________________________________________________________________________________________________
LM2(S1)Symbols (InputLayer)     (None, 1)            0                                            
__________________________________________________________________________________________________
LM1(S0)Tokens (InputLayer)      (None, 7)            0                                            
__________________________________________________________________________________________________
LM1(S0)Affixes (InputLayer)     (None, 12)           0                                            
__________________________________________________________________________________________________
LM1(S0)Capitalization (InputLay (None, 3)            0                                            
__________________________________________________________________________________________________
LM1(S0)Symbols (InputLayer)     (None, 1)            0                                            
__________________________________________________________________________________________________
LM2(S0)Tokens (InputLayer)      (None, 7)            0                                            
__________________________________________________________________________________________________
LM2(S0)Affixes (InputLayer)     (None, 12)           0                                            
__________________________________________________________________________________________________
LM2(S0)Capitalization (InputLay (None, 3)            0                                            
__________________________________________________________________________________________________
LM2(S0)Symbols (InputLayer)     (None, 1)            0                                            
__________________________________________________________________________________________________
RM1(S1)Tokens (InputLayer)      (None, 7)            0                                            
__________________________________________________________________________________________________
RM1(S1)Affixes (InputLayer)     (None, 12)           0                                            
__________________________________________________________________________________________________
RM1(S1)Capitalization (InputLay (None, 3)            0                                            
__________________________________________________________________________________________________
RM1(S1)Symbols (InputLayer)     (None, 1)            0                                            
__________________________________________________________________________________________________
RM2(S1)Tokens (InputLayer)      (None, 7)            0                                            
__________________________________________________________________________________________________
RM2(S1)Affixes (InputLayer)     (None, 12)           0                                            
__________________________________________________________________________________________________
RM2(S1)Capitalization (InputLay (None, 3)            0                                            
__________________________________________________________________________________________________
RM2(S1)Symbols (InputLayer)     (None, 1)            0                                            
__________________________________________________________________________________________________
RM1(S0)Tokens (InputLayer)      (None, 7)            0                                            
__________________________________________________________________________________________________
RM1(S0)Affixes (InputLayer)     (None, 12)           0                                            
__________________________________________________________________________________________________
RM1(S0)Capitalization (InputLay (None, 3)            0                                            
__________________________________________________________________________________________________
RM1(S0)Symbols (InputLayer)     (None, 1)            0                                            
__________________________________________________________________________________________________
RM2(S0)Tokens (InputLayer)      (None, 7)            0                                            
__________________________________________________________________________________________________
RM2(S0)Affixes (InputLayer)     (None, 12)           0                                            
__________________________________________________________________________________________________
RM2(S0)Capitalization (InputLay (None, 3)            0                                            
__________________________________________________________________________________________________
RM2(S0)Symbols (InputLayer)     (None, 1)            0                                            
__________________________________________________________________________________________________
LMLM(S1)Tokens (InputLayer)     (None, 7)            0                                            
__________________________________________________________________________________________________
LMLM(S1)Affixes (InputLayer)    (None, 12)           0                                            
__________________________________________________________________________________________________
LMLM(S1)Capitalization (InputLa (None, 3)            0                                            
__________________________________________________________________________________________________
LMLM(S1)Symbols (InputLayer)    (None, 1)            0                                            
__________________________________________________________________________________________________
RMRM(S1)Tokens (InputLayer)     (None, 7)            0                                            
__________________________________________________________________________________________________
RMRM(S1)Affixes (InputLayer)    (None, 12)           0                                            
__________________________________________________________________________________________________
RMRM(S1)Capitalization (InputLa (None, 3)            0                                            
__________________________________________________________________________________________________
RMRM(S1)Symbols (InputLayer)    (None, 1)            0                                            
__________________________________________________________________________________________________
LMLM(S0)Tokens (InputLayer)     (None, 7)            0                                            
__________________________________________________________________________________________________
LMLM(S0)Affixes (InputLayer)    (None, 12)           0                                            
__________________________________________________________________________________________________
LMLM(S0)Capitalization (InputLa (None, 3)            0                                            
__________________________________________________________________________________________________
LMLM(S0)Symbols (InputLayer)    (None, 1)            0                                            
__________________________________________________________________________________________________
RMRM(S0)Tokens (InputLayer)     (None, 7)            0                                            
__________________________________________________________________________________________________
RMRM(S0)Affixes (InputLayer)    (None, 12)           0                                            
__________________________________________________________________________________________________
RMRM(S0)Capitalization (InputLa (None, 3)            0                                            
__________________________________________________________________________________________________
RMRM(S0)Symbols (InputLayer)    (None, 1)            0                                            
__________________________________________________________________________________________________
tokenEmb (Embedding)            (None, 7, 84)        1547112     b0Tokens[0][0]                   
                                                                 b1Tokens[0][0]                   
                                                                 b2Tokens[0][0]                   
                                                                 s0Tokens[0][0]                   
                                                                 s1Tokens[0][0]                   
…
                                                                 RM2(S0)Symbols[0][0]             
                                                                 LMLM(S1)Symbols[0][0]            
                                                                 RMRM(S1)Symbols[0][0]            
                                                                 LMLM(S0)Symbols[0][0]            
                                                                 RMRM(S0)Symbols[0][0]            
__________________________________________________________________________________________________
SyntacticLabels (InputLayer)    (None, 12)           0                                            
__________________________________________________________________________________________________
flatten_25 (Flatten)            (None, 588)          0           tokenEmb[6][0]                   
__________________________________________________________________________________________________
flatten_26 (Flatten)            (None, 144)          0           affixeseEmb[6][0]                
__________________________________________________________________________________________________
flatten_27 (Flatten)            (None, 12)           0           capitalizationEmb[6][0]          
__________________________________________________________________________________________________
flatten_28 (Flatten)            (None, 9)            0           symbolsEmb[6][0]                 
__________________________________________________________________________________________________
flatten_29 (Flatten)            (None, 588)          0           tokenEmb[7][0]                   
__________________________________________________________________________________________________
flatten_30 (Flatten)            (None, 144)          0           affixeseEmb[7][0]                
__________________________________________________________________________________________________
flatten_31 (Flatten)            (None, 12)           0           capitalizationEmb[7][0]          
__________________________________________________________________________________________________
flatten_32 (Flatten)            (None, 9)            0           symbolsEmb[7][0]                 
__________________________________________________________________________________________________
flatten_33 (Flatten)            (None, 588)          0           tokenEmb[8][0]                   
__________________________________________________________________________________________________
flatten_34 (Flatten)            (None, 144)          0           affixeseEmb[8][0]                
__________________________________________________________________________________________________
flatten_35 (Flatten)            (None, 12)           0           capitalizationEmb[8][0]          
__________________________________________________________________________________________________
flatten_36 (Flatten)            (None, 9)            0           symbolsEmb[8][0]                 
__________________________________________________________________________________________________
flatten_37 (Flatten)            (None, 588)          0           tokenEmb[9][0]                   
__________________________________________________________________________________________________
flatten_38 (Flatten)            (None, 144)          0           affixeseEmb[9][0]                
__________________________________________________________________________________________________
flatten_39 (Flatten)            (None, 12)           0           capitalizationEmb[9][0]          
__________________________________________________________________________________________________
flatten_40 (Flatten)            (None, 9)            0           symbolsEmb[9][0]                 
__________________________________________________________________________________________________
flatten_41 (Flatten)            (None, 588)          0           tokenEmb[10][0]                  
__________________________________________________________________________________________________
flatten_42 (Flatten)            (None, 144)          0           affixeseEmb[10][0]               
__________________________________________________________________________________________________
flatten_43 (Flatten)            (None, 12)           0           capitalizationEmb[10][0]         
__________________________________________________________________________________________________
flatten_44 (Flatten)            (None, 9)            0           symbolsEmb[10][0]                
__________________________________________________________________________________________________
flatten_45 (Flatten)            (None, 588)          0           tokenEmb[11][0]                  
__________________________________________________________________________________________________
flatten_46 (Flatten)            (None, 144)          0           affixeseEmb[11][0]               
__________________________________________________________________________________________________
flatten_47 (Flatten)            (None, 12)           0           capitalizationEmb[11][0]         
__________________________________________________________________________________________________
flatten_48 (Flatten)            (None, 9)            0           symbolsEmb[11][0]                
__________________________________________________________________________________________________
flatten_49 (Flatten)            (None, 588)          0           tokenEmb[12][0]                  
__________________________________________________________________________________________________
flatten_50 (Flatten)            (None, 144)          0           affixeseEmb[12][0]               
__________________________________________________________________________________________________
flatten_51 (Flatten)            (None, 12)           0           capitalizationEmb[12][0]         
__________________________________________________________________________________________________
flatten_52 (Flatten)            (None, 9)            0           symbolsEmb[12][0]                
__________________________________________________________________________________________________
flatten_53 (Flatten)            (None, 588)          0           tokenEmb[13][0]                  
__________________________________________________________________________________________________
flatten_54 (Flatten)            (None, 144)          0           affixeseEmb[13][0]               
__________________________________________________________________________________________________
flatten_55 (Flatten)            (None, 12)           0           capitalizationEmb[13][0]         
__________________________________________________________________________________________________
flatten_56 (Flatten)            (None, 9)            0           symbolsEmb[13][0]                
__________________________________________________________________________________________________
flatten_57 (Flatten)            (None, 588)          0           tokenEmb[14][0]                  
__________________________________________________________________________________________________
flatten_58 (Flatten)            (None, 144)          0           affixeseEmb[14][0]               
__________________________________________________________________________________________________
flatten_59 (Flatten)            (None, 12)           0           capitalizationEmb[14][0]         
__________________________________________________________________________________________________
flatten_60 (Flatten)            (None, 9)            0           symbolsEmb[14][0]                
__________________________________________________________________________________________________
flatten_61 (Flatten)            (None, 588)          0           tokenEmb[15][0]                  
__________________________________________________________________________________________________
flatten_62 (Flatten)            (None, 144)          0           affixeseEmb[15][0]               
__________________________________________________________________________________________________
flatten_63 (Flatten)            (None, 12)           0           capitalizationEmb[15][0]         
__________________________________________________________________________________________________
flatten_64 (Flatten)            (None, 9)            0           symbolsEmb[15][0]                
__________________________________________________________________________________________________
flatten_65 (Flatten)            (None, 588)          0           tokenEmb[16][0]                  
__________________________________________________________________________________________________
flatten_66 (Flatten)            (None, 144)          0           affixeseEmb[16][0]               
__________________________________________________________________________________________________
flatten_67 (Flatten)            (None, 12)           0           capitalizationEmb[16][0]         
__________________________________________________________________________________________________
flatten_68 (Flatten)            (None, 9)            0           symbolsEmb[16][0]                
__________________________________________________________________________________________________
flatten_69 (Flatten)            (None, 588)          0           tokenEmb[17][0]                  
__________________________________________________________________________________________________
flatten_70 (Flatten)            (None, 144)          0           affixeseEmb[17][0]               
__________________________________________________________________________________________________
flatten_71 (Flatten)            (None, 12)           0           capitalizationEmb[17][0]         
__________________________________________________________________________________________________
flatten_72 (Flatten)            (None, 9)            0           symbolsEmb[17][0]                
__________________________________________________________________________________________________
flatten_73 (Flatten)            (None, 588)          0           tokenEmb[18][0]                  
__________________________________________________________________________________________________
flatten_74 (Flatten)            (None, 144)          0           affixeseEmb[18][0]               
__________________________________________________________________________________________________
flatten_75 (Flatten)            (None, 12)           0           capitalizationEmb[18][0]         
__________________________________________________________________________________________________
flatten_76 (Flatten)            (None, 9)            0           symbolsEmb[18][0]                
__________________________________________________________________________________________________
flatten_77 (Flatten)            (None, 588)          0           tokenEmb[19][0]                  
__________________________________________________________________________________________________
flatten_78 (Flatten)            (None, 144)          0           affixeseEmb[19][0]               
__________________________________________________________________________________________________
flatten_79 (Flatten)            (None, 12)           0           capitalizationEmb[19][0]         
__________________________________________________________________________________________________
flatten_80 (Flatten)            (None, 9)            0           symbolsEmb[19][0]                
__________________________________________________________________________________________________
flatten_81 (Flatten)            (None, 588)          0           tokenEmb[20][0]                  
__________________________________________________________________________________________________
flatten_82 (Flatten)            (None, 144)          0           affixeseEmb[20][0]               
__________________________________________________________________________________________________
flatten_83 (Flatten)            (None, 12)           0           capitalizationEmb[20][0]         
__________________________________________________________________________________________________
flatten_84 (Flatten)            (None, 9)            0           symbolsEmb[20][0]                
__________________________________________________________________________________________________
flatten_85 (Flatten)            (None, 588)          0           tokenEmb[21][0]                  
__________________________________________________________________________________________________
flatten_86 (Flatten)            (None, 144)          0           affixeseEmb[21][0]               
__________________________________________________________________________________________________
flatten_87 (Flatten)            (None, 12)           0           capitalizationEmb[21][0]         
__________________________________________________________________________________________________
flatten_88 (Flatten)            (None, 9)            0           symbolsEmb[21][0]                
__________________________________________________________________________________________________
flatten_89 (Flatten)            (None, 588)          0           tokenEmb[22][0]                  
__________________________________________________________________________________________________
flatten_90 (Flatten)            (None, 144)          0           affixeseEmb[22][0]               
__________________________________________________________________________________________________
flatten_91 (Flatten)            (None, 12)           0           capitalizationEmb[22][0]         
__________________________________________________________________________________________________
flatten_92 (Flatten)            (None, 9)            0           symbolsEmb[22][0]                
__________________________________________________________________________________________________
flatten_93 (Flatten)            (None, 588)          0           tokenEmb[23][0]                  
__________________________________________________________________________________________________
flatten_94 (Flatten)            (None, 144)          0           affixeseEmb[23][0]               
__________________________________________________________________________________________________
flatten_95 (Flatten)            (None, 12)           0           capitalizationEmb[23][0]         
__________________________________________________________________________________________________
flatten_96 (Flatten)            (None, 9)            0           symbolsEmb[23][0]                
__________________________________________________________________________________________________
SyntacticLabelEmb (Embedding)   (None, 12, 20)       680         SyntacticLabels[0][0]            
__________________________________________________________________________________________________
concatenate_8 (Concatenate)     (None, 753)          0           flatten_25[0][0]                 
                                                                 flatten_26[0][0]                 
                                                                 flatten_27[0][0]                 
                                                                 flatten_28[0][0]                 
__________________________________________________________________________________________________
concatenate_9 (Concatenate)     (None, 753)          0           flatten_29[0][0]                 
                                                                 flatten_30[0][0]                 
                                                                 flatten_31[0][0]                 
                                                                 flatten_32[0][0]                 
__________________________________________________________________________________________________
concatenate_10 (Concatenate)    (None, 753)          0           flatten_33[0][0]                 
                                                                 flatten_34[0][0]                 
                                                                 flatten_35[0][0]                 
                                                                 flatten_36[0][0]                 
__________________________________________________________________________________________________
concatenate_11 (Concatenate)    (None, 753)          0           flatten_37[0][0]                 
                                                                 flatten_38[0][0]                 
                                                                 flatten_39[0][0]                 
                                                                 flatten_40[0][0]                 
__________________________________________________________________________________________________
concatenate_12 (Concatenate)    (None, 753)          0           flatten_41[0][0]                 
                                                                 flatten_42[0][0]                 
                                                                 flatten_43[0][0]                 
                                                                 flatten_44[0][0]                 
__________________________________________________________________________________________________
concatenate_13 (Concatenate)    (None, 753)          0           flatten_45[0][0]                 
                                                                 flatten_46[0][0]                 
                                                                 flatten_47[0][0]                 
                                                                 flatten_48[0][0]                 
__________________________________________________________________________________________________
concatenate_14 (Concatenate)    (None, 753)          0           flatten_49[0][0]                 
                                                                 flatten_50[0][0]                 
                                                                 flatten_51[0][0]                 
                                                                 flatten_52[0][0]                 
__________________________________________________________________________________________________
concatenate_15 (Concatenate)    (None, 753)          0           flatten_53[0][0]                 
                                                                 flatten_54[0][0]                 
                                                                 flatten_55[0][0]                 
                                                                 flatten_56[0][0]                 
__________________________________________________________________________________________________
concatenate_16 (Concatenate)    (None, 753)          0           flatten_57[0][0]                 
                                                                 flatten_58[0][0]                 
                                                                 flatten_59[0][0]                 
                                                                 flatten_60[0][0]                 
__________________________________________________________________________________________________
concatenate_17 (Concatenate)    (None, 753)          0           flatten_61[0][0]                 
                                                                 flatten_62[0][0]                 
                                                                 flatten_63[0][0]                 
                                                                 flatten_64[0][0]                 
__________________________________________________________________________________________________
concatenate_18 (Concatenate)    (None, 753)          0           flatten_65[0][0]                 
                                                                 flatten_66[0][0]                 
                                                                 flatten_67[0][0]                 
                                                                 flatten_68[0][0]                 
__________________________________________________________________________________________________
concatenate_19 (Concatenate)    (None, 753)          0           flatten_69[0][0]                 
                                                                 flatten_70[0][0]                 
                                                                 flatten_71[0][0]                 
                                                                 flatten_72[0][0]                 
__________________________________________________________________________________________________
concatenate_20 (Concatenate)    (None, 753)          0           flatten_73[0][0]                 
                                                                 flatten_74[0][0]                 
                                                                 flatten_75[0][0]                 
                                                                 flatten_76[0][0]                 
__________________________________________________________________________________________________
concatenate_21 (Concatenate)    (None, 753)          0           flatten_77[0][0]                 
                                                                 flatten_78[0][0]                 
                                                                 flatten_79[0][0]                 
                                                                 flatten_80[0][0]                 
__________________________________________________________________________________________________
concatenate_22 (Concatenate)    (None, 753)          0           flatten_81[0][0]                 
                                                                 flatten_82[0][0]                 
                                                                 flatten_83[0][0]                 
                                                                 flatten_84[0][0]                 
__________________________________________________________________________________________________
concatenate_23 (Concatenate)    (None, 753)          0           flatten_85[0][0]                 
                                                                 flatten_86[0][0]                 
                                                                 flatten_87[0][0]                 
                                                                 flatten_88[0][0]                 
__________________________________________________________________________________________________
concatenate_24 (Concatenate)    (None, 753)          0           flatten_89[0][0]                 
                                                                 flatten_90[0][0]                 
                                                                 flatten_91[0][0]                 
                                                                 flatten_92[0][0]                 
__________________________________________________________________________________________________
concatenate_25 (Concatenate)    (None, 753)          0           flatten_93[0][0]                 
                                                                 flatten_94[0][0]                 
                                                                 flatten_95[0][0]                 
                                                                 flatten_96[0][0]                 
__________________________________________________________________________________________________
flatten_97 (Flatten)            (None, 240)          0           SyntacticLabelEmb[0][0]          
__________________________________________________________________________________________________
posDense (Dense)                (None, 79)           59566       concatenate_8[0][0]              
                                                                 concatenate_9[0][0]              
                                                                 concatenate_10[0][0]             
                                                                 concatenate_11[0][0]             
                                                                 concatenate_12[0][0]             
…
__________________________________________________________________________________________________

__________________________________________________________________________________________________
	Optimizer : Adagrad,  learning rate = 0.012
__________________________________________________________________________________________________
__________________________________________________________________________________________________
Layer (type)                    Output Shape         Param #     Connected to                     
==================================================================================================
b0Tokens (InputLayer)           (None, 7)            0                                            
__________________________________________________________________________________________________
b0Affixes (InputLayer)          (None, 12)           0                                            
__________________________________________________________________________________________________
b0Capitalization (InputLayer)   (None, 3)            0                                            
__________________________________________________________________________________________________
b0Symbols (InputLayer)          (None, 1)            0                                            
__________________________________________________________________________________________________
b1Tokens (InputLayer)           (None, 7)            0                                            
__________________________________________________________________________________________________
b1Affixes (InputLayer)          (None, 12)           0                                            
__________________________________________________________________________________________________
b1Capitalization (InputLayer)   (None, 3)            0                                            
__________________________________________________________________________________________________
b1Symbols (InputLayer)          (None, 1)            0                                            
__________________________________________________________________________________________________
b2Tokens (InputLayer)           (None, 7)            0                                            
__________________________________________________________________________________________________
b2Affixes (InputLayer)          (None, 12)           0                                            
__________________________________________________________________________________________________
b2Capitalization (InputLayer)   (None, 3)            0                                            
__________________________________________________________________________________________________
b2Symbols (InputLayer)          (None, 1)            0                                            
__________________________________________________________________________________________________
s0Tokens (InputLayer)           (None, 7)            0                                            
__________________________________________________________________________________________________
s0Affixes (InputLayer)          (None, 12)           0                                            
__________________________________________________________________________________________________
s0Capitalization (InputLayer)   (None, 3)            0                                            
__________________________________________________________________________________________________
s0Symbols (InputLayer)          (None, 1)            0                                            
__________________________________________________________________________________________________
s1Tokens (InputLayer)           (None, 7)            0                                            
__________________________________________________________________________________________________
s1Affixes (InputLayer)          (None, 12)           0                                            
__________________________________________________________________________________________________
s1Capitalization (InputLayer)   (None, 3)            0                                            
__________________________________________________________________________________________________
s1Symbols (InputLayer)          (None, 1)            0                                            
__________________________________________________________________________________________________
s2Tokens (InputLayer)           (None, 7)            0                                            
__________________________________________________________________________________________________
s2Affixes (InputLayer)          (None, 12)           0                                            
__________________________________________________________________________________________________
s2Capitalization (InputLayer)   (None, 3)            0                                            
__________________________________________________________________________________________________
s2Symbols (InputLayer)          (None, 1)            0                                            
__________________________________________________________________________________________________
LM1(S1)Tokens (InputLayer)      (None, 7)            0                                            
__________________________________________________________________________________________________
LM1(S1)Affixes (InputLayer)     (None, 12)           0                                            
__________________________________________________________________________________________________
LM1(S1)Capitalization (InputLay (None, 3)            0                                            
__________________________________________________________________________________________________
LM1(S1)Symbols (InputLayer)     (None, 1)            0                                            
__________________________________________________________________________________________________
LM2(S1)Tokens (InputLayer)      (None, 7)            0                                            
__________________________________________________________________________________________________
LM2(S1)Affixes (InputLayer)     (None, 12)           0                                            
__________________________________________________________________________________________________
LM2(S1)Capitalization (InputLay (None, 3)            0                                            
__________________________________________________________________________________________________
LM2(S1)Symbols (InputLayer)     (None, 1)            0                                            
__________________________________________________________________________________________________
LM1(S0)Tokens (InputLayer)      (None, 7)            0                                            
__________________________________________________________________________________________________
LM1(S0)Affixes (InputLayer)     (None, 12)           0                                            
__________________________________________________________________________________________________
LM1(S0)Capitalization (InputLay (None, 3)            0                                            
__________________________________________________________________________________________________
LM1(S0)Symbols (InputLayer)     (None, 1)            0                                            
__________________________________________________________________________________________________
LM2(S0)Tokens (InputLayer)      (None, 7)            0                                            
__________________________________________________________________________________________________
LM2(S0)Affixes (InputLayer)     (None, 12)           0                                            
__________________________________________________________________________________________________
LM2(S0)Capitalization (InputLay (None, 3)            0                                            
__________________________________________________________________________________________________
LM2(S0)Symbols (InputLayer)     (None, 1)            0                                            
__________________________________________________________________________________________________
RM1(S1)Tokens (InputLayer)      (None, 7)            0                                            
__________________________________________________________________________________________________
RM1(S1)Affixes (InputLayer)     (None, 12)           0                                            
__________________________________________________________________________________________________
RM1(S1)Capitalization (InputLay (None, 3)            0                                            
__________________________________________________________________________________________________
RM1(S1)Symbols (InputLayer)     (None, 1)            0                                            
__________________________________________________________________________________________________
RM2(S1)Tokens (InputLayer)      (None, 7)            0                                            
__________________________________________________________________________________________________
RM2(S1)Affixes (InputLayer)     (None, 12)           0                                            
__________________________________________________________________________________________________
RM2(S1)Capitalization (InputLay (None, 3)            0                                            
__________________________________________________________________________________________________
RM2(S1)Symbols (InputLayer)     (None, 1)            0                                            
__________________________________________________________________________________________________
RM1(S0)Tokens (InputLayer)      (None, 7)            0                                            
__________________________________________________________________________________________________
RM1(S0)Affixes (InputLayer)     (None, 12)           0                                            
__________________________________________________________________________________________________
RM1(S0)Capitalization (InputLay (None, 3)            0                                            
__________________________________________________________________________________________________
RM1(S0)Symbols (InputLayer)     (None, 1)            0                                            
__________________________________________________________________________________________________
RM2(S0)Tokens (InputLayer)      (None, 7)            0                                            
__________________________________________________________________________________________________
RM2(S0)Affixes (InputLayer)     (None, 12)           0                                            
__________________________________________________________________________________________________
RM2(S0)Capitalization (InputLay (None, 3)            0                                            
__________________________________________________________________________________________________
RM2(S0)Symbols (InputLayer)     (None, 1)            0                                            
__________________________________________________________________________________________________
LMLM(S1)Tokens (InputLayer)     (None, 7)            0                                            
__________________________________________________________________________________________________
LMLM(S1)Affixes (InputLayer)    (None, 12)           0                                            
__________________________________________________________________________________________________
LMLM(S1)Capitalization (InputLa (None, 3)            0                                            
__________________________________________________________________________________________________
LMLM(S1)Symbols (InputLayer)    (None, 1)            0                                            
__________________________________________________________________________________________________
RMRM(S1)Tokens (InputLayer)     (None, 7)            0                                            
__________________________________________________________________________________________________
RMRM(S1)Affixes (InputLayer)    (None, 12)           0                                            
__________________________________________________________________________________________________
RMRM(S1)Capitalization (InputLa (None, 3)            0                                            
__________________________________________________________________________________________________
RMRM(S1)Symbols (InputLayer)    (None, 1)            0                                            
__________________________________________________________________________________________________
LMLM(S0)Tokens (InputLayer)     (None, 7)            0                                            
__________________________________________________________________________________________________
LMLM(S0)Affixes (InputLayer)    (None, 12)           0                                            
__________________________________________________________________________________________________
LMLM(S0)Capitalization (InputLa (None, 3)            0                                            
__________________________________________________________________________________________________
LMLM(S0)Symbols (InputLayer)    (None, 1)            0                                            
__________________________________________________________________________________________________
RMRM(S0)Tokens (InputLayer)     (None, 7)            0                                            
__________________________________________________________________________________________________
RMRM(S0)Affixes (InputLayer)    (None, 12)           0                                            
__________________________________________________________________________________________________
RMRM(S0)Capitalization (InputLa (None, 3)            0                                            
__________________________________________________________________________________________________
RMRM(S0)Symbols (InputLayer)    (None, 1)            0                                            
__________________________________________________________________________________________________
tokenEmb (Embedding)            (None, 7, 84)        2141916     b0Tokens[0][0]                   
                                                                 b1Tokens[0][0]                   
                                                                 b2Tokens[0][0]                   
                                                                 s0Tokens[0][0]                   
                                                                 s1Tokens[0][0]                   
…
                                                                 RM2(S0)Symbols[0][0]             
                                                                 LMLM(S1)Symbols[0][0]            
                                                                 RMRM(S1)Symbols[0][0]            
                                                                 LMLM(S0)Symbols[0][0]            
                                                                 RMRM(S0)Symbols[0][0]            
__________________________________________________________________________________________________
SyntacticLabels (InputLayer)    (None, 12)           0                                            
__________________________________________________________________________________________________
flatten_122 (Flatten)           (None, 588)          0           tokenEmb[6][0]                   
__________________________________________________________________________________________________
flatten_123 (Flatten)           (None, 144)          0           affixeseEmb[6][0]                
__________________________________________________________________________________________________
flatten_124 (Flatten)           (None, 12)           0           capitalizationEmb[6][0]          
__________________________________________________________________________________________________
flatten_125 (Flatten)           (None, 9)            0           symbolsEmb[6][0]                 
__________________________________________________________________________________________________
flatten_126 (Flatten)           (None, 588)          0           tokenEmb[7][0]                   
__________________________________________________________________________________________________
flatten_127 (Flatten)           (None, 144)          0           affixeseEmb[7][0]                
__________________________________________________________________________________________________
flatten_128 (Flatten)           (None, 12)           0           capitalizationEmb[7][0]          
__________________________________________________________________________________________________
flatten_129 (Flatten)           (None, 9)            0           symbolsEmb[7][0]                 
__________________________________________________________________________________________________
flatten_130 (Flatten)           (None, 588)          0           tokenEmb[8][0]                   
__________________________________________________________________________________________________
flatten_131 (Flatten)           (None, 144)          0           affixeseEmb[8][0]                
__________________________________________________________________________________________________
flatten_132 (Flatten)           (None, 12)           0           capitalizationEmb[8][0]          
__________________________________________________________________________________________________
flatten_133 (Flatten)           (None, 9)            0           symbolsEmb[8][0]                 
__________________________________________________________________________________________________
flatten_134 (Flatten)           (None, 588)          0           tokenEmb[9][0]                   
__________________________________________________________________________________________________
flatten_135 (Flatten)           (None, 144)          0           affixeseEmb[9][0]                
__________________________________________________________________________________________________
flatten_136 (Flatten)           (None, 12)           0           capitalizationEmb[9][0]          
__________________________________________________________________________________________________
flatten_137 (Flatten)           (None, 9)            0           symbolsEmb[9][0]                 
__________________________________________________________________________________________________
flatten_138 (Flatten)           (None, 588)          0           tokenEmb[10][0]                  
__________________________________________________________________________________________________
flatten_139 (Flatten)           (None, 144)          0           affixeseEmb[10][0]               
__________________________________________________________________________________________________
flatten_140 (Flatten)           (None, 12)           0           capitalizationEmb[10][0]         
__________________________________________________________________________________________________
flatten_141 (Flatten)           (None, 9)            0           symbolsEmb[10][0]                
__________________________________________________________________________________________________
flatten_142 (Flatten)           (None, 588)          0           tokenEmb[11][0]                  
__________________________________________________________________________________________________
flatten_143 (Flatten)           (None, 144)          0           affixeseEmb[11][0]               
__________________________________________________________________________________________________
flatten_144 (Flatten)           (None, 12)           0           capitalizationEmb[11][0]         
__________________________________________________________________________________________________
flatten_145 (Flatten)           (None, 9)            0           symbolsEmb[11][0]                
__________________________________________________________________________________________________
flatten_146 (Flatten)           (None, 588)          0           tokenEmb[12][0]                  
__________________________________________________________________________________________________
flatten_147 (Flatten)           (None, 144)          0           affixeseEmb[12][0]               
__________________________________________________________________________________________________
flatten_148 (Flatten)           (None, 12)           0           capitalizationEmb[12][0]         
__________________________________________________________________________________________________
flatten_149 (Flatten)           (None, 9)            0           symbolsEmb[12][0]                
__________________________________________________________________________________________________
flatten_150 (Flatten)           (None, 588)          0           tokenEmb[13][0]                  
__________________________________________________________________________________________________
flatten_151 (Flatten)           (None, 144)          0           affixeseEmb[13][0]               
__________________________________________________________________________________________________
flatten_152 (Flatten)           (None, 12)           0           capitalizationEmb[13][0]         
__________________________________________________________________________________________________
flatten_153 (Flatten)           (None, 9)            0           symbolsEmb[13][0]                
__________________________________________________________________________________________________
flatten_154 (Flatten)           (None, 588)          0           tokenEmb[14][0]                  
__________________________________________________________________________________________________
flatten_155 (Flatten)           (None, 144)          0           affixeseEmb[14][0]               
__________________________________________________________________________________________________
flatten_156 (Flatten)           (None, 12)           0           capitalizationEmb[14][0]         
__________________________________________________________________________________________________
flatten_157 (Flatten)           (None, 9)            0           symbolsEmb[14][0]                
__________________________________________________________________________________________________
flatten_158 (Flatten)           (None, 588)          0           tokenEmb[15][0]                  
__________________________________________________________________________________________________
flatten_159 (Flatten)           (None, 144)          0           affixeseEmb[15][0]               
__________________________________________________________________________________________________
flatten_160 (Flatten)           (None, 12)           0           capitalizationEmb[15][0]         
__________________________________________________________________________________________________
flatten_161 (Flatten)           (None, 9)            0           symbolsEmb[15][0]                
__________________________________________________________________________________________________
flatten_162 (Flatten)           (None, 588)          0           tokenEmb[16][0]                  
__________________________________________________________________________________________________
flatten_163 (Flatten)           (None, 144)          0           affixeseEmb[16][0]               
__________________________________________________________________________________________________
flatten_164 (Flatten)           (None, 12)           0           capitalizationEmb[16][0]         
__________________________________________________________________________________________________
flatten_165 (Flatten)           (None, 9)            0           symbolsEmb[16][0]                
__________________________________________________________________________________________________
flatten_166 (Flatten)           (None, 588)          0           tokenEmb[17][0]                  
__________________________________________________________________________________________________
flatten_167 (Flatten)           (None, 144)          0           affixeseEmb[17][0]               
__________________________________________________________________________________________________
flatten_168 (Flatten)           (None, 12)           0           capitalizationEmb[17][0]         
__________________________________________________________________________________________________
flatten_169 (Flatten)           (None, 9)            0           symbolsEmb[17][0]                
__________________________________________________________________________________________________
flatten_170 (Flatten)           (None, 588)          0           tokenEmb[18][0]                  
__________________________________________________________________________________________________
flatten_171 (Flatten)           (None, 144)          0           affixeseEmb[18][0]               
__________________________________________________________________________________________________
flatten_172 (Flatten)           (None, 12)           0           capitalizationEmb[18][0]         
__________________________________________________________________________________________________
flatten_173 (Flatten)           (None, 9)            0           symbolsEmb[18][0]                
__________________________________________________________________________________________________
flatten_174 (Flatten)           (None, 588)          0           tokenEmb[19][0]                  
__________________________________________________________________________________________________
flatten_175 (Flatten)           (None, 144)          0           affixeseEmb[19][0]               
__________________________________________________________________________________________________
flatten_176 (Flatten)           (None, 12)           0           capitalizationEmb[19][0]         
__________________________________________________________________________________________________
flatten_177 (Flatten)           (None, 9)            0           symbolsEmb[19][0]                
__________________________________________________________________________________________________
flatten_178 (Flatten)           (None, 588)          0           tokenEmb[20][0]                  
__________________________________________________________________________________________________
flatten_179 (Flatten)           (None, 144)          0           affixeseEmb[20][0]               
__________________________________________________________________________________________________
flatten_180 (Flatten)           (None, 12)           0           capitalizationEmb[20][0]         
__________________________________________________________________________________________________
flatten_181 (Flatten)           (None, 9)            0           symbolsEmb[20][0]                
__________________________________________________________________________________________________
flatten_182 (Flatten)           (None, 588)          0           tokenEmb[21][0]                  
__________________________________________________________________________________________________
flatten_183 (Flatten)           (None, 144)          0           affixeseEmb[21][0]               
__________________________________________________________________________________________________
flatten_184 (Flatten)           (None, 12)           0           capitalizationEmb[21][0]         
__________________________________________________________________________________________________
flatten_185 (Flatten)           (None, 9)            0           symbolsEmb[21][0]                
__________________________________________________________________________________________________
flatten_186 (Flatten)           (None, 588)          0           tokenEmb[22][0]                  
__________________________________________________________________________________________________
flatten_187 (Flatten)           (None, 144)          0           affixeseEmb[22][0]               
__________________________________________________________________________________________________
flatten_188 (Flatten)           (None, 12)           0           capitalizationEmb[22][0]         
__________________________________________________________________________________________________
flatten_189 (Flatten)           (None, 9)            0           symbolsEmb[22][0]                
__________________________________________________________________________________________________
flatten_190 (Flatten)           (None, 588)          0           tokenEmb[23][0]                  
__________________________________________________________________________________________________
flatten_191 (Flatten)           (None, 144)          0           affixeseEmb[23][0]               
__________________________________________________________________________________________________
flatten_192 (Flatten)           (None, 12)           0           capitalizationEmb[23][0]         
__________________________________________________________________________________________________
flatten_193 (Flatten)           (None, 9)            0           symbolsEmb[23][0]                
__________________________________________________________________________________________________
SyntacticLabelEmb (Embedding)   (None, 12, 20)       880         SyntacticLabels[0][0]            
__________________________________________________________________________________________________
concatenate_34 (Concatenate)    (None, 753)          0           flatten_122[0][0]                
                                                                 flatten_123[0][0]                
                                                                 flatten_124[0][0]                
                                                                 flatten_125[0][0]                
__________________________________________________________________________________________________
concatenate_35 (Concatenate)    (None, 753)          0           flatten_126[0][0]                
                                                                 flatten_127[0][0]                
                                                                 flatten_128[0][0]                
                                                                 flatten_129[0][0]                
__________________________________________________________________________________________________
concatenate_36 (Concatenate)    (None, 753)          0           flatten_130[0][0]                
                                                                 flatten_131[0][0]                
                                                                 flatten_132[0][0]                
                                                                 flatten_133[0][0]                
__________________________________________________________________________________________________
concatenate_37 (Concatenate)    (None, 753)          0           flatten_134[0][0]                
                                                                 flatten_135[0][0]                
                                                                 flatten_136[0][0]                
                                                                 flatten_137[0][0]                
__________________________________________________________________________________________________
concatenate_38 (Concatenate)    (None, 753)          0           flatten_138[0][0]                
                                                                 flatten_139[0][0]                
                                                                 flatten_140[0][0]                
                                                                 flatten_141[0][0]                
__________________________________________________________________________________________________
concatenate_39 (Concatenate)    (None, 753)          0           flatten_142[0][0]                
                                                                 flatten_143[0][0]                
                                                                 flatten_144[0][0]                
                                                                 flatten_145[0][0]                
__________________________________________________________________________________________________
concatenate_40 (Concatenate)    (None, 753)          0           flatten_146[0][0]                
                                                                 flatten_147[0][0]                
                                                                 flatten_148[0][0]                
                                                                 flatten_149[0][0]                
__________________________________________________________________________________________________
concatenate_41 (Concatenate)    (None, 753)          0           flatten_150[0][0]                
                                                                 flatten_151[0][0]                
                                                                 flatten_152[0][0]                
                                                                 flatten_153[0][0]                
__________________________________________________________________________________________________
concatenate_42 (Concatenate)    (None, 753)          0           flatten_154[0][0]                
                                                                 flatten_155[0][0]                
                                                                 flatten_156[0][0]                
                                                                 flatten_157[0][0]                
__________________________________________________________________________________________________
concatenate_43 (Concatenate)    (None, 753)          0           flatten_158[0][0]                
                                                                 flatten_159[0][0]                
                                                                 flatten_160[0][0]                
                                                                 flatten_161[0][0]                
__________________________________________________________________________________________________
concatenate_44 (Concatenate)    (None, 753)          0           flatten_162[0][0]                
                                                                 flatten_163[0][0]                
                                                                 flatten_164[0][0]                
                                                                 flatten_165[0][0]                
__________________________________________________________________________________________________
concatenate_45 (Concatenate)    (None, 753)          0           flatten_166[0][0]                
                                                                 flatten_167[0][0]                
                                                                 flatten_168[0][0]                
                                                                 flatten_169[0][0]                
__________________________________________________________________________________________________
concatenate_46 (Concatenate)    (None, 753)          0           flatten_170[0][0]                
                                                                 flatten_171[0][0]                
                                                                 flatten_172[0][0]                
                                                                 flatten_173[0][0]                
__________________________________________________________________________________________________
concatenate_47 (Concatenate)    (None, 753)          0           flatten_174[0][0]                
                                                                 flatten_175[0][0]                
                                                                 flatten_176[0][0]                
                                                                 flatten_177[0][0]                
__________________________________________________________________________________________________
concatenate_48 (Concatenate)    (None, 753)          0           flatten_178[0][0]                
                                                                 flatten_179[0][0]                
                                                                 flatten_180[0][0]                
                                                                 flatten_181[0][0]                
__________________________________________________________________________________________________
concatenate_49 (Concatenate)    (None, 753)          0           flatten_182[0][0]                
                                                                 flatten_183[0][0]                
                                                                 flatten_184[0][0]                
                                                                 flatten_185[0][0]                
__________________________________________________________________________________________________
concatenate_50 (Concatenate)    (None, 753)          0           flatten_186[0][0]                
                                                                 flatten_187[0][0]                
                                                                 flatten_188[0][0]                
                                                                 flatten_189[0][0]                
__________________________________________________________________________________________________
concatenate_51 (Concatenate)    (None, 753)          0           flatten_190[0][0]                
                                                                 flatten_191[0][0]                
                                                                 flatten_192[0][0]                
                                                                 flatten_193[0][0]                
__________________________________________________________________________________________________
flatten_194 (Flatten)           (None, 240)          0           SyntacticLabelEmb[0][0]          
__________________________________________________________________________________________________
posDense (Dense)                (None, 79)           59566       concatenate_34[0][0]             
                                                                 concatenate_35[0][0]             
                                                                 concatenate_36[0][0]             
                                                                 concatenate_37[0][0]             
                                                                 concatenate_38[0][0]             
…
__________________________________________________________________________________________________

__________________________________________________________________________________________________
	Optimizer : Adagrad,  learning rate = 0.012
__________________________________________________________________________________________________
__________________________________________________________________________________________________
Layer (type)                    Output Shape         Param #     Connected to                     
==================================================================================================
b0Tokens (InputLayer)           (None, 7)            0                                            
__________________________________________________________________________________________________
b0Affixes (InputLayer)          (None, 12)           0                                            
__________________________________________________________________________________________________
b0Capitalization (InputLayer)   (None, 3)            0                                            
__________________________________________________________________________________________________
b0Symbols (InputLayer)          (None, 1)            0                                            
__________________________________________________________________________________________________
b1Tokens (InputLayer)           (None, 7)            0                                            
__________________________________________________________________________________________________
b1Affixes (InputLayer)          (None, 12)           0                                            
__________________________________________________________________________________________________
b1Capitalization (InputLayer)   (None, 3)            0                                            
__________________________________________________________________________________________________
b1Symbols (InputLayer)          (None, 1)            0                                            
__________________________________________________________________________________________________
b2Tokens (InputLayer)           (None, 7)            0                                            
__________________________________________________________________________________________________
b2Affixes (InputLayer)          (None, 12)           0                                            
__________________________________________________________________________________________________
b2Capitalization (InputLayer)   (None, 3)            0                                            
__________________________________________________________________________________________________
b2Symbols (InputLayer)          (None, 1)            0                                            
__________________________________________________________________________________________________
s0Tokens (InputLayer)           (None, 7)            0                                            
__________________________________________________________________________________________________
s0Affixes (InputLayer)          (None, 12)           0                                            
__________________________________________________________________________________________________
s0Capitalization (InputLayer)   (None, 3)            0                                            
__________________________________________________________________________________________________
s0Symbols (InputLayer)          (None, 1)            0                                            
__________________________________________________________________________________________________
s1Tokens (InputLayer)           (None, 7)            0                                            
__________________________________________________________________________________________________
s1Affixes (InputLayer)          (None, 12)           0                                            
__________________________________________________________________________________________________
s1Capitalization (InputLayer)   (None, 3)            0                                            
__________________________________________________________________________________________________
s1Symbols (InputLayer)          (None, 1)            0                                            
__________________________________________________________________________________________________
s2Tokens (InputLayer)           (None, 7)            0                                            
__________________________________________________________________________________________________
s2Affixes (InputLayer)          (None, 12)           0                                            
__________________________________________________________________________________________________
s2Capitalization (InputLayer)   (None, 3)            0                                            
__________________________________________________________________________________________________
s2Symbols (InputLayer)          (None, 1)            0                                            
__________________________________________________________________________________________________
LM1(S1)Tokens (InputLayer)      (None, 7)            0                                            
__________________________________________________________________________________________________
LM1(S1)Affixes (InputLayer)     (None, 12)           0                                            
__________________________________________________________________________________________________
LM1(S1)Capitalization (InputLay (None, 3)            0                                            
__________________________________________________________________________________________________
LM1(S1)Symbols (InputLayer)     (None, 1)            0                                            
__________________________________________________________________________________________________
LM2(S1)Tokens (InputLayer)      (None, 7)            0                                            
__________________________________________________________________________________________________
LM2(S1)Affixes (InputLayer)     (None, 12)           0                                            
__________________________________________________________________________________________________
LM2(S1)Capitalization (InputLay (None, 3)            0                                            
__________________________________________________________________________________________________
LM2(S1)Symbols (InputLayer)     (None, 1)            0                                            
__________________________________________________________________________________________________
LM1(S0)Tokens (InputLayer)      (None, 7)            0                                            
__________________________________________________________________________________________________
LM1(S0)Affixes (InputLayer)     (None, 12)           0                                            
__________________________________________________________________________________________________
LM1(S0)Capitalization (InputLay (None, 3)            0                                            
__________________________________________________________________________________________________
LM1(S0)Symbols (InputLayer)     (None, 1)            0                                            
__________________________________________________________________________________________________
LM2(S0)Tokens (InputLayer)      (None, 7)            0                                            
__________________________________________________________________________________________________
LM2(S0)Affixes (InputLayer)     (None, 12)           0                                            
__________________________________________________________________________________________________
LM2(S0)Capitalization (InputLay (None, 3)            0                                            
__________________________________________________________________________________________________
LM2(S0)Symbols (InputLayer)     (None, 1)            0                                            
__________________________________________________________________________________________________
RM1(S1)Tokens (InputLayer)      (None, 7)            0                                            
__________________________________________________________________________________________________
RM1(S1)Affixes (InputLayer)     (None, 12)           0                                            
__________________________________________________________________________________________________
RM1(S1)Capitalization (InputLay (None, 3)            0                                            
__________________________________________________________________________________________________
RM1(S1)Symbols (InputLayer)     (None, 1)            0                                            
__________________________________________________________________________________________________
RM2(S1)Tokens (InputLayer)      (None, 7)            0                                            
__________________________________________________________________________________________________
RM2(S1)Affixes (InputLayer)     (None, 12)           0                                            
__________________________________________________________________________________________________
RM2(S1)Capitalization (InputLay (None, 3)            0                                            
__________________________________________________________________________________________________
RM2(S1)Symbols (InputLayer)     (None, 1)            0                                            
__________________________________________________________________________________________________
RM1(S0)Tokens (InputLayer)      (None, 7)            0                                            
__________________________________________________________________________________________________
RM1(S0)Affixes (InputLayer)     (None, 12)           0                                            
__________________________________________________________________________________________________
RM1(S0)Capitalization (InputLay (None, 3)            0                                            
__________________________________________________________________________________________________
RM1(S0)Symbols (InputLayer)     (None, 1)            0                                            
__________________________________________________________________________________________________
RM2(S0)Tokens (InputLayer)      (None, 7)            0                                            
__________________________________________________________________________________________________
RM2(S0)Affixes (InputLayer)     (None, 12)           0                                            
__________________________________________________________________________________________________
RM2(S0)Capitalization (InputLay (None, 3)            0                                            
__________________________________________________________________________________________________
RM2(S0)Symbols (InputLayer)     (None, 1)            0                                            
__________________________________________________________________________________________________
LMLM(S1)Tokens (InputLayer)     (None, 7)            0                                            
__________________________________________________________________________________________________
LMLM(S1)Affixes (InputLayer)    (None, 12)           0                                            
__________________________________________________________________________________________________
LMLM(S1)Capitalization (InputLa (None, 3)            0                                            
__________________________________________________________________________________________________
LMLM(S1)Symbols (InputLayer)    (None, 1)            0                                            
__________________________________________________________________________________________________
RMRM(S1)Tokens (InputLayer)     (None, 7)            0                                            
__________________________________________________________________________________________________
RMRM(S1)Affixes (InputLayer)    (None, 12)           0                                            
__________________________________________________________________________________________________
RMRM(S1)Capitalization (InputLa (None, 3)            0                                            
__________________________________________________________________________________________________
RMRM(S1)Symbols (InputLayer)    (None, 1)            0                                            
__________________________________________________________________________________________________
LMLM(S0)Tokens (InputLayer)     (None, 7)            0                                            
__________________________________________________________________________________________________
LMLM(S0)Affixes (InputLayer)    (None, 12)           0                                            
__________________________________________________________________________________________________
LMLM(S0)Capitalization (InputLa (None, 3)            0                                            
__________________________________________________________________________________________________
LMLM(S0)Symbols (InputLayer)    (None, 1)            0                                            
__________________________________________________________________________________________________
RMRM(S0)Tokens (InputLayer)     (None, 7)            0                                            
__________________________________________________________________________________________________
RMRM(S0)Affixes (InputLayer)    (None, 12)           0                                            
__________________________________________________________________________________________________
RMRM(S0)Capitalization (InputLa (None, 3)            0                                            
__________________________________________________________________________________________________
RMRM(S0)Symbols (InputLayer)    (None, 1)            0                                            
__________________________________________________________________________________________________
tokenEmb (Embedding)            (None, 7, 84)        1320816     b0Tokens[0][0]                   
                                                                 b1Tokens[0][0]                   
                                                                 b2Tokens[0][0]                   
                                                                 s0Tokens[0][0]                   
                                                                 s1Tokens[0][0]                   
…
                                                                 RM2(S0)Symbols[0][0]             
                                                                 LMLM(S1)Symbols[0][0]            
                                                                 RMRM(S1)Symbols[0][0]            
                                                                 LMLM(S0)Symbols[0][0]            
                                                                 RMRM(S0)Symbols[0][0]            
__________________________________________________________________________________________________
SyntacticLabels (InputLayer)    (None, 12)           0                                            
__________________________________________________________________________________________________
flatten_219 (Flatten)           (None, 588)          0           tokenEmb[6][0]                   
__________________________________________________________________________________________________
flatten_220 (Flatten)           (None, 144)          0           affixeseEmb[6][0]                
__________________________________________________________________________________________________
flatten_221 (Flatten)           (None, 12)           0           capitalizationEmb[6][0]          
__________________________________________________________________________________________________
flatten_222 (Flatten)           (None, 9)            0           symbolsEmb[6][0]                 
__________________________________________________________________________________________________
flatten_223 (Flatten)           (None, 588)          0           tokenEmb[7][0]                   
__________________________________________________________________________________________________
flatten_224 (Flatten)           (None, 144)          0           affixeseEmb[7][0]                
__________________________________________________________________________________________________
flatten_225 (Flatten)           (None, 12)           0           capitalizationEmb[7][0]          
__________________________________________________________________________________________________
flatten_226 (Flatten)           (None, 9)            0           symbolsEmb[7][0]                 
__________________________________________________________________________________________________
flatten_227 (Flatten)           (None, 588)          0           tokenEmb[8][0]                   
__________________________________________________________________________________________________
flatten_228 (Flatten)           (None, 144)          0           affixeseEmb[8][0]                
__________________________________________________________________________________________________
flatten_229 (Flatten)           (None, 12)           0           capitalizationEmb[8][0]          
__________________________________________________________________________________________________
flatten_230 (Flatten)           (None, 9)            0           symbolsEmb[8][0]                 
__________________________________________________________________________________________________
flatten_231 (Flatten)           (None, 588)          0           tokenEmb[9][0]                   
__________________________________________________________________________________________________
flatten_232 (Flatten)           (None, 144)          0           affixeseEmb[9][0]                
__________________________________________________________________________________________________
flatten_233 (Flatten)           (None, 12)           0           capitalizationEmb[9][0]          
__________________________________________________________________________________________________
flatten_234 (Flatten)           (None, 9)            0           symbolsEmb[9][0]                 
__________________________________________________________________________________________________
flatten_235 (Flatten)           (None, 588)          0           tokenEmb[10][0]                  
__________________________________________________________________________________________________
flatten_236 (Flatten)           (None, 144)          0           affixeseEmb[10][0]               
__________________________________________________________________________________________________
flatten_237 (Flatten)           (None, 12)           0           capitalizationEmb[10][0]         
__________________________________________________________________________________________________
flatten_238 (Flatten)           (None, 9)            0           symbolsEmb[10][0]                
__________________________________________________________________________________________________
flatten_239 (Flatten)           (None, 588)          0           tokenEmb[11][0]                  
__________________________________________________________________________________________________
flatten_240 (Flatten)           (None, 144)          0           affixeseEmb[11][0]               
__________________________________________________________________________________________________
flatten_241 (Flatten)           (None, 12)           0           capitalizationEmb[11][0]         
__________________________________________________________________________________________________
flatten_242 (Flatten)           (None, 9)            0           symbolsEmb[11][0]                
__________________________________________________________________________________________________
flatten_243 (Flatten)           (None, 588)          0           tokenEmb[12][0]                  
__________________________________________________________________________________________________
flatten_244 (Flatten)           (None, 144)          0           affixeseEmb[12][0]               
__________________________________________________________________________________________________
flatten_245 (Flatten)           (None, 12)           0           capitalizationEmb[12][0]         
__________________________________________________________________________________________________
flatten_246 (Flatten)           (None, 9)            0           symbolsEmb[12][0]                
__________________________________________________________________________________________________
flatten_247 (Flatten)           (None, 588)          0           tokenEmb[13][0]                  
__________________________________________________________________________________________________
flatten_248 (Flatten)           (None, 144)          0           affixeseEmb[13][0]               
__________________________________________________________________________________________________
flatten_249 (Flatten)           (None, 12)           0           capitalizationEmb[13][0]         
__________________________________________________________________________________________________
flatten_250 (Flatten)           (None, 9)            0           symbolsEmb[13][0]                
__________________________________________________________________________________________________
flatten_251 (Flatten)           (None, 588)          0           tokenEmb[14][0]                  
__________________________________________________________________________________________________
flatten_252 (Flatten)           (None, 144)          0           affixeseEmb[14][0]               
__________________________________________________________________________________________________
flatten_253 (Flatten)           (None, 12)           0           capitalizationEmb[14][0]         
__________________________________________________________________________________________________
flatten_254 (Flatten)           (None, 9)            0           symbolsEmb[14][0]                
__________________________________________________________________________________________________
flatten_255 (Flatten)           (None, 588)          0           tokenEmb[15][0]                  
__________________________________________________________________________________________________
flatten_256 (Flatten)           (None, 144)          0           affixeseEmb[15][0]               
__________________________________________________________________________________________________
flatten_257 (Flatten)           (None, 12)           0           capitalizationEmb[15][0]         
__________________________________________________________________________________________________
flatten_258 (Flatten)           (None, 9)            0           symbolsEmb[15][0]                
__________________________________________________________________________________________________
flatten_259 (Flatten)           (None, 588)          0           tokenEmb[16][0]                  
__________________________________________________________________________________________________
flatten_260 (Flatten)           (None, 144)          0           affixeseEmb[16][0]               
__________________________________________________________________________________________________
flatten_261 (Flatten)           (None, 12)           0           capitalizationEmb[16][0]         
__________________________________________________________________________________________________
flatten_262 (Flatten)           (None, 9)            0           symbolsEmb[16][0]                
__________________________________________________________________________________________________
flatten_263 (Flatten)           (None, 588)          0           tokenEmb[17][0]                  
__________________________________________________________________________________________________
flatten_264 (Flatten)           (None, 144)          0           affixeseEmb[17][0]               
__________________________________________________________________________________________________
flatten_265 (Flatten)           (None, 12)           0           capitalizationEmb[17][0]         
__________________________________________________________________________________________________
flatten_266 (Flatten)           (None, 9)            0           symbolsEmb[17][0]                
__________________________________________________________________________________________________
flatten_267 (Flatten)           (None, 588)          0           tokenEmb[18][0]                  
__________________________________________________________________________________________________
flatten_268 (Flatten)           (None, 144)          0           affixeseEmb[18][0]               
__________________________________________________________________________________________________
flatten_269 (Flatten)           (None, 12)           0           capitalizationEmb[18][0]         
__________________________________________________________________________________________________
flatten_270 (Flatten)           (None, 9)            0           symbolsEmb[18][0]                
__________________________________________________________________________________________________
flatten_271 (Flatten)           (None, 588)          0           tokenEmb[19][0]                  
__________________________________________________________________________________________________
flatten_272 (Flatten)           (None, 144)          0           affixeseEmb[19][0]               
__________________________________________________________________________________________________
flatten_273 (Flatten)           (None, 12)           0           capitalizationEmb[19][0]         
__________________________________________________________________________________________________
flatten_274 (Flatten)           (None, 9)            0           symbolsEmb[19][0]                
__________________________________________________________________________________________________
flatten_275 (Flatten)           (None, 588)          0           tokenEmb[20][0]                  
__________________________________________________________________________________________________
flatten_276 (Flatten)           (None, 144)          0           affixeseEmb[20][0]               
__________________________________________________________________________________________________
flatten_277 (Flatten)           (None, 12)           0           capitalizationEmb[20][0]         
__________________________________________________________________________________________________
flatten_278 (Flatten)           (None, 9)            0           symbolsEmb[20][0]                
__________________________________________________________________________________________________
flatten_279 (Flatten)           (None, 588)          0           tokenEmb[21][0]                  
__________________________________________________________________________________________________
flatten_280 (Flatten)           (None, 144)          0           affixeseEmb[21][0]               
__________________________________________________________________________________________________
flatten_281 (Flatten)           (None, 12)           0           capitalizationEmb[21][0]         
__________________________________________________________________________________________________
flatten_282 (Flatten)           (None, 9)            0           symbolsEmb[21][0]                
__________________________________________________________________________________________________
flatten_283 (Flatten)           (None, 588)          0           tokenEmb[22][0]                  
__________________________________________________________________________________________________
flatten_284 (Flatten)           (None, 144)          0           affixeseEmb[22][0]               
__________________________________________________________________________________________________
flatten_285 (Flatten)           (None, 12)           0           capitalizationEmb[22][0]         
__________________________________________________________________________________________________
flatten_286 (Flatten)           (None, 9)            0           symbolsEmb[22][0]                
__________________________________________________________________________________________________
flatten_287 (Flatten)           (None, 588)          0           tokenEmb[23][0]                  
__________________________________________________________________________________________________
flatten_288 (Flatten)           (None, 144)          0           affixeseEmb[23][0]               
__________________________________________________________________________________________________
flatten_289 (Flatten)           (None, 12)           0           capitalizationEmb[23][0]         
__________________________________________________________________________________________________
flatten_290 (Flatten)           (None, 9)            0           symbolsEmb[23][0]                
__________________________________________________________________________________________________
SyntacticLabelEmb (Embedding)   (None, 12, 20)       700         SyntacticLabels[0][0]            
__________________________________________________________________________________________________
concatenate_60 (Concatenate)    (None, 753)          0           flatten_219[0][0]                
                                                                 flatten_220[0][0]                
                                                                 flatten_221[0][0]                
                                                                 flatten_222[0][0]                
__________________________________________________________________________________________________
concatenate_61 (Concatenate)    (None, 753)          0           flatten_223[0][0]                
                                                                 flatten_224[0][0]                
                                                                 flatten_225[0][0]                
                                                                 flatten_226[0][0]                
__________________________________________________________________________________________________
concatenate_62 (Concatenate)    (None, 753)          0           flatten_227[0][0]                
                                                                 flatten_228[0][0]                
                                                                 flatten_229[0][0]                
                                                                 flatten_230[0][0]                
__________________________________________________________________________________________________
concatenate_63 (Concatenate)    (None, 753)          0           flatten_231[0][0]                
                                                                 flatten_232[0][0]                
                                                                 flatten_233[0][0]                
                                                                 flatten_234[0][0]                
__________________________________________________________________________________________________
concatenate_64 (Concatenate)    (None, 753)          0           flatten_235[0][0]                
                                                                 flatten_236[0][0]                
                                                                 flatten_237[0][0]                
                                                                 flatten_238[0][0]                
__________________________________________________________________________________________________
concatenate_65 (Concatenate)    (None, 753)          0           flatten_239[0][0]                
                                                                 flatten_240[0][0]                
                                                                 flatten_241[0][0]                
                                                                 flatten_242[0][0]                
__________________________________________________________________________________________________
concatenate_66 (Concatenate)    (None, 753)          0           flatten_243[0][0]                
                                                                 flatten_244[0][0]                
                                                                 flatten_245[0][0]                
                                                                 flatten_246[0][0]                
__________________________________________________________________________________________________
concatenate_67 (Concatenate)    (None, 753)          0           flatten_247[0][0]                
                                                                 flatten_248[0][0]                
                                                                 flatten_249[0][0]                
                                                                 flatten_250[0][0]                
__________________________________________________________________________________________________
concatenate_68 (Concatenate)    (None, 753)          0           flatten_251[0][0]                
                                                                 flatten_252[0][0]                
                                                                 flatten_253[0][0]                
                                                                 flatten_254[0][0]                
__________________________________________________________________________________________________
concatenate_69 (Concatenate)    (None, 753)          0           flatten_255[0][0]                
                                                                 flatten_256[0][0]                
                                                                 flatten_257[0][0]                
                                                                 flatten_258[0][0]                
__________________________________________________________________________________________________
concatenate_70 (Concatenate)    (None, 753)          0           flatten_259[0][0]                
                                                                 flatten_260[0][0]                
                                                                 flatten_261[0][0]                
                                                                 flatten_262[0][0]                
__________________________________________________________________________________________________
concatenate_71 (Concatenate)    (None, 753)          0           flatten_263[0][0]                
                                                                 flatten_264[0][0]                
                                                                 flatten_265[0][0]                
                                                                 flatten_266[0][0]                
__________________________________________________________________________________________________
concatenate_72 (Concatenate)    (None, 753)          0           flatten_267[0][0]                
                                                                 flatten_268[0][0]                
                                                                 flatten_269[0][0]                
                                                                 flatten_270[0][0]                
__________________________________________________________________________________________________
concatenate_73 (Concatenate)    (None, 753)          0           flatten_271[0][0]                
                                                                 flatten_272[0][0]                
                                                                 flatten_273[0][0]                
                                                                 flatten_274[0][0]                
__________________________________________________________________________________________________
concatenate_74 (Concatenate)    (None, 753)          0           flatten_275[0][0]                
                                                                 flatten_276[0][0]                
                                                                 flatten_277[0][0]                
                                                                 flatten_278[0][0]                
__________________________________________________________________________________________________
concatenate_75 (Concatenate)    (None, 753)          0           flatten_279[0][0]                
                                                                 flatten_280[0][0]                
                                                                 flatten_281[0][0]                
                                                                 flatten_282[0][0]                
__________________________________________________________________________________________________
concatenate_76 (Concatenate)    (None, 753)          0           flatten_283[0][0]                
                                                                 flatten_284[0][0]                
                                                                 flatten_285[0][0]                
                                                                 flatten_286[0][0]                
__________________________________________________________________________________________________
concatenate_77 (Concatenate)    (None, 753)          0           flatten_287[0][0]                
                                                                 flatten_288[0][0]                
                                                                 flatten_289[0][0]                
                                                                 flatten_290[0][0]                
__________________________________________________________________________________________________
flatten_291 (Flatten)           (None, 240)          0           SyntacticLabelEmb[0][0]          
__________________________________________________________________________________________________
posDense (Dense)                (None, 79)           59566       concatenate_60[0][0]             
                                                                 concatenate_61[0][0]             
                                                                 concatenate_62[0][0]             
                                                                 concatenate_63[0][0]             
                                                                 concatenate_64[0][0]             
…
__________________________________________________________________________________________________

__________________________________________________________________________________________________
	Optimizer : Adagrad,  learning rate = 0.012
__________________________________________________________________________________________________
__________________________________________________________________________________________________
Layer (type)                    Output Shape         Param #     Connected to                     
==================================================================================================
b0Tokens (InputLayer)           (None, 7)            0                                            
__________________________________________________________________________________________________
b0Affixes (InputLayer)          (None, 12)           0                                            
__________________________________________________________________________________________________
b0Capitalization (InputLayer)   (None, 3)            0                                            
__________________________________________________________________________________________________
b0Symbols (InputLayer)          (None, 1)            0                                            
__________________________________________________________________________________________________
b1Tokens (InputLayer)           (None, 7)            0                                            
__________________________________________________________________________________________________
b1Affixes (InputLayer)          (None, 12)           0                                            
__________________________________________________________________________________________________
b1Capitalization (InputLayer)   (None, 3)            0                                            
__________________________________________________________________________________________________
b1Symbols (InputLayer)          (None, 1)            0                                            
__________________________________________________________________________________________________
b2Tokens (InputLayer)           (None, 7)            0                                            
__________________________________________________________________________________________________
b2Affixes (InputLayer)          (None, 12)           0                                            
__________________________________________________________________________________________________
b2Capitalization (InputLayer)   (None, 3)            0                                            
__________________________________________________________________________________________________
b2Symbols (InputLayer)          (None, 1)            0                                            
__________________________________________________________________________________________________
s0Tokens (InputLayer)           (None, 7)            0                                            
__________________________________________________________________________________________________
s0Affixes (InputLayer)          (None, 12)           0                                            
__________________________________________________________________________________________________
s0Capitalization (InputLayer)   (None, 3)            0                                            
__________________________________________________________________________________________________
s0Symbols (InputLayer)          (None, 1)            0                                            
__________________________________________________________________________________________________
s1Tokens (InputLayer)           (None, 7)            0                                            
__________________________________________________________________________________________________
s1Affixes (InputLayer)          (None, 12)           0                                            
__________________________________________________________________________________________________
s1Capitalization (InputLayer)   (None, 3)            0                                            
__________________________________________________________________________________________________
s1Symbols (InputLayer)          (None, 1)            0                                            
__________________________________________________________________________________________________
s2Tokens (InputLayer)           (None, 7)            0                                            
__________________________________________________________________________________________________
s2Affixes (InputLayer)          (None, 12)           0                                            
__________________________________________________________________________________________________
s2Capitalization (InputLayer)   (None, 3)            0                                            
__________________________________________________________________________________________________
s2Symbols (InputLayer)          (None, 1)            0                                            
__________________________________________________________________________________________________
LM1(S1)Tokens (InputLayer)      (None, 7)            0                                            
__________________________________________________________________________________________________
LM1(S1)Affixes (InputLayer)     (None, 12)           0                                            
__________________________________________________________________________________________________
LM1(S1)Capitalization (InputLay (None, 3)            0                                            
__________________________________________________________________________________________________
LM1(S1)Symbols (InputLayer)     (None, 1)            0                                            
__________________________________________________________________________________________________
LM2(S1)Tokens (InputLayer)      (None, 7)            0                                            
__________________________________________________________________________________________________
LM2(S1)Affixes (InputLayer)     (None, 12)           0                                            
__________________________________________________________________________________________________
LM2(S1)Capitalization (InputLay (None, 3)            0                                            
__________________________________________________________________________________________________
LM2(S1)Symbols (InputLayer)     (None, 1)            0                                            
__________________________________________________________________________________________________
LM1(S0)Tokens (InputLayer)      (None, 7)            0                                            
__________________________________________________________________________________________________
LM1(S0)Affixes (InputLayer)     (None, 12)           0                                            
__________________________________________________________________________________________________
LM1(S0)Capitalization (InputLay (None, 3)            0                                            
__________________________________________________________________________________________________
LM1(S0)Symbols (InputLayer)     (None, 1)            0                                            
__________________________________________________________________________________________________
LM2(S0)Tokens (InputLayer)      (None, 7)            0                                            
__________________________________________________________________________________________________
LM2(S0)Affixes (InputLayer)     (None, 12)           0                                            
__________________________________________________________________________________________________
LM2(S0)Capitalization (InputLay (None, 3)            0                                            
__________________________________________________________________________________________________
LM2(S0)Symbols (InputLayer)     (None, 1)            0                                            
__________________________________________________________________________________________________
RM1(S1)Tokens (InputLayer)      (None, 7)            0                                            
__________________________________________________________________________________________________
RM1(S1)Affixes (InputLayer)     (None, 12)           0                                            
__________________________________________________________________________________________________
RM1(S1)Capitalization (InputLay (None, 3)            0                                            
__________________________________________________________________________________________________
RM1(S1)Symbols (InputLayer)     (None, 1)            0                                            
__________________________________________________________________________________________________
RM2(S1)Tokens (InputLayer)      (None, 7)            0                                            
__________________________________________________________________________________________________
RM2(S1)Affixes (InputLayer)     (None, 12)           0                                            
__________________________________________________________________________________________________
RM2(S1)Capitalization (InputLay (None, 3)            0                                            
__________________________________________________________________________________________________
RM2(S1)Symbols (InputLayer)     (None, 1)            0                                            
__________________________________________________________________________________________________
RM1(S0)Tokens (InputLayer)      (None, 7)            0                                            
__________________________________________________________________________________________________
RM1(S0)Affixes (InputLayer)     (None, 12)           0                                            
__________________________________________________________________________________________________
RM1(S0)Capitalization (InputLay (None, 3)            0                                            
__________________________________________________________________________________________________
RM1(S0)Symbols (InputLayer)     (None, 1)            0                                            
__________________________________________________________________________________________________
RM2(S0)Tokens (InputLayer)      (None, 7)            0                                            
__________________________________________________________________________________________________
RM2(S0)Affixes (InputLayer)     (None, 12)           0                                            
__________________________________________________________________________________________________
RM2(S0)Capitalization (InputLay (None, 3)            0                                            
__________________________________________________________________________________________________
RM2(S0)Symbols (InputLayer)     (None, 1)            0                                            
__________________________________________________________________________________________________
LMLM(S1)Tokens (InputLayer)     (None, 7)            0                                            
__________________________________________________________________________________________________
LMLM(S1)Affixes (InputLayer)    (None, 12)           0                                            
__________________________________________________________________________________________________
LMLM(S1)Capitalization (InputLa (None, 3)            0                                            
__________________________________________________________________________________________________
LMLM(S1)Symbols (InputLayer)    (None, 1)            0                                            
__________________________________________________________________________________________________
RMRM(S1)Tokens (InputLayer)     (None, 7)            0                                            
__________________________________________________________________________________________________
RMRM(S1)Affixes (InputLayer)    (None, 12)           0                                            
__________________________________________________________________________________________________
RMRM(S1)Capitalization (InputLa (None, 3)            0                                            
__________________________________________________________________________________________________
RMRM(S1)Symbols (InputLayer)    (None, 1)            0                                            
__________________________________________________________________________________________________
LMLM(S0)Tokens (InputLayer)     (None, 7)            0                                            
__________________________________________________________________________________________________
LMLM(S0)Affixes (InputLayer)    (None, 12)           0                                            
__________________________________________________________________________________________________
LMLM(S0)Capitalization (InputLa (None, 3)            0                                            
__________________________________________________________________________________________________
LMLM(S0)Symbols (InputLayer)    (None, 1)            0                                            
__________________________________________________________________________________________________
RMRM(S0)Tokens (InputLayer)     (None, 7)            0                                            
__________________________________________________________________________________________________
RMRM(S0)Affixes (InputLayer)    (None, 12)           0                                            
__________________________________________________________________________________________________
RMRM(S0)Capitalization (InputLa (None, 3)            0                                            
__________________________________________________________________________________________________
RMRM(S0)Symbols (InputLayer)    (None, 1)            0                                            
__________________________________________________________________________________________________
tokenEmb (Embedding)            (None, 7, 84)        960288      b0Tokens[0][0]                   
                                                                 b1Tokens[0][0]                   
                                                                 b2Tokens[0][0]                   
                                                                 s0Tokens[0][0]                   
                                                                 s1Tokens[0][0]                   
…
                                                                 RM2(S0)Symbols[0][0]             
                                                                 LMLM(S1)Symbols[0][0]            
                                                                 RMRM(S1)Symbols[0][0]            
                                                                 LMLM(S0)Symbols[0][0]            
                                                                 RMRM(S0)Symbols[0][0]            
__________________________________________________________________________________________________
SyntacticLabels (InputLayer)    (None, 12)           0                                            
__________________________________________________________________________________________________
flatten_316 (Flatten)           (None, 588)          0           tokenEmb[6][0]                   
__________________________________________________________________________________________________
flatten_317 (Flatten)           (None, 144)          0           affixeseEmb[6][0]                
__________________________________________________________________________________________________
flatten_318 (Flatten)           (None, 12)           0           capitalizationEmb[6][0]          
__________________________________________________________________________________________________
flatten_319 (Flatten)           (None, 9)            0           symbolsEmb[6][0]                 
__________________________________________________________________________________________________
flatten_320 (Flatten)           (None, 588)          0           tokenEmb[7][0]                   
__________________________________________________________________________________________________
flatten_321 (Flatten)           (None, 144)          0           affixeseEmb[7][0]                
__________________________________________________________________________________________________
flatten_322 (Flatten)           (None, 12)           0           capitalizationEmb[7][0]          
__________________________________________________________________________________________________
flatten_323 (Flatten)           (None, 9)            0           symbolsEmb[7][0]                 
__________________________________________________________________________________________________
flatten_324 (Flatten)           (None, 588)          0           tokenEmb[8][0]                   
__________________________________________________________________________________________________
flatten_325 (Flatten)           (None, 144)          0           affixeseEmb[8][0]                
__________________________________________________________________________________________________
flatten_326 (Flatten)           (None, 12)           0           capitalizationEmb[8][0]          
__________________________________________________________________________________________________
flatten_327 (Flatten)           (None, 9)            0           symbolsEmb[8][0]                 
__________________________________________________________________________________________________
flatten_328 (Flatten)           (None, 588)          0           tokenEmb[9][0]                   
__________________________________________________________________________________________________
flatten_329 (Flatten)           (None, 144)          0           affixeseEmb[9][0]                
__________________________________________________________________________________________________
flatten_330 (Flatten)           (None, 12)           0           capitalizationEmb[9][0]          
__________________________________________________________________________________________________
flatten_331 (Flatten)           (None, 9)            0           symbolsEmb[9][0]                 
__________________________________________________________________________________________________
flatten_332 (Flatten)           (None, 588)          0           tokenEmb[10][0]                  
__________________________________________________________________________________________________
flatten_333 (Flatten)           (None, 144)          0           affixeseEmb[10][0]               
__________________________________________________________________________________________________
flatten_334 (Flatten)           (None, 12)           0           capitalizationEmb[10][0]         
__________________________________________________________________________________________________
flatten_335 (Flatten)           (None, 9)            0           symbolsEmb[10][0]                
__________________________________________________________________________________________________
flatten_336 (Flatten)           (None, 588)          0           tokenEmb[11][0]                  
__________________________________________________________________________________________________
flatten_337 (Flatten)           (None, 144)          0           affixeseEmb[11][0]               
__________________________________________________________________________________________________
flatten_338 (Flatten)           (None, 12)           0           capitalizationEmb[11][0]         
__________________________________________________________________________________________________
flatten_339 (Flatten)           (None, 9)            0           symbolsEmb[11][0]                
__________________________________________________________________________________________________
flatten_340 (Flatten)           (None, 588)          0           tokenEmb[12][0]                  
__________________________________________________________________________________________________
flatten_341 (Flatten)           (None, 144)          0           affixeseEmb[12][0]               
__________________________________________________________________________________________________
flatten_342 (Flatten)           (None, 12)           0           capitalizationEmb[12][0]         
__________________________________________________________________________________________________
flatten_343 (Flatten)           (None, 9)            0           symbolsEmb[12][0]                
__________________________________________________________________________________________________
flatten_344 (Flatten)           (None, 588)          0           tokenEmb[13][0]                  
__________________________________________________________________________________________________
flatten_345 (Flatten)           (None, 144)          0           affixeseEmb[13][0]               
__________________________________________________________________________________________________
flatten_346 (Flatten)           (None, 12)           0           capitalizationEmb[13][0]         
__________________________________________________________________________________________________
flatten_347 (Flatten)           (None, 9)            0           symbolsEmb[13][0]                
__________________________________________________________________________________________________
flatten_348 (Flatten)           (None, 588)          0           tokenEmb[14][0]                  
__________________________________________________________________________________________________
flatten_349 (Flatten)           (None, 144)          0           affixeseEmb[14][0]               
__________________________________________________________________________________________________
flatten_350 (Flatten)           (None, 12)           0           capitalizationEmb[14][0]         
__________________________________________________________________________________________________
flatten_351 (Flatten)           (None, 9)            0           symbolsEmb[14][0]                
__________________________________________________________________________________________________
flatten_352 (Flatten)           (None, 588)          0           tokenEmb[15][0]                  
__________________________________________________________________________________________________
flatten_353 (Flatten)           (None, 144)          0           affixeseEmb[15][0]               
__________________________________________________________________________________________________
flatten_354 (Flatten)           (None, 12)           0           capitalizationEmb[15][0]         
__________________________________________________________________________________________________
flatten_355 (Flatten)           (None, 9)            0           symbolsEmb[15][0]                
__________________________________________________________________________________________________
flatten_356 (Flatten)           (None, 588)          0           tokenEmb[16][0]                  
__________________________________________________________________________________________________
flatten_357 (Flatten)           (None, 144)          0           affixeseEmb[16][0]               
__________________________________________________________________________________________________
flatten_358 (Flatten)           (None, 12)           0           capitalizationEmb[16][0]         
__________________________________________________________________________________________________
flatten_359 (Flatten)           (None, 9)            0           symbolsEmb[16][0]                
__________________________________________________________________________________________________
flatten_360 (Flatten)           (None, 588)          0           tokenEmb[17][0]                  
__________________________________________________________________________________________________
flatten_361 (Flatten)           (None, 144)          0           affixeseEmb[17][0]               
__________________________________________________________________________________________________
flatten_362 (Flatten)           (None, 12)           0           capitalizationEmb[17][0]         
__________________________________________________________________________________________________
flatten_363 (Flatten)           (None, 9)            0           symbolsEmb[17][0]                
__________________________________________________________________________________________________
flatten_364 (Flatten)           (None, 588)          0           tokenEmb[18][0]                  
__________________________________________________________________________________________________
flatten_365 (Flatten)           (None, 144)          0           affixeseEmb[18][0]               
__________________________________________________________________________________________________
flatten_366 (Flatten)           (None, 12)           0           capitalizationEmb[18][0]         
__________________________________________________________________________________________________
flatten_367 (Flatten)           (None, 9)            0           symbolsEmb[18][0]                
__________________________________________________________________________________________________
flatten_368 (Flatten)           (None, 588)          0           tokenEmb[19][0]                  
__________________________________________________________________________________________________
flatten_369 (Flatten)           (None, 144)          0           affixeseEmb[19][0]               
__________________________________________________________________________________________________
flatten_370 (Flatten)           (None, 12)           0           capitalizationEmb[19][0]         
__________________________________________________________________________________________________
flatten_371 (Flatten)           (None, 9)            0           symbolsEmb[19][0]                
__________________________________________________________________________________________________
flatten_372 (Flatten)           (None, 588)          0           tokenEmb[20][0]                  
__________________________________________________________________________________________________
flatten_373 (Flatten)           (None, 144)          0           affixeseEmb[20][0]               
__________________________________________________________________________________________________
flatten_374 (Flatten)           (None, 12)           0           capitalizationEmb[20][0]         
__________________________________________________________________________________________________
flatten_375 (Flatten)           (None, 9)            0           symbolsEmb[20][0]                
__________________________________________________________________________________________________
flatten_376 (Flatten)           (None, 588)          0           tokenEmb[21][0]                  
__________________________________________________________________________________________________
flatten_377 (Flatten)           (None, 144)          0           affixeseEmb[21][0]               
__________________________________________________________________________________________________
flatten_378 (Flatten)           (None, 12)           0           capitalizationEmb[21][0]         
__________________________________________________________________________________________________
flatten_379 (Flatten)           (None, 9)            0           symbolsEmb[21][0]                
__________________________________________________________________________________________________
flatten_380 (Flatten)           (None, 588)          0           tokenEmb[22][0]                  
__________________________________________________________________________________________________
flatten_381 (Flatten)           (None, 144)          0           affixeseEmb[22][0]               
__________________________________________________________________________________________________
…
SyntacticLabelEmb (Embedding)   (None, 12, 12)       588         SyntacticLabels[0][0]            
__________________________________________________________________________________________________
concatenate_722 (Concatenate)   (None, 598)          0           flatten_2685[0][0]               
                                                                 flatten_2686[0][0]               
                                                                 flatten_2687[0][0]               
                                                                 flatten_2688[0][0]               
__________________________________________________________________________________________________
concatenate_723 (Concatenate)   (None, 598)          0           flatten_2689[0][0]               
                                                                 flatten_2690[0][0]               
                                                                 flatten_2691[0][0]               
                                                                 flatten_2692[0][0]               
__________________________________________________________________________________________________
concatenate_724 (Concatenate)   (None, 598)          0           flatten_2693[0][0]               
                                                                 flatten_2694[0][0]               
                                                                 flatten_2695[0][0]               
                                                                 flatten_2696[0][0]               
__________________________________________________________________________________________________
concatenate_725 (Concatenate)   (None, 598)          0           flatten_2697[0][0]               
                                                                 flatten_2698[0][0]               
                                                                 flatten_2699[0][0]               
                                                                 flatten_2700[0][0]               
__________________________________________________________________________________________________
concatenate_726 (Concatenate)   (None, 598)          0           flatten_2701[0][0]               
                                                                 flatten_2702[0][0]               
                                                                 flatten_2703[0][0]               
                                                                 flatten_2704[0][0]               
__________________________________________________________________________________________________
concatenate_727 (Concatenate)   (None, 598)          0           flatten_2705[0][0]               
                                                                 flatten_2706[0][0]               
                                                                 flatten_2707[0][0]               
                                                                 flatten_2708[0][0]               
__________________________________________________________________________________________________
concatenate_728 (Concatenate)   (None, 598)          0           flatten_2709[0][0]               
                                                                 flatten_2710[0][0]               
                                                                 flatten_2711[0][0]               
                                                                 flatten_2712[0][0]               
__________________________________________________________________________________________________
concatenate_729 (Concatenate)   (None, 598)          0           flatten_2713[0][0]               
                                                                 flatten_2714[0][0]               
                                                                 flatten_2715[0][0]               
                                                                 flatten_2716[0][0]               
__________________________________________________________________________________________________
concatenate_730 (Concatenate)   (None, 598)          0           flatten_2717[0][0]               
                                                                 flatten_2718[0][0]               
                                                                 flatten_2719[0][0]               
                                                                 flatten_2720[0][0]               
__________________________________________________________________________________________________
concatenate_731 (Concatenate)   (None, 598)          0           flatten_2721[0][0]               
                                                                 flatten_2722[0][0]               
                                                                 flatten_2723[0][0]               
                                                                 flatten_2724[0][0]               
__________________________________________________________________________________________________
concatenate_732 (Concatenate)   (None, 598)          0           flatten_2725[0][0]               
                                                                 flatten_2726[0][0]               
                                                                 flatten_2727[0][0]               
                                                                 flatten_2728[0][0]               
__________________________________________________________________________________________________
concatenate_733 (Concatenate)   (None, 598)          0           flatten_2729[0][0]               
                                                                 flatten_2730[0][0]               
                                                                 flatten_2731[0][0]               
                                                                 flatten_2732[0][0]               
__________________________________________________________________________________________________
concatenate_734 (Concatenate)   (None, 598)          0           flatten_2733[0][0]               
                                                                 flatten_2734[0][0]               
                                                                 flatten_2735[0][0]               
                                                                 flatten_2736[0][0]               
__________________________________________________________________________________________________
concatenate_735 (Concatenate)   (None, 598)          0           flatten_2737[0][0]               
                                                                 flatten_2738[0][0]               
                                                                 flatten_2739[0][0]               
                                                                 flatten_2740[0][0]               
__________________________________________________________________________________________________
concatenate_736 (Concatenate)   (None, 598)          0           flatten_2741[0][0]               
                                                                 flatten_2742[0][0]               
                                                                 flatten_2743[0][0]               
                                                                 flatten_2744[0][0]               
__________________________________________________________________________________________________
concatenate_737 (Concatenate)   (None, 598)          0           flatten_2745[0][0]               
                                                                 flatten_2746[0][0]               
                                                                 flatten_2747[0][0]               
                                                                 flatten_2748[0][0]               
__________________________________________________________________________________________________
concatenate_738 (Concatenate)   (None, 598)          0           flatten_2749[0][0]               
                                                                 flatten_2750[0][0]               
                                                                 flatten_2751[0][0]               
                                                                 flatten_2752[0][0]               
__________________________________________________________________________________________________
concatenate_739 (Concatenate)   (None, 598)          0           flatten_2753[0][0]               
                                                                 flatten_2754[0][0]               
                                                                 flatten_2755[0][0]               
                                                                 flatten_2756[0][0]               
__________________________________________________________________________________________________
flatten_2757 (Flatten)          (None, 144)          0           SyntacticLabelEmb[0][0]          
__________________________________________________________________________________________________
posDense (Dense)                (None, 133)          79667       concatenate_722[0][0]            
                                                                 concatenate_723[0][0]            
                                                                 concatenate_724[0][0]            
                                                                 concatenate_725[0][0]            
                                                                 concatenate_726[0][0]            
…
__________________________________________________________________________________________________

__________________________________________________________________________________________________
	Optimizer : Adagrad,  learning rate = 0.012
__________________________________________________________________________________________________
__________________________________________________________________________________________________
Layer (type)                    Output Shape         Param #     Connected to                     
==================================================================================================
b0Tokens (InputLayer)           (None, 7)            0                                            
__________________________________________________________________________________________________
b0Affixes (InputLayer)          (None, 12)           0                                            
__________________________________________________________________________________________________
b0Capitalization (InputLayer)   (None, 3)            0                                            
__________________________________________________________________________________________________
b0Symbols (InputLayer)          (None, 1)            0                                            
__________________________________________________________________________________________________
b1Tokens (InputLayer)           (None, 7)            0                                            
__________________________________________________________________________________________________
b1Affixes (InputLayer)          (None, 12)           0                                            
__________________________________________________________________________________________________
b1Capitalization (InputLayer)   (None, 3)            0                                            
__________________________________________________________________________________________________
b1Symbols (InputLayer)          (None, 1)            0                                            
__________________________________________________________________________________________________
b2Tokens (InputLayer)           (None, 7)            0                                            
__________________________________________________________________________________________________
b2Affixes (InputLayer)          (None, 12)           0                                            
__________________________________________________________________________________________________
b2Capitalization (InputLayer)   (None, 3)            0                                            
__________________________________________________________________________________________________
b2Symbols (InputLayer)          (None, 1)            0                                            
__________________________________________________________________________________________________
s0Tokens (InputLayer)           (None, 7)            0                                            
__________________________________________________________________________________________________
s0Affixes (InputLayer)          (None, 12)           0                                            
__________________________________________________________________________________________________
s0Capitalization (InputLayer)   (None, 3)            0                                            
__________________________________________________________________________________________________
s0Symbols (InputLayer)          (None, 1)            0                                            
__________________________________________________________________________________________________
s1Tokens (InputLayer)           (None, 7)            0                                            
__________________________________________________________________________________________________
s1Affixes (InputLayer)          (None, 12)           0                                            
__________________________________________________________________________________________________
s1Capitalization (InputLayer)   (None, 3)            0                                            
__________________________________________________________________________________________________
s1Symbols (InputLayer)          (None, 1)            0                                            
__________________________________________________________________________________________________
s2Tokens (InputLayer)           (None, 7)            0                                            
__________________________________________________________________________________________________
s2Affixes (InputLayer)          (None, 12)           0                                            
__________________________________________________________________________________________________
s2Capitalization (InputLayer)   (None, 3)            0                                            
__________________________________________________________________________________________________
s2Symbols (InputLayer)          (None, 1)            0                                            
__________________________________________________________________________________________________
LM1(S1)Tokens (InputLayer)      (None, 7)            0                                            
__________________________________________________________________________________________________
LM1(S1)Affixes (InputLayer)     (None, 12)           0                                            
__________________________________________________________________________________________________
LM1(S1)Capitalization (InputLay (None, 3)            0                                            
__________________________________________________________________________________________________
LM1(S1)Symbols (InputLayer)     (None, 1)            0                                            
__________________________________________________________________________________________________
LM2(S1)Tokens (InputLayer)      (None, 7)            0                                            
__________________________________________________________________________________________________
LM2(S1)Affixes (InputLayer)     (None, 12)           0                                            
__________________________________________________________________________________________________
LM2(S1)Capitalization (InputLay (None, 3)            0                                            
__________________________________________________________________________________________________
LM2(S1)Symbols (InputLayer)     (None, 1)            0                                            
__________________________________________________________________________________________________
LM1(S0)Tokens (InputLayer)      (None, 7)            0                                            
__________________________________________________________________________________________________
LM1(S0)Affixes (InputLayer)     (None, 12)           0                                            
__________________________________________________________________________________________________
LM1(S0)Capitalization (InputLay (None, 3)            0                                            
__________________________________________________________________________________________________
LM1(S0)Symbols (InputLayer)     (None, 1)            0                                            
__________________________________________________________________________________________________
LM2(S0)Tokens (InputLayer)      (None, 7)            0                                            
__________________________________________________________________________________________________
LM2(S0)Affixes (InputLayer)     (None, 12)           0                                            
__________________________________________________________________________________________________
LM2(S0)Capitalization (InputLay (None, 3)            0                                            
__________________________________________________________________________________________________
LM2(S0)Symbols (InputLayer)     (None, 1)            0                                            
__________________________________________________________________________________________________
RM1(S1)Tokens (InputLayer)      (None, 7)            0                                            
__________________________________________________________________________________________________
RM1(S1)Affixes (InputLayer)     (None, 12)           0                                            
__________________________________________________________________________________________________
RM1(S1)Capitalization (InputLay (None, 3)            0                                            
__________________________________________________________________________________________________
RM1(S1)Symbols (InputLayer)     (None, 1)            0                                            
__________________________________________________________________________________________________
RM2(S1)Tokens (InputLayer)      (None, 7)            0                                            
__________________________________________________________________________________________________
RM2(S1)Affixes (InputLayer)     (None, 12)           0                                            
__________________________________________________________________________________________________
RM2(S1)Capitalization (InputLay (None, 3)            0                                            
__________________________________________________________________________________________________
RM2(S1)Symbols (InputLayer)     (None, 1)            0                                            
__________________________________________________________________________________________________
RM1(S0)Tokens (InputLayer)      (None, 7)            0                                            
__________________________________________________________________________________________________
RM1(S0)Affixes (InputLayer)     (None, 12)           0                                            
__________________________________________________________________________________________________
RM1(S0)Capitalization (InputLay (None, 3)            0                                            
__________________________________________________________________________________________________
RM1(S0)Symbols (InputLayer)     (None, 1)            0                                            
__________________________________________________________________________________________________
RM2(S0)Tokens (InputLayer)      (None, 7)            0                                            
__________________________________________________________________________________________________
RM2(S0)Affixes (InputLayer)     (None, 12)           0                                            
__________________________________________________________________________________________________
RM2(S0)Capitalization (InputLay (None, 3)            0                                            
__________________________________________________________________________________________________
RM2(S0)Symbols (InputLayer)     (None, 1)            0                                            
__________________________________________________________________________________________________
LMLM(S1)Tokens (InputLayer)     (None, 7)            0                                            
__________________________________________________________________________________________________
LMLM(S1)Affixes (InputLayer)    (None, 12)           0                                            
__________________________________________________________________________________________________
LMLM(S1)Capitalization (InputLa (None, 3)            0                                            
__________________________________________________________________________________________________
LMLM(S1)Symbols (InputLayer)    (None, 1)            0                                            
__________________________________________________________________________________________________
RMRM(S1)Tokens (InputLayer)     (None, 7)            0                                            
__________________________________________________________________________________________________
RMRM(S1)Affixes (InputLayer)    (None, 12)           0                                            
__________________________________________________________________________________________________
RMRM(S1)Capitalization (InputLa (None, 3)            0                                            
__________________________________________________________________________________________________
RMRM(S1)Symbols (InputLayer)    (None, 1)            0                                            
__________________________________________________________________________________________________
LMLM(S0)Tokens (InputLayer)     (None, 7)            0                                            
__________________________________________________________________________________________________
LMLM(S0)Affixes (InputLayer)    (None, 12)           0                                            
__________________________________________________________________________________________________
LMLM(S0)Capitalization (InputLa (None, 3)            0                                            
__________________________________________________________________________________________________
LMLM(S0)Symbols (InputLayer)    (None, 1)            0                                            
__________________________________________________________________________________________________
RMRM(S0)Tokens (InputLayer)     (None, 7)            0                                            
__________________________________________________________________________________________________
RMRM(S0)Affixes (InputLayer)    (None, 12)           0                                            
__________________________________________________________________________________________________
RMRM(S0)Capitalization (InputLa (None, 3)            0                                            
__________________________________________________________________________________________________
RMRM(S0)Symbols (InputLayer)    (None, 1)            0                                            
__________________________________________________________________________________________________
tokenEmb (Embedding)            (None, 7, 64)        1895168     b0Tokens[0][0]                   
                                                                 b1Tokens[0][0]                   
                                                                 b2Tokens[0][0]                   
                                                                 s0Tokens[0][0]                   
                                                                 s1Tokens[0][0]                   
…
                                                                 RM2(S0)Symbols[0][0]             
                                                                 LMLM(S1)Symbols[0][0]            
                                                                 RMRM(S1)Symbols[0][0]            
                                                                 LMLM(S0)Symbols[0][0]            
                                                                 RMRM(S0)Symbols[0][0]            
__________________________________________________________________________________________________
SyntacticLabels (InputLayer)    (None, 12)           0                                            
__________________________________________________________________________________________________
flatten_2778 (Flatten)          (None, 448)          0           tokenEmb[5][0]                   
__________________________________________________________________________________________________
flatten_2779 (Flatten)          (None, 132)          0           affixeseEmb[5][0]                
__________________________________________________________________________________________________
flatten_2780 (Flatten)          (None, 9)            0           capitalizationEmb[5][0]          
__________________________________________________________________________________________________
flatten_2781 (Flatten)          (None, 9)            0           symbolsEmb[5][0]                 
__________________________________________________________________________________________________
flatten_2782 (Flatten)          (None, 448)          0           tokenEmb[6][0]                   
__________________________________________________________________________________________________
flatten_2783 (Flatten)          (None, 132)          0           affixeseEmb[6][0]                
__________________________________________________________________________________________________
flatten_2784 (Flatten)          (None, 9)            0           capitalizationEmb[6][0]          
__________________________________________________________________________________________________
flatten_2785 (Flatten)          (None, 9)            0           symbolsEmb[6][0]                 
__________________________________________________________________________________________________
flatten_2786 (Flatten)          (None, 448)          0           tokenEmb[7][0]                   
__________________________________________________________________________________________________
flatten_2787 (Flatten)          (None, 132)          0           affixeseEmb[7][0]                
__________________________________________________________________________________________________
flatten_2788 (Flatten)          (None, 9)            0           capitalizationEmb[7][0]          
__________________________________________________________________________________________________
flatten_2789 (Flatten)          (None, 9)            0           symbolsEmb[7][0]                 
__________________________________________________________________________________________________
flatten_2790 (Flatten)          (None, 448)          0           tokenEmb[8][0]                   
__________________________________________________________________________________________________
flatten_2791 (Flatten)          (None, 132)          0           affixeseEmb[8][0]                
__________________________________________________________________________________________________
flatten_2792 (Flatten)          (None, 9)            0           capitalizationEmb[8][0]          
__________________________________________________________________________________________________
flatten_2793 (Flatten)          (None, 9)            0           symbolsEmb[8][0]                 
__________________________________________________________________________________________________
flatten_2794 (Flatten)          (None, 448)          0           tokenEmb[9][0]                   
__________________________________________________________________________________________________
flatten_2795 (Flatten)          (None, 132)          0           affixeseEmb[9][0]                
__________________________________________________________________________________________________
flatten_2796 (Flatten)          (None, 9)            0           capitalizationEmb[9][0]          
__________________________________________________________________________________________________
flatten_2797 (Flatten)          (None, 9)            0           symbolsEmb[9][0]                 
__________________________________________________________________________________________________
flatten_2798 (Flatten)          (None, 448)          0           tokenEmb[10][0]                  
__________________________________________________________________________________________________
flatten_2799 (Flatten)          (None, 132)          0           affixeseEmb[10][0]               
__________________________________________________________________________________________________
flatten_2800 (Flatten)          (None, 9)            0           capitalizationEmb[10][0]         
__________________________________________________________________________________________________
flatten_2801 (Flatten)          (None, 9)            0           symbolsEmb[10][0]                
__________________________________________________________________________________________________
flatten_2802 (Flatten)          (None, 448)          0           tokenEmb[11][0]                  
__________________________________________________________________________________________________
flatten_2803 (Flatten)          (None, 132)          0           affixeseEmb[11][0]               
__________________________________________________________________________________________________
flatten_2804 (Flatten)          (None, 9)            0           capitalizationEmb[11][0]         
__________________________________________________________________________________________________
flatten_2805 (Flatten)          (None, 9)            0           symbolsEmb[11][0]                
__________________________________________________________________________________________________
flatten_2806 (Flatten)          (None, 448)          0           tokenEmb[12][0]                  
__________________________________________________________________________________________________
flatten_2807 (Flatten)          (None, 132)          0           affixeseEmb[12][0]               
__________________________________________________________________________________________________
flatten_2808 (Flatten)          (None, 9)            0           capitalizationEmb[12][0]         
__________________________________________________________________________________________________
flatten_2809 (Flatten)          (None, 9)            0           symbolsEmb[12][0]                
__________________________________________________________________________________________________
flatten_2810 (Flatten)          (None, 448)          0           tokenEmb[13][0]                  
__________________________________________________________________________________________________
flatten_2811 (Flatten)          (None, 132)          0           affixeseEmb[13][0]               
__________________________________________________________________________________________________
flatten_2812 (Flatten)          (None, 9)            0           capitalizationEmb[13][0]         
__________________________________________________________________________________________________
flatten_2813 (Flatten)          (None, 9)            0           symbolsEmb[13][0]                
__________________________________________________________________________________________________
flatten_2814 (Flatten)          (None, 448)          0           tokenEmb[14][0]                  
__________________________________________________________________________________________________
flatten_2815 (Flatten)          (None, 132)          0           affixeseEmb[14][0]               
__________________________________________________________________________________________________
flatten_2816 (Flatten)          (None, 9)            0           capitalizationEmb[14][0]         
__________________________________________________________________________________________________
flatten_2817 (Flatten)          (None, 9)            0           symbolsEmb[14][0]                
__________________________________________________________________________________________________
flatten_2818 (Flatten)          (None, 448)          0           tokenEmb[15][0]                  
__________________________________________________________________________________________________
flatten_2819 (Flatten)          (None, 132)          0           affixeseEmb[15][0]               
__________________________________________________________________________________________________
flatten_2820 (Flatten)          (None, 9)            0           capitalizationEmb[15][0]         
__________________________________________________________________________________________________
flatten_2821 (Flatten)          (None, 9)            0           symbolsEmb[15][0]                
__________________________________________________________________________________________________
flatten_2822 (Flatten)          (None, 448)          0           tokenEmb[16][0]                  
__________________________________________________________________________________________________
flatten_2823 (Flatten)          (None, 132)          0           affixeseEmb[16][0]               
__________________________________________________________________________________________________
flatten_2824 (Flatten)          (None, 9)            0           capitalizationEmb[16][0]         
__________________________________________________________________________________________________
flatten_2825 (Flatten)          (None, 9)            0           symbolsEmb[16][0]                
__________________________________________________________________________________________________
flatten_2826 (Flatten)          (None, 448)          0           tokenEmb[17][0]                  
__________________________________________________________________________________________________
flatten_2827 (Flatten)          (None, 132)          0           affixeseEmb[17][0]               
__________________________________________________________________________________________________
flatten_2828 (Flatten)          (None, 9)            0           capitalizationEmb[17][0]         
__________________________________________________________________________________________________
flatten_2829 (Flatten)          (None, 9)            0           symbolsEmb[17][0]                
__________________________________________________________________________________________________
flatten_2830 (Flatten)          (None, 448)          0           tokenEmb[18][0]                  
__________________________________________________________________________________________________
flatten_2831 (Flatten)          (None, 132)          0           affixeseEmb[18][0]               
__________________________________________________________________________________________________
flatten_2832 (Flatten)          (None, 9)            0           capitalizationEmb[18][0]         
__________________________________________________________________________________________________
flatten_2833 (Flatten)          (None, 9)            0           symbolsEmb[18][0]                
__________________________________________________________________________________________________
flatten_2834 (Flatten)          (None, 448)          0           tokenEmb[19][0]                  
__________________________________________________________________________________________________
flatten_2835 (Flatten)          (None, 132)          0           affixeseEmb[19][0]               
__________________________________________________________________________________________________
flatten_2836 (Flatten)          (None, 9)            0           capitalizationEmb[19][0]         
__________________________________________________________________________________________________
flatten_2837 (Flatten)          (None, 9)            0           symbolsEmb[19][0]                
__________________________________________________________________________________________________
flatten_2838 (Flatten)          (None, 448)          0           tokenEmb[20][0]                  
__________________________________________________________________________________________________
flatten_2839 (Flatten)          (None, 132)          0           affixeseEmb[20][0]               
__________________________________________________________________________________________________
flatten_2840 (Flatten)          (None, 9)            0           capitalizationEmb[20][0]         
__________________________________________________________________________________________________
flatten_2841 (Flatten)          (None, 9)            0           symbolsEmb[20][0]                
__________________________________________________________________________________________________
flatten_2842 (Flatten)          (None, 448)          0           tokenEmb[21][0]                  
__________________________________________________________________________________________________
flatten_2843 (Flatten)          (None, 132)          0           affixeseEmb[21][0]               
__________________________________________________________________________________________________
flatten_2844 (Flatten)          (None, 9)            0           capitalizationEmb[21][0]         
__________________________________________________________________________________________________
flatten_2845 (Flatten)          (None, 9)            0           symbolsEmb[21][0]                
__________________________________________________________________________________________________
flatten_2846 (Flatten)          (None, 448)          0           tokenEmb[22][0]                  
__________________________________________________________________________________________________
flatten_2847 (Flatten)          (None, 132)          0           affixeseEmb[22][0]               
__________________________________________________________________________________________________
flatten_2848 (Flatten)          (None, 9)            0           capitalizationEmb[22][0]         
__________________________________________________________________________________________________
flatten_2849 (Flatten)          (None, 9)            0           symbolsEmb[22][0]                
__________________________________________________________________________________________________
SyntacticLabelEmb (Embedding)   (None, 12, 12)       204         SyntacticLabels[0][0]            
__________________________________________________________________________________________________
concatenate_747 (Concatenate)   (None, 598)          0           flatten_2778[0][0]               
                                                                 flatten_2779[0][0]               
                                                                 flatten_2780[0][0]               
                                                                 flatten_2781[0][0]               
__________________________________________________________________________________________________
concatenate_748 (Concatenate)   (None, 598)          0           flatten_2782[0][0]               
                                                                 flatten_2783[0][0]               
                                                                 flatten_2784[0][0]               
                                                                 flatten_2785[0][0]               
__________________________________________________________________________________________________
concatenate_749 (Concatenate)   (None, 598)          0           flatten_2786[0][0]               
                                                                 flatten_2787[0][0]               
                                                                 flatten_2788[0][0]               
                                                                 flatten_2789[0][0]               
__________________________________________________________________________________________________
concatenate_750 (Concatenate)   (None, 598)          0           flatten_2790[0][0]               
                                                                 flatten_2791[0][0]               
                                                                 flatten_2792[0][0]               
                                                                 flatten_2793[0][0]               
__________________________________________________________________________________________________
concatenate_751 (Concatenate)   (None, 598)          0           flatten_2794[0][0]               
                                                                 flatten_2795[0][0]               
                                                                 flatten_2796[0][0]               
                                                                 flatten_2797[0][0]               
__________________________________________________________________________________________________
concatenate_752 (Concatenate)   (None, 598)          0           flatten_2798[0][0]               
                                                                 flatten_2799[0][0]               
                                                                 flatten_2800[0][0]               
                                                                 flatten_2801[0][0]               
__________________________________________________________________________________________________
concatenate_753 (Concatenate)   (None, 598)          0           flatten_2802[0][0]               
                                                                 flatten_2803[0][0]               
                                                                 flatten_2804[0][0]               
                                                                 flatten_2805[0][0]               
__________________________________________________________________________________________________
concatenate_754 (Concatenate)   (None, 598)          0           flatten_2806[0][0]               
                                                                 flatten_2807[0][0]               
                                                                 flatten_2808[0][0]               
                                                                 flatten_2809[0][0]               
__________________________________________________________________________________________________
concatenate_755 (Concatenate)   (None, 598)          0           flatten_2810[0][0]               
                                                                 flatten_2811[0][0]               
                                                                 flatten_2812[0][0]               
                                                                 flatten_2813[0][0]               
__________________________________________________________________________________________________
concatenate_756 (Concatenate)   (None, 598)          0           flatten_2814[0][0]               
                                                                 flatten_2815[0][0]               
                                                                 flatten_2816[0][0]               
                                                                 flatten_2817[0][0]               
__________________________________________________________________________________________________
concatenate_757 (Concatenate)   (None, 598)          0           flatten_2818[0][0]               
                                                                 flatten_2819[0][0]               
                                                                 flatten_2820[0][0]               
                                                                 flatten_2821[0][0]               
__________________________________________________________________________________________________
concatenate_758 (Concatenate)   (None, 598)          0           flatten_2822[0][0]               
                                                                 flatten_2823[0][0]               
                                                                 flatten_2824[0][0]               
                                                                 flatten_2825[0][0]               
__________________________________________________________________________________________________
concatenate_759 (Concatenate)   (None, 598)          0           flatten_2826[0][0]               
                                                                 flatten_2827[0][0]               
                                                                 flatten_2828[0][0]               
                                                                 flatten_2829[0][0]               
__________________________________________________________________________________________________
concatenate_760 (Concatenate)   (None, 598)          0           flatten_2830[0][0]               
                                                                 flatten_2831[0][0]               
                                                                 flatten_2832[0][0]               
                                                                 flatten_2833[0][0]               
__________________________________________________________________________________________________
concatenate_761 (Concatenate)   (None, 598)          0           flatten_2834[0][0]               
                                                                 flatten_2835[0][0]               
                                                                 flatten_2836[0][0]               
                                                                 flatten_2837[0][0]               
__________________________________________________________________________________________________
concatenate_762 (Concatenate)   (None, 598)          0           flatten_2838[0][0]               
                                                                 flatten_2839[0][0]               
                                                                 flatten_2840[0][0]               
                                                                 flatten_2841[0][0]               
__________________________________________________________________________________________________
concatenate_763 (Concatenate)   (None, 598)          0           flatten_2842[0][0]               
                                                                 flatten_2843[0][0]               
                                                                 flatten_2844[0][0]               
                                                                 flatten_2845[0][0]               
__________________________________________________________________________________________________
concatenate_764 (Concatenate)   (None, 598)          0           flatten_2846[0][0]               
                                                                 flatten_2847[0][0]               
                                                                 flatten_2848[0][0]               
                                                                 flatten_2849[0][0]               
__________________________________________________________________________________________________
flatten_2850 (Flatten)          (None, 144)          0           SyntacticLabelEmb[0][0]          
__________________________________________________________________________________________________
posDense (Dense)                (None, 133)          79667       concatenate_747[0][0]            
                                                                 concatenate_748[0][0]            
                                                                 concatenate_749[0][0]            
                                                                 concatenate_750[0][0]            
                                                                 concatenate_751[0][0]            
…
