…
	One occurrence keys in vocabulary 2113 / 11479

__________________________________________________________________________________________________
	Optimizer : Adagrad,  learning rate = 0.05
__________________________________________________________________________________________________
__________________________________________________________________________________________________
Layer (type)                    Output Shape         Param #     Connected to                     
==================================================================================================
tokens (InputLayer)             (None, 7)            0                                            
__________________________________________________________________________________________________
affixes (InputLayer)            (None, 12)           0                                            
__________________________________________________________________________________________________
symbol (InputLayer)             (None, 1)            0                                            
__________________________________________________________________________________________________
tokenEmb (Embedding)            (None, 7, 140)       1607060     tokens[0][0]                     
__________________________________________________________________________________________________
affixeseEmb (Embedding)         (None, 12, 14)       18578       affixes[0][0]                    
__________________________________________________________________________________________________
symbolsEmb (Embedding)          (None, 1, 5)         100         symbol[0][0]                     
__________________________________________________________________________________________________
flatten_1 (Flatten)             (None, 980)          0           tokenEmb[0][0]                   
__________________________________________________________________________________________________
flatten_2 (Flatten)             (None, 168)          0           affixeseEmb[0][0]                
__________________________________________________________________________________________________
flatten_3 (Flatten)             (None, 5)            0           symbolsEmb[0][0]                 
__________________________________________________________________________________________________
concatenate_1 (Concatenate)     (None, 1153)         0           flatten_1[0][0]                  
                                                                 flatten_2[0][0]                  
                                                                 flatten_3[0][0]                  
__________________________________________________________________________________________________
posDense (Dense)                (None, 78)           90012       concatenate_1[0][0]              
__________________________________________________________________________________________________
dense_1 (Dense)                 (None, 169)          13351       posDense[0][0]                   
==================================================================================================
Total params: 1,729,101
Trainable params: 1,729,101
Non-trainable params: 0
__________________________________________________________________________________________________
None
==================================================================================================

__________________________________________________________________________________________________
	Optimizer : Adagrad,  learning rate = 0.05
__________________________________________________________________________________________________
__________________________________________________________________________________________________
Layer (type)                    Output Shape         Param #     Connected to                     
==================================================================================================
bxTokens (InputLayer)           (None, 7)            0                                            
__________________________________________________________________________________________________
bxAffixes (InputLayer)          (None, 12)           0                                            
__________________________________________________________________________________________________
bxSymbols (InputLayer)          (None, 1)            0                                            
__________________________________________________________________________________________________
b1Tokens (InputLayer)           (None, 7)            0                                            
__________________________________________________________________________________________________
b1Affixes (InputLayer)          (None, 12)           0                                            
__________________________________________________________________________________________________
b1Symbols (InputLayer)          (None, 1)            0                                            
__________________________________________________________________________________________________
b0Tokens (InputLayer)           (None, 7)            0                                            
__________________________________________________________________________________________________
b0Affixes (InputLayer)          (None, 12)           0                                            
__________________________________________________________________________________________________
b0Symbols (InputLayer)          (None, 1)            0                                            
__________________________________________________________________________________________________
s0Tokens (InputLayer)           (None, 7)            0                                            
__________________________________________________________________________________________________
s0Affixes (InputLayer)          (None, 12)           0                                            
__________________________________________________________________________________________________
s0Symbols (InputLayer)          (None, 1)            0                                            
__________________________________________________________________________________________________
s1Tokens (InputLayer)           (None, 7)            0                                            
__________________________________________________________________________________________________
s1Affixes (InputLayer)          (None, 12)           0                                            
__________________________________________________________________________________________________
s1Symbols (InputLayer)          (None, 1)            0                                            
__________________________________________________________________________________________________
tokenEmb (Embedding)            (None, 7, 140)       1607060     bxTokens[0][0]                   
                                                                 b1Tokens[0][0]                   
                                                                 b0Tokens[0][0]                   
                                                                 s0Tokens[0][0]                   
                                                                 s1Tokens[0][0]                   
__________________________________________________________________________________________________
affixeseEmb (Embedding)         (None, 12, 14)       18578       bxAffixes[0][0]                  
                                                                 b1Affixes[0][0]                  
                                                                 b0Affixes[0][0]                  
                                                                 s0Affixes[0][0]                  
                                                                 s1Affixes[0][0]                  
__________________________________________________________________________________________________
symbolsEmb (Embedding)          (None, 1, 5)         100         bxSymbols[0][0]                  
                                                                 b1Symbols[0][0]                  
                                                                 b0Symbols[0][0]                  
                                                                 s0Symbols[0][0]                  
                                                                 s1Symbols[0][0]                  
__________________________________________________________________________________________________
flatten_4 (Flatten)             (None, 980)          0           tokenEmb[1][0]                   
__________________________________________________________________________________________________
flatten_5 (Flatten)             (None, 168)          0           affixeseEmb[1][0]                
__________________________________________________________________________________________________
flatten_6 (Flatten)             (None, 5)            0           symbolsEmb[1][0]                 
__________________________________________________________________________________________________
flatten_7 (Flatten)             (None, 980)          0           tokenEmb[2][0]                   
__________________________________________________________________________________________________
flatten_8 (Flatten)             (None, 168)          0           affixeseEmb[2][0]                
__________________________________________________________________________________________________
flatten_9 (Flatten)             (None, 5)            0           symbolsEmb[2][0]                 
__________________________________________________________________________________________________
flatten_10 (Flatten)            (None, 980)          0           tokenEmb[3][0]                   
__________________________________________________________________________________________________
flatten_11 (Flatten)            (None, 168)          0           affixeseEmb[3][0]                
__________________________________________________________________________________________________
flatten_12 (Flatten)            (None, 5)            0           symbolsEmb[3][0]                 
__________________________________________________________________________________________________
flatten_13 (Flatten)            (None, 980)          0           tokenEmb[4][0]                   
__________________________________________________________________________________________________
flatten_14 (Flatten)            (None, 168)          0           affixeseEmb[4][0]                
__________________________________________________________________________________________________
flatten_15 (Flatten)            (None, 5)            0           symbolsEmb[4][0]                 
__________________________________________________________________________________________________
flatten_16 (Flatten)            (None, 980)          0           tokenEmb[5][0]                   
__________________________________________________________________________________________________
flatten_17 (Flatten)            (None, 168)          0           affixeseEmb[5][0]                
__________________________________________________________________________________________________
flatten_18 (Flatten)            (None, 5)            0           symbolsEmb[5][0]                 
__________________________________________________________________________________________________
concatenate_2 (Concatenate)     (None, 1153)         0           flatten_4[0][0]                  
                                                                 flatten_5[0][0]                  
                                                                 flatten_6[0][0]                  
__________________________________________________________________________________________________
concatenate_3 (Concatenate)     (None, 1153)         0           flatten_7[0][0]                  
                                                                 flatten_8[0][0]                  
                                                                 flatten_9[0][0]                  
__________________________________________________________________________________________________
concatenate_4 (Concatenate)     (None, 1153)         0           flatten_10[0][0]                 
                                                                 flatten_11[0][0]                 
                                                                 flatten_12[0][0]                 
__________________________________________________________________________________________________
concatenate_5 (Concatenate)     (None, 1153)         0           flatten_13[0][0]                 
                                                                 flatten_14[0][0]                 
                                                                 flatten_15[0][0]                 
__________________________________________________________________________________________________
concatenate_6 (Concatenate)     (None, 1153)         0           flatten_16[0][0]                 
                                                                 flatten_17[0][0]                 
                                                                 flatten_18[0][0]                 
__________________________________________________________________________________________________
posDense (Dense)                (None, 78)           90012       concatenate_2[0][0]              
                                                                 concatenate_3[0][0]              
                                                                 concatenate_4[0][0]              
                                                                 concatenate_5[0][0]              
                                                                 concatenate_6[0][0]              
__________________________________________________________________________________________________
concatenate_7 (Concatenate)     (None, 390)          0           posDense[1][0]                   
                                                                 posDense[2][0]                   
                                                                 posDense[3][0]                   
                                                                 posDense[4][0]                   
                                                                 posDense[5][0]                   
__________________________________________________________________________________________________
idenDense (Dense)               (None, 30)           11730       concatenate_7[0][0]              
__________________________________________________________________________________________________
idenSoftMax (Dense)             (None, 4)            124         idenDense[0][0]                  
==================================================================================================
Total params: 1,727,604
Trainable params: 1,727,604
Non-trainable params: 0
__________________________________________________________________________________________________
None
==================================================================================================
…
	One occurrence keys in vocabulary 1721 / 13555

__________________________________________________________________________________________________
	Optimizer : Adagrad,  learning rate = 0.05
__________________________________________________________________________________________________
__________________________________________________________________________________________________
Layer (type)                    Output Shape         Param #     Connected to                     
==================================================================================================
tokens (InputLayer)             (None, 7)            0                                            
__________________________________________________________________________________________________
affixes (InputLayer)            (None, 12)           0                                            
__________________________________________________________________________________________________
symbol (InputLayer)             (None, 1)            0                                            
__________________________________________________________________________________________________
tokenEmb (Embedding)            (None, 7, 140)       1897700     tokens[0][0]                     
__________________________________________________________________________________________________
affixeseEmb (Embedding)         (None, 12, 14)       58016       affixes[0][0]                    
__________________________________________________________________________________________________
symbolsEmb (Embedding)          (None, 1, 5)         100         symbol[0][0]                     
__________________________________________________________________________________________________
flatten_19 (Flatten)            (None, 980)          0           tokenEmb[0][0]                   
__________________________________________________________________________________________________
flatten_20 (Flatten)            (None, 168)          0           affixeseEmb[0][0]                
__________________________________________________________________________________________________
flatten_21 (Flatten)            (None, 5)            0           symbolsEmb[0][0]                 
__________________________________________________________________________________________________
concatenate_8 (Concatenate)     (None, 1153)         0           flatten_19[0][0]                 
                                                                 flatten_20[0][0]                 
                                                                 flatten_21[0][0]                 
__________________________________________________________________________________________________
posDense (Dense)                (None, 78)           90012       concatenate_8[0][0]              
__________________________________________________________________________________________________
dense_2 (Dense)                 (None, 262)          20698       posDense[0][0]                   
==================================================================================================
Total params: 2,066,526
Trainable params: 2,066,526
Non-trainable params: 0
__________________________________________________________________________________________________
None
==================================================================================================

__________________________________________________________________________________________________
	Optimizer : Adagrad,  learning rate = 0.05
__________________________________________________________________________________________________
__________________________________________________________________________________________________
Layer (type)                    Output Shape         Param #     Connected to                     
==================================================================================================
bxTokens (InputLayer)           (None, 7)            0                                            
__________________________________________________________________________________________________
bxAffixes (InputLayer)          (None, 12)           0                                            
__________________________________________________________________________________________________
bxSymbols (InputLayer)          (None, 1)            0                                            
__________________________________________________________________________________________________
b1Tokens (InputLayer)           (None, 7)            0                                            
__________________________________________________________________________________________________
b1Affixes (InputLayer)          (None, 12)           0                                            
__________________________________________________________________________________________________
b1Symbols (InputLayer)          (None, 1)            0                                            
__________________________________________________________________________________________________
b0Tokens (InputLayer)           (None, 7)            0                                            
__________________________________________________________________________________________________
b0Affixes (InputLayer)          (None, 12)           0                                            
__________________________________________________________________________________________________
b0Symbols (InputLayer)          (None, 1)            0                                            
__________________________________________________________________________________________________
s0Tokens (InputLayer)           (None, 7)            0                                            
__________________________________________________________________________________________________
s0Affixes (InputLayer)          (None, 12)           0                                            
__________________________________________________________________________________________________
s0Symbols (InputLayer)          (None, 1)            0                                            
__________________________________________________________________________________________________
s1Tokens (InputLayer)           (None, 7)            0                                            
__________________________________________________________________________________________________
s1Affixes (InputLayer)          (None, 12)           0                                            
__________________________________________________________________________________________________
s1Symbols (InputLayer)          (None, 1)            0                                            
__________________________________________________________________________________________________
tokenEmb (Embedding)            (None, 7, 140)       1897700     bxTokens[0][0]                   
                                                                 b1Tokens[0][0]                   
                                                                 b0Tokens[0][0]                   
                                                                 s0Tokens[0][0]                   
                                                                 s1Tokens[0][0]                   
__________________________________________________________________________________________________
affixeseEmb (Embedding)         (None, 12, 14)       58016       bxAffixes[0][0]                  
                                                                 b1Affixes[0][0]                  
                                                                 b0Affixes[0][0]                  
                                                                 s0Affixes[0][0]                  
                                                                 s1Affixes[0][0]                  
__________________________________________________________________________________________________
symbolsEmb (Embedding)          (None, 1, 5)         100         bxSymbols[0][0]                  
                                                                 b1Symbols[0][0]                  
                                                                 b0Symbols[0][0]                  
                                                                 s0Symbols[0][0]                  
                                                                 s1Symbols[0][0]                  
__________________________________________________________________________________________________
flatten_22 (Flatten)            (None, 980)          0           tokenEmb[1][0]                   
__________________________________________________________________________________________________
flatten_23 (Flatten)            (None, 168)          0           affixeseEmb[1][0]                
__________________________________________________________________________________________________
flatten_24 (Flatten)            (None, 5)            0           symbolsEmb[1][0]                 
__________________________________________________________________________________________________
flatten_25 (Flatten)            (None, 980)          0           tokenEmb[2][0]                   
__________________________________________________________________________________________________
flatten_26 (Flatten)            (None, 168)          0           affixeseEmb[2][0]                
__________________________________________________________________________________________________
flatten_27 (Flatten)            (None, 5)            0           symbolsEmb[2][0]                 
__________________________________________________________________________________________________
flatten_28 (Flatten)            (None, 980)          0           tokenEmb[3][0]                   
__________________________________________________________________________________________________
flatten_29 (Flatten)            (None, 168)          0           affixeseEmb[3][0]                
__________________________________________________________________________________________________
flatten_30 (Flatten)            (None, 5)            0           symbolsEmb[3][0]                 
__________________________________________________________________________________________________
flatten_31 (Flatten)            (None, 980)          0           tokenEmb[4][0]                   
__________________________________________________________________________________________________
flatten_32 (Flatten)            (None, 168)          0           affixeseEmb[4][0]                
__________________________________________________________________________________________________
flatten_33 (Flatten)            (None, 5)            0           symbolsEmb[4][0]                 
__________________________________________________________________________________________________
flatten_34 (Flatten)            (None, 980)          0           tokenEmb[5][0]                   
__________________________________________________________________________________________________
flatten_35 (Flatten)            (None, 168)          0           affixeseEmb[5][0]                
__________________________________________________________________________________________________
flatten_36 (Flatten)            (None, 5)            0           symbolsEmb[5][0]                 
__________________________________________________________________________________________________
concatenate_9 (Concatenate)     (None, 1153)         0           flatten_22[0][0]                 
                                                                 flatten_23[0][0]                 
                                                                 flatten_24[0][0]                 
__________________________________________________________________________________________________
concatenate_10 (Concatenate)    (None, 1153)         0           flatten_25[0][0]                 
                                                                 flatten_26[0][0]                 
                                                                 flatten_27[0][0]                 
__________________________________________________________________________________________________
concatenate_11 (Concatenate)    (None, 1153)         0           flatten_28[0][0]                 
                                                                 flatten_29[0][0]                 
                                                                 flatten_30[0][0]                 
__________________________________________________________________________________________________
concatenate_12 (Concatenate)    (None, 1153)         0           flatten_31[0][0]                 
                                                                 flatten_32[0][0]                 
                                                                 flatten_33[0][0]                 
__________________________________________________________________________________________________
concatenate_13 (Concatenate)    (None, 1153)         0           flatten_34[0][0]                 
                                                                 flatten_35[0][0]                 
                                                                 flatten_36[0][0]                 
__________________________________________________________________________________________________
posDense (Dense)                (None, 78)           90012       concatenate_9[0][0]              
                                                                 concatenate_10[0][0]             
                                                                 concatenate_11[0][0]             
                                                                 concatenate_12[0][0]             
                                                                 concatenate_13[0][0]             
__________________________________________________________________________________________________
concatenate_14 (Concatenate)    (None, 390)          0           posDense[1][0]                   
                                                                 posDense[2][0]                   
                                                                 posDense[3][0]                   
                                                                 posDense[4][0]                   
                                                                 posDense[5][0]                   
__________________________________________________________________________________________________
idenDense (Dense)               (None, 30)           11730       concatenate_14[0][0]             
__________________________________________________________________________________________________
idenSoftMax (Dense)             (None, 4)            124         idenDense[0][0]                  
==================================================================================================
Total params: 2,057,682
Trainable params: 2,057,682
Non-trainable params: 0
__________________________________________________________________________________________________
None
==================================================================================================
…
	One occurrence keys in vocabulary 1197 / 8216

__________________________________________________________________________________________________
	Optimizer : Adagrad,  learning rate = 0.05
__________________________________________________________________________________________________
__________________________________________________________________________________________________
Layer (type)                    Output Shape         Param #     Connected to                     
==================================================================================================
tokens (InputLayer)             (None, 7)            0                                            
__________________________________________________________________________________________________
affixes (InputLayer)            (None, 12)           0                                            
__________________________________________________________________________________________________
symbol (InputLayer)             (None, 1)            0                                            
__________________________________________________________________________________________________
tokenEmb (Embedding)            (None, 7, 140)       1150240     tokens[0][0]                     
__________________________________________________________________________________________________
affixeseEmb (Embedding)         (None, 12, 14)       26698       affixes[0][0]                    
__________________________________________________________________________________________________
symbolsEmb (Embedding)          (None, 1, 5)         100         symbol[0][0]                     
__________________________________________________________________________________________________
flatten_37 (Flatten)            (None, 980)          0           tokenEmb[0][0]                   
__________________________________________________________________________________________________
flatten_38 (Flatten)            (None, 168)          0           affixeseEmb[0][0]                
__________________________________________________________________________________________________
flatten_39 (Flatten)            (None, 5)            0           symbolsEmb[0][0]                 
__________________________________________________________________________________________________
concatenate_15 (Concatenate)    (None, 1153)         0           flatten_37[0][0]                 
                                                                 flatten_38[0][0]                 
                                                                 flatten_39[0][0]                 
__________________________________________________________________________________________________
posDense (Dense)                (None, 78)           90012       concatenate_15[0][0]             
__________________________________________________________________________________________________
dense_3 (Dense)                 (None, 187)          14773       posDense[0][0]                   
==================================================================================================
Total params: 1,281,823
Trainable params: 1,281,823
Non-trainable params: 0
__________________________________________________________________________________________________
None
==================================================================================================

__________________________________________________________________________________________________
	Optimizer : Adagrad,  learning rate = 0.05
__________________________________________________________________________________________________
__________________________________________________________________________________________________
Layer (type)                    Output Shape         Param #     Connected to                     
==================================================================================================
bxTokens (InputLayer)           (None, 7)            0                                            
__________________________________________________________________________________________________
bxAffixes (InputLayer)          (None, 12)           0                                            
__________________________________________________________________________________________________
bxSymbols (InputLayer)          (None, 1)            0                                            
__________________________________________________________________________________________________
b1Tokens (InputLayer)           (None, 7)            0                                            
__________________________________________________________________________________________________
b1Affixes (InputLayer)          (None, 12)           0                                            
__________________________________________________________________________________________________
b1Symbols (InputLayer)          (None, 1)            0                                            
__________________________________________________________________________________________________
b0Tokens (InputLayer)           (None, 7)            0                                            
__________________________________________________________________________________________________
b0Affixes (InputLayer)          (None, 12)           0                                            
__________________________________________________________________________________________________
b0Symbols (InputLayer)          (None, 1)            0                                            
__________________________________________________________________________________________________
s0Tokens (InputLayer)           (None, 7)            0                                            
__________________________________________________________________________________________________
s0Affixes (InputLayer)          (None, 12)           0                                            
__________________________________________________________________________________________________
s0Symbols (InputLayer)          (None, 1)            0                                            
__________________________________________________________________________________________________
s1Tokens (InputLayer)           (None, 7)            0                                            
__________________________________________________________________________________________________
s1Affixes (InputLayer)          (None, 12)           0                                            
__________________________________________________________________________________________________
s1Symbols (InputLayer)          (None, 1)            0                                            
__________________________________________________________________________________________________
tokenEmb (Embedding)            (None, 7, 140)       1150240     bxTokens[0][0]                   
                                                                 b1Tokens[0][0]                   
                                                                 b0Tokens[0][0]                   
                                                                 s0Tokens[0][0]                   
                                                                 s1Tokens[0][0]                   
__________________________________________________________________________________________________
affixeseEmb (Embedding)         (None, 12, 14)       26698       bxAffixes[0][0]                  
                                                                 b1Affixes[0][0]                  
                                                                 b0Affixes[0][0]                  
                                                                 s0Affixes[0][0]                  
                                                                 s1Affixes[0][0]                  
__________________________________________________________________________________________________
symbolsEmb (Embedding)          (None, 1, 5)         100         bxSymbols[0][0]                  
                                                                 b1Symbols[0][0]                  
                                                                 b0Symbols[0][0]                  
                                                                 s0Symbols[0][0]                  
                                                                 s1Symbols[0][0]                  
__________________________________________________________________________________________________
flatten_40 (Flatten)            (None, 980)          0           tokenEmb[1][0]                   
__________________________________________________________________________________________________
flatten_41 (Flatten)            (None, 168)          0           affixeseEmb[1][0]                
__________________________________________________________________________________________________
flatten_42 (Flatten)            (None, 5)            0           symbolsEmb[1][0]                 
__________________________________________________________________________________________________
flatten_43 (Flatten)            (None, 980)          0           tokenEmb[2][0]                   
__________________________________________________________________________________________________
flatten_44 (Flatten)            (None, 168)          0           affixeseEmb[2][0]                
__________________________________________________________________________________________________
flatten_45 (Flatten)            (None, 5)            0           symbolsEmb[2][0]                 
__________________________________________________________________________________________________
flatten_46 (Flatten)            (None, 980)          0           tokenEmb[3][0]                   
__________________________________________________________________________________________________
flatten_47 (Flatten)            (None, 168)          0           affixeseEmb[3][0]                
__________________________________________________________________________________________________
flatten_48 (Flatten)            (None, 5)            0           symbolsEmb[3][0]                 
__________________________________________________________________________________________________
flatten_49 (Flatten)            (None, 980)          0           tokenEmb[4][0]                   
__________________________________________________________________________________________________
flatten_50 (Flatten)            (None, 168)          0           affixeseEmb[4][0]                
__________________________________________________________________________________________________
flatten_51 (Flatten)            (None, 5)            0           symbolsEmb[4][0]                 
__________________________________________________________________________________________________
flatten_52 (Flatten)            (None, 980)          0           tokenEmb[5][0]                   
__________________________________________________________________________________________________
flatten_53 (Flatten)            (None, 168)          0           affixeseEmb[5][0]                
__________________________________________________________________________________________________
flatten_54 (Flatten)            (None, 5)            0           symbolsEmb[5][0]                 
__________________________________________________________________________________________________
concatenate_16 (Concatenate)    (None, 1153)         0           flatten_40[0][0]                 
                                                                 flatten_41[0][0]                 
                                                                 flatten_42[0][0]                 
__________________________________________________________________________________________________
concatenate_17 (Concatenate)    (None, 1153)         0           flatten_43[0][0]                 
                                                                 flatten_44[0][0]                 
                                                                 flatten_45[0][0]                 
__________________________________________________________________________________________________
concatenate_18 (Concatenate)    (None, 1153)         0           flatten_46[0][0]                 
                                                                 flatten_47[0][0]                 
                                                                 flatten_48[0][0]                 
__________________________________________________________________________________________________
concatenate_19 (Concatenate)    (None, 1153)         0           flatten_49[0][0]                 
                                                                 flatten_50[0][0]                 
                                                                 flatten_51[0][0]                 
__________________________________________________________________________________________________
concatenate_20 (Concatenate)    (None, 1153)         0           flatten_52[0][0]                 
                                                                 flatten_53[0][0]                 
                                                                 flatten_54[0][0]                 
__________________________________________________________________________________________________
posDense (Dense)                (None, 78)           90012       concatenate_16[0][0]             
                                                                 concatenate_17[0][0]             
                                                                 concatenate_18[0][0]             
                                                                 concatenate_19[0][0]             
                                                                 concatenate_20[0][0]             
__________________________________________________________________________________________________
concatenate_21 (Concatenate)    (None, 390)          0           posDense[1][0]                   
                                                                 posDense[2][0]                   
                                                                 posDense[3][0]                   
                                                                 posDense[4][0]                   
                                                                 posDense[5][0]                   
__________________________________________________________________________________________________
idenDense (Dense)               (None, 30)           11730       concatenate_21[0][0]             
__________________________________________________________________________________________________
idenSoftMax (Dense)             (None, 4)            124         idenDense[0][0]                  
==================================================================================================
Total params: 1,278,904
Trainable params: 1,278,904
Non-trainable params: 0
__________________________________________________________________________________________________
None
==================================================================================================
…
	One occurrence keys in vocabulary 228 / 1726

__________________________________________________________________________________________________
	Optimizer : Adagrad,  learning rate = 0.05
__________________________________________________________________________________________________
__________________________________________________________________________________________________
Layer (type)                    Output Shape         Param #     Connected to                     
==================================================================================================
tokens (InputLayer)             (None, 7)            0                                            
__________________________________________________________________________________________________
affixes (InputLayer)            (None, 12)           0                                            
__________________________________________________________________________________________________
symbol (InputLayer)             (None, 1)            0                                            
__________________________________________________________________________________________________
tokenEmb (Embedding)            (None, 7, 140)       241640      tokens[0][0]                     
__________________________________________________________________________________________________
affixeseEmb (Embedding)         (None, 12, 14)       21938       affixes[0][0]                    
__________________________________________________________________________________________________
symbolsEmb (Embedding)          (None, 1, 5)         100         symbol[0][0]                     
__________________________________________________________________________________________________
flatten_55 (Flatten)            (None, 980)          0           tokenEmb[0][0]                   
__________________________________________________________________________________________________
flatten_56 (Flatten)            (None, 168)          0           affixeseEmb[0][0]                
__________________________________________________________________________________________________
flatten_57 (Flatten)            (None, 5)            0           symbolsEmb[0][0]                 
__________________________________________________________________________________________________
concatenate_22 (Concatenate)    (None, 1153)         0           flatten_55[0][0]                 
                                                                 flatten_56[0][0]                 
                                                                 flatten_57[0][0]                 
__________________________________________________________________________________________________
posDense (Dense)                (None, 78)           90012       concatenate_22[0][0]             
__________________________________________________________________________________________________
dense_4 (Dense)                 (None, 58)           4582        posDense[0][0]                   
==================================================================================================
Total params: 358,272
Trainable params: 358,272
Non-trainable params: 0
__________________________________________________________________________________________________
None
==================================================================================================

__________________________________________________________________________________________________
	Optimizer : Adagrad,  learning rate = 0.05
__________________________________________________________________________________________________
__________________________________________________________________________________________________
Layer (type)                    Output Shape         Param #     Connected to                     
==================================================================================================
bxTokens (InputLayer)           (None, 7)            0                                            
__________________________________________________________________________________________________
bxAffixes (InputLayer)          (None, 12)           0                                            
__________________________________________________________________________________________________
bxSymbols (InputLayer)          (None, 1)            0                                            
__________________________________________________________________________________________________
b1Tokens (InputLayer)           (None, 7)            0                                            
__________________________________________________________________________________________________
b1Affixes (InputLayer)          (None, 12)           0                                            
__________________________________________________________________________________________________
b1Symbols (InputLayer)          (None, 1)            0                                            
__________________________________________________________________________________________________
b0Tokens (InputLayer)           (None, 7)            0                                            
__________________________________________________________________________________________________
b0Affixes (InputLayer)          (None, 12)           0                                            
__________________________________________________________________________________________________
b0Symbols (InputLayer)          (None, 1)            0                                            
__________________________________________________________________________________________________
s0Tokens (InputLayer)           (None, 7)            0                                            
__________________________________________________________________________________________________
s0Affixes (InputLayer)          (None, 12)           0                                            
__________________________________________________________________________________________________
s0Symbols (InputLayer)          (None, 1)            0                                            
__________________________________________________________________________________________________
s1Tokens (InputLayer)           (None, 7)            0                                            
__________________________________________________________________________________________________
s1Affixes (InputLayer)          (None, 12)           0                                            
__________________________________________________________________________________________________
s1Symbols (InputLayer)          (None, 1)            0                                            
__________________________________________________________________________________________________
tokenEmb (Embedding)            (None, 7, 140)       241640      bxTokens[0][0]                   
                                                                 b1Tokens[0][0]                   
                                                                 b0Tokens[0][0]                   
                                                                 s0Tokens[0][0]                   
                                                                 s1Tokens[0][0]                   
__________________________________________________________________________________________________
affixeseEmb (Embedding)         (None, 12, 14)       21938       bxAffixes[0][0]                  
                                                                 b1Affixes[0][0]                  
                                                                 b0Affixes[0][0]                  
                                                                 s0Affixes[0][0]                  
                                                                 s1Affixes[0][0]                  
__________________________________________________________________________________________________
symbolsEmb (Embedding)          (None, 1, 5)         100         bxSymbols[0][0]                  
                                                                 b1Symbols[0][0]                  
                                                                 b0Symbols[0][0]                  
                                                                 s0Symbols[0][0]                  
                                                                 s1Symbols[0][0]                  
__________________________________________________________________________________________________
flatten_58 (Flatten)            (None, 980)          0           tokenEmb[1][0]                   
__________________________________________________________________________________________________
flatten_59 (Flatten)            (None, 168)          0           affixeseEmb[1][0]                
__________________________________________________________________________________________________
flatten_60 (Flatten)            (None, 5)            0           symbolsEmb[1][0]                 
__________________________________________________________________________________________________
flatten_61 (Flatten)            (None, 980)          0           tokenEmb[2][0]                   
__________________________________________________________________________________________________
flatten_62 (Flatten)            (None, 168)          0           affixeseEmb[2][0]                
__________________________________________________________________________________________________
flatten_63 (Flatten)            (None, 5)            0           symbolsEmb[2][0]                 
__________________________________________________________________________________________________
flatten_64 (Flatten)            (None, 980)          0           tokenEmb[3][0]                   
__________________________________________________________________________________________________
flatten_65 (Flatten)            (None, 168)          0           affixeseEmb[3][0]                
__________________________________________________________________________________________________
flatten_66 (Flatten)            (None, 5)            0           symbolsEmb[3][0]                 
__________________________________________________________________________________________________
flatten_67 (Flatten)            (None, 980)          0           tokenEmb[4][0]                   
__________________________________________________________________________________________________
flatten_68 (Flatten)            (None, 168)          0           affixeseEmb[4][0]                
__________________________________________________________________________________________________
flatten_69 (Flatten)            (None, 5)            0           symbolsEmb[4][0]                 
__________________________________________________________________________________________________
flatten_70 (Flatten)            (None, 980)          0           tokenEmb[5][0]                   
__________________________________________________________________________________________________
flatten_71 (Flatten)            (None, 168)          0           affixeseEmb[5][0]                
__________________________________________________________________________________________________
flatten_72 (Flatten)            (None, 5)            0           symbolsEmb[5][0]                 
__________________________________________________________________________________________________
concatenate_23 (Concatenate)    (None, 1153)         0           flatten_58[0][0]                 
                                                                 flatten_59[0][0]                 
                                                                 flatten_60[0][0]                 
__________________________________________________________________________________________________
concatenate_24 (Concatenate)    (None, 1153)         0           flatten_61[0][0]                 
                                                                 flatten_62[0][0]                 
                                                                 flatten_63[0][0]                 
__________________________________________________________________________________________________
concatenate_25 (Concatenate)    (None, 1153)         0           flatten_64[0][0]                 
                                                                 flatten_65[0][0]                 
                                                                 flatten_66[0][0]                 
__________________________________________________________________________________________________
concatenate_26 (Concatenate)    (None, 1153)         0           flatten_67[0][0]                 
                                                                 flatten_68[0][0]                 
                                                                 flatten_69[0][0]                 
__________________________________________________________________________________________________
concatenate_27 (Concatenate)    (None, 1153)         0           flatten_70[0][0]                 
                                                                 flatten_71[0][0]                 
                                                                 flatten_72[0][0]                 
__________________________________________________________________________________________________
posDense (Dense)                (None, 78)           90012       concatenate_23[0][0]             
                                                                 concatenate_24[0][0]             
                                                                 concatenate_25[0][0]             
                                                                 concatenate_26[0][0]             
                                                                 concatenate_27[0][0]             
__________________________________________________________________________________________________
concatenate_28 (Concatenate)    (None, 390)          0           posDense[1][0]                   
                                                                 posDense[2][0]                   
                                                                 posDense[3][0]                   
                                                                 posDense[4][0]                   
                                                                 posDense[5][0]                   
__________________________________________________________________________________________________
idenDense (Dense)               (None, 30)           11730       concatenate_28[0][0]             
__________________________________________________________________________________________________
idenSoftMax (Dense)             (None, 4)            124         idenDense[0][0]                  
==================================================================================================
Total params: 365,544
Trainable params: 365,544
Non-trainable params: 0
__________________________________________________________________________________________________
None
==================================================================================================
…
	One occurrence keys in vocabulary 1034 / 7204

__________________________________________________________________________________________________
	Optimizer : Adagrad,  learning rate = 0.05
__________________________________________________________________________________________________
__________________________________________________________________________________________________
Layer (type)                    Output Shape         Param #     Connected to                     
==================================================================================================
tokens (InputLayer)             (None, 7)            0                                            
__________________________________________________________________________________________________
affixes (InputLayer)            (None, 12)           0                                            
__________________________________________________________________________________________________
symbol (InputLayer)             (None, 1)            0                                            
__________________________________________________________________________________________________
tokenEmb (Embedding)            (None, 7, 140)       1008560     tokens[0][0]                     
__________________________________________________________________________________________________
affixeseEmb (Embedding)         (None, 12, 14)       41706       affixes[0][0]                    
__________________________________________________________________________________________________
symbolsEmb (Embedding)          (None, 1, 5)         100         symbol[0][0]                     
__________________________________________________________________________________________________
flatten_73 (Flatten)            (None, 980)          0           tokenEmb[0][0]                   
__________________________________________________________________________________________________
flatten_74 (Flatten)            (None, 168)          0           affixeseEmb[0][0]                
__________________________________________________________________________________________________
flatten_75 (Flatten)            (None, 5)            0           symbolsEmb[0][0]                 
__________________________________________________________________________________________________
concatenate_29 (Concatenate)    (None, 1153)         0           flatten_73[0][0]                 
                                                                 flatten_74[0][0]                 
                                                                 flatten_75[0][0]                 
__________________________________________________________________________________________________
posDense (Dense)                (None, 78)           90012       concatenate_29[0][0]             
__________________________________________________________________________________________________
dense_5 (Dense)                 (None, 115)          9085        posDense[0][0]                   
==================================================================================================
Total params: 1,149,463
Trainable params: 1,149,463
Non-trainable params: 0
__________________________________________________________________________________________________
None
==================================================================================================

__________________________________________________________________________________________________
	Optimizer : Adagrad,  learning rate = 0.05
__________________________________________________________________________________________________
__________________________________________________________________________________________________
Layer (type)                    Output Shape         Param #     Connected to                     
==================================================================================================
bxTokens (InputLayer)           (None, 7)            0                                            
__________________________________________________________________________________________________
bxAffixes (InputLayer)          (None, 12)           0                                            
__________________________________________________________________________________________________
bxSymbols (InputLayer)          (None, 1)            0                                            
__________________________________________________________________________________________________
b1Tokens (InputLayer)           (None, 7)            0                                            
__________________________________________________________________________________________________
b1Affixes (InputLayer)          (None, 12)           0                                            
__________________________________________________________________________________________________
b1Symbols (InputLayer)          (None, 1)            0                                            
__________________________________________________________________________________________________
b0Tokens (InputLayer)           (None, 7)            0                                            
__________________________________________________________________________________________________
b0Affixes (InputLayer)          (None, 12)           0                                            
__________________________________________________________________________________________________
b0Symbols (InputLayer)          (None, 1)            0                                            
__________________________________________________________________________________________________
s0Tokens (InputLayer)           (None, 7)            0                                            
__________________________________________________________________________________________________
s0Affixes (InputLayer)          (None, 12)           0                                            
__________________________________________________________________________________________________
s0Symbols (InputLayer)          (None, 1)            0                                            
__________________________________________________________________________________________________
s1Tokens (InputLayer)           (None, 7)            0                                            
__________________________________________________________________________________________________
s1Affixes (InputLayer)          (None, 12)           0                                            
__________________________________________________________________________________________________
s1Symbols (InputLayer)          (None, 1)            0                                            
__________________________________________________________________________________________________
tokenEmb (Embedding)            (None, 7, 140)       1008560     bxTokens[0][0]                   
                                                                 b1Tokens[0][0]                   
                                                                 b0Tokens[0][0]                   
                                                                 s0Tokens[0][0]                   
                                                                 s1Tokens[0][0]                   
__________________________________________________________________________________________________
affixeseEmb (Embedding)         (None, 12, 14)       41706       bxAffixes[0][0]                  
                                                                 b1Affixes[0][0]                  
                                                                 b0Affixes[0][0]                  
                                                                 s0Affixes[0][0]                  
                                                                 s1Affixes[0][0]                  
__________________________________________________________________________________________________
symbolsEmb (Embedding)          (None, 1, 5)         100         bxSymbols[0][0]                  
                                                                 b1Symbols[0][0]                  
                                                                 b0Symbols[0][0]                  
                                                                 s0Symbols[0][0]                  
                                                                 s1Symbols[0][0]                  
__________________________________________________________________________________________________
flatten_76 (Flatten)            (None, 980)          0           tokenEmb[1][0]                   
__________________________________________________________________________________________________
flatten_77 (Flatten)            (None, 168)          0           affixeseEmb[1][0]                
__________________________________________________________________________________________________
flatten_78 (Flatten)            (None, 5)            0           symbolsEmb[1][0]                 
__________________________________________________________________________________________________
flatten_79 (Flatten)            (None, 980)          0           tokenEmb[2][0]                   
__________________________________________________________________________________________________
flatten_80 (Flatten)            (None, 168)          0           affixeseEmb[2][0]                
__________________________________________________________________________________________________
flatten_81 (Flatten)            (None, 5)            0           symbolsEmb[2][0]                 
__________________________________________________________________________________________________
flatten_82 (Flatten)            (None, 980)          0           tokenEmb[3][0]                   
__________________________________________________________________________________________________
flatten_83 (Flatten)            (None, 168)          0           affixeseEmb[3][0]                
__________________________________________________________________________________________________
flatten_84 (Flatten)            (None, 5)            0           symbolsEmb[3][0]                 
__________________________________________________________________________________________________
flatten_85 (Flatten)            (None, 980)          0           tokenEmb[4][0]                   
__________________________________________________________________________________________________
flatten_86 (Flatten)            (None, 168)          0           affixeseEmb[4][0]                
__________________________________________________________________________________________________
flatten_87 (Flatten)            (None, 5)            0           symbolsEmb[4][0]                 
__________________________________________________________________________________________________
flatten_88 (Flatten)            (None, 980)          0           tokenEmb[5][0]                   
__________________________________________________________________________________________________
flatten_89 (Flatten)            (None, 168)          0           affixeseEmb[5][0]                
__________________________________________________________________________________________________
flatten_90 (Flatten)            (None, 5)            0           symbolsEmb[5][0]                 
__________________________________________________________________________________________________
concatenate_30 (Concatenate)    (None, 1153)         0           flatten_76[0][0]                 
                                                                 flatten_77[0][0]                 
                                                                 flatten_78[0][0]                 
__________________________________________________________________________________________________
concatenate_31 (Concatenate)    (None, 1153)         0           flatten_79[0][0]                 
                                                                 flatten_80[0][0]                 
                                                                 flatten_81[0][0]                 
__________________________________________________________________________________________________
concatenate_32 (Concatenate)    (None, 1153)         0           flatten_82[0][0]                 
                                                                 flatten_83[0][0]                 
                                                                 flatten_84[0][0]                 
__________________________________________________________________________________________________
concatenate_33 (Concatenate)    (None, 1153)         0           flatten_85[0][0]                 
                                                                 flatten_86[0][0]                 
                                                                 flatten_87[0][0]                 
__________________________________________________________________________________________________
concatenate_34 (Concatenate)    (None, 1153)         0           flatten_88[0][0]                 
                                                                 flatten_89[0][0]                 
                                                                 flatten_90[0][0]                 
__________________________________________________________________________________________________
posDense (Dense)                (None, 78)           90012       concatenate_30[0][0]             
                                                                 concatenate_31[0][0]             
                                                                 concatenate_32[0][0]             
                                                                 concatenate_33[0][0]             
                                                                 concatenate_34[0][0]             
__________________________________________________________________________________________________
concatenate_35 (Concatenate)    (None, 390)          0           posDense[1][0]                   
                                                                 posDense[2][0]                   
                                                                 posDense[3][0]                   
                                                                 posDense[4][0]                   
                                                                 posDense[5][0]                   
__________________________________________________________________________________________________
idenDense (Dense)               (None, 30)           11730       concatenate_35[0][0]             
__________________________________________________________________________________________________
idenSoftMax (Dense)             (None, 4)            124         idenDense[0][0]                  
==================================================================================================
Total params: 1,152,232
Trainable params: 1,152,232
Non-trainable params: 0
__________________________________________________________________________________________________
None
==================================================================================================
…
	One occurrence keys in vocabulary 879 / 6199

__________________________________________________________________________________________________
	Optimizer : Adagrad,  learning rate = 0.05
__________________________________________________________________________________________________
__________________________________________________________________________________________________
Layer (type)                    Output Shape         Param #     Connected to                     
==================================================================================================
tokens (InputLayer)             (None, 7)            0                                            
__________________________________________________________________________________________________
affixes (InputLayer)            (None, 12)           0                                            
__________________________________________________________________________________________________
symbol (InputLayer)             (None, 1)            0                                            
__________________________________________________________________________________________________
tokenEmb (Embedding)            (None, 7, 140)       867860      tokens[0][0]                     
__________________________________________________________________________________________________
affixeseEmb (Embedding)         (None, 12, 14)       38542       affixes[0][0]                    
__________________________________________________________________________________________________
symbolsEmb (Embedding)          (None, 1, 5)         100         symbol[0][0]                     
__________________________________________________________________________________________________
flatten_91 (Flatten)            (None, 980)          0           tokenEmb[0][0]                   
__________________________________________________________________________________________________
flatten_92 (Flatten)            (None, 168)          0           affixeseEmb[0][0]                
__________________________________________________________________________________________________
flatten_93 (Flatten)            (None, 5)            0           symbolsEmb[0][0]                 
__________________________________________________________________________________________________
concatenate_36 (Concatenate)    (None, 1153)         0           flatten_91[0][0]                 
                                                                 flatten_92[0][0]                 
                                                                 flatten_93[0][0]                 
__________________________________________________________________________________________________
posDense (Dense)                (None, 78)           90012       concatenate_36[0][0]             
__________________________________________________________________________________________________
dense_6 (Dense)                 (None, 121)          9559        posDense[0][0]                   
==================================================================================================
Total params: 1,006,073
Trainable params: 1,006,073
Non-trainable params: 0
__________________________________________________________________________________________________
None
==================================================================================================

__________________________________________________________________________________________________
	Optimizer : Adagrad,  learning rate = 0.05
__________________________________________________________________________________________________
__________________________________________________________________________________________________
Layer (type)                    Output Shape         Param #     Connected to                     
==================================================================================================
bxTokens (InputLayer)           (None, 7)            0                                            
__________________________________________________________________________________________________
bxAffixes (InputLayer)          (None, 12)           0                                            
__________________________________________________________________________________________________
bxSymbols (InputLayer)          (None, 1)            0                                            
__________________________________________________________________________________________________
b1Tokens (InputLayer)           (None, 7)            0                                            
__________________________________________________________________________________________________
b1Affixes (InputLayer)          (None, 12)           0                                            
__________________________________________________________________________________________________
b1Symbols (InputLayer)          (None, 1)            0                                            
__________________________________________________________________________________________________
b0Tokens (InputLayer)           (None, 7)            0                                            
__________________________________________________________________________________________________
b0Affixes (InputLayer)          (None, 12)           0                                            
__________________________________________________________________________________________________
b0Symbols (InputLayer)          (None, 1)            0                                            
__________________________________________________________________________________________________
s0Tokens (InputLayer)           (None, 7)            0                                            
__________________________________________________________________________________________________
s0Affixes (InputLayer)          (None, 12)           0                                            
__________________________________________________________________________________________________
s0Symbols (InputLayer)          (None, 1)            0                                            
__________________________________________________________________________________________________
s1Tokens (InputLayer)           (None, 7)            0                                            
__________________________________________________________________________________________________
s1Affixes (InputLayer)          (None, 12)           0                                            
__________________________________________________________________________________________________
s1Symbols (InputLayer)          (None, 1)            0                                            
__________________________________________________________________________________________________
tokenEmb (Embedding)            (None, 7, 140)       867860      bxTokens[0][0]                   
                                                                 b1Tokens[0][0]                   
                                                                 b0Tokens[0][0]                   
                                                                 s0Tokens[0][0]                   
                                                                 s1Tokens[0][0]                   
__________________________________________________________________________________________________
affixeseEmb (Embedding)         (None, 12, 14)       38542       bxAffixes[0][0]                  
                                                                 b1Affixes[0][0]                  
                                                                 b0Affixes[0][0]                  
                                                                 s0Affixes[0][0]                  
                                                                 s1Affixes[0][0]                  
__________________________________________________________________________________________________
symbolsEmb (Embedding)          (None, 1, 5)         100         bxSymbols[0][0]                  
                                                                 b1Symbols[0][0]                  
                                                                 b0Symbols[0][0]                  
                                                                 s0Symbols[0][0]                  
                                                                 s1Symbols[0][0]                  
__________________________________________________________________________________________________
flatten_94 (Flatten)            (None, 980)          0           tokenEmb[1][0]                   
__________________________________________________________________________________________________
flatten_95 (Flatten)            (None, 168)          0           affixeseEmb[1][0]                
__________________________________________________________________________________________________
flatten_96 (Flatten)            (None, 5)            0           symbolsEmb[1][0]                 
__________________________________________________________________________________________________
flatten_97 (Flatten)            (None, 980)          0           tokenEmb[2][0]                   
__________________________________________________________________________________________________
flatten_98 (Flatten)            (None, 168)          0           affixeseEmb[2][0]                
__________________________________________________________________________________________________
flatten_99 (Flatten)            (None, 5)            0           symbolsEmb[2][0]                 
__________________________________________________________________________________________________
flatten_100 (Flatten)           (None, 980)          0           tokenEmb[3][0]                   
__________________________________________________________________________________________________
flatten_101 (Flatten)           (None, 168)          0           affixeseEmb[3][0]                
__________________________________________________________________________________________________
flatten_102 (Flatten)           (None, 5)            0           symbolsEmb[3][0]                 
__________________________________________________________________________________________________
flatten_103 (Flatten)           (None, 980)          0           tokenEmb[4][0]                   
__________________________________________________________________________________________________
flatten_104 (Flatten)           (None, 168)          0           affixeseEmb[4][0]                
__________________________________________________________________________________________________
flatten_105 (Flatten)           (None, 5)            0           symbolsEmb[4][0]                 
__________________________________________________________________________________________________
flatten_106 (Flatten)           (None, 980)          0           tokenEmb[5][0]                   
__________________________________________________________________________________________________
flatten_107 (Flatten)           (None, 168)          0           affixeseEmb[5][0]                
__________________________________________________________________________________________________
flatten_108 (Flatten)           (None, 5)            0           symbolsEmb[5][0]                 
__________________________________________________________________________________________________
concatenate_37 (Concatenate)    (None, 1153)         0           flatten_94[0][0]                 
                                                                 flatten_95[0][0]                 
                                                                 flatten_96[0][0]                 
__________________________________________________________________________________________________
concatenate_38 (Concatenate)    (None, 1153)         0           flatten_97[0][0]                 
                                                                 flatten_98[0][0]                 
                                                                 flatten_99[0][0]                 
__________________________________________________________________________________________________
concatenate_39 (Concatenate)    (None, 1153)         0           flatten_100[0][0]                
                                                                 flatten_101[0][0]                
                                                                 flatten_102[0][0]                
__________________________________________________________________________________________________
concatenate_40 (Concatenate)    (None, 1153)         0           flatten_103[0][0]                
                                                                 flatten_104[0][0]                
                                                                 flatten_105[0][0]                
__________________________________________________________________________________________________
concatenate_41 (Concatenate)    (None, 1153)         0           flatten_106[0][0]                
                                                                 flatten_107[0][0]                
                                                                 flatten_108[0][0]                
__________________________________________________________________________________________________
posDense (Dense)                (None, 78)           90012       concatenate_37[0][0]             
                                                                 concatenate_38[0][0]             
                                                                 concatenate_39[0][0]             
                                                                 concatenate_40[0][0]             
                                                                 concatenate_41[0][0]             
__________________________________________________________________________________________________
concatenate_42 (Concatenate)    (None, 390)          0           posDense[1][0]                   
                                                                 posDense[2][0]                   
                                                                 posDense[3][0]                   
                                                                 posDense[4][0]                   
                                                                 posDense[5][0]                   
__________________________________________________________________________________________________
idenDense (Dense)               (None, 30)           11730       concatenate_42[0][0]             
__________________________________________________________________________________________________
idenSoftMax (Dense)             (None, 4)            124         idenDense[0][0]                  
==================================================================================================
Total params: 1,008,368
Trainable params: 1,008,368
Non-trainable params: 0
__________________________________________________________________________________________________
None
==================================================================================================
…
	One occurrence keys in vocabulary 1243 / 4802

__________________________________________________________________________________________________
	Optimizer : Adagrad,  learning rate = 0.05
__________________________________________________________________________________________________
__________________________________________________________________________________________________
Layer (type)                    Output Shape         Param #     Connected to                     
==================================================================================================
tokens (InputLayer)             (None, 7)            0                                            
__________________________________________________________________________________________________
affixes (InputLayer)            (None, 12)           0                                            
__________________________________________________________________________________________________
symbol (InputLayer)             (None, 1)            0                                            
__________________________________________________________________________________________________
tokenEmb (Embedding)            (None, 7, 140)       672280      tokens[0][0]                     
__________________________________________________________________________________________________
affixeseEmb (Embedding)         (None, 12, 14)       8232        affixes[0][0]                    
__________________________________________________________________________________________________
symbolsEmb (Embedding)          (None, 1, 5)         100         symbol[0][0]                     
__________________________________________________________________________________________________
flatten_109 (Flatten)           (None, 980)          0           tokenEmb[0][0]                   
__________________________________________________________________________________________________
flatten_110 (Flatten)           (None, 168)          0           affixeseEmb[0][0]                
__________________________________________________________________________________________________
flatten_111 (Flatten)           (None, 5)            0           symbolsEmb[0][0]                 
__________________________________________________________________________________________________
concatenate_43 (Concatenate)    (None, 1153)         0           flatten_109[0][0]                
                                                                 flatten_110[0][0]                
                                                                 flatten_111[0][0]                
__________________________________________________________________________________________________
posDense (Dense)                (None, 78)           90012       concatenate_43[0][0]             
__________________________________________________________________________________________________
dense_7 (Dense)                 (None, 65)           5135        posDense[0][0]                   
==================================================================================================
Total params: 775,759
Trainable params: 775,759
Non-trainable params: 0
__________________________________________________________________________________________________
None
==================================================================================================

__________________________________________________________________________________________________
	Optimizer : Adagrad,  learning rate = 0.05
__________________________________________________________________________________________________
__________________________________________________________________________________________________
Layer (type)                    Output Shape         Param #     Connected to                     
==================================================================================================
bxTokens (InputLayer)           (None, 7)            0                                            
__________________________________________________________________________________________________
bxAffixes (InputLayer)          (None, 12)           0                                            
__________________________________________________________________________________________________
bxSymbols (InputLayer)          (None, 1)            0                                            
__________________________________________________________________________________________________
b1Tokens (InputLayer)           (None, 7)            0                                            
__________________________________________________________________________________________________
b1Affixes (InputLayer)          (None, 12)           0                                            
__________________________________________________________________________________________________
b1Symbols (InputLayer)          (None, 1)            0                                            
__________________________________________________________________________________________________
b0Tokens (InputLayer)           (None, 7)            0                                            
__________________________________________________________________________________________________
b0Affixes (InputLayer)          (None, 12)           0                                            
__________________________________________________________________________________________________
b0Symbols (InputLayer)          (None, 1)            0                                            
__________________________________________________________________________________________________
s0Tokens (InputLayer)           (None, 7)            0                                            
__________________________________________________________________________________________________
s0Affixes (InputLayer)          (None, 12)           0                                            
__________________________________________________________________________________________________
s0Symbols (InputLayer)          (None, 1)            0                                            
__________________________________________________________________________________________________
s1Tokens (InputLayer)           (None, 7)            0                                            
__________________________________________________________________________________________________
s1Affixes (InputLayer)          (None, 12)           0                                            
__________________________________________________________________________________________________
s1Symbols (InputLayer)          (None, 1)            0                                            
__________________________________________________________________________________________________
tokenEmb (Embedding)            (None, 7, 140)       672280      bxTokens[0][0]                   
                                                                 b1Tokens[0][0]                   
                                                                 b0Tokens[0][0]                   
                                                                 s0Tokens[0][0]                   
                                                                 s1Tokens[0][0]                   
__________________________________________________________________________________________________
affixeseEmb (Embedding)         (None, 12, 14)       8232        bxAffixes[0][0]                  
                                                                 b1Affixes[0][0]                  
                                                                 b0Affixes[0][0]                  
                                                                 s0Affixes[0][0]                  
                                                                 s1Affixes[0][0]                  
__________________________________________________________________________________________________
symbolsEmb (Embedding)          (None, 1, 5)         100         bxSymbols[0][0]                  
                                                                 b1Symbols[0][0]                  
                                                                 b0Symbols[0][0]                  
                                                                 s0Symbols[0][0]                  
                                                                 s1Symbols[0][0]                  
__________________________________________________________________________________________________
flatten_112 (Flatten)           (None, 980)          0           tokenEmb[1][0]                   
__________________________________________________________________________________________________
flatten_113 (Flatten)           (None, 168)          0           affixeseEmb[1][0]                
__________________________________________________________________________________________________
flatten_114 (Flatten)           (None, 5)            0           symbolsEmb[1][0]                 
__________________________________________________________________________________________________
flatten_115 (Flatten)           (None, 980)          0           tokenEmb[2][0]                   
__________________________________________________________________________________________________
flatten_116 (Flatten)           (None, 168)          0           affixeseEmb[2][0]                
__________________________________________________________________________________________________
flatten_117 (Flatten)           (None, 5)            0           symbolsEmb[2][0]                 
__________________________________________________________________________________________________
flatten_118 (Flatten)           (None, 980)          0           tokenEmb[3][0]                   
__________________________________________________________________________________________________
flatten_119 (Flatten)           (None, 168)          0           affixeseEmb[3][0]                
__________________________________________________________________________________________________
flatten_120 (Flatten)           (None, 5)            0           symbolsEmb[3][0]                 
__________________________________________________________________________________________________
flatten_121 (Flatten)           (None, 980)          0           tokenEmb[4][0]                   
__________________________________________________________________________________________________
flatten_122 (Flatten)           (None, 168)          0           affixeseEmb[4][0]                
__________________________________________________________________________________________________
flatten_123 (Flatten)           (None, 5)            0           symbolsEmb[4][0]                 
__________________________________________________________________________________________________
flatten_124 (Flatten)           (None, 980)          0           tokenEmb[5][0]                   
__________________________________________________________________________________________________
flatten_125 (Flatten)           (None, 168)          0           affixeseEmb[5][0]                
__________________________________________________________________________________________________
flatten_126 (Flatten)           (None, 5)            0           symbolsEmb[5][0]                 
__________________________________________________________________________________________________
concatenate_44 (Concatenate)    (None, 1153)         0           flatten_112[0][0]                
                                                                 flatten_113[0][0]                
                                                                 flatten_114[0][0]                
__________________________________________________________________________________________________
concatenate_45 (Concatenate)    (None, 1153)         0           flatten_115[0][0]                
                                                                 flatten_116[0][0]                
                                                                 flatten_117[0][0]                
__________________________________________________________________________________________________
concatenate_46 (Concatenate)    (None, 1153)         0           flatten_118[0][0]                
                                                                 flatten_119[0][0]                
                                                                 flatten_120[0][0]                
__________________________________________________________________________________________________
concatenate_47 (Concatenate)    (None, 1153)         0           flatten_121[0][0]                
                                                                 flatten_122[0][0]                
                                                                 flatten_123[0][0]                
__________________________________________________________________________________________________
concatenate_48 (Concatenate)    (None, 1153)         0           flatten_124[0][0]                
                                                                 flatten_125[0][0]                
                                                                 flatten_126[0][0]                
__________________________________________________________________________________________________
posDense (Dense)                (None, 78)           90012       concatenate_44[0][0]             
                                                                 concatenate_45[0][0]             
                                                                 concatenate_46[0][0]             
                                                                 concatenate_47[0][0]             
                                                                 concatenate_48[0][0]             
__________________________________________________________________________________________________
concatenate_49 (Concatenate)    (None, 390)          0           posDense[1][0]                   
                                                                 posDense[2][0]                   
                                                                 posDense[3][0]                   
                                                                 posDense[4][0]                   
                                                                 posDense[5][0]                   
__________________________________________________________________________________________________
idenDense (Dense)               (None, 30)           11730       concatenate_49[0][0]             
__________________________________________________________________________________________________
idenSoftMax (Dense)             (None, 4)            124         idenDense[0][0]                  
==================================================================================================
Total params: 782,478
Trainable params: 782,478
Non-trainable params: 0
__________________________________________________________________________________________________
None
==================================================================================================
…
	One occurrence keys in vocabulary 2022 / 14211

__________________________________________________________________________________________________
	Optimizer : Adagrad,  learning rate = 0.05
__________________________________________________________________________________________________
__________________________________________________________________________________________________
Layer (type)                    Output Shape         Param #     Connected to                     
==================================================================================================
tokens (InputLayer)             (None, 7)            0                                            
__________________________________________________________________________________________________
affixes (InputLayer)            (None, 12)           0                                            
__________________________________________________________________________________________________
symbol (InputLayer)             (None, 1)            0                                            
__________________________________________________________________________________________________
tokenEmb (Embedding)            (None, 7, 140)       1989540     tokens[0][0]                     
__________________________________________________________________________________________________
affixeseEmb (Embedding)         (None, 12, 14)       67018       affixes[0][0]                    
__________________________________________________________________________________________________
symbolsEmb (Embedding)          (None, 1, 5)         100         symbol[0][0]                     
__________________________________________________________________________________________________
flatten_127 (Flatten)           (None, 980)          0           tokenEmb[0][0]                   
__________________________________________________________________________________________________
flatten_128 (Flatten)           (None, 168)          0           affixeseEmb[0][0]                
__________________________________________________________________________________________________
flatten_129 (Flatten)           (None, 5)            0           symbolsEmb[0][0]                 
__________________________________________________________________________________________________
concatenate_50 (Concatenate)    (None, 1153)         0           flatten_127[0][0]                
                                                                 flatten_128[0][0]                
                                                                 flatten_129[0][0]                
__________________________________________________________________________________________________
posDense (Dense)                (None, 78)           90012       concatenate_50[0][0]             
__________________________________________________________________________________________________
dense_8 (Dense)                 (None, 216)          17064       posDense[0][0]                   
==================================================================================================
Total params: 2,163,734
Trainable params: 2,163,734
Non-trainable params: 0
__________________________________________________________________________________________________
None
==================================================================================================

__________________________________________________________________________________________________
	Optimizer : Adagrad,  learning rate = 0.05
__________________________________________________________________________________________________
__________________________________________________________________________________________________
Layer (type)                    Output Shape         Param #     Connected to                     
==================================================================================================
bxTokens (InputLayer)           (None, 7)            0                                            
__________________________________________________________________________________________________
bxAffixes (InputLayer)          (None, 12)           0                                            
__________________________________________________________________________________________________
bxSymbols (InputLayer)          (None, 1)            0                                            
__________________________________________________________________________________________________
b1Tokens (InputLayer)           (None, 7)            0                                            
__________________________________________________________________________________________________
b1Affixes (InputLayer)          (None, 12)           0                                            
__________________________________________________________________________________________________
b1Symbols (InputLayer)          (None, 1)            0                                            
__________________________________________________________________________________________________
b0Tokens (InputLayer)           (None, 7)            0                                            
__________________________________________________________________________________________________
b0Affixes (InputLayer)          (None, 12)           0                                            
__________________________________________________________________________________________________
b0Symbols (InputLayer)          (None, 1)            0                                            
__________________________________________________________________________________________________
s0Tokens (InputLayer)           (None, 7)            0                                            
__________________________________________________________________________________________________
s0Affixes (InputLayer)          (None, 12)           0                                            
__________________________________________________________________________________________________
s0Symbols (InputLayer)          (None, 1)            0                                            
__________________________________________________________________________________________________
s1Tokens (InputLayer)           (None, 7)            0                                            
__________________________________________________________________________________________________
s1Affixes (InputLayer)          (None, 12)           0                                            
__________________________________________________________________________________________________
s1Symbols (InputLayer)          (None, 1)            0                                            
__________________________________________________________________________________________________
tokenEmb (Embedding)            (None, 7, 140)       1989540     bxTokens[0][0]                   
                                                                 b1Tokens[0][0]                   
                                                                 b0Tokens[0][0]                   
                                                                 s0Tokens[0][0]                   
                                                                 s1Tokens[0][0]                   
__________________________________________________________________________________________________
affixeseEmb (Embedding)         (None, 12, 14)       67018       bxAffixes[0][0]                  
                                                                 b1Affixes[0][0]                  
                                                                 b0Affixes[0][0]                  
                                                                 s0Affixes[0][0]                  
                                                                 s1Affixes[0][0]                  
__________________________________________________________________________________________________
symbolsEmb (Embedding)          (None, 1, 5)         100         bxSymbols[0][0]                  
                                                                 b1Symbols[0][0]                  
                                                                 b0Symbols[0][0]                  
                                                                 s0Symbols[0][0]                  
                                                                 s1Symbols[0][0]                  
__________________________________________________________________________________________________
flatten_130 (Flatten)           (None, 980)          0           tokenEmb[1][0]                   
__________________________________________________________________________________________________
flatten_131 (Flatten)           (None, 168)          0           affixeseEmb[1][0]                
__________________________________________________________________________________________________
flatten_132 (Flatten)           (None, 5)            0           symbolsEmb[1][0]                 
__________________________________________________________________________________________________
flatten_133 (Flatten)           (None, 980)          0           tokenEmb[2][0]                   
__________________________________________________________________________________________________
flatten_134 (Flatten)           (None, 168)          0           affixeseEmb[2][0]                
__________________________________________________________________________________________________
flatten_135 (Flatten)           (None, 5)            0           symbolsEmb[2][0]                 
__________________________________________________________________________________________________
flatten_136 (Flatten)           (None, 980)          0           tokenEmb[3][0]                   
__________________________________________________________________________________________________
flatten_137 (Flatten)           (None, 168)          0           affixeseEmb[3][0]                
__________________________________________________________________________________________________
flatten_138 (Flatten)           (None, 5)            0           symbolsEmb[3][0]                 
__________________________________________________________________________________________________
flatten_139 (Flatten)           (None, 980)          0           tokenEmb[4][0]                   
__________________________________________________________________________________________________
flatten_140 (Flatten)           (None, 168)          0           affixeseEmb[4][0]                
__________________________________________________________________________________________________
flatten_141 (Flatten)           (None, 5)            0           symbolsEmb[4][0]                 
__________________________________________________________________________________________________
flatten_142 (Flatten)           (None, 980)          0           tokenEmb[5][0]                   
__________________________________________________________________________________________________
flatten_143 (Flatten)           (None, 168)          0           affixeseEmb[5][0]                
__________________________________________________________________________________________________
flatten_144 (Flatten)           (None, 5)            0           symbolsEmb[5][0]                 
__________________________________________________________________________________________________
concatenate_51 (Concatenate)    (None, 1153)         0           flatten_130[0][0]                
                                                                 flatten_131[0][0]                
                                                                 flatten_132[0][0]                
__________________________________________________________________________________________________
concatenate_52 (Concatenate)    (None, 1153)         0           flatten_133[0][0]                
                                                                 flatten_134[0][0]                
                                                                 flatten_135[0][0]                
__________________________________________________________________________________________________
concatenate_53 (Concatenate)    (None, 1153)         0           flatten_136[0][0]                
                                                                 flatten_137[0][0]                
                                                                 flatten_138[0][0]                
__________________________________________________________________________________________________
concatenate_54 (Concatenate)    (None, 1153)         0           flatten_139[0][0]                
                                                                 flatten_140[0][0]                
                                                                 flatten_141[0][0]                
__________________________________________________________________________________________________
concatenate_55 (Concatenate)    (None, 1153)         0           flatten_142[0][0]                
                                                                 flatten_143[0][0]                
                                                                 flatten_144[0][0]                
__________________________________________________________________________________________________
posDense (Dense)                (None, 78)           90012       concatenate_51[0][0]             
                                                                 concatenate_52[0][0]             
                                                                 concatenate_53[0][0]             
                                                                 concatenate_54[0][0]             
                                                                 concatenate_55[0][0]             
__________________________________________________________________________________________________
concatenate_56 (Concatenate)    (None, 390)          0           posDense[1][0]                   
                                                                 posDense[2][0]                   
                                                                 posDense[3][0]                   
                                                                 posDense[4][0]                   
                                                                 posDense[5][0]                   
__________________________________________________________________________________________________
idenDense (Dense)               (None, 30)           11730       concatenate_56[0][0]             
__________________________________________________________________________________________________
idenSoftMax (Dense)             (None, 4)            124         idenDense[0][0]                  
==================================================================================================
Total params: 2,158,524
Trainable params: 2,158,524
Non-trainable params: 0
__________________________________________________________________________________________________
None
==================================================================================================
…
	One occurrence keys in vocabulary 1243 / 9967

__________________________________________________________________________________________________
	Optimizer : Adagrad,  learning rate = 0.05
__________________________________________________________________________________________________
__________________________________________________________________________________________________
Layer (type)                    Output Shape         Param #     Connected to                     
==================================================================================================
tokens (InputLayer)             (None, 7)            0                                            
__________________________________________________________________________________________________
affixes (InputLayer)            (None, 12)           0                                            
__________________________________________________________________________________________________
symbol (InputLayer)             (None, 1)            0                                            
__________________________________________________________________________________________________
tokenEmb (Embedding)            (None, 7, 140)       1395380     tokens[0][0]                     
__________________________________________________________________________________________________
affixeseEmb (Embedding)         (None, 12, 14)       8358        affixes[0][0]                    
__________________________________________________________________________________________________
symbolsEmb (Embedding)          (None, 1, 5)         100         symbol[0][0]                     
__________________________________________________________________________________________________
flatten_145 (Flatten)           (None, 980)          0           tokenEmb[0][0]                   
__________________________________________________________________________________________________
flatten_146 (Flatten)           (None, 168)          0           affixeseEmb[0][0]                
__________________________________________________________________________________________________
flatten_147 (Flatten)           (None, 5)            0           symbolsEmb[0][0]                 
__________________________________________________________________________________________________
concatenate_57 (Concatenate)    (None, 1153)         0           flatten_145[0][0]                
                                                                 flatten_146[0][0]                
                                                                 flatten_147[0][0]                
__________________________________________________________________________________________________
posDense (Dense)                (None, 78)           90012       concatenate_57[0][0]             
__________________________________________________________________________________________________
dense_9 (Dense)                 (None, 242)          19118       posDense[0][0]                   
==================================================================================================
Total params: 1,512,968
Trainable params: 1,512,968
Non-trainable params: 0
__________________________________________________________________________________________________
None
==================================================================================================

__________________________________________________________________________________________________
	Optimizer : Adagrad,  learning rate = 0.05
__________________________________________________________________________________________________
__________________________________________________________________________________________________
Layer (type)                    Output Shape         Param #     Connected to                     
==================================================================================================
bxTokens (InputLayer)           (None, 7)            0                                            
__________________________________________________________________________________________________
bxAffixes (InputLayer)          (None, 12)           0                                            
__________________________________________________________________________________________________
bxSymbols (InputLayer)          (None, 1)            0                                            
__________________________________________________________________________________________________
b1Tokens (InputLayer)           (None, 7)            0                                            
__________________________________________________________________________________________________
b1Affixes (InputLayer)          (None, 12)           0                                            
__________________________________________________________________________________________________
b1Symbols (InputLayer)          (None, 1)            0                                            
__________________________________________________________________________________________________
b0Tokens (InputLayer)           (None, 7)            0                                            
__________________________________________________________________________________________________
b0Affixes (InputLayer)          (None, 12)           0                                            
__________________________________________________________________________________________________
b0Symbols (InputLayer)          (None, 1)            0                                            
__________________________________________________________________________________________________
s0Tokens (InputLayer)           (None, 7)            0                                            
__________________________________________________________________________________________________
s0Affixes (InputLayer)          (None, 12)           0                                            
__________________________________________________________________________________________________
s0Symbols (InputLayer)          (None, 1)            0                                            
__________________________________________________________________________________________________
s1Tokens (InputLayer)           (None, 7)            0                                            
__________________________________________________________________________________________________
s1Affixes (InputLayer)          (None, 12)           0                                            
__________________________________________________________________________________________________
s1Symbols (InputLayer)          (None, 1)            0                                            
__________________________________________________________________________________________________
tokenEmb (Embedding)            (None, 7, 140)       1395380     bxTokens[0][0]                   
                                                                 b1Tokens[0][0]                   
                                                                 b0Tokens[0][0]                   
                                                                 s0Tokens[0][0]                   
                                                                 s1Tokens[0][0]                   
__________________________________________________________________________________________________
affixeseEmb (Embedding)         (None, 12, 14)       8358        bxAffixes[0][0]                  
                                                                 b1Affixes[0][0]                  
                                                                 b0Affixes[0][0]                  
                                                                 s0Affixes[0][0]                  
                                                                 s1Affixes[0][0]                  
__________________________________________________________________________________________________
symbolsEmb (Embedding)          (None, 1, 5)         100         bxSymbols[0][0]                  
                                                                 b1Symbols[0][0]                  
                                                                 b0Symbols[0][0]                  
                                                                 s0Symbols[0][0]                  
                                                                 s1Symbols[0][0]                  
__________________________________________________________________________________________________
flatten_148 (Flatten)           (None, 980)          0           tokenEmb[1][0]                   
__________________________________________________________________________________________________
flatten_149 (Flatten)           (None, 168)          0           affixeseEmb[1][0]                
__________________________________________________________________________________________________
flatten_150 (Flatten)           (None, 5)            0           symbolsEmb[1][0]                 
__________________________________________________________________________________________________
flatten_151 (Flatten)           (None, 980)          0           tokenEmb[2][0]                   
__________________________________________________________________________________________________
flatten_152 (Flatten)           (None, 168)          0           affixeseEmb[2][0]                
__________________________________________________________________________________________________
flatten_153 (Flatten)           (None, 5)            0           symbolsEmb[2][0]                 
__________________________________________________________________________________________________
flatten_154 (Flatten)           (None, 980)          0           tokenEmb[3][0]                   
__________________________________________________________________________________________________
flatten_155 (Flatten)           (None, 168)          0           affixeseEmb[3][0]                
__________________________________________________________________________________________________
flatten_156 (Flatten)           (None, 5)            0           symbolsEmb[3][0]                 
__________________________________________________________________________________________________
flatten_157 (Flatten)           (None, 980)          0           tokenEmb[4][0]                   
__________________________________________________________________________________________________
flatten_158 (Flatten)           (None, 168)          0           affixeseEmb[4][0]                
__________________________________________________________________________________________________
flatten_159 (Flatten)           (None, 5)            0           symbolsEmb[4][0]                 
__________________________________________________________________________________________________
flatten_160 (Flatten)           (None, 980)          0           tokenEmb[5][0]                   
__________________________________________________________________________________________________
flatten_161 (Flatten)           (None, 168)          0           affixeseEmb[5][0]                
__________________________________________________________________________________________________
flatten_162 (Flatten)           (None, 5)            0           symbolsEmb[5][0]                 
__________________________________________________________________________________________________
concatenate_58 (Concatenate)    (None, 1153)         0           flatten_148[0][0]                
                                                                 flatten_149[0][0]                
                                                                 flatten_150[0][0]                
__________________________________________________________________________________________________
concatenate_59 (Concatenate)    (None, 1153)         0           flatten_151[0][0]                
                                                                 flatten_152[0][0]                
                                                                 flatten_153[0][0]                
__________________________________________________________________________________________________
concatenate_60 (Concatenate)    (None, 1153)         0           flatten_154[0][0]                
                                                                 flatten_155[0][0]                
                                                                 flatten_156[0][0]                
__________________________________________________________________________________________________
concatenate_61 (Concatenate)    (None, 1153)         0           flatten_157[0][0]                
                                                                 flatten_158[0][0]                
                                                                 flatten_159[0][0]                
__________________________________________________________________________________________________
concatenate_62 (Concatenate)    (None, 1153)         0           flatten_160[0][0]                
                                                                 flatten_161[0][0]                
                                                                 flatten_162[0][0]                
__________________________________________________________________________________________________
posDense (Dense)                (None, 78)           90012       concatenate_58[0][0]             
                                                                 concatenate_59[0][0]             
                                                                 concatenate_60[0][0]             
                                                                 concatenate_61[0][0]             
                                                                 concatenate_62[0][0]             
__________________________________________________________________________________________________
concatenate_63 (Concatenate)    (None, 390)          0           posDense[1][0]                   
                                                                 posDense[2][0]                   
                                                                 posDense[3][0]                   
                                                                 posDense[4][0]                   
                                                                 posDense[5][0]                   
__________________________________________________________________________________________________
idenDense (Dense)               (None, 30)           11730       concatenate_63[0][0]             
__________________________________________________________________________________________________
idenSoftMax (Dense)             (None, 4)            124         idenDense[0][0]                  
==================================================================================================
Total params: 1,505,704
Trainable params: 1,505,704
Non-trainable params: 0
__________________________________________________________________________________________________
None
==================================================================================================
…
	One occurrence keys in vocabulary 231 / 2010

__________________________________________________________________________________________________
	Optimizer : Adagrad,  learning rate = 0.05
__________________________________________________________________________________________________
__________________________________________________________________________________________________
Layer (type)                    Output Shape         Param #     Connected to                     
==================================================================================================
tokens (InputLayer)             (None, 7)            0                                            
__________________________________________________________________________________________________
affixes (InputLayer)            (None, 12)           0                                            
__________________________________________________________________________________________________
symbol (InputLayer)             (None, 1)            0                                            
__________________________________________________________________________________________________
tokenEmb (Embedding)            (None, 7, 140)       281400      tokens[0][0]                     
__________________________________________________________________________________________________
affixeseEmb (Embedding)         (None, 12, 14)       3164        affixes[0][0]                    
__________________________________________________________________________________________________
symbolsEmb (Embedding)          (None, 1, 5)         100         symbol[0][0]                     
__________________________________________________________________________________________________
flatten_163 (Flatten)           (None, 980)          0           tokenEmb[0][0]                   
__________________________________________________________________________________________________
flatten_164 (Flatten)           (None, 168)          0           affixeseEmb[0][0]                
__________________________________________________________________________________________________
flatten_165 (Flatten)           (None, 5)            0           symbolsEmb[0][0]                 
__________________________________________________________________________________________________
concatenate_64 (Concatenate)    (None, 1153)         0           flatten_163[0][0]                
                                                                 flatten_164[0][0]                
                                                                 flatten_165[0][0]                
__________________________________________________________________________________________________
posDense (Dense)                (None, 78)           90012       concatenate_64[0][0]             
__________________________________________________________________________________________________
dense_10 (Dense)                (None, 44)           3476        posDense[0][0]                   
==================================================================================================
Total params: 378,152
Trainable params: 378,152
Non-trainable params: 0
__________________________________________________________________________________________________
None
==================================================================================================

__________________________________________________________________________________________________
	Optimizer : Adagrad,  learning rate = 0.05
__________________________________________________________________________________________________
__________________________________________________________________________________________________
Layer (type)                    Output Shape         Param #     Connected to                     
==================================================================================================
bxTokens (InputLayer)           (None, 7)            0                                            
__________________________________________________________________________________________________
bxAffixes (InputLayer)          (None, 12)           0                                            
__________________________________________________________________________________________________
bxSymbols (InputLayer)          (None, 1)            0                                            
__________________________________________________________________________________________________
b1Tokens (InputLayer)           (None, 7)            0                                            
__________________________________________________________________________________________________
b1Affixes (InputLayer)          (None, 12)           0                                            
__________________________________________________________________________________________________
b1Symbols (InputLayer)          (None, 1)            0                                            
__________________________________________________________________________________________________
b0Tokens (InputLayer)           (None, 7)            0                                            
__________________________________________________________________________________________________
b0Affixes (InputLayer)          (None, 12)           0                                            
__________________________________________________________________________________________________
b0Symbols (InputLayer)          (None, 1)            0                                            
__________________________________________________________________________________________________
s0Tokens (InputLayer)           (None, 7)            0                                            
__________________________________________________________________________________________________
s0Affixes (InputLayer)          (None, 12)           0                                            
__________________________________________________________________________________________________
s0Symbols (InputLayer)          (None, 1)            0                                            
__________________________________________________________________________________________________
s1Tokens (InputLayer)           (None, 7)            0                                            
__________________________________________________________________________________________________
s1Affixes (InputLayer)          (None, 12)           0                                            
__________________________________________________________________________________________________
s1Symbols (InputLayer)          (None, 1)            0                                            
__________________________________________________________________________________________________
tokenEmb (Embedding)            (None, 7, 140)       281400      bxTokens[0][0]                   
                                                                 b1Tokens[0][0]                   
                                                                 b0Tokens[0][0]                   
                                                                 s0Tokens[0][0]                   
                                                                 s1Tokens[0][0]                   
__________________________________________________________________________________________________
affixeseEmb (Embedding)         (None, 12, 14)       3164        bxAffixes[0][0]                  
                                                                 b1Affixes[0][0]                  
                                                                 b0Affixes[0][0]                  
                                                                 s0Affixes[0][0]                  
                                                                 s1Affixes[0][0]                  
__________________________________________________________________________________________________
symbolsEmb (Embedding)          (None, 1, 5)         100         bxSymbols[0][0]                  
                                                                 b1Symbols[0][0]                  
                                                                 b0Symbols[0][0]                  
                                                                 s0Symbols[0][0]                  
                                                                 s1Symbols[0][0]                  
__________________________________________________________________________________________________
flatten_166 (Flatten)           (None, 980)          0           tokenEmb[1][0]                   
__________________________________________________________________________________________________
flatten_167 (Flatten)           (None, 168)          0           affixeseEmb[1][0]                
__________________________________________________________________________________________________
flatten_168 (Flatten)           (None, 5)            0           symbolsEmb[1][0]                 
__________________________________________________________________________________________________
flatten_169 (Flatten)           (None, 980)          0           tokenEmb[2][0]                   
__________________________________________________________________________________________________
flatten_170 (Flatten)           (None, 168)          0           affixeseEmb[2][0]                
__________________________________________________________________________________________________
flatten_171 (Flatten)           (None, 5)            0           symbolsEmb[2][0]                 
__________________________________________________________________________________________________
flatten_172 (Flatten)           (None, 980)          0           tokenEmb[3][0]                   
…
s1Tokens (InputLayer)           (None, 7)            0                                            
__________________________________________________________________________________________________
s1Affixes (InputLayer)          (None, 12)           0                                            
__________________________________________________________________________________________________
s1Capitalization (InputLayer)   (None, 3)            0                                            
__________________________________________________________________________________________________
s1Symbols (InputLayer)          (None, 1)            0                                            
__________________________________________________________________________________________________
tokenEmb (Embedding)            (None, 7, 83)        903040      bxTokens[0][0]                   
                                                                 b1Tokens[0][0]                   
                                                                 b0Tokens[0][0]                   
                                                                 s0Tokens[0][0]                   
                                                                 s1Tokens[0][0]                   
__________________________________________________________________________________________________
affixeseEmb (Embedding)         (None, 12, 13)       54912       bxAffixes[0][0]                  
                                                                 b1Affixes[0][0]                  
                                                                 b0Affixes[0][0]                  
                                                                 s0Affixes[0][0]                  
                                                                 s1Affixes[0][0]                  
__________________________________________________________________________________________________
capitalizationEmb (Embedding)   (None, 3, 3)         12          bxCapitalization[0][0]           
                                                                 b1Capitalization[0][0]           
                                                                 b0Capitalization[0][0]           
                                                                 s0Capitalization[0][0]           
                                                                 s1Capitalization[0][0]           
__________________________________________________________________________________________________
symbolsEmb (Embedding)          (None, 1, 8)         160         bxSymbols[0][0]                  
                                                                 b1Symbols[0][0]                  
                                                                 b0Symbols[0][0]                  
                                                                 s0Symbols[0][0]                  
                                                                 s1Symbols[0][0]                  
__________________________________________________________________________________________________
flatten_731 (Flatten)           (None, 581)          0           tokenEmb[1][0]                   
__________________________________________________________________________________________________
flatten_732 (Flatten)           (None, 156)          0           affixeseEmb[1][0]                
__________________________________________________________________________________________________
flatten_733 (Flatten)           (None, 9)            0           capitalizationEmb[1][0]          
__________________________________________________________________________________________________
flatten_734 (Flatten)           (None, 8)            0           symbolsEmb[1][0]                 
__________________________________________________________________________________________________
flatten_735 (Flatten)           (None, 581)          0           tokenEmb[2][0]                   
__________________________________________________________________________________________________
flatten_736 (Flatten)           (None, 156)          0           affixeseEmb[2][0]                
__________________________________________________________________________________________________
flatten_737 (Flatten)           (None, 9)            0           capitalizationEmb[2][0]          
__________________________________________________________________________________________________
flatten_738 (Flatten)           (None, 8)            0           symbolsEmb[2][0]                 
__________________________________________________________________________________________________
flatten_739 (Flatten)           (None, 581)          0           tokenEmb[3][0]                   
__________________________________________________________________________________________________
flatten_740 (Flatten)           (None, 156)          0           affixeseEmb[3][0]                
__________________________________________________________________________________________________
flatten_741 (Flatten)           (None, 9)            0           capitalizationEmb[3][0]          
__________________________________________________________________________________________________
flatten_742 (Flatten)           (None, 8)            0           symbolsEmb[3][0]                 
__________________________________________________________________________________________________
flatten_743 (Flatten)           (None, 581)          0           tokenEmb[4][0]                   
__________________________________________________________________________________________________
flatten_744 (Flatten)           (None, 156)          0           affixeseEmb[4][0]                
__________________________________________________________________________________________________
flatten_745 (Flatten)           (None, 9)            0           capitalizationEmb[4][0]          
__________________________________________________________________________________________________
flatten_746 (Flatten)           (None, 8)            0           symbolsEmb[4][0]                 
__________________________________________________________________________________________________
flatten_747 (Flatten)           (None, 581)          0           tokenEmb[5][0]                   
__________________________________________________________________________________________________
flatten_748 (Flatten)           (None, 156)          0           affixeseEmb[5][0]                
__________________________________________________________________________________________________
flatten_749 (Flatten)           (None, 9)            0           capitalizationEmb[5][0]          
__________________________________________________________________________________________________
flatten_750 (Flatten)           (None, 8)            0           symbolsEmb[5][0]                 
__________________________________________________________________________________________________
concatenate_247 (Concatenate)   (None, 754)          0           flatten_731[0][0]                
                                                                 flatten_732[0][0]                
                                                                 flatten_733[0][0]                
                                                                 flatten_734[0][0]                
__________________________________________________________________________________________________
concatenate_248 (Concatenate)   (None, 754)          0           flatten_735[0][0]                
                                                                 flatten_736[0][0]                
                                                                 flatten_737[0][0]                
                                                                 flatten_738[0][0]                
__________________________________________________________________________________________________
concatenate_249 (Concatenate)   (None, 754)          0           flatten_739[0][0]                
                                                                 flatten_740[0][0]                
                                                                 flatten_741[0][0]                
                                                                 flatten_742[0][0]                
__________________________________________________________________________________________________
concatenate_250 (Concatenate)   (None, 754)          0           flatten_743[0][0]                
                                                                 flatten_744[0][0]                
                                                                 flatten_745[0][0]                
                                                                 flatten_746[0][0]                
__________________________________________________________________________________________________
concatenate_251 (Concatenate)   (None, 754)          0           flatten_747[0][0]                
                                                                 flatten_748[0][0]                
                                                                 flatten_749[0][0]                
                                                                 flatten_750[0][0]                
__________________________________________________________________________________________________
posDense (Dense)                (None, 90)           67950       concatenate_247[0][0]            
                                                                 concatenate_248[0][0]            
                                                                 concatenate_249[0][0]            
                                                                 concatenate_250[0][0]            
                                                                 concatenate_251[0][0]            
__________________________________________________________________________________________________
concatenate_252 (Concatenate)   (None, 450)          0           posDense[1][0]                   
                                                                 posDense[2][0]                   
                                                                 posDense[3][0]                   
                                                                 posDense[4][0]                   
                                                                 posDense[5][0]                   
__________________________________________________________________________________________________
idenDense (Dense)               (None, 64)           28864       concatenate_252[0][0]            
__________________________________________________________________________________________________
idenSoftMax (Dense)             (None, 4)            260         idenDense[0][0]                  
==================================================================================================
Total params: 1,055,198
Trainable params: 1,055,198
Non-trainable params: 0
__________________________________________________________________________________________________
None
==================================================================================================
…
	One occurrence keys in vocabulary 1256 / 10287

__________________________________________________________________________________________________
	Optimizer : Adagrad,  learning rate = 0.04
__________________________________________________________________________________________________
__________________________________________________________________________________________________
Layer (type)                    Output Shape         Param #     Connected to                     
==================================================================================================
tokens (InputLayer)             (None, 7)            0                                            
__________________________________________________________________________________________________
affixes (InputLayer)            (None, 12)           0                                            
__________________________________________________________________________________________________
capitalization (InputLayer)     (None, 3)            0                                            
__________________________________________________________________________________________________
symbol (InputLayer)             (None, 1)            0                                            
__________________________________________________________________________________________________
tokenEmb (Embedding)            (None, 7, 83)        853821      tokens[0][0]                     
__________________________________________________________________________________________________
affixeseEmb (Embedding)         (None, 12, 13)       47294       affixes[0][0]                    
__________________________________________________________________________________________________
capitalizationEmb (Embedding)   (None, 3, 3)         12          capitalization[0][0]             
__________________________________________________________________________________________________
symbolsEmb (Embedding)          (None, 1, 8)         160         symbol[0][0]                     
__________________________________________________________________________________________________
flatten_751 (Flatten)           (None, 581)          0           tokenEmb[0][0]                   
__________________________________________________________________________________________________
flatten_752 (Flatten)           (None, 156)          0           affixeseEmb[0][0]                
__________________________________________________________________________________________________
flatten_753 (Flatten)           (None, 9)            0           capitalizationEmb[0][0]          
__________________________________________________________________________________________________
flatten_754 (Flatten)           (None, 8)            0           symbolsEmb[0][0]                 
__________________________________________________________________________________________________
concatenate_253 (Concatenate)   (None, 754)          0           flatten_751[0][0]                
                                                                 flatten_752[0][0]                
                                                                 flatten_753[0][0]                
                                                                 flatten_754[0][0]                
__________________________________________________________________________________________________
posDense (Dense)                (None, 90)           67950       concatenate_253[0][0]            
__________________________________________________________________________________________________
dense_37 (Dense)                (None, 11)           1001        posDense[0][0]                   
==================================================================================================
Total params: 970,238
Trainable params: 970,238
Non-trainable params: 0
__________________________________________________________________________________________________
None
==================================================================================================

__________________________________________________________________________________________________
	Optimizer : Adagrad,  learning rate = 0.04
__________________________________________________________________________________________________
__________________________________________________________________________________________________
Layer (type)                    Output Shape         Param #     Connected to                     
==================================================================================================
bxTokens (InputLayer)           (None, 7)            0                                            
__________________________________________________________________________________________________
bxAffixes (InputLayer)          (None, 12)           0                                            
__________________________________________________________________________________________________
bxCapitalization (InputLayer)   (None, 3)            0                                            
__________________________________________________________________________________________________
bxSymbols (InputLayer)          (None, 1)            0                                            
__________________________________________________________________________________________________
b1Tokens (InputLayer)           (None, 7)            0                                            
__________________________________________________________________________________________________
b1Affixes (InputLayer)          (None, 12)           0                                            
__________________________________________________________________________________________________
b1Capitalization (InputLayer)   (None, 3)            0                                            
__________________________________________________________________________________________________
b1Symbols (InputLayer)          (None, 1)            0                                            
__________________________________________________________________________________________________
b0Tokens (InputLayer)           (None, 7)            0                                            
__________________________________________________________________________________________________
b0Affixes (InputLayer)          (None, 12)           0                                            
__________________________________________________________________________________________________
b0Capitalization (InputLayer)   (None, 3)            0                                            
__________________________________________________________________________________________________
b0Symbols (InputLayer)          (None, 1)            0                                            
__________________________________________________________________________________________________
s0Tokens (InputLayer)           (None, 7)            0                                            
__________________________________________________________________________________________________
s0Affixes (InputLayer)          (None, 12)           0                                            
__________________________________________________________________________________________________
s0Capitalization (InputLayer)   (None, 3)            0                                            
__________________________________________________________________________________________________
s0Symbols (InputLayer)          (None, 1)            0                                            
__________________________________________________________________________________________________
s1Tokens (InputLayer)           (None, 7)            0                                            
__________________________________________________________________________________________________
s1Affixes (InputLayer)          (None, 12)           0                                            
__________________________________________________________________________________________________
s1Capitalization (InputLayer)   (None, 3)            0                                            
__________________________________________________________________________________________________
s1Symbols (InputLayer)          (None, 1)            0                                            
__________________________________________________________________________________________________
tokenEmb (Embedding)            (None, 7, 83)        853821      bxTokens[0][0]                   
                                                                 b1Tokens[0][0]                   
                                                                 b0Tokens[0][0]                   
                                                                 s0Tokens[0][0]                   
                                                                 s1Tokens[0][0]                   
__________________________________________________________________________________________________
affixeseEmb (Embedding)         (None, 12, 13)       47294       bxAffixes[0][0]                  
                                                                 b1Affixes[0][0]                  
                                                                 b0Affixes[0][0]                  
                                                                 s0Affixes[0][0]                  
                                                                 s1Affixes[0][0]                  
__________________________________________________________________________________________________
capitalizationEmb (Embedding)   (None, 3, 3)         12          bxCapitalization[0][0]           
                                                                 b1Capitalization[0][0]           
                                                                 b0Capitalization[0][0]           
                                                                 s0Capitalization[0][0]           
                                                                 s1Capitalization[0][0]           
__________________________________________________________________________________________________
symbolsEmb (Embedding)          (None, 1, 8)         160         bxSymbols[0][0]                  
                                                                 b1Symbols[0][0]                  
                                                                 b0Symbols[0][0]                  
                                                                 s0Symbols[0][0]                  
                                                                 s1Symbols[0][0]                  
__________________________________________________________________________________________________
flatten_755 (Flatten)           (None, 581)          0           tokenEmb[1][0]                   
__________________________________________________________________________________________________
flatten_756 (Flatten)           (None, 156)          0           affixeseEmb[1][0]                
__________________________________________________________________________________________________
flatten_757 (Flatten)           (None, 9)            0           capitalizationEmb[1][0]          
__________________________________________________________________________________________________
flatten_758 (Flatten)           (None, 8)            0           symbolsEmb[1][0]                 
__________________________________________________________________________________________________
flatten_759 (Flatten)           (None, 581)          0           tokenEmb[2][0]                   
__________________________________________________________________________________________________
flatten_760 (Flatten)           (None, 156)          0           affixeseEmb[2][0]                
__________________________________________________________________________________________________
flatten_761 (Flatten)           (None, 9)            0           capitalizationEmb[2][0]          
__________________________________________________________________________________________________
flatten_762 (Flatten)           (None, 8)            0           symbolsEmb[2][0]                 
__________________________________________________________________________________________________
flatten_763 (Flatten)           (None, 581)          0           tokenEmb[3][0]                   
__________________________________________________________________________________________________
flatten_764 (Flatten)           (None, 156)          0           affixeseEmb[3][0]                
__________________________________________________________________________________________________
flatten_765 (Flatten)           (None, 9)            0           capitalizationEmb[3][0]          
__________________________________________________________________________________________________
flatten_766 (Flatten)           (None, 8)            0           symbolsEmb[3][0]                 
__________________________________________________________________________________________________
flatten_767 (Flatten)           (None, 581)          0           tokenEmb[4][0]                   
__________________________________________________________________________________________________
flatten_768 (Flatten)           (None, 156)          0           affixeseEmb[4][0]                
__________________________________________________________________________________________________
flatten_769 (Flatten)           (None, 9)            0           capitalizationEmb[4][0]          
__________________________________________________________________________________________________
flatten_770 (Flatten)           (None, 8)            0           symbolsEmb[4][0]                 
__________________________________________________________________________________________________
flatten_771 (Flatten)           (None, 581)          0           tokenEmb[5][0]                   
__________________________________________________________________________________________________
flatten_772 (Flatten)           (None, 156)          0           affixeseEmb[5][0]                
__________________________________________________________________________________________________
flatten_773 (Flatten)           (None, 9)            0           capitalizationEmb[5][0]          
__________________________________________________________________________________________________
flatten_774 (Flatten)           (None, 8)            0           symbolsEmb[5][0]                 
__________________________________________________________________________________________________
concatenate_254 (Concatenate)   (None, 754)          0           flatten_755[0][0]                
                                                                 flatten_756[0][0]                
                                                                 flatten_757[0][0]                
                                                                 flatten_758[0][0]                
__________________________________________________________________________________________________
concatenate_255 (Concatenate)   (None, 754)          0           flatten_759[0][0]                
                                                                 flatten_760[0][0]                
                                                                 flatten_761[0][0]                
                                                                 flatten_762[0][0]                
__________________________________________________________________________________________________
concatenate_256 (Concatenate)   (None, 754)          0           flatten_763[0][0]                
                                                                 flatten_764[0][0]                
                                                                 flatten_765[0][0]                
                                                                 flatten_766[0][0]                
__________________________________________________________________________________________________
concatenate_257 (Concatenate)   (None, 754)          0           flatten_767[0][0]                
                                                                 flatten_768[0][0]                
                                                                 flatten_769[0][0]                
                                                                 flatten_770[0][0]                
__________________________________________________________________________________________________
concatenate_258 (Concatenate)   (None, 754)          0           flatten_771[0][0]                
                                                                 flatten_772[0][0]                
                                                                 flatten_773[0][0]                
                                                                 flatten_774[0][0]                
__________________________________________________________________________________________________
posDense (Dense)                (None, 90)           67950       concatenate_254[0][0]            
                                                                 concatenate_255[0][0]            
                                                                 concatenate_256[0][0]            
                                                                 concatenate_257[0][0]            
                                                                 concatenate_258[0][0]            
__________________________________________________________________________________________________
concatenate_259 (Concatenate)   (None, 450)          0           posDense[1][0]                   
                                                                 posDense[2][0]                   
                                                                 posDense[3][0]                   
                                                                 posDense[4][0]                   
                                                                 posDense[5][0]                   
__________________________________________________________________________________________________
idenDense (Dense)               (None, 64)           28864       concatenate_259[0][0]            
__________________________________________________________________________________________________
idenSoftMax (Dense)             (None, 4)            260         idenDense[0][0]                  
==================================================================================================
Total params: 998,361
Trainable params: 998,361
Non-trainable params: 0
__________________________________________________________________________________________________
None
==================================================================================================
…
	One occurrence keys in vocabulary 3771 / 19580

__________________________________________________________________________________________________
	Optimizer : Adagrad,  learning rate = 0.04
__________________________________________________________________________________________________
__________________________________________________________________________________________________
Layer (type)                    Output Shape         Param #     Connected to                     
==================================================================================================
tokens (InputLayer)             (None, 7)            0                                            
__________________________________________________________________________________________________
affixes (InputLayer)            (None, 12)           0                                            
__________________________________________________________________________________________________
capitalization (InputLayer)     (None, 3)            0                                            
__________________________________________________________________________________________________
symbol (InputLayer)             (None, 1)            0                                            
__________________________________________________________________________________________________
tokenEmb (Embedding)            (None, 7, 83)        1625140     tokens[0][0]                     
__________________________________________________________________________________________________
affixeseEmb (Embedding)         (None, 12, 13)       53040       affixes[0][0]                    
__________________________________________________________________________________________________
capitalizationEmb (Embedding)   (None, 3, 3)         12          capitalization[0][0]             
__________________________________________________________________________________________________
symbolsEmb (Embedding)          (None, 1, 8)         160         symbol[0][0]                     
__________________________________________________________________________________________________
flatten_775 (Flatten)           (None, 581)          0           tokenEmb[0][0]                   
__________________________________________________________________________________________________
flatten_776 (Flatten)           (None, 156)          0           affixeseEmb[0][0]                
__________________________________________________________________________________________________
flatten_777 (Flatten)           (None, 9)            0           capitalizationEmb[0][0]          
__________________________________________________________________________________________________
flatten_778 (Flatten)           (None, 8)            0           symbolsEmb[0][0]                 
__________________________________________________________________________________________________
concatenate_260 (Concatenate)   (None, 754)          0           flatten_775[0][0]                
                                                                 flatten_776[0][0]                
                                                                 flatten_777[0][0]                
                                                                 flatten_778[0][0]                
__________________________________________________________________________________________________
posDense (Dense)                (None, 90)           67950       concatenate_260[0][0]            
__________________________________________________________________________________________________
dense_38 (Dense)                (None, 119)          10829       posDense[0][0]                   
==================================================================================================
Total params: 1,757,131
Trainable params: 1,757,131
Non-trainable params: 0
__________________________________________________________________________________________________
None
==================================================================================================

__________________________________________________________________________________________________
	Optimizer : Adagrad,  learning rate = 0.04
__________________________________________________________________________________________________
__________________________________________________________________________________________________
Layer (type)                    Output Shape         Param #     Connected to                     
==================================================================================================
bxTokens (InputLayer)           (None, 7)            0                                            
__________________________________________________________________________________________________
bxAffixes (InputLayer)          (None, 12)           0                                            
__________________________________________________________________________________________________
bxCapitalization (InputLayer)   (None, 3)            0                                            
__________________________________________________________________________________________________
bxSymbols (InputLayer)          (None, 1)            0                                            
__________________________________________________________________________________________________
b1Tokens (InputLayer)           (None, 7)            0                                            
__________________________________________________________________________________________________
b1Affixes (InputLayer)          (None, 12)           0                                            
__________________________________________________________________________________________________
b1Capitalization (InputLayer)   (None, 3)            0                                            
__________________________________________________________________________________________________
b1Symbols (InputLayer)          (None, 1)            0                                            
__________________________________________________________________________________________________
b0Tokens (InputLayer)           (None, 7)            0                                            
__________________________________________________________________________________________________
b0Affixes (InputLayer)          (None, 12)           0                                            
__________________________________________________________________________________________________
b0Capitalization (InputLayer)   (None, 3)            0                                            
__________________________________________________________________________________________________
b0Symbols (InputLayer)          (None, 1)            0                                            
__________________________________________________________________________________________________
s0Tokens (InputLayer)           (None, 7)            0                                            
__________________________________________________________________________________________________
s0Affixes (InputLayer)          (None, 12)           0                                            
__________________________________________________________________________________________________
s0Capitalization (InputLayer)   (None, 3)            0                                            
__________________________________________________________________________________________________
s0Symbols (InputLayer)          (None, 1)            0                                            
__________________________________________________________________________________________________
s1Tokens (InputLayer)           (None, 7)            0                                            
__________________________________________________________________________________________________
s1Affixes (InputLayer)          (None, 12)           0                                            
__________________________________________________________________________________________________
s1Capitalization (InputLayer)   (None, 3)            0                                            
__________________________________________________________________________________________________
s1Symbols (InputLayer)          (None, 1)            0                                            
__________________________________________________________________________________________________
tokenEmb (Embedding)            (None, 7, 83)        1625140     bxTokens[0][0]                   
                                                                 b1Tokens[0][0]                   
                                                                 b0Tokens[0][0]                   
                                                                 s0Tokens[0][0]                   
                                                                 s1Tokens[0][0]                   
__________________________________________________________________________________________________
affixeseEmb (Embedding)         (None, 12, 13)       53040       bxAffixes[0][0]                  
                                                                 b1Affixes[0][0]                  
                                                                 b0Affixes[0][0]                  
                                                                 s0Affixes[0][0]                  
                                                                 s1Affixes[0][0]                  
__________________________________________________________________________________________________
capitalizationEmb (Embedding)   (None, 3, 3)         12          bxCapitalization[0][0]           
                                                                 b1Capitalization[0][0]           
                                                                 b0Capitalization[0][0]           
                                                                 s0Capitalization[0][0]           
                                                                 s1Capitalization[0][0]           
__________________________________________________________________________________________________
symbolsEmb (Embedding)          (None, 1, 8)         160         bxSymbols[0][0]                  
                                                                 b1Symbols[0][0]                  
                                                                 b0Symbols[0][0]                  
                                                                 s0Symbols[0][0]                  
                                                                 s1Symbols[0][0]                  
__________________________________________________________________________________________________
flatten_779 (Flatten)           (None, 581)          0           tokenEmb[1][0]                   
__________________________________________________________________________________________________
flatten_780 (Flatten)           (None, 156)          0           affixeseEmb[1][0]                
__________________________________________________________________________________________________
flatten_781 (Flatten)           (None, 9)            0           capitalizationEmb[1][0]          
__________________________________________________________________________________________________
flatten_782 (Flatten)           (None, 8)            0           symbolsEmb[1][0]                 
__________________________________________________________________________________________________
flatten_783 (Flatten)           (None, 581)          0           tokenEmb[2][0]                   
__________________________________________________________________________________________________
flatten_784 (Flatten)           (None, 156)          0           affixeseEmb[2][0]                
__________________________________________________________________________________________________
flatten_785 (Flatten)           (None, 9)            0           capitalizationEmb[2][0]          
__________________________________________________________________________________________________
flatten_786 (Flatten)           (None, 8)            0           symbolsEmb[2][0]                 
__________________________________________________________________________________________________
flatten_787 (Flatten)           (None, 581)          0           tokenEmb[3][0]                   
__________________________________________________________________________________________________
flatten_788 (Flatten)           (None, 156)          0           affixeseEmb[3][0]                
__________________________________________________________________________________________________
flatten_789 (Flatten)           (None, 9)            0           capitalizationEmb[3][0]          
__________________________________________________________________________________________________
flatten_790 (Flatten)           (None, 8)            0           symbolsEmb[3][0]                 
__________________________________________________________________________________________________
flatten_791 (Flatten)           (None, 581)          0           tokenEmb[4][0]                   
__________________________________________________________________________________________________
flatten_792 (Flatten)           (None, 156)          0           affixeseEmb[4][0]                
__________________________________________________________________________________________________
flatten_793 (Flatten)           (None, 9)            0           capitalizationEmb[4][0]          
__________________________________________________________________________________________________
flatten_794 (Flatten)           (None, 8)            0           symbolsEmb[4][0]                 
__________________________________________________________________________________________________
flatten_795 (Flatten)           (None, 581)          0           tokenEmb[5][0]                   
__________________________________________________________________________________________________
flatten_796 (Flatten)           (None, 156)          0           affixeseEmb[5][0]                
__________________________________________________________________________________________________
flatten_797 (Flatten)           (None, 9)            0           capitalizationEmb[5][0]          
__________________________________________________________________________________________________
flatten_798 (Flatten)           (None, 8)            0           symbolsEmb[5][0]                 
__________________________________________________________________________________________________
concatenate_261 (Concatenate)   (None, 754)          0           flatten_779[0][0]                
                                                                 flatten_780[0][0]                
                                                                 flatten_781[0][0]                
                                                                 flatten_782[0][0]                
__________________________________________________________________________________________________
concatenate_262 (Concatenate)   (None, 754)          0           flatten_783[0][0]                
                                                                 flatten_784[0][0]                
                                                                 flatten_785[0][0]                
                                                                 flatten_786[0][0]                
__________________________________________________________________________________________________
concatenate_263 (Concatenate)   (None, 754)          0           flatten_787[0][0]                
                                                                 flatten_788[0][0]                
                                                                 flatten_789[0][0]                
                                                                 flatten_790[0][0]                
__________________________________________________________________________________________________
concatenate_264 (Concatenate)   (None, 754)          0           flatten_791[0][0]                
                                                                 flatten_792[0][0]                
                                                                 flatten_793[0][0]                
                                                                 flatten_794[0][0]                
__________________________________________________________________________________________________
concatenate_265 (Concatenate)   (None, 754)          0           flatten_795[0][0]                
                                                                 flatten_796[0][0]                
                                                                 flatten_797[0][0]                
                                                                 flatten_798[0][0]                
__________________________________________________________________________________________________
posDense (Dense)                (None, 90)           67950       concatenate_261[0][0]            
                                                                 concatenate_262[0][0]            
                                                                 concatenate_263[0][0]            
                                                                 concatenate_264[0][0]            
                                                                 concatenate_265[0][0]            
__________________________________________________________________________________________________
concatenate_266 (Concatenate)   (None, 450)          0           posDense[1][0]                   
                                                                 posDense[2][0]                   
                                                                 posDense[3][0]                   
                                                                 posDense[4][0]                   
                                                                 posDense[5][0]                   
__________________________________________________________________________________________________
idenDense (Dense)               (None, 64)           28864       concatenate_266[0][0]            
__________________________________________________________________________________________________
idenSoftMax (Dense)             (None, 4)            260         idenDense[0][0]                  
==================================================================================================
Total params: 1,775,426
Trainable params: 1,775,426
Non-trainable params: 0
__________________________________________________________________________________________________
None
==================================================================================================
…
