…
	One occurrence keys in vocabulary 2182 / 11438

__________________________________________________________________________________________________
	Optimizer : Adagrad,  learning rate = 0.011
__________________________________________________________________________________________________
__________________________________________________________________________________________________
Layer (type)                    Output Shape         Param #     Connected to                     
==================================================================================================
tokens (InputLayer)             (None, 7)            0                                            
__________________________________________________________________________________________________
affixes (InputLayer)            (None, 12)           0                                            
__________________________________________________________________________________________________
capitalization (InputLayer)     (None, 3)            0                                            
__________________________________________________________________________________________________
symbol (InputLayer)             (None, 1)            0                                            
__________________________________________________________________________________________________
tokenEmb (Embedding)            (None, 7, 73)        834974      tokens[0][0]                     
__________________________________________________________________________________________________
affixeseEmb (Embedding)         (None, 12, 5)        5930        affixes[0][0]                    
__________________________________________________________________________________________________
capitalizationEmb (Embedding)   (None, 3, 5)         20          capitalization[0][0]             
__________________________________________________________________________________________________
symbolsEmb (Embedding)          (None, 1, 11)        220         symbol[0][0]                     
__________________________________________________________________________________________________
flatten_1 (Flatten)             (None, 511)          0           tokenEmb[0][0]                   
__________________________________________________________________________________________________
flatten_2 (Flatten)             (None, 60)           0           affixeseEmb[0][0]                
__________________________________________________________________________________________________
flatten_3 (Flatten)             (None, 15)           0           capitalizationEmb[0][0]          
__________________________________________________________________________________________________
flatten_4 (Flatten)             (None, 11)           0           symbolsEmb[0][0]                 
__________________________________________________________________________________________________
concatenate_1 (Concatenate)     (None, 597)          0           flatten_1[0][0]                  
                                                                 flatten_2[0][0]                  
                                                                 flatten_3[0][0]                  
                                                                 flatten_4[0][0]                  
__________________________________________________________________________________________________
posDense (Dense)                (None, 48)           28704       concatenate_1[0][0]              
__________________________________________________________________________________________________
dense_1 (Dense)                 (None, 152)          7448        posDense[0][0]                   
==================================================================================================
Total params: 877,296
Trainable params: 877,296
Non-trainable params: 0
__________________________________________________________________________________________________
None
==================================================================================================

__________________________________________________________________________________________________
	Optimizer : Adagrad,  learning rate = 0.011
__________________________________________________________________________________________________
__________________________________________________________________________________________________
Layer (type)                    Output Shape         Param #     Connected to                     
==================================================================================================
bxTokens (InputLayer)           (None, 7)            0                                            
__________________________________________________________________________________________________
bxAffixes (InputLayer)          (None, 12)           0                                            
__________________________________________________________________________________________________
bxCapitalization (InputLayer)   (None, 3)            0                                            
__________________________________________________________________________________________________
bxSymbols (InputLayer)          (None, 1)            0                                            
__________________________________________________________________________________________________
b1Tokens (InputLayer)           (None, 7)            0                                            
__________________________________________________________________________________________________
b1Affixes (InputLayer)          (None, 12)           0                                            
__________________________________________________________________________________________________
b1Capitalization (InputLayer)   (None, 3)            0                                            
__________________________________________________________________________________________________
b1Symbols (InputLayer)          (None, 1)            0                                            
__________________________________________________________________________________________________
b0Tokens (InputLayer)           (None, 7)            0                                            
__________________________________________________________________________________________________
b0Affixes (InputLayer)          (None, 12)           0                                            
__________________________________________________________________________________________________
b0Capitalization (InputLayer)   (None, 3)            0                                            
__________________________________________________________________________________________________
b0Symbols (InputLayer)          (None, 1)            0                                            
__________________________________________________________________________________________________
s0Tokens (InputLayer)           (None, 7)            0                                            
__________________________________________________________________________________________________
s0Affixes (InputLayer)          (None, 12)           0                                            
__________________________________________________________________________________________________
s0Capitalization (InputLayer)   (None, 3)            0                                            
__________________________________________________________________________________________________
s0Symbols (InputLayer)          (None, 1)            0                                            
__________________________________________________________________________________________________
s1Tokens (InputLayer)           (None, 7)            0                                            
__________________________________________________________________________________________________
s1Affixes (InputLayer)          (None, 12)           0                                            
__________________________________________________________________________________________________
s1Capitalization (InputLayer)   (None, 3)            0                                            
__________________________________________________________________________________________________
s1Symbols (InputLayer)          (None, 1)            0                                            
__________________________________________________________________________________________________
tokenEmb (Embedding)            (None, 7, 73)        834974      bxTokens[0][0]                   
                                                                 b1Tokens[0][0]                   
                                                                 b0Tokens[0][0]                   
                                                                 s0Tokens[0][0]                   
                                                                 s1Tokens[0][0]                   
__________________________________________________________________________________________________
affixeseEmb (Embedding)         (None, 12, 5)        5930        bxAffixes[0][0]                  
                                                                 b1Affixes[0][0]                  
                                                                 b0Affixes[0][0]                  
                                                                 s0Affixes[0][0]                  
                                                                 s1Affixes[0][0]                  
__________________________________________________________________________________________________
capitalizationEmb (Embedding)   (None, 3, 5)         20          bxCapitalization[0][0]           
                                                                 b1Capitalization[0][0]           
                                                                 b0Capitalization[0][0]           
                                                                 s0Capitalization[0][0]           
                                                                 s1Capitalization[0][0]           
__________________________________________________________________________________________________
symbolsEmb (Embedding)          (None, 1, 11)        220         bxSymbols[0][0]                  
                                                                 b1Symbols[0][0]                  
                                                                 b0Symbols[0][0]                  
                                                                 s0Symbols[0][0]                  
                                                                 s1Symbols[0][0]                  
__________________________________________________________________________________________________
flatten_5 (Flatten)             (None, 511)          0           tokenEmb[1][0]                   
__________________________________________________________________________________________________
flatten_6 (Flatten)             (None, 60)           0           affixeseEmb[1][0]                
__________________________________________________________________________________________________
flatten_7 (Flatten)             (None, 15)           0           capitalizationEmb[1][0]          
__________________________________________________________________________________________________
flatten_8 (Flatten)             (None, 11)           0           symbolsEmb[1][0]                 
__________________________________________________________________________________________________
flatten_9 (Flatten)             (None, 511)          0           tokenEmb[2][0]                   
__________________________________________________________________________________________________
flatten_10 (Flatten)            (None, 60)           0           affixeseEmb[2][0]                
__________________________________________________________________________________________________
flatten_11 (Flatten)            (None, 15)           0           capitalizationEmb[2][0]          
__________________________________________________________________________________________________
flatten_12 (Flatten)            (None, 11)           0           symbolsEmb[2][0]                 
__________________________________________________________________________________________________
flatten_13 (Flatten)            (None, 511)          0           tokenEmb[3][0]                   
__________________________________________________________________________________________________
flatten_14 (Flatten)            (None, 60)           0           affixeseEmb[3][0]                
__________________________________________________________________________________________________
flatten_15 (Flatten)            (None, 15)           0           capitalizationEmb[3][0]          
__________________________________________________________________________________________________
flatten_16 (Flatten)            (None, 11)           0           symbolsEmb[3][0]                 
__________________________________________________________________________________________________
flatten_17 (Flatten)            (None, 511)          0           tokenEmb[4][0]                   
__________________________________________________________________________________________________
flatten_18 (Flatten)            (None, 60)           0           affixeseEmb[4][0]                
__________________________________________________________________________________________________
flatten_19 (Flatten)            (None, 15)           0           capitalizationEmb[4][0]          
__________________________________________________________________________________________________
flatten_20 (Flatten)            (None, 11)           0           symbolsEmb[4][0]                 
__________________________________________________________________________________________________
flatten_21 (Flatten)            (None, 511)          0           tokenEmb[5][0]                   
__________________________________________________________________________________________________
flatten_22 (Flatten)            (None, 60)           0           affixeseEmb[5][0]                
__________________________________________________________________________________________________
flatten_23 (Flatten)            (None, 15)           0           capitalizationEmb[5][0]          
__________________________________________________________________________________________________
flatten_24 (Flatten)            (None, 11)           0           symbolsEmb[5][0]                 
__________________________________________________________________________________________________
concatenate_2 (Concatenate)     (None, 597)          0           flatten_5[0][0]                  
                                                                 flatten_6[0][0]                  
                                                                 flatten_7[0][0]                  
                                                                 flatten_8[0][0]                  
__________________________________________________________________________________________________
concatenate_3 (Concatenate)     (None, 597)          0           flatten_9[0][0]                  
                                                                 flatten_10[0][0]                 
                                                                 flatten_11[0][0]                 
                                                                 flatten_12[0][0]                 
__________________________________________________________________________________________________
concatenate_4 (Concatenate)     (None, 597)          0           flatten_13[0][0]                 
                                                                 flatten_14[0][0]                 
                                                                 flatten_15[0][0]                 
                                                                 flatten_16[0][0]                 
__________________________________________________________________________________________________
concatenate_5 (Concatenate)     (None, 597)          0           flatten_17[0][0]                 
                                                                 flatten_18[0][0]                 
                                                                 flatten_19[0][0]                 
                                                                 flatten_20[0][0]                 
__________________________________________________________________________________________________
concatenate_6 (Concatenate)     (None, 597)          0           flatten_21[0][0]                 
                                                                 flatten_22[0][0]                 
                                                                 flatten_23[0][0]                 
                                                                 flatten_24[0][0]                 
__________________________________________________________________________________________________
posDense (Dense)                (None, 48)           28704       concatenate_2[0][0]              
                                                                 concatenate_3[0][0]              
                                                                 concatenate_4[0][0]              
                                                                 concatenate_5[0][0]              
                                                                 concatenate_6[0][0]              
__________________________________________________________________________________________________
concatenate_7 (Concatenate)     (None, 240)          0           posDense[1][0]                   
                                                                 posDense[2][0]                   
                                                                 posDense[3][0]                   
                                                                 posDense[4][0]                   
                                                                 posDense[5][0]                   
__________________________________________________________________________________________________
idenDense (Dense)               (None, 58)           13978       concatenate_7[0][0]              
__________________________________________________________________________________________________
idenSoftMax (Dense)             (None, 4)            236         idenDense[0][0]                  
==================================================================================================
Total params: 884,062
Trainable params: 884,062
Non-trainable params: 0
__________________________________________________________________________________________________
None
==================================================================================================
…
	One occurrence keys in vocabulary 2380 / 9401

__________________________________________________________________________________________________
	Optimizer : Adagrad,  learning rate = 0.011
__________________________________________________________________________________________________
__________________________________________________________________________________________________
Layer (type)                    Output Shape         Param #     Connected to                     
==================================================================================================
tokens (InputLayer)             (None, 7)            0                                            
__________________________________________________________________________________________________
affixes (InputLayer)            (None, 12)           0                                            
__________________________________________________________________________________________________
capitalization (InputLayer)     (None, 3)            0                                            
__________________________________________________________________________________________________
symbol (InputLayer)             (None, 1)            0                                            
__________________________________________________________________________________________________
tokenEmb (Embedding)            (None, 7, 73)        686273      tokens[0][0]                     
__________________________________________________________________________________________________
affixeseEmb (Embedding)         (None, 12, 5)        17010       affixes[0][0]                    
__________________________________________________________________________________________________
capitalizationEmb (Embedding)   (None, 3, 5)         20          capitalization[0][0]             
__________________________________________________________________________________________________
symbolsEmb (Embedding)          (None, 1, 11)        220         symbol[0][0]                     
__________________________________________________________________________________________________
flatten_25 (Flatten)            (None, 511)          0           tokenEmb[0][0]                   
__________________________________________________________________________________________________
flatten_26 (Flatten)            (None, 60)           0           affixeseEmb[0][0]                
__________________________________________________________________________________________________
flatten_27 (Flatten)            (None, 15)           0           capitalizationEmb[0][0]          
__________________________________________________________________________________________________
flatten_28 (Flatten)            (None, 11)           0           symbolsEmb[0][0]                 
__________________________________________________________________________________________________
concatenate_8 (Concatenate)     (None, 597)          0           flatten_25[0][0]                 
                                                                 flatten_26[0][0]                 
                                                                 flatten_27[0][0]                 
                                                                 flatten_28[0][0]                 
__________________________________________________________________________________________________
posDense (Dense)                (None, 48)           28704       concatenate_8[0][0]              
__________________________________________________________________________________________________
dense_2 (Dense)                 (None, 169)          8281        posDense[0][0]                   
==================================================================================================
Total params: 740,508
Trainable params: 740,508
Non-trainable params: 0
__________________________________________________________________________________________________
None
==================================================================================================

__________________________________________________________________________________________________
	Optimizer : Adagrad,  learning rate = 0.011
__________________________________________________________________________________________________
__________________________________________________________________________________________________
Layer (type)                    Output Shape         Param #     Connected to                     
==================================================================================================
bxTokens (InputLayer)           (None, 7)            0                                            
__________________________________________________________________________________________________
bxAffixes (InputLayer)          (None, 12)           0                                            
__________________________________________________________________________________________________
bxCapitalization (InputLayer)   (None, 3)            0                                            
__________________________________________________________________________________________________
bxSymbols (InputLayer)          (None, 1)            0                                            
__________________________________________________________________________________________________
b1Tokens (InputLayer)           (None, 7)            0                                            
__________________________________________________________________________________________________
b1Affixes (InputLayer)          (None, 12)           0                                            
__________________________________________________________________________________________________
b1Capitalization (InputLayer)   (None, 3)            0                                            
__________________________________________________________________________________________________
b1Symbols (InputLayer)          (None, 1)            0                                            
__________________________________________________________________________________________________
b0Tokens (InputLayer)           (None, 7)            0                                            
__________________________________________________________________________________________________
b0Affixes (InputLayer)          (None, 12)           0                                            
__________________________________________________________________________________________________
b0Capitalization (InputLayer)   (None, 3)            0                                            
__________________________________________________________________________________________________
b0Symbols (InputLayer)          (None, 1)            0                                            
__________________________________________________________________________________________________
s0Tokens (InputLayer)           (None, 7)            0                                            
__________________________________________________________________________________________________
s0Affixes (InputLayer)          (None, 12)           0                                            
__________________________________________________________________________________________________
s0Capitalization (InputLayer)   (None, 3)            0                                            
__________________________________________________________________________________________________
s0Symbols (InputLayer)          (None, 1)            0                                            
__________________________________________________________________________________________________
s1Tokens (InputLayer)           (None, 7)            0                                            
__________________________________________________________________________________________________
s1Affixes (InputLayer)          (None, 12)           0                                            
__________________________________________________________________________________________________
s1Capitalization (InputLayer)   (None, 3)            0                                            
__________________________________________________________________________________________________
s1Symbols (InputLayer)          (None, 1)            0                                            
__________________________________________________________________________________________________
tokenEmb (Embedding)            (None, 7, 73)        686273      bxTokens[0][0]                   
                                                                 b1Tokens[0][0]                   
                                                                 b0Tokens[0][0]                   
                                                                 s0Tokens[0][0]                   
                                                                 s1Tokens[0][0]                   
__________________________________________________________________________________________________
affixeseEmb (Embedding)         (None, 12, 5)        17010       bxAffixes[0][0]                  
                                                                 b1Affixes[0][0]                  
                                                                 b0Affixes[0][0]                  
                                                                 s0Affixes[0][0]                  
                                                                 s1Affixes[0][0]                  
__________________________________________________________________________________________________
capitalizationEmb (Embedding)   (None, 3, 5)         20          bxCapitalization[0][0]           
                                                                 b1Capitalization[0][0]           
                                                                 b0Capitalization[0][0]           
                                                                 s0Capitalization[0][0]           
                                                                 s1Capitalization[0][0]           
__________________________________________________________________________________________________
symbolsEmb (Embedding)          (None, 1, 11)        220         bxSymbols[0][0]                  
                                                                 b1Symbols[0][0]                  
                                                                 b0Symbols[0][0]                  
                                                                 s0Symbols[0][0]                  
                                                                 s1Symbols[0][0]                  
__________________________________________________________________________________________________
flatten_29 (Flatten)            (None, 511)          0           tokenEmb[1][0]                   
__________________________________________________________________________________________________
flatten_30 (Flatten)            (None, 60)           0           affixeseEmb[1][0]                
__________________________________________________________________________________________________
flatten_31 (Flatten)            (None, 15)           0           capitalizationEmb[1][0]          
__________________________________________________________________________________________________
flatten_32 (Flatten)            (None, 11)           0           symbolsEmb[1][0]                 
__________________________________________________________________________________________________
flatten_33 (Flatten)            (None, 511)          0           tokenEmb[2][0]                   
__________________________________________________________________________________________________
flatten_34 (Flatten)            (None, 60)           0           affixeseEmb[2][0]                
__________________________________________________________________________________________________
flatten_35 (Flatten)            (None, 15)           0           capitalizationEmb[2][0]          
__________________________________________________________________________________________________
flatten_36 (Flatten)            (None, 11)           0           symbolsEmb[2][0]                 
__________________________________________________________________________________________________
flatten_37 (Flatten)            (None, 511)          0           tokenEmb[3][0]                   
__________________________________________________________________________________________________
flatten_38 (Flatten)            (None, 60)           0           affixeseEmb[3][0]                
__________________________________________________________________________________________________
flatten_39 (Flatten)            (None, 15)           0           capitalizationEmb[3][0]          
__________________________________________________________________________________________________
flatten_40 (Flatten)            (None, 11)           0           symbolsEmb[3][0]                 
__________________________________________________________________________________________________
flatten_41 (Flatten)            (None, 511)          0           tokenEmb[4][0]                   
__________________________________________________________________________________________________
flatten_42 (Flatten)            (None, 60)           0           affixeseEmb[4][0]                
__________________________________________________________________________________________________
flatten_43 (Flatten)            (None, 15)           0           capitalizationEmb[4][0]          
__________________________________________________________________________________________________
flatten_44 (Flatten)            (None, 11)           0           symbolsEmb[4][0]                 
__________________________________________________________________________________________________
flatten_45 (Flatten)            (None, 511)          0           tokenEmb[5][0]                   
__________________________________________________________________________________________________
flatten_46 (Flatten)            (None, 60)           0           affixeseEmb[5][0]                
__________________________________________________________________________________________________
flatten_47 (Flatten)            (None, 15)           0           capitalizationEmb[5][0]          
__________________________________________________________________________________________________
flatten_48 (Flatten)            (None, 11)           0           symbolsEmb[5][0]                 
__________________________________________________________________________________________________
concatenate_9 (Concatenate)     (None, 597)          0           flatten_29[0][0]                 
                                                                 flatten_30[0][0]                 
                                                                 flatten_31[0][0]                 
                                                                 flatten_32[0][0]                 
__________________________________________________________________________________________________
concatenate_10 (Concatenate)    (None, 597)          0           flatten_33[0][0]                 
                                                                 flatten_34[0][0]                 
                                                                 flatten_35[0][0]                 
                                                                 flatten_36[0][0]                 
__________________________________________________________________________________________________
concatenate_11 (Concatenate)    (None, 597)          0           flatten_37[0][0]                 
                                                                 flatten_38[0][0]                 
                                                                 flatten_39[0][0]                 
                                                                 flatten_40[0][0]                 
__________________________________________________________________________________________________
concatenate_12 (Concatenate)    (None, 597)          0           flatten_41[0][0]                 
                                                                 flatten_42[0][0]                 
                                                                 flatten_43[0][0]                 
                                                                 flatten_44[0][0]                 
__________________________________________________________________________________________________
concatenate_13 (Concatenate)    (None, 597)          0           flatten_45[0][0]                 
                                                                 flatten_46[0][0]                 
                                                                 flatten_47[0][0]                 
                                                                 flatten_48[0][0]                 
__________________________________________________________________________________________________
posDense (Dense)                (None, 48)           28704       concatenate_9[0][0]              
                                                                 concatenate_10[0][0]             
                                                                 concatenate_11[0][0]             
                                                                 concatenate_12[0][0]             
                                                                 concatenate_13[0][0]             
__________________________________________________________________________________________________
concatenate_14 (Concatenate)    (None, 240)          0           posDense[1][0]                   
                                                                 posDense[2][0]                   
                                                                 posDense[3][0]                   
                                                                 posDense[4][0]                   
                                                                 posDense[5][0]                   
__________________________________________________________________________________________________
idenDense (Dense)               (None, 58)           13978       concatenate_14[0][0]             
__________________________________________________________________________________________________
idenSoftMax (Dense)             (None, 4)            236         idenDense[0][0]                  
==================================================================================================
Total params: 746,441
Trainable params: 746,441
Non-trainable params: 0
__________________________________________________________________________________________________
None
==================================================================================================
…
	One occurrence keys in vocabulary 3975 / 22071

__________________________________________________________________________________________________
	Optimizer : Adagrad,  learning rate = 0.011
__________________________________________________________________________________________________
__________________________________________________________________________________________________
Layer (type)                    Output Shape         Param #     Connected to                     
==================================================================================================
tokens (InputLayer)             (None, 7)            0                                            
__________________________________________________________________________________________________
affixes (InputLayer)            (None, 12)           0                                            
__________________________________________________________________________________________________
capitalization (InputLayer)     (None, 3)            0                                            
__________________________________________________________________________________________________
symbol (InputLayer)             (None, 1)            0                                            
__________________________________________________________________________________________________
tokenEmb (Embedding)            (None, 7, 73)        1611183     tokens[0][0]                     
__________________________________________________________________________________________________
affixeseEmb (Embedding)         (None, 12, 5)        19285       affixes[0][0]                    
__________________________________________________________________________________________________
capitalizationEmb (Embedding)   (None, 3, 5)         20          capitalization[0][0]             
__________________________________________________________________________________________________
symbolsEmb (Embedding)          (None, 1, 11)        220         symbol[0][0]                     
__________________________________________________________________________________________________
flatten_49 (Flatten)            (None, 511)          0           tokenEmb[0][0]                   
__________________________________________________________________________________________________
flatten_50 (Flatten)            (None, 60)           0           affixeseEmb[0][0]                
__________________________________________________________________________________________________
flatten_51 (Flatten)            (None, 15)           0           capitalizationEmb[0][0]          
__________________________________________________________________________________________________
flatten_52 (Flatten)            (None, 11)           0           symbolsEmb[0][0]                 
__________________________________________________________________________________________________
concatenate_15 (Concatenate)    (None, 597)          0           flatten_49[0][0]                 
                                                                 flatten_50[0][0]                 
                                                                 flatten_51[0][0]                 
                                                                 flatten_52[0][0]                 
__________________________________________________________________________________________________
posDense (Dense)                (None, 48)           28704       concatenate_15[0][0]             
__________________________________________________________________________________________________
dense_3 (Dense)                 (None, 109)          5341        posDense[0][0]                   
==================================================================================================
Total params: 1,664,753
Trainable params: 1,664,753
Non-trainable params: 0
__________________________________________________________________________________________________
None
==================================================================================================

__________________________________________________________________________________________________
	Optimizer : Adagrad,  learning rate = 0.011
__________________________________________________________________________________________________
__________________________________________________________________________________________________
Layer (type)                    Output Shape         Param #     Connected to                     
==================================================================================================
bxTokens (InputLayer)           (None, 7)            0                                            
__________________________________________________________________________________________________
bxAffixes (InputLayer)          (None, 12)           0                                            
__________________________________________________________________________________________________
bxCapitalization (InputLayer)   (None, 3)            0                                            
__________________________________________________________________________________________________
bxSymbols (InputLayer)          (None, 1)            0                                            
__________________________________________________________________________________________________
b1Tokens (InputLayer)           (None, 7)            0                                            
__________________________________________________________________________________________________
b1Affixes (InputLayer)          (None, 12)           0                                            
__________________________________________________________________________________________________
b1Capitalization (InputLayer)   (None, 3)            0                                            
__________________________________________________________________________________________________
b1Symbols (InputLayer)          (None, 1)            0                                            
__________________________________________________________________________________________________
b0Tokens (InputLayer)           (None, 7)            0                                            
__________________________________________________________________________________________________
b0Affixes (InputLayer)          (None, 12)           0                                            
__________________________________________________________________________________________________
b0Capitalization (InputLayer)   (None, 3)            0                                            
__________________________________________________________________________________________________
b0Symbols (InputLayer)          (None, 1)            0                                            
__________________________________________________________________________________________________
s0Tokens (InputLayer)           (None, 7)            0                                            
__________________________________________________________________________________________________
s0Affixes (InputLayer)          (None, 12)           0                                            
__________________________________________________________________________________________________
s0Capitalization (InputLayer)   (None, 3)            0                                            
__________________________________________________________________________________________________
s0Symbols (InputLayer)          (None, 1)            0                                            
__________________________________________________________________________________________________
s1Tokens (InputLayer)           (None, 7)            0                                            
__________________________________________________________________________________________________
s1Affixes (InputLayer)          (None, 12)           0                                            
__________________________________________________________________________________________________
s1Capitalization (InputLayer)   (None, 3)            0                                            
__________________________________________________________________________________________________
s1Symbols (InputLayer)          (None, 1)            0                                            
__________________________________________________________________________________________________
tokenEmb (Embedding)            (None, 7, 73)        1611183     bxTokens[0][0]                   
                                                                 b1Tokens[0][0]                   
                                                                 b0Tokens[0][0]                   
                                                                 s0Tokens[0][0]                   
                                                                 s1Tokens[0][0]                   
__________________________________________________________________________________________________
affixeseEmb (Embedding)         (None, 12, 5)        19285       bxAffixes[0][0]                  
                                                                 b1Affixes[0][0]                  
                                                                 b0Affixes[0][0]                  
                                                                 s0Affixes[0][0]                  
                                                                 s1Affixes[0][0]                  
__________________________________________________________________________________________________
capitalizationEmb (Embedding)   (None, 3, 5)         20          bxCapitalization[0][0]           
                                                                 b1Capitalization[0][0]           
                                                                 b0Capitalization[0][0]           
                                                                 s0Capitalization[0][0]           
                                                                 s1Capitalization[0][0]           
__________________________________________________________________________________________________
symbolsEmb (Embedding)          (None, 1, 11)        220         bxSymbols[0][0]                  
                                                                 b1Symbols[0][0]                  
                                                                 b0Symbols[0][0]                  
                                                                 s0Symbols[0][0]                  
                                                                 s1Symbols[0][0]                  
__________________________________________________________________________________________________
flatten_53 (Flatten)            (None, 511)          0           tokenEmb[1][0]                   
__________________________________________________________________________________________________
flatten_54 (Flatten)            (None, 60)           0           affixeseEmb[1][0]                
__________________________________________________________________________________________________
flatten_55 (Flatten)            (None, 15)           0           capitalizationEmb[1][0]          
__________________________________________________________________________________________________
flatten_56 (Flatten)            (None, 11)           0           symbolsEmb[1][0]                 
__________________________________________________________________________________________________
flatten_57 (Flatten)            (None, 511)          0           tokenEmb[2][0]                   
__________________________________________________________________________________________________
flatten_58 (Flatten)            (None, 60)           0           affixeseEmb[2][0]                
__________________________________________________________________________________________________
flatten_59 (Flatten)            (None, 15)           0           capitalizationEmb[2][0]          
__________________________________________________________________________________________________
flatten_60 (Flatten)            (None, 11)           0           symbolsEmb[2][0]                 
__________________________________________________________________________________________________
flatten_61 (Flatten)            (None, 511)          0           tokenEmb[3][0]                   
__________________________________________________________________________________________________
flatten_62 (Flatten)            (None, 60)           0           affixeseEmb[3][0]                
__________________________________________________________________________________________________
flatten_63 (Flatten)            (None, 15)           0           capitalizationEmb[3][0]          
__________________________________________________________________________________________________
flatten_64 (Flatten)            (None, 11)           0           symbolsEmb[3][0]                 
__________________________________________________________________________________________________
flatten_65 (Flatten)            (None, 511)          0           tokenEmb[4][0]                   
__________________________________________________________________________________________________
flatten_66 (Flatten)            (None, 60)           0           affixeseEmb[4][0]                
__________________________________________________________________________________________________
flatten_67 (Flatten)            (None, 15)           0           capitalizationEmb[4][0]          
__________________________________________________________________________________________________
flatten_68 (Flatten)            (None, 11)           0           symbolsEmb[4][0]                 
__________________________________________________________________________________________________
flatten_69 (Flatten)            (None, 511)          0           tokenEmb[5][0]                   
__________________________________________________________________________________________________
flatten_70 (Flatten)            (None, 60)           0           affixeseEmb[5][0]                
__________________________________________________________________________________________________
flatten_71 (Flatten)            (None, 15)           0           capitalizationEmb[5][0]          
__________________________________________________________________________________________________
flatten_72 (Flatten)            (None, 11)           0           symbolsEmb[5][0]                 
__________________________________________________________________________________________________
concatenate_16 (Concatenate)    (None, 597)          0           flatten_53[0][0]                 
                                                                 flatten_54[0][0]                 
                                                                 flatten_55[0][0]                 
                                                                 flatten_56[0][0]                 
__________________________________________________________________________________________________
concatenate_17 (Concatenate)    (None, 597)          0           flatten_57[0][0]                 
                                                                 flatten_58[0][0]                 
                                                                 flatten_59[0][0]                 
                                                                 flatten_60[0][0]                 
__________________________________________________________________________________________________
concatenate_18 (Concatenate)    (None, 597)          0           flatten_61[0][0]                 
                                                                 flatten_62[0][0]                 
                                                                 flatten_63[0][0]                 
                                                                 flatten_64[0][0]                 
__________________________________________________________________________________________________
concatenate_19 (Concatenate)    (None, 597)          0           flatten_65[0][0]                 
                                                                 flatten_66[0][0]                 
                                                                 flatten_67[0][0]                 
                                                                 flatten_68[0][0]                 
__________________________________________________________________________________________________
concatenate_20 (Concatenate)    (None, 597)          0           flatten_69[0][0]                 
                                                                 flatten_70[0][0]                 
                                                                 flatten_71[0][0]                 
                                                                 flatten_72[0][0]                 
__________________________________________________________________________________________________
posDense (Dense)                (None, 48)           28704       concatenate_16[0][0]             
                                                                 concatenate_17[0][0]             
                                                                 concatenate_18[0][0]             
                                                                 concatenate_19[0][0]             
                                                                 concatenate_20[0][0]             
__________________________________________________________________________________________________
concatenate_21 (Concatenate)    (None, 240)          0           posDense[1][0]                   
                                                                 posDense[2][0]                   
                                                                 posDense[3][0]                   
                                                                 posDense[4][0]                   
                                                                 posDense[5][0]                   
__________________________________________________________________________________________________
idenDense (Dense)               (None, 58)           13978       concatenate_21[0][0]             
__________________________________________________________________________________________________
idenSoftMax (Dense)             (None, 4)            236         idenDense[0][0]                  
==================================================================================================
Total params: 1,673,626
Trainable params: 1,673,626
Non-trainable params: 0
__________________________________________________________________________________________________
None
==================================================================================================
…
	One occurrence keys in vocabulary 1622 / 7545

__________________________________________________________________________________________________
	Optimizer : Adagrad,  learning rate = 0.124
__________________________________________________________________________________________________
__________________________________________________________________________________________________
Layer (type)                    Output Shape         Param #     Connected to                     
==================================================================================================
tokens (InputLayer)             (None, 7)            0                                            
__________________________________________________________________________________________________
affixes (InputLayer)            (None, 12)           0                                            
__________________________________________________________________________________________________
tokenEmb (Embedding)            (None, 7, 53)        399885      tokens[0][0]                     
__________________________________________________________________________________________________
affixeseEmb (Embedding)         (None, 12, 14)       16604       affixes[0][0]                    
__________________________________________________________________________________________________
flatten_73 (Flatten)            (None, 371)          0           tokenEmb[0][0]                   
__________________________________________________________________________________________________
flatten_74 (Flatten)            (None, 168)          0           affixeseEmb[0][0]                
__________________________________________________________________________________________________
concatenate_22 (Concatenate)    (None, 539)          0           flatten_73[0][0]                 
                                                                 flatten_74[0][0]                 
__________________________________________________________________________________________________
posDense (Dense)                (None, 31)           16740       concatenate_22[0][0]             
__________________________________________________________________________________________________
dense_4 (Dense)                 (None, 152)          4864        posDense[0][0]                   
==================================================================================================
Total params: 438,093
Trainable params: 438,093
Non-trainable params: 0
__________________________________________________________________________________________________
None
==================================================================================================

__________________________________________________________________________________________________
	Optimizer : Adagrad,  learning rate = 0.124
__________________________________________________________________________________________________
__________________________________________________________________________________________________
Layer (type)                    Output Shape         Param #     Connected to                     
==================================================================================================
bxTokens (InputLayer)           (None, 7)            0                                            
__________________________________________________________________________________________________
bxAffixes (InputLayer)          (None, 12)           0                                            
__________________________________________________________________________________________________
b1Tokens (InputLayer)           (None, 7)            0                                            
__________________________________________________________________________________________________
b1Affixes (InputLayer)          (None, 12)           0                                            
__________________________________________________________________________________________________
b0Tokens (InputLayer)           (None, 7)            0                                            
__________________________________________________________________________________________________
b0Affixes (InputLayer)          (None, 12)           0                                            
__________________________________________________________________________________________________
s0Tokens (InputLayer)           (None, 7)            0                                            
__________________________________________________________________________________________________
s0Affixes (InputLayer)          (None, 12)           0                                            
__________________________________________________________________________________________________
s1Tokens (InputLayer)           (None, 7)            0                                            
__________________________________________________________________________________________________
s1Affixes (InputLayer)          (None, 12)           0                                            
__________________________________________________________________________________________________
tokenEmb (Embedding)            (None, 7, 53)        399885      bxTokens[0][0]                   
                                                                 b1Tokens[0][0]                   
                                                                 b0Tokens[0][0]                   
                                                                 s0Tokens[0][0]                   
                                                                 s1Tokens[0][0]                   
__________________________________________________________________________________________________
affixeseEmb (Embedding)         (None, 12, 14)       16604       bxAffixes[0][0]                  
                                                                 b1Affixes[0][0]                  
                                                                 b0Affixes[0][0]                  
                                                                 s0Affixes[0][0]                  
                                                                 s1Affixes[0][0]                  
__________________________________________________________________________________________________
flatten_75 (Flatten)            (None, 371)          0           tokenEmb[1][0]                   
__________________________________________________________________________________________________
flatten_76 (Flatten)            (None, 168)          0           affixeseEmb[1][0]                
__________________________________________________________________________________________________
flatten_77 (Flatten)            (None, 371)          0           tokenEmb[2][0]                   
__________________________________________________________________________________________________
flatten_78 (Flatten)            (None, 168)          0           affixeseEmb[2][0]                
__________________________________________________________________________________________________
flatten_79 (Flatten)            (None, 371)          0           tokenEmb[3][0]                   
__________________________________________________________________________________________________
flatten_80 (Flatten)            (None, 168)          0           affixeseEmb[3][0]                
__________________________________________________________________________________________________
flatten_81 (Flatten)            (None, 371)          0           tokenEmb[4][0]                   
__________________________________________________________________________________________________
flatten_82 (Flatten)            (None, 168)          0           affixeseEmb[4][0]                
__________________________________________________________________________________________________
flatten_83 (Flatten)            (None, 371)          0           tokenEmb[5][0]                   
__________________________________________________________________________________________________
flatten_84 (Flatten)            (None, 168)          0           affixeseEmb[5][0]                
__________________________________________________________________________________________________
concatenate_23 (Concatenate)    (None, 539)          0           flatten_75[0][0]                 
                                                                 flatten_76[0][0]                 
__________________________________________________________________________________________________
concatenate_24 (Concatenate)    (None, 539)          0           flatten_77[0][0]                 
                                                                 flatten_78[0][0]                 
__________________________________________________________________________________________________
concatenate_25 (Concatenate)    (None, 539)          0           flatten_79[0][0]                 
                                                                 flatten_80[0][0]                 
__________________________________________________________________________________________________
concatenate_26 (Concatenate)    (None, 539)          0           flatten_81[0][0]                 
                                                                 flatten_82[0][0]                 
__________________________________________________________________________________________________
concatenate_27 (Concatenate)    (None, 539)          0           flatten_83[0][0]                 
                                                                 flatten_84[0][0]                 
__________________________________________________________________________________________________
posDense (Dense)                (None, 31)           16740       concatenate_23[0][0]             
                                                                 concatenate_24[0][0]             
                                                                 concatenate_25[0][0]             
                                                                 concatenate_26[0][0]             
                                                                 concatenate_27[0][0]             
__________________________________________________________________________________________________
concatenate_28 (Concatenate)    (None, 155)          0           posDense[1][0]                   
                                                                 posDense[2][0]                   
                                                                 posDense[3][0]                   
                                                                 posDense[4][0]                   
                                                                 posDense[5][0]                   
__________________________________________________________________________________________________
idenDense (Dense)               (None, 32)           4992        concatenate_28[0][0]             
__________________________________________________________________________________________________
idenSoftMax (Dense)             (None, 4)            132         idenDense[0][0]                  
==================================================================================================
Total params: 438,353
Trainable params: 438,353
Non-trainable params: 0
__________________________________________________________________________________________________
None
==================================================================================================
…
	One occurrence keys in vocabulary 1674 / 7241

__________________________________________________________________________________________________
	Optimizer : Adagrad,  learning rate = 0.124
__________________________________________________________________________________________________
__________________________________________________________________________________________________
Layer (type)                    Output Shape         Param #     Connected to                     
==================================================================================================
tokens (InputLayer)             (None, 7)            0                                            
__________________________________________________________________________________________________
affixes (InputLayer)            (None, 12)           0                                            
__________________________________________________________________________________________________
tokenEmb (Embedding)            (None, 7, 53)        383773      tokens[0][0]                     
__________________________________________________________________________________________________
affixeseEmb (Embedding)         (None, 12, 14)       47628       affixes[0][0]                    
__________________________________________________________________________________________________
flatten_85 (Flatten)            (None, 371)          0           tokenEmb[0][0]                   
__________________________________________________________________________________________________
flatten_86 (Flatten)            (None, 168)          0           affixeseEmb[0][0]                
__________________________________________________________________________________________________
concatenate_29 (Concatenate)    (None, 539)          0           flatten_85[0][0]                 
                                                                 flatten_86[0][0]                 
__________________________________________________________________________________________________
posDense (Dense)                (None, 31)           16740       concatenate_29[0][0]             
__________________________________________________________________________________________________
dense_5 (Dense)                 (None, 169)          5408        posDense[0][0]                   
==================================================================================================
Total params: 453,549
Trainable params: 453,549
Non-trainable params: 0
__________________________________________________________________________________________________
None
==================================================================================================

__________________________________________________________________________________________________
	Optimizer : Adagrad,  learning rate = 0.124
__________________________________________________________________________________________________
__________________________________________________________________________________________________
Layer (type)                    Output Shape         Param #     Connected to                     
==================================================================================================
bxTokens (InputLayer)           (None, 7)            0                                            
__________________________________________________________________________________________________
bxAffixes (InputLayer)          (None, 12)           0                                            
__________________________________________________________________________________________________
b1Tokens (InputLayer)           (None, 7)            0                                            
__________________________________________________________________________________________________
b1Affixes (InputLayer)          (None, 12)           0                                            
__________________________________________________________________________________________________
b0Tokens (InputLayer)           (None, 7)            0                                            
__________________________________________________________________________________________________
b0Affixes (InputLayer)          (None, 12)           0                                            
__________________________________________________________________________________________________
s0Tokens (InputLayer)           (None, 7)            0                                            
__________________________________________________________________________________________________
s0Affixes (InputLayer)          (None, 12)           0                                            
__________________________________________________________________________________________________
s1Tokens (InputLayer)           (None, 7)            0                                            
__________________________________________________________________________________________________
s1Affixes (InputLayer)          (None, 12)           0                                            
__________________________________________________________________________________________________
tokenEmb (Embedding)            (None, 7, 53)        383773      bxTokens[0][0]                   
                                                                 b1Tokens[0][0]                   
                                                                 b0Tokens[0][0]                   
                                                                 s0Tokens[0][0]                   
                                                                 s1Tokens[0][0]                   
__________________________________________________________________________________________________
affixeseEmb (Embedding)         (None, 12, 14)       47628       bxAffixes[0][0]                  
                                                                 b1Affixes[0][0]                  
                                                                 b0Affixes[0][0]                  
                                                                 s0Affixes[0][0]                  
                                                                 s1Affixes[0][0]                  
__________________________________________________________________________________________________
flatten_87 (Flatten)            (None, 371)          0           tokenEmb[1][0]                   
__________________________________________________________________________________________________
flatten_88 (Flatten)            (None, 168)          0           affixeseEmb[1][0]                
__________________________________________________________________________________________________
flatten_89 (Flatten)            (None, 371)          0           tokenEmb[2][0]                   
__________________________________________________________________________________________________
flatten_90 (Flatten)            (None, 168)          0           affixeseEmb[2][0]                
__________________________________________________________________________________________________
flatten_91 (Flatten)            (None, 371)          0           tokenEmb[3][0]                   
__________________________________________________________________________________________________
flatten_92 (Flatten)            (None, 168)          0           affixeseEmb[3][0]                
__________________________________________________________________________________________________
flatten_93 (Flatten)            (None, 371)          0           tokenEmb[4][0]                   
__________________________________________________________________________________________________
flatten_94 (Flatten)            (None, 168)          0           affixeseEmb[4][0]                
__________________________________________________________________________________________________
flatten_95 (Flatten)            (None, 371)          0           tokenEmb[5][0]                   
__________________________________________________________________________________________________
flatten_96 (Flatten)            (None, 168)          0           affixeseEmb[5][0]                
__________________________________________________________________________________________________
concatenate_30 (Concatenate)    (None, 539)          0           flatten_87[0][0]                 
                                                                 flatten_88[0][0]                 
__________________________________________________________________________________________________
concatenate_31 (Concatenate)    (None, 539)          0           flatten_89[0][0]                 
                                                                 flatten_90[0][0]                 
__________________________________________________________________________________________________
concatenate_32 (Concatenate)    (None, 539)          0           flatten_91[0][0]                 
                                                                 flatten_92[0][0]                 
__________________________________________________________________________________________________
concatenate_33 (Concatenate)    (None, 539)          0           flatten_93[0][0]                 
                                                                 flatten_94[0][0]                 
__________________________________________________________________________________________________
concatenate_34 (Concatenate)    (None, 539)          0           flatten_95[0][0]                 
                                                                 flatten_96[0][0]                 
__________________________________________________________________________________________________
posDense (Dense)                (None, 31)           16740       concatenate_30[0][0]             
                                                                 concatenate_31[0][0]             
                                                                 concatenate_32[0][0]             
                                                                 concatenate_33[0][0]             
                                                                 concatenate_34[0][0]             
__________________________________________________________________________________________________
concatenate_35 (Concatenate)    (None, 155)          0           posDense[1][0]                   
                                                                 posDense[2][0]                   
                                                                 posDense[3][0]                   
                                                                 posDense[4][0]                   
                                                                 posDense[5][0]                   
__________________________________________________________________________________________________
idenDense (Dense)               (None, 32)           4992        concatenate_35[0][0]             
__________________________________________________________________________________________________
idenSoftMax (Dense)             (None, 4)            132         idenDense[0][0]                  
==================================================================================================
Total params: 453,265
Trainable params: 453,265
Non-trainable params: 0
__________________________________________________________________________________________________
None
==================================================================================================
…
	One occurrence keys in vocabulary 3161 / 13793

__________________________________________________________________________________________________
	Optimizer : Adagrad,  learning rate = 0.124
__________________________________________________________________________________________________
__________________________________________________________________________________________________
Layer (type)                    Output Shape         Param #     Connected to                     
==================================================================================================
tokens (InputLayer)             (None, 7)            0                                            
__________________________________________________________________________________________________
affixes (InputLayer)            (None, 12)           0                                            
__________________________________________________________________________________________________
tokenEmb (Embedding)            (None, 7, 53)        731029      tokens[0][0]                     
__________________________________________________________________________________________________
affixeseEmb (Embedding)         (None, 12, 14)       53998       affixes[0][0]                    
__________________________________________________________________________________________________
flatten_97 (Flatten)            (None, 371)          0           tokenEmb[0][0]                   
__________________________________________________________________________________________________
flatten_98 (Flatten)            (None, 168)          0           affixeseEmb[0][0]                
__________________________________________________________________________________________________
concatenate_36 (Concatenate)    (None, 539)          0           flatten_97[0][0]                 
                                                                 flatten_98[0][0]                 
__________________________________________________________________________________________________
posDense (Dense)                (None, 31)           16740       concatenate_36[0][0]             
__________________________________________________________________________________________________
dense_6 (Dense)                 (None, 109)          3488        posDense[0][0]                   
==================================================================================================
Total params: 805,255
Trainable params: 805,255
Non-trainable params: 0
__________________________________________________________________________________________________
None
==================================================================================================

__________________________________________________________________________________________________
	Optimizer : Adagrad,  learning rate = 0.124
__________________________________________________________________________________________________
__________________________________________________________________________________________________
Layer (type)                    Output Shape         Param #     Connected to                     
==================================================================================================
bxTokens (InputLayer)           (None, 7)            0                                            
__________________________________________________________________________________________________
bxAffixes (InputLayer)          (None, 12)           0                                            
__________________________________________________________________________________________________
b1Tokens (InputLayer)           (None, 7)            0                                            
__________________________________________________________________________________________________
b1Affixes (InputLayer)          (None, 12)           0                                            
__________________________________________________________________________________________________
b0Tokens (InputLayer)           (None, 7)            0                                            
__________________________________________________________________________________________________
b0Affixes (InputLayer)          (None, 12)           0                                            
__________________________________________________________________________________________________
s0Tokens (InputLayer)           (None, 7)            0                                            
__________________________________________________________________________________________________
s0Affixes (InputLayer)          (None, 12)           0                                            
__________________________________________________________________________________________________
s1Tokens (InputLayer)           (None, 7)            0                                            
__________________________________________________________________________________________________
s1Affixes (InputLayer)          (None, 12)           0                                            
__________________________________________________________________________________________________
tokenEmb (Embedding)            (None, 7, 53)        731029      bxTokens[0][0]                   
                                                                 b1Tokens[0][0]                   
                                                                 b0Tokens[0][0]                   
                                                                 s0Tokens[0][0]                   
                                                                 s1Tokens[0][0]                   
__________________________________________________________________________________________________
affixeseEmb (Embedding)         (None, 12, 14)       53998       bxAffixes[0][0]                  
                                                                 b1Affixes[0][0]                  
                                                                 b0Affixes[0][0]                  
                                                                 s0Affixes[0][0]                  
                                                                 s1Affixes[0][0]                  
__________________________________________________________________________________________________
flatten_99 (Flatten)            (None, 371)          0           tokenEmb[1][0]                   
__________________________________________________________________________________________________
flatten_100 (Flatten)           (None, 168)          0           affixeseEmb[1][0]                
__________________________________________________________________________________________________
flatten_101 (Flatten)           (None, 371)          0           tokenEmb[2][0]                   
__________________________________________________________________________________________________
flatten_102 (Flatten)           (None, 168)          0           affixeseEmb[2][0]                
__________________________________________________________________________________________________
flatten_103 (Flatten)           (None, 371)          0           tokenEmb[3][0]                   
__________________________________________________________________________________________________
flatten_104 (Flatten)           (None, 168)          0           affixeseEmb[3][0]                
__________________________________________________________________________________________________
flatten_105 (Flatten)           (None, 371)          0           tokenEmb[4][0]                   
__________________________________________________________________________________________________
flatten_106 (Flatten)           (None, 168)          0           affixeseEmb[4][0]                
__________________________________________________________________________________________________
flatten_107 (Flatten)           (None, 371)          0           tokenEmb[5][0]                   
__________________________________________________________________________________________________
flatten_108 (Flatten)           (None, 168)          0           affixeseEmb[5][0]                
__________________________________________________________________________________________________
concatenate_37 (Concatenate)    (None, 539)          0           flatten_99[0][0]                 
                                                                 flatten_100[0][0]                
__________________________________________________________________________________________________
concatenate_38 (Concatenate)    (None, 539)          0           flatten_101[0][0]                
                                                                 flatten_102[0][0]                
__________________________________________________________________________________________________
concatenate_39 (Concatenate)    (None, 539)          0           flatten_103[0][0]                
                                                                 flatten_104[0][0]                
__________________________________________________________________________________________________
concatenate_40 (Concatenate)    (None, 539)          0           flatten_105[0][0]                
                                                                 flatten_106[0][0]                
__________________________________________________________________________________________________
concatenate_41 (Concatenate)    (None, 539)          0           flatten_107[0][0]                
                                                                 flatten_108[0][0]                
__________________________________________________________________________________________________
posDense (Dense)                (None, 31)           16740       concatenate_37[0][0]             
                                                                 concatenate_38[0][0]             
                                                                 concatenate_39[0][0]             
                                                                 concatenate_40[0][0]             
                                                                 concatenate_41[0][0]             
__________________________________________________________________________________________________
concatenate_42 (Concatenate)    (None, 155)          0           posDense[1][0]                   
                                                                 posDense[2][0]                   
                                                                 posDense[3][0]                   
                                                                 posDense[4][0]                   
                                                                 posDense[5][0]                   
__________________________________________________________________________________________________
idenDense (Dense)               (None, 32)           4992        concatenate_42[0][0]             
__________________________________________________________________________________________________
idenSoftMax (Dense)             (None, 4)            132         idenDense[0][0]                  
==================================================================================================
Total params: 806,891
Trainable params: 806,891
Non-trainable params: 0
__________________________________________________________________________________________________
None
==================================================================================================
…
	One occurrence keys in vocabulary 1622 / 7545

__________________________________________________________________________________________________
	Optimizer : Adagrad,  learning rate = 0.175
__________________________________________________________________________________________________
__________________________________________________________________________________________________
Layer (type)                    Output Shape         Param #     Connected to                     
==================================================================================================
tokens (InputLayer)             (None, 7)            0                                            
__________________________________________________________________________________________________
affixes (InputLayer)            (None, 12)           0                                            
__________________________________________________________________________________________________
capitalization (InputLayer)     (None, 3)            0                                            
__________________________________________________________________________________________________
symbol (InputLayer)             (None, 1)            0                                            
__________________________________________________________________________________________________
tokenEmb (Embedding)            (None, 7, 33)        248985      tokens[0][0]                     
__________________________________________________________________________________________________
affixeseEmb (Embedding)         (None, 12, 6)        7116        affixes[0][0]                    
__________________________________________________________________________________________________
capitalizationEmb (Embedding)   (None, 3, 1)         4           capitalization[0][0]             
__________________________________________________________________________________________________
symbolsEmb (Embedding)          (None, 1, 6)         120         symbol[0][0]                     
__________________________________________________________________________________________________
flatten_109 (Flatten)           (None, 231)          0           tokenEmb[0][0]                   
__________________________________________________________________________________________________
flatten_110 (Flatten)           (None, 72)           0           affixeseEmb[0][0]                
__________________________________________________________________________________________________
flatten_111 (Flatten)           (None, 3)            0           capitalizationEmb[0][0]          
__________________________________________________________________________________________________
flatten_112 (Flatten)           (None, 6)            0           symbolsEmb[0][0]                 
__________________________________________________________________________________________________
concatenate_43 (Concatenate)    (None, 312)          0           flatten_109[0][0]                
                                                                 flatten_110[0][0]                
                                                                 flatten_111[0][0]                
                                                                 flatten_112[0][0]                
__________________________________________________________________________________________________
posDense (Dense)                (None, 67)           20971       concatenate_43[0][0]             
__________________________________________________________________________________________________
dense_7 (Dense)                 (None, 152)          10336       posDense[0][0]                   
==================================================================================================
Total params: 287,532
Trainable params: 287,532
Non-trainable params: 0
__________________________________________________________________________________________________
None
==================================================================================================

__________________________________________________________________________________________________
	Optimizer : Adagrad,  learning rate = 0.175
__________________________________________________________________________________________________
__________________________________________________________________________________________________
Layer (type)                    Output Shape         Param #     Connected to                     
==================================================================================================
bxTokens (InputLayer)           (None, 7)            0                                            
__________________________________________________________________________________________________
bxAffixes (InputLayer)          (None, 12)           0                                            
__________________________________________________________________________________________________
bxCapitalization (InputLayer)   (None, 3)            0                                            
__________________________________________________________________________________________________
bxSymbols (InputLayer)          (None, 1)            0                                            
__________________________________________________________________________________________________
b1Tokens (InputLayer)           (None, 7)            0                                            
__________________________________________________________________________________________________
b1Affixes (InputLayer)          (None, 12)           0                                            
__________________________________________________________________________________________________
b1Capitalization (InputLayer)   (None, 3)            0                                            
__________________________________________________________________________________________________
b1Symbols (InputLayer)          (None, 1)            0                                            
__________________________________________________________________________________________________
b0Tokens (InputLayer)           (None, 7)            0                                            
__________________________________________________________________________________________________
b0Affixes (InputLayer)          (None, 12)           0                                            
__________________________________________________________________________________________________
b0Capitalization (InputLayer)   (None, 3)            0                                            
__________________________________________________________________________________________________
b0Symbols (InputLayer)          (None, 1)            0                                            
__________________________________________________________________________________________________
s0Tokens (InputLayer)           (None, 7)            0                                            
__________________________________________________________________________________________________
s0Affixes (InputLayer)          (None, 12)           0                                            
__________________________________________________________________________________________________
s0Capitalization (InputLayer)   (None, 3)            0                                            
__________________________________________________________________________________________________
s0Symbols (InputLayer)          (None, 1)            0                                            
__________________________________________________________________________________________________
s1Tokens (InputLayer)           (None, 7)            0                                            
__________________________________________________________________________________________________
s1Affixes (InputLayer)          (None, 12)           0                                            
__________________________________________________________________________________________________
s1Capitalization (InputLayer)   (None, 3)            0                                            
__________________________________________________________________________________________________
s1Symbols (InputLayer)          (None, 1)            0                                            
__________________________________________________________________________________________________
tokenEmb (Embedding)            (None, 7, 33)        248985      bxTokens[0][0]                   
                                                                 b1Tokens[0][0]                   
                                                                 b0Tokens[0][0]                   
                                                                 s0Tokens[0][0]                   
                                                                 s1Tokens[0][0]                   
__________________________________________________________________________________________________
affixeseEmb (Embedding)         (None, 12, 6)        7116        bxAffixes[0][0]                  
                                                                 b1Affixes[0][0]                  
                                                                 b0Affixes[0][0]                  
                                                                 s0Affixes[0][0]                  
                                                                 s1Affixes[0][0]                  
__________________________________________________________________________________________________
capitalizationEmb (Embedding)   (None, 3, 1)         4           bxCapitalization[0][0]           
                                                                 b1Capitalization[0][0]           
                                                                 b0Capitalization[0][0]           
                                                                 s0Capitalization[0][0]           
                                                                 s1Capitalization[0][0]           
__________________________________________________________________________________________________
symbolsEmb (Embedding)          (None, 1, 6)         120         bxSymbols[0][0]                  
                                                                 b1Symbols[0][0]                  
                                                                 b0Symbols[0][0]                  
                                                                 s0Symbols[0][0]                  
                                                                 s1Symbols[0][0]                  
__________________________________________________________________________________________________
flatten_113 (Flatten)           (None, 231)          0           tokenEmb[1][0]                   
__________________________________________________________________________________________________
flatten_114 (Flatten)           (None, 72)           0           affixeseEmb[1][0]                
__________________________________________________________________________________________________
flatten_115 (Flatten)           (None, 3)            0           capitalizationEmb[1][0]          
__________________________________________________________________________________________________
flatten_116 (Flatten)           (None, 6)            0           symbolsEmb[1][0]                 
__________________________________________________________________________________________________
flatten_117 (Flatten)           (None, 231)          0           tokenEmb[2][0]                   
__________________________________________________________________________________________________
flatten_118 (Flatten)           (None, 72)           0           affixeseEmb[2][0]                
__________________________________________________________________________________________________
flatten_119 (Flatten)           (None, 3)            0           capitalizationEmb[2][0]          
__________________________________________________________________________________________________
flatten_120 (Flatten)           (None, 6)            0           symbolsEmb[2][0]                 
__________________________________________________________________________________________________
flatten_121 (Flatten)           (None, 231)          0           tokenEmb[3][0]                   
__________________________________________________________________________________________________
flatten_122 (Flatten)           (None, 72)           0           affixeseEmb[3][0]                
__________________________________________________________________________________________________
flatten_123 (Flatten)           (None, 3)            0           capitalizationEmb[3][0]          
__________________________________________________________________________________________________
flatten_124 (Flatten)           (None, 6)            0           symbolsEmb[3][0]                 
__________________________________________________________________________________________________
flatten_125 (Flatten)           (None, 231)          0           tokenEmb[4][0]                   
__________________________________________________________________________________________________
flatten_126 (Flatten)           (None, 72)           0           affixeseEmb[4][0]                
__________________________________________________________________________________________________
flatten_127 (Flatten)           (None, 3)            0           capitalizationEmb[4][0]          
__________________________________________________________________________________________________
flatten_128 (Flatten)           (None, 6)            0           symbolsEmb[4][0]                 
__________________________________________________________________________________________________
flatten_129 (Flatten)           (None, 231)          0           tokenEmb[5][0]                   
__________________________________________________________________________________________________
flatten_130 (Flatten)           (None, 72)           0           affixeseEmb[5][0]                
__________________________________________________________________________________________________
flatten_131 (Flatten)           (None, 3)            0           capitalizationEmb[5][0]          
__________________________________________________________________________________________________
flatten_132 (Flatten)           (None, 6)            0           symbolsEmb[5][0]                 
__________________________________________________________________________________________________
concatenate_44 (Concatenate)    (None, 312)          0           flatten_113[0][0]                
                                                                 flatten_114[0][0]                
                                                                 flatten_115[0][0]                
                                                                 flatten_116[0][0]                
__________________________________________________________________________________________________
concatenate_45 (Concatenate)    (None, 312)          0           flatten_117[0][0]                
                                                                 flatten_118[0][0]                
                                                                 flatten_119[0][0]                
                                                                 flatten_120[0][0]                
__________________________________________________________________________________________________
concatenate_46 (Concatenate)    (None, 312)          0           flatten_121[0][0]                
                                                                 flatten_122[0][0]                
                                                                 flatten_123[0][0]                
                                                                 flatten_124[0][0]                
__________________________________________________________________________________________________
concatenate_47 (Concatenate)    (None, 312)          0           flatten_125[0][0]                
                                                                 flatten_126[0][0]                
                                                                 flatten_127[0][0]                
                                                                 flatten_128[0][0]                
__________________________________________________________________________________________________
concatenate_48 (Concatenate)    (None, 312)          0           flatten_129[0][0]                
                                                                 flatten_130[0][0]                
                                                                 flatten_131[0][0]                
                                                                 flatten_132[0][0]                
__________________________________________________________________________________________________
posDense (Dense)                (None, 67)           20971       concatenate_44[0][0]             
                                                                 concatenate_45[0][0]             
                                                                 concatenate_46[0][0]             
                                                                 concatenate_47[0][0]             
                                                                 concatenate_48[0][0]             
__________________________________________________________________________________________________
concatenate_49 (Concatenate)    (None, 335)          0           posDense[1][0]                   
                                                                 posDense[2][0]                   
                                                                 posDense[3][0]                   
                                                                 posDense[4][0]                   
                                                                 posDense[5][0]                   
__________________________________________________________________________________________________
idenDense (Dense)               (None, 151)          50736       concatenate_49[0][0]             
__________________________________________________________________________________________________
idenSoftMax (Dense)             (None, 4)            608         idenDense[0][0]                  
==================================================================================================
Total params: 328,540
Trainable params: 328,540
Non-trainable params: 0
__________________________________________________________________________________________________
None
==================================================================================================
…
	One occurrence keys in vocabulary 1674 / 7241

__________________________________________________________________________________________________
	Optimizer : Adagrad,  learning rate = 0.175
__________________________________________________________________________________________________
__________________________________________________________________________________________________
Layer (type)                    Output Shape         Param #     Connected to                     
==================================================================================================
tokens (InputLayer)             (None, 7)            0                                            
__________________________________________________________________________________________________
affixes (InputLayer)            (None, 12)           0                                            
__________________________________________________________________________________________________
capitalization (InputLayer)     (None, 3)            0                                            
__________________________________________________________________________________________________
symbol (InputLayer)             (None, 1)            0                                            
__________________________________________________________________________________________________
tokenEmb (Embedding)            (None, 7, 33)        238953      tokens[0][0]                     
__________________________________________________________________________________________________
affixeseEmb (Embedding)         (None, 12, 6)        20412       affixes[0][0]                    
__________________________________________________________________________________________________
capitalizationEmb (Embedding)   (None, 3, 1)         4           capitalization[0][0]             
__________________________________________________________________________________________________
symbolsEmb (Embedding)          (None, 1, 6)         120         symbol[0][0]                     
__________________________________________________________________________________________________
flatten_133 (Flatten)           (None, 231)          0           tokenEmb[0][0]                   
__________________________________________________________________________________________________
flatten_134 (Flatten)           (None, 72)           0           affixeseEmb[0][0]                
__________________________________________________________________________________________________
flatten_135 (Flatten)           (None, 3)            0           capitalizationEmb[0][0]          
__________________________________________________________________________________________________
flatten_136 (Flatten)           (None, 6)            0           symbolsEmb[0][0]                 
__________________________________________________________________________________________________
concatenate_50 (Concatenate)    (None, 312)          0           flatten_133[0][0]                
                                                                 flatten_134[0][0]                
                                                                 flatten_135[0][0]                
                                                                 flatten_136[0][0]                
__________________________________________________________________________________________________
posDense (Dense)                (None, 67)           20971       concatenate_50[0][0]             
__________________________________________________________________________________________________
dense_8 (Dense)                 (None, 169)          11492       posDense[0][0]                   
==================================================================================================
Total params: 291,952
Trainable params: 291,952
Non-trainable params: 0
__________________________________________________________________________________________________
None
==================================================================================================

__________________________________________________________________________________________________
	Optimizer : Adagrad,  learning rate = 0.175
__________________________________________________________________________________________________
__________________________________________________________________________________________________
Layer (type)                    Output Shape         Param #     Connected to                     
==================================================================================================
bxTokens (InputLayer)           (None, 7)            0                                            
__________________________________________________________________________________________________
bxAffixes (InputLayer)          (None, 12)           0                                            
__________________________________________________________________________________________________
bxCapitalization (InputLayer)   (None, 3)            0                                            
__________________________________________________________________________________________________
bxSymbols (InputLayer)          (None, 1)            0                                            
__________________________________________________________________________________________________
b1Tokens (InputLayer)           (None, 7)            0                                            
__________________________________________________________________________________________________
b1Affixes (InputLayer)          (None, 12)           0                                            
__________________________________________________________________________________________________
b1Capitalization (InputLayer)   (None, 3)            0                                            
__________________________________________________________________________________________________
b1Symbols (InputLayer)          (None, 1)            0                                            
__________________________________________________________________________________________________
b0Tokens (InputLayer)           (None, 7)            0                                            
__________________________________________________________________________________________________
b0Affixes (InputLayer)          (None, 12)           0                                            
__________________________________________________________________________________________________
b0Capitalization (InputLayer)   (None, 3)            0                                            
__________________________________________________________________________________________________
b0Symbols (InputLayer)          (None, 1)            0                                            
__________________________________________________________________________________________________
s0Tokens (InputLayer)           (None, 7)            0                                            
__________________________________________________________________________________________________
s0Affixes (InputLayer)          (None, 12)           0                                            
__________________________________________________________________________________________________
s0Capitalization (InputLayer)   (None, 3)            0                                            
__________________________________________________________________________________________________
s0Symbols (InputLayer)          (None, 1)            0                                            
__________________________________________________________________________________________________
s1Tokens (InputLayer)           (None, 7)            0                                            
__________________________________________________________________________________________________
s1Affixes (InputLayer)          (None, 12)           0                                            
__________________________________________________________________________________________________
s1Capitalization (InputLayer)   (None, 3)            0                                            
__________________________________________________________________________________________________
s1Symbols (InputLayer)          (None, 1)            0                                            
__________________________________________________________________________________________________
tokenEmb (Embedding)            (None, 7, 33)        238953      bxTokens[0][0]                   
                                                                 b1Tokens[0][0]                   
                                                                 b0Tokens[0][0]                   
                                                                 s0Tokens[0][0]                   
                                                                 s1Tokens[0][0]                   
__________________________________________________________________________________________________
affixeseEmb (Embedding)         (None, 12, 6)        20412       bxAffixes[0][0]                  
                                                                 b1Affixes[0][0]                  
                                                                 b0Affixes[0][0]                  
                                                                 s0Affixes[0][0]                  
                                                                 s1Affixes[0][0]                  
__________________________________________________________________________________________________
capitalizationEmb (Embedding)   (None, 3, 1)         4           bxCapitalization[0][0]           
                                                                 b1Capitalization[0][0]           
                                                                 b0Capitalization[0][0]           
                                                                 s0Capitalization[0][0]           
                                                                 s1Capitalization[0][0]           
__________________________________________________________________________________________________
symbolsEmb (Embedding)          (None, 1, 6)         120         bxSymbols[0][0]                  
                                                                 b1Symbols[0][0]                  
                                                                 b0Symbols[0][0]                  
                                                                 s0Symbols[0][0]                  
                                                                 s1Symbols[0][0]                  
__________________________________________________________________________________________________
flatten_137 (Flatten)           (None, 231)          0           tokenEmb[1][0]                   
__________________________________________________________________________________________________
flatten_138 (Flatten)           (None, 72)           0           affixeseEmb[1][0]                
__________________________________________________________________________________________________
flatten_139 (Flatten)           (None, 3)            0           capitalizationEmb[1][0]          
__________________________________________________________________________________________________
flatten_140 (Flatten)           (None, 6)            0           symbolsEmb[1][0]                 
__________________________________________________________________________________________________
flatten_141 (Flatten)           (None, 231)          0           tokenEmb[2][0]                   
__________________________________________________________________________________________________
flatten_142 (Flatten)           (None, 72)           0           affixeseEmb[2][0]                
__________________________________________________________________________________________________
flatten_143 (Flatten)           (None, 3)            0           capitalizationEmb[2][0]          
__________________________________________________________________________________________________
flatten_144 (Flatten)           (None, 6)            0           symbolsEmb[2][0]                 
__________________________________________________________________________________________________
flatten_145 (Flatten)           (None, 231)          0           tokenEmb[3][0]                   
__________________________________________________________________________________________________
flatten_146 (Flatten)           (None, 72)           0           affixeseEmb[3][0]                
__________________________________________________________________________________________________
flatten_147 (Flatten)           (None, 3)            0           capitalizationEmb[3][0]          
__________________________________________________________________________________________________
flatten_148 (Flatten)           (None, 6)            0           symbolsEmb[3][0]                 
__________________________________________________________________________________________________
flatten_149 (Flatten)           (None, 231)          0           tokenEmb[4][0]                   
__________________________________________________________________________________________________
flatten_150 (Flatten)           (None, 72)           0           affixeseEmb[4][0]                
__________________________________________________________________________________________________
flatten_151 (Flatten)           (None, 3)            0           capitalizationEmb[4][0]          
__________________________________________________________________________________________________
flatten_152 (Flatten)           (None, 6)            0           symbolsEmb[4][0]                 
__________________________________________________________________________________________________
flatten_153 (Flatten)           (None, 231)          0           tokenEmb[5][0]                   
__________________________________________________________________________________________________
flatten_154 (Flatten)           (None, 72)           0           affixeseEmb[5][0]                
__________________________________________________________________________________________________
flatten_155 (Flatten)           (None, 3)            0           capitalizationEmb[5][0]          
__________________________________________________________________________________________________
flatten_156 (Flatten)           (None, 6)            0           symbolsEmb[5][0]                 
__________________________________________________________________________________________________
concatenate_51 (Concatenate)    (None, 312)          0           flatten_137[0][0]                
                                                                 flatten_138[0][0]                
                                                                 flatten_139[0][0]                
                                                                 flatten_140[0][0]                
__________________________________________________________________________________________________
concatenate_52 (Concatenate)    (None, 312)          0           flatten_141[0][0]                
                                                                 flatten_142[0][0]                
                                                                 flatten_143[0][0]                
                                                                 flatten_144[0][0]                
__________________________________________________________________________________________________
concatenate_53 (Concatenate)    (None, 312)          0           flatten_145[0][0]                
                                                                 flatten_146[0][0]                
                                                                 flatten_147[0][0]                
                                                                 flatten_148[0][0]                
__________________________________________________________________________________________________
concatenate_54 (Concatenate)    (None, 312)          0           flatten_149[0][0]                
                                                                 flatten_150[0][0]                
                                                                 flatten_151[0][0]                
                                                                 flatten_152[0][0]                
__________________________________________________________________________________________________
concatenate_55 (Concatenate)    (None, 312)          0           flatten_153[0][0]                
                                                                 flatten_154[0][0]                
                                                                 flatten_155[0][0]                
                                                                 flatten_156[0][0]                
__________________________________________________________________________________________________
posDense (Dense)                (None, 67)           20971       concatenate_51[0][0]             
                                                                 concatenate_52[0][0]             
                                                                 concatenate_53[0][0]             
                                                                 concatenate_54[0][0]             
                                                                 concatenate_55[0][0]             
__________________________________________________________________________________________________
concatenate_56 (Concatenate)    (None, 335)          0           posDense[1][0]                   
                                                                 posDense[2][0]                   
                                                                 posDense[3][0]                   
                                                                 posDense[4][0]                   
                                                                 posDense[5][0]                   
__________________________________________________________________________________________________
idenDense (Dense)               (None, 151)          50736       concatenate_56[0][0]             
__________________________________________________________________________________________________
idenSoftMax (Dense)             (None, 4)            608         idenDense[0][0]                  
==================================================================================================
Total params: 331,804
Trainable params: 331,804
Non-trainable params: 0
__________________________________________________________________________________________________
None
==================================================================================================
…
	One occurrence keys in vocabulary 3161 / 13793

__________________________________________________________________________________________________
	Optimizer : Adagrad,  learning rate = 0.175
__________________________________________________________________________________________________
__________________________________________________________________________________________________
Layer (type)                    Output Shape         Param #     Connected to                     
==================================================================================================
tokens (InputLayer)             (None, 7)            0                                            
__________________________________________________________________________________________________
affixes (InputLayer)            (None, 12)           0                                            
__________________________________________________________________________________________________
capitalization (InputLayer)     (None, 3)            0                                            
__________________________________________________________________________________________________
symbol (InputLayer)             (None, 1)            0                                            
__________________________________________________________________________________________________
tokenEmb (Embedding)            (None, 7, 33)        455169      tokens[0][0]                     
__________________________________________________________________________________________________
affixeseEmb (Embedding)         (None, 12, 6)        23142       affixes[0][0]                    
__________________________________________________________________________________________________
capitalizationEmb (Embedding)   (None, 3, 1)         4           capitalization[0][0]             
__________________________________________________________________________________________________
symbolsEmb (Embedding)          (None, 1, 6)         120         symbol[0][0]                     
__________________________________________________________________________________________________
flatten_157 (Flatten)           (None, 231)          0           tokenEmb[0][0]                   
__________________________________________________________________________________________________
flatten_158 (Flatten)           (None, 72)           0           affixeseEmb[0][0]                
__________________________________________________________________________________________________
flatten_159 (Flatten)           (None, 3)            0           capitalizationEmb[0][0]          
__________________________________________________________________________________________________
flatten_160 (Flatten)           (None, 6)            0           symbolsEmb[0][0]                 
__________________________________________________________________________________________________
concatenate_57 (Concatenate)    (None, 312)          0           flatten_157[0][0]                
                                                                 flatten_158[0][0]                
                                                                 flatten_159[0][0]                
                                                                 flatten_160[0][0]                
__________________________________________________________________________________________________
posDense (Dense)                (None, 67)           20971       concatenate_57[0][0]             
__________________________________________________________________________________________________
dense_9 (Dense)                 (None, 109)          7412        posDense[0][0]                   
==================================================================================================
Total params: 506,818
Trainable params: 506,818
Non-trainable params: 0
__________________________________________________________________________________________________
None
==================================================================================================

__________________________________________________________________________________________________
	Optimizer : Adagrad,  learning rate = 0.175
__________________________________________________________________________________________________
__________________________________________________________________________________________________
Layer (type)                    Output Shape         Param #     Connected to                     
==================================================================================================
bxTokens (InputLayer)           (None, 7)            0                                            
__________________________________________________________________________________________________
bxAffixes (InputLayer)          (None, 12)           0                                            
__________________________________________________________________________________________________
bxCapitalization (InputLayer)   (None, 3)            0                                            
__________________________________________________________________________________________________
bxSymbols (InputLayer)          (None, 1)            0                                            
__________________________________________________________________________________________________
b1Tokens (InputLayer)           (None, 7)            0                                            
__________________________________________________________________________________________________
b1Affixes (InputLayer)          (None, 12)           0                                            
__________________________________________________________________________________________________
b1Capitalization (InputLayer)   (None, 3)            0                                            
__________________________________________________________________________________________________
b1Symbols (InputLayer)          (None, 1)            0                                            
__________________________________________________________________________________________________
b0Tokens (InputLayer)           (None, 7)            0                                            
__________________________________________________________________________________________________
b0Affixes (InputLayer)          (None, 12)           0                                            
__________________________________________________________________________________________________
b0Capitalization (InputLayer)   (None, 3)            0                                            
__________________________________________________________________________________________________
b0Symbols (InputLayer)          (None, 1)            0                                            
__________________________________________________________________________________________________
s0Tokens (InputLayer)           (None, 7)            0                                            
__________________________________________________________________________________________________
s0Affixes (InputLayer)          (None, 12)           0                                            
__________________________________________________________________________________________________
s0Capitalization (InputLayer)   (None, 3)            0                                            
__________________________________________________________________________________________________
s0Symbols (InputLayer)          (None, 1)            0                                            
__________________________________________________________________________________________________
s1Tokens (InputLayer)           (None, 7)            0                                            
__________________________________________________________________________________________________
s1Affixes (InputLayer)          (None, 12)           0                                            
__________________________________________________________________________________________________
s1Capitalization (InputLayer)   (None, 3)            0                                            
__________________________________________________________________________________________________
s1Symbols (InputLayer)          (None, 1)            0                                            
__________________________________________________________________________________________________
tokenEmb (Embedding)            (None, 7, 33)        455169      bxTokens[0][0]                   
                                                                 b1Tokens[0][0]                   
                                                                 b0Tokens[0][0]                   
                                                                 s0Tokens[0][0]                   
                                                                 s1Tokens[0][0]                   
__________________________________________________________________________________________________
affixeseEmb (Embedding)         (None, 12, 6)        23142       bxAffixes[0][0]                  
                                                                 b1Affixes[0][0]                  
                                                                 b0Affixes[0][0]                  
                                                                 s0Affixes[0][0]                  
                                                                 s1Affixes[0][0]                  
__________________________________________________________________________________________________
capitalizationEmb (Embedding)   (None, 3, 1)         4           bxCapitalization[0][0]           
                                                                 b1Capitalization[0][0]           
                                                                 b0Capitalization[0][0]           
                                                                 s0Capitalization[0][0]           
                                                                 s1Capitalization[0][0]           
__________________________________________________________________________________________________
symbolsEmb (Embedding)          (None, 1, 6)         120         bxSymbols[0][0]                  
                                                                 b1Symbols[0][0]                  
                                                                 b0Symbols[0][0]                  
                                                                 s0Symbols[0][0]                  
                                                                 s1Symbols[0][0]                  
__________________________________________________________________________________________________
flatten_161 (Flatten)           (None, 231)          0           tokenEmb[1][0]                   
__________________________________________________________________________________________________
flatten_162 (Flatten)           (None, 72)           0           affixeseEmb[1][0]                
__________________________________________________________________________________________________
flatten_163 (Flatten)           (None, 3)            0           capitalizationEmb[1][0]          
__________________________________________________________________________________________________
flatten_164 (Flatten)           (None, 6)            0           symbolsEmb[1][0]                 
__________________________________________________________________________________________________
flatten_165 (Flatten)           (None, 231)          0           tokenEmb[2][0]                   
__________________________________________________________________________________________________
flatten_166 (Flatten)           (None, 72)           0           affixeseEmb[2][0]                
__________________________________________________________________________________________________
flatten_167 (Flatten)           (None, 3)            0           capitalizationEmb[2][0]          
__________________________________________________________________________________________________
flatten_168 (Flatten)           (None, 6)            0           symbolsEmb[2][0]                 
__________________________________________________________________________________________________
flatten_169 (Flatten)           (None, 231)          0           tokenEmb[3][0]                   
__________________________________________________________________________________________________
flatten_170 (Flatten)           (None, 72)           0           affixeseEmb[3][0]                
__________________________________________________________________________________________________
flatten_171 (Flatten)           (None, 3)            0           capitalizationEmb[3][0]          
__________________________________________________________________________________________________
flatten_172 (Flatten)           (None, 6)            0           symbolsEmb[3][0]                 
__________________________________________________________________________________________________
flatten_173 (Flatten)           (None, 231)          0           tokenEmb[4][0]                   
__________________________________________________________________________________________________
flatten_174 (Flatten)           (None, 72)           0           affixeseEmb[4][0]                
__________________________________________________________________________________________________
flatten_175 (Flatten)           (None, 3)            0           capitalizationEmb[4][0]          
__________________________________________________________________________________________________
flatten_176 (Flatten)           (None, 6)            0           symbolsEmb[4][0]                 
__________________________________________________________________________________________________
flatten_177 (Flatten)           (None, 231)          0           tokenEmb[5][0]                   
__________________________________________________________________________________________________
flatten_178 (Flatten)           (None, 72)           0           affixeseEmb[5][0]                
__________________________________________________________________________________________________
flatten_179 (Flatten)           (None, 3)            0           capitalizationEmb[5][0]          
__________________________________________________________________________________________________
flatten_180 (Flatten)           (None, 6)            0           symbolsEmb[5][0]                 
__________________________________________________________________________________________________
concatenate_58 (Concatenate)    (None, 312)          0           flatten_161[0][0]                
                                                                 flatten_162[0][0]                
                                                                 flatten_163[0][0]                
                                                                 flatten_164[0][0]                
__________________________________________________________________________________________________
concatenate_59 (Concatenate)    (None, 312)          0           flatten_165[0][0]                
                                                                 flatten_166[0][0]                
                                                                 flatten_167[0][0]                
                                                                 flatten_168[0][0]                
__________________________________________________________________________________________________
concatenate_60 (Concatenate)    (None, 312)          0           flatten_169[0][0]                
                                                                 flatten_170[0][0]                
                                                                 flatten_171[0][0]                
                                                                 flatten_172[0][0]                
__________________________________________________________________________________________________
concatenate_61 (Concatenate)    (None, 312)          0           flatten_173[0][0]                
                                                                 flatten_174[0][0]                
                                                                 flatten_175[0][0]                
                                                                 flatten_176[0][0]                
__________________________________________________________________________________________________
concatenate_62 (Concatenate)    (None, 312)          0           flatten_177[0][0]                
                                                                 flatten_178[0][0]                
                                                                 flatten_179[0][0]                
                                                                 flatten_180[0][0]                
__________________________________________________________________________________________________
posDense (Dense)                (None, 67)           20971       concatenate_58[0][0]             
                                                                 concatenate_59[0][0]             
                                                                 concatenate_60[0][0]             
                                                                 concatenate_61[0][0]             
                                                                 concatenate_62[0][0]             
__________________________________________________________________________________________________
…
concatenate_435 (Concatenate)   (None, 225)          0           posDense[1][0]                   
                                                                 posDense[2][0]                   
                                                                 posDense[3][0]                   
                                                                 posDense[4][0]                   
                                                                 posDense[5][0]                   
__________________________________________________________________________________________________
idenDense (Dense)               (None, 62)           14012       concatenate_435[0][0]            
__________________________________________________________________________________________________
idenSoftMax (Dense)             (None, 4)            252         idenDense[0][0]                  
==================================================================================================
Total params: 1,522,567
Trainable params: 1,522,567
Non-trainable params: 0
__________________________________________________________________________________________________
None
==================================================================================================
…
	One occurrence keys in vocabulary 1622 / 7545

__________________________________________________________________________________________________
	Optimizer : Adagrad,  learning rate = 0.025
__________________________________________________________________________________________________
__________________________________________________________________________________________________
Layer (type)                    Output Shape         Param #     Connected to                     
==================================================================================================
tokens (InputLayer)             (None, 7)            0                                            
__________________________________________________________________________________________________
affixes (InputLayer)            (None, 12)           0                                            
__________________________________________________________________________________________________
tokenEmb (Embedding)            (None, 7, 124)       935580      tokens[0][0]                     
__________________________________________________________________________________________________
affixeseEmb (Embedding)         (None, 12, 14)       16604       affixes[0][0]                    
__________________________________________________________________________________________________
flatten_1309 (Flatten)          (None, 868)          0           tokenEmb[0][0]                   
__________________________________________________________________________________________________
flatten_1310 (Flatten)          (None, 168)          0           affixeseEmb[0][0]                
__________________________________________________________________________________________________
concatenate_436 (Concatenate)   (None, 1036)         0           flatten_1309[0][0]               
                                                                 flatten_1310[0][0]               
__________________________________________________________________________________________________
posDense (Dense)                (None, 42)           43554       concatenate_436[0][0]            
__________________________________________________________________________________________________
dense_67 (Dense)                (None, 152)          6536        posDense[0][0]                   
==================================================================================================
Total params: 1,002,274
Trainable params: 1,002,274
Non-trainable params: 0
__________________________________________________________________________________________________
None
==================================================================================================

__________________________________________________________________________________________________
	Optimizer : Adagrad,  learning rate = 0.025
__________________________________________________________________________________________________
__________________________________________________________________________________________________
Layer (type)                    Output Shape         Param #     Connected to                     
==================================================================================================
bxTokens (InputLayer)           (None, 7)            0                                            
__________________________________________________________________________________________________
bxAffixes (InputLayer)          (None, 12)           0                                            
__________________________________________________________________________________________________
b1Tokens (InputLayer)           (None, 7)            0                                            
__________________________________________________________________________________________________
b1Affixes (InputLayer)          (None, 12)           0                                            
__________________________________________________________________________________________________
b0Tokens (InputLayer)           (None, 7)            0                                            
__________________________________________________________________________________________________
b0Affixes (InputLayer)          (None, 12)           0                                            
__________________________________________________________________________________________________
s0Tokens (InputLayer)           (None, 7)            0                                            
__________________________________________________________________________________________________
s0Affixes (InputLayer)          (None, 12)           0                                            
__________________________________________________________________________________________________
s1Tokens (InputLayer)           (None, 7)            0                                            
__________________________________________________________________________________________________
s1Affixes (InputLayer)          (None, 12)           0                                            
__________________________________________________________________________________________________
tokenEmb (Embedding)            (None, 7, 124)       935580      bxTokens[0][0]                   
                                                                 b1Tokens[0][0]                   
                                                                 b0Tokens[0][0]                   
                                                                 s0Tokens[0][0]                   
                                                                 s1Tokens[0][0]                   
__________________________________________________________________________________________________
affixeseEmb (Embedding)         (None, 12, 14)       16604       bxAffixes[0][0]                  
                                                                 b1Affixes[0][0]                  
                                                                 b0Affixes[0][0]                  
                                                                 s0Affixes[0][0]                  
                                                                 s1Affixes[0][0]                  
__________________________________________________________________________________________________
flatten_1311 (Flatten)          (None, 868)          0           tokenEmb[1][0]                   
__________________________________________________________________________________________________
flatten_1312 (Flatten)          (None, 168)          0           affixeseEmb[1][0]                
__________________________________________________________________________________________________
flatten_1313 (Flatten)          (None, 868)          0           tokenEmb[2][0]                   
__________________________________________________________________________________________________
flatten_1314 (Flatten)          (None, 168)          0           affixeseEmb[2][0]                
__________________________________________________________________________________________________
flatten_1315 (Flatten)          (None, 868)          0           tokenEmb[3][0]                   
__________________________________________________________________________________________________
flatten_1316 (Flatten)          (None, 168)          0           affixeseEmb[3][0]                
__________________________________________________________________________________________________
flatten_1317 (Flatten)          (None, 868)          0           tokenEmb[4][0]                   
__________________________________________________________________________________________________
flatten_1318 (Flatten)          (None, 168)          0           affixeseEmb[4][0]                
__________________________________________________________________________________________________
flatten_1319 (Flatten)          (None, 868)          0           tokenEmb[5][0]                   
__________________________________________________________________________________________________
flatten_1320 (Flatten)          (None, 168)          0           affixeseEmb[5][0]                
__________________________________________________________________________________________________
concatenate_437 (Concatenate)   (None, 1036)         0           flatten_1311[0][0]               
                                                                 flatten_1312[0][0]               
__________________________________________________________________________________________________
concatenate_438 (Concatenate)   (None, 1036)         0           flatten_1313[0][0]               
                                                                 flatten_1314[0][0]               
__________________________________________________________________________________________________
concatenate_439 (Concatenate)   (None, 1036)         0           flatten_1315[0][0]               
                                                                 flatten_1316[0][0]               
__________________________________________________________________________________________________
concatenate_440 (Concatenate)   (None, 1036)         0           flatten_1317[0][0]               
                                                                 flatten_1318[0][0]               
__________________________________________________________________________________________________
concatenate_441 (Concatenate)   (None, 1036)         0           flatten_1319[0][0]               
                                                                 flatten_1320[0][0]               
__________________________________________________________________________________________________
posDense (Dense)                (None, 42)           43554       concatenate_437[0][0]            
                                                                 concatenate_438[0][0]            
                                                                 concatenate_439[0][0]            
                                                                 concatenate_440[0][0]            
                                                                 concatenate_441[0][0]            
__________________________________________________________________________________________________
concatenate_442 (Concatenate)   (None, 210)          0           posDense[1][0]                   
                                                                 posDense[2][0]                   
                                                                 posDense[3][0]                   
                                                                 posDense[4][0]                   
                                                                 posDense[5][0]                   
__________________________________________________________________________________________________
idenDense (Dense)               (None, 34)           7174        concatenate_442[0][0]            
__________________________________________________________________________________________________
idenSoftMax (Dense)             (None, 4)            140         idenDense[0][0]                  
==================================================================================================
Total params: 1,003,052
Trainable params: 1,003,052
Non-trainable params: 0
__________________________________________________________________________________________________
None
==================================================================================================
…
	One occurrence keys in vocabulary 1674 / 7241

__________________________________________________________________________________________________
	Optimizer : Adagrad,  learning rate = 0.025
__________________________________________________________________________________________________
__________________________________________________________________________________________________
Layer (type)                    Output Shape         Param #     Connected to                     
==================================================================================================
tokens (InputLayer)             (None, 7)            0                                            
__________________________________________________________________________________________________
affixes (InputLayer)            (None, 12)           0                                            
__________________________________________________________________________________________________
tokenEmb (Embedding)            (None, 7, 124)       897884      tokens[0][0]                     
__________________________________________________________________________________________________
affixeseEmb (Embedding)         (None, 12, 14)       47628       affixes[0][0]                    
__________________________________________________________________________________________________
flatten_1321 (Flatten)          (None, 868)          0           tokenEmb[0][0]                   
__________________________________________________________________________________________________
flatten_1322 (Flatten)          (None, 168)          0           affixeseEmb[0][0]                
__________________________________________________________________________________________________
concatenate_443 (Concatenate)   (None, 1036)         0           flatten_1321[0][0]               
                                                                 flatten_1322[0][0]               
__________________________________________________________________________________________________
posDense (Dense)                (None, 42)           43554       concatenate_443[0][0]            
__________________________________________________________________________________________________
dense_68 (Dense)                (None, 169)          7267        posDense[0][0]                   
==================================================================================================
Total params: 996,333
Trainable params: 996,333
Non-trainable params: 0
__________________________________________________________________________________________________
None
==================================================================================================

__________________________________________________________________________________________________
	Optimizer : Adagrad,  learning rate = 0.025
__________________________________________________________________________________________________
__________________________________________________________________________________________________
Layer (type)                    Output Shape         Param #     Connected to                     
==================================================================================================
bxTokens (InputLayer)           (None, 7)            0                                            
__________________________________________________________________________________________________
bxAffixes (InputLayer)          (None, 12)           0                                            
__________________________________________________________________________________________________
b1Tokens (InputLayer)           (None, 7)            0                                            
__________________________________________________________________________________________________
b1Affixes (InputLayer)          (None, 12)           0                                            
__________________________________________________________________________________________________
b0Tokens (InputLayer)           (None, 7)            0                                            
__________________________________________________________________________________________________
b0Affixes (InputLayer)          (None, 12)           0                                            
__________________________________________________________________________________________________
s0Tokens (InputLayer)           (None, 7)            0                                            
__________________________________________________________________________________________________
s0Affixes (InputLayer)          (None, 12)           0                                            
__________________________________________________________________________________________________
s1Tokens (InputLayer)           (None, 7)            0                                            
__________________________________________________________________________________________________
s1Affixes (InputLayer)          (None, 12)           0                                            
__________________________________________________________________________________________________
tokenEmb (Embedding)            (None, 7, 124)       897884      bxTokens[0][0]                   
                                                                 b1Tokens[0][0]                   
                                                                 b0Tokens[0][0]                   
                                                                 s0Tokens[0][0]                   
                                                                 s1Tokens[0][0]                   
__________________________________________________________________________________________________
affixeseEmb (Embedding)         (None, 12, 14)       47628       bxAffixes[0][0]                  
                                                                 b1Affixes[0][0]                  
                                                                 b0Affixes[0][0]                  
                                                                 s0Affixes[0][0]                  
                                                                 s1Affixes[0][0]                  
__________________________________________________________________________________________________
flatten_1323 (Flatten)          (None, 868)          0           tokenEmb[1][0]                   
__________________________________________________________________________________________________
flatten_1324 (Flatten)          (None, 168)          0           affixeseEmb[1][0]                
__________________________________________________________________________________________________
flatten_1325 (Flatten)          (None, 868)          0           tokenEmb[2][0]                   
__________________________________________________________________________________________________
flatten_1326 (Flatten)          (None, 168)          0           affixeseEmb[2][0]                
__________________________________________________________________________________________________
flatten_1327 (Flatten)          (None, 868)          0           tokenEmb[3][0]                   
__________________________________________________________________________________________________
flatten_1328 (Flatten)          (None, 168)          0           affixeseEmb[3][0]                
__________________________________________________________________________________________________
flatten_1329 (Flatten)          (None, 868)          0           tokenEmb[4][0]                   
__________________________________________________________________________________________________
flatten_1330 (Flatten)          (None, 168)          0           affixeseEmb[4][0]                
__________________________________________________________________________________________________
flatten_1331 (Flatten)          (None, 868)          0           tokenEmb[5][0]                   
__________________________________________________________________________________________________
flatten_1332 (Flatten)          (None, 168)          0           affixeseEmb[5][0]                
__________________________________________________________________________________________________
concatenate_444 (Concatenate)   (None, 1036)         0           flatten_1323[0][0]               
                                                                 flatten_1324[0][0]               
__________________________________________________________________________________________________
concatenate_445 (Concatenate)   (None, 1036)         0           flatten_1325[0][0]               
                                                                 flatten_1326[0][0]               
__________________________________________________________________________________________________
concatenate_446 (Concatenate)   (None, 1036)         0           flatten_1327[0][0]               
                                                                 flatten_1328[0][0]               
__________________________________________________________________________________________________
concatenate_447 (Concatenate)   (None, 1036)         0           flatten_1329[0][0]               
                                                                 flatten_1330[0][0]               
__________________________________________________________________________________________________
concatenate_448 (Concatenate)   (None, 1036)         0           flatten_1331[0][0]               
                                                                 flatten_1332[0][0]               
__________________________________________________________________________________________________
posDense (Dense)                (None, 42)           43554       concatenate_444[0][0]            
                                                                 concatenate_445[0][0]            
                                                                 concatenate_446[0][0]            
                                                                 concatenate_447[0][0]            
                                                                 concatenate_448[0][0]            
__________________________________________________________________________________________________
concatenate_449 (Concatenate)   (None, 210)          0           posDense[1][0]                   
                                                                 posDense[2][0]                   
                                                                 posDense[3][0]                   
                                                                 posDense[4][0]                   
                                                                 posDense[5][0]                   
__________________________________________________________________________________________________
idenDense (Dense)               (None, 34)           7174        concatenate_449[0][0]            
__________________________________________________________________________________________________
idenSoftMax (Dense)             (None, 4)            140         idenDense[0][0]                  
==================================================================================================
Total params: 996,380
Trainable params: 996,380
Non-trainable params: 0
__________________________________________________________________________________________________
None
==================================================================================================
…
	One occurrence keys in vocabulary 3161 / 13793

__________________________________________________________________________________________________
	Optimizer : Adagrad,  learning rate = 0.025
__________________________________________________________________________________________________
__________________________________________________________________________________________________
Layer (type)                    Output Shape         Param #     Connected to                     
==================================================================================================
tokens (InputLayer)             (None, 7)            0                                            
__________________________________________________________________________________________________
affixes (InputLayer)            (None, 12)           0                                            
__________________________________________________________________________________________________
tokenEmb (Embedding)            (None, 7, 124)       1710332     tokens[0][0]                     
__________________________________________________________________________________________________
affixeseEmb (Embedding)         (None, 12, 14)       53998       affixes[0][0]                    
__________________________________________________________________________________________________
flatten_1333 (Flatten)          (None, 868)          0           tokenEmb[0][0]                   
__________________________________________________________________________________________________
flatten_1334 (Flatten)          (None, 168)          0           affixeseEmb[0][0]                
__________________________________________________________________________________________________
concatenate_450 (Concatenate)   (None, 1036)         0           flatten_1333[0][0]               
                                                                 flatten_1334[0][0]               
__________________________________________________________________________________________________
posDense (Dense)                (None, 42)           43554       concatenate_450[0][0]            
__________________________________________________________________________________________________
dense_69 (Dense)                (None, 109)          4687        posDense[0][0]                   
==================================================================================================
Total params: 1,812,571
Trainable params: 1,812,571
Non-trainable params: 0
__________________________________________________________________________________________________
None
==================================================================================================

__________________________________________________________________________________________________
	Optimizer : Adagrad,  learning rate = 0.025
__________________________________________________________________________________________________
__________________________________________________________________________________________________
Layer (type)                    Output Shape         Param #     Connected to                     
==================================================================================================
bxTokens (InputLayer)           (None, 7)            0                                            
__________________________________________________________________________________________________
bxAffixes (InputLayer)          (None, 12)           0                                            
__________________________________________________________________________________________________
b1Tokens (InputLayer)           (None, 7)            0                                            
__________________________________________________________________________________________________
b1Affixes (InputLayer)          (None, 12)           0                                            
__________________________________________________________________________________________________
b0Tokens (InputLayer)           (None, 7)            0                                            
__________________________________________________________________________________________________
b0Affixes (InputLayer)          (None, 12)           0                                            
__________________________________________________________________________________________________
s0Tokens (InputLayer)           (None, 7)            0                                            
__________________________________________________________________________________________________
s0Affixes (InputLayer)          (None, 12)           0                                            
__________________________________________________________________________________________________
s1Tokens (InputLayer)           (None, 7)            0                                            
__________________________________________________________________________________________________
s1Affixes (InputLayer)          (None, 12)           0                                            
__________________________________________________________________________________________________
tokenEmb (Embedding)            (None, 7, 124)       1710332     bxTokens[0][0]                   
                                                                 b1Tokens[0][0]                   
                                                                 b0Tokens[0][0]                   
                                                                 s0Tokens[0][0]                   
                                                                 s1Tokens[0][0]                   
__________________________________________________________________________________________________
affixeseEmb (Embedding)         (None, 12, 14)       53998       bxAffixes[0][0]                  
                                                                 b1Affixes[0][0]                  
                                                                 b0Affixes[0][0]                  
                                                                 s0Affixes[0][0]                  
                                                                 s1Affixes[0][0]                  
__________________________________________________________________________________________________
flatten_1335 (Flatten)          (None, 868)          0           tokenEmb[1][0]                   
__________________________________________________________________________________________________
flatten_1336 (Flatten)          (None, 168)          0           affixeseEmb[1][0]                
__________________________________________________________________________________________________
flatten_1337 (Flatten)          (None, 868)          0           tokenEmb[2][0]                   
__________________________________________________________________________________________________
flatten_1338 (Flatten)          (None, 168)          0           affixeseEmb[2][0]                
__________________________________________________________________________________________________
flatten_1339 (Flatten)          (None, 868)          0           tokenEmb[3][0]                   
__________________________________________________________________________________________________
flatten_1340 (Flatten)          (None, 168)          0           affixeseEmb[3][0]                
__________________________________________________________________________________________________
flatten_1341 (Flatten)          (None, 868)          0           tokenEmb[4][0]                   
__________________________________________________________________________________________________
flatten_1342 (Flatten)          (None, 168)          0           affixeseEmb[4][0]                
__________________________________________________________________________________________________
flatten_1343 (Flatten)          (None, 868)          0           tokenEmb[5][0]                   
__________________________________________________________________________________________________
flatten_1344 (Flatten)          (None, 168)          0           affixeseEmb[5][0]                
__________________________________________________________________________________________________
concatenate_451 (Concatenate)   (None, 1036)         0           flatten_1335[0][0]               
                                                                 flatten_1336[0][0]               
__________________________________________________________________________________________________
concatenate_452 (Concatenate)   (None, 1036)         0           flatten_1337[0][0]               
                                                                 flatten_1338[0][0]               
__________________________________________________________________________________________________
concatenate_453 (Concatenate)   (None, 1036)         0           flatten_1339[0][0]               
                                                                 flatten_1340[0][0]               
__________________________________________________________________________________________________
concatenate_454 (Concatenate)   (None, 1036)         0           flatten_1341[0][0]               
                                                                 flatten_1342[0][0]               
__________________________________________________________________________________________________
concatenate_455 (Concatenate)   (None, 1036)         0           flatten_1343[0][0]               
                                                                 flatten_1344[0][0]               
__________________________________________________________________________________________________
posDense (Dense)                (None, 42)           43554       concatenate_451[0][0]            
                                                                 concatenate_452[0][0]            
                                                                 concatenate_453[0][0]            
                                                                 concatenate_454[0][0]            
                                                                 concatenate_455[0][0]            
__________________________________________________________________________________________________
concatenate_456 (Concatenate)   (None, 210)          0           posDense[1][0]                   
                                                                 posDense[2][0]                   
                                                                 posDense[3][0]                   
                                                                 posDense[4][0]                   
                                                                 posDense[5][0]                   
__________________________________________________________________________________________________
idenDense (Dense)               (None, 34)           7174        concatenate_456[0][0]            
__________________________________________________________________________________________________
idenSoftMax (Dense)             (None, 4)            140         idenDense[0][0]                  
==================================================================================================
Total params: 1,815,198
Trainable params: 1,815,198
Non-trainable params: 0
__________________________________________________________________________________________________
None
==================================================================================================
…
	One occurrence keys in vocabulary 1622 / 7545

__________________________________________________________________________________________________
	Optimizer : Adagrad,  learning rate = 0.045
__________________________________________________________________________________________________
__________________________________________________________________________________________________
Layer (type)                    Output Shape         Param #     Connected to                     
==================================================================================================
tokens (InputLayer)             (None, 7)            0                                            
__________________________________________________________________________________________________
affixes (InputLayer)            (None, 12)           0                                            
__________________________________________________________________________________________________
symbol (InputLayer)             (None, 1)            0                                            
__________________________________________________________________________________________________
tokenEmb (Embedding)            (None, 7, 42)        316890      tokens[0][0]                     
__________________________________________________________________________________________________
affixeseEmb (Embedding)         (None, 12, 5)        5930        affixes[0][0]                    
__________________________________________________________________________________________________
symbolsEmb (Embedding)          (None, 1, 13)        260         symbol[0][0]                     
__________________________________________________________________________________________________
flatten_1345 (Flatten)          (None, 294)          0           tokenEmb[0][0]                   
__________________________________________________________________________________________________
flatten_1346 (Flatten)          (None, 60)           0           affixeseEmb[0][0]                
__________________________________________________________________________________________________
flatten_1347 (Flatten)          (None, 13)           0           symbolsEmb[0][0]                 
__________________________________________________________________________________________________
concatenate_457 (Concatenate)   (None, 367)          0           flatten_1345[0][0]               
                                                                 flatten_1346[0][0]               
                                                                 flatten_1347[0][0]               
__________________________________________________________________________________________________
posDense (Dense)                (None, 98)           36064       concatenate_457[0][0]            
__________________________________________________________________________________________________
dense_70 (Dense)                (None, 152)          15048       posDense[0][0]                   
==================================================================================================
Total params: 374,192
Trainable params: 374,192
Non-trainable params: 0
__________________________________________________________________________________________________
None
==================================================================================================

__________________________________________________________________________________________________
	Optimizer : Adagrad,  learning rate = 0.045
__________________________________________________________________________________________________
__________________________________________________________________________________________________
Layer (type)                    Output Shape         Param #     Connected to                     
==================================================================================================
b1Tokens (InputLayer)           (None, 7)            0                                            
__________________________________________________________________________________________________
b1Affixes (InputLayer)          (None, 12)           0                                            
__________________________________________________________________________________________________
b1Symbols (InputLayer)          (None, 1)            0                                            
__________________________________________________________________________________________________
b0Tokens (InputLayer)           (None, 7)            0                                            
__________________________________________________________________________________________________
b0Affixes (InputLayer)          (None, 12)           0                                            
__________________________________________________________________________________________________
b0Symbols (InputLayer)          (None, 1)            0                                            
__________________________________________________________________________________________________
s0Tokens (InputLayer)           (None, 7)            0                                            
__________________________________________________________________________________________________
s0Affixes (InputLayer)          (None, 12)           0                                            
__________________________________________________________________________________________________
s0Symbols (InputLayer)          (None, 1)            0                                            
__________________________________________________________________________________________________
s1Tokens (InputLayer)           (None, 7)            0                                            
__________________________________________________________________________________________________
s1Affixes (InputLayer)          (None, 12)           0                                            
__________________________________________________________________________________________________
s1Symbols (InputLayer)          (None, 1)            0                                            
__________________________________________________________________________________________________
tokenEmb (Embedding)            (None, 7, 42)        316890      b1Tokens[0][0]                   
                                                                 b0Tokens[0][0]                   
                                                                 s0Tokens[0][0]                   
                                                                 s1Tokens[0][0]                   
__________________________________________________________________________________________________
affixeseEmb (Embedding)         (None, 12, 5)        5930        b1Affixes[0][0]                  
                                                                 b0Affixes[0][0]                  
                                                                 s0Affixes[0][0]                  
                                                                 s1Affixes[0][0]                  
__________________________________________________________________________________________________
symbolsEmb (Embedding)          (None, 1, 13)        260         b1Symbols[0][0]                  
                                                                 b0Symbols[0][0]                  
                                                                 s0Symbols[0][0]                  
                                                                 s1Symbols[0][0]                  
__________________________________________________________________________________________________
flatten_1348 (Flatten)          (None, 294)          0           tokenEmb[1][0]                   
__________________________________________________________________________________________________
flatten_1349 (Flatten)          (None, 60)           0           affixeseEmb[1][0]                
__________________________________________________________________________________________________
flatten_1350 (Flatten)          (None, 13)           0           symbolsEmb[1][0]                 
__________________________________________________________________________________________________
flatten_1351 (Flatten)          (None, 294)          0           tokenEmb[2][0]                   
__________________________________________________________________________________________________
flatten_1352 (Flatten)          (None, 60)           0           affixeseEmb[2][0]                
__________________________________________________________________________________________________
flatten_1353 (Flatten)          (None, 13)           0           symbolsEmb[2][0]                 
__________________________________________________________________________________________________
flatten_1354 (Flatten)          (None, 294)          0           tokenEmb[3][0]                   
__________________________________________________________________________________________________
flatten_1355 (Flatten)          (None, 60)           0           affixeseEmb[3][0]                
__________________________________________________________________________________________________
flatten_1356 (Flatten)          (None, 13)           0           symbolsEmb[3][0]                 
__________________________________________________________________________________________________
flatten_1357 (Flatten)          (None, 294)          0           tokenEmb[4][0]                   
__________________________________________________________________________________________________
flatten_1358 (Flatten)          (None, 60)           0           affixeseEmb[4][0]                
__________________________________________________________________________________________________
flatten_1359 (Flatten)          (None, 13)           0           symbolsEmb[4][0]                 
__________________________________________________________________________________________________
concatenate_458 (Concatenate)   (None, 367)          0           flatten_1348[0][0]               
                                                                 flatten_1349[0][0]               
                                                                 flatten_1350[0][0]               
__________________________________________________________________________________________________
concatenate_459 (Concatenate)   (None, 367)          0           flatten_1351[0][0]               
                                                                 flatten_1352[0][0]               
                                                                 flatten_1353[0][0]               
__________________________________________________________________________________________________
concatenate_460 (Concatenate)   (None, 367)          0           flatten_1354[0][0]               
                                                                 flatten_1355[0][0]               
                                                                 flatten_1356[0][0]               
__________________________________________________________________________________________________
concatenate_461 (Concatenate)   (None, 367)          0           flatten_1357[0][0]               
                                                                 flatten_1358[0][0]               
                                                                 flatten_1359[0][0]               
__________________________________________________________________________________________________
posDense (Dense)                (None, 98)           36064       concatenate_458[0][0]            
                                                                 concatenate_459[0][0]            
                                                                 concatenate_460[0][0]            
                                                                 concatenate_461[0][0]            
__________________________________________________________________________________________________
concatenate_462 (Concatenate)   (None, 392)          0           posDense[1][0]                   
                                                                 posDense[2][0]                   
                                                                 posDense[3][0]                   
                                                                 posDense[4][0]                   
__________________________________________________________________________________________________
idenDense (Dense)               (None, 30)           11790       concatenate_462[0][0]            
__________________________________________________________________________________________________
idenSoftMax (Dense)             (None, 4)            124         idenDense[0][0]                  
==================================================================================================
Total params: 371,058
Trainable params: 371,058
Non-trainable params: 0
__________________________________________________________________________________________________
None
==================================================================================================
…
