…
__________________________________________________________________________________________________

__________________________________________________________________________________________________
	Optimizer : Adagrad,  learning rate = 0.138
__________________________________________________________________________________________________
__________________________________________________________________________________________________
Layer (type)                    Output Shape         Param #     Connected to                     
==================================================================================================
b0Tokens (InputLayer)           (None, 7)            0                                            
__________________________________________________________________________________________________
b0Affixes (InputLayer)          (None, 12)           0                                            
__________________________________________________________________________________________________
b1Tokens (InputLayer)           (None, 7)            0                                            
__________________________________________________________________________________________________
b1Affixes (InputLayer)          (None, 12)           0                                            
__________________________________________________________________________________________________
b2Tokens (InputLayer)           (None, 7)            0                                            
__________________________________________________________________________________________________
b2Affixes (InputLayer)          (None, 12)           0                                            
__________________________________________________________________________________________________
s0Tokens (InputLayer)           (None, 7)            0                                            
__________________________________________________________________________________________________
s0Affixes (InputLayer)          (None, 12)           0                                            
__________________________________________________________________________________________________
s1Tokens (InputLayer)           (None, 7)            0                                            
__________________________________________________________________________________________________
s1Affixes (InputLayer)          (None, 12)           0                                            
__________________________________________________________________________________________________
s2Tokens (InputLayer)           (None, 7)            0                                            
__________________________________________________________________________________________________
s2Affixes (InputLayer)          (None, 12)           0                                            
__________________________________________________________________________________________________
LM1(S1)Tokens (InputLayer)      (None, 7)            0                                            
__________________________________________________________________________________________________
LM1(S1)Affixes (InputLayer)     (None, 12)           0                                            
__________________________________________________________________________________________________
LM2(S1)Tokens (InputLayer)      (None, 7)            0                                            
__________________________________________________________________________________________________
LM2(S1)Affixes (InputLayer)     (None, 12)           0                                            
__________________________________________________________________________________________________
LM1(S0)Tokens (InputLayer)      (None, 7)            0                                            
__________________________________________________________________________________________________
LM1(S0)Affixes (InputLayer)     (None, 12)           0                                            
__________________________________________________________________________________________________
LM2(S0)Tokens (InputLayer)      (None, 7)            0                                            
__________________________________________________________________________________________________
LM2(S0)Affixes (InputLayer)     (None, 12)           0                                            
__________________________________________________________________________________________________
RM1(S1)Tokens (InputLayer)      (None, 7)            0                                            
__________________________________________________________________________________________________
RM1(S1)Affixes (InputLayer)     (None, 12)           0                                            
__________________________________________________________________________________________________
RM2(S1)Tokens (InputLayer)      (None, 7)            0                                            
__________________________________________________________________________________________________
RM2(S1)Affixes (InputLayer)     (None, 12)           0                                            
__________________________________________________________________________________________________
RM1(S0)Tokens (InputLayer)      (None, 7)            0                                            
__________________________________________________________________________________________________
RM1(S0)Affixes (InputLayer)     (None, 12)           0                                            
__________________________________________________________________________________________________
RM2(S0)Tokens (InputLayer)      (None, 7)            0                                            
__________________________________________________________________________________________________
RM2(S0)Affixes (InputLayer)     (None, 12)           0                                            
__________________________________________________________________________________________________
LMLM(S1)Tokens (InputLayer)     (None, 7)            0                                            
__________________________________________________________________________________________________
LMLM(S1)Affixes (InputLayer)    (None, 12)           0                                            
__________________________________________________________________________________________________
RMRM(S1)Tokens (InputLayer)     (None, 7)            0                                            
__________________________________________________________________________________________________
RMRM(S1)Affixes (InputLayer)    (None, 12)           0                                            
__________________________________________________________________________________________________
LMLM(S0)Tokens (InputLayer)     (None, 7)            0                                            
__________________________________________________________________________________________________
LMLM(S0)Affixes (InputLayer)    (None, 12)           0                                            
__________________________________________________________________________________________________
RMRM(S0)Tokens (InputLayer)     (None, 7)            0                                            
__________________________________________________________________________________________________
RMRM(S0)Affixes (InputLayer)    (None, 12)           0                                            
__________________________________________________________________________________________________
tokenEmb (Embedding)            (None, 7, 114)       1687086     b0Tokens[0][0]                   
                                                                 b1Tokens[0][0]                   
                                                                 b2Tokens[0][0]                   
                                                                 s0Tokens[0][0]                   
                                                                 s1Tokens[0][0]                   
…
                                                                 RM2(S0)Affixes[0][0]             
                                                                 LMLM(S1)Affixes[0][0]            
                                                                 RMRM(S1)Affixes[0][0]            
                                                                 LMLM(S0)Affixes[0][0]            
                                                                 RMRM(S0)Affixes[0][0]            
__________________________________________________________________________________________________
SyntacticLabels (InputLayer)    (None, 12)           0                                            
__________________________________________________________________________________________________
flatten_11 (Flatten)            (None, 798)          0           tokenEmb[5][0]                   
__________________________________________________________________________________________________
flatten_12 (Flatten)            (None, 132)          0           affixeseEmb[5][0]                
__________________________________________________________________________________________________
flatten_13 (Flatten)            (None, 798)          0           tokenEmb[6][0]                   
__________________________________________________________________________________________________
flatten_14 (Flatten)            (None, 132)          0           affixeseEmb[6][0]                
__________________________________________________________________________________________________
flatten_15 (Flatten)            (None, 798)          0           tokenEmb[7][0]                   
__________________________________________________________________________________________________
flatten_16 (Flatten)            (None, 132)          0           affixeseEmb[7][0]                
__________________________________________________________________________________________________
flatten_17 (Flatten)            (None, 798)          0           tokenEmb[8][0]                   
__________________________________________________________________________________________________
flatten_18 (Flatten)            (None, 132)          0           affixeseEmb[8][0]                
__________________________________________________________________________________________________
flatten_19 (Flatten)            (None, 798)          0           tokenEmb[9][0]                   
__________________________________________________________________________________________________
flatten_20 (Flatten)            (None, 132)          0           affixeseEmb[9][0]                
__________________________________________________________________________________________________
flatten_21 (Flatten)            (None, 798)          0           tokenEmb[10][0]                  
__________________________________________________________________________________________________
flatten_22 (Flatten)            (None, 132)          0           affixeseEmb[10][0]               
__________________________________________________________________________________________________
flatten_23 (Flatten)            (None, 798)          0           tokenEmb[11][0]                  
__________________________________________________________________________________________________
flatten_24 (Flatten)            (None, 132)          0           affixeseEmb[11][0]               
__________________________________________________________________________________________________
flatten_25 (Flatten)            (None, 798)          0           tokenEmb[12][0]                  
__________________________________________________________________________________________________
flatten_26 (Flatten)            (None, 132)          0           affixeseEmb[12][0]               
__________________________________________________________________________________________________
flatten_27 (Flatten)            (None, 798)          0           tokenEmb[13][0]                  
__________________________________________________________________________________________________
flatten_28 (Flatten)            (None, 132)          0           affixeseEmb[13][0]               
__________________________________________________________________________________________________
flatten_29 (Flatten)            (None, 798)          0           tokenEmb[14][0]                  
__________________________________________________________________________________________________
flatten_30 (Flatten)            (None, 132)          0           affixeseEmb[14][0]               
__________________________________________________________________________________________________
flatten_31 (Flatten)            (None, 798)          0           tokenEmb[15][0]                  
__________________________________________________________________________________________________
flatten_32 (Flatten)            (None, 132)          0           affixeseEmb[15][0]               
__________________________________________________________________________________________________
flatten_33 (Flatten)            (None, 798)          0           tokenEmb[16][0]                  
__________________________________________________________________________________________________
flatten_34 (Flatten)            (None, 132)          0           affixeseEmb[16][0]               
__________________________________________________________________________________________________
flatten_35 (Flatten)            (None, 798)          0           tokenEmb[17][0]                  
__________________________________________________________________________________________________
flatten_36 (Flatten)            (None, 132)          0           affixeseEmb[17][0]               
__________________________________________________________________________________________________
flatten_37 (Flatten)            (None, 798)          0           tokenEmb[18][0]                  
__________________________________________________________________________________________________
flatten_38 (Flatten)            (None, 132)          0           affixeseEmb[18][0]               
__________________________________________________________________________________________________
flatten_39 (Flatten)            (None, 798)          0           tokenEmb[19][0]                  
__________________________________________________________________________________________________
flatten_40 (Flatten)            (None, 132)          0           affixeseEmb[19][0]               
__________________________________________________________________________________________________
flatten_41 (Flatten)            (None, 798)          0           tokenEmb[20][0]                  
__________________________________________________________________________________________________
flatten_42 (Flatten)            (None, 132)          0           affixeseEmb[20][0]               
__________________________________________________________________________________________________
flatten_43 (Flatten)            (None, 798)          0           tokenEmb[21][0]                  
__________________________________________________________________________________________________
flatten_44 (Flatten)            (None, 132)          0           affixeseEmb[21][0]               
__________________________________________________________________________________________________
flatten_45 (Flatten)            (None, 798)          0           tokenEmb[22][0]                  
__________________________________________________________________________________________________
flatten_46 (Flatten)            (None, 132)          0           affixeseEmb[22][0]               
__________________________________________________________________________________________________
SyntacticLabelEmb (Embedding)   (None, 12, 17)       578         SyntacticLabels[0][0]            
__________________________________________________________________________________________________
concatenate_7 (Concatenate)     (None, 930)          0           flatten_11[0][0]                 
                                                                 flatten_12[0][0]                 
__________________________________________________________________________________________________
concatenate_8 (Concatenate)     (None, 930)          0           flatten_13[0][0]                 
                                                                 flatten_14[0][0]                 
__________________________________________________________________________________________________
concatenate_9 (Concatenate)     (None, 930)          0           flatten_15[0][0]                 
                                                                 flatten_16[0][0]                 
__________________________________________________________________________________________________
concatenate_10 (Concatenate)    (None, 930)          0           flatten_17[0][0]                 
                                                                 flatten_18[0][0]                 
__________________________________________________________________________________________________
concatenate_11 (Concatenate)    (None, 930)          0           flatten_19[0][0]                 
                                                                 flatten_20[0][0]                 
__________________________________________________________________________________________________
concatenate_12 (Concatenate)    (None, 930)          0           flatten_21[0][0]                 
                                                                 flatten_22[0][0]                 
__________________________________________________________________________________________________
concatenate_13 (Concatenate)    (None, 930)          0           flatten_23[0][0]                 
                                                                 flatten_24[0][0]                 
__________________________________________________________________________________________________
concatenate_14 (Concatenate)    (None, 930)          0           flatten_25[0][0]                 
                                                                 flatten_26[0][0]                 
__________________________________________________________________________________________________
concatenate_15 (Concatenate)    (None, 930)          0           flatten_27[0][0]                 
                                                                 flatten_28[0][0]                 
__________________________________________________________________________________________________
concatenate_16 (Concatenate)    (None, 930)          0           flatten_29[0][0]                 
                                                                 flatten_30[0][0]                 
__________________________________________________________________________________________________
concatenate_17 (Concatenate)    (None, 930)          0           flatten_31[0][0]                 
                                                                 flatten_32[0][0]                 
__________________________________________________________________________________________________
concatenate_18 (Concatenate)    (None, 930)          0           flatten_33[0][0]                 
                                                                 flatten_34[0][0]                 
__________________________________________________________________________________________________
concatenate_19 (Concatenate)    (None, 930)          0           flatten_35[0][0]                 
                                                                 flatten_36[0][0]                 
__________________________________________________________________________________________________
concatenate_20 (Concatenate)    (None, 930)          0           flatten_37[0][0]                 
                                                                 flatten_38[0][0]                 
__________________________________________________________________________________________________
concatenate_21 (Concatenate)    (None, 930)          0           flatten_39[0][0]                 
                                                                 flatten_40[0][0]                 
__________________________________________________________________________________________________
concatenate_22 (Concatenate)    (None, 930)          0           flatten_41[0][0]                 
                                                                 flatten_42[0][0]                 
__________________________________________________________________________________________________
concatenate_23 (Concatenate)    (None, 930)          0           flatten_43[0][0]                 
                                                                 flatten_44[0][0]                 
__________________________________________________________________________________________________
concatenate_24 (Concatenate)    (None, 930)          0           flatten_45[0][0]                 
                                                                 flatten_46[0][0]                 
__________________________________________________________________________________________________
flatten_47 (Flatten)            (None, 204)          0           SyntacticLabelEmb[0][0]          
__________________________________________________________________________________________________
posDense (Dense)                (None, 34)           31654       concatenate_7[0][0]              
                                                                 concatenate_8[0][0]              
                                                                 concatenate_9[0][0]              
                                                                 concatenate_10[0][0]             
                                                                 concatenate_11[0][0]             
…
__________________________________________________________________________________________________

__________________________________________________________________________________________________
	Optimizer : Adagrad,  learning rate = 0.138
__________________________________________________________________________________________________
__________________________________________________________________________________________________
Layer (type)                    Output Shape         Param #     Connected to                     
==================================================================================================
b0Tokens (InputLayer)           (None, 7)            0                                            
__________________________________________________________________________________________________
b0Affixes (InputLayer)          (None, 12)           0                                            
__________________________________________________________________________________________________
b1Tokens (InputLayer)           (None, 7)            0                                            
__________________________________________________________________________________________________
b1Affixes (InputLayer)          (None, 12)           0                                            
__________________________________________________________________________________________________
b2Tokens (InputLayer)           (None, 7)            0                                            
__________________________________________________________________________________________________
b2Affixes (InputLayer)          (None, 12)           0                                            
__________________________________________________________________________________________________
s0Tokens (InputLayer)           (None, 7)            0                                            
__________________________________________________________________________________________________
s0Affixes (InputLayer)          (None, 12)           0                                            
__________________________________________________________________________________________________
s1Tokens (InputLayer)           (None, 7)            0                                            
__________________________________________________________________________________________________
s1Affixes (InputLayer)          (None, 12)           0                                            
__________________________________________________________________________________________________
s2Tokens (InputLayer)           (None, 7)            0                                            
__________________________________________________________________________________________________
s2Affixes (InputLayer)          (None, 12)           0                                            
__________________________________________________________________________________________________
LM1(S1)Tokens (InputLayer)      (None, 7)            0                                            
__________________________________________________________________________________________________
LM1(S1)Affixes (InputLayer)     (None, 12)           0                                            
__________________________________________________________________________________________________
LM2(S1)Tokens (InputLayer)      (None, 7)            0                                            
__________________________________________________________________________________________________
LM2(S1)Affixes (InputLayer)     (None, 12)           0                                            
__________________________________________________________________________________________________
LM1(S0)Tokens (InputLayer)      (None, 7)            0                                            
__________________________________________________________________________________________________
LM1(S0)Affixes (InputLayer)     (None, 12)           0                                            
__________________________________________________________________________________________________
LM2(S0)Tokens (InputLayer)      (None, 7)            0                                            
__________________________________________________________________________________________________
LM2(S0)Affixes (InputLayer)     (None, 12)           0                                            
__________________________________________________________________________________________________
RM1(S1)Tokens (InputLayer)      (None, 7)            0                                            
__________________________________________________________________________________________________
RM1(S1)Affixes (InputLayer)     (None, 12)           0                                            
__________________________________________________________________________________________________
RM2(S1)Tokens (InputLayer)      (None, 7)            0                                            
__________________________________________________________________________________________________
RM2(S1)Affixes (InputLayer)     (None, 12)           0                                            
__________________________________________________________________________________________________
RM1(S0)Tokens (InputLayer)      (None, 7)            0                                            
__________________________________________________________________________________________________
RM1(S0)Affixes (InputLayer)     (None, 12)           0                                            
__________________________________________________________________________________________________
RM2(S0)Tokens (InputLayer)      (None, 7)            0                                            
__________________________________________________________________________________________________
RM2(S0)Affixes (InputLayer)     (None, 12)           0                                            
__________________________________________________________________________________________________
LMLM(S1)Tokens (InputLayer)     (None, 7)            0                                            
__________________________________________________________________________________________________
LMLM(S1)Affixes (InputLayer)    (None, 12)           0                                            
__________________________________________________________________________________________________
RMRM(S1)Tokens (InputLayer)     (None, 7)            0                                            
__________________________________________________________________________________________________
RMRM(S1)Affixes (InputLayer)    (None, 12)           0                                            
__________________________________________________________________________________________________
LMLM(S0)Tokens (InputLayer)     (None, 7)            0                                            
__________________________________________________________________________________________________
LMLM(S0)Affixes (InputLayer)    (None, 12)           0                                            
__________________________________________________________________________________________________
RMRM(S0)Tokens (InputLayer)     (None, 7)            0                                            
__________________________________________________________________________________________________
RMRM(S0)Affixes (InputLayer)    (None, 12)           0                                            
__________________________________________________________________________________________________
tokenEmb (Embedding)            (None, 7, 114)       1335054     b0Tokens[0][0]                   
                                                                 b1Tokens[0][0]                   
                                                                 b2Tokens[0][0]                   
                                                                 s0Tokens[0][0]                   
                                                                 s1Tokens[0][0]                   
…
                                                                 RM2(S0)Affixes[0][0]             
                                                                 LMLM(S1)Affixes[0][0]            
                                                                 RMRM(S1)Affixes[0][0]            
                                                                 LMLM(S0)Affixes[0][0]            
                                                                 RMRM(S0)Affixes[0][0]            
__________________________________________________________________________________________________
SyntacticLabels (InputLayer)    (None, 12)           0                                            
__________________________________________________________________________________________________
flatten_58 (Flatten)            (None, 798)          0           tokenEmb[5][0]                   
__________________________________________________________________________________________________
flatten_59 (Flatten)            (None, 132)          0           affixeseEmb[5][0]                
__________________________________________________________________________________________________
flatten_60 (Flatten)            (None, 798)          0           tokenEmb[6][0]                   
__________________________________________________________________________________________________
flatten_61 (Flatten)            (None, 132)          0           affixeseEmb[6][0]                
__________________________________________________________________________________________________
flatten_62 (Flatten)            (None, 798)          0           tokenEmb[7][0]                   
__________________________________________________________________________________________________
flatten_63 (Flatten)            (None, 132)          0           affixeseEmb[7][0]                
__________________________________________________________________________________________________
flatten_64 (Flatten)            (None, 798)          0           tokenEmb[8][0]                   
__________________________________________________________________________________________________
flatten_65 (Flatten)            (None, 132)          0           affixeseEmb[8][0]                
__________________________________________________________________________________________________
flatten_66 (Flatten)            (None, 798)          0           tokenEmb[9][0]                   
__________________________________________________________________________________________________
flatten_67 (Flatten)            (None, 132)          0           affixeseEmb[9][0]                
__________________________________________________________________________________________________
flatten_68 (Flatten)            (None, 798)          0           tokenEmb[10][0]                  
__________________________________________________________________________________________________
flatten_69 (Flatten)            (None, 132)          0           affixeseEmb[10][0]               
__________________________________________________________________________________________________
flatten_70 (Flatten)            (None, 798)          0           tokenEmb[11][0]                  
__________________________________________________________________________________________________
flatten_71 (Flatten)            (None, 132)          0           affixeseEmb[11][0]               
__________________________________________________________________________________________________
flatten_72 (Flatten)            (None, 798)          0           tokenEmb[12][0]                  
__________________________________________________________________________________________________
flatten_73 (Flatten)            (None, 132)          0           affixeseEmb[12][0]               
__________________________________________________________________________________________________
flatten_74 (Flatten)            (None, 798)          0           tokenEmb[13][0]                  
__________________________________________________________________________________________________
flatten_75 (Flatten)            (None, 132)          0           affixeseEmb[13][0]               
__________________________________________________________________________________________________
flatten_76 (Flatten)            (None, 798)          0           tokenEmb[14][0]                  
__________________________________________________________________________________________________
flatten_77 (Flatten)            (None, 132)          0           affixeseEmb[14][0]               
__________________________________________________________________________________________________
flatten_78 (Flatten)            (None, 798)          0           tokenEmb[15][0]                  
__________________________________________________________________________________________________
flatten_79 (Flatten)            (None, 132)          0           affixeseEmb[15][0]               
__________________________________________________________________________________________________
flatten_80 (Flatten)            (None, 798)          0           tokenEmb[16][0]                  
__________________________________________________________________________________________________
flatten_81 (Flatten)            (None, 132)          0           affixeseEmb[16][0]               
__________________________________________________________________________________________________
flatten_82 (Flatten)            (None, 798)          0           tokenEmb[17][0]                  
__________________________________________________________________________________________________
flatten_83 (Flatten)            (None, 132)          0           affixeseEmb[17][0]               
__________________________________________________________________________________________________
flatten_84 (Flatten)            (None, 798)          0           tokenEmb[18][0]                  
__________________________________________________________________________________________________
flatten_85 (Flatten)            (None, 132)          0           affixeseEmb[18][0]               
__________________________________________________________________________________________________
flatten_86 (Flatten)            (None, 798)          0           tokenEmb[19][0]                  
__________________________________________________________________________________________________
flatten_87 (Flatten)            (None, 132)          0           affixeseEmb[19][0]               
__________________________________________________________________________________________________
flatten_88 (Flatten)            (None, 798)          0           tokenEmb[20][0]                  
__________________________________________________________________________________________________
flatten_89 (Flatten)            (None, 132)          0           affixeseEmb[20][0]               
__________________________________________________________________________________________________
flatten_90 (Flatten)            (None, 798)          0           tokenEmb[21][0]                  
__________________________________________________________________________________________________
flatten_91 (Flatten)            (None, 132)          0           affixeseEmb[21][0]               
__________________________________________________________________________________________________
flatten_92 (Flatten)            (None, 798)          0           tokenEmb[22][0]                  
__________________________________________________________________________________________________
flatten_93 (Flatten)            (None, 132)          0           affixeseEmb[22][0]               
__________________________________________________________________________________________________
SyntacticLabelEmb (Embedding)   (None, 12, 17)       714         SyntacticLabels[0][0]            
__________________________________________________________________________________________________
concatenate_32 (Concatenate)    (None, 930)          0           flatten_58[0][0]                 
                                                                 flatten_59[0][0]                 
__________________________________________________________________________________________________
concatenate_33 (Concatenate)    (None, 930)          0           flatten_60[0][0]                 
                                                                 flatten_61[0][0]                 
__________________________________________________________________________________________________
concatenate_34 (Concatenate)    (None, 930)          0           flatten_62[0][0]                 
                                                                 flatten_63[0][0]                 
__________________________________________________________________________________________________
concatenate_35 (Concatenate)    (None, 930)          0           flatten_64[0][0]                 
                                                                 flatten_65[0][0]                 
__________________________________________________________________________________________________
concatenate_36 (Concatenate)    (None, 930)          0           flatten_66[0][0]                 
                                                                 flatten_67[0][0]                 
__________________________________________________________________________________________________
concatenate_37 (Concatenate)    (None, 930)          0           flatten_68[0][0]                 
                                                                 flatten_69[0][0]                 
__________________________________________________________________________________________________
concatenate_38 (Concatenate)    (None, 930)          0           flatten_70[0][0]                 
                                                                 flatten_71[0][0]                 
__________________________________________________________________________________________________
concatenate_39 (Concatenate)    (None, 930)          0           flatten_72[0][0]                 
                                                                 flatten_73[0][0]                 
__________________________________________________________________________________________________
concatenate_40 (Concatenate)    (None, 930)          0           flatten_74[0][0]                 
                                                                 flatten_75[0][0]                 
__________________________________________________________________________________________________
concatenate_41 (Concatenate)    (None, 930)          0           flatten_76[0][0]                 
                                                                 flatten_77[0][0]                 
__________________________________________________________________________________________________
concatenate_42 (Concatenate)    (None, 930)          0           flatten_78[0][0]                 
                                                                 flatten_79[0][0]                 
__________________________________________________________________________________________________
concatenate_43 (Concatenate)    (None, 930)          0           flatten_80[0][0]                 
                                                                 flatten_81[0][0]                 
__________________________________________________________________________________________________
concatenate_44 (Concatenate)    (None, 930)          0           flatten_82[0][0]                 
                                                                 flatten_83[0][0]                 
__________________________________________________________________________________________________
concatenate_45 (Concatenate)    (None, 930)          0           flatten_84[0][0]                 
                                                                 flatten_85[0][0]                 
__________________________________________________________________________________________________
concatenate_46 (Concatenate)    (None, 930)          0           flatten_86[0][0]                 
                                                                 flatten_87[0][0]                 
__________________________________________________________________________________________________
concatenate_47 (Concatenate)    (None, 930)          0           flatten_88[0][0]                 
                                                                 flatten_89[0][0]                 
__________________________________________________________________________________________________
concatenate_48 (Concatenate)    (None, 930)          0           flatten_90[0][0]                 
                                                                 flatten_91[0][0]                 
__________________________________________________________________________________________________
concatenate_49 (Concatenate)    (None, 930)          0           flatten_92[0][0]                 
                                                                 flatten_93[0][0]                 
__________________________________________________________________________________________________
flatten_94 (Flatten)            (None, 204)          0           SyntacticLabelEmb[0][0]          
__________________________________________________________________________________________________
posDense (Dense)                (None, 34)           31654       concatenate_32[0][0]             
                                                                 concatenate_33[0][0]             
                                                                 concatenate_34[0][0]             
                                                                 concatenate_35[0][0]             
                                                                 concatenate_36[0][0]             
…
__________________________________________________________________________________________________

__________________________________________________________________________________________________
	Optimizer : Adagrad,  learning rate = 0.138
__________________________________________________________________________________________________
__________________________________________________________________________________________________
Layer (type)                    Output Shape         Param #     Connected to                     
==================================================================================================
b0Tokens (InputLayer)           (None, 7)            0                                            
__________________________________________________________________________________________________
b0Affixes (InputLayer)          (None, 12)           0                                            
__________________________________________________________________________________________________
b1Tokens (InputLayer)           (None, 7)            0                                            
__________________________________________________________________________________________________
b1Affixes (InputLayer)          (None, 12)           0                                            
__________________________________________________________________________________________________
b2Tokens (InputLayer)           (None, 7)            0                                            
__________________________________________________________________________________________________
b2Affixes (InputLayer)          (None, 12)           0                                            
__________________________________________________________________________________________________
s0Tokens (InputLayer)           (None, 7)            0                                            
__________________________________________________________________________________________________
s0Affixes (InputLayer)          (None, 12)           0                                            
__________________________________________________________________________________________________
s1Tokens (InputLayer)           (None, 7)            0                                            
__________________________________________________________________________________________________
s1Affixes (InputLayer)          (None, 12)           0                                            
__________________________________________________________________________________________________
s2Tokens (InputLayer)           (None, 7)            0                                            
__________________________________________________________________________________________________
s2Affixes (InputLayer)          (None, 12)           0                                            
__________________________________________________________________________________________________
LM1(S1)Tokens (InputLayer)      (None, 7)            0                                            
__________________________________________________________________________________________________
LM1(S1)Affixes (InputLayer)     (None, 12)           0                                            
__________________________________________________________________________________________________
LM2(S1)Tokens (InputLayer)      (None, 7)            0                                            
__________________________________________________________________________________________________
LM2(S1)Affixes (InputLayer)     (None, 12)           0                                            
__________________________________________________________________________________________________
LM1(S0)Tokens (InputLayer)      (None, 7)            0                                            
__________________________________________________________________________________________________
LM1(S0)Affixes (InputLayer)     (None, 12)           0                                            
__________________________________________________________________________________________________
LM2(S0)Tokens (InputLayer)      (None, 7)            0                                            
__________________________________________________________________________________________________
LM2(S0)Affixes (InputLayer)     (None, 12)           0                                            
__________________________________________________________________________________________________
RM1(S1)Tokens (InputLayer)      (None, 7)            0                                            
__________________________________________________________________________________________________
RM1(S1)Affixes (InputLayer)     (None, 12)           0                                            
__________________________________________________________________________________________________
RM2(S1)Tokens (InputLayer)      (None, 7)            0                                            
__________________________________________________________________________________________________
RM2(S1)Affixes (InputLayer)     (None, 12)           0                                            
__________________________________________________________________________________________________
RM1(S0)Tokens (InputLayer)      (None, 7)            0                                            
__________________________________________________________________________________________________
RM1(S0)Affixes (InputLayer)     (None, 12)           0                                            
__________________________________________________________________________________________________
RM2(S0)Tokens (InputLayer)      (None, 7)            0                                            
__________________________________________________________________________________________________
RM2(S0)Affixes (InputLayer)     (None, 12)           0                                            
__________________________________________________________________________________________________
LMLM(S1)Tokens (InputLayer)     (None, 7)            0                                            
__________________________________________________________________________________________________
LMLM(S1)Affixes (InputLayer)    (None, 12)           0                                            
__________________________________________________________________________________________________
RMRM(S1)Tokens (InputLayer)     (None, 7)            0                                            
__________________________________________________________________________________________________
RMRM(S1)Affixes (InputLayer)    (None, 12)           0                                            
__________________________________________________________________________________________________
LMLM(S0)Tokens (InputLayer)     (None, 7)            0                                            
__________________________________________________________________________________________________
LMLM(S0)Affixes (InputLayer)    (None, 12)           0                                            
__________________________________________________________________________________________________
RMRM(S0)Tokens (InputLayer)     (None, 7)            0                                            
__________________________________________________________________________________________________
RMRM(S0)Affixes (InputLayer)    (None, 12)           0                                            
__________________________________________________________________________________________________
tokenEmb (Embedding)            (None, 7, 114)       1167702     b0Tokens[0][0]                   
                                                                 b1Tokens[0][0]                   
                                                                 b2Tokens[0][0]                   
                                                                 s0Tokens[0][0]                   
                                                                 s1Tokens[0][0]                   
…
                                                                 RM2(S0)Affixes[0][0]             
                                                                 LMLM(S1)Affixes[0][0]            
                                                                 RMRM(S1)Affixes[0][0]            
                                                                 LMLM(S0)Affixes[0][0]            
                                                                 RMRM(S0)Affixes[0][0]            
__________________________________________________________________________________________________
SyntacticLabels (InputLayer)    (None, 12)           0                                            
__________________________________________________________________________________________________
flatten_105 (Flatten)           (None, 798)          0           tokenEmb[5][0]                   
__________________________________________________________________________________________________
flatten_106 (Flatten)           (None, 132)          0           affixeseEmb[5][0]                
__________________________________________________________________________________________________
flatten_107 (Flatten)           (None, 798)          0           tokenEmb[6][0]                   
__________________________________________________________________________________________________
flatten_108 (Flatten)           (None, 132)          0           affixeseEmb[6][0]                
__________________________________________________________________________________________________
flatten_109 (Flatten)           (None, 798)          0           tokenEmb[7][0]                   
__________________________________________________________________________________________________
flatten_110 (Flatten)           (None, 132)          0           affixeseEmb[7][0]                
__________________________________________________________________________________________________
flatten_111 (Flatten)           (None, 798)          0           tokenEmb[8][0]                   
__________________________________________________________________________________________________
flatten_112 (Flatten)           (None, 132)          0           affixeseEmb[8][0]                
__________________________________________________________________________________________________
flatten_113 (Flatten)           (None, 798)          0           tokenEmb[9][0]                   
__________________________________________________________________________________________________
flatten_114 (Flatten)           (None, 132)          0           affixeseEmb[9][0]                
__________________________________________________________________________________________________
flatten_115 (Flatten)           (None, 798)          0           tokenEmb[10][0]                  
__________________________________________________________________________________________________
flatten_116 (Flatten)           (None, 132)          0           affixeseEmb[10][0]               
__________________________________________________________________________________________________
flatten_117 (Flatten)           (None, 798)          0           tokenEmb[11][0]                  
__________________________________________________________________________________________________
flatten_118 (Flatten)           (None, 132)          0           affixeseEmb[11][0]               
__________________________________________________________________________________________________
flatten_119 (Flatten)           (None, 798)          0           tokenEmb[12][0]                  
__________________________________________________________________________________________________
flatten_120 (Flatten)           (None, 132)          0           affixeseEmb[12][0]               
__________________________________________________________________________________________________
flatten_121 (Flatten)           (None, 798)          0           tokenEmb[13][0]                  
__________________________________________________________________________________________________
flatten_122 (Flatten)           (None, 132)          0           affixeseEmb[13][0]               
__________________________________________________________________________________________________
flatten_123 (Flatten)           (None, 798)          0           tokenEmb[14][0]                  
__________________________________________________________________________________________________
flatten_124 (Flatten)           (None, 132)          0           affixeseEmb[14][0]               
__________________________________________________________________________________________________
flatten_125 (Flatten)           (None, 798)          0           tokenEmb[15][0]                  
__________________________________________________________________________________________________
flatten_126 (Flatten)           (None, 132)          0           affixeseEmb[15][0]               
__________________________________________________________________________________________________
flatten_127 (Flatten)           (None, 798)          0           tokenEmb[16][0]                  
__________________________________________________________________________________________________
flatten_128 (Flatten)           (None, 132)          0           affixeseEmb[16][0]               
__________________________________________________________________________________________________
flatten_129 (Flatten)           (None, 798)          0           tokenEmb[17][0]                  
__________________________________________________________________________________________________
flatten_130 (Flatten)           (None, 132)          0           affixeseEmb[17][0]               
__________________________________________________________________________________________________
flatten_131 (Flatten)           (None, 798)          0           tokenEmb[18][0]                  
__________________________________________________________________________________________________
flatten_132 (Flatten)           (None, 132)          0           affixeseEmb[18][0]               
__________________________________________________________________________________________________
flatten_133 (Flatten)           (None, 798)          0           tokenEmb[19][0]                  
__________________________________________________________________________________________________
flatten_134 (Flatten)           (None, 132)          0           affixeseEmb[19][0]               
__________________________________________________________________________________________________
flatten_135 (Flatten)           (None, 798)          0           tokenEmb[20][0]                  
__________________________________________________________________________________________________
flatten_136 (Flatten)           (None, 132)          0           affixeseEmb[20][0]               
__________________________________________________________________________________________________
flatten_137 (Flatten)           (None, 798)          0           tokenEmb[21][0]                  
__________________________________________________________________________________________________
flatten_138 (Flatten)           (None, 132)          0           affixeseEmb[21][0]               
__________________________________________________________________________________________________
flatten_139 (Flatten)           (None, 798)          0           tokenEmb[22][0]                  
__________________________________________________________________________________________________
flatten_140 (Flatten)           (None, 132)          0           affixeseEmb[22][0]               
__________________________________________________________________________________________________
SyntacticLabelEmb (Embedding)   (None, 12, 17)       816         SyntacticLabels[0][0]            
__________________________________________________________________________________________________
concatenate_57 (Concatenate)    (None, 930)          0           flatten_105[0][0]                
                                                                 flatten_106[0][0]                
__________________________________________________________________________________________________
concatenate_58 (Concatenate)    (None, 930)          0           flatten_107[0][0]                
                                                                 flatten_108[0][0]                
__________________________________________________________________________________________________
concatenate_59 (Concatenate)    (None, 930)          0           flatten_109[0][0]                
                                                                 flatten_110[0][0]                
__________________________________________________________________________________________________
concatenate_60 (Concatenate)    (None, 930)          0           flatten_111[0][0]                
                                                                 flatten_112[0][0]                
__________________________________________________________________________________________________
concatenate_61 (Concatenate)    (None, 930)          0           flatten_113[0][0]                
                                                                 flatten_114[0][0]                
__________________________________________________________________________________________________
concatenate_62 (Concatenate)    (None, 930)          0           flatten_115[0][0]                
                                                                 flatten_116[0][0]                
__________________________________________________________________________________________________
concatenate_63 (Concatenate)    (None, 930)          0           flatten_117[0][0]                
                                                                 flatten_118[0][0]                
__________________________________________________________________________________________________
concatenate_64 (Concatenate)    (None, 930)          0           flatten_119[0][0]                
                                                                 flatten_120[0][0]                
__________________________________________________________________________________________________
concatenate_65 (Concatenate)    (None, 930)          0           flatten_121[0][0]                
                                                                 flatten_122[0][0]                
__________________________________________________________________________________________________
concatenate_66 (Concatenate)    (None, 930)          0           flatten_123[0][0]                
                                                                 flatten_124[0][0]                
__________________________________________________________________________________________________
concatenate_67 (Concatenate)    (None, 930)          0           flatten_125[0][0]                
                                                                 flatten_126[0][0]                
__________________________________________________________________________________________________
concatenate_68 (Concatenate)    (None, 930)          0           flatten_127[0][0]                
                                                                 flatten_128[0][0]                
__________________________________________________________________________________________________
concatenate_69 (Concatenate)    (None, 930)          0           flatten_129[0][0]                
                                                                 flatten_130[0][0]                
__________________________________________________________________________________________________
concatenate_70 (Concatenate)    (None, 930)          0           flatten_131[0][0]                
                                                                 flatten_132[0][0]                
__________________________________________________________________________________________________
concatenate_71 (Concatenate)    (None, 930)          0           flatten_133[0][0]                
                                                                 flatten_134[0][0]                
__________________________________________________________________________________________________
concatenate_72 (Concatenate)    (None, 930)          0           flatten_135[0][0]                
                                                                 flatten_136[0][0]                
__________________________________________________________________________________________________
concatenate_73 (Concatenate)    (None, 930)          0           flatten_137[0][0]                
                                                                 flatten_138[0][0]                
__________________________________________________________________________________________________
concatenate_74 (Concatenate)    (None, 930)          0           flatten_139[0][0]                
                                                                 flatten_140[0][0]                
__________________________________________________________________________________________________
flatten_141 (Flatten)           (None, 204)          0           SyntacticLabelEmb[0][0]          
__________________________________________________________________________________________________
posDense (Dense)                (None, 34)           31654       concatenate_57[0][0]             
                                                                 concatenate_58[0][0]             
                                                                 concatenate_59[0][0]             
                                                                 concatenate_60[0][0]             
                                                                 concatenate_61[0][0]             
…
__________________________________________________________________________________________________

__________________________________________________________________________________________________
	Optimizer : Adagrad,  learning rate = 0.069
__________________________________________________________________________________________________
__________________________________________________________________________________________________
Layer (type)                    Output Shape         Param #     Connected to                     
==================================================================================================
b0Tokens (InputLayer)           (None, 7)            0                                            
__________________________________________________________________________________________________
b0Affixes (InputLayer)          (None, 12)           0                                            
__________________________________________________________________________________________________
b1Tokens (InputLayer)           (None, 7)            0                                            
__________________________________________________________________________________________________
b1Affixes (InputLayer)          (None, 12)           0                                            
__________________________________________________________________________________________________
b2Tokens (InputLayer)           (None, 7)            0                                            
__________________________________________________________________________________________________
b2Affixes (InputLayer)          (None, 12)           0                                            
__________________________________________________________________________________________________
s0Tokens (InputLayer)           (None, 7)            0                                            
__________________________________________________________________________________________________
s0Affixes (InputLayer)          (None, 12)           0                                            
__________________________________________________________________________________________________
s1Tokens (InputLayer)           (None, 7)            0                                            
__________________________________________________________________________________________________
s1Affixes (InputLayer)          (None, 12)           0                                            
__________________________________________________________________________________________________
s2Tokens (InputLayer)           (None, 7)            0                                            
__________________________________________________________________________________________________
s2Affixes (InputLayer)          (None, 12)           0                                            
__________________________________________________________________________________________________
LM1(S1)Tokens (InputLayer)      (None, 7)            0                                            
__________________________________________________________________________________________________
LM1(S1)Affixes (InputLayer)     (None, 12)           0                                            
__________________________________________________________________________________________________
LM2(S1)Tokens (InputLayer)      (None, 7)            0                                            
__________________________________________________________________________________________________
LM2(S1)Affixes (InputLayer)     (None, 12)           0                                            
__________________________________________________________________________________________________
LM1(S0)Tokens (InputLayer)      (None, 7)            0                                            
__________________________________________________________________________________________________
LM1(S0)Affixes (InputLayer)     (None, 12)           0                                            
__________________________________________________________________________________________________
LM2(S0)Tokens (InputLayer)      (None, 7)            0                                            
__________________________________________________________________________________________________
LM2(S0)Affixes (InputLayer)     (None, 12)           0                                            
__________________________________________________________________________________________________
RM1(S1)Tokens (InputLayer)      (None, 7)            0                                            
__________________________________________________________________________________________________
RM1(S1)Affixes (InputLayer)     (None, 12)           0                                            
__________________________________________________________________________________________________
RM2(S1)Tokens (InputLayer)      (None, 7)            0                                            
__________________________________________________________________________________________________
RM2(S1)Affixes (InputLayer)     (None, 12)           0                                            
__________________________________________________________________________________________________
RM1(S0)Tokens (InputLayer)      (None, 7)            0                                            
__________________________________________________________________________________________________
RM1(S0)Affixes (InputLayer)     (None, 12)           0                                            
__________________________________________________________________________________________________
RM2(S0)Tokens (InputLayer)      (None, 7)            0                                            
__________________________________________________________________________________________________
RM2(S0)Affixes (InputLayer)     (None, 12)           0                                            
__________________________________________________________________________________________________
LMLM(S1)Tokens (InputLayer)     (None, 7)            0                                            
__________________________________________________________________________________________________
LMLM(S1)Affixes (InputLayer)    (None, 12)           0                                            
__________________________________________________________________________________________________
RMRM(S1)Tokens (InputLayer)     (None, 7)            0                                            
__________________________________________________________________________________________________
RMRM(S1)Affixes (InputLayer)    (None, 12)           0                                            
__________________________________________________________________________________________________
LMLM(S0)Tokens (InputLayer)     (None, 7)            0                                            
__________________________________________________________________________________________________
LMLM(S0)Affixes (InputLayer)    (None, 12)           0                                            
__________________________________________________________________________________________________
RMRM(S0)Tokens (InputLayer)     (None, 7)            0                                            
__________________________________________________________________________________________________
RMRM(S0)Affixes (InputLayer)    (None, 12)           0                                            
__________________________________________________________________________________________________
tokenEmb (Embedding)            (None, 7, 114)       1061682     b0Tokens[0][0]                   
                                                                 b1Tokens[0][0]                   
                                                                 b2Tokens[0][0]                   
                                                                 s0Tokens[0][0]                   
                                                                 s1Tokens[0][0]                   
…
__________________________________________________________________________________________________

__________________________________________________________________________________________________
	Optimizer : Adagrad,  learning rate = 0.069
__________________________________________________________________________________________________
__________________________________________________________________________________________________
Layer (type)                    Output Shape         Param #     Connected to                     
==================================================================================================
b0Tokens (InputLayer)           (None, 7)            0                                            
__________________________________________________________________________________________________
b0Affixes (InputLayer)          (None, 12)           0                                            
__________________________________________________________________________________________________
b1Tokens (InputLayer)           (None, 7)            0                                            
__________________________________________________________________________________________________
b1Affixes (InputLayer)          (None, 12)           0                                            
__________________________________________________________________________________________________
b2Tokens (InputLayer)           (None, 7)            0                                            
__________________________________________________________________________________________________
b2Affixes (InputLayer)          (None, 12)           0                                            
__________________________________________________________________________________________________
s0Tokens (InputLayer)           (None, 7)            0                                            
__________________________________________________________________________________________________
s0Affixes (InputLayer)          (None, 12)           0                                            
__________________________________________________________________________________________________
s1Tokens (InputLayer)           (None, 7)            0                                            
__________________________________________________________________________________________________
s1Affixes (InputLayer)          (None, 12)           0                                            
__________________________________________________________________________________________________
s2Tokens (InputLayer)           (None, 7)            0                                            
__________________________________________________________________________________________________
s2Affixes (InputLayer)          (None, 12)           0                                            
__________________________________________________________________________________________________
LM1(S1)Tokens (InputLayer)      (None, 7)            0                                            
__________________________________________________________________________________________________
LM1(S1)Affixes (InputLayer)     (None, 12)           0                                            
__________________________________________________________________________________________________
LM2(S1)Tokens (InputLayer)      (None, 7)            0                                            
__________________________________________________________________________________________________
LM2(S1)Affixes (InputLayer)     (None, 12)           0                                            
__________________________________________________________________________________________________
LM1(S0)Tokens (InputLayer)      (None, 7)            0                                            
__________________________________________________________________________________________________
LM1(S0)Affixes (InputLayer)     (None, 12)           0                                            
__________________________________________________________________________________________________
LM2(S0)Tokens (InputLayer)      (None, 7)            0                                            
__________________________________________________________________________________________________
LM2(S0)Affixes (InputLayer)     (None, 12)           0                                            
__________________________________________________________________________________________________
RM1(S1)Tokens (InputLayer)      (None, 7)            0                                            
__________________________________________________________________________________________________
RM1(S1)Affixes (InputLayer)     (None, 12)           0                                            
__________________________________________________________________________________________________
RM2(S1)Tokens (InputLayer)      (None, 7)            0                                            
__________________________________________________________________________________________________
RM2(S1)Affixes (InputLayer)     (None, 12)           0                                            
__________________________________________________________________________________________________
RM1(S0)Tokens (InputLayer)      (None, 7)            0                                            
__________________________________________________________________________________________________
RM1(S0)Affixes (InputLayer)     (None, 12)           0                                            
__________________________________________________________________________________________________
RM2(S0)Tokens (InputLayer)      (None, 7)            0                                            
__________________________________________________________________________________________________
RM2(S0)Affixes (InputLayer)     (None, 12)           0                                            
__________________________________________________________________________________________________
LMLM(S1)Tokens (InputLayer)     (None, 7)            0                                            
__________________________________________________________________________________________________
LMLM(S1)Affixes (InputLayer)    (None, 12)           0                                            
__________________________________________________________________________________________________
RMRM(S1)Tokens (InputLayer)     (None, 7)            0                                            
__________________________________________________________________________________________________
RMRM(S1)Affixes (InputLayer)    (None, 12)           0                                            
__________________________________________________________________________________________________
LMLM(S0)Tokens (InputLayer)     (None, 7)            0                                            
__________________________________________________________________________________________________
LMLM(S0)Affixes (InputLayer)    (None, 12)           0                                            
__________________________________________________________________________________________________
RMRM(S0)Tokens (InputLayer)     (None, 7)            0                                            
__________________________________________________________________________________________________
RMRM(S0)Affixes (InputLayer)    (None, 12)           0                                            
__________________________________________________________________________________________________
tokenEmb (Embedding)            (None, 7, 114)       1136238     b0Tokens[0][0]                   
                                                                 b1Tokens[0][0]                   
                                                                 b2Tokens[0][0]                   
                                                                 s0Tokens[0][0]                   
                                                                 s1Tokens[0][0]                   
…
__________________________________________________________________________________________________

__________________________________________________________________________________________________
	Optimizer : Adagrad,  learning rate = 0.069
__________________________________________________________________________________________________
__________________________________________________________________________________________________
Layer (type)                    Output Shape         Param #     Connected to                     
==================================================================================================
b0Tokens (InputLayer)           (None, 7)            0                                            
__________________________________________________________________________________________________
b0Affixes (InputLayer)          (None, 12)           0                                            
__________________________________________________________________________________________________
b1Tokens (InputLayer)           (None, 7)            0                                            
__________________________________________________________________________________________________
b1Affixes (InputLayer)          (None, 12)           0                                            
__________________________________________________________________________________________________
b2Tokens (InputLayer)           (None, 7)            0                                            
__________________________________________________________________________________________________
b2Affixes (InputLayer)          (None, 12)           0                                            
__________________________________________________________________________________________________
s0Tokens (InputLayer)           (None, 7)            0                                            
__________________________________________________________________________________________________
s0Affixes (InputLayer)          (None, 12)           0                                            
__________________________________________________________________________________________________
s1Tokens (InputLayer)           (None, 7)            0                                            
__________________________________________________________________________________________________
s1Affixes (InputLayer)          (None, 12)           0                                            
__________________________________________________________________________________________________
s2Tokens (InputLayer)           (None, 7)            0                                            
__________________________________________________________________________________________________
s2Affixes (InputLayer)          (None, 12)           0                                            
__________________________________________________________________________________________________
LM1(S1)Tokens (InputLayer)      (None, 7)            0                                            
__________________________________________________________________________________________________
LM1(S1)Affixes (InputLayer)     (None, 12)           0                                            
__________________________________________________________________________________________________
LM2(S1)Tokens (InputLayer)      (None, 7)            0                                            
__________________________________________________________________________________________________
LM2(S1)Affixes (InputLayer)     (None, 12)           0                                            
__________________________________________________________________________________________________
LM1(S0)Tokens (InputLayer)      (None, 7)            0                                            
__________________________________________________________________________________________________
LM1(S0)Affixes (InputLayer)     (None, 12)           0                                            
__________________________________________________________________________________________________
LM2(S0)Tokens (InputLayer)      (None, 7)            0                                            
__________________________________________________________________________________________________
LM2(S0)Affixes (InputLayer)     (None, 12)           0                                            
__________________________________________________________________________________________________
RM1(S1)Tokens (InputLayer)      (None, 7)            0                                            
__________________________________________________________________________________________________
RM1(S1)Affixes (InputLayer)     (None, 12)           0                                            
__________________________________________________________________________________________________
RM2(S1)Tokens (InputLayer)      (None, 7)            0                                            
__________________________________________________________________________________________________
RM2(S1)Affixes (InputLayer)     (None, 12)           0                                            
__________________________________________________________________________________________________
RM1(S0)Tokens (InputLayer)      (None, 7)            0                                            
__________________________________________________________________________________________________
RM1(S0)Affixes (InputLayer)     (None, 12)           0                                            
__________________________________________________________________________________________________
RM2(S0)Tokens (InputLayer)      (None, 7)            0                                            
__________________________________________________________________________________________________
RM2(S0)Affixes (InputLayer)     (None, 12)           0                                            
__________________________________________________________________________________________________
LMLM(S1)Tokens (InputLayer)     (None, 7)            0                                            
__________________________________________________________________________________________________
LMLM(S1)Affixes (InputLayer)    (None, 12)           0                                            
__________________________________________________________________________________________________
RMRM(S1)Tokens (InputLayer)     (None, 7)            0                                            
__________________________________________________________________________________________________
RMRM(S1)Affixes (InputLayer)    (None, 12)           0                                            
__________________________________________________________________________________________________
LMLM(S0)Tokens (InputLayer)     (None, 7)            0                                            
__________________________________________________________________________________________________
LMLM(S0)Affixes (InputLayer)    (None, 12)           0                                            
__________________________________________________________________________________________________
RMRM(S0)Tokens (InputLayer)     (None, 7)            0                                            
__________________________________________________________________________________________________
RMRM(S0)Affixes (InputLayer)    (None, 12)           0                                            
__________________________________________________________________________________________________
tokenEmb (Embedding)            (None, 7, 114)       761520      b0Tokens[0][0]                   
                                                                 b1Tokens[0][0]                   
                                                                 b2Tokens[0][0]                   
                                                                 s0Tokens[0][0]                   
                                                                 s1Tokens[0][0]                   
…
