…
	One occurrence keys in vocabulary 1622 / 7545

__________________________________________________________________________________________________
	Optimizer : Adagrad,  learning rate = 0.033
__________________________________________________________________________________________________
__________________________________________________________________________________________________
Layer (type)                    Output Shape         Param #     Connected to                     
==================================================================================================
tokens (InputLayer)             (None, 7)            0                                            
__________________________________________________________________________________________________
affixes (InputLayer)            (None, 12)           0                                            
__________________________________________________________________________________________________
capitalization (InputLayer)     (None, 3)            0                                            
__________________________________________________________________________________________________
symbol (InputLayer)             (None, 1)            0                                            
__________________________________________________________________________________________________
tokenEmb (Embedding)            (None, 7, 97)        731865      tokens[0][0]                     
__________________________________________________________________________________________________
affixeseEmb (Embedding)         (None, 12, 6)        7116        affixes[0][0]                    
__________________________________________________________________________________________________
capitalizationEmb (Embedding)   (None, 3, 5)         20          capitalization[0][0]             
__________________________________________________________________________________________________
symbolsEmb (Embedding)          (None, 1, 9)         180         symbol[0][0]                     
__________________________________________________________________________________________________
flatten_1 (Flatten)             (None, 679)          0           tokenEmb[0][0]                   
__________________________________________________________________________________________________
flatten_2 (Flatten)             (None, 72)           0           affixeseEmb[0][0]                
__________________________________________________________________________________________________
flatten_3 (Flatten)             (None, 15)           0           capitalizationEmb[0][0]          
__________________________________________________________________________________________________
flatten_4 (Flatten)             (None, 9)            0           symbolsEmb[0][0]                 
__________________________________________________________________________________________________
concatenate_1 (Concatenate)     (None, 775)          0           flatten_1[0][0]                  
                                                                 flatten_2[0][0]                  
                                                                 flatten_3[0][0]                  
                                                                 flatten_4[0][0]                  
__________________________________________________________________________________________________
posDense (Dense)                (None, 72)           55872       concatenate_1[0][0]              
__________________________________________________________________________________________________
dense_1 (Dense)                 (None, 152)          11096       posDense[0][0]                   
==================================================================================================
Total params: 806,149
Trainable params: 806,149
Non-trainable params: 0
__________________________________________________________________________________________________
None
==================================================================================================

__________________________________________________________________________________________________
	Optimizer : Adagrad,  learning rate = 0.033
__________________________________________________________________________________________________
__________________________________________________________________________________________________
Layer (type)                    Output Shape         Param #     Connected to                     
==================================================================================================
bxTokens (InputLayer)           (None, 7)            0                                            
__________________________________________________________________________________________________
bxAffixes (InputLayer)          (None, 12)           0                                            
__________________________________________________________________________________________________
bxCapitalization (InputLayer)   (None, 3)            0                                            
__________________________________________________________________________________________________
bxSymbols (InputLayer)          (None, 1)            0                                            
__________________________________________________________________________________________________
b1Tokens (InputLayer)           (None, 7)            0                                            
__________________________________________________________________________________________________
b1Affixes (InputLayer)          (None, 12)           0                                            
__________________________________________________________________________________________________
b1Capitalization (InputLayer)   (None, 3)            0                                            
__________________________________________________________________________________________________
b1Symbols (InputLayer)          (None, 1)            0                                            
__________________________________________________________________________________________________
b0Tokens (InputLayer)           (None, 7)            0                                            
__________________________________________________________________________________________________
b0Affixes (InputLayer)          (None, 12)           0                                            
__________________________________________________________________________________________________
b0Capitalization (InputLayer)   (None, 3)            0                                            
__________________________________________________________________________________________________
b0Symbols (InputLayer)          (None, 1)            0                                            
__________________________________________________________________________________________________
s0Tokens (InputLayer)           (None, 7)            0                                            
__________________________________________________________________________________________________
s0Affixes (InputLayer)          (None, 12)           0                                            
__________________________________________________________________________________________________
s0Capitalization (InputLayer)   (None, 3)            0                                            
__________________________________________________________________________________________________
s0Symbols (InputLayer)          (None, 1)            0                                            
__________________________________________________________________________________________________
s1Tokens (InputLayer)           (None, 7)            0                                            
__________________________________________________________________________________________________
s1Affixes (InputLayer)          (None, 12)           0                                            
__________________________________________________________________________________________________
s1Capitalization (InputLayer)   (None, 3)            0                                            
__________________________________________________________________________________________________
s1Symbols (InputLayer)          (None, 1)            0                                            
__________________________________________________________________________________________________
tokenEmb (Embedding)            (None, 7, 97)        731865      bxTokens[0][0]                   
                                                                 b1Tokens[0][0]                   
                                                                 b0Tokens[0][0]                   
                                                                 s0Tokens[0][0]                   
                                                                 s1Tokens[0][0]                   
__________________________________________________________________________________________________
affixeseEmb (Embedding)         (None, 12, 6)        7116        bxAffixes[0][0]                  
                                                                 b1Affixes[0][0]                  
                                                                 b0Affixes[0][0]                  
                                                                 s0Affixes[0][0]                  
                                                                 s1Affixes[0][0]                  
__________________________________________________________________________________________________
capitalizationEmb (Embedding)   (None, 3, 5)         20          bxCapitalization[0][0]           
                                                                 b1Capitalization[0][0]           
                                                                 b0Capitalization[0][0]           
                                                                 s0Capitalization[0][0]           
                                                                 s1Capitalization[0][0]           
__________________________________________________________________________________________________
symbolsEmb (Embedding)          (None, 1, 9)         180         bxSymbols[0][0]                  
                                                                 b1Symbols[0][0]                  
                                                                 b0Symbols[0][0]                  
                                                                 s0Symbols[0][0]                  
                                                                 s1Symbols[0][0]                  
__________________________________________________________________________________________________
flatten_5 (Flatten)             (None, 679)          0           tokenEmb[1][0]                   
__________________________________________________________________________________________________
flatten_6 (Flatten)             (None, 72)           0           affixeseEmb[1][0]                
__________________________________________________________________________________________________
flatten_7 (Flatten)             (None, 15)           0           capitalizationEmb[1][0]          
__________________________________________________________________________________________________
flatten_8 (Flatten)             (None, 9)            0           symbolsEmb[1][0]                 
__________________________________________________________________________________________________
flatten_9 (Flatten)             (None, 679)          0           tokenEmb[2][0]                   
__________________________________________________________________________________________________
flatten_10 (Flatten)            (None, 72)           0           affixeseEmb[2][0]                
__________________________________________________________________________________________________
flatten_11 (Flatten)            (None, 15)           0           capitalizationEmb[2][0]          
__________________________________________________________________________________________________
flatten_12 (Flatten)            (None, 9)            0           symbolsEmb[2][0]                 
__________________________________________________________________________________________________
flatten_13 (Flatten)            (None, 679)          0           tokenEmb[3][0]                   
__________________________________________________________________________________________________
flatten_14 (Flatten)            (None, 72)           0           affixeseEmb[3][0]                
__________________________________________________________________________________________________
flatten_15 (Flatten)            (None, 15)           0           capitalizationEmb[3][0]          
__________________________________________________________________________________________________
flatten_16 (Flatten)            (None, 9)            0           symbolsEmb[3][0]                 
__________________________________________________________________________________________________
flatten_17 (Flatten)            (None, 679)          0           tokenEmb[4][0]                   
__________________________________________________________________________________________________
flatten_18 (Flatten)            (None, 72)           0           affixeseEmb[4][0]                
__________________________________________________________________________________________________
flatten_19 (Flatten)            (None, 15)           0           capitalizationEmb[4][0]          
__________________________________________________________________________________________________
flatten_20 (Flatten)            (None, 9)            0           symbolsEmb[4][0]                 
__________________________________________________________________________________________________
flatten_21 (Flatten)            (None, 679)          0           tokenEmb[5][0]                   
__________________________________________________________________________________________________
flatten_22 (Flatten)            (None, 72)           0           affixeseEmb[5][0]                
__________________________________________________________________________________________________
flatten_23 (Flatten)            (None, 15)           0           capitalizationEmb[5][0]          
__________________________________________________________________________________________________
flatten_24 (Flatten)            (None, 9)            0           symbolsEmb[5][0]                 
__________________________________________________________________________________________________
concatenate_2 (Concatenate)     (None, 775)          0           flatten_5[0][0]                  
                                                                 flatten_6[0][0]                  
                                                                 flatten_7[0][0]                  
                                                                 flatten_8[0][0]                  
__________________________________________________________________________________________________
concatenate_3 (Concatenate)     (None, 775)          0           flatten_9[0][0]                  
                                                                 flatten_10[0][0]                 
                                                                 flatten_11[0][0]                 
                                                                 flatten_12[0][0]                 
__________________________________________________________________________________________________
concatenate_4 (Concatenate)     (None, 775)          0           flatten_13[0][0]                 
                                                                 flatten_14[0][0]                 
                                                                 flatten_15[0][0]                 
                                                                 flatten_16[0][0]                 
__________________________________________________________________________________________________
concatenate_5 (Concatenate)     (None, 775)          0           flatten_17[0][0]                 
                                                                 flatten_18[0][0]                 
                                                                 flatten_19[0][0]                 
                                                                 flatten_20[0][0]                 
__________________________________________________________________________________________________
concatenate_6 (Concatenate)     (None, 775)          0           flatten_21[0][0]                 
                                                                 flatten_22[0][0]                 
                                                                 flatten_23[0][0]                 
                                                                 flatten_24[0][0]                 
__________________________________________________________________________________________________
posDense (Dense)                (None, 72)           55872       concatenate_2[0][0]              
                                                                 concatenate_3[0][0]              
                                                                 concatenate_4[0][0]              
                                                                 concatenate_5[0][0]              
                                                                 concatenate_6[0][0]              
__________________________________________________________________________________________________
concatenate_7 (Concatenate)     (None, 360)          0           posDense[1][0]                   
                                                                 posDense[2][0]                   
                                                                 posDense[3][0]                   
                                                                 posDense[4][0]                   
                                                                 posDense[5][0]                   
__________________________________________________________________________________________________
idenDense (Dense)               (None, 27)           9747        concatenate_7[0][0]              
__________________________________________________________________________________________________
idenSoftMax (Dense)             (None, 4)            112         idenDense[0][0]                  
==================================================================================================
Total params: 804,912
Trainable params: 804,912
Non-trainable params: 0
__________________________________________________________________________________________________
None
==================================================================================================
…
	One occurrence keys in vocabulary 1622 / 7545

__________________________________________________________________________________________________
	Optimizer : Adagrad,  learning rate = 0.112
__________________________________________________________________________________________________
__________________________________________________________________________________________________
Layer (type)                    Output Shape         Param #     Connected to                     
==================================================================================================
tokens (InputLayer)             (None, 7)            0                                            
__________________________________________________________________________________________________
affixes (InputLayer)            (None, 12)           0                                            
__________________________________________________________________________________________________
capitalization (InputLayer)     (None, 3)            0                                            
__________________________________________________________________________________________________
tokenEmb (Embedding)            (None, 7, 75)        565875      tokens[0][0]                     
__________________________________________________________________________________________________
affixeseEmb (Embedding)         (None, 12, 9)        10674       affixes[0][0]                    
__________________________________________________________________________________________________
capitalizationEmb (Embedding)   (None, 3, 3)         12          capitalization[0][0]             
__________________________________________________________________________________________________
flatten_25 (Flatten)            (None, 525)          0           tokenEmb[0][0]                   
__________________________________________________________________________________________________
flatten_26 (Flatten)            (None, 108)          0           affixeseEmb[0][0]                
__________________________________________________________________________________________________
flatten_27 (Flatten)            (None, 9)            0           capitalizationEmb[0][0]          
__________________________________________________________________________________________________
concatenate_8 (Concatenate)     (None, 642)          0           flatten_25[0][0]                 
                                                                 flatten_26[0][0]                 
                                                                 flatten_27[0][0]                 
__________________________________________________________________________________________________
posDense (Dense)                (None, 33)           21219       concatenate_8[0][0]              
__________________________________________________________________________________________________
dense_2 (Dense)                 (None, 152)          5168        posDense[0][0]                   
==================================================================================================
Total params: 602,948
Trainable params: 602,948
Non-trainable params: 0
__________________________________________________________________________________________________
None
==================================================================================================

__________________________________________________________________________________________________
	Optimizer : Adagrad,  learning rate = 0.112
__________________________________________________________________________________________________
__________________________________________________________________________________________________
Layer (type)                    Output Shape         Param #     Connected to                     
==================================================================================================
bxTokens (InputLayer)           (None, 7)            0                                            
__________________________________________________________________________________________________
bxAffixes (InputLayer)          (None, 12)           0                                            
__________________________________________________________________________________________________
bxCapitalization (InputLayer)   (None, 3)            0                                            
__________________________________________________________________________________________________
b0Tokens (InputLayer)           (None, 7)            0                                            
__________________________________________________________________________________________________
b0Affixes (InputLayer)          (None, 12)           0                                            
__________________________________________________________________________________________________
b0Capitalization (InputLayer)   (None, 3)            0                                            
__________________________________________________________________________________________________
s0Tokens (InputLayer)           (None, 7)            0                                            
__________________________________________________________________________________________________
s0Affixes (InputLayer)          (None, 12)           0                                            
__________________________________________________________________________________________________
s0Capitalization (InputLayer)   (None, 3)            0                                            
__________________________________________________________________________________________________
s1Tokens (InputLayer)           (None, 7)            0                                            
__________________________________________________________________________________________________
s1Affixes (InputLayer)          (None, 12)           0                                            
__________________________________________________________________________________________________
s1Capitalization (InputLayer)   (None, 3)            0                                            
__________________________________________________________________________________________________
tokenEmb (Embedding)            (None, 7, 75)        565875      bxTokens[0][0]                   
                                                                 b0Tokens[0][0]                   
                                                                 s0Tokens[0][0]                   
                                                                 s1Tokens[0][0]                   
__________________________________________________________________________________________________
affixeseEmb (Embedding)         (None, 12, 9)        10674       bxAffixes[0][0]                  
                                                                 b0Affixes[0][0]                  
                                                                 s0Affixes[0][0]                  
                                                                 s1Affixes[0][0]                  
__________________________________________________________________________________________________
capitalizationEmb (Embedding)   (None, 3, 3)         12          bxCapitalization[0][0]           
                                                                 b0Capitalization[0][0]           
                                                                 s0Capitalization[0][0]           
                                                                 s1Capitalization[0][0]           
__________________________________________________________________________________________________
flatten_28 (Flatten)            (None, 525)          0           tokenEmb[1][0]                   
__________________________________________________________________________________________________
flatten_29 (Flatten)            (None, 108)          0           affixeseEmb[1][0]                
__________________________________________________________________________________________________
flatten_30 (Flatten)            (None, 9)            0           capitalizationEmb[1][0]          
__________________________________________________________________________________________________
flatten_31 (Flatten)            (None, 525)          0           tokenEmb[2][0]                   
__________________________________________________________________________________________________
flatten_32 (Flatten)            (None, 108)          0           affixeseEmb[2][0]                
__________________________________________________________________________________________________
flatten_33 (Flatten)            (None, 9)            0           capitalizationEmb[2][0]          
__________________________________________________________________________________________________
flatten_34 (Flatten)            (None, 525)          0           tokenEmb[3][0]                   
__________________________________________________________________________________________________
flatten_35 (Flatten)            (None, 108)          0           affixeseEmb[3][0]                
__________________________________________________________________________________________________
flatten_36 (Flatten)            (None, 9)            0           capitalizationEmb[3][0]          
__________________________________________________________________________________________________
flatten_37 (Flatten)            (None, 525)          0           tokenEmb[4][0]                   
__________________________________________________________________________________________________
flatten_38 (Flatten)            (None, 108)          0           affixeseEmb[4][0]                
__________________________________________________________________________________________________
flatten_39 (Flatten)            (None, 9)            0           capitalizationEmb[4][0]          
__________________________________________________________________________________________________
concatenate_9 (Concatenate)     (None, 642)          0           flatten_28[0][0]                 
                                                                 flatten_29[0][0]                 
                                                                 flatten_30[0][0]                 
__________________________________________________________________________________________________
concatenate_10 (Concatenate)    (None, 642)          0           flatten_31[0][0]                 
                                                                 flatten_32[0][0]                 
                                                                 flatten_33[0][0]                 
__________________________________________________________________________________________________
concatenate_11 (Concatenate)    (None, 642)          0           flatten_34[0][0]                 
                                                                 flatten_35[0][0]                 
                                                                 flatten_36[0][0]                 
__________________________________________________________________________________________________
concatenate_12 (Concatenate)    (None, 642)          0           flatten_37[0][0]                 
                                                                 flatten_38[0][0]                 
                                                                 flatten_39[0][0]                 
__________________________________________________________________________________________________
posDense (Dense)                (None, 33)           21219       concatenate_9[0][0]              
                                                                 concatenate_10[0][0]             
                                                                 concatenate_11[0][0]             
                                                                 concatenate_12[0][0]             
__________________________________________________________________________________________________
concatenate_13 (Concatenate)    (None, 132)          0           posDense[1][0]                   
                                                                 posDense[2][0]                   
                                                                 posDense[3][0]                   
                                                                 posDense[4][0]                   
__________________________________________________________________________________________________
idenDense (Dense)               (None, 38)           5054        concatenate_13[0][0]             
__________________________________________________________________________________________________
idenSoftMax (Dense)             (None, 4)            156         idenDense[0][0]                  
==================================================================================================
Total params: 602,990
Trainable params: 602,990
Non-trainable params: 0
__________________________________________________________________________________________________
None
==================================================================================================
…
	One occurrence keys in vocabulary 1622 / 7545

__________________________________________________________________________________________________
	Optimizer : Adagrad,  learning rate = 0.088
__________________________________________________________________________________________________
__________________________________________________________________________________________________
Layer (type)                    Output Shape         Param #     Connected to                     
==================================================================================================
tokens (InputLayer)             (None, 7)            0                                            
__________________________________________________________________________________________________
affixes (InputLayer)            (None, 12)           0                                            
__________________________________________________________________________________________________
tokenEmb (Embedding)            (None, 7, 169)       1275105     tokens[0][0]                     
__________________________________________________________________________________________________
affixeseEmb (Embedding)         (None, 12, 10)       11860       affixes[0][0]                    
__________________________________________________________________________________________________
flatten_40 (Flatten)            (None, 1183)         0           tokenEmb[0][0]                   
__________________________________________________________________________________________________
flatten_41 (Flatten)            (None, 120)          0           affixeseEmb[0][0]                
__________________________________________________________________________________________________
concatenate_14 (Concatenate)    (None, 1303)         0           flatten_40[0][0]                 
                                                                 flatten_41[0][0]                 
__________________________________________________________________________________________________
posDense (Dense)                (None, 91)           118664      concatenate_14[0][0]             
__________________________________________________________________________________________________
dense_3 (Dense)                 (None, 152)          13984       posDense[0][0]                   
==================================================================================================
Total params: 1,419,613
Trainable params: 1,419,613
Non-trainable params: 0
__________________________________________________________________________________________________
None
==================================================================================================

__________________________________________________________________________________________________
	Optimizer : Adagrad,  learning rate = 0.088
__________________________________________________________________________________________________
__________________________________________________________________________________________________
Layer (type)                    Output Shape         Param #     Connected to                     
==================================================================================================
b1Tokens (InputLayer)           (None, 7)            0                                            
__________________________________________________________________________________________________
b1Affixes (InputLayer)          (None, 12)           0                                            
__________________________________________________________________________________________________
b0Tokens (InputLayer)           (None, 7)            0                                            
__________________________________________________________________________________________________
b0Affixes (InputLayer)          (None, 12)           0                                            
__________________________________________________________________________________________________
s0Tokens (InputLayer)           (None, 7)            0                                            
__________________________________________________________________________________________________
s0Affixes (InputLayer)          (None, 12)           0                                            
__________________________________________________________________________________________________
s1Tokens (InputLayer)           (None, 7)            0                                            
__________________________________________________________________________________________________
s1Affixes (InputLayer)          (None, 12)           0                                            
__________________________________________________________________________________________________
tokenEmb (Embedding)            (None, 7, 169)       1275105     b1Tokens[0][0]                   
                                                                 b0Tokens[0][0]                   
                                                                 s0Tokens[0][0]                   
                                                                 s1Tokens[0][0]                   
__________________________________________________________________________________________________
affixeseEmb (Embedding)         (None, 12, 10)       11860       b1Affixes[0][0]                  
                                                                 b0Affixes[0][0]                  
                                                                 s0Affixes[0][0]                  
                                                                 s1Affixes[0][0]                  
__________________________________________________________________________________________________
flatten_42 (Flatten)            (None, 1183)         0           tokenEmb[1][0]                   
__________________________________________________________________________________________________
flatten_43 (Flatten)            (None, 120)          0           affixeseEmb[1][0]                
__________________________________________________________________________________________________
flatten_44 (Flatten)            (None, 1183)         0           tokenEmb[2][0]                   
__________________________________________________________________________________________________
flatten_45 (Flatten)            (None, 120)          0           affixeseEmb[2][0]                
__________________________________________________________________________________________________
flatten_46 (Flatten)            (None, 1183)         0           tokenEmb[3][0]                   
__________________________________________________________________________________________________
flatten_47 (Flatten)            (None, 120)          0           affixeseEmb[3][0]                
__________________________________________________________________________________________________
flatten_48 (Flatten)            (None, 1183)         0           tokenEmb[4][0]                   
__________________________________________________________________________________________________
flatten_49 (Flatten)            (None, 120)          0           affixeseEmb[4][0]                
__________________________________________________________________________________________________
concatenate_15 (Concatenate)    (None, 1303)         0           flatten_42[0][0]                 
                                                                 flatten_43[0][0]                 
__________________________________________________________________________________________________
concatenate_16 (Concatenate)    (None, 1303)         0           flatten_44[0][0]                 
                                                                 flatten_45[0][0]                 
__________________________________________________________________________________________________
concatenate_17 (Concatenate)    (None, 1303)         0           flatten_46[0][0]                 
                                                                 flatten_47[0][0]                 
__________________________________________________________________________________________________
concatenate_18 (Concatenate)    (None, 1303)         0           flatten_48[0][0]                 
                                                                 flatten_49[0][0]                 
__________________________________________________________________________________________________
posDense (Dense)                (None, 91)           118664      concatenate_15[0][0]             
                                                                 concatenate_16[0][0]             
                                                                 concatenate_17[0][0]             
                                                                 concatenate_18[0][0]             
__________________________________________________________________________________________________
concatenate_19 (Concatenate)    (None, 364)          0           posDense[1][0]                   
                                                                 posDense[2][0]                   
                                                                 posDense[3][0]                   
                                                                 posDense[4][0]                   
__________________________________________________________________________________________________
idenDense (Dense)               (None, 68)           24820       concatenate_19[0][0]             
__________________________________________________________________________________________________
idenSoftMax (Dense)             (None, 4)            276         idenDense[0][0]                  
==================================================================================================
Total params: 1,430,725
Trainable params: 1,430,725
Non-trainable params: 0
__________________________________________________________________________________________________
None
==================================================================================================
…
	One occurrence keys in vocabulary 1622 / 7545

__________________________________________________________________________________________________
	Optimizer : Adagrad,  learning rate = 0.015
__________________________________________________________________________________________________
__________________________________________________________________________________________________
Layer (type)                    Output Shape         Param #     Connected to                     
==================================================================================================
tokens (InputLayer)             (None, 7)            0                                            
__________________________________________________________________________________________________
affixes (InputLayer)            (None, 12)           0                                            
__________________________________________________________________________________________________
capitalization (InputLayer)     (None, 3)            0                                            
__________________________________________________________________________________________________
symbol (InputLayer)             (None, 1)            0                                            
__________________________________________________________________________________________________
tokenEmb (Embedding)            (None, 7, 57)        430065      tokens[0][0]                     
__________________________________________________________________________________________________
affixeseEmb (Embedding)         (None, 12, 9)        10674       affixes[0][0]                    
__________________________________________________________________________________________________
capitalizationEmb (Embedding)   (None, 3, 3)         12          capitalization[0][0]             
__________________________________________________________________________________________________
symbolsEmb (Embedding)          (None, 1, 5)         100         symbol[0][0]                     
__________________________________________________________________________________________________
flatten_50 (Flatten)            (None, 399)          0           tokenEmb[0][0]                   
__________________________________________________________________________________________________
flatten_51 (Flatten)            (None, 108)          0           affixeseEmb[0][0]                
__________________________________________________________________________________________________
flatten_52 (Flatten)            (None, 9)            0           capitalizationEmb[0][0]          
__________________________________________________________________________________________________
flatten_53 (Flatten)            (None, 5)            0           symbolsEmb[0][0]                 
__________________________________________________________________________________________________
concatenate_20 (Concatenate)    (None, 521)          0           flatten_50[0][0]                 
                                                                 flatten_51[0][0]                 
                                                                 flatten_52[0][0]                 
                                                                 flatten_53[0][0]                 
__________________________________________________________________________________________________
posDense (Dense)                (None, 36)           18792       concatenate_20[0][0]             
__________________________________________________________________________________________________
dense_4 (Dense)                 (None, 152)          5624        posDense[0][0]                   
==================================================================================================
Total params: 465,267
Trainable params: 465,267
Non-trainable params: 0
__________________________________________________________________________________________________
None
==================================================================================================

__________________________________________________________________________________________________
	Optimizer : Adagrad,  learning rate = 0.015
__________________________________________________________________________________________________
__________________________________________________________________________________________________
Layer (type)                    Output Shape         Param #     Connected to                     
==================================================================================================
bxTokens (InputLayer)           (None, 7)            0                                            
__________________________________________________________________________________________________
bxAffixes (InputLayer)          (None, 12)           0                                            
__________________________________________________________________________________________________
bxCapitalization (InputLayer)   (None, 3)            0                                            
__________________________________________________________________________________________________
bxSymbols (InputLayer)          (None, 1)            0                                            
__________________________________________________________________________________________________
b0Tokens (InputLayer)           (None, 7)            0                                            
__________________________________________________________________________________________________
b0Affixes (InputLayer)          (None, 12)           0                                            
__________________________________________________________________________________________________
b0Capitalization (InputLayer)   (None, 3)            0                                            
__________________________________________________________________________________________________
b0Symbols (InputLayer)          (None, 1)            0                                            
__________________________________________________________________________________________________
s0Tokens (InputLayer)           (None, 7)            0                                            
__________________________________________________________________________________________________
s0Affixes (InputLayer)          (None, 12)           0                                            
__________________________________________________________________________________________________
s0Capitalization (InputLayer)   (None, 3)            0                                            
__________________________________________________________________________________________________
s0Symbols (InputLayer)          (None, 1)            0                                            
__________________________________________________________________________________________________
s1Tokens (InputLayer)           (None, 7)            0                                            
__________________________________________________________________________________________________
s1Affixes (InputLayer)          (None, 12)           0                                            
__________________________________________________________________________________________________
s1Capitalization (InputLayer)   (None, 3)            0                                            
__________________________________________________________________________________________________
s1Symbols (InputLayer)          (None, 1)            0                                            
__________________________________________________________________________________________________
tokenEmb (Embedding)            (None, 7, 57)        430065      bxTokens[0][0]                   
                                                                 b0Tokens[0][0]                   
                                                                 s0Tokens[0][0]                   
                                                                 s1Tokens[0][0]                   
__________________________________________________________________________________________________
affixeseEmb (Embedding)         (None, 12, 9)        10674       bxAffixes[0][0]                  
                                                                 b0Affixes[0][0]                  
                                                                 s0Affixes[0][0]                  
                                                                 s1Affixes[0][0]                  
__________________________________________________________________________________________________
capitalizationEmb (Embedding)   (None, 3, 3)         12          bxCapitalization[0][0]           
                                                                 b0Capitalization[0][0]           
                                                                 s0Capitalization[0][0]           
                                                                 s1Capitalization[0][0]           
__________________________________________________________________________________________________
symbolsEmb (Embedding)          (None, 1, 5)         100         bxSymbols[0][0]                  
                                                                 b0Symbols[0][0]                  
                                                                 s0Symbols[0][0]                  
                                                                 s1Symbols[0][0]                  
__________________________________________________________________________________________________
flatten_54 (Flatten)            (None, 399)          0           tokenEmb[1][0]                   
__________________________________________________________________________________________________
flatten_55 (Flatten)            (None, 108)          0           affixeseEmb[1][0]                
__________________________________________________________________________________________________
flatten_56 (Flatten)            (None, 9)            0           capitalizationEmb[1][0]          
__________________________________________________________________________________________________
flatten_57 (Flatten)            (None, 5)            0           symbolsEmb[1][0]                 
__________________________________________________________________________________________________
flatten_58 (Flatten)            (None, 399)          0           tokenEmb[2][0]                   
__________________________________________________________________________________________________
flatten_59 (Flatten)            (None, 108)          0           affixeseEmb[2][0]                
__________________________________________________________________________________________________
flatten_60 (Flatten)            (None, 9)            0           capitalizationEmb[2][0]          
__________________________________________________________________________________________________
flatten_61 (Flatten)            (None, 5)            0           symbolsEmb[2][0]                 
__________________________________________________________________________________________________
flatten_62 (Flatten)            (None, 399)          0           tokenEmb[3][0]                   
__________________________________________________________________________________________________
flatten_63 (Flatten)            (None, 108)          0           affixeseEmb[3][0]                
__________________________________________________________________________________________________
flatten_64 (Flatten)            (None, 9)            0           capitalizationEmb[3][0]          
__________________________________________________________________________________________________
flatten_65 (Flatten)            (None, 5)            0           symbolsEmb[3][0]                 
__________________________________________________________________________________________________
flatten_66 (Flatten)            (None, 399)          0           tokenEmb[4][0]                   
__________________________________________________________________________________________________
flatten_67 (Flatten)            (None, 108)          0           affixeseEmb[4][0]                
__________________________________________________________________________________________________
flatten_68 (Flatten)            (None, 9)            0           capitalizationEmb[4][0]          
__________________________________________________________________________________________________
flatten_69 (Flatten)            (None, 5)            0           symbolsEmb[4][0]                 
__________________________________________________________________________________________________
concatenate_21 (Concatenate)    (None, 521)          0           flatten_54[0][0]                 
                                                                 flatten_55[0][0]                 
                                                                 flatten_56[0][0]                 
                                                                 flatten_57[0][0]                 
__________________________________________________________________________________________________
concatenate_22 (Concatenate)    (None, 521)          0           flatten_58[0][0]                 
                                                                 flatten_59[0][0]                 
                                                                 flatten_60[0][0]                 
                                                                 flatten_61[0][0]                 
__________________________________________________________________________________________________
concatenate_23 (Concatenate)    (None, 521)          0           flatten_62[0][0]                 
                                                                 flatten_63[0][0]                 
                                                                 flatten_64[0][0]                 
                                                                 flatten_65[0][0]                 
__________________________________________________________________________________________________
concatenate_24 (Concatenate)    (None, 521)          0           flatten_66[0][0]                 
                                                                 flatten_67[0][0]                 
                                                                 flatten_68[0][0]                 
                                                                 flatten_69[0][0]                 
__________________________________________________________________________________________________
posDense (Dense)                (None, 36)           18792       concatenate_21[0][0]             
                                                                 concatenate_22[0][0]             
                                                                 concatenate_23[0][0]             
                                                                 concatenate_24[0][0]             
__________________________________________________________________________________________________
concatenate_25 (Concatenate)    (None, 144)          0           posDense[1][0]                   
                                                                 posDense[2][0]                   
                                                                 posDense[3][0]                   
                                                                 posDense[4][0]                   
__________________________________________________________________________________________________
idenDense (Dense)               (None, 73)           10585       concatenate_25[0][0]             
__________________________________________________________________________________________________
idenSoftMax (Dense)             (None, 4)            296         idenDense[0][0]                  
==================================================================================================
Total params: 470,524
Trainable params: 470,524
Non-trainable params: 0
__________________________________________________________________________________________________
None
==================================================================================================
…
	One occurrence keys in vocabulary 2182 / 11438

__________________________________________________________________________________________________
	Optimizer : Adagrad,  learning rate = 0.045
__________________________________________________________________________________________________
__________________________________________________________________________________________________
Layer (type)                    Output Shape         Param #     Connected to                     
==================================================================================================
tokens (InputLayer)             (None, 7)            0                                            
__________________________________________________________________________________________________
affixes (InputLayer)            (None, 12)           0                                            
__________________________________________________________________________________________________
symbol (InputLayer)             (None, 1)            0                                            
__________________________________________________________________________________________________
tokenEmb (Embedding)            (None, 7, 34)        388892      tokens[0][0]                     
__________________________________________________________________________________________________
affixeseEmb (Embedding)         (None, 12, 5)        5930        affixes[0][0]                    
__________________________________________________________________________________________________
symbolsEmb (Embedding)          (None, 1, 6)         120         symbol[0][0]                     
__________________________________________________________________________________________________
flatten_70 (Flatten)            (None, 238)          0           tokenEmb[0][0]                   
__________________________________________________________________________________________________
flatten_71 (Flatten)            (None, 60)           0           affixeseEmb[0][0]                
__________________________________________________________________________________________________
flatten_72 (Flatten)            (None, 6)            0           symbolsEmb[0][0]                 
__________________________________________________________________________________________________
concatenate_26 (Concatenate)    (None, 304)          0           flatten_70[0][0]                 
                                                                 flatten_71[0][0]                 
                                                                 flatten_72[0][0]                 
__________________________________________________________________________________________________
posDense (Dense)                (None, 189)          57645       concatenate_26[0][0]             
__________________________________________________________________________________________________
dense_5 (Dense)                 (None, 152)          28880       posDense[0][0]                   
==================================================================================================
Total params: 481,467
Trainable params: 481,467
Non-trainable params: 0
__________________________________________________________________________________________________
None
==================================================================================================

__________________________________________________________________________________________________
	Optimizer : Adagrad,  learning rate = 0.045
__________________________________________________________________________________________________
__________________________________________________________________________________________________
Layer (type)                    Output Shape         Param #     Connected to                     
==================================================================================================
b1Tokens (InputLayer)           (None, 7)            0                                            
__________________________________________________________________________________________________
b1Affixes (InputLayer)          (None, 12)           0                                            
__________________________________________________________________________________________________
b1Symbols (InputLayer)          (None, 1)            0                                            
__________________________________________________________________________________________________
b0Tokens (InputLayer)           (None, 7)            0                                            
__________________________________________________________________________________________________
b0Affixes (InputLayer)          (None, 12)           0                                            
__________________________________________________________________________________________________
b0Symbols (InputLayer)          (None, 1)            0                                            
__________________________________________________________________________________________________
s0Tokens (InputLayer)           (None, 7)            0                                            
__________________________________________________________________________________________________
s0Affixes (InputLayer)          (None, 12)           0                                            
__________________________________________________________________________________________________
s0Symbols (InputLayer)          (None, 1)            0                                            
__________________________________________________________________________________________________
s1Tokens (InputLayer)           (None, 7)            0                                            
__________________________________________________________________________________________________
s1Affixes (InputLayer)          (None, 12)           0                                            
__________________________________________________________________________________________________
s1Symbols (InputLayer)          (None, 1)            0                                            
__________________________________________________________________________________________________
tokenEmb (Embedding)            (None, 7, 34)        388892      b1Tokens[0][0]                   
                                                                 b0Tokens[0][0]                   
                                                                 s0Tokens[0][0]                   
                                                                 s1Tokens[0][0]                   
__________________________________________________________________________________________________
affixeseEmb (Embedding)         (None, 12, 5)        5930        b1Affixes[0][0]                  
                                                                 b0Affixes[0][0]                  
                                                                 s0Affixes[0][0]                  
                                                                 s1Affixes[0][0]                  
__________________________________________________________________________________________________
symbolsEmb (Embedding)          (None, 1, 6)         120         b1Symbols[0][0]                  
                                                                 b0Symbols[0][0]                  
                                                                 s0Symbols[0][0]                  
                                                                 s1Symbols[0][0]                  
__________________________________________________________________________________________________
flatten_73 (Flatten)            (None, 238)          0           tokenEmb[1][0]                   
__________________________________________________________________________________________________
flatten_74 (Flatten)            (None, 60)           0           affixeseEmb[1][0]                
__________________________________________________________________________________________________
flatten_75 (Flatten)            (None, 6)            0           symbolsEmb[1][0]                 
__________________________________________________________________________________________________
flatten_76 (Flatten)            (None, 238)          0           tokenEmb[2][0]                   
__________________________________________________________________________________________________
flatten_77 (Flatten)            (None, 60)           0           affixeseEmb[2][0]                
__________________________________________________________________________________________________
flatten_78 (Flatten)            (None, 6)            0           symbolsEmb[2][0]                 
__________________________________________________________________________________________________
flatten_79 (Flatten)            (None, 238)          0           tokenEmb[3][0]                   
__________________________________________________________________________________________________
flatten_80 (Flatten)            (None, 60)           0           affixeseEmb[3][0]                
__________________________________________________________________________________________________
flatten_81 (Flatten)            (None, 6)            0           symbolsEmb[3][0]                 
__________________________________________________________________________________________________
flatten_82 (Flatten)            (None, 238)          0           tokenEmb[4][0]                   
__________________________________________________________________________________________________
flatten_83 (Flatten)            (None, 60)           0           affixeseEmb[4][0]                
__________________________________________________________________________________________________
flatten_84 (Flatten)            (None, 6)            0           symbolsEmb[4][0]                 
__________________________________________________________________________________________________
concatenate_27 (Concatenate)    (None, 304)          0           flatten_73[0][0]                 
                                                                 flatten_74[0][0]                 
                                                                 flatten_75[0][0]                 
__________________________________________________________________________________________________
concatenate_28 (Concatenate)    (None, 304)          0           flatten_76[0][0]                 
                                                                 flatten_77[0][0]                 
                                                                 flatten_78[0][0]                 
__________________________________________________________________________________________________
concatenate_29 (Concatenate)    (None, 304)          0           flatten_79[0][0]                 
                                                                 flatten_80[0][0]                 
                                                                 flatten_81[0][0]                 
__________________________________________________________________________________________________
concatenate_30 (Concatenate)    (None, 304)          0           flatten_82[0][0]                 
                                                                 flatten_83[0][0]                 
                                                                 flatten_84[0][0]                 
__________________________________________________________________________________________________
posDense (Dense)                (None, 189)          57645       concatenate_27[0][0]             
                                                                 concatenate_28[0][0]             
                                                                 concatenate_29[0][0]             
                                                                 concatenate_30[0][0]             
__________________________________________________________________________________________________
concatenate_31 (Concatenate)    (None, 756)          0           posDense[1][0]                   
                                                                 posDense[2][0]                   
                                                                 posDense[3][0]                   
                                                                 posDense[4][0]                   
__________________________________________________________________________________________________
idenDense (Dense)               (None, 157)          118849      concatenate_31[0][0]             
__________________________________________________________________________________________________
idenSoftMax (Dense)             (None, 4)            632         idenDense[0][0]                  
==================================================================================================
Total params: 572,068
Trainable params: 572,068
Non-trainable params: 0
__________________________________________________________________________________________________
None
==================================================================================================
…
	One occurrence keys in vocabulary 2182 / 11438

__________________________________________________________________________________________________
	Optimizer : Adagrad,  learning rate = 0.106
__________________________________________________________________________________________________
__________________________________________________________________________________________________
Layer (type)                    Output Shape         Param #     Connected to                     
==================================================================================================
tokens (InputLayer)             (None, 7)            0                                            
__________________________________________________________________________________________________
affixes (InputLayer)            (None, 12)           0                                            
__________________________________________________________________________________________________
symbol (InputLayer)             (None, 1)            0                                            
__________________________________________________________________________________________________
tokenEmb (Embedding)            (None, 7, 41)        468958      tokens[0][0]                     
__________________________________________________________________________________________________
affixeseEmb (Embedding)         (None, 12, 17)       20162       affixes[0][0]                    
__________________________________________________________________________________________________
symbolsEmb (Embedding)          (None, 1, 11)        220         symbol[0][0]                     
__________________________________________________________________________________________________
flatten_85 (Flatten)            (None, 287)          0           tokenEmb[0][0]                   
__________________________________________________________________________________________________
flatten_86 (Flatten)            (None, 204)          0           affixeseEmb[0][0]                
__________________________________________________________________________________________________
flatten_87 (Flatten)            (None, 11)           0           symbolsEmb[0][0]                 
__________________________________________________________________________________________________
concatenate_32 (Concatenate)    (None, 502)          0           flatten_85[0][0]                 
                                                                 flatten_86[0][0]                 
                                                                 flatten_87[0][0]                 
__________________________________________________________________________________________________
posDense (Dense)                (None, 118)          59354       concatenate_32[0][0]             
__________________________________________________________________________________________________
dense_6 (Dense)                 (None, 152)          18088       posDense[0][0]                   
==================================================================================================
Total params: 566,782
Trainable params: 566,782
Non-trainable params: 0
__________________________________________________________________________________________________
None
==================================================================================================

__________________________________________________________________________________________________
	Optimizer : Adagrad,  learning rate = 0.106
__________________________________________________________________________________________________
__________________________________________________________________________________________________
Layer (type)                    Output Shape         Param #     Connected to                     
==================================================================================================
bxTokens (InputLayer)           (None, 7)            0                                            
__________________________________________________________________________________________________
bxAffixes (InputLayer)          (None, 12)           0                                            
__________________________________________________________________________________________________
bxSymbols (InputLayer)          (None, 1)            0                                            
__________________________________________________________________________________________________
b1Tokens (InputLayer)           (None, 7)            0                                            
__________________________________________________________________________________________________
b1Affixes (InputLayer)          (None, 12)           0                                            
__________________________________________________________________________________________________
b1Symbols (InputLayer)          (None, 1)            0                                            
__________________________________________________________________________________________________
b0Tokens (InputLayer)           (None, 7)            0                                            
__________________________________________________________________________________________________
b0Affixes (InputLayer)          (None, 12)           0                                            
__________________________________________________________________________________________________
b0Symbols (InputLayer)          (None, 1)            0                                            
__________________________________________________________________________________________________
s0Tokens (InputLayer)           (None, 7)            0                                            
__________________________________________________________________________________________________
s0Affixes (InputLayer)          (None, 12)           0                                            
__________________________________________________________________________________________________
s0Symbols (InputLayer)          (None, 1)            0                                            
__________________________________________________________________________________________________
s1Tokens (InputLayer)           (None, 7)            0                                            
__________________________________________________________________________________________________
s1Affixes (InputLayer)          (None, 12)           0                                            
__________________________________________________________________________________________________
s1Symbols (InputLayer)          (None, 1)            0                                            
__________________________________________________________________________________________________
tokenEmb (Embedding)            (None, 7, 41)        468958      bxTokens[0][0]                   
                                                                 b1Tokens[0][0]                   
                                                                 b0Tokens[0][0]                   
                                                                 s0Tokens[0][0]                   
                                                                 s1Tokens[0][0]                   
__________________________________________________________________________________________________
affixeseEmb (Embedding)         (None, 12, 17)       20162       bxAffixes[0][0]                  
                                                                 b1Affixes[0][0]                  
                                                                 b0Affixes[0][0]                  
                                                                 s0Affixes[0][0]                  
                                                                 s1Affixes[0][0]                  
__________________________________________________________________________________________________
symbolsEmb (Embedding)          (None, 1, 11)        220         bxSymbols[0][0]                  
                                                                 b1Symbols[0][0]                  
                                                                 b0Symbols[0][0]                  
                                                                 s0Symbols[0][0]                  
                                                                 s1Symbols[0][0]                  
__________________________________________________________________________________________________
flatten_88 (Flatten)            (None, 287)          0           tokenEmb[1][0]                   
__________________________________________________________________________________________________
flatten_89 (Flatten)            (None, 204)          0           affixeseEmb[1][0]                
__________________________________________________________________________________________________
flatten_90 (Flatten)            (None, 11)           0           symbolsEmb[1][0]                 
__________________________________________________________________________________________________
flatten_91 (Flatten)            (None, 287)          0           tokenEmb[2][0]                   
__________________________________________________________________________________________________
flatten_92 (Flatten)            (None, 204)          0           affixeseEmb[2][0]                
__________________________________________________________________________________________________
flatten_93 (Flatten)            (None, 11)           0           symbolsEmb[2][0]                 
__________________________________________________________________________________________________
flatten_94 (Flatten)            (None, 287)          0           tokenEmb[3][0]                   
__________________________________________________________________________________________________
flatten_95 (Flatten)            (None, 204)          0           affixeseEmb[3][0]                
__________________________________________________________________________________________________
flatten_96 (Flatten)            (None, 11)           0           symbolsEmb[3][0]                 
__________________________________________________________________________________________________
flatten_97 (Flatten)            (None, 287)          0           tokenEmb[4][0]                   
__________________________________________________________________________________________________
flatten_98 (Flatten)            (None, 204)          0           affixeseEmb[4][0]                
__________________________________________________________________________________________________
flatten_99 (Flatten)            (None, 11)           0           symbolsEmb[4][0]                 
__________________________________________________________________________________________________
flatten_100 (Flatten)           (None, 287)          0           tokenEmb[5][0]                   
__________________________________________________________________________________________________
flatten_101 (Flatten)           (None, 204)          0           affixeseEmb[5][0]                
__________________________________________________________________________________________________
flatten_102 (Flatten)           (None, 11)           0           symbolsEmb[5][0]                 
__________________________________________________________________________________________________
concatenate_33 (Concatenate)    (None, 502)          0           flatten_88[0][0]                 
                                                                 flatten_89[0][0]                 
                                                                 flatten_90[0][0]                 
__________________________________________________________________________________________________
concatenate_34 (Concatenate)    (None, 502)          0           flatten_91[0][0]                 
                                                                 flatten_92[0][0]                 
                                                                 flatten_93[0][0]                 
__________________________________________________________________________________________________
concatenate_35 (Concatenate)    (None, 502)          0           flatten_94[0][0]                 
                                                                 flatten_95[0][0]                 
                                                                 flatten_96[0][0]                 
__________________________________________________________________________________________________
concatenate_36 (Concatenate)    (None, 502)          0           flatten_97[0][0]                 
                                                                 flatten_98[0][0]                 
                                                                 flatten_99[0][0]                 
__________________________________________________________________________________________________
concatenate_37 (Concatenate)    (None, 502)          0           flatten_100[0][0]                
                                                                 flatten_101[0][0]                
                                                                 flatten_102[0][0]                
__________________________________________________________________________________________________
posDense (Dense)                (None, 118)          59354       concatenate_33[0][0]             
                                                                 concatenate_34[0][0]             
                                                                 concatenate_35[0][0]             
                                                                 concatenate_36[0][0]             
                                                                 concatenate_37[0][0]             
__________________________________________________________________________________________________
concatenate_38 (Concatenate)    (None, 590)          0           posDense[1][0]                   
                                                                 posDense[2][0]                   
                                                                 posDense[3][0]                   
                                                                 posDense[4][0]                   
                                                                 posDense[5][0]                   
__________________________________________________________________________________________________
idenDense (Dense)               (None, 59)           34869       concatenate_38[0][0]             
__________________________________________________________________________________________________
idenSoftMax (Dense)             (None, 4)            240         idenDense[0][0]                  
==================================================================================================
Total params: 583,803
Trainable params: 583,803
Non-trainable params: 0
__________________________________________________________________________________________________
None
==================================================================================================
…
	One occurrence keys in vocabulary 2182 / 11438

__________________________________________________________________________________________________
	Optimizer : Adagrad,  learning rate = 0.03
__________________________________________________________________________________________________
__________________________________________________________________________________________________
Layer (type)                    Output Shape         Param #     Connected to                     
==================================================================================================
tokens (InputLayer)             (None, 7)            0                                            
__________________________________________________________________________________________________
affixes (InputLayer)            (None, 12)           0                                            
__________________________________________________________________________________________________
symbol (InputLayer)             (None, 1)            0                                            
__________________________________________________________________________________________________
tokenEmb (Embedding)            (None, 7, 165)       1887270     tokens[0][0]                     
__________________________________________________________________________________________________
affixeseEmb (Embedding)         (None, 12, 6)        7116        affixes[0][0]                    
__________________________________________________________________________________________________
symbolsEmb (Embedding)          (None, 1, 12)        240         symbol[0][0]                     
__________________________________________________________________________________________________
flatten_103 (Flatten)           (None, 1155)         0           tokenEmb[0][0]                   
__________________________________________________________________________________________________
flatten_104 (Flatten)           (None, 72)           0           affixeseEmb[0][0]                
__________________________________________________________________________________________________
flatten_105 (Flatten)           (None, 12)           0           symbolsEmb[0][0]                 
__________________________________________________________________________________________________
concatenate_39 (Concatenate)    (None, 1239)         0           flatten_103[0][0]                
                                                                 flatten_104[0][0]                
                                                                 flatten_105[0][0]                
__________________________________________________________________________________________________
posDense (Dense)                (None, 85)           105400      concatenate_39[0][0]             
__________________________________________________________________________________________________
dense_7 (Dense)                 (None, 152)          13072       posDense[0][0]                   
==================================================================================================
Total params: 2,013,098
Trainable params: 2,013,098
Non-trainable params: 0
__________________________________________________________________________________________________
None
==================================================================================================

__________________________________________________________________________________________________
	Optimizer : Adagrad,  learning rate = 0.03
__________________________________________________________________________________________________
__________________________________________________________________________________________________
Layer (type)                    Output Shape         Param #     Connected to                     
==================================================================================================
bxTokens (InputLayer)           (None, 7)            0                                            
__________________________________________________________________________________________________
bxAffixes (InputLayer)          (None, 12)           0                                            
__________________________________________________________________________________________________
bxSymbols (InputLayer)          (None, 1)            0                                            
__________________________________________________________________________________________________
b0Tokens (InputLayer)           (None, 7)            0                                            
__________________________________________________________________________________________________
b0Affixes (InputLayer)          (None, 12)           0                                            
__________________________________________________________________________________________________
b0Symbols (InputLayer)          (None, 1)            0                                            
__________________________________________________________________________________________________
s0Tokens (InputLayer)           (None, 7)            0                                            
__________________________________________________________________________________________________
s0Affixes (InputLayer)          (None, 12)           0                                            
__________________________________________________________________________________________________
s0Symbols (InputLayer)          (None, 1)            0                                            
__________________________________________________________________________________________________
s1Tokens (InputLayer)           (None, 7)            0                                            
__________________________________________________________________________________________________
s1Affixes (InputLayer)          (None, 12)           0                                            
__________________________________________________________________________________________________
s1Symbols (InputLayer)          (None, 1)            0                                            
__________________________________________________________________________________________________
tokenEmb (Embedding)            (None, 7, 165)       1887270     bxTokens[0][0]                   
                                                                 b0Tokens[0][0]                   
                                                                 s0Tokens[0][0]                   
                                                                 s1Tokens[0][0]                   
__________________________________________________________________________________________________
affixeseEmb (Embedding)         (None, 12, 6)        7116        bxAffixes[0][0]                  
                                                                 b0Affixes[0][0]                  
                                                                 s0Affixes[0][0]                  
                                                                 s1Affixes[0][0]                  
__________________________________________________________________________________________________
symbolsEmb (Embedding)          (None, 1, 12)        240         bxSymbols[0][0]                  
                                                                 b0Symbols[0][0]                  
                                                                 s0Symbols[0][0]                  
                                                                 s1Symbols[0][0]                  
__________________________________________________________________________________________________
flatten_106 (Flatten)           (None, 1155)         0           tokenEmb[1][0]                   
__________________________________________________________________________________________________
flatten_107 (Flatten)           (None, 72)           0           affixeseEmb[1][0]                
__________________________________________________________________________________________________
flatten_108 (Flatten)           (None, 12)           0           symbolsEmb[1][0]                 
__________________________________________________________________________________________________
flatten_109 (Flatten)           (None, 1155)         0           tokenEmb[2][0]                   
__________________________________________________________________________________________________
flatten_110 (Flatten)           (None, 72)           0           affixeseEmb[2][0]                
__________________________________________________________________________________________________
flatten_111 (Flatten)           (None, 12)           0           symbolsEmb[2][0]                 
__________________________________________________________________________________________________
flatten_112 (Flatten)           (None, 1155)         0           tokenEmb[3][0]                   
__________________________________________________________________________________________________
flatten_113 (Flatten)           (None, 72)           0           affixeseEmb[3][0]                
__________________________________________________________________________________________________
flatten_114 (Flatten)           (None, 12)           0           symbolsEmb[3][0]                 
__________________________________________________________________________________________________
flatten_115 (Flatten)           (None, 1155)         0           tokenEmb[4][0]                   
__________________________________________________________________________________________________
flatten_116 (Flatten)           (None, 72)           0           affixeseEmb[4][0]                
__________________________________________________________________________________________________
flatten_117 (Flatten)           (None, 12)           0           symbolsEmb[4][0]                 
__________________________________________________________________________________________________
concatenate_40 (Concatenate)    (None, 1239)         0           flatten_106[0][0]                
                                                                 flatten_107[0][0]                
                                                                 flatten_108[0][0]                
__________________________________________________________________________________________________
concatenate_41 (Concatenate)    (None, 1239)         0           flatten_109[0][0]                
                                                                 flatten_110[0][0]                
                                                                 flatten_111[0][0]                
__________________________________________________________________________________________________
concatenate_42 (Concatenate)    (None, 1239)         0           flatten_112[0][0]                
                                                                 flatten_113[0][0]                
                                                                 flatten_114[0][0]                
__________________________________________________________________________________________________
concatenate_43 (Concatenate)    (None, 1239)         0           flatten_115[0][0]                
                                                                 flatten_116[0][0]                
                                                                 flatten_117[0][0]                
__________________________________________________________________________________________________
posDense (Dense)                (None, 85)           105400      concatenate_40[0][0]             
                                                                 concatenate_41[0][0]             
                                                                 concatenate_42[0][0]             
                                                                 concatenate_43[0][0]             
__________________________________________________________________________________________________
concatenate_44 (Concatenate)    (None, 340)          0           posDense[1][0]                   
                                                                 posDense[2][0]                   
                                                                 posDense[3][0]                   
                                                                 posDense[4][0]                   
__________________________________________________________________________________________________
idenDense (Dense)               (None, 52)           17732       concatenate_44[0][0]             
__________________________________________________________________________________________________
idenSoftMax (Dense)             (None, 4)            212         idenDense[0][0]                  
==================================================================================================
Total params: 2,017,970
Trainable params: 2,017,970
Non-trainable params: 0
__________________________________________________________________________________________________
None
==================================================================================================
…
	One occurrence keys in vocabulary 1622 / 7545

__________________________________________________________________________________________________
	Optimizer : Adagrad,  learning rate = 0.014
__________________________________________________________________________________________________
__________________________________________________________________________________________________
Layer (type)                    Output Shape         Param #     Connected to                     
==================================================================================================
tokens (InputLayer)             (None, 7)            0                                            
__________________________________________________________________________________________________
affixes (InputLayer)            (None, 12)           0                                            
__________________________________________________________________________________________________
capitalization (InputLayer)     (None, 3)            0                                            
__________________________________________________________________________________________________
tokenEmb (Embedding)            (None, 7, 91)        686595      tokens[0][0]                     
__________________________________________________________________________________________________
affixeseEmb (Embedding)         (None, 12, 8)        9488        affixes[0][0]                    
__________________________________________________________________________________________________
capitalizationEmb (Embedding)   (None, 3, 6)         24          capitalization[0][0]             
__________________________________________________________________________________________________
flatten_118 (Flatten)           (None, 637)          0           tokenEmb[0][0]                   
__________________________________________________________________________________________________
flatten_119 (Flatten)           (None, 96)           0           affixeseEmb[0][0]                
__________________________________________________________________________________________________
flatten_120 (Flatten)           (None, 18)           0           capitalizationEmb[0][0]          
__________________________________________________________________________________________________
concatenate_45 (Concatenate)    (None, 751)          0           flatten_118[0][0]                
                                                                 flatten_119[0][0]                
                                                                 flatten_120[0][0]                
__________________________________________________________________________________________________
posDense (Dense)                (None, 79)           59408       concatenate_45[0][0]             
__________________________________________________________________________________________________
dense_8 (Dense)                 (None, 152)          12160       posDense[0][0]                   
==================================================================================================
Total params: 767,675
Trainable params: 767,675
Non-trainable params: 0
__________________________________________________________________________________________________
None
==================================================================================================

__________________________________________________________________________________________________
	Optimizer : Adagrad,  learning rate = 0.014
__________________________________________________________________________________________________
__________________________________________________________________________________________________
Layer (type)                    Output Shape         Param #     Connected to                     
==================================================================================================
bxTokens (InputLayer)           (None, 7)            0                                            
__________________________________________________________________________________________________
bxAffixes (InputLayer)          (None, 12)           0                                            
__________________________________________________________________________________________________
bxCapitalization (InputLayer)   (None, 3)            0                                            
__________________________________________________________________________________________________
b1Tokens (InputLayer)           (None, 7)            0                                            
__________________________________________________________________________________________________
b1Affixes (InputLayer)          (None, 12)           0                                            
__________________________________________________________________________________________________
b1Capitalization (InputLayer)   (None, 3)            0                                            
__________________________________________________________________________________________________
b0Tokens (InputLayer)           (None, 7)            0                                            
__________________________________________________________________________________________________
b0Affixes (InputLayer)          (None, 12)           0                                            
__________________________________________________________________________________________________
b0Capitalization (InputLayer)   (None, 3)            0                                            
__________________________________________________________________________________________________
s0Tokens (InputLayer)           (None, 7)            0                                            
__________________________________________________________________________________________________
s0Affixes (InputLayer)          (None, 12)           0                                            
__________________________________________________________________________________________________
s0Capitalization (InputLayer)   (None, 3)            0                                            
__________________________________________________________________________________________________
s1Tokens (InputLayer)           (None, 7)            0                                            
__________________________________________________________________________________________________
s1Affixes (InputLayer)          (None, 12)           0                                            
__________________________________________________________________________________________________
s1Capitalization (InputLayer)   (None, 3)            0                                            
__________________________________________________________________________________________________
tokenEmb (Embedding)            (None, 7, 91)        686595      bxTokens[0][0]                   
                                                                 b1Tokens[0][0]                   
                                                                 b0Tokens[0][0]                   
                                                                 s0Tokens[0][0]                   
                                                                 s1Tokens[0][0]                   
__________________________________________________________________________________________________
affixeseEmb (Embedding)         (None, 12, 8)        9488        bxAffixes[0][0]                  
                                                                 b1Affixes[0][0]                  
                                                                 b0Affixes[0][0]                  
                                                                 s0Affixes[0][0]                  
                                                                 s1Affixes[0][0]                  
__________________________________________________________________________________________________
capitalizationEmb (Embedding)   (None, 3, 6)         24          bxCapitalization[0][0]           
                                                                 b1Capitalization[0][0]           
                                                                 b0Capitalization[0][0]           
                                                                 s0Capitalization[0][0]           
                                                                 s1Capitalization[0][0]           
__________________________________________________________________________________________________
flatten_121 (Flatten)           (None, 637)          0           tokenEmb[1][0]                   
__________________________________________________________________________________________________
flatten_122 (Flatten)           (None, 96)           0           affixeseEmb[1][0]                
__________________________________________________________________________________________________
flatten_123 (Flatten)           (None, 18)           0           capitalizationEmb[1][0]          
__________________________________________________________________________________________________
flatten_124 (Flatten)           (None, 637)          0           tokenEmb[2][0]                   
__________________________________________________________________________________________________
flatten_125 (Flatten)           (None, 96)           0           affixeseEmb[2][0]                
__________________________________________________________________________________________________
flatten_126 (Flatten)           (None, 18)           0           capitalizationEmb[2][0]          
__________________________________________________________________________________________________
flatten_127 (Flatten)           (None, 637)          0           tokenEmb[3][0]                   
__________________________________________________________________________________________________
flatten_128 (Flatten)           (None, 96)           0           affixeseEmb[3][0]                
__________________________________________________________________________________________________
flatten_129 (Flatten)           (None, 18)           0           capitalizationEmb[3][0]          
__________________________________________________________________________________________________
flatten_130 (Flatten)           (None, 637)          0           tokenEmb[4][0]                   
__________________________________________________________________________________________________
flatten_131 (Flatten)           (None, 96)           0           affixeseEmb[4][0]                
__________________________________________________________________________________________________
flatten_132 (Flatten)           (None, 18)           0           capitalizationEmb[4][0]          
__________________________________________________________________________________________________
flatten_133 (Flatten)           (None, 637)          0           tokenEmb[5][0]                   
__________________________________________________________________________________________________
flatten_134 (Flatten)           (None, 96)           0           affixeseEmb[5][0]                
__________________________________________________________________________________________________
flatten_135 (Flatten)           (None, 18)           0           capitalizationEmb[5][0]          
__________________________________________________________________________________________________
concatenate_46 (Concatenate)    (None, 751)          0           flatten_121[0][0]                
                                                                 flatten_122[0][0]                
                                                                 flatten_123[0][0]                
__________________________________________________________________________________________________
concatenate_47 (Concatenate)    (None, 751)          0           flatten_124[0][0]                
                                                                 flatten_125[0][0]                
                                                                 flatten_126[0][0]                
__________________________________________________________________________________________________
concatenate_48 (Concatenate)    (None, 751)          0           flatten_127[0][0]                
                                                                 flatten_128[0][0]                
                                                                 flatten_129[0][0]                
__________________________________________________________________________________________________
concatenate_49 (Concatenate)    (None, 751)          0           flatten_130[0][0]                
                                                                 flatten_131[0][0]                
                                                                 flatten_132[0][0]                
__________________________________________________________________________________________________
concatenate_50 (Concatenate)    (None, 751)          0           flatten_133[0][0]                
                                                                 flatten_134[0][0]                
                                                                 flatten_135[0][0]                
__________________________________________________________________________________________________
posDense (Dense)                (None, 79)           59408       concatenate_46[0][0]             
                                                                 concatenate_47[0][0]             
                                                                 concatenate_48[0][0]             
                                                                 concatenate_49[0][0]             
                                                                 concatenate_50[0][0]             
__________________________________________________________________________________________________
concatenate_51 (Concatenate)    (None, 395)          0           posDense[1][0]                   
                                                                 posDense[2][0]                   
                                                                 posDense[3][0]                   
                                                                 posDense[4][0]                   
                                                                 posDense[5][0]                   
__________________________________________________________________________________________________
idenDense (Dense)               (None, 177)          70092       concatenate_51[0][0]             
__________________________________________________________________________________________________
idenSoftMax (Dense)             (None, 4)            712         idenDense[0][0]                  
==================================================================================================
Total params: 826,319
Trainable params: 826,319
Non-trainable params: 0
__________________________________________________________________________________________________
None
==================================================================================================
…
	One occurrence keys in vocabulary 1622 / 7545

__________________________________________________________________________________________________
	Optimizer : Adagrad,  learning rate = 0.027
__________________________________________________________________________________________________
__________________________________________________________________________________________________
Layer (type)                    Output Shape         Param #     Connected to                     
==================================================================================================
tokens (InputLayer)             (None, 7)            0                                            
__________________________________________________________________________________________________
affixes (InputLayer)            (None, 12)           0                                            
__________________________________________________________________________________________________
tokenEmb (Embedding)            (None, 7, 126)       950670      tokens[0][0]                     
__________________________________________________________________________________________________
affixeseEmb (Embedding)         (None, 12, 10)       11860       affixes[0][0]                    
__________________________________________________________________________________________________
flatten_136 (Flatten)           (None, 882)          0           tokenEmb[0][0]                   
__________________________________________________________________________________________________
flatten_137 (Flatten)           (None, 120)          0           affixeseEmb[0][0]                
__________________________________________________________________________________________________
concatenate_52 (Concatenate)    (None, 1002)         0           flatten_136[0][0]                
                                                                 flatten_137[0][0]                
__________________________________________________________________________________________________
posDense (Dense)                (None, 51)           51153       concatenate_52[0][0]             
__________________________________________________________________________________________________
dense_9 (Dense)                 (None, 152)          7904        posDense[0][0]                   
==================================================================================================
Total params: 1,021,587
Trainable params: 1,021,587
Non-trainable params: 0
__________________________________________________________________________________________________
None
==================================================================================================

__________________________________________________________________________________________________
	Optimizer : Adagrad,  learning rate = 0.027
__________________________________________________________________________________________________
__________________________________________________________________________________________________
Layer (type)                    Output Shape         Param #     Connected to                     
==================================================================================================
bxTokens (InputLayer)           (None, 7)            0                                            
__________________________________________________________________________________________________
bxAffixes (InputLayer)          (None, 12)           0                                            
__________________________________________________________________________________________________
b0Tokens (InputLayer)           (None, 7)            0                                            
__________________________________________________________________________________________________
b0Affixes (InputLayer)          (None, 12)           0                                            
__________________________________________________________________________________________________
s0Tokens (InputLayer)           (None, 7)            0                                            
__________________________________________________________________________________________________
s0Affixes (InputLayer)          (None, 12)           0                                            
__________________________________________________________________________________________________
s1Tokens (InputLayer)           (None, 7)            0                                            
__________________________________________________________________________________________________
s1Affixes (InputLayer)          (None, 12)           0                                            
__________________________________________________________________________________________________
tokenEmb (Embedding)            (None, 7, 126)       950670      bxTokens[0][0]                   
                                                                 b0Tokens[0][0]                   
                                                                 s0Tokens[0][0]                   
                                                                 s1Tokens[0][0]                   
__________________________________________________________________________________________________
affixeseEmb (Embedding)         (None, 12, 10)       11860       bxAffixes[0][0]                  
                                                                 b0Affixes[0][0]                  
                                                                 s0Affixes[0][0]                  
                                                                 s1Affixes[0][0]                  
__________________________________________________________________________________________________
flatten_138 (Flatten)           (None, 882)          0           tokenEmb[1][0]                   
__________________________________________________________________________________________________
flatten_139 (Flatten)           (None, 120)          0           affixeseEmb[1][0]                
__________________________________________________________________________________________________
flatten_140 (Flatten)           (None, 882)          0           tokenEmb[2][0]                   
__________________________________________________________________________________________________
flatten_141 (Flatten)           (None, 120)          0           affixeseEmb[2][0]                
__________________________________________________________________________________________________
flatten_142 (Flatten)           (None, 882)          0           tokenEmb[3][0]                   
__________________________________________________________________________________________________
flatten_143 (Flatten)           (None, 120)          0           affixeseEmb[3][0]                
__________________________________________________________________________________________________
flatten_144 (Flatten)           (None, 882)          0           tokenEmb[4][0]                   
__________________________________________________________________________________________________
flatten_145 (Flatten)           (None, 120)          0           affixeseEmb[4][0]                
__________________________________________________________________________________________________
concatenate_53 (Concatenate)    (None, 1002)         0           flatten_138[0][0]                
                                                                 flatten_139[0][0]                
__________________________________________________________________________________________________
concatenate_54 (Concatenate)    (None, 1002)         0           flatten_140[0][0]                
                                                                 flatten_141[0][0]                
__________________________________________________________________________________________________
concatenate_55 (Concatenate)    (None, 1002)         0           flatten_142[0][0]                
                                                                 flatten_143[0][0]                
__________________________________________________________________________________________________
concatenate_56 (Concatenate)    (None, 1002)         0           flatten_144[0][0]                
                                                                 flatten_145[0][0]                
__________________________________________________________________________________________________
posDense (Dense)                (None, 51)           51153       concatenate_53[0][0]             
                                                                 concatenate_54[0][0]             
                                                                 concatenate_55[0][0]             
                                                                 concatenate_56[0][0]             
__________________________________________________________________________________________________
concatenate_57 (Concatenate)    (None, 204)          0           posDense[1][0]                   
                                                                 posDense[2][0]                   
                                                                 posDense[3][0]                   
                                                                 posDense[4][0]                   
__________________________________________________________________________________________________
idenDense (Dense)               (None, 48)           9840        concatenate_57[0][0]             
__________________________________________________________________________________________________
idenSoftMax (Dense)             (None, 4)            196         idenDense[0][0]                  
==================================================================================================
Total params: 1,023,719
Trainable params: 1,023,719
Non-trainable params: 0
__________________________________________________________________________________________________
None
==================================================================================================
…
	One occurrence keys in vocabulary 1622 / 7545

__________________________________________________________________________________________________
	Optimizer : Adagrad,  learning rate = 0.066
__________________________________________________________________________________________________
__________________________________________________________________________________________________
Layer (type)                    Output Shape         Param #     Connected to                     
==================================================================================================
tokens (InputLayer)             (None, 7)            0                                            
__________________________________________________________________________________________________
affixes (InputLayer)            (None, 12)           0                                            
__________________________________________________________________________________________________
tokenEmb (Embedding)            (None, 7, 35)        264075      tokens[0][0]                     
__________________________________________________________________________________________________
affixeseEmb (Embedding)         (None, 12, 6)        7116        affixes[0][0]                    
__________________________________________________________________________________________________
flatten_146 (Flatten)           (None, 245)          0           tokenEmb[0][0]                   
__________________________________________________________________________________________________
flatten_147 (Flatten)           (None, 72)           0           affixeseEmb[0][0]                
__________________________________________________________________________________________________
concatenate_58 (Concatenate)    (None, 317)          0           flatten_146[0][0]                
                                                                 flatten_147[0][0]                
__________________________________________________________________________________________________
posDense (Dense)                (None, 48)           15264       concatenate_58[0][0]             
__________________________________________________________________________________________________
dense_10 (Dense)                (None, 152)          7448        posDense[0][0]                   
==================================================================================================
Total params: 293,903
Trainable params: 293,903
Non-trainable params: 0
__________________________________________________________________________________________________
None
==================================================================================================

__________________________________________________________________________________________________
	Optimizer : Adagrad,  learning rate = 0.066
__________________________________________________________________________________________________
__________________________________________________________________________________________________
Layer (type)                    Output Shape         Param #     Connected to                     
==================================================================================================
bxTokens (InputLayer)           (None, 7)            0                                            
__________________________________________________________________________________________________
bxAffixes (InputLayer)          (None, 12)           0                                            
__________________________________________________________________________________________________
b1Tokens (InputLayer)           (None, 7)            0                                            
__________________________________________________________________________________________________
b1Affixes (InputLayer)          (None, 12)           0                                            
__________________________________________________________________________________________________
b0Tokens (InputLayer)           (None, 7)            0                                            
__________________________________________________________________________________________________
b0Affixes (InputLayer)          (None, 12)           0                                            
__________________________________________________________________________________________________
s0Tokens (InputLayer)           (None, 7)            0                                            
__________________________________________________________________________________________________
s0Affixes (InputLayer)          (None, 12)           0                                            
__________________________________________________________________________________________________
s1Tokens (InputLayer)           (None, 7)            0                                            
__________________________________________________________________________________________________
s1Affixes (InputLayer)          (None, 12)           0                                            
__________________________________________________________________________________________________
tokenEmb (Embedding)            (None, 7, 35)        264075      bxTokens[0][0]                   
                                                                 b1Tokens[0][0]                   
                                                                 b0Tokens[0][0]                   
                                                                 s0Tokens[0][0]                   
                                                                 s1Tokens[0][0]                   
__________________________________________________________________________________________________
affixeseEmb (Embedding)         (None, 12, 6)        7116        bxAffixes[0][0]                  
                                                                 b1Affixes[0][0]                  
                                                                 b0Affixes[0][0]                  
                                                                 s0Affixes[0][0]                  
                                                                 s1Affixes[0][0]                  
__________________________________________________________________________________________________
flatten_148 (Flatten)           (None, 245)          0           tokenEmb[1][0]                   
__________________________________________________________________________________________________
flatten_149 (Flatten)           (None, 72)           0           affixeseEmb[1][0]                
__________________________________________________________________________________________________
flatten_150 (Flatten)           (None, 245)          0           tokenEmb[2][0]                   
__________________________________________________________________________________________________
flatten_151 (Flatten)           (None, 72)           0           affixeseEmb[2][0]                
__________________________________________________________________________________________________
flatten_152 (Flatten)           (None, 245)          0           tokenEmb[3][0]                   
__________________________________________________________________________________________________
flatten_153 (Flatten)           (None, 72)           0           affixeseEmb[3][0]                
__________________________________________________________________________________________________
flatten_154 (Flatten)           (None, 245)          0           tokenEmb[4][0]                   
__________________________________________________________________________________________________
flatten_155 (Flatten)           (None, 72)           0           affixeseEmb[4][0]                
__________________________________________________________________________________________________
flatten_156 (Flatten)           (None, 245)          0           tokenEmb[5][0]                   
__________________________________________________________________________________________________
flatten_157 (Flatten)           (None, 72)           0           affixeseEmb[5][0]                
__________________________________________________________________________________________________
concatenate_59 (Concatenate)    (None, 317)          0           flatten_148[0][0]                
                                                                 flatten_149[0][0]                
__________________________________________________________________________________________________
concatenate_60 (Concatenate)    (None, 317)          0           flatten_150[0][0]                
                                                                 flatten_151[0][0]                
__________________________________________________________________________________________________
concatenate_61 (Concatenate)    (None, 317)          0           flatten_152[0][0]                
                                                                 flatten_153[0][0]                
__________________________________________________________________________________________________
concatenate_62 (Concatenate)    (None, 317)          0           flatten_154[0][0]                
                                                                 flatten_155[0][0]                
__________________________________________________________________________________________________
concatenate_63 (Concatenate)    (None, 317)          0           flatten_156[0][0]                
                                                                 flatten_157[0][0]                
__________________________________________________________________________________________________
posDense (Dense)                (None, 48)           15264       concatenate_59[0][0]             
                                                                 concatenate_60[0][0]             
                                                                 concatenate_61[0][0]             
                                                                 concatenate_62[0][0]             
                                                                 concatenate_63[0][0]             
__________________________________________________________________________________________________
concatenate_64 (Concatenate)    (None, 240)          0           posDense[1][0]                   
                                                                 posDense[2][0]                   
                                                                 posDense[3][0]                   
                                                                 posDense[4][0]                   
                                                                 posDense[5][0]                   
__________________________________________________________________________________________________
idenDense (Dense)               (None, 48)           11568       concatenate_64[0][0]             
__________________________________________________________________________________________________
idenSoftMax (Dense)             (None, 4)            196         idenDense[0][0]                  
==================================================================================================
Total params: 298,219
Trainable params: 298,219
Non-trainable params: 0
__________________________________________________________________________________________________
None
==================================================================================================
…
	One occurrence keys in vocabulary 1622 / 7545

__________________________________________________________________________________________________
	Optimizer : Adagrad,  learning rate = 0.102
__________________________________________________________________________________________________
__________________________________________________________________________________________________
Layer (type)                    Output Shape         Param #     Connected to                     
==================================================================================================
tokens (InputLayer)             (None, 7)            0                                            
__________________________________________________________________________________________________
affixes (InputLayer)            (None, 12)           0                                            
__________________________________________________________________________________________________
capitalization (InputLayer)     (None, 3)            0                                            
__________________________________________________________________________________________________
symbol (InputLayer)             (None, 1)            0                                            
__________________________________________________________________________________________________
tokenEmb (Embedding)            (None, 7, 64)        482880      tokens[0][0]                     
__________________________________________________________________________________________________
affixeseEmb (Embedding)         (None, 12, 20)       23720       affixes[0][0]                    
__________________________________________________________________________________________________
capitalizationEmb (Embedding)   (None, 3, 3)         12          capitalization[0][0]             
__________________________________________________________________________________________________
symbolsEmb (Embedding)          (None, 1, 9)         180         symbol[0][0]                     
__________________________________________________________________________________________________
flatten_158 (Flatten)           (None, 448)          0           tokenEmb[0][0]                   
__________________________________________________________________________________________________
flatten_159 (Flatten)           (None, 240)          0           affixeseEmb[0][0]                
__________________________________________________________________________________________________
flatten_160 (Flatten)           (None, 9)            0           capitalizationEmb[0][0]          
__________________________________________________________________________________________________
flatten_161 (Flatten)           (None, 9)            0           symbolsEmb[0][0]                 
__________________________________________________________________________________________________
concatenate_65 (Concatenate)    (None, 706)          0           flatten_158[0][0]                
                                                                 flatten_159[0][0]                
                                                                 flatten_160[0][0]                
                                                                 flatten_161[0][0]                
__________________________________________________________________________________________________
posDense (Dense)                (None, 31)           21917       concatenate_65[0][0]             
__________________________________________________________________________________________________
dense_11 (Dense)                (None, 152)          4864        posDense[0][0]                   
==================================================================================================
Total params: 533,573
Trainable params: 533,573
Non-trainable params: 0
__________________________________________________________________________________________________
None
==================================================================================================

__________________________________________________________________________________________________
	Optimizer : Adagrad,  learning rate = 0.102
__________________________________________________________________________________________________
__________________________________________________________________________________________________
Layer (type)                    Output Shape         Param #     Connected to                     
==================================================================================================
b1Tokens (InputLayer)           (None, 7)            0                                            
__________________________________________________________________________________________________
b1Affixes (InputLayer)          (None, 12)           0                                            
__________________________________________________________________________________________________
b1Capitalization (InputLayer)   (None, 3)            0                                            
__________________________________________________________________________________________________
b1Symbols (InputLayer)          (None, 1)            0                                            
__________________________________________________________________________________________________
b0Tokens (InputLayer)           (None, 7)            0                                            
__________________________________________________________________________________________________
b0Affixes (InputLayer)          (None, 12)           0                                            
__________________________________________________________________________________________________
b0Capitalization (InputLayer)   (None, 3)            0                                            
__________________________________________________________________________________________________
b0Symbols (InputLayer)          (None, 1)            0                                            
__________________________________________________________________________________________________
s0Tokens (InputLayer)           (None, 7)            0                                            
__________________________________________________________________________________________________
s0Affixes (InputLayer)          (None, 12)           0                                            
__________________________________________________________________________________________________
s0Capitalization (InputLayer)   (None, 3)            0                                            
__________________________________________________________________________________________________
s0Symbols (InputLayer)          (None, 1)            0                                            
__________________________________________________________________________________________________
s1Tokens (InputLayer)           (None, 7)            0                                            
__________________________________________________________________________________________________
s1Affixes (InputLayer)          (None, 12)           0                                            
__________________________________________________________________________________________________
s1Capitalization (InputLayer)   (None, 3)            0                                            
__________________________________________________________________________________________________
s1Symbols (InputLayer)          (None, 1)            0                                            
__________________________________________________________________________________________________
tokenEmb (Embedding)            (None, 7, 64)        482880      b1Tokens[0][0]                   
                                                                 b0Tokens[0][0]                   
                                                                 s0Tokens[0][0]                   
                                                                 s1Tokens[0][0]                   
__________________________________________________________________________________________________
affixeseEmb (Embedding)         (None, 12, 20)       23720       b1Affixes[0][0]                  
                                                                 b0Affixes[0][0]                  
                                                                 s0Affixes[0][0]                  
                                                                 s1Affixes[0][0]                  
__________________________________________________________________________________________________
capitalizationEmb (Embedding)   (None, 3, 3)         12          b1Capitalization[0][0]           
                                                                 b0Capitalization[0][0]           
                                                                 s0Capitalization[0][0]           
                                                                 s1Capitalization[0][0]           
__________________________________________________________________________________________________
symbolsEmb (Embedding)          (None, 1, 9)         180         b1Symbols[0][0]                  
                                                                 b0Symbols[0][0]                  
                                                                 s0Symbols[0][0]                  
                                                                 s1Symbols[0][0]                  
__________________________________________________________________________________________________
flatten_162 (Flatten)           (None, 448)          0           tokenEmb[1][0]                   
__________________________________________________________________________________________________
flatten_163 (Flatten)           (None, 240)          0           affixeseEmb[1][0]                
…
Layer (type)                    Output Shape         Param #     Connected to                     
==================================================================================================
tokens (InputLayer)             (None, 7)            0                                            
__________________________________________________________________________________________________
affixes (InputLayer)            (None, 12)           0                                            
__________________________________________________________________________________________________
symbol (InputLayer)             (None, 1)            0                                            
__________________________________________________________________________________________________
tokenEmb (Embedding)            (None, 7, 179)       2047402     tokens[0][0]                     
__________________________________________________________________________________________________
affixeseEmb (Embedding)         (None, 12, 17)       20162       affixes[0][0]                    
__________________________________________________________________________________________________
symbolsEmb (Embedding)          (None, 1, 12)        240         symbol[0][0]                     
__________________________________________________________________________________________________
flatten_2751 (Flatten)          (None, 1253)         0           tokenEmb[0][0]                   
__________________________________________________________________________________________________
flatten_2752 (Flatten)          (None, 204)          0           affixeseEmb[0][0]                
__________________________________________________________________________________________________
flatten_2753 (Flatten)          (None, 12)           0           symbolsEmb[0][0]                 
__________________________________________________________________________________________________
concatenate_942 (Concatenate)   (None, 1469)         0           flatten_2751[0][0]               
                                                                 flatten_2752[0][0]               
                                                                 flatten_2753[0][0]               
__________________________________________________________________________________________________
posDense (Dense)                (None, 124)          182280      concatenate_942[0][0]            
__________________________________________________________________________________________________
dense_148 (Dense)               (None, 152)          19000       posDense[0][0]                   
==================================================================================================
Total params: 2,269,084
Trainable params: 2,269,084
Non-trainable params: 0
__________________________________________________________________________________________________
None
==================================================================================================

__________________________________________________________________________________________________
	Optimizer : Adagrad,  learning rate = 0.055
__________________________________________________________________________________________________
__________________________________________________________________________________________________
Layer (type)                    Output Shape         Param #     Connected to                     
==================================================================================================
bxTokens (InputLayer)           (None, 7)            0                                            
__________________________________________________________________________________________________
bxAffixes (InputLayer)          (None, 12)           0                                            
__________________________________________________________________________________________________
bxSymbols (InputLayer)          (None, 1)            0                                            
__________________________________________________________________________________________________
b1Tokens (InputLayer)           (None, 7)            0                                            
__________________________________________________________________________________________________
b1Affixes (InputLayer)          (None, 12)           0                                            
__________________________________________________________________________________________________
b1Symbols (InputLayer)          (None, 1)            0                                            
__________________________________________________________________________________________________
b0Tokens (InputLayer)           (None, 7)            0                                            
__________________________________________________________________________________________________
b0Affixes (InputLayer)          (None, 12)           0                                            
__________________________________________________________________________________________________
b0Symbols (InputLayer)          (None, 1)            0                                            
__________________________________________________________________________________________________
s0Tokens (InputLayer)           (None, 7)            0                                            
__________________________________________________________________________________________________
s0Affixes (InputLayer)          (None, 12)           0                                            
__________________________________________________________________________________________________
s0Symbols (InputLayer)          (None, 1)            0                                            
__________________________________________________________________________________________________
s1Tokens (InputLayer)           (None, 7)            0                                            
__________________________________________________________________________________________________
s1Affixes (InputLayer)          (None, 12)           0                                            
__________________________________________________________________________________________________
s1Symbols (InputLayer)          (None, 1)            0                                            
__________________________________________________________________________________________________
tokenEmb (Embedding)            (None, 7, 179)       2047402     bxTokens[0][0]                   
                                                                 b1Tokens[0][0]                   
                                                                 b0Tokens[0][0]                   
                                                                 s0Tokens[0][0]                   
                                                                 s1Tokens[0][0]                   
__________________________________________________________________________________________________
affixeseEmb (Embedding)         (None, 12, 17)       20162       bxAffixes[0][0]                  
                                                                 b1Affixes[0][0]                  
                                                                 b0Affixes[0][0]                  
                                                                 s0Affixes[0][0]                  
                                                                 s1Affixes[0][0]                  
__________________________________________________________________________________________________
symbolsEmb (Embedding)          (None, 1, 12)        240         bxSymbols[0][0]                  
                                                                 b1Symbols[0][0]                  
                                                                 b0Symbols[0][0]                  
                                                                 s0Symbols[0][0]                  
                                                                 s1Symbols[0][0]                  
__________________________________________________________________________________________________
flatten_2754 (Flatten)          (None, 1253)         0           tokenEmb[1][0]                   
__________________________________________________________________________________________________
flatten_2755 (Flatten)          (None, 204)          0           affixeseEmb[1][0]                
__________________________________________________________________________________________________
flatten_2756 (Flatten)          (None, 12)           0           symbolsEmb[1][0]                 
__________________________________________________________________________________________________
flatten_2757 (Flatten)          (None, 1253)         0           tokenEmb[2][0]                   
__________________________________________________________________________________________________
flatten_2758 (Flatten)          (None, 204)          0           affixeseEmb[2][0]                
__________________________________________________________________________________________________
flatten_2759 (Flatten)          (None, 12)           0           symbolsEmb[2][0]                 
__________________________________________________________________________________________________
flatten_2760 (Flatten)          (None, 1253)         0           tokenEmb[3][0]                   
__________________________________________________________________________________________________
flatten_2761 (Flatten)          (None, 204)          0           affixeseEmb[3][0]                
__________________________________________________________________________________________________
flatten_2762 (Flatten)          (None, 12)           0           symbolsEmb[3][0]                 
__________________________________________________________________________________________________
flatten_2763 (Flatten)          (None, 1253)         0           tokenEmb[4][0]                   
__________________________________________________________________________________________________
flatten_2764 (Flatten)          (None, 204)          0           affixeseEmb[4][0]                
__________________________________________________________________________________________________
flatten_2765 (Flatten)          (None, 12)           0           symbolsEmb[4][0]                 
__________________________________________________________________________________________________
flatten_2766 (Flatten)          (None, 1253)         0           tokenEmb[5][0]                   
__________________________________________________________________________________________________
flatten_2767 (Flatten)          (None, 204)          0           affixeseEmb[5][0]                
__________________________________________________________________________________________________
flatten_2768 (Flatten)          (None, 12)           0           symbolsEmb[5][0]                 
__________________________________________________________________________________________________
concatenate_943 (Concatenate)   (None, 1469)         0           flatten_2754[0][0]               
                                                                 flatten_2755[0][0]               
                                                                 flatten_2756[0][0]               
__________________________________________________________________________________________________
concatenate_944 (Concatenate)   (None, 1469)         0           flatten_2757[0][0]               
                                                                 flatten_2758[0][0]               
                                                                 flatten_2759[0][0]               
__________________________________________________________________________________________________
concatenate_945 (Concatenate)   (None, 1469)         0           flatten_2760[0][0]               
                                                                 flatten_2761[0][0]               
                                                                 flatten_2762[0][0]               
__________________________________________________________________________________________________
concatenate_946 (Concatenate)   (None, 1469)         0           flatten_2763[0][0]               
                                                                 flatten_2764[0][0]               
                                                                 flatten_2765[0][0]               
__________________________________________________________________________________________________
concatenate_947 (Concatenate)   (None, 1469)         0           flatten_2766[0][0]               
                                                                 flatten_2767[0][0]               
                                                                 flatten_2768[0][0]               
__________________________________________________________________________________________________
posDense (Dense)                (None, 124)          182280      concatenate_943[0][0]            
                                                                 concatenate_944[0][0]            
                                                                 concatenate_945[0][0]            
                                                                 concatenate_946[0][0]            
                                                                 concatenate_947[0][0]            
__________________________________________________________________________________________________
concatenate_948 (Concatenate)   (None, 620)          0           posDense[1][0]                   
                                                                 posDense[2][0]                   
                                                                 posDense[3][0]                   
                                                                 posDense[4][0]                   
                                                                 posDense[5][0]                   
__________________________________________________________________________________________________
idenDense (Dense)               (None, 72)           44712       concatenate_948[0][0]            
__________________________________________________________________________________________________
idenSoftMax (Dense)             (None, 4)            292         idenDense[0][0]                  
==================================================================================================
Total params: 2,295,088
Trainable params: 2,295,088
Non-trainable params: 0
__________________________________________________________________________________________________
None
==================================================================================================
…
	One occurrence keys in vocabulary 1622 / 7545

__________________________________________________________________________________________________
	Optimizer : Adagrad,  learning rate = 0.017
__________________________________________________________________________________________________
__________________________________________________________________________________________________
Layer (type)                    Output Shape         Param #     Connected to                     
==================================================================================================
tokens (InputLayer)             (None, 7)            0                                            
__________________________________________________________________________________________________
affixes (InputLayer)            (None, 12)           0                                            
__________________________________________________________________________________________________
capitalization (InputLayer)     (None, 3)            0                                            
__________________________________________________________________________________________________
tokenEmb (Embedding)            (None, 7, 81)        611145      tokens[0][0]                     
__________________________________________________________________________________________________
affixeseEmb (Embedding)         (None, 12, 5)        5930        affixes[0][0]                    
__________________________________________________________________________________________________
capitalizationEmb (Embedding)   (None, 3, 2)         8           capitalization[0][0]             
__________________________________________________________________________________________________
flatten_2769 (Flatten)          (None, 567)          0           tokenEmb[0][0]                   
__________________________________________________________________________________________________
flatten_2770 (Flatten)          (None, 60)           0           affixeseEmb[0][0]                
__________________________________________________________________________________________________
flatten_2771 (Flatten)          (None, 6)            0           capitalizationEmb[0][0]          
__________________________________________________________________________________________________
concatenate_949 (Concatenate)   (None, 633)          0           flatten_2769[0][0]               
                                                                 flatten_2770[0][0]               
                                                                 flatten_2771[0][0]               
__________________________________________________________________________________________________
posDense (Dense)                (None, 36)           22824       concatenate_949[0][0]            
__________________________________________________________________________________________________
dense_149 (Dense)               (None, 152)          5624        posDense[0][0]                   
==================================================================================================
Total params: 645,531
Trainable params: 645,531
Non-trainable params: 0
__________________________________________________________________________________________________
None
==================================================================================================

__________________________________________________________________________________________________
	Optimizer : Adagrad,  learning rate = 0.017
__________________________________________________________________________________________________
__________________________________________________________________________________________________
Layer (type)                    Output Shape         Param #     Connected to                     
==================================================================================================
bxTokens (InputLayer)           (None, 7)            0                                            
__________________________________________________________________________________________________
bxAffixes (InputLayer)          (None, 12)           0                                            
__________________________________________________________________________________________________
bxCapitalization (InputLayer)   (None, 3)            0                                            
__________________________________________________________________________________________________
b1Tokens (InputLayer)           (None, 7)            0                                            
__________________________________________________________________________________________________
b1Affixes (InputLayer)          (None, 12)           0                                            
__________________________________________________________________________________________________
b1Capitalization (InputLayer)   (None, 3)            0                                            
__________________________________________________________________________________________________
b0Tokens (InputLayer)           (None, 7)            0                                            
__________________________________________________________________________________________________
b0Affixes (InputLayer)          (None, 12)           0                                            
__________________________________________________________________________________________________
b0Capitalization (InputLayer)   (None, 3)            0                                            
__________________________________________________________________________________________________
s0Tokens (InputLayer)           (None, 7)            0                                            
__________________________________________________________________________________________________
s0Affixes (InputLayer)          (None, 12)           0                                            
__________________________________________________________________________________________________
s0Capitalization (InputLayer)   (None, 3)            0                                            
__________________________________________________________________________________________________
s1Tokens (InputLayer)           (None, 7)            0                                            
__________________________________________________________________________________________________
s1Affixes (InputLayer)          (None, 12)           0                                            
__________________________________________________________________________________________________
s1Capitalization (InputLayer)   (None, 3)            0                                            
__________________________________________________________________________________________________
tokenEmb (Embedding)            (None, 7, 81)        611145      bxTokens[0][0]                   
                                                                 b1Tokens[0][0]                   
                                                                 b0Tokens[0][0]                   
                                                                 s0Tokens[0][0]                   
                                                                 s1Tokens[0][0]                   
__________________________________________________________________________________________________
affixeseEmb (Embedding)         (None, 12, 5)        5930        bxAffixes[0][0]                  
                                                                 b1Affixes[0][0]                  
                                                                 b0Affixes[0][0]                  
                                                                 s0Affixes[0][0]                  
                                                                 s1Affixes[0][0]                  
__________________________________________________________________________________________________
capitalizationEmb (Embedding)   (None, 3, 2)         8           bxCapitalization[0][0]           
                                                                 b1Capitalization[0][0]           
                                                                 b0Capitalization[0][0]           
                                                                 s0Capitalization[0][0]           
                                                                 s1Capitalization[0][0]           
__________________________________________________________________________________________________
flatten_2772 (Flatten)          (None, 567)          0           tokenEmb[1][0]                   
__________________________________________________________________________________________________
flatten_2773 (Flatten)          (None, 60)           0           affixeseEmb[1][0]                
__________________________________________________________________________________________________
flatten_2774 (Flatten)          (None, 6)            0           capitalizationEmb[1][0]          
__________________________________________________________________________________________________
flatten_2775 (Flatten)          (None, 567)          0           tokenEmb[2][0]                   
__________________________________________________________________________________________________
flatten_2776 (Flatten)          (None, 60)           0           affixeseEmb[2][0]                
__________________________________________________________________________________________________
flatten_2777 (Flatten)          (None, 6)            0           capitalizationEmb[2][0]          
__________________________________________________________________________________________________
flatten_2778 (Flatten)          (None, 567)          0           tokenEmb[3][0]                   
__________________________________________________________________________________________________
flatten_2779 (Flatten)          (None, 60)           0           affixeseEmb[3][0]                
__________________________________________________________________________________________________
flatten_2780 (Flatten)          (None, 6)            0           capitalizationEmb[3][0]          
__________________________________________________________________________________________________
flatten_2781 (Flatten)          (None, 567)          0           tokenEmb[4][0]                   
__________________________________________________________________________________________________
flatten_2782 (Flatten)          (None, 60)           0           affixeseEmb[4][0]                
__________________________________________________________________________________________________
flatten_2783 (Flatten)          (None, 6)            0           capitalizationEmb[4][0]          
__________________________________________________________________________________________________
flatten_2784 (Flatten)          (None, 567)          0           tokenEmb[5][0]                   
__________________________________________________________________________________________________
flatten_2785 (Flatten)          (None, 60)           0           affixeseEmb[5][0]                
__________________________________________________________________________________________________
flatten_2786 (Flatten)          (None, 6)            0           capitalizationEmb[5][0]          
__________________________________________________________________________________________________
concatenate_950 (Concatenate)   (None, 633)          0           flatten_2772[0][0]               
                                                                 flatten_2773[0][0]               
                                                                 flatten_2774[0][0]               
__________________________________________________________________________________________________
concatenate_951 (Concatenate)   (None, 633)          0           flatten_2775[0][0]               
                                                                 flatten_2776[0][0]               
                                                                 flatten_2777[0][0]               
__________________________________________________________________________________________________
concatenate_952 (Concatenate)   (None, 633)          0           flatten_2778[0][0]               
                                                                 flatten_2779[0][0]               
                                                                 flatten_2780[0][0]               
__________________________________________________________________________________________________
concatenate_953 (Concatenate)   (None, 633)          0           flatten_2781[0][0]               
                                                                 flatten_2782[0][0]               
                                                                 flatten_2783[0][0]               
__________________________________________________________________________________________________
concatenate_954 (Concatenate)   (None, 633)          0           flatten_2784[0][0]               
                                                                 flatten_2785[0][0]               
                                                                 flatten_2786[0][0]               
__________________________________________________________________________________________________
posDense (Dense)                (None, 36)           22824       concatenate_950[0][0]            
                                                                 concatenate_951[0][0]            
                                                                 concatenate_952[0][0]            
                                                                 concatenate_953[0][0]            
                                                                 concatenate_954[0][0]            
__________________________________________________________________________________________________
concatenate_955 (Concatenate)   (None, 180)          0           posDense[1][0]                   
                                                                 posDense[2][0]                   
                                                                 posDense[3][0]                   
                                                                 posDense[4][0]                   
                                                                 posDense[5][0]                   
__________________________________________________________________________________________________
idenDense (Dense)               (None, 34)           6154        concatenate_955[0][0]            
__________________________________________________________________________________________________
idenSoftMax (Dense)             (None, 4)            140         idenDense[0][0]                  
==================================================================================================
Total params: 646,201
Trainable params: 646,201
Non-trainable params: 0
__________________________________________________________________________________________________
None
==================================================================================================
…
	One occurrence keys in vocabulary 1622 / 7545

__________________________________________________________________________________________________
	Optimizer : Adagrad,  learning rate = 0.108
__________________________________________________________________________________________________
__________________________________________________________________________________________________
Layer (type)                    Output Shape         Param #     Connected to                     
==================================================================================================
tokens (InputLayer)             (None, 7)            0                                            
__________________________________________________________________________________________________
affixes (InputLayer)            (None, 12)           0                                            
__________________________________________________________________________________________________
capitalization (InputLayer)     (None, 3)            0                                            
__________________________________________________________________________________________________
symbol (InputLayer)             (None, 1)            0                                            
__________________________________________________________________________________________________
tokenEmb (Embedding)            (None, 7, 96)        724320      tokens[0][0]                     
__________________________________________________________________________________________________
affixeseEmb (Embedding)         (None, 12, 9)        10674       affixes[0][0]                    
__________________________________________________________________________________________________
capitalizationEmb (Embedding)   (None, 3, 1)         4           capitalization[0][0]             
__________________________________________________________________________________________________
symbolsEmb (Embedding)          (None, 1, 14)        280         symbol[0][0]                     
__________________________________________________________________________________________________
flatten_2787 (Flatten)          (None, 672)          0           tokenEmb[0][0]                   
__________________________________________________________________________________________________
flatten_2788 (Flatten)          (None, 108)          0           affixeseEmb[0][0]                
__________________________________________________________________________________________________
flatten_2789 (Flatten)          (None, 3)            0           capitalizationEmb[0][0]          
__________________________________________________________________________________________________
flatten_2790 (Flatten)          (None, 14)           0           symbolsEmb[0][0]                 
__________________________________________________________________________________________________
concatenate_956 (Concatenate)   (None, 797)          0           flatten_2787[0][0]               
                                                                 flatten_2788[0][0]               
                                                                 flatten_2789[0][0]               
                                                                 flatten_2790[0][0]               
__________________________________________________________________________________________________
posDense (Dense)                (None, 42)           33516       concatenate_956[0][0]            
__________________________________________________________________________________________________
dense_150 (Dense)               (None, 152)          6536        posDense[0][0]                   
==================================================================================================
Total params: 775,330
Trainable params: 775,330
Non-trainable params: 0
__________________________________________________________________________________________________
None
==================================================================================================

__________________________________________________________________________________________________
	Optimizer : Adagrad,  learning rate = 0.108
__________________________________________________________________________________________________
__________________________________________________________________________________________________
Layer (type)                    Output Shape         Param #     Connected to                     
==================================================================================================
bxTokens (InputLayer)           (None, 7)            0                                            
__________________________________________________________________________________________________
bxAffixes (InputLayer)          (None, 12)           0                                            
__________________________________________________________________________________________________
bxCapitalization (InputLayer)   (None, 3)            0                                            
__________________________________________________________________________________________________
bxSymbols (InputLayer)          (None, 1)            0                                            
__________________________________________________________________________________________________
b1Tokens (InputLayer)           (None, 7)            0                                            
__________________________________________________________________________________________________
b1Affixes (InputLayer)          (None, 12)           0                                            
__________________________________________________________________________________________________
b1Capitalization (InputLayer)   (None, 3)            0                                            
__________________________________________________________________________________________________
b1Symbols (InputLayer)          (None, 1)            0                                            
__________________________________________________________________________________________________
b0Tokens (InputLayer)           (None, 7)            0                                            
__________________________________________________________________________________________________
b0Affixes (InputLayer)          (None, 12)           0                                            
__________________________________________________________________________________________________
b0Capitalization (InputLayer)   (None, 3)            0                                            
__________________________________________________________________________________________________
b0Symbols (InputLayer)          (None, 1)            0                                            
__________________________________________________________________________________________________
s0Tokens (InputLayer)           (None, 7)            0                                            
__________________________________________________________________________________________________
s0Affixes (InputLayer)          (None, 12)           0                                            
__________________________________________________________________________________________________
s0Capitalization (InputLayer)   (None, 3)            0                                            
__________________________________________________________________________________________________
s0Symbols (InputLayer)          (None, 1)            0                                            
__________________________________________________________________________________________________
s1Tokens (InputLayer)           (None, 7)            0                                            
__________________________________________________________________________________________________
s1Affixes (InputLayer)          (None, 12)           0                                            
__________________________________________________________________________________________________
s1Capitalization (InputLayer)   (None, 3)            0                                            
__________________________________________________________________________________________________
s1Symbols (InputLayer)          (None, 1)            0                                            
__________________________________________________________________________________________________
tokenEmb (Embedding)            (None, 7, 96)        724320      bxTokens[0][0]                   
                                                                 b1Tokens[0][0]                   
                                                                 b0Tokens[0][0]                   
                                                                 s0Tokens[0][0]                   
                                                                 s1Tokens[0][0]                   
__________________________________________________________________________________________________
affixeseEmb (Embedding)         (None, 12, 9)        10674       bxAffixes[0][0]                  
                                                                 b1Affixes[0][0]                  
                                                                 b0Affixes[0][0]                  
                                                                 s0Affixes[0][0]                  
                                                                 s1Affixes[0][0]                  
__________________________________________________________________________________________________
capitalizationEmb (Embedding)   (None, 3, 1)         4           bxCapitalization[0][0]           
                                                                 b1Capitalization[0][0]           
                                                                 b0Capitalization[0][0]           
                                                                 s0Capitalization[0][0]           
                                                                 s1Capitalization[0][0]           
__________________________________________________________________________________________________
symbolsEmb (Embedding)          (None, 1, 14)        280         bxSymbols[0][0]                  
                                                                 b1Symbols[0][0]                  
                                                                 b0Symbols[0][0]                  
                                                                 s0Symbols[0][0]                  
                                                                 s1Symbols[0][0]                  
__________________________________________________________________________________________________
flatten_2791 (Flatten)          (None, 672)          0           tokenEmb[1][0]                   
__________________________________________________________________________________________________
flatten_2792 (Flatten)          (None, 108)          0           affixeseEmb[1][0]                
__________________________________________________________________________________________________
flatten_2793 (Flatten)          (None, 3)            0           capitalizationEmb[1][0]          
__________________________________________________________________________________________________
flatten_2794 (Flatten)          (None, 14)           0           symbolsEmb[1][0]                 
__________________________________________________________________________________________________
flatten_2795 (Flatten)          (None, 672)          0           tokenEmb[2][0]                   
__________________________________________________________________________________________________
flatten_2796 (Flatten)          (None, 108)          0           affixeseEmb[2][0]                
__________________________________________________________________________________________________
flatten_2797 (Flatten)          (None, 3)            0           capitalizationEmb[2][0]          
__________________________________________________________________________________________________
flatten_2798 (Flatten)          (None, 14)           0           symbolsEmb[2][0]                 
__________________________________________________________________________________________________
flatten_2799 (Flatten)          (None, 672)          0           tokenEmb[3][0]                   
__________________________________________________________________________________________________
flatten_2800 (Flatten)          (None, 108)          0           affixeseEmb[3][0]                
__________________________________________________________________________________________________
flatten_2801 (Flatten)          (None, 3)            0           capitalizationEmb[3][0]          
__________________________________________________________________________________________________
flatten_2802 (Flatten)          (None, 14)           0           symbolsEmb[3][0]                 
__________________________________________________________________________________________________
flatten_2803 (Flatten)          (None, 672)          0           tokenEmb[4][0]                   
__________________________________________________________________________________________________
flatten_2804 (Flatten)          (None, 108)          0           affixeseEmb[4][0]                
__________________________________________________________________________________________________
flatten_2805 (Flatten)          (None, 3)            0           capitalizationEmb[4][0]          
__________________________________________________________________________________________________
flatten_2806 (Flatten)          (None, 14)           0           symbolsEmb[4][0]                 
__________________________________________________________________________________________________
flatten_2807 (Flatten)          (None, 672)          0           tokenEmb[5][0]                   
__________________________________________________________________________________________________
flatten_2808 (Flatten)          (None, 108)          0           affixeseEmb[5][0]                
__________________________________________________________________________________________________
flatten_2809 (Flatten)          (None, 3)            0           capitalizationEmb[5][0]          
__________________________________________________________________________________________________
flatten_2810 (Flatten)          (None, 14)           0           symbolsEmb[5][0]                 
__________________________________________________________________________________________________
concatenate_957 (Concatenate)   (None, 797)          0           flatten_2791[0][0]               
                                                                 flatten_2792[0][0]               
                                                                 flatten_2793[0][0]               
                                                                 flatten_2794[0][0]               
__________________________________________________________________________________________________
concatenate_958 (Concatenate)   (None, 797)          0           flatten_2795[0][0]               
                                                                 flatten_2796[0][0]               
                                                                 flatten_2797[0][0]               
                                                                 flatten_2798[0][0]               
__________________________________________________________________________________________________
concatenate_959 (Concatenate)   (None, 797)          0           flatten_2799[0][0]               
                                                                 flatten_2800[0][0]               
                                                                 flatten_2801[0][0]               
                                                                 flatten_2802[0][0]               
__________________________________________________________________________________________________
concatenate_960 (Concatenate)   (None, 797)          0           flatten_2803[0][0]               
                                                                 flatten_2804[0][0]               
                                                                 flatten_2805[0][0]               
                                                                 flatten_2806[0][0]               
__________________________________________________________________________________________________
concatenate_961 (Concatenate)   (None, 797)          0           flatten_2807[0][0]               
                                                                 flatten_2808[0][0]               
                                                                 flatten_2809[0][0]               
                                                                 flatten_2810[0][0]               
__________________________________________________________________________________________________
posDense (Dense)                (None, 42)           33516       concatenate_957[0][0]            
                                                                 concatenate_958[0][0]            
                                                                 concatenate_959[0][0]            
                                                                 concatenate_960[0][0]            
                                                                 concatenate_961[0][0]            
__________________________________________________________________________________________________
concatenate_962 (Concatenate)   (None, 210)          0           posDense[1][0]                   
                                                                 posDense[2][0]                   
                                                                 posDense[3][0]                   
                                                                 posDense[4][0]                   
                                                                 posDense[5][0]                   
__________________________________________________________________________________________________
idenDense (Dense)               (None, 92)           19412       concatenate_962[0][0]            
__________________________________________________________________________________________________
idenSoftMax (Dense)             (None, 4)            372         idenDense[0][0]                  
==================================================================================================
Total params: 788,578
Trainable params: 788,578
Non-trainable params: 0
__________________________________________________________________________________________________
None
==================================================================================================
…
