…
	One occurrence keys in vocabulary 1622 / 7545

__________________________________________________________________________________________________
	Optimizer : Adagrad,  learning rate = 0.018
__________________________________________________________________________________________________
__________________________________________________________________________________________________
Layer (type)                    Output Shape         Param #     Connected to                     
==================================================================================================
tokens (InputLayer)             (None, 7)            0                                            
__________________________________________________________________________________________________
affixes (InputLayer)            (None, 12)           0                                            
__________________________________________________________________________________________________
capitalization (InputLayer)     (None, 3)            0                                            
__________________________________________________________________________________________________
symbol (InputLayer)             (None, 1)            0                                            
__________________________________________________________________________________________________
tokenEmb (Embedding)            (None, 7, 63)        475335      tokens[0][0]                     
__________________________________________________________________________________________________
affixeseEmb (Embedding)         (None, 12, 10)       11860       affixes[0][0]                    
__________________________________________________________________________________________________
capitalizationEmb (Embedding)   (None, 3, 3)         12          capitalization[0][0]             
__________________________________________________________________________________________________
symbolsEmb (Embedding)          (None, 1, 14)        280         symbol[0][0]                     
__________________________________________________________________________________________________
flatten_1 (Flatten)             (None, 441)          0           tokenEmb[0][0]                   
__________________________________________________________________________________________________
flatten_2 (Flatten)             (None, 120)          0           affixeseEmb[0][0]                
__________________________________________________________________________________________________
flatten_3 (Flatten)             (None, 9)            0           capitalizationEmb[0][0]          
__________________________________________________________________________________________________
flatten_4 (Flatten)             (None, 14)           0           symbolsEmb[0][0]                 
__________________________________________________________________________________________________
concatenate_1 (Concatenate)     (None, 584)          0           flatten_1[0][0]                  
                                                                 flatten_2[0][0]                  
                                                                 flatten_3[0][0]                  
                                                                 flatten_4[0][0]                  
__________________________________________________________________________________________________
posDense (Dense)                (None, 112)          65520       concatenate_1[0][0]              
__________________________________________________________________________________________________
dense_1 (Dense)                 (None, 152)          17176       posDense[0][0]                   
==================================================================================================
Total params: 570,183
Trainable params: 570,183
Non-trainable params: 0
__________________________________________________________________________________________________
None
==================================================================================================

__________________________________________________________________________________________________
	Optimizer : Adagrad,  learning rate = 0.018
__________________________________________________________________________________________________
__________________________________________________________________________________________________
Layer (type)                    Output Shape         Param #     Connected to                     
==================================================================================================
bxTokens (InputLayer)           (None, 7)            0                                            
__________________________________________________________________________________________________
bxAffixes (InputLayer)          (None, 12)           0                                            
__________________________________________________________________________________________________
bxCapitalization (InputLayer)   (None, 3)            0                                            
__________________________________________________________________________________________________
bxSymbols (InputLayer)          (None, 1)            0                                            
__________________________________________________________________________________________________
b1Tokens (InputLayer)           (None, 7)            0                                            
__________________________________________________________________________________________________
b1Affixes (InputLayer)          (None, 12)           0                                            
__________________________________________________________________________________________________
b1Capitalization (InputLayer)   (None, 3)            0                                            
__________________________________________________________________________________________________
b1Symbols (InputLayer)          (None, 1)            0                                            
__________________________________________________________________________________________________
b0Tokens (InputLayer)           (None, 7)            0                                            
__________________________________________________________________________________________________
b0Affixes (InputLayer)          (None, 12)           0                                            
__________________________________________________________________________________________________
b0Capitalization (InputLayer)   (None, 3)            0                                            
__________________________________________________________________________________________________
b0Symbols (InputLayer)          (None, 1)            0                                            
__________________________________________________________________________________________________
s0Tokens (InputLayer)           (None, 7)            0                                            
__________________________________________________________________________________________________
s0Affixes (InputLayer)          (None, 12)           0                                            
__________________________________________________________________________________________________
s0Capitalization (InputLayer)   (None, 3)            0                                            
__________________________________________________________________________________________________
s0Symbols (InputLayer)          (None, 1)            0                                            
__________________________________________________________________________________________________
s1Tokens (InputLayer)           (None, 7)            0                                            
__________________________________________________________________________________________________
s1Affixes (InputLayer)          (None, 12)           0                                            
__________________________________________________________________________________________________
s1Capitalization (InputLayer)   (None, 3)            0                                            
__________________________________________________________________________________________________
s1Symbols (InputLayer)          (None, 1)            0                                            
__________________________________________________________________________________________________
tokenEmb (Embedding)            (None, 7, 63)        475335      bxTokens[0][0]                   
                                                                 b1Tokens[0][0]                   
                                                                 b0Tokens[0][0]                   
                                                                 s0Tokens[0][0]                   
                                                                 s1Tokens[0][0]                   
__________________________________________________________________________________________________
affixeseEmb (Embedding)         (None, 12, 10)       11860       bxAffixes[0][0]                  
                                                                 b1Affixes[0][0]                  
                                                                 b0Affixes[0][0]                  
                                                                 s0Affixes[0][0]                  
                                                                 s1Affixes[0][0]                  
__________________________________________________________________________________________________
capitalizationEmb (Embedding)   (None, 3, 3)         12          bxCapitalization[0][0]           
                                                                 b1Capitalization[0][0]           
                                                                 b0Capitalization[0][0]           
                                                                 s0Capitalization[0][0]           
                                                                 s1Capitalization[0][0]           
__________________________________________________________________________________________________
symbolsEmb (Embedding)          (None, 1, 14)        280         bxSymbols[0][0]                  
                                                                 b1Symbols[0][0]                  
                                                                 b0Symbols[0][0]                  
                                                                 s0Symbols[0][0]                  
                                                                 s1Symbols[0][0]                  
__________________________________________________________________________________________________
flatten_5 (Flatten)             (None, 441)          0           tokenEmb[1][0]                   
__________________________________________________________________________________________________
flatten_6 (Flatten)             (None, 120)          0           affixeseEmb[1][0]                
__________________________________________________________________________________________________
flatten_7 (Flatten)             (None, 9)            0           capitalizationEmb[1][0]          
__________________________________________________________________________________________________
flatten_8 (Flatten)             (None, 14)           0           symbolsEmb[1][0]                 
__________________________________________________________________________________________________
flatten_9 (Flatten)             (None, 441)          0           tokenEmb[2][0]                   
__________________________________________________________________________________________________
flatten_10 (Flatten)            (None, 120)          0           affixeseEmb[2][0]                
__________________________________________________________________________________________________
flatten_11 (Flatten)            (None, 9)            0           capitalizationEmb[2][0]          
__________________________________________________________________________________________________
flatten_12 (Flatten)            (None, 14)           0           symbolsEmb[2][0]                 
__________________________________________________________________________________________________
flatten_13 (Flatten)            (None, 441)          0           tokenEmb[3][0]                   
__________________________________________________________________________________________________
flatten_14 (Flatten)            (None, 120)          0           affixeseEmb[3][0]                
__________________________________________________________________________________________________
flatten_15 (Flatten)            (None, 9)            0           capitalizationEmb[3][0]          
__________________________________________________________________________________________________
flatten_16 (Flatten)            (None, 14)           0           symbolsEmb[3][0]                 
__________________________________________________________________________________________________
flatten_17 (Flatten)            (None, 441)          0           tokenEmb[4][0]                   
__________________________________________________________________________________________________
flatten_18 (Flatten)            (None, 120)          0           affixeseEmb[4][0]                
__________________________________________________________________________________________________
flatten_19 (Flatten)            (None, 9)            0           capitalizationEmb[4][0]          
__________________________________________________________________________________________________
flatten_20 (Flatten)            (None, 14)           0           symbolsEmb[4][0]                 
__________________________________________________________________________________________________
flatten_21 (Flatten)            (None, 441)          0           tokenEmb[5][0]                   
__________________________________________________________________________________________________
flatten_22 (Flatten)            (None, 120)          0           affixeseEmb[5][0]                
__________________________________________________________________________________________________
flatten_23 (Flatten)            (None, 9)            0           capitalizationEmb[5][0]          
__________________________________________________________________________________________________
flatten_24 (Flatten)            (None, 14)           0           symbolsEmb[5][0]                 
__________________________________________________________________________________________________
concatenate_2 (Concatenate)     (None, 584)          0           flatten_5[0][0]                  
                                                                 flatten_6[0][0]                  
                                                                 flatten_7[0][0]                  
                                                                 flatten_8[0][0]                  
__________________________________________________________________________________________________
concatenate_3 (Concatenate)     (None, 584)          0           flatten_9[0][0]                  
                                                                 flatten_10[0][0]                 
                                                                 flatten_11[0][0]                 
                                                                 flatten_12[0][0]                 
__________________________________________________________________________________________________
concatenate_4 (Concatenate)     (None, 584)          0           flatten_13[0][0]                 
                                                                 flatten_14[0][0]                 
                                                                 flatten_15[0][0]                 
                                                                 flatten_16[0][0]                 
__________________________________________________________________________________________________
concatenate_5 (Concatenate)     (None, 584)          0           flatten_17[0][0]                 
                                                                 flatten_18[0][0]                 
                                                                 flatten_19[0][0]                 
                                                                 flatten_20[0][0]                 
__________________________________________________________________________________________________
concatenate_6 (Concatenate)     (None, 584)          0           flatten_21[0][0]                 
                                                                 flatten_22[0][0]                 
                                                                 flatten_23[0][0]                 
                                                                 flatten_24[0][0]                 
__________________________________________________________________________________________________
posDense (Dense)                (None, 112)          65520       concatenate_2[0][0]              
                                                                 concatenate_3[0][0]              
                                                                 concatenate_4[0][0]              
                                                                 concatenate_5[0][0]              
                                                                 concatenate_6[0][0]              
__________________________________________________________________________________________________
concatenate_7 (Concatenate)     (None, 560)          0           posDense[1][0]                   
                                                                 posDense[2][0]                   
                                                                 posDense[3][0]                   
                                                                 posDense[4][0]                   
                                                                 posDense[5][0]                   
__________________________________________________________________________________________________
idenDense (Dense)               (None, 101)          56661       concatenate_7[0][0]              
__________________________________________________________________________________________________
idenSoftMax (Dense)             (None, 4)            408         idenDense[0][0]                  
==================================================================================================
Total params: 610,076
Trainable params: 610,076
Non-trainable params: 0
__________________________________________________________________________________________________
None
==================================================================================================
…
	One occurrence keys in vocabulary 2182 / 11438

__________________________________________________________________________________________________
	Optimizer : Adagrad,  learning rate = 0.045
__________________________________________________________________________________________________
__________________________________________________________________________________________________
Layer (type)                    Output Shape         Param #     Connected to                     
==================================================================================================
tokens (InputLayer)             (None, 7)            0                                            
__________________________________________________________________________________________________
affixes (InputLayer)            (None, 12)           0                                            
__________________________________________________________________________________________________
symbol (InputLayer)             (None, 1)            0                                            
__________________________________________________________________________________________________
tokenEmb (Embedding)            (None, 7, 79)        903602      tokens[0][0]                     
__________________________________________________________________________________________________
affixeseEmb (Embedding)         (None, 12, 9)        10674       affixes[0][0]                    
__________________________________________________________________________________________________
symbolsEmb (Embedding)          (None, 1, 8)         160         symbol[0][0]                     
__________________________________________________________________________________________________
flatten_25 (Flatten)            (None, 553)          0           tokenEmb[0][0]                   
__________________________________________________________________________________________________
flatten_26 (Flatten)            (None, 108)          0           affixeseEmb[0][0]                
__________________________________________________________________________________________________
flatten_27 (Flatten)            (None, 8)            0           symbolsEmb[0][0]                 
__________________________________________________________________________________________________
concatenate_8 (Concatenate)     (None, 669)          0           flatten_25[0][0]                 
                                                                 flatten_26[0][0]                 
                                                                 flatten_27[0][0]                 
__________________________________________________________________________________________________
posDense (Dense)                (None, 121)          81070       concatenate_8[0][0]              
__________________________________________________________________________________________________
dense_2 (Dense)                 (None, 152)          18544       posDense[0][0]                   
==================================================================================================
Total params: 1,014,050
Trainable params: 1,014,050
Non-trainable params: 0
__________________________________________________________________________________________________
None
==================================================================================================

__________________________________________________________________________________________________
	Optimizer : Adagrad,  learning rate = 0.045
__________________________________________________________________________________________________
__________________________________________________________________________________________________
Layer (type)                    Output Shape         Param #     Connected to                     
==================================================================================================
b1Tokens (InputLayer)           (None, 7)            0                                            
__________________________________________________________________________________________________
b1Affixes (InputLayer)          (None, 12)           0                                            
__________________________________________________________________________________________________
b1Symbols (InputLayer)          (None, 1)            0                                            
__________________________________________________________________________________________________
b0Tokens (InputLayer)           (None, 7)            0                                            
__________________________________________________________________________________________________
b0Affixes (InputLayer)          (None, 12)           0                                            
__________________________________________________________________________________________________
b0Symbols (InputLayer)          (None, 1)            0                                            
__________________________________________________________________________________________________
s0Tokens (InputLayer)           (None, 7)            0                                            
__________________________________________________________________________________________________
s0Affixes (InputLayer)          (None, 12)           0                                            
__________________________________________________________________________________________________
s0Symbols (InputLayer)          (None, 1)            0                                            
__________________________________________________________________________________________________
s1Tokens (InputLayer)           (None, 7)            0                                            
__________________________________________________________________________________________________
s1Affixes (InputLayer)          (None, 12)           0                                            
__________________________________________________________________________________________________
s1Symbols (InputLayer)          (None, 1)            0                                            
__________________________________________________________________________________________________
tokenEmb (Embedding)            (None, 7, 79)        903602      b1Tokens[0][0]                   
                                                                 b0Tokens[0][0]                   
                                                                 s0Tokens[0][0]                   
                                                                 s1Tokens[0][0]                   
__________________________________________________________________________________________________
affixeseEmb (Embedding)         (None, 12, 9)        10674       b1Affixes[0][0]                  
                                                                 b0Affixes[0][0]                  
                                                                 s0Affixes[0][0]                  
                                                                 s1Affixes[0][0]                  
__________________________________________________________________________________________________
symbolsEmb (Embedding)          (None, 1, 8)         160         b1Symbols[0][0]                  
                                                                 b0Symbols[0][0]                  
                                                                 s0Symbols[0][0]                  
                                                                 s1Symbols[0][0]                  
__________________________________________________________________________________________________
flatten_28 (Flatten)            (None, 553)          0           tokenEmb[1][0]                   
__________________________________________________________________________________________________
flatten_29 (Flatten)            (None, 108)          0           affixeseEmb[1][0]                
__________________________________________________________________________________________________
flatten_30 (Flatten)            (None, 8)            0           symbolsEmb[1][0]                 
__________________________________________________________________________________________________
flatten_31 (Flatten)            (None, 553)          0           tokenEmb[2][0]                   
__________________________________________________________________________________________________
flatten_32 (Flatten)            (None, 108)          0           affixeseEmb[2][0]                
__________________________________________________________________________________________________
flatten_33 (Flatten)            (None, 8)            0           symbolsEmb[2][0]                 
__________________________________________________________________________________________________
flatten_34 (Flatten)            (None, 553)          0           tokenEmb[3][0]                   
__________________________________________________________________________________________________
flatten_35 (Flatten)            (None, 108)          0           affixeseEmb[3][0]                
__________________________________________________________________________________________________
flatten_36 (Flatten)            (None, 8)            0           symbolsEmb[3][0]                 
__________________________________________________________________________________________________
flatten_37 (Flatten)            (None, 553)          0           tokenEmb[4][0]                   
__________________________________________________________________________________________________
flatten_38 (Flatten)            (None, 108)          0           affixeseEmb[4][0]                
__________________________________________________________________________________________________
flatten_39 (Flatten)            (None, 8)            0           symbolsEmb[4][0]                 
__________________________________________________________________________________________________
concatenate_9 (Concatenate)     (None, 669)          0           flatten_28[0][0]                 
                                                                 flatten_29[0][0]                 
                                                                 flatten_30[0][0]                 
__________________________________________________________________________________________________
concatenate_10 (Concatenate)    (None, 669)          0           flatten_31[0][0]                 
                                                                 flatten_32[0][0]                 
                                                                 flatten_33[0][0]                 
__________________________________________________________________________________________________
concatenate_11 (Concatenate)    (None, 669)          0           flatten_34[0][0]                 
                                                                 flatten_35[0][0]                 
                                                                 flatten_36[0][0]                 
__________________________________________________________________________________________________
concatenate_12 (Concatenate)    (None, 669)          0           flatten_37[0][0]                 
                                                                 flatten_38[0][0]                 
                                                                 flatten_39[0][0]                 
__________________________________________________________________________________________________
posDense (Dense)                (None, 121)          81070       concatenate_9[0][0]              
                                                                 concatenate_10[0][0]             
                                                                 concatenate_11[0][0]             
                                                                 concatenate_12[0][0]             
__________________________________________________________________________________________________
concatenate_13 (Concatenate)    (None, 484)          0           posDense[1][0]                   
                                                                 posDense[2][0]                   
                                                                 posDense[3][0]                   
                                                                 posDense[4][0]                   
__________________________________________________________________________________________________
idenDense (Dense)               (None, 104)          50440       concatenate_13[0][0]             
__________________________________________________________________________________________________
idenSoftMax (Dense)             (None, 4)            420         idenDense[0][0]                  
==================================================================================================
Total params: 1,046,366
Trainable params: 1,046,366
Non-trainable params: 0
__________________________________________________________________________________________________
None
==================================================================================================
…
	One occurrence keys in vocabulary 1622 / 7545

__________________________________________________________________________________________________
	Optimizer : Adagrad,  learning rate = 0.015
__________________________________________________________________________________________________
__________________________________________________________________________________________________
Layer (type)                    Output Shape         Param #     Connected to                     
==================================================================================================
tokens (InputLayer)             (None, 7)            0                                            
__________________________________________________________________________________________________
affixes (InputLayer)            (None, 12)           0                                            
__________________________________________________________________________________________________
capitalization (InputLayer)     (None, 3)            0                                            
__________________________________________________________________________________________________
symbol (InputLayer)             (None, 1)            0                                            
__________________________________________________________________________________________________
tokenEmb (Embedding)            (None, 7, 28)        211260      tokens[0][0]                     
__________________________________________________________________________________________________
affixeseEmb (Embedding)         (None, 12, 12)       14232       affixes[0][0]                    
__________________________________________________________________________________________________
capitalizationEmb (Embedding)   (None, 3, 2)         8           capitalization[0][0]             
__________________________________________________________________________________________________
symbolsEmb (Embedding)          (None, 1, 14)        280         symbol[0][0]                     
__________________________________________________________________________________________________
flatten_40 (Flatten)            (None, 196)          0           tokenEmb[0][0]                   
__________________________________________________________________________________________________
flatten_41 (Flatten)            (None, 144)          0           affixeseEmb[0][0]                
__________________________________________________________________________________________________
flatten_42 (Flatten)            (None, 6)            0           capitalizationEmb[0][0]          
__________________________________________________________________________________________________
flatten_43 (Flatten)            (None, 14)           0           symbolsEmb[0][0]                 
__________________________________________________________________________________________________
concatenate_14 (Concatenate)    (None, 360)          0           flatten_40[0][0]                 
                                                                 flatten_41[0][0]                 
                                                                 flatten_42[0][0]                 
                                                                 flatten_43[0][0]                 
__________________________________________________________________________________________________
posDense (Dense)                (None, 66)           23826       concatenate_14[0][0]             
__________________________________________________________________________________________________
dense_3 (Dense)                 (None, 152)          10184       posDense[0][0]                   
==================================================================================================
Total params: 259,790
Trainable params: 259,790
Non-trainable params: 0
__________________________________________________________________________________________________
None
==================================================================================================

__________________________________________________________________________________________________
	Optimizer : Adagrad,  learning rate = 0.015
__________________________________________________________________________________________________
__________________________________________________________________________________________________
Layer (type)                    Output Shape         Param #     Connected to                     
==================================================================================================
bxTokens (InputLayer)           (None, 7)            0                                            
__________________________________________________________________________________________________
bxAffixes (InputLayer)          (None, 12)           0                                            
__________________________________________________________________________________________________
bxCapitalization (InputLayer)   (None, 3)            0                                            
__________________________________________________________________________________________________
bxSymbols (InputLayer)          (None, 1)            0                                            
__________________________________________________________________________________________________
b1Tokens (InputLayer)           (None, 7)            0                                            
__________________________________________________________________________________________________
b1Affixes (InputLayer)          (None, 12)           0                                            
__________________________________________________________________________________________________
b1Capitalization (InputLayer)   (None, 3)            0                                            
__________________________________________________________________________________________________
b1Symbols (InputLayer)          (None, 1)            0                                            
__________________________________________________________________________________________________
b0Tokens (InputLayer)           (None, 7)            0                                            
__________________________________________________________________________________________________
b0Affixes (InputLayer)          (None, 12)           0                                            
__________________________________________________________________________________________________
b0Capitalization (InputLayer)   (None, 3)            0                                            
__________________________________________________________________________________________________
b0Symbols (InputLayer)          (None, 1)            0                                            
__________________________________________________________________________________________________
s0Tokens (InputLayer)           (None, 7)            0                                            
__________________________________________________________________________________________________
s0Affixes (InputLayer)          (None, 12)           0                                            
__________________________________________________________________________________________________
s0Capitalization (InputLayer)   (None, 3)            0                                            
__________________________________________________________________________________________________
s0Symbols (InputLayer)          (None, 1)            0                                            
__________________________________________________________________________________________________
s1Tokens (InputLayer)           (None, 7)            0                                            
__________________________________________________________________________________________________
s1Affixes (InputLayer)          (None, 12)           0                                            
__________________________________________________________________________________________________
s1Capitalization (InputLayer)   (None, 3)            0                                            
__________________________________________________________________________________________________
s1Symbols (InputLayer)          (None, 1)            0                                            
__________________________________________________________________________________________________
tokenEmb (Embedding)            (None, 7, 28)        211260      bxTokens[0][0]                   
                                                                 b1Tokens[0][0]                   
                                                                 b0Tokens[0][0]                   
                                                                 s0Tokens[0][0]                   
                                                                 s1Tokens[0][0]                   
__________________________________________________________________________________________________
affixeseEmb (Embedding)         (None, 12, 12)       14232       bxAffixes[0][0]                  
                                                                 b1Affixes[0][0]                  
                                                                 b0Affixes[0][0]                  
                                                                 s0Affixes[0][0]                  
                                                                 s1Affixes[0][0]                  
__________________________________________________________________________________________________
capitalizationEmb (Embedding)   (None, 3, 2)         8           bxCapitalization[0][0]           
                                                                 b1Capitalization[0][0]           
                                                                 b0Capitalization[0][0]           
                                                                 s0Capitalization[0][0]           
                                                                 s1Capitalization[0][0]           
__________________________________________________________________________________________________
symbolsEmb (Embedding)          (None, 1, 14)        280         bxSymbols[0][0]                  
                                                                 b1Symbols[0][0]                  
                                                                 b0Symbols[0][0]                  
                                                                 s0Symbols[0][0]                  
                                                                 s1Symbols[0][0]                  
__________________________________________________________________________________________________
flatten_44 (Flatten)            (None, 196)          0           tokenEmb[1][0]                   
__________________________________________________________________________________________________
flatten_45 (Flatten)            (None, 144)          0           affixeseEmb[1][0]                
__________________________________________________________________________________________________
flatten_46 (Flatten)            (None, 6)            0           capitalizationEmb[1][0]          
__________________________________________________________________________________________________
flatten_47 (Flatten)            (None, 14)           0           symbolsEmb[1][0]                 
__________________________________________________________________________________________________
flatten_48 (Flatten)            (None, 196)          0           tokenEmb[2][0]                   
__________________________________________________________________________________________________
flatten_49 (Flatten)            (None, 144)          0           affixeseEmb[2][0]                
__________________________________________________________________________________________________
flatten_50 (Flatten)            (None, 6)            0           capitalizationEmb[2][0]          
__________________________________________________________________________________________________
flatten_51 (Flatten)            (None, 14)           0           symbolsEmb[2][0]                 
__________________________________________________________________________________________________
flatten_52 (Flatten)            (None, 196)          0           tokenEmb[3][0]                   
__________________________________________________________________________________________________
flatten_53 (Flatten)            (None, 144)          0           affixeseEmb[3][0]                
__________________________________________________________________________________________________
flatten_54 (Flatten)            (None, 6)            0           capitalizationEmb[3][0]          
__________________________________________________________________________________________________
flatten_55 (Flatten)            (None, 14)           0           symbolsEmb[3][0]                 
__________________________________________________________________________________________________
flatten_56 (Flatten)            (None, 196)          0           tokenEmb[4][0]                   
__________________________________________________________________________________________________
flatten_57 (Flatten)            (None, 144)          0           affixeseEmb[4][0]                
__________________________________________________________________________________________________
flatten_58 (Flatten)            (None, 6)            0           capitalizationEmb[4][0]          
__________________________________________________________________________________________________
flatten_59 (Flatten)            (None, 14)           0           symbolsEmb[4][0]                 
__________________________________________________________________________________________________
flatten_60 (Flatten)            (None, 196)          0           tokenEmb[5][0]                   
__________________________________________________________________________________________________
flatten_61 (Flatten)            (None, 144)          0           affixeseEmb[5][0]                
__________________________________________________________________________________________________
flatten_62 (Flatten)            (None, 6)            0           capitalizationEmb[5][0]          
__________________________________________________________________________________________________
flatten_63 (Flatten)            (None, 14)           0           symbolsEmb[5][0]                 
__________________________________________________________________________________________________
concatenate_15 (Concatenate)    (None, 360)          0           flatten_44[0][0]                 
                                                                 flatten_45[0][0]                 
                                                                 flatten_46[0][0]                 
                                                                 flatten_47[0][0]                 
__________________________________________________________________________________________________
concatenate_16 (Concatenate)    (None, 360)          0           flatten_48[0][0]                 
                                                                 flatten_49[0][0]                 
                                                                 flatten_50[0][0]                 
                                                                 flatten_51[0][0]                 
__________________________________________________________________________________________________
concatenate_17 (Concatenate)    (None, 360)          0           flatten_52[0][0]                 
                                                                 flatten_53[0][0]                 
                                                                 flatten_54[0][0]                 
                                                                 flatten_55[0][0]                 
__________________________________________________________________________________________________
concatenate_18 (Concatenate)    (None, 360)          0           flatten_56[0][0]                 
                                                                 flatten_57[0][0]                 
                                                                 flatten_58[0][0]                 
                                                                 flatten_59[0][0]                 
__________________________________________________________________________________________________
concatenate_19 (Concatenate)    (None, 360)          0           flatten_60[0][0]                 
                                                                 flatten_61[0][0]                 
                                                                 flatten_62[0][0]                 
                                                                 flatten_63[0][0]                 
__________________________________________________________________________________________________
posDense (Dense)                (None, 66)           23826       concatenate_15[0][0]             
                                                                 concatenate_16[0][0]             
                                                                 concatenate_17[0][0]             
                                                                 concatenate_18[0][0]             
                                                                 concatenate_19[0][0]             
__________________________________________________________________________________________________
concatenate_20 (Concatenate)    (None, 330)          0           posDense[1][0]                   
                                                                 posDense[2][0]                   
                                                                 posDense[3][0]                   
                                                                 posDense[4][0]                   
                                                                 posDense[5][0]                   
__________________________________________________________________________________________________
idenDense (Dense)               (None, 106)          35086       concatenate_20[0][0]             
__________________________________________________________________________________________________
idenSoftMax (Dense)             (None, 4)            428         idenDense[0][0]                  
==================================================================================================
Total params: 285,120
Trainable params: 285,120
Non-trainable params: 0
__________________________________________________________________________________________________
None
==================================================================================================
…
	One occurrence keys in vocabulary 1622 / 7545

__________________________________________________________________________________________________
	Optimizer : Adagrad,  learning rate = 0.141
__________________________________________________________________________________________________
__________________________________________________________________________________________________
Layer (type)                    Output Shape         Param #     Connected to                     
==================================================================================================
tokens (InputLayer)             (None, 7)            0                                            
__________________________________________________________________________________________________
affixes (InputLayer)            (None, 12)           0                                            
__________________________________________________________________________________________________
capitalization (InputLayer)     (None, 3)            0                                            
__________________________________________________________________________________________________
tokenEmb (Embedding)            (None, 7, 55)        414975      tokens[0][0]                     
__________________________________________________________________________________________________
affixeseEmb (Embedding)         (None, 12, 22)       26092       affixes[0][0]                    
__________________________________________________________________________________________________
capitalizationEmb (Embedding)   (None, 3, 6)         24          capitalization[0][0]             
__________________________________________________________________________________________________
flatten_64 (Flatten)            (None, 385)          0           tokenEmb[0][0]                   
__________________________________________________________________________________________________
flatten_65 (Flatten)            (None, 264)          0           affixeseEmb[0][0]                
__________________________________________________________________________________________________
flatten_66 (Flatten)            (None, 18)           0           capitalizationEmb[0][0]          
__________________________________________________________________________________________________
concatenate_21 (Concatenate)    (None, 667)          0           flatten_64[0][0]                 
                                                                 flatten_65[0][0]                 
                                                                 flatten_66[0][0]                 
__________________________________________________________________________________________________
posDense (Dense)                (None, 133)          88844       concatenate_21[0][0]             
__________________________________________________________________________________________________
dense_4 (Dense)                 (None, 152)          20368       posDense[0][0]                   
==================================================================================================
Total params: 550,303
Trainable params: 550,303
Non-trainable params: 0
__________________________________________________________________________________________________
None
==================================================================================================

__________________________________________________________________________________________________
	Optimizer : Adagrad,  learning rate = 0.141
__________________________________________________________________________________________________
__________________________________________________________________________________________________
Layer (type)                    Output Shape         Param #     Connected to                     
==================================================================================================
b1Tokens (InputLayer)           (None, 7)            0                                            
__________________________________________________________________________________________________
b1Affixes (InputLayer)          (None, 12)           0                                            
__________________________________________________________________________________________________
b1Capitalization (InputLayer)   (None, 3)            0                                            
__________________________________________________________________________________________________
b0Tokens (InputLayer)           (None, 7)            0                                            
__________________________________________________________________________________________________
b0Affixes (InputLayer)          (None, 12)           0                                            
__________________________________________________________________________________________________
b0Capitalization (InputLayer)   (None, 3)            0                                            
__________________________________________________________________________________________________
s0Tokens (InputLayer)           (None, 7)            0                                            
__________________________________________________________________________________________________
s0Affixes (InputLayer)          (None, 12)           0                                            
__________________________________________________________________________________________________
s0Capitalization (InputLayer)   (None, 3)            0                                            
__________________________________________________________________________________________________
s1Tokens (InputLayer)           (None, 7)            0                                            
__________________________________________________________________________________________________
s1Affixes (InputLayer)          (None, 12)           0                                            
__________________________________________________________________________________________________
s1Capitalization (InputLayer)   (None, 3)            0                                            
__________________________________________________________________________________________________
tokenEmb (Embedding)            (None, 7, 55)        414975      b1Tokens[0][0]                   
                                                                 b0Tokens[0][0]                   
                                                                 s0Tokens[0][0]                   
                                                                 s1Tokens[0][0]                   
__________________________________________________________________________________________________
affixeseEmb (Embedding)         (None, 12, 22)       26092       b1Affixes[0][0]                  
                                                                 b0Affixes[0][0]                  
                                                                 s0Affixes[0][0]                  
                                                                 s1Affixes[0][0]                  
__________________________________________________________________________________________________
capitalizationEmb (Embedding)   (None, 3, 6)         24          b1Capitalization[0][0]           
                                                                 b0Capitalization[0][0]           
                                                                 s0Capitalization[0][0]           
                                                                 s1Capitalization[0][0]           
__________________________________________________________________________________________________
flatten_67 (Flatten)            (None, 385)          0           tokenEmb[1][0]                   
__________________________________________________________________________________________________
flatten_68 (Flatten)            (None, 264)          0           affixeseEmb[1][0]                
__________________________________________________________________________________________________
flatten_69 (Flatten)            (None, 18)           0           capitalizationEmb[1][0]          
__________________________________________________________________________________________________
flatten_70 (Flatten)            (None, 385)          0           tokenEmb[2][0]                   
__________________________________________________________________________________________________
flatten_71 (Flatten)            (None, 264)          0           affixeseEmb[2][0]                
__________________________________________________________________________________________________
flatten_72 (Flatten)            (None, 18)           0           capitalizationEmb[2][0]          
__________________________________________________________________________________________________
flatten_73 (Flatten)            (None, 385)          0           tokenEmb[3][0]                   
__________________________________________________________________________________________________
flatten_74 (Flatten)            (None, 264)          0           affixeseEmb[3][0]                
__________________________________________________________________________________________________
flatten_75 (Flatten)            (None, 18)           0           capitalizationEmb[3][0]          
__________________________________________________________________________________________________
flatten_76 (Flatten)            (None, 385)          0           tokenEmb[4][0]                   
__________________________________________________________________________________________________
flatten_77 (Flatten)            (None, 264)          0           affixeseEmb[4][0]                
__________________________________________________________________________________________________
flatten_78 (Flatten)            (None, 18)           0           capitalizationEmb[4][0]          
__________________________________________________________________________________________________
concatenate_22 (Concatenate)    (None, 667)          0           flatten_67[0][0]                 
                                                                 flatten_68[0][0]                 
                                                                 flatten_69[0][0]                 
__________________________________________________________________________________________________
concatenate_23 (Concatenate)    (None, 667)          0           flatten_70[0][0]                 
                                                                 flatten_71[0][0]                 
                                                                 flatten_72[0][0]                 
__________________________________________________________________________________________________
concatenate_24 (Concatenate)    (None, 667)          0           flatten_73[0][0]                 
                                                                 flatten_74[0][0]                 
                                                                 flatten_75[0][0]                 
__________________________________________________________________________________________________
concatenate_25 (Concatenate)    (None, 667)          0           flatten_76[0][0]                 
                                                                 flatten_77[0][0]                 
                                                                 flatten_78[0][0]                 
__________________________________________________________________________________________________
posDense (Dense)                (None, 133)          88844       concatenate_22[0][0]             
                                                                 concatenate_23[0][0]             
                                                                 concatenate_24[0][0]             
                                                                 concatenate_25[0][0]             
__________________________________________________________________________________________________
concatenate_26 (Concatenate)    (None, 532)          0           posDense[1][0]                   
                                                                 posDense[2][0]                   
                                                                 posDense[3][0]                   
                                                                 posDense[4][0]                   
__________________________________________________________________________________________________
idenDense (Dense)               (None, 31)           16523       concatenate_26[0][0]             
__________________________________________________________________________________________________
idenSoftMax (Dense)             (None, 4)            128         idenDense[0][0]                  
==================================================================================================
Total params: 546,586
Trainable params: 546,586
Non-trainable params: 0
__________________________________________________________________________________________________
None
==================================================================================================
…
	One occurrence keys in vocabulary 2182 / 11438

__________________________________________________________________________________________________
	Optimizer : Adagrad,  learning rate = 0.012
__________________________________________________________________________________________________
__________________________________________________________________________________________________
Layer (type)                    Output Shape         Param #     Connected to                     
==================================================================================================
tokens (InputLayer)             (None, 7)            0                                            
__________________________________________________________________________________________________
affixes (InputLayer)            (None, 12)           0                                            
__________________________________________________________________________________________________
capitalization (InputLayer)     (None, 3)            0                                            
__________________________________________________________________________________________________
tokenEmb (Embedding)            (None, 7, 30)        343140      tokens[0][0]                     
__________________________________________________________________________________________________
affixeseEmb (Embedding)         (None, 12, 13)       15418       affixes[0][0]                    
__________________________________________________________________________________________________
capitalizationEmb (Embedding)   (None, 3, 2)         8           capitalization[0][0]             
__________________________________________________________________________________________________
flatten_79 (Flatten)            (None, 210)          0           tokenEmb[0][0]                   
__________________________________________________________________________________________________
flatten_80 (Flatten)            (None, 156)          0           affixeseEmb[0][0]                
__________________________________________________________________________________________________
flatten_81 (Flatten)            (None, 6)            0           capitalizationEmb[0][0]          
__________________________________________________________________________________________________
concatenate_27 (Concatenate)    (None, 372)          0           flatten_79[0][0]                 
                                                                 flatten_80[0][0]                 
                                                                 flatten_81[0][0]                 
__________________________________________________________________________________________________
posDense (Dense)                (None, 125)          46625       concatenate_27[0][0]             
__________________________________________________________________________________________________
dense_5 (Dense)                 (None, 152)          19152       posDense[0][0]                   
==================================================================================================
Total params: 424,343
Trainable params: 424,343
Non-trainable params: 0
__________________________________________________________________________________________________
None
==================================================================================================

__________________________________________________________________________________________________
	Optimizer : Adagrad,  learning rate = 0.012
__________________________________________________________________________________________________
__________________________________________________________________________________________________
Layer (type)                    Output Shape         Param #     Connected to                     
==================================================================================================
bxTokens (InputLayer)           (None, 7)            0                                            
__________________________________________________________________________________________________
bxAffixes (InputLayer)          (None, 12)           0                                            
__________________________________________________________________________________________________
bxCapitalization (InputLayer)   (None, 3)            0                                            
__________________________________________________________________________________________________
b0Tokens (InputLayer)           (None, 7)            0                                            
__________________________________________________________________________________________________
b0Affixes (InputLayer)          (None, 12)           0                                            
__________________________________________________________________________________________________
b0Capitalization (InputLayer)   (None, 3)            0                                            
__________________________________________________________________________________________________
s0Tokens (InputLayer)           (None, 7)            0                                            
__________________________________________________________________________________________________
s0Affixes (InputLayer)          (None, 12)           0                                            
__________________________________________________________________________________________________
s0Capitalization (InputLayer)   (None, 3)            0                                            
__________________________________________________________________________________________________
s1Tokens (InputLayer)           (None, 7)            0                                            
__________________________________________________________________________________________________
s1Affixes (InputLayer)          (None, 12)           0                                            
__________________________________________________________________________________________________
s1Capitalization (InputLayer)   (None, 3)            0                                            
__________________________________________________________________________________________________
tokenEmb (Embedding)            (None, 7, 30)        343140      bxTokens[0][0]                   
                                                                 b0Tokens[0][0]                   
                                                                 s0Tokens[0][0]                   
                                                                 s1Tokens[0][0]                   
__________________________________________________________________________________________________
affixeseEmb (Embedding)         (None, 12, 13)       15418       bxAffixes[0][0]                  
                                                                 b0Affixes[0][0]                  
                                                                 s0Affixes[0][0]                  
                                                                 s1Affixes[0][0]                  
__________________________________________________________________________________________________
capitalizationEmb (Embedding)   (None, 3, 2)         8           bxCapitalization[0][0]           
                                                                 b0Capitalization[0][0]           
                                                                 s0Capitalization[0][0]           
                                                                 s1Capitalization[0][0]           
__________________________________________________________________________________________________
flatten_82 (Flatten)            (None, 210)          0           tokenEmb[1][0]                   
__________________________________________________________________________________________________
flatten_83 (Flatten)            (None, 156)          0           affixeseEmb[1][0]                
__________________________________________________________________________________________________
flatten_84 (Flatten)            (None, 6)            0           capitalizationEmb[1][0]          
__________________________________________________________________________________________________
flatten_85 (Flatten)            (None, 210)          0           tokenEmb[2][0]                   
__________________________________________________________________________________________________
flatten_86 (Flatten)            (None, 156)          0           affixeseEmb[2][0]                
__________________________________________________________________________________________________
flatten_87 (Flatten)            (None, 6)            0           capitalizationEmb[2][0]          
__________________________________________________________________________________________________
flatten_88 (Flatten)            (None, 210)          0           tokenEmb[3][0]                   
__________________________________________________________________________________________________
flatten_89 (Flatten)            (None, 156)          0           affixeseEmb[3][0]                
__________________________________________________________________________________________________
flatten_90 (Flatten)            (None, 6)            0           capitalizationEmb[3][0]          
__________________________________________________________________________________________________
flatten_91 (Flatten)            (None, 210)          0           tokenEmb[4][0]                   
__________________________________________________________________________________________________
flatten_92 (Flatten)            (None, 156)          0           affixeseEmb[4][0]                
__________________________________________________________________________________________________
flatten_93 (Flatten)            (None, 6)            0           capitalizationEmb[4][0]          
__________________________________________________________________________________________________
concatenate_28 (Concatenate)    (None, 372)          0           flatten_82[0][0]                 
                                                                 flatten_83[0][0]                 
                                                                 flatten_84[0][0]                 
__________________________________________________________________________________________________
concatenate_29 (Concatenate)    (None, 372)          0           flatten_85[0][0]                 
                                                                 flatten_86[0][0]                 
                                                                 flatten_87[0][0]                 
__________________________________________________________________________________________________
concatenate_30 (Concatenate)    (None, 372)          0           flatten_88[0][0]                 
                                                                 flatten_89[0][0]                 
                                                                 flatten_90[0][0]                 
__________________________________________________________________________________________________
concatenate_31 (Concatenate)    (None, 372)          0           flatten_91[0][0]                 
                                                                 flatten_92[0][0]                 
                                                                 flatten_93[0][0]                 
__________________________________________________________________________________________________
posDense (Dense)                (None, 125)          46625       concatenate_28[0][0]             
                                                                 concatenate_29[0][0]             
                                                                 concatenate_30[0][0]             
                                                                 concatenate_31[0][0]             
__________________________________________________________________________________________________
concatenate_32 (Concatenate)    (None, 500)          0           posDense[1][0]                   
                                                                 posDense[2][0]                   
                                                                 posDense[3][0]                   
                                                                 posDense[4][0]                   
__________________________________________________________________________________________________
idenDense (Dense)               (None, 117)          58617       concatenate_32[0][0]             
__________________________________________________________________________________________________
idenSoftMax (Dense)             (None, 4)            472         idenDense[0][0]                  
==================================================================================================
Total params: 464,280
Trainable params: 464,280
Non-trainable params: 0
__________________________________________________________________________________________________
None
==================================================================================================
…
	One occurrence keys in vocabulary 2182 / 11438

__________________________________________________________________________________________________
	Optimizer : Adagrad,  learning rate = 0.07
__________________________________________________________________________________________________
__________________________________________________________________________________________________
Layer (type)                    Output Shape         Param #     Connected to                     
==================================================================================================
tokens (InputLayer)             (None, 7)            0                                            
__________________________________________________________________________________________________
affixes (InputLayer)            (None, 12)           0                                            
__________________________________________________________________________________________________
symbol (InputLayer)             (None, 1)            0                                            
__________________________________________________________________________________________________
tokenEmb (Embedding)            (None, 7, 46)        526148      tokens[0][0]                     
__________________________________________________________________________________________________
affixeseEmb (Embedding)         (None, 12, 23)       27278       affixes[0][0]                    
__________________________________________________________________________________________________
symbolsEmb (Embedding)          (None, 1, 14)        280         symbol[0][0]                     
__________________________________________________________________________________________________
flatten_94 (Flatten)            (None, 322)          0           tokenEmb[0][0]                   
__________________________________________________________________________________________________
flatten_95 (Flatten)            (None, 276)          0           affixeseEmb[0][0]                
__________________________________________________________________________________________________
flatten_96 (Flatten)            (None, 14)           0           symbolsEmb[0][0]                 
__________________________________________________________________________________________________
concatenate_33 (Concatenate)    (None, 612)          0           flatten_94[0][0]                 
                                                                 flatten_95[0][0]                 
                                                                 flatten_96[0][0]                 
__________________________________________________________________________________________________
posDense (Dense)                (None, 117)          71721       concatenate_33[0][0]             
__________________________________________________________________________________________________
dense_6 (Dense)                 (None, 152)          17936       posDense[0][0]                   
==================================================================================================
Total params: 643,363
Trainable params: 643,363
Non-trainable params: 0
__________________________________________________________________________________________________
None
==================================================================================================

__________________________________________________________________________________________________
	Optimizer : Adagrad,  learning rate = 0.07
__________________________________________________________________________________________________
__________________________________________________________________________________________________
Layer (type)                    Output Shape         Param #     Connected to                     
==================================================================================================
bxTokens (InputLayer)           (None, 7)            0                                            
__________________________________________________________________________________________________
bxAffixes (InputLayer)          (None, 12)           0                                            
__________________________________________________________________________________________________
bxSymbols (InputLayer)          (None, 1)            0                                            
__________________________________________________________________________________________________
b1Tokens (InputLayer)           (None, 7)            0                                            
__________________________________________________________________________________________________
b1Affixes (InputLayer)          (None, 12)           0                                            
__________________________________________________________________________________________________
b1Symbols (InputLayer)          (None, 1)            0                                            
__________________________________________________________________________________________________
b0Tokens (InputLayer)           (None, 7)            0                                            
__________________________________________________________________________________________________
b0Affixes (InputLayer)          (None, 12)           0                                            
__________________________________________________________________________________________________
b0Symbols (InputLayer)          (None, 1)            0                                            
__________________________________________________________________________________________________
s0Tokens (InputLayer)           (None, 7)            0                                            
__________________________________________________________________________________________________
s0Affixes (InputLayer)          (None, 12)           0                                            
__________________________________________________________________________________________________
s0Symbols (InputLayer)          (None, 1)            0                                            
__________________________________________________________________________________________________
s1Tokens (InputLayer)           (None, 7)            0                                            
__________________________________________________________________________________________________
s1Affixes (InputLayer)          (None, 12)           0                                            
__________________________________________________________________________________________________
s1Symbols (InputLayer)          (None, 1)            0                                            
__________________________________________________________________________________________________
tokenEmb (Embedding)            (None, 7, 46)        526148      bxTokens[0][0]                   
                                                                 b1Tokens[0][0]                   
                                                                 b0Tokens[0][0]                   
                                                                 s0Tokens[0][0]                   
                                                                 s1Tokens[0][0]                   
__________________________________________________________________________________________________
affixeseEmb (Embedding)         (None, 12, 23)       27278       bxAffixes[0][0]                  
                                                                 b1Affixes[0][0]                  
                                                                 b0Affixes[0][0]                  
                                                                 s0Affixes[0][0]                  
                                                                 s1Affixes[0][0]                  
__________________________________________________________________________________________________
symbolsEmb (Embedding)          (None, 1, 14)        280         bxSymbols[0][0]                  
                                                                 b1Symbols[0][0]                  
                                                                 b0Symbols[0][0]                  
                                                                 s0Symbols[0][0]                  
                                                                 s1Symbols[0][0]                  
__________________________________________________________________________________________________
flatten_97 (Flatten)            (None, 322)          0           tokenEmb[1][0]                   
__________________________________________________________________________________________________
flatten_98 (Flatten)            (None, 276)          0           affixeseEmb[1][0]                
__________________________________________________________________________________________________
flatten_99 (Flatten)            (None, 14)           0           symbolsEmb[1][0]                 
__________________________________________________________________________________________________
flatten_100 (Flatten)           (None, 322)          0           tokenEmb[2][0]                   
__________________________________________________________________________________________________
flatten_101 (Flatten)           (None, 276)          0           affixeseEmb[2][0]                
__________________________________________________________________________________________________
flatten_102 (Flatten)           (None, 14)           0           symbolsEmb[2][0]                 
__________________________________________________________________________________________________
flatten_103 (Flatten)           (None, 322)          0           tokenEmb[3][0]                   
__________________________________________________________________________________________________
flatten_104 (Flatten)           (None, 276)          0           affixeseEmb[3][0]                
__________________________________________________________________________________________________
flatten_105 (Flatten)           (None, 14)           0           symbolsEmb[3][0]                 
__________________________________________________________________________________________________
flatten_106 (Flatten)           (None, 322)          0           tokenEmb[4][0]                   
__________________________________________________________________________________________________
flatten_107 (Flatten)           (None, 276)          0           affixeseEmb[4][0]                
__________________________________________________________________________________________________
flatten_108 (Flatten)           (None, 14)           0           symbolsEmb[4][0]                 
__________________________________________________________________________________________________
flatten_109 (Flatten)           (None, 322)          0           tokenEmb[5][0]                   
__________________________________________________________________________________________________
flatten_110 (Flatten)           (None, 276)          0           affixeseEmb[5][0]                
__________________________________________________________________________________________________
flatten_111 (Flatten)           (None, 14)           0           symbolsEmb[5][0]                 
__________________________________________________________________________________________________
concatenate_34 (Concatenate)    (None, 612)          0           flatten_97[0][0]                 
                                                                 flatten_98[0][0]                 
                                                                 flatten_99[0][0]                 
__________________________________________________________________________________________________
concatenate_35 (Concatenate)    (None, 612)          0           flatten_100[0][0]                
                                                                 flatten_101[0][0]                
                                                                 flatten_102[0][0]                
__________________________________________________________________________________________________
concatenate_36 (Concatenate)    (None, 612)          0           flatten_103[0][0]                
                                                                 flatten_104[0][0]                
                                                                 flatten_105[0][0]                
__________________________________________________________________________________________________
concatenate_37 (Concatenate)    (None, 612)          0           flatten_106[0][0]                
                                                                 flatten_107[0][0]                
                                                                 flatten_108[0][0]                
__________________________________________________________________________________________________
concatenate_38 (Concatenate)    (None, 612)          0           flatten_109[0][0]                
                                                                 flatten_110[0][0]                
                                                                 flatten_111[0][0]                
__________________________________________________________________________________________________
posDense (Dense)                (None, 117)          71721       concatenate_34[0][0]             
                                                                 concatenate_35[0][0]             
                                                                 concatenate_36[0][0]             
                                                                 concatenate_37[0][0]             
                                                                 concatenate_38[0][0]             
__________________________________________________________________________________________________
concatenate_39 (Concatenate)    (None, 585)          0           posDense[1][0]                   
                                                                 posDense[2][0]                   
                                                                 posDense[3][0]                   
                                                                 posDense[4][0]                   
                                                                 posDense[5][0]                   
__________________________________________________________________________________________________
idenDense (Dense)               (None, 31)           18166       concatenate_39[0][0]             
__________________________________________________________________________________________________
idenSoftMax (Dense)             (None, 4)            128         idenDense[0][0]                  
==================================================================================================
Total params: 643,721
Trainable params: 643,721
Non-trainable params: 0
__________________________________________________________________________________________________
None
==================================================================================================
…
	One occurrence keys in vocabulary 1622 / 7545

__________________________________________________________________________________________________
	Optimizer : Adagrad,  learning rate = 0.086
__________________________________________________________________________________________________
__________________________________________________________________________________________________
Layer (type)                    Output Shape         Param #     Connected to                     
==================================================================================================
tokens (InputLayer)             (None, 7)            0                                            
__________________________________________________________________________________________________
affixes (InputLayer)            (None, 12)           0                                            
__________________________________________________________________________________________________
capitalization (InputLayer)     (None, 3)            0                                            
__________________________________________________________________________________________________
symbol (InputLayer)             (None, 1)            0                                            
__________________________________________________________________________________________________
tokenEmb (Embedding)            (None, 7, 167)       1260015     tokens[0][0]                     
__________________________________________________________________________________________________
affixeseEmb (Embedding)         (None, 12, 6)        7116        affixes[0][0]                    
__________________________________________________________________________________________________
capitalizationEmb (Embedding)   (None, 3, 1)         4           capitalization[0][0]             
__________________________________________________________________________________________________
symbolsEmb (Embedding)          (None, 1, 10)        200         symbol[0][0]                     
__________________________________________________________________________________________________
flatten_112 (Flatten)           (None, 1169)         0           tokenEmb[0][0]                   
__________________________________________________________________________________________________
flatten_113 (Flatten)           (None, 72)           0           affixeseEmb[0][0]                
__________________________________________________________________________________________________
flatten_114 (Flatten)           (None, 3)            0           capitalizationEmb[0][0]          
__________________________________________________________________________________________________
flatten_115 (Flatten)           (None, 10)           0           symbolsEmb[0][0]                 
__________________________________________________________________________________________________
concatenate_40 (Concatenate)    (None, 1254)         0           flatten_112[0][0]                
                                                                 flatten_113[0][0]                
                                                                 flatten_114[0][0]                
                                                                 flatten_115[0][0]                
__________________________________________________________________________________________________
posDense (Dense)                (None, 108)          135540      concatenate_40[0][0]             
__________________________________________________________________________________________________
dense_7 (Dense)                 (None, 152)          16568       posDense[0][0]                   
==================================================================================================
Total params: 1,419,443
Trainable params: 1,419,443
Non-trainable params: 0
__________________________________________________________________________________________________
None
==================================================================================================

__________________________________________________________________________________________________
	Optimizer : Adagrad,  learning rate = 0.086
__________________________________________________________________________________________________
__________________________________________________________________________________________________
Layer (type)                    Output Shape         Param #     Connected to                     
==================================================================================================
bxTokens (InputLayer)           (None, 7)            0                                            
__________________________________________________________________________________________________
bxAffixes (InputLayer)          (None, 12)           0                                            
__________________________________________________________________________________________________
bxCapitalization (InputLayer)   (None, 3)            0                                            
__________________________________________________________________________________________________
bxSymbols (InputLayer)          (None, 1)            0                                            
__________________________________________________________________________________________________
b1Tokens (InputLayer)           (None, 7)            0                                            
__________________________________________________________________________________________________
b1Affixes (InputLayer)          (None, 12)           0                                            
__________________________________________________________________________________________________
b1Capitalization (InputLayer)   (None, 3)            0                                            
__________________________________________________________________________________________________
b1Symbols (InputLayer)          (None, 1)            0                                            
__________________________________________________________________________________________________
b0Tokens (InputLayer)           (None, 7)            0                                            
__________________________________________________________________________________________________
b0Affixes (InputLayer)          (None, 12)           0                                            
__________________________________________________________________________________________________
b0Capitalization (InputLayer)   (None, 3)            0                                            
__________________________________________________________________________________________________
b0Symbols (InputLayer)          (None, 1)            0                                            
__________________________________________________________________________________________________
s0Tokens (InputLayer)           (None, 7)            0                                            
__________________________________________________________________________________________________
s0Affixes (InputLayer)          (None, 12)           0                                            
__________________________________________________________________________________________________
s0Capitalization (InputLayer)   (None, 3)            0                                            
__________________________________________________________________________________________________
s0Symbols (InputLayer)          (None, 1)            0                                            
__________________________________________________________________________________________________
s1Tokens (InputLayer)           (None, 7)            0                                            
__________________________________________________________________________________________________
s1Affixes (InputLayer)          (None, 12)           0                                            
__________________________________________________________________________________________________
s1Capitalization (InputLayer)   (None, 3)            0                                            
__________________________________________________________________________________________________
s1Symbols (InputLayer)          (None, 1)            0                                            
__________________________________________________________________________________________________
tokenEmb (Embedding)            (None, 7, 167)       1260015     bxTokens[0][0]                   
                                                                 b1Tokens[0][0]                   
                                                                 b0Tokens[0][0]                   
                                                                 s0Tokens[0][0]                   
                                                                 s1Tokens[0][0]                   
__________________________________________________________________________________________________
affixeseEmb (Embedding)         (None, 12, 6)        7116        bxAffixes[0][0]                  
                                                                 b1Affixes[0][0]                  
                                                                 b0Affixes[0][0]                  
                                                                 s0Affixes[0][0]                  
                                                                 s1Affixes[0][0]                  
__________________________________________________________________________________________________
capitalizationEmb (Embedding)   (None, 3, 1)         4           bxCapitalization[0][0]           
                                                                 b1Capitalization[0][0]           
                                                                 b0Capitalization[0][0]           
                                                                 s0Capitalization[0][0]           
                                                                 s1Capitalization[0][0]           
__________________________________________________________________________________________________
symbolsEmb (Embedding)          (None, 1, 10)        200         bxSymbols[0][0]                  
                                                                 b1Symbols[0][0]                  
                                                                 b0Symbols[0][0]                  
                                                                 s0Symbols[0][0]                  
                                                                 s1Symbols[0][0]                  
__________________________________________________________________________________________________
flatten_116 (Flatten)           (None, 1169)         0           tokenEmb[1][0]                   
__________________________________________________________________________________________________
flatten_117 (Flatten)           (None, 72)           0           affixeseEmb[1][0]                
__________________________________________________________________________________________________
flatten_118 (Flatten)           (None, 3)            0           capitalizationEmb[1][0]          
__________________________________________________________________________________________________
flatten_119 (Flatten)           (None, 10)           0           symbolsEmb[1][0]                 
__________________________________________________________________________________________________
flatten_120 (Flatten)           (None, 1169)         0           tokenEmb[2][0]                   
__________________________________________________________________________________________________
flatten_121 (Flatten)           (None, 72)           0           affixeseEmb[2][0]                
__________________________________________________________________________________________________
flatten_122 (Flatten)           (None, 3)            0           capitalizationEmb[2][0]          
__________________________________________________________________________________________________
flatten_123 (Flatten)           (None, 10)           0           symbolsEmb[2][0]                 
__________________________________________________________________________________________________
flatten_124 (Flatten)           (None, 1169)         0           tokenEmb[3][0]                   
__________________________________________________________________________________________________
flatten_125 (Flatten)           (None, 72)           0           affixeseEmb[3][0]                
__________________________________________________________________________________________________
flatten_126 (Flatten)           (None, 3)            0           capitalizationEmb[3][0]          
__________________________________________________________________________________________________
flatten_127 (Flatten)           (None, 10)           0           symbolsEmb[3][0]                 
__________________________________________________________________________________________________
flatten_128 (Flatten)           (None, 1169)         0           tokenEmb[4][0]                   
__________________________________________________________________________________________________
flatten_129 (Flatten)           (None, 72)           0           affixeseEmb[4][0]                
__________________________________________________________________________________________________
flatten_130 (Flatten)           (None, 3)            0           capitalizationEmb[4][0]          
__________________________________________________________________________________________________
flatten_131 (Flatten)           (None, 10)           0           symbolsEmb[4][0]                 
__________________________________________________________________________________________________
flatten_132 (Flatten)           (None, 1169)         0           tokenEmb[5][0]                   
__________________________________________________________________________________________________
flatten_133 (Flatten)           (None, 72)           0           affixeseEmb[5][0]                
__________________________________________________________________________________________________
flatten_134 (Flatten)           (None, 3)            0           capitalizationEmb[5][0]          
__________________________________________________________________________________________________
flatten_135 (Flatten)           (None, 10)           0           symbolsEmb[5][0]                 
__________________________________________________________________________________________________
concatenate_41 (Concatenate)    (None, 1254)         0           flatten_116[0][0]                
                                                                 flatten_117[0][0]                
                                                                 flatten_118[0][0]                
                                                                 flatten_119[0][0]                
__________________________________________________________________________________________________
concatenate_42 (Concatenate)    (None, 1254)         0           flatten_120[0][0]                
                                                                 flatten_121[0][0]                
                                                                 flatten_122[0][0]                
                                                                 flatten_123[0][0]                
__________________________________________________________________________________________________
concatenate_43 (Concatenate)    (None, 1254)         0           flatten_124[0][0]                
                                                                 flatten_125[0][0]                
                                                                 flatten_126[0][0]                
                                                                 flatten_127[0][0]                
__________________________________________________________________________________________________
concatenate_44 (Concatenate)    (None, 1254)         0           flatten_128[0][0]                
                                                                 flatten_129[0][0]                
                                                                 flatten_130[0][0]                
                                                                 flatten_131[0][0]                
__________________________________________________________________________________________________
concatenate_45 (Concatenate)    (None, 1254)         0           flatten_132[0][0]                
                                                                 flatten_133[0][0]                
                                                                 flatten_134[0][0]                
                                                                 flatten_135[0][0]                
__________________________________________________________________________________________________
posDense (Dense)                (None, 108)          135540      concatenate_41[0][0]             
                                                                 concatenate_42[0][0]             
                                                                 concatenate_43[0][0]             
                                                                 concatenate_44[0][0]             
                                                                 concatenate_45[0][0]             
__________________________________________________________________________________________________
concatenate_46 (Concatenate)    (None, 540)          0           posDense[1][0]                   
                                                                 posDense[2][0]                   
                                                                 posDense[3][0]                   
                                                                 posDense[4][0]                   
                                                                 posDense[5][0]                   
__________________________________________________________________________________________________
idenDense (Dense)               (None, 55)           29755       concatenate_46[0][0]             
__________________________________________________________________________________________________
idenSoftMax (Dense)             (None, 4)            224         idenDense[0][0]                  
==================================================================================================
Total params: 1,432,854
Trainable params: 1,432,854
Non-trainable params: 0
__________________________________________________________________________________________________
None
==================================================================================================
…
	One occurrence keys in vocabulary 1622 / 7545

__________________________________________________________________________________________________
	Optimizer : Adagrad,  learning rate = 0.05
__________________________________________________________________________________________________
__________________________________________________________________________________________________
Layer (type)                    Output Shape         Param #     Connected to                     
==================================================================================================
tokens (InputLayer)             (None, 7)            0                                            
__________________________________________________________________________________________________
affixes (InputLayer)            (None, 12)           0                                            
__________________________________________________________________________________________________
capitalization (InputLayer)     (None, 3)            0                                            
__________________________________________________________________________________________________
tokenEmb (Embedding)            (None, 7, 106)       799770      tokens[0][0]                     
__________________________________________________________________________________________________
affixeseEmb (Embedding)         (None, 12, 9)        10674       affixes[0][0]                    
__________________________________________________________________________________________________
capitalizationEmb (Embedding)   (None, 3, 1)         4           capitalization[0][0]             
__________________________________________________________________________________________________
flatten_136 (Flatten)           (None, 742)          0           tokenEmb[0][0]                   
__________________________________________________________________________________________________
flatten_137 (Flatten)           (None, 108)          0           affixeseEmb[0][0]                
__________________________________________________________________________________________________
flatten_138 (Flatten)           (None, 3)            0           capitalizationEmb[0][0]          
__________________________________________________________________________________________________
concatenate_47 (Concatenate)    (None, 853)          0           flatten_136[0][0]                
                                                                 flatten_137[0][0]                
                                                                 flatten_138[0][0]                
__________________________________________________________________________________________________
posDense (Dense)                (None, 140)          119560      concatenate_47[0][0]             
__________________________________________________________________________________________________
dense_8 (Dense)                 (None, 152)          21432       posDense[0][0]                   
==================================================================================================
Total params: 951,440
Trainable params: 951,440
Non-trainable params: 0
__________________________________________________________________________________________________
None
==================================================================================================

__________________________________________________________________________________________________
	Optimizer : Adagrad,  learning rate = 0.05
__________________________________________________________________________________________________
__________________________________________________________________________________________________
Layer (type)                    Output Shape         Param #     Connected to                     
==================================================================================================
bxTokens (InputLayer)           (None, 7)            0                                            
__________________________________________________________________________________________________
bxAffixes (InputLayer)          (None, 12)           0                                            
__________________________________________________________________________________________________
bxCapitalization (InputLayer)   (None, 3)            0                                            
__________________________________________________________________________________________________
b1Tokens (InputLayer)           (None, 7)            0                                            
__________________________________________________________________________________________________
b1Affixes (InputLayer)          (None, 12)           0                                            
__________________________________________________________________________________________________
b1Capitalization (InputLayer)   (None, 3)            0                                            
__________________________________________________________________________________________________
b0Tokens (InputLayer)           (None, 7)            0                                            
__________________________________________________________________________________________________
b0Affixes (InputLayer)          (None, 12)           0                                            
__________________________________________________________________________________________________
b0Capitalization (InputLayer)   (None, 3)            0                                            
__________________________________________________________________________________________________
s0Tokens (InputLayer)           (None, 7)            0                                            
__________________________________________________________________________________________________
s0Affixes (InputLayer)          (None, 12)           0                                            
__________________________________________________________________________________________________
s0Capitalization (InputLayer)   (None, 3)            0                                            
__________________________________________________________________________________________________
s1Tokens (InputLayer)           (None, 7)            0                                            
__________________________________________________________________________________________________
s1Affixes (InputLayer)          (None, 12)           0                                            
__________________________________________________________________________________________________
s1Capitalization (InputLayer)   (None, 3)            0                                            
__________________________________________________________________________________________________
tokenEmb (Embedding)            (None, 7, 106)       799770      bxTokens[0][0]                   
                                                                 b1Tokens[0][0]                   
                                                                 b0Tokens[0][0]                   
                                                                 s0Tokens[0][0]                   
                                                                 s1Tokens[0][0]                   
__________________________________________________________________________________________________
affixeseEmb (Embedding)         (None, 12, 9)        10674       bxAffixes[0][0]                  
                                                                 b1Affixes[0][0]                  
                                                                 b0Affixes[0][0]                  
                                                                 s0Affixes[0][0]                  
                                                                 s1Affixes[0][0]                  
__________________________________________________________________________________________________
capitalizationEmb (Embedding)   (None, 3, 1)         4           bxCapitalization[0][0]           
                                                                 b1Capitalization[0][0]           
                                                                 b0Capitalization[0][0]           
                                                                 s0Capitalization[0][0]           
                                                                 s1Capitalization[0][0]           
__________________________________________________________________________________________________
flatten_139 (Flatten)           (None, 742)          0           tokenEmb[1][0]                   
__________________________________________________________________________________________________
flatten_140 (Flatten)           (None, 108)          0           affixeseEmb[1][0]                
__________________________________________________________________________________________________
flatten_141 (Flatten)           (None, 3)            0           capitalizationEmb[1][0]          
__________________________________________________________________________________________________
flatten_142 (Flatten)           (None, 742)          0           tokenEmb[2][0]                   
__________________________________________________________________________________________________
flatten_143 (Flatten)           (None, 108)          0           affixeseEmb[2][0]                
__________________________________________________________________________________________________
flatten_144 (Flatten)           (None, 3)            0           capitalizationEmb[2][0]          
__________________________________________________________________________________________________
flatten_145 (Flatten)           (None, 742)          0           tokenEmb[3][0]                   
__________________________________________________________________________________________________
flatten_146 (Flatten)           (None, 108)          0           affixeseEmb[3][0]                
__________________________________________________________________________________________________
flatten_147 (Flatten)           (None, 3)            0           capitalizationEmb[3][0]          
__________________________________________________________________________________________________
flatten_148 (Flatten)           (None, 742)          0           tokenEmb[4][0]                   
__________________________________________________________________________________________________
flatten_149 (Flatten)           (None, 108)          0           affixeseEmb[4][0]                
__________________________________________________________________________________________________
flatten_150 (Flatten)           (None, 3)            0           capitalizationEmb[4][0]          
__________________________________________________________________________________________________
flatten_151 (Flatten)           (None, 742)          0           tokenEmb[5][0]                   
__________________________________________________________________________________________________
flatten_152 (Flatten)           (None, 108)          0           affixeseEmb[5][0]                
__________________________________________________________________________________________________
flatten_153 (Flatten)           (None, 3)            0           capitalizationEmb[5][0]          
__________________________________________________________________________________________________
concatenate_48 (Concatenate)    (None, 853)          0           flatten_139[0][0]                
                                                                 flatten_140[0][0]                
                                                                 flatten_141[0][0]                
__________________________________________________________________________________________________
concatenate_49 (Concatenate)    (None, 853)          0           flatten_142[0][0]                
                                                                 flatten_143[0][0]                
                                                                 flatten_144[0][0]                
__________________________________________________________________________________________________
concatenate_50 (Concatenate)    (None, 853)          0           flatten_145[0][0]                
                                                                 flatten_146[0][0]                
                                                                 flatten_147[0][0]                
__________________________________________________________________________________________________
concatenate_51 (Concatenate)    (None, 853)          0           flatten_148[0][0]                
                                                                 flatten_149[0][0]                
                                                                 flatten_150[0][0]                
__________________________________________________________________________________________________
concatenate_52 (Concatenate)    (None, 853)          0           flatten_151[0][0]                
                                                                 flatten_152[0][0]                
                                                                 flatten_153[0][0]                
__________________________________________________________________________________________________
posDense (Dense)                (None, 140)          119560      concatenate_48[0][0]             
                                                                 concatenate_49[0][0]             
                                                                 concatenate_50[0][0]             
                                                                 concatenate_51[0][0]             
                                                                 concatenate_52[0][0]             
__________________________________________________________________________________________________
concatenate_53 (Concatenate)    (None, 700)          0           posDense[1][0]                   
                                                                 posDense[2][0]                   
                                                                 posDense[3][0]                   
                                                                 posDense[4][0]                   
                                                                 posDense[5][0]                   
__________________________________________________________________________________________________
idenDense (Dense)               (None, 25)           17525       concatenate_53[0][0]             
__________________________________________________________________________________________________
idenSoftMax (Dense)             (None, 4)            104         idenDense[0][0]                  
==================================================================================================
Total params: 947,637
Trainable params: 947,637
Non-trainable params: 0
__________________________________________________________________________________________________
None
==================================================================================================
…
	One occurrence keys in vocabulary 1622 / 7545

__________________________________________________________________________________________________
	Optimizer : Adagrad,  learning rate = 0.043
__________________________________________________________________________________________________
__________________________________________________________________________________________________
Layer (type)                    Output Shape         Param #     Connected to                     
==================================================================================================
tokens (InputLayer)             (None, 7)            0                                            
__________________________________________________________________________________________________
affixes (InputLayer)            (None, 12)           0                                            
__________________________________________________________________________________________________
symbol (InputLayer)             (None, 1)            0                                            
__________________________________________________________________________________________________
tokenEmb (Embedding)            (None, 7, 112)       845040      tokens[0][0]                     
__________________________________________________________________________________________________
affixeseEmb (Embedding)         (None, 12, 22)       26092       affixes[0][0]                    
__________________________________________________________________________________________________
symbolsEmb (Embedding)          (None, 1, 7)         140         symbol[0][0]                     
__________________________________________________________________________________________________
flatten_154 (Flatten)           (None, 784)          0           tokenEmb[0][0]                   
__________________________________________________________________________________________________
flatten_155 (Flatten)           (None, 264)          0           affixeseEmb[0][0]                
__________________________________________________________________________________________________
flatten_156 (Flatten)           (None, 7)            0           symbolsEmb[0][0]                 
__________________________________________________________________________________________________
concatenate_54 (Concatenate)    (None, 1055)         0           flatten_154[0][0]                
                                                                 flatten_155[0][0]                
                                                                 flatten_156[0][0]                
__________________________________________________________________________________________________
posDense (Dense)                (None, 163)          172128      concatenate_54[0][0]             
__________________________________________________________________________________________________
dense_9 (Dense)                 (None, 152)          24928       posDense[0][0]                   
==================================================================================================
Total params: 1,068,328
Trainable params: 1,068,328
Non-trainable params: 0
__________________________________________________________________________________________________
None
==================================================================================================

__________________________________________________________________________________________________
	Optimizer : Adagrad,  learning rate = 0.043
__________________________________________________________________________________________________
__________________________________________________________________________________________________
Layer (type)                    Output Shape         Param #     Connected to                     
==================================================================================================
bxTokens (InputLayer)           (None, 7)            0                                            
__________________________________________________________________________________________________
bxAffixes (InputLayer)          (None, 12)           0                                            
__________________________________________________________________________________________________
bxSymbols (InputLayer)          (None, 1)            0                                            
__________________________________________________________________________________________________
b1Tokens (InputLayer)           (None, 7)            0                                            
__________________________________________________________________________________________________
b1Affixes (InputLayer)          (None, 12)           0                                            
__________________________________________________________________________________________________
b1Symbols (InputLayer)          (None, 1)            0                                            
__________________________________________________________________________________________________
b0Tokens (InputLayer)           (None, 7)            0                                            
__________________________________________________________________________________________________
b0Affixes (InputLayer)          (None, 12)           0                                            
__________________________________________________________________________________________________
b0Symbols (InputLayer)          (None, 1)            0                                            
__________________________________________________________________________________________________
s0Tokens (InputLayer)           (None, 7)            0                                            
__________________________________________________________________________________________________
s0Affixes (InputLayer)          (None, 12)           0                                            
__________________________________________________________________________________________________
s0Symbols (InputLayer)          (None, 1)            0                                            
__________________________________________________________________________________________________
s1Tokens (InputLayer)           (None, 7)            0                                            
__________________________________________________________________________________________________
s1Affixes (InputLayer)          (None, 12)           0                                            
__________________________________________________________________________________________________
s1Symbols (InputLayer)          (None, 1)            0                                            
__________________________________________________________________________________________________
tokenEmb (Embedding)            (None, 7, 112)       845040      bxTokens[0][0]                   
                                                                 b1Tokens[0][0]                   
                                                                 b0Tokens[0][0]                   
                                                                 s0Tokens[0][0]                   
                                                                 s1Tokens[0][0]                   
__________________________________________________________________________________________________
affixeseEmb (Embedding)         (None, 12, 22)       26092       bxAffixes[0][0]                  
                                                                 b1Affixes[0][0]                  
                                                                 b0Affixes[0][0]                  
                                                                 s0Affixes[0][0]                  
                                                                 s1Affixes[0][0]                  
__________________________________________________________________________________________________
symbolsEmb (Embedding)          (None, 1, 7)         140         bxSymbols[0][0]                  
                                                                 b1Symbols[0][0]                  
                                                                 b0Symbols[0][0]                  
                                                                 s0Symbols[0][0]                  
                                                                 s1Symbols[0][0]                  
__________________________________________________________________________________________________
flatten_157 (Flatten)           (None, 784)          0           tokenEmb[1][0]                   
__________________________________________________________________________________________________
flatten_158 (Flatten)           (None, 264)          0           affixeseEmb[1][0]                
__________________________________________________________________________________________________
flatten_159 (Flatten)           (None, 7)            0           symbolsEmb[1][0]                 
__________________________________________________________________________________________________
flatten_160 (Flatten)           (None, 784)          0           tokenEmb[2][0]                   
__________________________________________________________________________________________________
flatten_161 (Flatten)           (None, 264)          0           affixeseEmb[2][0]                
__________________________________________________________________________________________________
flatten_162 (Flatten)           (None, 7)            0           symbolsEmb[2][0]                 
__________________________________________________________________________________________________
flatten_163 (Flatten)           (None, 784)          0           tokenEmb[3][0]                   
__________________________________________________________________________________________________
flatten_164 (Flatten)           (None, 264)          0           affixeseEmb[3][0]                
__________________________________________________________________________________________________
flatten_165 (Flatten)           (None, 7)            0           symbolsEmb[3][0]                 
__________________________________________________________________________________________________
flatten_166 (Flatten)           (None, 784)          0           tokenEmb[4][0]                   
__________________________________________________________________________________________________
flatten_167 (Flatten)           (None, 264)          0           affixeseEmb[4][0]                
__________________________________________________________________________________________________
flatten_168 (Flatten)           (None, 7)            0           symbolsEmb[4][0]                 
__________________________________________________________________________________________________
flatten_169 (Flatten)           (None, 784)          0           tokenEmb[5][0]                   
__________________________________________________________________________________________________
flatten_170 (Flatten)           (None, 264)          0           affixeseEmb[5][0]                
__________________________________________________________________________________________________
flatten_171 (Flatten)           (None, 7)            0           symbolsEmb[5][0]                 
__________________________________________________________________________________________________
concatenate_55 (Concatenate)    (None, 1055)         0           flatten_157[0][0]                
                                                                 flatten_158[0][0]                
                                                                 flatten_159[0][0]                
__________________________________________________________________________________________________
concatenate_56 (Concatenate)    (None, 1055)         0           flatten_160[0][0]                
                                                                 flatten_161[0][0]                
                                                                 flatten_162[0][0]                
__________________________________________________________________________________________________
concatenate_57 (Concatenate)    (None, 1055)         0           flatten_163[0][0]                
                                                                 flatten_164[0][0]                
                                                                 flatten_165[0][0]                
__________________________________________________________________________________________________
concatenate_58 (Concatenate)    (None, 1055)         0           flatten_166[0][0]                
                                                                 flatten_167[0][0]                
                                                                 flatten_168[0][0]                
__________________________________________________________________________________________________
concatenate_59 (Concatenate)    (None, 1055)         0           flatten_169[0][0]                
                                                                 flatten_170[0][0]                
                                                                 flatten_171[0][0]                
__________________________________________________________________________________________________
posDense (Dense)                (None, 163)          172128      concatenate_55[0][0]             
                                                                 concatenate_56[0][0]             
                                                                 concatenate_57[0][0]             
                                                                 concatenate_58[0][0]             
                                                                 concatenate_59[0][0]             
__________________________________________________________________________________________________
concatenate_60 (Concatenate)    (None, 815)          0           posDense[1][0]                   
                                                                 posDense[2][0]                   
                                                                 posDense[3][0]                   
                                                                 posDense[4][0]                   
                                                                 posDense[5][0]                   
__________________________________________________________________________________________________
idenDense (Dense)               (None, 26)           21216       concatenate_60[0][0]             
__________________________________________________________________________________________________
idenSoftMax (Dense)             (None, 4)            108         idenDense[0][0]                  
==================================================================================================
Total params: 1,064,724
Trainable params: 1,064,724
Non-trainable params: 0
__________________________________________________________________________________________________
None
==================================================================================================
…
	One occurrence keys in vocabulary 1622 / 7545

__________________________________________________________________________________________________
	Optimizer : Adagrad,  learning rate = 0.044
__________________________________________________________________________________________________
__________________________________________________________________________________________________
Layer (type)                    Output Shape         Param #     Connected to                     
==================================================================================================
tokens (InputLayer)             (None, 7)            0                                            
__________________________________________________________________________________________________
affixes (InputLayer)            (None, 12)           0                                            
__________________________________________________________________________________________________
capitalization (InputLayer)     (None, 3)            0                                            
__________________________________________________________________________________________________
symbol (InputLayer)             (None, 1)            0                                            
__________________________________________________________________________________________________
tokenEmb (Embedding)            (None, 7, 129)       973305      tokens[0][0]                     
__________________________________________________________________________________________________
affixeseEmb (Embedding)         (None, 12, 24)       28464       affixes[0][0]                    
__________________________________________________________________________________________________
capitalizationEmb (Embedding)   (None, 3, 7)         28          capitalization[0][0]             
__________________________________________________________________________________________________
symbolsEmb (Embedding)          (None, 1, 5)         100         symbol[0][0]                     
__________________________________________________________________________________________________
flatten_172 (Flatten)           (None, 903)          0           tokenEmb[0][0]                   
__________________________________________________________________________________________________
flatten_173 (Flatten)           (None, 288)          0           affixeseEmb[0][0]                
__________________________________________________________________________________________________
flatten_174 (Flatten)           (None, 21)           0           capitalizationEmb[0][0]          
__________________________________________________________________________________________________
flatten_175 (Flatten)           (None, 5)            0           symbolsEmb[0][0]                 
__________________________________________________________________________________________________
concatenate_61 (Concatenate)    (None, 1217)         0           flatten_172[0][0]                
                                                                 flatten_173[0][0]                
                                                                 flatten_174[0][0]                
                                                                 flatten_175[0][0]                
__________________________________________________________________________________________________
posDense (Dense)                (None, 26)           31668       concatenate_61[0][0]             
__________________________________________________________________________________________________
dense_10 (Dense)                (None, 152)          4104        posDense[0][0]                   
==================================================================================================
Total params: 1,037,669
Trainable params: 1,037,669
Non-trainable params: 0
__________________________________________________________________________________________________
None
==================================================================================================

__________________________________________________________________________________________________
	Optimizer : Adagrad,  learning rate = 0.044
__________________________________________________________________________________________________
__________________________________________________________________________________________________
Layer (type)                    Output Shape         Param #     Connected to                     
==================================================================================================
bxTokens (InputLayer)           (None, 7)            0                                            
__________________________________________________________________________________________________
bxAffixes (InputLayer)          (None, 12)           0                                            
…
flatten_1559 (Flatten)          (None, 12)           0           capitalizationEmb[0][0]          
__________________________________________________________________________________________________
flatten_1560 (Flatten)          (None, 13)           0           symbolsEmb[0][0]                 
__________________________________________________________________________________________________
concatenate_542 (Concatenate)   (None, 513)          0           flatten_1557[0][0]               
                                                                 flatten_1558[0][0]               
                                                                 flatten_1559[0][0]               
                                                                 flatten_1560[0][0]               
__________________________________________________________________________________________________
posDense (Dense)                (None, 43)           22102       concatenate_542[0][0]            
__________________________________________________________________________________________________
dense_86 (Dense)                (None, 152)          6688        posDense[0][0]                   
==================================================================================================
Total params: 461,074
Trainable params: 461,074
Non-trainable params: 0
__________________________________________________________________________________________________
None
==================================================================================================

__________________________________________________________________________________________________
	Optimizer : Adagrad,  learning rate = 0.072
__________________________________________________________________________________________________
__________________________________________________________________________________________________
Layer (type)                    Output Shape         Param #     Connected to                     
==================================================================================================
bxTokens (InputLayer)           (None, 7)            0                                            
__________________________________________________________________________________________________
bxAffixes (InputLayer)          (None, 12)           0                                            
__________________________________________________________________________________________________
bxCapitalization (InputLayer)   (None, 3)            0                                            
__________________________________________________________________________________________________
bxSymbols (InputLayer)          (None, 1)            0                                            
__________________________________________________________________________________________________
b1Tokens (InputLayer)           (None, 7)            0                                            
__________________________________________________________________________________________________
b1Affixes (InputLayer)          (None, 12)           0                                            
__________________________________________________________________________________________________
b1Capitalization (InputLayer)   (None, 3)            0                                            
__________________________________________________________________________________________________
b1Symbols (InputLayer)          (None, 1)            0                                            
__________________________________________________________________________________________________
b0Tokens (InputLayer)           (None, 7)            0                                            
__________________________________________________________________________________________________
b0Affixes (InputLayer)          (None, 12)           0                                            
__________________________________________________________________________________________________
b0Capitalization (InputLayer)   (None, 3)            0                                            
__________________________________________________________________________________________________
b0Symbols (InputLayer)          (None, 1)            0                                            
__________________________________________________________________________________________________
s0Tokens (InputLayer)           (None, 7)            0                                            
__________________________________________________________________________________________________
s0Affixes (InputLayer)          (None, 12)           0                                            
__________________________________________________________________________________________________
s0Capitalization (InputLayer)   (None, 3)            0                                            
__________________________________________________________________________________________________
s0Symbols (InputLayer)          (None, 1)            0                                            
__________________________________________________________________________________________________
s1Tokens (InputLayer)           (None, 7)            0                                            
__________________________________________________________________________________________________
s1Affixes (InputLayer)          (None, 12)           0                                            
__________________________________________________________________________________________________
s1Capitalization (InputLayer)   (None, 3)            0                                            
__________________________________________________________________________________________________
s1Symbols (InputLayer)          (None, 1)            0                                            
__________________________________________________________________________________________________
tokenEmb (Embedding)            (None, 7, 56)        422520      bxTokens[0][0]                   
                                                                 b1Tokens[0][0]                   
                                                                 b0Tokens[0][0]                   
                                                                 s0Tokens[0][0]                   
                                                                 s1Tokens[0][0]                   
__________________________________________________________________________________________________
affixeseEmb (Embedding)         (None, 12, 8)        9488        bxAffixes[0][0]                  
                                                                 b1Affixes[0][0]                  
                                                                 b0Affixes[0][0]                  
                                                                 s0Affixes[0][0]                  
                                                                 s1Affixes[0][0]                  
__________________________________________________________________________________________________
capitalizationEmb (Embedding)   (None, 3, 4)         16          bxCapitalization[0][0]           
                                                                 b1Capitalization[0][0]           
                                                                 b0Capitalization[0][0]           
                                                                 s0Capitalization[0][0]           
                                                                 s1Capitalization[0][0]           
__________________________________________________________________________________________________
symbolsEmb (Embedding)          (None, 1, 13)        260         bxSymbols[0][0]                  
                                                                 b1Symbols[0][0]                  
                                                                 b0Symbols[0][0]                  
                                                                 s0Symbols[0][0]                  
                                                                 s1Symbols[0][0]                  
__________________________________________________________________________________________________
flatten_1561 (Flatten)          (None, 392)          0           tokenEmb[1][0]                   
__________________________________________________________________________________________________
flatten_1562 (Flatten)          (None, 96)           0           affixeseEmb[1][0]                
__________________________________________________________________________________________________
flatten_1563 (Flatten)          (None, 12)           0           capitalizationEmb[1][0]          
__________________________________________________________________________________________________
flatten_1564 (Flatten)          (None, 13)           0           symbolsEmb[1][0]                 
__________________________________________________________________________________________________
flatten_1565 (Flatten)          (None, 392)          0           tokenEmb[2][0]                   
__________________________________________________________________________________________________
flatten_1566 (Flatten)          (None, 96)           0           affixeseEmb[2][0]                
__________________________________________________________________________________________________
flatten_1567 (Flatten)          (None, 12)           0           capitalizationEmb[2][0]          
__________________________________________________________________________________________________
flatten_1568 (Flatten)          (None, 13)           0           symbolsEmb[2][0]                 
__________________________________________________________________________________________________
flatten_1569 (Flatten)          (None, 392)          0           tokenEmb[3][0]                   
__________________________________________________________________________________________________
flatten_1570 (Flatten)          (None, 96)           0           affixeseEmb[3][0]                
__________________________________________________________________________________________________
flatten_1571 (Flatten)          (None, 12)           0           capitalizationEmb[3][0]          
__________________________________________________________________________________________________
flatten_1572 (Flatten)          (None, 13)           0           symbolsEmb[3][0]                 
__________________________________________________________________________________________________
flatten_1573 (Flatten)          (None, 392)          0           tokenEmb[4][0]                   
__________________________________________________________________________________________________
flatten_1574 (Flatten)          (None, 96)           0           affixeseEmb[4][0]                
__________________________________________________________________________________________________
flatten_1575 (Flatten)          (None, 12)           0           capitalizationEmb[4][0]          
__________________________________________________________________________________________________
flatten_1576 (Flatten)          (None, 13)           0           symbolsEmb[4][0]                 
__________________________________________________________________________________________________
flatten_1577 (Flatten)          (None, 392)          0           tokenEmb[5][0]                   
__________________________________________________________________________________________________
flatten_1578 (Flatten)          (None, 96)           0           affixeseEmb[5][0]                
__________________________________________________________________________________________________
flatten_1579 (Flatten)          (None, 12)           0           capitalizationEmb[5][0]          
__________________________________________________________________________________________________
flatten_1580 (Flatten)          (None, 13)           0           symbolsEmb[5][0]                 
__________________________________________________________________________________________________
concatenate_543 (Concatenate)   (None, 513)          0           flatten_1561[0][0]               
                                                                 flatten_1562[0][0]               
                                                                 flatten_1563[0][0]               
                                                                 flatten_1564[0][0]               
__________________________________________________________________________________________________
concatenate_544 (Concatenate)   (None, 513)          0           flatten_1565[0][0]               
                                                                 flatten_1566[0][0]               
                                                                 flatten_1567[0][0]               
                                                                 flatten_1568[0][0]               
__________________________________________________________________________________________________
concatenate_545 (Concatenate)   (None, 513)          0           flatten_1569[0][0]               
                                                                 flatten_1570[0][0]               
                                                                 flatten_1571[0][0]               
                                                                 flatten_1572[0][0]               
__________________________________________________________________________________________________
concatenate_546 (Concatenate)   (None, 513)          0           flatten_1573[0][0]               
                                                                 flatten_1574[0][0]               
                                                                 flatten_1575[0][0]               
                                                                 flatten_1576[0][0]               
__________________________________________________________________________________________________
concatenate_547 (Concatenate)   (None, 513)          0           flatten_1577[0][0]               
                                                                 flatten_1578[0][0]               
                                                                 flatten_1579[0][0]               
                                                                 flatten_1580[0][0]               
__________________________________________________________________________________________________
posDense (Dense)                (None, 43)           22102       concatenate_543[0][0]            
                                                                 concatenate_544[0][0]            
                                                                 concatenate_545[0][0]            
                                                                 concatenate_546[0][0]            
                                                                 concatenate_547[0][0]            
__________________________________________________________________________________________________
concatenate_548 (Concatenate)   (None, 215)          0           posDense[1][0]                   
                                                                 posDense[2][0]                   
                                                                 posDense[3][0]                   
                                                                 posDense[4][0]                   
                                                                 posDense[5][0]                   
__________________________________________________________________________________________________
idenDense (Dense)               (None, 120)          25920       concatenate_548[0][0]            
__________________________________________________________________________________________________
idenSoftMax (Dense)             (None, 4)            484         idenDense[0][0]                  
==================================================================================================
Total params: 480,790
Trainable params: 480,790
Non-trainable params: 0
__________________________________________________________________________________________________
None
==================================================================================================
…
	One occurrence keys in vocabulary 2182 / 11438

__________________________________________________________________________________________________
	Optimizer : Adagrad,  learning rate = 0.019
__________________________________________________________________________________________________
__________________________________________________________________________________________________
Layer (type)                    Output Shape         Param #     Connected to                     
==================================================================================================
tokens (InputLayer)             (None, 7)            0                                            
__________________________________________________________________________________________________
affixes (InputLayer)            (None, 12)           0                                            
__________________________________________________________________________________________________
capitalization (InputLayer)     (None, 3)            0                                            
__________________________________________________________________________________________________
symbol (InputLayer)             (None, 1)            0                                            
__________________________________________________________________________________________________
tokenEmb (Embedding)            (None, 7, 150)       1715700     tokens[0][0]                     
__________________________________________________________________________________________________
affixeseEmb (Embedding)         (None, 12, 12)       14232       affixes[0][0]                    
__________________________________________________________________________________________________
capitalizationEmb (Embedding)   (None, 3, 2)         8           capitalization[0][0]             
__________________________________________________________________________________________________
symbolsEmb (Embedding)          (None, 1, 14)        280         symbol[0][0]                     
__________________________________________________________________________________________________
flatten_1581 (Flatten)          (None, 1050)         0           tokenEmb[0][0]                   
__________________________________________________________________________________________________
flatten_1582 (Flatten)          (None, 144)          0           affixeseEmb[0][0]                
__________________________________________________________________________________________________
flatten_1583 (Flatten)          (None, 6)            0           capitalizationEmb[0][0]          
__________________________________________________________________________________________________
flatten_1584 (Flatten)          (None, 14)           0           symbolsEmb[0][0]                 
__________________________________________________________________________________________________
concatenate_549 (Concatenate)   (None, 1214)         0           flatten_1581[0][0]               
                                                                 flatten_1582[0][0]               
                                                                 flatten_1583[0][0]               
                                                                 flatten_1584[0][0]               
__________________________________________________________________________________________________
posDense (Dense)                (None, 46)           55890       concatenate_549[0][0]            
__________________________________________________________________________________________________
dense_87 (Dense)                (None, 152)          7144        posDense[0][0]                   
==================================================================================================
Total params: 1,793,254
Trainable params: 1,793,254
Non-trainable params: 0
__________________________________________________________________________________________________
None
==================================================================================================

__________________________________________________________________________________________________
	Optimizer : Adagrad,  learning rate = 0.019
__________________________________________________________________________________________________
__________________________________________________________________________________________________
Layer (type)                    Output Shape         Param #     Connected to                     
==================================================================================================
bxTokens (InputLayer)           (None, 7)            0                                            
__________________________________________________________________________________________________
bxAffixes (InputLayer)          (None, 12)           0                                            
__________________________________________________________________________________________________
bxCapitalization (InputLayer)   (None, 3)            0                                            
__________________________________________________________________________________________________
bxSymbols (InputLayer)          (None, 1)            0                                            
__________________________________________________________________________________________________
b0Tokens (InputLayer)           (None, 7)            0                                            
__________________________________________________________________________________________________
b0Affixes (InputLayer)          (None, 12)           0                                            
__________________________________________________________________________________________________
b0Capitalization (InputLayer)   (None, 3)            0                                            
__________________________________________________________________________________________________
b0Symbols (InputLayer)          (None, 1)            0                                            
__________________________________________________________________________________________________
s0Tokens (InputLayer)           (None, 7)            0                                            
__________________________________________________________________________________________________
s0Affixes (InputLayer)          (None, 12)           0                                            
__________________________________________________________________________________________________
s0Capitalization (InputLayer)   (None, 3)            0                                            
__________________________________________________________________________________________________
s0Symbols (InputLayer)          (None, 1)            0                                            
__________________________________________________________________________________________________
s1Tokens (InputLayer)           (None, 7)            0                                            
__________________________________________________________________________________________________
s1Affixes (InputLayer)          (None, 12)           0                                            
__________________________________________________________________________________________________
s1Capitalization (InputLayer)   (None, 3)            0                                            
__________________________________________________________________________________________________
s1Symbols (InputLayer)          (None, 1)            0                                            
__________________________________________________________________________________________________
tokenEmb (Embedding)            (None, 7, 150)       1715700     bxTokens[0][0]                   
                                                                 b0Tokens[0][0]                   
                                                                 s0Tokens[0][0]                   
                                                                 s1Tokens[0][0]                   
__________________________________________________________________________________________________
affixeseEmb (Embedding)         (None, 12, 12)       14232       bxAffixes[0][0]                  
                                                                 b0Affixes[0][0]                  
                                                                 s0Affixes[0][0]                  
                                                                 s1Affixes[0][0]                  
__________________________________________________________________________________________________
capitalizationEmb (Embedding)   (None, 3, 2)         8           bxCapitalization[0][0]           
                                                                 b0Capitalization[0][0]           
                                                                 s0Capitalization[0][0]           
                                                                 s1Capitalization[0][0]           
__________________________________________________________________________________________________
symbolsEmb (Embedding)          (None, 1, 14)        280         bxSymbols[0][0]                  
                                                                 b0Symbols[0][0]                  
                                                                 s0Symbols[0][0]                  
                                                                 s1Symbols[0][0]                  
__________________________________________________________________________________________________
flatten_1585 (Flatten)          (None, 1050)         0           tokenEmb[1][0]                   
__________________________________________________________________________________________________
flatten_1586 (Flatten)          (None, 144)          0           affixeseEmb[1][0]                
__________________________________________________________________________________________________
flatten_1587 (Flatten)          (None, 6)            0           capitalizationEmb[1][0]          
__________________________________________________________________________________________________
flatten_1588 (Flatten)          (None, 14)           0           symbolsEmb[1][0]                 
__________________________________________________________________________________________________
flatten_1589 (Flatten)          (None, 1050)         0           tokenEmb[2][0]                   
__________________________________________________________________________________________________
flatten_1590 (Flatten)          (None, 144)          0           affixeseEmb[2][0]                
__________________________________________________________________________________________________
flatten_1591 (Flatten)          (None, 6)            0           capitalizationEmb[2][0]          
__________________________________________________________________________________________________
flatten_1592 (Flatten)          (None, 14)           0           symbolsEmb[2][0]                 
__________________________________________________________________________________________________
flatten_1593 (Flatten)          (None, 1050)         0           tokenEmb[3][0]                   
__________________________________________________________________________________________________
flatten_1594 (Flatten)          (None, 144)          0           affixeseEmb[3][0]                
__________________________________________________________________________________________________
flatten_1595 (Flatten)          (None, 6)            0           capitalizationEmb[3][0]          
__________________________________________________________________________________________________
flatten_1596 (Flatten)          (None, 14)           0           symbolsEmb[3][0]                 
__________________________________________________________________________________________________
flatten_1597 (Flatten)          (None, 1050)         0           tokenEmb[4][0]                   
__________________________________________________________________________________________________
flatten_1598 (Flatten)          (None, 144)          0           affixeseEmb[4][0]                
__________________________________________________________________________________________________
flatten_1599 (Flatten)          (None, 6)            0           capitalizationEmb[4][0]          
__________________________________________________________________________________________________
flatten_1600 (Flatten)          (None, 14)           0           symbolsEmb[4][0]                 
__________________________________________________________________________________________________
concatenate_550 (Concatenate)   (None, 1214)         0           flatten_1585[0][0]               
                                                                 flatten_1586[0][0]               
                                                                 flatten_1587[0][0]               
                                                                 flatten_1588[0][0]               
__________________________________________________________________________________________________
concatenate_551 (Concatenate)   (None, 1214)         0           flatten_1589[0][0]               
                                                                 flatten_1590[0][0]               
                                                                 flatten_1591[0][0]               
                                                                 flatten_1592[0][0]               
__________________________________________________________________________________________________
concatenate_552 (Concatenate)   (None, 1214)         0           flatten_1593[0][0]               
                                                                 flatten_1594[0][0]               
                                                                 flatten_1595[0][0]               
                                                                 flatten_1596[0][0]               
__________________________________________________________________________________________________
concatenate_553 (Concatenate)   (None, 1214)         0           flatten_1597[0][0]               
                                                                 flatten_1598[0][0]               
                                                                 flatten_1599[0][0]               
                                                                 flatten_1600[0][0]               
__________________________________________________________________________________________________
posDense (Dense)                (None, 46)           55890       concatenate_550[0][0]            
                                                                 concatenate_551[0][0]            
                                                                 concatenate_552[0][0]            
                                                                 concatenate_553[0][0]            
__________________________________________________________________________________________________
concatenate_554 (Concatenate)   (None, 184)          0           posDense[1][0]                   
                                                                 posDense[2][0]                   
                                                                 posDense[3][0]                   
                                                                 posDense[4][0]                   
__________________________________________________________________________________________________
idenDense (Dense)               (None, 37)           6845        concatenate_554[0][0]            
__________________________________________________________________________________________________
idenSoftMax (Dense)             (None, 4)            152         idenDense[0][0]                  
==================================================================================================
Total params: 1,793,107
Trainable params: 1,793,107
Non-trainable params: 0
__________________________________________________________________________________________________
None
==================================================================================================
…
	One occurrence keys in vocabulary 1622 / 7545

__________________________________________________________________________________________________
	Optimizer : Adagrad,  learning rate = 0.078
__________________________________________________________________________________________________
__________________________________________________________________________________________________
Layer (type)                    Output Shape         Param #     Connected to                     
==================================================================================================
tokens (InputLayer)             (None, 7)            0                                            
__________________________________________________________________________________________________
affixes (InputLayer)            (None, 12)           0                                            
__________________________________________________________________________________________________
capitalization (InputLayer)     (None, 3)            0                                            
__________________________________________________________________________________________________
symbol (InputLayer)             (None, 1)            0                                            
__________________________________________________________________________________________________
tokenEmb (Embedding)            (None, 7, 31)        233895      tokens[0][0]                     
__________________________________________________________________________________________________
affixeseEmb (Embedding)         (None, 12, 8)        9488        affixes[0][0]                    
__________________________________________________________________________________________________
capitalizationEmb (Embedding)   (None, 3, 9)         36          capitalization[0][0]             
__________________________________________________________________________________________________
symbolsEmb (Embedding)          (None, 1, 14)        280         symbol[0][0]                     
__________________________________________________________________________________________________
flatten_1601 (Flatten)          (None, 217)          0           tokenEmb[0][0]                   
__________________________________________________________________________________________________
flatten_1602 (Flatten)          (None, 96)           0           affixeseEmb[0][0]                
__________________________________________________________________________________________________
flatten_1603 (Flatten)          (None, 27)           0           capitalizationEmb[0][0]          
__________________________________________________________________________________________________
flatten_1604 (Flatten)          (None, 14)           0           symbolsEmb[0][0]                 
__________________________________________________________________________________________________
concatenate_555 (Concatenate)   (None, 354)          0           flatten_1601[0][0]               
                                                                 flatten_1602[0][0]               
                                                                 flatten_1603[0][0]               
                                                                 flatten_1604[0][0]               
__________________________________________________________________________________________________
posDense (Dense)                (None, 195)          69225       concatenate_555[0][0]            
__________________________________________________________________________________________________
dense_88 (Dense)                (None, 152)          29792       posDense[0][0]                   
==================================================================================================
Total params: 342,716
Trainable params: 342,716
Non-trainable params: 0
__________________________________________________________________________________________________
None
==================================================================================================

__________________________________________________________________________________________________
	Optimizer : Adagrad,  learning rate = 0.078
__________________________________________________________________________________________________
__________________________________________________________________________________________________
Layer (type)                    Output Shape         Param #     Connected to                     
==================================================================================================
b1Tokens (InputLayer)           (None, 7)            0                                            
__________________________________________________________________________________________________
b1Affixes (InputLayer)          (None, 12)           0                                            
__________________________________________________________________________________________________
b1Capitalization (InputLayer)   (None, 3)            0                                            
__________________________________________________________________________________________________
b1Symbols (InputLayer)          (None, 1)            0                                            
__________________________________________________________________________________________________
b0Tokens (InputLayer)           (None, 7)            0                                            
__________________________________________________________________________________________________
b0Affixes (InputLayer)          (None, 12)           0                                            
__________________________________________________________________________________________________
b0Capitalization (InputLayer)   (None, 3)            0                                            
__________________________________________________________________________________________________
b0Symbols (InputLayer)          (None, 1)            0                                            
__________________________________________________________________________________________________
s0Tokens (InputLayer)           (None, 7)            0                                            
__________________________________________________________________________________________________
s0Affixes (InputLayer)          (None, 12)           0                                            
__________________________________________________________________________________________________
s0Capitalization (InputLayer)   (None, 3)            0                                            
__________________________________________________________________________________________________
s0Symbols (InputLayer)          (None, 1)            0                                            
__________________________________________________________________________________________________
s1Tokens (InputLayer)           (None, 7)            0                                            
__________________________________________________________________________________________________
s1Affixes (InputLayer)          (None, 12)           0                                            
__________________________________________________________________________________________________
s1Capitalization (InputLayer)   (None, 3)            0                                            
__________________________________________________________________________________________________
s1Symbols (InputLayer)          (None, 1)            0                                            
__________________________________________________________________________________________________
tokenEmb (Embedding)            (None, 7, 31)        233895      b1Tokens[0][0]                   
                                                                 b0Tokens[0][0]                   
                                                                 s0Tokens[0][0]                   
                                                                 s1Tokens[0][0]                   
__________________________________________________________________________________________________
affixeseEmb (Embedding)         (None, 12, 8)        9488        b1Affixes[0][0]                  
                                                                 b0Affixes[0][0]                  
                                                                 s0Affixes[0][0]                  
                                                                 s1Affixes[0][0]                  
__________________________________________________________________________________________________
capitalizationEmb (Embedding)   (None, 3, 9)         36          b1Capitalization[0][0]           
                                                                 b0Capitalization[0][0]           
                                                                 s0Capitalization[0][0]           
                                                                 s1Capitalization[0][0]           
__________________________________________________________________________________________________
symbolsEmb (Embedding)          (None, 1, 14)        280         b1Symbols[0][0]                  
                                                                 b0Symbols[0][0]                  
                                                                 s0Symbols[0][0]                  
                                                                 s1Symbols[0][0]                  
__________________________________________________________________________________________________
flatten_1605 (Flatten)          (None, 217)          0           tokenEmb[1][0]                   
__________________________________________________________________________________________________
flatten_1606 (Flatten)          (None, 96)           0           affixeseEmb[1][0]                
__________________________________________________________________________________________________
flatten_1607 (Flatten)          (None, 27)           0           capitalizationEmb[1][0]          
__________________________________________________________________________________________________
flatten_1608 (Flatten)          (None, 14)           0           symbolsEmb[1][0]                 
__________________________________________________________________________________________________
flatten_1609 (Flatten)          (None, 217)          0           tokenEmb[2][0]                   
__________________________________________________________________________________________________
flatten_1610 (Flatten)          (None, 96)           0           affixeseEmb[2][0]                
__________________________________________________________________________________________________
flatten_1611 (Flatten)          (None, 27)           0           capitalizationEmb[2][0]          
__________________________________________________________________________________________________
flatten_1612 (Flatten)          (None, 14)           0           symbolsEmb[2][0]                 
__________________________________________________________________________________________________
flatten_1613 (Flatten)          (None, 217)          0           tokenEmb[3][0]                   
__________________________________________________________________________________________________
flatten_1614 (Flatten)          (None, 96)           0           affixeseEmb[3][0]                
__________________________________________________________________________________________________
flatten_1615 (Flatten)          (None, 27)           0           capitalizationEmb[3][0]          
__________________________________________________________________________________________________
flatten_1616 (Flatten)          (None, 14)           0           symbolsEmb[3][0]                 
__________________________________________________________________________________________________
flatten_1617 (Flatten)          (None, 217)          0           tokenEmb[4][0]                   
__________________________________________________________________________________________________
flatten_1618 (Flatten)          (None, 96)           0           affixeseEmb[4][0]                
__________________________________________________________________________________________________
flatten_1619 (Flatten)          (None, 27)           0           capitalizationEmb[4][0]          
__________________________________________________________________________________________________
flatten_1620 (Flatten)          (None, 14)           0           symbolsEmb[4][0]                 
__________________________________________________________________________________________________
concatenate_556 (Concatenate)   (None, 354)          0           flatten_1605[0][0]               
                                                                 flatten_1606[0][0]               
                                                                 flatten_1607[0][0]               
                                                                 flatten_1608[0][0]               
__________________________________________________________________________________________________
concatenate_557 (Concatenate)   (None, 354)          0           flatten_1609[0][0]               
                                                                 flatten_1610[0][0]               
                                                                 flatten_1611[0][0]               
                                                                 flatten_1612[0][0]               
__________________________________________________________________________________________________
concatenate_558 (Concatenate)   (None, 354)          0           flatten_1613[0][0]               
                                                                 flatten_1614[0][0]               
                                                                 flatten_1615[0][0]               
                                                                 flatten_1616[0][0]               
__________________________________________________________________________________________________
concatenate_559 (Concatenate)   (None, 354)          0           flatten_1617[0][0]               
                                                                 flatten_1618[0][0]               
                                                                 flatten_1619[0][0]               
                                                                 flatten_1620[0][0]               
__________________________________________________________________________________________________
posDense (Dense)                (None, 195)          69225       concatenate_556[0][0]            
                                                                 concatenate_557[0][0]            
                                                                 concatenate_558[0][0]            
                                                                 concatenate_559[0][0]            
__________________________________________________________________________________________________
concatenate_560 (Concatenate)   (None, 780)          0           posDense[1][0]                   
                                                                 posDense[2][0]                   
                                                                 posDense[3][0]                   
                                                                 posDense[4][0]                   
__________________________________________________________________________________________________
idenDense (Dense)               (None, 185)          144485      concatenate_560[0][0]            
__________________________________________________________________________________________________
idenSoftMax (Dense)             (None, 4)            744         idenDense[0][0]                  
==================================================================================================
Total params: 458,153
Trainable params: 458,153
Non-trainable params: 0
__________________________________________________________________________________________________
None
==================================================================================================
…
