…
	Important sentence: 529
	Token occurrences: 118658
	MWE number: 197
	MWE occurrences: 589
	Continuous occurrences: 70.0 %
	MWE length: 2.15
	Seen occurrences : 93% 
	Recognizable MWEs: 100.0 %

==================================================================================================
__________________________________________________________________________________________________
Layer (type)                    Output Shape         Param #     Connected to                     
==================================================================================================
S0_toks (InputLayer)            (None, 4)            0                                            
__________________________________________________________________________________________________
S0_Pos (InputLayer)             (None, 4)            0                                            
__________________________________________________________________________________________________
S1_toks (InputLayer)            (None, 4)            0                                            
__________________________________________________________________________________________________
S1_Pos (InputLayer)             (None, 4)            0                                            
__________________________________________________________________________________________________
S0_toksEmb (Embedding)          (None, 4, 480)       11518080    S0_toks[0][0]                    
__________________________________________________________________________________________________
S0_tPosEmb (Embedding)          (None, 4, 42)        798         S0_Pos[0][0]                     
__________________________________________________________________________________________________
S1_toksEmb (Embedding)          (None, 4, 480)       11518080    S1_toks[0][0]                    
__________________________________________________________________________________________________
S1_PosEmb (Embedding)           (None, 4, 42)        798         S1_Pos[0][0]                     
__________________________________________________________________________________________________
B_toks (InputLayer)             (None, 3)            0                                            
__________________________________________________________________________________________________
B_Pos (InputLayer)              (None, 3)            0                                            
__________________________________________________________________________________________________
concatenate_1 (Concatenate)     (None, 4, 522)       0           S0_toksEmb[0][0]                 
                                                                 S0_tPosEmb[0][0]                 
__________________________________________________________________________________________________
concatenate_2 (Concatenate)     (None, 4, 522)       0           S1_toksEmb[0][0]                 
                                                                 S1_PosEmb[0][0]                  
__________________________________________________________________________________________________
B_toksEmb (Embedding)           (None, 3, 480)       11518080    B_toks[0][0]                     
__________________________________________________________________________________________________
B_PosEmb (Embedding)            (None, 3, 42)        798         B_Pos[0][0]                      
__________________________________________________________________________________________________
s0Rnn (GRU)                     (None, 50)           85950       concatenate_1[0][0]              
__________________________________________________________________________________________________
s1Rnn (GRU)                     (None, 50)           85950       concatenate_2[0][0]              
__________________________________________________________________________________________________
B_toksFlat (Flatten)            (None, 1440)         0           B_toksEmb[0][0]                  
__________________________________________________________________________________________________
B_PosFlat (Flatten)             (None, 126)          0           B_PosEmb[0][0]                   
__________________________________________________________________________________________________
dropout_1 (Dropout)             (None, 50)           0           s0Rnn[0][0]                      
__________________________________________________________________________________________________
dropout_2 (Dropout)             (None, 50)           0           s1Rnn[0][0]                      
__________________________________________________________________________________________________
concatenate_3 (Concatenate)     (None, 1666)         0           B_toksFlat[0][0]                 
                                                                 B_PosFlat[0][0]                  
                                                                 dropout_1[0][0]                  
                                                                 dropout_2[0][0]                  
__________________________________________________________________________________________________
dense_1 (Dense)                 (None, 60)           100020      concatenate_3[0][0]              
__________________________________________________________________________________________________
dropout_3 (Dropout)             (None, 60)           0           dense_1[0][0]                    
__________________________________________________________________________________________________
dense_2 (Dense)                 (None, 4)            244         dropout_3[0][0]                  
==================================================================================================
Total params: 34,828,798
Trainable params: 34,828,798
Non-trainable params: 0
__________________________________________________________________________________________________
None
==================================================================================================
…
	MWE number: 309
	MWE occurrences: 500
	Continuous occurrences: 48.0 %
	MWE length: 2.22
	Seen occurrences : 64% 
	Recognizable MWEs: 100.0 %
	MWT occurrences: 1
	Embedded occurrences: 1

==================================================================================================
__________________________________________________________________________________________________
Layer (type)                    Output Shape         Param #     Connected to                     
==================================================================================================
S0_toks (InputLayer)            (None, 4)            0                                            
__________________________________________________________________________________________________
S0_Pos (InputLayer)             (None, 4)            0                                            
__________________________________________________________________________________________________
S1_toks (InputLayer)            (None, 4)            0                                            
__________________________________________________________________________________________________
S1_Pos (InputLayer)             (None, 4)            0                                            
__________________________________________________________________________________________________
S0_toksEmb (Embedding)          (None, 4, 480)       7629600     S0_toks[0][0]                    
__________________________________________________________________________________________________
S0_tPosEmb (Embedding)          (None, 4, 42)        126         S0_Pos[0][0]                     
__________________________________________________________________________________________________
S1_toksEmb (Embedding)          (None, 4, 480)       7629600     S1_toks[0][0]                    
__________________________________________________________________________________________________
S1_PosEmb (Embedding)           (None, 4, 42)        126         S1_Pos[0][0]                     
__________________________________________________________________________________________________
B_toks (InputLayer)             (None, 3)            0                                            
__________________________________________________________________________________________________
B_Pos (InputLayer)              (None, 3)            0                                            
__________________________________________________________________________________________________
concatenate_4 (Concatenate)     (None, 4, 522)       0           S0_toksEmb[0][0]                 
                                                                 S0_tPosEmb[0][0]                 
__________________________________________________________________________________________________
concatenate_5 (Concatenate)     (None, 4, 522)       0           S1_toksEmb[0][0]                 
                                                                 S1_PosEmb[0][0]                  
__________________________________________________________________________________________________
B_toksEmb (Embedding)           (None, 3, 480)       7629600     B_toks[0][0]                     
__________________________________________________________________________________________________
B_PosEmb (Embedding)            (None, 3, 42)        126         B_Pos[0][0]                      
__________________________________________________________________________________________________
s0Rnn (GRU)                     (None, 50)           85950       concatenate_4[0][0]              
__________________________________________________________________________________________________
s1Rnn (GRU)                     (None, 50)           85950       concatenate_5[0][0]              
__________________________________________________________________________________________________
B_toksFlat (Flatten)            (None, 1440)         0           B_toksEmb[0][0]                  
__________________________________________________________________________________________________
B_PosFlat (Flatten)             (None, 126)          0           B_PosEmb[0][0]                   
__________________________________________________________________________________________________
dropout_4 (Dropout)             (None, 50)           0           s0Rnn[0][0]                      
__________________________________________________________________________________________________
dropout_5 (Dropout)             (None, 50)           0           s1Rnn[0][0]                      
__________________________________________________________________________________________________
concatenate_6 (Concatenate)     (None, 1666)         0           B_toksFlat[0][0]                 
                                                                 B_PosFlat[0][0]                  
                                                                 dropout_4[0][0]                  
                                                                 dropout_5[0][0]                  
__________________________________________________________________________________________________
dense_3 (Dense)                 (None, 60)           100020      concatenate_6[0][0]              
__________________________________________________________________________________________________
dropout_6 (Dropout)             (None, 60)           0           dense_3[0][0]                    
__________________________________________________________________________________________________
dense_4 (Dense)                 (None, 4)            244         dropout_6[0][0]                  
==================================================================================================
Total params: 23,161,342
Trainable params: 23,161,342
Non-trainable params: 0
__________________________________________________________________________________________________
None
==================================================================================================
…
	Important sentence: 385
	Token occurrences: 27196
	MWE number: 418
	MWE occurrences: 510
	Continuous occurrences: 50.0 %
	MWE length: 2.07
	Seen occurrences : 46% 
	Recognizable MWEs: 100.0 %

==================================================================================================
__________________________________________________________________________________________________
Layer (type)                    Output Shape         Param #     Connected to                     
==================================================================================================
S0_toks (InputLayer)            (None, 4)            0                                            
__________________________________________________________________________________________________
S0_Pos (InputLayer)             (None, 4)            0                                            
__________________________________________________________________________________________________
S1_toks (InputLayer)            (None, 4)            0                                            
__________________________________________________________________________________________________
S1_Pos (InputLayer)             (None, 4)            0                                            
__________________________________________________________________________________________________
S0_toksEmb (Embedding)          (None, 4, 480)       9515040     S0_toks[0][0]                    
__________________________________________________________________________________________________
S0_tPosEmb (Embedding)          (None, 4, 42)        630         S0_Pos[0][0]                     
__________________________________________________________________________________________________
S1_toksEmb (Embedding)          (None, 4, 480)       9515040     S1_toks[0][0]                    
__________________________________________________________________________________________________
S1_PosEmb (Embedding)           (None, 4, 42)        630         S1_Pos[0][0]                     
__________________________________________________________________________________________________
B_toks (InputLayer)             (None, 3)            0                                            
__________________________________________________________________________________________________
B_Pos (InputLayer)              (None, 3)            0                                            
__________________________________________________________________________________________________
concatenate_7 (Concatenate)     (None, 4, 522)       0           S0_toksEmb[0][0]                 
                                                                 S0_tPosEmb[0][0]                 
__________________________________________________________________________________________________
concatenate_8 (Concatenate)     (None, 4, 522)       0           S1_toksEmb[0][0]                 
                                                                 S1_PosEmb[0][0]                  
__________________________________________________________________________________________________
B_toksEmb (Embedding)           (None, 3, 480)       9515040     B_toks[0][0]                     
__________________________________________________________________________________________________
B_PosEmb (Embedding)            (None, 3, 42)        630         B_Pos[0][0]                      
__________________________________________________________________________________________________
s0Rnn (GRU)                     (None, 50)           85950       concatenate_7[0][0]              
__________________________________________________________________________________________________
s1Rnn (GRU)                     (None, 50)           85950       concatenate_8[0][0]              
__________________________________________________________________________________________________
B_toksFlat (Flatten)            (None, 1440)         0           B_toksEmb[0][0]                  
__________________________________________________________________________________________________
B_PosFlat (Flatten)             (None, 126)          0           B_PosEmb[0][0]                   
__________________________________________________________________________________________________
dropout_7 (Dropout)             (None, 50)           0           s0Rnn[0][0]                      
__________________________________________________________________________________________________
dropout_8 (Dropout)             (None, 50)           0           s1Rnn[0][0]                      
__________________________________________________________________________________________________
concatenate_9 (Concatenate)     (None, 1666)         0           B_toksFlat[0][0]                 
                                                                 B_PosFlat[0][0]                  
                                                                 dropout_7[0][0]                  
                                                                 dropout_8[0][0]                  
__________________________________________________________________________________________________
dense_5 (Dense)                 (None, 60)           100020      concatenate_9[0][0]              
__________________________________________________________________________________________________
dropout_9 (Dropout)             (None, 60)           0           dense_5[0][0]                    
__________________________________________________________________________________________________
dense_6 (Dense)                 (None, 4)            244         dropout_9[0][0]                  
==================================================================================================
Total params: 28,819,174
Trainable params: 28,819,174
Non-trainable params: 0
__________________________________________________________________________________________________
None
==================================================================================================
…
	Important sentence: 554
	Token occurrences: 39220
	MWE number: 432
	MWE occurrences: 670
	Continuous occurrences: 71.0 %
	MWE length: 2.11
	Seen occurrences : 65% 
	Recognizable MWEs: 100.0 %

==================================================================================================
__________________________________________________________________________________________________
Layer (type)                    Output Shape         Param #     Connected to                     
==================================================================================================
S0_toks (InputLayer)            (None, 4)            0                                            
__________________________________________________________________________________________________
S0_Pos (InputLayer)             (None, 4)            0                                            
__________________________________________________________________________________________________
S1_toks (InputLayer)            (None, 4)            0                                            
__________________________________________________________________________________________________
S1_Pos (InputLayer)             (None, 4)            0                                            
__________________________________________________________________________________________________
S0_toksEmb (Embedding)          (None, 4, 480)       6751200     S0_toks[0][0]                    
__________________________________________________________________________________________________
S0_tPosEmb (Embedding)          (None, 4, 42)        798         S0_Pos[0][0]                     
__________________________________________________________________________________________________
S1_toksEmb (Embedding)          (None, 4, 480)       6751200     S1_toks[0][0]                    
__________________________________________________________________________________________________
S1_PosEmb (Embedding)           (None, 4, 42)        798         S1_Pos[0][0]                     
__________________________________________________________________________________________________
B_toks (InputLayer)             (None, 3)            0                                            
__________________________________________________________________________________________________
B_Pos (InputLayer)              (None, 3)            0                                            
__________________________________________________________________________________________________
concatenate_10 (Concatenate)    (None, 4, 522)       0           S0_toksEmb[0][0]                 
                                                                 S0_tPosEmb[0][0]                 
__________________________________________________________________________________________________
concatenate_11 (Concatenate)    (None, 4, 522)       0           S1_toksEmb[0][0]                 
                                                                 S1_PosEmb[0][0]                  
__________________________________________________________________________________________________
B_toksEmb (Embedding)           (None, 3, 480)       6751200     B_toks[0][0]                     
__________________________________________________________________________________________________
B_PosEmb (Embedding)            (None, 3, 42)        798         B_Pos[0][0]                      
__________________________________________________________________________________________________
s0Rnn (GRU)                     (None, 50)           85950       concatenate_10[0][0]             
__________________________________________________________________________________________________
s1Rnn (GRU)                     (None, 50)           85950       concatenate_11[0][0]             
__________________________________________________________________________________________________
B_toksFlat (Flatten)            (None, 1440)         0           B_toksEmb[0][0]                  
__________________________________________________________________________________________________
B_PosFlat (Flatten)             (None, 126)          0           B_PosEmb[0][0]                   
__________________________________________________________________________________________________
dropout_10 (Dropout)            (None, 50)           0           s0Rnn[0][0]                      
__________________________________________________________________________________________________
dropout_11 (Dropout)            (None, 50)           0           s1Rnn[0][0]                      
__________________________________________________________________________________________________
concatenate_12 (Concatenate)    (None, 1666)         0           B_toksFlat[0][0]                 
                                                                 B_PosFlat[0][0]                  
                                                                 dropout_10[0][0]                 
                                                                 dropout_11[0][0]                 
__________________________________________________________________________________________________
dense_7 (Dense)                 (None, 60)           100020      concatenate_12[0][0]             
__________________________________________________________________________________________________
dropout_12 (Dropout)            (None, 60)           0           dense_7[0][0]                    
__________________________________________________________________________________________________
dense_8 (Dense)                 (None, 4)            244         dropout_12[0][0]                 
==================================================================================================
Total params: 20,528,158
Trainable params: 20,528,158
Non-trainable params: 0
__________________________________________________________________________________________________
None
==================================================================================================
…
	Continuous occurrences: 24.0 %
	MWE length: 1.96
	Seen occurrences : 48% 
	Recognizable MWEs: 97.0 %
	MWT occurrences: 149
	Embedded occurrences: 13
	Interleaving occurrences: 2

==================================================================================================
__________________________________________________________________________________________________
Layer (type)                    Output Shape         Param #     Connected to                     
==================================================================================================
S0_toks (InputLayer)            (None, 4)            0                                            
__________________________________________________________________________________________________
S0_Pos (InputLayer)             (None, 4)            0                                            
__________________________________________________________________________________________________
S1_toks (InputLayer)            (None, 4)            0                                            
__________________________________________________________________________________________________
S1_Pos (InputLayer)             (None, 4)            0                                            
__________________________________________________________________________________________________
S0_toksEmb (Embedding)          (None, 4, 480)       8622240     S0_toks[0][0]                    
__________________________________________________________________________________________________
S0_tPosEmb (Embedding)          (None, 4, 42)        798         S0_Pos[0][0]                     
__________________________________________________________________________________________________
S1_toksEmb (Embedding)          (None, 4, 480)       8622240     S1_toks[0][0]                    
__________________________________________________________________________________________________
S1_PosEmb (Embedding)           (None, 4, 42)        798         S1_Pos[0][0]                     
__________________________________________________________________________________________________
B_toks (InputLayer)             (None, 3)            0                                            
__________________________________________________________________________________________________
B_Pos (InputLayer)              (None, 3)            0                                            
__________________________________________________________________________________________________
concatenate_13 (Concatenate)    (None, 4, 522)       0           S0_toksEmb[0][0]                 
                                                                 S0_tPosEmb[0][0]                 
__________________________________________________________________________________________________
concatenate_14 (Concatenate)    (None, 4, 522)       0           S1_toksEmb[0][0]                 
                                                                 S1_PosEmb[0][0]                  
__________________________________________________________________________________________________
B_toksEmb (Embedding)           (None, 3, 480)       8622240     B_toks[0][0]                     
__________________________________________________________________________________________________
B_PosEmb (Embedding)            (None, 3, 42)        798         B_Pos[0][0]                      
__________________________________________________________________________________________________
s0Rnn (GRU)                     (None, 50)           85950       concatenate_13[0][0]             
__________________________________________________________________________________________________
s1Rnn (GRU)                     (None, 50)           85950       concatenate_14[0][0]             
__________________________________________________________________________________________________
B_toksFlat (Flatten)            (None, 1440)         0           B_toksEmb[0][0]                  
__________________________________________________________________________________________________
B_PosFlat (Flatten)             (None, 126)          0           B_PosEmb[0][0]                   
__________________________________________________________________________________________________
dropout_13 (Dropout)            (None, 50)           0           s0Rnn[0][0]                      
__________________________________________________________________________________________________
dropout_14 (Dropout)            (None, 50)           0           s1Rnn[0][0]                      
__________________________________________________________________________________________________
concatenate_15 (Concatenate)    (None, 1666)         0           B_toksFlat[0][0]                 
                                                                 B_PosFlat[0][0]                  
                                                                 dropout_13[0][0]                 
                                                                 dropout_14[0][0]                 
__________________________________________________________________________________________________
dense_9 (Dense)                 (None, 60)           100020      concatenate_15[0][0]             
__________________________________________________________________________________________________
dropout_15 (Dropout)            (None, 60)           0           dense_9[0][0]                    
__________________________________________________________________________________________________
dense_10 (Dense)                (None, 4)            244         dropout_15[0][0]                 
==================================================================================================
Total params: 26,141,278
Trainable params: 26,141,278
Non-trainable params: 0
__________________________________________________________________________________________________
None
==================================================================================================
…
	MWE occurrences: 501
	Continuous occurrences: 55.0 %
	MWE length: 2.39
	Seen occurrences : 57% 
	Recognizable MWEs: 99.0 %
	Embedded occurrences: 7
	Interleaving occurrences: 3

==================================================================================================
__________________________________________________________________________________________________
Layer (type)                    Output Shape         Param #     Connected to                     
==================================================================================================
S0_toks (InputLayer)            (None, 4)            0                                            
__________________________________________________________________________________________________
S0_Pos (InputLayer)             (None, 4)            0                                            
__________________________________________________________________________________________________
S1_toks (InputLayer)            (None, 4)            0                                            
__________________________________________________________________________________________________
S1_Pos (InputLayer)             (None, 4)            0                                            
__________________________________________________________________________________________________
S0_toksEmb (Embedding)          (None, 4, 480)       6228000     S0_toks[0][0]                    
__________________________________________________________________________________________________
S0_tPosEmb (Embedding)          (None, 4, 42)        798         S0_Pos[0][0]                     
__________________________________________________________________________________________________
S1_toksEmb (Embedding)          (None, 4, 480)       6228000     S1_toks[0][0]                    
__________________________________________________________________________________________________
S1_PosEmb (Embedding)           (None, 4, 42)        798         S1_Pos[0][0]                     
__________________________________________________________________________________________________
B_toks (InputLayer)             (None, 3)            0                                            
__________________________________________________________________________________________________
B_Pos (InputLayer)              (None, 3)            0                                            
__________________________________________________________________________________________________
concatenate_16 (Concatenate)    (None, 4, 522)       0           S0_toksEmb[0][0]                 
                                                                 S0_tPosEmb[0][0]                 
__________________________________________________________________________________________________
concatenate_17 (Concatenate)    (None, 4, 522)       0           S1_toksEmb[0][0]                 
                                                                 S1_PosEmb[0][0]                  
__________________________________________________________________________________________________
B_toksEmb (Embedding)           (None, 3, 480)       6228000     B_toks[0][0]                     
__________________________________________________________________________________________________
B_PosEmb (Embedding)            (None, 3, 42)        798         B_Pos[0][0]                      
__________________________________________________________________________________________________
s0Rnn (GRU)                     (None, 50)           85950       concatenate_16[0][0]             
__________________________________________________________________________________________________
s1Rnn (GRU)                     (None, 50)           85950       concatenate_17[0][0]             
__________________________________________________________________________________________________
B_toksFlat (Flatten)            (None, 1440)         0           B_toksEmb[0][0]                  
__________________________________________________________________________________________________
B_PosFlat (Flatten)             (None, 126)          0           B_PosEmb[0][0]                   
__________________________________________________________________________________________________
dropout_16 (Dropout)            (None, 50)           0           s0Rnn[0][0]                      
__________________________________________________________________________________________________
dropout_17 (Dropout)            (None, 50)           0           s1Rnn[0][0]                      
__________________________________________________________________________________________________
concatenate_18 (Concatenate)    (None, 1666)         0           B_toksFlat[0][0]                 
                                                                 B_PosFlat[0][0]                  
                                                                 dropout_16[0][0]                 
                                                                 dropout_17[0][0]                 
__________________________________________________________________________________________________
dense_11 (Dense)                (None, 60)           100020      concatenate_18[0][0]             
__________________________________________________________________________________________________
dropout_18 (Dropout)            (None, 60)           0           dense_11[0][0]                   
__________________________________________________________________________________________________
dense_12 (Dense)                (None, 4)            244         dropout_18[0][0]                 
==================================================================================================
Total params: 18,958,558
Trainable params: 18,958,558
Non-trainable params: 0
__________________________________________________________________________________________________
None
==================================================================================================
…
	Continuous occurrences: 58.0 %
	MWE length: 2.17
	Seen occurrences : 27% 
	Recognizable MWEs: 99.0 %
	MWT occurrences: 3
	Embedded occurrences: 8
	Interleaving occurrences: 5

==================================================================================================
__________________________________________________________________________________________________
Layer (type)                    Output Shape         Param #     Connected to                     
==================================================================================================
S0_toks (InputLayer)            (None, 4)            0                                            
__________________________________________________________________________________________________
S0_Pos (InputLayer)             (None, 4)            0                                            
__________________________________________________________________________________________________
S1_toks (InputLayer)            (None, 4)            0                                            
__________________________________________________________________________________________________
S1_Pos (InputLayer)             (None, 4)            0                                            
__________________________________________________________________________________________________
S0_toksEmb (Embedding)          (None, 4, 480)       2398560     S0_toks[0][0]                    
__________________________________________________________________________________________________
S0_tPosEmb (Embedding)          (None, 4, 42)        798         S0_Pos[0][0]                     
__________________________________________________________________________________________________
S1_toksEmb (Embedding)          (None, 4, 480)       2398560     S1_toks[0][0]                    
__________________________________________________________________________________________________
S1_PosEmb (Embedding)           (None, 4, 42)        798         S1_Pos[0][0]                     
__________________________________________________________________________________________________
B_toks (InputLayer)             (None, 3)            0                                            
__________________________________________________________________________________________________
B_Pos (InputLayer)              (None, 3)            0                                            
__________________________________________________________________________________________________
concatenate_19 (Concatenate)    (None, 4, 522)       0           S0_toksEmb[0][0]                 
                                                                 S0_tPosEmb[0][0]                 
__________________________________________________________________________________________________
concatenate_20 (Concatenate)    (None, 4, 522)       0           S1_toksEmb[0][0]                 
                                                                 S1_PosEmb[0][0]                  
__________________________________________________________________________________________________
B_toksEmb (Embedding)           (None, 3, 480)       2398560     B_toks[0][0]                     
__________________________________________________________________________________________________
B_PosEmb (Embedding)            (None, 3, 42)        798         B_Pos[0][0]                      
__________________________________________________________________________________________________
s0Rnn (GRU)                     (None, 50)           85950       concatenate_19[0][0]             
__________________________________________________________________________________________________
s1Rnn (GRU)                     (None, 50)           85950       concatenate_20[0][0]             
__________________________________________________________________________________________________
B_toksFlat (Flatten)            (None, 1440)         0           B_toksEmb[0][0]                  
__________________________________________________________________________________________________
B_PosFlat (Flatten)             (None, 126)          0           B_PosEmb[0][0]                   
__________________________________________________________________________________________________
dropout_19 (Dropout)            (None, 50)           0           s0Rnn[0][0]                      
__________________________________________________________________________________________________
dropout_20 (Dropout)            (None, 50)           0           s1Rnn[0][0]                      
__________________________________________________________________________________________________
concatenate_21 (Concatenate)    (None, 1666)         0           B_toksFlat[0][0]                 
                                                                 B_PosFlat[0][0]                  
                                                                 dropout_19[0][0]                 
                                                                 dropout_20[0][0]                 
__________________________________________________________________________________________________
dense_13 (Dense)                (None, 60)           100020      concatenate_21[0][0]             
__________________________________________________________________________________________________
dropout_21 (Dropout)            (None, 60)           0           dense_13[0][0]                   
__________________________________________________________________________________________________
dense_14 (Dense)                (None, 4)            244         dropout_21[0][0]                 
==================================================================================================
Total params: 7,470,238
Trainable params: 7,470,238
Non-trainable params: 0
__________________________________________________________________________________________________
None
==================================================================================================
…
	MWE occurrences: 500
	Continuous occurrences: 72.0 %
	MWE length: 2.3
	Seen occurrences : 55% 
	Recognizable MWEs: 96.0 %
	Embedded occurrences: 28
	Interleaving occurrences: 18

==================================================================================================
__________________________________________________________________________________________________
Layer (type)                    Output Shape         Param #     Connected to                     
==================================================================================================
S0_toks (InputLayer)            (None, 4)            0                                            
__________________________________________________________________________________________________
S0_Pos (InputLayer)             (None, 4)            0                                            
__________________________________________________________________________________________________
S1_toks (InputLayer)            (None, 4)            0                                            
__________________________________________________________________________________________________
S1_Pos (InputLayer)             (None, 4)            0                                            
__________________________________________________________________________________________________
S0_toksEmb (Embedding)          (None, 4, 480)       4422240     S0_toks[0][0]                    
__________________________________________________________________________________________________
S0_tPosEmb (Embedding)          (None, 4, 42)        756         S0_Pos[0][0]                     
__________________________________________________________________________________________________
S1_toksEmb (Embedding)          (None, 4, 480)       4422240     S1_toks[0][0]                    
__________________________________________________________________________________________________
S1_PosEmb (Embedding)           (None, 4, 42)        756         S1_Pos[0][0]                     
__________________________________________________________________________________________________
B_toks (InputLayer)             (None, 3)            0                                            
__________________________________________________________________________________________________
B_Pos (InputLayer)              (None, 3)            0                                            
__________________________________________________________________________________________________
concatenate_22 (Concatenate)    (None, 4, 522)       0           S0_toksEmb[0][0]                 
                                                                 S0_tPosEmb[0][0]                 
__________________________________________________________________________________________________
concatenate_23 (Concatenate)    (None, 4, 522)       0           S1_toksEmb[0][0]                 
                                                                 S1_PosEmb[0][0]                  
__________________________________________________________________________________________________
B_toksEmb (Embedding)           (None, 3, 480)       4422240     B_toks[0][0]                     
__________________________________________________________________________________________________
B_PosEmb (Embedding)            (None, 3, 42)        756         B_Pos[0][0]                      
__________________________________________________________________________________________________
s0Rnn (GRU)                     (None, 50)           85950       concatenate_22[0][0]             
__________________________________________________________________________________________________
s1Rnn (GRU)                     (None, 50)           85950       concatenate_23[0][0]             
__________________________________________________________________________________________________
B_toksFlat (Flatten)            (None, 1440)         0           B_toksEmb[0][0]                  
__________________________________________________________________________________________________
B_PosFlat (Flatten)             (None, 126)          0           B_PosEmb[0][0]                   
__________________________________________________________________________________________________
dropout_22 (Dropout)            (None, 50)           0           s0Rnn[0][0]                      
__________________________________________________________________________________________________
dropout_23 (Dropout)            (None, 50)           0           s1Rnn[0][0]                      
__________________________________________________________________________________________________
concatenate_24 (Concatenate)    (None, 1666)         0           B_toksFlat[0][0]                 
                                                                 B_PosFlat[0][0]                  
                                                                 dropout_22[0][0]                 
                                                                 dropout_23[0][0]                 
__________________________________________________________________________________________________
dense_15 (Dense)                (None, 60)           100020      concatenate_24[0][0]             
__________________________________________________________________________________________________
dropout_24 (Dropout)            (None, 60)           0           dense_15[0][0]                   
__________________________________________________________________________________________________
dense_16 (Dense)                (None, 4)            244         dropout_24[0][0]                 
==================================================================================================
Total params: 13,541,152
Trainable params: 13,541,152
Non-trainable params: 0
__________________________________________________________________________________________________
None
==================================================================================================
…
	MWE occurrences: 500
	Continuous occurrences: 81.0 %
	MWE length: 2.01
	Seen occurrences : 86% 
	Recognizable MWEs: 100.0 %
	Embedded occurrences: 2
	Interleaving occurrences: 1

==================================================================================================
__________________________________________________________________________________________________
Layer (type)                    Output Shape         Param #     Connected to                     
==================================================================================================
S0_toks (InputLayer)            (None, 4)            0                                            
__________________________________________________________________________________________________
S0_Pos (InputLayer)             (None, 4)            0                                            
__________________________________________________________________________________________________
S1_toks (InputLayer)            (None, 4)            0                                            
__________________________________________________________________________________________________
S1_Pos (InputLayer)             (None, 4)            0                                            
__________________________________________________________________________________________________
S0_toksEmb (Embedding)          (None, 4, 480)       4587840     S0_toks[0][0]                    
__________________________________________________________________________________________________
S0_tPosEmb (Embedding)          (None, 4, 42)        1386        S0_Pos[0][0]                     
__________________________________________________________________________________________________
S1_toksEmb (Embedding)          (None, 4, 480)       4587840     S1_toks[0][0]                    
__________________________________________________________________________________________________
S1_PosEmb (Embedding)           (None, 4, 42)        1386        S1_Pos[0][0]                     
__________________________________________________________________________________________________
B_toks (InputLayer)             (None, 3)            0                                            
__________________________________________________________________________________________________
B_Pos (InputLayer)              (None, 3)            0                                            
__________________________________________________________________________________________________
concatenate_25 (Concatenate)    (None, 4, 522)       0           S0_toksEmb[0][0]                 
                                                                 S0_tPosEmb[0][0]                 
__________________________________________________________________________________________________
concatenate_26 (Concatenate)    (None, 4, 522)       0           S1_toksEmb[0][0]                 
                                                                 S1_PosEmb[0][0]                  
__________________________________________________________________________________________________
B_toksEmb (Embedding)           (None, 3, 480)       4587840     B_toks[0][0]                     
__________________________________________________________________________________________________
B_PosEmb (Embedding)            (None, 3, 42)        1386        B_Pos[0][0]                      
__________________________________________________________________________________________________
s0Rnn (GRU)                     (None, 50)           85950       concatenate_25[0][0]             
__________________________________________________________________________________________________
s1Rnn (GRU)                     (None, 50)           85950       concatenate_26[0][0]             
__________________________________________________________________________________________________
B_toksFlat (Flatten)            (None, 1440)         0           B_toksEmb[0][0]                  
__________________________________________________________________________________________________
B_PosFlat (Flatten)             (None, 126)          0           B_PosEmb[0][0]                   
__________________________________________________________________________________________________
dropout_25 (Dropout)            (None, 50)           0           s0Rnn[0][0]                      
__________________________________________________________________________________________________
dropout_26 (Dropout)            (None, 50)           0           s1Rnn[0][0]                      
__________________________________________________________________________________________________
concatenate_27 (Concatenate)    (None, 1666)         0           B_toksFlat[0][0]                 
                                                                 B_PosFlat[0][0]                  
                                                                 dropout_25[0][0]                 
                                                                 dropout_26[0][0]                 
__________________________________________________________________________________________________
dense_17 (Dense)                (None, 60)           100020      concatenate_27[0][0]             
__________________________________________________________________________________________________
dropout_27 (Dropout)            (None, 60)           0           dense_17[0][0]                   
__________________________________________________________________________________________________
dense_18 (Dense)                (None, 4)            244         dropout_27[0][0]                 
==================================================================================================
Total params: 14,039,842
Trainable params: 14,039,842
Non-trainable params: 0
__________________________________________________________________________________________________
None
==================================================================================================
…
	Important sentence: 291
	Token occurrences: 7492
	MWE number: 382
	MWE occurrences: 501
	Continuous occurrences: 79.0 %
	MWE length: 2.22
	Seen occurrences : 65% 
	Recognizable MWEs: 100.0 %

==================================================================================================
__________________________________________________________________________________________________
Layer (type)                    Output Shape         Param #     Connected to                     
==================================================================================================
S0_toks (InputLayer)            (None, 4)            0                                            
__________________________________________________________________________________________________
S0_Pos (InputLayer)             (None, 4)            0                                            
__________________________________________________________________________________________________
S1_toks (InputLayer)            (None, 4)            0                                            
__________________________________________________________________________________________________
S1_Pos (InputLayer)             (None, 4)            0                                            
__________________________________________________________________________________________________
S0_toksEmb (Embedding)          (None, 4, 480)       1762560     S0_toks[0][0]                    
__________________________________________________________________________________________________
S0_tPosEmb (Embedding)          (None, 4, 42)        672         S0_Pos[0][0]                     
__________________________________________________________________________________________________
S1_toksEmb (Embedding)          (None, 4, 480)       1762560     S1_toks[0][0]                    
__________________________________________________________________________________________________
S1_PosEmb (Embedding)           (None, 4, 42)        672         S1_Pos[0][0]                     
__________________________________________________________________________________________________
B_toks (InputLayer)             (None, 3)            0                                            
__________________________________________________________________________________________________
B_Pos (InputLayer)              (None, 3)            0                                            
__________________________________________________________________________________________________
concatenate_28 (Concatenate)    (None, 4, 522)       0           S0_toksEmb[0][0]                 
                                                                 S0_tPosEmb[0][0]                 
__________________________________________________________________________________________________
concatenate_29 (Concatenate)    (None, 4, 522)       0           S1_toksEmb[0][0]                 
                                                                 S1_PosEmb[0][0]                  
__________________________________________________________________________________________________
B_toksEmb (Embedding)           (None, 3, 480)       1762560     B_toks[0][0]                     
__________________________________________________________________________________________________
B_PosEmb (Embedding)            (None, 3, 42)        672         B_Pos[0][0]                      
__________________________________________________________________________________________________
s0Rnn (GRU)                     (None, 50)           85950       concatenate_28[0][0]             
__________________________________________________________________________________________________
s1Rnn (GRU)                     (None, 50)           85950       concatenate_29[0][0]             
__________________________________________________________________________________________________
B_toksFlat (Flatten)            (None, 1440)         0           B_toksEmb[0][0]                  
__________________________________________________________________________________________________
B_PosFlat (Flatten)             (None, 126)          0           B_PosEmb[0][0]                   
__________________________________________________________________________________________________
dropout_28 (Dropout)            (None, 50)           0           s0Rnn[0][0]                      
__________________________________________________________________________________________________
dropout_29 (Dropout)            (None, 50)           0           s1Rnn[0][0]                      
__________________________________________________________________________________________________
concatenate_30 (Concatenate)    (None, 1666)         0           B_toksFlat[0][0]                 
                                                                 B_PosFlat[0][0]                  
                                                                 dropout_28[0][0]                 
                                                                 dropout_29[0][0]                 
__________________________________________________________________________________________________
dense_19 (Dense)                (None, 60)           100020      concatenate_30[0][0]             
__________________________________________________________________________________________________
dropout_30 (Dropout)            (None, 60)           0           dense_19[0][0]                   
__________________________________________________________________________________________________
dense_20 (Dense)                (None, 4)            244         dropout_30[0][0]                 
==================================================================================================
Total params: 5,561,860
Trainable params: 5,561,860
Non-trainable params: 0
__________________________________________________________________________________________________
None
==================================================================================================
…
	MWE occurrences: 498
	Continuous occurrences: 56.0 %
	MWE length: 2.35
	Seen occurrences : 52% 
	Recognizable MWEs: 99.0 %
	Embedded occurrences: 6
	Interleaving occurrences: 6

==================================================================================================
__________________________________________________________________________________________________
Layer (type)                    Output Shape         Param #     Connected to                     
==================================================================================================
S0_toks (InputLayer)            (None, 4)            0                                            
__________________________________________________________________________________________________
S0_Pos (InputLayer)             (None, 4)            0                                            
__________________________________________________________________________________________________
S1_toks (InputLayer)            (None, 4)            0                                            
__________________________________________________________________________________________________
S1_Pos (InputLayer)             (None, 4)            0                                            
__________________________________________________________________________________________________
S0_toksEmb (Embedding)          (None, 4, 480)       11808000    S0_toks[0][0]                    
__________________________________________________________________________________________________
S0_tPosEmb (Embedding)          (None, 4, 42)        798         S0_Pos[0][0]                     
__________________________________________________________________________________________________
S1_toksEmb (Embedding)          (None, 4, 480)       11808000    S1_toks[0][0]                    
__________________________________________________________________________________________________
S1_PosEmb (Embedding)           (None, 4, 42)        798         S1_Pos[0][0]                     
__________________________________________________________________________________________________
B_toks (InputLayer)             (None, 3)            0                                            
__________________________________________________________________________________________________
B_Pos (InputLayer)              (None, 3)            0                                            
__________________________________________________________________________________________________
concatenate_31 (Concatenate)    (None, 4, 522)       0           S0_toksEmb[0][0]                 
                                                                 S0_tPosEmb[0][0]                 
__________________________________________________________________________________________________
concatenate_32 (Concatenate)    (None, 4, 522)       0           S1_toksEmb[0][0]                 
                                                                 S1_PosEmb[0][0]                  
__________________________________________________________________________________________________
B_toksEmb (Embedding)           (None, 3, 480)       11808000    B_toks[0][0]                     
__________________________________________________________________________________________________
B_PosEmb (Embedding)            (None, 3, 42)        798         B_Pos[0][0]                      
__________________________________________________________________________________________________
s0Rnn (GRU)                     (None, 50)           85950       concatenate_31[0][0]             
__________________________________________________________________________________________________
s1Rnn (GRU)                     (None, 50)           85950       concatenate_32[0][0]             
__________________________________________________________________________________________________
B_toksFlat (Flatten)            (None, 1440)         0           B_toksEmb[0][0]                  
__________________________________________________________________________________________________
B_PosFlat (Flatten)             (None, 126)          0           B_PosEmb[0][0]                   
__________________________________________________________________________________________________
dropout_31 (Dropout)            (None, 50)           0           s0Rnn[0][0]                      
__________________________________________________________________________________________________
dropout_32 (Dropout)            (None, 50)           0           s1Rnn[0][0]                      
__________________________________________________________________________________________________
concatenate_33 (Concatenate)    (None, 1666)         0           B_toksFlat[0][0]                 
                                                                 B_PosFlat[0][0]                  
                                                                 dropout_31[0][0]                 
                                                                 dropout_32[0][0]                 
__________________________________________________________________________________________________
dense_21 (Dense)                (None, 60)           100020      concatenate_33[0][0]             
__________________________________________________________________________________________________
dropout_33 (Dropout)            (None, 60)           0           dense_21[0][0]                   
__________________________________________________________________________________________________
dense_22 (Dense)                (None, 4)            244         dropout_33[0][0]                 
==================================================================================================
Total params: 35,698,558
Trainable params: 35,698,558
Non-trainable params: 0
__________________________________________________________________________________________________
None
==================================================================================================
…
	MWE occurrences: 502
	Continuous occurrences: 76.0 %
	MWE length: 2.3
	Seen occurrences : 39% 
	Recognizable MWEs: 99.0 %
	Embedded occurrences: 7
	Interleaving occurrences: 2

==================================================================================================
__________________________________________________________________________________________________
Layer (type)                    Output Shape         Param #     Connected to                     
==================================================================================================
S0_toks (InputLayer)            (None, 4)            0                                            
__________________________________________________________________________________________________
S0_Pos (InputLayer)             (None, 4)            0                                            
__________________________________________________________________________________________________
S1_toks (InputLayer)            (None, 4)            0                                            
__________________________________________________________________________________________________
S1_Pos (InputLayer)             (None, 4)            0                                            
__________________________________________________________________________________________________
S0_toksEmb (Embedding)          (None, 4, 480)       14406240    S0_toks[0][0]                    
__________________________________________________________________________________________________
S0_tPosEmb (Embedding)          (None, 4, 42)        756         S0_Pos[0][0]                     
__________________________________________________________________________________________________
S1_toksEmb (Embedding)          (None, 4, 480)       14406240    S1_toks[0][0]                    
__________________________________________________________________________________________________
S1_PosEmb (Embedding)           (None, 4, 42)        756         S1_Pos[0][0]                     
__________________________________________________________________________________________________
B_toks (InputLayer)             (None, 3)            0                                            
__________________________________________________________________________________________________
B_Pos (InputLayer)              (None, 3)            0                                            
__________________________________________________________________________________________________
concatenate_34 (Concatenate)    (None, 4, 522)       0           S0_toksEmb[0][0]                 
                                                                 S0_tPosEmb[0][0]                 
__________________________________________________________________________________________________
concatenate_35 (Concatenate)    (None, 4, 522)       0           S1_toksEmb[0][0]                 
                                                                 S1_PosEmb[0][0]                  
__________________________________________________________________________________________________
B_toksEmb (Embedding)           (None, 3, 480)       14406240    B_toks[0][0]                     
__________________________________________________________________________________________________
B_PosEmb (Embedding)            (None, 3, 42)        756         B_Pos[0][0]                      
__________________________________________________________________________________________________
s0Rnn (GRU)                     (None, 50)           85950       concatenate_34[0][0]             
__________________________________________________________________________________________________
s1Rnn (GRU)                     (None, 50)           85950       concatenate_35[0][0]             
__________________________________________________________________________________________________
B_toksFlat (Flatten)            (None, 1440)         0           B_toksEmb[0][0]                  
__________________________________________________________________________________________________
B_PosFlat (Flatten)             (None, 126)          0           B_PosEmb[0][0]                   
__________________________________________________________________________________________________
dropout_34 (Dropout)            (None, 50)           0           s0Rnn[0][0]                      
__________________________________________________________________________________________________
dropout_35 (Dropout)            (None, 50)           0           s1Rnn[0][0]                      
__________________________________________________________________________________________________
concatenate_36 (Concatenate)    (None, 1666)         0           B_toksFlat[0][0]                 
                                                                 B_PosFlat[0][0]                  
                                                                 dropout_34[0][0]                 
                                                                 dropout_35[0][0]                 
__________________________________________________________________________________________________
dense_23 (Dense)                (None, 60)           100020      concatenate_36[0][0]             
__________________________________________________________________________________________________
dropout_36 (Dropout)            (None, 60)           0           dense_23[0][0]                   
__________________________________________________________________________________________________
dense_24 (Dense)                (None, 4)            244         dropout_36[0][0]                 
==================================================================================================
Total params: 43,493,152
Trainable params: 43,493,152
Non-trainable params: 0
__________________________________________________________________________________________________
None
==================================================================================================
…
	MWE occurrences: 500
	Continuous occurrences: 93.0 %
	MWE length: 2.21
	Seen occurrences : 55% 
	Recognizable MWEs: 94.0 %
	Embedded occurrences: 5
	Interleaving occurrences: 28

==================================================================================================
__________________________________________________________________________________________________
Layer (type)                    Output Shape         Param #     Connected to                     
==================================================================================================
S0_toks (InputLayer)            (None, 4)            0                                            
__________________________________________________________________________________________________
S0_Pos (InputLayer)             (None, 4)            0                                            
__________________________________________________________________________________________________
S1_toks (InputLayer)            (None, 4)            0                                            
__________________________________________________________________________________________________
S1_Pos (InputLayer)             (None, 4)            0                                            
__________________________________________________________________________________________________
S0_toksEmb (Embedding)          (None, 4, 480)       1079040     S0_toks[0][0]                    
__________________________________________________________________________________________________
S0_tPosEmb (Embedding)          (None, 4, 42)        714         S0_Pos[0][0]                     
__________________________________________________________________________________________________
S1_toksEmb (Embedding)          (None, 4, 480)       1079040     S1_toks[0][0]                    
__________________________________________________________________________________________________
S1_PosEmb (Embedding)           (None, 4, 42)        714         S1_Pos[0][0]                     
__________________________________________________________________________________________________
B_toks (InputLayer)             (None, 3)            0                                            
__________________________________________________________________________________________________
B_Pos (InputLayer)              (None, 3)            0                                            
__________________________________________________________________________________________________
concatenate_37 (Concatenate)    (None, 4, 522)       0           S0_toksEmb[0][0]                 
                                                                 S0_tPosEmb[0][0]                 
__________________________________________________________________________________________________
concatenate_38 (Concatenate)    (None, 4, 522)       0           S1_toksEmb[0][0]                 
                                                                 S1_PosEmb[0][0]                  
__________________________________________________________________________________________________
B_toksEmb (Embedding)           (None, 3, 480)       1079040     B_toks[0][0]                     
__________________________________________________________________________________________________
B_PosEmb (Embedding)            (None, 3, 42)        714         B_Pos[0][0]                      
__________________________________________________________________________________________________
s0Rnn (GRU)                     (None, 50)           85950       concatenate_37[0][0]             
__________________________________________________________________________________________________
s1Rnn (GRU)                     (None, 50)           85950       concatenate_38[0][0]             
__________________________________________________________________________________________________
B_toksFlat (Flatten)            (None, 1440)         0           B_toksEmb[0][0]                  
__________________________________________________________________________________________________
B_PosFlat (Flatten)             (None, 126)          0           B_PosEmb[0][0]                   
__________________________________________________________________________________________________
dropout_37 (Dropout)            (None, 50)           0           s0Rnn[0][0]                      
__________________________________________________________________________________________________
dropout_38 (Dropout)            (None, 50)           0           s1Rnn[0][0]                      
__________________________________________________________________________________________________
concatenate_39 (Concatenate)    (None, 1666)         0           B_toksFlat[0][0]                 
                                                                 B_PosFlat[0][0]                  
                                                                 dropout_37[0][0]                 
                                                                 dropout_38[0][0]                 
__________________________________________________________________________________________________
dense_25 (Dense)                (None, 60)           100020      concatenate_39[0][0]             
__________________________________________________________________________________________________
dropout_39 (Dropout)            (None, 60)           0           dense_25[0][0]                   
__________________________________________________________________________________________________
dense_26 (Dense)                (None, 4)            244         dropout_39[0][0]                 
==================================================================================================
Total params: 3,511,426
Trainable params: 3,511,426
Non-trainable params: 0
__________________________________________________________________________________________________
None
==================================================================================================
…
	MWE occurrences: 501
	Continuous occurrences: 58.0 %
	MWE length: 2.2
	Seen occurrences : 56% 
	Recognizable MWEs: 96.0 %
	Embedded occurrences: 59
	Interleaving occurrences: 10

==================================================================================================
__________________________________________________________________________________________________
Layer (type)                    Output Shape         Param #     Connected to                     
==================================================================================================
S0_toks (InputLayer)            (None, 4)            0                                            
__________________________________________________________________________________________________
S0_Pos (InputLayer)             (None, 4)            0                                            
__________________________________________________________________________________________________
S1_toks (InputLayer)            (None, 4)            0                                            
__________________________________________________________________________________________________
S1_Pos (InputLayer)             (None, 4)            0                                            
__________________________________________________________________________________________________
S0_toksEmb (Embedding)          (None, 4, 480)       3757920     S0_toks[0][0]                    
__________________________________________________________________________________________________
S0_tPosEmb (Embedding)          (None, 4, 42)        798         S0_Pos[0][0]                     
__________________________________________________________________________________________________
S1_toksEmb (Embedding)          (None, 4, 480)       3757920     S1_toks[0][0]                    
__________________________________________________________________________________________________
S1_PosEmb (Embedding)           (None, 4, 42)        798         S1_Pos[0][0]                     
__________________________________________________________________________________________________
B_toks (InputLayer)             (None, 3)            0                                            
__________________________________________________________________________________________________
B_Pos (InputLayer)              (None, 3)            0                                            
__________________________________________________________________________________________________
concatenate_40 (Concatenate)    (None, 4, 522)       0           S0_toksEmb[0][0]                 
                                                                 S0_tPosEmb[0][0]                 
__________________________________________________________________________________________________
concatenate_41 (Concatenate)    (None, 4, 522)       0           S1_toksEmb[0][0]                 
                                                                 S1_PosEmb[0][0]                  
__________________________________________________________________________________________________
B_toksEmb (Embedding)           (None, 3, 480)       3757920     B_toks[0][0]                     
__________________________________________________________________________________________________
B_PosEmb (Embedding)            (None, 3, 42)        798         B_Pos[0][0]                      
__________________________________________________________________________________________________
s0Rnn (GRU)                     (None, 50)           85950       concatenate_40[0][0]             
__________________________________________________________________________________________________
s1Rnn (GRU)                     (None, 50)           85950       concatenate_41[0][0]             
__________________________________________________________________________________________________
B_toksFlat (Flatten)            (None, 1440)         0           B_toksEmb[0][0]                  
__________________________________________________________________________________________________
B_PosFlat (Flatten)             (None, 126)          0           B_PosEmb[0][0]                   
__________________________________________________________________________________________________
dropout_40 (Dropout)            (None, 50)           0           s0Rnn[0][0]                      
__________________________________________________________________________________________________
dropout_41 (Dropout)            (None, 50)           0           s1Rnn[0][0]                      
__________________________________________________________________________________________________
concatenate_42 (Concatenate)    (None, 1666)         0           B_toksFlat[0][0]                 
                                                                 B_PosFlat[0][0]                  
                                                                 dropout_40[0][0]                 
                                                                 dropout_41[0][0]                 
__________________________________________________________________________________________________
dense_27 (Dense)                (None, 60)           100020      concatenate_42[0][0]             
__________________________________________________________________________________________________
dropout_42 (Dropout)            (None, 60)           0           dense_27[0][0]                   
__________________________________________________________________________________________________
dense_28 (Dense)                (None, 4)            244         dropout_42[0][0]                 
==================================================================================================
Total params: 11,548,318
Trainable params: 11,548,318
Non-trainable params: 0
__________________________________________________________________________________________________
None
==================================================================================================
…
	Continuous occurrences: 24.0 %
	MWE length: 1.33
	Seen occurrences : 91% 
	Recognizable MWEs: 99.0 %
	MWT occurrences: 523
	Embedded occurrences: 18
	Interleaving occurrences: 4

==================================================================================================
__________________________________________________________________________________________________
Layer (type)                    Output Shape         Param #     Connected to                     
==================================================================================================
S0_toks (InputLayer)            (None, 4)            0                                            
__________________________________________________________________________________________________
S0_Pos (InputLayer)             (None, 4)            0                                            
__________________________________________________________________________________________________
S1_toks (InputLayer)            (None, 4)            0                                            
__________________________________________________________________________________________________
S1_Pos (InputLayer)             (None, 4)            0                                            
__________________________________________________________________________________________________
S0_toksEmb (Embedding)          (None, 4, 480)       2890560     S0_toks[0][0]                    
__________________________________________________________________________________________________
S0_tPosEmb (Embedding)          (None, 4, 42)        1344        S0_Pos[0][0]                     
__________________________________________________________________________________________________
S1_toksEmb (Embedding)          (None, 4, 480)       2890560     S1_toks[0][0]                    
__________________________________________________________________________________________________
S1_PosEmb (Embedding)           (None, 4, 42)        1344        S1_Pos[0][0]                     
__________________________________________________________________________________________________
B_toks (InputLayer)             (None, 3)            0                                            
__________________________________________________________________________________________________
B_Pos (InputLayer)              (None, 3)            0                                            
__________________________________________________________________________________________________
concatenate_43 (Concatenate)    (None, 4, 522)       0           S0_toksEmb[0][0]                 
                                                                 S0_tPosEmb[0][0]                 
__________________________________________________________________________________________________
concatenate_44 (Concatenate)    (None, 4, 522)       0           S1_toksEmb[0][0]                 
                                                                 S1_PosEmb[0][0]                  
__________________________________________________________________________________________________
B_toksEmb (Embedding)           (None, 3, 480)       2890560     B_toks[0][0]                     
__________________________________________________________________________________________________
B_PosEmb (Embedding)            (None, 3, 42)        1344        B_Pos[0][0]                      
__________________________________________________________________________________________________
s0Rnn (GRU)                     (None, 50)           85950       concatenate_43[0][0]             
__________________________________________________________________________________________________
s1Rnn (GRU)                     (None, 50)           85950       concatenate_44[0][0]             
__________________________________________________________________________________________________
B_toksFlat (Flatten)            (None, 1440)         0           B_toksEmb[0][0]                  
__________________________________________________________________________________________________
B_PosFlat (Flatten)             (None, 126)          0           B_PosEmb[0][0]                   
__________________________________________________________________________________________________
dropout_43 (Dropout)            (None, 50)           0           s0Rnn[0][0]                      
__________________________________________________________________________________________________
dropout_44 (Dropout)            (None, 50)           0           s1Rnn[0][0]                      
__________________________________________________________________________________________________
concatenate_45 (Concatenate)    (None, 1666)         0           B_toksFlat[0][0]                 
                                                                 B_PosFlat[0][0]                  
                                                                 dropout_43[0][0]                 
                                                                 dropout_44[0][0]                 
__________________________________________________________________________________________________
dense_29 (Dense)                (None, 60)           100020      concatenate_45[0][0]             
__________________________________________________________________________________________________
dropout_45 (Dropout)            (None, 60)           0           dense_29[0][0]                   
__________________________________________________________________________________________________
dense_30 (Dense)                (None, 4)            244         dropout_45[0][0]                 
==================================================================================================
Total params: 8,947,876
Trainable params: 8,947,876
Non-trainable params: 0
__________________________________________________________________________________________________
None
==================================================================================================
…
	MWE occurrences: 503
	Continuous occurrences: 67.0 %
	MWE length: 2.6
	Seen occurrences : 59% 
	Recognizable MWEs: 95.0 %
	Embedded occurrences: 25
	Interleaving occurrences: 7

==================================================================================================
__________________________________________________________________________________________________
Layer (type)                    Output Shape         Param #     Connected to                     
==================================================================================================
S0_toks (InputLayer)            (None, 4)            0                                            
__________________________________________________________________________________________________
S0_Pos (InputLayer)             (None, 4)            0                                            
__________________________________________________________________________________________________
S1_toks (InputLayer)            (None, 4)            0                                            
__________________________________________________________________________________________________
S1_Pos (InputLayer)             (None, 4)            0                                            
__________________________________________________________________________________________________
S0_toksEmb (Embedding)          (None, 4, 480)       9144960     S0_toks[0][0]                    
__________________________________________________________________________________________________
S0_tPosEmb (Embedding)          (None, 4, 42)        672         S0_Pos[0][0]                     
__________________________________________________________________________________________________
S1_toksEmb (Embedding)          (None, 4, 480)       9144960     S1_toks[0][0]                    
__________________________________________________________________________________________________
S1_PosEmb (Embedding)           (None, 4, 42)        672         S1_Pos[0][0]                     
__________________________________________________________________________________________________
B_toks (InputLayer)             (None, 3)            0                                            
__________________________________________________________________________________________________
B_Pos (InputLayer)              (None, 3)            0                                            
__________________________________________________________________________________________________
concatenate_46 (Concatenate)    (None, 4, 522)       0           S0_toksEmb[0][0]                 
                                                                 S0_tPosEmb[0][0]                 
__________________________________________________________________________________________________
concatenate_47 (Concatenate)    (None, 4, 522)       0           S1_toksEmb[0][0]                 
                                                                 S1_PosEmb[0][0]                  
__________________________________________________________________________________________________
B_toksEmb (Embedding)           (None, 3, 480)       9144960     B_toks[0][0]                     
__________________________________________________________________________________________________
B_PosEmb (Embedding)            (None, 3, 42)        672         B_Pos[0][0]                      
__________________________________________________________________________________________________
s0Rnn (GRU)                     (None, 50)           85950       concatenate_46[0][0]             
__________________________________________________________________________________________________
s1Rnn (GRU)                     (None, 50)           85950       concatenate_47[0][0]             
__________________________________________________________________________________________________
B_toksFlat (Flatten)            (None, 1440)         0           B_toksEmb[0][0]                  
__________________________________________________________________________________________________
B_PosFlat (Flatten)             (None, 126)          0           B_PosEmb[0][0]                   
__________________________________________________________________________________________________
dropout_46 (Dropout)            (None, 50)           0           s0Rnn[0][0]                      
__________________________________________________________________________________________________
dropout_47 (Dropout)            (None, 50)           0           s1Rnn[0][0]                      
__________________________________________________________________________________________________
concatenate_48 (Concatenate)    (None, 1666)         0           B_toksFlat[0][0]                 
                                                                 B_PosFlat[0][0]                  
                                                                 dropout_46[0][0]                 
                                                                 dropout_47[0][0]                 
__________________________________________________________________________________________________
dense_31 (Dense)                (None, 60)           100020      concatenate_48[0][0]             
__________________________________________________________________________________________________
dropout_48 (Dropout)            (None, 60)           0           dense_31[0][0]                   
__________________________________________________________________________________________________
dense_32 (Dense)                (None, 4)            244         dropout_48[0][0]                 
==================================================================================================
Total params: 27,709,060
Trainable params: 27,709,060
Non-trainable params: 0
__________________________________________________________________________________________________
None
==================================================================================================
…
	MWE occurrences: 500
	Continuous occurrences: 60.0 %
	MWE length: 2.25
	Seen occurrences : 38% 
	Recognizable MWEs: 99.0 %
	Embedded occurrences: 1
	Interleaving occurrences: 2

==================================================================================================
__________________________________________________________________________________________________
Layer (type)                    Output Shape         Param #     Connected to                     
==================================================================================================
S0_toks (InputLayer)            (None, 4)            0                                            
__________________________________________________________________________________________________
S0_Pos (InputLayer)             (None, 4)            0                                            
__________________________________________________________________________________________________
S1_toks (InputLayer)            (None, 4)            0                                            
__________________________________________________________________________________________________
S1_Pos (InputLayer)             (None, 4)            0                                            
__________________________________________________________________________________________________
S0_toksEmb (Embedding)          (None, 4, 480)       4032960     S0_toks[0][0]                    
__________________________________________________________________________________________________
S0_tPosEmb (Embedding)          (None, 4, 42)        672         S0_Pos[0][0]                     
__________________________________________________________________________________________________
S1_toksEmb (Embedding)          (None, 4, 480)       4032960     S1_toks[0][0]                    
__________________________________________________________________________________________________
S1_PosEmb (Embedding)           (None, 4, 42)        672         S1_Pos[0][0]                     
__________________________________________________________________________________________________
B_toks (InputLayer)             (None, 3)            0                                            
__________________________________________________________________________________________________
B_Pos (InputLayer)              (None, 3)            0                                            
__________________________________________________________________________________________________
concatenate_49 (Concatenate)    (None, 4, 522)       0           S0_toksEmb[0][0]                 
                                                                 S0_tPosEmb[0][0]                 
__________________________________________________________________________________________________
concatenate_50 (Concatenate)    (None, 4, 522)       0           S1_toksEmb[0][0]                 
                                                                 S1_PosEmb[0][0]                  
__________________________________________________________________________________________________
B_toksEmb (Embedding)           (None, 3, 480)       4032960     B_toks[0][0]                     
__________________________________________________________________________________________________
B_PosEmb (Embedding)            (None, 3, 42)        672         B_Pos[0][0]                      
__________________________________________________________________________________________________
s0Rnn (GRU)                     (None, 50)           85950       concatenate_49[0][0]             
__________________________________________________________________________________________________
s1Rnn (GRU)                     (None, 50)           85950       concatenate_50[0][0]             
__________________________________________________________________________________________________
B_toksFlat (Flatten)            (None, 1440)         0           B_toksEmb[0][0]                  
__________________________________________________________________________________________________
B_PosFlat (Flatten)             (None, 126)          0           B_PosEmb[0][0]                   
__________________________________________________________________________________________________
dropout_49 (Dropout)            (None, 50)           0           s0Rnn[0][0]                      
__________________________________________________________________________________________________
dropout_50 (Dropout)            (None, 50)           0           s1Rnn[0][0]                      
__________________________________________________________________________________________________
concatenate_51 (Concatenate)    (None, 1666)         0           B_toksFlat[0][0]                 
                                                                 B_PosFlat[0][0]                  
                                                                 dropout_49[0][0]                 
                                                                 dropout_50[0][0]                 
__________________________________________________________________________________________________
dense_33 (Dense)                (None, 60)           100020      concatenate_51[0][0]             
__________________________________________________________________________________________________
dropout_51 (Dropout)            (None, 60)           0           dense_33[0][0]                   
__________________________________________________________________________________________________
dense_34 (Dense)                (None, 4)            244         dropout_51[0][0]                 
==================================================================================================
Total params: 12,373,060
Trainable params: 12,373,060
Non-trainable params: 0
__________________________________________________________________________________________________
None
==================================================================================================
…
	MWE occurrences: 515
	Continuous occurrences: 70.0 %
	MWE length: 2.15
	Seen occurrences : 68% 
	Recognizable MWEs: 99.0 %
	Embedded occurrences: 12
	Interleaving occurrences: 4

==================================================================================================
__________________________________________________________________________________________________
Layer (type)                    Output Shape         Param #     Connected to                     
==================================================================================================
S0_toks (InputLayer)            (None, 4)            0                                            
__________________________________________________________________________________________________
S0_Pos (InputLayer)             (None, 4)            0                                            
__________________________________________________________________________________________________
S1_toks (InputLayer)            (None, 4)            0                                            
__________________________________________________________________________________________________
S1_Pos (InputLayer)             (None, 4)            0                                            
__________________________________________________________________________________________________
S0_toksEmb (Embedding)          (None, 4, 480)       8161440     S0_toks[0][0]                    
__________________________________________________________________________________________________
S0_tPosEmb (Embedding)          (None, 4, 42)        840         S0_Pos[0][0]                     
__________________________________________________________________________________________________
S1_toksEmb (Embedding)          (None, 4, 480)       8161440     S1_toks[0][0]                    
__________________________________________________________________________________________________
S1_PosEmb (Embedding)           (None, 4, 42)        840         S1_Pos[0][0]                     
__________________________________________________________________________________________________
B_toks (InputLayer)             (None, 3)            0                                            
__________________________________________________________________________________________________
B_Pos (InputLayer)              (None, 3)            0                                            
__________________________________________________________________________________________________
concatenate_52 (Concatenate)    (None, 4, 522)       0           S0_toksEmb[0][0]                 
                                                                 S0_tPosEmb[0][0]                 
__________________________________________________________________________________________________
concatenate_53 (Concatenate)    (None, 4, 522)       0           S1_toksEmb[0][0]                 
                                                                 S1_PosEmb[0][0]                  
__________________________________________________________________________________________________
B_toksEmb (Embedding)           (None, 3, 480)       8161440     B_toks[0][0]                     
__________________________________________________________________________________________________
B_PosEmb (Embedding)            (None, 3, 42)        840         B_Pos[0][0]                      
__________________________________________________________________________________________________
s0Rnn (GRU)                     (None, 50)           85950       concatenate_52[0][0]             
__________________________________________________________________________________________________
s1Rnn (GRU)                     (None, 50)           85950       concatenate_53[0][0]             
__________________________________________________________________________________________________
B_toksFlat (Flatten)            (None, 1440)         0           B_toksEmb[0][0]                  
__________________________________________________________________________________________________
B_PosFlat (Flatten)             (None, 126)          0           B_PosEmb[0][0]                   
__________________________________________________________________________________________________
dropout_52 (Dropout)            (None, 50)           0           s0Rnn[0][0]                      
__________________________________________________________________________________________________
dropout_53 (Dropout)            (None, 50)           0           s1Rnn[0][0]                      
__________________________________________________________________________________________________
concatenate_54 (Concatenate)    (None, 1666)         0           B_toksFlat[0][0]                 
                                                                 B_PosFlat[0][0]                  
                                                                 dropout_52[0][0]                 
                                                                 dropout_53[0][0]                 
__________________________________________________________________________________________________
dense_35 (Dense)                (None, 60)           100020      concatenate_54[0][0]             
__________________________________________________________________________________________________
dropout_54 (Dropout)            (None, 60)           0           dense_35[0][0]                   
__________________________________________________________________________________________________
dense_36 (Dense)                (None, 4)            244         dropout_54[0][0]                 
==================================================================================================
Total params: 24,759,004
Trainable params: 24,759,004
Non-trainable params: 0
__________________________________________________________________________________________________
None
==================================================================================================
…
	MWE occurrences: 553
	Continuous occurrences: 57.0 %
	MWE length: 2.25
	Seen occurrences : 69% 
	Recognizable MWEs: 97.0 %
	Embedded occurrences: 3
	Interleaving occurrences: 13

==================================================================================================
__________________________________________________________________________________________________
Layer (type)                    Output Shape         Param #     Connected to                     
==================================================================================================
S0_toks (InputLayer)            (None, 4)            0                                            
__________________________________________________________________________________________________
S0_Pos (InputLayer)             (None, 4)            0                                            
__________________________________________________________________________________________________
S1_toks (InputLayer)            (None, 4)            0                                            
__________________________________________________________________________________________________
S1_Pos (InputLayer)             (None, 4)            0                                            
__________________________________________________________________________________________________
S0_toksEmb (Embedding)          (None, 4, 480)       10263840    S0_toks[0][0]                    
__________________________________________________________________________________________________
S0_tPosEmb (Embedding)          (None, 4, 42)        798         S0_Pos[0][0]                     
__________________________________________________________________________________________________
S1_toksEmb (Embedding)          (None, 4, 480)       10263840    S1_toks[0][0]                    
__________________________________________________________________________________________________
S1_PosEmb (Embedding)           (None, 4, 42)        798         S1_Pos[0][0]                     
__________________________________________________________________________________________________
B_toks (InputLayer)             (None, 3)            0                                            
__________________________________________________________________________________________________
B_Pos (InputLayer)              (None, 3)            0                                            
__________________________________________________________________________________________________
concatenate_55 (Concatenate)    (None, 4, 522)       0           S0_toksEmb[0][0]                 
                                                                 S0_tPosEmb[0][0]                 
__________________________________________________________________________________________________
concatenate_56 (Concatenate)    (None, 4, 522)       0           S1_toksEmb[0][0]                 
                                                                 S1_PosEmb[0][0]                  
__________________________________________________________________________________________________
B_toksEmb (Embedding)           (None, 3, 480)       10263840    B_toks[0][0]                     
__________________________________________________________________________________________________
B_PosEmb (Embedding)            (None, 3, 42)        798         B_Pos[0][0]                      
__________________________________________________________________________________________________
s0Rnn (GRU)                     (None, 50)           85950       concatenate_55[0][0]             
__________________________________________________________________________________________________
s1Rnn (GRU)                     (None, 50)           85950       concatenate_56[0][0]             
__________________________________________________________________________________________________
B_toksFlat (Flatten)            (None, 1440)         0           B_toksEmb[0][0]                  
__________________________________________________________________________________________________
B_PosFlat (Flatten)             (None, 126)          0           B_PosEmb[0][0]                   
__________________________________________________________________________________________________
dropout_55 (Dropout)            (None, 50)           0           s0Rnn[0][0]                      
__________________________________________________________________________________________________
dropout_56 (Dropout)            (None, 50)           0           s1Rnn[0][0]                      
__________________________________________________________________________________________________
concatenate_57 (Concatenate)    (None, 1666)         0           B_toksFlat[0][0]                 
                                                                 B_PosFlat[0][0]                  
                                                                 dropout_55[0][0]                 
                                                                 dropout_56[0][0]                 
__________________________________________________________________________________________________
dense_37 (Dense)                (None, 60)           100020      concatenate_57[0][0]             
__________________________________________________________________________________________________
dropout_57 (Dropout)            (None, 60)           0           dense_37[0][0]                   
__________________________________________________________________________________________________
dense_38 (Dense)                (None, 4)            244         dropout_57[0][0]                 
==================================================================================================
Total params: 31,066,078
Trainable params: 31,066,078
Non-trainable params: 0
__________________________________________________________________________________________________
None
==================================================================================================
…
	Token occurrences: 114997
	MWE number: 202
	MWE occurrences: 589
	Continuous occurrences: 67.0 %
	MWE length: 2.15
	Seen occurrences : 94% 
	Recognizable MWEs: 100.0 %
	Embedded occurrences: 1

==================================================================================================
__________________________________________________________________________________________________
Layer (type)                    Output Shape         Param #     Connected to                     
==================================================================================================
S0_toks (InputLayer)            (None, 4)            0                                            
__________________________________________________________________________________________________
S0_Pos (InputLayer)             (None, 4)            0                                            
__________________________________________________________________________________________________
S1_toks (InputLayer)            (None, 4)            0                                            
__________________________________________________________________________________________________
S1_Pos (InputLayer)             (None, 4)            0                                            
__________________________________________________________________________________________________
S0_toksEmb (Embedding)          (None, 4, 480)       12349440    S0_toks[0][0]                    
__________________________________________________________________________________________________
S0_tPosEmb (Embedding)          (None, 4, 42)        798         S0_Pos[0][0]                     
__________________________________________________________________________________________________
S1_toksEmb (Embedding)          (None, 4, 480)       12349440    S1_toks[0][0]                    
__________________________________________________________________________________________________
S1_PosEmb (Embedding)           (None, 4, 42)        798         S1_Pos[0][0]                     
__________________________________________________________________________________________________
B_toks (InputLayer)             (None, 3)            0                                            
__________________________________________________________________________________________________
B_Pos (InputLayer)              (None, 3)            0                                            
__________________________________________________________________________________________________
concatenate_58 (Concatenate)    (None, 4, 522)       0           S0_toksEmb[0][0]                 
                                                                 S0_tPosEmb[0][0]                 
__________________________________________________________________________________________________
concatenate_59 (Concatenate)    (None, 4, 522)       0           S1_toksEmb[0][0]                 
                                                                 S1_PosEmb[0][0]                  
__________________________________________________________________________________________________
B_toksEmb (Embedding)           (None, 3, 480)       12349440    B_toks[0][0]                     
__________________________________________________________________________________________________
B_PosEmb (Embedding)            (None, 3, 42)        798         B_Pos[0][0]                      
__________________________________________________________________________________________________
s0Rnn (GRU)                     (None, 50)           85950       concatenate_58[0][0]             
__________________________________________________________________________________________________
s1Rnn (GRU)                     (None, 50)           85950       concatenate_59[0][0]             
__________________________________________________________________________________________________
B_toksFlat (Flatten)            (None, 1440)         0           B_toksEmb[0][0]                  
__________________________________________________________________________________________________
B_PosFlat (Flatten)             (None, 126)          0           B_PosEmb[0][0]                   
__________________________________________________________________________________________________
dropout_58 (Dropout)            (None, 50)           0           s0Rnn[0][0]                      
__________________________________________________________________________________________________
dropout_59 (Dropout)            (None, 50)           0           s1Rnn[0][0]                      
__________________________________________________________________________________________________
concatenate_60 (Concatenate)    (None, 1666)         0           B_toksFlat[0][0]                 
                                                                 B_PosFlat[0][0]                  
                                                                 dropout_58[0][0]                 
                                                                 dropout_59[0][0]                 
__________________________________________________________________________________________________
dense_39 (Dense)                (None, 60)           100020      concatenate_60[0][0]             
__________________________________________________________________________________________________
dropout_60 (Dropout)            (None, 60)           0           dense_39[0][0]                   
__________________________________________________________________________________________________
dense_40 (Dense)                (None, 4)            244         dropout_60[0][0]                 
==================================================================================================
Total params: 37,322,878
Trainable params: 37,322,878
Non-trainable params: 0
__________________________________________________________________________________________________
None
==================================================================================================
…
	MWE occurrences: 500
	Continuous occurrences: 49.0 %
	MWE length: 2.23
	Seen occurrences : 72% 
	Recognizable MWEs: 99.0 %
	MWT occurrences: 1
	Interleaving occurrences: 3

==================================================================================================
__________________________________________________________________________________________________
Layer (type)                    Output Shape         Param #     Connected to                     
==================================================================================================
S0_toks (InputLayer)            (None, 4)            0                                            
__________________________________________________________________________________________________
S0_Pos (InputLayer)             (None, 4)            0                                            
__________________________________________________________________________________________________
S1_toks (InputLayer)            (None, 4)            0                                            
__________________________________________________________________________________________________
S1_Pos (InputLayer)             (None, 4)            0                                            
__________________________________________________________________________________________________
S0_toksEmb (Embedding)          (None, 4, 480)       8457120     S0_toks[0][0]                    
__________________________________________________________________________________________________
S0_tPosEmb (Embedding)          (None, 4, 42)        126         S0_Pos[0][0]                     
__________________________________________________________________________________________________
S1_toksEmb (Embedding)          (None, 4, 480)       8457120     S1_toks[0][0]                    
__________________________________________________________________________________________________
S1_PosEmb (Embedding)           (None, 4, 42)        126         S1_Pos[0][0]                     
__________________________________________________________________________________________________
B_toks (InputLayer)             (None, 3)            0                                            
__________________________________________________________________________________________________
B_Pos (InputLayer)              (None, 3)            0                                            
__________________________________________________________________________________________________
concatenate_61 (Concatenate)    (None, 4, 522)       0           S0_toksEmb[0][0]                 
                                                                 S0_tPosEmb[0][0]                 
__________________________________________________________________________________________________
concatenate_62 (Concatenate)    (None, 4, 522)       0           S1_toksEmb[0][0]                 
                                                                 S1_PosEmb[0][0]                  
__________________________________________________________________________________________________
B_toksEmb (Embedding)           (None, 3, 480)       8457120     B_toks[0][0]                     
__________________________________________________________________________________________________
B_PosEmb (Embedding)            (None, 3, 42)        126         B_Pos[0][0]                      
__________________________________________________________________________________________________
s0Rnn (GRU)                     (None, 50)           85950       concatenate_61[0][0]             
__________________________________________________________________________________________________
s1Rnn (GRU)                     (None, 50)           85950       concatenate_62[0][0]             
__________________________________________________________________________________________________
B_toksFlat (Flatten)            (None, 1440)         0           B_toksEmb[0][0]                  
__________________________________________________________________________________________________
B_PosFlat (Flatten)             (None, 126)          0           B_PosEmb[0][0]                   
__________________________________________________________________________________________________
dropout_61 (Dropout)            (None, 50)           0           s0Rnn[0][0]                      
__________________________________________________________________________________________________
dropout_62 (Dropout)            (None, 50)           0           s1Rnn[0][0]                      
__________________________________________________________________________________________________
concatenate_63 (Concatenate)    (None, 1666)         0           B_toksFlat[0][0]                 
                                                                 B_PosFlat[0][0]                  
                                                                 dropout_61[0][0]                 
                                                                 dropout_62[0][0]                 
__________________________________________________________________________________________________
dense_41 (Dense)                (None, 60)           100020      concatenate_63[0][0]             
__________________________________________________________________________________________________
dropout_63 (Dropout)            (None, 60)           0           dense_41[0][0]                   
__________________________________________________________________________________________________
dense_42 (Dense)                (None, 4)            244         dropout_63[0][0]                 
==================================================================================================
Total params: 25,643,902
Trainable params: 25,643,902
Non-trainable params: 0
__________________________________________________________________________________________________
None
==================================================================================================
…
	MWE occurrences: 506
	Continuous occurrences: 40.0 %
	MWE length: 2.07
	Seen occurrences : 39% 
	Recognizable MWEs: 99.0 %
	MWT occurrences: 4
	Interleaving occurrences: 3

==================================================================================================
__________________________________________________________________________________________________
Layer (type)                    Output Shape         Param #     Connected to                     
==================================================================================================
S0_toks (InputLayer)            (None, 4)            0                                            
__________________________________________________________________________________________________
S0_Pos (InputLayer)             (None, 4)            0                                            
__________________________________________________________________________________________________
S1_toks (InputLayer)            (None, 4)            0                                            
__________________________________________________________________________________________________
S1_Pos (InputLayer)             (None, 4)            0                                            
__________________________________________________________________________________________________
S0_toksEmb (Embedding)          (None, 4, 480)       10063200    S0_toks[0][0]                    
__________________________________________________________________________________________________
S0_tPosEmb (Embedding)          (None, 4, 42)        630         S0_Pos[0][0]                     
__________________________________________________________________________________________________
S1_toksEmb (Embedding)          (None, 4, 480)       10063200    S1_toks[0][0]                    
__________________________________________________________________________________________________
S1_PosEmb (Embedding)           (None, 4, 42)        630         S1_Pos[0][0]                     
__________________________________________________________________________________________________
B_toks (InputLayer)             (None, 3)            0                                            
__________________________________________________________________________________________________
B_Pos (InputLayer)              (None, 3)            0                                            
__________________________________________________________________________________________________
concatenate_64 (Concatenate)    (None, 4, 522)       0           S0_toksEmb[0][0]                 
                                                                 S0_tPosEmb[0][0]                 
__________________________________________________________________________________________________
concatenate_65 (Concatenate)    (None, 4, 522)       0           S1_toksEmb[0][0]                 
                                                                 S1_PosEmb[0][0]                  
__________________________________________________________________________________________________
B_toksEmb (Embedding)           (None, 3, 480)       10063200    B_toks[0][0]                     
__________________________________________________________________________________________________
B_PosEmb (Embedding)            (None, 3, 42)        630         B_Pos[0][0]                      
__________________________________________________________________________________________________
s0Rnn (GRU)                     (None, 50)           85950       concatenate_64[0][0]             
__________________________________________________________________________________________________
s1Rnn (GRU)                     (None, 50)           85950       concatenate_65[0][0]             
__________________________________________________________________________________________________
B_toksFlat (Flatten)            (None, 1440)         0           B_toksEmb[0][0]                  
__________________________________________________________________________________________________
B_PosFlat (Flatten)             (None, 126)          0           B_PosEmb[0][0]                   
__________________________________________________________________________________________________
dropout_64 (Dropout)            (None, 50)           0           s0Rnn[0][0]                      
__________________________________________________________________________________________________
dropout_65 (Dropout)            (None, 50)           0           s1Rnn[0][0]                      
__________________________________________________________________________________________________
concatenate_66 (Concatenate)    (None, 1666)         0           B_toksFlat[0][0]                 
                                                                 B_PosFlat[0][0]                  
                                                                 dropout_64[0][0]                 
                                                                 dropout_65[0][0]                 
__________________________________________________________________________________________________
dense_43 (Dense)                (None, 60)           100020      concatenate_66[0][0]             
__________________________________________________________________________________________________
dropout_66 (Dropout)            (None, 60)           0           dense_43[0][0]                   
__________________________________________________________________________________________________
dense_44 (Dense)                (None, 4)            244         dropout_66[0][0]                 
==================================================================================================
Total params: 30,463,654
Trainable params: 30,463,654
Non-trainable params: 0
__________________________________________________________________________________________________
None
==================================================================================================
…
