…
	Tokens := 11438 * POS : 152
__________________________________________________________________________________________________
	Important words not in vocabulary 675
	MWE not in vocabulary 1297
	Dashed keys in vocabulary 2182
	One occurrence keys in vocabulary 2182 / 11438
__________________________________________________________________________________________________
Layer (type)                    Output Shape         Param #     Connected to                     
==================================================================================================
phraseTokens (InputLayer)       (None, 50)           0                                            
__________________________________________________________________________________________________
phrasePoss (InputLayer)         (None, 50)           0                                            
__________________________________________________________________________________________________
transTokens (InputLayer)        (None, 3)            0                                            
__________________________________________________________________________________________________
transPoss (InputLayer)          (None, 3)            0                                            
__________________________________________________________________________________________________
phraseTokenEmb (Embedding)      (None, 50, 25)       285950      phraseTokens[0][0]               
__________________________________________________________________________________________________
phrasePosEmb (Embedding)        (None, 50, 12)       1824        phrasePoss[0][0]                 
__________________________________________________________________________________________________
transTokenEmb (Embedding)       (None, 3, 50)        571900      transTokens[0][0]                
__________________________________________________________________________________________________
transPosEmb (Embedding)         (None, 3, 5)         760         transPoss[0][0]                  
__________________________________________________________________________________________________
concatenate_1 (Concatenate)     (None, 50, 37)       0           phraseTokenEmb[0][0]             
                                                                 phrasePosEmb[0][0]               
__________________________________________________________________________________________________
transTokenFlat (Flatten)        (None, 150)          0           transTokenEmb[0][0]              
__________________________________________________________________________________________________
transPosFlat (Flatten)          (None, 15)           0           transPosEmb[0][0]                
__________________________________________________________________________________________________
phraseRnn (GRU)                 (None, 159)          93969       concatenate_1[0][0]              
__________________________________________________________________________________________________
concatenate_2 (Concatenate)     (None, 165)          0           transTokenFlat[0][0]             
                                                                 transPosFlat[0][0]               
__________________________________________________________________________________________________
concatenate_3 (Concatenate)     (None, 324)          0           phraseRnn[0][0]                  
                                                                 concatenate_2[0][0]              
__________________________________________________________________________________________________
dense_1 (Dense)                 (None, 126)          40950       concatenate_3[0][0]              
__________________________________________________________________________________________________
dense_2 (Dense)                 (None, 4)            508         dense_1[0][0]                    
==================================================================================================
Total params: 995,861
Trainable params: 995,861
Non-trainable params: 0
__________________________________________________________________________________________________
None
__________________________________________________________________________________________________
…
	Tokens := 9401 * POS : 169
__________________________________________________________________________________________________
	Important words not in vocabulary 182
	MWE not in vocabulary 1082
	Dashed keys in vocabulary 2380
	One occurrence keys in vocabulary 2380 / 9401
__________________________________________________________________________________________________
Layer (type)                    Output Shape         Param #     Connected to                     
==================================================================================================
phraseTokens (InputLayer)       (None, 50)           0                                            
__________________________________________________________________________________________________
phrasePoss (InputLayer)         (None, 50)           0                                            
__________________________________________________________________________________________________
transTokens (InputLayer)        (None, 3)            0                                            
__________________________________________________________________________________________________
transPoss (InputLayer)          (None, 3)            0                                            
__________________________________________________________________________________________________
phraseTokenEmb (Embedding)      (None, 50, 25)       235025      phraseTokens[0][0]               
__________________________________________________________________________________________________
phrasePosEmb (Embedding)        (None, 50, 12)       2028        phrasePoss[0][0]                 
__________________________________________________________________________________________________
transTokenEmb (Embedding)       (None, 3, 50)        470050      transTokens[0][0]                
__________________________________________________________________________________________________
transPosEmb (Embedding)         (None, 3, 5)         845         transPoss[0][0]                  
__________________________________________________________________________________________________
concatenate_4 (Concatenate)     (None, 50, 37)       0           phraseTokenEmb[0][0]             
                                                                 phrasePosEmb[0][0]               
__________________________________________________________________________________________________
transTokenFlat (Flatten)        (None, 150)          0           transTokenEmb[0][0]              
__________________________________________________________________________________________________
transPosFlat (Flatten)          (None, 15)           0           transPosEmb[0][0]                
__________________________________________________________________________________________________
phraseRnn (GRU)                 (None, 159)          93969       concatenate_4[0][0]              
__________________________________________________________________________________________________
concatenate_5 (Concatenate)     (None, 165)          0           transTokenFlat[0][0]             
                                                                 transPosFlat[0][0]               
__________________________________________________________________________________________________
concatenate_6 (Concatenate)     (None, 324)          0           phraseRnn[0][0]                  
                                                                 concatenate_5[0][0]              
__________________________________________________________________________________________________
dense_3 (Dense)                 (None, 126)          40950       concatenate_6[0][0]              
__________________________________________________________________________________________________
dense_4 (Dense)                 (None, 4)            508         dense_3[0][0]                    
==================================================================================================
Total params: 843,375
Trainable params: 843,375
Non-trainable params: 0
__________________________________________________________________________________________________
None
__________________________________________________________________________________________________
…
	Tokens := 22071 * POS : 109
__________________________________________________________________________________________________
	Important words not in vocabulary 221
	MWE not in vocabulary 1768
	Dashed keys in vocabulary 3975
	One occurrence keys in vocabulary 3975 / 22071
__________________________________________________________________________________________________
Layer (type)                    Output Shape         Param #     Connected to                     
==================================================================================================
phraseTokens (InputLayer)       (None, 50)           0                                            
__________________________________________________________________________________________________
phrasePoss (InputLayer)         (None, 50)           0                                            
__________________________________________________________________________________________________
transTokens (InputLayer)        (None, 3)            0                                            
__________________________________________________________________________________________________
transPoss (InputLayer)          (None, 3)            0                                            
__________________________________________________________________________________________________
phraseTokenEmb (Embedding)      (None, 50, 25)       551775      phraseTokens[0][0]               
__________________________________________________________________________________________________
phrasePosEmb (Embedding)        (None, 50, 12)       1308        phrasePoss[0][0]                 
__________________________________________________________________________________________________
transTokenEmb (Embedding)       (None, 3, 50)        1103550     transTokens[0][0]                
__________________________________________________________________________________________________
transPosEmb (Embedding)         (None, 3, 5)         545         transPoss[0][0]                  
__________________________________________________________________________________________________
concatenate_7 (Concatenate)     (None, 50, 37)       0           phraseTokenEmb[0][0]             
                                                                 phrasePosEmb[0][0]               
__________________________________________________________________________________________________
transTokenFlat (Flatten)        (None, 150)          0           transTokenEmb[0][0]              
__________________________________________________________________________________________________
transPosFlat (Flatten)          (None, 15)           0           transPosEmb[0][0]                
__________________________________________________________________________________________________
phraseRnn (GRU)                 (None, 159)          93969       concatenate_7[0][0]              
__________________________________________________________________________________________________
concatenate_8 (Concatenate)     (None, 165)          0           transTokenFlat[0][0]             
                                                                 transPosFlat[0][0]               
__________________________________________________________________________________________________
concatenate_9 (Concatenate)     (None, 324)          0           phraseRnn[0][0]                  
                                                                 concatenate_8[0][0]              
__________________________________________________________________________________________________
dense_5 (Dense)                 (None, 126)          40950       concatenate_9[0][0]              
__________________________________________________________________________________________________
dense_6 (Dense)                 (None, 4)            508         dense_5[0][0]                    
==================================================================================================
Total params: 1,792,605
Trainable params: 1,792,605
Non-trainable params: 0
__________________________________________________________________________________________________
None
__________________________________________________________________________________________________
…
==================================================================================================
	Tokens := 7545 * POS : 152
__________________________________________________________________________________________________
	Dashed keys in vocabulary 1622
	One occurrence keys in vocabulary 1622 / 7545
__________________________________________________________________________________________________
Layer (type)                    Output Shape         Param #     Connected to                     
==================================================================================================
phraseTokens (InputLayer)       (None, 50)           0                                            
__________________________________________________________________________________________________
phrasePoss (InputLayer)         (None, 50)           0                                            
__________________________________________________________________________________________________
transTokens (InputLayer)        (None, 5)            0                                            
__________________________________________________________________________________________________
transPoss (InputLayer)          (None, 5)            0                                            
__________________________________________________________________________________________________
phraseTokenEmb (Embedding)      (None, 50, 33)       248985      phraseTokens[0][0]               
__________________________________________________________________________________________________
phrasePosEmb (Embedding)        (None, 50, 8)        1216        phrasePoss[0][0]                 
__________________________________________________________________________________________________
transTokenEmb (Embedding)       (None, 5, 41)        309345      transTokens[0][0]                
__________________________________________________________________________________________________
transPosEmb (Embedding)         (None, 5, 5)         760         transPoss[0][0]                  
__________________________________________________________________________________________________
concatenate_10 (Concatenate)    (None, 50, 41)       0           phraseTokenEmb[0][0]             
                                                                 phrasePosEmb[0][0]               
__________________________________________________________________________________________________
transTokenFlat (Flatten)        (None, 205)          0           transTokenEmb[0][0]              
__________________________________________________________________________________________________
transPosFlat (Flatten)          (None, 25)           0           transPosEmb[0][0]                
__________________________________________________________________________________________________
phraseRnn (LSTM)                (None, 327)          482652      concatenate_10[0][0]             
__________________________________________________________________________________________________
concatenate_11 (Concatenate)    (None, 230)          0           transTokenFlat[0][0]             
                                                                 transPosFlat[0][0]               
__________________________________________________________________________________________________
concatenate_12 (Concatenate)    (None, 557)          0           phraseRnn[0][0]                  
                                                                 concatenate_11[0][0]             
__________________________________________________________________________________________________
dense_7 (Dense)                 (None, 58)           32364       concatenate_12[0][0]             
__________________________________________________________________________________________________
dense_8 (Dense)                 (None, 4)            236         dense_7[0][0]                    
==================================================================================================
Total params: 1,075,558
Trainable params: 1,075,558
Non-trainable params: 0
__________________________________________________________________________________________________
None
__________________________________________________________________________________________________
…
==================================================================================================
	Tokens := 7241 * POS : 169
__________________________________________________________________________________________________
	Important words not in vocabulary 1
	MWE not in vocabulary 3
	Dashed keys in vocabulary 1674
	One occurrence keys in vocabulary 1674 / 7241
__________________________________________________________________________________________________
Layer (type)                    Output Shape         Param #     Connected to                     
==================================================================================================
phraseTokens (InputLayer)       (None, 50)           0                                            
__________________________________________________________________________________________________
phrasePoss (InputLayer)         (None, 50)           0                                            
__________________________________________________________________________________________________
transTokens (InputLayer)        (None, 5)            0                                            
__________________________________________________________________________________________________
transPoss (InputLayer)          (None, 5)            0                                            
__________________________________________________________________________________________________
phraseTokenEmb (Embedding)      (None, 50, 33)       238953      phraseTokens[0][0]               
__________________________________________________________________________________________________
phrasePosEmb (Embedding)        (None, 50, 8)        1352        phrasePoss[0][0]                 
__________________________________________________________________________________________________
transTokenEmb (Embedding)       (None, 5, 41)        296881      transTokens[0][0]                
__________________________________________________________________________________________________
transPosEmb (Embedding)         (None, 5, 5)         845         transPoss[0][0]                  
__________________________________________________________________________________________________
concatenate_13 (Concatenate)    (None, 50, 41)       0           phraseTokenEmb[0][0]             
                                                                 phrasePosEmb[0][0]               
__________________________________________________________________________________________________
transTokenFlat (Flatten)        (None, 205)          0           transTokenEmb[0][0]              
__________________________________________________________________________________________________
transPosFlat (Flatten)          (None, 25)           0           transPosEmb[0][0]                
__________________________________________________________________________________________________
phraseRnn (LSTM)                (None, 327)          482652      concatenate_13[0][0]             
__________________________________________________________________________________________________
concatenate_14 (Concatenate)    (None, 230)          0           transTokenFlat[0][0]             
                                                                 transPosFlat[0][0]               
__________________________________________________________________________________________________
concatenate_15 (Concatenate)    (None, 557)          0           phraseRnn[0][0]                  
                                                                 concatenate_14[0][0]             
__________________________________________________________________________________________________
dense_9 (Dense)                 (None, 58)           32364       concatenate_15[0][0]             
__________________________________________________________________________________________________
dense_10 (Dense)                (None, 4)            236         dense_9[0][0]                    
==================================================================================================
Total params: 1,053,283
Trainable params: 1,053,283
Non-trainable params: 0
__________________________________________________________________________________________________
None
__________________________________________________________________________________________________
…
==================================================================================================
	Tokens := 13793 * POS : 109
__________________________________________________________________________________________________
	Dashed keys in vocabulary 3161
	One occurrence keys in vocabulary 3161 / 13793
__________________________________________________________________________________________________
Layer (type)                    Output Shape         Param #     Connected to                     
==================================================================================================
phraseTokens (InputLayer)       (None, 50)           0                                            
__________________________________________________________________________________________________
phrasePoss (InputLayer)         (None, 50)           0                                            
__________________________________________________________________________________________________
transTokens (InputLayer)        (None, 5)            0                                            
__________________________________________________________________________________________________
transPoss (InputLayer)          (None, 5)            0                                            
__________________________________________________________________________________________________
phraseTokenEmb (Embedding)      (None, 50, 33)       455169      phraseTokens[0][0]               
__________________________________________________________________________________________________
phrasePosEmb (Embedding)        (None, 50, 8)        872         phrasePoss[0][0]                 
__________________________________________________________________________________________________
transTokenEmb (Embedding)       (None, 5, 41)        565513      transTokens[0][0]                
__________________________________________________________________________________________________
transPosEmb (Embedding)         (None, 5, 5)         545         transPoss[0][0]                  
__________________________________________________________________________________________________
concatenate_16 (Concatenate)    (None, 50, 41)       0           phraseTokenEmb[0][0]             
                                                                 phrasePosEmb[0][0]               
__________________________________________________________________________________________________
transTokenFlat (Flatten)        (None, 205)          0           transTokenEmb[0][0]              
__________________________________________________________________________________________________
transPosFlat (Flatten)          (None, 25)           0           transPosEmb[0][0]                
__________________________________________________________________________________________________
phraseRnn (LSTM)                (None, 327)          482652      concatenate_16[0][0]             
__________________________________________________________________________________________________
concatenate_17 (Concatenate)    (None, 230)          0           transTokenFlat[0][0]             
                                                                 transPosFlat[0][0]               
__________________________________________________________________________________________________
concatenate_18 (Concatenate)    (None, 557)          0           phraseRnn[0][0]                  
                                                                 concatenate_17[0][0]             
__________________________________________________________________________________________________
dense_11 (Dense)                (None, 58)           32364       concatenate_18[0][0]             
__________________________________________________________________________________________________
dense_12 (Dense)                (None, 4)            236         dense_11[0][0]                   
==================================================================================================
Total params: 1,537,351
Trainable params: 1,537,351
Non-trainable params: 0
__________________________________________________________________________________________________
None
__________________________________________________________________________________________________
…
==================================================================================================
	Tokens := 7545 * POS : 152
__________________________________________________________________________________________________
	Dashed keys in vocabulary 1622
	One occurrence keys in vocabulary 1622 / 7545
__________________________________________________________________________________________________
Layer (type)                    Output Shape         Param #     Connected to                     
==================================================================================================
phraseTokens (InputLayer)       (None, 50)           0                                            
__________________________________________________________________________________________________
phrasePoss (InputLayer)         (None, 50)           0                                            
__________________________________________________________________________________________________
transTokens (InputLayer)        (None, 5)            0                                            
__________________________________________________________________________________________________
transPoss (InputLayer)          (None, 5)            0                                            
__________________________________________________________________________________________________
phraseTokenEmb (Embedding)      (None, 50, 77)       580965      phraseTokens[0][0]               
__________________________________________________________________________________________________
phrasePosEmb (Embedding)        (None, 50, 6)        912         phrasePoss[0][0]                 
__________________________________________________________________________________________________
transTokenEmb (Embedding)       (None, 5, 63)        475335      transTokens[0][0]                
__________________________________________________________________________________________________
transPosEmb (Embedding)         (None, 5, 6)         912         transPoss[0][0]                  
__________________________________________________________________________________________________
concatenate_19 (Concatenate)    (None, 50, 83)       0           phraseTokenEmb[0][0]             
                                                                 phrasePosEmb[0][0]               
__________________________________________________________________________________________________
transTokenFlat (Flatten)        (None, 315)          0           transTokenEmb[0][0]              
__________________________________________________________________________________________________
transPosFlat (Flatten)          (None, 30)           0           transPosEmb[0][0]                
__________________________________________________________________________________________________
phraseRnn (GRU)                 (None, 65)           29055       concatenate_19[0][0]             
__________________________________________________________________________________________________
concatenate_20 (Concatenate)    (None, 345)          0           transTokenFlat[0][0]             
                                                                 transPosFlat[0][0]               
__________________________________________________________________________________________________
concatenate_21 (Concatenate)    (None, 410)          0           phraseRnn[0][0]                  
                                                                 concatenate_20[0][0]             
__________________________________________________________________________________________________
dense_13 (Dense)                (None, 412)          169332      concatenate_21[0][0]             
__________________________________________________________________________________________________
dense_14 (Dense)                (None, 4)            1652        dense_13[0][0]                   
==================================================================================================
Total params: 1,258,163
Trainable params: 1,258,163
Non-trainable params: 0
__________________________________________________________________________________________________
None
__________________________________________________________________________________________________
…
==================================================================================================
	Tokens := 7241 * POS : 169
__________________________________________________________________________________________________
	Important words not in vocabulary 1
	MWE not in vocabulary 3
	Dashed keys in vocabulary 1674
	One occurrence keys in vocabulary 1674 / 7241
__________________________________________________________________________________________________
Layer (type)                    Output Shape         Param #     Connected to                     
==================================================================================================
phraseTokens (InputLayer)       (None, 50)           0                                            
__________________________________________________________________________________________________
phrasePoss (InputLayer)         (None, 50)           0                                            
__________________________________________________________________________________________________
transTokens (InputLayer)        (None, 5)            0                                            
__________________________________________________________________________________________________
transPoss (InputLayer)          (None, 5)            0                                            
__________________________________________________________________________________________________
phraseTokenEmb (Embedding)      (None, 50, 77)       557557      phraseTokens[0][0]               
__________________________________________________________________________________________________
phrasePosEmb (Embedding)        (None, 50, 6)        1014        phrasePoss[0][0]                 
__________________________________________________________________________________________________
transTokenEmb (Embedding)       (None, 5, 63)        456183      transTokens[0][0]                
__________________________________________________________________________________________________
transPosEmb (Embedding)         (None, 5, 6)         1014        transPoss[0][0]                  
__________________________________________________________________________________________________
concatenate_22 (Concatenate)    (None, 50, 83)       0           phraseTokenEmb[0][0]             
                                                                 phrasePosEmb[0][0]               
__________________________________________________________________________________________________
transTokenFlat (Flatten)        (None, 315)          0           transTokenEmb[0][0]              
__________________________________________________________________________________________________
transPosFlat (Flatten)          (None, 30)           0           transPosEmb[0][0]                
__________________________________________________________________________________________________
phraseRnn (GRU)                 (None, 65)           29055       concatenate_22[0][0]             
__________________________________________________________________________________________________
concatenate_23 (Concatenate)    (None, 345)          0           transTokenFlat[0][0]             
                                                                 transPosFlat[0][0]               
__________________________________________________________________________________________________
concatenate_24 (Concatenate)    (None, 410)          0           phraseRnn[0][0]                  
                                                                 concatenate_23[0][0]             
__________________________________________________________________________________________________
dense_15 (Dense)                (None, 412)          169332      concatenate_24[0][0]             
__________________________________________________________________________________________________
dense_16 (Dense)                (None, 4)            1652        dense_15[0][0]                   
==================================================================================================
Total params: 1,215,807
Trainable params: 1,215,807
Non-trainable params: 0
__________________________________________________________________________________________________
None
__________________________________________________________________________________________________
…
==================================================================================================
	Tokens := 13793 * POS : 109
__________________________________________________________________________________________________
	Dashed keys in vocabulary 3161
	One occurrence keys in vocabulary 3161 / 13793
__________________________________________________________________________________________________
Layer (type)                    Output Shape         Param #     Connected to                     
==================================================================================================
phraseTokens (InputLayer)       (None, 50)           0                                            
__________________________________________________________________________________________________
phrasePoss (InputLayer)         (None, 50)           0                                            
__________________________________________________________________________________________________
transTokens (InputLayer)        (None, 5)            0                                            
__________________________________________________________________________________________________
transPoss (InputLayer)          (None, 5)            0                                            
__________________________________________________________________________________________________
phraseTokenEmb (Embedding)      (None, 50, 77)       1062061     phraseTokens[0][0]               
__________________________________________________________________________________________________
phrasePosEmb (Embedding)        (None, 50, 6)        654         phrasePoss[0][0]                 
__________________________________________________________________________________________________
transTokenEmb (Embedding)       (None, 5, 63)        868959      transTokens[0][0]                
__________________________________________________________________________________________________
transPosEmb (Embedding)         (None, 5, 6)         654         transPoss[0][0]                  
__________________________________________________________________________________________________
concatenate_25 (Concatenate)    (None, 50, 83)       0           phraseTokenEmb[0][0]             
                                                                 phrasePosEmb[0][0]               
__________________________________________________________________________________________________
transTokenFlat (Flatten)        (None, 315)          0           transTokenEmb[0][0]              
__________________________________________________________________________________________________
transPosFlat (Flatten)          (None, 30)           0           transPosEmb[0][0]                
__________________________________________________________________________________________________
phraseRnn (GRU)                 (None, 65)           29055       concatenate_25[0][0]             
__________________________________________________________________________________________________
concatenate_26 (Concatenate)    (None, 345)          0           transTokenFlat[0][0]             
                                                                 transPosFlat[0][0]               
__________________________________________________________________________________________________
concatenate_27 (Concatenate)    (None, 410)          0           phraseRnn[0][0]                  
                                                                 concatenate_26[0][0]             
__________________________________________________________________________________________________
dense_17 (Dense)                (None, 412)          169332      concatenate_27[0][0]             
__________________________________________________________________________________________________
dense_18 (Dense)                (None, 4)            1652        dense_17[0][0]                   
==================================================================================================
Total params: 2,132,367
Trainable params: 2,132,367
Non-trainable params: 0
__________________________________________________________________________________________________
None
__________________________________________________________________________________________________
…
	Tokens := 11438 * POS : 152
__________________________________________________________________________________________________
	Important words not in vocabulary 675
	MWE not in vocabulary 1297
	Dashed keys in vocabulary 2182
	One occurrence keys in vocabulary 2182 / 11438
__________________________________________________________________________________________________
Layer (type)                    Output Shape         Param #     Connected to                     
==================================================================================================
phraseTokens (InputLayer)       (None, 50)           0                                            
__________________________________________________________________________________________________
phrasePoss (InputLayer)         (None, 50)           0                                            
__________________________________________________________________________________________________
transTokens (InputLayer)        (None, 4)            0                                            
__________________________________________________________________________________________________
transPoss (InputLayer)          (None, 4)            0                                            
__________________________________________________________________________________________________
phraseTokenEmb (Embedding)      (None, 50, 128)      1464064     phraseTokens[0][0]               
__________________________________________________________________________________________________
phrasePosEmb (Embedding)        (None, 50, 14)       2128        phrasePoss[0][0]                 
__________________________________________________________________________________________________
transTokenEmb (Embedding)       (None, 4, 29)        331702      transTokens[0][0]                
__________________________________________________________________________________________________
transPosEmb (Embedding)         (None, 4, 5)         760         transPoss[0][0]                  
__________________________________________________________________________________________________
concatenate_28 (Concatenate)    (None, 50, 142)      0           phraseTokenEmb[0][0]             
                                                                 phrasePosEmb[0][0]               
__________________________________________________________________________________________________
transTokenFlat (Flatten)        (None, 116)          0           transTokenEmb[0][0]              
__________________________________________________________________________________________________
transPosFlat (Flatten)          (None, 20)           0           transPosEmb[0][0]                
__________________________________________________________________________________________________
phraseRnn (GRU)                 (None, 45)           25380       concatenate_28[0][0]             
__________________________________________________________________________________________________
concatenate_29 (Concatenate)    (None, 136)          0           transTokenFlat[0][0]             
                                                                 transPosFlat[0][0]               
__________________________________________________________________________________________________
concatenate_30 (Concatenate)    (None, 181)          0           phraseRnn[0][0]                  
                                                                 concatenate_29[0][0]             
__________________________________________________________________________________________________
dense_19 (Dense)                (None, 132)          24024       concatenate_30[0][0]             
__________________________________________________________________________________________________
dense_20 (Dense)                (None, 4)            532         dense_19[0][0]                   
==================================================================================================
Total params: 1,848,590
Trainable params: 1,848,590
Non-trainable params: 0
__________________________________________________________________________________________________
None
__________________________________________________________________________________________________
…
	Tokens := 9401 * POS : 169
__________________________________________________________________________________________________
	Important words not in vocabulary 182
	MWE not in vocabulary 1082
	Dashed keys in vocabulary 2380
	One occurrence keys in vocabulary 2380 / 9401
__________________________________________________________________________________________________
Layer (type)                    Output Shape         Param #     Connected to                     
==================================================================================================
phraseTokens (InputLayer)       (None, 50)           0                                            
__________________________________________________________________________________________________
phrasePoss (InputLayer)         (None, 50)           0                                            
__________________________________________________________________________________________________
transTokens (InputLayer)        (None, 4)            0                                            
__________________________________________________________________________________________________
transPoss (InputLayer)          (None, 4)            0                                            
__________________________________________________________________________________________________
phraseTokenEmb (Embedding)      (None, 50, 128)      1203328     phraseTokens[0][0]               
__________________________________________________________________________________________________
phrasePosEmb (Embedding)        (None, 50, 14)       2366        phrasePoss[0][0]                 
__________________________________________________________________________________________________
transTokenEmb (Embedding)       (None, 4, 29)        272629      transTokens[0][0]                
__________________________________________________________________________________________________
transPosEmb (Embedding)         (None, 4, 5)         845         transPoss[0][0]                  
__________________________________________________________________________________________________
concatenate_31 (Concatenate)    (None, 50, 142)      0           phraseTokenEmb[0][0]             
                                                                 phrasePosEmb[0][0]               
__________________________________________________________________________________________________
transTokenFlat (Flatten)        (None, 116)          0           transTokenEmb[0][0]              
__________________________________________________________________________________________________
transPosFlat (Flatten)          (None, 20)           0           transPosEmb[0][0]                
__________________________________________________________________________________________________
phraseRnn (GRU)                 (None, 45)           25380       concatenate_31[0][0]             
__________________________________________________________________________________________________
concatenate_32 (Concatenate)    (None, 136)          0           transTokenFlat[0][0]             
                                                                 transPosFlat[0][0]               
__________________________________________________________________________________________________
concatenate_33 (Concatenate)    (None, 181)          0           phraseRnn[0][0]                  
                                                                 concatenate_32[0][0]             
__________________________________________________________________________________________________
dense_21 (Dense)                (None, 132)          24024       concatenate_33[0][0]             
__________________________________________________________________________________________________
dense_22 (Dense)                (None, 4)            532         dense_21[0][0]                   
==================================================================================================
Total params: 1,529,104
Trainable params: 1,529,104
Non-trainable params: 0
__________________________________________________________________________________________________
None
__________________________________________________________________________________________________
…
	Tokens := 22071 * POS : 109
__________________________________________________________________________________________________
	Important words not in vocabulary 221
	MWE not in vocabulary 1768
	Dashed keys in vocabulary 3975
	One occurrence keys in vocabulary 3975 / 22071
__________________________________________________________________________________________________
Layer (type)                    Output Shape         Param #     Connected to                     
==================================================================================================
phraseTokens (InputLayer)       (None, 50)           0                                            
__________________________________________________________________________________________________
phrasePoss (InputLayer)         (None, 50)           0                                            
__________________________________________________________________________________________________
transTokens (InputLayer)        (None, 4)            0                                            
__________________________________________________________________________________________________
transPoss (InputLayer)          (None, 4)            0                                            
__________________________________________________________________________________________________
phraseTokenEmb (Embedding)      (None, 50, 128)      2825088     phraseTokens[0][0]               
__________________________________________________________________________________________________
phrasePosEmb (Embedding)        (None, 50, 14)       1526        phrasePoss[0][0]                 
__________________________________________________________________________________________________
transTokenEmb (Embedding)       (None, 4, 29)        640059      transTokens[0][0]                
__________________________________________________________________________________________________
transPosEmb (Embedding)         (None, 4, 5)         545         transPoss[0][0]                  
__________________________________________________________________________________________________
concatenate_34 (Concatenate)    (None, 50, 142)      0           phraseTokenEmb[0][0]             
                                                                 phrasePosEmb[0][0]               
__________________________________________________________________________________________________
transTokenFlat (Flatten)        (None, 116)          0           transTokenEmb[0][0]              
__________________________________________________________________________________________________
transPosFlat (Flatten)          (None, 20)           0           transPosEmb[0][0]                
__________________________________________________________________________________________________
phraseRnn (GRU)                 (None, 45)           25380       concatenate_34[0][0]             
__________________________________________________________________________________________________
concatenate_35 (Concatenate)    (None, 136)          0           transTokenFlat[0][0]             
                                                                 transPosFlat[0][0]               
__________________________________________________________________________________________________
concatenate_36 (Concatenate)    (None, 181)          0           phraseRnn[0][0]                  
                                                                 concatenate_35[0][0]             
__________________________________________________________________________________________________
dense_23 (Dense)                (None, 132)          24024       concatenate_36[0][0]             
__________________________________________________________________________________________________
dense_24 (Dense)                (None, 4)            532         dense_23[0][0]                   
==================================================================================================
Total params: 3,517,154
Trainable params: 3,517,154
Non-trainable params: 0
__________________________________________________________________________________________________
None
__________________________________________________________________________________________________
…
==================================================================================================
	Tokens := 7545 * POS : 152
__________________________________________________________________________________________________
	Dashed keys in vocabulary 1622
	One occurrence keys in vocabulary 1622 / 7545
__________________________________________________________________________________________________
Layer (type)                    Output Shape         Param #     Connected to                     
==================================================================================================
phraseTokens (InputLayer)       (None, 50)           0                                            
__________________________________________________________________________________________________
phrasePoss (InputLayer)         (None, 50)           0                                            
__________________________________________________________________________________________________
transTokens (InputLayer)        (None, 4)            0                                            
__________________________________________________________________________________________________
transPoss (InputLayer)          (None, 4)            0                                            
__________________________________________________________________________________________________
phraseTokenEmb (Embedding)      (None, 50, 192)      1448640     phraseTokens[0][0]               
__________________________________________________________________________________________________
phrasePosEmb (Embedding)        (None, 50, 14)       2128        phrasePoss[0][0]                 
__________________________________________________________________________________________________
transTokenEmb (Embedding)       (None, 4, 85)        641325      transTokens[0][0]                
__________________________________________________________________________________________________
transPosEmb (Embedding)         (None, 4, 10)        1520        transPoss[0][0]                  
__________________________________________________________________________________________________
concatenate_37 (Concatenate)    (None, 50, 206)      0           phraseTokenEmb[0][0]             
                                                                 phrasePosEmb[0][0]               
__________________________________________________________________________________________________
transTokenFlat (Flatten)        (None, 340)          0           transTokenEmb[0][0]              
__________________________________________________________________________________________________
transPosFlat (Flatten)          (None, 40)           0           transPosEmb[0][0]                
__________________________________________________________________________________________________
phraseRnn (LSTM)                (None, 364)          831376      concatenate_37[0][0]             
__________________________________________________________________________________________________
concatenate_38 (Concatenate)    (None, 380)          0           transTokenFlat[0][0]             
                                                                 transPosFlat[0][0]               
__________________________________________________________________________________________________
concatenate_39 (Concatenate)    (None, 744)          0           phraseRnn[0][0]                  
                                                                 concatenate_38[0][0]             
__________________________________________________________________________________________________
dense_25 (Dense)                (None, 39)           29055       concatenate_39[0][0]             
__________________________________________________________________________________________________
dense_26 (Dense)                (None, 4)            160         dense_25[0][0]                   
==================================================================================================
Total params: 2,954,204
Trainable params: 2,954,204
Non-trainable params: 0
__________________________________________________________________________________________________
None
__________________________________________________________________________________________________
…
==================================================================================================
	Tokens := 7241 * POS : 169
__________________________________________________________________________________________________
	Important words not in vocabulary 1
	MWE not in vocabulary 3
	Dashed keys in vocabulary 1674
	One occurrence keys in vocabulary 1674 / 7241
__________________________________________________________________________________________________
Layer (type)                    Output Shape         Param #     Connected to                     
==================================================================================================
phraseTokens (InputLayer)       (None, 50)           0                                            
__________________________________________________________________________________________________
phrasePoss (InputLayer)         (None, 50)           0                                            
__________________________________________________________________________________________________
transTokens (InputLayer)        (None, 4)            0                                            
__________________________________________________________________________________________________
transPoss (InputLayer)          (None, 4)            0                                            
__________________________________________________________________________________________________
phraseTokenEmb (Embedding)      (None, 50, 192)      1390272     phraseTokens[0][0]               
__________________________________________________________________________________________________
phrasePosEmb (Embedding)        (None, 50, 14)       2366        phrasePoss[0][0]                 
__________________________________________________________________________________________________
transTokenEmb (Embedding)       (None, 4, 85)        615485      transTokens[0][0]                
__________________________________________________________________________________________________
transPosEmb (Embedding)         (None, 4, 10)        1690        transPoss[0][0]                  
__________________________________________________________________________________________________
concatenate_40 (Concatenate)    (None, 50, 206)      0           phraseTokenEmb[0][0]             
                                                                 phrasePosEmb[0][0]               
__________________________________________________________________________________________________
transTokenFlat (Flatten)        (None, 340)          0           transTokenEmb[0][0]              
__________________________________________________________________________________________________
transPosFlat (Flatten)          (None, 40)           0           transPosEmb[0][0]                
__________________________________________________________________________________________________
phraseRnn (LSTM)                (None, 364)          831376      concatenate_40[0][0]             
__________________________________________________________________________________________________
concatenate_41 (Concatenate)    (None, 380)          0           transTokenFlat[0][0]             
                                                                 transPosFlat[0][0]               
__________________________________________________________________________________________________
concatenate_42 (Concatenate)    (None, 744)          0           phraseRnn[0][0]                  
                                                                 concatenate_41[0][0]             
__________________________________________________________________________________________________
dense_27 (Dense)                (None, 39)           29055       concatenate_42[0][0]             
__________________________________________________________________________________________________
dense_28 (Dense)                (None, 4)            160         dense_27[0][0]                   
==================================================================================================
Total params: 2,870,404
Trainable params: 2,870,404
Non-trainable params: 0
__________________________________________________________________________________________________
None
__________________________________________________________________________________________________
…
==================================================================================================
	Tokens := 13793 * POS : 109
__________________________________________________________________________________________________
	Dashed keys in vocabulary 3161
	One occurrence keys in vocabulary 3161 / 13793
__________________________________________________________________________________________________
Layer (type)                    Output Shape         Param #     Connected to                     
==================================================================================================
phraseTokens (InputLayer)       (None, 50)           0                                            
__________________________________________________________________________________________________
phrasePoss (InputLayer)         (None, 50)           0                                            
__________________________________________________________________________________________________
transTokens (InputLayer)        (None, 4)            0                                            
__________________________________________________________________________________________________
transPoss (InputLayer)          (None, 4)            0                                            
__________________________________________________________________________________________________
phraseTokenEmb (Embedding)      (None, 50, 192)      2648256     phraseTokens[0][0]               
__________________________________________________________________________________________________
phrasePosEmb (Embedding)        (None, 50, 14)       1526        phrasePoss[0][0]                 
__________________________________________________________________________________________________
transTokenEmb (Embedding)       (None, 4, 85)        1172405     transTokens[0][0]                
__________________________________________________________________________________________________
transPosEmb (Embedding)         (None, 4, 10)        1090        transPoss[0][0]                  
__________________________________________________________________________________________________
concatenate_43 (Concatenate)    (None, 50, 206)      0           phraseTokenEmb[0][0]             
                                                                 phrasePosEmb[0][0]               
__________________________________________________________________________________________________
transTokenFlat (Flatten)        (None, 340)          0           transTokenEmb[0][0]              
__________________________________________________________________________________________________
transPosFlat (Flatten)          (None, 40)           0           transPosEmb[0][0]                
__________________________________________________________________________________________________
phraseRnn (LSTM)                (None, 364)          831376      concatenate_43[0][0]             
__________________________________________________________________________________________________
concatenate_44 (Concatenate)    (None, 380)          0           transTokenFlat[0][0]             
                                                                 transPosFlat[0][0]               
__________________________________________________________________________________________________
concatenate_45 (Concatenate)    (None, 744)          0           phraseRnn[0][0]                  
                                                                 concatenate_44[0][0]             
__________________________________________________________________________________________________
dense_29 (Dense)                (None, 39)           29055       concatenate_45[0][0]             
__________________________________________________________________________________________________
dense_30 (Dense)                (None, 4)            160         dense_29[0][0]                   
==================================================================================================
Total params: 4,683,868
Trainable params: 4,683,868
Non-trainable params: 0
__________________________________________________________________________________________________
None
__________________________________________________________________________________________________
…
	Tokens := 11438 * POS : 152
__________________________________________________________________________________________________
	Important words not in vocabulary 675
	MWE not in vocabulary 1297
	Dashed keys in vocabulary 2182
	One occurrence keys in vocabulary 2182 / 11438
__________________________________________________________________________________________________
Layer (type)                    Output Shape         Param #     Connected to                     
==================================================================================================
phraseTokens (InputLayer)       (None, 50)           0                                            
__________________________________________________________________________________________________
phrasePoss (InputLayer)         (None, 50)           0                                            
__________________________________________________________________________________________________
transTokens (InputLayer)        (None, 5)            0                                            
__________________________________________________________________________________________________
transPoss (InputLayer)          (None, 5)            0                                            
__________________________________________________________________________________________________
phraseTokenEmb (Embedding)      (None, 50, 41)       468958      phraseTokens[0][0]               
__________________________________________________________________________________________________
phrasePosEmb (Embedding)        (None, 50, 5)        760         phrasePoss[0][0]                 
__________________________________________________________________________________________________
transTokenEmb (Embedding)       (None, 5, 98)        1120924     transTokens[0][0]                
__________________________________________________________________________________________________
transPosEmb (Embedding)         (None, 5, 10)        1520        transPoss[0][0]                  
__________________________________________________________________________________________________
concatenate_46 (Concatenate)    (None, 50, 46)       0           phraseTokenEmb[0][0]             
                                                                 phrasePosEmb[0][0]               
__________________________________________________________________________________________________
transTokenFlat (Flatten)        (None, 490)          0           transTokenEmb[0][0]              
__________________________________________________________________________________________________
transPosFlat (Flatten)          (None, 50)           0           transPosEmb[0][0]                
__________________________________________________________________________________________________
phraseRnn (GRU)                 (None, 62)           20274       concatenate_46[0][0]             
__________________________________________________________________________________________________
concatenate_47 (Concatenate)    (None, 540)          0           transTokenFlat[0][0]             
                                                                 transPosFlat[0][0]               
__________________________________________________________________________________________________
concatenate_48 (Concatenate)    (None, 602)          0           phraseRnn[0][0]                  
                                                                 concatenate_47[0][0]             
__________________________________________________________________________________________________
dense_31 (Dense)                (None, 192)          115776      concatenate_48[0][0]             
__________________________________________________________________________________________________
dense_32 (Dense)                (None, 4)            772         dense_31[0][0]                   
==================================================================================================
Total params: 1,728,984
Trainable params: 1,728,984
Non-trainable params: 0
__________________________________________________________________________________________________
None
__________________________________________________________________________________________________
…
	Tokens := 9401 * POS : 169
__________________________________________________________________________________________________
	Important words not in vocabulary 182
	MWE not in vocabulary 1082
	Dashed keys in vocabulary 2380
	One occurrence keys in vocabulary 2380 / 9401
__________________________________________________________________________________________________
Layer (type)                    Output Shape         Param #     Connected to                     
==================================================================================================
phraseTokens (InputLayer)       (None, 50)           0                                            
__________________________________________________________________________________________________
phrasePoss (InputLayer)         (None, 50)           0                                            
__________________________________________________________________________________________________
transTokens (InputLayer)        (None, 5)            0                                            
__________________________________________________________________________________________________
transPoss (InputLayer)          (None, 5)            0                                            
__________________________________________________________________________________________________
phraseTokenEmb (Embedding)      (None, 50, 41)       385441      phraseTokens[0][0]               
__________________________________________________________________________________________________
phrasePosEmb (Embedding)        (None, 50, 5)        845         phrasePoss[0][0]                 
__________________________________________________________________________________________________
transTokenEmb (Embedding)       (None, 5, 98)        921298      transTokens[0][0]                
__________________________________________________________________________________________________
transPosEmb (Embedding)         (None, 5, 10)        1690        transPoss[0][0]                  
__________________________________________________________________________________________________
concatenate_49 (Concatenate)    (None, 50, 46)       0           phraseTokenEmb[0][0]             
                                                                 phrasePosEmb[0][0]               
__________________________________________________________________________________________________
transTokenFlat (Flatten)        (None, 490)          0           transTokenEmb[0][0]              
__________________________________________________________________________________________________
transPosFlat (Flatten)          (None, 50)           0           transPosEmb[0][0]                
__________________________________________________________________________________________________
phraseRnn (GRU)                 (None, 62)           20274       concatenate_49[0][0]             
__________________________________________________________________________________________________
concatenate_50 (Concatenate)    (None, 540)          0           transTokenFlat[0][0]             
                                                                 transPosFlat[0][0]               
__________________________________________________________________________________________________
concatenate_51 (Concatenate)    (None, 602)          0           phraseRnn[0][0]                  
                                                                 concatenate_50[0][0]             
__________________________________________________________________________________________________
dense_33 (Dense)                (None, 192)          115776      concatenate_51[0][0]             
__________________________________________________________________________________________________
dense_34 (Dense)                (None, 4)            772         dense_33[0][0]                   
==================================================================================================
Total params: 1,446,096
Trainable params: 1,446,096
Non-trainable params: 0
__________________________________________________________________________________________________
None
__________________________________________________________________________________________________
…
	Tokens := 22071 * POS : 109
__________________________________________________________________________________________________
	Important words not in vocabulary 221
	MWE not in vocabulary 1768
	Dashed keys in vocabulary 3975
	One occurrence keys in vocabulary 3975 / 22071
__________________________________________________________________________________________________
Layer (type)                    Output Shape         Param #     Connected to                     
==================================================================================================
phraseTokens (InputLayer)       (None, 50)           0                                            
__________________________________________________________________________________________________
phrasePoss (InputLayer)         (None, 50)           0                                            
__________________________________________________________________________________________________
transTokens (InputLayer)        (None, 5)            0                                            
__________________________________________________________________________________________________
transPoss (InputLayer)          (None, 5)            0                                            
__________________________________________________________________________________________________
phraseTokenEmb (Embedding)      (None, 50, 41)       904911      phraseTokens[0][0]               
__________________________________________________________________________________________________
phrasePosEmb (Embedding)        (None, 50, 5)        545         phrasePoss[0][0]                 
__________________________________________________________________________________________________
transTokenEmb (Embedding)       (None, 5, 98)        2162958     transTokens[0][0]                
__________________________________________________________________________________________________
transPosEmb (Embedding)         (None, 5, 10)        1090        transPoss[0][0]                  
__________________________________________________________________________________________________
concatenate_52 (Concatenate)    (None, 50, 46)       0           phraseTokenEmb[0][0]             
                                                                 phrasePosEmb[0][0]               
__________________________________________________________________________________________________
transTokenFlat (Flatten)        (None, 490)          0           transTokenEmb[0][0]              
__________________________________________________________________________________________________
transPosFlat (Flatten)          (None, 50)           0           transPosEmb[0][0]                
__________________________________________________________________________________________________
phraseRnn (GRU)                 (None, 62)           20274       concatenate_52[0][0]             
__________________________________________________________________________________________________
concatenate_53 (Concatenate)    (None, 540)          0           transTokenFlat[0][0]             
                                                                 transPosFlat[0][0]               
__________________________________________________________________________________________________
concatenate_54 (Concatenate)    (None, 602)          0           phraseRnn[0][0]                  
                                                                 concatenate_53[0][0]             
__________________________________________________________________________________________________
dense_35 (Dense)                (None, 192)          115776      concatenate_54[0][0]             
__________________________________________________________________________________________________
dense_36 (Dense)                (None, 4)            772         dense_35[0][0]                   
==================================================================================================
Total params: 3,206,326
Trainable params: 3,206,326
Non-trainable params: 0
__________________________________________________________________________________________________
None
__________________________________________________________________________________________________
…
	Tokens := 11438 * POS : 152
__________________________________________________________________________________________________
	Important words not in vocabulary 675
	MWE not in vocabulary 1297
	Dashed keys in vocabulary 2182
	One occurrence keys in vocabulary 2182 / 11438
__________________________________________________________________________________________________
Layer (type)                    Output Shape         Param #     Connected to                     
==================================================================================================
phraseTokens (InputLayer)       (None, 50)           0                                            
__________________________________________________________________________________________________
phrasePoss (InputLayer)         (None, 50)           0                                            
__________________________________________________________________________________________________
transTokens (InputLayer)        (None, 5)            0                                            
__________________________________________________________________________________________________
transPoss (InputLayer)          (None, 5)            0                                            
__________________________________________________________________________________________________
phraseTokenEmb (Embedding)      (None, 50, 51)       583338      phraseTokens[0][0]               
__________________________________________________________________________________________________
phrasePosEmb (Embedding)        (None, 50, 48)       7296        phrasePoss[0][0]                 
__________________________________________________________________________________________________
transTokenEmb (Embedding)       (None, 5, 186)       2127468     transTokens[0][0]                
__________________________________________________________________________________________________
transPosEmb (Embedding)         (None, 5, 10)        1520        transPoss[0][0]                  
__________________________________________________________________________________________________
concatenate_55 (Concatenate)    (None, 50, 99)       0           phraseTokenEmb[0][0]             
                                                                 phrasePosEmb[0][0]               
__________________________________________________________________________________________________
transTokenFlat (Flatten)        (None, 930)          0           transTokenEmb[0][0]              
__________________________________________________________________________________________________
transPosFlat (Flatten)          (None, 50)           0           transPosEmb[0][0]                
__________________________________________________________________________________________________
phraseRnn (GRU)                 (None, 349)          470103      concatenate_55[0][0]             
__________________________________________________________________________________________________
concatenate_56 (Concatenate)    (None, 980)          0           transTokenFlat[0][0]             
                                                                 transPosFlat[0][0]               
__________________________________________________________________________________________________
concatenate_57 (Concatenate)    (None, 1329)         0           phraseRnn[0][0]                  
                                                                 concatenate_56[0][0]             
__________________________________________________________________________________________________
dense_37 (Dense)                (None, 51)           67830       concatenate_57[0][0]             
__________________________________________________________________________________________________
dense_38 (Dense)                (None, 4)            208         dense_37[0][0]                   
==================================================================================================
Total params: 3,257,763
Trainable params: 3,257,763
Non-trainable params: 0
__________________________________________________________________________________________________
None
__________________________________________________________________________________________________
…
	Tokens := 9401 * POS : 169
__________________________________________________________________________________________________
	Important words not in vocabulary 182
	MWE not in vocabulary 1082
	Dashed keys in vocabulary 2380
	One occurrence keys in vocabulary 2380 / 9401
__________________________________________________________________________________________________
Layer (type)                    Output Shape         Param #     Connected to                     
==================================================================================================
phraseTokens (InputLayer)       (None, 50)           0                                            
__________________________________________________________________________________________________
phrasePoss (InputLayer)         (None, 50)           0                                            
__________________________________________________________________________________________________
transTokens (InputLayer)        (None, 5)            0                                            
__________________________________________________________________________________________________
transPoss (InputLayer)          (None, 5)            0                                            
__________________________________________________________________________________________________
phraseTokenEmb (Embedding)      (None, 50, 51)       479451      phraseTokens[0][0]               
__________________________________________________________________________________________________
phrasePosEmb (Embedding)        (None, 50, 48)       8112        phrasePoss[0][0]                 
__________________________________________________________________________________________________
transTokenEmb (Embedding)       (None, 5, 186)       1748586     transTokens[0][0]                
__________________________________________________________________________________________________
transPosEmb (Embedding)         (None, 5, 10)        1690        transPoss[0][0]                  
__________________________________________________________________________________________________
concatenate_58 (Concatenate)    (None, 50, 99)       0           phraseTokenEmb[0][0]             
                                                                 phrasePosEmb[0][0]               
__________________________________________________________________________________________________
transTokenFlat (Flatten)        (None, 930)          0           transTokenEmb[0][0]              
__________________________________________________________________________________________________
transPosFlat (Flatten)          (None, 50)           0           transPosEmb[0][0]                
__________________________________________________________________________________________________
phraseRnn (GRU)                 (None, 349)          470103      concatenate_58[0][0]             
__________________________________________________________________________________________________
concatenate_59 (Concatenate)    (None, 980)          0           transTokenFlat[0][0]             
                                                                 transPosFlat[0][0]               
__________________________________________________________________________________________________
concatenate_60 (Concatenate)    (None, 1329)         0           phraseRnn[0][0]                  
                                                                 concatenate_59[0][0]             
__________________________________________________________________________________________________
dense_39 (Dense)                (None, 51)           67830       concatenate_60[0][0]             
__________________________________________________________________________________________________
dense_40 (Dense)                (None, 4)            208         dense_39[0][0]                   
==================================================================================================
Total params: 2,775,980
Trainable params: 2,775,980
Non-trainable params: 0
__________________________________________________________________________________________________
None
__________________________________________________________________________________________________
…
	Tokens := 22071 * POS : 109
__________________________________________________________________________________________________
	Important words not in vocabulary 221
	MWE not in vocabulary 1768
	Dashed keys in vocabulary 3975
	One occurrence keys in vocabulary 3975 / 22071
__________________________________________________________________________________________________
Layer (type)                    Output Shape         Param #     Connected to                     
==================================================================================================
phraseTokens (InputLayer)       (None, 50)           0                                            
__________________________________________________________________________________________________
phrasePoss (InputLayer)         (None, 50)           0                                            
__________________________________________________________________________________________________
transTokens (InputLayer)        (None, 5)            0                                            
__________________________________________________________________________________________________
transPoss (InputLayer)          (None, 5)            0                                            
__________________________________________________________________________________________________
phraseTokenEmb (Embedding)      (None, 50, 51)       1125621     phraseTokens[0][0]               
__________________________________________________________________________________________________
phrasePosEmb (Embedding)        (None, 50, 48)       5232        phrasePoss[0][0]                 
__________________________________________________________________________________________________
transTokenEmb (Embedding)       (None, 5, 186)       4105206     transTokens[0][0]                
__________________________________________________________________________________________________
transPosEmb (Embedding)         (None, 5, 10)        1090        transPoss[0][0]                  
__________________________________________________________________________________________________
concatenate_61 (Concatenate)    (None, 50, 99)       0           phraseTokenEmb[0][0]             
                                                                 phrasePosEmb[0][0]               
__________________________________________________________________________________________________
transTokenFlat (Flatten)        (None, 930)          0           transTokenEmb[0][0]              
__________________________________________________________________________________________________
transPosFlat (Flatten)          (None, 50)           0           transPosEmb[0][0]                
__________________________________________________________________________________________________
phraseRnn (GRU)                 (None, 349)          470103      concatenate_61[0][0]             
__________________________________________________________________________________________________
concatenate_62 (Concatenate)    (None, 980)          0           transTokenFlat[0][0]             
                                                                 transPosFlat[0][0]               
__________________________________________________________________________________________________
concatenate_63 (Concatenate)    (None, 1329)         0           phraseRnn[0][0]                  
                                                                 concatenate_62[0][0]             
__________________________________________________________________________________________________
dense_41 (Dense)                (None, 51)           67830       concatenate_63[0][0]             
__________________________________________________________________________________________________
dense_42 (Dense)                (None, 4)            208         dense_41[0][0]                   
==================================================================================================
Total params: 5,775,290
Trainable params: 5,775,290
Non-trainable params: 0
__________________________________________________________________________________________________
None
__________________________________________________________________________________________________
…
==================================================================================================
	Tokens := 7545 * POS : 152
__________________________________________________________________________________________________
	Dashed keys in vocabulary 1622
	One occurrence keys in vocabulary 1622 / 7545
__________________________________________________________________________________________________
Layer (type)                    Output Shape         Param #     Connected to                     
==================================================================================================
phraseTokens (InputLayer)       (None, 50)           0                                            
__________________________________________________________________________________________________
phrasePoss (InputLayer)         (None, 50)           0                                            
__________________________________________________________________________________________________
transTokens (InputLayer)        (None, 5)            0                                            
__________________________________________________________________________________________________
transPoss (InputLayer)          (None, 5)            0                                            
__________________________________________________________________________________________________
phraseTokenEmb (Embedding)      (None, 50, 35)       264075      phraseTokens[0][0]               
__________________________________________________________________________________________________
phrasePosEmb (Embedding)        (None, 50, 14)       2128        phrasePoss[0][0]                 
__________________________________________________________________________________________________
transTokenEmb (Embedding)       (None, 5, 174)       1312830     transTokens[0][0]                
__________________________________________________________________________________________________
transPosEmb (Embedding)         (None, 5, 20)        3040        transPoss[0][0]                  
__________________________________________________________________________________________________
concatenate_64 (Concatenate)    (None, 50, 49)       0           phraseTokenEmb[0][0]             
                                                                 phrasePosEmb[0][0]               
__________________________________________________________________________________________________
transTokenFlat (Flatten)        (None, 870)          0           transTokenEmb[0][0]              
__________________________________________________________________________________________________
transPosFlat (Flatten)          (None, 100)          0           transPosEmb[0][0]                
__________________________________________________________________________________________________
phraseRnn (GRU)                 (None, 171)          113373      concatenate_64[0][0]             
__________________________________________________________________________________________________
concatenate_65 (Concatenate)    (None, 970)          0           transTokenFlat[0][0]             
                                                                 transPosFlat[0][0]               
__________________________________________________________________________________________________
concatenate_66 (Concatenate)    (None, 1141)         0           phraseRnn[0][0]                  
                                                                 concatenate_65[0][0]             
__________________________________________________________________________________________________
dense_43 (Dense)                (None, 233)          266086      concatenate_66[0][0]             
__________________________________________________________________________________________________
dense_44 (Dense)                (None, 4)            936         dense_43[0][0]                   
==================================================================================================
Total params: 1,962,468
Trainable params: 1,962,468
Non-trainable params: 0
__________________________________________________________________________________________________
None
__________________________________________________________________________________________________
…
==================================================================================================
	Tokens := 7241 * POS : 169
__________________________________________________________________________________________________
	Important words not in vocabulary 1
	MWE not in vocabulary 3
	Dashed keys in vocabulary 1674
	One occurrence keys in vocabulary 1674 / 7241
__________________________________________________________________________________________________
Layer (type)                    Output Shape         Param #     Connected to                     
==================================================================================================
phraseTokens (InputLayer)       (None, 50)           0                                            
__________________________________________________________________________________________________
phrasePoss (InputLayer)         (None, 50)           0                                            
__________________________________________________________________________________________________
transTokens (InputLayer)        (None, 5)            0                                            
__________________________________________________________________________________________________
transPoss (InputLayer)          (None, 5)            0                                            
__________________________________________________________________________________________________
phraseTokenEmb (Embedding)      (None, 50, 35)       253435      phraseTokens[0][0]               
__________________________________________________________________________________________________
phrasePosEmb (Embedding)        (None, 50, 14)       2366        phrasePoss[0][0]                 
__________________________________________________________________________________________________
transTokenEmb (Embedding)       (None, 5, 174)       1259934     transTokens[0][0]                
__________________________________________________________________________________________________
transPosEmb (Embedding)         (None, 5, 20)        3380        transPoss[0][0]                  
__________________________________________________________________________________________________
concatenate_67 (Concatenate)    (None, 50, 49)       0           phraseTokenEmb[0][0]             
                                                                 phrasePosEmb[0][0]               
__________________________________________________________________________________________________
transTokenFlat (Flatten)        (None, 870)          0           transTokenEmb[0][0]              
__________________________________________________________________________________________________
transPosFlat (Flatten)          (None, 100)          0           transPosEmb[0][0]                
__________________________________________________________________________________________________
phraseRnn (GRU)                 (None, 171)          113373      concatenate_67[0][0]             
__________________________________________________________________________________________________
concatenate_68 (Concatenate)    (None, 970)          0           transTokenFlat[0][0]             
                                                                 transPosFlat[0][0]               
__________________________________________________________________________________________________
concatenate_69 (Concatenate)    (None, 1141)         0           phraseRnn[0][0]                  
                                                                 concatenate_68[0][0]             
__________________________________________________________________________________________________
dense_45 (Dense)                (None, 233)          266086      concatenate_69[0][0]             
__________________________________________________________________________________________________
dense_46 (Dense)                (None, 4)            936         dense_45[0][0]                   
==================================================================================================
Total params: 1,899,510
Trainable params: 1,899,510
Non-trainable params: 0
__________________________________________________________________________________________________
None
__________________________________________________________________________________________________
…
==================================================================================================
	Tokens := 13793 * POS : 109
__________________________________________________________________________________________________
	Dashed keys in vocabulary 3161
	One occurrence keys in vocabulary 3161 / 13793
__________________________________________________________________________________________________
Layer (type)                    Output Shape         Param #     Connected to                     
==================================================================================================
phraseTokens (InputLayer)       (None, 50)           0                                            
__________________________________________________________________________________________________
phrasePoss (InputLayer)         (None, 50)           0                                            
__________________________________________________________________________________________________
transTokens (InputLayer)        (None, 5)            0                                            
__________________________________________________________________________________________________
transPoss (InputLayer)          (None, 5)            0                                            
__________________________________________________________________________________________________
phraseTokenEmb (Embedding)      (None, 50, 35)       482755      phraseTokens[0][0]               
__________________________________________________________________________________________________
phrasePosEmb (Embedding)        (None, 50, 14)       1526        phrasePoss[0][0]                 
__________________________________________________________________________________________________
transTokenEmb (Embedding)       (None, 5, 174)       2399982     transTokens[0][0]                
__________________________________________________________________________________________________
transPosEmb (Embedding)         (None, 5, 20)        2180        transPoss[0][0]                  
__________________________________________________________________________________________________
concatenate_70 (Concatenate)    (None, 50, 49)       0           phraseTokenEmb[0][0]             
                                                                 phrasePosEmb[0][0]               
__________________________________________________________________________________________________
transTokenFlat (Flatten)        (None, 870)          0           transTokenEmb[0][0]              
__________________________________________________________________________________________________
transPosFlat (Flatten)          (None, 100)          0           transPosEmb[0][0]                
__________________________________________________________________________________________________
phraseRnn (GRU)                 (None, 171)          113373      concatenate_70[0][0]             
__________________________________________________________________________________________________
concatenate_71 (Concatenate)    (None, 970)          0           transTokenFlat[0][0]             
                                                                 transPosFlat[0][0]               
__________________________________________________________________________________________________
concatenate_72 (Concatenate)    (None, 1141)         0           phraseRnn[0][0]                  
                                                                 concatenate_71[0][0]             
__________________________________________________________________________________________________
dense_47 (Dense)                (None, 233)          266086      concatenate_72[0][0]             
__________________________________________________________________________________________________
dense_48 (Dense)                (None, 4)            936         dense_47[0][0]                   
==================================================================================================
Total params: 3,266,838
Trainable params: 3,266,838
Non-trainable params: 0
__________________________________________________________________________________________________
None
__________________________________________________________________________________________________
…
	Tokens := 11438 * POS : 152
__________________________________________________________________________________________________
	Important words not in vocabulary 675
	MWE not in vocabulary 1297
	Dashed keys in vocabulary 2182
	One occurrence keys in vocabulary 2182 / 11438
__________________________________________________________________________________________________
Layer (type)                    Output Shape         Param #     Connected to                     
==================================================================================================
phraseTokens (InputLayer)       (None, 50)           0                                            
__________________________________________________________________________________________________
phrasePoss (InputLayer)         (None, 50)           0                                            
__________________________________________________________________________________________________
transTokens (InputLayer)        (None, 5)            0                                            
__________________________________________________________________________________________________
transPoss (InputLayer)          (None, 5)            0                                            
__________________________________________________________________________________________________
phraseTokenEmb (Embedding)      (None, 50, 91)       1040858     phraseTokens[0][0]               
__________________________________________________________________________________________________
phrasePosEmb (Embedding)        (None, 50, 22)       3344        phrasePoss[0][0]                 
__________________________________________________________________________________________________
transTokenEmb (Embedding)       (None, 5, 148)       1692824     transTokens[0][0]                
__________________________________________________________________________________________________
transPosEmb (Embedding)         (None, 5, 44)        6688        transPoss[0][0]                  
__________________________________________________________________________________________________
concatenate_73 (Concatenate)    (None, 50, 113)      0           phraseTokenEmb[0][0]             
                                                                 phrasePosEmb[0][0]               
__________________________________________________________________________________________________
transTokenFlat (Flatten)        (None, 740)          0           transTokenEmb[0][0]              
__________________________________________________________________________________________________
transPosFlat (Flatten)          (None, 220)          0           transPosEmb[0][0]                
__________________________________________________________________________________________________
phraseRnn (LSTM)                (None, 190)          231040      concatenate_73[0][0]             
__________________________________________________________________________________________________
concatenate_74 (Concatenate)    (None, 960)          0           transTokenFlat[0][0]             
                                                                 transPosFlat[0][0]               
__________________________________________________________________________________________________
concatenate_75 (Concatenate)    (None, 1150)         0           phraseRnn[0][0]                  
                                                                 concatenate_74[0][0]             
__________________________________________________________________________________________________
dense_49 (Dense)                (None, 41)           47191       concatenate_75[0][0]             
__________________________________________________________________________________________________
dense_50 (Dense)                (None, 4)            168         dense_49[0][0]                   
==================================================================================================
Total params: 3,022,113
Trainable params: 3,022,113
Non-trainable params: 0
__________________________________________________________________________________________________
None
__________________________________________________________________________________________________
…
	Tokens := 9401 * POS : 169
__________________________________________________________________________________________________
	Important words not in vocabulary 182
	MWE not in vocabulary 1082
	Dashed keys in vocabulary 2380
	One occurrence keys in vocabulary 2380 / 9401
__________________________________________________________________________________________________
Layer (type)                    Output Shape         Param #     Connected to                     
==================================================================================================
phraseTokens (InputLayer)       (None, 50)           0                                            
__________________________________________________________________________________________________
phrasePoss (InputLayer)         (None, 50)           0                                            
__________________________________________________________________________________________________
transTokens (InputLayer)        (None, 5)            0                                            
__________________________________________________________________________________________________
transPoss (InputLayer)          (None, 5)            0                                            
__________________________________________________________________________________________________
phraseTokenEmb (Embedding)      (None, 50, 91)       855491      phraseTokens[0][0]               
__________________________________________________________________________________________________
phrasePosEmb (Embedding)        (None, 50, 22)       3718        phrasePoss[0][0]                 
__________________________________________________________________________________________________
transTokenEmb (Embedding)       (None, 5, 148)       1391348     transTokens[0][0]                
__________________________________________________________________________________________________
transPosEmb (Embedding)         (None, 5, 44)        7436        transPoss[0][0]                  
__________________________________________________________________________________________________
concatenate_76 (Concatenate)    (None, 50, 113)      0           phraseTokenEmb[0][0]             
                                                                 phrasePosEmb[0][0]               
__________________________________________________________________________________________________
transTokenFlat (Flatten)        (None, 740)          0           transTokenEmb[0][0]              
__________________________________________________________________________________________________
transPosFlat (Flatten)          (None, 220)          0           transPosEmb[0][0]                
__________________________________________________________________________________________________
phraseRnn (LSTM)                (None, 190)          231040      concatenate_76[0][0]             
__________________________________________________________________________________________________
concatenate_77 (Concatenate)    (None, 960)          0           transTokenFlat[0][0]             
                                                                 transPosFlat[0][0]               
__________________________________________________________________________________________________
concatenate_78 (Concatenate)    (None, 1150)         0           phraseRnn[0][0]                  
                                                                 concatenate_77[0][0]             
__________________________________________________________________________________________________
dense_51 (Dense)                (None, 41)           47191       concatenate_78[0][0]             
__________________________________________________________________________________________________
dense_52 (Dense)                (None, 4)            168         dense_51[0][0]                   
==================================================================================================
Total params: 2,536,392
Trainable params: 2,536,392
Non-trainable params: 0
__________________________________________________________________________________________________
None
__________________________________________________________________________________________________
…
	Tokens := 22071 * POS : 109
__________________________________________________________________________________________________
	Important words not in vocabulary 221
	MWE not in vocabulary 1768
	Dashed keys in vocabulary 3975
	One occurrence keys in vocabulary 3975 / 22071
__________________________________________________________________________________________________
Layer (type)                    Output Shape         Param #     Connected to                     
==================================================================================================
phraseTokens (InputLayer)       (None, 50)           0                                            
__________________________________________________________________________________________________
phrasePoss (InputLayer)         (None, 50)           0                                            
__________________________________________________________________________________________________
transTokens (InputLayer)        (None, 5)            0                                            
__________________________________________________________________________________________________
transPoss (InputLayer)          (None, 5)            0                                            
__________________________________________________________________________________________________
phraseTokenEmb (Embedding)      (None, 50, 91)       2008461     phraseTokens[0][0]               
__________________________________________________________________________________________________
phrasePosEmb (Embedding)        (None, 50, 22)       2398        phrasePoss[0][0]                 
__________________________________________________________________________________________________
transTokenEmb (Embedding)       (None, 5, 148)       3266508     transTokens[0][0]                
__________________________________________________________________________________________________
transPosEmb (Embedding)         (None, 5, 44)        4796        transPoss[0][0]                  
__________________________________________________________________________________________________
concatenate_79 (Concatenate)    (None, 50, 113)      0           phraseTokenEmb[0][0]             
                                                                 phrasePosEmb[0][0]               
__________________________________________________________________________________________________
transTokenFlat (Flatten)        (None, 740)          0           transTokenEmb[0][0]              
__________________________________________________________________________________________________
transPosFlat (Flatten)          (None, 220)          0           transPosEmb[0][0]                
__________________________________________________________________________________________________
phraseRnn (LSTM)                (None, 190)          231040      concatenate_79[0][0]             
__________________________________________________________________________________________________
concatenate_80 (Concatenate)    (None, 960)          0           transTokenFlat[0][0]             
                                                                 transPosFlat[0][0]               
__________________________________________________________________________________________________
concatenate_81 (Concatenate)    (None, 1150)         0           phraseRnn[0][0]                  
                                                                 concatenate_80[0][0]             
__________________________________________________________________________________________________
dense_53 (Dense)                (None, 41)           47191       concatenate_81[0][0]             
__________________________________________________________________________________________________
dense_54 (Dense)                (None, 4)            168         dense_53[0][0]                   
==================================================================================================
Total params: 5,560,562
Trainable params: 5,560,562
Non-trainable params: 0
__________________________________________________________________________________________________
None
__________________________________________________________________________________________________
…
	Tokens := 11438 * POS : 152
__________________________________________________________________________________________________
	Important words not in vocabulary 675
	MWE not in vocabulary 1297
	Dashed keys in vocabulary 2182
	One occurrence keys in vocabulary 2182 / 11438
__________________________________________________________________________________________________
Layer (type)                    Output Shape         Param #     Connected to                     
==================================================================================================
phraseTokens (InputLayer)       (None, 50)           0                                            
__________________________________________________________________________________________________
phrasePoss (InputLayer)         (None, 50)           0                                            
__________________________________________________________________________________________________
transTokens (InputLayer)        (None, 4)            0                                            
__________________________________________________________________________________________________
transPoss (InputLayer)          (None, 4)            0                                            
__________________________________________________________________________________________________
phraseTokenEmb (Embedding)      (None, 50, 58)       663404      phraseTokens[0][0]               
__________________________________________________________________________________________________
phrasePosEmb (Embedding)        (None, 50, 25)       3800        phrasePoss[0][0]                 
__________________________________________________________________________________________________
transTokenEmb (Embedding)       (None, 4, 37)        423206      transTokens[0][0]                
__________________________________________________________________________________________________
transPosEmb (Embedding)         (None, 4, 36)        5472        transPoss[0][0]                  
__________________________________________________________________________________________________
concatenate_82 (Concatenate)    (None, 50, 83)       0           phraseTokenEmb[0][0]             
                                                                 phrasePosEmb[0][0]               
__________________________________________________________________________________________________
transTokenFlat (Flatten)        (None, 148)          0           transTokenEmb[0][0]              
__________________________________________________________________________________________________
transPosFlat (Flatten)          (None, 144)          0           transPosEmb[0][0]                
__________________________________________________________________________________________________
phraseRnn (GRU)                 (None, 190)          156180      concatenate_82[0][0]             
__________________________________________________________________________________________________
concatenate_83 (Concatenate)    (None, 292)          0           transTokenFlat[0][0]             
                                                                 transPosFlat[0][0]               
__________________________________________________________________________________________________
concatenate_84 (Concatenate)    (None, 482)          0           phraseRnn[0][0]                  
                                                                 concatenate_83[0][0]             
__________________________________________________________________________________________________
dense_55 (Dense)                (None, 186)          89838       concatenate_84[0][0]             
__________________________________________________________________________________________________
dense_56 (Dense)                (None, 4)            748         dense_55[0][0]                   
==================================================================================================
Total params: 1,342,648
Trainable params: 1,342,648
Non-trainable params: 0
__________________________________________________________________________________________________
None
__________________________________________________________________________________________________
…
	Tokens := 9401 * POS : 169
__________________________________________________________________________________________________
	Important words not in vocabulary 182
	MWE not in vocabulary 1082
	Dashed keys in vocabulary 2380
	One occurrence keys in vocabulary 2380 / 9401
__________________________________________________________________________________________________
Layer (type)                    Output Shape         Param #     Connected to                     
==================================================================================================
phraseTokens (InputLayer)       (None, 50)           0                                            
__________________________________________________________________________________________________
phrasePoss (InputLayer)         (None, 50)           0                                            
__________________________________________________________________________________________________
transTokens (InputLayer)        (None, 4)            0                                            
__________________________________________________________________________________________________
transPoss (InputLayer)          (None, 4)            0                                            
__________________________________________________________________________________________________
phraseTokenEmb (Embedding)      (None, 50, 58)       545258      phraseTokens[0][0]               
__________________________________________________________________________________________________
phrasePosEmb (Embedding)        (None, 50, 25)       4225        phrasePoss[0][0]                 
__________________________________________________________________________________________________
transTokenEmb (Embedding)       (None, 4, 37)        347837      transTokens[0][0]                
__________________________________________________________________________________________________
transPosEmb (Embedding)         (None, 4, 36)        6084        transPoss[0][0]                  
__________________________________________________________________________________________________
concatenate_85 (Concatenate)    (None, 50, 83)       0           phraseTokenEmb[0][0]             
                                                                 phrasePosEmb[0][0]               
__________________________________________________________________________________________________
transTokenFlat (Flatten)        (None, 148)          0           transTokenEmb[0][0]              
__________________________________________________________________________________________________
transPosFlat (Flatten)          (None, 144)          0           transPosEmb[0][0]                
__________________________________________________________________________________________________
phraseRnn (GRU)                 (None, 190)          156180      concatenate_85[0][0]             
__________________________________________________________________________________________________
concatenate_86 (Concatenate)    (None, 292)          0           transTokenFlat[0][0]             
                                                                 transPosFlat[0][0]               
__________________________________________________________________________________________________
concatenate_87 (Concatenate)    (None, 482)          0           phraseRnn[0][0]                  
                                                                 concatenate_86[0][0]             
__________________________________________________________________________________________________
dense_57 (Dense)                (None, 186)          89838       concatenate_87[0][0]             
__________________________________________________________________________________________________
dense_58 (Dense)                (None, 4)            748         dense_57[0][0]                   
==================================================================================================
Total params: 1,150,170
Trainable params: 1,150,170
Non-trainable params: 0
__________________________________________________________________________________________________
None
__________________________________________________________________________________________________
…
	Tokens := 22071 * POS : 109
__________________________________________________________________________________________________
	Important words not in vocabulary 221
	MWE not in vocabulary 1768
	Dashed keys in vocabulary 3975
	One occurrence keys in vocabulary 3975 / 22071
__________________________________________________________________________________________________
Layer (type)                    Output Shape         Param #     Connected to                     
==================================================================================================
phraseTokens (InputLayer)       (None, 50)           0                                            
__________________________________________________________________________________________________
phrasePoss (InputLayer)         (None, 50)           0                                            
__________________________________________________________________________________________________
transTokens (InputLayer)        (None, 4)            0                                            
__________________________________________________________________________________________________
transPoss (InputLayer)          (None, 4)            0                                            
__________________________________________________________________________________________________
phraseTokenEmb (Embedding)      (None, 50, 58)       1280118     phraseTokens[0][0]               
__________________________________________________________________________________________________
phrasePosEmb (Embedding)        (None, 50, 25)       2725        phrasePoss[0][0]                 
__________________________________________________________________________________________________
transTokenEmb (Embedding)       (None, 4, 37)        816627      transTokens[0][0]                
__________________________________________________________________________________________________
transPosEmb (Embedding)         (None, 4, 36)        3924        transPoss[0][0]                  
__________________________________________________________________________________________________
concatenate_88 (Concatenate)    (None, 50, 83)       0           phraseTokenEmb[0][0]             
                                                                 phrasePosEmb[0][0]               
__________________________________________________________________________________________________
transTokenFlat (Flatten)        (None, 148)          0           transTokenEmb[0][0]              
__________________________________________________________________________________________________
transPosFlat (Flatten)          (None, 144)          0           transPosEmb[0][0]                
__________________________________________________________________________________________________
phraseRnn (GRU)                 (None, 190)          156180      concatenate_88[0][0]             
__________________________________________________________________________________________________
concatenate_89 (Concatenate)    (None, 292)          0           transTokenFlat[0][0]             
                                                                 transPosFlat[0][0]               
__________________________________________________________________________________________________
concatenate_90 (Concatenate)    (None, 482)          0           phraseRnn[0][0]                  
                                                                 concatenate_89[0][0]             
__________________________________________________________________________________________________
dense_59 (Dense)                (None, 186)          89838       concatenate_90[0][0]             
__________________________________________________________________________________________________
dense_60 (Dense)                (None, 4)            748         dense_59[0][0]                   
==================================================================================================
Total params: 2,350,160
Trainable params: 2,350,160
Non-trainable params: 0
__________________________________________________________________________________________________
None
__________________________________________________________________________________________________
…
==================================================================================================
	Tokens := 7545 * POS : 152
__________________________________________________________________________________________________
	Dashed keys in vocabulary 1622
	One occurrence keys in vocabulary 1622 / 7545
__________________________________________________________________________________________________
Layer (type)                    Output Shape         Param #     Connected to                     
==================================================================================================
phraseTokens (InputLayer)       (None, 50)           0                                            
__________________________________________________________________________________________________
phrasePoss (InputLayer)         (None, 50)           0                                            
__________________________________________________________________________________________________
transTokens (InputLayer)        (None, 5)            0                                            
__________________________________________________________________________________________________
transPoss (InputLayer)          (None, 5)            0                                            
__________________________________________________________________________________________________
phraseTokenEmb (Embedding)      (None, 50, 48)       362160      phraseTokens[0][0]               
__________________________________________________________________________________________________
phrasePosEmb (Embedding)        (None, 50, 34)       5168        phrasePoss[0][0]                 
__________________________________________________________________________________________________
transTokenEmb (Embedding)       (None, 5, 96)        724320      transTokens[0][0]                
__________________________________________________________________________________________________
transPosEmb (Embedding)         (None, 5, 16)        2432        transPoss[0][0]                  
__________________________________________________________________________________________________
concatenate_91 (Concatenate)    (None, 50, 82)       0           phraseTokenEmb[0][0]             
                                                                 phrasePosEmb[0][0]               
__________________________________________________________________________________________________
transTokenFlat (Flatten)        (None, 480)          0           transTokenEmb[0][0]              
__________________________________________________________________________________________________
transPosFlat (Flatten)          (None, 80)           0           transPosEmb[0][0]                
__________________________________________________________________________________________________
phraseRnn (LSTM)                (None, 89)           61232       concatenate_91[0][0]             
__________________________________________________________________________________________________
concatenate_92 (Concatenate)    (None, 560)          0           transTokenFlat[0][0]             
                                                                 transPosFlat[0][0]               
__________________________________________________________________________________________________
concatenate_93 (Concatenate)    (None, 649)          0           phraseRnn[0][0]                  
                                                                 concatenate_92[0][0]             
__________________________________________________________________________________________________
dense_61 (Dense)                (None, 86)           55900       concatenate_93[0][0]             
__________________________________________________________________________________________________
dense_62 (Dense)                (None, 4)            348         dense_61[0][0]                   
==================================================================================================
Total params: 1,211,560
Trainable params: 1,211,560
Non-trainable params: 0
__________________________________________________________________________________________________
None
__________________________________________________________________________________________________
…
==================================================================================================
	Tokens := 7241 * POS : 169
__________________________________________________________________________________________________
	Important words not in vocabulary 1
	MWE not in vocabulary 3
	Dashed keys in vocabulary 1674
	One occurrence keys in vocabulary 1674 / 7241
__________________________________________________________________________________________________
Layer (type)                    Output Shape         Param #     Connected to                     
==================================================================================================
phraseTokens (InputLayer)       (None, 50)           0                                            
__________________________________________________________________________________________________
phrasePoss (InputLayer)         (None, 50)           0                                            
__________________________________________________________________________________________________
transTokens (InputLayer)        (None, 5)            0                                            
__________________________________________________________________________________________________
transPoss (InputLayer)          (None, 5)            0                                            
__________________________________________________________________________________________________
phraseTokenEmb (Embedding)      (None, 50, 48)       347568      phraseTokens[0][0]               
__________________________________________________________________________________________________
phrasePosEmb (Embedding)        (None, 50, 34)       5746        phrasePoss[0][0]                 
__________________________________________________________________________________________________
transTokenEmb (Embedding)       (None, 5, 96)        695136      transTokens[0][0]                
__________________________________________________________________________________________________
transPosEmb (Embedding)         (None, 5, 16)        2704        transPoss[0][0]                  
__________________________________________________________________________________________________
concatenate_94 (Concatenate)    (None, 50, 82)       0           phraseTokenEmb[0][0]             
                                                                 phrasePosEmb[0][0]               
__________________________________________________________________________________________________
transTokenFlat (Flatten)        (None, 480)          0           transTokenEmb[0][0]              
__________________________________________________________________________________________________
transPosFlat (Flatten)          (None, 80)           0           transPosEmb[0][0]                
__________________________________________________________________________________________________
phraseRnn (LSTM)                (None, 89)           61232       concatenate_94[0][0]             
__________________________________________________________________________________________________
concatenate_95 (Concatenate)    (None, 560)          0           transTokenFlat[0][0]             
                                                                 transPosFlat[0][0]               
__________________________________________________________________________________________________
concatenate_96 (Concatenate)    (None, 649)          0           phraseRnn[0][0]                  
                                                                 concatenate_95[0][0]             
__________________________________________________________________________________________________
dense_63 (Dense)                (None, 86)           55900       concatenate_96[0][0]             
__________________________________________________________________________________________________
dense_64 (Dense)                (None, 4)            348         dense_63[0][0]                   
==================================================================================================
Total params: 1,168,634
Trainable params: 1,168,634
Non-trainable params: 0
__________________________________________________________________________________________________
None
__________________________________________________________________________________________________
…
==================================================================================================
	Tokens := 13793 * POS : 109
__________________________________________________________________________________________________
	Dashed keys in vocabulary 3161
	One occurrence keys in vocabulary 3161 / 13793
__________________________________________________________________________________________________
Layer (type)                    Output Shape         Param #     Connected to                     
==================================================================================================
phraseTokens (InputLayer)       (None, 50)           0                                            
__________________________________________________________________________________________________
phrasePoss (InputLayer)         (None, 50)           0                                            
__________________________________________________________________________________________________
transTokens (InputLayer)        (None, 5)            0                                            
__________________________________________________________________________________________________
transPoss (InputLayer)          (None, 5)            0                                            
__________________________________________________________________________________________________
phraseTokenEmb (Embedding)      (None, 50, 48)       662064      phraseTokens[0][0]               
__________________________________________________________________________________________________
phrasePosEmb (Embedding)        (None, 50, 34)       3706        phrasePoss[0][0]                 
__________________________________________________________________________________________________
transTokenEmb (Embedding)       (None, 5, 96)        1324128     transTokens[0][0]                
__________________________________________________________________________________________________
transPosEmb (Embedding)         (None, 5, 16)        1744        transPoss[0][0]                  
__________________________________________________________________________________________________
concatenate_97 (Concatenate)    (None, 50, 82)       0           phraseTokenEmb[0][0]             
                                                                 phrasePosEmb[0][0]               
__________________________________________________________________________________________________
transTokenFlat (Flatten)        (None, 480)          0           transTokenEmb[0][0]              
__________________________________________________________________________________________________
transPosFlat (Flatten)          (None, 80)           0           transPosEmb[0][0]                
__________________________________________________________________________________________________
phraseRnn (LSTM)                (None, 89)           61232       concatenate_97[0][0]             
__________________________________________________________________________________________________
concatenate_98 (Concatenate)    (None, 560)          0           transTokenFlat[0][0]             
                                                                 transPosFlat[0][0]               
__________________________________________________________________________________________________
concatenate_99 (Concatenate)    (None, 649)          0           phraseRnn[0][0]                  
                                                                 concatenate_98[0][0]             
__________________________________________________________________________________________________
dense_65 (Dense)                (None, 86)           55900       concatenate_99[0][0]             
__________________________________________________________________________________________________
dense_66 (Dense)                (None, 4)            348         dense_65[0][0]                   
==================================================================================================
Total params: 2,109,122
Trainable params: 2,109,122
Non-trainable params: 0
__________________________________________________________________________________________________
None
__________________________________________________________________________________________________
…
==================================================================================================
	Tokens := 7545 * POS : 152
__________________________________________________________________________________________________
	Dashed keys in vocabulary 1622
	One occurrence keys in vocabulary 1622 / 7545
__________________________________________________________________________________________________
Layer (type)                    Output Shape         Param #     Connected to                     
==================================================================================================
phraseTokens (InputLayer)       (None, 50)           0                                            
__________________________________________________________________________________________________
phrasePoss (InputLayer)         (None, 50)           0                                            
__________________________________________________________________________________________________
transTokens (InputLayer)        (None, 4)            0                                            
__________________________________________________________________________________________________
transPoss (InputLayer)          (None, 4)            0                                            
__________________________________________________________________________________________________
phraseTokenEmb (Embedding)      (None, 50, 60)       452700      phraseTokens[0][0]               
__________________________________________________________________________________________________
phrasePosEmb (Embedding)        (None, 50, 31)       4712        phrasePoss[0][0]                 
__________________________________________________________________________________________________
transTokenEmb (Embedding)       (None, 4, 38)        286710      transTokens[0][0]                
__________________________________________________________________________________________________
transPosEmb (Embedding)         (None, 4, 9)         1368        transPoss[0][0]                  
__________________________________________________________________________________________________
concatenate_100 (Concatenate)   (None, 50, 91)       0           phraseTokenEmb[0][0]             
                                                                 phrasePosEmb[0][0]               
__________________________________________________________________________________________________
transTokenFlat (Flatten)        (None, 152)          0           transTokenEmb[0][0]              
__________________________________________________________________________________________________
transPosFlat (Flatten)          (None, 36)           0           transPosEmb[0][0]                
__________________________________________________________________________________________________
phraseRnn (GRU)                 (None, 42)           16884       concatenate_100[0][0]            
__________________________________________________________________________________________________
concatenate_101 (Concatenate)   (None, 188)          0           transTokenFlat[0][0]             
                                                                 transPosFlat[0][0]               
__________________________________________________________________________________________________
concatenate_102 (Concatenate)   (None, 230)          0           phraseRnn[0][0]                  
                                                                 concatenate_101[0][0]            
__________________________________________________________________________________________________
dense_67 (Dense)                (None, 30)           6930        concatenate_102[0][0]            
__________________________________________________________________________________________________
dense_68 (Dense)                (None, 4)            124         dense_67[0][0]                   
==================================================================================================
Total params: 769,428
Trainable params: 769,428
Non-trainable params: 0
__________________________________________________________________________________________________
None
__________________________________________________________________________________________________
…
==================================================================================================
	Tokens := 7241 * POS : 169
__________________________________________________________________________________________________
	Important words not in vocabulary 1
	MWE not in vocabulary 3
	Dashed keys in vocabulary 1674
	One occurrence keys in vocabulary 1674 / 7241
__________________________________________________________________________________________________
Layer (type)                    Output Shape         Param #     Connected to                     
==================================================================================================
phraseTokens (InputLayer)       (None, 50)           0                                            
__________________________________________________________________________________________________
phrasePoss (InputLayer)         (None, 50)           0                                            
__________________________________________________________________________________________________
transTokens (InputLayer)        (None, 4)            0                                            
__________________________________________________________________________________________________
transPoss (InputLayer)          (None, 4)            0                                            
__________________________________________________________________________________________________
phraseTokenEmb (Embedding)      (None, 50, 60)       434460      phraseTokens[0][0]               
__________________________________________________________________________________________________
phrasePosEmb (Embedding)        (None, 50, 31)       5239        phrasePoss[0][0]                 
__________________________________________________________________________________________________
transTokenEmb (Embedding)       (None, 4, 38)        275158      transTokens[0][0]                
__________________________________________________________________________________________________
transPosEmb (Embedding)         (None, 4, 9)         1521        transPoss[0][0]                  
__________________________________________________________________________________________________
concatenate_103 (Concatenate)   (None, 50, 91)       0           phraseTokenEmb[0][0]             
…
concatenate_361 (Concatenate)   (None, 50, 144)      0           phraseTokenEmb[0][0]             
                                                                 phrasePosEmb[0][0]               
__________________________________________________________________________________________________
transTokenFlat (Flatten)        (None, 585)          0           transTokenEmb[0][0]              
__________________________________________________________________________________________________
transPosFlat (Flatten)          (None, 50)           0           transPosEmb[0][0]                
__________________________________________________________________________________________________
phraseRnn (GRU)                 (None, 296)          391608      concatenate_361[0][0]            
__________________________________________________________________________________________________
concatenate_362 (Concatenate)   (None, 635)          0           transTokenFlat[0][0]             
                                                                 transPosFlat[0][0]               
__________________________________________________________________________________________________
concatenate_363 (Concatenate)   (None, 931)          0           phraseRnn[0][0]                  
                                                                 concatenate_362[0][0]            
__________________________________________________________________________________________________
dense_241 (Dense)               (None, 193)          179876      concatenate_363[0][0]            
__________________________________________________________________________________________________
dense_242 (Dense)               (None, 4)            776         dense_241[0][0]                  
==================================================================================================
Total params: 2,336,021
Trainable params: 2,336,021
Non-trainable params: 0
__________________________________________________________________________________________________
None
__________________________________________________________________________________________________
…
==================================================================================================
	Tokens := 7241 * POS : 169
__________________________________________________________________________________________________
	Important words not in vocabulary 1
	MWE not in vocabulary 3
	Dashed keys in vocabulary 1674
	One occurrence keys in vocabulary 1674 / 7241
__________________________________________________________________________________________________
Layer (type)                    Output Shape         Param #     Connected to                     
==================================================================================================
phraseTokens (InputLayer)       (None, 50)           0                                            
__________________________________________________________________________________________________
phrasePoss (InputLayer)         (None, 50)           0                                            
__________________________________________________________________________________________________
transTokens (InputLayer)        (None, 5)            0                                            
__________________________________________________________________________________________________
transPoss (InputLayer)          (None, 5)            0                                            
__________________________________________________________________________________________________
phraseTokenEmb (Embedding)      (None, 50, 116)      839956      phraseTokens[0][0]               
__________________________________________________________________________________________________
phrasePosEmb (Embedding)        (None, 50, 28)       4732        phrasePoss[0][0]                 
__________________________________________________________________________________________________
transTokenEmb (Embedding)       (None, 5, 117)       847197      transTokens[0][0]                
__________________________________________________________________________________________________
transPosEmb (Embedding)         (None, 5, 10)        1690        transPoss[0][0]                  
__________________________________________________________________________________________________
concatenate_364 (Concatenate)   (None, 50, 144)      0           phraseTokenEmb[0][0]             
                                                                 phrasePosEmb[0][0]               
__________________________________________________________________________________________________
transTokenFlat (Flatten)        (None, 585)          0           transTokenEmb[0][0]              
__________________________________________________________________________________________________
transPosFlat (Flatten)          (None, 50)           0           transPosEmb[0][0]                
__________________________________________________________________________________________________
phraseRnn (GRU)                 (None, 296)          391608      concatenate_364[0][0]            
__________________________________________________________________________________________________
concatenate_365 (Concatenate)   (None, 635)          0           transTokenFlat[0][0]             
                                                                 transPosFlat[0][0]               
__________________________________________________________________________________________________
concatenate_366 (Concatenate)   (None, 931)          0           phraseRnn[0][0]                  
                                                                 concatenate_365[0][0]            
__________________________________________________________________________________________________
dense_243 (Dense)               (None, 193)          179876      concatenate_366[0][0]            
__________________________________________________________________________________________________
dense_244 (Dense)               (None, 4)            776         dense_243[0][0]                  
==================================================================================================
Total params: 2,265,835
Trainable params: 2,265,835
Non-trainable params: 0
__________________________________________________________________________________________________
None
__________________________________________________________________________________________________
…
==================================================================================================
	Tokens := 13793 * POS : 109
__________________________________________________________________________________________________
	Dashed keys in vocabulary 3161
	One occurrence keys in vocabulary 3161 / 13793
__________________________________________________________________________________________________
Layer (type)                    Output Shape         Param #     Connected to                     
==================================================================================================
phraseTokens (InputLayer)       (None, 50)           0                                            
__________________________________________________________________________________________________
phrasePoss (InputLayer)         (None, 50)           0                                            
__________________________________________________________________________________________________
transTokens (InputLayer)        (None, 5)            0                                            
__________________________________________________________________________________________________
transPoss (InputLayer)          (None, 5)            0                                            
__________________________________________________________________________________________________
phraseTokenEmb (Embedding)      (None, 50, 116)      1599988     phraseTokens[0][0]               
__________________________________________________________________________________________________
phrasePosEmb (Embedding)        (None, 50, 28)       3052        phrasePoss[0][0]                 
__________________________________________________________________________________________________
transTokenEmb (Embedding)       (None, 5, 117)       1613781     transTokens[0][0]                
__________________________________________________________________________________________________
transPosEmb (Embedding)         (None, 5, 10)        1090        transPoss[0][0]                  
__________________________________________________________________________________________________
concatenate_367 (Concatenate)   (None, 50, 144)      0           phraseTokenEmb[0][0]             
                                                                 phrasePosEmb[0][0]               
__________________________________________________________________________________________________
transTokenFlat (Flatten)        (None, 585)          0           transTokenEmb[0][0]              
__________________________________________________________________________________________________
transPosFlat (Flatten)          (None, 50)           0           transPosEmb[0][0]                
__________________________________________________________________________________________________
phraseRnn (GRU)                 (None, 296)          391608      concatenate_367[0][0]            
__________________________________________________________________________________________________
concatenate_368 (Concatenate)   (None, 635)          0           transTokenFlat[0][0]             
                                                                 transPosFlat[0][0]               
__________________________________________________________________________________________________
concatenate_369 (Concatenate)   (None, 931)          0           phraseRnn[0][0]                  
                                                                 concatenate_368[0][0]            
__________________________________________________________________________________________________
dense_245 (Dense)               (None, 193)          179876      concatenate_369[0][0]            
__________________________________________________________________________________________________
dense_246 (Dense)               (None, 4)            776         dense_245[0][0]                  
==================================================================================================
Total params: 3,790,171
Trainable params: 3,790,171
Non-trainable params: 0
__________________________________________________________________________________________________
None
__________________________________________________________________________________________________
…
	Tokens := 11438 * POS : 152
__________________________________________________________________________________________________
	Important words not in vocabulary 675
	MWE not in vocabulary 1297
	Dashed keys in vocabulary 2182
	One occurrence keys in vocabulary 2182 / 11438
__________________________________________________________________________________________________
Layer (type)                    Output Shape         Param #     Connected to                     
==================================================================================================
phraseTokens (InputLayer)       (None, 50)           0                                            
__________________________________________________________________________________________________
phrasePoss (InputLayer)         (None, 50)           0                                            
__________________________________________________________________________________________________
transTokens (InputLayer)        (None, 5)            0                                            
__________________________________________________________________________________________________
transPoss (InputLayer)          (None, 5)            0                                            
__________________________________________________________________________________________________
phraseTokenEmb (Embedding)      (None, 50, 30)       343140      phraseTokens[0][0]               
__________________________________________________________________________________________________
phrasePosEmb (Embedding)        (None, 50, 13)       1976        phrasePoss[0][0]                 
__________________________________________________________________________________________________
transTokenEmb (Embedding)       (None, 5, 43)        491834      transTokens[0][0]                
__________________________________________________________________________________________________
transPosEmb (Embedding)         (None, 5, 25)        3800        transPoss[0][0]                  
__________________________________________________________________________________________________
concatenate_370 (Concatenate)   (None, 50, 43)       0           phraseTokenEmb[0][0]             
                                                                 phrasePosEmb[0][0]               
__________________________________________________________________________________________________
transTokenFlat (Flatten)        (None, 215)          0           transTokenEmb[0][0]              
__________________________________________________________________________________________________
transPosFlat (Flatten)          (None, 125)          0           transPosEmb[0][0]                
__________________________________________________________________________________________________
phraseRnn (GRU)                 (None, 356)          427200      concatenate_370[0][0]            
__________________________________________________________________________________________________
concatenate_371 (Concatenate)   (None, 340)          0           transTokenFlat[0][0]             
                                                                 transPosFlat[0][0]               
__________________________________________________________________________________________________
concatenate_372 (Concatenate)   (None, 696)          0           phraseRnn[0][0]                  
                                                                 concatenate_371[0][0]            
__________________________________________________________________________________________________
dense_247 (Dense)               (None, 146)          101762      concatenate_372[0][0]            
__________________________________________________________________________________________________
dense_248 (Dense)               (None, 4)            588         dense_247[0][0]                  
==================================================================================================
Total params: 1,370,300
Trainable params: 1,370,300
Non-trainable params: 0
__________________________________________________________________________________________________
None
__________________________________________________________________________________________________
…
	Tokens := 9401 * POS : 169
__________________________________________________________________________________________________
	Important words not in vocabulary 182
	MWE not in vocabulary 1082
	Dashed keys in vocabulary 2380
	One occurrence keys in vocabulary 2380 / 9401
__________________________________________________________________________________________________
Layer (type)                    Output Shape         Param #     Connected to                     
==================================================================================================
phraseTokens (InputLayer)       (None, 50)           0                                            
__________________________________________________________________________________________________
phrasePoss (InputLayer)         (None, 50)           0                                            
__________________________________________________________________________________________________
transTokens (InputLayer)        (None, 5)            0                                            
__________________________________________________________________________________________________
transPoss (InputLayer)          (None, 5)            0                                            
__________________________________________________________________________________________________
phraseTokenEmb (Embedding)      (None, 50, 30)       282030      phraseTokens[0][0]               
__________________________________________________________________________________________________
phrasePosEmb (Embedding)        (None, 50, 13)       2197        phrasePoss[0][0]                 
__________________________________________________________________________________________________
transTokenEmb (Embedding)       (None, 5, 43)        404243      transTokens[0][0]                
__________________________________________________________________________________________________
transPosEmb (Embedding)         (None, 5, 25)        4225        transPoss[0][0]                  
__________________________________________________________________________________________________
concatenate_373 (Concatenate)   (None, 50, 43)       0           phraseTokenEmb[0][0]             
                                                                 phrasePosEmb[0][0]               
__________________________________________________________________________________________________
transTokenFlat (Flatten)        (None, 215)          0           transTokenEmb[0][0]              
__________________________________________________________________________________________________
transPosFlat (Flatten)          (None, 125)          0           transPosEmb[0][0]                
__________________________________________________________________________________________________
phraseRnn (GRU)                 (None, 356)          427200      concatenate_373[0][0]            
__________________________________________________________________________________________________
concatenate_374 (Concatenate)   (None, 340)          0           transTokenFlat[0][0]             
                                                                 transPosFlat[0][0]               
__________________________________________________________________________________________________
concatenate_375 (Concatenate)   (None, 696)          0           phraseRnn[0][0]                  
                                                                 concatenate_374[0][0]            
__________________________________________________________________________________________________
dense_249 (Dense)               (None, 146)          101762      concatenate_375[0][0]            
__________________________________________________________________________________________________
dense_250 (Dense)               (None, 4)            588         dense_249[0][0]                  
==================================================================================================
Total params: 1,222,245
Trainable params: 1,222,245
Non-trainable params: 0
__________________________________________________________________________________________________
None
__________________________________________________________________________________________________
…
	Tokens := 22071 * POS : 109
__________________________________________________________________________________________________
	Important words not in vocabulary 221
	MWE not in vocabulary 1768
	Dashed keys in vocabulary 3975
	One occurrence keys in vocabulary 3975 / 22071
__________________________________________________________________________________________________
Layer (type)                    Output Shape         Param #     Connected to                     
==================================================================================================
phraseTokens (InputLayer)       (None, 50)           0                                            
__________________________________________________________________________________________________
phrasePoss (InputLayer)         (None, 50)           0                                            
__________________________________________________________________________________________________
transTokens (InputLayer)        (None, 5)            0                                            
__________________________________________________________________________________________________
transPoss (InputLayer)          (None, 5)            0                                            
__________________________________________________________________________________________________
phraseTokenEmb (Embedding)      (None, 50, 30)       662130      phraseTokens[0][0]               
__________________________________________________________________________________________________
phrasePosEmb (Embedding)        (None, 50, 13)       1417        phrasePoss[0][0]                 
__________________________________________________________________________________________________
transTokenEmb (Embedding)       (None, 5, 43)        949053      transTokens[0][0]                
__________________________________________________________________________________________________
transPosEmb (Embedding)         (None, 5, 25)        2725        transPoss[0][0]                  
__________________________________________________________________________________________________
concatenate_376 (Concatenate)   (None, 50, 43)       0           phraseTokenEmb[0][0]             
                                                                 phrasePosEmb[0][0]               
__________________________________________________________________________________________________
transTokenFlat (Flatten)        (None, 215)          0           transTokenEmb[0][0]              
__________________________________________________________________________________________________
transPosFlat (Flatten)          (None, 125)          0           transPosEmb[0][0]                
__________________________________________________________________________________________________
phraseRnn (GRU)                 (None, 356)          427200      concatenate_376[0][0]            
__________________________________________________________________________________________________
concatenate_377 (Concatenate)   (None, 340)          0           transTokenFlat[0][0]             
                                                                 transPosFlat[0][0]               
__________________________________________________________________________________________________
concatenate_378 (Concatenate)   (None, 696)          0           phraseRnn[0][0]                  
                                                                 concatenate_377[0][0]            
__________________________________________________________________________________________________
dense_251 (Dense)               (None, 146)          101762      concatenate_378[0][0]            
__________________________________________________________________________________________________
dense_252 (Dense)               (None, 4)            588         dense_251[0][0]                  
==================================================================================================
Total params: 2,144,875
Trainable params: 2,144,875
Non-trainable params: 0
__________________________________________________________________________________________________
None
__________________________________________________________________________________________________
…
==================================================================================================
	Tokens := 7545 * POS : 152
__________________________________________________________________________________________________
	Dashed keys in vocabulary 1622
	One occurrence keys in vocabulary 1622 / 7545
__________________________________________________________________________________________________
Layer (type)                    Output Shape         Param #     Connected to                     
==================================================================================================
phraseTokens (InputLayer)       (None, 50)           0                                            
__________________________________________________________________________________________________
phrasePoss (InputLayer)         (None, 50)           0                                            
__________________________________________________________________________________________________
transTokens (InputLayer)        (None, 5)            0                                            
__________________________________________________________________________________________________
transPoss (InputLayer)          (None, 5)            0                                            
__________________________________________________________________________________________________
phraseTokenEmb (Embedding)      (None, 50, 28)       211260      phraseTokens[0][0]               
__________________________________________________________________________________________________
phrasePosEmb (Embedding)        (None, 50, 47)       7144        phrasePoss[0][0]                 
__________________________________________________________________________________________________
transTokenEmb (Embedding)       (None, 5, 31)        233895      transTokens[0][0]                
__________________________________________________________________________________________________
transPosEmb (Embedding)         (None, 5, 10)        1520        transPoss[0][0]                  
__________________________________________________________________________________________________
concatenate_379 (Concatenate)   (None, 50, 75)       0           phraseTokenEmb[0][0]             
                                                                 phrasePosEmb[0][0]               
__________________________________________________________________________________________________
transTokenFlat (Flatten)        (None, 155)          0           transTokenEmb[0][0]              
__________________________________________________________________________________________________
transPosFlat (Flatten)          (None, 50)           0           transPosEmb[0][0]                
__________________________________________________________________________________________________
phraseRnn (GRU)                 (None, 98)           51156       concatenate_379[0][0]            
__________________________________________________________________________________________________
concatenate_380 (Concatenate)   (None, 205)          0           transTokenFlat[0][0]             
                                                                 transPosFlat[0][0]               
__________________________________________________________________________________________________
concatenate_381 (Concatenate)   (None, 303)          0           phraseRnn[0][0]                  
                                                                 concatenate_380[0][0]            
__________________________________________________________________________________________________
dense_253 (Dense)               (None, 202)          61408       concatenate_381[0][0]            
__________________________________________________________________________________________________
dense_254 (Dense)               (None, 4)            812         dense_253[0][0]                  
==================================================================================================
Total params: 567,195
Trainable params: 567,195
Non-trainable params: 0
__________________________________________________________________________________________________
None
__________________________________________________________________________________________________
…
==================================================================================================
	Tokens := 7241 * POS : 169
__________________________________________________________________________________________________
	Important words not in vocabulary 1
	MWE not in vocabulary 3
	Dashed keys in vocabulary 1674
	One occurrence keys in vocabulary 1674 / 7241
__________________________________________________________________________________________________
Layer (type)                    Output Shape         Param #     Connected to                     
==================================================================================================
phraseTokens (InputLayer)       (None, 50)           0                                            
__________________________________________________________________________________________________
phrasePoss (InputLayer)         (None, 50)           0                                            
__________________________________________________________________________________________________
transTokens (InputLayer)        (None, 5)            0                                            
__________________________________________________________________________________________________
transPoss (InputLayer)          (None, 5)            0                                            
__________________________________________________________________________________________________
phraseTokenEmb (Embedding)      (None, 50, 28)       202748      phraseTokens[0][0]               
__________________________________________________________________________________________________
phrasePosEmb (Embedding)        (None, 50, 47)       7943        phrasePoss[0][0]                 
__________________________________________________________________________________________________
transTokenEmb (Embedding)       (None, 5, 31)        224471      transTokens[0][0]                
__________________________________________________________________________________________________
transPosEmb (Embedding)         (None, 5, 10)        1690        transPoss[0][0]                  
__________________________________________________________________________________________________
concatenate_382 (Concatenate)   (None, 50, 75)       0           phraseTokenEmb[0][0]             
                                                                 phrasePosEmb[0][0]               
__________________________________________________________________________________________________
transTokenFlat (Flatten)        (None, 155)          0           transTokenEmb[0][0]              
__________________________________________________________________________________________________
transPosFlat (Flatten)          (None, 50)           0           transPosEmb[0][0]                
__________________________________________________________________________________________________
phraseRnn (GRU)                 (None, 98)           51156       concatenate_382[0][0]            
__________________________________________________________________________________________________
concatenate_383 (Concatenate)   (None, 205)          0           transTokenFlat[0][0]             
                                                                 transPosFlat[0][0]               
__________________________________________________________________________________________________
concatenate_384 (Concatenate)   (None, 303)          0           phraseRnn[0][0]                  
                                                                 concatenate_383[0][0]            
__________________________________________________________________________________________________
dense_255 (Dense)               (None, 202)          61408       concatenate_384[0][0]            
__________________________________________________________________________________________________
dense_256 (Dense)               (None, 4)            812         dense_255[0][0]                  
==================================================================================================
Total params: 550,228
Trainable params: 550,228
Non-trainable params: 0
__________________________________________________________________________________________________
None
__________________________________________________________________________________________________
…
==================================================================================================
	Tokens := 13793 * POS : 109
__________________________________________________________________________________________________
	Dashed keys in vocabulary 3161
	One occurrence keys in vocabulary 3161 / 13793
__________________________________________________________________________________________________
Layer (type)                    Output Shape         Param #     Connected to                     
==================================================================================================
phraseTokens (InputLayer)       (None, 50)           0                                            
__________________________________________________________________________________________________
phrasePoss (InputLayer)         (None, 50)           0                                            
__________________________________________________________________________________________________
transTokens (InputLayer)        (None, 5)            0                                            
__________________________________________________________________________________________________
transPoss (InputLayer)          (None, 5)            0                                            
__________________________________________________________________________________________________
phraseTokenEmb (Embedding)      (None, 50, 28)       386204      phraseTokens[0][0]               
__________________________________________________________________________________________________
phrasePosEmb (Embedding)        (None, 50, 47)       5123        phrasePoss[0][0]                 
__________________________________________________________________________________________________
transTokenEmb (Embedding)       (None, 5, 31)        427583      transTokens[0][0]                
__________________________________________________________________________________________________
transPosEmb (Embedding)         (None, 5, 10)        1090        transPoss[0][0]                  
__________________________________________________________________________________________________
concatenate_385 (Concatenate)   (None, 50, 75)       0           phraseTokenEmb[0][0]             
                                                                 phrasePosEmb[0][0]               
__________________________________________________________________________________________________
transTokenFlat (Flatten)        (None, 155)          0           transTokenEmb[0][0]              
__________________________________________________________________________________________________
transPosFlat (Flatten)          (None, 50)           0           transPosEmb[0][0]                
__________________________________________________________________________________________________
phraseRnn (GRU)                 (None, 98)           51156       concatenate_385[0][0]            
__________________________________________________________________________________________________
concatenate_386 (Concatenate)   (None, 205)          0           transTokenFlat[0][0]             
                                                                 transPosFlat[0][0]               
__________________________________________________________________________________________________
concatenate_387 (Concatenate)   (None, 303)          0           phraseRnn[0][0]                  
                                                                 concatenate_386[0][0]            
__________________________________________________________________________________________________
dense_257 (Dense)               (None, 202)          61408       concatenate_387[0][0]            
__________________________________________________________________________________________________
dense_258 (Dense)               (None, 4)            812         dense_257[0][0]                  
==================================================================================================
Total params: 933,376
Trainable params: 933,376
Non-trainable params: 0
__________________________________________________________________________________________________
None
__________________________________________________________________________________________________
…
==================================================================================================
	Tokens := 7545 * POS : 152
__________________________________________________________________________________________________
	Dashed keys in vocabulary 1622
	One occurrence keys in vocabulary 1622 / 7545
__________________________________________________________________________________________________
Layer (type)                    Output Shape         Param #     Connected to                     
==================================================================================================
phraseTokens (InputLayer)       (None, 50)           0                                            
__________________________________________________________________________________________________
phrasePoss (InputLayer)         (None, 50)           0                                            
__________________________________________________________________________________________________
transTokens (InputLayer)        (None, 4)            0                                            
__________________________________________________________________________________________________
transPoss (InputLayer)          (None, 4)            0                                            
__________________________________________________________________________________________________
phraseTokenEmb (Embedding)      (None, 50, 55)       414975      phraseTokens[0][0]               
__________________________________________________________________________________________________
phrasePosEmb (Embedding)        (None, 50, 5)        760         phrasePoss[0][0]                 
__________________________________________________________________________________________________
transTokenEmb (Embedding)       (None, 4, 161)       1214745     transTokens[0][0]                
__________________________________________________________________________________________________
transPosEmb (Embedding)         (None, 4, 14)        2128        transPoss[0][0]                  
__________________________________________________________________________________________________
concatenate_388 (Concatenate)   (None, 50, 60)       0           phraseTokenEmb[0][0]             
                                                                 phrasePosEmb[0][0]               
__________________________________________________________________________________________________
transTokenFlat (Flatten)        (None, 644)          0           transTokenEmb[0][0]              
__________________________________________________________________________________________________
transPosFlat (Flatten)          (None, 56)           0           transPosEmb[0][0]                
__________________________________________________________________________________________________
phraseRnn (LSTM)                (None, 428)          837168      concatenate_388[0][0]            
__________________________________________________________________________________________________
concatenate_389 (Concatenate)   (None, 700)          0           transTokenFlat[0][0]             
                                                                 transPosFlat[0][0]               
__________________________________________________________________________________________________
concatenate_390 (Concatenate)   (None, 1128)         0           phraseRnn[0][0]                  
                                                                 concatenate_389[0][0]            
__________________________________________________________________________________________________
dense_259 (Dense)               (None, 412)          465148      concatenate_390[0][0]            
__________________________________________________________________________________________________
dense_260 (Dense)               (None, 4)            1652        dense_259[0][0]                  
==================================================================================================
Total params: 2,936,576
Trainable params: 2,936,576
Non-trainable params: 0
__________________________________________________________________________________________________
None
__________________________________________________________________________________________________
…
==================================================================================================
	Tokens := 7241 * POS : 169
__________________________________________________________________________________________________
	Important words not in vocabulary 1
	MWE not in vocabulary 3
	Dashed keys in vocabulary 1674
	One occurrence keys in vocabulary 1674 / 7241
__________________________________________________________________________________________________
Layer (type)                    Output Shape         Param #     Connected to                     
==================================================================================================
phraseTokens (InputLayer)       (None, 50)           0                                            
__________________________________________________________________________________________________
phrasePoss (InputLayer)         (None, 50)           0                                            
__________________________________________________________________________________________________
transTokens (InputLayer)        (None, 4)            0                                            
__________________________________________________________________________________________________
transPoss (InputLayer)          (None, 4)            0                                            
__________________________________________________________________________________________________
phraseTokenEmb (Embedding)      (None, 50, 55)       398255      phraseTokens[0][0]               
__________________________________________________________________________________________________
phrasePosEmb (Embedding)        (None, 50, 5)        845         phrasePoss[0][0]                 
__________________________________________________________________________________________________
transTokenEmb (Embedding)       (None, 4, 161)       1165801     transTokens[0][0]                
__________________________________________________________________________________________________
transPosEmb (Embedding)         (None, 4, 14)        2366        transPoss[0][0]                  
__________________________________________________________________________________________________
concatenate_391 (Concatenate)   (None, 50, 60)       0           phraseTokenEmb[0][0]             
                                                                 phrasePosEmb[0][0]               
__________________________________________________________________________________________________
transTokenFlat (Flatten)        (None, 644)          0           transTokenEmb[0][0]              
__________________________________________________________________________________________________
transPosFlat (Flatten)          (None, 56)           0           transPosEmb[0][0]                
__________________________________________________________________________________________________
phraseRnn (LSTM)                (None, 428)          837168      concatenate_391[0][0]            
__________________________________________________________________________________________________
concatenate_392 (Concatenate)   (None, 700)          0           transTokenFlat[0][0]             
                                                                 transPosFlat[0][0]               
__________________________________________________________________________________________________
concatenate_393 (Concatenate)   (None, 1128)         0           phraseRnn[0][0]                  
                                                                 concatenate_392[0][0]            
__________________________________________________________________________________________________
dense_261 (Dense)               (None, 412)          465148      concatenate_393[0][0]            
__________________________________________________________________________________________________
dense_262 (Dense)               (None, 4)            1652        dense_261[0][0]                  
==================================================================================================
Total params: 2,871,235
Trainable params: 2,871,235
Non-trainable params: 0
__________________________________________________________________________________________________
None
__________________________________________________________________________________________________
…
==================================================================================================
	Tokens := 13793 * POS : 109
__________________________________________________________________________________________________
	Dashed keys in vocabulary 3161
	One occurrence keys in vocabulary 3161 / 13793
__________________________________________________________________________________________________
Layer (type)                    Output Shape         Param #     Connected to                     
==================================================================================================
phraseTokens (InputLayer)       (None, 50)           0                                            
__________________________________________________________________________________________________
phrasePoss (InputLayer)         (None, 50)           0                                            
__________________________________________________________________________________________________
transTokens (InputLayer)        (None, 4)            0                                            
__________________________________________________________________________________________________
transPoss (InputLayer)          (None, 4)            0                                            
__________________________________________________________________________________________________
phraseTokenEmb (Embedding)      (None, 50, 55)       758615      phraseTokens[0][0]               
__________________________________________________________________________________________________
phrasePosEmb (Embedding)        (None, 50, 5)        545         phrasePoss[0][0]                 
__________________________________________________________________________________________________
transTokenEmb (Embedding)       (None, 4, 161)       2220673     transTokens[0][0]                
__________________________________________________________________________________________________
transPosEmb (Embedding)         (None, 4, 14)        1526        transPoss[0][0]                  
__________________________________________________________________________________________________
concatenate_394 (Concatenate)   (None, 50, 60)       0           phraseTokenEmb[0][0]             
                                                                 phrasePosEmb[0][0]               
__________________________________________________________________________________________________
transTokenFlat (Flatten)        (None, 644)          0           transTokenEmb[0][0]              
__________________________________________________________________________________________________
transPosFlat (Flatten)          (None, 56)           0           transPosEmb[0][0]                
__________________________________________________________________________________________________
phraseRnn (LSTM)                (None, 428)          837168      concatenate_394[0][0]            
__________________________________________________________________________________________________
concatenate_395 (Concatenate)   (None, 700)          0           transTokenFlat[0][0]             
                                                                 transPosFlat[0][0]               
__________________________________________________________________________________________________
concatenate_396 (Concatenate)   (None, 1128)         0           phraseRnn[0][0]                  
                                                                 concatenate_395[0][0]            
__________________________________________________________________________________________________
dense_263 (Dense)               (None, 412)          465148      concatenate_396[0][0]            
__________________________________________________________________________________________________
dense_264 (Dense)               (None, 4)            1652        dense_263[0][0]                  
==================================================================================================
Total params: 4,285,327
Trainable params: 4,285,327
Non-trainable params: 0
__________________________________________________________________________________________________
None
__________________________________________________________________________________________________
…
