…
 Number of valid (projective) examples : 15875

__________________________________________________________________________________________________
	Optimizer : Adagrad,  learning rate = 0.078
__________________________________________________________________________________________________
__________________________________________________________________________________________________
Layer (type)                    Output Shape         Param #     Connected to                     
==================================================================================================
input_1 (InputLayer)            (None, 18)           0                                            
__________________________________________________________________________________________________
input_2 (InputLayer)            (None, 18)           0                                            
__________________________________________________________________________________________________
input_3 (InputLayer)            (None, 12)           0                                            
__________________________________________________________________________________________________
embedding_1 (Embedding)         (None, 18, 300)      12666000    input_1[0][0]                    
__________________________________________________________________________________________________
embedding_2 (Embedding)         (None, 18, 50)       1000        input_2[0][0]                    
__________________________________________________________________________________________________
embedding_3 (Embedding)         (None, 12, 50)       2550        input_3[0][0]                    
__________________________________________________________________________________________________
flatten_1 (Flatten)             (None, 5400)         0           embedding_1[0][0]                
__________________________________________________________________________________________________
flatten_2 (Flatten)             (None, 900)          0           embedding_2[0][0]                
__________________________________________________________________________________________________
flatten_3 (Flatten)             (None, 600)          0           embedding_3[0][0]                
__________________________________________________________________________________________________
concatenate_1 (Concatenate)     (None, 6900)         0           flatten_1[0][0]                  
                                                                 flatten_2[0][0]                  
                                                                 flatten_3[0][0]                  
__________________________________________________________________________________________________
dense_1 (Dense)                 (None, 200)          1380200     concatenate_1[0][0]              
__________________________________________________________________________________________________
activation_2 (Activation)       (None, 200)          0           dense_1[0][0]                    
__________________________________________________________________________________________________
dropout_1 (Dropout)             (None, 200)          0           activation_2[0][0]               
__________________________________________________________________________________________________
dense_2 (Dense)                 (None, 3)            603         dropout_1[0][0]                  
==================================================================================================
Total params: 14,050,353
Trainable params: 14,050,353
Non-trainable params: 0
__________________________________________________________________________________________________
None
==================================================================================================
…
 Number of valid (projective) examples : 15875

__________________________________________________________________________________________________
	Optimizer : Adagrad,  learning rate = 0.078
__________________________________________________________________________________________________
__________________________________________________________________________________________________
Layer (type)                    Output Shape         Param #     Connected to                     
==================================================================================================
input_10 (InputLayer)           (None, 18)           0                                            
__________________________________________________________________________________________________
input_11 (InputLayer)           (None, 18)           0                                            
__________________________________________________________________________________________________
input_12 (InputLayer)           (None, 12)           0                                            
__________________________________________________________________________________________________
embedding_10 (Embedding)        (None, 18, 300)      9728700     input_10[0][0]                   
__________________________________________________________________________________________________
embedding_11 (Embedding)        (None, 18, 50)       1000        input_11[0][0]                   
__________________________________________________________________________________________________
embedding_12 (Embedding)        (None, 12, 50)       2550        input_12[0][0]                   
__________________________________________________________________________________________________
flatten_10 (Flatten)            (None, 5400)         0           embedding_10[0][0]               
__________________________________________________________________________________________________
flatten_11 (Flatten)            (None, 900)          0           embedding_11[0][0]               
__________________________________________________________________________________________________
flatten_12 (Flatten)            (None, 600)          0           embedding_12[0][0]               
__________________________________________________________________________________________________
concatenate_4 (Concatenate)     (None, 6900)         0           flatten_10[0][0]                 
                                                                 flatten_11[0][0]                 
                                                                 flatten_12[0][0]                 
__________________________________________________________________________________________________
dense_7 (Dense)                 (None, 200)          1380200     concatenate_4[0][0]              
__________________________________________________________________________________________________
activation_8 (Activation)       (None, 200)          0           dense_7[0][0]                    
__________________________________________________________________________________________________
dropout_4 (Dropout)             (None, 200)          0           activation_8[0][0]               
__________________________________________________________________________________________________
dense_8 (Dense)                 (None, 3)            603         dropout_4[0][0]                  
==================================================================================================
Total params: 11,113,053
Trainable params: 11,113,053
Non-trainable params: 0
__________________________________________________________________________________________________
None
==================================================================================================
…
