…
==================================================================================================
	Tokens := 9376 * POS : 168
__________________________________________________________________________________________________
	Dashed keys in vocabulary 2113
	One occurrence keys in vocabulary 2113 / 9376
__________________________________________________________________________________________________
Layer (type)                    Output Shape         Param #     Connected to                     
==================================================================================================
phraseTokens (InputLayer)       (None, 50)           0                                            
__________________________________________________________________________________________________
phrasePoss (InputLayer)         (None, 50)           0                                            
__________________________________________________________________________________________________
transTokens (InputLayer)        (None, 4)            0                                            
__________________________________________________________________________________________________
transPoss (InputLayer)          (None, 4)            0                                            
__________________________________________________________________________________________________
phraseTokenEmb (Embedding)      (None, 50, 43)       403168      phraseTokens[0][0]               
__________________________________________________________________________________________________
phrasePosEmb (Embedding)        (None, 50, 6)        1008        phrasePoss[0][0]                 
__________________________________________________________________________________________________
transTokenEmb (Embedding)       (None, 4, 36)        337536      transTokens[0][0]                
__________________________________________________________________________________________________
transPosEmb (Embedding)         (None, 4, 5)         840         transPoss[0][0]                  
__________________________________________________________________________________________________
concatenate_1 (Concatenate)     (None, 50, 49)       0           phraseTokenEmb[0][0]             
                                                                 phrasePosEmb[0][0]               
__________________________________________________________________________________________________
transTokenFlat (Flatten)        (None, 144)          0           transTokenEmb[0][0]              
__________________________________________________________________________________________________
transPosFlat (Flatten)          (None, 20)           0           transPosEmb[0][0]                
__________________________________________________________________________________________________
phraseRnn (GRU)                 (None, 415)          578925      concatenate_1[0][0]              
__________________________________________________________________________________________________
concatenate_2 (Concatenate)     (None, 164)          0           transTokenFlat[0][0]             
                                                                 transPosFlat[0][0]               
__________________________________________________________________________________________________
concatenate_3 (Concatenate)     (None, 579)          0           phraseRnn[0][0]                  
                                                                 concatenate_2[0][0]              
__________________________________________________________________________________________________
dense_1 (Dense)                 (None, 35)           20300       concatenate_3[0][0]              
__________________________________________________________________________________________________
dense_2 (Dense)                 (None, 4)            144         dense_1[0][0]                    
==================================================================================================
Total params: 1,341,921
Trainable params: 1,341,921
Non-trainable params: 0
__________________________________________________________________________________________________
None
__________________________________________________________________________________________________
…
==================================================================================================
	Tokens := 9586 * POS : 261
__________________________________________________________________________________________________
	Important words not in vocabulary 2
	MWE not in vocabulary 2
	Dashed keys in vocabulary 1721
	One occurrence keys in vocabulary 1721 / 9586
__________________________________________________________________________________________________
Layer (type)                    Output Shape         Param #     Connected to                     
==================================================================================================
phraseTokens (InputLayer)       (None, 50)           0                                            
__________________________________________________________________________________________________
phrasePoss (InputLayer)         (None, 50)           0                                            
__________________________________________________________________________________________________
transTokens (InputLayer)        (None, 4)            0                                            
__________________________________________________________________________________________________
transPoss (InputLayer)          (None, 4)            0                                            
__________________________________________________________________________________________________
phraseTokenEmb (Embedding)      (None, 50, 43)       412198      phraseTokens[0][0]               
__________________________________________________________________________________________________
phrasePosEmb (Embedding)        (None, 50, 6)        1566        phrasePoss[0][0]                 
__________________________________________________________________________________________________
transTokenEmb (Embedding)       (None, 4, 36)        345096      transTokens[0][0]                
__________________________________________________________________________________________________
transPosEmb (Embedding)         (None, 4, 5)         1305        transPoss[0][0]                  
__________________________________________________________________________________________________
concatenate_4 (Concatenate)     (None, 50, 49)       0           phraseTokenEmb[0][0]             
                                                                 phrasePosEmb[0][0]               
__________________________________________________________________________________________________
transTokenFlat (Flatten)        (None, 144)          0           transTokenEmb[0][0]              
__________________________________________________________________________________________________
transPosFlat (Flatten)          (None, 20)           0           transPosEmb[0][0]                
__________________________________________________________________________________________________
phraseRnn (GRU)                 (None, 415)          578925      concatenate_4[0][0]              
__________________________________________________________________________________________________
concatenate_5 (Concatenate)     (None, 164)          0           transTokenFlat[0][0]             
                                                                 transPosFlat[0][0]               
__________________________________________________________________________________________________
concatenate_6 (Concatenate)     (None, 579)          0           phraseRnn[0][0]                  
                                                                 concatenate_5[0][0]              
__________________________________________________________________________________________________
dense_3 (Dense)                 (None, 35)           20300       concatenate_6[0][0]              
__________________________________________________________________________________________________
dense_4 (Dense)                 (None, 4)            144         dense_3[0][0]                    
==================================================================================================
Total params: 1,359,534
Trainable params: 1,359,534
Non-trainable params: 0
__________________________________________________________________________________________________
None
__________________________________________________________________________________________________
…
==================================================================================================
	Tokens := 6222 * POS : 186
__________________________________________________________________________________________________
	Dashed keys in vocabulary 1197
	One occurrence keys in vocabulary 1197 / 6222
__________________________________________________________________________________________________
Layer (type)                    Output Shape         Param #     Connected to                     
==================================================================================================
phraseTokens (InputLayer)       (None, 50)           0                                            
__________________________________________________________________________________________________
phrasePoss (InputLayer)         (None, 50)           0                                            
__________________________________________________________________________________________________
transTokens (InputLayer)        (None, 4)            0                                            
__________________________________________________________________________________________________
transPoss (InputLayer)          (None, 4)            0                                            
__________________________________________________________________________________________________
phraseTokenEmb (Embedding)      (None, 50, 43)       267546      phraseTokens[0][0]               
__________________________________________________________________________________________________
phrasePosEmb (Embedding)        (None, 50, 6)        1116        phrasePoss[0][0]                 
__________________________________________________________________________________________________
transTokenEmb (Embedding)       (None, 4, 36)        223992      transTokens[0][0]                
__________________________________________________________________________________________________
transPosEmb (Embedding)         (None, 4, 5)         930         transPoss[0][0]                  
__________________________________________________________________________________________________
concatenate_7 (Concatenate)     (None, 50, 49)       0           phraseTokenEmb[0][0]             
                                                                 phrasePosEmb[0][0]               
__________________________________________________________________________________________________
transTokenFlat (Flatten)        (None, 144)          0           transTokenEmb[0][0]              
__________________________________________________________________________________________________
transPosFlat (Flatten)          (None, 20)           0           transPosEmb[0][0]                
__________________________________________________________________________________________________
phraseRnn (GRU)                 (None, 415)          578925      concatenate_7[0][0]              
__________________________________________________________________________________________________
concatenate_8 (Concatenate)     (None, 164)          0           transTokenFlat[0][0]             
                                                                 transPosFlat[0][0]               
__________________________________________________________________________________________________
concatenate_9 (Concatenate)     (None, 579)          0           phraseRnn[0][0]                  
                                                                 concatenate_8[0][0]              
__________________________________________________________________________________________________
dense_5 (Dense)                 (None, 35)           20300       concatenate_9[0][0]              
__________________________________________________________________________________________________
dense_6 (Dense)                 (None, 4)            144         dense_5[0][0]                    
==================================================================================================
Total params: 1,092,953
Trainable params: 1,092,953
Non-trainable params: 0
__________________________________________________________________________________________________
None
__________________________________________________________________________________________________
…
==================================================================================================
	Tokens := 1262 * POS : 57
__________________________________________________________________________________________________
	Dashed keys in vocabulary 228
	One occurrence keys in vocabulary 228 / 1262
__________________________________________________________________________________________________
Layer (type)                    Output Shape         Param #     Connected to                     
==================================================================================================
phraseTokens (InputLayer)       (None, 50)           0                                            
__________________________________________________________________________________________________
phrasePoss (InputLayer)         (None, 50)           0                                            
__________________________________________________________________________________________________
transTokens (InputLayer)        (None, 4)            0                                            
__________________________________________________________________________________________________
transPoss (InputLayer)          (None, 4)            0                                            
__________________________________________________________________________________________________
phraseTokenEmb (Embedding)      (None, 50, 43)       54266       phraseTokens[0][0]               
__________________________________________________________________________________________________
phrasePosEmb (Embedding)        (None, 50, 6)        342         phrasePoss[0][0]                 
__________________________________________________________________________________________________
transTokenEmb (Embedding)       (None, 4, 36)        45432       transTokens[0][0]                
__________________________________________________________________________________________________
transPosEmb (Embedding)         (None, 4, 5)         285         transPoss[0][0]                  
__________________________________________________________________________________________________
concatenate_10 (Concatenate)    (None, 50, 49)       0           phraseTokenEmb[0][0]             
                                                                 phrasePosEmb[0][0]               
__________________________________________________________________________________________________
transTokenFlat (Flatten)        (None, 144)          0           transTokenEmb[0][0]              
__________________________________________________________________________________________________
transPosFlat (Flatten)          (None, 20)           0           transPosEmb[0][0]                
__________________________________________________________________________________________________
phraseRnn (GRU)                 (None, 415)          578925      concatenate_10[0][0]             
__________________________________________________________________________________________________
concatenate_11 (Concatenate)    (None, 164)          0           transTokenFlat[0][0]             
                                                                 transPosFlat[0][0]               
__________________________________________________________________________________________________
concatenate_12 (Concatenate)    (None, 579)          0           phraseRnn[0][0]                  
                                                                 concatenate_11[0][0]             
__________________________________________________________________________________________________
dense_7 (Dense)                 (None, 35)           20300       concatenate_12[0][0]             
__________________________________________________________________________________________________
dense_8 (Dense)                 (None, 4)            144         dense_7[0][0]                    
==================================================================================================
Total params: 699,694
Trainable params: 699,694
Non-trainable params: 0
__________________________________________________________________________________________________
None
__________________________________________________________________________________________________
…
==================================================================================================
	Tokens := 5595 * POS : 114
__________________________________________________________________________________________________
	MWE not in vocabulary 1
	Dashed keys in vocabulary 1034
	One occurrence keys in vocabulary 1034 / 5595
__________________________________________________________________________________________________
Layer (type)                    Output Shape         Param #     Connected to                     
==================================================================================================
phraseTokens (InputLayer)       (None, 50)           0                                            
__________________________________________________________________________________________________
phrasePoss (InputLayer)         (None, 50)           0                                            
__________________________________________________________________________________________________
transTokens (InputLayer)        (None, 4)            0                                            
__________________________________________________________________________________________________
transPoss (InputLayer)          (None, 4)            0                                            
__________________________________________________________________________________________________
phraseTokenEmb (Embedding)      (None, 50, 43)       240585      phraseTokens[0][0]               
__________________________________________________________________________________________________
phrasePosEmb (Embedding)        (None, 50, 6)        684         phrasePoss[0][0]                 
__________________________________________________________________________________________________
transTokenEmb (Embedding)       (None, 4, 36)        201420      transTokens[0][0]                
__________________________________________________________________________________________________
transPosEmb (Embedding)         (None, 4, 5)         570         transPoss[0][0]                  
__________________________________________________________________________________________________
concatenate_13 (Concatenate)    (None, 50, 49)       0           phraseTokenEmb[0][0]             
                                                                 phrasePosEmb[0][0]               
__________________________________________________________________________________________________
transTokenFlat (Flatten)        (None, 144)          0           transTokenEmb[0][0]              
__________________________________________________________________________________________________
transPosFlat (Flatten)          (None, 20)           0           transPosEmb[0][0]                
__________________________________________________________________________________________________
phraseRnn (GRU)                 (None, 415)          578925      concatenate_13[0][0]             
__________________________________________________________________________________________________
concatenate_14 (Concatenate)    (None, 164)          0           transTokenFlat[0][0]             
                                                                 transPosFlat[0][0]               
__________________________________________________________________________________________________
concatenate_15 (Concatenate)    (None, 579)          0           phraseRnn[0][0]                  
                                                                 concatenate_14[0][0]             
__________________________________________________________________________________________________
dense_9 (Dense)                 (None, 35)           20300       concatenate_15[0][0]             
__________________________________________________________________________________________________
dense_10 (Dense)                (None, 4)            144         dense_9[0][0]                    
==================================================================================================
Total params: 1,042,628
Trainable params: 1,042,628
Non-trainable params: 0
__________________________________________________________________________________________________
None
__________________________________________________________________________________________________
…
==================================================================================================
	Tokens := 4879 * POS : 120
__________________________________________________________________________________________________
	Dashed keys in vocabulary 879
	One occurrence keys in vocabulary 879 / 4879
__________________________________________________________________________________________________
Layer (type)                    Output Shape         Param #     Connected to                     
==================================================================================================
phraseTokens (InputLayer)       (None, 50)           0                                            
__________________________________________________________________________________________________
phrasePoss (InputLayer)         (None, 50)           0                                            
__________________________________________________________________________________________________
transTokens (InputLayer)        (None, 4)            0                                            
__________________________________________________________________________________________________
transPoss (InputLayer)          (None, 4)            0                                            
__________________________________________________________________________________________________
phraseTokenEmb (Embedding)      (None, 50, 43)       209797      phraseTokens[0][0]               
__________________________________________________________________________________________________
phrasePosEmb (Embedding)        (None, 50, 6)        720         phrasePoss[0][0]                 
__________________________________________________________________________________________________
transTokenEmb (Embedding)       (None, 4, 36)        175644      transTokens[0][0]                
__________________________________________________________________________________________________
transPosEmb (Embedding)         (None, 4, 5)         600         transPoss[0][0]                  
__________________________________________________________________________________________________
concatenate_16 (Concatenate)    (None, 50, 49)       0           phraseTokenEmb[0][0]             
                                                                 phrasePosEmb[0][0]               
__________________________________________________________________________________________________
transTokenFlat (Flatten)        (None, 144)          0           transTokenEmb[0][0]              
__________________________________________________________________________________________________
transPosFlat (Flatten)          (None, 20)           0           transPosEmb[0][0]                
__________________________________________________________________________________________________
phraseRnn (GRU)                 (None, 415)          578925      concatenate_16[0][0]             
__________________________________________________________________________________________________
concatenate_17 (Concatenate)    (None, 164)          0           transTokenFlat[0][0]             
                                                                 transPosFlat[0][0]               
__________________________________________________________________________________________________
concatenate_18 (Concatenate)    (None, 579)          0           phraseRnn[0][0]                  
                                                                 concatenate_17[0][0]             
__________________________________________________________________________________________________
dense_11 (Dense)                (None, 35)           20300       concatenate_18[0][0]             
__________________________________________________________________________________________________
dense_12 (Dense)                (None, 4)            144         dense_11[0][0]                   
==================================================================================================
Total params: 986,130
Trainable params: 986,130
Non-trainable params: 0
__________________________________________________________________________________________________
None
__________________________________________________________________________________________________
…
==================================================================================================
	Tokens := 4042 * POS : 64
__________________________________________________________________________________________________
	Dashed keys in vocabulary 1243
	One occurrence keys in vocabulary 1243 / 4042
__________________________________________________________________________________________________
Layer (type)                    Output Shape         Param #     Connected to                     
==================================================================================================
phraseTokens (InputLayer)       (None, 50)           0                                            
__________________________________________________________________________________________________
phrasePoss (InputLayer)         (None, 50)           0                                            
__________________________________________________________________________________________________
transTokens (InputLayer)        (None, 4)            0                                            
__________________________________________________________________________________________________
transPoss (InputLayer)          (None, 4)            0                                            
__________________________________________________________________________________________________
phraseTokenEmb (Embedding)      (None, 50, 43)       173806      phraseTokens[0][0]               
__________________________________________________________________________________________________
phrasePosEmb (Embedding)        (None, 50, 6)        384         phrasePoss[0][0]                 
__________________________________________________________________________________________________
transTokenEmb (Embedding)       (None, 4, 36)        145512      transTokens[0][0]                
__________________________________________________________________________________________________
transPosEmb (Embedding)         (None, 4, 5)         320         transPoss[0][0]                  
__________________________________________________________________________________________________
concatenate_19 (Concatenate)    (None, 50, 49)       0           phraseTokenEmb[0][0]             
                                                                 phrasePosEmb[0][0]               
__________________________________________________________________________________________________
transTokenFlat (Flatten)        (None, 144)          0           transTokenEmb[0][0]              
__________________________________________________________________________________________________
transPosFlat (Flatten)          (None, 20)           0           transPosEmb[0][0]                
__________________________________________________________________________________________________
phraseRnn (GRU)                 (None, 415)          578925      concatenate_19[0][0]             
__________________________________________________________________________________________________
concatenate_20 (Concatenate)    (None, 164)          0           transTokenFlat[0][0]             
                                                                 transPosFlat[0][0]               
__________________________________________________________________________________________________
concatenate_21 (Concatenate)    (None, 579)          0           phraseRnn[0][0]                  
                                                                 concatenate_20[0][0]             
__________________________________________________________________________________________________
dense_13 (Dense)                (None, 35)           20300       concatenate_21[0][0]             
__________________________________________________________________________________________________
dense_14 (Dense)                (None, 4)            144         dense_13[0][0]                   
==================================================================================================
Total params: 919,391
Trainable params: 919,391
Non-trainable params: 0
__________________________________________________________________________________________________
None
__________________________________________________________________________________________________
…
==================================================================================================
	Tokens := 10828 * POS : 215
__________________________________________________________________________________________________
	MWE not in vocabulary 2
	Dashed keys in vocabulary 2022
	One occurrence keys in vocabulary 2022 / 10828
__________________________________________________________________________________________________
Layer (type)                    Output Shape         Param #     Connected to                     
==================================================================================================
phraseTokens (InputLayer)       (None, 50)           0                                            
__________________________________________________________________________________________________
phrasePoss (InputLayer)         (None, 50)           0                                            
__________________________________________________________________________________________________
transTokens (InputLayer)        (None, 4)            0                                            
__________________________________________________________________________________________________
transPoss (InputLayer)          (None, 4)            0                                            
__________________________________________________________________________________________________
phraseTokenEmb (Embedding)      (None, 50, 43)       465604      phraseTokens[0][0]               
__________________________________________________________________________________________________
phrasePosEmb (Embedding)        (None, 50, 6)        1290        phrasePoss[0][0]                 
__________________________________________________________________________________________________
transTokenEmb (Embedding)       (None, 4, 36)        389808      transTokens[0][0]                
__________________________________________________________________________________________________
transPosEmb (Embedding)         (None, 4, 5)         1075        transPoss[0][0]                  
__________________________________________________________________________________________________
concatenate_22 (Concatenate)    (None, 50, 49)       0           phraseTokenEmb[0][0]             
                                                                 phrasePosEmb[0][0]               
__________________________________________________________________________________________________
transTokenFlat (Flatten)        (None, 144)          0           transTokenEmb[0][0]              
__________________________________________________________________________________________________
transPosFlat (Flatten)          (None, 20)           0           transPosEmb[0][0]                
__________________________________________________________________________________________________
phraseRnn (GRU)                 (None, 415)          578925      concatenate_22[0][0]             
__________________________________________________________________________________________________
concatenate_23 (Concatenate)    (None, 164)          0           transTokenFlat[0][0]             
                                                                 transPosFlat[0][0]               
__________________________________________________________________________________________________
concatenate_24 (Concatenate)    (None, 579)          0           phraseRnn[0][0]                  
                                                                 concatenate_23[0][0]             
__________________________________________________________________________________________________
dense_15 (Dense)                (None, 35)           20300       concatenate_24[0][0]             
__________________________________________________________________________________________________
dense_16 (Dense)                (None, 4)            144         dense_15[0][0]                   
==================================================================================================
Total params: 1,457,146
Trainable params: 1,457,146
Non-trainable params: 0
__________________________________________________________________________________________________
None
__________________________________________________________________________________________________
…
==================================================================================================
	Tokens := 7539 * POS : 241
__________________________________________________________________________________________________
	Dashed keys in vocabulary 1243
	One occurrence keys in vocabulary 1243 / 7539
__________________________________________________________________________________________________
Layer (type)                    Output Shape         Param #     Connected to                     
==================================================================================================
phraseTokens (InputLayer)       (None, 50)           0                                            
__________________________________________________________________________________________________
phrasePoss (InputLayer)         (None, 50)           0                                            
__________________________________________________________________________________________________
transTokens (InputLayer)        (None, 4)            0                                            
__________________________________________________________________________________________________
transPoss (InputLayer)          (None, 4)            0                                            
__________________________________________________________________________________________________
phraseTokenEmb (Embedding)      (None, 50, 43)       324177      phraseTokens[0][0]               
__________________________________________________________________________________________________
phrasePosEmb (Embedding)        (None, 50, 6)        1446        phrasePoss[0][0]                 
__________________________________________________________________________________________________
transTokenEmb (Embedding)       (None, 4, 36)        271404      transTokens[0][0]                
__________________________________________________________________________________________________
transPosEmb (Embedding)         (None, 4, 5)         1205        transPoss[0][0]                  
__________________________________________________________________________________________________
concatenate_25 (Concatenate)    (None, 50, 49)       0           phraseTokenEmb[0][0]             
                                                                 phrasePosEmb[0][0]               
__________________________________________________________________________________________________
transTokenFlat (Flatten)        (None, 144)          0           transTokenEmb[0][0]              
__________________________________________________________________________________________________
transPosFlat (Flatten)          (None, 20)           0           transPosEmb[0][0]                
__________________________________________________________________________________________________
phraseRnn (GRU)                 (None, 415)          578925      concatenate_25[0][0]             
__________________________________________________________________________________________________
concatenate_26 (Concatenate)    (None, 164)          0           transTokenFlat[0][0]             
                                                                 transPosFlat[0][0]               
__________________________________________________________________________________________________
concatenate_27 (Concatenate)    (None, 579)          0           phraseRnn[0][0]                  
                                                                 concatenate_26[0][0]             
__________________________________________________________________________________________________
dense_17 (Dense)                (None, 35)           20300       concatenate_27[0][0]             
__________________________________________________________________________________________________
dense_18 (Dense)                (None, 4)            144         dense_17[0][0]                   
==================================================================================================
Total params: 1,197,601
Trainable params: 1,197,601
Non-trainable params: 0
__________________________________________________________________________________________________
None
__________________________________________________________________________________________________
…
==================================================================================================
	Tokens := 1533 * POS : 43
__________________________________________________________________________________________________
	Dashed keys in vocabulary 231
	One occurrence keys in vocabulary 231 / 1533
__________________________________________________________________________________________________
Layer (type)                    Output Shape         Param #     Connected to                     
==================================================================================================
phraseTokens (InputLayer)       (None, 50)           0                                            
__________________________________________________________________________________________________
phrasePoss (InputLayer)         (None, 50)           0                                            
__________________________________________________________________________________________________
transTokens (InputLayer)        (None, 4)            0                                            
__________________________________________________________________________________________________
transPoss (InputLayer)          (None, 4)            0                                            
__________________________________________________________________________________________________
phraseTokenEmb (Embedding)      (None, 50, 43)       65919       phraseTokens[0][0]               
__________________________________________________________________________________________________
phrasePosEmb (Embedding)        (None, 50, 6)        258         phrasePoss[0][0]                 
__________________________________________________________________________________________________
transTokenEmb (Embedding)       (None, 4, 36)        55188       transTokens[0][0]                
__________________________________________________________________________________________________
transPosEmb (Embedding)         (None, 4, 5)         215         transPoss[0][0]                  
__________________________________________________________________________________________________
concatenate_28 (Concatenate)    (None, 50, 49)       0           phraseTokenEmb[0][0]             
                                                                 phrasePosEmb[0][0]               
__________________________________________________________________________________________________
transTokenFlat (Flatten)        (None, 144)          0           transTokenEmb[0][0]              
__________________________________________________________________________________________________
transPosFlat (Flatten)          (None, 20)           0           transPosEmb[0][0]                
__________________________________________________________________________________________________
phraseRnn (GRU)                 (None, 415)          578925      concatenate_28[0][0]             
__________________________________________________________________________________________________
concatenate_29 (Concatenate)    (None, 164)          0           transTokenFlat[0][0]             
                                                                 transPosFlat[0][0]               
__________________________________________________________________________________________________
concatenate_30 (Concatenate)    (None, 579)          0           phraseRnn[0][0]                  
                                                                 concatenate_29[0][0]             
__________________________________________________________________________________________________
dense_19 (Dense)                (None, 35)           20300       concatenate_30[0][0]             
__________________________________________________________________________________________________
dense_20 (Dense)                (None, 4)            144         dense_19[0][0]                   
==================================================================================================
Total params: 720,949
Trainable params: 720,949
Non-trainable params: 0
__________________________________________________________________________________________________
None
__________________________________________________________________________________________________
…
==================================================================================================
	Tokens := 5105 * POS : 113
__________________________________________________________________________________________________
	MWE not in vocabulary 1
	Dashed keys in vocabulary 1006
	One occurrence keys in vocabulary 1006 / 5105
__________________________________________________________________________________________________
Layer (type)                    Output Shape         Param #     Connected to                     
==================================================================================================
phraseTokens (InputLayer)       (None, 50)           0                                            
__________________________________________________________________________________________________
phrasePoss (InputLayer)         (None, 50)           0                                            
__________________________________________________________________________________________________
transTokens (InputLayer)        (None, 4)            0                                            
__________________________________________________________________________________________________
transPoss (InputLayer)          (None, 4)            0                                            
__________________________________________________________________________________________________
phraseTokenEmb (Embedding)      (None, 50, 43)       219515      phraseTokens[0][0]               
__________________________________________________________________________________________________
phrasePosEmb (Embedding)        (None, 50, 6)        678         phrasePoss[0][0]                 
__________________________________________________________________________________________________
transTokenEmb (Embedding)       (None, 4, 36)        183780      transTokens[0][0]                
__________________________________________________________________________________________________
transPosEmb (Embedding)         (None, 4, 5)         565         transPoss[0][0]                  
__________________________________________________________________________________________________
concatenate_31 (Concatenate)    (None, 50, 49)       0           phraseTokenEmb[0][0]             
                                                                 phrasePosEmb[0][0]               
__________________________________________________________________________________________________
transTokenFlat (Flatten)        (None, 144)          0           transTokenEmb[0][0]              
__________________________________________________________________________________________________
transPosFlat (Flatten)          (None, 20)           0           transPosEmb[0][0]                
__________________________________________________________________________________________________
phraseRnn (GRU)                 (None, 415)          578925      concatenate_31[0][0]             
__________________________________________________________________________________________________
concatenate_32 (Concatenate)    (None, 164)          0           transTokenFlat[0][0]             
                                                                 transPosFlat[0][0]               
__________________________________________________________________________________________________
concatenate_33 (Concatenate)    (None, 579)          0           phraseRnn[0][0]                  
                                                                 concatenate_32[0][0]             
__________________________________________________________________________________________________
dense_21 (Dense)                (None, 35)           20300       concatenate_33[0][0]             
__________________________________________________________________________________________________
dense_22 (Dense)                (None, 4)            144         dense_21[0][0]                   
==================================================================================================
Total params: 1,003,907
Trainable params: 1,003,907
Non-trainable params: 0
__________________________________________________________________________________________________
None
__________________________________________________________________________________________________
…
==================================================================================================
	Tokens := 4846 * POS : 50
__________________________________________________________________________________________________
	Dashed keys in vocabulary 459
	One occurrence keys in vocabulary 459 / 4846
__________________________________________________________________________________________________
Layer (type)                    Output Shape         Param #     Connected to                     
==================================================================================================
phraseTokens (InputLayer)       (None, 50)           0                                            
__________________________________________________________________________________________________
phrasePoss (InputLayer)         (None, 50)           0                                            
__________________________________________________________________________________________________
transTokens (InputLayer)        (None, 4)            0                                            
__________________________________________________________________________________________________
transPoss (InputLayer)          (None, 4)            0                                            
__________________________________________________________________________________________________
phraseTokenEmb (Embedding)      (None, 50, 43)       208378      phraseTokens[0][0]               
__________________________________________________________________________________________________
phrasePosEmb (Embedding)        (None, 50, 6)        300         phrasePoss[0][0]                 
__________________________________________________________________________________________________
transTokenEmb (Embedding)       (None, 4, 36)        174456      transTokens[0][0]                
__________________________________________________________________________________________________
transPosEmb (Embedding)         (None, 4, 5)         250         transPoss[0][0]                  
__________________________________________________________________________________________________
concatenate_34 (Concatenate)    (None, 50, 49)       0           phraseTokenEmb[0][0]             
                                                                 phrasePosEmb[0][0]               
__________________________________________________________________________________________________
transTokenFlat (Flatten)        (None, 144)          0           transTokenEmb[0][0]              
__________________________________________________________________________________________________
transPosFlat (Flatten)          (None, 20)           0           transPosEmb[0][0]                
__________________________________________________________________________________________________
phraseRnn (GRU)                 (None, 415)          578925      concatenate_34[0][0]             
__________________________________________________________________________________________________
concatenate_35 (Concatenate)    (None, 164)          0           transTokenFlat[0][0]             
                                                                 transPosFlat[0][0]               
__________________________________________________________________________________________________
concatenate_36 (Concatenate)    (None, 579)          0           phraseRnn[0][0]                  
                                                                 concatenate_35[0][0]             
__________________________________________________________________________________________________
dense_23 (Dense)                (None, 35)           20300       concatenate_36[0][0]             
__________________________________________________________________________________________________
dense_24 (Dense)                (None, 4)            144         dense_23[0][0]                   
==================================================================================================
Total params: 982,753
Trainable params: 982,753
Non-trainable params: 0
__________________________________________________________________________________________________
None
__________________________________________________________________________________________________
…
==================================================================================================
	Tokens := 10033 * POS : 230
__________________________________________________________________________________________________
	Important words not in vocabulary 2
	MWE not in vocabulary 5
	Dashed keys in vocabulary 1965
	One occurrence keys in vocabulary 1965 / 10033
__________________________________________________________________________________________________
Layer (type)                    Output Shape         Param #     Connected to                     
==================================================================================================
phraseTokens (InputLayer)       (None, 50)           0                                            
__________________________________________________________________________________________________
phrasePoss (InputLayer)         (None, 50)           0                                            
__________________________________________________________________________________________________
transTokens (InputLayer)        (None, 4)            0                                            
__________________________________________________________________________________________________
transPoss (InputLayer)          (None, 4)            0                                            
__________________________________________________________________________________________________
phraseTokenEmb (Embedding)      (None, 50, 43)       431419      phraseTokens[0][0]               
__________________________________________________________________________________________________
phrasePosEmb (Embedding)        (None, 50, 6)        1380        phrasePoss[0][0]                 
__________________________________________________________________________________________________
transTokenEmb (Embedding)       (None, 4, 36)        361188      transTokens[0][0]                
__________________________________________________________________________________________________
transPosEmb (Embedding)         (None, 4, 5)         1150        transPoss[0][0]                  
__________________________________________________________________________________________________
concatenate_37 (Concatenate)    (None, 50, 49)       0           phraseTokenEmb[0][0]             
                                                                 phrasePosEmb[0][0]               
__________________________________________________________________________________________________
transTokenFlat (Flatten)        (None, 144)          0           transTokenEmb[0][0]              
__________________________________________________________________________________________________
transPosFlat (Flatten)          (None, 20)           0           transPosEmb[0][0]                
__________________________________________________________________________________________________
phraseRnn (GRU)                 (None, 415)          578925      concatenate_37[0][0]             
__________________________________________________________________________________________________
concatenate_38 (Concatenate)    (None, 164)          0           transTokenFlat[0][0]             
                                                                 transPosFlat[0][0]               
__________________________________________________________________________________________________
concatenate_39 (Concatenate)    (None, 579)          0           phraseRnn[0][0]                  
                                                                 concatenate_38[0][0]             
__________________________________________________________________________________________________
dense_25 (Dense)                (None, 35)           20300       concatenate_39[0][0]             
__________________________________________________________________________________________________
dense_26 (Dense)                (None, 4)            144         dense_25[0][0]                   
==================================================================================================
Total params: 1,394,506
Trainable params: 1,394,506
Non-trainable params: 0
__________________________________________________________________________________________________
None
__________________________________________________________________________________________________
…
==================================================================================================
	Tokens := 1462 * POS : 51
__________________________________________________________________________________________________
	Dashed keys in vocabulary 195
	One occurrence keys in vocabulary 195 / 1462
__________________________________________________________________________________________________
Layer (type)                    Output Shape         Param #     Connected to                     
==================================================================================================
phraseTokens (InputLayer)       (None, 50)           0                                            
__________________________________________________________________________________________________
phrasePoss (InputLayer)         (None, 50)           0                                            
__________________________________________________________________________________________________
transTokens (InputLayer)        (None, 4)            0                                            
__________________________________________________________________________________________________
transPoss (InputLayer)          (None, 4)            0                                            
__________________________________________________________________________________________________
phraseTokenEmb (Embedding)      (None, 50, 43)       62866       phraseTokens[0][0]               
__________________________________________________________________________________________________
phrasePosEmb (Embedding)        (None, 50, 6)        306         phrasePoss[0][0]                 
__________________________________________________________________________________________________
transTokenEmb (Embedding)       (None, 4, 36)        52632       transTokens[0][0]                
__________________________________________________________________________________________________
transPosEmb (Embedding)         (None, 4, 5)         255         transPoss[0][0]                  
__________________________________________________________________________________________________
concatenate_40 (Concatenate)    (None, 50, 49)       0           phraseTokenEmb[0][0]             
                                                                 phrasePosEmb[0][0]               
__________________________________________________________________________________________________
transTokenFlat (Flatten)        (None, 144)          0           transTokenEmb[0][0]              
__________________________________________________________________________________________________
transPosFlat (Flatten)          (None, 20)           0           transPosEmb[0][0]                
__________________________________________________________________________________________________
phraseRnn (GRU)                 (None, 415)          578925      concatenate_40[0][0]             
__________________________________________________________________________________________________
concatenate_41 (Concatenate)    (None, 164)          0           transTokenFlat[0][0]             
                                                                 transPosFlat[0][0]               
__________________________________________________________________________________________________
concatenate_42 (Concatenate)    (None, 579)          0           phraseRnn[0][0]                  
                                                                 concatenate_41[0][0]             
__________________________________________________________________________________________________
dense_27 (Dense)                (None, 35)           20300       concatenate_42[0][0]             
__________________________________________________________________________________________________
dense_28 (Dense)                (None, 4)            144         dense_27[0][0]                   
==================================================================================================
Total params: 715,428
Trainable params: 715,428
Non-trainable params: 0
__________________________________________________________________________________________________
None
__________________________________________________________________________________________________
…
==================================================================================================
	Tokens := 9691 * POS : 138
__________________________________________________________________________________________________
	MWE not in vocabulary 5
	Dashed keys in vocabulary 1865
	One occurrence keys in vocabulary 1865 / 9691
__________________________________________________________________________________________________
Layer (type)                    Output Shape         Param #     Connected to                     
==================================================================================================
phraseTokens (InputLayer)       (None, 50)           0                                            
__________________________________________________________________________________________________
phrasePoss (InputLayer)         (None, 50)           0                                            
__________________________________________________________________________________________________
transTokens (InputLayer)        (None, 4)            0                                            
__________________________________________________________________________________________________
transPoss (InputLayer)          (None, 4)            0                                            
__________________________________________________________________________________________________
phraseTokenEmb (Embedding)      (None, 50, 43)       416713      phraseTokens[0][0]               
__________________________________________________________________________________________________
phrasePosEmb (Embedding)        (None, 50, 6)        828         phrasePoss[0][0]                 
__________________________________________________________________________________________________
transTokenEmb (Embedding)       (None, 4, 36)        348876      transTokens[0][0]                
__________________________________________________________________________________________________
transPosEmb (Embedding)         (None, 4, 5)         690         transPoss[0][0]                  
__________________________________________________________________________________________________
concatenate_43 (Concatenate)    (None, 50, 49)       0           phraseTokenEmb[0][0]             
                                                                 phrasePosEmb[0][0]               
__________________________________________________________________________________________________
transTokenFlat (Flatten)        (None, 144)          0           transTokenEmb[0][0]              
__________________________________________________________________________________________________
transPosFlat (Flatten)          (None, 20)           0           transPosEmb[0][0]                
__________________________________________________________________________________________________
phraseRnn (GRU)                 (None, 415)          578925      concatenate_43[0][0]             
__________________________________________________________________________________________________
concatenate_44 (Concatenate)    (None, 164)          0           transTokenFlat[0][0]             
                                                                 transPosFlat[0][0]               
__________________________________________________________________________________________________
concatenate_45 (Concatenate)    (None, 579)          0           phraseRnn[0][0]                  
                                                                 concatenate_44[0][0]             
__________________________________________________________________________________________________
dense_29 (Dense)                (None, 35)           20300       concatenate_45[0][0]             
__________________________________________________________________________________________________
dense_30 (Dense)                (None, 4)            144         dense_29[0][0]                   
==================================================================================================
Total params: 1,366,476
Trainable params: 1,366,476
Non-trainable params: 0
__________________________________________________________________________________________________
None
__________________________________________________________________________________________________
…
==================================================================================================
	Tokens := 10191 * POS : 224
__________________________________________________________________________________________________
	Important words not in vocabulary 1
	MWE not in vocabulary 5
	Dashed keys in vocabulary 2416
	One occurrence keys in vocabulary 2416 / 10191
__________________________________________________________________________________________________
Layer (type)                    Output Shape         Param #     Connected to                     
==================================================================================================
phraseTokens (InputLayer)       (None, 50)           0                                            
__________________________________________________________________________________________________
phrasePoss (InputLayer)         (None, 50)           0                                            
__________________________________________________________________________________________________
transTokens (InputLayer)        (None, 4)            0                                            
__________________________________________________________________________________________________
transPoss (InputLayer)          (None, 4)            0                                            
__________________________________________________________________________________________________
phraseTokenEmb (Embedding)      (None, 50, 43)       438213      phraseTokens[0][0]               
__________________________________________________________________________________________________
phrasePosEmb (Embedding)        (None, 50, 6)        1344        phrasePoss[0][0]                 
__________________________________________________________________________________________________
transTokenEmb (Embedding)       (None, 4, 36)        366876      transTokens[0][0]                
__________________________________________________________________________________________________
transPosEmb (Embedding)         (None, 4, 5)         1120        transPoss[0][0]                  
__________________________________________________________________________________________________
concatenate_46 (Concatenate)    (None, 50, 49)       0           phraseTokenEmb[0][0]             
                                                                 phrasePosEmb[0][0]               
__________________________________________________________________________________________________
transTokenFlat (Flatten)        (None, 144)          0           transTokenEmb[0][0]              
__________________________________________________________________________________________________
transPosFlat (Flatten)          (None, 20)           0           transPosEmb[0][0]                
__________________________________________________________________________________________________
phraseRnn (GRU)                 (None, 415)          578925      concatenate_46[0][0]             
__________________________________________________________________________________________________
concatenate_47 (Concatenate)    (None, 164)          0           transTokenFlat[0][0]             
                                                                 transPosFlat[0][0]               
__________________________________________________________________________________________________
concatenate_48 (Concatenate)    (None, 579)          0           phraseRnn[0][0]                  
                                                                 concatenate_47[0][0]             
__________________________________________________________________________________________________
dense_31 (Dense)                (None, 35)           20300       concatenate_48[0][0]             
__________________________________________________________________________________________________
dense_32 (Dense)                (None, 4)            144         dense_31[0][0]                   
==================================================================================================
Total params: 1,406,922
Trainable params: 1,406,922
Non-trainable params: 0
__________________________________________________________________________________________________
None
__________________________________________________________________________________________________
…
==================================================================================================
	Tokens := 9119 * POS : 105
__________________________________________________________________________________________________
	Dashed keys in vocabulary 845
	One occurrence keys in vocabulary 845 / 9119
__________________________________________________________________________________________________
Layer (type)                    Output Shape         Param #     Connected to                     
==================================================================================================
phraseTokens (InputLayer)       (None, 50)           0                                            
__________________________________________________________________________________________________
phrasePoss (InputLayer)         (None, 50)           0                                            
__________________________________________________________________________________________________
transTokens (InputLayer)        (None, 4)            0                                            
__________________________________________________________________________________________________
transPoss (InputLayer)          (None, 4)            0                                            
__________________________________________________________________________________________________
phraseTokenEmb (Embedding)      (None, 50, 43)       392117      phraseTokens[0][0]               
__________________________________________________________________________________________________
phrasePosEmb (Embedding)        (None, 50, 6)        630         phrasePoss[0][0]                 
__________________________________________________________________________________________________
transTokenEmb (Embedding)       (None, 4, 36)        328284      transTokens[0][0]                
__________________________________________________________________________________________________
transPosEmb (Embedding)         (None, 4, 5)         525         transPoss[0][0]                  
__________________________________________________________________________________________________
concatenate_49 (Concatenate)    (None, 50, 49)       0           phraseTokenEmb[0][0]             
                                                                 phrasePosEmb[0][0]               
__________________________________________________________________________________________________
transTokenFlat (Flatten)        (None, 144)          0           transTokenEmb[0][0]              
__________________________________________________________________________________________________
transPosFlat (Flatten)          (None, 20)           0           transPosEmb[0][0]                
__________________________________________________________________________________________________
phraseRnn (GRU)                 (None, 415)          578925      concatenate_49[0][0]             
__________________________________________________________________________________________________
concatenate_50 (Concatenate)    (None, 164)          0           transTokenFlat[0][0]             
                                                                 transPosFlat[0][0]               
__________________________________________________________________________________________________
concatenate_51 (Concatenate)    (None, 579)          0           phraseRnn[0][0]                  
                                                                 concatenate_50[0][0]             
__________________________________________________________________________________________________
dense_33 (Dense)                (None, 35)           20300       concatenate_51[0][0]             
__________________________________________________________________________________________________
dense_34 (Dense)                (None, 4)            144         dense_33[0][0]                   
==================================================================================================
Total params: 1,320,925
Trainable params: 1,320,925
Non-trainable params: 0
__________________________________________________________________________________________________
None
__________________________________________________________________________________________________
…
==================================================================================================
	Tokens := 7768 * POS : 10
__________________________________________________________________________________________________
	Dashed keys in vocabulary 1256
	One occurrence keys in vocabulary 1256 / 7768
__________________________________________________________________________________________________
Layer (type)                    Output Shape         Param #     Connected to                     
==================================================================================================
phraseTokens (InputLayer)       (None, 50)           0                                            
__________________________________________________________________________________________________
phrasePoss (InputLayer)         (None, 50)           0                                            
__________________________________________________________________________________________________
transTokens (InputLayer)        (None, 4)            0                                            
__________________________________________________________________________________________________
transPoss (InputLayer)          (None, 4)            0                                            
__________________________________________________________________________________________________
phraseTokenEmb (Embedding)      (None, 50, 43)       334024      phraseTokens[0][0]               
__________________________________________________________________________________________________
phrasePosEmb (Embedding)        (None, 50, 6)        60          phrasePoss[0][0]                 
__________________________________________________________________________________________________
transTokenEmb (Embedding)       (None, 4, 36)        279648      transTokens[0][0]                
__________________________________________________________________________________________________
transPosEmb (Embedding)         (None, 4, 5)         50          transPoss[0][0]                  
__________________________________________________________________________________________________
concatenate_52 (Concatenate)    (None, 50, 49)       0           phraseTokenEmb[0][0]             
                                                                 phrasePosEmb[0][0]               
__________________________________________________________________________________________________
transTokenFlat (Flatten)        (None, 144)          0           transTokenEmb[0][0]              
__________________________________________________________________________________________________
transPosFlat (Flatten)          (None, 20)           0           transPosEmb[0][0]                
__________________________________________________________________________________________________
phraseRnn (GRU)                 (None, 415)          578925      concatenate_52[0][0]             
__________________________________________________________________________________________________
concatenate_53 (Concatenate)    (None, 164)          0           transTokenFlat[0][0]             
                                                                 transPosFlat[0][0]               
__________________________________________________________________________________________________
concatenate_54 (Concatenate)    (None, 579)          0           phraseRnn[0][0]                  
                                                                 concatenate_53[0][0]             
__________________________________________________________________________________________________
dense_35 (Dense)                (None, 35)           20300       concatenate_54[0][0]             
__________________________________________________________________________________________________
dense_36 (Dense)                (None, 4)            144         dense_35[0][0]                   
==================================================================================================
Total params: 1,213,151
Trainable params: 1,213,151
Non-trainable params: 0
__________________________________________________________________________________________________
None
__________________________________________________________________________________________________
…
==================================================================================================
	Tokens := 15733 * POS : 118
__________________________________________________________________________________________________
	Dashed keys in vocabulary 3771
	One occurrence keys in vocabulary 3771 / 15733
__________________________________________________________________________________________________
Layer (type)                    Output Shape         Param #     Connected to                     
==================================================================================================
phraseTokens (InputLayer)       (None, 50)           0                                            
__________________________________________________________________________________________________
phrasePoss (InputLayer)         (None, 50)           0                                            
__________________________________________________________________________________________________
transTokens (InputLayer)        (None, 4)            0                                            
__________________________________________________________________________________________________
transPoss (InputLayer)          (None, 4)            0                                            
__________________________________________________________________________________________________
phraseTokenEmb (Embedding)      (None, 50, 43)       676519      phraseTokens[0][0]               
__________________________________________________________________________________________________
phrasePosEmb (Embedding)        (None, 50, 6)        708         phrasePoss[0][0]                 
__________________________________________________________________________________________________
transTokenEmb (Embedding)       (None, 4, 36)        566388      transTokens[0][0]                
__________________________________________________________________________________________________
transPosEmb (Embedding)         (None, 4, 5)         590         transPoss[0][0]                  
__________________________________________________________________________________________________
concatenate_55 (Concatenate)    (None, 50, 49)       0           phraseTokenEmb[0][0]             
                                                                 phrasePosEmb[0][0]               
__________________________________________________________________________________________________
transTokenFlat (Flatten)        (None, 144)          0           transTokenEmb[0][0]              
__________________________________________________________________________________________________
transPosFlat (Flatten)          (None, 20)           0           transPosEmb[0][0]                
__________________________________________________________________________________________________
phraseRnn (GRU)                 (None, 415)          578925      concatenate_55[0][0]             
__________________________________________________________________________________________________
concatenate_56 (Concatenate)    (None, 164)          0           transTokenFlat[0][0]             
                                                                 transPosFlat[0][0]               
__________________________________________________________________________________________________
concatenate_57 (Concatenate)    (None, 579)          0           phraseRnn[0][0]                  
                                                                 concatenate_56[0][0]             
__________________________________________________________________________________________________
dense_37 (Dense)                (None, 35)           20300       concatenate_57[0][0]             
__________________________________________________________________________________________________
dense_38 (Dense)                (None, 4)            144         dense_37[0][0]                   
==================================================================================================
Total params: 1,843,574
Trainable params: 1,843,574
Non-trainable params: 0
__________________________________________________________________________________________________
None
__________________________________________________________________________________________________
…
==================================================================================================
	Tokens := 9376 * POS : 168
__________________________________________________________________________________________________
	Dashed keys in vocabulary 2113
	One occurrence keys in vocabulary 2113 / 9376
__________________________________________________________________________________________________
Layer (type)                    Output Shape         Param #     Connected to                     
==================================================================================================
phraseTokens (InputLayer)       (None, 50)           0                                            
__________________________________________________________________________________________________
phrasePoss (InputLayer)         (None, 50)           0                                            
__________________________________________________________________________________________________
transTokens (InputLayer)        (None, 4)            0                                            
__________________________________________________________________________________________________
transPoss (InputLayer)          (None, 4)            0                                            
__________________________________________________________________________________________________
phraseTokenEmb (Embedding)      (None, 50, 80)       750080      phraseTokens[0][0]               
__________________________________________________________________________________________________
phrasePosEmb (Embedding)        (None, 50, 18)       3024        phrasePoss[0][0]                 
__________________________________________________________________________________________________
transTokenEmb (Embedding)       (None, 4, 95)        890720      transTokens[0][0]                
__________________________________________________________________________________________________
transPosEmb (Embedding)         (None, 4, 15)        2520        transPoss[0][0]                  
__________________________________________________________________________________________________
concatenate_58 (Concatenate)    (None, 50, 98)       0           phraseTokenEmb[0][0]             
                                                                 phrasePosEmb[0][0]               
__________________________________________________________________________________________________
transTokenFlat (Flatten)        (None, 380)          0           transTokenEmb[0][0]              
__________________________________________________________________________________________________
transPosFlat (Flatten)          (None, 60)           0           transPosEmb[0][0]                
__________________________________________________________________________________________________
phraseRnn (LSTM)                (None, 110)          91960       concatenate_58[0][0]             
__________________________________________________________________________________________________
concatenate_59 (Concatenate)    (None, 440)          0           transTokenFlat[0][0]             
                                                                 transPosFlat[0][0]               
__________________________________________________________________________________________________
concatenate_60 (Concatenate)    (None, 550)          0           phraseRnn[0][0]                  
                                                                 concatenate_59[0][0]             
__________________________________________________________________________________________________
dense_39 (Dense)                (None, 115)          63365       concatenate_60[0][0]             
__________________________________________________________________________________________________
dense_40 (Dense)                (None, 4)            464         dense_39[0][0]                   
==================================================================================================
Total params: 1,802,133
Trainable params: 1,802,133
Non-trainable params: 0
__________________________________________________________________________________________________
None
__________________________________________________________________________________________________
…
==================================================================================================
	Tokens := 9586 * POS : 261
__________________________________________________________________________________________________
	Important words not in vocabulary 2
	MWE not in vocabulary 2
	Dashed keys in vocabulary 1721
	One occurrence keys in vocabulary 1721 / 9586
__________________________________________________________________________________________________
Layer (type)                    Output Shape         Param #     Connected to                     
==================================================================================================
phraseTokens (InputLayer)       (None, 50)           0                                            
__________________________________________________________________________________________________
phrasePoss (InputLayer)         (None, 50)           0                                            
__________________________________________________________________________________________________
transTokens (InputLayer)        (None, 4)            0                                            
__________________________________________________________________________________________________
transPoss (InputLayer)          (None, 4)            0                                            
__________________________________________________________________________________________________
phraseTokenEmb (Embedding)      (None, 50, 80)       766880      phraseTokens[0][0]               
__________________________________________________________________________________________________
phrasePosEmb (Embedding)        (None, 50, 18)       4698        phrasePoss[0][0]                 
__________________________________________________________________________________________________
transTokenEmb (Embedding)       (None, 4, 95)        910670      transTokens[0][0]                
__________________________________________________________________________________________________
transPosEmb (Embedding)         (None, 4, 15)        3915        transPoss[0][0]                  
__________________________________________________________________________________________________
concatenate_61 (Concatenate)    (None, 50, 98)       0           phraseTokenEmb[0][0]             
                                                                 phrasePosEmb[0][0]               
__________________________________________________________________________________________________
transTokenFlat (Flatten)        (None, 380)          0           transTokenEmb[0][0]              
__________________________________________________________________________________________________
transPosFlat (Flatten)          (None, 60)           0           transPosEmb[0][0]                
__________________________________________________________________________________________________
phraseRnn (LSTM)                (None, 110)          91960       concatenate_61[0][0]             
__________________________________________________________________________________________________
concatenate_62 (Concatenate)    (None, 440)          0           transTokenFlat[0][0]             
                                                                 transPosFlat[0][0]               
__________________________________________________________________________________________________
concatenate_63 (Concatenate)    (None, 550)          0           phraseRnn[0][0]                  
                                                                 concatenate_62[0][0]             
__________________________________________________________________________________________________
dense_41 (Dense)                (None, 115)          63365       concatenate_63[0][0]             
__________________________________________________________________________________________________
dense_42 (Dense)                (None, 4)            464         dense_41[0][0]                   
==================================================================================================
Total params: 1,841,952
Trainable params: 1,841,952
Non-trainable params: 0
__________________________________________________________________________________________________
None
__________________________________________________________________________________________________
…
==================================================================================================
	Tokens := 6222 * POS : 186
__________________________________________________________________________________________________
	Dashed keys in vocabulary 1197
	One occurrence keys in vocabulary 1197 / 6222
__________________________________________________________________________________________________
Layer (type)                    Output Shape         Param #     Connected to                     
==================================================================================================
phraseTokens (InputLayer)       (None, 50)           0                                            
__________________________________________________________________________________________________
phrasePoss (InputLayer)         (None, 50)           0                                            
__________________________________________________________________________________________________
transTokens (InputLayer)        (None, 4)            0                                            
__________________________________________________________________________________________________
transPoss (InputLayer)          (None, 4)            0                                            
__________________________________________________________________________________________________
phraseTokenEmb (Embedding)      (None, 50, 80)       497760      phraseTokens[0][0]               
__________________________________________________________________________________________________
phrasePosEmb (Embedding)        (None, 50, 18)       3348        phrasePoss[0][0]                 
__________________________________________________________________________________________________
transTokenEmb (Embedding)       (None, 4, 95)        591090      transTokens[0][0]                
__________________________________________________________________________________________________
transPosEmb (Embedding)         (None, 4, 15)        2790        transPoss[0][0]                  
__________________________________________________________________________________________________
concatenate_64 (Concatenate)    (None, 50, 98)       0           phraseTokenEmb[0][0]             
                                                                 phrasePosEmb[0][0]               
__________________________________________________________________________________________________
transTokenFlat (Flatten)        (None, 380)          0           transTokenEmb[0][0]              
__________________________________________________________________________________________________
transPosFlat (Flatten)          (None, 60)           0           transPosEmb[0][0]                
__________________________________________________________________________________________________
phraseRnn (LSTM)                (None, 110)          91960       concatenate_64[0][0]             
__________________________________________________________________________________________________
concatenate_65 (Concatenate)    (None, 440)          0           transTokenFlat[0][0]             
                                                                 transPosFlat[0][0]               
__________________________________________________________________________________________________
concatenate_66 (Concatenate)    (None, 550)          0           phraseRnn[0][0]                  
                                                                 concatenate_65[0][0]             
__________________________________________________________________________________________________
dense_43 (Dense)                (None, 115)          63365       concatenate_66[0][0]             
__________________________________________________________________________________________________
dense_44 (Dense)                (None, 4)            464         dense_43[0][0]                   
==================================================================================================
Total params: 1,250,777
Trainable params: 1,250,777
Non-trainable params: 0
__________________________________________________________________________________________________
None
__________________________________________________________________________________________________
…
==================================================================================================
	Tokens := 1262 * POS : 57
__________________________________________________________________________________________________
	Dashed keys in vocabulary 228
	One occurrence keys in vocabulary 228 / 1262
__________________________________________________________________________________________________
Layer (type)                    Output Shape         Param #     Connected to                     
==================================================================================================
phraseTokens (InputLayer)       (None, 50)           0                                            
__________________________________________________________________________________________________
phrasePoss (InputLayer)         (None, 50)           0                                            
__________________________________________________________________________________________________
transTokens (InputLayer)        (None, 4)            0                                            
__________________________________________________________________________________________________
transPoss (InputLayer)          (None, 4)            0                                            
__________________________________________________________________________________________________
phraseTokenEmb (Embedding)      (None, 50, 80)       100960      phraseTokens[0][0]               
__________________________________________________________________________________________________
phrasePosEmb (Embedding)        (None, 50, 18)       1026        phrasePoss[0][0]                 
__________________________________________________________________________________________________
transTokenEmb (Embedding)       (None, 4, 95)        119890      transTokens[0][0]                
__________________________________________________________________________________________________
transPosEmb (Embedding)         (None, 4, 15)        855         transPoss[0][0]                  
__________________________________________________________________________________________________
concatenate_67 (Concatenate)    (None, 50, 98)       0           phraseTokenEmb[0][0]             
                                                                 phrasePosEmb[0][0]               
__________________________________________________________________________________________________
transTokenFlat (Flatten)        (None, 380)          0           transTokenEmb[0][0]              
__________________________________________________________________________________________________
transPosFlat (Flatten)          (None, 60)           0           transPosEmb[0][0]                
__________________________________________________________________________________________________
phraseRnn (LSTM)                (None, 110)          91960       concatenate_67[0][0]             
__________________________________________________________________________________________________
concatenate_68 (Concatenate)    (None, 440)          0           transTokenFlat[0][0]             
                                                                 transPosFlat[0][0]               
__________________________________________________________________________________________________
concatenate_69 (Concatenate)    (None, 550)          0           phraseRnn[0][0]                  
                                                                 concatenate_68[0][0]             
__________________________________________________________________________________________________
dense_45 (Dense)                (None, 115)          63365       concatenate_69[0][0]             
__________________________________________________________________________________________________
dense_46 (Dense)                (None, 4)            464         dense_45[0][0]                   
==================================================================================================
Total params: 378,520
Trainable params: 378,520
Non-trainable params: 0
__________________________________________________________________________________________________
None
__________________________________________________________________________________________________
…
==================================================================================================
	Tokens := 5595 * POS : 114
__________________________________________________________________________________________________
	MWE not in vocabulary 1
	Dashed keys in vocabulary 1034
	One occurrence keys in vocabulary 1034 / 5595
__________________________________________________________________________________________________
Layer (type)                    Output Shape         Param #     Connected to                     
==================================================================================================
phraseTokens (InputLayer)       (None, 50)           0                                            
__________________________________________________________________________________________________
phrasePoss (InputLayer)         (None, 50)           0                                            
__________________________________________________________________________________________________
transTokens (InputLayer)        (None, 4)            0                                            
__________________________________________________________________________________________________
transPoss (InputLayer)          (None, 4)            0                                            
__________________________________________________________________________________________________
phraseTokenEmb (Embedding)      (None, 50, 80)       447600      phraseTokens[0][0]               
__________________________________________________________________________________________________
phrasePosEmb (Embedding)        (None, 50, 18)       2052        phrasePoss[0][0]                 
__________________________________________________________________________________________________
transTokenEmb (Embedding)       (None, 4, 95)        531525      transTokens[0][0]                
__________________________________________________________________________________________________
transPosEmb (Embedding)         (None, 4, 15)        1710        transPoss[0][0]                  
__________________________________________________________________________________________________
concatenate_70 (Concatenate)    (None, 50, 98)       0           phraseTokenEmb[0][0]             
                                                                 phrasePosEmb[0][0]               
__________________________________________________________________________________________________
transTokenFlat (Flatten)        (None, 380)          0           transTokenEmb[0][0]              
__________________________________________________________________________________________________
transPosFlat (Flatten)          (None, 60)           0           transPosEmb[0][0]                
__________________________________________________________________________________________________
phraseRnn (LSTM)                (None, 110)          91960       concatenate_70[0][0]             
__________________________________________________________________________________________________
concatenate_71 (Concatenate)    (None, 440)          0           transTokenFlat[0][0]             
                                                                 transPosFlat[0][0]               
__________________________________________________________________________________________________
concatenate_72 (Concatenate)    (None, 550)          0           phraseRnn[0][0]                  
                                                                 concatenate_71[0][0]             
__________________________________________________________________________________________________
dense_47 (Dense)                (None, 115)          63365       concatenate_72[0][0]             
__________________________________________________________________________________________________
dense_48 (Dense)                (None, 4)            464         dense_47[0][0]                   
==================================================================================================
Total params: 1,138,676
Trainable params: 1,138,676
Non-trainable params: 0
__________________________________________________________________________________________________
None
__________________________________________________________________________________________________
…
==================================================================================================
	Tokens := 4879 * POS : 120
__________________________________________________________________________________________________
	Dashed keys in vocabulary 879
	One occurrence keys in vocabulary 879 / 4879
__________________________________________________________________________________________________
Layer (type)                    Output Shape         Param #     Connected to                     
==================================================================================================
phraseTokens (InputLayer)       (None, 50)           0                                            
__________________________________________________________________________________________________
phrasePoss (InputLayer)         (None, 50)           0                                            
__________________________________________________________________________________________________
transTokens (InputLayer)        (None, 4)            0                                            
__________________________________________________________________________________________________
transPoss (InputLayer)          (None, 4)            0                                            
__________________________________________________________________________________________________
phraseTokenEmb (Embedding)      (None, 50, 80)       390320      phraseTokens[0][0]               
__________________________________________________________________________________________________
phrasePosEmb (Embedding)        (None, 50, 18)       2160        phrasePoss[0][0]                 
__________________________________________________________________________________________________
transTokenEmb (Embedding)       (None, 4, 95)        463505      transTokens[0][0]                
__________________________________________________________________________________________________
transPosEmb (Embedding)         (None, 4, 15)        1800        transPoss[0][0]                  
__________________________________________________________________________________________________
concatenate_73 (Concatenate)    (None, 50, 98)       0           phraseTokenEmb[0][0]             
                                                                 phrasePosEmb[0][0]               
__________________________________________________________________________________________________
transTokenFlat (Flatten)        (None, 380)          0           transTokenEmb[0][0]              
__________________________________________________________________________________________________
transPosFlat (Flatten)          (None, 60)           0           transPosEmb[0][0]                
__________________________________________________________________________________________________
phraseRnn (LSTM)                (None, 110)          91960       concatenate_73[0][0]             
__________________________________________________________________________________________________
concatenate_74 (Concatenate)    (None, 440)          0           transTokenFlat[0][0]             
                                                                 transPosFlat[0][0]               
__________________________________________________________________________________________________
concatenate_75 (Concatenate)    (None, 550)          0           phraseRnn[0][0]                  
                                                                 concatenate_74[0][0]             
__________________________________________________________________________________________________
dense_49 (Dense)                (None, 115)          63365       concatenate_75[0][0]             
__________________________________________________________________________________________________
dense_50 (Dense)                (None, 4)            464         dense_49[0][0]                   
==================================================================================================
Total params: 1,013,574
Trainable params: 1,013,574
Non-trainable params: 0
__________________________________________________________________________________________________
None
__________________________________________________________________________________________________
…
==================================================================================================
	Tokens := 4042 * POS : 64
__________________________________________________________________________________________________
	Dashed keys in vocabulary 1243
	One occurrence keys in vocabulary 1243 / 4042
__________________________________________________________________________________________________
Layer (type)                    Output Shape         Param #     Connected to                     
==================================================================================================
phraseTokens (InputLayer)       (None, 50)           0                                            
__________________________________________________________________________________________________
phrasePoss (InputLayer)         (None, 50)           0                                            
__________________________________________________________________________________________________
transTokens (InputLayer)        (None, 4)            0                                            
__________________________________________________________________________________________________
transPoss (InputLayer)          (None, 4)            0                                            
__________________________________________________________________________________________________
phraseTokenEmb (Embedding)      (None, 50, 80)       323360      phraseTokens[0][0]               
__________________________________________________________________________________________________
phrasePosEmb (Embedding)        (None, 50, 18)       1152        phrasePoss[0][0]                 
__________________________________________________________________________________________________
transTokenEmb (Embedding)       (None, 4, 95)        383990      transTokens[0][0]                
__________________________________________________________________________________________________
transPosEmb (Embedding)         (None, 4, 15)        960         transPoss[0][0]                  
__________________________________________________________________________________________________
concatenate_76 (Concatenate)    (None, 50, 98)       0           phraseTokenEmb[0][0]             
                                                                 phrasePosEmb[0][0]               
__________________________________________________________________________________________________
transTokenFlat (Flatten)        (None, 380)          0           transTokenEmb[0][0]              
__________________________________________________________________________________________________
transPosFlat (Flatten)          (None, 60)           0           transPosEmb[0][0]                
__________________________________________________________________________________________________
phraseRnn (LSTM)                (None, 110)          91960       concatenate_76[0][0]             
__________________________________________________________________________________________________
concatenate_77 (Concatenate)    (None, 440)          0           transTokenFlat[0][0]             
                                                                 transPosFlat[0][0]               
__________________________________________________________________________________________________
concatenate_78 (Concatenate)    (None, 550)          0           phraseRnn[0][0]                  
                                                                 concatenate_77[0][0]             
__________________________________________________________________________________________________
dense_51 (Dense)                (None, 115)          63365       concatenate_78[0][0]             
__________________________________________________________________________________________________
dense_52 (Dense)                (None, 4)            464         dense_51[0][0]                   
==================================================================================================
Total params: 865,251
Trainable params: 865,251
Non-trainable params: 0
__________________________________________________________________________________________________
None
__________________________________________________________________________________________________
…
==================================================================================================
	Tokens := 10828 * POS : 215
__________________________________________________________________________________________________
	MWE not in vocabulary 2
	Dashed keys in vocabulary 2022
	One occurrence keys in vocabulary 2022 / 10828
__________________________________________________________________________________________________
Layer (type)                    Output Shape         Param #     Connected to                     
==================================================================================================
phraseTokens (InputLayer)       (None, 50)           0                                            
__________________________________________________________________________________________________
phrasePoss (InputLayer)         (None, 50)           0                                            
__________________________________________________________________________________________________
transTokens (InputLayer)        (None, 4)            0                                            
__________________________________________________________________________________________________
transPoss (InputLayer)          (None, 4)            0                                            
__________________________________________________________________________________________________
phraseTokenEmb (Embedding)      (None, 50, 80)       866240      phraseTokens[0][0]               
__________________________________________________________________________________________________
phrasePosEmb (Embedding)        (None, 50, 18)       3870        phrasePoss[0][0]                 
__________________________________________________________________________________________________
transTokenEmb (Embedding)       (None, 4, 95)        1028660     transTokens[0][0]                
__________________________________________________________________________________________________
transPosEmb (Embedding)         (None, 4, 15)        3225        transPoss[0][0]                  
__________________________________________________________________________________________________
concatenate_79 (Concatenate)    (None, 50, 98)       0           phraseTokenEmb[0][0]             
                                                                 phrasePosEmb[0][0]               
__________________________________________________________________________________________________
transTokenFlat (Flatten)        (None, 380)          0           transTokenEmb[0][0]              
__________________________________________________________________________________________________
transPosFlat (Flatten)          (None, 60)           0           transPosEmb[0][0]                
__________________________________________________________________________________________________
phraseRnn (LSTM)                (None, 110)          91960       concatenate_79[0][0]             
__________________________________________________________________________________________________
concatenate_80 (Concatenate)    (None, 440)          0           transTokenFlat[0][0]             
                                                                 transPosFlat[0][0]               
__________________________________________________________________________________________________
concatenate_81 (Concatenate)    (None, 550)          0           phraseRnn[0][0]                  
                                                                 concatenate_80[0][0]             
__________________________________________________________________________________________________
dense_53 (Dense)                (None, 115)          63365       concatenate_81[0][0]             
__________________________________________________________________________________________________
dense_54 (Dense)                (None, 4)            464         dense_53[0][0]                   
==================================================================================================
Total params: 2,057,784
Trainable params: 2,057,784
Non-trainable params: 0
__________________________________________________________________________________________________
None
__________________________________________________________________________________________________
…
==================================================================================================
	Tokens := 7539 * POS : 241
__________________________________________________________________________________________________
	Dashed keys in vocabulary 1243
	One occurrence keys in vocabulary 1243 / 7539
__________________________________________________________________________________________________
Layer (type)                    Output Shape         Param #     Connected to                     
==================================================================================================
phraseTokens (InputLayer)       (None, 50)           0                                            
__________________________________________________________________________________________________
phrasePoss (InputLayer)         (None, 50)           0                                            
__________________________________________________________________________________________________
transTokens (InputLayer)        (None, 4)            0                                            
__________________________________________________________________________________________________
transPoss (InputLayer)          (None, 4)            0                                            
__________________________________________________________________________________________________
phraseTokenEmb (Embedding)      (None, 50, 80)       603120      phraseTokens[0][0]               
__________________________________________________________________________________________________
phrasePosEmb (Embedding)        (None, 50, 18)       4338        phrasePoss[0][0]                 
__________________________________________________________________________________________________
transTokenEmb (Embedding)       (None, 4, 95)        716205      transTokens[0][0]                
__________________________________________________________________________________________________
transPosEmb (Embedding)         (None, 4, 15)        3615        transPoss[0][0]                  
__________________________________________________________________________________________________
concatenate_82 (Concatenate)    (None, 50, 98)       0           phraseTokenEmb[0][0]             
                                                                 phrasePosEmb[0][0]               
__________________________________________________________________________________________________
transTokenFlat (Flatten)        (None, 380)          0           transTokenEmb[0][0]              
__________________________________________________________________________________________________
transPosFlat (Flatten)          (None, 60)           0           transPosEmb[0][0]                
__________________________________________________________________________________________________
phraseRnn (LSTM)                (None, 110)          91960       concatenate_82[0][0]             
__________________________________________________________________________________________________
concatenate_83 (Concatenate)    (None, 440)          0           transTokenFlat[0][0]             
                                                                 transPosFlat[0][0]               
__________________________________________________________________________________________________
concatenate_84 (Concatenate)    (None, 550)          0           phraseRnn[0][0]                  
                                                                 concatenate_83[0][0]             
__________________________________________________________________________________________________
dense_55 (Dense)                (None, 115)          63365       concatenate_84[0][0]             
__________________________________________________________________________________________________
dense_56 (Dense)                (None, 4)            464         dense_55[0][0]                   
==================================================================================================
Total params: 1,483,067
Trainable params: 1,483,067
Non-trainable params: 0
__________________________________________________________________________________________________
None
__________________________________________________________________________________________________
…
==================================================================================================
	Tokens := 1533 * POS : 43
__________________________________________________________________________________________________
	Dashed keys in vocabulary 231
	One occurrence keys in vocabulary 231 / 1533
__________________________________________________________________________________________________
Layer (type)                    Output Shape         Param #     Connected to                     
==================================================================================================
phraseTokens (InputLayer)       (None, 50)           0                                            
__________________________________________________________________________________________________
phrasePoss (InputLayer)         (None, 50)           0                                            
__________________________________________________________________________________________________
transTokens (InputLayer)        (None, 4)            0                                            
__________________________________________________________________________________________________
transPoss (InputLayer)          (None, 4)            0                                            
__________________________________________________________________________________________________
phraseTokenEmb (Embedding)      (None, 50, 80)       122640      phraseTokens[0][0]               
__________________________________________________________________________________________________
phrasePosEmb (Embedding)        (None, 50, 18)       774         phrasePoss[0][0]                 
__________________________________________________________________________________________________
transTokenEmb (Embedding)       (None, 4, 95)        145635      transTokens[0][0]                
__________________________________________________________________________________________________
transPosEmb (Embedding)         (None, 4, 15)        645         transPoss[0][0]                  
__________________________________________________________________________________________________
concatenate_85 (Concatenate)    (None, 50, 98)       0           phraseTokenEmb[0][0]             
                                                                 phrasePosEmb[0][0]               
__________________________________________________________________________________________________
transTokenFlat (Flatten)        (None, 380)          0           transTokenEmb[0][0]              
__________________________________________________________________________________________________
transPosFlat (Flatten)          (None, 60)           0           transPosEmb[0][0]                
__________________________________________________________________________________________________
phraseRnn (LSTM)                (None, 110)          91960       concatenate_85[0][0]             
__________________________________________________________________________________________________
concatenate_86 (Concatenate)    (None, 440)          0           transTokenFlat[0][0]             
                                                                 transPosFlat[0][0]               
__________________________________________________________________________________________________
concatenate_87 (Concatenate)    (None, 550)          0           phraseRnn[0][0]                  
                                                                 concatenate_86[0][0]             
__________________________________________________________________________________________________
dense_57 (Dense)                (None, 115)          63365       concatenate_87[0][0]             
__________________________________________________________________________________________________
dense_58 (Dense)                (None, 4)            464         dense_57[0][0]                   
==================================================================================================
Total params: 425,483
Trainable params: 425,483
Non-trainable params: 0
__________________________________________________________________________________________________
None
__________________________________________________________________________________________________
…
==================================================================================================
	Tokens := 5105 * POS : 113
__________________________________________________________________________________________________
	MWE not in vocabulary 1
	Dashed keys in vocabulary 1006
	One occurrence keys in vocabulary 1006 / 5105
__________________________________________________________________________________________________
Layer (type)                    Output Shape         Param #     Connected to                     
==================================================================================================
phraseTokens (InputLayer)       (None, 50)           0                                            
__________________________________________________________________________________________________
phrasePoss (InputLayer)         (None, 50)           0                                            
__________________________________________________________________________________________________
transTokens (InputLayer)        (None, 4)            0                                            
__________________________________________________________________________________________________
transPoss (InputLayer)          (None, 4)            0                                            
__________________________________________________________________________________________________
phraseTokenEmb (Embedding)      (None, 50, 80)       408400      phraseTokens[0][0]               
__________________________________________________________________________________________________
phrasePosEmb (Embedding)        (None, 50, 18)       2034        phrasePoss[0][0]                 
__________________________________________________________________________________________________
transTokenEmb (Embedding)       (None, 4, 95)        484975      transTokens[0][0]                
__________________________________________________________________________________________________
transPosEmb (Embedding)         (None, 4, 15)        1695        transPoss[0][0]                  
__________________________________________________________________________________________________
concatenate_88 (Concatenate)    (None, 50, 98)       0           phraseTokenEmb[0][0]             
                                                                 phrasePosEmb[0][0]               
__________________________________________________________________________________________________
transTokenFlat (Flatten)        (None, 380)          0           transTokenEmb[0][0]              
__________________________________________________________________________________________________
transPosFlat (Flatten)          (None, 60)           0           transPosEmb[0][0]                
__________________________________________________________________________________________________
phraseRnn (LSTM)                (None, 110)          91960       concatenate_88[0][0]             
__________________________________________________________________________________________________
concatenate_89 (Concatenate)    (None, 440)          0           transTokenFlat[0][0]             
                                                                 transPosFlat[0][0]               
__________________________________________________________________________________________________
concatenate_90 (Concatenate)    (None, 550)          0           phraseRnn[0][0]                  
                                                                 concatenate_89[0][0]             
__________________________________________________________________________________________________
dense_59 (Dense)                (None, 115)          63365       concatenate_90[0][0]             
__________________________________________________________________________________________________
dense_60 (Dense)                (None, 4)            464         dense_59[0][0]                   
==================================================================================================
Total params: 1,052,893
Trainable params: 1,052,893
Non-trainable params: 0
__________________________________________________________________________________________________
None
__________________________________________________________________________________________________
…
==================================================================================================
	Tokens := 4846 * POS : 50
__________________________________________________________________________________________________
	Dashed keys in vocabulary 459
	One occurrence keys in vocabulary 459 / 4846
__________________________________________________________________________________________________
Layer (type)                    Output Shape         Param #     Connected to                     
==================================================================================================
phraseTokens (InputLayer)       (None, 50)           0                                            
__________________________________________________________________________________________________
phrasePoss (InputLayer)         (None, 50)           0                                            
__________________________________________________________________________________________________
transTokens (InputLayer)        (None, 4)            0                                            
__________________________________________________________________________________________________
transPoss (InputLayer)          (None, 4)            0                                            
__________________________________________________________________________________________________
phraseTokenEmb (Embedding)      (None, 50, 80)       387680      phraseTokens[0][0]               
__________________________________________________________________________________________________
phrasePosEmb (Embedding)        (None, 50, 18)       900         phrasePoss[0][0]                 
__________________________________________________________________________________________________
transTokenEmb (Embedding)       (None, 4, 95)        460370      transTokens[0][0]                
__________________________________________________________________________________________________
transPosEmb (Embedding)         (None, 4, 15)        750         transPoss[0][0]                  
__________________________________________________________________________________________________
concatenate_91 (Concatenate)    (None, 50, 98)       0           phraseTokenEmb[0][0]             
                                                                 phrasePosEmb[0][0]               
__________________________________________________________________________________________________
transTokenFlat (Flatten)        (None, 380)          0           transTokenEmb[0][0]              
__________________________________________________________________________________________________
transPosFlat (Flatten)          (None, 60)           0           transPosEmb[0][0]                
__________________________________________________________________________________________________
phraseRnn (LSTM)                (None, 110)          91960       concatenate_91[0][0]             
__________________________________________________________________________________________________
concatenate_92 (Concatenate)    (None, 440)          0           transTokenFlat[0][0]             
                                                                 transPosFlat[0][0]               
__________________________________________________________________________________________________
concatenate_93 (Concatenate)    (None, 550)          0           phraseRnn[0][0]                  
                                                                 concatenate_92[0][0]             
__________________________________________________________________________________________________
dense_61 (Dense)                (None, 115)          63365       concatenate_93[0][0]             
__________________________________________________________________________________________________
dense_62 (Dense)                (None, 4)            464         dense_61[0][0]                   
==================================================================================================
Total params: 1,005,489
Trainable params: 1,005,489
Non-trainable params: 0
__________________________________________________________________________________________________
None
__________________________________________________________________________________________________
…
==================================================================================================
	Tokens := 10033 * POS : 230
__________________________________________________________________________________________________
	Important words not in vocabulary 2
	MWE not in vocabulary 5
	Dashed keys in vocabulary 1965
	One occurrence keys in vocabulary 1965 / 10033
__________________________________________________________________________________________________
Layer (type)                    Output Shape         Param #     Connected to                     
==================================================================================================
phraseTokens (InputLayer)       (None, 50)           0                                            
__________________________________________________________________________________________________
phrasePoss (InputLayer)         (None, 50)           0                                            
__________________________________________________________________________________________________
transTokens (InputLayer)        (None, 4)            0                                            
__________________________________________________________________________________________________
transPoss (InputLayer)          (None, 4)            0                                            
__________________________________________________________________________________________________
phraseTokenEmb (Embedding)      (None, 50, 80)       802640      phraseTokens[0][0]               
__________________________________________________________________________________________________
phrasePosEmb (Embedding)        (None, 50, 18)       4140        phrasePoss[0][0]                 
__________________________________________________________________________________________________
transTokenEmb (Embedding)       (None, 4, 95)        953135      transTokens[0][0]                
__________________________________________________________________________________________________
transPosEmb (Embedding)         (None, 4, 15)        3450        transPoss[0][0]                  
__________________________________________________________________________________________________
concatenate_94 (Concatenate)    (None, 50, 98)       0           phraseTokenEmb[0][0]             
                                                                 phrasePosEmb[0][0]               
__________________________________________________________________________________________________
transTokenFlat (Flatten)        (None, 380)          0           transTokenEmb[0][0]              
__________________________________________________________________________________________________
transPosFlat (Flatten)          (None, 60)           0           transPosEmb[0][0]                
__________________________________________________________________________________________________
phraseRnn (LSTM)                (None, 110)          91960       concatenate_94[0][0]             
__________________________________________________________________________________________________
concatenate_95 (Concatenate)    (None, 440)          0           transTokenFlat[0][0]             
                                                                 transPosFlat[0][0]               
__________________________________________________________________________________________________
concatenate_96 (Concatenate)    (None, 550)          0           phraseRnn[0][0]                  
                                                                 concatenate_95[0][0]             
__________________________________________________________________________________________________
dense_63 (Dense)                (None, 115)          63365       concatenate_96[0][0]             
__________________________________________________________________________________________________
dense_64 (Dense)                (None, 4)            464         dense_63[0][0]                   
==================================================================================================
Total params: 1,919,154
Trainable params: 1,919,154
Non-trainable params: 0
__________________________________________________________________________________________________
None
__________________________________________________________________________________________________
…
==================================================================================================
	Tokens := 1462 * POS : 51
__________________________________________________________________________________________________
	Dashed keys in vocabulary 195
	One occurrence keys in vocabulary 195 / 1462
__________________________________________________________________________________________________
Layer (type)                    Output Shape         Param #     Connected to                     
==================================================================================================
phraseTokens (InputLayer)       (None, 50)           0                                            
__________________________________________________________________________________________________
phrasePoss (InputLayer)         (None, 50)           0                                            
__________________________________________________________________________________________________
transTokens (InputLayer)        (None, 4)            0                                            
__________________________________________________________________________________________________
transPoss (InputLayer)          (None, 4)            0                                            
__________________________________________________________________________________________________
phraseTokenEmb (Embedding)      (None, 50, 80)       116960      phraseTokens[0][0]               
__________________________________________________________________________________________________
phrasePosEmb (Embedding)        (None, 50, 18)       918         phrasePoss[0][0]                 
__________________________________________________________________________________________________
transTokenEmb (Embedding)       (None, 4, 95)        138890      transTokens[0][0]                
__________________________________________________________________________________________________
transPosEmb (Embedding)         (None, 4, 15)        765         transPoss[0][0]                  
__________________________________________________________________________________________________
concatenate_97 (Concatenate)    (None, 50, 98)       0           phraseTokenEmb[0][0]             
                                                                 phrasePosEmb[0][0]               
__________________________________________________________________________________________________
transTokenFlat (Flatten)        (None, 380)          0           transTokenEmb[0][0]              
__________________________________________________________________________________________________
transPosFlat (Flatten)          (None, 60)           0           transPosEmb[0][0]                
__________________________________________________________________________________________________
phraseRnn (LSTM)                (None, 110)          91960       concatenate_97[0][0]             
__________________________________________________________________________________________________
concatenate_98 (Concatenate)    (None, 440)          0           transTokenFlat[0][0]             
                                                                 transPosFlat[0][0]               
__________________________________________________________________________________________________
concatenate_99 (Concatenate)    (None, 550)          0           phraseRnn[0][0]                  
                                                                 concatenate_98[0][0]             
__________________________________________________________________________________________________
dense_65 (Dense)                (None, 115)          63365       concatenate_99[0][0]             
__________________________________________________________________________________________________
dense_66 (Dense)                (None, 4)            464         dense_65[0][0]                   
==================================================================================================
Total params: 413,322
Trainable params: 413,322
Non-trainable params: 0
__________________________________________________________________________________________________
None
__________________________________________________________________________________________________
…
==================================================================================================
	Tokens := 9691 * POS : 138
__________________________________________________________________________________________________
	MWE not in vocabulary 5
	Dashed keys in vocabulary 1865
	One occurrence keys in vocabulary 1865 / 9691
__________________________________________________________________________________________________
Layer (type)                    Output Shape         Param #     Connected to                     
==================================================================================================
phraseTokens (InputLayer)       (None, 50)           0                                            
__________________________________________________________________________________________________
phrasePoss (InputLayer)         (None, 50)           0                                            
__________________________________________________________________________________________________
transTokens (InputLayer)        (None, 4)            0                                            
__________________________________________________________________________________________________
transPoss (InputLayer)          (None, 4)            0                                            
__________________________________________________________________________________________________
phraseTokenEmb (Embedding)      (None, 50, 80)       775280      phraseTokens[0][0]               
__________________________________________________________________________________________________
phrasePosEmb (Embedding)        (None, 50, 18)       2484        phrasePoss[0][0]                 
__________________________________________________________________________________________________
transTokenEmb (Embedding)       (None, 4, 95)        920645      transTokens[0][0]                
__________________________________________________________________________________________________
transPosEmb (Embedding)         (None, 4, 15)        2070        transPoss[0][0]                  
__________________________________________________________________________________________________
concatenate_100 (Concatenate)   (None, 50, 98)       0           phraseTokenEmb[0][0]             
                                                                 phrasePosEmb[0][0]               
__________________________________________________________________________________________________
transTokenFlat (Flatten)        (None, 380)          0           transTokenEmb[0][0]              
__________________________________________________________________________________________________
transPosFlat (Flatten)          (None, 60)           0           transPosEmb[0][0]                
__________________________________________________________________________________________________
phraseRnn (LSTM)                (None, 110)          91960       concatenate_100[0][0]            
__________________________________________________________________________________________________
concatenate_101 (Concatenate)   (None, 440)          0           transTokenFlat[0][0]             
                                                                 transPosFlat[0][0]               
__________________________________________________________________________________________________
concatenate_102 (Concatenate)   (None, 550)          0           phraseRnn[0][0]                  
                                                                 concatenate_101[0][0]            
__________________________________________________________________________________________________
dense_67 (Dense)                (None, 115)          63365       concatenate_102[0][0]            
__________________________________________________________________________________________________
dense_68 (Dense)                (None, 4)            464         dense_67[0][0]                   
==================================================================================================
Total params: 1,856,268
Trainable params: 1,856,268
Non-trainable params: 0
__________________________________________________________________________________________________
None
__________________________________________________________________________________________________
…
==================================================================================================
	Tokens := 10191 * POS : 224
__________________________________________________________________________________________________
	Important words not in vocabulary 1
	MWE not in vocabulary 5
	Dashed keys in vocabulary 2416
	One occurrence keys in vocabulary 2416 / 10191
__________________________________________________________________________________________________
Layer (type)                    Output Shape         Param #     Connected to                     
==================================================================================================
phraseTokens (InputLayer)       (None, 50)           0                                            
__________________________________________________________________________________________________
phrasePoss (InputLayer)         (None, 50)           0                                            
__________________________________________________________________________________________________
transTokens (InputLayer)        (None, 4)            0                                            
__________________________________________________________________________________________________
transPoss (InputLayer)          (None, 4)            0                                            
__________________________________________________________________________________________________
phraseTokenEmb (Embedding)      (None, 50, 80)       815280      phraseTokens[0][0]               
__________________________________________________________________________________________________
phrasePosEmb (Embedding)        (None, 50, 18)       4032        phrasePoss[0][0]                 
__________________________________________________________________________________________________
transTokenEmb (Embedding)       (None, 4, 95)        968145      transTokens[0][0]                
__________________________________________________________________________________________________
transPosEmb (Embedding)         (None, 4, 15)        3360        transPoss[0][0]                  
__________________________________________________________________________________________________
concatenate_103 (Concatenate)   (None, 50, 98)       0           phraseTokenEmb[0][0]             
                                                                 phrasePosEmb[0][0]               
__________________________________________________________________________________________________
transTokenFlat (Flatten)        (None, 380)          0           transTokenEmb[0][0]              
__________________________________________________________________________________________________
transPosFlat (Flatten)          (None, 60)           0           transPosEmb[0][0]                
__________________________________________________________________________________________________
phraseRnn (LSTM)                (None, 110)          91960       concatenate_103[0][0]            
__________________________________________________________________________________________________
concatenate_104 (Concatenate)   (None, 440)          0           transTokenFlat[0][0]             
                                                                 transPosFlat[0][0]               
__________________________________________________________________________________________________
concatenate_105 (Concatenate)   (None, 550)          0           phraseRnn[0][0]                  
                                                                 concatenate_104[0][0]            
__________________________________________________________________________________________________
dense_69 (Dense)                (None, 115)          63365       concatenate_105[0][0]            
__________________________________________________________________________________________________
dense_70 (Dense)                (None, 4)            464         dense_69[0][0]                   
==================================================================================================
Total params: 1,946,606
Trainable params: 1,946,606
Non-trainable params: 0
__________________________________________________________________________________________________
None
__________________________________________________________________________________________________
…
==================================================================================================
	Tokens := 9119 * POS : 105
__________________________________________________________________________________________________
	Dashed keys in vocabulary 845
	One occurrence keys in vocabulary 845 / 9119
__________________________________________________________________________________________________
Layer (type)                    Output Shape         Param #     Connected to                     
==================================================================================================
phraseTokens (InputLayer)       (None, 50)           0                                            
__________________________________________________________________________________________________
phrasePoss (InputLayer)         (None, 50)           0                                            
__________________________________________________________________________________________________
transTokens (InputLayer)        (None, 4)            0                                            
__________________________________________________________________________________________________
transPoss (InputLayer)          (None, 4)            0                                            
__________________________________________________________________________________________________
phraseTokenEmb (Embedding)      (None, 50, 80)       729520      phraseTokens[0][0]               
__________________________________________________________________________________________________
phrasePosEmb (Embedding)        (None, 50, 18)       1890        phrasePoss[0][0]                 
__________________________________________________________________________________________________
transTokenEmb (Embedding)       (None, 4, 95)        866305      transTokens[0][0]                
__________________________________________________________________________________________________
transPosEmb (Embedding)         (None, 4, 15)        1575        transPoss[0][0]                  
__________________________________________________________________________________________________
concatenate_106 (Concatenate)   (None, 50, 98)       0           phraseTokenEmb[0][0]             
                                                                 phrasePosEmb[0][0]               
__________________________________________________________________________________________________
transTokenFlat (Flatten)        (None, 380)          0           transTokenEmb[0][0]              
__________________________________________________________________________________________________
transPosFlat (Flatten)          (None, 60)           0           transPosEmb[0][0]                
__________________________________________________________________________________________________
phraseRnn (LSTM)                (None, 110)          91960       concatenate_106[0][0]            
__________________________________________________________________________________________________
concatenate_107 (Concatenate)   (None, 440)          0           transTokenFlat[0][0]             
                                                                 transPosFlat[0][0]               
__________________________________________________________________________________________________
concatenate_108 (Concatenate)   (None, 550)          0           phraseRnn[0][0]                  
                                                                 concatenate_107[0][0]            
__________________________________________________________________________________________________
dense_71 (Dense)                (None, 115)          63365       concatenate_108[0][0]            
__________________________________________________________________________________________________
dense_72 (Dense)                (None, 4)            464         dense_71[0][0]                   
==================================================================================================
Total params: 1,755,079
Trainable params: 1,755,079
Non-trainable params: 0
__________________________________________________________________________________________________
None
__________________________________________________________________________________________________
…
==================================================================================================
	Tokens := 7768 * POS : 10
__________________________________________________________________________________________________
	Dashed keys in vocabulary 1256
	One occurrence keys in vocabulary 1256 / 7768
__________________________________________________________________________________________________
Layer (type)                    Output Shape         Param #     Connected to                     
==================================================================================================
phraseTokens (InputLayer)       (None, 50)           0                                            
__________________________________________________________________________________________________
phrasePoss (InputLayer)         (None, 50)           0                                            
__________________________________________________________________________________________________
transTokens (InputLayer)        (None, 4)            0                                            
__________________________________________________________________________________________________
transPoss (InputLayer)          (None, 4)            0                                            
__________________________________________________________________________________________________
phraseTokenEmb (Embedding)      (None, 50, 80)       621440      phraseTokens[0][0]               
__________________________________________________________________________________________________
phrasePosEmb (Embedding)        (None, 50, 18)       180         phrasePoss[0][0]                 
__________________________________________________________________________________________________
transTokenEmb (Embedding)       (None, 4, 95)        737960      transTokens[0][0]                
__________________________________________________________________________________________________
transPosEmb (Embedding)         (None, 4, 15)        150         transPoss[0][0]                  
__________________________________________________________________________________________________
concatenate_109 (Concatenate)   (None, 50, 98)       0           phraseTokenEmb[0][0]             
                                                                 phrasePosEmb[0][0]               
__________________________________________________________________________________________________
transTokenFlat (Flatten)        (None, 380)          0           transTokenEmb[0][0]              
__________________________________________________________________________________________________
transPosFlat (Flatten)          (None, 60)           0           transPosEmb[0][0]                
__________________________________________________________________________________________________
phraseRnn (LSTM)                (None, 110)          91960       concatenate_109[0][0]            
__________________________________________________________________________________________________
concatenate_110 (Concatenate)   (None, 440)          0           transTokenFlat[0][0]             
                                                                 transPosFlat[0][0]               
__________________________________________________________________________________________________
concatenate_111 (Concatenate)   (None, 550)          0           phraseRnn[0][0]                  
                                                                 concatenate_110[0][0]            
__________________________________________________________________________________________________
dense_73 (Dense)                (None, 115)          63365       concatenate_111[0][0]            
__________________________________________________________________________________________________
dense_74 (Dense)                (None, 4)            464         dense_73[0][0]                   
==================================================================================================
Total params: 1,515,519
Trainable params: 1,515,519
Non-trainable params: 0
__________________________________________________________________________________________________
None
__________________________________________________________________________________________________
…
==================================================================================================
	Tokens := 15733 * POS : 118
__________________________________________________________________________________________________
	Dashed keys in vocabulary 3771
	One occurrence keys in vocabulary 3771 / 15733
__________________________________________________________________________________________________
Layer (type)                    Output Shape         Param #     Connected to                     
==================================================================================================
phraseTokens (InputLayer)       (None, 50)           0                                            
__________________________________________________________________________________________________
phrasePoss (InputLayer)         (None, 50)           0                                            
__________________________________________________________________________________________________
transTokens (InputLayer)        (None, 4)            0                                            
__________________________________________________________________________________________________
transPoss (InputLayer)          (None, 4)            0                                            
__________________________________________________________________________________________________
phraseTokenEmb (Embedding)      (None, 50, 80)       1258640     phraseTokens[0][0]               
__________________________________________________________________________________________________
phrasePosEmb (Embedding)        (None, 50, 18)       2124        phrasePoss[0][0]                 
__________________________________________________________________________________________________
transTokenEmb (Embedding)       (None, 4, 95)        1494635     transTokens[0][0]                
__________________________________________________________________________________________________
transPosEmb (Embedding)         (None, 4, 15)        1770        transPoss[0][0]                  
__________________________________________________________________________________________________
concatenate_112 (Concatenate)   (None, 50, 98)       0           phraseTokenEmb[0][0]             
                                                                 phrasePosEmb[0][0]               
__________________________________________________________________________________________________
transTokenFlat (Flatten)        (None, 380)          0           transTokenEmb[0][0]              
__________________________________________________________________________________________________
transPosFlat (Flatten)          (None, 60)           0           transPosEmb[0][0]                
__________________________________________________________________________________________________
phraseRnn (LSTM)                (None, 110)          91960       concatenate_112[0][0]            
__________________________________________________________________________________________________
concatenate_113 (Concatenate)   (None, 440)          0           transTokenFlat[0][0]             
                                                                 transPosFlat[0][0]               
__________________________________________________________________________________________________
concatenate_114 (Concatenate)   (None, 550)          0           phraseRnn[0][0]                  
                                                                 concatenate_113[0][0]            
__________________________________________________________________________________________________
dense_75 (Dense)                (None, 115)          63365       concatenate_114[0][0]            
__________________________________________________________________________________________________
dense_76 (Dense)                (None, 4)            464         dense_75[0][0]                   
==================================================================================================
Total params: 2,912,958
Trainable params: 2,912,958
Non-trainable params: 0
__________________________________________________________________________________________________
None
__________________________________________________________________________________________________
…
