…
__________________________________________________________________________________________________

__________________________________________________________________________________________________
	Optimizer : Adagrad,  learning rate = 0.086
__________________________________________________________________________________________________
__________________________________________________________________________________________________
Layer (type)                    Output Shape         Param #     Connected to                     
==================================================================================================
b0Tokens (InputLayer)           (None, 7)            0                                            
__________________________________________________________________________________________________
b0Affixes (InputLayer)          (None, 12)           0                                            
__________________________________________________________________________________________________
b0Symbols (InputLayer)          (None, 1)            0                                            
__________________________________________________________________________________________________
b1Tokens (InputLayer)           (None, 7)            0                                            
__________________________________________________________________________________________________
b1Affixes (InputLayer)          (None, 12)           0                                            
__________________________________________________________________________________________________
b1Symbols (InputLayer)          (None, 1)            0                                            
__________________________________________________________________________________________________
b2Tokens (InputLayer)           (None, 7)            0                                            
__________________________________________________________________________________________________
b2Affixes (InputLayer)          (None, 12)           0                                            
__________________________________________________________________________________________________
b2Symbols (InputLayer)          (None, 1)            0                                            
__________________________________________________________________________________________________
s0Tokens (InputLayer)           (None, 7)            0                                            
__________________________________________________________________________________________________
s0Affixes (InputLayer)          (None, 12)           0                                            
__________________________________________________________________________________________________
s0Symbols (InputLayer)          (None, 1)            0                                            
__________________________________________________________________________________________________
s1Tokens (InputLayer)           (None, 7)            0                                            
__________________________________________________________________________________________________
s1Affixes (InputLayer)          (None, 12)           0                                            
__________________________________________________________________________________________________
s1Symbols (InputLayer)          (None, 1)            0                                            
__________________________________________________________________________________________________
s2Tokens (InputLayer)           (None, 7)            0                                            
__________________________________________________________________________________________________
s2Affixes (InputLayer)          (None, 12)           0                                            
__________________________________________________________________________________________________
s2Symbols (InputLayer)          (None, 1)            0                                            
__________________________________________________________________________________________________
LM1(S1)Tokens (InputLayer)      (None, 7)            0                                            
__________________________________________________________________________________________________
LM1(S1)Affixes (InputLayer)     (None, 12)           0                                            
__________________________________________________________________________________________________
LM1(S1)Symbols (InputLayer)     (None, 1)            0                                            
__________________________________________________________________________________________________
LM2(S1)Tokens (InputLayer)      (None, 7)            0                                            
__________________________________________________________________________________________________
LM2(S1)Affixes (InputLayer)     (None, 12)           0                                            
__________________________________________________________________________________________________
LM2(S1)Symbols (InputLayer)     (None, 1)            0                                            
__________________________________________________________________________________________________
LM1(S0)Tokens (InputLayer)      (None, 7)            0                                            
__________________________________________________________________________________________________
LM1(S0)Affixes (InputLayer)     (None, 12)           0                                            
__________________________________________________________________________________________________
LM1(S0)Symbols (InputLayer)     (None, 1)            0                                            
__________________________________________________________________________________________________
LM2(S0)Tokens (InputLayer)      (None, 7)            0                                            
__________________________________________________________________________________________________
LM2(S0)Affixes (InputLayer)     (None, 12)           0                                            
__________________________________________________________________________________________________
LM2(S0)Symbols (InputLayer)     (None, 1)            0                                            
__________________________________________________________________________________________________
RM1(S1)Tokens (InputLayer)      (None, 7)            0                                            
__________________________________________________________________________________________________
RM1(S1)Affixes (InputLayer)     (None, 12)           0                                            
__________________________________________________________________________________________________
RM1(S1)Symbols (InputLayer)     (None, 1)            0                                            
__________________________________________________________________________________________________
RM2(S1)Tokens (InputLayer)      (None, 7)            0                                            
__________________________________________________________________________________________________
RM2(S1)Affixes (InputLayer)     (None, 12)           0                                            
__________________________________________________________________________________________________
RM2(S1)Symbols (InputLayer)     (None, 1)            0                                            
__________________________________________________________________________________________________
RM1(S0)Tokens (InputLayer)      (None, 7)            0                                            
__________________________________________________________________________________________________
RM1(S0)Affixes (InputLayer)     (None, 12)           0                                            
__________________________________________________________________________________________________
RM1(S0)Symbols (InputLayer)     (None, 1)            0                                            
__________________________________________________________________________________________________
RM2(S0)Tokens (InputLayer)      (None, 7)            0                                            
__________________________________________________________________________________________________
RM2(S0)Affixes (InputLayer)     (None, 12)           0                                            
__________________________________________________________________________________________________
RM2(S0)Symbols (InputLayer)     (None, 1)            0                                            
__________________________________________________________________________________________________
LMLM(S1)Tokens (InputLayer)     (None, 7)            0                                            
__________________________________________________________________________________________________
LMLM(S1)Affixes (InputLayer)    (None, 12)           0                                            
__________________________________________________________________________________________________
LMLM(S1)Symbols (InputLayer)    (None, 1)            0                                            
__________________________________________________________________________________________________
RMRM(S1)Tokens (InputLayer)     (None, 7)            0                                            
__________________________________________________________________________________________________
RMRM(S1)Affixes (InputLayer)    (None, 12)           0                                            
__________________________________________________________________________________________________
RMRM(S1)Symbols (InputLayer)    (None, 1)            0                                            
__________________________________________________________________________________________________
LMLM(S0)Tokens (InputLayer)     (None, 7)            0                                            
__________________________________________________________________________________________________
LMLM(S0)Affixes (InputLayer)    (None, 12)           0                                            
__________________________________________________________________________________________________
LMLM(S0)Symbols (InputLayer)    (None, 1)            0                                            
__________________________________________________________________________________________________
RMRM(S0)Tokens (InputLayer)     (None, 7)            0                                            
__________________________________________________________________________________________________
RMRM(S0)Affixes (InputLayer)    (None, 12)           0                                            
__________________________________________________________________________________________________
RMRM(S0)Symbols (InputLayer)    (None, 1)            0                                            
__________________________________________________________________________________________________
tokenEmb (Embedding)            (None, 7, 33)        488367      b0Tokens[0][0]                   
                                                                 b1Tokens[0][0]                   
                                                                 b2Tokens[0][0]                   
                                                                 s0Tokens[0][0]                   
                                                                 s1Tokens[0][0]                   
…
                                                                 RM2(S0)Symbols[0][0]             
                                                                 LMLM(S1)Symbols[0][0]            
                                                                 RMRM(S1)Symbols[0][0]            
                                                                 LMLM(S0)Symbols[0][0]            
                                                                 RMRM(S0)Symbols[0][0]            
__________________________________________________________________________________________________
SyntacticLabels (InputLayer)    (None, 12)           0                                            
__________________________________________________________________________________________________
flatten_13 (Flatten)            (None, 231)          0           tokenEmb[4][0]                   
__________________________________________________________________________________________________
flatten_14 (Flatten)            (None, 96)           0           affixeseEmb[4][0]                
__________________________________________________________________________________________________
flatten_15 (Flatten)            (None, 8)            0           symbolsEmb[4][0]                 
__________________________________________________________________________________________________
flatten_16 (Flatten)            (None, 231)          0           tokenEmb[5][0]                   
__________________________________________________________________________________________________
flatten_17 (Flatten)            (None, 96)           0           affixeseEmb[5][0]                
__________________________________________________________________________________________________
flatten_18 (Flatten)            (None, 8)            0           symbolsEmb[5][0]                 
__________________________________________________________________________________________________
flatten_19 (Flatten)            (None, 231)          0           tokenEmb[6][0]                   
__________________________________________________________________________________________________
flatten_20 (Flatten)            (None, 96)           0           affixeseEmb[6][0]                
__________________________________________________________________________________________________
flatten_21 (Flatten)            (None, 8)            0           symbolsEmb[6][0]                 
__________________________________________________________________________________________________
flatten_22 (Flatten)            (None, 231)          0           tokenEmb[7][0]                   
__________________________________________________________________________________________________
flatten_23 (Flatten)            (None, 96)           0           affixeseEmb[7][0]                
__________________________________________________________________________________________________
flatten_24 (Flatten)            (None, 8)            0           symbolsEmb[7][0]                 
__________________________________________________________________________________________________
flatten_25 (Flatten)            (None, 231)          0           tokenEmb[8][0]                   
__________________________________________________________________________________________________
flatten_26 (Flatten)            (None, 96)           0           affixeseEmb[8][0]                
__________________________________________________________________________________________________
flatten_27 (Flatten)            (None, 8)            0           symbolsEmb[8][0]                 
__________________________________________________________________________________________________
flatten_28 (Flatten)            (None, 231)          0           tokenEmb[9][0]                   
__________________________________________________________________________________________________
flatten_29 (Flatten)            (None, 96)           0           affixeseEmb[9][0]                
__________________________________________________________________________________________________
flatten_30 (Flatten)            (None, 8)            0           symbolsEmb[9][0]                 
__________________________________________________________________________________________________
flatten_31 (Flatten)            (None, 231)          0           tokenEmb[10][0]                  
__________________________________________________________________________________________________
flatten_32 (Flatten)            (None, 96)           0           affixeseEmb[10][0]               
__________________________________________________________________________________________________
flatten_33 (Flatten)            (None, 8)            0           symbolsEmb[10][0]                
__________________________________________________________________________________________________
flatten_34 (Flatten)            (None, 231)          0           tokenEmb[11][0]                  
__________________________________________________________________________________________________
flatten_35 (Flatten)            (None, 96)           0           affixeseEmb[11][0]               
__________________________________________________________________________________________________
flatten_36 (Flatten)            (None, 8)            0           symbolsEmb[11][0]                
__________________________________________________________________________________________________
flatten_37 (Flatten)            (None, 231)          0           tokenEmb[12][0]                  
__________________________________________________________________________________________________
flatten_38 (Flatten)            (None, 96)           0           affixeseEmb[12][0]               
__________________________________________________________________________________________________
flatten_39 (Flatten)            (None, 8)            0           symbolsEmb[12][0]                
__________________________________________________________________________________________________
flatten_40 (Flatten)            (None, 231)          0           tokenEmb[13][0]                  
__________________________________________________________________________________________________
flatten_41 (Flatten)            (None, 96)           0           affixeseEmb[13][0]               
__________________________________________________________________________________________________
flatten_42 (Flatten)            (None, 8)            0           symbolsEmb[13][0]                
__________________________________________________________________________________________________
flatten_43 (Flatten)            (None, 231)          0           tokenEmb[14][0]                  
__________________________________________________________________________________________________
flatten_44 (Flatten)            (None, 96)           0           affixeseEmb[14][0]               
__________________________________________________________________________________________________
flatten_45 (Flatten)            (None, 8)            0           symbolsEmb[14][0]                
__________________________________________________________________________________________________
flatten_46 (Flatten)            (None, 231)          0           tokenEmb[15][0]                  
__________________________________________________________________________________________________
flatten_47 (Flatten)            (None, 96)           0           affixeseEmb[15][0]               
__________________________________________________________________________________________________
flatten_48 (Flatten)            (None, 8)            0           symbolsEmb[15][0]                
__________________________________________________________________________________________________
flatten_49 (Flatten)            (None, 231)          0           tokenEmb[16][0]                  
__________________________________________________________________________________________________
flatten_50 (Flatten)            (None, 96)           0           affixeseEmb[16][0]               
__________________________________________________________________________________________________
flatten_51 (Flatten)            (None, 8)            0           symbolsEmb[16][0]                
__________________________________________________________________________________________________
flatten_52 (Flatten)            (None, 231)          0           tokenEmb[17][0]                  
__________________________________________________________________________________________________
flatten_53 (Flatten)            (None, 96)           0           affixeseEmb[17][0]               
__________________________________________________________________________________________________
flatten_54 (Flatten)            (None, 8)            0           symbolsEmb[17][0]                
__________________________________________________________________________________________________
flatten_55 (Flatten)            (None, 231)          0           tokenEmb[18][0]                  
__________________________________________________________________________________________________
flatten_56 (Flatten)            (None, 96)           0           affixeseEmb[18][0]               
__________________________________________________________________________________________________
flatten_57 (Flatten)            (None, 8)            0           symbolsEmb[18][0]                
__________________________________________________________________________________________________
flatten_58 (Flatten)            (None, 231)          0           tokenEmb[19][0]                  
__________________________________________________________________________________________________
flatten_59 (Flatten)            (None, 96)           0           affixeseEmb[19][0]               
__________________________________________________________________________________________________
flatten_60 (Flatten)            (None, 8)            0           symbolsEmb[19][0]                
__________________________________________________________________________________________________
flatten_61 (Flatten)            (None, 231)          0           tokenEmb[20][0]                  
__________________________________________________________________________________________________
flatten_62 (Flatten)            (None, 96)           0           affixeseEmb[20][0]               
__________________________________________________________________________________________________
flatten_63 (Flatten)            (None, 8)            0           symbolsEmb[20][0]                
__________________________________________________________________________________________________
flatten_64 (Flatten)            (None, 231)          0           tokenEmb[21][0]                  
__________________________________________________________________________________________________
flatten_65 (Flatten)            (None, 96)           0           affixeseEmb[21][0]               
__________________________________________________________________________________________________
flatten_66 (Flatten)            (None, 8)            0           symbolsEmb[21][0]                
__________________________________________________________________________________________________
SyntacticLabelEmb (Embedding)   (None, 12, 14)       476         SyntacticLabels[0][0]            
__________________________________________________________________________________________________
concatenate_6 (Concatenate)     (None, 335)          0           flatten_13[0][0]                 
                                                                 flatten_14[0][0]                 
                                                                 flatten_15[0][0]                 
__________________________________________________________________________________________________
concatenate_7 (Concatenate)     (None, 335)          0           flatten_16[0][0]                 
                                                                 flatten_17[0][0]                 
                                                                 flatten_18[0][0]                 
__________________________________________________________________________________________________
concatenate_8 (Concatenate)     (None, 335)          0           flatten_19[0][0]                 
                                                                 flatten_20[0][0]                 
                                                                 flatten_21[0][0]                 
__________________________________________________________________________________________________
concatenate_9 (Concatenate)     (None, 335)          0           flatten_22[0][0]                 
                                                                 flatten_23[0][0]                 
                                                                 flatten_24[0][0]                 
__________________________________________________________________________________________________
concatenate_10 (Concatenate)    (None, 335)          0           flatten_25[0][0]                 
                                                                 flatten_26[0][0]                 
                                                                 flatten_27[0][0]                 
__________________________________________________________________________________________________
concatenate_11 (Concatenate)    (None, 335)          0           flatten_28[0][0]                 
                                                                 flatten_29[0][0]                 
                                                                 flatten_30[0][0]                 
__________________________________________________________________________________________________
concatenate_12 (Concatenate)    (None, 335)          0           flatten_31[0][0]                 
                                                                 flatten_32[0][0]                 
                                                                 flatten_33[0][0]                 
__________________________________________________________________________________________________
concatenate_13 (Concatenate)    (None, 335)          0           flatten_34[0][0]                 
                                                                 flatten_35[0][0]                 
                                                                 flatten_36[0][0]                 
__________________________________________________________________________________________________
concatenate_14 (Concatenate)    (None, 335)          0           flatten_37[0][0]                 
                                                                 flatten_38[0][0]                 
                                                                 flatten_39[0][0]                 
__________________________________________________________________________________________________
concatenate_15 (Concatenate)    (None, 335)          0           flatten_40[0][0]                 
                                                                 flatten_41[0][0]                 
                                                                 flatten_42[0][0]                 
__________________________________________________________________________________________________
concatenate_16 (Concatenate)    (None, 335)          0           flatten_43[0][0]                 
                                                                 flatten_44[0][0]                 
                                                                 flatten_45[0][0]                 
__________________________________________________________________________________________________
concatenate_17 (Concatenate)    (None, 335)          0           flatten_46[0][0]                 
                                                                 flatten_47[0][0]                 
                                                                 flatten_48[0][0]                 
__________________________________________________________________________________________________
concatenate_18 (Concatenate)    (None, 335)          0           flatten_49[0][0]                 
                                                                 flatten_50[0][0]                 
                                                                 flatten_51[0][0]                 
__________________________________________________________________________________________________
concatenate_19 (Concatenate)    (None, 335)          0           flatten_52[0][0]                 
                                                                 flatten_53[0][0]                 
                                                                 flatten_54[0][0]                 
__________________________________________________________________________________________________
concatenate_20 (Concatenate)    (None, 335)          0           flatten_55[0][0]                 
                                                                 flatten_56[0][0]                 
                                                                 flatten_57[0][0]                 
__________________________________________________________________________________________________
concatenate_21 (Concatenate)    (None, 335)          0           flatten_58[0][0]                 
                                                                 flatten_59[0][0]                 
                                                                 flatten_60[0][0]                 
__________________________________________________________________________________________________
concatenate_22 (Concatenate)    (None, 335)          0           flatten_61[0][0]                 
                                                                 flatten_62[0][0]                 
                                                                 flatten_63[0][0]                 
__________________________________________________________________________________________________
concatenate_23 (Concatenate)    (None, 335)          0           flatten_64[0][0]                 
                                                                 flatten_65[0][0]                 
                                                                 flatten_66[0][0]                 
__________________________________________________________________________________________________
flatten_67 (Flatten)            (None, 168)          0           SyntacticLabelEmb[0][0]          
__________________________________________________________________________________________________
posDense (Dense)                (None, 107)          35952       concatenate_6[0][0]              
                                                                 concatenate_7[0][0]              
                                                                 concatenate_8[0][0]              
                                                                 concatenate_9[0][0]              
                                                                 concatenate_10[0][0]             
…
__________________________________________________________________________________________________

__________________________________________________________________________________________________
	Optimizer : Adagrad,  learning rate = 0.086
__________________________________________________________________________________________________
__________________________________________________________________________________________________
Layer (type)                    Output Shape         Param #     Connected to                     
==================================================================================================
b0Tokens (InputLayer)           (None, 7)            0                                            
__________________________________________________________________________________________________
b0Affixes (InputLayer)          (None, 12)           0                                            
__________________________________________________________________________________________________
b0Symbols (InputLayer)          (None, 1)            0                                            
__________________________________________________________________________________________________
b1Tokens (InputLayer)           (None, 7)            0                                            
__________________________________________________________________________________________________
b1Affixes (InputLayer)          (None, 12)           0                                            
__________________________________________________________________________________________________
b1Symbols (InputLayer)          (None, 1)            0                                            
__________________________________________________________________________________________________
b2Tokens (InputLayer)           (None, 7)            0                                            
__________________________________________________________________________________________________
b2Affixes (InputLayer)          (None, 12)           0                                            
__________________________________________________________________________________________________
b2Symbols (InputLayer)          (None, 1)            0                                            
__________________________________________________________________________________________________
s0Tokens (InputLayer)           (None, 7)            0                                            
__________________________________________________________________________________________________
s0Affixes (InputLayer)          (None, 12)           0                                            
__________________________________________________________________________________________________
s0Symbols (InputLayer)          (None, 1)            0                                            
__________________________________________________________________________________________________
s1Tokens (InputLayer)           (None, 7)            0                                            
__________________________________________________________________________________________________
s1Affixes (InputLayer)          (None, 12)           0                                            
__________________________________________________________________________________________________
s1Symbols (InputLayer)          (None, 1)            0                                            
__________________________________________________________________________________________________
s2Tokens (InputLayer)           (None, 7)            0                                            
__________________________________________________________________________________________________
s2Affixes (InputLayer)          (None, 12)           0                                            
__________________________________________________________________________________________________
s2Symbols (InputLayer)          (None, 1)            0                                            
__________________________________________________________________________________________________
LM1(S1)Tokens (InputLayer)      (None, 7)            0                                            
__________________________________________________________________________________________________
LM1(S1)Affixes (InputLayer)     (None, 12)           0                                            
__________________________________________________________________________________________________
LM1(S1)Symbols (InputLayer)     (None, 1)            0                                            
__________________________________________________________________________________________________
LM2(S1)Tokens (InputLayer)      (None, 7)            0                                            
__________________________________________________________________________________________________
LM2(S1)Affixes (InputLayer)     (None, 12)           0                                            
__________________________________________________________________________________________________
LM2(S1)Symbols (InputLayer)     (None, 1)            0                                            
__________________________________________________________________________________________________
LM1(S0)Tokens (InputLayer)      (None, 7)            0                                            
__________________________________________________________________________________________________
LM1(S0)Affixes (InputLayer)     (None, 12)           0                                            
__________________________________________________________________________________________________
LM1(S0)Symbols (InputLayer)     (None, 1)            0                                            
__________________________________________________________________________________________________
LM2(S0)Tokens (InputLayer)      (None, 7)            0                                            
__________________________________________________________________________________________________
LM2(S0)Affixes (InputLayer)     (None, 12)           0                                            
__________________________________________________________________________________________________
LM2(S0)Symbols (InputLayer)     (None, 1)            0                                            
__________________________________________________________________________________________________
RM1(S1)Tokens (InputLayer)      (None, 7)            0                                            
__________________________________________________________________________________________________
RM1(S1)Affixes (InputLayer)     (None, 12)           0                                            
__________________________________________________________________________________________________
RM1(S1)Symbols (InputLayer)     (None, 1)            0                                            
__________________________________________________________________________________________________
RM2(S1)Tokens (InputLayer)      (None, 7)            0                                            
__________________________________________________________________________________________________
RM2(S1)Affixes (InputLayer)     (None, 12)           0                                            
__________________________________________________________________________________________________
RM2(S1)Symbols (InputLayer)     (None, 1)            0                                            
__________________________________________________________________________________________________
RM1(S0)Tokens (InputLayer)      (None, 7)            0                                            
__________________________________________________________________________________________________
RM1(S0)Affixes (InputLayer)     (None, 12)           0                                            
__________________________________________________________________________________________________
RM1(S0)Symbols (InputLayer)     (None, 1)            0                                            
__________________________________________________________________________________________________
RM2(S0)Tokens (InputLayer)      (None, 7)            0                                            
__________________________________________________________________________________________________
RM2(S0)Affixes (InputLayer)     (None, 12)           0                                            
__________________________________________________________________________________________________
RM2(S0)Symbols (InputLayer)     (None, 1)            0                                            
__________________________________________________________________________________________________
LMLM(S1)Tokens (InputLayer)     (None, 7)            0                                            
__________________________________________________________________________________________________
LMLM(S1)Affixes (InputLayer)    (None, 12)           0                                            
__________________________________________________________________________________________________
LMLM(S1)Symbols (InputLayer)    (None, 1)            0                                            
__________________________________________________________________________________________________
RMRM(S1)Tokens (InputLayer)     (None, 7)            0                                            
__________________________________________________________________________________________________
RMRM(S1)Affixes (InputLayer)    (None, 12)           0                                            
__________________________________________________________________________________________________
RMRM(S1)Symbols (InputLayer)    (None, 1)            0                                            
__________________________________________________________________________________________________
LMLM(S0)Tokens (InputLayer)     (None, 7)            0                                            
__________________________________________________________________________________________________
LMLM(S0)Affixes (InputLayer)    (None, 12)           0                                            
__________________________________________________________________________________________________
LMLM(S0)Symbols (InputLayer)    (None, 1)            0                                            
__________________________________________________________________________________________________
RMRM(S0)Tokens (InputLayer)     (None, 7)            0                                            
__________________________________________________________________________________________________
RMRM(S0)Affixes (InputLayer)    (None, 12)           0                                            
__________________________________________________________________________________________________
RMRM(S0)Symbols (InputLayer)    (None, 1)            0                                            
__________________________________________________________________________________________________
tokenEmb (Embedding)            (None, 7, 33)        399432      b0Tokens[0][0]                   
                                                                 b1Tokens[0][0]                   
                                                                 b2Tokens[0][0]                   
                                                                 s0Tokens[0][0]                   
                                                                 s1Tokens[0][0]                   
…
                                                                 RM2(S0)Symbols[0][0]             
                                                                 LMLM(S1)Symbols[0][0]            
                                                                 RMRM(S1)Symbols[0][0]            
                                                                 LMLM(S0)Symbols[0][0]            
                                                                 RMRM(S0)Symbols[0][0]            
__________________________________________________________________________________________________
SyntacticLabels (InputLayer)    (None, 12)           0                                            
__________________________________________________________________________________________________
flatten_80 (Flatten)            (None, 231)          0           tokenEmb[4][0]                   
__________________________________________________________________________________________________
flatten_81 (Flatten)            (None, 96)           0           affixeseEmb[4][0]                
__________________________________________________________________________________________________
flatten_82 (Flatten)            (None, 8)            0           symbolsEmb[4][0]                 
__________________________________________________________________________________________________
flatten_83 (Flatten)            (None, 231)          0           tokenEmb[5][0]                   
__________________________________________________________________________________________________
flatten_84 (Flatten)            (None, 96)           0           affixeseEmb[5][0]                
__________________________________________________________________________________________________
flatten_85 (Flatten)            (None, 8)            0           symbolsEmb[5][0]                 
__________________________________________________________________________________________________
flatten_86 (Flatten)            (None, 231)          0           tokenEmb[6][0]                   
__________________________________________________________________________________________________
flatten_87 (Flatten)            (None, 96)           0           affixeseEmb[6][0]                
__________________________________________________________________________________________________
flatten_88 (Flatten)            (None, 8)            0           symbolsEmb[6][0]                 
__________________________________________________________________________________________________
flatten_89 (Flatten)            (None, 231)          0           tokenEmb[7][0]                   
__________________________________________________________________________________________________
flatten_90 (Flatten)            (None, 96)           0           affixeseEmb[7][0]                
__________________________________________________________________________________________________
flatten_91 (Flatten)            (None, 8)            0           symbolsEmb[7][0]                 
__________________________________________________________________________________________________
flatten_92 (Flatten)            (None, 231)          0           tokenEmb[8][0]                   
__________________________________________________________________________________________________
flatten_93 (Flatten)            (None, 96)           0           affixeseEmb[8][0]                
__________________________________________________________________________________________________
flatten_94 (Flatten)            (None, 8)            0           symbolsEmb[8][0]                 
__________________________________________________________________________________________________
flatten_95 (Flatten)            (None, 231)          0           tokenEmb[9][0]                   
__________________________________________________________________________________________________
flatten_96 (Flatten)            (None, 96)           0           affixeseEmb[9][0]                
__________________________________________________________________________________________________
flatten_97 (Flatten)            (None, 8)            0           symbolsEmb[9][0]                 
__________________________________________________________________________________________________
flatten_98 (Flatten)            (None, 231)          0           tokenEmb[10][0]                  
__________________________________________________________________________________________________
flatten_99 (Flatten)            (None, 96)           0           affixeseEmb[10][0]               
__________________________________________________________________________________________________
flatten_100 (Flatten)           (None, 8)            0           symbolsEmb[10][0]                
__________________________________________________________________________________________________
flatten_101 (Flatten)           (None, 231)          0           tokenEmb[11][0]                  
__________________________________________________________________________________________________
flatten_102 (Flatten)           (None, 96)           0           affixeseEmb[11][0]               
__________________________________________________________________________________________________
flatten_103 (Flatten)           (None, 8)            0           symbolsEmb[11][0]                
__________________________________________________________________________________________________
flatten_104 (Flatten)           (None, 231)          0           tokenEmb[12][0]                  
__________________________________________________________________________________________________
flatten_105 (Flatten)           (None, 96)           0           affixeseEmb[12][0]               
__________________________________________________________________________________________________
flatten_106 (Flatten)           (None, 8)            0           symbolsEmb[12][0]                
__________________________________________________________________________________________________
flatten_107 (Flatten)           (None, 231)          0           tokenEmb[13][0]                  
__________________________________________________________________________________________________
flatten_108 (Flatten)           (None, 96)           0           affixeseEmb[13][0]               
__________________________________________________________________________________________________
flatten_109 (Flatten)           (None, 8)            0           symbolsEmb[13][0]                
__________________________________________________________________________________________________
flatten_110 (Flatten)           (None, 231)          0           tokenEmb[14][0]                  
__________________________________________________________________________________________________
flatten_111 (Flatten)           (None, 96)           0           affixeseEmb[14][0]               
__________________________________________________________________________________________________
flatten_112 (Flatten)           (None, 8)            0           symbolsEmb[14][0]                
__________________________________________________________________________________________________
flatten_113 (Flatten)           (None, 231)          0           tokenEmb[15][0]                  
__________________________________________________________________________________________________
flatten_114 (Flatten)           (None, 96)           0           affixeseEmb[15][0]               
__________________________________________________________________________________________________
flatten_115 (Flatten)           (None, 8)            0           symbolsEmb[15][0]                
__________________________________________________________________________________________________
flatten_116 (Flatten)           (None, 231)          0           tokenEmb[16][0]                  
__________________________________________________________________________________________________
flatten_117 (Flatten)           (None, 96)           0           affixeseEmb[16][0]               
__________________________________________________________________________________________________
flatten_118 (Flatten)           (None, 8)            0           symbolsEmb[16][0]                
__________________________________________________________________________________________________
flatten_119 (Flatten)           (None, 231)          0           tokenEmb[17][0]                  
__________________________________________________________________________________________________
flatten_120 (Flatten)           (None, 96)           0           affixeseEmb[17][0]               
__________________________________________________________________________________________________
flatten_121 (Flatten)           (None, 8)            0           symbolsEmb[17][0]                
__________________________________________________________________________________________________
flatten_122 (Flatten)           (None, 231)          0           tokenEmb[18][0]                  
__________________________________________________________________________________________________
flatten_123 (Flatten)           (None, 96)           0           affixeseEmb[18][0]               
__________________________________________________________________________________________________
flatten_124 (Flatten)           (None, 8)            0           symbolsEmb[18][0]                
__________________________________________________________________________________________________
flatten_125 (Flatten)           (None, 231)          0           tokenEmb[19][0]                  
__________________________________________________________________________________________________
flatten_126 (Flatten)           (None, 96)           0           affixeseEmb[19][0]               
__________________________________________________________________________________________________
flatten_127 (Flatten)           (None, 8)            0           symbolsEmb[19][0]                
__________________________________________________________________________________________________
flatten_128 (Flatten)           (None, 231)          0           tokenEmb[20][0]                  
__________________________________________________________________________________________________
flatten_129 (Flatten)           (None, 96)           0           affixeseEmb[20][0]               
__________________________________________________________________________________________________
flatten_130 (Flatten)           (None, 8)            0           symbolsEmb[20][0]                
__________________________________________________________________________________________________
flatten_131 (Flatten)           (None, 231)          0           tokenEmb[21][0]                  
__________________________________________________________________________________________________
flatten_132 (Flatten)           (None, 96)           0           affixeseEmb[21][0]               
__________________________________________________________________________________________________
flatten_133 (Flatten)           (None, 8)            0           symbolsEmb[21][0]                
__________________________________________________________________________________________________
SyntacticLabelEmb (Embedding)   (None, 12, 14)       630         SyntacticLabels[0][0]            
__________________________________________________________________________________________________
concatenate_30 (Concatenate)    (None, 335)          0           flatten_80[0][0]                 
                                                                 flatten_81[0][0]                 
                                                                 flatten_82[0][0]                 
__________________________________________________________________________________________________
concatenate_31 (Concatenate)    (None, 335)          0           flatten_83[0][0]                 
                                                                 flatten_84[0][0]                 
                                                                 flatten_85[0][0]                 
__________________________________________________________________________________________________
concatenate_32 (Concatenate)    (None, 335)          0           flatten_86[0][0]                 
                                                                 flatten_87[0][0]                 
                                                                 flatten_88[0][0]                 
__________________________________________________________________________________________________
concatenate_33 (Concatenate)    (None, 335)          0           flatten_89[0][0]                 
                                                                 flatten_90[0][0]                 
                                                                 flatten_91[0][0]                 
__________________________________________________________________________________________________
concatenate_34 (Concatenate)    (None, 335)          0           flatten_92[0][0]                 
                                                                 flatten_93[0][0]                 
                                                                 flatten_94[0][0]                 
__________________________________________________________________________________________________
concatenate_35 (Concatenate)    (None, 335)          0           flatten_95[0][0]                 
                                                                 flatten_96[0][0]                 
                                                                 flatten_97[0][0]                 
__________________________________________________________________________________________________
concatenate_36 (Concatenate)    (None, 335)          0           flatten_98[0][0]                 
                                                                 flatten_99[0][0]                 
                                                                 flatten_100[0][0]                
__________________________________________________________________________________________________
concatenate_37 (Concatenate)    (None, 335)          0           flatten_101[0][0]                
                                                                 flatten_102[0][0]                
                                                                 flatten_103[0][0]                
__________________________________________________________________________________________________
concatenate_38 (Concatenate)    (None, 335)          0           flatten_104[0][0]                
                                                                 flatten_105[0][0]                
                                                                 flatten_106[0][0]                
__________________________________________________________________________________________________
concatenate_39 (Concatenate)    (None, 335)          0           flatten_107[0][0]                
                                                                 flatten_108[0][0]                
                                                                 flatten_109[0][0]                
__________________________________________________________________________________________________
concatenate_40 (Concatenate)    (None, 335)          0           flatten_110[0][0]                
                                                                 flatten_111[0][0]                
                                                                 flatten_112[0][0]                
__________________________________________________________________________________________________
concatenate_41 (Concatenate)    (None, 335)          0           flatten_113[0][0]                
                                                                 flatten_114[0][0]                
                                                                 flatten_115[0][0]                
__________________________________________________________________________________________________
concatenate_42 (Concatenate)    (None, 335)          0           flatten_116[0][0]                
                                                                 flatten_117[0][0]                
                                                                 flatten_118[0][0]                
__________________________________________________________________________________________________
concatenate_43 (Concatenate)    (None, 335)          0           flatten_119[0][0]                
                                                                 flatten_120[0][0]                
                                                                 flatten_121[0][0]                
__________________________________________________________________________________________________
concatenate_44 (Concatenate)    (None, 335)          0           flatten_122[0][0]                
                                                                 flatten_123[0][0]                
                                                                 flatten_124[0][0]                
__________________________________________________________________________________________________
concatenate_45 (Concatenate)    (None, 335)          0           flatten_125[0][0]                
                                                                 flatten_126[0][0]                
                                                                 flatten_127[0][0]                
__________________________________________________________________________________________________
concatenate_46 (Concatenate)    (None, 335)          0           flatten_128[0][0]                
                                                                 flatten_129[0][0]                
                                                                 flatten_130[0][0]                
__________________________________________________________________________________________________
concatenate_47 (Concatenate)    (None, 335)          0           flatten_131[0][0]                
                                                                 flatten_132[0][0]                
                                                                 flatten_133[0][0]                
__________________________________________________________________________________________________
flatten_134 (Flatten)           (None, 168)          0           SyntacticLabelEmb[0][0]          
__________________________________________________________________________________________________
posDense (Dense)                (None, 107)          35952       concatenate_30[0][0]             
                                                                 concatenate_31[0][0]             
                                                                 concatenate_32[0][0]             
                                                                 concatenate_33[0][0]             
                                                                 concatenate_34[0][0]             
…
__________________________________________________________________________________________________

__________________________________________________________________________________________________
	Optimizer : Adagrad,  learning rate = 0.086
__________________________________________________________________________________________________
__________________________________________________________________________________________________
Layer (type)                    Output Shape         Param #     Connected to                     
==================================================================================================
b0Tokens (InputLayer)           (None, 7)            0                                            
__________________________________________________________________________________________________
b0Affixes (InputLayer)          (None, 12)           0                                            
__________________________________________________________________________________________________
b0Symbols (InputLayer)          (None, 1)            0                                            
__________________________________________________________________________________________________
b1Tokens (InputLayer)           (None, 7)            0                                            
__________________________________________________________________________________________________
b1Affixes (InputLayer)          (None, 12)           0                                            
__________________________________________________________________________________________________
b1Symbols (InputLayer)          (None, 1)            0                                            
__________________________________________________________________________________________________
b2Tokens (InputLayer)           (None, 7)            0                                            
__________________________________________________________________________________________________
b2Affixes (InputLayer)          (None, 12)           0                                            
__________________________________________________________________________________________________
b2Symbols (InputLayer)          (None, 1)            0                                            
__________________________________________________________________________________________________
s0Tokens (InputLayer)           (None, 7)            0                                            
__________________________________________________________________________________________________
s0Affixes (InputLayer)          (None, 12)           0                                            
__________________________________________________________________________________________________
s0Symbols (InputLayer)          (None, 1)            0                                            
__________________________________________________________________________________________________
s1Tokens (InputLayer)           (None, 7)            0                                            
__________________________________________________________________________________________________
s1Affixes (InputLayer)          (None, 12)           0                                            
__________________________________________________________________________________________________
s1Symbols (InputLayer)          (None, 1)            0                                            
__________________________________________________________________________________________________
s2Tokens (InputLayer)           (None, 7)            0                                            
__________________________________________________________________________________________________
s2Affixes (InputLayer)          (None, 12)           0                                            
__________________________________________________________________________________________________
s2Symbols (InputLayer)          (None, 1)            0                                            
__________________________________________________________________________________________________
LM1(S1)Tokens (InputLayer)      (None, 7)            0                                            
__________________________________________________________________________________________________
LM1(S1)Affixes (InputLayer)     (None, 12)           0                                            
__________________________________________________________________________________________________
LM1(S1)Symbols (InputLayer)     (None, 1)            0                                            
__________________________________________________________________________________________________
LM2(S1)Tokens (InputLayer)      (None, 7)            0                                            
__________________________________________________________________________________________________
LM2(S1)Affixes (InputLayer)     (None, 12)           0                                            
__________________________________________________________________________________________________
LM2(S1)Symbols (InputLayer)     (None, 1)            0                                            
__________________________________________________________________________________________________
LM1(S0)Tokens (InputLayer)      (None, 7)            0                                            
__________________________________________________________________________________________________
LM1(S0)Affixes (InputLayer)     (None, 12)           0                                            
__________________________________________________________________________________________________
LM1(S0)Symbols (InputLayer)     (None, 1)            0                                            
__________________________________________________________________________________________________
LM2(S0)Tokens (InputLayer)      (None, 7)            0                                            
__________________________________________________________________________________________________
LM2(S0)Affixes (InputLayer)     (None, 12)           0                                            
__________________________________________________________________________________________________
LM2(S0)Symbols (InputLayer)     (None, 1)            0                                            
__________________________________________________________________________________________________
RM1(S1)Tokens (InputLayer)      (None, 7)            0                                            
__________________________________________________________________________________________________
RM1(S1)Affixes (InputLayer)     (None, 12)           0                                            
__________________________________________________________________________________________________
RM1(S1)Symbols (InputLayer)     (None, 1)            0                                            
__________________________________________________________________________________________________
RM2(S1)Tokens (InputLayer)      (None, 7)            0                                            
__________________________________________________________________________________________________
RM2(S1)Affixes (InputLayer)     (None, 12)           0                                            
__________________________________________________________________________________________________
RM2(S1)Symbols (InputLayer)     (None, 1)            0                                            
__________________________________________________________________________________________________
RM1(S0)Tokens (InputLayer)      (None, 7)            0                                            
__________________________________________________________________________________________________
RM1(S0)Affixes (InputLayer)     (None, 12)           0                                            
__________________________________________________________________________________________________
RM1(S0)Symbols (InputLayer)     (None, 1)            0                                            
__________________________________________________________________________________________________
RM2(S0)Tokens (InputLayer)      (None, 7)            0                                            
__________________________________________________________________________________________________
RM2(S0)Affixes (InputLayer)     (None, 12)           0                                            
__________________________________________________________________________________________________
RM2(S0)Symbols (InputLayer)     (None, 1)            0                                            
__________________________________________________________________________________________________
LMLM(S1)Tokens (InputLayer)     (None, 7)            0                                            
__________________________________________________________________________________________________
LMLM(S1)Affixes (InputLayer)    (None, 12)           0                                            
__________________________________________________________________________________________________
LMLM(S1)Symbols (InputLayer)    (None, 1)            0                                            
__________________________________________________________________________________________________
RMRM(S1)Tokens (InputLayer)     (None, 7)            0                                            
__________________________________________________________________________________________________
RMRM(S1)Affixes (InputLayer)    (None, 12)           0                                            
__________________________________________________________________________________________________
RMRM(S1)Symbols (InputLayer)    (None, 1)            0                                            
__________________________________________________________________________________________________
LMLM(S0)Tokens (InputLayer)     (None, 7)            0                                            
__________________________________________________________________________________________________
LMLM(S0)Affixes (InputLayer)    (None, 12)           0                                            
__________________________________________________________________________________________________
LMLM(S0)Symbols (InputLayer)    (None, 1)            0                                            
__________________________________________________________________________________________________
RMRM(S0)Tokens (InputLayer)     (None, 7)            0                                            
__________________________________________________________________________________________________
RMRM(S0)Affixes (InputLayer)    (None, 12)           0                                            
__________________________________________________________________________________________________
RMRM(S0)Symbols (InputLayer)    (None, 1)            0                                            
__________________________________________________________________________________________________
tokenEmb (Embedding)            (None, 7, 33)        982905      b0Tokens[0][0]                   
                                                                 b1Tokens[0][0]                   
                                                                 b2Tokens[0][0]                   
                                                                 s0Tokens[0][0]                   
                                                                 s1Tokens[0][0]                   
…
                                                                 RM2(S0)Symbols[0][0]             
                                                                 LMLM(S1)Symbols[0][0]            
                                                                 RMRM(S1)Symbols[0][0]            
                                                                 LMLM(S0)Symbols[0][0]            
                                                                 RMRM(S0)Symbols[0][0]            
__________________________________________________________________________________________________
SyntacticLabels (InputLayer)    (None, 12)           0                                            
__________________________________________________________________________________________________
flatten_147 (Flatten)           (None, 231)          0           tokenEmb[4][0]                   
__________________________________________________________________________________________________
flatten_148 (Flatten)           (None, 96)           0           affixeseEmb[4][0]                
__________________________________________________________________________________________________
flatten_149 (Flatten)           (None, 8)            0           symbolsEmb[4][0]                 
__________________________________________________________________________________________________
flatten_150 (Flatten)           (None, 231)          0           tokenEmb[5][0]                   
__________________________________________________________________________________________________
flatten_151 (Flatten)           (None, 96)           0           affixeseEmb[5][0]                
__________________________________________________________________________________________________
flatten_152 (Flatten)           (None, 8)            0           symbolsEmb[5][0]                 
__________________________________________________________________________________________________
flatten_153 (Flatten)           (None, 231)          0           tokenEmb[6][0]                   
__________________________________________________________________________________________________
flatten_154 (Flatten)           (None, 96)           0           affixeseEmb[6][0]                
__________________________________________________________________________________________________
flatten_155 (Flatten)           (None, 8)            0           symbolsEmb[6][0]                 
__________________________________________________________________________________________________
flatten_156 (Flatten)           (None, 231)          0           tokenEmb[7][0]                   
__________________________________________________________________________________________________
flatten_157 (Flatten)           (None, 96)           0           affixeseEmb[7][0]                
__________________________________________________________________________________________________
flatten_158 (Flatten)           (None, 8)            0           symbolsEmb[7][0]                 
__________________________________________________________________________________________________
flatten_159 (Flatten)           (None, 231)          0           tokenEmb[8][0]                   
__________________________________________________________________________________________________
flatten_160 (Flatten)           (None, 96)           0           affixeseEmb[8][0]                
__________________________________________________________________________________________________
flatten_161 (Flatten)           (None, 8)            0           symbolsEmb[8][0]                 
__________________________________________________________________________________________________
flatten_162 (Flatten)           (None, 231)          0           tokenEmb[9][0]                   
__________________________________________________________________________________________________
flatten_163 (Flatten)           (None, 96)           0           affixeseEmb[9][0]                
__________________________________________________________________________________________________
flatten_164 (Flatten)           (None, 8)            0           symbolsEmb[9][0]                 
__________________________________________________________________________________________________
flatten_165 (Flatten)           (None, 231)          0           tokenEmb[10][0]                  
__________________________________________________________________________________________________
flatten_166 (Flatten)           (None, 96)           0           affixeseEmb[10][0]               
__________________________________________________________________________________________________
flatten_167 (Flatten)           (None, 8)            0           symbolsEmb[10][0]                
__________________________________________________________________________________________________
flatten_168 (Flatten)           (None, 231)          0           tokenEmb[11][0]                  
__________________________________________________________________________________________________
flatten_169 (Flatten)           (None, 96)           0           affixeseEmb[11][0]               
__________________________________________________________________________________________________
flatten_170 (Flatten)           (None, 8)            0           symbolsEmb[11][0]                
__________________________________________________________________________________________________
flatten_171 (Flatten)           (None, 231)          0           tokenEmb[12][0]                  
__________________________________________________________________________________________________
flatten_172 (Flatten)           (None, 96)           0           affixeseEmb[12][0]               
__________________________________________________________________________________________________
flatten_173 (Flatten)           (None, 8)            0           symbolsEmb[12][0]                
__________________________________________________________________________________________________
flatten_174 (Flatten)           (None, 231)          0           tokenEmb[13][0]                  
__________________________________________________________________________________________________
flatten_175 (Flatten)           (None, 96)           0           affixeseEmb[13][0]               
__________________________________________________________________________________________________
flatten_176 (Flatten)           (None, 8)            0           symbolsEmb[13][0]                
__________________________________________________________________________________________________
flatten_177 (Flatten)           (None, 231)          0           tokenEmb[14][0]                  
__________________________________________________________________________________________________
flatten_178 (Flatten)           (None, 96)           0           affixeseEmb[14][0]               
__________________________________________________________________________________________________
flatten_179 (Flatten)           (None, 8)            0           symbolsEmb[14][0]                
__________________________________________________________________________________________________
flatten_180 (Flatten)           (None, 231)          0           tokenEmb[15][0]                  
__________________________________________________________________________________________________
flatten_181 (Flatten)           (None, 96)           0           affixeseEmb[15][0]               
__________________________________________________________________________________________________
flatten_182 (Flatten)           (None, 8)            0           symbolsEmb[15][0]                
__________________________________________________________________________________________________
flatten_183 (Flatten)           (None, 231)          0           tokenEmb[16][0]                  
__________________________________________________________________________________________________
flatten_184 (Flatten)           (None, 96)           0           affixeseEmb[16][0]               
__________________________________________________________________________________________________
flatten_185 (Flatten)           (None, 8)            0           symbolsEmb[16][0]                
__________________________________________________________________________________________________
flatten_186 (Flatten)           (None, 231)          0           tokenEmb[17][0]                  
__________________________________________________________________________________________________
flatten_187 (Flatten)           (None, 96)           0           affixeseEmb[17][0]               
__________________________________________________________________________________________________
flatten_188 (Flatten)           (None, 8)            0           symbolsEmb[17][0]                
__________________________________________________________________________________________________
flatten_189 (Flatten)           (None, 231)          0           tokenEmb[18][0]                  
__________________________________________________________________________________________________
flatten_190 (Flatten)           (None, 96)           0           affixeseEmb[18][0]               
__________________________________________________________________________________________________
flatten_191 (Flatten)           (None, 8)            0           symbolsEmb[18][0]                
__________________________________________________________________________________________________
flatten_192 (Flatten)           (None, 231)          0           tokenEmb[19][0]                  
__________________________________________________________________________________________________
flatten_193 (Flatten)           (None, 96)           0           affixeseEmb[19][0]               
__________________________________________________________________________________________________
flatten_194 (Flatten)           (None, 8)            0           symbolsEmb[19][0]                
__________________________________________________________________________________________________
flatten_195 (Flatten)           (None, 231)          0           tokenEmb[20][0]                  
__________________________________________________________________________________________________
flatten_196 (Flatten)           (None, 96)           0           affixeseEmb[20][0]               
__________________________________________________________________________________________________
flatten_197 (Flatten)           (None, 8)            0           symbolsEmb[20][0]                
__________________________________________________________________________________________________
flatten_198 (Flatten)           (None, 231)          0           tokenEmb[21][0]                  
__________________________________________________________________________________________________
flatten_199 (Flatten)           (None, 96)           0           affixeseEmb[21][0]               
__________________________________________________________________________________________________
flatten_200 (Flatten)           (None, 8)            0           symbolsEmb[21][0]                
__________________________________________________________________________________________________
SyntacticLabelEmb (Embedding)   (None, 12, 14)       238         SyntacticLabels[0][0]            
__________________________________________________________________________________________________
concatenate_54 (Concatenate)    (None, 335)          0           flatten_147[0][0]                
                                                                 flatten_148[0][0]                
                                                                 flatten_149[0][0]                
__________________________________________________________________________________________________
concatenate_55 (Concatenate)    (None, 335)          0           flatten_150[0][0]                
                                                                 flatten_151[0][0]                
                                                                 flatten_152[0][0]                
__________________________________________________________________________________________________
concatenate_56 (Concatenate)    (None, 335)          0           flatten_153[0][0]                
                                                                 flatten_154[0][0]                
                                                                 flatten_155[0][0]                
__________________________________________________________________________________________________
concatenate_57 (Concatenate)    (None, 335)          0           flatten_156[0][0]                
                                                                 flatten_157[0][0]                
                                                                 flatten_158[0][0]                
__________________________________________________________________________________________________
concatenate_58 (Concatenate)    (None, 335)          0           flatten_159[0][0]                
                                                                 flatten_160[0][0]                
                                                                 flatten_161[0][0]                
__________________________________________________________________________________________________
concatenate_59 (Concatenate)    (None, 335)          0           flatten_162[0][0]                
                                                                 flatten_163[0][0]                
                                                                 flatten_164[0][0]                
__________________________________________________________________________________________________
concatenate_60 (Concatenate)    (None, 335)          0           flatten_165[0][0]                
                                                                 flatten_166[0][0]                
                                                                 flatten_167[0][0]                
__________________________________________________________________________________________________
concatenate_61 (Concatenate)    (None, 335)          0           flatten_168[0][0]                
                                                                 flatten_169[0][0]                
                                                                 flatten_170[0][0]                
__________________________________________________________________________________________________
concatenate_62 (Concatenate)    (None, 335)          0           flatten_171[0][0]                
                                                                 flatten_172[0][0]                
                                                                 flatten_173[0][0]                
__________________________________________________________________________________________________
concatenate_63 (Concatenate)    (None, 335)          0           flatten_174[0][0]                
                                                                 flatten_175[0][0]                
                                                                 flatten_176[0][0]                
__________________________________________________________________________________________________
concatenate_64 (Concatenate)    (None, 335)          0           flatten_177[0][0]                
                                                                 flatten_178[0][0]                
                                                                 flatten_179[0][0]                
__________________________________________________________________________________________________
concatenate_65 (Concatenate)    (None, 335)          0           flatten_180[0][0]                
                                                                 flatten_181[0][0]                
                                                                 flatten_182[0][0]                
__________________________________________________________________________________________________
concatenate_66 (Concatenate)    (None, 335)          0           flatten_183[0][0]                
                                                                 flatten_184[0][0]                
                                                                 flatten_185[0][0]                
__________________________________________________________________________________________________
concatenate_67 (Concatenate)    (None, 335)          0           flatten_186[0][0]                
                                                                 flatten_187[0][0]                
                                                                 flatten_188[0][0]                
__________________________________________________________________________________________________
concatenate_68 (Concatenate)    (None, 335)          0           flatten_189[0][0]                
                                                                 flatten_190[0][0]                
                                                                 flatten_191[0][0]                
__________________________________________________________________________________________________
concatenate_69 (Concatenate)    (None, 335)          0           flatten_192[0][0]                
                                                                 flatten_193[0][0]                
                                                                 flatten_194[0][0]                
__________________________________________________________________________________________________
concatenate_70 (Concatenate)    (None, 335)          0           flatten_195[0][0]                
                                                                 flatten_196[0][0]                
                                                                 flatten_197[0][0]                
__________________________________________________________________________________________________
concatenate_71 (Concatenate)    (None, 335)          0           flatten_198[0][0]                
                                                                 flatten_199[0][0]                
                                                                 flatten_200[0][0]                
__________________________________________________________________________________________________
flatten_201 (Flatten)           (None, 168)          0           SyntacticLabelEmb[0][0]          
__________________________________________________________________________________________________
posDense (Dense)                (None, 107)          35952       concatenate_54[0][0]             
                                                                 concatenate_55[0][0]             
                                                                 concatenate_56[0][0]             
                                                                 concatenate_57[0][0]             
                                                                 concatenate_58[0][0]             
…
