…
==================================================================================================
	Tokens := 7545 * POS : 152
__________________________________________________________________________________________________
	Dashed keys in vocabulary 1622
	One occurrence keys in vocabulary 1622 / 7545
__________________________________________________________________________________________________
Layer (type)                    Output Shape         Param #     Connected to                     
==================================================================================================
phraseTokens (InputLayer)       (None, 50)           0                                            
__________________________________________________________________________________________________
phrasePoss (InputLayer)         (None, 50)           0                                            
__________________________________________________________________________________________________
transTokens (InputLayer)        (None, 5)            0                                            
__________________________________________________________________________________________________
transPoss (InputLayer)          (None, 5)            0                                            
__________________________________________________________________________________________________
phraseTokenEmb (Embedding)      (None, 50, 157)      1184565     phraseTokens[0][0]               
__________________________________________________________________________________________________
phrasePosEmb (Embedding)        (None, 50, 13)       1976        phrasePoss[0][0]                 
__________________________________________________________________________________________________
transTokenEmb (Embedding)       (None, 5, 38)        286710      transTokens[0][0]                
__________________________________________________________________________________________________
transPosEmb (Embedding)         (None, 5, 44)        6688        transPoss[0][0]                  
__________________________________________________________________________________________________
concatenate_1 (Concatenate)     (None, 50, 170)      0           phraseTokenEmb[0][0]             
                                                                 phrasePosEmb[0][0]               
__________________________________________________________________________________________________
transTokenFlat (Flatten)        (None, 190)          0           transTokenEmb[0][0]              
__________________________________________________________________________________________________
transPosFlat (Flatten)          (None, 220)          0           transPosEmb[0][0]                
__________________________________________________________________________________________________
phraseRnn (GRU)                 (None, 279)          376650      concatenate_1[0][0]              
__________________________________________________________________________________________________
concatenate_2 (Concatenate)     (None, 410)          0           transTokenFlat[0][0]             
                                                                 transPosFlat[0][0]               
__________________________________________________________________________________________________
concatenate_3 (Concatenate)     (None, 689)          0           phraseRnn[0][0]                  
                                                                 concatenate_2[0][0]              
__________________________________________________________________________________________________
dense_1 (Dense)                 (None, 274)          189060      concatenate_3[0][0]              
__________________________________________________________________________________________________
dense_2 (Dense)                 (None, 4)            1100        dense_1[0][0]                    
==================================================================================================
Total params: 2,046,749
Trainable params: 2,046,749
Non-trainable params: 0
__________________________________________________________________________________________________
None
__________________________________________________________________________________________________
…
==================================================================================================
	Tokens := 7241 * POS : 169
__________________________________________________________________________________________________
	Important words not in vocabulary 1
	MWE not in vocabulary 3
	Dashed keys in vocabulary 1674
	One occurrence keys in vocabulary 1674 / 7241
__________________________________________________________________________________________________
Layer (type)                    Output Shape         Param #     Connected to                     
==================================================================================================
phraseTokens (InputLayer)       (None, 50)           0                                            
__________________________________________________________________________________________________
phrasePoss (InputLayer)         (None, 50)           0                                            
__________________________________________________________________________________________________
transTokens (InputLayer)        (None, 5)            0                                            
__________________________________________________________________________________________________
transPoss (InputLayer)          (None, 5)            0                                            
__________________________________________________________________________________________________
phraseTokenEmb (Embedding)      (None, 50, 157)      1136837     phraseTokens[0][0]               
__________________________________________________________________________________________________
phrasePosEmb (Embedding)        (None, 50, 13)       2197        phrasePoss[0][0]                 
__________________________________________________________________________________________________
transTokenEmb (Embedding)       (None, 5, 38)        275158      transTokens[0][0]                
__________________________________________________________________________________________________
transPosEmb (Embedding)         (None, 5, 44)        7436        transPoss[0][0]                  
__________________________________________________________________________________________________
concatenate_4 (Concatenate)     (None, 50, 170)      0           phraseTokenEmb[0][0]             
                                                                 phrasePosEmb[0][0]               
__________________________________________________________________________________________________
transTokenFlat (Flatten)        (None, 190)          0           transTokenEmb[0][0]              
__________________________________________________________________________________________________
transPosFlat (Flatten)          (None, 220)          0           transPosEmb[0][0]                
__________________________________________________________________________________________________
phraseRnn (GRU)                 (None, 279)          376650      concatenate_4[0][0]              
__________________________________________________________________________________________________
concatenate_5 (Concatenate)     (None, 410)          0           transTokenFlat[0][0]             
                                                                 transPosFlat[0][0]               
__________________________________________________________________________________________________
concatenate_6 (Concatenate)     (None, 689)          0           phraseRnn[0][0]                  
                                                                 concatenate_5[0][0]              
__________________________________________________________________________________________________
dense_3 (Dense)                 (None, 274)          189060      concatenate_6[0][0]              
__________________________________________________________________________________________________
dense_4 (Dense)                 (None, 4)            1100        dense_3[0][0]                    
==================================================================================================
Total params: 1,988,438
Trainable params: 1,988,438
Non-trainable params: 0
__________________________________________________________________________________________________
None
__________________________________________________________________________________________________
…
==================================================================================================
	Tokens := 13793 * POS : 109
__________________________________________________________________________________________________
	Dashed keys in vocabulary 3161
	One occurrence keys in vocabulary 3161 / 13793
__________________________________________________________________________________________________
Layer (type)                    Output Shape         Param #     Connected to                     
==================================================================================================
phraseTokens (InputLayer)       (None, 50)           0                                            
__________________________________________________________________________________________________
phrasePoss (InputLayer)         (None, 50)           0                                            
__________________________________________________________________________________________________
transTokens (InputLayer)        (None, 5)            0                                            
__________________________________________________________________________________________________
transPoss (InputLayer)          (None, 5)            0                                            
__________________________________________________________________________________________________
phraseTokenEmb (Embedding)      (None, 50, 157)      2165501     phraseTokens[0][0]               
__________________________________________________________________________________________________
phrasePosEmb (Embedding)        (None, 50, 13)       1417        phrasePoss[0][0]                 
__________________________________________________________________________________________________
transTokenEmb (Embedding)       (None, 5, 38)        524134      transTokens[0][0]                
__________________________________________________________________________________________________
transPosEmb (Embedding)         (None, 5, 44)        4796        transPoss[0][0]                  
__________________________________________________________________________________________________
concatenate_7 (Concatenate)     (None, 50, 170)      0           phraseTokenEmb[0][0]             
                                                                 phrasePosEmb[0][0]               
__________________________________________________________________________________________________
transTokenFlat (Flatten)        (None, 190)          0           transTokenEmb[0][0]              
__________________________________________________________________________________________________
transPosFlat (Flatten)          (None, 220)          0           transPosEmb[0][0]                
__________________________________________________________________________________________________
phraseRnn (GRU)                 (None, 279)          376650      concatenate_7[0][0]              
__________________________________________________________________________________________________
concatenate_8 (Concatenate)     (None, 410)          0           transTokenFlat[0][0]             
                                                                 transPosFlat[0][0]               
__________________________________________________________________________________________________
concatenate_9 (Concatenate)     (None, 689)          0           phraseRnn[0][0]                  
                                                                 concatenate_8[0][0]              
__________________________________________________________________________________________________
dense_5 (Dense)                 (None, 274)          189060      concatenate_9[0][0]              
__________________________________________________________________________________________________
dense_6 (Dense)                 (None, 4)            1100        dense_5[0][0]                    
==================================================================================================
Total params: 3,262,658
Trainable params: 3,262,658
Non-trainable params: 0
__________________________________________________________________________________________________
None
__________________________________________________________________________________________________
…
	Tokens := 11438 * POS : 152
__________________________________________________________________________________________________
	Important words not in vocabulary 675
	MWE not in vocabulary 1297
	Dashed keys in vocabulary 2182
	One occurrence keys in vocabulary 2182 / 11438
__________________________________________________________________________________________________
Layer (type)                    Output Shape         Param #     Connected to                     
==================================================================================================
phraseTokens (InputLayer)       (None, 50)           0                                            
__________________________________________________________________________________________________
phrasePoss (InputLayer)         (None, 50)           0                                            
__________________________________________________________________________________________________
transTokens (InputLayer)        (None, 4)            0                                            
__________________________________________________________________________________________________
transPoss (InputLayer)          (None, 4)            0                                            
__________________________________________________________________________________________________
phraseTokenEmb (Embedding)      (None, 50, 81)       926478      phraseTokens[0][0]               
__________________________________________________________________________________________________
phrasePosEmb (Embedding)        (None, 50, 23)       3496        phrasePoss[0][0]                 
__________________________________________________________________________________________________
transTokenEmb (Embedding)       (None, 4, 25)        285950      transTokens[0][0]                
__________________________________________________________________________________________________
transPosEmb (Embedding)         (None, 4, 22)        3344        transPoss[0][0]                  
__________________________________________________________________________________________________
concatenate_10 (Concatenate)    (None, 50, 104)      0           phraseTokenEmb[0][0]             
                                                                 phrasePosEmb[0][0]               
__________________________________________________________________________________________________
transTokenFlat (Flatten)        (None, 100)          0           transTokenEmb[0][0]              
__________________________________________________________________________________________________
transPosFlat (Flatten)          (None, 88)           0           transPosEmb[0][0]                
__________________________________________________________________________________________________
phraseRnn (GRU)                 (None, 36)           15228       concatenate_10[0][0]             
__________________________________________________________________________________________________
concatenate_11 (Concatenate)    (None, 188)          0           transTokenFlat[0][0]             
                                                                 transPosFlat[0][0]               
__________________________________________________________________________________________________
concatenate_12 (Concatenate)    (None, 224)          0           phraseRnn[0][0]                  
                                                                 concatenate_11[0][0]             
__________________________________________________________________________________________________
dense_7 (Dense)                 (None, 68)           15300       concatenate_12[0][0]             
__________________________________________________________________________________________________
dense_8 (Dense)                 (None, 4)            276         dense_7[0][0]                    
==================================================================================================
Total params: 1,250,072
Trainable params: 1,250,072
Non-trainable params: 0
__________________________________________________________________________________________________
None
__________________________________________________________________________________________________
…
	Tokens := 9401 * POS : 169
__________________________________________________________________________________________________
	Important words not in vocabulary 182
	MWE not in vocabulary 1082
	Dashed keys in vocabulary 2380
	One occurrence keys in vocabulary 2380 / 9401
__________________________________________________________________________________________________
Layer (type)                    Output Shape         Param #     Connected to                     
==================================================================================================
phraseTokens (InputLayer)       (None, 50)           0                                            
__________________________________________________________________________________________________
phrasePoss (InputLayer)         (None, 50)           0                                            
__________________________________________________________________________________________________
transTokens (InputLayer)        (None, 4)            0                                            
__________________________________________________________________________________________________
transPoss (InputLayer)          (None, 4)            0                                            
__________________________________________________________________________________________________
phraseTokenEmb (Embedding)      (None, 50, 81)       761481      phraseTokens[0][0]               
__________________________________________________________________________________________________
phrasePosEmb (Embedding)        (None, 50, 23)       3887        phrasePoss[0][0]                 
__________________________________________________________________________________________________
transTokenEmb (Embedding)       (None, 4, 25)        235025      transTokens[0][0]                
__________________________________________________________________________________________________
transPosEmb (Embedding)         (None, 4, 22)        3718        transPoss[0][0]                  
__________________________________________________________________________________________________
concatenate_13 (Concatenate)    (None, 50, 104)      0           phraseTokenEmb[0][0]             
                                                                 phrasePosEmb[0][0]               
__________________________________________________________________________________________________
transTokenFlat (Flatten)        (None, 100)          0           transTokenEmb[0][0]              
__________________________________________________________________________________________________
transPosFlat (Flatten)          (None, 88)           0           transPosEmb[0][0]                
__________________________________________________________________________________________________
phraseRnn (GRU)                 (None, 36)           15228       concatenate_13[0][0]             
__________________________________________________________________________________________________
concatenate_14 (Concatenate)    (None, 188)          0           transTokenFlat[0][0]             
                                                                 transPosFlat[0][0]               
__________________________________________________________________________________________________
concatenate_15 (Concatenate)    (None, 224)          0           phraseRnn[0][0]                  
                                                                 concatenate_14[0][0]             
__________________________________________________________________________________________________
dense_9 (Dense)                 (None, 68)           15300       concatenate_15[0][0]             
__________________________________________________________________________________________________
dense_10 (Dense)                (None, 4)            276         dense_9[0][0]                    
==================================================================================================
Total params: 1,034,915
Trainable params: 1,034,915
Non-trainable params: 0
__________________________________________________________________________________________________
None
__________________________________________________________________________________________________
…
	Tokens := 22071 * POS : 109
__________________________________________________________________________________________________
	Important words not in vocabulary 221
	MWE not in vocabulary 1768
	Dashed keys in vocabulary 3975
	One occurrence keys in vocabulary 3975 / 22071
__________________________________________________________________________________________________
Layer (type)                    Output Shape         Param #     Connected to                     
==================================================================================================
phraseTokens (InputLayer)       (None, 50)           0                                            
__________________________________________________________________________________________________
phrasePoss (InputLayer)         (None, 50)           0                                            
__________________________________________________________________________________________________
transTokens (InputLayer)        (None, 4)            0                                            
__________________________________________________________________________________________________
transPoss (InputLayer)          (None, 4)            0                                            
__________________________________________________________________________________________________
phraseTokenEmb (Embedding)      (None, 50, 81)       1787751     phraseTokens[0][0]               
__________________________________________________________________________________________________
phrasePosEmb (Embedding)        (None, 50, 23)       2507        phrasePoss[0][0]                 
__________________________________________________________________________________________________
transTokenEmb (Embedding)       (None, 4, 25)        551775      transTokens[0][0]                
__________________________________________________________________________________________________
transPosEmb (Embedding)         (None, 4, 22)        2398        transPoss[0][0]                  
__________________________________________________________________________________________________
concatenate_16 (Concatenate)    (None, 50, 104)      0           phraseTokenEmb[0][0]             
                                                                 phrasePosEmb[0][0]               
__________________________________________________________________________________________________
transTokenFlat (Flatten)        (None, 100)          0           transTokenEmb[0][0]              
__________________________________________________________________________________________________
transPosFlat (Flatten)          (None, 88)           0           transPosEmb[0][0]                
__________________________________________________________________________________________________
phraseRnn (GRU)                 (None, 36)           15228       concatenate_16[0][0]             
__________________________________________________________________________________________________
concatenate_17 (Concatenate)    (None, 188)          0           transTokenFlat[0][0]             
                                                                 transPosFlat[0][0]               
__________________________________________________________________________________________________
concatenate_18 (Concatenate)    (None, 224)          0           phraseRnn[0][0]                  
                                                                 concatenate_17[0][0]             
__________________________________________________________________________________________________
dense_11 (Dense)                (None, 68)           15300       concatenate_18[0][0]             
__________________________________________________________________________________________________
dense_12 (Dense)                (None, 4)            276         dense_11[0][0]                   
==================================================================================================
Total params: 2,375,235
Trainable params: 2,375,235
Non-trainable params: 0
__________________________________________________________________________________________________
None
__________________________________________________________________________________________________
…
==================================================================================================
	Tokens := 7545 * POS : 152
__________________________________________________________________________________________________
	Dashed keys in vocabulary 1622
	One occurrence keys in vocabulary 1622 / 7545
__________________________________________________________________________________________________
Layer (type)                    Output Shape         Param #     Connected to                     
==================================================================================================
phraseTokens (InputLayer)       (None, 50)           0                                            
__________________________________________________________________________________________________
phrasePoss (InputLayer)         (None, 50)           0                                            
__________________________________________________________________________________________________
transTokens (InputLayer)        (None, 5)            0                                            
__________________________________________________________________________________________________
transPoss (InputLayer)          (None, 5)            0                                            
__________________________________________________________________________________________________
phraseTokenEmb (Embedding)      (None, 50, 118)      890310      phraseTokens[0][0]               
__________________________________________________________________________________________________
phrasePosEmb (Embedding)        (None, 50, 22)       3344        phrasePoss[0][0]                 
__________________________________________________________________________________________________
transTokenEmb (Embedding)       (None, 5, 86)        648870      transTokens[0][0]                
__________________________________________________________________________________________________
transPosEmb (Embedding)         (None, 5, 11)        1672        transPoss[0][0]                  
__________________________________________________________________________________________________
concatenate_19 (Concatenate)    (None, 50, 140)      0           phraseTokenEmb[0][0]             
                                                                 phrasePosEmb[0][0]               
__________________________________________________________________________________________________
transTokenFlat (Flatten)        (None, 430)          0           transTokenEmb[0][0]              
__________________________________________________________________________________________________
transPosFlat (Flatten)          (None, 55)           0           transPosEmb[0][0]                
__________________________________________________________________________________________________
phraseRnn (GRU)                 (None, 177)          168858      concatenate_19[0][0]             
__________________________________________________________________________________________________
concatenate_20 (Concatenate)    (None, 485)          0           transTokenFlat[0][0]             
                                                                 transPosFlat[0][0]               
__________________________________________________________________________________________________
concatenate_21 (Concatenate)    (None, 662)          0           phraseRnn[0][0]                  
                                                                 concatenate_20[0][0]             
__________________________________________________________________________________________________
dense_13 (Dense)                (None, 119)          78897       concatenate_21[0][0]             
__________________________________________________________________________________________________
dense_14 (Dense)                (None, 4)            480         dense_13[0][0]                   
==================================================================================================
Total params: 1,792,431
Trainable params: 1,792,431
Non-trainable params: 0
__________________________________________________________________________________________________
None
__________________________________________________________________________________________________
…
==================================================================================================
	Tokens := 7241 * POS : 169
__________________________________________________________________________________________________
	Important words not in vocabulary 1
	MWE not in vocabulary 3
	Dashed keys in vocabulary 1674
	One occurrence keys in vocabulary 1674 / 7241
__________________________________________________________________________________________________
Layer (type)                    Output Shape         Param #     Connected to                     
==================================================================================================
phraseTokens (InputLayer)       (None, 50)           0                                            
__________________________________________________________________________________________________
phrasePoss (InputLayer)         (None, 50)           0                                            
__________________________________________________________________________________________________
transTokens (InputLayer)        (None, 5)            0                                            
__________________________________________________________________________________________________
transPoss (InputLayer)          (None, 5)            0                                            
__________________________________________________________________________________________________
phraseTokenEmb (Embedding)      (None, 50, 118)      854438      phraseTokens[0][0]               
__________________________________________________________________________________________________
phrasePosEmb (Embedding)        (None, 50, 22)       3718        phrasePoss[0][0]                 
__________________________________________________________________________________________________
transTokenEmb (Embedding)       (None, 5, 86)        622726      transTokens[0][0]                
__________________________________________________________________________________________________
transPosEmb (Embedding)         (None, 5, 11)        1859        transPoss[0][0]                  
__________________________________________________________________________________________________
concatenate_22 (Concatenate)    (None, 50, 140)      0           phraseTokenEmb[0][0]             
                                                                 phrasePosEmb[0][0]               
__________________________________________________________________________________________________
transTokenFlat (Flatten)        (None, 430)          0           transTokenEmb[0][0]              
__________________________________________________________________________________________________
transPosFlat (Flatten)          (None, 55)           0           transPosEmb[0][0]                
__________________________________________________________________________________________________
phraseRnn (GRU)                 (None, 177)          168858      concatenate_22[0][0]             
__________________________________________________________________________________________________
concatenate_23 (Concatenate)    (None, 485)          0           transTokenFlat[0][0]             
                                                                 transPosFlat[0][0]               
__________________________________________________________________________________________________
concatenate_24 (Concatenate)    (None, 662)          0           phraseRnn[0][0]                  
                                                                 concatenate_23[0][0]             
__________________________________________________________________________________________________
dense_15 (Dense)                (None, 119)          78897       concatenate_24[0][0]             
__________________________________________________________________________________________________
dense_16 (Dense)                (None, 4)            480         dense_15[0][0]                   
==================================================================================================
Total params: 1,730,976
Trainable params: 1,730,976
Non-trainable params: 0
__________________________________________________________________________________________________
None
__________________________________________________________________________________________________
…
==================================================================================================
	Tokens := 13793 * POS : 109
__________________________________________________________________________________________________
	Dashed keys in vocabulary 3161
	One occurrence keys in vocabulary 3161 / 13793
__________________________________________________________________________________________________
Layer (type)                    Output Shape         Param #     Connected to                     
==================================================================================================
phraseTokens (InputLayer)       (None, 50)           0                                            
__________________________________________________________________________________________________
phrasePoss (InputLayer)         (None, 50)           0                                            
__________________________________________________________________________________________________
transTokens (InputLayer)        (None, 5)            0                                            
__________________________________________________________________________________________________
transPoss (InputLayer)          (None, 5)            0                                            
__________________________________________________________________________________________________
phraseTokenEmb (Embedding)      (None, 50, 118)      1627574     phraseTokens[0][0]               
__________________________________________________________________________________________________
phrasePosEmb (Embedding)        (None, 50, 22)       2398        phrasePoss[0][0]                 
__________________________________________________________________________________________________
transTokenEmb (Embedding)       (None, 5, 86)        1186198     transTokens[0][0]                
__________________________________________________________________________________________________
transPosEmb (Embedding)         (None, 5, 11)        1199        transPoss[0][0]                  
__________________________________________________________________________________________________
concatenate_25 (Concatenate)    (None, 50, 140)      0           phraseTokenEmb[0][0]             
                                                                 phrasePosEmb[0][0]               
__________________________________________________________________________________________________
transTokenFlat (Flatten)        (None, 430)          0           transTokenEmb[0][0]              
__________________________________________________________________________________________________
transPosFlat (Flatten)          (None, 55)           0           transPosEmb[0][0]                
__________________________________________________________________________________________________
phraseRnn (GRU)                 (None, 177)          168858      concatenate_25[0][0]             
__________________________________________________________________________________________________
concatenate_26 (Concatenate)    (None, 485)          0           transTokenFlat[0][0]             
                                                                 transPosFlat[0][0]               
__________________________________________________________________________________________________
concatenate_27 (Concatenate)    (None, 662)          0           phraseRnn[0][0]                  
                                                                 concatenate_26[0][0]             
__________________________________________________________________________________________________
dense_17 (Dense)                (None, 119)          78897       concatenate_27[0][0]             
__________________________________________________________________________________________________
dense_18 (Dense)                (None, 4)            480         dense_17[0][0]                   
==================================================================================================
Total params: 3,065,604
Trainable params: 3,065,604
Non-trainable params: 0
__________________________________________________________________________________________________
None
__________________________________________________________________________________________________
…
	Tokens := 11438 * POS : 152
__________________________________________________________________________________________________
	Important words not in vocabulary 675
	MWE not in vocabulary 1297
	Dashed keys in vocabulary 2182
	One occurrence keys in vocabulary 2182 / 11438
__________________________________________________________________________________________________
Layer (type)                    Output Shape         Param #     Connected to                     
==================================================================================================
phraseTokens (InputLayer)       (None, 50)           0                                            
__________________________________________________________________________________________________
phrasePoss (InputLayer)         (None, 50)           0                                            
__________________________________________________________________________________________________
transTokens (InputLayer)        (None, 5)            0                                            
__________________________________________________________________________________________________
transPoss (InputLayer)          (None, 5)            0                                            
__________________________________________________________________________________________________
phraseTokenEmb (Embedding)      (None, 50, 94)       1075172     phraseTokens[0][0]               
__________________________________________________________________________________________________
phrasePosEmb (Embedding)        (None, 50, 22)       3344        phrasePoss[0][0]                 
__________________________________________________________________________________________________
transTokenEmb (Embedding)       (None, 5, 46)        526148      transTokens[0][0]                
__________________________________________________________________________________________________
transPosEmb (Embedding)         (None, 5, 12)        1824        transPoss[0][0]                  
__________________________________________________________________________________________________
concatenate_28 (Concatenate)    (None, 50, 116)      0           phraseTokenEmb[0][0]             
                                                                 phrasePosEmb[0][0]               
__________________________________________________________________________________________________
transTokenFlat (Flatten)        (None, 230)          0           transTokenEmb[0][0]              
__________________________________________________________________________________________________
transPosFlat (Flatten)          (None, 60)           0           transPosEmb[0][0]                
__________________________________________________________________________________________________
phraseRnn (GRU)                 (None, 30)           13230       concatenate_28[0][0]             
__________________________________________________________________________________________________
concatenate_29 (Concatenate)    (None, 290)          0           transTokenFlat[0][0]             
                                                                 transPosFlat[0][0]               
__________________________________________________________________________________________________
concatenate_30 (Concatenate)    (None, 320)          0           phraseRnn[0][0]                  
                                                                 concatenate_29[0][0]             
__________________________________________________________________________________________________
dense_19 (Dense)                (None, 333)          106893      concatenate_30[0][0]             
__________________________________________________________________________________________________
dense_20 (Dense)                (None, 4)            1336        dense_19[0][0]                   
==================================================================================================
Total params: 1,727,947
Trainable params: 1,727,947
Non-trainable params: 0
__________________________________________________________________________________________________
None
__________________________________________________________________________________________________
…
	Tokens := 9401 * POS : 169
__________________________________________________________________________________________________
	Important words not in vocabulary 182
	MWE not in vocabulary 1082
	Dashed keys in vocabulary 2380
	One occurrence keys in vocabulary 2380 / 9401
__________________________________________________________________________________________________
Layer (type)                    Output Shape         Param #     Connected to                     
==================================================================================================
phraseTokens (InputLayer)       (None, 50)           0                                            
__________________________________________________________________________________________________
phrasePoss (InputLayer)         (None, 50)           0                                            
__________________________________________________________________________________________________
transTokens (InputLayer)        (None, 5)            0                                            
__________________________________________________________________________________________________
transPoss (InputLayer)          (None, 5)            0                                            
__________________________________________________________________________________________________
phraseTokenEmb (Embedding)      (None, 50, 94)       883694      phraseTokens[0][0]               
__________________________________________________________________________________________________
phrasePosEmb (Embedding)        (None, 50, 22)       3718        phrasePoss[0][0]                 
__________________________________________________________________________________________________
transTokenEmb (Embedding)       (None, 5, 46)        432446      transTokens[0][0]                
__________________________________________________________________________________________________
transPosEmb (Embedding)         (None, 5, 12)        2028        transPoss[0][0]                  
__________________________________________________________________________________________________
concatenate_31 (Concatenate)    (None, 50, 116)      0           phraseTokenEmb[0][0]             
                                                                 phrasePosEmb[0][0]               
__________________________________________________________________________________________________
transTokenFlat (Flatten)        (None, 230)          0           transTokenEmb[0][0]              
__________________________________________________________________________________________________
transPosFlat (Flatten)          (None, 60)           0           transPosEmb[0][0]                
__________________________________________________________________________________________________
phraseRnn (GRU)                 (None, 30)           13230       concatenate_31[0][0]             
__________________________________________________________________________________________________
concatenate_32 (Concatenate)    (None, 290)          0           transTokenFlat[0][0]             
                                                                 transPosFlat[0][0]               
__________________________________________________________________________________________________
concatenate_33 (Concatenate)    (None, 320)          0           phraseRnn[0][0]                  
                                                                 concatenate_32[0][0]             
__________________________________________________________________________________________________
dense_21 (Dense)                (None, 333)          106893      concatenate_33[0][0]             
__________________________________________________________________________________________________
dense_22 (Dense)                (None, 4)            1336        dense_21[0][0]                   
==================================================================================================
Total params: 1,443,345
Trainable params: 1,443,345
Non-trainable params: 0
__________________________________________________________________________________________________
None
__________________________________________________________________________________________________
…
	Tokens := 22071 * POS : 109
__________________________________________________________________________________________________
	Important words not in vocabulary 221
	MWE not in vocabulary 1768
	Dashed keys in vocabulary 3975
	One occurrence keys in vocabulary 3975 / 22071
__________________________________________________________________________________________________
Layer (type)                    Output Shape         Param #     Connected to                     
==================================================================================================
phraseTokens (InputLayer)       (None, 50)           0                                            
__________________________________________________________________________________________________
phrasePoss (InputLayer)         (None, 50)           0                                            
__________________________________________________________________________________________________
transTokens (InputLayer)        (None, 5)            0                                            
__________________________________________________________________________________________________
transPoss (InputLayer)          (None, 5)            0                                            
__________________________________________________________________________________________________
phraseTokenEmb (Embedding)      (None, 50, 94)       2074674     phraseTokens[0][0]               
__________________________________________________________________________________________________
phrasePosEmb (Embedding)        (None, 50, 22)       2398        phrasePoss[0][0]                 
__________________________________________________________________________________________________
transTokenEmb (Embedding)       (None, 5, 46)        1015266     transTokens[0][0]                
__________________________________________________________________________________________________
transPosEmb (Embedding)         (None, 5, 12)        1308        transPoss[0][0]                  
__________________________________________________________________________________________________
concatenate_34 (Concatenate)    (None, 50, 116)      0           phraseTokenEmb[0][0]             
                                                                 phrasePosEmb[0][0]               
__________________________________________________________________________________________________
transTokenFlat (Flatten)        (None, 230)          0           transTokenEmb[0][0]              
__________________________________________________________________________________________________
transPosFlat (Flatten)          (None, 60)           0           transPosEmb[0][0]                
__________________________________________________________________________________________________
phraseRnn (GRU)                 (None, 30)           13230       concatenate_34[0][0]             
__________________________________________________________________________________________________
concatenate_35 (Concatenate)    (None, 290)          0           transTokenFlat[0][0]             
                                                                 transPosFlat[0][0]               
__________________________________________________________________________________________________
concatenate_36 (Concatenate)    (None, 320)          0           phraseRnn[0][0]                  
                                                                 concatenate_35[0][0]             
__________________________________________________________________________________________________
dense_23 (Dense)                (None, 333)          106893      concatenate_36[0][0]             
__________________________________________________________________________________________________
dense_24 (Dense)                (None, 4)            1336        dense_23[0][0]                   
==================================================================================================
Total params: 3,215,105
Trainable params: 3,215,105
Non-trainable params: 0
__________________________________________________________________________________________________
None
__________________________________________________________________________________________________
…
==================================================================================================
	Tokens := 7545 * POS : 152
__________________________________________________________________________________________________
	Dashed keys in vocabulary 1622
	One occurrence keys in vocabulary 1622 / 7545
__________________________________________________________________________________________________
Layer (type)                    Output Shape         Param #     Connected to                     
==================================================================================================
phraseTokens (InputLayer)       (None, 50)           0                                            
__________________________________________________________________________________________________
phrasePoss (InputLayer)         (None, 50)           0                                            
__________________________________________________________________________________________________
transTokens (InputLayer)        (None, 4)            0                                            
__________________________________________________________________________________________________
transPoss (InputLayer)          (None, 4)            0                                            
__________________________________________________________________________________________________
phraseTokenEmb (Embedding)      (None, 50, 107)      807315      phraseTokens[0][0]               
__________________________________________________________________________________________________
phrasePosEmb (Embedding)        (None, 50, 30)       4560        phrasePoss[0][0]                 
__________________________________________________________________________________________________
transTokenEmb (Embedding)       (None, 4, 139)       1048755     transTokens[0][0]                
__________________________________________________________________________________________________
transPosEmb (Embedding)         (None, 4, 21)        3192        transPoss[0][0]                  
__________________________________________________________________________________________________
concatenate_37 (Concatenate)    (None, 50, 137)      0           phraseTokenEmb[0][0]             
                                                                 phrasePosEmb[0][0]               
__________________________________________________________________________________________________
transTokenFlat (Flatten)        (None, 556)          0           transTokenEmb[0][0]              
__________________________________________________________________________________________________
transPosFlat (Flatten)          (None, 84)           0           transPosEmb[0][0]                
__________________________________________________________________________________________________
phraseRnn (GRU)                 (None, 181)          173217      concatenate_37[0][0]             
__________________________________________________________________________________________________
concatenate_38 (Concatenate)    (None, 640)          0           transTokenFlat[0][0]             
                                                                 transPosFlat[0][0]               
__________________________________________________________________________________________________
concatenate_39 (Concatenate)    (None, 821)          0           phraseRnn[0][0]                  
                                                                 concatenate_38[0][0]             
__________________________________________________________________________________________________
dense_25 (Dense)                (None, 257)          211254      concatenate_39[0][0]             
__________________________________________________________________________________________________
dense_26 (Dense)                (None, 4)            1032        dense_25[0][0]                   
==================================================================================================
Total params: 2,249,325
Trainable params: 2,249,325
Non-trainable params: 0
__________________________________________________________________________________________________
None
__________________________________________________________________________________________________
…
==================================================================================================
	Tokens := 7241 * POS : 169
__________________________________________________________________________________________________
	Important words not in vocabulary 1
	MWE not in vocabulary 3
	Dashed keys in vocabulary 1674
	One occurrence keys in vocabulary 1674 / 7241
__________________________________________________________________________________________________
Layer (type)                    Output Shape         Param #     Connected to                     
==================================================================================================
phraseTokens (InputLayer)       (None, 50)           0                                            
__________________________________________________________________________________________________
phrasePoss (InputLayer)         (None, 50)           0                                            
__________________________________________________________________________________________________
transTokens (InputLayer)        (None, 4)            0                                            
__________________________________________________________________________________________________
transPoss (InputLayer)          (None, 4)            0                                            
__________________________________________________________________________________________________
phraseTokenEmb (Embedding)      (None, 50, 107)      774787      phraseTokens[0][0]               
__________________________________________________________________________________________________
phrasePosEmb (Embedding)        (None, 50, 30)       5070        phrasePoss[0][0]                 
__________________________________________________________________________________________________
transTokenEmb (Embedding)       (None, 4, 139)       1006499     transTokens[0][0]                
__________________________________________________________________________________________________
transPosEmb (Embedding)         (None, 4, 21)        3549        transPoss[0][0]                  
__________________________________________________________________________________________________
concatenate_40 (Concatenate)    (None, 50, 137)      0           phraseTokenEmb[0][0]             
                                                                 phrasePosEmb[0][0]               
__________________________________________________________________________________________________
transTokenFlat (Flatten)        (None, 556)          0           transTokenEmb[0][0]              
__________________________________________________________________________________________________
transPosFlat (Flatten)          (None, 84)           0           transPosEmb[0][0]                
__________________________________________________________________________________________________
phraseRnn (GRU)                 (None, 181)          173217      concatenate_40[0][0]             
__________________________________________________________________________________________________
concatenate_41 (Concatenate)    (None, 640)          0           transTokenFlat[0][0]             
                                                                 transPosFlat[0][0]               
__________________________________________________________________________________________________
concatenate_42 (Concatenate)    (None, 821)          0           phraseRnn[0][0]                  
                                                                 concatenate_41[0][0]             
__________________________________________________________________________________________________
dense_27 (Dense)                (None, 257)          211254      concatenate_42[0][0]             
__________________________________________________________________________________________________
dense_28 (Dense)                (None, 4)            1032        dense_27[0][0]                   
==================================================================================================
Total params: 2,175,408
Trainable params: 2,175,408
Non-trainable params: 0
__________________________________________________________________________________________________
None
__________________________________________________________________________________________________
…
==================================================================================================
	Tokens := 13793 * POS : 109
__________________________________________________________________________________________________
	Dashed keys in vocabulary 3161
	One occurrence keys in vocabulary 3161 / 13793
__________________________________________________________________________________________________
Layer (type)                    Output Shape         Param #     Connected to                     
==================================================================================================
phraseTokens (InputLayer)       (None, 50)           0                                            
__________________________________________________________________________________________________
phrasePoss (InputLayer)         (None, 50)           0                                            
__________________________________________________________________________________________________
transTokens (InputLayer)        (None, 4)            0                                            
__________________________________________________________________________________________________
transPoss (InputLayer)          (None, 4)            0                                            
__________________________________________________________________________________________________
phraseTokenEmb (Embedding)      (None, 50, 107)      1475851     phraseTokens[0][0]               
__________________________________________________________________________________________________
phrasePosEmb (Embedding)        (None, 50, 30)       3270        phrasePoss[0][0]                 
__________________________________________________________________________________________________
transTokenEmb (Embedding)       (None, 4, 139)       1917227     transTokens[0][0]                
__________________________________________________________________________________________________
transPosEmb (Embedding)         (None, 4, 21)        2289        transPoss[0][0]                  
__________________________________________________________________________________________________
concatenate_43 (Concatenate)    (None, 50, 137)      0           phraseTokenEmb[0][0]             
                                                                 phrasePosEmb[0][0]               
__________________________________________________________________________________________________
transTokenFlat (Flatten)        (None, 556)          0           transTokenEmb[0][0]              
__________________________________________________________________________________________________
transPosFlat (Flatten)          (None, 84)           0           transPosEmb[0][0]                
__________________________________________________________________________________________________
phraseRnn (GRU)                 (None, 181)          173217      concatenate_43[0][0]             
__________________________________________________________________________________________________
concatenate_44 (Concatenate)    (None, 640)          0           transTokenFlat[0][0]             
                                                                 transPosFlat[0][0]               
__________________________________________________________________________________________________
concatenate_45 (Concatenate)    (None, 821)          0           phraseRnn[0][0]                  
                                                                 concatenate_44[0][0]             
__________________________________________________________________________________________________
dense_29 (Dense)                (None, 257)          211254      concatenate_45[0][0]             
__________________________________________________________________________________________________
dense_30 (Dense)                (None, 4)            1032        dense_29[0][0]                   
==================================================================================================
Total params: 3,784,140
Trainable params: 3,784,140
Non-trainable params: 0
__________________________________________________________________________________________________
None
__________________________________________________________________________________________________
…
==================================================================================================
	Tokens := 7545 * POS : 152
__________________________________________________________________________________________________
	Dashed keys in vocabulary 1622
	One occurrence keys in vocabulary 1622 / 7545
__________________________________________________________________________________________________
Layer (type)                    Output Shape         Param #     Connected to                     
==================================================================================================
phraseTokens (InputLayer)       (None, 50)           0                                            
__________________________________________________________________________________________________
phrasePoss (InputLayer)         (None, 50)           0                                            
__________________________________________________________________________________________________
transTokens (InputLayer)        (None, 4)            0                                            
__________________________________________________________________________________________________
transPoss (InputLayer)          (None, 4)            0                                            
__________________________________________________________________________________________________
phraseTokenEmb (Embedding)      (None, 50, 144)      1086480     phraseTokens[0][0]               
__________________________________________________________________________________________________
phrasePosEmb (Embedding)        (None, 50, 33)       5016        phrasePoss[0][0]                 
__________________________________________________________________________________________________
transTokenEmb (Embedding)       (None, 4, 39)        294255      transTokens[0][0]                
__________________________________________________________________________________________________
transPosEmb (Embedding)         (None, 4, 14)        2128        transPoss[0][0]                  
__________________________________________________________________________________________________
concatenate_46 (Concatenate)    (None, 50, 177)      0           phraseTokenEmb[0][0]             
                                                                 phrasePosEmb[0][0]               
__________________________________________________________________________________________________
transTokenFlat (Flatten)        (None, 156)          0           transTokenEmb[0][0]              
__________________________________________________________________________________________________
transPosFlat (Flatten)          (None, 56)           0           transPosEmb[0][0]                
__________________________________________________________________________________________________
phraseRnn (GRU)                 (None, 289)          404889      concatenate_46[0][0]             
__________________________________________________________________________________________________
concatenate_47 (Concatenate)    (None, 212)          0           transTokenFlat[0][0]             
                                                                 transPosFlat[0][0]               
__________________________________________________________________________________________________
concatenate_48 (Concatenate)    (None, 501)          0           phraseRnn[0][0]                  
                                                                 concatenate_47[0][0]             
__________________________________________________________________________________________________
dense_31 (Dense)                (None, 54)           27108       concatenate_48[0][0]             
__________________________________________________________________________________________________
dense_32 (Dense)                (None, 4)            220         dense_31[0][0]                   
==================================================================================================
Total params: 1,820,096
Trainable params: 1,820,096
Non-trainable params: 0
__________________________________________________________________________________________________
None
__________________________________________________________________________________________________
…
==================================================================================================
	Tokens := 7241 * POS : 169
__________________________________________________________________________________________________
	Important words not in vocabulary 1
	MWE not in vocabulary 3
	Dashed keys in vocabulary 1674
	One occurrence keys in vocabulary 1674 / 7241
__________________________________________________________________________________________________
Layer (type)                    Output Shape         Param #     Connected to                     
==================================================================================================
phraseTokens (InputLayer)       (None, 50)           0                                            
__________________________________________________________________________________________________
phrasePoss (InputLayer)         (None, 50)           0                                            
__________________________________________________________________________________________________
transTokens (InputLayer)        (None, 4)            0                                            
__________________________________________________________________________________________________
transPoss (InputLayer)          (None, 4)            0                                            
__________________________________________________________________________________________________
phraseTokenEmb (Embedding)      (None, 50, 144)      1042704     phraseTokens[0][0]               
__________________________________________________________________________________________________
phrasePosEmb (Embedding)        (None, 50, 33)       5577        phrasePoss[0][0]                 
__________________________________________________________________________________________________
transTokenEmb (Embedding)       (None, 4, 39)        282399      transTokens[0][0]                
__________________________________________________________________________________________________
transPosEmb (Embedding)         (None, 4, 14)        2366        transPoss[0][0]                  
__________________________________________________________________________________________________
concatenate_49 (Concatenate)    (None, 50, 177)      0           phraseTokenEmb[0][0]             
                                                                 phrasePosEmb[0][0]               
__________________________________________________________________________________________________
transTokenFlat (Flatten)        (None, 156)          0           transTokenEmb[0][0]              
__________________________________________________________________________________________________
transPosFlat (Flatten)          (None, 56)           0           transPosEmb[0][0]                
__________________________________________________________________________________________________
phraseRnn (GRU)                 (None, 289)          404889      concatenate_49[0][0]             
__________________________________________________________________________________________________
concatenate_50 (Concatenate)    (None, 212)          0           transTokenFlat[0][0]             
                                                                 transPosFlat[0][0]               
__________________________________________________________________________________________________
concatenate_51 (Concatenate)    (None, 501)          0           phraseRnn[0][0]                  
                                                                 concatenate_50[0][0]             
__________________________________________________________________________________________________
dense_33 (Dense)                (None, 54)           27108       concatenate_51[0][0]             
__________________________________________________________________________________________________
dense_34 (Dense)                (None, 4)            220         dense_33[0][0]                   
==================================================================================================
Total params: 1,765,263
Trainable params: 1,765,263
Non-trainable params: 0
__________________________________________________________________________________________________
None
__________________________________________________________________________________________________
…
==================================================================================================
	Tokens := 13793 * POS : 109
__________________________________________________________________________________________________
	Dashed keys in vocabulary 3161
	One occurrence keys in vocabulary 3161 / 13793
__________________________________________________________________________________________________
Layer (type)                    Output Shape         Param #     Connected to                     
==================================================================================================
phraseTokens (InputLayer)       (None, 50)           0                                            
__________________________________________________________________________________________________
phrasePoss (InputLayer)         (None, 50)           0                                            
__________________________________________________________________________________________________
transTokens (InputLayer)        (None, 4)            0                                            
__________________________________________________________________________________________________
transPoss (InputLayer)          (None, 4)            0                                            
__________________________________________________________________________________________________
phraseTokenEmb (Embedding)      (None, 50, 144)      1986192     phraseTokens[0][0]               
__________________________________________________________________________________________________
phrasePosEmb (Embedding)        (None, 50, 33)       3597        phrasePoss[0][0]                 
__________________________________________________________________________________________________
transTokenEmb (Embedding)       (None, 4, 39)        537927      transTokens[0][0]                
__________________________________________________________________________________________________
transPosEmb (Embedding)         (None, 4, 14)        1526        transPoss[0][0]                  
__________________________________________________________________________________________________
concatenate_52 (Concatenate)    (None, 50, 177)      0           phraseTokenEmb[0][0]             
                                                                 phrasePosEmb[0][0]               
__________________________________________________________________________________________________
transTokenFlat (Flatten)        (None, 156)          0           transTokenEmb[0][0]              
__________________________________________________________________________________________________
transPosFlat (Flatten)          (None, 56)           0           transPosEmb[0][0]                
__________________________________________________________________________________________________
phraseRnn (GRU)                 (None, 289)          404889      concatenate_52[0][0]             
__________________________________________________________________________________________________
concatenate_53 (Concatenate)    (None, 212)          0           transTokenFlat[0][0]             
                                                                 transPosFlat[0][0]               
__________________________________________________________________________________________________
concatenate_54 (Concatenate)    (None, 501)          0           phraseRnn[0][0]                  
                                                                 concatenate_53[0][0]             
__________________________________________________________________________________________________
dense_35 (Dense)                (None, 54)           27108       concatenate_54[0][0]             
__________________________________________________________________________________________________
dense_36 (Dense)                (None, 4)            220         dense_35[0][0]                   
==================================================================================================
Total params: 2,961,459
Trainable params: 2,961,459
Non-trainable params: 0
__________________________________________________________________________________________________
None
__________________________________________________________________________________________________
…
==================================================================================================
	Tokens := 7545 * POS : 152
__________________________________________________________________________________________________
	Dashed keys in vocabulary 1622
	One occurrence keys in vocabulary 1622 / 7545
__________________________________________________________________________________________________
Layer (type)                    Output Shape         Param #     Connected to                     
==================================================================================================
phraseTokens (InputLayer)       (None, 50)           0                                            
__________________________________________________________________________________________________
phrasePoss (InputLayer)         (None, 50)           0                                            
__________________________________________________________________________________________________
transTokens (InputLayer)        (None, 4)            0                                            
__________________________________________________________________________________________________
transPoss (InputLayer)          (None, 4)            0                                            
__________________________________________________________________________________________________
phraseTokenEmb (Embedding)      (None, 50, 33)       248985      phraseTokens[0][0]               
__________________________________________________________________________________________________
phrasePosEmb (Embedding)        (None, 50, 7)        1064        phrasePoss[0][0]                 
__________________________________________________________________________________________________
transTokenEmb (Embedding)       (None, 4, 96)        724320      transTokens[0][0]                
__________________________________________________________________________________________________
transPosEmb (Embedding)         (None, 4, 26)        3952        transPoss[0][0]                  
__________________________________________________________________________________________________
concatenate_55 (Concatenate)    (None, 50, 40)       0           phraseTokenEmb[0][0]             
                                                                 phrasePosEmb[0][0]               
__________________________________________________________________________________________________
transTokenFlat (Flatten)        (None, 384)          0           transTokenEmb[0][0]              
__________________________________________________________________________________________________
transPosFlat (Flatten)          (None, 104)          0           transPosEmb[0][0]                
__________________________________________________________________________________________________
phraseRnn (GRU)                 (None, 124)          61380       concatenate_55[0][0]             
__________________________________________________________________________________________________
concatenate_56 (Concatenate)    (None, 488)          0           transTokenFlat[0][0]             
                                                                 transPosFlat[0][0]               
__________________________________________________________________________________________________
concatenate_57 (Concatenate)    (None, 612)          0           phraseRnn[0][0]                  
                                                                 concatenate_56[0][0]             
__________________________________________________________________________________________________
dense_37 (Dense)                (None, 29)           17777       concatenate_57[0][0]             
__________________________________________________________________________________________________
dense_38 (Dense)                (None, 4)            120         dense_37[0][0]                   
==================================================================================================
Total params: 1,057,598
Trainable params: 1,057,598
Non-trainable params: 0
__________________________________________________________________________________________________
None
__________________________________________________________________________________________________
…
==================================================================================================
	Tokens := 7241 * POS : 169
__________________________________________________________________________________________________
	Important words not in vocabulary 1
	MWE not in vocabulary 3
	Dashed keys in vocabulary 1674
	One occurrence keys in vocabulary 1674 / 7241
__________________________________________________________________________________________________
Layer (type)                    Output Shape         Param #     Connected to                     
==================================================================================================
phraseTokens (InputLayer)       (None, 50)           0                                            
__________________________________________________________________________________________________
phrasePoss (InputLayer)         (None, 50)           0                                            
__________________________________________________________________________________________________
transTokens (InputLayer)        (None, 4)            0                                            
__________________________________________________________________________________________________
transPoss (InputLayer)          (None, 4)            0                                            
__________________________________________________________________________________________________
phraseTokenEmb (Embedding)      (None, 50, 33)       238953      phraseTokens[0][0]               
__________________________________________________________________________________________________
phrasePosEmb (Embedding)        (None, 50, 7)        1183        phrasePoss[0][0]                 
__________________________________________________________________________________________________
transTokenEmb (Embedding)       (None, 4, 96)        695136      transTokens[0][0]                
__________________________________________________________________________________________________
transPosEmb (Embedding)         (None, 4, 26)        4394        transPoss[0][0]                  
__________________________________________________________________________________________________
concatenate_58 (Concatenate)    (None, 50, 40)       0           phraseTokenEmb[0][0]             
                                                                 phrasePosEmb[0][0]               
__________________________________________________________________________________________________
transTokenFlat (Flatten)        (None, 384)          0           transTokenEmb[0][0]              
__________________________________________________________________________________________________
transPosFlat (Flatten)          (None, 104)          0           transPosEmb[0][0]                
__________________________________________________________________________________________________
phraseRnn (GRU)                 (None, 124)          61380       concatenate_58[0][0]             
__________________________________________________________________________________________________
concatenate_59 (Concatenate)    (None, 488)          0           transTokenFlat[0][0]             
                                                                 transPosFlat[0][0]               
__________________________________________________________________________________________________
concatenate_60 (Concatenate)    (None, 612)          0           phraseRnn[0][0]                  
                                                                 concatenate_59[0][0]             
__________________________________________________________________________________________________
dense_39 (Dense)                (None, 29)           17777       concatenate_60[0][0]             
__________________________________________________________________________________________________
dense_40 (Dense)                (None, 4)            120         dense_39[0][0]                   
==================================================================================================
Total params: 1,018,943
Trainable params: 1,018,943
Non-trainable params: 0
__________________________________________________________________________________________________
None
__________________________________________________________________________________________________
…
==================================================================================================
	Tokens := 13793 * POS : 109
__________________________________________________________________________________________________
	Dashed keys in vocabulary 3161
	One occurrence keys in vocabulary 3161 / 13793
__________________________________________________________________________________________________
Layer (type)                    Output Shape         Param #     Connected to                     
==================================================================================================
phraseTokens (InputLayer)       (None, 50)           0                                            
__________________________________________________________________________________________________
phrasePoss (InputLayer)         (None, 50)           0                                            
__________________________________________________________________________________________________
transTokens (InputLayer)        (None, 4)            0                                            
__________________________________________________________________________________________________
transPoss (InputLayer)          (None, 4)            0                                            
__________________________________________________________________________________________________
phraseTokenEmb (Embedding)      (None, 50, 33)       455169      phraseTokens[0][0]               
__________________________________________________________________________________________________
phrasePosEmb (Embedding)        (None, 50, 7)        763         phrasePoss[0][0]                 
__________________________________________________________________________________________________
transTokenEmb (Embedding)       (None, 4, 96)        1324128     transTokens[0][0]                
__________________________________________________________________________________________________
transPosEmb (Embedding)         (None, 4, 26)        2834        transPoss[0][0]                  
__________________________________________________________________________________________________
concatenate_61 (Concatenate)    (None, 50, 40)       0           phraseTokenEmb[0][0]             
                                                                 phrasePosEmb[0][0]               
__________________________________________________________________________________________________
transTokenFlat (Flatten)        (None, 384)          0           transTokenEmb[0][0]              
__________________________________________________________________________________________________
transPosFlat (Flatten)          (None, 104)          0           transPosEmb[0][0]                
__________________________________________________________________________________________________
phraseRnn (GRU)                 (None, 124)          61380       concatenate_61[0][0]             
__________________________________________________________________________________________________
concatenate_62 (Concatenate)    (None, 488)          0           transTokenFlat[0][0]             
                                                                 transPosFlat[0][0]               
__________________________________________________________________________________________________
concatenate_63 (Concatenate)    (None, 612)          0           phraseRnn[0][0]                  
                                                                 concatenate_62[0][0]             
__________________________________________________________________________________________________
dense_41 (Dense)                (None, 29)           17777       concatenate_63[0][0]             
__________________________________________________________________________________________________
dense_42 (Dense)                (None, 4)            120         dense_41[0][0]                   
==================================================================================================
Total params: 1,862,171
Trainable params: 1,862,171
Non-trainable params: 0
__________________________________________________________________________________________________
None
__________________________________________________________________________________________________
…
	Tokens := 11438 * POS : 152
__________________________________________________________________________________________________
	Important words not in vocabulary 675
	MWE not in vocabulary 1297
	Dashed keys in vocabulary 2182
	One occurrence keys in vocabulary 2182 / 11438
__________________________________________________________________________________________________
Layer (type)                    Output Shape         Param #     Connected to                     
==================================================================================================
phraseTokens (InputLayer)       (None, 50)           0                                            
__________________________________________________________________________________________________
phrasePoss (InputLayer)         (None, 50)           0                                            
__________________________________________________________________________________________________
transTokens (InputLayer)        (None, 5)            0                                            
__________________________________________________________________________________________________
transPoss (InputLayer)          (None, 5)            0                                            
__________________________________________________________________________________________________
phraseTokenEmb (Embedding)      (None, 50, 33)       377454      phraseTokens[0][0]               
__________________________________________________________________________________________________
phrasePosEmb (Embedding)        (None, 50, 20)       3040        phrasePoss[0][0]                 
__________________________________________________________________________________________________
transTokenEmb (Embedding)       (None, 5, 34)        388892      transTokens[0][0]                
__________________________________________________________________________________________________
transPosEmb (Embedding)         (None, 5, 5)         760         transPoss[0][0]                  
__________________________________________________________________________________________________
concatenate_64 (Concatenate)    (None, 50, 53)       0           phraseTokenEmb[0][0]             
                                                                 phrasePosEmb[0][0]               
__________________________________________________________________________________________________
transTokenFlat (Flatten)        (None, 170)          0           transTokenEmb[0][0]              
__________________________________________________________________________________________________
transPosFlat (Flatten)          (None, 25)           0           transPosEmb[0][0]                
__________________________________________________________________________________________________
phraseRnn (GRU)                 (None, 64)           22656       concatenate_64[0][0]             
__________________________________________________________________________________________________
concatenate_65 (Concatenate)    (None, 195)          0           transTokenFlat[0][0]             
                                                                 transPosFlat[0][0]               
__________________________________________________________________________________________________
concatenate_66 (Concatenate)    (None, 259)          0           phraseRnn[0][0]                  
                                                                 concatenate_65[0][0]             
__________________________________________________________________________________________________
dense_43 (Dense)                (None, 122)          31720       concatenate_66[0][0]             
__________________________________________________________________________________________________
dense_44 (Dense)                (None, 4)            492         dense_43[0][0]                   
==================================================================================================
Total params: 825,014
Trainable params: 825,014
Non-trainable params: 0
__________________________________________________________________________________________________
None
__________________________________________________________________________________________________
…
	Tokens := 9401 * POS : 169
__________________________________________________________________________________________________
	Important words not in vocabulary 182
	MWE not in vocabulary 1082
	Dashed keys in vocabulary 2380
	One occurrence keys in vocabulary 2380 / 9401
__________________________________________________________________________________________________
Layer (type)                    Output Shape         Param #     Connected to                     
==================================================================================================
phraseTokens (InputLayer)       (None, 50)           0                                            
__________________________________________________________________________________________________
phrasePoss (InputLayer)         (None, 50)           0                                            
__________________________________________________________________________________________________
transTokens (InputLayer)        (None, 5)            0                                            
__________________________________________________________________________________________________
transPoss (InputLayer)          (None, 5)            0                                            
__________________________________________________________________________________________________
phraseTokenEmb (Embedding)      (None, 50, 33)       310233      phraseTokens[0][0]               
__________________________________________________________________________________________________
phrasePosEmb (Embedding)        (None, 50, 20)       3380        phrasePoss[0][0]                 
__________________________________________________________________________________________________
transTokenEmb (Embedding)       (None, 5, 34)        319634      transTokens[0][0]                
__________________________________________________________________________________________________
transPosEmb (Embedding)         (None, 5, 5)         845         transPoss[0][0]                  
__________________________________________________________________________________________________
concatenate_67 (Concatenate)    (None, 50, 53)       0           phraseTokenEmb[0][0]             
                                                                 phrasePosEmb[0][0]               
__________________________________________________________________________________________________
transTokenFlat (Flatten)        (None, 170)          0           transTokenEmb[0][0]              
__________________________________________________________________________________________________
transPosFlat (Flatten)          (None, 25)           0           transPosEmb[0][0]                
__________________________________________________________________________________________________
phraseRnn (GRU)                 (None, 64)           22656       concatenate_67[0][0]             
__________________________________________________________________________________________________
concatenate_68 (Concatenate)    (None, 195)          0           transTokenFlat[0][0]             
                                                                 transPosFlat[0][0]               
__________________________________________________________________________________________________
concatenate_69 (Concatenate)    (None, 259)          0           phraseRnn[0][0]                  
                                                                 concatenate_68[0][0]             
__________________________________________________________________________________________________
dense_45 (Dense)                (None, 122)          31720       concatenate_69[0][0]             
__________________________________________________________________________________________________
dense_46 (Dense)                (None, 4)            492         dense_45[0][0]                   
==================================================================================================
Total params: 688,960
Trainable params: 688,960
Non-trainable params: 0
__________________________________________________________________________________________________
None
__________________________________________________________________________________________________
…
	Tokens := 22071 * POS : 109
__________________________________________________________________________________________________
	Important words not in vocabulary 221
	MWE not in vocabulary 1768
	Dashed keys in vocabulary 3975
	One occurrence keys in vocabulary 3975 / 22071
__________________________________________________________________________________________________
Layer (type)                    Output Shape         Param #     Connected to                     
==================================================================================================
phraseTokens (InputLayer)       (None, 50)           0                                            
__________________________________________________________________________________________________
phrasePoss (InputLayer)         (None, 50)           0                                            
__________________________________________________________________________________________________
transTokens (InputLayer)        (None, 5)            0                                            
__________________________________________________________________________________________________
transPoss (InputLayer)          (None, 5)            0                                            
__________________________________________________________________________________________________
phraseTokenEmb (Embedding)      (None, 50, 33)       728343      phraseTokens[0][0]               
__________________________________________________________________________________________________
phrasePosEmb (Embedding)        (None, 50, 20)       2180        phrasePoss[0][0]                 
__________________________________________________________________________________________________
transTokenEmb (Embedding)       (None, 5, 34)        750414      transTokens[0][0]                
__________________________________________________________________________________________________
transPosEmb (Embedding)         (None, 5, 5)         545         transPoss[0][0]                  
__________________________________________________________________________________________________
concatenate_70 (Concatenate)    (None, 50, 53)       0           phraseTokenEmb[0][0]             
                                                                 phrasePosEmb[0][0]               
__________________________________________________________________________________________________
transTokenFlat (Flatten)        (None, 170)          0           transTokenEmb[0][0]              
__________________________________________________________________________________________________
transPosFlat (Flatten)          (None, 25)           0           transPosEmb[0][0]                
__________________________________________________________________________________________________
phraseRnn (GRU)                 (None, 64)           22656       concatenate_70[0][0]             
__________________________________________________________________________________________________
concatenate_71 (Concatenate)    (None, 195)          0           transTokenFlat[0][0]             
                                                                 transPosFlat[0][0]               
__________________________________________________________________________________________________
concatenate_72 (Concatenate)    (None, 259)          0           phraseRnn[0][0]                  
                                                                 concatenate_71[0][0]             
__________________________________________________________________________________________________
dense_47 (Dense)                (None, 122)          31720       concatenate_72[0][0]             
__________________________________________________________________________________________________
dense_48 (Dense)                (None, 4)            492         dense_47[0][0]                   
==================================================================================================
Total params: 1,536,350
Trainable params: 1,536,350
Non-trainable params: 0
__________________________________________________________________________________________________
None
__________________________________________________________________________________________________
…
	Tokens := 11438 * POS : 152
__________________________________________________________________________________________________
	Important words not in vocabulary 675
	MWE not in vocabulary 1297
	Dashed keys in vocabulary 2182
	One occurrence keys in vocabulary 2182 / 11438
__________________________________________________________________________________________________
Layer (type)                    Output Shape         Param #     Connected to                     
==================================================================================================
phraseTokens (InputLayer)       (None, 50)           0                                            
__________________________________________________________________________________________________
phrasePoss (InputLayer)         (None, 50)           0                                            
__________________________________________________________________________________________________
transTokens (InputLayer)        (None, 4)            0                                            
__________________________________________________________________________________________________
transPoss (InputLayer)          (None, 4)            0                                            
__________________________________________________________________________________________________
phraseTokenEmb (Embedding)      (None, 50, 97)       1109486     phraseTokens[0][0]               
__________________________________________________________________________________________________
phrasePosEmb (Embedding)        (None, 50, 15)       2280        phrasePoss[0][0]                 
__________________________________________________________________________________________________
transTokenEmb (Embedding)       (None, 4, 45)        514710      transTokens[0][0]                
__________________________________________________________________________________________________
transPosEmb (Embedding)         (None, 4, 40)        6080        transPoss[0][0]                  
__________________________________________________________________________________________________
concatenate_73 (Concatenate)    (None, 50, 112)      0           phraseTokenEmb[0][0]             
                                                                 phrasePosEmb[0][0]               
__________________________________________________________________________________________________
transTokenFlat (Flatten)        (None, 180)          0           transTokenEmb[0][0]              
__________________________________________________________________________________________________
transPosFlat (Flatten)          (None, 160)          0           transPosEmb[0][0]                
__________________________________________________________________________________________________
phraseRnn (GRU)                 (None, 224)          226464      concatenate_73[0][0]             
__________________________________________________________________________________________________
concatenate_74 (Concatenate)    (None, 340)          0           transTokenFlat[0][0]             
                                                                 transPosFlat[0][0]               
__________________________________________________________________________________________________
concatenate_75 (Concatenate)    (None, 564)          0           phraseRnn[0][0]                  
                                                                 concatenate_74[0][0]             
__________________________________________________________________________________________________
dense_49 (Dense)                (None, 179)          101135      concatenate_75[0][0]             
__________________________________________________________________________________________________
dense_50 (Dense)                (None, 4)            720         dense_49[0][0]                   
==================================================================================================
Total params: 1,960,875
Trainable params: 1,960,875
Non-trainable params: 0
__________________________________________________________________________________________________
None
__________________________________________________________________________________________________
…
	Tokens := 9401 * POS : 169
__________________________________________________________________________________________________
	Important words not in vocabulary 182
	MWE not in vocabulary 1082
	Dashed keys in vocabulary 2380
	One occurrence keys in vocabulary 2380 / 9401
__________________________________________________________________________________________________
Layer (type)                    Output Shape         Param #     Connected to                     
==================================================================================================
phraseTokens (InputLayer)       (None, 50)           0                                            
__________________________________________________________________________________________________
phrasePoss (InputLayer)         (None, 50)           0                                            
__________________________________________________________________________________________________
transTokens (InputLayer)        (None, 4)            0                                            
__________________________________________________________________________________________________
transPoss (InputLayer)          (None, 4)            0                                            
__________________________________________________________________________________________________
phraseTokenEmb (Embedding)      (None, 50, 97)       911897      phraseTokens[0][0]               
__________________________________________________________________________________________________
phrasePosEmb (Embedding)        (None, 50, 15)       2535        phrasePoss[0][0]                 
__________________________________________________________________________________________________
transTokenEmb (Embedding)       (None, 4, 45)        423045      transTokens[0][0]                
__________________________________________________________________________________________________
transPosEmb (Embedding)         (None, 4, 40)        6760        transPoss[0][0]                  
__________________________________________________________________________________________________
concatenate_76 (Concatenate)    (None, 50, 112)      0           phraseTokenEmb[0][0]             
                                                                 phrasePosEmb[0][0]               
__________________________________________________________________________________________________
transTokenFlat (Flatten)        (None, 180)          0           transTokenEmb[0][0]              
__________________________________________________________________________________________________
transPosFlat (Flatten)          (None, 160)          0           transPosEmb[0][0]                
__________________________________________________________________________________________________
phraseRnn (GRU)                 (None, 224)          226464      concatenate_76[0][0]             
__________________________________________________________________________________________________
concatenate_77 (Concatenate)    (None, 340)          0           transTokenFlat[0][0]             
                                                                 transPosFlat[0][0]               
__________________________________________________________________________________________________
concatenate_78 (Concatenate)    (None, 564)          0           phraseRnn[0][0]                  
                                                                 concatenate_77[0][0]             
__________________________________________________________________________________________________
dense_51 (Dense)                (None, 179)          101135      concatenate_78[0][0]             
__________________________________________________________________________________________________
dense_52 (Dense)                (None, 4)            720         dense_51[0][0]                   
==================================================================================================
Total params: 1,672,556
Trainable params: 1,672,556
Non-trainable params: 0
__________________________________________________________________________________________________
None
__________________________________________________________________________________________________
…
	Tokens := 22071 * POS : 109
__________________________________________________________________________________________________
	Important words not in vocabulary 221
	MWE not in vocabulary 1768
	Dashed keys in vocabulary 3975
	One occurrence keys in vocabulary 3975 / 22071
__________________________________________________________________________________________________
Layer (type)                    Output Shape         Param #     Connected to                     
==================================================================================================
phraseTokens (InputLayer)       (None, 50)           0                                            
__________________________________________________________________________________________________
phrasePoss (InputLayer)         (None, 50)           0                                            
__________________________________________________________________________________________________
transTokens (InputLayer)        (None, 4)            0                                            
__________________________________________________________________________________________________
transPoss (InputLayer)          (None, 4)            0                                            
__________________________________________________________________________________________________
phraseTokenEmb (Embedding)      (None, 50, 97)       2140887     phraseTokens[0][0]               
__________________________________________________________________________________________________
phrasePosEmb (Embedding)        (None, 50, 15)       1635        phrasePoss[0][0]                 
__________________________________________________________________________________________________
transTokenEmb (Embedding)       (None, 4, 45)        993195      transTokens[0][0]                
__________________________________________________________________________________________________
transPosEmb (Embedding)         (None, 4, 40)        4360        transPoss[0][0]                  
__________________________________________________________________________________________________
concatenate_79 (Concatenate)    (None, 50, 112)      0           phraseTokenEmb[0][0]             
                                                                 phrasePosEmb[0][0]               
__________________________________________________________________________________________________
transTokenFlat (Flatten)        (None, 180)          0           transTokenEmb[0][0]              
__________________________________________________________________________________________________
transPosFlat (Flatten)          (None, 160)          0           transPosEmb[0][0]                
__________________________________________________________________________________________________
phraseRnn (GRU)                 (None, 224)          226464      concatenate_79[0][0]             
__________________________________________________________________________________________________
concatenate_80 (Concatenate)    (None, 340)          0           transTokenFlat[0][0]             
                                                                 transPosFlat[0][0]               
__________________________________________________________________________________________________
concatenate_81 (Concatenate)    (None, 564)          0           phraseRnn[0][0]                  
                                                                 concatenate_80[0][0]             
__________________________________________________________________________________________________
dense_53 (Dense)                (None, 179)          101135      concatenate_81[0][0]             
__________________________________________________________________________________________________
dense_54 (Dense)                (None, 4)            720         dense_53[0][0]                   
==================================================================================================
Total params: 3,468,396
Trainable params: 3,468,396
Non-trainable params: 0
__________________________________________________________________________________________________
None
__________________________________________________________________________________________________
…
==================================================================================================
	Tokens := 7545 * POS : 152
__________________________________________________________________________________________________
	Dashed keys in vocabulary 1622
	One occurrence keys in vocabulary 1622 / 7545
__________________________________________________________________________________________________
Layer (type)                    Output Shape         Param #     Connected to                     
==================================================================================================
phraseTokens (InputLayer)       (None, 50)           0                                            
__________________________________________________________________________________________________
phrasePoss (InputLayer)         (None, 50)           0                                            
__________________________________________________________________________________________________
transTokens (InputLayer)        (None, 5)            0                                            
__________________________________________________________________________________________________
transPoss (InputLayer)          (None, 5)            0                                            
__________________________________________________________________________________________________
phraseTokenEmb (Embedding)      (None, 50, 182)      1373190     phraseTokens[0][0]               
__________________________________________________________________________________________________
phrasePosEmb (Embedding)        (None, 50, 9)        1368        phrasePoss[0][0]                 
__________________________________________________________________________________________________
transTokenEmb (Embedding)       (None, 5, 99)        746955      transTokens[0][0]                
__________________________________________________________________________________________________
transPosEmb (Embedding)         (None, 5, 14)        2128        transPoss[0][0]                  
__________________________________________________________________________________________________
concatenate_82 (Concatenate)    (None, 50, 191)      0           phraseTokenEmb[0][0]             
                                                                 phrasePosEmb[0][0]               
__________________________________________________________________________________________________
transTokenFlat (Flatten)        (None, 495)          0           transTokenEmb[0][0]              
__________________________________________________________________________________________________
transPosFlat (Flatten)          (None, 70)           0           transPosEmb[0][0]                
__________________________________________________________________________________________________
phraseRnn (GRU)                 (None, 95)           81795       concatenate_82[0][0]             
__________________________________________________________________________________________________
concatenate_83 (Concatenate)    (None, 565)          0           transTokenFlat[0][0]             
                                                                 transPosFlat[0][0]               
__________________________________________________________________________________________________
concatenate_84 (Concatenate)    (None, 660)          0           phraseRnn[0][0]                  
                                                                 concatenate_83[0][0]             
__________________________________________________________________________________________________
dense_55 (Dense)                (None, 39)           25779       concatenate_84[0][0]             
__________________________________________________________________________________________________
dense_56 (Dense)                (None, 4)            160         dense_55[0][0]                   
==================================================================================================
Total params: 2,231,375
Trainable params: 2,231,375
Non-trainable params: 0
__________________________________________________________________________________________________
None
__________________________________________________________________________________________________
…
==================================================================================================
	Tokens := 7241 * POS : 169
__________________________________________________________________________________________________
	Important words not in vocabulary 1
	MWE not in vocabulary 3
	Dashed keys in vocabulary 1674
	One occurrence keys in vocabulary 1674 / 7241
__________________________________________________________________________________________________
Layer (type)                    Output Shape         Param #     Connected to                     
==================================================================================================
phraseTokens (InputLayer)       (None, 50)           0                                            
__________________________________________________________________________________________________
phrasePoss (InputLayer)         (None, 50)           0                                            
__________________________________________________________________________________________________
transTokens (InputLayer)        (None, 5)            0                                            
__________________________________________________________________________________________________
transPoss (InputLayer)          (None, 5)            0                                            
__________________________________________________________________________________________________
phraseTokenEmb (Embedding)      (None, 50, 182)      1317862     phraseTokens[0][0]               
__________________________________________________________________________________________________
phrasePosEmb (Embedding)        (None, 50, 9)        1521        phrasePoss[0][0]                 
__________________________________________________________________________________________________
transTokenEmb (Embedding)       (None, 5, 99)        716859      transTokens[0][0]                
__________________________________________________________________________________________________
transPosEmb (Embedding)         (None, 5, 14)        2366        transPoss[0][0]                  
__________________________________________________________________________________________________
concatenate_85 (Concatenate)    (None, 50, 191)      0           phraseTokenEmb[0][0]             
                                                                 phrasePosEmb[0][0]               
__________________________________________________________________________________________________
transTokenFlat (Flatten)        (None, 495)          0           transTokenEmb[0][0]              
__________________________________________________________________________________________________
transPosFlat (Flatten)          (None, 70)           0           transPosEmb[0][0]                
__________________________________________________________________________________________________
phraseRnn (GRU)                 (None, 95)           81795       concatenate_85[0][0]             
__________________________________________________________________________________________________
concatenate_86 (Concatenate)    (None, 565)          0           transTokenFlat[0][0]             
                                                                 transPosFlat[0][0]               
__________________________________________________________________________________________________
concatenate_87 (Concatenate)    (None, 660)          0           phraseRnn[0][0]                  
                                                                 concatenate_86[0][0]             
__________________________________________________________________________________________________
dense_57 (Dense)                (None, 39)           25779       concatenate_87[0][0]             
__________________________________________________________________________________________________
dense_58 (Dense)                (None, 4)            160         dense_57[0][0]                   
==================================================================================================
Total params: 2,146,342
Trainable params: 2,146,342
Non-trainable params: 0
__________________________________________________________________________________________________
None
__________________________________________________________________________________________________
…
==================================================================================================
	Tokens := 13793 * POS : 109
__________________________________________________________________________________________________
	Dashed keys in vocabulary 3161
	One occurrence keys in vocabulary 3161 / 13793
__________________________________________________________________________________________________
Layer (type)                    Output Shape         Param #     Connected to                     
==================================================================================================
phraseTokens (InputLayer)       (None, 50)           0                                            
__________________________________________________________________________________________________
phrasePoss (InputLayer)         (None, 50)           0                                            
__________________________________________________________________________________________________
transTokens (InputLayer)        (None, 5)            0                                            
__________________________________________________________________________________________________
transPoss (InputLayer)          (None, 5)            0                                            
__________________________________________________________________________________________________
phraseTokenEmb (Embedding)      (None, 50, 182)      2510326     phraseTokens[0][0]               
__________________________________________________________________________________________________
phrasePosEmb (Embedding)        (None, 50, 9)        981         phrasePoss[0][0]                 
__________________________________________________________________________________________________
transTokenEmb (Embedding)       (None, 5, 99)        1365507     transTokens[0][0]                
__________________________________________________________________________________________________
transPosEmb (Embedding)         (None, 5, 14)        1526        transPoss[0][0]                  
__________________________________________________________________________________________________
concatenate_88 (Concatenate)    (None, 50, 191)      0           phraseTokenEmb[0][0]             
                                                                 phrasePosEmb[0][0]               
__________________________________________________________________________________________________
transTokenFlat (Flatten)        (None, 495)          0           transTokenEmb[0][0]              
__________________________________________________________________________________________________
transPosFlat (Flatten)          (None, 70)           0           transPosEmb[0][0]                
__________________________________________________________________________________________________
phraseRnn (GRU)                 (None, 95)           81795       concatenate_88[0][0]             
__________________________________________________________________________________________________
concatenate_89 (Concatenate)    (None, 565)          0           transTokenFlat[0][0]             
                                                                 transPosFlat[0][0]               
__________________________________________________________________________________________________
concatenate_90 (Concatenate)    (None, 660)          0           phraseRnn[0][0]                  
                                                                 concatenate_89[0][0]             
__________________________________________________________________________________________________
dense_59 (Dense)                (None, 39)           25779       concatenate_90[0][0]             
__________________________________________________________________________________________________
dense_60 (Dense)                (None, 4)            160         dense_59[0][0]                   
==================================================================================================
Total params: 3,986,074
Trainable params: 3,986,074
Non-trainable params: 0
__________________________________________________________________________________________________
None
__________________________________________________________________________________________________
…
==================================================================================================
	Tokens := 7545 * POS : 152
__________________________________________________________________________________________________
	Dashed keys in vocabulary 1622
	One occurrence keys in vocabulary 1622 / 7545
__________________________________________________________________________________________________
Layer (type)                    Output Shape         Param #     Connected to                     
==================================================================================================
phraseTokens (InputLayer)       (None, 50)           0                                            
__________________________________________________________________________________________________
phrasePoss (InputLayer)         (None, 50)           0                                            
__________________________________________________________________________________________________
transTokens (InputLayer)        (None, 5)            0                                            
__________________________________________________________________________________________________
transPoss (InputLayer)          (None, 5)            0                                            
__________________________________________________________________________________________________
phraseTokenEmb (Embedding)      (None, 50, 25)       188625      phraseTokens[0][0]               
__________________________________________________________________________________________________
phrasePosEmb (Embedding)        (None, 50, 10)       1520        phrasePoss[0][0]                 
__________________________________________________________________________________________________
transTokenEmb (Embedding)       (None, 5, 141)       1063845     transTokens[0][0]                
__________________________________________________________________________________________________
transPosEmb (Embedding)         (None, 5, 21)        3192        transPoss[0][0]                  
__________________________________________________________________________________________________
concatenate_91 (Concatenate)    (None, 50, 35)       0           phraseTokenEmb[0][0]             
                                                                 phrasePosEmb[0][0]               
__________________________________________________________________________________________________
transTokenFlat (Flatten)        (None, 705)          0           transTokenEmb[0][0]              
__________________________________________________________________________________________________
transPosFlat (Flatten)          (None, 105)          0           transPosEmb[0][0]                
__________________________________________________________________________________________________
phraseRnn (GRU)                 (None, 108)          46656       concatenate_91[0][0]             
__________________________________________________________________________________________________
concatenate_92 (Concatenate)    (None, 810)          0           transTokenFlat[0][0]             
                                                                 transPosFlat[0][0]               
__________________________________________________________________________________________________
concatenate_93 (Concatenate)    (None, 918)          0           phraseRnn[0][0]                  
                                                                 concatenate_92[0][0]             
__________________________________________________________________________________________________
dense_61 (Dense)                (None, 32)           29408       concatenate_93[0][0]             
__________________________________________________________________________________________________
dense_62 (Dense)                (None, 4)            132         dense_61[0][0]                   
==================================================================================================
Total params: 1,333,378
Trainable params: 1,333,378
Non-trainable params: 0
__________________________________________________________________________________________________
None
__________________________________________________________________________________________________
…
==================================================================================================
	Tokens := 7241 * POS : 169
__________________________________________________________________________________________________
	Important words not in vocabulary 1
	MWE not in vocabulary 3
	Dashed keys in vocabulary 1674
	One occurrence keys in vocabulary 1674 / 7241
__________________________________________________________________________________________________
Layer (type)                    Output Shape         Param #     Connected to                     
==================================================================================================
phraseTokens (InputLayer)       (None, 50)           0                                            
__________________________________________________________________________________________________
phrasePoss (InputLayer)         (None, 50)           0                                            
__________________________________________________________________________________________________
transTokens (InputLayer)        (None, 5)            0                                            
__________________________________________________________________________________________________
transPoss (InputLayer)          (None, 5)            0                                            
__________________________________________________________________________________________________
phraseTokenEmb (Embedding)      (None, 50, 25)       181025      phraseTokens[0][0]               
__________________________________________________________________________________________________
phrasePosEmb (Embedding)        (None, 50, 10)       1690        phrasePoss[0][0]                 
__________________________________________________________________________________________________
transTokenEmb (Embedding)       (None, 5, 141)       1020981     transTokens[0][0]                
__________________________________________________________________________________________________
transPosEmb (Embedding)         (None, 5, 21)        3549        transPoss[0][0]                  
__________________________________________________________________________________________________
concatenate_94 (Concatenate)    (None, 50, 35)       0           phraseTokenEmb[0][0]             
                                                                 phrasePosEmb[0][0]               
__________________________________________________________________________________________________
transTokenFlat (Flatten)        (None, 705)          0           transTokenEmb[0][0]              
__________________________________________________________________________________________________
transPosFlat (Flatten)          (None, 105)          0           transPosEmb[0][0]                
__________________________________________________________________________________________________
phraseRnn (GRU)                 (None, 108)          46656       concatenate_94[0][0]             
__________________________________________________________________________________________________
concatenate_95 (Concatenate)    (None, 810)          0           transTokenFlat[0][0]             
                                                                 transPosFlat[0][0]               
__________________________________________________________________________________________________
concatenate_96 (Concatenate)    (None, 918)          0           phraseRnn[0][0]                  
                                                                 concatenate_95[0][0]             
__________________________________________________________________________________________________
dense_63 (Dense)                (None, 32)           29408       concatenate_96[0][0]             
__________________________________________________________________________________________________
dense_64 (Dense)                (None, 4)            132         dense_63[0][0]                   
==================================================================================================
Total params: 1,283,441
Trainable params: 1,283,441
Non-trainable params: 0
__________________________________________________________________________________________________
None
__________________________________________________________________________________________________
…
==================================================================================================
	Tokens := 13793 * POS : 109
__________________________________________________________________________________________________
	Dashed keys in vocabulary 3161
	One occurrence keys in vocabulary 3161 / 13793
__________________________________________________________________________________________________
Layer (type)                    Output Shape         Param #     Connected to                     
==================================================================================================
phraseTokens (InputLayer)       (None, 50)           0                                            
__________________________________________________________________________________________________
phrasePoss (InputLayer)         (None, 50)           0                                            
__________________________________________________________________________________________________
transTokens (InputLayer)        (None, 5)            0                                            
__________________________________________________________________________________________________
transPoss (InputLayer)          (None, 5)            0                                            
__________________________________________________________________________________________________
phraseTokenEmb (Embedding)      (None, 50, 25)       344825      phraseTokens[0][0]               
__________________________________________________________________________________________________
phrasePosEmb (Embedding)        (None, 50, 10)       1090        phrasePoss[0][0]                 
__________________________________________________________________________________________________
transTokenEmb (Embedding)       (None, 5, 141)       1944813     transTokens[0][0]                
__________________________________________________________________________________________________
transPosEmb (Embedding)         (None, 5, 21)        2289        transPoss[0][0]                  
__________________________________________________________________________________________________
concatenate_97 (Concatenate)    (None, 50, 35)       0           phraseTokenEmb[0][0]             
                                                                 phrasePosEmb[0][0]               
__________________________________________________________________________________________________
transTokenFlat (Flatten)        (None, 705)          0           transTokenEmb[0][0]              
__________________________________________________________________________________________________
transPosFlat (Flatten)          (None, 105)          0           transPosEmb[0][0]                
__________________________________________________________________________________________________
phraseRnn (GRU)                 (None, 108)          46656       concatenate_97[0][0]             
__________________________________________________________________________________________________
concatenate_98 (Concatenate)    (None, 810)          0           transTokenFlat[0][0]             
                                                                 transPosFlat[0][0]               
__________________________________________________________________________________________________
concatenate_99 (Concatenate)    (None, 918)          0           phraseRnn[0][0]                  
                                                                 concatenate_98[0][0]             
__________________________________________________________________________________________________
dense_65 (Dense)                (None, 32)           29408       concatenate_99[0][0]             
__________________________________________________________________________________________________
dense_66 (Dense)                (None, 4)            132         dense_65[0][0]                   
==================================================================================================
Total params: 2,369,213
Trainable params: 2,369,213
Non-trainable params: 0
__________________________________________________________________________________________________
None
__________________________________________________________________________________________________
…
==================================================================================================
	Tokens := 7545 * POS : 152
__________________________________________________________________________________________________
	Dashed keys in vocabulary 1622
	One occurrence keys in vocabulary 1622 / 7545
__________________________________________________________________________________________________
Layer (type)                    Output Shape         Param #     Connected to                     
==================================================================================================
phraseTokens (InputLayer)       (None, 50)           0                                            
__________________________________________________________________________________________________
phrasePoss (InputLayer)         (None, 50)           0                                            
__________________________________________________________________________________________________
transTokens (InputLayer)        (None, 4)            0                                            
__________________________________________________________________________________________________
transPoss (InputLayer)          (None, 4)            0                                            
__________________________________________________________________________________________________
phraseTokenEmb (Embedding)      (None, 50, 70)       528150      phraseTokens[0][0]               
__________________________________________________________________________________________________
phrasePosEmb (Embedding)        (None, 50, 8)        1216        phrasePoss[0][0]                 
__________________________________________________________________________________________________
transTokenEmb (Embedding)       (None, 4, 129)       973305      transTokens[0][0]                
__________________________________________________________________________________________________
transPosEmb (Embedding)         (None, 4, 19)        2888        transPoss[0][0]                  
__________________________________________________________________________________________________
concatenate_100 (Concatenate)   (None, 50, 78)       0           phraseTokenEmb[0][0]             
                                                                 phrasePosEmb[0][0]               
__________________________________________________________________________________________________
transTokenFlat (Flatten)        (None, 516)          0           transTokenEmb[0][0]              
__________________________________________________________________________________________________
transPosFlat (Flatten)          (None, 76)           0           transPosEmb[0][0]                
__________________________________________________________________________________________________
phraseRnn (GRU)                 (None, 228)          209988      concatenate_100[0][0]            
__________________________________________________________________________________________________
concatenate_101 (Concatenate)   (None, 592)          0           transTokenFlat[0][0]             
                                                                 transPosFlat[0][0]               
__________________________________________________________________________________________________
concatenate_102 (Concatenate)   (None, 820)          0           phraseRnn[0][0]                  
                                                                 concatenate_101[0][0]            
__________________________________________________________________________________________________
dense_67 (Dense)                (None, 39)           32019       concatenate_102[0][0]            
__________________________________________________________________________________________________
dense_68 (Dense)                (None, 4)            160         dense_67[0][0]                   
==================================================================================================
Total params: 1,747,726
Trainable params: 1,747,726
Non-trainable params: 0
__________________________________________________________________________________________________
None
__________________________________________________________________________________________________
…
==================================================================================================
	Tokens := 7241 * POS : 169
__________________________________________________________________________________________________
	Important words not in vocabulary 1
	MWE not in vocabulary 3
	Dashed keys in vocabulary 1674
	One occurrence keys in vocabulary 1674 / 7241
__________________________________________________________________________________________________
Layer (type)                    Output Shape         Param #     Connected to                     
==================================================================================================
phraseTokens (InputLayer)       (None, 50)           0                                            
__________________________________________________________________________________________________
phrasePoss (InputLayer)         (None, 50)           0                                            
__________________________________________________________________________________________________
transTokens (InputLayer)        (None, 4)            0                                            
__________________________________________________________________________________________________
transPoss (InputLayer)          (None, 4)            0                                            
__________________________________________________________________________________________________
phraseTokenEmb (Embedding)      (None, 50, 70)       506870      phraseTokens[0][0]               
__________________________________________________________________________________________________
phrasePosEmb (Embedding)        (None, 50, 8)        1352        phrasePoss[0][0]                 
__________________________________________________________________________________________________
transTokenEmb (Embedding)       (None, 4, 129)       934089      transTokens[0][0]                
__________________________________________________________________________________________________
…
__________________________________________________________________________________________________
concatenate_181 (Concatenate)   (None, 50, 206)      0           phraseTokenEmb[0][0]             
                                                                 phrasePosEmb[0][0]               
__________________________________________________________________________________________________
transTokenFlat (Flatten)        (None, 395)          0           transTokenEmb[0][0]              
__________________________________________________________________________________________________
transPosFlat (Flatten)          (None, 135)          0           transPosEmb[0][0]                
__________________________________________________________________________________________________
phraseRnn (GRU)                 (None, 486)          1010394     concatenate_181[0][0]            
__________________________________________________________________________________________________
concatenate_182 (Concatenate)   (None, 530)          0           transTokenFlat[0][0]             
                                                                 transPosFlat[0][0]               
__________________________________________________________________________________________________
concatenate_183 (Concatenate)   (None, 1016)         0           phraseRnn[0][0]                  
                                                                 concatenate_182[0][0]            
__________________________________________________________________________________________________
dense_121 (Dense)               (None, 136)          138312      concatenate_183[0][0]            
__________________________________________________________________________________________________
dense_122 (Dense)               (None, 4)            548         dense_121[0][0]                  
==================================================================================================
Total params: 4,097,180
Trainable params: 4,097,180
Non-trainable params: 0
__________________________________________________________________________________________________
None
__________________________________________________________________________________________________
…
	Tokens := 9401 * POS : 169
__________________________________________________________________________________________________
	Important words not in vocabulary 182
	MWE not in vocabulary 1082
	Dashed keys in vocabulary 2380
	One occurrence keys in vocabulary 2380 / 9401
__________________________________________________________________________________________________
Layer (type)                    Output Shape         Param #     Connected to                     
==================================================================================================
phraseTokens (InputLayer)       (None, 50)           0                                            
__________________________________________________________________________________________________
phrasePoss (InputLayer)         (None, 50)           0                                            
__________________________________________________________________________________________________
transTokens (InputLayer)        (None, 5)            0                                            
__________________________________________________________________________________________________
transPoss (InputLayer)          (None, 5)            0                                            
__________________________________________________________________________________________________
phraseTokenEmb (Embedding)      (None, 50, 178)      1673378     phraseTokens[0][0]               
__________________________________________________________________________________________________
phrasePosEmb (Embedding)        (None, 50, 28)       4732        phrasePoss[0][0]                 
__________________________________________________________________________________________________
transTokenEmb (Embedding)       (None, 5, 79)        742679      transTokens[0][0]                
__________________________________________________________________________________________________
transPosEmb (Embedding)         (None, 5, 27)        4563        transPoss[0][0]                  
__________________________________________________________________________________________________
concatenate_184 (Concatenate)   (None, 50, 206)      0           phraseTokenEmb[0][0]             
                                                                 phrasePosEmb[0][0]               
__________________________________________________________________________________________________
transTokenFlat (Flatten)        (None, 395)          0           transTokenEmb[0][0]              
__________________________________________________________________________________________________
transPosFlat (Flatten)          (None, 135)          0           transPosEmb[0][0]                
__________________________________________________________________________________________________
phraseRnn (GRU)                 (None, 486)          1010394     concatenate_184[0][0]            
__________________________________________________________________________________________________
concatenate_185 (Concatenate)   (None, 530)          0           transTokenFlat[0][0]             
                                                                 transPosFlat[0][0]               
__________________________________________________________________________________________________
concatenate_186 (Concatenate)   (None, 1016)         0           phraseRnn[0][0]                  
                                                                 concatenate_185[0][0]            
__________________________________________________________________________________________________
dense_123 (Dense)               (None, 136)          138312      concatenate_186[0][0]            
__________________________________________________________________________________________________
dense_124 (Dense)               (None, 4)            548         dense_123[0][0]                  
==================================================================================================
Total params: 3,574,606
Trainable params: 3,574,606
Non-trainable params: 0
__________________________________________________________________________________________________
None
__________________________________________________________________________________________________
…
	Tokens := 22071 * POS : 109
__________________________________________________________________________________________________
	Important words not in vocabulary 221
	MWE not in vocabulary 1768
	Dashed keys in vocabulary 3975
	One occurrence keys in vocabulary 3975 / 22071
__________________________________________________________________________________________________
Layer (type)                    Output Shape         Param #     Connected to                     
==================================================================================================
phraseTokens (InputLayer)       (None, 50)           0                                            
__________________________________________________________________________________________________
phrasePoss (InputLayer)         (None, 50)           0                                            
__________________________________________________________________________________________________
transTokens (InputLayer)        (None, 5)            0                                            
__________________________________________________________________________________________________
transPoss (InputLayer)          (None, 5)            0                                            
__________________________________________________________________________________________________
phraseTokenEmb (Embedding)      (None, 50, 178)      3928638     phraseTokens[0][0]               
__________________________________________________________________________________________________
phrasePosEmb (Embedding)        (None, 50, 28)       3052        phrasePoss[0][0]                 
__________________________________________________________________________________________________
transTokenEmb (Embedding)       (None, 5, 79)        1743609     transTokens[0][0]                
__________________________________________________________________________________________________
transPosEmb (Embedding)         (None, 5, 27)        2943        transPoss[0][0]                  
__________________________________________________________________________________________________
concatenate_187 (Concatenate)   (None, 50, 206)      0           phraseTokenEmb[0][0]             
                                                                 phrasePosEmb[0][0]               
__________________________________________________________________________________________________
transTokenFlat (Flatten)        (None, 395)          0           transTokenEmb[0][0]              
__________________________________________________________________________________________________
transPosFlat (Flatten)          (None, 135)          0           transPosEmb[0][0]                
__________________________________________________________________________________________________
phraseRnn (GRU)                 (None, 486)          1010394     concatenate_187[0][0]            
__________________________________________________________________________________________________
concatenate_188 (Concatenate)   (None, 530)          0           transTokenFlat[0][0]             
                                                                 transPosFlat[0][0]               
__________________________________________________________________________________________________
concatenate_189 (Concatenate)   (None, 1016)         0           phraseRnn[0][0]                  
                                                                 concatenate_188[0][0]            
__________________________________________________________________________________________________
dense_125 (Dense)               (None, 136)          138312      concatenate_189[0][0]            
__________________________________________________________________________________________________
dense_126 (Dense)               (None, 4)            548         dense_125[0][0]                  
==================================================================================================
Total params: 6,827,496
Trainable params: 6,827,496
Non-trainable params: 0
__________________________________________________________________________________________________
None
__________________________________________________________________________________________________
…
==================================================================================================
	Tokens := 7545 * POS : 152
__________________________________________________________________________________________________
	Dashed keys in vocabulary 1622
	One occurrence keys in vocabulary 1622 / 7545
__________________________________________________________________________________________________
Layer (type)                    Output Shape         Param #     Connected to                     
==================================================================================================
phraseTokens (InputLayer)       (None, 50)           0                                            
__________________________________________________________________________________________________
phrasePoss (InputLayer)         (None, 50)           0                                            
__________________________________________________________________________________________________
transTokens (InputLayer)        (None, 5)            0                                            
__________________________________________________________________________________________________
transPoss (InputLayer)          (None, 5)            0                                            
__________________________________________________________________________________________________
phraseTokenEmb (Embedding)      (None, 50, 135)      1018575     phraseTokens[0][0]               
__________________________________________________________________________________________________
phrasePosEmb (Embedding)        (None, 50, 7)        1064        phrasePoss[0][0]                 
__________________________________________________________________________________________________
transTokenEmb (Embedding)       (None, 5, 142)       1071390     transTokens[0][0]                
__________________________________________________________________________________________________
transPosEmb (Embedding)         (None, 5, 10)        1520        transPoss[0][0]                  
__________________________________________________________________________________________________
concatenate_190 (Concatenate)   (None, 50, 142)      0           phraseTokenEmb[0][0]             
                                                                 phrasePosEmb[0][0]               
__________________________________________________________________________________________________
transTokenFlat (Flatten)        (None, 710)          0           transTokenEmb[0][0]              
__________________________________________________________________________________________________
transPosFlat (Flatten)          (None, 50)           0           transPosEmb[0][0]                
__________________________________________________________________________________________________
phraseRnn (GRU)                 (None, 40)           21960       concatenate_190[0][0]            
__________________________________________________________________________________________________
concatenate_191 (Concatenate)   (None, 760)          0           transTokenFlat[0][0]             
                                                                 transPosFlat[0][0]               
__________________________________________________________________________________________________
concatenate_192 (Concatenate)   (None, 800)          0           phraseRnn[0][0]                  
                                                                 concatenate_191[0][0]            
__________________________________________________________________________________________________
dense_127 (Dense)               (None, 262)          209862      concatenate_192[0][0]            
__________________________________________________________________________________________________
dense_128 (Dense)               (None, 4)            1052        dense_127[0][0]                  
==================================================================================================
Total params: 2,325,423
Trainable params: 2,325,423
Non-trainable params: 0
__________________________________________________________________________________________________
None
__________________________________________________________________________________________________
…
==================================================================================================
	Tokens := 7241 * POS : 169
__________________________________________________________________________________________________
	Important words not in vocabulary 1
	MWE not in vocabulary 3
	Dashed keys in vocabulary 1674
	One occurrence keys in vocabulary 1674 / 7241
__________________________________________________________________________________________________
Layer (type)                    Output Shape         Param #     Connected to                     
==================================================================================================
phraseTokens (InputLayer)       (None, 50)           0                                            
__________________________________________________________________________________________________
phrasePoss (InputLayer)         (None, 50)           0                                            
__________________________________________________________________________________________________
transTokens (InputLayer)        (None, 5)            0                                            
__________________________________________________________________________________________________
transPoss (InputLayer)          (None, 5)            0                                            
__________________________________________________________________________________________________
phraseTokenEmb (Embedding)      (None, 50, 135)      977535      phraseTokens[0][0]               
__________________________________________________________________________________________________
phrasePosEmb (Embedding)        (None, 50, 7)        1183        phrasePoss[0][0]                 
__________________________________________________________________________________________________
transTokenEmb (Embedding)       (None, 5, 142)       1028222     transTokens[0][0]                
__________________________________________________________________________________________________
transPosEmb (Embedding)         (None, 5, 10)        1690        transPoss[0][0]                  
__________________________________________________________________________________________________
concatenate_193 (Concatenate)   (None, 50, 142)      0           phraseTokenEmb[0][0]             
                                                                 phrasePosEmb[0][0]               
__________________________________________________________________________________________________
transTokenFlat (Flatten)        (None, 710)          0           transTokenEmb[0][0]              
__________________________________________________________________________________________________
transPosFlat (Flatten)          (None, 50)           0           transPosEmb[0][0]                
__________________________________________________________________________________________________
phraseRnn (GRU)                 (None, 40)           21960       concatenate_193[0][0]            
__________________________________________________________________________________________________
concatenate_194 (Concatenate)   (None, 760)          0           transTokenFlat[0][0]             
                                                                 transPosFlat[0][0]               
__________________________________________________________________________________________________
concatenate_195 (Concatenate)   (None, 800)          0           phraseRnn[0][0]                  
                                                                 concatenate_194[0][0]            
__________________________________________________________________________________________________
dense_129 (Dense)               (None, 262)          209862      concatenate_195[0][0]            
__________________________________________________________________________________________________
dense_130 (Dense)               (None, 4)            1052        dense_129[0][0]                  
==================================================================================================
Total params: 2,241,504
Trainable params: 2,241,504
Non-trainable params: 0
__________________________________________________________________________________________________
None
__________________________________________________________________________________________________
…
==================================================================================================
	Tokens := 13793 * POS : 109
__________________________________________________________________________________________________
	Dashed keys in vocabulary 3161
	One occurrence keys in vocabulary 3161 / 13793
__________________________________________________________________________________________________
Layer (type)                    Output Shape         Param #     Connected to                     
==================================================================================================
phraseTokens (InputLayer)       (None, 50)           0                                            
__________________________________________________________________________________________________
phrasePoss (InputLayer)         (None, 50)           0                                            
__________________________________________________________________________________________________
transTokens (InputLayer)        (None, 5)            0                                            
__________________________________________________________________________________________________
transPoss (InputLayer)          (None, 5)            0                                            
__________________________________________________________________________________________________
phraseTokenEmb (Embedding)      (None, 50, 135)      1862055     phraseTokens[0][0]               
__________________________________________________________________________________________________
phrasePosEmb (Embedding)        (None, 50, 7)        763         phrasePoss[0][0]                 
__________________________________________________________________________________________________
transTokenEmb (Embedding)       (None, 5, 142)       1958606     transTokens[0][0]                
__________________________________________________________________________________________________
transPosEmb (Embedding)         (None, 5, 10)        1090        transPoss[0][0]                  
__________________________________________________________________________________________________
concatenate_196 (Concatenate)   (None, 50, 142)      0           phraseTokenEmb[0][0]             
                                                                 phrasePosEmb[0][0]               
__________________________________________________________________________________________________
transTokenFlat (Flatten)        (None, 710)          0           transTokenEmb[0][0]              
__________________________________________________________________________________________________
transPosFlat (Flatten)          (None, 50)           0           transPosEmb[0][0]                
__________________________________________________________________________________________________
phraseRnn (GRU)                 (None, 40)           21960       concatenate_196[0][0]            
__________________________________________________________________________________________________
concatenate_197 (Concatenate)   (None, 760)          0           transTokenFlat[0][0]             
                                                                 transPosFlat[0][0]               
__________________________________________________________________________________________________
concatenate_198 (Concatenate)   (None, 800)          0           phraseRnn[0][0]                  
                                                                 concatenate_197[0][0]            
__________________________________________________________________________________________________
dense_131 (Dense)               (None, 262)          209862      concatenate_198[0][0]            
__________________________________________________________________________________________________
dense_132 (Dense)               (None, 4)            1052        dense_131[0][0]                  
==================================================================================================
Total params: 4,055,388
Trainable params: 4,055,388
Non-trainable params: 0
__________________________________________________________________________________________________
None
__________________________________________________________________________________________________
…
	Tokens := 11438 * POS : 152
__________________________________________________________________________________________________
	Important words not in vocabulary 675
	MWE not in vocabulary 1297
	Dashed keys in vocabulary 2182
	One occurrence keys in vocabulary 2182 / 11438
__________________________________________________________________________________________________
Layer (type)                    Output Shape         Param #     Connected to                     
==================================================================================================
phraseTokens (InputLayer)       (None, 50)           0                                            
__________________________________________________________________________________________________
phrasePoss (InputLayer)         (None, 50)           0                                            
__________________________________________________________________________________________________
transTokens (InputLayer)        (None, 5)            0                                            
__________________________________________________________________________________________________
transPoss (InputLayer)          (None, 5)            0                                            
__________________________________________________________________________________________________
phraseTokenEmb (Embedding)      (None, 50, 116)      1326808     phraseTokens[0][0]               
__________________________________________________________________________________________________
phrasePosEmb (Embedding)        (None, 50, 8)        1216        phrasePoss[0][0]                 
__________________________________________________________________________________________________
transTokenEmb (Embedding)       (None, 5, 164)       1875832     transTokens[0][0]                
__________________________________________________________________________________________________
transPosEmb (Embedding)         (None, 5, 12)        1824        transPoss[0][0]                  
__________________________________________________________________________________________________
concatenate_199 (Concatenate)   (None, 50, 124)      0           phraseTokenEmb[0][0]             
                                                                 phrasePosEmb[0][0]               
__________________________________________________________________________________________________
transTokenFlat (Flatten)        (None, 820)          0           transTokenEmb[0][0]              
__________________________________________________________________________________________________
transPosFlat (Flatten)          (None, 60)           0           transPosEmb[0][0]                
__________________________________________________________________________________________________
phraseRnn (GRU)                 (None, 403)          638352      concatenate_199[0][0]            
__________________________________________________________________________________________________
concatenate_200 (Concatenate)   (None, 880)          0           transTokenFlat[0][0]             
                                                                 transPosFlat[0][0]               
__________________________________________________________________________________________________
concatenate_201 (Concatenate)   (None, 1283)         0           phraseRnn[0][0]                  
                                                                 concatenate_200[0][0]            
__________________________________________________________________________________________________
dense_133 (Dense)               (None, 31)           39804       concatenate_201[0][0]            
__________________________________________________________________________________________________
dense_134 (Dense)               (None, 4)            128         dense_133[0][0]                  
==================================================================================================
Total params: 3,883,964
Trainable params: 3,883,964
Non-trainable params: 0
__________________________________________________________________________________________________
None
__________________________________________________________________________________________________
…
	Tokens := 9401 * POS : 169
__________________________________________________________________________________________________
	Important words not in vocabulary 182
	MWE not in vocabulary 1082
	Dashed keys in vocabulary 2380
	One occurrence keys in vocabulary 2380 / 9401
__________________________________________________________________________________________________
Layer (type)                    Output Shape         Param #     Connected to                     
==================================================================================================
phraseTokens (InputLayer)       (None, 50)           0                                            
__________________________________________________________________________________________________
phrasePoss (InputLayer)         (None, 50)           0                                            
__________________________________________________________________________________________________
transTokens (InputLayer)        (None, 5)            0                                            
__________________________________________________________________________________________________
transPoss (InputLayer)          (None, 5)            0                                            
__________________________________________________________________________________________________
phraseTokenEmb (Embedding)      (None, 50, 116)      1090516     phraseTokens[0][0]               
__________________________________________________________________________________________________
phrasePosEmb (Embedding)        (None, 50, 8)        1352        phrasePoss[0][0]                 
__________________________________________________________________________________________________
transTokenEmb (Embedding)       (None, 5, 164)       1541764     transTokens[0][0]                
__________________________________________________________________________________________________
transPosEmb (Embedding)         (None, 5, 12)        2028        transPoss[0][0]                  
__________________________________________________________________________________________________
concatenate_202 (Concatenate)   (None, 50, 124)      0           phraseTokenEmb[0][0]             
                                                                 phrasePosEmb[0][0]               
__________________________________________________________________________________________________
transTokenFlat (Flatten)        (None, 820)          0           transTokenEmb[0][0]              
__________________________________________________________________________________________________
transPosFlat (Flatten)          (None, 60)           0           transPosEmb[0][0]                
__________________________________________________________________________________________________
phraseRnn (GRU)                 (None, 403)          638352      concatenate_202[0][0]            
__________________________________________________________________________________________________
concatenate_203 (Concatenate)   (None, 880)          0           transTokenFlat[0][0]             
                                                                 transPosFlat[0][0]               
__________________________________________________________________________________________________
concatenate_204 (Concatenate)   (None, 1283)         0           phraseRnn[0][0]                  
                                                                 concatenate_203[0][0]            
__________________________________________________________________________________________________
dense_135 (Dense)               (None, 31)           39804       concatenate_204[0][0]            
__________________________________________________________________________________________________
dense_136 (Dense)               (None, 4)            128         dense_135[0][0]                  
==================================================================================================
Total params: 3,313,944
Trainable params: 3,313,944
Non-trainable params: 0
__________________________________________________________________________________________________
None
__________________________________________________________________________________________________
…
	Tokens := 22071 * POS : 109
__________________________________________________________________________________________________
	Important words not in vocabulary 221
	MWE not in vocabulary 1768
	Dashed keys in vocabulary 3975
	One occurrence keys in vocabulary 3975 / 22071
__________________________________________________________________________________________________
Layer (type)                    Output Shape         Param #     Connected to                     
==================================================================================================
phraseTokens (InputLayer)       (None, 50)           0                                            
__________________________________________________________________________________________________
phrasePoss (InputLayer)         (None, 50)           0                                            
__________________________________________________________________________________________________
transTokens (InputLayer)        (None, 5)            0                                            
__________________________________________________________________________________________________
transPoss (InputLayer)          (None, 5)            0                                            
__________________________________________________________________________________________________
phraseTokenEmb (Embedding)      (None, 50, 116)      2560236     phraseTokens[0][0]               
__________________________________________________________________________________________________
phrasePosEmb (Embedding)        (None, 50, 8)        872         phrasePoss[0][0]                 
__________________________________________________________________________________________________
transTokenEmb (Embedding)       (None, 5, 164)       3619644     transTokens[0][0]                
__________________________________________________________________________________________________
transPosEmb (Embedding)         (None, 5, 12)        1308        transPoss[0][0]                  
__________________________________________________________________________________________________
concatenate_205 (Concatenate)   (None, 50, 124)      0           phraseTokenEmb[0][0]             
                                                                 phrasePosEmb[0][0]               
__________________________________________________________________________________________________
transTokenFlat (Flatten)        (None, 820)          0           transTokenEmb[0][0]              
__________________________________________________________________________________________________
transPosFlat (Flatten)          (None, 60)           0           transPosEmb[0][0]                
__________________________________________________________________________________________________
phraseRnn (GRU)                 (None, 403)          638352      concatenate_205[0][0]            
__________________________________________________________________________________________________
concatenate_206 (Concatenate)   (None, 880)          0           transTokenFlat[0][0]             
                                                                 transPosFlat[0][0]               
__________________________________________________________________________________________________
concatenate_207 (Concatenate)   (None, 1283)         0           phraseRnn[0][0]                  
                                                                 concatenate_206[0][0]            
__________________________________________________________________________________________________
dense_137 (Dense)               (None, 31)           39804       concatenate_207[0][0]            
__________________________________________________________________________________________________
dense_138 (Dense)               (None, 4)            128         dense_137[0][0]                  
==================================================================================================
Total params: 6,860,344
Trainable params: 6,860,344
Non-trainable params: 0
__________________________________________________________________________________________________
None
__________________________________________________________________________________________________
…
==================================================================================================
	Tokens := 7545 * POS : 152
__________________________________________________________________________________________________
	Dashed keys in vocabulary 1622
	One occurrence keys in vocabulary 1622 / 7545
__________________________________________________________________________________________________
Layer (type)                    Output Shape         Param #     Connected to                     
==================================================================================================
phraseTokens (InputLayer)       (None, 50)           0                                            
__________________________________________________________________________________________________
phrasePoss (InputLayer)         (None, 50)           0                                            
__________________________________________________________________________________________________
transTokens (InputLayer)        (None, 5)            0                                            
__________________________________________________________________________________________________
transPoss (InputLayer)          (None, 5)            0                                            
__________________________________________________________________________________________________
phraseTokenEmb (Embedding)      (None, 50, 180)      1358100     phraseTokens[0][0]               
__________________________________________________________________________________________________
phrasePosEmb (Embedding)        (None, 50, 29)       4408        phrasePoss[0][0]                 
__________________________________________________________________________________________________
transTokenEmb (Embedding)       (None, 5, 127)       958215      transTokens[0][0]                
__________________________________________________________________________________________________
transPosEmb (Embedding)         (None, 5, 12)        1824        transPoss[0][0]                  
__________________________________________________________________________________________________
concatenate_208 (Concatenate)   (None, 50, 209)      0           phraseTokenEmb[0][0]             
                                                                 phrasePosEmb[0][0]               
__________________________________________________________________________________________________
transTokenFlat (Flatten)        (None, 635)          0           transTokenEmb[0][0]              
__________________________________________________________________________________________________
transPosFlat (Flatten)          (None, 60)           0           transPosEmb[0][0]                
__________________________________________________________________________________________________
phraseRnn (GRU)                 (None, 121)          120153      concatenate_208[0][0]            
__________________________________________________________________________________________________
concatenate_209 (Concatenate)   (None, 695)          0           transTokenFlat[0][0]             
                                                                 transPosFlat[0][0]               
__________________________________________________________________________________________________
concatenate_210 (Concatenate)   (None, 816)          0           phraseRnn[0][0]                  
                                                                 concatenate_209[0][0]            
__________________________________________________________________________________________________
dense_139 (Dense)               (None, 127)          103759      concatenate_210[0][0]            
__________________________________________________________________________________________________
dense_140 (Dense)               (None, 4)            512         dense_139[0][0]                  
==================================================================================================
Total params: 2,546,971
Trainable params: 2,546,971
Non-trainable params: 0
__________________________________________________________________________________________________
None
__________________________________________________________________________________________________
…
==================================================================================================
	Tokens := 7241 * POS : 169
__________________________________________________________________________________________________
	Important words not in vocabulary 1
	MWE not in vocabulary 3
	Dashed keys in vocabulary 1674
	One occurrence keys in vocabulary 1674 / 7241
__________________________________________________________________________________________________
Layer (type)                    Output Shape         Param #     Connected to                     
==================================================================================================
phraseTokens (InputLayer)       (None, 50)           0                                            
__________________________________________________________________________________________________
phrasePoss (InputLayer)         (None, 50)           0                                            
__________________________________________________________________________________________________
transTokens (InputLayer)        (None, 5)            0                                            
__________________________________________________________________________________________________
transPoss (InputLayer)          (None, 5)            0                                            
__________________________________________________________________________________________________
phraseTokenEmb (Embedding)      (None, 50, 180)      1303380     phraseTokens[0][0]               
__________________________________________________________________________________________________
phrasePosEmb (Embedding)        (None, 50, 29)       4901        phrasePoss[0][0]                 
__________________________________________________________________________________________________
transTokenEmb (Embedding)       (None, 5, 127)       919607      transTokens[0][0]                
__________________________________________________________________________________________________
transPosEmb (Embedding)         (None, 5, 12)        2028        transPoss[0][0]                  
__________________________________________________________________________________________________
concatenate_211 (Concatenate)   (None, 50, 209)      0           phraseTokenEmb[0][0]             
                                                                 phrasePosEmb[0][0]               
__________________________________________________________________________________________________
transTokenFlat (Flatten)        (None, 635)          0           transTokenEmb[0][0]              
__________________________________________________________________________________________________
transPosFlat (Flatten)          (None, 60)           0           transPosEmb[0][0]                
__________________________________________________________________________________________________
phraseRnn (GRU)                 (None, 121)          120153      concatenate_211[0][0]            
__________________________________________________________________________________________________
concatenate_212 (Concatenate)   (None, 695)          0           transTokenFlat[0][0]             
                                                                 transPosFlat[0][0]               
__________________________________________________________________________________________________
concatenate_213 (Concatenate)   (None, 816)          0           phraseRnn[0][0]                  
                                                                 concatenate_212[0][0]            
__________________________________________________________________________________________________
dense_141 (Dense)               (None, 127)          103759      concatenate_213[0][0]            
__________________________________________________________________________________________________
dense_142 (Dense)               (None, 4)            512         dense_141[0][0]                  
==================================================================================================
Total params: 2,454,340
Trainable params: 2,454,340
Non-trainable params: 0
__________________________________________________________________________________________________
None
__________________________________________________________________________________________________
…
==================================================================================================
	Tokens := 13793 * POS : 109
__________________________________________________________________________________________________
	Dashed keys in vocabulary 3161
	One occurrence keys in vocabulary 3161 / 13793
__________________________________________________________________________________________________
Layer (type)                    Output Shape         Param #     Connected to                     
==================================================================================================
phraseTokens (InputLayer)       (None, 50)           0                                            
__________________________________________________________________________________________________
phrasePoss (InputLayer)         (None, 50)           0                                            
__________________________________________________________________________________________________
transTokens (InputLayer)        (None, 5)            0                                            
__________________________________________________________________________________________________
transPoss (InputLayer)          (None, 5)            0                                            
__________________________________________________________________________________________________
phraseTokenEmb (Embedding)      (None, 50, 180)      2482740     phraseTokens[0][0]               
__________________________________________________________________________________________________
phrasePosEmb (Embedding)        (None, 50, 29)       3161        phrasePoss[0][0]                 
__________________________________________________________________________________________________
transTokenEmb (Embedding)       (None, 5, 127)       1751711     transTokens[0][0]                
__________________________________________________________________________________________________
transPosEmb (Embedding)         (None, 5, 12)        1308        transPoss[0][0]                  
__________________________________________________________________________________________________
concatenate_214 (Concatenate)   (None, 50, 209)      0           phraseTokenEmb[0][0]             
                                                                 phrasePosEmb[0][0]               
__________________________________________________________________________________________________
transTokenFlat (Flatten)        (None, 635)          0           transTokenEmb[0][0]              
__________________________________________________________________________________________________
transPosFlat (Flatten)          (None, 60)           0           transPosEmb[0][0]                
__________________________________________________________________________________________________
phraseRnn (GRU)                 (None, 121)          120153      concatenate_214[0][0]            
__________________________________________________________________________________________________
concatenate_215 (Concatenate)   (None, 695)          0           transTokenFlat[0][0]             
                                                                 transPosFlat[0][0]               
__________________________________________________________________________________________________
concatenate_216 (Concatenate)   (None, 816)          0           phraseRnn[0][0]                  
                                                                 concatenate_215[0][0]            
__________________________________________________________________________________________________
dense_143 (Dense)               (None, 127)          103759      concatenate_216[0][0]            
__________________________________________________________________________________________________
dense_144 (Dense)               (None, 4)            512         dense_143[0][0]                  
==================================================================================================
Total params: 4,463,344
Trainable params: 4,463,344
Non-trainable params: 0
__________________________________________________________________________________________________
None
__________________________________________________________________________________________________
…
