…
	Tokens := 11438 * POS : 152
__________________________________________________________________________________________________
	Important words not in vocabulary 675
	MWE not in vocabulary 1297
	Dashed keys in vocabulary 2182
	One occurrence keys in vocabulary 2182 / 11438
__________________________________________________________________________________________________
Layer (type)                    Output Shape         Param #     Connected to                     
==================================================================================================
phraseTokens (InputLayer)       (None, 50)           0                                            
__________________________________________________________________________________________________
phrasePoss (InputLayer)         (None, 50)           0                                            
__________________________________________________________________________________________________
transTokens (InputLayer)        (None, 4)            0                                            
__________________________________________________________________________________________________
transPoss (InputLayer)          (None, 4)            0                                            
__________________________________________________________________________________________________
phraseTokenEmb (Embedding)      (None, 50, 169)      1933022     phraseTokens[0][0]               
__________________________________________________________________________________________________
phrasePosEmb (Embedding)        (None, 50, 41)       6232        phrasePoss[0][0]                 
__________________________________________________________________________________________________
transTokenEmb (Embedding)       (None, 4, 130)       1486940     transTokens[0][0]                
__________________________________________________________________________________________________
transPosEmb (Embedding)         (None, 4, 48)        7296        transPoss[0][0]                  
__________________________________________________________________________________________________
concatenate_1 (Concatenate)     (None, 50, 210)      0           phraseTokenEmb[0][0]             
                                                                 phrasePosEmb[0][0]               
__________________________________________________________________________________________________
transTokenFlat (Flatten)        (None, 520)          0           transTokenEmb[0][0]              
__________________________________________________________________________________________________
transPosFlat (Flatten)          (None, 192)          0           transPosEmb[0][0]                
__________________________________________________________________________________________________
phraseRnn (GRU)                 (None, 261)          369576      concatenate_1[0][0]              
__________________________________________________________________________________________________
concatenate_2 (Concatenate)     (None, 712)          0           transTokenFlat[0][0]             
                                                                 transPosFlat[0][0]               
__________________________________________________________________________________________________
concatenate_3 (Concatenate)     (None, 973)          0           phraseRnn[0][0]                  
                                                                 concatenate_2[0][0]              
__________________________________________________________________________________________________
dense_1 (Dense)                 (None, 26)           25324       concatenate_3[0][0]              
__________________________________________________________________________________________________
dense_2 (Dense)                 (None, 4)            108         dense_1[0][0]                    
==================================================================================================
Total params: 3,828,498
Trainable params: 3,828,498
Non-trainable params: 0
__________________________________________________________________________________________________
None
__________________________________________________________________________________________________
…
	Tokens := 9401 * POS : 169
__________________________________________________________________________________________________
	Important words not in vocabulary 182
	MWE not in vocabulary 1082
	Dashed keys in vocabulary 2380
	One occurrence keys in vocabulary 2380 / 9401
__________________________________________________________________________________________________
Layer (type)                    Output Shape         Param #     Connected to                     
==================================================================================================
phraseTokens (InputLayer)       (None, 50)           0                                            
__________________________________________________________________________________________________
phrasePoss (InputLayer)         (None, 50)           0                                            
__________________________________________________________________________________________________
transTokens (InputLayer)        (None, 4)            0                                            
__________________________________________________________________________________________________
transPoss (InputLayer)          (None, 4)            0                                            
__________________________________________________________________________________________________
phraseTokenEmb (Embedding)      (None, 50, 169)      1588769     phraseTokens[0][0]               
__________________________________________________________________________________________________
phrasePosEmb (Embedding)        (None, 50, 41)       6929        phrasePoss[0][0]                 
__________________________________________________________________________________________________
transTokenEmb (Embedding)       (None, 4, 130)       1222130     transTokens[0][0]                
__________________________________________________________________________________________________
transPosEmb (Embedding)         (None, 4, 48)        8112        transPoss[0][0]                  
__________________________________________________________________________________________________
concatenate_4 (Concatenate)     (None, 50, 210)      0           phraseTokenEmb[0][0]             
                                                                 phrasePosEmb[0][0]               
__________________________________________________________________________________________________
transTokenFlat (Flatten)        (None, 520)          0           transTokenEmb[0][0]              
__________________________________________________________________________________________________
transPosFlat (Flatten)          (None, 192)          0           transPosEmb[0][0]                
__________________________________________________________________________________________________
phraseRnn (GRU)                 (None, 261)          369576      concatenate_4[0][0]              
__________________________________________________________________________________________________
concatenate_5 (Concatenate)     (None, 712)          0           transTokenFlat[0][0]             
                                                                 transPosFlat[0][0]               
__________________________________________________________________________________________________
concatenate_6 (Concatenate)     (None, 973)          0           phraseRnn[0][0]                  
                                                                 concatenate_5[0][0]              
__________________________________________________________________________________________________
dense_3 (Dense)                 (None, 26)           25324       concatenate_6[0][0]              
__________________________________________________________________________________________________
dense_4 (Dense)                 (None, 4)            108         dense_3[0][0]                    
==================================================================================================
Total params: 3,220,948
Trainable params: 3,220,948
Non-trainable params: 0
__________________________________________________________________________________________________
None
__________________________________________________________________________________________________
…
	Tokens := 22071 * POS : 109
__________________________________________________________________________________________________
	Important words not in vocabulary 221
	MWE not in vocabulary 1768
	Dashed keys in vocabulary 3975
	One occurrence keys in vocabulary 3975 / 22071
__________________________________________________________________________________________________
Layer (type)                    Output Shape         Param #     Connected to                     
==================================================================================================
phraseTokens (InputLayer)       (None, 50)           0                                            
__________________________________________________________________________________________________
phrasePoss (InputLayer)         (None, 50)           0                                            
__________________________________________________________________________________________________
transTokens (InputLayer)        (None, 4)            0                                            
__________________________________________________________________________________________________
transPoss (InputLayer)          (None, 4)            0                                            
__________________________________________________________________________________________________
phraseTokenEmb (Embedding)      (None, 50, 169)      3729999     phraseTokens[0][0]               
__________________________________________________________________________________________________
phrasePosEmb (Embedding)        (None, 50, 41)       4469        phrasePoss[0][0]                 
__________________________________________________________________________________________________
transTokenEmb (Embedding)       (None, 4, 130)       2869230     transTokens[0][0]                
__________________________________________________________________________________________________
transPosEmb (Embedding)         (None, 4, 48)        5232        transPoss[0][0]                  
__________________________________________________________________________________________________
concatenate_7 (Concatenate)     (None, 50, 210)      0           phraseTokenEmb[0][0]             
                                                                 phrasePosEmb[0][0]               
__________________________________________________________________________________________________
transTokenFlat (Flatten)        (None, 520)          0           transTokenEmb[0][0]              
__________________________________________________________________________________________________
transPosFlat (Flatten)          (None, 192)          0           transPosEmb[0][0]                
__________________________________________________________________________________________________
phraseRnn (GRU)                 (None, 261)          369576      concatenate_7[0][0]              
__________________________________________________________________________________________________
concatenate_8 (Concatenate)     (None, 712)          0           transTokenFlat[0][0]             
                                                                 transPosFlat[0][0]               
__________________________________________________________________________________________________
concatenate_9 (Concatenate)     (None, 973)          0           phraseRnn[0][0]                  
                                                                 concatenate_8[0][0]              
__________________________________________________________________________________________________
dense_5 (Dense)                 (None, 26)           25324       concatenate_9[0][0]              
__________________________________________________________________________________________________
dense_6 (Dense)                 (None, 4)            108         dense_5[0][0]                    
==================================================================================================
Total params: 7,003,938
Trainable params: 7,003,938
Non-trainable params: 0
__________________________________________________________________________________________________
None
__________________________________________________________________________________________________
…
==================================================================================================
	Tokens := 7545 * POS : 152
__________________________________________________________________________________________________
	Dashed keys in vocabulary 1622
	One occurrence keys in vocabulary 1622 / 7545
__________________________________________________________________________________________________
Layer (type)                    Output Shape         Param #     Connected to                     
==================================================================================================
phraseTokens (InputLayer)       (None, 50)           0                                            
__________________________________________________________________________________________________
phrasePoss (InputLayer)         (None, 50)           0                                            
__________________________________________________________________________________________________
transTokens (InputLayer)        (None, 5)            0                                            
__________________________________________________________________________________________________
transPoss (InputLayer)          (None, 5)            0                                            
__________________________________________________________________________________________________
phraseTokenEmb (Embedding)      (None, 50, 103)      777135      phraseTokens[0][0]               
__________________________________________________________________________________________________
phrasePosEmb (Embedding)        (None, 50, 33)       5016        phrasePoss[0][0]                 
__________________________________________________________________________________________________
transTokenEmb (Embedding)       (None, 5, 139)       1048755     transTokens[0][0]                
__________________________________________________________________________________________________
transPosEmb (Embedding)         (None, 5, 5)         760         transPoss[0][0]                  
__________________________________________________________________________________________________
concatenate_10 (Concatenate)    (None, 50, 136)      0           phraseTokenEmb[0][0]             
                                                                 phrasePosEmb[0][0]               
__________________________________________________________________________________________________
transTokenFlat (Flatten)        (None, 695)          0           transTokenEmb[0][0]              
__________________________________________________________________________________________________
transPosFlat (Flatten)          (None, 25)           0           transPosEmb[0][0]                
__________________________________________________________________________________________________
phraseRnn (LSTM)                (None, 96)           89472       concatenate_10[0][0]             
__________________________________________________________________________________________________
concatenate_11 (Concatenate)    (None, 720)          0           transTokenFlat[0][0]             
                                                                 transPosFlat[0][0]               
__________________________________________________________________________________________________
concatenate_12 (Concatenate)    (None, 816)          0           phraseRnn[0][0]                  
                                                                 concatenate_11[0][0]             
__________________________________________________________________________________________________
dense_7 (Dense)                 (None, 147)          120099      concatenate_12[0][0]             
__________________________________________________________________________________________________
dense_8 (Dense)                 (None, 4)            592         dense_7[0][0]                    
==================================================================================================
Total params: 2,041,829
Trainable params: 2,041,829
Non-trainable params: 0
__________________________________________________________________________________________________
None
__________________________________________________________________________________________________
…
==================================================================================================
	Tokens := 7241 * POS : 169
__________________________________________________________________________________________________
	Important words not in vocabulary 1
	MWE not in vocabulary 3
	Dashed keys in vocabulary 1674
	One occurrence keys in vocabulary 1674 / 7241
__________________________________________________________________________________________________
Layer (type)                    Output Shape         Param #     Connected to                     
==================================================================================================
phraseTokens (InputLayer)       (None, 50)           0                                            
__________________________________________________________________________________________________
phrasePoss (InputLayer)         (None, 50)           0                                            
__________________________________________________________________________________________________
transTokens (InputLayer)        (None, 5)            0                                            
__________________________________________________________________________________________________
transPoss (InputLayer)          (None, 5)            0                                            
__________________________________________________________________________________________________
phraseTokenEmb (Embedding)      (None, 50, 103)      745823      phraseTokens[0][0]               
__________________________________________________________________________________________________
phrasePosEmb (Embedding)        (None, 50, 33)       5577        phrasePoss[0][0]                 
__________________________________________________________________________________________________
transTokenEmb (Embedding)       (None, 5, 139)       1006499     transTokens[0][0]                
__________________________________________________________________________________________________
transPosEmb (Embedding)         (None, 5, 5)         845         transPoss[0][0]                  
__________________________________________________________________________________________________
concatenate_13 (Concatenate)    (None, 50, 136)      0           phraseTokenEmb[0][0]             
                                                                 phrasePosEmb[0][0]               
__________________________________________________________________________________________________
transTokenFlat (Flatten)        (None, 695)          0           transTokenEmb[0][0]              
__________________________________________________________________________________________________
transPosFlat (Flatten)          (None, 25)           0           transPosEmb[0][0]                
__________________________________________________________________________________________________
phraseRnn (LSTM)                (None, 96)           89472       concatenate_13[0][0]             
__________________________________________________________________________________________________
concatenate_14 (Concatenate)    (None, 720)          0           transTokenFlat[0][0]             
                                                                 transPosFlat[0][0]               
__________________________________________________________________________________________________
concatenate_15 (Concatenate)    (None, 816)          0           phraseRnn[0][0]                  
                                                                 concatenate_14[0][0]             
__________________________________________________________________________________________________
dense_9 (Dense)                 (None, 147)          120099      concatenate_15[0][0]             
__________________________________________________________________________________________________
dense_10 (Dense)                (None, 4)            592         dense_9[0][0]                    
==================================================================================================
Total params: 1,968,907
Trainable params: 1,968,907
Non-trainable params: 0
__________________________________________________________________________________________________
None
__________________________________________________________________________________________________
…
==================================================================================================
	Tokens := 13793 * POS : 109
__________________________________________________________________________________________________
	Dashed keys in vocabulary 3161
	One occurrence keys in vocabulary 3161 / 13793
__________________________________________________________________________________________________
Layer (type)                    Output Shape         Param #     Connected to                     
==================================================================================================
phraseTokens (InputLayer)       (None, 50)           0                                            
__________________________________________________________________________________________________
phrasePoss (InputLayer)         (None, 50)           0                                            
__________________________________________________________________________________________________
transTokens (InputLayer)        (None, 5)            0                                            
__________________________________________________________________________________________________
transPoss (InputLayer)          (None, 5)            0                                            
__________________________________________________________________________________________________
phraseTokenEmb (Embedding)      (None, 50, 103)      1420679     phraseTokens[0][0]               
__________________________________________________________________________________________________
phrasePosEmb (Embedding)        (None, 50, 33)       3597        phrasePoss[0][0]                 
__________________________________________________________________________________________________
transTokenEmb (Embedding)       (None, 5, 139)       1917227     transTokens[0][0]                
__________________________________________________________________________________________________
transPosEmb (Embedding)         (None, 5, 5)         545         transPoss[0][0]                  
__________________________________________________________________________________________________
concatenate_16 (Concatenate)    (None, 50, 136)      0           phraseTokenEmb[0][0]             
                                                                 phrasePosEmb[0][0]               
__________________________________________________________________________________________________
transTokenFlat (Flatten)        (None, 695)          0           transTokenEmb[0][0]              
__________________________________________________________________________________________________
transPosFlat (Flatten)          (None, 25)           0           transPosEmb[0][0]                
__________________________________________________________________________________________________
phraseRnn (LSTM)                (None, 96)           89472       concatenate_16[0][0]             
__________________________________________________________________________________________________
concatenate_17 (Concatenate)    (None, 720)          0           transTokenFlat[0][0]             
                                                                 transPosFlat[0][0]               
__________________________________________________________________________________________________
concatenate_18 (Concatenate)    (None, 816)          0           phraseRnn[0][0]                  
                                                                 concatenate_17[0][0]             
__________________________________________________________________________________________________
dense_11 (Dense)                (None, 147)          120099      concatenate_18[0][0]             
__________________________________________________________________________________________________
dense_12 (Dense)                (None, 4)            592         dense_11[0][0]                   
==================================================================================================
Total params: 3,552,211
Trainable params: 3,552,211
Non-trainable params: 0
__________________________________________________________________________________________________
None
__________________________________________________________________________________________________
…
==================================================================================================
	Tokens := 7545 * POS : 152
__________________________________________________________________________________________________
	Dashed keys in vocabulary 1622
	One occurrence keys in vocabulary 1622 / 7545
__________________________________________________________________________________________________
Layer (type)                    Output Shape         Param #     Connected to                     
==================================================================================================
phraseTokens (InputLayer)       (None, 50)           0                                            
__________________________________________________________________________________________________
phrasePoss (InputLayer)         (None, 50)           0                                            
__________________________________________________________________________________________________
transTokens (InputLayer)        (None, 4)            0                                            
__________________________________________________________________________________________________
transPoss (InputLayer)          (None, 4)            0                                            
__________________________________________________________________________________________________
phraseTokenEmb (Embedding)      (None, 50, 54)       407430      phraseTokens[0][0]               
__________________________________________________________________________________________________
phrasePosEmb (Embedding)        (None, 50, 6)        912         phrasePoss[0][0]                 
__________________________________________________________________________________________________
transTokenEmb (Embedding)       (None, 4, 114)       860130      transTokens[0][0]                
__________________________________________________________________________________________________
transPosEmb (Embedding)         (None, 4, 10)        1520        transPoss[0][0]                  
__________________________________________________________________________________________________
concatenate_19 (Concatenate)    (None, 50, 60)       0           phraseTokenEmb[0][0]             
                                                                 phrasePosEmb[0][0]               
__________________________________________________________________________________________________
transTokenFlat (Flatten)        (None, 456)          0           transTokenEmb[0][0]              
__________________________________________________________________________________________________
transPosFlat (Flatten)          (None, 40)           0           transPosEmb[0][0]                
__________________________________________________________________________________________________
phraseRnn (GRU)                 (None, 131)          75456       concatenate_19[0][0]             
__________________________________________________________________________________________________
concatenate_20 (Concatenate)    (None, 496)          0           transTokenFlat[0][0]             
                                                                 transPosFlat[0][0]               
__________________________________________________________________________________________________
concatenate_21 (Concatenate)    (None, 627)          0           phraseRnn[0][0]                  
                                                                 concatenate_20[0][0]             
__________________________________________________________________________________________________
dense_13 (Dense)                (None, 27)           16956       concatenate_21[0][0]             
__________________________________________________________________________________________________
dense_14 (Dense)                (None, 4)            112         dense_13[0][0]                   
==================================================================================================
Total params: 1,362,516
Trainable params: 1,362,516
Non-trainable params: 0
__________________________________________________________________________________________________
None
__________________________________________________________________________________________________
…
==================================================================================================
	Tokens := 7241 * POS : 169
__________________________________________________________________________________________________
	Important words not in vocabulary 1
	MWE not in vocabulary 3
	Dashed keys in vocabulary 1674
	One occurrence keys in vocabulary 1674 / 7241
__________________________________________________________________________________________________
Layer (type)                    Output Shape         Param #     Connected to                     
==================================================================================================
phraseTokens (InputLayer)       (None, 50)           0                                            
__________________________________________________________________________________________________
phrasePoss (InputLayer)         (None, 50)           0                                            
__________________________________________________________________________________________________
transTokens (InputLayer)        (None, 4)            0                                            
__________________________________________________________________________________________________
transPoss (InputLayer)          (None, 4)            0                                            
__________________________________________________________________________________________________
phraseTokenEmb (Embedding)      (None, 50, 54)       391014      phraseTokens[0][0]               
__________________________________________________________________________________________________
phrasePosEmb (Embedding)        (None, 50, 6)        1014        phrasePoss[0][0]                 
__________________________________________________________________________________________________
transTokenEmb (Embedding)       (None, 4, 114)       825474      transTokens[0][0]                
__________________________________________________________________________________________________
transPosEmb (Embedding)         (None, 4, 10)        1690        transPoss[0][0]                  
__________________________________________________________________________________________________
concatenate_22 (Concatenate)    (None, 50, 60)       0           phraseTokenEmb[0][0]             
                                                                 phrasePosEmb[0][0]               
__________________________________________________________________________________________________
transTokenFlat (Flatten)        (None, 456)          0           transTokenEmb[0][0]              
__________________________________________________________________________________________________
transPosFlat (Flatten)          (None, 40)           0           transPosEmb[0][0]                
__________________________________________________________________________________________________
phraseRnn (GRU)                 (None, 131)          75456       concatenate_22[0][0]             
__________________________________________________________________________________________________
concatenate_23 (Concatenate)    (None, 496)          0           transTokenFlat[0][0]             
                                                                 transPosFlat[0][0]               
__________________________________________________________________________________________________
concatenate_24 (Concatenate)    (None, 627)          0           phraseRnn[0][0]                  
                                                                 concatenate_23[0][0]             
__________________________________________________________________________________________________
dense_15 (Dense)                (None, 27)           16956       concatenate_24[0][0]             
__________________________________________________________________________________________________
dense_16 (Dense)                (None, 4)            112         dense_15[0][0]                   
==================================================================================================
Total params: 1,311,716
Trainable params: 1,311,716
Non-trainable params: 0
__________________________________________________________________________________________________
None
__________________________________________________________________________________________________
…
==================================================================================================
	Tokens := 13793 * POS : 109
__________________________________________________________________________________________________
	Dashed keys in vocabulary 3161
	One occurrence keys in vocabulary 3161 / 13793
__________________________________________________________________________________________________
Layer (type)                    Output Shape         Param #     Connected to                     
==================================================================================================
phraseTokens (InputLayer)       (None, 50)           0                                            
__________________________________________________________________________________________________
phrasePoss (InputLayer)         (None, 50)           0                                            
__________________________________________________________________________________________________
transTokens (InputLayer)        (None, 4)            0                                            
__________________________________________________________________________________________________
transPoss (InputLayer)          (None, 4)            0                                            
__________________________________________________________________________________________________
phraseTokenEmb (Embedding)      (None, 50, 54)       744822      phraseTokens[0][0]               
__________________________________________________________________________________________________
phrasePosEmb (Embedding)        (None, 50, 6)        654         phrasePoss[0][0]                 
__________________________________________________________________________________________________
transTokenEmb (Embedding)       (None, 4, 114)       1572402     transTokens[0][0]                
__________________________________________________________________________________________________
transPosEmb (Embedding)         (None, 4, 10)        1090        transPoss[0][0]                  
__________________________________________________________________________________________________
concatenate_25 (Concatenate)    (None, 50, 60)       0           phraseTokenEmb[0][0]             
                                                                 phrasePosEmb[0][0]               
__________________________________________________________________________________________________
transTokenFlat (Flatten)        (None, 456)          0           transTokenEmb[0][0]              
__________________________________________________________________________________________________
transPosFlat (Flatten)          (None, 40)           0           transPosEmb[0][0]                
__________________________________________________________________________________________________
phraseRnn (GRU)                 (None, 131)          75456       concatenate_25[0][0]             
__________________________________________________________________________________________________
concatenate_26 (Concatenate)    (None, 496)          0           transTokenFlat[0][0]             
                                                                 transPosFlat[0][0]               
__________________________________________________________________________________________________
concatenate_27 (Concatenate)    (None, 627)          0           phraseRnn[0][0]                  
                                                                 concatenate_26[0][0]             
__________________________________________________________________________________________________
dense_17 (Dense)                (None, 27)           16956       concatenate_27[0][0]             
__________________________________________________________________________________________________
dense_18 (Dense)                (None, 4)            112         dense_17[0][0]                   
==================================================================================================
Total params: 2,411,492
Trainable params: 2,411,492
Non-trainable params: 0
__________________________________________________________________________________________________
None
__________________________________________________________________________________________________
…
==================================================================================================
	Tokens := 7545 * POS : 152
__________________________________________________________________________________________________
	Dashed keys in vocabulary 1622
	One occurrence keys in vocabulary 1622 / 7545
__________________________________________________________________________________________________
Layer (type)                    Output Shape         Param #     Connected to                     
==================================================================================================
phraseTokens (InputLayer)       (None, 50)           0                                            
__________________________________________________________________________________________________
phrasePoss (InputLayer)         (None, 50)           0                                            
__________________________________________________________________________________________________
transTokens (InputLayer)        (None, 4)            0                                            
__________________________________________________________________________________________________
transPoss (InputLayer)          (None, 4)            0                                            
__________________________________________________________________________________________________
phraseTokenEmb (Embedding)      (None, 50, 84)       633780      phraseTokens[0][0]               
__________________________________________________________________________________________________
phrasePosEmb (Embedding)        (None, 50, 8)        1216        phrasePoss[0][0]                 
__________________________________________________________________________________________________
transTokenEmb (Embedding)       (None, 4, 75)        565875      transTokens[0][0]                
__________________________________________________________________________________________________
transPosEmb (Embedding)         (None, 4, 9)         1368        transPoss[0][0]                  
__________________________________________________________________________________________________
concatenate_28 (Concatenate)    (None, 50, 92)       0           phraseTokenEmb[0][0]             
                                                                 phrasePosEmb[0][0]               
__________________________________________________________________________________________________
transTokenFlat (Flatten)        (None, 300)          0           transTokenEmb[0][0]              
__________________________________________________________________________________________________
transPosFlat (Flatten)          (None, 36)           0           transPosEmb[0][0]                
__________________________________________________________________________________________________
phraseRnn (LSTM)                (None, 29)           14152       concatenate_28[0][0]             
__________________________________________________________________________________________________
concatenate_29 (Concatenate)    (None, 336)          0           transTokenFlat[0][0]             
                                                                 transPosFlat[0][0]               
__________________________________________________________________________________________________
concatenate_30 (Concatenate)    (None, 365)          0           phraseRnn[0][0]                  
                                                                 concatenate_29[0][0]             
__________________________________________________________________________________________________
dense_19 (Dense)                (None, 66)           24156       concatenate_30[0][0]             
__________________________________________________________________________________________________
dense_20 (Dense)                (None, 4)            268         dense_19[0][0]                   
==================================================================================================
Total params: 1,240,815
Trainable params: 1,240,815
Non-trainable params: 0
__________________________________________________________________________________________________
None
__________________________________________________________________________________________________
…
==================================================================================================
	Tokens := 7241 * POS : 169
__________________________________________________________________________________________________
	Important words not in vocabulary 1
	MWE not in vocabulary 3
	Dashed keys in vocabulary 1674
	One occurrence keys in vocabulary 1674 / 7241
__________________________________________________________________________________________________
Layer (type)                    Output Shape         Param #     Connected to                     
==================================================================================================
phraseTokens (InputLayer)       (None, 50)           0                                            
__________________________________________________________________________________________________
phrasePoss (InputLayer)         (None, 50)           0                                            
__________________________________________________________________________________________________
transTokens (InputLayer)        (None, 4)            0                                            
__________________________________________________________________________________________________
transPoss (InputLayer)          (None, 4)            0                                            
__________________________________________________________________________________________________
phraseTokenEmb (Embedding)      (None, 50, 84)       608244      phraseTokens[0][0]               
__________________________________________________________________________________________________
phrasePosEmb (Embedding)        (None, 50, 8)        1352        phrasePoss[0][0]                 
__________________________________________________________________________________________________
transTokenEmb (Embedding)       (None, 4, 75)        543075      transTokens[0][0]                
__________________________________________________________________________________________________
transPosEmb (Embedding)         (None, 4, 9)         1521        transPoss[0][0]                  
__________________________________________________________________________________________________
concatenate_31 (Concatenate)    (None, 50, 92)       0           phraseTokenEmb[0][0]             
                                                                 phrasePosEmb[0][0]               
__________________________________________________________________________________________________
transTokenFlat (Flatten)        (None, 300)          0           transTokenEmb[0][0]              
__________________________________________________________________________________________________
transPosFlat (Flatten)          (None, 36)           0           transPosEmb[0][0]                
__________________________________________________________________________________________________
phraseRnn (LSTM)                (None, 29)           14152       concatenate_31[0][0]             
__________________________________________________________________________________________________
concatenate_32 (Concatenate)    (None, 336)          0           transTokenFlat[0][0]             
                                                                 transPosFlat[0][0]               
__________________________________________________________________________________________________
concatenate_33 (Concatenate)    (None, 365)          0           phraseRnn[0][0]                  
                                                                 concatenate_32[0][0]             
__________________________________________________________________________________________________
dense_21 (Dense)                (None, 66)           24156       concatenate_33[0][0]             
__________________________________________________________________________________________________
dense_22 (Dense)                (None, 4)            268         dense_21[0][0]                   
==================================================================================================
Total params: 1,192,768
Trainable params: 1,192,768
Non-trainable params: 0
__________________________________________________________________________________________________
None
__________________________________________________________________________________________________
…
==================================================================================================
	Tokens := 13793 * POS : 109
__________________________________________________________________________________________________
	Dashed keys in vocabulary 3161
	One occurrence keys in vocabulary 3161 / 13793
__________________________________________________________________________________________________
Layer (type)                    Output Shape         Param #     Connected to                     
==================================================================================================
phraseTokens (InputLayer)       (None, 50)           0                                            
__________________________________________________________________________________________________
phrasePoss (InputLayer)         (None, 50)           0                                            
__________________________________________________________________________________________________
transTokens (InputLayer)        (None, 4)            0                                            
__________________________________________________________________________________________________
transPoss (InputLayer)          (None, 4)            0                                            
__________________________________________________________________________________________________
phraseTokenEmb (Embedding)      (None, 50, 84)       1158612     phraseTokens[0][0]               
__________________________________________________________________________________________________
phrasePosEmb (Embedding)        (None, 50, 8)        872         phrasePoss[0][0]                 
__________________________________________________________________________________________________
transTokenEmb (Embedding)       (None, 4, 75)        1034475     transTokens[0][0]                
__________________________________________________________________________________________________
transPosEmb (Embedding)         (None, 4, 9)         981         transPoss[0][0]                  
__________________________________________________________________________________________________
concatenate_34 (Concatenate)    (None, 50, 92)       0           phraseTokenEmb[0][0]             
                                                                 phrasePosEmb[0][0]               
__________________________________________________________________________________________________
transTokenFlat (Flatten)        (None, 300)          0           transTokenEmb[0][0]              
__________________________________________________________________________________________________
transPosFlat (Flatten)          (None, 36)           0           transPosEmb[0][0]                
__________________________________________________________________________________________________
phraseRnn (LSTM)                (None, 29)           14152       concatenate_34[0][0]             
__________________________________________________________________________________________________
concatenate_35 (Concatenate)    (None, 336)          0           transTokenFlat[0][0]             
                                                                 transPosFlat[0][0]               
__________________________________________________________________________________________________
concatenate_36 (Concatenate)    (None, 365)          0           phraseRnn[0][0]                  
                                                                 concatenate_35[0][0]             
__________________________________________________________________________________________________
dense_23 (Dense)                (None, 66)           24156       concatenate_36[0][0]             
__________________________________________________________________________________________________
dense_24 (Dense)                (None, 4)            268         dense_23[0][0]                   
==================================================================================================
Total params: 2,233,516
Trainable params: 2,233,516
Non-trainable params: 0
__________________________________________________________________________________________________
None
__________________________________________________________________________________________________
…
==================================================================================================
	Tokens := 7545 * POS : 152
__________________________________________________________________________________________________
	Dashed keys in vocabulary 1622
	One occurrence keys in vocabulary 1622 / 7545
__________________________________________________________________________________________________
Layer (type)                    Output Shape         Param #     Connected to                     
==================================================================================================
phraseTokens (InputLayer)       (None, 50)           0                                            
__________________________________________________________________________________________________
phrasePoss (InputLayer)         (None, 50)           0                                            
__________________________________________________________________________________________________
transTokens (InputLayer)        (None, 5)            0                                            
__________________________________________________________________________________________________
transPoss (InputLayer)          (None, 5)            0                                            
__________________________________________________________________________________________________
phraseTokenEmb (Embedding)      (None, 50, 34)       256530      phraseTokens[0][0]               
__________________________________________________________________________________________________
phrasePosEmb (Embedding)        (None, 50, 41)       6232        phrasePoss[0][0]                 
__________________________________________________________________________________________________
transTokenEmb (Embedding)       (None, 5, 75)        565875      transTokens[0][0]                
__________________________________________________________________________________________________
transPosEmb (Embedding)         (None, 5, 5)         760         transPoss[0][0]                  
__________________________________________________________________________________________________
concatenate_37 (Concatenate)    (None, 50, 75)       0           phraseTokenEmb[0][0]             
                                                                 phrasePosEmb[0][0]               
__________________________________________________________________________________________________
transTokenFlat (Flatten)        (None, 375)          0           transTokenEmb[0][0]              
__________________________________________________________________________________________________
transPosFlat (Flatten)          (None, 25)           0           transPosEmb[0][0]                
__________________________________________________________________________________________________
phraseRnn (LSTM)                (None, 44)           21120       concatenate_37[0][0]             
__________________________________________________________________________________________________
concatenate_38 (Concatenate)    (None, 400)          0           transTokenFlat[0][0]             
                                                                 transPosFlat[0][0]               
__________________________________________________________________________________________________
concatenate_39 (Concatenate)    (None, 444)          0           phraseRnn[0][0]                  
                                                                 concatenate_38[0][0]             
__________________________________________________________________________________________________
dense_25 (Dense)                (None, 50)           22250       concatenate_39[0][0]             
__________________________________________________________________________________________________
dense_26 (Dense)                (None, 4)            204         dense_25[0][0]                   
==================================================================================================
Total params: 872,971
Trainable params: 872,971
Non-trainable params: 0
__________________________________________________________________________________________________
None
__________________________________________________________________________________________________
…
==================================================================================================
	Tokens := 7241 * POS : 169
__________________________________________________________________________________________________
	Important words not in vocabulary 1
	MWE not in vocabulary 3
	Dashed keys in vocabulary 1674
	One occurrence keys in vocabulary 1674 / 7241
__________________________________________________________________________________________________
Layer (type)                    Output Shape         Param #     Connected to                     
==================================================================================================
phraseTokens (InputLayer)       (None, 50)           0                                            
__________________________________________________________________________________________________
phrasePoss (InputLayer)         (None, 50)           0                                            
__________________________________________________________________________________________________
transTokens (InputLayer)        (None, 5)            0                                            
__________________________________________________________________________________________________
transPoss (InputLayer)          (None, 5)            0                                            
__________________________________________________________________________________________________
phraseTokenEmb (Embedding)      (None, 50, 34)       246194      phraseTokens[0][0]               
__________________________________________________________________________________________________
phrasePosEmb (Embedding)        (None, 50, 41)       6929        phrasePoss[0][0]                 
__________________________________________________________________________________________________
transTokenEmb (Embedding)       (None, 5, 75)        543075      transTokens[0][0]                
__________________________________________________________________________________________________
transPosEmb (Embedding)         (None, 5, 5)         845         transPoss[0][0]                  
__________________________________________________________________________________________________
concatenate_40 (Concatenate)    (None, 50, 75)       0           phraseTokenEmb[0][0]             
                                                                 phrasePosEmb[0][0]               
__________________________________________________________________________________________________
transTokenFlat (Flatten)        (None, 375)          0           transTokenEmb[0][0]              
__________________________________________________________________________________________________
transPosFlat (Flatten)          (None, 25)           0           transPosEmb[0][0]                
__________________________________________________________________________________________________
phraseRnn (LSTM)                (None, 44)           21120       concatenate_40[0][0]             
__________________________________________________________________________________________________
concatenate_41 (Concatenate)    (None, 400)          0           transTokenFlat[0][0]             
                                                                 transPosFlat[0][0]               
__________________________________________________________________________________________________
concatenate_42 (Concatenate)    (None, 444)          0           phraseRnn[0][0]                  
                                                                 concatenate_41[0][0]             
__________________________________________________________________________________________________
dense_27 (Dense)                (None, 50)           22250       concatenate_42[0][0]             
__________________________________________________________________________________________________
dense_28 (Dense)                (None, 4)            204         dense_27[0][0]                   
==================================================================================================
Total params: 840,617
Trainable params: 840,617
Non-trainable params: 0
__________________________________________________________________________________________________
None
__________________________________________________________________________________________________
…
==================================================================================================
	Tokens := 13793 * POS : 109
__________________________________________________________________________________________________
	Dashed keys in vocabulary 3161
	One occurrence keys in vocabulary 3161 / 13793
__________________________________________________________________________________________________
Layer (type)                    Output Shape         Param #     Connected to                     
==================================================================================================
phraseTokens (InputLayer)       (None, 50)           0                                            
__________________________________________________________________________________________________
phrasePoss (InputLayer)         (None, 50)           0                                            
__________________________________________________________________________________________________
transTokens (InputLayer)        (None, 5)            0                                            
__________________________________________________________________________________________________
transPoss (InputLayer)          (None, 5)            0                                            
__________________________________________________________________________________________________
phraseTokenEmb (Embedding)      (None, 50, 34)       468962      phraseTokens[0][0]               
__________________________________________________________________________________________________
phrasePosEmb (Embedding)        (None, 50, 41)       4469        phrasePoss[0][0]                 
__________________________________________________________________________________________________
transTokenEmb (Embedding)       (None, 5, 75)        1034475     transTokens[0][0]                
__________________________________________________________________________________________________
transPosEmb (Embedding)         (None, 5, 5)         545         transPoss[0][0]                  
__________________________________________________________________________________________________
concatenate_43 (Concatenate)    (None, 50, 75)       0           phraseTokenEmb[0][0]             
                                                                 phrasePosEmb[0][0]               
__________________________________________________________________________________________________
transTokenFlat (Flatten)        (None, 375)          0           transTokenEmb[0][0]              
__________________________________________________________________________________________________
transPosFlat (Flatten)          (None, 25)           0           transPosEmb[0][0]                
__________________________________________________________________________________________________
phraseRnn (LSTM)                (None, 44)           21120       concatenate_43[0][0]             
__________________________________________________________________________________________________
concatenate_44 (Concatenate)    (None, 400)          0           transTokenFlat[0][0]             
                                                                 transPosFlat[0][0]               
__________________________________________________________________________________________________
concatenate_45 (Concatenate)    (None, 444)          0           phraseRnn[0][0]                  
                                                                 concatenate_44[0][0]             
__________________________________________________________________________________________________
dense_29 (Dense)                (None, 50)           22250       concatenate_45[0][0]             
__________________________________________________________________________________________________
dense_30 (Dense)                (None, 4)            204         dense_29[0][0]                   
==================================================================================================
Total params: 1,552,025
Trainable params: 1,552,025
Non-trainable params: 0
__________________________________________________________________________________________________
None
__________________________________________________________________________________________________
…
==================================================================================================
	Tokens := 7545 * POS : 152
__________________________________________________________________________________________________
	Dashed keys in vocabulary 1622
	One occurrence keys in vocabulary 1622 / 7545
__________________________________________________________________________________________________
Layer (type)                    Output Shape         Param #     Connected to                     
==================================================================================================
phraseTokens (InputLayer)       (None, 50)           0                                            
__________________________________________________________________________________________________
phrasePoss (InputLayer)         (None, 50)           0                                            
__________________________________________________________________________________________________
transTokens (InputLayer)        (None, 5)            0                                            
__________________________________________________________________________________________________
transPoss (InputLayer)          (None, 5)            0                                            
__________________________________________________________________________________________________
phraseTokenEmb (Embedding)      (None, 50, 40)       301800      phraseTokens[0][0]               
__________________________________________________________________________________________________
phrasePosEmb (Embedding)        (None, 50, 46)       6992        phrasePoss[0][0]                 
__________________________________________________________________________________________________
transTokenEmb (Embedding)       (None, 5, 149)       1124205     transTokens[0][0]                
__________________________________________________________________________________________________
transPosEmb (Embedding)         (None, 5, 41)        6232        transPoss[0][0]                  
__________________________________________________________________________________________________
concatenate_46 (Concatenate)    (None, 50, 86)       0           phraseTokenEmb[0][0]             
                                                                 phrasePosEmb[0][0]               
__________________________________________________________________________________________________
transTokenFlat (Flatten)        (None, 745)          0           transTokenEmb[0][0]              
__________________________________________________________________________________________________
transPosFlat (Flatten)          (None, 205)          0           transPosEmb[0][0]                
__________________________________________________________________________________________________
phraseRnn (LSTM)                (None, 79)           52456       concatenate_46[0][0]             
__________________________________________________________________________________________________
concatenate_47 (Concatenate)    (None, 950)          0           transTokenFlat[0][0]             
                                                                 transPosFlat[0][0]               
__________________________________________________________________________________________________
concatenate_48 (Concatenate)    (None, 1029)         0           phraseRnn[0][0]                  
                                                                 concatenate_47[0][0]             
__________________________________________________________________________________________________
dense_31 (Dense)                (None, 110)          113300      concatenate_48[0][0]             
__________________________________________________________________________________________________
dense_32 (Dense)                (None, 4)            444         dense_31[0][0]                   
==================================================================================================
Total params: 1,605,429
Trainable params: 1,605,429
Non-trainable params: 0
__________________________________________________________________________________________________
None
__________________________________________________________________________________________________
…
==================================================================================================
	Tokens := 7241 * POS : 169
__________________________________________________________________________________________________
	Important words not in vocabulary 1
	MWE not in vocabulary 3
	Dashed keys in vocabulary 1674
	One occurrence keys in vocabulary 1674 / 7241
__________________________________________________________________________________________________
Layer (type)                    Output Shape         Param #     Connected to                     
==================================================================================================
phraseTokens (InputLayer)       (None, 50)           0                                            
__________________________________________________________________________________________________
phrasePoss (InputLayer)         (None, 50)           0                                            
__________________________________________________________________________________________________
transTokens (InputLayer)        (None, 5)            0                                            
__________________________________________________________________________________________________
transPoss (InputLayer)          (None, 5)            0                                            
__________________________________________________________________________________________________
phraseTokenEmb (Embedding)      (None, 50, 40)       289640      phraseTokens[0][0]               
__________________________________________________________________________________________________
phrasePosEmb (Embedding)        (None, 50, 46)       7774        phrasePoss[0][0]                 
__________________________________________________________________________________________________
transTokenEmb (Embedding)       (None, 5, 149)       1078909     transTokens[0][0]                
__________________________________________________________________________________________________
transPosEmb (Embedding)         (None, 5, 41)        6929        transPoss[0][0]                  
__________________________________________________________________________________________________
concatenate_49 (Concatenate)    (None, 50, 86)       0           phraseTokenEmb[0][0]             
                                                                 phrasePosEmb[0][0]               
__________________________________________________________________________________________________
transTokenFlat (Flatten)        (None, 745)          0           transTokenEmb[0][0]              
__________________________________________________________________________________________________
transPosFlat (Flatten)          (None, 205)          0           transPosEmb[0][0]                
__________________________________________________________________________________________________
phraseRnn (LSTM)                (None, 79)           52456       concatenate_49[0][0]             
__________________________________________________________________________________________________
concatenate_50 (Concatenate)    (None, 950)          0           transTokenFlat[0][0]             
                                                                 transPosFlat[0][0]               
__________________________________________________________________________________________________
concatenate_51 (Concatenate)    (None, 1029)         0           phraseRnn[0][0]                  
                                                                 concatenate_50[0][0]             
__________________________________________________________________________________________________
dense_33 (Dense)                (None, 110)          113300      concatenate_51[0][0]             
__________________________________________________________________________________________________
dense_34 (Dense)                (None, 4)            444         dense_33[0][0]                   
==================================================================================================
Total params: 1,549,452
Trainable params: 1,549,452
Non-trainable params: 0
__________________________________________________________________________________________________
None
__________________________________________________________________________________________________
…
==================================================================================================
	Tokens := 13793 * POS : 109
__________________________________________________________________________________________________
	Dashed keys in vocabulary 3161
	One occurrence keys in vocabulary 3161 / 13793
__________________________________________________________________________________________________
Layer (type)                    Output Shape         Param #     Connected to                     
==================================================================================================
phraseTokens (InputLayer)       (None, 50)           0                                            
__________________________________________________________________________________________________
phrasePoss (InputLayer)         (None, 50)           0                                            
__________________________________________________________________________________________________
transTokens (InputLayer)        (None, 5)            0                                            
__________________________________________________________________________________________________
transPoss (InputLayer)          (None, 5)            0                                            
__________________________________________________________________________________________________
phraseTokenEmb (Embedding)      (None, 50, 40)       551720      phraseTokens[0][0]               
__________________________________________________________________________________________________
phrasePosEmb (Embedding)        (None, 50, 46)       5014        phrasePoss[0][0]                 
__________________________________________________________________________________________________
transTokenEmb (Embedding)       (None, 5, 149)       2055157     transTokens[0][0]                
__________________________________________________________________________________________________
transPosEmb (Embedding)         (None, 5, 41)        4469        transPoss[0][0]                  
__________________________________________________________________________________________________
concatenate_52 (Concatenate)    (None, 50, 86)       0           phraseTokenEmb[0][0]             
                                                                 phrasePosEmb[0][0]               
__________________________________________________________________________________________________
transTokenFlat (Flatten)        (None, 745)          0           transTokenEmb[0][0]              
__________________________________________________________________________________________________
transPosFlat (Flatten)          (None, 205)          0           transPosEmb[0][0]                
__________________________________________________________________________________________________
phraseRnn (LSTM)                (None, 79)           52456       concatenate_52[0][0]             
__________________________________________________________________________________________________
concatenate_53 (Concatenate)    (None, 950)          0           transTokenFlat[0][0]             
                                                                 transPosFlat[0][0]               
__________________________________________________________________________________________________
concatenate_54 (Concatenate)    (None, 1029)         0           phraseRnn[0][0]                  
                                                                 concatenate_53[0][0]             
__________________________________________________________________________________________________
dense_35 (Dense)                (None, 110)          113300      concatenate_54[0][0]             
__________________________________________________________________________________________________
dense_36 (Dense)                (None, 4)            444         dense_35[0][0]                   
==================================================================================================
Total params: 2,782,560
Trainable params: 2,782,560
Non-trainable params: 0
__________________________________________________________________________________________________
None
__________________________________________________________________________________________________
…
	Tokens := 11438 * POS : 152
__________________________________________________________________________________________________
	Important words not in vocabulary 675
	MWE not in vocabulary 1297
	Dashed keys in vocabulary 2182
	One occurrence keys in vocabulary 2182 / 11438
__________________________________________________________________________________________________
Layer (type)                    Output Shape         Param #     Connected to                     
==================================================================================================
phraseTokens (InputLayer)       (None, 50)           0                                            
__________________________________________________________________________________________________
phrasePoss (InputLayer)         (None, 50)           0                                            
__________________________________________________________________________________________________
transTokens (InputLayer)        (None, 5)            0                                            
__________________________________________________________________________________________________
transPoss (InputLayer)          (None, 5)            0                                            
__________________________________________________________________________________________________
phraseTokenEmb (Embedding)      (None, 50, 29)       331702      phraseTokens[0][0]               
__________________________________________________________________________________________________
phrasePosEmb (Embedding)        (None, 50, 19)       2888        phrasePoss[0][0]                 
__________________________________________________________________________________________________
transTokenEmb (Embedding)       (None, 5, 81)        926478      transTokens[0][0]                
__________________________________________________________________________________________________
transPosEmb (Embedding)         (None, 5, 19)        2888        transPoss[0][0]                  
__________________________________________________________________________________________________
concatenate_55 (Concatenate)    (None, 50, 48)       0           phraseTokenEmb[0][0]             
                                                                 phrasePosEmb[0][0]               
__________________________________________________________________________________________________
transTokenFlat (Flatten)        (None, 405)          0           transTokenEmb[0][0]              
__________________________________________________________________________________________________
transPosFlat (Flatten)          (None, 95)           0           transPosEmb[0][0]                
__________________________________________________________________________________________________
phraseRnn (LSTM)                (None, 76)           38000       concatenate_55[0][0]             
__________________________________________________________________________________________________
concatenate_56 (Concatenate)    (None, 500)          0           transTokenFlat[0][0]             
                                                                 transPosFlat[0][0]               
__________________________________________________________________________________________________
concatenate_57 (Concatenate)    (None, 576)          0           phraseRnn[0][0]                  
                                                                 concatenate_56[0][0]             
__________________________________________________________________________________________________
dense_37 (Dense)                (None, 367)          211759      concatenate_57[0][0]             
__________________________________________________________________________________________________
dense_38 (Dense)                (None, 4)            1472        dense_37[0][0]                   
==================================================================================================
Total params: 1,515,187
Trainable params: 1,515,187
Non-trainable params: 0
__________________________________________________________________________________________________
None
__________________________________________________________________________________________________
…
	Tokens := 9401 * POS : 169
__________________________________________________________________________________________________
	Important words not in vocabulary 182
	MWE not in vocabulary 1082
	Dashed keys in vocabulary 2380
	One occurrence keys in vocabulary 2380 / 9401
__________________________________________________________________________________________________
Layer (type)                    Output Shape         Param #     Connected to                     
==================================================================================================
phraseTokens (InputLayer)       (None, 50)           0                                            
__________________________________________________________________________________________________
phrasePoss (InputLayer)         (None, 50)           0                                            
__________________________________________________________________________________________________
transTokens (InputLayer)        (None, 5)            0                                            
__________________________________________________________________________________________________
transPoss (InputLayer)          (None, 5)            0                                            
__________________________________________________________________________________________________
phraseTokenEmb (Embedding)      (None, 50, 29)       272629      phraseTokens[0][0]               
__________________________________________________________________________________________________
phrasePosEmb (Embedding)        (None, 50, 19)       3211        phrasePoss[0][0]                 
__________________________________________________________________________________________________
transTokenEmb (Embedding)       (None, 5, 81)        761481      transTokens[0][0]                
__________________________________________________________________________________________________
transPosEmb (Embedding)         (None, 5, 19)        3211        transPoss[0][0]                  
__________________________________________________________________________________________________
concatenate_58 (Concatenate)    (None, 50, 48)       0           phraseTokenEmb[0][0]             
                                                                 phrasePosEmb[0][0]               
__________________________________________________________________________________________________
transTokenFlat (Flatten)        (None, 405)          0           transTokenEmb[0][0]              
__________________________________________________________________________________________________
transPosFlat (Flatten)          (None, 95)           0           transPosEmb[0][0]                
__________________________________________________________________________________________________
phraseRnn (LSTM)                (None, 76)           38000       concatenate_58[0][0]             
__________________________________________________________________________________________________
concatenate_59 (Concatenate)    (None, 500)          0           transTokenFlat[0][0]             
                                                                 transPosFlat[0][0]               
__________________________________________________________________________________________________
concatenate_60 (Concatenate)    (None, 576)          0           phraseRnn[0][0]                  
                                                                 concatenate_59[0][0]             
__________________________________________________________________________________________________
dense_39 (Dense)                (None, 367)          211759      concatenate_60[0][0]             
__________________________________________________________________________________________________
dense_40 (Dense)                (None, 4)            1472        dense_39[0][0]                   
==================================================================================================
Total params: 1,291,763
Trainable params: 1,291,763
Non-trainable params: 0
__________________________________________________________________________________________________
None
__________________________________________________________________________________________________
…
	Tokens := 22071 * POS : 109
__________________________________________________________________________________________________
	Important words not in vocabulary 221
	MWE not in vocabulary 1768
	Dashed keys in vocabulary 3975
	One occurrence keys in vocabulary 3975 / 22071
__________________________________________________________________________________________________
Layer (type)                    Output Shape         Param #     Connected to                     
==================================================================================================
phraseTokens (InputLayer)       (None, 50)           0                                            
__________________________________________________________________________________________________
phrasePoss (InputLayer)         (None, 50)           0                                            
__________________________________________________________________________________________________
transTokens (InputLayer)        (None, 5)            0                                            
__________________________________________________________________________________________________
transPoss (InputLayer)          (None, 5)            0                                            
__________________________________________________________________________________________________
phraseTokenEmb (Embedding)      (None, 50, 29)       640059      phraseTokens[0][0]               
__________________________________________________________________________________________________
phrasePosEmb (Embedding)        (None, 50, 19)       2071        phrasePoss[0][0]                 
__________________________________________________________________________________________________
transTokenEmb (Embedding)       (None, 5, 81)        1787751     transTokens[0][0]                
__________________________________________________________________________________________________
transPosEmb (Embedding)         (None, 5, 19)        2071        transPoss[0][0]                  
__________________________________________________________________________________________________
concatenate_61 (Concatenate)    (None, 50, 48)       0           phraseTokenEmb[0][0]             
                                                                 phrasePosEmb[0][0]               
__________________________________________________________________________________________________
transTokenFlat (Flatten)        (None, 405)          0           transTokenEmb[0][0]              
__________________________________________________________________________________________________
transPosFlat (Flatten)          (None, 95)           0           transPosEmb[0][0]                
__________________________________________________________________________________________________
phraseRnn (LSTM)                (None, 76)           38000       concatenate_61[0][0]             
__________________________________________________________________________________________________
concatenate_62 (Concatenate)    (None, 500)          0           transTokenFlat[0][0]             
                                                                 transPosFlat[0][0]               
__________________________________________________________________________________________________
concatenate_63 (Concatenate)    (None, 576)          0           phraseRnn[0][0]                  
                                                                 concatenate_62[0][0]             
__________________________________________________________________________________________________
dense_41 (Dense)                (None, 367)          211759      concatenate_63[0][0]             
__________________________________________________________________________________________________
dense_42 (Dense)                (None, 4)            1472        dense_41[0][0]                   
==================================================================================================
Total params: 2,683,183
Trainable params: 2,683,183
Non-trainable params: 0
__________________________________________________________________________________________________
None
__________________________________________________________________________________________________
…
==================================================================================================
	Tokens := 7545 * POS : 152
__________________________________________________________________________________________________
	Dashed keys in vocabulary 1622
	One occurrence keys in vocabulary 1622 / 7545
__________________________________________________________________________________________________
Layer (type)                    Output Shape         Param #     Connected to                     
==================================================================================================
phraseTokens (InputLayer)       (None, 50)           0                                            
__________________________________________________________________________________________________
phrasePoss (InputLayer)         (None, 50)           0                                            
__________________________________________________________________________________________________
transTokens (InputLayer)        (None, 5)            0                                            
__________________________________________________________________________________________________
transPoss (InputLayer)          (None, 5)            0                                            
__________________________________________________________________________________________________
phraseTokenEmb (Embedding)      (None, 50, 42)       316890      phraseTokens[0][0]               
__________________________________________________________________________________________________
phrasePosEmb (Embedding)        (None, 50, 42)       6384        phrasePoss[0][0]                 
__________________________________________________________________________________________________
transTokenEmb (Embedding)       (None, 5, 88)        663960      transTokens[0][0]                
__________________________________________________________________________________________________
transPosEmb (Embedding)         (None, 5, 17)        2584        transPoss[0][0]                  
__________________________________________________________________________________________________
concatenate_64 (Concatenate)    (None, 50, 84)       0           phraseTokenEmb[0][0]             
                                                                 phrasePosEmb[0][0]               
__________________________________________________________________________________________________
transTokenFlat (Flatten)        (None, 440)          0           transTokenEmb[0][0]              
__________________________________________________________________________________________________
transPosFlat (Flatten)          (None, 85)           0           transPosEmb[0][0]                
__________________________________________________________________________________________________
phraseRnn (LSTM)                (None, 205)          237800      concatenate_64[0][0]             
__________________________________________________________________________________________________
concatenate_65 (Concatenate)    (None, 525)          0           transTokenFlat[0][0]             
                                                                 transPosFlat[0][0]               
__________________________________________________________________________________________________
concatenate_66 (Concatenate)    (None, 730)          0           phraseRnn[0][0]                  
                                                                 concatenate_65[0][0]             
__________________________________________________________________________________________________
dense_43 (Dense)                (None, 493)          360383      concatenate_66[0][0]             
__________________________________________________________________________________________________
dense_44 (Dense)                (None, 4)            1976        dense_43[0][0]                   
==================================================================================================
Total params: 1,589,977
Trainable params: 1,589,977
Non-trainable params: 0
__________________________________________________________________________________________________
None
__________________________________________________________________________________________________
…
==================================================================================================
	Tokens := 7241 * POS : 169
__________________________________________________________________________________________________
	Important words not in vocabulary 1
	MWE not in vocabulary 3
	Dashed keys in vocabulary 1674
	One occurrence keys in vocabulary 1674 / 7241
__________________________________________________________________________________________________
Layer (type)                    Output Shape         Param #     Connected to                     
==================================================================================================
phraseTokens (InputLayer)       (None, 50)           0                                            
__________________________________________________________________________________________________
phrasePoss (InputLayer)         (None, 50)           0                                            
__________________________________________________________________________________________________
transTokens (InputLayer)        (None, 5)            0                                            
__________________________________________________________________________________________________
transPoss (InputLayer)          (None, 5)            0                                            
__________________________________________________________________________________________________
phraseTokenEmb (Embedding)      (None, 50, 42)       304122      phraseTokens[0][0]               
__________________________________________________________________________________________________
phrasePosEmb (Embedding)        (None, 50, 42)       7098        phrasePoss[0][0]                 
__________________________________________________________________________________________________
transTokenEmb (Embedding)       (None, 5, 88)        637208      transTokens[0][0]                
__________________________________________________________________________________________________
transPosEmb (Embedding)         (None, 5, 17)        2873        transPoss[0][0]                  
__________________________________________________________________________________________________
concatenate_67 (Concatenate)    (None, 50, 84)       0           phraseTokenEmb[0][0]             
                                                                 phrasePosEmb[0][0]               
__________________________________________________________________________________________________
transTokenFlat (Flatten)        (None, 440)          0           transTokenEmb[0][0]              
__________________________________________________________________________________________________
transPosFlat (Flatten)          (None, 85)           0           transPosEmb[0][0]                
__________________________________________________________________________________________________
phraseRnn (LSTM)                (None, 205)          237800      concatenate_67[0][0]             
__________________________________________________________________________________________________
concatenate_68 (Concatenate)    (None, 525)          0           transTokenFlat[0][0]             
                                                                 transPosFlat[0][0]               
__________________________________________________________________________________________________
concatenate_69 (Concatenate)    (None, 730)          0           phraseRnn[0][0]                  
                                                                 concatenate_68[0][0]             
__________________________________________________________________________________________________
dense_45 (Dense)                (None, 493)          360383      concatenate_69[0][0]             
__________________________________________________________________________________________________
dense_46 (Dense)                (None, 4)            1976        dense_45[0][0]                   
==================================================================================================
Total params: 1,551,460
Trainable params: 1,551,460
Non-trainable params: 0
__________________________________________________________________________________________________
None
__________________________________________________________________________________________________
…
==================================================================================================
	Tokens := 13793 * POS : 109
__________________________________________________________________________________________________
	Dashed keys in vocabulary 3161
	One occurrence keys in vocabulary 3161 / 13793
__________________________________________________________________________________________________
Layer (type)                    Output Shape         Param #     Connected to                     
==================================================================================================
phraseTokens (InputLayer)       (None, 50)           0                                            
__________________________________________________________________________________________________
phrasePoss (InputLayer)         (None, 50)           0                                            
__________________________________________________________________________________________________
transTokens (InputLayer)        (None, 5)            0                                            
__________________________________________________________________________________________________
transPoss (InputLayer)          (None, 5)            0                                            
__________________________________________________________________________________________________
phraseTokenEmb (Embedding)      (None, 50, 42)       579306      phraseTokens[0][0]               
__________________________________________________________________________________________________
phrasePosEmb (Embedding)        (None, 50, 42)       4578        phrasePoss[0][0]                 
__________________________________________________________________________________________________
transTokenEmb (Embedding)       (None, 5, 88)        1213784     transTokens[0][0]                
__________________________________________________________________________________________________
transPosEmb (Embedding)         (None, 5, 17)        1853        transPoss[0][0]                  
__________________________________________________________________________________________________
concatenate_70 (Concatenate)    (None, 50, 84)       0           phraseTokenEmb[0][0]             
                                                                 phrasePosEmb[0][0]               
__________________________________________________________________________________________________
transTokenFlat (Flatten)        (None, 440)          0           transTokenEmb[0][0]              
__________________________________________________________________________________________________
transPosFlat (Flatten)          (None, 85)           0           transPosEmb[0][0]                
__________________________________________________________________________________________________
phraseRnn (LSTM)                (None, 205)          237800      concatenate_70[0][0]             
__________________________________________________________________________________________________
concatenate_71 (Concatenate)    (None, 525)          0           transTokenFlat[0][0]             
                                                                 transPosFlat[0][0]               
__________________________________________________________________________________________________
concatenate_72 (Concatenate)    (None, 730)          0           phraseRnn[0][0]                  
                                                                 concatenate_71[0][0]             
__________________________________________________________________________________________________
dense_47 (Dense)                (None, 493)          360383      concatenate_72[0][0]             
__________________________________________________________________________________________________
dense_48 (Dense)                (None, 4)            1976        dense_47[0][0]                   
==================================================================================================
Total params: 2,399,680
Trainable params: 2,399,680
Non-trainable params: 0
__________________________________________________________________________________________________
None
__________________________________________________________________________________________________
…
==================================================================================================
	Tokens := 7545 * POS : 152
__________________________________________________________________________________________________
	Dashed keys in vocabulary 1622
	One occurrence keys in vocabulary 1622 / 7545
__________________________________________________________________________________________________
Layer (type)                    Output Shape         Param #     Connected to                     
==================================================================================================
phraseTokens (InputLayer)       (None, 50)           0                                            
__________________________________________________________________________________________________
phrasePoss (InputLayer)         (None, 50)           0                                            
__________________________________________________________________________________________________
transTokens (InputLayer)        (None, 5)            0                                            
__________________________________________________________________________________________________
transPoss (InputLayer)          (None, 5)            0                                            
__________________________________________________________________________________________________
phraseTokenEmb (Embedding)      (None, 50, 49)       369705      phraseTokens[0][0]               
__________________________________________________________________________________________________
phrasePosEmb (Embedding)        (None, 50, 18)       2736        phrasePoss[0][0]                 
__________________________________________________________________________________________________
transTokenEmb (Embedding)       (None, 5, 177)       1335465     transTokens[0][0]                
__________________________________________________________________________________________________
transPosEmb (Embedding)         (None, 5, 13)        1976        transPoss[0][0]                  
__________________________________________________________________________________________________
concatenate_73 (Concatenate)    (None, 50, 67)       0           phraseTokenEmb[0][0]             
                                                                 phrasePosEmb[0][0]               
__________________________________________________________________________________________________
transTokenFlat (Flatten)        (None, 885)          0           transTokenEmb[0][0]              
__________________________________________________________________________________________________
transPosFlat (Flatten)          (None, 65)           0           transPosEmb[0][0]                
__________________________________________________________________________________________________
phraseRnn (LSTM)                (None, 157)          141300      concatenate_73[0][0]             
__________________________________________________________________________________________________
concatenate_74 (Concatenate)    (None, 950)          0           transTokenFlat[0][0]             
                                                                 transPosFlat[0][0]               
__________________________________________________________________________________________________
concatenate_75 (Concatenate)    (None, 1107)         0           phraseRnn[0][0]                  
                                                                 concatenate_74[0][0]             
__________________________________________________________________________________________________
dense_49 (Dense)                (None, 124)          137392      concatenate_75[0][0]             
__________________________________________________________________________________________________
dense_50 (Dense)                (None, 4)            500         dense_49[0][0]                   
==================================================================================================
Total params: 1,989,074
Trainable params: 1,989,074
Non-trainable params: 0
__________________________________________________________________________________________________
None
__________________________________________________________________________________________________
…
==================================================================================================
	Tokens := 7241 * POS : 169
__________________________________________________________________________________________________
	Important words not in vocabulary 1
	MWE not in vocabulary 3
	Dashed keys in vocabulary 1674
	One occurrence keys in vocabulary 1674 / 7241
__________________________________________________________________________________________________
Layer (type)                    Output Shape         Param #     Connected to                     
==================================================================================================
phraseTokens (InputLayer)       (None, 50)           0                                            
__________________________________________________________________________________________________
phrasePoss (InputLayer)         (None, 50)           0                                            
__________________________________________________________________________________________________
transTokens (InputLayer)        (None, 5)            0                                            
__________________________________________________________________________________________________
transPoss (InputLayer)          (None, 5)            0                                            
__________________________________________________________________________________________________
phraseTokenEmb (Embedding)      (None, 50, 49)       354809      phraseTokens[0][0]               
__________________________________________________________________________________________________
phrasePosEmb (Embedding)        (None, 50, 18)       3042        phrasePoss[0][0]                 
__________________________________________________________________________________________________
transTokenEmb (Embedding)       (None, 5, 177)       1281657     transTokens[0][0]                
__________________________________________________________________________________________________
transPosEmb (Embedding)         (None, 5, 13)        2197        transPoss[0][0]                  
__________________________________________________________________________________________________
concatenate_76 (Concatenate)    (None, 50, 67)       0           phraseTokenEmb[0][0]             
                                                                 phrasePosEmb[0][0]               
__________________________________________________________________________________________________
transTokenFlat (Flatten)        (None, 885)          0           transTokenEmb[0][0]              
__________________________________________________________________________________________________
transPosFlat (Flatten)          (None, 65)           0           transPosEmb[0][0]                
__________________________________________________________________________________________________
phraseRnn (LSTM)                (None, 157)          141300      concatenate_76[0][0]             
__________________________________________________________________________________________________
concatenate_77 (Concatenate)    (None, 950)          0           transTokenFlat[0][0]             
                                                                 transPosFlat[0][0]               
__________________________________________________________________________________________________
concatenate_78 (Concatenate)    (None, 1107)         0           phraseRnn[0][0]                  
                                                                 concatenate_77[0][0]             
__________________________________________________________________________________________________
dense_51 (Dense)                (None, 124)          137392      concatenate_78[0][0]             
__________________________________________________________________________________________________
dense_52 (Dense)                (None, 4)            500         dense_51[0][0]                   
==================================================================================================
Total params: 1,920,897
Trainable params: 1,920,897
Non-trainable params: 0
__________________________________________________________________________________________________
None
__________________________________________________________________________________________________
…
==================================================================================================
	Tokens := 13793 * POS : 109
__________________________________________________________________________________________________
	Dashed keys in vocabulary 3161
	One occurrence keys in vocabulary 3161 / 13793
__________________________________________________________________________________________________
Layer (type)                    Output Shape         Param #     Connected to                     
==================================================================================================
phraseTokens (InputLayer)       (None, 50)           0                                            
__________________________________________________________________________________________________
phrasePoss (InputLayer)         (None, 50)           0                                            
__________________________________________________________________________________________________
transTokens (InputLayer)        (None, 5)            0                                            
__________________________________________________________________________________________________
transPoss (InputLayer)          (None, 5)            0                                            
__________________________________________________________________________________________________
phraseTokenEmb (Embedding)      (None, 50, 49)       675857      phraseTokens[0][0]               
__________________________________________________________________________________________________
phrasePosEmb (Embedding)        (None, 50, 18)       1962        phrasePoss[0][0]                 
__________________________________________________________________________________________________
transTokenEmb (Embedding)       (None, 5, 177)       2441361     transTokens[0][0]                
__________________________________________________________________________________________________
transPosEmb (Embedding)         (None, 5, 13)        1417        transPoss[0][0]                  
__________________________________________________________________________________________________
concatenate_79 (Concatenate)    (None, 50, 67)       0           phraseTokenEmb[0][0]             
                                                                 phrasePosEmb[0][0]               
__________________________________________________________________________________________________
transTokenFlat (Flatten)        (None, 885)          0           transTokenEmb[0][0]              
__________________________________________________________________________________________________
transPosFlat (Flatten)          (None, 65)           0           transPosEmb[0][0]                
__________________________________________________________________________________________________
phraseRnn (LSTM)                (None, 157)          141300      concatenate_79[0][0]             
__________________________________________________________________________________________________
concatenate_80 (Concatenate)    (None, 950)          0           transTokenFlat[0][0]             
                                                                 transPosFlat[0][0]               
__________________________________________________________________________________________________
concatenate_81 (Concatenate)    (None, 1107)         0           phraseRnn[0][0]                  
                                                                 concatenate_80[0][0]             
__________________________________________________________________________________________________
dense_53 (Dense)                (None, 124)          137392      concatenate_81[0][0]             
__________________________________________________________________________________________________
dense_54 (Dense)                (None, 4)            500         dense_53[0][0]                   
==================================================================================================
Total params: 3,399,789
Trainable params: 3,399,789
Non-trainable params: 0
__________________________________________________________________________________________________
None
__________________________________________________________________________________________________
…
==================================================================================================
	Tokens := 7545 * POS : 152
__________________________________________________________________________________________________
	Dashed keys in vocabulary 1622
	One occurrence keys in vocabulary 1622 / 7545
__________________________________________________________________________________________________
Layer (type)                    Output Shape         Param #     Connected to                     
==================================================================================================
phraseTokens (InputLayer)       (None, 50)           0                                            
__________________________________________________________________________________________________
phrasePoss (InputLayer)         (None, 50)           0                                            
__________________________________________________________________________________________________
transTokens (InputLayer)        (None, 3)            0                                            
__________________________________________________________________________________________________
transPoss (InputLayer)          (None, 3)            0                                            
__________________________________________________________________________________________________
phraseTokenEmb (Embedding)      (None, 50, 49)       369705      phraseTokens[0][0]               
__________________________________________________________________________________________________
phrasePosEmb (Embedding)        (None, 50, 6)        912         phrasePoss[0][0]                 
__________________________________________________________________________________________________
transTokenEmb (Embedding)       (None, 3, 152)       1146840     transTokens[0][0]                
__________________________________________________________________________________________________
transPosEmb (Embedding)         (None, 3, 29)        4408        transPoss[0][0]                  
__________________________________________________________________________________________________
concatenate_82 (Concatenate)    (None, 50, 55)       0           phraseTokenEmb[0][0]             
                                                                 phrasePosEmb[0][0]               
__________________________________________________________________________________________________
transTokenFlat (Flatten)        (None, 456)          0           transTokenEmb[0][0]              
__________________________________________________________________________________________________
transPosFlat (Flatten)          (None, 87)           0           transPosEmb[0][0]                
__________________________________________________________________________________________________
phraseRnn (LSTM)                (None, 59)           27140       concatenate_82[0][0]             
__________________________________________________________________________________________________
concatenate_83 (Concatenate)    (None, 543)          0           transTokenFlat[0][0]             
                                                                 transPosFlat[0][0]               
__________________________________________________________________________________________________
concatenate_84 (Concatenate)    (None, 602)          0           phraseRnn[0][0]                  
                                                                 concatenate_83[0][0]             
__________________________________________________________________________________________________
dense_55 (Dense)                (None, 341)          205623      concatenate_84[0][0]             
__________________________________________________________________________________________________
dense_56 (Dense)                (None, 4)            1368        dense_55[0][0]                   
==================================================================================================
Total params: 1,755,996
Trainable params: 1,755,996
Non-trainable params: 0
__________________________________________________________________________________________________
None
__________________________________________________________________________________________________
…
==================================================================================================
	Tokens := 7241 * POS : 169
__________________________________________________________________________________________________
	Important words not in vocabulary 1
	MWE not in vocabulary 3
	Dashed keys in vocabulary 1674
	One occurrence keys in vocabulary 1674 / 7241
__________________________________________________________________________________________________
Layer (type)                    Output Shape         Param #     Connected to                     
==================================================================================================
phraseTokens (InputLayer)       (None, 50)           0                                            
__________________________________________________________________________________________________
phrasePoss (InputLayer)         (None, 50)           0                                            
__________________________________________________________________________________________________
transTokens (InputLayer)        (None, 3)            0                                            
__________________________________________________________________________________________________
transPoss (InputLayer)          (None, 3)            0                                            
__________________________________________________________________________________________________
phraseTokenEmb (Embedding)      (None, 50, 49)       354809      phraseTokens[0][0]               
__________________________________________________________________________________________________
phrasePosEmb (Embedding)        (None, 50, 6)        1014        phrasePoss[0][0]                 
__________________________________________________________________________________________________
transTokenEmb (Embedding)       (None, 3, 152)       1100632     transTokens[0][0]                
__________________________________________________________________________________________________
transPosEmb (Embedding)         (None, 3, 29)        4901        transPoss[0][0]                  
__________________________________________________________________________________________________
concatenate_85 (Concatenate)    (None, 50, 55)       0           phraseTokenEmb[0][0]             
                                                                 phrasePosEmb[0][0]               
__________________________________________________________________________________________________
transTokenFlat (Flatten)        (None, 456)          0           transTokenEmb[0][0]              
__________________________________________________________________________________________________
transPosFlat (Flatten)          (None, 87)           0           transPosEmb[0][0]                
__________________________________________________________________________________________________
phraseRnn (LSTM)                (None, 59)           27140       concatenate_85[0][0]             
__________________________________________________________________________________________________
concatenate_86 (Concatenate)    (None, 543)          0           transTokenFlat[0][0]             
                                                                 transPosFlat[0][0]               
__________________________________________________________________________________________________
concatenate_87 (Concatenate)    (None, 602)          0           phraseRnn[0][0]                  
                                                                 concatenate_86[0][0]             
__________________________________________________________________________________________________
dense_57 (Dense)                (None, 341)          205623      concatenate_87[0][0]             
__________________________________________________________________________________________________
dense_58 (Dense)                (None, 4)            1368        dense_57[0][0]                   
==================================================================================================
Total params: 1,695,487
Trainable params: 1,695,487
Non-trainable params: 0
__________________________________________________________________________________________________
None
__________________________________________________________________________________________________
…
==================================================================================================
	Tokens := 13793 * POS : 109
__________________________________________________________________________________________________
	Dashed keys in vocabulary 3161
	One occurrence keys in vocabulary 3161 / 13793
__________________________________________________________________________________________________
Layer (type)                    Output Shape         Param #     Connected to                     
==================================================================================================
phraseTokens (InputLayer)       (None, 50)           0                                            
__________________________________________________________________________________________________
phrasePoss (InputLayer)         (None, 50)           0                                            
__________________________________________________________________________________________________
transTokens (InputLayer)        (None, 3)            0                                            
__________________________________________________________________________________________________
transPoss (InputLayer)          (None, 3)            0                                            
__________________________________________________________________________________________________
phraseTokenEmb (Embedding)      (None, 50, 49)       675857      phraseTokens[0][0]               
__________________________________________________________________________________________________
phrasePosEmb (Embedding)        (None, 50, 6)        654         phrasePoss[0][0]                 
__________________________________________________________________________________________________
transTokenEmb (Embedding)       (None, 3, 152)       2096536     transTokens[0][0]                
__________________________________________________________________________________________________
transPosEmb (Embedding)         (None, 3, 29)        3161        transPoss[0][0]                  
__________________________________________________________________________________________________
concatenate_88 (Concatenate)    (None, 50, 55)       0           phraseTokenEmb[0][0]             
                                                                 phrasePosEmb[0][0]               
__________________________________________________________________________________________________
transTokenFlat (Flatten)        (None, 456)          0           transTokenEmb[0][0]              
__________________________________________________________________________________________________
transPosFlat (Flatten)          (None, 87)           0           transPosEmb[0][0]                
__________________________________________________________________________________________________
phraseRnn (LSTM)                (None, 59)           27140       concatenate_88[0][0]             
__________________________________________________________________________________________________
concatenate_89 (Concatenate)    (None, 543)          0           transTokenFlat[0][0]             
                                                                 transPosFlat[0][0]               
__________________________________________________________________________________________________
concatenate_90 (Concatenate)    (None, 602)          0           phraseRnn[0][0]                  
                                                                 concatenate_89[0][0]             
__________________________________________________________________________________________________
dense_59 (Dense)                (None, 341)          205623      concatenate_90[0][0]             
__________________________________________________________________________________________________
dense_60 (Dense)                (None, 4)            1368        dense_59[0][0]                   
==================================================================================================
Total params: 3,010,339
Trainable params: 3,010,339
Non-trainable params: 0
__________________________________________________________________________________________________
None
__________________________________________________________________________________________________
…
==================================================================================================
	Tokens := 7545 * POS : 152
__________________________________________________________________________________________________
	Dashed keys in vocabulary 1622
	One occurrence keys in vocabulary 1622 / 7545
__________________________________________________________________________________________________
Layer (type)                    Output Shape         Param #     Connected to                     
==================================================================================================
phraseTokens (InputLayer)       (None, 50)           0                                            
__________________________________________________________________________________________________
phrasePoss (InputLayer)         (None, 50)           0                                            
__________________________________________________________________________________________________
transTokens (InputLayer)        (None, 5)            0                                            
__________________________________________________________________________________________________
transPoss (InputLayer)          (None, 5)            0                                            
__________________________________________________________________________________________________
phraseTokenEmb (Embedding)      (None, 50, 105)      792225      phraseTokens[0][0]               
__________________________________________________________________________________________________
phrasePosEmb (Embedding)        (None, 50, 37)       5624        phrasePoss[0][0]                 
__________________________________________________________________________________________________
transTokenEmb (Embedding)       (None, 5, 56)        422520      transTokens[0][0]                
__________________________________________________________________________________________________
transPosEmb (Embedding)         (None, 5, 13)        1976        transPoss[0][0]                  
__________________________________________________________________________________________________
concatenate_91 (Concatenate)    (None, 50, 142)      0           phraseTokenEmb[0][0]             
                                                                 phrasePosEmb[0][0]               
__________________________________________________________________________________________________
transTokenFlat (Flatten)        (None, 280)          0           transTokenEmb[0][0]              
__________________________________________________________________________________________________
transPosFlat (Flatten)          (None, 65)           0           transPosEmb[0][0]                
__________________________________________________________________________________________________
phraseRnn (LSTM)                (None, 333)          634032      concatenate_91[0][0]             
__________________________________________________________________________________________________
concatenate_92 (Concatenate)    (None, 345)          0           transTokenFlat[0][0]             
                                                                 transPosFlat[0][0]               
__________________________________________________________________________________________________
concatenate_93 (Concatenate)    (None, 678)          0           phraseRnn[0][0]                  
                                                                 concatenate_92[0][0]             
__________________________________________________________________________________________________
dense_61 (Dense)                (None, 139)          94381       concatenate_93[0][0]             
__________________________________________________________________________________________________
dense_62 (Dense)                (None, 4)            560         dense_61[0][0]                   
==================================================================================================
Total params: 1,951,318
Trainable params: 1,951,318
Non-trainable params: 0
__________________________________________________________________________________________________
None
__________________________________________________________________________________________________
…
==================================================================================================
	Tokens := 7241 * POS : 169
__________________________________________________________________________________________________
	Important words not in vocabulary 1
	MWE not in vocabulary 3
	Dashed keys in vocabulary 1674
	One occurrence keys in vocabulary 1674 / 7241
__________________________________________________________________________________________________
Layer (type)                    Output Shape         Param #     Connected to                     
==================================================================================================
phraseTokens (InputLayer)       (None, 50)           0                                            
__________________________________________________________________________________________________
phrasePoss (InputLayer)         (None, 50)           0                                            
__________________________________________________________________________________________________
transTokens (InputLayer)        (None, 5)            0                                            
__________________________________________________________________________________________________
transPoss (InputLayer)          (None, 5)            0                                            
__________________________________________________________________________________________________
phraseTokenEmb (Embedding)      (None, 50, 105)      760305      phraseTokens[0][0]               
__________________________________________________________________________________________________
phrasePosEmb (Embedding)        (None, 50, 37)       6253        phrasePoss[0][0]                 
__________________________________________________________________________________________________
transTokenEmb (Embedding)       (None, 5, 56)        405496      transTokens[0][0]                
__________________________________________________________________________________________________
transPosEmb (Embedding)         (None, 5, 13)        2197        transPoss[0][0]                  
__________________________________________________________________________________________________
concatenate_94 (Concatenate)    (None, 50, 142)      0           phraseTokenEmb[0][0]             
                                                                 phrasePosEmb[0][0]               
__________________________________________________________________________________________________
transTokenFlat (Flatten)        (None, 280)          0           transTokenEmb[0][0]              
__________________________________________________________________________________________________
transPosFlat (Flatten)          (None, 65)           0           transPosEmb[0][0]                
__________________________________________________________________________________________________
phraseRnn (LSTM)                (None, 333)          634032      concatenate_94[0][0]             
__________________________________________________________________________________________________
concatenate_95 (Concatenate)    (None, 345)          0           transTokenFlat[0][0]             
                                                                 transPosFlat[0][0]               
__________________________________________________________________________________________________
concatenate_96 (Concatenate)    (None, 678)          0           phraseRnn[0][0]                  
                                                                 concatenate_95[0][0]             
__________________________________________________________________________________________________
dense_63 (Dense)                (None, 139)          94381       concatenate_96[0][0]             
__________________________________________________________________________________________________
dense_64 (Dense)                (None, 4)            560         dense_63[0][0]                   
==================================================================================================
Total params: 1,903,224
Trainable params: 1,903,224
Non-trainable params: 0
__________________________________________________________________________________________________
None
__________________________________________________________________________________________________
…
==================================================================================================
	Tokens := 13793 * POS : 109
__________________________________________________________________________________________________
	Dashed keys in vocabulary 3161
	One occurrence keys in vocabulary 3161 / 13793
__________________________________________________________________________________________________
Layer (type)                    Output Shape         Param #     Connected to                     
==================================================================================================
phraseTokens (InputLayer)       (None, 50)           0                                            
__________________________________________________________________________________________________
phrasePoss (InputLayer)         (None, 50)           0                                            
__________________________________________________________________________________________________
transTokens (InputLayer)        (None, 5)            0                                            
__________________________________________________________________________________________________
transPoss (InputLayer)          (None, 5)            0                                            
__________________________________________________________________________________________________
phraseTokenEmb (Embedding)      (None, 50, 105)      1448265     phraseTokens[0][0]               
__________________________________________________________________________________________________
phrasePosEmb (Embedding)        (None, 50, 37)       4033        phrasePoss[0][0]                 
__________________________________________________________________________________________________
transTokenEmb (Embedding)       (None, 5, 56)        772408      transTokens[0][0]                
__________________________________________________________________________________________________
transPosEmb (Embedding)         (None, 5, 13)        1417        transPoss[0][0]                  
__________________________________________________________________________________________________
concatenate_97 (Concatenate)    (None, 50, 142)      0           phraseTokenEmb[0][0]             
                                                                 phrasePosEmb[0][0]               
__________________________________________________________________________________________________
transTokenFlat (Flatten)        (None, 280)          0           transTokenEmb[0][0]              
__________________________________________________________________________________________________
transPosFlat (Flatten)          (None, 65)           0           transPosEmb[0][0]                
__________________________________________________________________________________________________
phraseRnn (LSTM)                (None, 333)          634032      concatenate_97[0][0]             
__________________________________________________________________________________________________
concatenate_98 (Concatenate)    (None, 345)          0           transTokenFlat[0][0]             
                                                                 transPosFlat[0][0]               
__________________________________________________________________________________________________
concatenate_99 (Concatenate)    (None, 678)          0           phraseRnn[0][0]                  
                                                                 concatenate_98[0][0]             
__________________________________________________________________________________________________
dense_65 (Dense)                (None, 139)          94381       concatenate_99[0][0]             
__________________________________________________________________________________________________
dense_66 (Dense)                (None, 4)            560         dense_65[0][0]                   
==================================================================================================
Total params: 2,955,096
Trainable params: 2,955,096
Non-trainable params: 0
__________________________________________________________________________________________________
None
__________________________________________________________________________________________________
…
	Tokens := 11438 * POS : 152
__________________________________________________________________________________________________
	Important words not in vocabulary 675
	MWE not in vocabulary 1297
	Dashed keys in vocabulary 2182
	One occurrence keys in vocabulary 2182 / 11438
__________________________________________________________________________________________________
Layer (type)                    Output Shape         Param #     Connected to                     
==================================================================================================
phraseTokens (InputLayer)       (None, 50)           0                                            
__________________________________________________________________________________________________
phrasePoss (InputLayer)         (None, 50)           0                                            
__________________________________________________________________________________________________
transTokens (InputLayer)        (None, 3)            0                                            
__________________________________________________________________________________________________
transPoss (InputLayer)          (None, 3)            0                                            
__________________________________________________________________________________________________
phraseTokenEmb (Embedding)      (None, 50, 53)       606214      phraseTokens[0][0]               
__________________________________________________________________________________________________
phrasePosEmb (Embedding)        (None, 50, 17)       2584        phrasePoss[0][0]                 
__________________________________________________________________________________________________
transTokenEmb (Embedding)       (None, 3, 30)        343140      transTokens[0][0]                
__________________________________________________________________________________________________
transPosEmb (Embedding)         (None, 3, 10)        1520        transPoss[0][0]                  
__________________________________________________________________________________________________
concatenate_100 (Concatenate)   (None, 50, 70)       0           phraseTokenEmb[0][0]             
                                                                 phrasePosEmb[0][0]               
__________________________________________________________________________________________________
transTokenFlat (Flatten)        (None, 90)           0           transTokenEmb[0][0]              
__________________________________________________________________________________________________
transPosFlat (Flatten)          (None, 30)           0           transPosEmb[0][0]                
__________________________________________________________________________________________________
phraseRnn (GRU)                 (None, 377)          506688      concatenate_100[0][0]            
__________________________________________________________________________________________________
concatenate_101 (Concatenate)   (None, 120)          0           transTokenFlat[0][0]             
                                                                 transPosFlat[0][0]               
__________________________________________________________________________________________________
concatenate_102 (Concatenate)   (None, 497)          0           phraseRnn[0][0]                  
                                                                 concatenate_101[0][0]            
__________________________________________________________________________________________________
dense_67 (Dense)                (None, 345)          171810      concatenate_102[0][0]            
__________________________________________________________________________________________________
dense_68 (Dense)                (None, 4)            1384        dense_67[0][0]                   
==================================================================================================
Total params: 1,633,340
Trainable params: 1,633,340
Non-trainable params: 0
__________________________________________________________________________________________________
None
__________________________________________________________________________________________________
…
	Tokens := 9401 * POS : 169
__________________________________________________________________________________________________
	Important words not in vocabulary 182
	MWE not in vocabulary 1082
	Dashed keys in vocabulary 2380
	One occurrence keys in vocabulary 2380 / 9401
__________________________________________________________________________________________________
Layer (type)                    Output Shape         Param #     Connected to                     
==================================================================================================
phraseTokens (InputLayer)       (None, 50)           0                                            
__________________________________________________________________________________________________
phrasePoss (InputLayer)         (None, 50)           0                                            
__________________________________________________________________________________________________
transTokens (InputLayer)        (None, 3)            0                                            
__________________________________________________________________________________________________
transPoss (InputLayer)          (None, 3)            0                                            
__________________________________________________________________________________________________
phraseTokenEmb (Embedding)      (None, 50, 53)       498253      phraseTokens[0][0]               
__________________________________________________________________________________________________
phrasePosEmb (Embedding)        (None, 50, 17)       2873        phrasePoss[0][0]                 
__________________________________________________________________________________________________
…
concatenate_364 (Concatenate)   (None, 50, 75)       0           phraseTokenEmb[0][0]             
                                                                 phrasePosEmb[0][0]               
__________________________________________________________________________________________________
transTokenFlat (Flatten)        (None, 544)          0           transTokenEmb[0][0]              
__________________________________________________________________________________________________
transPosFlat (Flatten)          (None, 104)          0           transPosEmb[0][0]                
__________________________________________________________________________________________________
phraseRnn (GRU)                 (None, 391)          547791      concatenate_364[0][0]            
__________________________________________________________________________________________________
concatenate_365 (Concatenate)   (None, 648)          0           transTokenFlat[0][0]             
                                                                 transPosFlat[0][0]               
__________________________________________________________________________________________________
concatenate_366 (Concatenate)   (None, 1039)         0           phraseRnn[0][0]                  
                                                                 concatenate_365[0][0]            
__________________________________________________________________________________________________
dense_243 (Dense)               (None, 255)          265200      concatenate_366[0][0]            
__________________________________________________________________________________________________
dense_244 (Dense)               (None, 4)            1024        dense_243[0][0]                  
==================================================================================================
Total params: 2,063,380
Trainable params: 2,063,380
Non-trainable params: 0
__________________________________________________________________________________________________
None
__________________________________________________________________________________________________
…
==================================================================================================
	Tokens := 13793 * POS : 109
__________________________________________________________________________________________________
	Dashed keys in vocabulary 3161
	One occurrence keys in vocabulary 3161 / 13793
__________________________________________________________________________________________________
Layer (type)                    Output Shape         Param #     Connected to                     
==================================================================================================
phraseTokens (InputLayer)       (None, 50)           0                                            
__________________________________________________________________________________________________
phrasePoss (InputLayer)         (None, 50)           0                                            
__________________________________________________________________________________________________
transTokens (InputLayer)        (None, 4)            0                                            
__________________________________________________________________________________________________
transPoss (InputLayer)          (None, 4)            0                                            
__________________________________________________________________________________________________
phraseTokenEmb (Embedding)      (None, 50, 35)       482755      phraseTokens[0][0]               
__________________________________________________________________________________________________
phrasePosEmb (Embedding)        (None, 50, 40)       4360        phrasePoss[0][0]                 
__________________________________________________________________________________________________
transTokenEmb (Embedding)       (None, 4, 136)       1875848     transTokens[0][0]                
__________________________________________________________________________________________________
transPosEmb (Embedding)         (None, 4, 26)        2834        transPoss[0][0]                  
__________________________________________________________________________________________________
concatenate_367 (Concatenate)   (None, 50, 75)       0           phraseTokenEmb[0][0]             
                                                                 phrasePosEmb[0][0]               
__________________________________________________________________________________________________
transTokenFlat (Flatten)        (None, 544)          0           transTokenEmb[0][0]              
__________________________________________________________________________________________________
transPosFlat (Flatten)          (None, 104)          0           transPosEmb[0][0]                
__________________________________________________________________________________________________
phraseRnn (GRU)                 (None, 391)          547791      concatenate_367[0][0]            
__________________________________________________________________________________________________
concatenate_368 (Concatenate)   (None, 648)          0           transTokenFlat[0][0]             
                                                                 transPosFlat[0][0]               
__________________________________________________________________________________________________
concatenate_369 (Concatenate)   (None, 1039)         0           phraseRnn[0][0]                  
                                                                 concatenate_368[0][0]            
__________________________________________________________________________________________________
dense_245 (Dense)               (None, 255)          265200      concatenate_369[0][0]            
__________________________________________________________________________________________________
dense_246 (Dense)               (None, 4)            1024        dense_245[0][0]                  
==================================================================================================
Total params: 3,179,812
Trainable params: 3,179,812
Non-trainable params: 0
__________________________________________________________________________________________________
None
__________________________________________________________________________________________________
…
==================================================================================================
	Tokens := 7545 * POS : 152
__________________________________________________________________________________________________
	Dashed keys in vocabulary 1622
	One occurrence keys in vocabulary 1622 / 7545
__________________________________________________________________________________________________
Layer (type)                    Output Shape         Param #     Connected to                     
==================================================================================================
phraseTokens (InputLayer)       (None, 50)           0                                            
__________________________________________________________________________________________________
phrasePoss (InputLayer)         (None, 50)           0                                            
__________________________________________________________________________________________________
transTokens (InputLayer)        (None, 5)            0                                            
__________________________________________________________________________________________________
transPoss (InputLayer)          (None, 5)            0                                            
__________________________________________________________________________________________________
phraseTokenEmb (Embedding)      (None, 50, 131)      988395      phraseTokens[0][0]               
__________________________________________________________________________________________________
phrasePosEmb (Embedding)        (None, 50, 11)       1672        phrasePoss[0][0]                 
__________________________________________________________________________________________________
transTokenEmb (Embedding)       (None, 5, 197)       1486365     transTokens[0][0]                
__________________________________________________________________________________________________
transPosEmb (Embedding)         (None, 5, 5)         760         transPoss[0][0]                  
__________________________________________________________________________________________________
concatenate_370 (Concatenate)   (None, 50, 142)      0           phraseTokenEmb[0][0]             
                                                                 phrasePosEmb[0][0]               
__________________________________________________________________________________________________
transTokenFlat (Flatten)        (None, 985)          0           transTokenEmb[0][0]              
__________________________________________________________________________________________________
transPosFlat (Flatten)          (None, 25)           0           transPosEmb[0][0]                
__________________________________________________________________________________________________
phraseRnn (GRU)                 (None, 112)          85680       concatenate_370[0][0]            
__________________________________________________________________________________________________
concatenate_371 (Concatenate)   (None, 1010)         0           transTokenFlat[0][0]             
                                                                 transPosFlat[0][0]               
__________________________________________________________________________________________________
concatenate_372 (Concatenate)   (None, 1122)         0           phraseRnn[0][0]                  
                                                                 concatenate_371[0][0]            
__________________________________________________________________________________________________
dense_247 (Dense)               (None, 309)          347007      concatenate_372[0][0]            
__________________________________________________________________________________________________
dense_248 (Dense)               (None, 4)            1240        dense_247[0][0]                  
==================================================================================================
Total params: 2,911,119
Trainable params: 2,911,119
Non-trainable params: 0
__________________________________________________________________________________________________
None
__________________________________________________________________________________________________
…
==================================================================================================
	Tokens := 7241 * POS : 169
__________________________________________________________________________________________________
	Important words not in vocabulary 1
	MWE not in vocabulary 3
	Dashed keys in vocabulary 1674
	One occurrence keys in vocabulary 1674 / 7241
__________________________________________________________________________________________________
Layer (type)                    Output Shape         Param #     Connected to                     
==================================================================================================
phraseTokens (InputLayer)       (None, 50)           0                                            
__________________________________________________________________________________________________
phrasePoss (InputLayer)         (None, 50)           0                                            
__________________________________________________________________________________________________
transTokens (InputLayer)        (None, 5)            0                                            
__________________________________________________________________________________________________
transPoss (InputLayer)          (None, 5)            0                                            
__________________________________________________________________________________________________
phraseTokenEmb (Embedding)      (None, 50, 131)      948571      phraseTokens[0][0]               
__________________________________________________________________________________________________
phrasePosEmb (Embedding)        (None, 50, 11)       1859        phrasePoss[0][0]                 
__________________________________________________________________________________________________
transTokenEmb (Embedding)       (None, 5, 197)       1426477     transTokens[0][0]                
__________________________________________________________________________________________________
transPosEmb (Embedding)         (None, 5, 5)         845         transPoss[0][0]                  
__________________________________________________________________________________________________
concatenate_373 (Concatenate)   (None, 50, 142)      0           phraseTokenEmb[0][0]             
                                                                 phrasePosEmb[0][0]               
__________________________________________________________________________________________________
transTokenFlat (Flatten)        (None, 985)          0           transTokenEmb[0][0]              
__________________________________________________________________________________________________
transPosFlat (Flatten)          (None, 25)           0           transPosEmb[0][0]                
__________________________________________________________________________________________________
phraseRnn (GRU)                 (None, 112)          85680       concatenate_373[0][0]            
__________________________________________________________________________________________________
concatenate_374 (Concatenate)   (None, 1010)         0           transTokenFlat[0][0]             
                                                                 transPosFlat[0][0]               
__________________________________________________________________________________________________
concatenate_375 (Concatenate)   (None, 1122)         0           phraseRnn[0][0]                  
                                                                 concatenate_374[0][0]            
__________________________________________________________________________________________________
dense_249 (Dense)               (None, 309)          347007      concatenate_375[0][0]            
__________________________________________________________________________________________________
dense_250 (Dense)               (None, 4)            1240        dense_249[0][0]                  
==================================================================================================
Total params: 2,811,679
Trainable params: 2,811,679
Non-trainable params: 0
__________________________________________________________________________________________________
None
__________________________________________________________________________________________________
…
==================================================================================================
	Tokens := 13793 * POS : 109
__________________________________________________________________________________________________
	Dashed keys in vocabulary 3161
	One occurrence keys in vocabulary 3161 / 13793
__________________________________________________________________________________________________
Layer (type)                    Output Shape         Param #     Connected to                     
==================================================================================================
phraseTokens (InputLayer)       (None, 50)           0                                            
__________________________________________________________________________________________________
phrasePoss (InputLayer)         (None, 50)           0                                            
__________________________________________________________________________________________________
transTokens (InputLayer)        (None, 5)            0                                            
__________________________________________________________________________________________________
transPoss (InputLayer)          (None, 5)            0                                            
__________________________________________________________________________________________________
phraseTokenEmb (Embedding)      (None, 50, 131)      1806883     phraseTokens[0][0]               
__________________________________________________________________________________________________
phrasePosEmb (Embedding)        (None, 50, 11)       1199        phrasePoss[0][0]                 
__________________________________________________________________________________________________
transTokenEmb (Embedding)       (None, 5, 197)       2717221     transTokens[0][0]                
__________________________________________________________________________________________________
transPosEmb (Embedding)         (None, 5, 5)         545         transPoss[0][0]                  
__________________________________________________________________________________________________
concatenate_376 (Concatenate)   (None, 50, 142)      0           phraseTokenEmb[0][0]             
                                                                 phrasePosEmb[0][0]               
__________________________________________________________________________________________________
transTokenFlat (Flatten)        (None, 985)          0           transTokenEmb[0][0]              
__________________________________________________________________________________________________
transPosFlat (Flatten)          (None, 25)           0           transPosEmb[0][0]                
__________________________________________________________________________________________________
phraseRnn (GRU)                 (None, 112)          85680       concatenate_376[0][0]            
__________________________________________________________________________________________________
concatenate_377 (Concatenate)   (None, 1010)         0           transTokenFlat[0][0]             
                                                                 transPosFlat[0][0]               
__________________________________________________________________________________________________
concatenate_378 (Concatenate)   (None, 1122)         0           phraseRnn[0][0]                  
                                                                 concatenate_377[0][0]            
__________________________________________________________________________________________________
dense_251 (Dense)               (None, 309)          347007      concatenate_378[0][0]            
__________________________________________________________________________________________________
dense_252 (Dense)               (None, 4)            1240        dense_251[0][0]                  
==================================================================================================
Total params: 4,959,775
Trainable params: 4,959,775
Non-trainable params: 0
__________________________________________________________________________________________________
None
__________________________________________________________________________________________________
…
==================================================================================================
	Tokens := 7545 * POS : 152
__________________________________________________________________________________________________
	Dashed keys in vocabulary 1622
	One occurrence keys in vocabulary 1622 / 7545
__________________________________________________________________________________________________
Layer (type)                    Output Shape         Param #     Connected to                     
==================================================================================================
phraseTokens (InputLayer)       (None, 50)           0                                            
__________________________________________________________________________________________________
phrasePoss (InputLayer)         (None, 50)           0                                            
__________________________________________________________________________________________________
transTokens (InputLayer)        (None, 5)            0                                            
__________________________________________________________________________________________________
transPoss (InputLayer)          (None, 5)            0                                            
__________________________________________________________________________________________________
phraseTokenEmb (Embedding)      (None, 50, 45)       339525      phraseTokens[0][0]               
__________________________________________________________________________________________________
phrasePosEmb (Embedding)        (None, 50, 11)       1672        phrasePoss[0][0]                 
__________________________________________________________________________________________________
transTokenEmb (Embedding)       (None, 5, 130)       980850      transTokens[0][0]                
__________________________________________________________________________________________________
transPosEmb (Embedding)         (None, 5, 32)        4864        transPoss[0][0]                  
__________________________________________________________________________________________________
concatenate_379 (Concatenate)   (None, 50, 56)       0           phraseTokenEmb[0][0]             
                                                                 phrasePosEmb[0][0]               
__________________________________________________________________________________________________
transTokenFlat (Flatten)        (None, 650)          0           transTokenEmb[0][0]              
__________________________________________________________________________________________________
transPosFlat (Flatten)          (None, 160)          0           transPosEmb[0][0]                
__________________________________________________________________________________________________
phraseRnn (LSTM)                (None, 48)           20160       concatenate_379[0][0]            
__________________________________________________________________________________________________
concatenate_380 (Concatenate)   (None, 810)          0           transTokenFlat[0][0]             
                                                                 transPosFlat[0][0]               
__________________________________________________________________________________________________
concatenate_381 (Concatenate)   (None, 858)          0           phraseRnn[0][0]                  
                                                                 concatenate_380[0][0]            
__________________________________________________________________________________________________
dense_253 (Dense)               (None, 45)           38655       concatenate_381[0][0]            
__________________________________________________________________________________________________
dense_254 (Dense)               (None, 4)            184         dense_253[0][0]                  
==================================================================================================
Total params: 1,385,910
Trainable params: 1,385,910
Non-trainable params: 0
__________________________________________________________________________________________________
None
__________________________________________________________________________________________________
…
==================================================================================================
	Tokens := 7241 * POS : 169
__________________________________________________________________________________________________
	Important words not in vocabulary 1
	MWE not in vocabulary 3
	Dashed keys in vocabulary 1674
	One occurrence keys in vocabulary 1674 / 7241
__________________________________________________________________________________________________
Layer (type)                    Output Shape         Param #     Connected to                     
==================================================================================================
phraseTokens (InputLayer)       (None, 50)           0                                            
__________________________________________________________________________________________________
phrasePoss (InputLayer)         (None, 50)           0                                            
__________________________________________________________________________________________________
transTokens (InputLayer)        (None, 5)            0                                            
__________________________________________________________________________________________________
transPoss (InputLayer)          (None, 5)            0                                            
__________________________________________________________________________________________________
phraseTokenEmb (Embedding)      (None, 50, 45)       325845      phraseTokens[0][0]               
__________________________________________________________________________________________________
phrasePosEmb (Embedding)        (None, 50, 11)       1859        phrasePoss[0][0]                 
__________________________________________________________________________________________________
transTokenEmb (Embedding)       (None, 5, 130)       941330      transTokens[0][0]                
__________________________________________________________________________________________________
transPosEmb (Embedding)         (None, 5, 32)        5408        transPoss[0][0]                  
__________________________________________________________________________________________________
concatenate_382 (Concatenate)   (None, 50, 56)       0           phraseTokenEmb[0][0]             
                                                                 phrasePosEmb[0][0]               
__________________________________________________________________________________________________
transTokenFlat (Flatten)        (None, 650)          0           transTokenEmb[0][0]              
__________________________________________________________________________________________________
transPosFlat (Flatten)          (None, 160)          0           transPosEmb[0][0]                
__________________________________________________________________________________________________
phraseRnn (LSTM)                (None, 48)           20160       concatenate_382[0][0]            
__________________________________________________________________________________________________
concatenate_383 (Concatenate)   (None, 810)          0           transTokenFlat[0][0]             
                                                                 transPosFlat[0][0]               
__________________________________________________________________________________________________
concatenate_384 (Concatenate)   (None, 858)          0           phraseRnn[0][0]                  
                                                                 concatenate_383[0][0]            
__________________________________________________________________________________________________
dense_255 (Dense)               (None, 45)           38655       concatenate_384[0][0]            
__________________________________________________________________________________________________
dense_256 (Dense)               (None, 4)            184         dense_255[0][0]                  
==================================================================================================
Total params: 1,333,441
Trainable params: 1,333,441
Non-trainable params: 0
__________________________________________________________________________________________________
None
__________________________________________________________________________________________________
…
==================================================================================================
	Tokens := 13793 * POS : 109
__________________________________________________________________________________________________
	Dashed keys in vocabulary 3161
	One occurrence keys in vocabulary 3161 / 13793
__________________________________________________________________________________________________
Layer (type)                    Output Shape         Param #     Connected to                     
==================================================================================================
phraseTokens (InputLayer)       (None, 50)           0                                            
__________________________________________________________________________________________________
phrasePoss (InputLayer)         (None, 50)           0                                            
__________________________________________________________________________________________________
transTokens (InputLayer)        (None, 5)            0                                            
__________________________________________________________________________________________________
transPoss (InputLayer)          (None, 5)            0                                            
__________________________________________________________________________________________________
phraseTokenEmb (Embedding)      (None, 50, 45)       620685      phraseTokens[0][0]               
__________________________________________________________________________________________________
phrasePosEmb (Embedding)        (None, 50, 11)       1199        phrasePoss[0][0]                 
__________________________________________________________________________________________________
transTokenEmb (Embedding)       (None, 5, 130)       1793090     transTokens[0][0]                
__________________________________________________________________________________________________
transPosEmb (Embedding)         (None, 5, 32)        3488        transPoss[0][0]                  
__________________________________________________________________________________________________
concatenate_385 (Concatenate)   (None, 50, 56)       0           phraseTokenEmb[0][0]             
                                                                 phrasePosEmb[0][0]               
__________________________________________________________________________________________________
transTokenFlat (Flatten)        (None, 650)          0           transTokenEmb[0][0]              
__________________________________________________________________________________________________
transPosFlat (Flatten)          (None, 160)          0           transPosEmb[0][0]                
__________________________________________________________________________________________________
phraseRnn (LSTM)                (None, 48)           20160       concatenate_385[0][0]            
__________________________________________________________________________________________________
concatenate_386 (Concatenate)   (None, 810)          0           transTokenFlat[0][0]             
                                                                 transPosFlat[0][0]               
__________________________________________________________________________________________________
concatenate_387 (Concatenate)   (None, 858)          0           phraseRnn[0][0]                  
                                                                 concatenate_386[0][0]            
__________________________________________________________________________________________________
dense_257 (Dense)               (None, 45)           38655       concatenate_387[0][0]            
__________________________________________________________________________________________________
dense_258 (Dense)               (None, 4)            184         dense_257[0][0]                  
==================================================================================================
Total params: 2,477,461
Trainable params: 2,477,461
Non-trainable params: 0
__________________________________________________________________________________________________
None
__________________________________________________________________________________________________
…
	Tokens := 11438 * POS : 152
__________________________________________________________________________________________________
	Important words not in vocabulary 675
	MWE not in vocabulary 1297
	Dashed keys in vocabulary 2182
	One occurrence keys in vocabulary 2182 / 11438
__________________________________________________________________________________________________
Layer (type)                    Output Shape         Param #     Connected to                     
==================================================================================================
phraseTokens (InputLayer)       (None, 50)           0                                            
__________________________________________________________________________________________________
phrasePoss (InputLayer)         (None, 50)           0                                            
__________________________________________________________________________________________________
transTokens (InputLayer)        (None, 4)            0                                            
__________________________________________________________________________________________________
transPoss (InputLayer)          (None, 4)            0                                            
__________________________________________________________________________________________________
phraseTokenEmb (Embedding)      (None, 50, 45)       514710      phraseTokens[0][0]               
__________________________________________________________________________________________________
phrasePosEmb (Embedding)        (None, 50, 9)        1368        phrasePoss[0][0]                 
__________________________________________________________________________________________________
transTokenEmb (Embedding)       (None, 4, 88)        1006544     transTokens[0][0]                
__________________________________________________________________________________________________
transPosEmb (Embedding)         (None, 4, 21)        3192        transPoss[0][0]                  
__________________________________________________________________________________________________
concatenate_388 (Concatenate)   (None, 50, 54)       0           phraseTokenEmb[0][0]             
                                                                 phrasePosEmb[0][0]               
__________________________________________________________________________________________________
transTokenFlat (Flatten)        (None, 352)          0           transTokenEmb[0][0]              
__________________________________________________________________________________________________
transPosFlat (Flatten)          (None, 84)           0           transPosEmb[0][0]                
__________________________________________________________________________________________________
phraseRnn (LSTM)                (None, 275)          363000      concatenate_388[0][0]            
__________________________________________________________________________________________________
concatenate_389 (Concatenate)   (None, 436)          0           transTokenFlat[0][0]             
                                                                 transPosFlat[0][0]               
__________________________________________________________________________________________________
concatenate_390 (Concatenate)   (None, 711)          0           phraseRnn[0][0]                  
                                                                 concatenate_389[0][0]            
__________________________________________________________________________________________________
dense_259 (Dense)               (None, 45)           32040       concatenate_390[0][0]            
__________________________________________________________________________________________________
dense_260 (Dense)               (None, 4)            184         dense_259[0][0]                  
==================================================================================================
Total params: 1,921,038
Trainable params: 1,921,038
Non-trainable params: 0
__________________________________________________________________________________________________
None
__________________________________________________________________________________________________
…
	Tokens := 9401 * POS : 169
__________________________________________________________________________________________________
	Important words not in vocabulary 182
	MWE not in vocabulary 1082
	Dashed keys in vocabulary 2380
	One occurrence keys in vocabulary 2380 / 9401
__________________________________________________________________________________________________
Layer (type)                    Output Shape         Param #     Connected to                     
==================================================================================================
phraseTokens (InputLayer)       (None, 50)           0                                            
__________________________________________________________________________________________________
phrasePoss (InputLayer)         (None, 50)           0                                            
__________________________________________________________________________________________________
transTokens (InputLayer)        (None, 4)            0                                            
__________________________________________________________________________________________________
transPoss (InputLayer)          (None, 4)            0                                            
__________________________________________________________________________________________________
phraseTokenEmb (Embedding)      (None, 50, 45)       423045      phraseTokens[0][0]               
__________________________________________________________________________________________________
phrasePosEmb (Embedding)        (None, 50, 9)        1521        phrasePoss[0][0]                 
__________________________________________________________________________________________________
transTokenEmb (Embedding)       (None, 4, 88)        827288      transTokens[0][0]                
__________________________________________________________________________________________________
transPosEmb (Embedding)         (None, 4, 21)        3549        transPoss[0][0]                  
__________________________________________________________________________________________________
concatenate_391 (Concatenate)   (None, 50, 54)       0           phraseTokenEmb[0][0]             
                                                                 phrasePosEmb[0][0]               
__________________________________________________________________________________________________
transTokenFlat (Flatten)        (None, 352)          0           transTokenEmb[0][0]              
__________________________________________________________________________________________________
transPosFlat (Flatten)          (None, 84)           0           transPosEmb[0][0]                
__________________________________________________________________________________________________
phraseRnn (LSTM)                (None, 275)          363000      concatenate_391[0][0]            
__________________________________________________________________________________________________
concatenate_392 (Concatenate)   (None, 436)          0           transTokenFlat[0][0]             
                                                                 transPosFlat[0][0]               
__________________________________________________________________________________________________
concatenate_393 (Concatenate)   (None, 711)          0           phraseRnn[0][0]                  
                                                                 concatenate_392[0][0]            
__________________________________________________________________________________________________
dense_261 (Dense)               (None, 45)           32040       concatenate_393[0][0]            
__________________________________________________________________________________________________
dense_262 (Dense)               (None, 4)            184         dense_261[0][0]                  
==================================================================================================
Total params: 1,650,627
Trainable params: 1,650,627
Non-trainable params: 0
__________________________________________________________________________________________________
None
__________________________________________________________________________________________________
…
	Tokens := 22071 * POS : 109
__________________________________________________________________________________________________
	Important words not in vocabulary 221
	MWE not in vocabulary 1768
	Dashed keys in vocabulary 3975
	One occurrence keys in vocabulary 3975 / 22071
__________________________________________________________________________________________________
Layer (type)                    Output Shape         Param #     Connected to                     
==================================================================================================
phraseTokens (InputLayer)       (None, 50)           0                                            
__________________________________________________________________________________________________
phrasePoss (InputLayer)         (None, 50)           0                                            
__________________________________________________________________________________________________
transTokens (InputLayer)        (None, 4)            0                                            
__________________________________________________________________________________________________
transPoss (InputLayer)          (None, 4)            0                                            
__________________________________________________________________________________________________
phraseTokenEmb (Embedding)      (None, 50, 45)       993195      phraseTokens[0][0]               
__________________________________________________________________________________________________
phrasePosEmb (Embedding)        (None, 50, 9)        981         phrasePoss[0][0]                 
__________________________________________________________________________________________________
transTokenEmb (Embedding)       (None, 4, 88)        1942248     transTokens[0][0]                
__________________________________________________________________________________________________
transPosEmb (Embedding)         (None, 4, 21)        2289        transPoss[0][0]                  
__________________________________________________________________________________________________
concatenate_394 (Concatenate)   (None, 50, 54)       0           phraseTokenEmb[0][0]             
                                                                 phrasePosEmb[0][0]               
__________________________________________________________________________________________________
transTokenFlat (Flatten)        (None, 352)          0           transTokenEmb[0][0]              
__________________________________________________________________________________________________
transPosFlat (Flatten)          (None, 84)           0           transPosEmb[0][0]                
__________________________________________________________________________________________________
phraseRnn (LSTM)                (None, 275)          363000      concatenate_394[0][0]            
__________________________________________________________________________________________________
concatenate_395 (Concatenate)   (None, 436)          0           transTokenFlat[0][0]             
                                                                 transPosFlat[0][0]               
__________________________________________________________________________________________________
concatenate_396 (Concatenate)   (None, 711)          0           phraseRnn[0][0]                  
                                                                 concatenate_395[0][0]            
__________________________________________________________________________________________________
dense_263 (Dense)               (None, 45)           32040       concatenate_396[0][0]            
__________________________________________________________________________________________________
dense_264 (Dense)               (None, 4)            184         dense_263[0][0]                  
==================================================================================================
Total params: 3,333,937
Trainable params: 3,333,937
Non-trainable params: 0
__________________________________________________________________________________________________
None
__________________________________________________________________________________________________
…
==================================================================================================
	Tokens := 7545 * POS : 152
__________________________________________________________________________________________________
	Dashed keys in vocabulary 1622
	One occurrence keys in vocabulary 1622 / 7545
__________________________________________________________________________________________________
Layer (type)                    Output Shape         Param #     Connected to                     
==================================================================================================
phraseTokens (InputLayer)       (None, 50)           0                                            
__________________________________________________________________________________________________
phrasePoss (InputLayer)         (None, 50)           0                                            
__________________________________________________________________________________________________
transTokens (InputLayer)        (None, 5)            0                                            
__________________________________________________________________________________________________
transPoss (InputLayer)          (None, 5)            0                                            
__________________________________________________________________________________________________
phraseTokenEmb (Embedding)      (None, 50, 118)      890310      phraseTokens[0][0]               
__________________________________________________________________________________________________
phrasePosEmb (Embedding)        (None, 50, 23)       3496        phrasePoss[0][0]                 
__________________________________________________________________________________________________
transTokenEmb (Embedding)       (None, 5, 74)        558330      transTokens[0][0]                
__________________________________________________________________________________________________
transPosEmb (Embedding)         (None, 5, 17)        2584        transPoss[0][0]                  
__________________________________________________________________________________________________
concatenate_397 (Concatenate)   (None, 50, 141)      0           phraseTokenEmb[0][0]             
                                                                 phrasePosEmb[0][0]               
__________________________________________________________________________________________________
transTokenFlat (Flatten)        (None, 370)          0           transTokenEmb[0][0]              
__________________________________________________________________________________________________
transPosFlat (Flatten)          (None, 85)           0           transPosEmb[0][0]                
__________________________________________________________________________________________________
phraseRnn (LSTM)                (None, 59)           47436       concatenate_397[0][0]            
__________________________________________________________________________________________________
concatenate_398 (Concatenate)   (None, 455)          0           transTokenFlat[0][0]             
                                                                 transPosFlat[0][0]               
__________________________________________________________________________________________________
concatenate_399 (Concatenate)   (None, 514)          0           phraseRnn[0][0]                  
                                                                 concatenate_398[0][0]            
__________________________________________________________________________________________________
dense_265 (Dense)               (None, 101)          52015       concatenate_399[0][0]            
__________________________________________________________________________________________________
dense_266 (Dense)               (None, 4)            408         dense_265[0][0]                  
==================================================================================================
Total params: 1,554,579
Trainable params: 1,554,579
Non-trainable params: 0
__________________________________________________________________________________________________
None
__________________________________________________________________________________________________
…
