…
	Tokens := 11438 * POS : 152
__________________________________________________________________________________________________
	Important words not in vocabulary 675
	MWE not in vocabulary 1297
	Dashed keys in vocabulary 2182
	One occurrence keys in vocabulary 2182 / 11438
__________________________________________________________________________________________________
Layer (type)                    Output Shape         Param #     Connected to                     
==================================================================================================
phraseTokens (InputLayer)       (None, 50)           0                                            
__________________________________________________________________________________________________
phrasePoss (InputLayer)         (None, 50)           0                                            
__________________________________________________________________________________________________
transTokens (InputLayer)        (None, 5)            0                                            
__________________________________________________________________________________________________
transPoss (InputLayer)          (None, 5)            0                                            
__________________________________________________________________________________________________
phraseTokenEmb (Embedding)      (None, 50, 40)       457520      phraseTokens[0][0]               
__________________________________________________________________________________________________
phrasePosEmb (Embedding)        (None, 50, 17)       2584        phrasePoss[0][0]                 
__________________________________________________________________________________________________
transTokenEmb (Embedding)       (None, 5, 134)       1532692     transTokens[0][0]                
__________________________________________________________________________________________________
transPosEmb (Embedding)         (None, 5, 31)        4712        transPoss[0][0]                  
__________________________________________________________________________________________________
concatenate_1 (Concatenate)     (None, 50, 57)       0           phraseTokenEmb[0][0]             
                                                                 phrasePosEmb[0][0]               
__________________________________________________________________________________________________
transTokenFlat (Flatten)        (None, 670)          0           transTokenEmb[0][0]              
__________________________________________________________________________________________________
transPosFlat (Flatten)          (None, 155)          0           transPosEmb[0][0]                
__________________________________________________________________________________________________
phraseRnn (GRU)                 (None, 130)          73320       concatenate_1[0][0]              
__________________________________________________________________________________________________
concatenate_2 (Concatenate)     (None, 825)          0           transTokenFlat[0][0]             
                                                                 transPosFlat[0][0]               
__________________________________________________________________________________________________
concatenate_3 (Concatenate)     (None, 955)          0           phraseRnn[0][0]                  
                                                                 concatenate_2[0][0]              
__________________________________________________________________________________________________
dense_1 (Dense)                 (None, 162)          154872      concatenate_3[0][0]              
__________________________________________________________________________________________________
dense_2 (Dense)                 (None, 4)            652         dense_1[0][0]                    
==================================================================================================
Total params: 2,226,352
Trainable params: 2,226,352
Non-trainable params: 0
__________________________________________________________________________________________________
None
__________________________________________________________________________________________________
…
	Tokens := 9401 * POS : 169
__________________________________________________________________________________________________
	Important words not in vocabulary 182
	MWE not in vocabulary 1082
	Dashed keys in vocabulary 2380
	One occurrence keys in vocabulary 2380 / 9401
__________________________________________________________________________________________________
Layer (type)                    Output Shape         Param #     Connected to                     
==================================================================================================
phraseTokens (InputLayer)       (None, 50)           0                                            
__________________________________________________________________________________________________
phrasePoss (InputLayer)         (None, 50)           0                                            
__________________________________________________________________________________________________
transTokens (InputLayer)        (None, 5)            0                                            
__________________________________________________________________________________________________
transPoss (InputLayer)          (None, 5)            0                                            
__________________________________________________________________________________________________
phraseTokenEmb (Embedding)      (None, 50, 40)       376040      phraseTokens[0][0]               
__________________________________________________________________________________________________
phrasePosEmb (Embedding)        (None, 50, 17)       2873        phrasePoss[0][0]                 
__________________________________________________________________________________________________
transTokenEmb (Embedding)       (None, 5, 134)       1259734     transTokens[0][0]                
__________________________________________________________________________________________________
transPosEmb (Embedding)         (None, 5, 31)        5239        transPoss[0][0]                  
__________________________________________________________________________________________________
concatenate_4 (Concatenate)     (None, 50, 57)       0           phraseTokenEmb[0][0]             
                                                                 phrasePosEmb[0][0]               
__________________________________________________________________________________________________
transTokenFlat (Flatten)        (None, 670)          0           transTokenEmb[0][0]              
__________________________________________________________________________________________________
transPosFlat (Flatten)          (None, 155)          0           transPosEmb[0][0]                
__________________________________________________________________________________________________
phraseRnn (GRU)                 (None, 130)          73320       concatenate_4[0][0]              
__________________________________________________________________________________________________
concatenate_5 (Concatenate)     (None, 825)          0           transTokenFlat[0][0]             
                                                                 transPosFlat[0][0]               
__________________________________________________________________________________________________
concatenate_6 (Concatenate)     (None, 955)          0           phraseRnn[0][0]                  
                                                                 concatenate_5[0][0]              
__________________________________________________________________________________________________
dense_3 (Dense)                 (None, 162)          154872      concatenate_6[0][0]              
__________________________________________________________________________________________________
dense_4 (Dense)                 (None, 4)            652         dense_3[0][0]                    
==================================================================================================
Total params: 1,872,730
Trainable params: 1,872,730
Non-trainable params: 0
__________________________________________________________________________________________________
None
__________________________________________________________________________________________________
…
	Tokens := 22071 * POS : 109
__________________________________________________________________________________________________
	Important words not in vocabulary 221
	MWE not in vocabulary 1768
	Dashed keys in vocabulary 3975
	One occurrence keys in vocabulary 3975 / 22071
__________________________________________________________________________________________________
Layer (type)                    Output Shape         Param #     Connected to                     
==================================================================================================
phraseTokens (InputLayer)       (None, 50)           0                                            
__________________________________________________________________________________________________
phrasePoss (InputLayer)         (None, 50)           0                                            
__________________________________________________________________________________________________
transTokens (InputLayer)        (None, 5)            0                                            
__________________________________________________________________________________________________
transPoss (InputLayer)          (None, 5)            0                                            
__________________________________________________________________________________________________
phraseTokenEmb (Embedding)      (None, 50, 40)       882840      phraseTokens[0][0]               
__________________________________________________________________________________________________
phrasePosEmb (Embedding)        (None, 50, 17)       1853        phrasePoss[0][0]                 
__________________________________________________________________________________________________
transTokenEmb (Embedding)       (None, 5, 134)       2957514     transTokens[0][0]                
__________________________________________________________________________________________________
transPosEmb (Embedding)         (None, 5, 31)        3379        transPoss[0][0]                  
__________________________________________________________________________________________________
concatenate_7 (Concatenate)     (None, 50, 57)       0           phraseTokenEmb[0][0]             
                                                                 phrasePosEmb[0][0]               
__________________________________________________________________________________________________
transTokenFlat (Flatten)        (None, 670)          0           transTokenEmb[0][0]              
__________________________________________________________________________________________________
transPosFlat (Flatten)          (None, 155)          0           transPosEmb[0][0]                
__________________________________________________________________________________________________
phraseRnn (GRU)                 (None, 130)          73320       concatenate_7[0][0]              
__________________________________________________________________________________________________
concatenate_8 (Concatenate)     (None, 825)          0           transTokenFlat[0][0]             
                                                                 transPosFlat[0][0]               
__________________________________________________________________________________________________
concatenate_9 (Concatenate)     (None, 955)          0           phraseRnn[0][0]                  
                                                                 concatenate_8[0][0]              
__________________________________________________________________________________________________
dense_5 (Dense)                 (None, 162)          154872      concatenate_9[0][0]              
__________________________________________________________________________________________________
dense_6 (Dense)                 (None, 4)            652         dense_5[0][0]                    
==================================================================================================
Total params: 4,074,430
Trainable params: 4,074,430
Non-trainable params: 0
__________________________________________________________________________________________________
None
__________________________________________________________________________________________________
…
	Tokens := 11438 * POS : 152
__________________________________________________________________________________________________
	Important words not in vocabulary 675
	MWE not in vocabulary 1297
	Dashed keys in vocabulary 2182
	One occurrence keys in vocabulary 2182 / 11438
__________________________________________________________________________________________________
Layer (type)                    Output Shape         Param #     Connected to                     
==================================================================================================
phraseTokens (InputLayer)       (None, 50)           0                                            
__________________________________________________________________________________________________
phrasePoss (InputLayer)         (None, 50)           0                                            
__________________________________________________________________________________________________
transTokens (InputLayer)        (None, 4)            0                                            
__________________________________________________________________________________________________
transPoss (InputLayer)          (None, 4)            0                                            
__________________________________________________________________________________________________
phraseTokenEmb (Embedding)      (None, 50, 64)       732032      phraseTokens[0][0]               
__________________________________________________________________________________________________
phrasePosEmb (Embedding)        (None, 50, 35)       5320        phrasePoss[0][0]                 
__________________________________________________________________________________________________
transTokenEmb (Embedding)       (None, 4, 63)        720594      transTokens[0][0]                
__________________________________________________________________________________________________
transPosEmb (Embedding)         (None, 4, 5)         760         transPoss[0][0]                  
__________________________________________________________________________________________________
concatenate_10 (Concatenate)    (None, 50, 99)       0           phraseTokenEmb[0][0]             
                                                                 phrasePosEmb[0][0]               
__________________________________________________________________________________________________
transTokenFlat (Flatten)        (None, 252)          0           transTokenEmb[0][0]              
__________________________________________________________________________________________________
transPosFlat (Flatten)          (None, 20)           0           transPosEmb[0][0]                
__________________________________________________________________________________________________
phraseRnn (LSTM)                (None, 43)           24596       concatenate_10[0][0]             
__________________________________________________________________________________________________
concatenate_11 (Concatenate)    (None, 272)          0           transTokenFlat[0][0]             
                                                                 transPosFlat[0][0]               
__________________________________________________________________________________________________
concatenate_12 (Concatenate)    (None, 315)          0           phraseRnn[0][0]                  
                                                                 concatenate_11[0][0]             
__________________________________________________________________________________________________
dense_7 (Dense)                 (None, 85)           26860       concatenate_12[0][0]             
__________________________________________________________________________________________________
dense_8 (Dense)                 (None, 4)            344         dense_7[0][0]                    
==================================================================================================
Total params: 1,510,506
Trainable params: 1,510,506
Non-trainable params: 0
__________________________________________________________________________________________________
None
__________________________________________________________________________________________________
…
	Tokens := 9401 * POS : 169
__________________________________________________________________________________________________
	Important words not in vocabulary 182
	MWE not in vocabulary 1082
	Dashed keys in vocabulary 2380
	One occurrence keys in vocabulary 2380 / 9401
__________________________________________________________________________________________________
Layer (type)                    Output Shape         Param #     Connected to                     
==================================================================================================
phraseTokens (InputLayer)       (None, 50)           0                                            
__________________________________________________________________________________________________
phrasePoss (InputLayer)         (None, 50)           0                                            
__________________________________________________________________________________________________
transTokens (InputLayer)        (None, 4)            0                                            
__________________________________________________________________________________________________
transPoss (InputLayer)          (None, 4)            0                                            
__________________________________________________________________________________________________
phraseTokenEmb (Embedding)      (None, 50, 64)       601664      phraseTokens[0][0]               
__________________________________________________________________________________________________
phrasePosEmb (Embedding)        (None, 50, 35)       5915        phrasePoss[0][0]                 
__________________________________________________________________________________________________
transTokenEmb (Embedding)       (None, 4, 63)        592263      transTokens[0][0]                
__________________________________________________________________________________________________
transPosEmb (Embedding)         (None, 4, 5)         845         transPoss[0][0]                  
__________________________________________________________________________________________________
concatenate_13 (Concatenate)    (None, 50, 99)       0           phraseTokenEmb[0][0]             
                                                                 phrasePosEmb[0][0]               
__________________________________________________________________________________________________
transTokenFlat (Flatten)        (None, 252)          0           transTokenEmb[0][0]              
__________________________________________________________________________________________________
transPosFlat (Flatten)          (None, 20)           0           transPosEmb[0][0]                
__________________________________________________________________________________________________
phraseRnn (LSTM)                (None, 43)           24596       concatenate_13[0][0]             
__________________________________________________________________________________________________
concatenate_14 (Concatenate)    (None, 272)          0           transTokenFlat[0][0]             
                                                                 transPosFlat[0][0]               
__________________________________________________________________________________________________
concatenate_15 (Concatenate)    (None, 315)          0           phraseRnn[0][0]                  
                                                                 concatenate_14[0][0]             
__________________________________________________________________________________________________
dense_9 (Dense)                 (None, 85)           26860       concatenate_15[0][0]             
__________________________________________________________________________________________________
dense_10 (Dense)                (None, 4)            344         dense_9[0][0]                    
==================================================================================================
Total params: 1,252,487
Trainable params: 1,252,487
Non-trainable params: 0
__________________________________________________________________________________________________
None
__________________________________________________________________________________________________
…
	Tokens := 22071 * POS : 109
__________________________________________________________________________________________________
	Important words not in vocabulary 221
	MWE not in vocabulary 1768
	Dashed keys in vocabulary 3975
	One occurrence keys in vocabulary 3975 / 22071
__________________________________________________________________________________________________
Layer (type)                    Output Shape         Param #     Connected to                     
==================================================================================================
phraseTokens (InputLayer)       (None, 50)           0                                            
__________________________________________________________________________________________________
phrasePoss (InputLayer)         (None, 50)           0                                            
__________________________________________________________________________________________________
transTokens (InputLayer)        (None, 4)            0                                            
__________________________________________________________________________________________________
transPoss (InputLayer)          (None, 4)            0                                            
__________________________________________________________________________________________________
phraseTokenEmb (Embedding)      (None, 50, 64)       1412544     phraseTokens[0][0]               
__________________________________________________________________________________________________
phrasePosEmb (Embedding)        (None, 50, 35)       3815        phrasePoss[0][0]                 
__________________________________________________________________________________________________
transTokenEmb (Embedding)       (None, 4, 63)        1390473     transTokens[0][0]                
__________________________________________________________________________________________________
transPosEmb (Embedding)         (None, 4, 5)         545         transPoss[0][0]                  
__________________________________________________________________________________________________
concatenate_16 (Concatenate)    (None, 50, 99)       0           phraseTokenEmb[0][0]             
                                                                 phrasePosEmb[0][0]               
__________________________________________________________________________________________________
transTokenFlat (Flatten)        (None, 252)          0           transTokenEmb[0][0]              
__________________________________________________________________________________________________
transPosFlat (Flatten)          (None, 20)           0           transPosEmb[0][0]                
__________________________________________________________________________________________________
phraseRnn (LSTM)                (None, 43)           24596       concatenate_16[0][0]             
__________________________________________________________________________________________________
concatenate_17 (Concatenate)    (None, 272)          0           transTokenFlat[0][0]             
                                                                 transPosFlat[0][0]               
__________________________________________________________________________________________________
concatenate_18 (Concatenate)    (None, 315)          0           phraseRnn[0][0]                  
                                                                 concatenate_17[0][0]             
__________________________________________________________________________________________________
dense_11 (Dense)                (None, 85)           26860       concatenate_18[0][0]             
__________________________________________________________________________________________________
dense_12 (Dense)                (None, 4)            344         dense_11[0][0]                   
==================================================================================================
Total params: 2,859,177
Trainable params: 2,859,177
Non-trainable params: 0
__________________________________________________________________________________________________
None
__________________________________________________________________________________________________
…
==================================================================================================
	Tokens := 7545 * POS : 152
__________________________________________________________________________________________________
	Dashed keys in vocabulary 1622
	One occurrence keys in vocabulary 1622 / 7545
__________________________________________________________________________________________________
Layer (type)                    Output Shape         Param #     Connected to                     
==================================================================================================
phraseTokens (InputLayer)       (None, 50)           0                                            
__________________________________________________________________________________________________
phrasePoss (InputLayer)         (None, 50)           0                                            
__________________________________________________________________________________________________
transTokens (InputLayer)        (None, 3)            0                                            
__________________________________________________________________________________________________
transPoss (InputLayer)          (None, 3)            0                                            
__________________________________________________________________________________________________
phraseTokenEmb (Embedding)      (None, 50, 107)      807315      phraseTokens[0][0]               
__________________________________________________________________________________________________
phrasePosEmb (Embedding)        (None, 50, 14)       2128        phrasePoss[0][0]                 
__________________________________________________________________________________________________
transTokenEmb (Embedding)       (None, 3, 34)        256530      transTokens[0][0]                
__________________________________________________________________________________________________
transPosEmb (Embedding)         (None, 3, 5)         760         transPoss[0][0]                  
__________________________________________________________________________________________________
concatenate_19 (Concatenate)    (None, 50, 121)      0           phraseTokenEmb[0][0]             
                                                                 phrasePosEmb[0][0]               
__________________________________________________________________________________________________
transTokenFlat (Flatten)        (None, 102)          0           transTokenEmb[0][0]              
__________________________________________________________________________________________________
transPosFlat (Flatten)          (None, 15)           0           transPosEmb[0][0]                
__________________________________________________________________________________________________
phraseRnn (GRU)                 (None, 110)          76560       concatenate_19[0][0]             
__________________________________________________________________________________________________
concatenate_20 (Concatenate)    (None, 117)          0           transTokenFlat[0][0]             
                                                                 transPosFlat[0][0]               
__________________________________________________________________________________________________
concatenate_21 (Concatenate)    (None, 227)          0           phraseRnn[0][0]                  
                                                                 concatenate_20[0][0]             
__________________________________________________________________________________________________
dense_13 (Dense)                (None, 183)          41724       concatenate_21[0][0]             
__________________________________________________________________________________________________
dense_14 (Dense)                (None, 4)            736         dense_13[0][0]                   
==================================================================================================
Total params: 1,185,753
Trainable params: 1,185,753
Non-trainable params: 0
__________________________________________________________________________________________________
None
__________________________________________________________________________________________________
…
==================================================================================================
	Tokens := 7241 * POS : 169
__________________________________________________________________________________________________
	Important words not in vocabulary 1
	MWE not in vocabulary 3
	Dashed keys in vocabulary 1674
	One occurrence keys in vocabulary 1674 / 7241
__________________________________________________________________________________________________
Layer (type)                    Output Shape         Param #     Connected to                     
==================================================================================================
phraseTokens (InputLayer)       (None, 50)           0                                            
__________________________________________________________________________________________________
phrasePoss (InputLayer)         (None, 50)           0                                            
__________________________________________________________________________________________________
transTokens (InputLayer)        (None, 3)            0                                            
__________________________________________________________________________________________________
transPoss (InputLayer)          (None, 3)            0                                            
__________________________________________________________________________________________________
phraseTokenEmb (Embedding)      (None, 50, 107)      774787      phraseTokens[0][0]               
__________________________________________________________________________________________________
phrasePosEmb (Embedding)        (None, 50, 14)       2366        phrasePoss[0][0]                 
__________________________________________________________________________________________________
transTokenEmb (Embedding)       (None, 3, 34)        246194      transTokens[0][0]                
__________________________________________________________________________________________________
transPosEmb (Embedding)         (None, 3, 5)         845         transPoss[0][0]                  
__________________________________________________________________________________________________
concatenate_22 (Concatenate)    (None, 50, 121)      0           phraseTokenEmb[0][0]             
                                                                 phrasePosEmb[0][0]               
__________________________________________________________________________________________________
transTokenFlat (Flatten)        (None, 102)          0           transTokenEmb[0][0]              
__________________________________________________________________________________________________
transPosFlat (Flatten)          (None, 15)           0           transPosEmb[0][0]                
__________________________________________________________________________________________________
phraseRnn (GRU)                 (None, 110)          76560       concatenate_22[0][0]             
__________________________________________________________________________________________________
concatenate_23 (Concatenate)    (None, 117)          0           transTokenFlat[0][0]             
                                                                 transPosFlat[0][0]               
__________________________________________________________________________________________________
concatenate_24 (Concatenate)    (None, 227)          0           phraseRnn[0][0]                  
                                                                 concatenate_23[0][0]             
__________________________________________________________________________________________________
dense_15 (Dense)                (None, 183)          41724       concatenate_24[0][0]             
__________________________________________________________________________________________________
dense_16 (Dense)                (None, 4)            736         dense_15[0][0]                   
==================================================================================================
Total params: 1,143,212
Trainable params: 1,143,212
Non-trainable params: 0
__________________________________________________________________________________________________
None
__________________________________________________________________________________________________
…
==================================================================================================
	Tokens := 13793 * POS : 109
__________________________________________________________________________________________________
	Dashed keys in vocabulary 3161
	One occurrence keys in vocabulary 3161 / 13793
__________________________________________________________________________________________________
Layer (type)                    Output Shape         Param #     Connected to                     
==================================================================================================
phraseTokens (InputLayer)       (None, 50)           0                                            
__________________________________________________________________________________________________
phrasePoss (InputLayer)         (None, 50)           0                                            
__________________________________________________________________________________________________
transTokens (InputLayer)        (None, 3)            0                                            
__________________________________________________________________________________________________
transPoss (InputLayer)          (None, 3)            0                                            
__________________________________________________________________________________________________
phraseTokenEmb (Embedding)      (None, 50, 107)      1475851     phraseTokens[0][0]               
__________________________________________________________________________________________________
phrasePosEmb (Embedding)        (None, 50, 14)       1526        phrasePoss[0][0]                 
__________________________________________________________________________________________________
transTokenEmb (Embedding)       (None, 3, 34)        468962      transTokens[0][0]                
__________________________________________________________________________________________________
transPosEmb (Embedding)         (None, 3, 5)         545         transPoss[0][0]                  
__________________________________________________________________________________________________
concatenate_25 (Concatenate)    (None, 50, 121)      0           phraseTokenEmb[0][0]             
                                                                 phrasePosEmb[0][0]               
__________________________________________________________________________________________________
transTokenFlat (Flatten)        (None, 102)          0           transTokenEmb[0][0]              
__________________________________________________________________________________________________
transPosFlat (Flatten)          (None, 15)           0           transPosEmb[0][0]                
__________________________________________________________________________________________________
phraseRnn (GRU)                 (None, 110)          76560       concatenate_25[0][0]             
__________________________________________________________________________________________________
concatenate_26 (Concatenate)    (None, 117)          0           transTokenFlat[0][0]             
                                                                 transPosFlat[0][0]               
__________________________________________________________________________________________________
concatenate_27 (Concatenate)    (None, 227)          0           phraseRnn[0][0]                  
                                                                 concatenate_26[0][0]             
__________________________________________________________________________________________________
dense_17 (Dense)                (None, 183)          41724       concatenate_27[0][0]             
__________________________________________________________________________________________________
dense_18 (Dense)                (None, 4)            736         dense_17[0][0]                   
==================================================================================================
Total params: 2,065,904
Trainable params: 2,065,904
Non-trainable params: 0
__________________________________________________________________________________________________
None
__________________________________________________________________________________________________
…
	Tokens := 11438 * POS : 152
__________________________________________________________________________________________________
	Important words not in vocabulary 675
	MWE not in vocabulary 1297
	Dashed keys in vocabulary 2182
	One occurrence keys in vocabulary 2182 / 11438
__________________________________________________________________________________________________
Layer (type)                    Output Shape         Param #     Connected to                     
==================================================================================================
phraseTokens (InputLayer)       (None, 50)           0                                            
__________________________________________________________________________________________________
phrasePoss (InputLayer)         (None, 50)           0                                            
__________________________________________________________________________________________________
transTokens (InputLayer)        (None, 5)            0                                            
__________________________________________________________________________________________________
transPoss (InputLayer)          (None, 5)            0                                            
__________________________________________________________________________________________________
phraseTokenEmb (Embedding)      (None, 50, 61)       697718      phraseTokens[0][0]               
__________________________________________________________________________________________________
phrasePosEmb (Embedding)        (None, 50, 7)        1064        phrasePoss[0][0]                 
__________________________________________________________________________________________________
transTokenEmb (Embedding)       (None, 5, 36)        411768      transTokens[0][0]                
__________________________________________________________________________________________________
transPosEmb (Embedding)         (None, 5, 6)         912         transPoss[0][0]                  
__________________________________________________________________________________________________
concatenate_28 (Concatenate)    (None, 50, 68)       0           phraseTokenEmb[0][0]             
                                                                 phrasePosEmb[0][0]               
__________________________________________________________________________________________________
transTokenFlat (Flatten)        (None, 180)          0           transTokenEmb[0][0]              
__________________________________________________________________________________________________
transPosFlat (Flatten)          (None, 30)           0           transPosEmb[0][0]                
__________________________________________________________________________________________________
phraseRnn (LSTM)                (None, 365)          633640      concatenate_28[0][0]             
__________________________________________________________________________________________________
concatenate_29 (Concatenate)    (None, 210)          0           transTokenFlat[0][0]             
                                                                 transPosFlat[0][0]               
__________________________________________________________________________________________________
concatenate_30 (Concatenate)    (None, 575)          0           phraseRnn[0][0]                  
                                                                 concatenate_29[0][0]             
__________________________________________________________________________________________________
dense_19 (Dense)                (None, 74)           42624       concatenate_30[0][0]             
__________________________________________________________________________________________________
dense_20 (Dense)                (None, 4)            300         dense_19[0][0]                   
==================================================================================================
Total params: 1,788,026
Trainable params: 1,788,026
Non-trainable params: 0
__________________________________________________________________________________________________
None
__________________________________________________________________________________________________
…
	Tokens := 9401 * POS : 169
__________________________________________________________________________________________________
	Important words not in vocabulary 182
	MWE not in vocabulary 1082
	Dashed keys in vocabulary 2380
	One occurrence keys in vocabulary 2380 / 9401
__________________________________________________________________________________________________
Layer (type)                    Output Shape         Param #     Connected to                     
==================================================================================================
phraseTokens (InputLayer)       (None, 50)           0                                            
__________________________________________________________________________________________________
phrasePoss (InputLayer)         (None, 50)           0                                            
__________________________________________________________________________________________________
transTokens (InputLayer)        (None, 5)            0                                            
__________________________________________________________________________________________________
transPoss (InputLayer)          (None, 5)            0                                            
__________________________________________________________________________________________________
phraseTokenEmb (Embedding)      (None, 50, 61)       573461      phraseTokens[0][0]               
__________________________________________________________________________________________________
phrasePosEmb (Embedding)        (None, 50, 7)        1183        phrasePoss[0][0]                 
__________________________________________________________________________________________________
transTokenEmb (Embedding)       (None, 5, 36)        338436      transTokens[0][0]                
__________________________________________________________________________________________________
transPosEmb (Embedding)         (None, 5, 6)         1014        transPoss[0][0]                  
__________________________________________________________________________________________________
concatenate_31 (Concatenate)    (None, 50, 68)       0           phraseTokenEmb[0][0]             
                                                                 phrasePosEmb[0][0]               
__________________________________________________________________________________________________
transTokenFlat (Flatten)        (None, 180)          0           transTokenEmb[0][0]              
__________________________________________________________________________________________________
transPosFlat (Flatten)          (None, 30)           0           transPosEmb[0][0]                
__________________________________________________________________________________________________
phraseRnn (LSTM)                (None, 365)          633640      concatenate_31[0][0]             
__________________________________________________________________________________________________
concatenate_32 (Concatenate)    (None, 210)          0           transTokenFlat[0][0]             
                                                                 transPosFlat[0][0]               
__________________________________________________________________________________________________
concatenate_33 (Concatenate)    (None, 575)          0           phraseRnn[0][0]                  
                                                                 concatenate_32[0][0]             
__________________________________________________________________________________________________
dense_21 (Dense)                (None, 74)           42624       concatenate_33[0][0]             
__________________________________________________________________________________________________
dense_22 (Dense)                (None, 4)            300         dense_21[0][0]                   
==================================================================================================
Total params: 1,590,658
Trainable params: 1,590,658
Non-trainable params: 0
__________________________________________________________________________________________________
None
__________________________________________________________________________________________________
…
	Tokens := 22071 * POS : 109
__________________________________________________________________________________________________
	Important words not in vocabulary 221
	MWE not in vocabulary 1768
	Dashed keys in vocabulary 3975
	One occurrence keys in vocabulary 3975 / 22071
__________________________________________________________________________________________________
Layer (type)                    Output Shape         Param #     Connected to                     
==================================================================================================
phraseTokens (InputLayer)       (None, 50)           0                                            
__________________________________________________________________________________________________
phrasePoss (InputLayer)         (None, 50)           0                                            
__________________________________________________________________________________________________
transTokens (InputLayer)        (None, 5)            0                                            
__________________________________________________________________________________________________
transPoss (InputLayer)          (None, 5)            0                                            
__________________________________________________________________________________________________
phraseTokenEmb (Embedding)      (None, 50, 61)       1346331     phraseTokens[0][0]               
__________________________________________________________________________________________________
phrasePosEmb (Embedding)        (None, 50, 7)        763         phrasePoss[0][0]                 
__________________________________________________________________________________________________
transTokenEmb (Embedding)       (None, 5, 36)        794556      transTokens[0][0]                
__________________________________________________________________________________________________
transPosEmb (Embedding)         (None, 5, 6)         654         transPoss[0][0]                  
__________________________________________________________________________________________________
concatenate_34 (Concatenate)    (None, 50, 68)       0           phraseTokenEmb[0][0]             
                                                                 phrasePosEmb[0][0]               
__________________________________________________________________________________________________
transTokenFlat (Flatten)        (None, 180)          0           transTokenEmb[0][0]              
__________________________________________________________________________________________________
transPosFlat (Flatten)          (None, 30)           0           transPosEmb[0][0]                
__________________________________________________________________________________________________
phraseRnn (LSTM)                (None, 365)          633640      concatenate_34[0][0]             
__________________________________________________________________________________________________
concatenate_35 (Concatenate)    (None, 210)          0           transTokenFlat[0][0]             
                                                                 transPosFlat[0][0]               
__________________________________________________________________________________________________
concatenate_36 (Concatenate)    (None, 575)          0           phraseRnn[0][0]                  
                                                                 concatenate_35[0][0]             
__________________________________________________________________________________________________
dense_23 (Dense)                (None, 74)           42624       concatenate_36[0][0]             
__________________________________________________________________________________________________
dense_24 (Dense)                (None, 4)            300         dense_23[0][0]                   
==================================================================================================
Total params: 2,818,868
Trainable params: 2,818,868
Non-trainable params: 0
__________________________________________________________________________________________________
None
__________________________________________________________________________________________________
…
==================================================================================================
	Tokens := 7545 * POS : 152
__________________________________________________________________________________________________
	Dashed keys in vocabulary 1622
	One occurrence keys in vocabulary 1622 / 7545
__________________________________________________________________________________________________
Layer (type)                    Output Shape         Param #     Connected to                     
==================================================================================================
phraseTokens (InputLayer)       (None, 50)           0                                            
__________________________________________________________________________________________________
phrasePoss (InputLayer)         (None, 50)           0                                            
__________________________________________________________________________________________________
transTokens (InputLayer)        (None, 5)            0                                            
__________________________________________________________________________________________________
transPoss (InputLayer)          (None, 5)            0                                            
__________________________________________________________________________________________________
phraseTokenEmb (Embedding)      (None, 50, 26)       196170      phraseTokens[0][0]               
__________________________________________________________________________________________________
phrasePosEmb (Embedding)        (None, 50, 14)       2128        phrasePoss[0][0]                 
__________________________________________________________________________________________________
transTokenEmb (Embedding)       (None, 5, 69)        520605      transTokens[0][0]                
__________________________________________________________________________________________________
transPosEmb (Embedding)         (None, 5, 40)        6080        transPoss[0][0]                  
__________________________________________________________________________________________________
concatenate_37 (Concatenate)    (None, 50, 40)       0           phraseTokenEmb[0][0]             
                                                                 phrasePosEmb[0][0]               
__________________________________________________________________________________________________
transTokenFlat (Flatten)        (None, 345)          0           transTokenEmb[0][0]              
__________________________________________________________________________________________________
transPosFlat (Flatten)          (None, 200)          0           transPosEmb[0][0]                
__________________________________________________________________________________________________
phraseRnn (LSTM)                (None, 141)          102648      concatenate_37[0][0]             
__________________________________________________________________________________________________
concatenate_38 (Concatenate)    (None, 545)          0           transTokenFlat[0][0]             
                                                                 transPosFlat[0][0]               
__________________________________________________________________________________________________
concatenate_39 (Concatenate)    (None, 686)          0           phraseRnn[0][0]                  
                                                                 concatenate_38[0][0]             
__________________________________________________________________________________________________
dense_25 (Dense)                (None, 213)          146331      concatenate_39[0][0]             
__________________________________________________________________________________________________
dense_26 (Dense)                (None, 4)            856         dense_25[0][0]                   
==================================================================================================
Total params: 974,818
Trainable params: 974,818
Non-trainable params: 0
__________________________________________________________________________________________________
None
__________________________________________________________________________________________________
…
==================================================================================================
	Tokens := 7241 * POS : 169
__________________________________________________________________________________________________
	Important words not in vocabulary 1
	MWE not in vocabulary 3
	Dashed keys in vocabulary 1674
	One occurrence keys in vocabulary 1674 / 7241
__________________________________________________________________________________________________
Layer (type)                    Output Shape         Param #     Connected to                     
==================================================================================================
phraseTokens (InputLayer)       (None, 50)           0                                            
__________________________________________________________________________________________________
phrasePoss (InputLayer)         (None, 50)           0                                            
__________________________________________________________________________________________________
transTokens (InputLayer)        (None, 5)            0                                            
__________________________________________________________________________________________________
transPoss (InputLayer)          (None, 5)            0                                            
__________________________________________________________________________________________________
phraseTokenEmb (Embedding)      (None, 50, 26)       188266      phraseTokens[0][0]               
__________________________________________________________________________________________________
phrasePosEmb (Embedding)        (None, 50, 14)       2366        phrasePoss[0][0]                 
__________________________________________________________________________________________________
transTokenEmb (Embedding)       (None, 5, 69)        499629      transTokens[0][0]                
__________________________________________________________________________________________________
transPosEmb (Embedding)         (None, 5, 40)        6760        transPoss[0][0]                  
__________________________________________________________________________________________________
concatenate_40 (Concatenate)    (None, 50, 40)       0           phraseTokenEmb[0][0]             
                                                                 phrasePosEmb[0][0]               
__________________________________________________________________________________________________
transTokenFlat (Flatten)        (None, 345)          0           transTokenEmb[0][0]              
__________________________________________________________________________________________________
transPosFlat (Flatten)          (None, 200)          0           transPosEmb[0][0]                
__________________________________________________________________________________________________
phraseRnn (LSTM)                (None, 141)          102648      concatenate_40[0][0]             
__________________________________________________________________________________________________
concatenate_41 (Concatenate)    (None, 545)          0           transTokenFlat[0][0]             
                                                                 transPosFlat[0][0]               
__________________________________________________________________________________________________
concatenate_42 (Concatenate)    (None, 686)          0           phraseRnn[0][0]                  
                                                                 concatenate_41[0][0]             
__________________________________________________________________________________________________
dense_27 (Dense)                (None, 213)          146331      concatenate_42[0][0]             
__________________________________________________________________________________________________
dense_28 (Dense)                (None, 4)            856         dense_27[0][0]                   
==================================================================================================
Total params: 946,856
Trainable params: 946,856
Non-trainable params: 0
__________________________________________________________________________________________________
None
__________________________________________________________________________________________________
…
==================================================================================================
	Tokens := 13793 * POS : 109
__________________________________________________________________________________________________
	Dashed keys in vocabulary 3161
	One occurrence keys in vocabulary 3161 / 13793
__________________________________________________________________________________________________
Layer (type)                    Output Shape         Param #     Connected to                     
==================================================================================================
phraseTokens (InputLayer)       (None, 50)           0                                            
__________________________________________________________________________________________________
phrasePoss (InputLayer)         (None, 50)           0                                            
__________________________________________________________________________________________________
transTokens (InputLayer)        (None, 5)            0                                            
__________________________________________________________________________________________________
transPoss (InputLayer)          (None, 5)            0                                            
__________________________________________________________________________________________________
phraseTokenEmb (Embedding)      (None, 50, 26)       358618      phraseTokens[0][0]               
__________________________________________________________________________________________________
phrasePosEmb (Embedding)        (None, 50, 14)       1526        phrasePoss[0][0]                 
__________________________________________________________________________________________________
transTokenEmb (Embedding)       (None, 5, 69)        951717      transTokens[0][0]                
__________________________________________________________________________________________________
transPosEmb (Embedding)         (None, 5, 40)        4360        transPoss[0][0]                  
__________________________________________________________________________________________________
concatenate_43 (Concatenate)    (None, 50, 40)       0           phraseTokenEmb[0][0]             
                                                                 phrasePosEmb[0][0]               
__________________________________________________________________________________________________
transTokenFlat (Flatten)        (None, 345)          0           transTokenEmb[0][0]              
__________________________________________________________________________________________________
transPosFlat (Flatten)          (None, 200)          0           transPosEmb[0][0]                
__________________________________________________________________________________________________
phraseRnn (LSTM)                (None, 141)          102648      concatenate_43[0][0]             
__________________________________________________________________________________________________
concatenate_44 (Concatenate)    (None, 545)          0           transTokenFlat[0][0]             
                                                                 transPosFlat[0][0]               
__________________________________________________________________________________________________
concatenate_45 (Concatenate)    (None, 686)          0           phraseRnn[0][0]                  
                                                                 concatenate_44[0][0]             
__________________________________________________________________________________________________
dense_29 (Dense)                (None, 213)          146331      concatenate_45[0][0]             
__________________________________________________________________________________________________
dense_30 (Dense)                (None, 4)            856         dense_29[0][0]                   
==================================================================================================
Total params: 1,566,056
Trainable params: 1,566,056
Non-trainable params: 0
__________________________________________________________________________________________________
None
__________________________________________________________________________________________________
…
	Tokens := 11438 * POS : 152
__________________________________________________________________________________________________
	Important words not in vocabulary 675
	MWE not in vocabulary 1297
	Dashed keys in vocabulary 2182
	One occurrence keys in vocabulary 2182 / 11438
__________________________________________________________________________________________________
Layer (type)                    Output Shape         Param #     Connected to                     
==================================================================================================
phraseTokens (InputLayer)       (None, 50)           0                                            
__________________________________________________________________________________________________
phrasePoss (InputLayer)         (None, 50)           0                                            
__________________________________________________________________________________________________
transTokens (InputLayer)        (None, 4)            0                                            
__________________________________________________________________________________________________
transPoss (InputLayer)          (None, 4)            0                                            
__________________________________________________________________________________________________
phraseTokenEmb (Embedding)      (None, 50, 156)      1784328     phraseTokens[0][0]               
__________________________________________________________________________________________________
phrasePosEmb (Embedding)        (None, 50, 5)        760         phrasePoss[0][0]                 
__________________________________________________________________________________________________
transTokenEmb (Embedding)       (None, 4, 88)        1006544     transTokens[0][0]                
__________________________________________________________________________________________________
transPosEmb (Embedding)         (None, 4, 47)        7144        transPoss[0][0]                  
__________________________________________________________________________________________________
concatenate_46 (Concatenate)    (None, 50, 161)      0           phraseTokenEmb[0][0]             
                                                                 phrasePosEmb[0][0]               
__________________________________________________________________________________________________
transTokenFlat (Flatten)        (None, 352)          0           transTokenEmb[0][0]              
__________________________________________________________________________________________________
transPosFlat (Flatten)          (None, 188)          0           transPosEmb[0][0]                
__________________________________________________________________________________________________
phraseRnn (GRU)                 (None, 305)          427305      concatenate_46[0][0]             
__________________________________________________________________________________________________
concatenate_47 (Concatenate)    (None, 540)          0           transTokenFlat[0][0]             
                                                                 transPosFlat[0][0]               
__________________________________________________________________________________________________
concatenate_48 (Concatenate)    (None, 845)          0           phraseRnn[0][0]                  
                                                                 concatenate_47[0][0]             
__________________________________________________________________________________________________
dense_31 (Dense)                (None, 157)          132822      concatenate_48[0][0]             
__________________________________________________________________________________________________
dense_32 (Dense)                (None, 4)            632         dense_31[0][0]                   
==================================================================================================
Total params: 3,359,535
Trainable params: 3,359,535
Non-trainable params: 0
__________________________________________________________________________________________________
None
__________________________________________________________________________________________________
…
	Tokens := 9401 * POS : 169
__________________________________________________________________________________________________
	Important words not in vocabulary 182
	MWE not in vocabulary 1082
	Dashed keys in vocabulary 2380
	One occurrence keys in vocabulary 2380 / 9401
__________________________________________________________________________________________________
Layer (type)                    Output Shape         Param #     Connected to                     
==================================================================================================
phraseTokens (InputLayer)       (None, 50)           0                                            
__________________________________________________________________________________________________
phrasePoss (InputLayer)         (None, 50)           0                                            
__________________________________________________________________________________________________
transTokens (InputLayer)        (None, 4)            0                                            
__________________________________________________________________________________________________
transPoss (InputLayer)          (None, 4)            0                                            
__________________________________________________________________________________________________
phraseTokenEmb (Embedding)      (None, 50, 156)      1466556     phraseTokens[0][0]               
__________________________________________________________________________________________________
phrasePosEmb (Embedding)        (None, 50, 5)        845         phrasePoss[0][0]                 
__________________________________________________________________________________________________
transTokenEmb (Embedding)       (None, 4, 88)        827288      transTokens[0][0]                
__________________________________________________________________________________________________
transPosEmb (Embedding)         (None, 4, 47)        7943        transPoss[0][0]                  
__________________________________________________________________________________________________
concatenate_49 (Concatenate)    (None, 50, 161)      0           phraseTokenEmb[0][0]             
                                                                 phrasePosEmb[0][0]               
__________________________________________________________________________________________________
transTokenFlat (Flatten)        (None, 352)          0           transTokenEmb[0][0]              
__________________________________________________________________________________________________
transPosFlat (Flatten)          (None, 188)          0           transPosEmb[0][0]                
__________________________________________________________________________________________________
phraseRnn (GRU)                 (None, 305)          427305      concatenate_49[0][0]             
__________________________________________________________________________________________________
concatenate_50 (Concatenate)    (None, 540)          0           transTokenFlat[0][0]             
                                                                 transPosFlat[0][0]               
__________________________________________________________________________________________________
concatenate_51 (Concatenate)    (None, 845)          0           phraseRnn[0][0]                  
                                                                 concatenate_50[0][0]             
__________________________________________________________________________________________________
dense_33 (Dense)                (None, 157)          132822      concatenate_51[0][0]             
__________________________________________________________________________________________________
dense_34 (Dense)                (None, 4)            632         dense_33[0][0]                   
==================================================================================================
Total params: 2,863,391
Trainable params: 2,863,391
Non-trainable params: 0
__________________________________________________________________________________________________
None
__________________________________________________________________________________________________
…
	Tokens := 22071 * POS : 109
__________________________________________________________________________________________________
	Important words not in vocabulary 221
	MWE not in vocabulary 1768
	Dashed keys in vocabulary 3975
	One occurrence keys in vocabulary 3975 / 22071
__________________________________________________________________________________________________
Layer (type)                    Output Shape         Param #     Connected to                     
==================================================================================================
phraseTokens (InputLayer)       (None, 50)           0                                            
__________________________________________________________________________________________________
phrasePoss (InputLayer)         (None, 50)           0                                            
__________________________________________________________________________________________________
transTokens (InputLayer)        (None, 4)            0                                            
__________________________________________________________________________________________________
transPoss (InputLayer)          (None, 4)            0                                            
__________________________________________________________________________________________________
phraseTokenEmb (Embedding)      (None, 50, 156)      3443076     phraseTokens[0][0]               
__________________________________________________________________________________________________
phrasePosEmb (Embedding)        (None, 50, 5)        545         phrasePoss[0][0]                 
__________________________________________________________________________________________________
transTokenEmb (Embedding)       (None, 4, 88)        1942248     transTokens[0][0]                
__________________________________________________________________________________________________
transPosEmb (Embedding)         (None, 4, 47)        5123        transPoss[0][0]                  
__________________________________________________________________________________________________
concatenate_52 (Concatenate)    (None, 50, 161)      0           phraseTokenEmb[0][0]             
                                                                 phrasePosEmb[0][0]               
__________________________________________________________________________________________________
transTokenFlat (Flatten)        (None, 352)          0           transTokenEmb[0][0]              
__________________________________________________________________________________________________
transPosFlat (Flatten)          (None, 188)          0           transPosEmb[0][0]                
__________________________________________________________________________________________________
phraseRnn (GRU)                 (None, 305)          427305      concatenate_52[0][0]             
__________________________________________________________________________________________________
concatenate_53 (Concatenate)    (None, 540)          0           transTokenFlat[0][0]             
                                                                 transPosFlat[0][0]               
__________________________________________________________________________________________________
concatenate_54 (Concatenate)    (None, 845)          0           phraseRnn[0][0]                  
                                                                 concatenate_53[0][0]             
__________________________________________________________________________________________________
dense_35 (Dense)                (None, 157)          132822      concatenate_54[0][0]             
__________________________________________________________________________________________________
dense_36 (Dense)                (None, 4)            632         dense_35[0][0]                   
==================================================================================================
Total params: 5,951,751
Trainable params: 5,951,751
Non-trainable params: 0
__________________________________________________________________________________________________
None
__________________________________________________________________________________________________
…
	Tokens := 11438 * POS : 152
__________________________________________________________________________________________________
	Important words not in vocabulary 675
	MWE not in vocabulary 1297
	Dashed keys in vocabulary 2182
	One occurrence keys in vocabulary 2182 / 11438
__________________________________________________________________________________________________
Layer (type)                    Output Shape         Param #     Connected to                     
==================================================================================================
phraseTokens (InputLayer)       (None, 50)           0                                            
__________________________________________________________________________________________________
phrasePoss (InputLayer)         (None, 50)           0                                            
__________________________________________________________________________________________________
transTokens (InputLayer)        (None, 5)            0                                            
__________________________________________________________________________________________________
transPoss (InputLayer)          (None, 5)            0                                            
__________________________________________________________________________________________________
phraseTokenEmb (Embedding)      (None, 50, 29)       331702      phraseTokens[0][0]               
__________________________________________________________________________________________________
phrasePosEmb (Embedding)        (None, 50, 47)       7144        phrasePoss[0][0]                 
__________________________________________________________________________________________________
transTokenEmb (Embedding)       (None, 5, 53)        606214      transTokens[0][0]                
__________________________________________________________________________________________________
transPosEmb (Embedding)         (None, 5, 23)        3496        transPoss[0][0]                  
__________________________________________________________________________________________________
concatenate_55 (Concatenate)    (None, 50, 76)       0           phraseTokenEmb[0][0]             
                                                                 phrasePosEmb[0][0]               
__________________________________________________________________________________________________
transTokenFlat (Flatten)        (None, 265)          0           transTokenEmb[0][0]              
__________________________________________________________________________________________________
transPosFlat (Flatten)          (None, 115)          0           transPosEmb[0][0]                
__________________________________________________________________________________________________
phraseRnn (LSTM)                (None, 74)           44696       concatenate_55[0][0]             
__________________________________________________________________________________________________
concatenate_56 (Concatenate)    (None, 380)          0           transTokenFlat[0][0]             
                                                                 transPosFlat[0][0]               
__________________________________________________________________________________________________
concatenate_57 (Concatenate)    (None, 454)          0           phraseRnn[0][0]                  
                                                                 concatenate_56[0][0]             
__________________________________________________________________________________________________
dense_37 (Dense)                (None, 300)          136500      concatenate_57[0][0]             
__________________________________________________________________________________________________
dense_38 (Dense)                (None, 4)            1204        dense_37[0][0]                   
==================================================================================================
Total params: 1,130,956
Trainable params: 1,130,956
Non-trainable params: 0
__________________________________________________________________________________________________
None
__________________________________________________________________________________________________
…
	Tokens := 9401 * POS : 169
__________________________________________________________________________________________________
	Important words not in vocabulary 182
	MWE not in vocabulary 1082
	Dashed keys in vocabulary 2380
	One occurrence keys in vocabulary 2380 / 9401
__________________________________________________________________________________________________
Layer (type)                    Output Shape         Param #     Connected to                     
==================================================================================================
phraseTokens (InputLayer)       (None, 50)           0                                            
__________________________________________________________________________________________________
phrasePoss (InputLayer)         (None, 50)           0                                            
__________________________________________________________________________________________________
transTokens (InputLayer)        (None, 5)            0                                            
__________________________________________________________________________________________________
transPoss (InputLayer)          (None, 5)            0                                            
__________________________________________________________________________________________________
phraseTokenEmb (Embedding)      (None, 50, 29)       272629      phraseTokens[0][0]               
__________________________________________________________________________________________________
phrasePosEmb (Embedding)        (None, 50, 47)       7943        phrasePoss[0][0]                 
__________________________________________________________________________________________________
transTokenEmb (Embedding)       (None, 5, 53)        498253      transTokens[0][0]                
__________________________________________________________________________________________________
transPosEmb (Embedding)         (None, 5, 23)        3887        transPoss[0][0]                  
__________________________________________________________________________________________________
concatenate_58 (Concatenate)    (None, 50, 76)       0           phraseTokenEmb[0][0]             
                                                                 phrasePosEmb[0][0]               
__________________________________________________________________________________________________
transTokenFlat (Flatten)        (None, 265)          0           transTokenEmb[0][0]              
__________________________________________________________________________________________________
transPosFlat (Flatten)          (None, 115)          0           transPosEmb[0][0]                
__________________________________________________________________________________________________
phraseRnn (LSTM)                (None, 74)           44696       concatenate_58[0][0]             
__________________________________________________________________________________________________
concatenate_59 (Concatenate)    (None, 380)          0           transTokenFlat[0][0]             
                                                                 transPosFlat[0][0]               
__________________________________________________________________________________________________
concatenate_60 (Concatenate)    (None, 454)          0           phraseRnn[0][0]                  
                                                                 concatenate_59[0][0]             
__________________________________________________________________________________________________
dense_39 (Dense)                (None, 300)          136500      concatenate_60[0][0]             
__________________________________________________________________________________________________
dense_40 (Dense)                (None, 4)            1204        dense_39[0][0]                   
==================================================================================================
Total params: 965,112
Trainable params: 965,112
Non-trainable params: 0
__________________________________________________________________________________________________
None
__________________________________________________________________________________________________
…
	Tokens := 22071 * POS : 109
__________________________________________________________________________________________________
	Important words not in vocabulary 221
	MWE not in vocabulary 1768
	Dashed keys in vocabulary 3975
	One occurrence keys in vocabulary 3975 / 22071
__________________________________________________________________________________________________
Layer (type)                    Output Shape         Param #     Connected to                     
==================================================================================================
phraseTokens (InputLayer)       (None, 50)           0                                            
__________________________________________________________________________________________________
phrasePoss (InputLayer)         (None, 50)           0                                            
__________________________________________________________________________________________________
transTokens (InputLayer)        (None, 5)            0                                            
__________________________________________________________________________________________________
transPoss (InputLayer)          (None, 5)            0                                            
__________________________________________________________________________________________________
phraseTokenEmb (Embedding)      (None, 50, 29)       640059      phraseTokens[0][0]               
__________________________________________________________________________________________________
phrasePosEmb (Embedding)        (None, 50, 47)       5123        phrasePoss[0][0]                 
__________________________________________________________________________________________________
transTokenEmb (Embedding)       (None, 5, 53)        1169763     transTokens[0][0]                
__________________________________________________________________________________________________
transPosEmb (Embedding)         (None, 5, 23)        2507        transPoss[0][0]                  
__________________________________________________________________________________________________
concatenate_61 (Concatenate)    (None, 50, 76)       0           phraseTokenEmb[0][0]             
                                                                 phrasePosEmb[0][0]               
__________________________________________________________________________________________________
transTokenFlat (Flatten)        (None, 265)          0           transTokenEmb[0][0]              
__________________________________________________________________________________________________
transPosFlat (Flatten)          (None, 115)          0           transPosEmb[0][0]                
__________________________________________________________________________________________________
phraseRnn (LSTM)                (None, 74)           44696       concatenate_61[0][0]             
__________________________________________________________________________________________________
concatenate_62 (Concatenate)    (None, 380)          0           transTokenFlat[0][0]             
                                                                 transPosFlat[0][0]               
__________________________________________________________________________________________________
concatenate_63 (Concatenate)    (None, 454)          0           phraseRnn[0][0]                  
                                                                 concatenate_62[0][0]             
__________________________________________________________________________________________________
dense_41 (Dense)                (None, 300)          136500      concatenate_63[0][0]             
__________________________________________________________________________________________________
dense_42 (Dense)                (None, 4)            1204        dense_41[0][0]                   
==================================================================================================
Total params: 1,999,852
Trainable params: 1,999,852
Non-trainable params: 0
__________________________________________________________________________________________________
None
__________________________________________________________________________________________________
…
==================================================================================================
	Tokens := 7545 * POS : 152
__________________________________________________________________________________________________
	Dashed keys in vocabulary 1622
	One occurrence keys in vocabulary 1622 / 7545
__________________________________________________________________________________________________
Layer (type)                    Output Shape         Param #     Connected to                     
==================================================================================================
phraseTokens (InputLayer)       (None, 50)           0                                            
__________________________________________________________________________________________________
phrasePoss (InputLayer)         (None, 50)           0                                            
__________________________________________________________________________________________________
transTokens (InputLayer)        (None, 5)            0                                            
__________________________________________________________________________________________________
transPoss (InputLayer)          (None, 5)            0                                            
__________________________________________________________________________________________________
phraseTokenEmb (Embedding)      (None, 50, 38)       286710      phraseTokens[0][0]               
__________________________________________________________________________________________________
phrasePosEmb (Embedding)        (None, 50, 33)       5016        phrasePoss[0][0]                 
__________________________________________________________________________________________________
transTokenEmb (Embedding)       (None, 5, 38)        286710      transTokens[0][0]                
__________________________________________________________________________________________________
transPosEmb (Embedding)         (None, 5, 43)        6536        transPoss[0][0]                  
__________________________________________________________________________________________________
concatenate_64 (Concatenate)    (None, 50, 71)       0           phraseTokenEmb[0][0]             
                                                                 phrasePosEmb[0][0]               
__________________________________________________________________________________________________
transTokenFlat (Flatten)        (None, 190)          0           transTokenEmb[0][0]              
__________________________________________________________________________________________________
transPosFlat (Flatten)          (None, 215)          0           transPosEmb[0][0]                
__________________________________________________________________________________________________
phraseRnn (GRU)                 (None, 209)          176187      concatenate_64[0][0]             
__________________________________________________________________________________________________
concatenate_65 (Concatenate)    (None, 405)          0           transTokenFlat[0][0]             
                                                                 transPosFlat[0][0]               
__________________________________________________________________________________________________
concatenate_66 (Concatenate)    (None, 614)          0           phraseRnn[0][0]                  
                                                                 concatenate_65[0][0]             
__________________________________________________________________________________________________
dense_43 (Dense)                (None, 81)           49815       concatenate_66[0][0]             
__________________________________________________________________________________________________
dense_44 (Dense)                (None, 4)            328         dense_43[0][0]                   
==================================================================================================
Total params: 811,302
Trainable params: 811,302
Non-trainable params: 0
__________________________________________________________________________________________________
None
__________________________________________________________________________________________________
…
==================================================================================================
	Tokens := 7241 * POS : 169
__________________________________________________________________________________________________
	Important words not in vocabulary 1
	MWE not in vocabulary 3
	Dashed keys in vocabulary 1674
	One occurrence keys in vocabulary 1674 / 7241
__________________________________________________________________________________________________
Layer (type)                    Output Shape         Param #     Connected to                     
==================================================================================================
phraseTokens (InputLayer)       (None, 50)           0                                            
__________________________________________________________________________________________________
phrasePoss (InputLayer)         (None, 50)           0                                            
__________________________________________________________________________________________________
transTokens (InputLayer)        (None, 5)            0                                            
__________________________________________________________________________________________________
transPoss (InputLayer)          (None, 5)            0                                            
__________________________________________________________________________________________________
phraseTokenEmb (Embedding)      (None, 50, 38)       275158      phraseTokens[0][0]               
__________________________________________________________________________________________________
phrasePosEmb (Embedding)        (None, 50, 33)       5577        phrasePoss[0][0]                 
__________________________________________________________________________________________________
transTokenEmb (Embedding)       (None, 5, 38)        275158      transTokens[0][0]                
__________________________________________________________________________________________________
transPosEmb (Embedding)         (None, 5, 43)        7267        transPoss[0][0]                  
__________________________________________________________________________________________________
concatenate_67 (Concatenate)    (None, 50, 71)       0           phraseTokenEmb[0][0]             
                                                                 phrasePosEmb[0][0]               
__________________________________________________________________________________________________
transTokenFlat (Flatten)        (None, 190)          0           transTokenEmb[0][0]              
__________________________________________________________________________________________________
transPosFlat (Flatten)          (None, 215)          0           transPosEmb[0][0]                
__________________________________________________________________________________________________
phraseRnn (GRU)                 (None, 209)          176187      concatenate_67[0][0]             
__________________________________________________________________________________________________
concatenate_68 (Concatenate)    (None, 405)          0           transTokenFlat[0][0]             
                                                                 transPosFlat[0][0]               
__________________________________________________________________________________________________
concatenate_69 (Concatenate)    (None, 614)          0           phraseRnn[0][0]                  
                                                                 concatenate_68[0][0]             
__________________________________________________________________________________________________
dense_45 (Dense)                (None, 81)           49815       concatenate_69[0][0]             
__________________________________________________________________________________________________
dense_46 (Dense)                (None, 4)            328         dense_45[0][0]                   
==================================================================================================
Total params: 789,490
Trainable params: 789,490
Non-trainable params: 0
__________________________________________________________________________________________________
None
__________________________________________________________________________________________________
…
==================================================================================================
	Tokens := 13793 * POS : 109
__________________________________________________________________________________________________
	Dashed keys in vocabulary 3161
	One occurrence keys in vocabulary 3161 / 13793
__________________________________________________________________________________________________
Layer (type)                    Output Shape         Param #     Connected to                     
==================================================================================================
phraseTokens (InputLayer)       (None, 50)           0                                            
__________________________________________________________________________________________________
phrasePoss (InputLayer)         (None, 50)           0                                            
__________________________________________________________________________________________________
transTokens (InputLayer)        (None, 5)            0                                            
__________________________________________________________________________________________________
transPoss (InputLayer)          (None, 5)            0                                            
__________________________________________________________________________________________________
phraseTokenEmb (Embedding)      (None, 50, 38)       524134      phraseTokens[0][0]               
__________________________________________________________________________________________________
phrasePosEmb (Embedding)        (None, 50, 33)       3597        phrasePoss[0][0]                 
__________________________________________________________________________________________________
transTokenEmb (Embedding)       (None, 5, 38)        524134      transTokens[0][0]                
__________________________________________________________________________________________________
transPosEmb (Embedding)         (None, 5, 43)        4687        transPoss[0][0]                  
__________________________________________________________________________________________________
concatenate_70 (Concatenate)    (None, 50, 71)       0           phraseTokenEmb[0][0]             
                                                                 phrasePosEmb[0][0]               
__________________________________________________________________________________________________
transTokenFlat (Flatten)        (None, 190)          0           transTokenEmb[0][0]              
__________________________________________________________________________________________________
transPosFlat (Flatten)          (None, 215)          0           transPosEmb[0][0]                
__________________________________________________________________________________________________
phraseRnn (GRU)                 (None, 209)          176187      concatenate_70[0][0]             
__________________________________________________________________________________________________
concatenate_71 (Concatenate)    (None, 405)          0           transTokenFlat[0][0]             
                                                                 transPosFlat[0][0]               
__________________________________________________________________________________________________
concatenate_72 (Concatenate)    (None, 614)          0           phraseRnn[0][0]                  
                                                                 concatenate_71[0][0]             
__________________________________________________________________________________________________
dense_47 (Dense)                (None, 81)           49815       concatenate_72[0][0]             
__________________________________________________________________________________________________
dense_48 (Dense)                (None, 4)            328         dense_47[0][0]                   
==================================================================================================
Total params: 1,282,882
Trainable params: 1,282,882
Non-trainable params: 0
__________________________________________________________________________________________________
None
__________________________________________________________________________________________________
…
	Tokens := 11438 * POS : 152
__________________________________________________________________________________________________
	Important words not in vocabulary 675
	MWE not in vocabulary 1297
	Dashed keys in vocabulary 2182
	One occurrence keys in vocabulary 2182 / 11438
__________________________________________________________________________________________________
Layer (type)                    Output Shape         Param #     Connected to                     
==================================================================================================
phraseTokens (InputLayer)       (None, 50)           0                                            
__________________________________________________________________________________________________
phrasePoss (InputLayer)         (None, 50)           0                                            
__________________________________________________________________________________________________
transTokens (InputLayer)        (None, 5)            0                                            
__________________________________________________________________________________________________
transPoss (InputLayer)          (None, 5)            0                                            
__________________________________________________________________________________________________
phraseTokenEmb (Embedding)      (None, 50, 32)       366016      phraseTokens[0][0]               
__________________________________________________________________________________________________
phrasePosEmb (Embedding)        (None, 50, 21)       3192        phrasePoss[0][0]                 
__________________________________________________________________________________________________
transTokenEmb (Embedding)       (None, 5, 66)        754908      transTokens[0][0]                
__________________________________________________________________________________________________
transPosEmb (Embedding)         (None, 5, 16)        2432        transPoss[0][0]                  
__________________________________________________________________________________________________
concatenate_73 (Concatenate)    (None, 50, 53)       0           phraseTokenEmb[0][0]             
                                                                 phrasePosEmb[0][0]               
__________________________________________________________________________________________________
transTokenFlat (Flatten)        (None, 330)          0           transTokenEmb[0][0]              
__________________________________________________________________________________________________
transPosFlat (Flatten)          (None, 80)           0           transPosEmb[0][0]                
__________________________________________________________________________________________________
phraseRnn (LSTM)                (None, 80)           42880       concatenate_73[0][0]             
__________________________________________________________________________________________________
concatenate_74 (Concatenate)    (None, 410)          0           transTokenFlat[0][0]             
                                                                 transPosFlat[0][0]               
__________________________________________________________________________________________________
concatenate_75 (Concatenate)    (None, 490)          0           phraseRnn[0][0]                  
                                                                 concatenate_74[0][0]             
__________________________________________________________________________________________________
dense_49 (Dense)                (None, 438)          215058      concatenate_75[0][0]             
__________________________________________________________________________________________________
dense_50 (Dense)                (None, 4)            1756        dense_49[0][0]                   
==================================================================================================
Total params: 1,386,242
Trainable params: 1,386,242
Non-trainable params: 0
__________________________________________________________________________________________________
None
__________________________________________________________________________________________________
…
	Tokens := 9401 * POS : 169
__________________________________________________________________________________________________
	Important words not in vocabulary 182
	MWE not in vocabulary 1082
	Dashed keys in vocabulary 2380
	One occurrence keys in vocabulary 2380 / 9401
__________________________________________________________________________________________________
Layer (type)                    Output Shape         Param #     Connected to                     
==================================================================================================
phraseTokens (InputLayer)       (None, 50)           0                                            
__________________________________________________________________________________________________
phrasePoss (InputLayer)         (None, 50)           0                                            
__________________________________________________________________________________________________
transTokens (InputLayer)        (None, 5)            0                                            
__________________________________________________________________________________________________
transPoss (InputLayer)          (None, 5)            0                                            
__________________________________________________________________________________________________
phraseTokenEmb (Embedding)      (None, 50, 32)       300832      phraseTokens[0][0]               
__________________________________________________________________________________________________
phrasePosEmb (Embedding)        (None, 50, 21)       3549        phrasePoss[0][0]                 
__________________________________________________________________________________________________
transTokenEmb (Embedding)       (None, 5, 66)        620466      transTokens[0][0]                
__________________________________________________________________________________________________
transPosEmb (Embedding)         (None, 5, 16)        2704        transPoss[0][0]                  
__________________________________________________________________________________________________
concatenate_76 (Concatenate)    (None, 50, 53)       0           phraseTokenEmb[0][0]             
                                                                 phrasePosEmb[0][0]               
__________________________________________________________________________________________________
transTokenFlat (Flatten)        (None, 330)          0           transTokenEmb[0][0]              
__________________________________________________________________________________________________
transPosFlat (Flatten)          (None, 80)           0           transPosEmb[0][0]                
__________________________________________________________________________________________________
phraseRnn (LSTM)                (None, 80)           42880       concatenate_76[0][0]             
__________________________________________________________________________________________________
concatenate_77 (Concatenate)    (None, 410)          0           transTokenFlat[0][0]             
                                                                 transPosFlat[0][0]               
__________________________________________________________________________________________________
concatenate_78 (Concatenate)    (None, 490)          0           phraseRnn[0][0]                  
                                                                 concatenate_77[0][0]             
__________________________________________________________________________________________________
dense_51 (Dense)                (None, 438)          215058      concatenate_78[0][0]             
__________________________________________________________________________________________________
dense_52 (Dense)                (None, 4)            1756        dense_51[0][0]                   
==================================================================================================
Total params: 1,187,245
Trainable params: 1,187,245
Non-trainable params: 0
__________________________________________________________________________________________________
None
__________________________________________________________________________________________________
…
	Tokens := 22071 * POS : 109
__________________________________________________________________________________________________
	Important words not in vocabulary 221
	MWE not in vocabulary 1768
	Dashed keys in vocabulary 3975
	One occurrence keys in vocabulary 3975 / 22071
__________________________________________________________________________________________________
Layer (type)                    Output Shape         Param #     Connected to                     
==================================================================================================
phraseTokens (InputLayer)       (None, 50)           0                                            
__________________________________________________________________________________________________
phrasePoss (InputLayer)         (None, 50)           0                                            
__________________________________________________________________________________________________
transTokens (InputLayer)        (None, 5)            0                                            
__________________________________________________________________________________________________
transPoss (InputLayer)          (None, 5)            0                                            
__________________________________________________________________________________________________
phraseTokenEmb (Embedding)      (None, 50, 32)       706272      phraseTokens[0][0]               
__________________________________________________________________________________________________
phrasePosEmb (Embedding)        (None, 50, 21)       2289        phrasePoss[0][0]                 
__________________________________________________________________________________________________
transTokenEmb (Embedding)       (None, 5, 66)        1456686     transTokens[0][0]                
__________________________________________________________________________________________________
transPosEmb (Embedding)         (None, 5, 16)        1744        transPoss[0][0]                  
__________________________________________________________________________________________________
concatenate_79 (Concatenate)    (None, 50, 53)       0           phraseTokenEmb[0][0]             
                                                                 phrasePosEmb[0][0]               
__________________________________________________________________________________________________
transTokenFlat (Flatten)        (None, 330)          0           transTokenEmb[0][0]              
__________________________________________________________________________________________________
transPosFlat (Flatten)          (None, 80)           0           transPosEmb[0][0]                
__________________________________________________________________________________________________
phraseRnn (LSTM)                (None, 80)           42880       concatenate_79[0][0]             
__________________________________________________________________________________________________
concatenate_80 (Concatenate)    (None, 410)          0           transTokenFlat[0][0]             
                                                                 transPosFlat[0][0]               
__________________________________________________________________________________________________
concatenate_81 (Concatenate)    (None, 490)          0           phraseRnn[0][0]                  
                                                                 concatenate_80[0][0]             
__________________________________________________________________________________________________
dense_53 (Dense)                (None, 438)          215058      concatenate_81[0][0]             
__________________________________________________________________________________________________
dense_54 (Dense)                (None, 4)            1756        dense_53[0][0]                   
==================================================================================================
Total params: 2,426,685
Trainable params: 2,426,685
Non-trainable params: 0
__________________________________________________________________________________________________
None
__________________________________________________________________________________________________
…
	Tokens := 11438 * POS : 152
__________________________________________________________________________________________________
	Important words not in vocabulary 675
	MWE not in vocabulary 1297
	Dashed keys in vocabulary 2182
	One occurrence keys in vocabulary 2182 / 11438
__________________________________________________________________________________________________
Layer (type)                    Output Shape         Param #     Connected to                     
==================================================================================================
phraseTokens (InputLayer)       (None, 50)           0                                            
__________________________________________________________________________________________________
phrasePoss (InputLayer)         (None, 50)           0                                            
__________________________________________________________________________________________________
transTokens (InputLayer)        (None, 5)            0                                            
__________________________________________________________________________________________________
transPoss (InputLayer)          (None, 5)            0                                            
__________________________________________________________________________________________________
phraseTokenEmb (Embedding)      (None, 50, 62)       709156      phraseTokens[0][0]               
__________________________________________________________________________________________________
phrasePosEmb (Embedding)        (None, 50, 18)       2736        phrasePoss[0][0]                 
__________________________________________________________________________________________________
transTokenEmb (Embedding)       (None, 5, 47)        537586      transTokens[0][0]                
__________________________________________________________________________________________________
transPosEmb (Embedding)         (None, 5, 7)         1064        transPoss[0][0]                  
__________________________________________________________________________________________________
concatenate_82 (Concatenate)    (None, 50, 80)       0           phraseTokenEmb[0][0]             
                                                                 phrasePosEmb[0][0]               
__________________________________________________________________________________________________
transTokenFlat (Flatten)        (None, 235)          0           transTokenEmb[0][0]              
__________________________________________________________________________________________________
transPosFlat (Flatten)          (None, 35)           0           transPosEmb[0][0]                
__________________________________________________________________________________________________
phraseRnn (GRU)                 (None, 211)          184836      concatenate_82[0][0]             
__________________________________________________________________________________________________
concatenate_83 (Concatenate)    (None, 270)          0           transTokenFlat[0][0]             
                                                                 transPosFlat[0][0]               
__________________________________________________________________________________________________
concatenate_84 (Concatenate)    (None, 481)          0           phraseRnn[0][0]                  
                                                                 concatenate_83[0][0]             
__________________________________________________________________________________________________
dense_55 (Dense)                (None, 189)          91098       concatenate_84[0][0]             
__________________________________________________________________________________________________
dense_56 (Dense)                (None, 4)            760         dense_55[0][0]                   
==================================================================================================
Total params: 1,527,236
Trainable params: 1,527,236
Non-trainable params: 0
__________________________________________________________________________________________________
None
__________________________________________________________________________________________________
…
	Tokens := 9401 * POS : 169
__________________________________________________________________________________________________
	Important words not in vocabulary 182
	MWE not in vocabulary 1082
	Dashed keys in vocabulary 2380
	One occurrence keys in vocabulary 2380 / 9401
__________________________________________________________________________________________________
Layer (type)                    Output Shape         Param #     Connected to                     
==================================================================================================
phraseTokens (InputLayer)       (None, 50)           0                                            
__________________________________________________________________________________________________
phrasePoss (InputLayer)         (None, 50)           0                                            
__________________________________________________________________________________________________
transTokens (InputLayer)        (None, 5)            0                                            
__________________________________________________________________________________________________
transPoss (InputLayer)          (None, 5)            0                                            
__________________________________________________________________________________________________
phraseTokenEmb (Embedding)      (None, 50, 62)       582862      phraseTokens[0][0]               
__________________________________________________________________________________________________
phrasePosEmb (Embedding)        (None, 50, 18)       3042        phrasePoss[0][0]                 
__________________________________________________________________________________________________
transTokenEmb (Embedding)       (None, 5, 47)        441847      transTokens[0][0]                
__________________________________________________________________________________________________
transPosEmb (Embedding)         (None, 5, 7)         1183        transPoss[0][0]                  
__________________________________________________________________________________________________
concatenate_85 (Concatenate)    (None, 50, 80)       0           phraseTokenEmb[0][0]             
                                                                 phrasePosEmb[0][0]               
__________________________________________________________________________________________________
transTokenFlat (Flatten)        (None, 235)          0           transTokenEmb[0][0]              
__________________________________________________________________________________________________
transPosFlat (Flatten)          (None, 35)           0           transPosEmb[0][0]                
__________________________________________________________________________________________________
phraseRnn (GRU)                 (None, 211)          184836      concatenate_85[0][0]             
__________________________________________________________________________________________________
concatenate_86 (Concatenate)    (None, 270)          0           transTokenFlat[0][0]             
                                                                 transPosFlat[0][0]               
__________________________________________________________________________________________________
concatenate_87 (Concatenate)    (None, 481)          0           phraseRnn[0][0]                  
                                                                 concatenate_86[0][0]             
__________________________________________________________________________________________________
dense_57 (Dense)                (None, 189)          91098       concatenate_87[0][0]             
__________________________________________________________________________________________________
dense_58 (Dense)                (None, 4)            760         dense_57[0][0]                   
==================================================================================================
Total params: 1,305,628
Trainable params: 1,305,628
Non-trainable params: 0
__________________________________________________________________________________________________
None
__________________________________________________________________________________________________
…
	Tokens := 22071 * POS : 109
__________________________________________________________________________________________________
	Important words not in vocabulary 221
	MWE not in vocabulary 1768
	Dashed keys in vocabulary 3975
	One occurrence keys in vocabulary 3975 / 22071
__________________________________________________________________________________________________
Layer (type)                    Output Shape         Param #     Connected to                     
==================================================================================================
phraseTokens (InputLayer)       (None, 50)           0                                            
__________________________________________________________________________________________________
phrasePoss (InputLayer)         (None, 50)           0                                            
__________________________________________________________________________________________________
transTokens (InputLayer)        (None, 5)            0                                            
__________________________________________________________________________________________________
transPoss (InputLayer)          (None, 5)            0                                            
__________________________________________________________________________________________________
phraseTokenEmb (Embedding)      (None, 50, 62)       1368402     phraseTokens[0][0]               
__________________________________________________________________________________________________
phrasePosEmb (Embedding)        (None, 50, 18)       1962        phrasePoss[0][0]                 
__________________________________________________________________________________________________
transTokenEmb (Embedding)       (None, 5, 47)        1037337     transTokens[0][0]                
__________________________________________________________________________________________________
transPosEmb (Embedding)         (None, 5, 7)         763         transPoss[0][0]                  
__________________________________________________________________________________________________
concatenate_88 (Concatenate)    (None, 50, 80)       0           phraseTokenEmb[0][0]             
                                                                 phrasePosEmb[0][0]               
__________________________________________________________________________________________________
transTokenFlat (Flatten)        (None, 235)          0           transTokenEmb[0][0]              
__________________________________________________________________________________________________
transPosFlat (Flatten)          (None, 35)           0           transPosEmb[0][0]                
__________________________________________________________________________________________________
phraseRnn (GRU)                 (None, 211)          184836      concatenate_88[0][0]             
__________________________________________________________________________________________________
concatenate_89 (Concatenate)    (None, 270)          0           transTokenFlat[0][0]             
                                                                 transPosFlat[0][0]               
__________________________________________________________________________________________________
concatenate_90 (Concatenate)    (None, 481)          0           phraseRnn[0][0]                  
                                                                 concatenate_89[0][0]             
__________________________________________________________________________________________________
dense_59 (Dense)                (None, 189)          91098       concatenate_90[0][0]             
__________________________________________________________________________________________________
dense_60 (Dense)                (None, 4)            760         dense_59[0][0]                   
==================================================================================================
Total params: 2,685,158
Trainable params: 2,685,158
Non-trainable params: 0
__________________________________________________________________________________________________
None
__________________________________________________________________________________________________
…
	Tokens := 11438 * POS : 152
__________________________________________________________________________________________________
	Important words not in vocabulary 675
	MWE not in vocabulary 1297
	Dashed keys in vocabulary 2182
	One occurrence keys in vocabulary 2182 / 11438
__________________________________________________________________________________________________
Layer (type)                    Output Shape         Param #     Connected to                     
==================================================================================================
phraseTokens (InputLayer)       (None, 50)           0                                            
__________________________________________________________________________________________________
phrasePoss (InputLayer)         (None, 50)           0                                            
__________________________________________________________________________________________________
transTokens (InputLayer)        (None, 4)            0                                            
__________________________________________________________________________________________________
transPoss (InputLayer)          (None, 4)            0                                            
__________________________________________________________________________________________________
phraseTokenEmb (Embedding)      (None, 50, 31)       354578      phraseTokens[0][0]               
__________________________________________________________________________________________________
phrasePosEmb (Embedding)        (None, 50, 43)       6536        phrasePoss[0][0]                 
__________________________________________________________________________________________________
transTokenEmb (Embedding)       (None, 4, 142)       1624196     transTokens[0][0]                
__________________________________________________________________________________________________
transPosEmb (Embedding)         (None, 4, 6)         912         transPoss[0][0]                  
__________________________________________________________________________________________________
concatenate_91 (Concatenate)    (None, 50, 74)       0           phraseTokenEmb[0][0]             
                                                                 phrasePosEmb[0][0]               
__________________________________________________________________________________________________
transTokenFlat (Flatten)        (None, 568)          0           transTokenEmb[0][0]              
__________________________________________________________________________________________________
transPosFlat (Flatten)          (None, 24)           0           transPosEmb[0][0]                
__________________________________________________________________________________________________
phraseRnn (GRU)                 (None, 37)           12432       concatenate_91[0][0]             
__________________________________________________________________________________________________
concatenate_92 (Concatenate)    (None, 592)          0           transTokenFlat[0][0]             
                                                                 transPosFlat[0][0]               
__________________________________________________________________________________________________
concatenate_93 (Concatenate)    (None, 629)          0           phraseRnn[0][0]                  
                                                                 concatenate_92[0][0]             
__________________________________________________________________________________________________
dense_61 (Dense)                (None, 181)          114030      concatenate_93[0][0]             
__________________________________________________________________________________________________
dense_62 (Dense)                (None, 4)            728         dense_61[0][0]                   
==================================================================================================
Total params: 2,113,412
Trainable params: 2,113,412
Non-trainable params: 0
__________________________________________________________________________________________________
None
__________________________________________________________________________________________________
…
	Tokens := 9401 * POS : 169
__________________________________________________________________________________________________
	Important words not in vocabulary 182
	MWE not in vocabulary 1082
	Dashed keys in vocabulary 2380
	One occurrence keys in vocabulary 2380 / 9401
__________________________________________________________________________________________________
Layer (type)                    Output Shape         Param #     Connected to                     
==================================================================================================
phraseTokens (InputLayer)       (None, 50)           0                                            
__________________________________________________________________________________________________
phrasePoss (InputLayer)         (None, 50)           0                                            
__________________________________________________________________________________________________
transTokens (InputLayer)        (None, 4)            0                                            
__________________________________________________________________________________________________
transPoss (InputLayer)          (None, 4)            0                                            
__________________________________________________________________________________________________
phraseTokenEmb (Embedding)      (None, 50, 31)       291431      phraseTokens[0][0]               
__________________________________________________________________________________________________
phrasePosEmb (Embedding)        (None, 50, 43)       7267        phrasePoss[0][0]                 
__________________________________________________________________________________________________
transTokenEmb (Embedding)       (None, 4, 142)       1334942     transTokens[0][0]                
__________________________________________________________________________________________________
transPosEmb (Embedding)         (None, 4, 6)         1014        transPoss[0][0]                  
__________________________________________________________________________________________________
concatenate_94 (Concatenate)    (None, 50, 74)       0           phraseTokenEmb[0][0]             
                                                                 phrasePosEmb[0][0]               
__________________________________________________________________________________________________
transTokenFlat (Flatten)        (None, 568)          0           transTokenEmb[0][0]              
__________________________________________________________________________________________________
transPosFlat (Flatten)          (None, 24)           0           transPosEmb[0][0]                
__________________________________________________________________________________________________
phraseRnn (GRU)                 (None, 37)           12432       concatenate_94[0][0]             
__________________________________________________________________________________________________
concatenate_95 (Concatenate)    (None, 592)          0           transTokenFlat[0][0]             
                                                                 transPosFlat[0][0]               
__________________________________________________________________________________________________
concatenate_96 (Concatenate)    (None, 629)          0           phraseRnn[0][0]                  
                                                                 concatenate_95[0][0]             
__________________________________________________________________________________________________
dense_63 (Dense)                (None, 181)          114030      concatenate_96[0][0]             
__________________________________________________________________________________________________
dense_64 (Dense)                (None, 4)            728         dense_63[0][0]                   
==================================================================================================
Total params: 1,761,844
Trainable params: 1,761,844
Non-trainable params: 0
__________________________________________________________________________________________________
None
__________________________________________________________________________________________________
…
	Tokens := 22071 * POS : 109
__________________________________________________________________________________________________
	Important words not in vocabulary 221
	MWE not in vocabulary 1768
	Dashed keys in vocabulary 3975
	One occurrence keys in vocabulary 3975 / 22071
__________________________________________________________________________________________________
Layer (type)                    Output Shape         Param #     Connected to                     
==================================================================================================
phraseTokens (InputLayer)       (None, 50)           0                                            
__________________________________________________________________________________________________
phrasePoss (InputLayer)         (None, 50)           0                                            
__________________________________________________________________________________________________
transTokens (InputLayer)        (None, 4)            0                                            
__________________________________________________________________________________________________
transPoss (InputLayer)          (None, 4)            0                                            
__________________________________________________________________________________________________
phraseTokenEmb (Embedding)      (None, 50, 31)       684201      phraseTokens[0][0]               
__________________________________________________________________________________________________
phrasePosEmb (Embedding)        (None, 50, 43)       4687        phrasePoss[0][0]                 
__________________________________________________________________________________________________
transTokenEmb (Embedding)       (None, 4, 142)       3134082     transTokens[0][0]                
__________________________________________________________________________________________________
transPosEmb (Embedding)         (None, 4, 6)         654         transPoss[0][0]                  
__________________________________________________________________________________________________
concatenate_97 (Concatenate)    (None, 50, 74)       0           phraseTokenEmb[0][0]             
                                                                 phrasePosEmb[0][0]               
__________________________________________________________________________________________________
transTokenFlat (Flatten)        (None, 568)          0           transTokenEmb[0][0]              
__________________________________________________________________________________________________
transPosFlat (Flatten)          (None, 24)           0           transPosEmb[0][0]                
__________________________________________________________________________________________________
phraseRnn (GRU)                 (None, 37)           12432       concatenate_97[0][0]             
__________________________________________________________________________________________________
concatenate_98 (Concatenate)    (None, 592)          0           transTokenFlat[0][0]             
                                                                 transPosFlat[0][0]               
__________________________________________________________________________________________________
concatenate_99 (Concatenate)    (None, 629)          0           phraseRnn[0][0]                  
                                                                 concatenate_98[0][0]             
__________________________________________________________________________________________________
dense_65 (Dense)                (None, 181)          114030      concatenate_99[0][0]             
__________________________________________________________________________________________________
dense_66 (Dense)                (None, 4)            728         dense_65[0][0]                   
==================================================================================================
Total params: 3,950,814
Trainable params: 3,950,814
Non-trainable params: 0
__________________________________________________________________________________________________
None
__________________________________________________________________________________________________
…
==================================================================================================
	Tokens := 7545 * POS : 152
__________________________________________________________________________________________________
	Dashed keys in vocabulary 1622
	One occurrence keys in vocabulary 1622 / 7545
__________________________________________________________________________________________________
Layer (type)                    Output Shape         Param #     Connected to                     
==================================================================================================
phraseTokens (InputLayer)       (None, 50)           0                                            
__________________________________________________________________________________________________
phrasePoss (InputLayer)         (None, 50)           0                                            
__________________________________________________________________________________________________
transTokens (InputLayer)        (None, 5)            0                                            
__________________________________________________________________________________________________
transPoss (InputLayer)          (None, 5)            0                                            
__________________________________________________________________________________________________
phraseTokenEmb (Embedding)      (None, 50, 124)      935580      phraseTokens[0][0]               
__________________________________________________________________________________________________
phrasePosEmb (Embedding)        (None, 50, 25)       3800        phrasePoss[0][0]                 
__________________________________________________________________________________________________
transTokenEmb (Embedding)       (None, 5, 59)        445155      transTokens[0][0]                
__________________________________________________________________________________________________
transPosEmb (Embedding)         (None, 5, 14)        2128        transPoss[0][0]                  
__________________________________________________________________________________________________
concatenate_100 (Concatenate)   (None, 50, 149)      0           phraseTokenEmb[0][0]             
                                                                 phrasePosEmb[0][0]               
__________________________________________________________________________________________________
transTokenFlat (Flatten)        (None, 295)          0           transTokenEmb[0][0]              
__________________________________________________________________________________________________
transPosFlat (Flatten)          (None, 70)           0           transPosEmb[0][0]                
__________________________________________________________________________________________________
phraseRnn (LSTM)                (None, 29)           20764       concatenate_100[0][0]            
__________________________________________________________________________________________________
concatenate_101 (Concatenate)   (None, 365)          0           transTokenFlat[0][0]             
                                                                 transPosFlat[0][0]               
__________________________________________________________________________________________________
concatenate_102 (Concatenate)   (None, 394)          0           phraseRnn[0][0]                  
                                                                 concatenate_101[0][0]            
__________________________________________________________________________________________________
dense_67 (Dense)                (None, 47)           18565       concatenate_102[0][0]            
__________________________________________________________________________________________________
dense_68 (Dense)                (None, 4)            192         dense_67[0][0]                   
==================================================================================================
Total params: 1,426,184
Trainable params: 1,426,184
Non-trainable params: 0
__________________________________________________________________________________________________
None
__________________________________________________________________________________________________
…
==================================================================================================
	Tokens := 7241 * POS : 169
__________________________________________________________________________________________________
	Important words not in vocabulary 1
	MWE not in vocabulary 3
	Dashed keys in vocabulary 1674
	One occurrence keys in vocabulary 1674 / 7241
__________________________________________________________________________________________________
Layer (type)                    Output Shape         Param #     Connected to                     
==================================================================================================
phraseTokens (InputLayer)       (None, 50)           0                                            
__________________________________________________________________________________________________
phrasePoss (InputLayer)         (None, 50)           0                                            
__________________________________________________________________________________________________
transTokens (InputLayer)        (None, 5)            0                                            
__________________________________________________________________________________________________
transPoss (InputLayer)          (None, 5)            0                                            
__________________________________________________________________________________________________
phraseTokenEmb (Embedding)      (None, 50, 124)      897884      phraseTokens[0][0]               
__________________________________________________________________________________________________
phrasePosEmb (Embedding)        (None, 50, 25)       4225        phrasePoss[0][0]                 
__________________________________________________________________________________________________
transTokenEmb (Embedding)       (None, 5, 59)        427219      transTokens[0][0]                
__________________________________________________________________________________________________
transPosEmb (Embedding)         (None, 5, 14)        2366        transPoss[0][0]                  
__________________________________________________________________________________________________
concatenate_103 (Concatenate)   (None, 50, 149)      0           phraseTokenEmb[0][0]             
                                                                 phrasePosEmb[0][0]               
__________________________________________________________________________________________________
transTokenFlat (Flatten)        (None, 295)          0           transTokenEmb[0][0]              
…
__________________________________________________________________________________________________
concatenate_385 (Concatenate)   (None, 50, 216)      0           phraseTokenEmb[0][0]             
                                                                 phrasePosEmb[0][0]               
__________________________________________________________________________________________________
transTokenFlat (Flatten)        (None, 230)          0           transTokenEmb[0][0]              
__________________________________________________________________________________________________
transPosFlat (Flatten)          (None, 25)           0           transPosEmb[0][0]                
__________________________________________________________________________________________________
phraseRnn (LSTM)                (None, 30)           29640       concatenate_385[0][0]            
__________________________________________________________________________________________________
concatenate_386 (Concatenate)   (None, 255)          0           transTokenFlat[0][0]             
                                                                 transPosFlat[0][0]               
__________________________________________________________________________________________________
concatenate_387 (Concatenate)   (None, 285)          0           phraseRnn[0][0]                  
                                                                 concatenate_386[0][0]            
__________________________________________________________________________________________________
dense_257 (Dense)               (None, 91)           26026       concatenate_387[0][0]            
__________________________________________________________________________________________________
dense_258 (Dense)               (None, 4)            368         dense_257[0][0]                  
==================================================================================================
Total params: 3,122,985
Trainable params: 3,122,985
Non-trainable params: 0
__________________________________________________________________________________________________
None
__________________________________________________________________________________________________
…
	Tokens := 11438 * POS : 152
__________________________________________________________________________________________________
	Important words not in vocabulary 675
	MWE not in vocabulary 1297
	Dashed keys in vocabulary 2182
	One occurrence keys in vocabulary 2182 / 11438
__________________________________________________________________________________________________
Layer (type)                    Output Shape         Param #     Connected to                     
==================================================================================================
phraseTokens (InputLayer)       (None, 50)           0                                            
__________________________________________________________________________________________________
phrasePoss (InputLayer)         (None, 50)           0                                            
__________________________________________________________________________________________________
transTokens (InputLayer)        (None, 5)            0                                            
__________________________________________________________________________________________________
transPoss (InputLayer)          (None, 5)            0                                            
__________________________________________________________________________________________________
phraseTokenEmb (Embedding)      (None, 50, 65)       743470      phraseTokens[0][0]               
__________________________________________________________________________________________________
phrasePosEmb (Embedding)        (None, 50, 40)       6080        phrasePoss[0][0]                 
__________________________________________________________________________________________________
transTokenEmb (Embedding)       (None, 5, 27)        308826      transTokens[0][0]                
__________________________________________________________________________________________________
transPosEmb (Embedding)         (None, 5, 36)        5472        transPoss[0][0]                  
__________________________________________________________________________________________________
concatenate_388 (Concatenate)   (None, 50, 105)      0           phraseTokenEmb[0][0]             
                                                                 phrasePosEmb[0][0]               
__________________________________________________________________________________________________
transTokenFlat (Flatten)        (None, 135)          0           transTokenEmb[0][0]              
__________________________________________________________________________________________________
transPosFlat (Flatten)          (None, 180)          0           transPosEmb[0][0]                
__________________________________________________________________________________________________
phraseRnn (GRU)                 (None, 108)          69336       concatenate_388[0][0]            
__________________________________________________________________________________________________
concatenate_389 (Concatenate)   (None, 315)          0           transTokenFlat[0][0]             
                                                                 transPosFlat[0][0]               
__________________________________________________________________________________________________
concatenate_390 (Concatenate)   (None, 423)          0           phraseRnn[0][0]                  
                                                                 concatenate_389[0][0]            
__________________________________________________________________________________________________
dense_259 (Dense)               (None, 186)          78864       concatenate_390[0][0]            
__________________________________________________________________________________________________
dense_260 (Dense)               (None, 4)            748         dense_259[0][0]                  
==================================================================================================
Total params: 1,212,796
Trainable params: 1,212,796
Non-trainable params: 0
__________________________________________________________________________________________________
None
__________________________________________________________________________________________________
…
	Tokens := 9401 * POS : 169
__________________________________________________________________________________________________
	Important words not in vocabulary 182
	MWE not in vocabulary 1082
	Dashed keys in vocabulary 2380
	One occurrence keys in vocabulary 2380 / 9401
__________________________________________________________________________________________________
Layer (type)                    Output Shape         Param #     Connected to                     
==================================================================================================
phraseTokens (InputLayer)       (None, 50)           0                                            
__________________________________________________________________________________________________
phrasePoss (InputLayer)         (None, 50)           0                                            
__________________________________________________________________________________________________
transTokens (InputLayer)        (None, 5)            0                                            
__________________________________________________________________________________________________
transPoss (InputLayer)          (None, 5)            0                                            
__________________________________________________________________________________________________
phraseTokenEmb (Embedding)      (None, 50, 65)       611065      phraseTokens[0][0]               
__________________________________________________________________________________________________
phrasePosEmb (Embedding)        (None, 50, 40)       6760        phrasePoss[0][0]                 
__________________________________________________________________________________________________
transTokenEmb (Embedding)       (None, 5, 27)        253827      transTokens[0][0]                
__________________________________________________________________________________________________
transPosEmb (Embedding)         (None, 5, 36)        6084        transPoss[0][0]                  
__________________________________________________________________________________________________
concatenate_391 (Concatenate)   (None, 50, 105)      0           phraseTokenEmb[0][0]             
                                                                 phrasePosEmb[0][0]               
__________________________________________________________________________________________________
transTokenFlat (Flatten)        (None, 135)          0           transTokenEmb[0][0]              
__________________________________________________________________________________________________
transPosFlat (Flatten)          (None, 180)          0           transPosEmb[0][0]                
__________________________________________________________________________________________________
phraseRnn (GRU)                 (None, 108)          69336       concatenate_391[0][0]            
__________________________________________________________________________________________________
concatenate_392 (Concatenate)   (None, 315)          0           transTokenFlat[0][0]             
                                                                 transPosFlat[0][0]               
__________________________________________________________________________________________________
concatenate_393 (Concatenate)   (None, 423)          0           phraseRnn[0][0]                  
                                                                 concatenate_392[0][0]            
__________________________________________________________________________________________________
dense_261 (Dense)               (None, 186)          78864       concatenate_393[0][0]            
__________________________________________________________________________________________________
dense_262 (Dense)               (None, 4)            748         dense_261[0][0]                  
==================================================================================================
Total params: 1,026,684
Trainable params: 1,026,684
Non-trainable params: 0
__________________________________________________________________________________________________
None
__________________________________________________________________________________________________
…
	Tokens := 22071 * POS : 109
__________________________________________________________________________________________________
	Important words not in vocabulary 221
	MWE not in vocabulary 1768
	Dashed keys in vocabulary 3975
	One occurrence keys in vocabulary 3975 / 22071
__________________________________________________________________________________________________
Layer (type)                    Output Shape         Param #     Connected to                     
==================================================================================================
phraseTokens (InputLayer)       (None, 50)           0                                            
__________________________________________________________________________________________________
phrasePoss (InputLayer)         (None, 50)           0                                            
__________________________________________________________________________________________________
transTokens (InputLayer)        (None, 5)            0                                            
__________________________________________________________________________________________________
transPoss (InputLayer)          (None, 5)            0                                            
__________________________________________________________________________________________________
phraseTokenEmb (Embedding)      (None, 50, 65)       1434615     phraseTokens[0][0]               
__________________________________________________________________________________________________
phrasePosEmb (Embedding)        (None, 50, 40)       4360        phrasePoss[0][0]                 
__________________________________________________________________________________________________
transTokenEmb (Embedding)       (None, 5, 27)        595917      transTokens[0][0]                
__________________________________________________________________________________________________
transPosEmb (Embedding)         (None, 5, 36)        3924        transPoss[0][0]                  
__________________________________________________________________________________________________
concatenate_394 (Concatenate)   (None, 50, 105)      0           phraseTokenEmb[0][0]             
                                                                 phrasePosEmb[0][0]               
__________________________________________________________________________________________________
transTokenFlat (Flatten)        (None, 135)          0           transTokenEmb[0][0]              
__________________________________________________________________________________________________
transPosFlat (Flatten)          (None, 180)          0           transPosEmb[0][0]                
__________________________________________________________________________________________________
phraseRnn (GRU)                 (None, 108)          69336       concatenate_394[0][0]            
__________________________________________________________________________________________________
concatenate_395 (Concatenate)   (None, 315)          0           transTokenFlat[0][0]             
                                                                 transPosFlat[0][0]               
__________________________________________________________________________________________________
concatenate_396 (Concatenate)   (None, 423)          0           phraseRnn[0][0]                  
                                                                 concatenate_395[0][0]            
__________________________________________________________________________________________________
dense_263 (Dense)               (None, 186)          78864       concatenate_396[0][0]            
__________________________________________________________________________________________________
dense_264 (Dense)               (None, 4)            748         dense_263[0][0]                  
==================================================================================================
Total params: 2,187,764
Trainable params: 2,187,764
Non-trainable params: 0
__________________________________________________________________________________________________
None
__________________________________________________________________________________________________
…
==================================================================================================
	Tokens := 7545 * POS : 152
__________________________________________________________________________________________________
	Dashed keys in vocabulary 1622
	One occurrence keys in vocabulary 1622 / 7545
__________________________________________________________________________________________________
Layer (type)                    Output Shape         Param #     Connected to                     
==================================================================================================
phraseTokens (InputLayer)       (None, 50)           0                                            
__________________________________________________________________________________________________
phrasePoss (InputLayer)         (None, 50)           0                                            
__________________________________________________________________________________________________
transTokens (InputLayer)        (None, 4)            0                                            
__________________________________________________________________________________________________
transPoss (InputLayer)          (None, 4)            0                                            
__________________________________________________________________________________________________
phraseTokenEmb (Embedding)      (None, 50, 33)       248985      phraseTokens[0][0]               
__________________________________________________________________________________________________
phrasePosEmb (Embedding)        (None, 50, 7)        1064        phrasePoss[0][0]                 
__________________________________________________________________________________________________
transTokenEmb (Embedding)       (None, 4, 52)        392340      transTokens[0][0]                
__________________________________________________________________________________________________
transPosEmb (Embedding)         (None, 4, 32)        4864        transPoss[0][0]                  
__________________________________________________________________________________________________
concatenate_397 (Concatenate)   (None, 50, 40)       0           phraseTokenEmb[0][0]             
                                                                 phrasePosEmb[0][0]               
__________________________________________________________________________________________________
transTokenFlat (Flatten)        (None, 208)          0           transTokenEmb[0][0]              
__________________________________________________________________________________________________
transPosFlat (Flatten)          (None, 128)          0           transPosEmb[0][0]                
__________________________________________________________________________________________________
phraseRnn (LSTM)                (None, 43)           14448       concatenate_397[0][0]            
__________________________________________________________________________________________________
concatenate_398 (Concatenate)   (None, 336)          0           transTokenFlat[0][0]             
                                                                 transPosFlat[0][0]               
__________________________________________________________________________________________________
concatenate_399 (Concatenate)   (None, 379)          0           phraseRnn[0][0]                  
                                                                 concatenate_398[0][0]            
__________________________________________________________________________________________________
dense_265 (Dense)               (None, 35)           13300       concatenate_399[0][0]            
__________________________________________________________________________________________________
dense_266 (Dense)               (None, 4)            144         dense_265[0][0]                  
==================================================================================================
Total params: 675,145
Trainable params: 675,145
Non-trainable params: 0
__________________________________________________________________________________________________
None
__________________________________________________________________________________________________
…
==================================================================================================
	Tokens := 7241 * POS : 169
__________________________________________________________________________________________________
	Important words not in vocabulary 1
	MWE not in vocabulary 3
	Dashed keys in vocabulary 1674
	One occurrence keys in vocabulary 1674 / 7241
__________________________________________________________________________________________________
Layer (type)                    Output Shape         Param #     Connected to                     
==================================================================================================
phraseTokens (InputLayer)       (None, 50)           0                                            
__________________________________________________________________________________________________
phrasePoss (InputLayer)         (None, 50)           0                                            
__________________________________________________________________________________________________
transTokens (InputLayer)        (None, 4)            0                                            
__________________________________________________________________________________________________
transPoss (InputLayer)          (None, 4)            0                                            
__________________________________________________________________________________________________
phraseTokenEmb (Embedding)      (None, 50, 33)       238953      phraseTokens[0][0]               
__________________________________________________________________________________________________
phrasePosEmb (Embedding)        (None, 50, 7)        1183        phrasePoss[0][0]                 
__________________________________________________________________________________________________
transTokenEmb (Embedding)       (None, 4, 52)        376532      transTokens[0][0]                
__________________________________________________________________________________________________
transPosEmb (Embedding)         (None, 4, 32)        5408        transPoss[0][0]                  
__________________________________________________________________________________________________
concatenate_400 (Concatenate)   (None, 50, 40)       0           phraseTokenEmb[0][0]             
                                                                 phrasePosEmb[0][0]               
__________________________________________________________________________________________________
transTokenFlat (Flatten)        (None, 208)          0           transTokenEmb[0][0]              
__________________________________________________________________________________________________
transPosFlat (Flatten)          (None, 128)          0           transPosEmb[0][0]                
__________________________________________________________________________________________________
phraseRnn (LSTM)                (None, 43)           14448       concatenate_400[0][0]            
__________________________________________________________________________________________________
concatenate_401 (Concatenate)   (None, 336)          0           transTokenFlat[0][0]             
                                                                 transPosFlat[0][0]               
__________________________________________________________________________________________________
concatenate_402 (Concatenate)   (None, 379)          0           phraseRnn[0][0]                  
                                                                 concatenate_401[0][0]            
__________________________________________________________________________________________________
dense_267 (Dense)               (None, 35)           13300       concatenate_402[0][0]            
__________________________________________________________________________________________________
dense_268 (Dense)               (None, 4)            144         dense_267[0][0]                  
==================================================================================================
Total params: 649,968
Trainable params: 649,968
Non-trainable params: 0
__________________________________________________________________________________________________
None
__________________________________________________________________________________________________
…
==================================================================================================
	Tokens := 13793 * POS : 109
__________________________________________________________________________________________________
	Dashed keys in vocabulary 3161
	One occurrence keys in vocabulary 3161 / 13793
__________________________________________________________________________________________________
Layer (type)                    Output Shape         Param #     Connected to                     
==================================================================================================
phraseTokens (InputLayer)       (None, 50)           0                                            
__________________________________________________________________________________________________
phrasePoss (InputLayer)         (None, 50)           0                                            
__________________________________________________________________________________________________
transTokens (InputLayer)        (None, 4)            0                                            
__________________________________________________________________________________________________
transPoss (InputLayer)          (None, 4)            0                                            
__________________________________________________________________________________________________
phraseTokenEmb (Embedding)      (None, 50, 33)       455169      phraseTokens[0][0]               
__________________________________________________________________________________________________
phrasePosEmb (Embedding)        (None, 50, 7)        763         phrasePoss[0][0]                 
__________________________________________________________________________________________________
transTokenEmb (Embedding)       (None, 4, 52)        717236      transTokens[0][0]                
__________________________________________________________________________________________________
transPosEmb (Embedding)         (None, 4, 32)        3488        transPoss[0][0]                  
__________________________________________________________________________________________________
concatenate_403 (Concatenate)   (None, 50, 40)       0           phraseTokenEmb[0][0]             
                                                                 phrasePosEmb[0][0]               
__________________________________________________________________________________________________
transTokenFlat (Flatten)        (None, 208)          0           transTokenEmb[0][0]              
__________________________________________________________________________________________________
transPosFlat (Flatten)          (None, 128)          0           transPosEmb[0][0]                
__________________________________________________________________________________________________
phraseRnn (LSTM)                (None, 43)           14448       concatenate_403[0][0]            
__________________________________________________________________________________________________
concatenate_404 (Concatenate)   (None, 336)          0           transTokenFlat[0][0]             
                                                                 transPosFlat[0][0]               
__________________________________________________________________________________________________
concatenate_405 (Concatenate)   (None, 379)          0           phraseRnn[0][0]                  
                                                                 concatenate_404[0][0]            
__________________________________________________________________________________________________
dense_269 (Dense)               (None, 35)           13300       concatenate_405[0][0]            
__________________________________________________________________________________________________
dense_270 (Dense)               (None, 4)            144         dense_269[0][0]                  
==================================================================================================
Total params: 1,204,548
Trainable params: 1,204,548
Non-trainable params: 0
__________________________________________________________________________________________________
None
__________________________________________________________________________________________________
…
==================================================================================================
	Tokens := 7545 * POS : 152
__________________________________________________________________________________________________
	Dashed keys in vocabulary 1622
	One occurrence keys in vocabulary 1622 / 7545
__________________________________________________________________________________________________
Layer (type)                    Output Shape         Param #     Connected to                     
==================================================================================================
phraseTokens (InputLayer)       (None, 50)           0                                            
__________________________________________________________________________________________________
phrasePoss (InputLayer)         (None, 50)           0                                            
__________________________________________________________________________________________________
transTokens (InputLayer)        (None, 5)            0                                            
__________________________________________________________________________________________________
transPoss (InputLayer)          (None, 5)            0                                            
__________________________________________________________________________________________________
phraseTokenEmb (Embedding)      (None, 50, 58)       437610      phraseTokens[0][0]               
__________________________________________________________________________________________________
phrasePosEmb (Embedding)        (None, 50, 14)       2128        phrasePoss[0][0]                 
__________________________________________________________________________________________________
transTokenEmb (Embedding)       (None, 5, 40)        301800      transTokens[0][0]                
__________________________________________________________________________________________________
transPosEmb (Embedding)         (None, 5, 5)         760         transPoss[0][0]                  
__________________________________________________________________________________________________
concatenate_406 (Concatenate)   (None, 50, 72)       0           phraseTokenEmb[0][0]             
                                                                 phrasePosEmb[0][0]               
__________________________________________________________________________________________________
transTokenFlat (Flatten)        (None, 200)          0           transTokenEmb[0][0]              
__________________________________________________________________________________________________
transPosFlat (Flatten)          (None, 25)           0           transPosEmb[0][0]                
__________________________________________________________________________________________________
phraseRnn (GRU)                 (None, 115)          64860       concatenate_406[0][0]            
__________________________________________________________________________________________________
concatenate_407 (Concatenate)   (None, 225)          0           transTokenFlat[0][0]             
                                                                 transPosFlat[0][0]               
__________________________________________________________________________________________________
concatenate_408 (Concatenate)   (None, 340)          0           phraseRnn[0][0]                  
                                                                 concatenate_407[0][0]            
__________________________________________________________________________________________________
dense_271 (Dense)               (None, 35)           11935       concatenate_408[0][0]            
__________________________________________________________________________________________________
dense_272 (Dense)               (None, 4)            144         dense_271[0][0]                  
==================================================================================================
Total params: 819,237
Trainable params: 819,237
Non-trainable params: 0
__________________________________________________________________________________________________
None
__________________________________________________________________________________________________
…
==================================================================================================
	Tokens := 7241 * POS : 169
__________________________________________________________________________________________________
	Important words not in vocabulary 1
	MWE not in vocabulary 3
	Dashed keys in vocabulary 1674
	One occurrence keys in vocabulary 1674 / 7241
__________________________________________________________________________________________________
Layer (type)                    Output Shape         Param #     Connected to                     
==================================================================================================
phraseTokens (InputLayer)       (None, 50)           0                                            
__________________________________________________________________________________________________
phrasePoss (InputLayer)         (None, 50)           0                                            
__________________________________________________________________________________________________
transTokens (InputLayer)        (None, 5)            0                                            
__________________________________________________________________________________________________
transPoss (InputLayer)          (None, 5)            0                                            
__________________________________________________________________________________________________
phraseTokenEmb (Embedding)      (None, 50, 58)       419978      phraseTokens[0][0]               
__________________________________________________________________________________________________
phrasePosEmb (Embedding)        (None, 50, 14)       2366        phrasePoss[0][0]                 
__________________________________________________________________________________________________
transTokenEmb (Embedding)       (None, 5, 40)        289640      transTokens[0][0]                
__________________________________________________________________________________________________
transPosEmb (Embedding)         (None, 5, 5)         845         transPoss[0][0]                  
__________________________________________________________________________________________________
concatenate_409 (Concatenate)   (None, 50, 72)       0           phraseTokenEmb[0][0]             
                                                                 phrasePosEmb[0][0]               
__________________________________________________________________________________________________
transTokenFlat (Flatten)        (None, 200)          0           transTokenEmb[0][0]              
__________________________________________________________________________________________________
transPosFlat (Flatten)          (None, 25)           0           transPosEmb[0][0]                
__________________________________________________________________________________________________
phraseRnn (GRU)                 (None, 115)          64860       concatenate_409[0][0]            
__________________________________________________________________________________________________
concatenate_410 (Concatenate)   (None, 225)          0           transTokenFlat[0][0]             
                                                                 transPosFlat[0][0]               
__________________________________________________________________________________________________
concatenate_411 (Concatenate)   (None, 340)          0           phraseRnn[0][0]                  
                                                                 concatenate_410[0][0]            
__________________________________________________________________________________________________
dense_273 (Dense)               (None, 35)           11935       concatenate_411[0][0]            
__________________________________________________________________________________________________
dense_274 (Dense)               (None, 4)            144         dense_273[0][0]                  
==================================================================================================
Total params: 789,768
Trainable params: 789,768
Non-trainable params: 0
__________________________________________________________________________________________________
None
__________________________________________________________________________________________________
…
==================================================================================================
	Tokens := 13793 * POS : 109
__________________________________________________________________________________________________
	Dashed keys in vocabulary 3161
	One occurrence keys in vocabulary 3161 / 13793
__________________________________________________________________________________________________
Layer (type)                    Output Shape         Param #     Connected to                     
==================================================================================================
phraseTokens (InputLayer)       (None, 50)           0                                            
__________________________________________________________________________________________________
phrasePoss (InputLayer)         (None, 50)           0                                            
__________________________________________________________________________________________________
transTokens (InputLayer)        (None, 5)            0                                            
__________________________________________________________________________________________________
transPoss (InputLayer)          (None, 5)            0                                            
__________________________________________________________________________________________________
phraseTokenEmb (Embedding)      (None, 50, 58)       799994      phraseTokens[0][0]               
__________________________________________________________________________________________________
phrasePosEmb (Embedding)        (None, 50, 14)       1526        phrasePoss[0][0]                 
__________________________________________________________________________________________________
transTokenEmb (Embedding)       (None, 5, 40)        551720      transTokens[0][0]                
__________________________________________________________________________________________________
transPosEmb (Embedding)         (None, 5, 5)         545         transPoss[0][0]                  
__________________________________________________________________________________________________
concatenate_412 (Concatenate)   (None, 50, 72)       0           phraseTokenEmb[0][0]             
                                                                 phrasePosEmb[0][0]               
__________________________________________________________________________________________________
transTokenFlat (Flatten)        (None, 200)          0           transTokenEmb[0][0]              
__________________________________________________________________________________________________
transPosFlat (Flatten)          (None, 25)           0           transPosEmb[0][0]                
__________________________________________________________________________________________________
phraseRnn (GRU)                 (None, 115)          64860       concatenate_412[0][0]            
__________________________________________________________________________________________________
concatenate_413 (Concatenate)   (None, 225)          0           transTokenFlat[0][0]             
                                                                 transPosFlat[0][0]               
__________________________________________________________________________________________________
concatenate_414 (Concatenate)   (None, 340)          0           phraseRnn[0][0]                  
                                                                 concatenate_413[0][0]            
__________________________________________________________________________________________________
dense_275 (Dense)               (None, 35)           11935       concatenate_414[0][0]            
__________________________________________________________________________________________________
dense_276 (Dense)               (None, 4)            144         dense_275[0][0]                  
==================================================================================================
Total params: 1,430,724
Trainable params: 1,430,724
Non-trainable params: 0
__________________________________________________________________________________________________
None
__________________________________________________________________________________________________
…
	Tokens := 11438 * POS : 152
__________________________________________________________________________________________________
	Important words not in vocabulary 675
	MWE not in vocabulary 1297
	Dashed keys in vocabulary 2182
	One occurrence keys in vocabulary 2182 / 11438
__________________________________________________________________________________________________
Layer (type)                    Output Shape         Param #     Connected to                     
==================================================================================================
phraseTokens (InputLayer)       (None, 50)           0                                            
__________________________________________________________________________________________________
phrasePoss (InputLayer)         (None, 50)           0                                            
__________________________________________________________________________________________________
transTokens (InputLayer)        (None, 5)            0                                            
__________________________________________________________________________________________________
transPoss (InputLayer)          (None, 5)            0                                            
__________________________________________________________________________________________________
phraseTokenEmb (Embedding)      (None, 50, 141)      1612758     phraseTokens[0][0]               
__________________________________________________________________________________________________
phrasePosEmb (Embedding)        (None, 50, 20)       3040        phrasePoss[0][0]                 
__________________________________________________________________________________________________
transTokenEmb (Embedding)       (None, 5, 46)        526148      transTokens[0][0]                
__________________________________________________________________________________________________
transPosEmb (Embedding)         (None, 5, 19)        2888        transPoss[0][0]                  
__________________________________________________________________________________________________
concatenate_415 (Concatenate)   (None, 50, 161)      0           phraseTokenEmb[0][0]             
                                                                 phrasePosEmb[0][0]               
__________________________________________________________________________________________________
transTokenFlat (Flatten)        (None, 230)          0           transTokenEmb[0][0]              
__________________________________________________________________________________________________
transPosFlat (Flatten)          (None, 95)           0           transPosEmb[0][0]                
__________________________________________________________________________________________________
phraseRnn (LSTM)                (None, 274)          477856      concatenate_415[0][0]            
__________________________________________________________________________________________________
concatenate_416 (Concatenate)   (None, 325)          0           transTokenFlat[0][0]             
                                                                 transPosFlat[0][0]               
__________________________________________________________________________________________________
concatenate_417 (Concatenate)   (None, 599)          0           phraseRnn[0][0]                  
                                                                 concatenate_416[0][0]            
__________________________________________________________________________________________________
dense_277 (Dense)               (None, 93)           55800       concatenate_417[0][0]            
__________________________________________________________________________________________________
dense_278 (Dense)               (None, 4)            376         dense_277[0][0]                  
==================================================================================================
Total params: 2,678,866
Trainable params: 2,678,866
Non-trainable params: 0
__________________________________________________________________________________________________
None
__________________________________________________________________________________________________
…
	Tokens := 9401 * POS : 169
__________________________________________________________________________________________________
	Important words not in vocabulary 182
	MWE not in vocabulary 1082
	Dashed keys in vocabulary 2380
	One occurrence keys in vocabulary 2380 / 9401
__________________________________________________________________________________________________
Layer (type)                    Output Shape         Param #     Connected to                     
==================================================================================================
phraseTokens (InputLayer)       (None, 50)           0                                            
__________________________________________________________________________________________________
phrasePoss (InputLayer)         (None, 50)           0                                            
__________________________________________________________________________________________________
transTokens (InputLayer)        (None, 5)            0                                            
__________________________________________________________________________________________________
transPoss (InputLayer)          (None, 5)            0                                            
__________________________________________________________________________________________________
phraseTokenEmb (Embedding)      (None, 50, 141)      1325541     phraseTokens[0][0]               
__________________________________________________________________________________________________
phrasePosEmb (Embedding)        (None, 50, 20)       3380        phrasePoss[0][0]                 
__________________________________________________________________________________________________
transTokenEmb (Embedding)       (None, 5, 46)        432446      transTokens[0][0]                
__________________________________________________________________________________________________
transPosEmb (Embedding)         (None, 5, 19)        3211        transPoss[0][0]                  
__________________________________________________________________________________________________
concatenate_418 (Concatenate)   (None, 50, 161)      0           phraseTokenEmb[0][0]             
                                                                 phrasePosEmb[0][0]               
__________________________________________________________________________________________________
transTokenFlat (Flatten)        (None, 230)          0           transTokenEmb[0][0]              
__________________________________________________________________________________________________
transPosFlat (Flatten)          (None, 95)           0           transPosEmb[0][0]                
__________________________________________________________________________________________________
phraseRnn (LSTM)                (None, 274)          477856      concatenate_418[0][0]            
__________________________________________________________________________________________________
concatenate_419 (Concatenate)   (None, 325)          0           transTokenFlat[0][0]             
                                                                 transPosFlat[0][0]               
__________________________________________________________________________________________________
concatenate_420 (Concatenate)   (None, 599)          0           phraseRnn[0][0]                  
                                                                 concatenate_419[0][0]            
__________________________________________________________________________________________________
dense_279 (Dense)               (None, 93)           55800       concatenate_420[0][0]            
__________________________________________________________________________________________________
dense_280 (Dense)               (None, 4)            376         dense_279[0][0]                  
==================================================================================================
Total params: 2,298,610
Trainable params: 2,298,610
Non-trainable params: 0
__________________________________________________________________________________________________
None
__________________________________________________________________________________________________
…
