…
__________________________________________________________________________________________________

__________________________________________________________________________________________________
	Optimizer : Adagrad,  learning rate = 0.01
__________________________________________________________________________________________________
__________________________________________________________________________________________________
Layer (type)                    Output Shape         Param #     Connected to                     
==================================================================================================
b0Tokens (InputLayer)           (None, 7)            0                                            
__________________________________________________________________________________________________
b0Affixes (InputLayer)          (None, 12)           0                                            
__________________________________________________________________________________________________
b0Symbols (InputLayer)          (None, 1)            0                                            
__________________________________________________________________________________________________
b1Tokens (InputLayer)           (None, 7)            0                                            
__________________________________________________________________________________________________
b1Affixes (InputLayer)          (None, 12)           0                                            
__________________________________________________________________________________________________
b1Symbols (InputLayer)          (None, 1)            0                                            
__________________________________________________________________________________________________
b2Tokens (InputLayer)           (None, 7)            0                                            
__________________________________________________________________________________________________
b2Affixes (InputLayer)          (None, 12)           0                                            
__________________________________________________________________________________________________
b2Symbols (InputLayer)          (None, 1)            0                                            
__________________________________________________________________________________________________
s0Tokens (InputLayer)           (None, 7)            0                                            
__________________________________________________________________________________________________
s0Affixes (InputLayer)          (None, 12)           0                                            
__________________________________________________________________________________________________
s0Symbols (InputLayer)          (None, 1)            0                                            
__________________________________________________________________________________________________
s1Tokens (InputLayer)           (None, 7)            0                                            
__________________________________________________________________________________________________
s1Affixes (InputLayer)          (None, 12)           0                                            
__________________________________________________________________________________________________
s1Symbols (InputLayer)          (None, 1)            0                                            
__________________________________________________________________________________________________
s2Tokens (InputLayer)           (None, 7)            0                                            
__________________________________________________________________________________________________
s2Affixes (InputLayer)          (None, 12)           0                                            
__________________________________________________________________________________________________
s2Symbols (InputLayer)          (None, 1)            0                                            
__________________________________________________________________________________________________
LM1(S1)Tokens (InputLayer)      (None, 7)            0                                            
__________________________________________________________________________________________________
LM1(S1)Affixes (InputLayer)     (None, 12)           0                                            
__________________________________________________________________________________________________
LM1(S1)Symbols (InputLayer)     (None, 1)            0                                            
__________________________________________________________________________________________________
LM2(S1)Tokens (InputLayer)      (None, 7)            0                                            
__________________________________________________________________________________________________
LM2(S1)Affixes (InputLayer)     (None, 12)           0                                            
__________________________________________________________________________________________________
LM2(S1)Symbols (InputLayer)     (None, 1)            0                                            
__________________________________________________________________________________________________
LM1(S0)Tokens (InputLayer)      (None, 7)            0                                            
__________________________________________________________________________________________________
LM1(S0)Affixes (InputLayer)     (None, 12)           0                                            
__________________________________________________________________________________________________
LM1(S0)Symbols (InputLayer)     (None, 1)            0                                            
__________________________________________________________________________________________________
LM2(S0)Tokens (InputLayer)      (None, 7)            0                                            
__________________________________________________________________________________________________
LM2(S0)Affixes (InputLayer)     (None, 12)           0                                            
__________________________________________________________________________________________________
LM2(S0)Symbols (InputLayer)     (None, 1)            0                                            
__________________________________________________________________________________________________
RM1(S1)Tokens (InputLayer)      (None, 7)            0                                            
__________________________________________________________________________________________________
RM1(S1)Affixes (InputLayer)     (None, 12)           0                                            
__________________________________________________________________________________________________
RM1(S1)Symbols (InputLayer)     (None, 1)            0                                            
__________________________________________________________________________________________________
RM2(S1)Tokens (InputLayer)      (None, 7)            0                                            
__________________________________________________________________________________________________
RM2(S1)Affixes (InputLayer)     (None, 12)           0                                            
__________________________________________________________________________________________________
RM2(S1)Symbols (InputLayer)     (None, 1)            0                                            
__________________________________________________________________________________________________
RM1(S0)Tokens (InputLayer)      (None, 7)            0                                            
__________________________________________________________________________________________________
RM1(S0)Affixes (InputLayer)     (None, 12)           0                                            
__________________________________________________________________________________________________
RM1(S0)Symbols (InputLayer)     (None, 1)            0                                            
__________________________________________________________________________________________________
RM2(S0)Tokens (InputLayer)      (None, 7)            0                                            
__________________________________________________________________________________________________
RM2(S0)Affixes (InputLayer)     (None, 12)           0                                            
__________________________________________________________________________________________________
RM2(S0)Symbols (InputLayer)     (None, 1)            0                                            
__________________________________________________________________________________________________
LMLM(S1)Tokens (InputLayer)     (None, 7)            0                                            
__________________________________________________________________________________________________
LMLM(S1)Affixes (InputLayer)    (None, 12)           0                                            
__________________________________________________________________________________________________
LMLM(S1)Symbols (InputLayer)    (None, 1)            0                                            
__________________________________________________________________________________________________
RMRM(S1)Tokens (InputLayer)     (None, 7)            0                                            
__________________________________________________________________________________________________
RMRM(S1)Affixes (InputLayer)    (None, 12)           0                                            
__________________________________________________________________________________________________
RMRM(S1)Symbols (InputLayer)    (None, 1)            0                                            
__________________________________________________________________________________________________
LMLM(S0)Tokens (InputLayer)     (None, 7)            0                                            
__________________________________________________________________________________________________
LMLM(S0)Affixes (InputLayer)    (None, 12)           0                                            
__________________________________________________________________________________________________
LMLM(S0)Symbols (InputLayer)    (None, 1)            0                                            
__________________________________________________________________________________________________
RMRM(S0)Tokens (InputLayer)     (None, 7)            0                                            
__________________________________________________________________________________________________
RMRM(S0)Affixes (InputLayer)    (None, 12)           0                                            
__________________________________________________________________________________________________
RMRM(S0)Symbols (InputLayer)    (None, 1)            0                                            
__________________________________________________________________________________________________
tokenEmb (Embedding)            (None, 7, 103)       1524297     b0Tokens[0][0]                   
                                                                 b1Tokens[0][0]                   
                                                                 b2Tokens[0][0]                   
                                                                 s0Tokens[0][0]                   
                                                                 s1Tokens[0][0]                   
…
                                                                 RM2(S0)Symbols[0][0]             
                                                                 LMLM(S1)Symbols[0][0]            
                                                                 RMRM(S1)Symbols[0][0]            
                                                                 LMLM(S0)Symbols[0][0]            
                                                                 RMRM(S0)Symbols[0][0]            
__________________________________________________________________________________________________
SyntacticLabels (InputLayer)    (None, 12)           0                                            
__________________________________________________________________________________________________
flatten_4 (Flatten)             (None, 721)          0           tokenEmb[1][0]                   
__________________________________________________________________________________________________
flatten_5 (Flatten)             (None, 84)           0           affixeseEmb[1][0]                
__________________________________________________________________________________________________
flatten_6 (Flatten)             (None, 7)            0           symbolsEmb[1][0]                 
__________________________________________________________________________________________________
flatten_7 (Flatten)             (None, 721)          0           tokenEmb[2][0]                   
__________________________________________________________________________________________________
flatten_8 (Flatten)             (None, 84)           0           affixeseEmb[2][0]                
__________________________________________________________________________________________________
flatten_9 (Flatten)             (None, 7)            0           symbolsEmb[2][0]                 
__________________________________________________________________________________________________
flatten_10 (Flatten)            (None, 721)          0           tokenEmb[3][0]                   
__________________________________________________________________________________________________
flatten_11 (Flatten)            (None, 84)           0           affixeseEmb[3][0]                
__________________________________________________________________________________________________
flatten_12 (Flatten)            (None, 7)            0           symbolsEmb[3][0]                 
__________________________________________________________________________________________________
flatten_13 (Flatten)            (None, 721)          0           tokenEmb[4][0]                   
__________________________________________________________________________________________________
flatten_14 (Flatten)            (None, 84)           0           affixeseEmb[4][0]                
__________________________________________________________________________________________________
flatten_15 (Flatten)            (None, 7)            0           symbolsEmb[4][0]                 
__________________________________________________________________________________________________
flatten_16 (Flatten)            (None, 721)          0           tokenEmb[5][0]                   
__________________________________________________________________________________________________
flatten_17 (Flatten)            (None, 84)           0           affixeseEmb[5][0]                
__________________________________________________________________________________________________
flatten_18 (Flatten)            (None, 7)            0           symbolsEmb[5][0]                 
__________________________________________________________________________________________________
flatten_19 (Flatten)            (None, 721)          0           tokenEmb[6][0]                   
__________________________________________________________________________________________________
flatten_20 (Flatten)            (None, 84)           0           affixeseEmb[6][0]                
__________________________________________________________________________________________________
flatten_21 (Flatten)            (None, 7)            0           symbolsEmb[6][0]                 
__________________________________________________________________________________________________
flatten_22 (Flatten)            (None, 721)          0           tokenEmb[7][0]                   
__________________________________________________________________________________________________
flatten_23 (Flatten)            (None, 84)           0           affixeseEmb[7][0]                
__________________________________________________________________________________________________
flatten_24 (Flatten)            (None, 7)            0           symbolsEmb[7][0]                 
__________________________________________________________________________________________________
flatten_25 (Flatten)            (None, 721)          0           tokenEmb[8][0]                   
__________________________________________________________________________________________________
flatten_26 (Flatten)            (None, 84)           0           affixeseEmb[8][0]                
__________________________________________________________________________________________________
flatten_27 (Flatten)            (None, 7)            0           symbolsEmb[8][0]                 
__________________________________________________________________________________________________
flatten_28 (Flatten)            (None, 721)          0           tokenEmb[9][0]                   
__________________________________________________________________________________________________
flatten_29 (Flatten)            (None, 84)           0           affixeseEmb[9][0]                
__________________________________________________________________________________________________
flatten_30 (Flatten)            (None, 7)            0           symbolsEmb[9][0]                 
__________________________________________________________________________________________________
flatten_31 (Flatten)            (None, 721)          0           tokenEmb[10][0]                  
__________________________________________________________________________________________________
flatten_32 (Flatten)            (None, 84)           0           affixeseEmb[10][0]               
__________________________________________________________________________________________________
flatten_33 (Flatten)            (None, 7)            0           symbolsEmb[10][0]                
__________________________________________________________________________________________________
flatten_34 (Flatten)            (None, 721)          0           tokenEmb[11][0]                  
__________________________________________________________________________________________________
flatten_35 (Flatten)            (None, 84)           0           affixeseEmb[11][0]               
__________________________________________________________________________________________________
flatten_36 (Flatten)            (None, 7)            0           symbolsEmb[11][0]                
__________________________________________________________________________________________________
flatten_37 (Flatten)            (None, 721)          0           tokenEmb[12][0]                  
__________________________________________________________________________________________________
flatten_38 (Flatten)            (None, 84)           0           affixeseEmb[12][0]               
__________________________________________________________________________________________________
flatten_39 (Flatten)            (None, 7)            0           symbolsEmb[12][0]                
__________________________________________________________________________________________________
flatten_40 (Flatten)            (None, 721)          0           tokenEmb[13][0]                  
__________________________________________________________________________________________________
flatten_41 (Flatten)            (None, 84)           0           affixeseEmb[13][0]               
__________________________________________________________________________________________________
flatten_42 (Flatten)            (None, 7)            0           symbolsEmb[13][0]                
__________________________________________________________________________________________________
flatten_43 (Flatten)            (None, 721)          0           tokenEmb[14][0]                  
__________________________________________________________________________________________________
flatten_44 (Flatten)            (None, 84)           0           affixeseEmb[14][0]               
__________________________________________________________________________________________________
flatten_45 (Flatten)            (None, 7)            0           symbolsEmb[14][0]                
__________________________________________________________________________________________________
flatten_46 (Flatten)            (None, 721)          0           tokenEmb[15][0]                  
__________________________________________________________________________________________________
flatten_47 (Flatten)            (None, 84)           0           affixeseEmb[15][0]               
__________________________________________________________________________________________________
flatten_48 (Flatten)            (None, 7)            0           symbolsEmb[15][0]                
__________________________________________________________________________________________________
flatten_49 (Flatten)            (None, 721)          0           tokenEmb[16][0]                  
__________________________________________________________________________________________________
flatten_50 (Flatten)            (None, 84)           0           affixeseEmb[16][0]               
__________________________________________________________________________________________________
flatten_51 (Flatten)            (None, 7)            0           symbolsEmb[16][0]                
__________________________________________________________________________________________________
flatten_52 (Flatten)            (None, 721)          0           tokenEmb[17][0]                  
__________________________________________________________________________________________________
flatten_53 (Flatten)            (None, 84)           0           affixeseEmb[17][0]               
__________________________________________________________________________________________________
flatten_54 (Flatten)            (None, 7)            0           symbolsEmb[17][0]                
__________________________________________________________________________________________________
flatten_55 (Flatten)            (None, 721)          0           tokenEmb[18][0]                  
__________________________________________________________________________________________________
flatten_56 (Flatten)            (None, 84)           0           affixeseEmb[18][0]               
__________________________________________________________________________________________________
flatten_57 (Flatten)            (None, 7)            0           symbolsEmb[18][0]                
__________________________________________________________________________________________________
SyntacticLabelEmb (Embedding)   (None, 12, 9)        306         SyntacticLabels[0][0]            
__________________________________________________________________________________________________
concatenate_2 (Concatenate)     (None, 812)          0           flatten_4[0][0]                  
                                                                 flatten_5[0][0]                  
                                                                 flatten_6[0][0]                  
__________________________________________________________________________________________________
concatenate_3 (Concatenate)     (None, 812)          0           flatten_7[0][0]                  
                                                                 flatten_8[0][0]                  
                                                                 flatten_9[0][0]                  
__________________________________________________________________________________________________
concatenate_4 (Concatenate)     (None, 812)          0           flatten_10[0][0]                 
                                                                 flatten_11[0][0]                 
                                                                 flatten_12[0][0]                 
__________________________________________________________________________________________________
concatenate_5 (Concatenate)     (None, 812)          0           flatten_13[0][0]                 
                                                                 flatten_14[0][0]                 
                                                                 flatten_15[0][0]                 
__________________________________________________________________________________________________
concatenate_6 (Concatenate)     (None, 812)          0           flatten_16[0][0]                 
                                                                 flatten_17[0][0]                 
                                                                 flatten_18[0][0]                 
__________________________________________________________________________________________________
concatenate_7 (Concatenate)     (None, 812)          0           flatten_19[0][0]                 
                                                                 flatten_20[0][0]                 
                                                                 flatten_21[0][0]                 
__________________________________________________________________________________________________
concatenate_8 (Concatenate)     (None, 812)          0           flatten_22[0][0]                 
                                                                 flatten_23[0][0]                 
                                                                 flatten_24[0][0]                 
__________________________________________________________________________________________________
concatenate_9 (Concatenate)     (None, 812)          0           flatten_25[0][0]                 
                                                                 flatten_26[0][0]                 
                                                                 flatten_27[0][0]                 
__________________________________________________________________________________________________
concatenate_10 (Concatenate)    (None, 812)          0           flatten_28[0][0]                 
                                                                 flatten_29[0][0]                 
                                                                 flatten_30[0][0]                 
__________________________________________________________________________________________________
concatenate_11 (Concatenate)    (None, 812)          0           flatten_31[0][0]                 
                                                                 flatten_32[0][0]                 
                                                                 flatten_33[0][0]                 
__________________________________________________________________________________________________
concatenate_12 (Concatenate)    (None, 812)          0           flatten_34[0][0]                 
                                                                 flatten_35[0][0]                 
                                                                 flatten_36[0][0]                 
__________________________________________________________________________________________________
concatenate_13 (Concatenate)    (None, 812)          0           flatten_37[0][0]                 
                                                                 flatten_38[0][0]                 
                                                                 flatten_39[0][0]                 
__________________________________________________________________________________________________
concatenate_14 (Concatenate)    (None, 812)          0           flatten_40[0][0]                 
                                                                 flatten_41[0][0]                 
                                                                 flatten_42[0][0]                 
__________________________________________________________________________________________________
concatenate_15 (Concatenate)    (None, 812)          0           flatten_43[0][0]                 
                                                                 flatten_44[0][0]                 
                                                                 flatten_45[0][0]                 
__________________________________________________________________________________________________
concatenate_16 (Concatenate)    (None, 812)          0           flatten_46[0][0]                 
                                                                 flatten_47[0][0]                 
                                                                 flatten_48[0][0]                 
__________________________________________________________________________________________________
concatenate_17 (Concatenate)    (None, 812)          0           flatten_49[0][0]                 
                                                                 flatten_50[0][0]                 
                                                                 flatten_51[0][0]                 
__________________________________________________________________________________________________
concatenate_18 (Concatenate)    (None, 812)          0           flatten_52[0][0]                 
                                                                 flatten_53[0][0]                 
                                                                 flatten_54[0][0]                 
__________________________________________________________________________________________________
concatenate_19 (Concatenate)    (None, 812)          0           flatten_55[0][0]                 
                                                                 flatten_56[0][0]                 
                                                                 flatten_57[0][0]                 
__________________________________________________________________________________________________
flatten_58 (Flatten)            (None, 108)          0           SyntacticLabelEmb[0][0]          
__________________________________________________________________________________________________
posDense (Dense)                (None, 116)          94308       concatenate_2[0][0]              
                                                                 concatenate_3[0][0]              
                                                                 concatenate_4[0][0]              
                                                                 concatenate_5[0][0]              
                                                                 concatenate_6[0][0]              
…
