…
	Token occurrences: 42020
	MWE number: 451
	MWE occurrences: 670
	Continuous occurrences: 75.0 %
	MWE length: 2.14
	Seen occurrences : 57% 
	Recognizable MWEs: 100.0 %
	MWT occurrences: 1

==================================================================================================
__________________________________________________________________________________________________
Layer (type)                    Output Shape         Param #     Connected to                     
==================================================================================================
S0_toks (InputLayer)            (None, 4)            0                                            
__________________________________________________________________________________________________
S0_Pos (InputLayer)             (None, 4)            0                                            
__________________________________________________________________________________________________
S1_toks (InputLayer)            (None, 4)            0                                            
__________________________________________________________________________________________________
S1_Pos (InputLayer)             (None, 4)            0                                            
__________________________________________________________________________________________________
S0_toksEmb (Embedding)          (None, 4, 101)       118978      S0_toks[0][0]                    
__________________________________________________________________________________________________
S0_tPosEmb (Embedding)          (None, 4, 63)        1197        S0_Pos[0][0]                     
__________________________________________________________________________________________________
S1_toksEmb (Embedding)          (None, 4, 101)       118978      S1_toks[0][0]                    
__________________________________________________________________________________________________
S1_PosEmb (Embedding)           (None, 4, 63)        1197        S1_Pos[0][0]                     
__________________________________________________________________________________________________
B_toks (InputLayer)             (None, 3)            0                                            
__________________________________________________________________________________________________
B_Pos (InputLayer)              (None, 3)            0                                            
__________________________________________________________________________________________________
concatenate_1 (Concatenate)     (None, 4, 164)       0           S0_toksEmb[0][0]                 
                                                                 S0_tPosEmb[0][0]                 
__________________________________________________________________________________________________
concatenate_2 (Concatenate)     (None, 4, 164)       0           S1_toksEmb[0][0]                 
                                                                 S1_PosEmb[0][0]                  
__________________________________________________________________________________________________
B_toksEmb (Embedding)           (None, 3, 101)       118978      B_toks[0][0]                     
__________________________________________________________________________________________________
B_PosEmb (Embedding)            (None, 3, 63)        1197        B_Pos[0][0]                      
__________________________________________________________________________________________________
s0Rnn (LSTM)                    (None, 84)           83664       concatenate_1[0][0]              
__________________________________________________________________________________________________
s1Rnn (LSTM)                    (None, 84)           83664       concatenate_2[0][0]              
__________________________________________________________________________________________________
B_toksFlat (Flatten)            (None, 303)          0           B_toksEmb[0][0]                  
__________________________________________________________________________________________________
B_PosFlat (Flatten)             (None, 189)          0           B_PosEmb[0][0]                   
__________________________________________________________________________________________________
dropout_1 (Dropout)             (None, 84)           0           s0Rnn[0][0]                      
__________________________________________________________________________________________________
dropout_2 (Dropout)             (None, 84)           0           s1Rnn[0][0]                      
__________________________________________________________________________________________________
concatenate_3 (Concatenate)     (None, 660)          0           B_toksFlat[0][0]                 
                                                                 B_PosFlat[0][0]                  
                                                                 dropout_1[0][0]                  
                                                                 dropout_2[0][0]                  
__________________________________________________________________________________________________
dense_1 (Dense)                 (None, 318)          210198      concatenate_3[0][0]              
__________________________________________________________________________________________________
dropout_3 (Dropout)             (None, 318)          0           dense_1[0][0]                    
__________________________________________________________________________________________________
dense_2 (Dense)                 (None, 4)            1276        dropout_3[0][0]                  
==================================================================================================
Total params: 739,327
Trainable params: 739,327
Non-trainable params: 0
__________________________________________________________________________________________________
None
==================================================================================================
…
	MWE occurrences: 553
	Continuous occurrences: 59.0 %
	MWE length: 2.25
	Seen occurrences : 62% 
	Recognizable MWEs: 98.0 %
	Embedded occurrences: 4
	Interleaving occurrences: 8

==================================================================================================
__________________________________________________________________________________________________
Layer (type)                    Output Shape         Param #     Connected to                     
==================================================================================================
S0_toks (InputLayer)            (None, 4)            0                                            
__________________________________________________________________________________________________
S0_Pos (InputLayer)             (None, 4)            0                                            
__________________________________________________________________________________________________
S1_toks (InputLayer)            (None, 4)            0                                            
__________________________________________________________________________________________________
S1_Pos (InputLayer)             (None, 4)            0                                            
__________________________________________________________________________________________________
S0_toksEmb (Embedding)          (None, 4, 101)       114534      S0_toks[0][0]                    
__________________________________________________________________________________________________
S0_tPosEmb (Embedding)          (None, 4, 63)        1197        S0_Pos[0][0]                     
__________________________________________________________________________________________________
S1_toksEmb (Embedding)          (None, 4, 101)       114534      S1_toks[0][0]                    
__________________________________________________________________________________________________
S1_PosEmb (Embedding)           (None, 4, 63)        1197        S1_Pos[0][0]                     
__________________________________________________________________________________________________
B_toks (InputLayer)             (None, 3)            0                                            
__________________________________________________________________________________________________
B_Pos (InputLayer)              (None, 3)            0                                            
__________________________________________________________________________________________________
concatenate_7 (Concatenate)     (None, 4, 164)       0           S0_toksEmb[0][0]                 
                                                                 S0_tPosEmb[0][0]                 
__________________________________________________________________________________________________
concatenate_8 (Concatenate)     (None, 4, 164)       0           S1_toksEmb[0][0]                 
                                                                 S1_PosEmb[0][0]                  
__________________________________________________________________________________________________
B_toksEmb (Embedding)           (None, 3, 101)       114534      B_toks[0][0]                     
__________________________________________________________________________________________________
B_PosEmb (Embedding)            (None, 3, 63)        1197        B_Pos[0][0]                      
__________________________________________________________________________________________________
s0Rnn (LSTM)                    (None, 84)           83664       concatenate_7[0][0]              
__________________________________________________________________________________________________
s1Rnn (LSTM)                    (None, 84)           83664       concatenate_8[0][0]              
__________________________________________________________________________________________________
B_toksFlat (Flatten)            (None, 303)          0           B_toksEmb[0][0]                  
__________________________________________________________________________________________________
B_PosFlat (Flatten)             (None, 189)          0           B_PosEmb[0][0]                   
__________________________________________________________________________________________________
dropout_7 (Dropout)             (None, 84)           0           s0Rnn[0][0]                      
__________________________________________________________________________________________________
dropout_8 (Dropout)             (None, 84)           0           s1Rnn[0][0]                      
__________________________________________________________________________________________________
concatenate_9 (Concatenate)     (None, 660)          0           B_toksFlat[0][0]                 
                                                                 B_PosFlat[0][0]                  
                                                                 dropout_7[0][0]                  
                                                                 dropout_8[0][0]                  
__________________________________________________________________________________________________
dense_5 (Dense)                 (None, 318)          210198      concatenate_9[0][0]              
__________________________________________________________________________________________________
dropout_9 (Dropout)             (None, 318)          0           dense_5[0][0]                    
__________________________________________________________________________________________________
dense_6 (Dense)                 (None, 4)            1276        dropout_9[0][0]                  
==================================================================================================
Total params: 725,995
Trainable params: 725,995
Non-trainable params: 0
__________________________________________________________________________________________________
None
==================================================================================================
…
	Important sentence: 385
	Token occurrences: 27196
	MWE number: 418
	MWE occurrences: 510
	Continuous occurrences: 50.0 %
	MWE length: 2.07
	Seen occurrences : 43% 
	Recognizable MWEs: 100.0 %

==================================================================================================
__________________________________________________________________________________________________
Layer (type)                    Output Shape         Param #     Connected to                     
==================================================================================================
S0_toks (InputLayer)            (None, 4)            0                                            
__________________________________________________________________________________________________
S0_Pos (InputLayer)             (None, 4)            0                                            
__________________________________________________________________________________________________
S1_toks (InputLayer)            (None, 4)            0                                            
__________________________________________________________________________________________________
S1_Pos (InputLayer)             (None, 4)            0                                            
__________________________________________________________________________________________________
S0_toksEmb (Embedding)          (None, 4, 101)       218766      S0_toks[0][0]                    
__________________________________________________________________________________________________
S0_tPosEmb (Embedding)          (None, 4, 63)        882         S0_Pos[0][0]                     
__________________________________________________________________________________________________
S1_toksEmb (Embedding)          (None, 4, 101)       218766      S1_toks[0][0]                    
__________________________________________________________________________________________________
S1_PosEmb (Embedding)           (None, 4, 63)        882         S1_Pos[0][0]                     
__________________________________________________________________________________________________
B_toks (InputLayer)             (None, 3)            0                                            
__________________________________________________________________________________________________
B_Pos (InputLayer)              (None, 3)            0                                            
__________________________________________________________________________________________________
concatenate_13 (Concatenate)    (None, 4, 164)       0           S0_toksEmb[0][0]                 
                                                                 S0_tPosEmb[0][0]                 
__________________________________________________________________________________________________
concatenate_14 (Concatenate)    (None, 4, 164)       0           S1_toksEmb[0][0]                 
                                                                 S1_PosEmb[0][0]                  
__________________________________________________________________________________________________
B_toksEmb (Embedding)           (None, 3, 101)       218766      B_toks[0][0]                     
__________________________________________________________________________________________________
B_PosEmb (Embedding)            (None, 3, 63)        882         B_Pos[0][0]                      
__________________________________________________________________________________________________
s0Rnn (LSTM)                    (None, 84)           83664       concatenate_13[0][0]             
__________________________________________________________________________________________________
s1Rnn (LSTM)                    (None, 84)           83664       concatenate_14[0][0]             
__________________________________________________________________________________________________
B_toksFlat (Flatten)            (None, 303)          0           B_toksEmb[0][0]                  
__________________________________________________________________________________________________
B_PosFlat (Flatten)             (None, 189)          0           B_PosEmb[0][0]                   
__________________________________________________________________________________________________
dropout_13 (Dropout)            (None, 84)           0           s0Rnn[0][0]                      
__________________________________________________________________________________________________
dropout_14 (Dropout)            (None, 84)           0           s1Rnn[0][0]                      
__________________________________________________________________________________________________
concatenate_15 (Concatenate)    (None, 660)          0           B_toksFlat[0][0]                 
                                                                 B_PosFlat[0][0]                  
                                                                 dropout_13[0][0]                 
                                                                 dropout_14[0][0]                 
__________________________________________________________________________________________________
dense_9 (Dense)                 (None, 318)          210198      concatenate_15[0][0]             
__________________________________________________________________________________________________
dropout_15 (Dropout)            (None, 318)          0           dense_9[0][0]                    
__________________________________________________________________________________________________
dense_10 (Dense)                (None, 4)            1276        dropout_15[0][0]                 
==================================================================================================
Total params: 1,037,746
Trainable params: 1,037,746
Non-trainable params: 0
__________________________________________________________________________________________________
None
==================================================================================================
…
	Token occurrences: 42020
	MWE number: 451
	MWE occurrences: 670
	Continuous occurrences: 75.0 %
	MWE length: 2.14
	Seen occurrences : 57% 
	Recognizable MWEs: 100.0 %
	MWT occurrences: 1

==================================================================================================
__________________________________________________________________________________________________
Layer (type)                    Output Shape         Param #     Connected to                     
==================================================================================================
S0_toks (InputLayer)            (None, 4)            0                                            
__________________________________________________________________________________________________
S0_Pos (InputLayer)             (None, 4)            0                                            
__________________________________________________________________________________________________
S1_toks (InputLayer)            (None, 4)            0                                            
__________________________________________________________________________________________________
S1_Pos (InputLayer)             (None, 4)            0                                            
__________________________________________________________________________________________________
S0_toksEmb (Embedding)          (None, 4, 286)       1694836     S0_toks[0][0]                    
__________________________________________________________________________________________________
S0_tPosEmb (Embedding)          (None, 4, 19)        361         S0_Pos[0][0]                     
__________________________________________________________________________________________________
S1_toksEmb (Embedding)          (None, 4, 286)       1694836     S1_toks[0][0]                    
__________________________________________________________________________________________________
S1_PosEmb (Embedding)           (None, 4, 19)        361         S1_Pos[0][0]                     
__________________________________________________________________________________________________
B_toks (InputLayer)             (None, 2)            0                                            
__________________________________________________________________________________________________
B_Pos (InputLayer)              (None, 2)            0                                            
__________________________________________________________________________________________________
concatenate_19 (Concatenate)    (None, 4, 305)       0           S0_toksEmb[0][0]                 
                                                                 S0_tPosEmb[0][0]                 
__________________________________________________________________________________________________
concatenate_20 (Concatenate)    (None, 4, 305)       0           S1_toksEmb[0][0]                 
                                                                 S1_PosEmb[0][0]                  
__________________________________________________________________________________________________
B_toksEmb (Embedding)           (None, 2, 286)       1694836     B_toks[0][0]                     
__________________________________________________________________________________________________
B_PosEmb (Embedding)            (None, 2, 19)        361         B_Pos[0][0]                      
__________________________________________________________________________________________________
s0Rnn (GRU)                     (None, 44)           46200       concatenate_19[0][0]             
__________________________________________________________________________________________________
s1Rnn (GRU)                     (None, 44)           46200       concatenate_20[0][0]             
__________________________________________________________________________________________________
B_toksFlat (Flatten)            (None, 572)          0           B_toksEmb[0][0]                  
__________________________________________________________________________________________________
B_PosFlat (Flatten)             (None, 38)           0           B_PosEmb[0][0]                   
__________________________________________________________________________________________________
dropout_19 (Dropout)            (None, 44)           0           s0Rnn[0][0]                      
__________________________________________________________________________________________________
dropout_20 (Dropout)            (None, 44)           0           s1Rnn[0][0]                      
__________________________________________________________________________________________________
concatenate_21 (Concatenate)    (None, 698)          0           B_toksFlat[0][0]                 
                                                                 B_PosFlat[0][0]                  
                                                                 dropout_19[0][0]                 
                                                                 dropout_20[0][0]                 
__________________________________________________________________________________________________
dense_13 (Dense)                (None, 439)          306861      concatenate_21[0][0]             
__________________________________________________________________________________________________
dropout_21 (Dropout)            (None, 439)          0           dense_13[0][0]                   
__________________________________________________________________________________________________
dense_14 (Dense)                (None, 4)            1760        dropout_21[0][0]                 
==================================================================================================
Total params: 5,486,612
Trainable params: 5,486,612
Non-trainable params: 0
__________________________________________________________________________________________________
None
==================================================================================================
…
	Token occurrences: 42020
	MWE number: 451
	MWE occurrences: 670
	Continuous occurrences: 75.0 %
	MWE length: 2.14
	Seen occurrences : 57% 
	Recognizable MWEs: 100.0 %
	MWT occurrences: 1

==================================================================================================
__________________________________________________________________________________________________
Layer (type)                    Output Shape         Param #     Connected to                     
==================================================================================================
S0_toks (InputLayer)            (None, 4)            0                                            
__________________________________________________________________________________________________
S0_Pos (InputLayer)             (None, 4)            0                                            
__________________________________________________________________________________________________
S1_toks (InputLayer)            (None, 4)            0                                            
__________________________________________________________________________________________________
S1_Pos (InputLayer)             (None, 4)            0                                            
__________________________________________________________________________________________________
S0_toksEmb (Embedding)          (None, 4, 286)       1692548     S0_toks[0][0]                    
__________________________________________________________________________________________________
S0_tPosEmb (Embedding)          (None, 4, 19)        361         S0_Pos[0][0]                     
__________________________________________________________________________________________________
S1_toksEmb (Embedding)          (None, 4, 286)       1692548     S1_toks[0][0]                    
__________________________________________________________________________________________________
S1_PosEmb (Embedding)           (None, 4, 19)        361         S1_Pos[0][0]                     
__________________________________________________________________________________________________
B_toks (InputLayer)             (None, 2)            0                                            
__________________________________________________________________________________________________
B_Pos (InputLayer)              (None, 2)            0                                            
__________________________________________________________________________________________________
concatenate_22 (Concatenate)    (None, 4, 305)       0           S0_toksEmb[0][0]                 
                                                                 S0_tPosEmb[0][0]                 
__________________________________________________________________________________________________
concatenate_23 (Concatenate)    (None, 4, 305)       0           S1_toksEmb[0][0]                 
                                                                 S1_PosEmb[0][0]                  
__________________________________________________________________________________________________
B_toksEmb (Embedding)           (None, 2, 286)       1692548     B_toks[0][0]                     
__________________________________________________________________________________________________
B_PosEmb (Embedding)            (None, 2, 19)        361         B_Pos[0][0]                      
__________________________________________________________________________________________________
s0Rnn (GRU)                     (None, 44)           46200       concatenate_22[0][0]             
__________________________________________________________________________________________________
s1Rnn (GRU)                     (None, 44)           46200       concatenate_23[0][0]             
__________________________________________________________________________________________________
B_toksFlat (Flatten)            (None, 572)          0           B_toksEmb[0][0]                  
__________________________________________________________________________________________________
B_PosFlat (Flatten)             (None, 38)           0           B_PosEmb[0][0]                   
__________________________________________________________________________________________________
dropout_22 (Dropout)            (None, 44)           0           s0Rnn[0][0]                      
__________________________________________________________________________________________________
dropout_23 (Dropout)            (None, 44)           0           s1Rnn[0][0]                      
__________________________________________________________________________________________________
concatenate_24 (Concatenate)    (None, 698)          0           B_toksFlat[0][0]                 
                                                                 B_PosFlat[0][0]                  
                                                                 dropout_22[0][0]                 
                                                                 dropout_23[0][0]                 
__________________________________________________________________________________________________
dense_15 (Dense)                (None, 439)          306861      concatenate_24[0][0]             
__________________________________________________________________________________________________
dropout_24 (Dropout)            (None, 439)          0           dense_15[0][0]                   
__________________________________________________________________________________________________
dense_16 (Dense)                (None, 4)            1760        dropout_24[0][0]                 
==================================================================================================
Total params: 5,479,748
Trainable params: 5,479,748
Non-trainable params: 0
__________________________________________________________________________________________________
None
==================================================================================================
…
	MWE occurrences: 553
	Continuous occurrences: 59.0 %
	MWE length: 2.25
	Seen occurrences : 62% 
	Recognizable MWEs: 98.0 %
	Embedded occurrences: 4
	Interleaving occurrences: 8

==================================================================================================
__________________________________________________________________________________________________
Layer (type)                    Output Shape         Param #     Connected to                     
==================================================================================================
S0_toks (InputLayer)            (None, 4)            0                                            
__________________________________________________________________________________________________
S0_Pos (InputLayer)             (None, 4)            0                                            
__________________________________________________________________________________________________
S1_toks (InputLayer)            (None, 4)            0                                            
__________________________________________________________________________________________________
S1_Pos (InputLayer)             (None, 4)            0                                            
__________________________________________________________________________________________________
S0_toksEmb (Embedding)          (None, 4, 286)       1622192     S0_toks[0][0]                    
__________________________________________________________________________________________________
S0_tPosEmb (Embedding)          (None, 4, 19)        361         S0_Pos[0][0]                     
__________________________________________________________________________________________________
S1_toksEmb (Embedding)          (None, 4, 286)       1622192     S1_toks[0][0]                    
__________________________________________________________________________________________________
S1_PosEmb (Embedding)           (None, 4, 19)        361         S1_Pos[0][0]                     
__________________________________________________________________________________________________
B_toks (InputLayer)             (None, 2)            0                                            
__________________________________________________________________________________________________
B_Pos (InputLayer)              (None, 2)            0                                            
__________________________________________________________________________________________________
concatenate_25 (Concatenate)    (None, 4, 305)       0           S0_toksEmb[0][0]                 
                                                                 S0_tPosEmb[0][0]                 
__________________________________________________________________________________________________
concatenate_26 (Concatenate)    (None, 4, 305)       0           S1_toksEmb[0][0]                 
                                                                 S1_PosEmb[0][0]                  
__________________________________________________________________________________________________
B_toksEmb (Embedding)           (None, 2, 286)       1622192     B_toks[0][0]                     
__________________________________________________________________________________________________
B_PosEmb (Embedding)            (None, 2, 19)        361         B_Pos[0][0]                      
__________________________________________________________________________________________________
s0Rnn (GRU)                     (None, 44)           46200       concatenate_25[0][0]             
__________________________________________________________________________________________________
s1Rnn (GRU)                     (None, 44)           46200       concatenate_26[0][0]             
__________________________________________________________________________________________________
B_toksFlat (Flatten)            (None, 572)          0           B_toksEmb[0][0]                  
__________________________________________________________________________________________________
B_PosFlat (Flatten)             (None, 38)           0           B_PosEmb[0][0]                   
__________________________________________________________________________________________________
dropout_25 (Dropout)            (None, 44)           0           s0Rnn[0][0]                      
__________________________________________________________________________________________________
dropout_26 (Dropout)            (None, 44)           0           s1Rnn[0][0]                      
__________________________________________________________________________________________________
concatenate_27 (Concatenate)    (None, 698)          0           B_toksFlat[0][0]                 
                                                                 B_PosFlat[0][0]                  
                                                                 dropout_25[0][0]                 
                                                                 dropout_26[0][0]                 
__________________________________________________________________________________________________
dense_17 (Dense)                (None, 439)          306861      concatenate_27[0][0]             
__________________________________________________________________________________________________
dropout_27 (Dropout)            (None, 439)          0           dense_17[0][0]                   
__________________________________________________________________________________________________
dense_18 (Dense)                (None, 4)            1760        dropout_27[0][0]                 
==================================================================================================
Total params: 5,268,680
Trainable params: 5,268,680
Non-trainable params: 0
__________________________________________________________________________________________________
None
==================================================================================================
…
	MWE occurrences: 553
	Continuous occurrences: 59.0 %
	MWE length: 2.25
	Seen occurrences : 62% 
	Recognizable MWEs: 98.0 %
	Embedded occurrences: 4
	Interleaving occurrences: 8

==================================================================================================
__________________________________________________________________________________________________
Layer (type)                    Output Shape         Param #     Connected to                     
==================================================================================================
S0_toks (InputLayer)            (None, 4)            0                                            
__________________________________________________________________________________________________
S0_Pos (InputLayer)             (None, 4)            0                                            
__________________________________________________________________________________________________
S1_toks (InputLayer)            (None, 4)            0                                            
__________________________________________________________________________________________________
S1_Pos (InputLayer)             (None, 4)            0                                            
__________________________________________________________________________________________________
S0_toksEmb (Embedding)          (None, 4, 286)       1618188     S0_toks[0][0]                    
__________________________________________________________________________________________________
S0_tPosEmb (Embedding)          (None, 4, 19)        361         S0_Pos[0][0]                     
__________________________________________________________________________________________________
S1_toksEmb (Embedding)          (None, 4, 286)       1618188     S1_toks[0][0]                    
__________________________________________________________________________________________________
S1_PosEmb (Embedding)           (None, 4, 19)        361         S1_Pos[0][0]                     
__________________________________________________________________________________________________
B_toks (InputLayer)             (None, 2)            0                                            
__________________________________________________________________________________________________
B_Pos (InputLayer)              (None, 2)            0                                            
__________________________________________________________________________________________________
concatenate_28 (Concatenate)    (None, 4, 305)       0           S0_toksEmb[0][0]                 
                                                                 S0_tPosEmb[0][0]                 
__________________________________________________________________________________________________
concatenate_29 (Concatenate)    (None, 4, 305)       0           S1_toksEmb[0][0]                 
                                                                 S1_PosEmb[0][0]                  
__________________________________________________________________________________________________
B_toksEmb (Embedding)           (None, 2, 286)       1618188     B_toks[0][0]                     
__________________________________________________________________________________________________
B_PosEmb (Embedding)            (None, 2, 19)        361         B_Pos[0][0]                      
__________________________________________________________________________________________________
s0Rnn (GRU)                     (None, 44)           46200       concatenate_28[0][0]             
__________________________________________________________________________________________________
s1Rnn (GRU)                     (None, 44)           46200       concatenate_29[0][0]             
__________________________________________________________________________________________________
B_toksFlat (Flatten)            (None, 572)          0           B_toksEmb[0][0]                  
__________________________________________________________________________________________________
B_PosFlat (Flatten)             (None, 38)           0           B_PosEmb[0][0]                   
__________________________________________________________________________________________________
dropout_28 (Dropout)            (None, 44)           0           s0Rnn[0][0]                      
__________________________________________________________________________________________________
dropout_29 (Dropout)            (None, 44)           0           s1Rnn[0][0]                      
__________________________________________________________________________________________________
concatenate_30 (Concatenate)    (None, 698)          0           B_toksFlat[0][0]                 
                                                                 B_PosFlat[0][0]                  
                                                                 dropout_28[0][0]                 
                                                                 dropout_29[0][0]                 
__________________________________________________________________________________________________
dense_19 (Dense)                (None, 439)          306861      concatenate_30[0][0]             
__________________________________________________________________________________________________
dropout_30 (Dropout)            (None, 439)          0           dense_19[0][0]                   
__________________________________________________________________________________________________
dense_20 (Dense)                (None, 4)            1760        dropout_30[0][0]                 
==================================================================================================
Total params: 5,256,668
Trainable params: 5,256,668
Non-trainable params: 0
__________________________________________________________________________________________________
None
==================================================================================================
…
	Important sentence: 385
	Token occurrences: 27196
	MWE number: 418
	MWE occurrences: 510
	Continuous occurrences: 50.0 %
	MWE length: 2.07
	Seen occurrences : 43% 
	Recognizable MWEs: 100.0 %

==================================================================================================
__________________________________________________________________________________________________
Layer (type)                    Output Shape         Param #     Connected to                     
==================================================================================================
S0_toks (InputLayer)            (None, 4)            0                                            
__________________________________________________________________________________________________
S0_Pos (InputLayer)             (None, 4)            0                                            
__________________________________________________________________________________________________
S1_toks (InputLayer)            (None, 4)            0                                            
__________________________________________________________________________________________________
S1_Pos (InputLayer)             (None, 4)            0                                            
__________________________________________________________________________________________________
S0_toksEmb (Embedding)          (None, 4, 286)       3020446     S0_toks[0][0]                    
__________________________________________________________________________________________________
S0_tPosEmb (Embedding)          (None, 4, 19)        266         S0_Pos[0][0]                     
__________________________________________________________________________________________________
S1_toksEmb (Embedding)          (None, 4, 286)       3020446     S1_toks[0][0]                    
__________________________________________________________________________________________________
S1_PosEmb (Embedding)           (None, 4, 19)        266         S1_Pos[0][0]                     
__________________________________________________________________________________________________
B_toks (InputLayer)             (None, 2)            0                                            
__________________________________________________________________________________________________
B_Pos (InputLayer)              (None, 2)            0                                            
__________________________________________________________________________________________________
concatenate_31 (Concatenate)    (None, 4, 305)       0           S0_toksEmb[0][0]                 
                                                                 S0_tPosEmb[0][0]                 
__________________________________________________________________________________________________
concatenate_32 (Concatenate)    (None, 4, 305)       0           S1_toksEmb[0][0]                 
                                                                 S1_PosEmb[0][0]                  
__________________________________________________________________________________________________
B_toksEmb (Embedding)           (None, 2, 286)       3020446     B_toks[0][0]                     
__________________________________________________________________________________________________
B_PosEmb (Embedding)            (None, 2, 19)        266         B_Pos[0][0]                      
__________________________________________________________________________________________________
s0Rnn (GRU)                     (None, 44)           46200       concatenate_31[0][0]             
__________________________________________________________________________________________________
s1Rnn (GRU)                     (None, 44)           46200       concatenate_32[0][0]             
__________________________________________________________________________________________________
B_toksFlat (Flatten)            (None, 572)          0           B_toksEmb[0][0]                  
__________________________________________________________________________________________________
B_PosFlat (Flatten)             (None, 38)           0           B_PosEmb[0][0]                   
__________________________________________________________________________________________________
dropout_31 (Dropout)            (None, 44)           0           s0Rnn[0][0]                      
__________________________________________________________________________________________________
dropout_32 (Dropout)            (None, 44)           0           s1Rnn[0][0]                      
__________________________________________________________________________________________________
concatenate_33 (Concatenate)    (None, 698)          0           B_toksFlat[0][0]                 
                                                                 B_PosFlat[0][0]                  
                                                                 dropout_31[0][0]                 
                                                                 dropout_32[0][0]                 
__________________________________________________________________________________________________
dense_21 (Dense)                (None, 439)          306861      concatenate_33[0][0]             
__________________________________________________________________________________________________
dropout_33 (Dropout)            (None, 439)          0           dense_21[0][0]                   
__________________________________________________________________________________________________
dense_22 (Dense)                (None, 4)            1760        dropout_33[0][0]                 
==================================================================================================
Total params: 9,463,157
Trainable params: 9,463,157
Non-trainable params: 0
__________________________________________________________________________________________________
None
==================================================================================================
…
	Important sentence: 385
	Token occurrences: 27196
	MWE number: 418
	MWE occurrences: 510
	Continuous occurrences: 50.0 %
	MWE length: 2.07
	Seen occurrences : 43% 
	Recognizable MWEs: 100.0 %

==================================================================================================
__________________________________________________________________________________________________
Layer (type)                    Output Shape         Param #     Connected to                     
==================================================================================================
S0_toks (InputLayer)            (None, 4)            0                                            
__________________________________________________________________________________________________
S0_Pos (InputLayer)             (None, 4)            0                                            
__________________________________________________________________________________________________
S1_toks (InputLayer)            (None, 4)            0                                            
__________________________________________________________________________________________________
S1_Pos (InputLayer)             (None, 4)            0                                            
__________________________________________________________________________________________________
S0_toksEmb (Embedding)          (None, 4, 286)       3013010     S0_toks[0][0]                    
__________________________________________________________________________________________________
S0_tPosEmb (Embedding)          (None, 4, 19)        266         S0_Pos[0][0]                     
__________________________________________________________________________________________________
S1_toksEmb (Embedding)          (None, 4, 286)       3013010     S1_toks[0][0]                    
__________________________________________________________________________________________________
S1_PosEmb (Embedding)           (None, 4, 19)        266         S1_Pos[0][0]                     
__________________________________________________________________________________________________
B_toks (InputLayer)             (None, 2)            0                                            
__________________________________________________________________________________________________
B_Pos (InputLayer)              (None, 2)            0                                            
__________________________________________________________________________________________________
concatenate_34 (Concatenate)    (None, 4, 305)       0           S0_toksEmb[0][0]                 
                                                                 S0_tPosEmb[0][0]                 
__________________________________________________________________________________________________
concatenate_35 (Concatenate)    (None, 4, 305)       0           S1_toksEmb[0][0]                 
                                                                 S1_PosEmb[0][0]                  
__________________________________________________________________________________________________
B_toksEmb (Embedding)           (None, 2, 286)       3013010     B_toks[0][0]                     
__________________________________________________________________________________________________
B_PosEmb (Embedding)            (None, 2, 19)        266         B_Pos[0][0]                      
__________________________________________________________________________________________________
s0Rnn (GRU)                     (None, 44)           46200       concatenate_34[0][0]             
__________________________________________________________________________________________________
s1Rnn (GRU)                     (None, 44)           46200       concatenate_35[0][0]             
__________________________________________________________________________________________________
B_toksFlat (Flatten)            (None, 572)          0           B_toksEmb[0][0]                  
__________________________________________________________________________________________________
B_PosFlat (Flatten)             (None, 38)           0           B_PosEmb[0][0]                   
__________________________________________________________________________________________________
dropout_34 (Dropout)            (None, 44)           0           s0Rnn[0][0]                      
__________________________________________________________________________________________________
dropout_35 (Dropout)            (None, 44)           0           s1Rnn[0][0]                      
__________________________________________________________________________________________________
concatenate_36 (Concatenate)    (None, 698)          0           B_toksFlat[0][0]                 
                                                                 B_PosFlat[0][0]                  
                                                                 dropout_34[0][0]                 
                                                                 dropout_35[0][0]                 
__________________________________________________________________________________________________
dense_23 (Dense)                (None, 439)          306861      concatenate_36[0][0]             
__________________________________________________________________________________________________
dropout_36 (Dropout)            (None, 439)          0           dense_23[0][0]                   
__________________________________________________________________________________________________
dense_24 (Dense)                (None, 4)            1760        dropout_36[0][0]                 
==================================================================================================
Total params: 9,440,849
Trainable params: 9,440,849
Non-trainable params: 0
__________________________________________________________________________________________________
None
==================================================================================================
…
	Token occurrences: 42020
	MWE number: 451
	MWE occurrences: 670
	Continuous occurrences: 75.0 %
	MWE length: 2.14
	Seen occurrences : 57% 
	Recognizable MWEs: 100.0 %
	MWT occurrences: 1

==================================================================================================
__________________________________________________________________________________________________
Layer (type)                    Output Shape         Param #     Connected to                     
==================================================================================================
S0_toks (InputLayer)            (None, 4)            0                                            
__________________________________________________________________________________________________
S0_Pos (InputLayer)             (None, 4)            0                                            
__________________________________________________________________________________________________
S1_toks (InputLayer)            (None, 4)            0                                            
__________________________________________________________________________________________________
S1_Pos (InputLayer)             (None, 4)            0                                            
__________________________________________________________________________________________________
S0_toksEmb (Embedding)          (None, 4, 484)       2868184     S0_toks[0][0]                    
__________________________________________________________________________________________________
S0_tPosEmb (Embedding)          (None, 4, 101)       1919        S0_Pos[0][0]                     
__________________________________________________________________________________________________
S1_toksEmb (Embedding)          (None, 4, 484)       2868184     S1_toks[0][0]                    
__________________________________________________________________________________________________
S1_PosEmb (Embedding)           (None, 4, 101)       1919        S1_Pos[0][0]                     
__________________________________________________________________________________________________
B_toks (InputLayer)             (None, 3)            0                                            
__________________________________________________________________________________________________
B_Pos (InputLayer)              (None, 3)            0                                            
__________________________________________________________________________________________________
concatenate_37 (Concatenate)    (None, 4, 585)       0           S0_toksEmb[0][0]                 
                                                                 S0_tPosEmb[0][0]                 
__________________________________________________________________________________________________
concatenate_38 (Concatenate)    (None, 4, 585)       0           S1_toksEmb[0][0]                 
                                                                 S1_PosEmb[0][0]                  
__________________________________________________________________________________________________
B_toksEmb (Embedding)           (None, 3, 484)       2868184     B_toks[0][0]                     
__________________________________________________________________________________________________
B_PosEmb (Embedding)            (None, 3, 101)       1919        B_Pos[0][0]                      
__________________________________________________________________________________________________
s0Rnn (GRU)                     (None, 59)           114165      concatenate_37[0][0]             
__________________________________________________________________________________________________
s1Rnn (GRU)                     (None, 59)           114165      concatenate_38[0][0]             
__________________________________________________________________________________________________
B_toksFlat (Flatten)            (None, 1452)         0           B_toksEmb[0][0]                  
__________________________________________________________________________________________________
B_PosFlat (Flatten)             (None, 303)          0           B_PosEmb[0][0]                   
__________________________________________________________________________________________________
dropout_37 (Dropout)            (None, 59)           0           s0Rnn[0][0]                      
__________________________________________________________________________________________________
dropout_38 (Dropout)            (None, 59)           0           s1Rnn[0][0]                      
__________________________________________________________________________________________________
concatenate_39 (Concatenate)    (None, 1873)         0           B_toksFlat[0][0]                 
                                                                 B_PosFlat[0][0]                  
                                                                 dropout_37[0][0]                 
                                                                 dropout_38[0][0]                 
__________________________________________________________________________________________________
dense_25 (Dense)                (None, 68)           127432      concatenate_39[0][0]             
__________________________________________________________________________________________________
dropout_39 (Dropout)            (None, 68)           0           dense_25[0][0]                   
__________________________________________________________________________________________________
dense_26 (Dense)                (None, 4)            276         dropout_39[0][0]                 
==================================================================================================
Total params: 8,966,347
Trainable params: 8,966,347
Non-trainable params: 0
__________________________________________________________________________________________________
None
==================================================================================================
…
	Token occurrences: 42020
	MWE number: 451
	MWE occurrences: 670
	Continuous occurrences: 75.0 %
	MWE length: 2.14
	Seen occurrences : 57% 
	Recognizable MWEs: 100.0 %
	MWT occurrences: 1

==================================================================================================
__________________________________________________________________________________________________
Layer (type)                    Output Shape         Param #     Connected to                     
==================================================================================================
S0_toks (InputLayer)            (None, 4)            0                                            
__________________________________________________________________________________________________
S0_Pos (InputLayer)             (None, 4)            0                                            
__________________________________________________________________________________________________
S1_toks (InputLayer)            (None, 4)            0                                            
__________________________________________________________________________________________________
S1_Pos (InputLayer)             (None, 4)            0                                            
__________________________________________________________________________________________________
S0_toksEmb (Embedding)          (None, 4, 484)       2864312     S0_toks[0][0]                    
__________________________________________________________________________________________________
S0_tPosEmb (Embedding)          (None, 4, 101)       1919        S0_Pos[0][0]                     
__________________________________________________________________________________________________
S1_toksEmb (Embedding)          (None, 4, 484)       2864312     S1_toks[0][0]                    
__________________________________________________________________________________________________
S1_PosEmb (Embedding)           (None, 4, 101)       1919        S1_Pos[0][0]                     
__________________________________________________________________________________________________
B_toks (InputLayer)             (None, 3)            0                                            
__________________________________________________________________________________________________
B_Pos (InputLayer)              (None, 3)            0                                            
__________________________________________________________________________________________________
concatenate_40 (Concatenate)    (None, 4, 585)       0           S0_toksEmb[0][0]                 
                                                                 S0_tPosEmb[0][0]                 
__________________________________________________________________________________________________
concatenate_41 (Concatenate)    (None, 4, 585)       0           S1_toksEmb[0][0]                 
                                                                 S1_PosEmb[0][0]                  
__________________________________________________________________________________________________
B_toksEmb (Embedding)           (None, 3, 484)       2864312     B_toks[0][0]                     
__________________________________________________________________________________________________
B_PosEmb (Embedding)            (None, 3, 101)       1919        B_Pos[0][0]                      
__________________________________________________________________________________________________
s0Rnn (GRU)                     (None, 59)           114165      concatenate_40[0][0]             
__________________________________________________________________________________________________
s1Rnn (GRU)                     (None, 59)           114165      concatenate_41[0][0]             
__________________________________________________________________________________________________
B_toksFlat (Flatten)            (None, 1452)         0           B_toksEmb[0][0]                  
__________________________________________________________________________________________________
B_PosFlat (Flatten)             (None, 303)          0           B_PosEmb[0][0]                   
__________________________________________________________________________________________________
dropout_40 (Dropout)            (None, 59)           0           s0Rnn[0][0]                      
__________________________________________________________________________________________________
dropout_41 (Dropout)            (None, 59)           0           s1Rnn[0][0]                      
__________________________________________________________________________________________________
concatenate_42 (Concatenate)    (None, 1873)         0           B_toksFlat[0][0]                 
                                                                 B_PosFlat[0][0]                  
                                                                 dropout_40[0][0]                 
                                                                 dropout_41[0][0]                 
__________________________________________________________________________________________________
dense_27 (Dense)                (None, 68)           127432      concatenate_42[0][0]             
__________________________________________________________________________________________________
dropout_42 (Dropout)            (None, 68)           0           dense_27[0][0]                   
__________________________________________________________________________________________________
dense_28 (Dense)                (None, 4)            276         dropout_42[0][0]                 
==================================================================================================
Total params: 8,954,731
Trainable params: 8,954,731
Non-trainable params: 0
__________________________________________________________________________________________________
None
==================================================================================================
…
	MWE occurrences: 553
	Continuous occurrences: 59.0 %
	MWE length: 2.25
	Seen occurrences : 62% 
	Recognizable MWEs: 98.0 %
	Embedded occurrences: 4
	Interleaving occurrences: 8

==================================================================================================
__________________________________________________________________________________________________
Layer (type)                    Output Shape         Param #     Connected to                     
==================================================================================================
S0_toks (InputLayer)            (None, 4)            0                                            
__________________________________________________________________________________________________
S0_Pos (InputLayer)             (None, 4)            0                                            
__________________________________________________________________________________________________
S1_toks (InputLayer)            (None, 4)            0                                            
__________________________________________________________________________________________________
S1_Pos (InputLayer)             (None, 4)            0                                            
__________________________________________________________________________________________________
S0_toksEmb (Embedding)          (None, 4, 484)       2745248     S0_toks[0][0]                    
__________________________________________________________________________________________________
S0_tPosEmb (Embedding)          (None, 4, 101)       1919        S0_Pos[0][0]                     
__________________________________________________________________________________________________
S1_toksEmb (Embedding)          (None, 4, 484)       2745248     S1_toks[0][0]                    
__________________________________________________________________________________________________
S1_PosEmb (Embedding)           (None, 4, 101)       1919        S1_Pos[0][0]                     
__________________________________________________________________________________________________
B_toks (InputLayer)             (None, 3)            0                                            
__________________________________________________________________________________________________
B_Pos (InputLayer)              (None, 3)            0                                            
__________________________________________________________________________________________________
concatenate_43 (Concatenate)    (None, 4, 585)       0           S0_toksEmb[0][0]                 
                                                                 S0_tPosEmb[0][0]                 
__________________________________________________________________________________________________
concatenate_44 (Concatenate)    (None, 4, 585)       0           S1_toksEmb[0][0]                 
                                                                 S1_PosEmb[0][0]                  
__________________________________________________________________________________________________
B_toksEmb (Embedding)           (None, 3, 484)       2745248     B_toks[0][0]                     
__________________________________________________________________________________________________
B_PosEmb (Embedding)            (None, 3, 101)       1919        B_Pos[0][0]                      
__________________________________________________________________________________________________
s0Rnn (GRU)                     (None, 59)           114165      concatenate_43[0][0]             
__________________________________________________________________________________________________
s1Rnn (GRU)                     (None, 59)           114165      concatenate_44[0][0]             
__________________________________________________________________________________________________
B_toksFlat (Flatten)            (None, 1452)         0           B_toksEmb[0][0]                  
__________________________________________________________________________________________________
B_PosFlat (Flatten)             (None, 303)          0           B_PosEmb[0][0]                   
__________________________________________________________________________________________________
dropout_43 (Dropout)            (None, 59)           0           s0Rnn[0][0]                      
__________________________________________________________________________________________________
dropout_44 (Dropout)            (None, 59)           0           s1Rnn[0][0]                      
__________________________________________________________________________________________________
concatenate_45 (Concatenate)    (None, 1873)         0           B_toksFlat[0][0]                 
                                                                 B_PosFlat[0][0]                  
                                                                 dropout_43[0][0]                 
                                                                 dropout_44[0][0]                 
__________________________________________________________________________________________________
dense_29 (Dense)                (None, 68)           127432      concatenate_45[0][0]             
__________________________________________________________________________________________________
dropout_45 (Dropout)            (None, 68)           0           dense_29[0][0]                   
__________________________________________________________________________________________________
dense_30 (Dense)                (None, 4)            276         dropout_45[0][0]                 
==================================================================================================
Total params: 8,597,539
Trainable params: 8,597,539
Non-trainable params: 0
__________________________________________________________________________________________________
None
==================================================================================================
…
	MWE occurrences: 553
	Continuous occurrences: 59.0 %
	MWE length: 2.25
	Seen occurrences : 62% 
	Recognizable MWEs: 98.0 %
	Embedded occurrences: 4
	Interleaving occurrences: 8

==================================================================================================
__________________________________________________________________________________________________
Layer (type)                    Output Shape         Param #     Connected to                     
==================================================================================================
S0_toks (InputLayer)            (None, 4)            0                                            
__________________________________________________________________________________________________
S0_Pos (InputLayer)             (None, 4)            0                                            
__________________________________________________________________________________________________
S1_toks (InputLayer)            (None, 4)            0                                            
__________________________________________________________________________________________________
S1_Pos (InputLayer)             (None, 4)            0                                            
__________________________________________________________________________________________________
S0_toksEmb (Embedding)          (None, 4, 484)       2738472     S0_toks[0][0]                    
__________________________________________________________________________________________________
S0_tPosEmb (Embedding)          (None, 4, 101)       1919        S0_Pos[0][0]                     
__________________________________________________________________________________________________
S1_toksEmb (Embedding)          (None, 4, 484)       2738472     S1_toks[0][0]                    
__________________________________________________________________________________________________
S1_PosEmb (Embedding)           (None, 4, 101)       1919        S1_Pos[0][0]                     
__________________________________________________________________________________________________
B_toks (InputLayer)             (None, 3)            0                                            
__________________________________________________________________________________________________
B_Pos (InputLayer)              (None, 3)            0                                            
__________________________________________________________________________________________________
concatenate_46 (Concatenate)    (None, 4, 585)       0           S0_toksEmb[0][0]                 
                                                                 S0_tPosEmb[0][0]                 
__________________________________________________________________________________________________
concatenate_47 (Concatenate)    (None, 4, 585)       0           S1_toksEmb[0][0]                 
                                                                 S1_PosEmb[0][0]                  
__________________________________________________________________________________________________
B_toksEmb (Embedding)           (None, 3, 484)       2738472     B_toks[0][0]                     
__________________________________________________________________________________________________
B_PosEmb (Embedding)            (None, 3, 101)       1919        B_Pos[0][0]                      
__________________________________________________________________________________________________
s0Rnn (GRU)                     (None, 59)           114165      concatenate_46[0][0]             
__________________________________________________________________________________________________
s1Rnn (GRU)                     (None, 59)           114165      concatenate_47[0][0]             
__________________________________________________________________________________________________
B_toksFlat (Flatten)            (None, 1452)         0           B_toksEmb[0][0]                  
__________________________________________________________________________________________________
B_PosFlat (Flatten)             (None, 303)          0           B_PosEmb[0][0]                   
__________________________________________________________________________________________________
dropout_46 (Dropout)            (None, 59)           0           s0Rnn[0][0]                      
__________________________________________________________________________________________________
dropout_47 (Dropout)            (None, 59)           0           s1Rnn[0][0]                      
__________________________________________________________________________________________________
concatenate_48 (Concatenate)    (None, 1873)         0           B_toksFlat[0][0]                 
                                                                 B_PosFlat[0][0]                  
                                                                 dropout_46[0][0]                 
                                                                 dropout_47[0][0]                 
__________________________________________________________________________________________________
dense_31 (Dense)                (None, 68)           127432      concatenate_48[0][0]             
__________________________________________________________________________________________________
dropout_48 (Dropout)            (None, 68)           0           dense_31[0][0]                   
__________________________________________________________________________________________________
dense_32 (Dense)                (None, 4)            276         dropout_48[0][0]                 
==================================================================================================
Total params: 8,577,211
Trainable params: 8,577,211
Non-trainable params: 0
__________________________________________________________________________________________________
None
==================================================================================================
…
	Important sentence: 385
	Token occurrences: 27196
	MWE number: 418
	MWE occurrences: 510
	Continuous occurrences: 50.0 %
	MWE length: 2.07
	Seen occurrences : 43% 
	Recognizable MWEs: 100.0 %

==================================================================================================
__________________________________________________________________________________________________
Layer (type)                    Output Shape         Param #     Connected to                     
==================================================================================================
S0_toks (InputLayer)            (None, 4)            0                                            
__________________________________________________________________________________________________
S0_Pos (InputLayer)             (None, 4)            0                                            
__________________________________________________________________________________________________
S1_toks (InputLayer)            (None, 4)            0                                            
__________________________________________________________________________________________________
S1_Pos (InputLayer)             (None, 4)            0                                            
__________________________________________________________________________________________________
S0_toksEmb (Embedding)          (None, 4, 484)       5111524     S0_toks[0][0]                    
__________________________________________________________________________________________________
S0_tPosEmb (Embedding)          (None, 4, 101)       1414        S0_Pos[0][0]                     
__________________________________________________________________________________________________
S1_toksEmb (Embedding)          (None, 4, 484)       5111524     S1_toks[0][0]                    
__________________________________________________________________________________________________
S1_PosEmb (Embedding)           (None, 4, 101)       1414        S1_Pos[0][0]                     
__________________________________________________________________________________________________
B_toks (InputLayer)             (None, 3)            0                                            
__________________________________________________________________________________________________
B_Pos (InputLayer)              (None, 3)            0                                            
__________________________________________________________________________________________________
concatenate_49 (Concatenate)    (None, 4, 585)       0           S0_toksEmb[0][0]                 
                                                                 S0_tPosEmb[0][0]                 
__________________________________________________________________________________________________
concatenate_50 (Concatenate)    (None, 4, 585)       0           S1_toksEmb[0][0]                 
                                                                 S1_PosEmb[0][0]                  
__________________________________________________________________________________________________
B_toksEmb (Embedding)           (None, 3, 484)       5111524     B_toks[0][0]                     
__________________________________________________________________________________________________
B_PosEmb (Embedding)            (None, 3, 101)       1414        B_Pos[0][0]                      
__________________________________________________________________________________________________
s0Rnn (GRU)                     (None, 59)           114165      concatenate_49[0][0]             
__________________________________________________________________________________________________
s1Rnn (GRU)                     (None, 59)           114165      concatenate_50[0][0]             
__________________________________________________________________________________________________
B_toksFlat (Flatten)            (None, 1452)         0           B_toksEmb[0][0]                  
__________________________________________________________________________________________________
B_PosFlat (Flatten)             (None, 303)          0           B_PosEmb[0][0]                   
__________________________________________________________________________________________________
dropout_49 (Dropout)            (None, 59)           0           s0Rnn[0][0]                      
__________________________________________________________________________________________________
dropout_50 (Dropout)            (None, 59)           0           s1Rnn[0][0]                      
__________________________________________________________________________________________________
concatenate_51 (Concatenate)    (None, 1873)         0           B_toksFlat[0][0]                 
                                                                 B_PosFlat[0][0]                  
                                                                 dropout_49[0][0]                 
                                                                 dropout_50[0][0]                 
__________________________________________________________________________________________________
dense_33 (Dense)                (None, 68)           127432      concatenate_51[0][0]             
__________________________________________________________________________________________________
dropout_51 (Dropout)            (None, 68)           0           dense_33[0][0]                   
__________________________________________________________________________________________________
dense_34 (Dense)                (None, 4)            276         dropout_51[0][0]                 
==================================================================================================
Total params: 15,694,852
Trainable params: 15,694,852
Non-trainable params: 0
__________________________________________________________________________________________________
None
==================================================================================================
…
	Important sentence: 385
	Token occurrences: 27196
	MWE number: 418
	MWE occurrences: 510
	Continuous occurrences: 50.0 %
	MWE length: 2.07
	Seen occurrences : 43% 
	Recognizable MWEs: 100.0 %

==================================================================================================
__________________________________________________________________________________________________
Layer (type)                    Output Shape         Param #     Connected to                     
==================================================================================================
S0_toks (InputLayer)            (None, 4)            0                                            
__________________________________________________________________________________________________
S0_Pos (InputLayer)             (None, 4)            0                                            
__________________________________________________________________________________________________
S1_toks (InputLayer)            (None, 4)            0                                            
__________________________________________________________________________________________________
S1_Pos (InputLayer)             (None, 4)            0                                            
__________________________________________________________________________________________________
S0_toksEmb (Embedding)          (None, 4, 484)       5098940     S0_toks[0][0]                    
__________________________________________________________________________________________________
S0_tPosEmb (Embedding)          (None, 4, 101)       1414        S0_Pos[0][0]                     
__________________________________________________________________________________________________
S1_toksEmb (Embedding)          (None, 4, 484)       5098940     S1_toks[0][0]                    
__________________________________________________________________________________________________
S1_PosEmb (Embedding)           (None, 4, 101)       1414        S1_Pos[0][0]                     
__________________________________________________________________________________________________
B_toks (InputLayer)             (None, 3)            0                                            
__________________________________________________________________________________________________
B_Pos (InputLayer)              (None, 3)            0                                            
__________________________________________________________________________________________________
concatenate_52 (Concatenate)    (None, 4, 585)       0           S0_toksEmb[0][0]                 
                                                                 S0_tPosEmb[0][0]                 
__________________________________________________________________________________________________
concatenate_53 (Concatenate)    (None, 4, 585)       0           S1_toksEmb[0][0]                 
                                                                 S1_PosEmb[0][0]                  
__________________________________________________________________________________________________
B_toksEmb (Embedding)           (None, 3, 484)       5098940     B_toks[0][0]                     
__________________________________________________________________________________________________
B_PosEmb (Embedding)            (None, 3, 101)       1414        B_Pos[0][0]                      
__________________________________________________________________________________________________
s0Rnn (GRU)                     (None, 59)           114165      concatenate_52[0][0]             
__________________________________________________________________________________________________
s1Rnn (GRU)                     (None, 59)           114165      concatenate_53[0][0]             
__________________________________________________________________________________________________
B_toksFlat (Flatten)            (None, 1452)         0           B_toksEmb[0][0]                  
__________________________________________________________________________________________________
B_PosFlat (Flatten)             (None, 303)          0           B_PosEmb[0][0]                   
__________________________________________________________________________________________________
dropout_52 (Dropout)            (None, 59)           0           s0Rnn[0][0]                      
__________________________________________________________________________________________________
dropout_53 (Dropout)            (None, 59)           0           s1Rnn[0][0]                      
__________________________________________________________________________________________________
concatenate_54 (Concatenate)    (None, 1873)         0           B_toksFlat[0][0]                 
                                                                 B_PosFlat[0][0]                  
                                                                 dropout_52[0][0]                 
                                                                 dropout_53[0][0]                 
__________________________________________________________________________________________________
dense_35 (Dense)                (None, 68)           127432      concatenate_54[0][0]             
__________________________________________________________________________________________________
dropout_54 (Dropout)            (None, 68)           0           dense_35[0][0]                   
__________________________________________________________________________________________________
dense_36 (Dense)                (None, 4)            276         dropout_54[0][0]                 
==================================================================================================
Total params: 15,657,100
Trainable params: 15,657,100
Non-trainable params: 0
__________________________________________________________________________________________________
None
==================================================================================================
…
	Token occurrences: 42020
	MWE number: 451
	MWE occurrences: 670
	Continuous occurrences: 75.0 %
	MWE length: 2.14
	Seen occurrences : 57% 
	Recognizable MWEs: 100.0 %
	MWT occurrences: 1

==================================================================================================
__________________________________________________________________________________________________
Layer (type)                    Output Shape         Param #     Connected to                     
==================================================================================================
S0_toks (InputLayer)            (None, 4)            0                                            
__________________________________________________________________________________________________
S0_Pos (InputLayer)             (None, 4)            0                                            
__________________________________________________________________________________________________
S1_toks (InputLayer)            (None, 4)            0                                            
__________________________________________________________________________________________________
S1_Pos (InputLayer)             (None, 4)            0                                            
__________________________________________________________________________________________________
S0_toksEmb (Embedding)          (None, 4, 326)       384028      S0_toks[0][0]                    
__________________________________________________________________________________________________
S0_tPosEmb (Embedding)          (None, 4, 63)        1197        S0_Pos[0][0]                     
__________________________________________________________________________________________________
S1_toksEmb (Embedding)          (None, 4, 326)       384028      S1_toks[0][0]                    
__________________________________________________________________________________________________
S1_PosEmb (Embedding)           (None, 4, 63)        1197        S1_Pos[0][0]                     
__________________________________________________________________________________________________
B_toks (InputLayer)             (None, 2)            0                                            
__________________________________________________________________________________________________
B_Pos (InputLayer)              (None, 2)            0                                            
__________________________________________________________________________________________________
concatenate_55 (Concatenate)    (None, 4, 389)       0           S0_toksEmb[0][0]                 
                                                                 S0_tPosEmb[0][0]                 
__________________________________________________________________________________________________
concatenate_56 (Concatenate)    (None, 4, 389)       0           S1_toksEmb[0][0]                 
                                                                 S1_PosEmb[0][0]                  
__________________________________________________________________________________________________
B_toksEmb (Embedding)           (None, 2, 326)       384028      B_toks[0][0]                     
__________________________________________________________________________________________________
B_PosEmb (Embedding)            (None, 2, 63)        1197        B_Pos[0][0]                      
__________________________________________________________________________________________________
s0Rnn (LSTM)                    (None, 117)          237276      concatenate_55[0][0]             
__________________________________________________________________________________________________
s1Rnn (LSTM)                    (None, 117)          237276      concatenate_56[0][0]             
__________________________________________________________________________________________________
B_toksFlat (Flatten)            (None, 652)          0           B_toksEmb[0][0]                  
__________________________________________________________________________________________________
B_PosFlat (Flatten)             (None, 126)          0           B_PosEmb[0][0]                   
__________________________________________________________________________________________________
dropout_55 (Dropout)            (None, 117)          0           s0Rnn[0][0]                      
__________________________________________________________________________________________________
dropout_56 (Dropout)            (None, 117)          0           s1Rnn[0][0]                      
__________________________________________________________________________________________________
concatenate_57 (Concatenate)    (None, 1012)         0           B_toksFlat[0][0]                 
                                                                 B_PosFlat[0][0]                  
                                                                 dropout_55[0][0]                 
                                                                 dropout_56[0][0]                 
__________________________________________________________________________________________________
dense_37 (Dense)                (None, 94)           95222       concatenate_57[0][0]             
__________________________________________________________________________________________________
dropout_57 (Dropout)            (None, 94)           0           dense_37[0][0]                   
__________________________________________________________________________________________________
dense_38 (Dense)                (None, 4)            380         dropout_57[0][0]                 
==================================================================================================
Total params: 1,725,829
Trainable params: 1,725,829
Non-trainable params: 0
__________________________________________________________________________________________________
None
==================================================================================================
…
	MWE occurrences: 553
	Continuous occurrences: 59.0 %
	MWE length: 2.25
	Seen occurrences : 62% 
	Recognizable MWEs: 98.0 %
	Embedded occurrences: 4
	Interleaving occurrences: 8

==================================================================================================
__________________________________________________________________________________________________
Layer (type)                    Output Shape         Param #     Connected to                     
==================================================================================================
S0_toks (InputLayer)            (None, 4)            0                                            
__________________________________________________________________________________________________
S0_Pos (InputLayer)             (None, 4)            0                                            
__________________________________________________________________________________________________
S1_toks (InputLayer)            (None, 4)            0                                            
__________________________________________________________________________________________________
S1_Pos (InputLayer)             (None, 4)            0                                            
__________________________________________________________________________________________________
S0_toksEmb (Embedding)          (None, 4, 326)       369684      S0_toks[0][0]                    
__________________________________________________________________________________________________
S0_tPosEmb (Embedding)          (None, 4, 63)        1197        S0_Pos[0][0]                     
__________________________________________________________________________________________________
S1_toksEmb (Embedding)          (None, 4, 326)       369684      S1_toks[0][0]                    
__________________________________________________________________________________________________
S1_PosEmb (Embedding)           (None, 4, 63)        1197        S1_Pos[0][0]                     
__________________________________________________________________________________________________
B_toks (InputLayer)             (None, 2)            0                                            
__________________________________________________________________________________________________
B_Pos (InputLayer)              (None, 2)            0                                            
__________________________________________________________________________________________________
concatenate_61 (Concatenate)    (None, 4, 389)       0           S0_toksEmb[0][0]                 
                                                                 S0_tPosEmb[0][0]                 
__________________________________________________________________________________________________
concatenate_62 (Concatenate)    (None, 4, 389)       0           S1_toksEmb[0][0]                 
                                                                 S1_PosEmb[0][0]                  
__________________________________________________________________________________________________
B_toksEmb (Embedding)           (None, 2, 326)       369684      B_toks[0][0]                     
__________________________________________________________________________________________________
B_PosEmb (Embedding)            (None, 2, 63)        1197        B_Pos[0][0]                      
__________________________________________________________________________________________________
s0Rnn (LSTM)                    (None, 117)          237276      concatenate_61[0][0]             
__________________________________________________________________________________________________
s1Rnn (LSTM)                    (None, 117)          237276      concatenate_62[0][0]             
__________________________________________________________________________________________________
B_toksFlat (Flatten)            (None, 652)          0           B_toksEmb[0][0]                  
__________________________________________________________________________________________________
B_PosFlat (Flatten)             (None, 126)          0           B_PosEmb[0][0]                   
__________________________________________________________________________________________________
dropout_61 (Dropout)            (None, 117)          0           s0Rnn[0][0]                      
__________________________________________________________________________________________________
dropout_62 (Dropout)            (None, 117)          0           s1Rnn[0][0]                      
__________________________________________________________________________________________________
concatenate_63 (Concatenate)    (None, 1012)         0           B_toksFlat[0][0]                 
                                                                 B_PosFlat[0][0]                  
                                                                 dropout_61[0][0]                 
                                                                 dropout_62[0][0]                 
__________________________________________________________________________________________________
dense_41 (Dense)                (None, 94)           95222       concatenate_63[0][0]             
__________________________________________________________________________________________________
dropout_63 (Dropout)            (None, 94)           0           dense_41[0][0]                   
__________________________________________________________________________________________________
dense_42 (Dense)                (None, 4)            380         dropout_63[0][0]                 
==================================================================================================
Total params: 1,682,797
Trainable params: 1,682,797
Non-trainable params: 0
__________________________________________________________________________________________________
None
==================================================================================================
…
	Important sentence: 385
	Token occurrences: 27196
	MWE number: 418
	MWE occurrences: 510
	Continuous occurrences: 50.0 %
	MWE length: 2.07
	Seen occurrences : 43% 
	Recognizable MWEs: 100.0 %

==================================================================================================
__________________________________________________________________________________________________
Layer (type)                    Output Shape         Param #     Connected to                     
==================================================================================================
S0_toks (InputLayer)            (None, 4)            0                                            
__________________________________________________________________________________________________
S0_Pos (InputLayer)             (None, 4)            0                                            
__________________________________________________________________________________________________
S1_toks (InputLayer)            (None, 4)            0                                            
__________________________________________________________________________________________________
S1_Pos (InputLayer)             (None, 4)            0                                            
__________________________________________________________________________________________________
S0_toksEmb (Embedding)          (None, 4, 326)       706116      S0_toks[0][0]                    
__________________________________________________________________________________________________
S0_tPosEmb (Embedding)          (None, 4, 63)        882         S0_Pos[0][0]                     
__________________________________________________________________________________________________
S1_toksEmb (Embedding)          (None, 4, 326)       706116      S1_toks[0][0]                    
__________________________________________________________________________________________________
S1_PosEmb (Embedding)           (None, 4, 63)        882         S1_Pos[0][0]                     
__________________________________________________________________________________________________
B_toks (InputLayer)             (None, 2)            0                                            
__________________________________________________________________________________________________
B_Pos (InputLayer)              (None, 2)            0                                            
__________________________________________________________________________________________________
concatenate_67 (Concatenate)    (None, 4, 389)       0           S0_toksEmb[0][0]                 
                                                                 S0_tPosEmb[0][0]                 
__________________________________________________________________________________________________
concatenate_68 (Concatenate)    (None, 4, 389)       0           S1_toksEmb[0][0]                 
                                                                 S1_PosEmb[0][0]                  
__________________________________________________________________________________________________
B_toksEmb (Embedding)           (None, 2, 326)       706116      B_toks[0][0]                     
__________________________________________________________________________________________________
B_PosEmb (Embedding)            (None, 2, 63)        882         B_Pos[0][0]                      
__________________________________________________________________________________________________
s0Rnn (LSTM)                    (None, 117)          237276      concatenate_67[0][0]             
__________________________________________________________________________________________________
s1Rnn (LSTM)                    (None, 117)          237276      concatenate_68[0][0]             
__________________________________________________________________________________________________
B_toksFlat (Flatten)            (None, 652)          0           B_toksEmb[0][0]                  
__________________________________________________________________________________________________
B_PosFlat (Flatten)             (None, 126)          0           B_PosEmb[0][0]                   
__________________________________________________________________________________________________
dropout_67 (Dropout)            (None, 117)          0           s0Rnn[0][0]                      
__________________________________________________________________________________________________
dropout_68 (Dropout)            (None, 117)          0           s1Rnn[0][0]                      
__________________________________________________________________________________________________
concatenate_69 (Concatenate)    (None, 1012)         0           B_toksFlat[0][0]                 
                                                                 B_PosFlat[0][0]                  
                                                                 dropout_67[0][0]                 
                                                                 dropout_68[0][0]                 
__________________________________________________________________________________________________
dense_45 (Dense)                (None, 94)           95222       concatenate_69[0][0]             
__________________________________________________________________________________________________
dropout_69 (Dropout)            (None, 94)           0           dense_45[0][0]                   
__________________________________________________________________________________________________
dense_46 (Dense)                (None, 4)            380         dropout_69[0][0]                 
==================================================================================================
Total params: 2,691,148
Trainable params: 2,691,148
Non-trainable params: 0
__________________________________________________________________________________________________
None
==================================================================================================
…
	Token occurrences: 42020
	MWE number: 451
	MWE occurrences: 670
	Continuous occurrences: 75.0 %
	MWE length: 2.14
	Seen occurrences : 57% 
	Recognizable MWEs: 100.0 %
	MWT occurrences: 1

==================================================================================================
__________________________________________________________________________________________________
Layer (type)                    Output Shape         Param #     Connected to                     
==================================================================================================
S0_toks (InputLayer)            (None, 4)            0                                            
__________________________________________________________________________________________________
S0_Pos (InputLayer)             (None, 4)            0                                            
__________________________________________________________________________________________________
S1_toks (InputLayer)            (None, 4)            0                                            
__________________________________________________________________________________________________
S1_Pos (InputLayer)             (None, 4)            0                                            
__________________________________________________________________________________________________
S0_toksEmb (Embedding)          (None, 4, 178)       1659850     S0_toks[0][0]                    
__________________________________________________________________________________________________
S0_tPosEmb (Embedding)          (None, 4, 111)       2109        S0_Pos[0][0]                     
__________________________________________________________________________________________________
S1_toksEmb (Embedding)          (None, 4, 178)       1659850     S1_toks[0][0]                    
__________________________________________________________________________________________________
S1_PosEmb (Embedding)           (None, 4, 111)       2109        S1_Pos[0][0]                     
__________________________________________________________________________________________________
B_toks (InputLayer)             (None, 3)            0                                            
__________________________________________________________________________________________________
B_Pos (InputLayer)              (None, 3)            0                                            
__________________________________________________________________________________________________
concatenate_73 (Concatenate)    (None, 4, 289)       0           S0_toksEmb[0][0]                 
                                                                 S0_tPosEmb[0][0]                 
__________________________________________________________________________________________________
concatenate_74 (Concatenate)    (None, 4, 289)       0           S1_toksEmb[0][0]                 
                                                                 S1_PosEmb[0][0]                  
__________________________________________________________________________________________________
B_toksEmb (Embedding)           (None, 3, 178)       1659850     B_toks[0][0]                     
__________________________________________________________________________________________________
B_PosEmb (Embedding)            (None, 3, 111)       2109        B_Pos[0][0]                      
__________________________________________________________________________________________________
s0Rnn (LSTM)                    (None, 84)           125664      concatenate_73[0][0]             
__________________________________________________________________________________________________
s1Rnn (LSTM)                    (None, 84)           125664      concatenate_74[0][0]             
__________________________________________________________________________________________________
B_toksFlat (Flatten)            (None, 534)          0           B_toksEmb[0][0]                  
__________________________________________________________________________________________________
B_PosFlat (Flatten)             (None, 333)          0           B_PosEmb[0][0]                   
__________________________________________________________________________________________________
dropout_73 (Dropout)            (None, 84)           0           s0Rnn[0][0]                      
__________________________________________________________________________________________________
dropout_74 (Dropout)            (None, 84)           0           s1Rnn[0][0]                      
__________________________________________________________________________________________________
concatenate_75 (Concatenate)    (None, 1035)         0           B_toksFlat[0][0]                 
                                                                 B_PosFlat[0][0]                  
                                                                 dropout_73[0][0]                 
                                                                 dropout_74[0][0]                 
__________________________________________________________________________________________________
dense_49 (Dense)                (None, 203)          210308      concatenate_75[0][0]             
__________________________________________________________________________________________________
dropout_75 (Dropout)            (None, 203)          0           dense_49[0][0]                   
__________________________________________________________________________________________________
dense_50 (Dense)                (None, 4)            816         dropout_75[0][0]                 
==================================================================================================
Total params: 5,448,329
Trainable params: 5,448,329
Non-trainable params: 0
__________________________________________________________________________________________________
None
==================================================================================================
…
	Token occurrences: 42020
	MWE number: 451
	MWE occurrences: 670
	Continuous occurrences: 75.0 %
	MWE length: 2.14
	Seen occurrences : 57% 
	Recognizable MWEs: 100.0 %
	MWT occurrences: 1

==================================================================================================
__________________________________________________________________________________________________
Layer (type)                    Output Shape         Param #     Connected to                     
==================================================================================================
S0_toks (InputLayer)            (None, 4)            0                                            
__________________________________________________________________________________________________
S0_Pos (InputLayer)             (None, 4)            0                                            
__________________________________________________________________________________________________
S1_toks (InputLayer)            (None, 4)            0                                            
__________________________________________________________________________________________________
S1_Pos (InputLayer)             (None, 4)            0                                            
__________________________________________________________________________________________________
S0_toksEmb (Embedding)          (None, 4, 178)       1657714     S0_toks[0][0]                    
__________________________________________________________________________________________________
S0_tPosEmb (Embedding)          (None, 4, 111)       2109        S0_Pos[0][0]                     
__________________________________________________________________________________________________
S1_toksEmb (Embedding)          (None, 4, 178)       1657714     S1_toks[0][0]                    
__________________________________________________________________________________________________
S1_PosEmb (Embedding)           (None, 4, 111)       2109        S1_Pos[0][0]                     
__________________________________________________________________________________________________
B_toks (InputLayer)             (None, 3)            0                                            
__________________________________________________________________________________________________
B_Pos (InputLayer)              (None, 3)            0                                            
__________________________________________________________________________________________________
concatenate_76 (Concatenate)    (None, 4, 289)       0           S0_toksEmb[0][0]                 
                                                                 S0_tPosEmb[0][0]                 
__________________________________________________________________________________________________
concatenate_77 (Concatenate)    (None, 4, 289)       0           S1_toksEmb[0][0]                 
                                                                 S1_PosEmb[0][0]                  
__________________________________________________________________________________________________
B_toksEmb (Embedding)           (None, 3, 178)       1657714     B_toks[0][0]                     
__________________________________________________________________________________________________
B_PosEmb (Embedding)            (None, 3, 111)       2109        B_Pos[0][0]                      
__________________________________________________________________________________________________
s0Rnn (LSTM)                    (None, 84)           125664      concatenate_76[0][0]             
__________________________________________________________________________________________________
s1Rnn (LSTM)                    (None, 84)           125664      concatenate_77[0][0]             
__________________________________________________________________________________________________
B_toksFlat (Flatten)            (None, 534)          0           B_toksEmb[0][0]                  
__________________________________________________________________________________________________
B_PosFlat (Flatten)             (None, 333)          0           B_PosEmb[0][0]                   
__________________________________________________________________________________________________
dropout_76 (Dropout)            (None, 84)           0           s0Rnn[0][0]                      
__________________________________________________________________________________________________
dropout_77 (Dropout)            (None, 84)           0           s1Rnn[0][0]                      
__________________________________________________________________________________________________
concatenate_78 (Concatenate)    (None, 1035)         0           B_toksFlat[0][0]                 
                                                                 B_PosFlat[0][0]                  
                                                                 dropout_76[0][0]                 
                                                                 dropout_77[0][0]                 
__________________________________________________________________________________________________
dense_51 (Dense)                (None, 203)          210308      concatenate_78[0][0]             
__________________________________________________________________________________________________
dropout_78 (Dropout)            (None, 203)          0           dense_51[0][0]                   
__________________________________________________________________________________________________
dense_52 (Dense)                (None, 4)            816         dropout_78[0][0]                 
==================================================================================================
Total params: 5,441,921
Trainable params: 5,441,921
Non-trainable params: 0
__________________________________________________________________________________________________
None
==================================================================================================
…
	MWE occurrences: 553
	Continuous occurrences: 59.0 %
	MWE length: 2.25
	Seen occurrences : 62% 
	Recognizable MWEs: 98.0 %
	Embedded occurrences: 4
	Interleaving occurrences: 8

==================================================================================================
__________________________________________________________________________________________________
Layer (type)                    Output Shape         Param #     Connected to                     
==================================================================================================
S0_toks (InputLayer)            (None, 4)            0                                            
__________________________________________________________________________________________________
S0_Pos (InputLayer)             (None, 4)            0                                            
__________________________________________________________________________________________________
S1_toks (InputLayer)            (None, 4)            0                                            
__________________________________________________________________________________________________
S1_Pos (InputLayer)             (None, 4)            0                                            
__________________________________________________________________________________________________
S0_toksEmb (Embedding)          (None, 4, 178)       1267182     S0_toks[0][0]                    
__________________________________________________________________________________________________
S0_tPosEmb (Embedding)          (None, 4, 111)       2109        S0_Pos[0][0]                     
__________________________________________________________________________________________________
S1_toksEmb (Embedding)          (None, 4, 178)       1267182     S1_toks[0][0]                    
__________________________________________________________________________________________________
S1_PosEmb (Embedding)           (None, 4, 111)       2109        S1_Pos[0][0]                     
__________________________________________________________________________________________________
B_toks (InputLayer)             (None, 3)            0                                            
__________________________________________________________________________________________________
B_Pos (InputLayer)              (None, 3)            0                                            
__________________________________________________________________________________________________
concatenate_79 (Concatenate)    (None, 4, 289)       0           S0_toksEmb[0][0]                 
                                                                 S0_tPosEmb[0][0]                 
__________________________________________________________________________________________________
concatenate_80 (Concatenate)    (None, 4, 289)       0           S1_toksEmb[0][0]                 
                                                                 S1_PosEmb[0][0]                  
__________________________________________________________________________________________________
B_toksEmb (Embedding)           (None, 3, 178)       1267182     B_toks[0][0]                     
__________________________________________________________________________________________________
B_PosEmb (Embedding)            (None, 3, 111)       2109        B_Pos[0][0]                      
__________________________________________________________________________________________________
s0Rnn (LSTM)                    (None, 84)           125664      concatenate_79[0][0]             
__________________________________________________________________________________________________
s1Rnn (LSTM)                    (None, 84)           125664      concatenate_80[0][0]             
__________________________________________________________________________________________________
B_toksFlat (Flatten)            (None, 534)          0           B_toksEmb[0][0]                  
__________________________________________________________________________________________________
B_PosFlat (Flatten)             (None, 333)          0           B_PosEmb[0][0]                   
__________________________________________________________________________________________________
dropout_79 (Dropout)            (None, 84)           0           s0Rnn[0][0]                      
__________________________________________________________________________________________________
dropout_80 (Dropout)            (None, 84)           0           s1Rnn[0][0]                      
__________________________________________________________________________________________________
concatenate_81 (Concatenate)    (None, 1035)         0           B_toksFlat[0][0]                 
                                                                 B_PosFlat[0][0]                  
                                                                 dropout_79[0][0]                 
                                                                 dropout_80[0][0]                 
__________________________________________________________________________________________________
dense_53 (Dense)                (None, 203)          210308      concatenate_81[0][0]             
__________________________________________________________________________________________________
dropout_81 (Dropout)            (None, 203)          0           dense_53[0][0]                   
__________________________________________________________________________________________________
dense_54 (Dense)                (None, 4)            816         dropout_81[0][0]                 
==================================================================================================
Total params: 4,270,325
Trainable params: 4,270,325
Non-trainable params: 0
__________________________________________________________________________________________________
None
==================================================================================================
…
	MWE occurrences: 553
	Continuous occurrences: 59.0 %
	MWE length: 2.25
	Seen occurrences : 62% 
	Recognizable MWEs: 98.0 %
	Embedded occurrences: 4
	Interleaving occurrences: 8

==================================================================================================
__________________________________________________________________________________________________
Layer (type)                    Output Shape         Param #     Connected to                     
==================================================================================================
S0_toks (InputLayer)            (None, 4)            0                                            
__________________________________________________________________________________________________
S0_Pos (InputLayer)             (None, 4)            0                                            
__________________________________________________________________________________________________
S1_toks (InputLayer)            (None, 4)            0                                            
__________________________________________________________________________________________________
S1_Pos (InputLayer)             (None, 4)            0                                            
__________________________________________________________________________________________________
S0_toksEmb (Embedding)          (None, 4, 178)       1265046     S0_toks[0][0]                    
__________________________________________________________________________________________________
S0_tPosEmb (Embedding)          (None, 4, 111)       2109        S0_Pos[0][0]                     
__________________________________________________________________________________________________
S1_toksEmb (Embedding)          (None, 4, 178)       1265046     S1_toks[0][0]                    
__________________________________________________________________________________________________
S1_PosEmb (Embedding)           (None, 4, 111)       2109        S1_Pos[0][0]                     
__________________________________________________________________________________________________
B_toks (InputLayer)             (None, 3)            0                                            
__________________________________________________________________________________________________
B_Pos (InputLayer)              (None, 3)            0                                            
__________________________________________________________________________________________________
concatenate_82 (Concatenate)    (None, 4, 289)       0           S0_toksEmb[0][0]                 
                                                                 S0_tPosEmb[0][0]                 
__________________________________________________________________________________________________
concatenate_83 (Concatenate)    (None, 4, 289)       0           S1_toksEmb[0][0]                 
                                                                 S1_PosEmb[0][0]                  
__________________________________________________________________________________________________
B_toksEmb (Embedding)           (None, 3, 178)       1265046     B_toks[0][0]                     
__________________________________________________________________________________________________
B_PosEmb (Embedding)            (None, 3, 111)       2109        B_Pos[0][0]                      
__________________________________________________________________________________________________
s0Rnn (LSTM)                    (None, 84)           125664      concatenate_82[0][0]             
__________________________________________________________________________________________________
s1Rnn (LSTM)                    (None, 84)           125664      concatenate_83[0][0]             
__________________________________________________________________________________________________
B_toksFlat (Flatten)            (None, 534)          0           B_toksEmb[0][0]                  
__________________________________________________________________________________________________
B_PosFlat (Flatten)             (None, 333)          0           B_PosEmb[0][0]                   
__________________________________________________________________________________________________
dropout_82 (Dropout)            (None, 84)           0           s0Rnn[0][0]                      
__________________________________________________________________________________________________
dropout_83 (Dropout)            (None, 84)           0           s1Rnn[0][0]                      
__________________________________________________________________________________________________
concatenate_84 (Concatenate)    (None, 1035)         0           B_toksFlat[0][0]                 
                                                                 B_PosFlat[0][0]                  
                                                                 dropout_82[0][0]                 
                                                                 dropout_83[0][0]                 
__________________________________________________________________________________________________
dense_55 (Dense)                (None, 203)          210308      concatenate_84[0][0]             
__________________________________________________________________________________________________
dropout_84 (Dropout)            (None, 203)          0           dense_55[0][0]                   
__________________________________________________________________________________________________
dense_56 (Dense)                (None, 4)            816         dropout_84[0][0]                 
==================================================================================================
Total params: 4,263,917
Trainable params: 4,263,917
Non-trainable params: 0
__________________________________________________________________________________________________
None
==================================================================================================
…
	Important sentence: 385
	Token occurrences: 27196
	MWE number: 418
	MWE occurrences: 510
	Continuous occurrences: 50.0 %
	MWE length: 2.07
	Seen occurrences : 43% 
	Recognizable MWEs: 100.0 %

==================================================================================================
__________________________________________________________________________________________________
Layer (type)                    Output Shape         Param #     Connected to                     
==================================================================================================
S0_toks (InputLayer)            (None, 4)            0                                            
__________________________________________________________________________________________________
S0_Pos (InputLayer)             (None, 4)            0                                            
__________________________________________________________________________________________________
S1_toks (InputLayer)            (None, 4)            0                                            
__________________________________________________________________________________________________
S1_Pos (InputLayer)             (None, 4)            0                                            
__________________________________________________________________________________________________
S0_toksEmb (Embedding)          (None, 4, 178)       3208628     S0_toks[0][0]                    
__________________________________________________________________________________________________
S0_tPosEmb (Embedding)          (None, 4, 111)       1554        S0_Pos[0][0]                     
__________________________________________________________________________________________________
S1_toksEmb (Embedding)          (None, 4, 178)       3208628     S1_toks[0][0]                    
__________________________________________________________________________________________________
S1_PosEmb (Embedding)           (None, 4, 111)       1554        S1_Pos[0][0]                     
__________________________________________________________________________________________________
B_toks (InputLayer)             (None, 3)            0                                            
__________________________________________________________________________________________________
B_Pos (InputLayer)              (None, 3)            0                                            
__________________________________________________________________________________________________
concatenate_85 (Concatenate)    (None, 4, 289)       0           S0_toksEmb[0][0]                 
                                                                 S0_tPosEmb[0][0]                 
__________________________________________________________________________________________________
concatenate_86 (Concatenate)    (None, 4, 289)       0           S1_toksEmb[0][0]                 
                                                                 S1_PosEmb[0][0]                  
__________________________________________________________________________________________________
B_toksEmb (Embedding)           (None, 3, 178)       3208628     B_toks[0][0]                     
__________________________________________________________________________________________________
B_PosEmb (Embedding)            (None, 3, 111)       1554        B_Pos[0][0]                      
__________________________________________________________________________________________________
s0Rnn (LSTM)                    (None, 84)           125664      concatenate_85[0][0]             
__________________________________________________________________________________________________
s1Rnn (LSTM)                    (None, 84)           125664      concatenate_86[0][0]             
__________________________________________________________________________________________________
B_toksFlat (Flatten)            (None, 534)          0           B_toksEmb[0][0]                  
__________________________________________________________________________________________________
B_PosFlat (Flatten)             (None, 333)          0           B_PosEmb[0][0]                   
__________________________________________________________________________________________________
dropout_85 (Dropout)            (None, 84)           0           s0Rnn[0][0]                      
__________________________________________________________________________________________________
dropout_86 (Dropout)            (None, 84)           0           s1Rnn[0][0]                      
__________________________________________________________________________________________________
concatenate_87 (Concatenate)    (None, 1035)         0           B_toksFlat[0][0]                 
                                                                 B_PosFlat[0][0]                  
                                                                 dropout_85[0][0]                 
                                                                 dropout_86[0][0]                 
__________________________________________________________________________________________________
dense_57 (Dense)                (None, 203)          210308      concatenate_87[0][0]             
__________________________________________________________________________________________________
dropout_87 (Dropout)            (None, 203)          0           dense_57[0][0]                   
__________________________________________________________________________________________________
dense_58 (Dense)                (None, 4)            816         dropout_87[0][0]                 
==================================================================================================
Total params: 10,092,998
Trainable params: 10,092,998
Non-trainable params: 0
__________________________________________________________________________________________________
None
==================================================================================================
…
	Important sentence: 385
	Token occurrences: 27196
	MWE number: 418
	MWE occurrences: 510
	Continuous occurrences: 50.0 %
	MWE length: 2.07
	Seen occurrences : 43% 
	Recognizable MWEs: 100.0 %

==================================================================================================
__________________________________________________________________________________________________
Layer (type)                    Output Shape         Param #     Connected to                     
==================================================================================================
S0_toks (InputLayer)            (None, 4)            0                                            
__________________________________________________________________________________________________
S0_Pos (InputLayer)             (None, 4)            0                                            
__________________________________________________________________________________________________
S1_toks (InputLayer)            (None, 4)            0                                            
__________________________________________________________________________________________________
S1_Pos (InputLayer)             (None, 4)            0                                            
__________________________________________________________________________________________________
S0_toksEmb (Embedding)          (None, 4, 178)       3200262     S0_toks[0][0]                    
__________________________________________________________________________________________________
S0_tPosEmb (Embedding)          (None, 4, 111)       1554        S0_Pos[0][0]                     
__________________________________________________________________________________________________
S1_toksEmb (Embedding)          (None, 4, 178)       3200262     S1_toks[0][0]                    
__________________________________________________________________________________________________
S1_PosEmb (Embedding)           (None, 4, 111)       1554        S1_Pos[0][0]                     
__________________________________________________________________________________________________
B_toks (InputLayer)             (None, 3)            0                                            
__________________________________________________________________________________________________
B_Pos (InputLayer)              (None, 3)            0                                            
__________________________________________________________________________________________________
concatenate_88 (Concatenate)    (None, 4, 289)       0           S0_toksEmb[0][0]                 
                                                                 S0_tPosEmb[0][0]                 
__________________________________________________________________________________________________
concatenate_89 (Concatenate)    (None, 4, 289)       0           S1_toksEmb[0][0]                 
                                                                 S1_PosEmb[0][0]                  
__________________________________________________________________________________________________
B_toksEmb (Embedding)           (None, 3, 178)       3200262     B_toks[0][0]                     
__________________________________________________________________________________________________
B_PosEmb (Embedding)            (None, 3, 111)       1554        B_Pos[0][0]                      
__________________________________________________________________________________________________
s0Rnn (LSTM)                    (None, 84)           125664      concatenate_88[0][0]             
__________________________________________________________________________________________________
s1Rnn (LSTM)                    (None, 84)           125664      concatenate_89[0][0]             
__________________________________________________________________________________________________
B_toksFlat (Flatten)            (None, 534)          0           B_toksEmb[0][0]                  
__________________________________________________________________________________________________
B_PosFlat (Flatten)             (None, 333)          0           B_PosEmb[0][0]                   
__________________________________________________________________________________________________
dropout_88 (Dropout)            (None, 84)           0           s0Rnn[0][0]                      
__________________________________________________________________________________________________
dropout_89 (Dropout)            (None, 84)           0           s1Rnn[0][0]                      
__________________________________________________________________________________________________
concatenate_90 (Concatenate)    (None, 1035)         0           B_toksFlat[0][0]                 
                                                                 B_PosFlat[0][0]                  
                                                                 dropout_88[0][0]                 
                                                                 dropout_89[0][0]                 
__________________________________________________________________________________________________
dense_59 (Dense)                (None, 203)          210308      concatenate_90[0][0]             
__________________________________________________________________________________________________
dropout_90 (Dropout)            (None, 203)          0           dense_59[0][0]                   
__________________________________________________________________________________________________
dense_60 (Dense)                (None, 4)            816         dropout_90[0][0]                 
==================================================================================================
Total params: 10,067,900
Trainable params: 10,067,900
Non-trainable params: 0
__________________________________________________________________________________________________
None
==================================================================================================
…
	Token occurrences: 42020
	MWE number: 451
	MWE occurrences: 670
	Continuous occurrences: 75.0 %
	MWE length: 2.14
	Seen occurrences : 57% 
	Recognizable MWEs: 100.0 %
	MWT occurrences: 1

==================================================================================================
__________________________________________________________________________________________________
Layer (type)                    Output Shape         Param #     Connected to                     
==================================================================================================
S0_toks (InputLayer)            (None, 4)            0                                            
__________________________________________________________________________________________________
S0_Pos (InputLayer)             (None, 4)            0                                            
__________________________________________________________________________________________________
S1_toks (InputLayer)            (None, 4)            0                                            
__________________________________________________________________________________________________
S1_Pos (InputLayer)             (None, 4)            0                                            
__________________________________________________________________________________________________
S0_toksEmb (Embedding)          (None, 4, 105)       622230      S0_toks[0][0]                    
__________________________________________________________________________________________________
S0_tPosEmb (Embedding)          (None, 4, 19)        361         S0_Pos[0][0]                     
__________________________________________________________________________________________________
S1_toksEmb (Embedding)          (None, 4, 105)       622230      S1_toks[0][0]                    
__________________________________________________________________________________________________
S1_PosEmb (Embedding)           (None, 4, 19)        361         S1_Pos[0][0]                     
__________________________________________________________________________________________________
B_toks (InputLayer)             (None, 2)            0                                            
__________________________________________________________________________________________________
B_Pos (InputLayer)              (None, 2)            0                                            
__________________________________________________________________________________________________
concatenate_91 (Concatenate)    (None, 4, 124)       0           S0_toksEmb[0][0]                 
                                                                 S0_tPosEmb[0][0]                 
__________________________________________________________________________________________________
concatenate_92 (Concatenate)    (None, 4, 124)       0           S1_toksEmb[0][0]                 
                                                                 S1_PosEmb[0][0]                  
__________________________________________________________________________________________________
B_toksEmb (Embedding)           (None, 2, 105)       622230      B_toks[0][0]                     
…
                                                                 dropout_283[0][0]                
                                                                 dropout_284[0][0]                
__________________________________________________________________________________________________
dense_189 (Dense)               (None, 47)           60489       concatenate_285[0][0]            
__________________________________________________________________________________________________
dropout_285 (Dropout)           (None, 47)           0           dense_189[0][0]                  
__________________________________________________________________________________________________
dense_190 (Dense)               (None, 4)            192         dropout_285[0][0]                
==================================================================================================
Total params: 1,905,597
Trainable params: 1,905,597
Non-trainable params: 0
__________________________________________________________________________________________________
None
==================================================================================================
…
	Token occurrences: 42020
	MWE number: 451
	MWE occurrences: 670
	Continuous occurrences: 75.0 %
	MWE length: 2.14
	Seen occurrences : 57% 
	Recognizable MWEs: 100.0 %
	MWT occurrences: 1

==================================================================================================
__________________________________________________________________________________________________
Layer (type)                    Output Shape         Param #     Connected to                     
==================================================================================================
S0_toks (InputLayer)            (None, 4)            0                                            
__________________________________________________________________________________________________
S0_Pos (InputLayer)             (None, 4)            0                                            
__________________________________________________________________________________________________
S1_toks (InputLayer)            (None, 4)            0                                            
__________________________________________________________________________________________________
S1_Pos (InputLayer)             (None, 4)            0                                            
__________________________________________________________________________________________________
S0_toksEmb (Embedding)          (None, 4, 562)       3330412     S0_toks[0][0]                    
__________________________________________________________________________________________________
S0_tPosEmb (Embedding)          (None, 4, 52)        988         S0_Pos[0][0]                     
__________________________________________________________________________________________________
S1_toksEmb (Embedding)          (None, 4, 562)       3330412     S1_toks[0][0]                    
__________________________________________________________________________________________________
S1_PosEmb (Embedding)           (None, 4, 52)        988         S1_Pos[0][0]                     
__________________________________________________________________________________________________
B_toks (InputLayer)             (None, 2)            0                                            
__________________________________________________________________________________________________
B_Pos (InputLayer)              (None, 2)            0                                            
__________________________________________________________________________________________________
concatenate_289 (Concatenate)   (None, 4, 614)       0           S0_toksEmb[0][0]                 
                                                                 S0_tPosEmb[0][0]                 
__________________________________________________________________________________________________
concatenate_290 (Concatenate)   (None, 4, 614)       0           S1_toksEmb[0][0]                 
                                                                 S1_PosEmb[0][0]                  
__________________________________________________________________________________________________
B_toksEmb (Embedding)           (None, 2, 562)       3330412     B_toks[0][0]                     
__________________________________________________________________________________________________
B_PosEmb (Embedding)            (None, 2, 52)        988         B_Pos[0][0]                      
__________________________________________________________________________________________________
s0Rnn (GRU)                     (None, 88)           185592      concatenate_289[0][0]            
__________________________________________________________________________________________________
s1Rnn (GRU)                     (None, 88)           185592      concatenate_290[0][0]            
__________________________________________________________________________________________________
B_toksFlat (Flatten)            (None, 1124)         0           B_toksEmb[0][0]                  
__________________________________________________________________________________________________
B_PosFlat (Flatten)             (None, 104)          0           B_PosEmb[0][0]                   
__________________________________________________________________________________________________
dropout_289 (Dropout)           (None, 88)           0           s0Rnn[0][0]                      
__________________________________________________________________________________________________
dropout_290 (Dropout)           (None, 88)           0           s1Rnn[0][0]                      
__________________________________________________________________________________________________
concatenate_291 (Concatenate)   (None, 1404)         0           B_toksFlat[0][0]                 
                                                                 B_PosFlat[0][0]                  
                                                                 dropout_289[0][0]                
                                                                 dropout_290[0][0]                
__________________________________________________________________________________________________
dense_193 (Dense)               (None, 315)          442575      concatenate_291[0][0]            
__________________________________________________________________________________________________
dropout_291 (Dropout)           (None, 315)          0           dense_193[0][0]                  
__________________________________________________________________________________________________
dense_194 (Dense)               (None, 4)            1264        dropout_291[0][0]                
==================================================================================================
Total params: 10,809,223
Trainable params: 10,809,223
Non-trainable params: 0
__________________________________________________________________________________________________
None
==================================================================================================
…
	Token occurrences: 42020
	MWE number: 451
	MWE occurrences: 670
	Continuous occurrences: 75.0 %
	MWE length: 2.14
	Seen occurrences : 57% 
	Recognizable MWEs: 100.0 %
	MWT occurrences: 1

==================================================================================================
__________________________________________________________________________________________________
Layer (type)                    Output Shape         Param #     Connected to                     
==================================================================================================
S0_toks (InputLayer)            (None, 4)            0                                            
__________________________________________________________________________________________________
S0_Pos (InputLayer)             (None, 4)            0                                            
__________________________________________________________________________________________________
S1_toks (InputLayer)            (None, 4)            0                                            
__________________________________________________________________________________________________
S1_Pos (InputLayer)             (None, 4)            0                                            
__________________________________________________________________________________________________
S0_toksEmb (Embedding)          (None, 4, 562)       3325916     S0_toks[0][0]                    
__________________________________________________________________________________________________
S0_tPosEmb (Embedding)          (None, 4, 52)        988         S0_Pos[0][0]                     
__________________________________________________________________________________________________
S1_toksEmb (Embedding)          (None, 4, 562)       3325916     S1_toks[0][0]                    
__________________________________________________________________________________________________
S1_PosEmb (Embedding)           (None, 4, 52)        988         S1_Pos[0][0]                     
__________________________________________________________________________________________________
B_toks (InputLayer)             (None, 2)            0                                            
__________________________________________________________________________________________________
B_Pos (InputLayer)              (None, 2)            0                                            
__________________________________________________________________________________________________
concatenate_292 (Concatenate)   (None, 4, 614)       0           S0_toksEmb[0][0]                 
                                                                 S0_tPosEmb[0][0]                 
__________________________________________________________________________________________________
concatenate_293 (Concatenate)   (None, 4, 614)       0           S1_toksEmb[0][0]                 
                                                                 S1_PosEmb[0][0]                  
__________________________________________________________________________________________________
B_toksEmb (Embedding)           (None, 2, 562)       3325916     B_toks[0][0]                     
__________________________________________________________________________________________________
B_PosEmb (Embedding)            (None, 2, 52)        988         B_Pos[0][0]                      
__________________________________________________________________________________________________
s0Rnn (GRU)                     (None, 88)           185592      concatenate_292[0][0]            
__________________________________________________________________________________________________
s1Rnn (GRU)                     (None, 88)           185592      concatenate_293[0][0]            
__________________________________________________________________________________________________
B_toksFlat (Flatten)            (None, 1124)         0           B_toksEmb[0][0]                  
__________________________________________________________________________________________________
B_PosFlat (Flatten)             (None, 104)          0           B_PosEmb[0][0]                   
__________________________________________________________________________________________________
dropout_292 (Dropout)           (None, 88)           0           s0Rnn[0][0]                      
__________________________________________________________________________________________________
dropout_293 (Dropout)           (None, 88)           0           s1Rnn[0][0]                      
__________________________________________________________________________________________________
concatenate_294 (Concatenate)   (None, 1404)         0           B_toksFlat[0][0]                 
                                                                 B_PosFlat[0][0]                  
                                                                 dropout_292[0][0]                
                                                                 dropout_293[0][0]                
__________________________________________________________________________________________________
dense_195 (Dense)               (None, 315)          442575      concatenate_294[0][0]            
__________________________________________________________________________________________________
dropout_294 (Dropout)           (None, 315)          0           dense_195[0][0]                  
__________________________________________________________________________________________________
dense_196 (Dense)               (None, 4)            1264        dropout_294[0][0]                
==================================================================================================
Total params: 10,795,735
Trainable params: 10,795,735
Non-trainable params: 0
__________________________________________________________________________________________________
None
==================================================================================================
…
	MWE occurrences: 553
	Continuous occurrences: 59.0 %
	MWE length: 2.25
	Seen occurrences : 62% 
	Recognizable MWEs: 98.0 %
	Embedded occurrences: 4
	Interleaving occurrences: 8

==================================================================================================
__________________________________________________________________________________________________
Layer (type)                    Output Shape         Param #     Connected to                     
==================================================================================================
S0_toks (InputLayer)            (None, 4)            0                                            
__________________________________________________________________________________________________
S0_Pos (InputLayer)             (None, 4)            0                                            
__________________________________________________________________________________________________
S1_toks (InputLayer)            (None, 4)            0                                            
__________________________________________________________________________________________________
S1_Pos (InputLayer)             (None, 4)            0                                            
__________________________________________________________________________________________________
S0_toksEmb (Embedding)          (None, 4, 562)       3187664     S0_toks[0][0]                    
__________________________________________________________________________________________________
S0_tPosEmb (Embedding)          (None, 4, 52)        988         S0_Pos[0][0]                     
__________________________________________________________________________________________________
S1_toksEmb (Embedding)          (None, 4, 562)       3187664     S1_toks[0][0]                    
__________________________________________________________________________________________________
S1_PosEmb (Embedding)           (None, 4, 52)        988         S1_Pos[0][0]                     
__________________________________________________________________________________________________
B_toks (InputLayer)             (None, 2)            0                                            
__________________________________________________________________________________________________
B_Pos (InputLayer)              (None, 2)            0                                            
__________________________________________________________________________________________________
concatenate_295 (Concatenate)   (None, 4, 614)       0           S0_toksEmb[0][0]                 
                                                                 S0_tPosEmb[0][0]                 
__________________________________________________________________________________________________
concatenate_296 (Concatenate)   (None, 4, 614)       0           S1_toksEmb[0][0]                 
                                                                 S1_PosEmb[0][0]                  
__________________________________________________________________________________________________
B_toksEmb (Embedding)           (None, 2, 562)       3187664     B_toks[0][0]                     
__________________________________________________________________________________________________
B_PosEmb (Embedding)            (None, 2, 52)        988         B_Pos[0][0]                      
__________________________________________________________________________________________________
s0Rnn (GRU)                     (None, 88)           185592      concatenate_295[0][0]            
__________________________________________________________________________________________________
s1Rnn (GRU)                     (None, 88)           185592      concatenate_296[0][0]            
__________________________________________________________________________________________________
B_toksFlat (Flatten)            (None, 1124)         0           B_toksEmb[0][0]                  
__________________________________________________________________________________________________
B_PosFlat (Flatten)             (None, 104)          0           B_PosEmb[0][0]                   
__________________________________________________________________________________________________
dropout_295 (Dropout)           (None, 88)           0           s0Rnn[0][0]                      
__________________________________________________________________________________________________
dropout_296 (Dropout)           (None, 88)           0           s1Rnn[0][0]                      
__________________________________________________________________________________________________
concatenate_297 (Concatenate)   (None, 1404)         0           B_toksFlat[0][0]                 
                                                                 B_PosFlat[0][0]                  
                                                                 dropout_295[0][0]                
                                                                 dropout_296[0][0]                
__________________________________________________________________________________________________
dense_197 (Dense)               (None, 315)          442575      concatenate_297[0][0]            
__________________________________________________________________________________________________
dropout_297 (Dropout)           (None, 315)          0           dense_197[0][0]                  
__________________________________________________________________________________________________
dense_198 (Dense)               (None, 4)            1264        dropout_297[0][0]                
==================================================================================================
Total params: 10,380,979
Trainable params: 10,380,979
Non-trainable params: 0
__________________________________________________________________________________________________
None
==================================================================================================
…
	MWE occurrences: 553
	Continuous occurrences: 59.0 %
	MWE length: 2.25
	Seen occurrences : 62% 
	Recognizable MWEs: 98.0 %
	Embedded occurrences: 4
	Interleaving occurrences: 8

==================================================================================================
__________________________________________________________________________________________________
Layer (type)                    Output Shape         Param #     Connected to                     
==================================================================================================
S0_toks (InputLayer)            (None, 4)            0                                            
__________________________________________________________________________________________________
S0_Pos (InputLayer)             (None, 4)            0                                            
__________________________________________________________________________________________________
S1_toks (InputLayer)            (None, 4)            0                                            
__________________________________________________________________________________________________
S1_Pos (InputLayer)             (None, 4)            0                                            
__________________________________________________________________________________________________
S0_toksEmb (Embedding)          (None, 4, 562)       3179796     S0_toks[0][0]                    
__________________________________________________________________________________________________
S0_tPosEmb (Embedding)          (None, 4, 52)        988         S0_Pos[0][0]                     
__________________________________________________________________________________________________
S1_toksEmb (Embedding)          (None, 4, 562)       3179796     S1_toks[0][0]                    
__________________________________________________________________________________________________
S1_PosEmb (Embedding)           (None, 4, 52)        988         S1_Pos[0][0]                     
__________________________________________________________________________________________________
B_toks (InputLayer)             (None, 2)            0                                            
__________________________________________________________________________________________________
B_Pos (InputLayer)              (None, 2)            0                                            
__________________________________________________________________________________________________
concatenate_298 (Concatenate)   (None, 4, 614)       0           S0_toksEmb[0][0]                 
                                                                 S0_tPosEmb[0][0]                 
__________________________________________________________________________________________________
concatenate_299 (Concatenate)   (None, 4, 614)       0           S1_toksEmb[0][0]                 
                                                                 S1_PosEmb[0][0]                  
__________________________________________________________________________________________________
B_toksEmb (Embedding)           (None, 2, 562)       3179796     B_toks[0][0]                     
__________________________________________________________________________________________________
B_PosEmb (Embedding)            (None, 2, 52)        988         B_Pos[0][0]                      
__________________________________________________________________________________________________
s0Rnn (GRU)                     (None, 88)           185592      concatenate_298[0][0]            
__________________________________________________________________________________________________
s1Rnn (GRU)                     (None, 88)           185592      concatenate_299[0][0]            
__________________________________________________________________________________________________
B_toksFlat (Flatten)            (None, 1124)         0           B_toksEmb[0][0]                  
__________________________________________________________________________________________________
B_PosFlat (Flatten)             (None, 104)          0           B_PosEmb[0][0]                   
__________________________________________________________________________________________________
dropout_298 (Dropout)           (None, 88)           0           s0Rnn[0][0]                      
__________________________________________________________________________________________________
dropout_299 (Dropout)           (None, 88)           0           s1Rnn[0][0]                      
__________________________________________________________________________________________________
concatenate_300 (Concatenate)   (None, 1404)         0           B_toksFlat[0][0]                 
                                                                 B_PosFlat[0][0]                  
                                                                 dropout_298[0][0]                
                                                                 dropout_299[0][0]                
__________________________________________________________________________________________________
dense_199 (Dense)               (None, 315)          442575      concatenate_300[0][0]            
__________________________________________________________________________________________________
dropout_300 (Dropout)           (None, 315)          0           dense_199[0][0]                  
__________________________________________________________________________________________________
dense_200 (Dense)               (None, 4)            1264        dropout_300[0][0]                
==================================================================================================
Total params: 10,357,375
Trainable params: 10,357,375
Non-trainable params: 0
__________________________________________________________________________________________________
None
==================================================================================================
…
	Important sentence: 385
	Token occurrences: 27196
	MWE number: 418
	MWE occurrences: 510
	Continuous occurrences: 50.0 %
	MWE length: 2.07
	Seen occurrences : 43% 
	Recognizable MWEs: 100.0 %

==================================================================================================
__________________________________________________________________________________________________
Layer (type)                    Output Shape         Param #     Connected to                     
==================================================================================================
S0_toks (InputLayer)            (None, 4)            0                                            
__________________________________________________________________________________________________
S0_Pos (InputLayer)             (None, 4)            0                                            
__________________________________________________________________________________________________
S1_toks (InputLayer)            (None, 4)            0                                            
__________________________________________________________________________________________________
S1_Pos (InputLayer)             (None, 4)            0                                            
__________________________________________________________________________________________________
S0_toksEmb (Embedding)          (None, 4, 562)       5935282     S0_toks[0][0]                    
__________________________________________________________________________________________________
S0_tPosEmb (Embedding)          (None, 4, 52)        728         S0_Pos[0][0]                     
__________________________________________________________________________________________________
S1_toksEmb (Embedding)          (None, 4, 562)       5935282     S1_toks[0][0]                    
__________________________________________________________________________________________________
S1_PosEmb (Embedding)           (None, 4, 52)        728         S1_Pos[0][0]                     
__________________________________________________________________________________________________
B_toks (InputLayer)             (None, 2)            0                                            
__________________________________________________________________________________________________
B_Pos (InputLayer)              (None, 2)            0                                            
__________________________________________________________________________________________________
concatenate_301 (Concatenate)   (None, 4, 614)       0           S0_toksEmb[0][0]                 
                                                                 S0_tPosEmb[0][0]                 
__________________________________________________________________________________________________
concatenate_302 (Concatenate)   (None, 4, 614)       0           S1_toksEmb[0][0]                 
                                                                 S1_PosEmb[0][0]                  
__________________________________________________________________________________________________
B_toksEmb (Embedding)           (None, 2, 562)       5935282     B_toks[0][0]                     
__________________________________________________________________________________________________
B_PosEmb (Embedding)            (None, 2, 52)        728         B_Pos[0][0]                      
__________________________________________________________________________________________________
s0Rnn (GRU)                     (None, 88)           185592      concatenate_301[0][0]            
__________________________________________________________________________________________________
s1Rnn (GRU)                     (None, 88)           185592      concatenate_302[0][0]            
__________________________________________________________________________________________________
B_toksFlat (Flatten)            (None, 1124)         0           B_toksEmb[0][0]                  
__________________________________________________________________________________________________
B_PosFlat (Flatten)             (None, 104)          0           B_PosEmb[0][0]                   
__________________________________________________________________________________________________
dropout_301 (Dropout)           (None, 88)           0           s0Rnn[0][0]                      
__________________________________________________________________________________________________
dropout_302 (Dropout)           (None, 88)           0           s1Rnn[0][0]                      
__________________________________________________________________________________________________
concatenate_303 (Concatenate)   (None, 1404)         0           B_toksFlat[0][0]                 
                                                                 B_PosFlat[0][0]                  
                                                                 dropout_301[0][0]                
                                                                 dropout_302[0][0]                
__________________________________________________________________________________________________
dense_201 (Dense)               (None, 315)          442575      concatenate_303[0][0]            
__________________________________________________________________________________________________
dropout_303 (Dropout)           (None, 315)          0           dense_201[0][0]                  
__________________________________________________________________________________________________
dense_202 (Dense)               (None, 4)            1264        dropout_303[0][0]                
==================================================================================================
Total params: 18,623,053
Trainable params: 18,623,053
Non-trainable params: 0
__________________________________________________________________________________________________
None
==================================================================================================
…
	Important sentence: 385
	Token occurrences: 27196
	MWE number: 418
	MWE occurrences: 510
	Continuous occurrences: 50.0 %
	MWE length: 2.07
	Seen occurrences : 43% 
	Recognizable MWEs: 100.0 %

==================================================================================================
__________________________________________________________________________________________________
Layer (type)                    Output Shape         Param #     Connected to                     
==================================================================================================
S0_toks (InputLayer)            (None, 4)            0                                            
__________________________________________________________________________________________________
S0_Pos (InputLayer)             (None, 4)            0                                            
__________________________________________________________________________________________________
S1_toks (InputLayer)            (None, 4)            0                                            
__________________________________________________________________________________________________
S1_Pos (InputLayer)             (None, 4)            0                                            
__________________________________________________________________________________________________
S0_toksEmb (Embedding)          (None, 4, 562)       5920670     S0_toks[0][0]                    
__________________________________________________________________________________________________
S0_tPosEmb (Embedding)          (None, 4, 52)        728         S0_Pos[0][0]                     
__________________________________________________________________________________________________
S1_toksEmb (Embedding)          (None, 4, 562)       5920670     S1_toks[0][0]                    
__________________________________________________________________________________________________
S1_PosEmb (Embedding)           (None, 4, 52)        728         S1_Pos[0][0]                     
__________________________________________________________________________________________________
B_toks (InputLayer)             (None, 2)            0                                            
__________________________________________________________________________________________________
B_Pos (InputLayer)              (None, 2)            0                                            
__________________________________________________________________________________________________
concatenate_304 (Concatenate)   (None, 4, 614)       0           S0_toksEmb[0][0]                 
                                                                 S0_tPosEmb[0][0]                 
__________________________________________________________________________________________________
concatenate_305 (Concatenate)   (None, 4, 614)       0           S1_toksEmb[0][0]                 
                                                                 S1_PosEmb[0][0]                  
__________________________________________________________________________________________________
B_toksEmb (Embedding)           (None, 2, 562)       5920670     B_toks[0][0]                     
__________________________________________________________________________________________________
B_PosEmb (Embedding)            (None, 2, 52)        728         B_Pos[0][0]                      
__________________________________________________________________________________________________
s0Rnn (GRU)                     (None, 88)           185592      concatenate_304[0][0]            
__________________________________________________________________________________________________
s1Rnn (GRU)                     (None, 88)           185592      concatenate_305[0][0]            
__________________________________________________________________________________________________
B_toksFlat (Flatten)            (None, 1124)         0           B_toksEmb[0][0]                  
__________________________________________________________________________________________________
B_PosFlat (Flatten)             (None, 104)          0           B_PosEmb[0][0]                   
__________________________________________________________________________________________________
dropout_304 (Dropout)           (None, 88)           0           s0Rnn[0][0]                      
__________________________________________________________________________________________________
dropout_305 (Dropout)           (None, 88)           0           s1Rnn[0][0]                      
__________________________________________________________________________________________________
concatenate_306 (Concatenate)   (None, 1404)         0           B_toksFlat[0][0]                 
                                                                 B_PosFlat[0][0]                  
                                                                 dropout_304[0][0]                
                                                                 dropout_305[0][0]                
__________________________________________________________________________________________________
dense_203 (Dense)               (None, 315)          442575      concatenate_306[0][0]            
__________________________________________________________________________________________________
dropout_306 (Dropout)           (None, 315)          0           dense_203[0][0]                  
__________________________________________________________________________________________________
dense_204 (Dense)               (None, 4)            1264        dropout_306[0][0]                
==================================================================================================
Total params: 18,579,217
Trainable params: 18,579,217
Non-trainable params: 0
__________________________________________________________________________________________________
None
==================================================================================================
…
	Token occurrences: 42020
	MWE number: 451
	MWE occurrences: 670
	Continuous occurrences: 75.0 %
	MWE length: 2.14
	Seen occurrences : 57% 
	Recognizable MWEs: 100.0 %
	MWT occurrences: 1

==================================================================================================
__________________________________________________________________________________________________
Layer (type)                    Output Shape         Param #     Connected to                     
==================================================================================================
S0_toks (InputLayer)            (None, 4)            0                                            
__________________________________________________________________________________________________
S0_Pos (InputLayer)             (None, 4)            0                                            
__________________________________________________________________________________________________
S1_toks (InputLayer)            (None, 4)            0                                            
__________________________________________________________________________________________________
S1_Pos (InputLayer)             (None, 4)            0                                            
__________________________________________________________________________________________________
S0_toksEmb (Embedding)          (None, 4, 300)       2797500     S0_toks[0][0]                    
__________________________________________________________________________________________________
S0_tPosEmb (Embedding)          (None, 4, 15)        285         S0_Pos[0][0]                     
__________________________________________________________________________________________________
S1_toksEmb (Embedding)          (None, 4, 300)       2797500     S1_toks[0][0]                    
__________________________________________________________________________________________________
S1_PosEmb (Embedding)           (None, 4, 15)        285         S1_Pos[0][0]                     
__________________________________________________________________________________________________
B_toks (InputLayer)             (None, 3)            0                                            
__________________________________________________________________________________________________
B_Pos (InputLayer)              (None, 3)            0                                            
__________________________________________________________________________________________________
concatenate_307 (Concatenate)   (None, 4, 315)       0           S0_toksEmb[0][0]                 
                                                                 S0_tPosEmb[0][0]                 
__________________________________________________________________________________________________
concatenate_308 (Concatenate)   (None, 4, 315)       0           S1_toksEmb[0][0]                 
                                                                 S1_PosEmb[0][0]                  
__________________________________________________________________________________________________
B_toksEmb (Embedding)           (None, 3, 300)       2797500     B_toks[0][0]                     
__________________________________________________________________________________________________
B_PosEmb (Embedding)            (None, 3, 15)        285         B_Pos[0][0]                      
__________________________________________________________________________________________________
s0Rnn (GRU)                     (None, 100)          124800      concatenate_307[0][0]            
__________________________________________________________________________________________________
s1Rnn (GRU)                     (None, 100)          124800      concatenate_308[0][0]            
__________________________________________________________________________________________________
B_toksFlat (Flatten)            (None, 900)          0           B_toksEmb[0][0]                  
__________________________________________________________________________________________________
B_PosFlat (Flatten)             (None, 45)           0           B_PosEmb[0][0]                   
__________________________________________________________________________________________________
dropout_307 (Dropout)           (None, 100)          0           s0Rnn[0][0]                      
__________________________________________________________________________________________________
dropout_308 (Dropout)           (None, 100)          0           s1Rnn[0][0]                      
__________________________________________________________________________________________________
concatenate_309 (Concatenate)   (None, 1145)         0           B_toksFlat[0][0]                 
                                                                 B_PosFlat[0][0]                  
                                                                 dropout_307[0][0]                
                                                                 dropout_308[0][0]                
__________________________________________________________________________________________________
dense_205 (Dense)               (None, 148)          169608      concatenate_309[0][0]            
__________________________________________________________________________________________________
dropout_309 (Dropout)           (None, 148)          0           dense_205[0][0]                  
__________________________________________________________________________________________________
dense_206 (Dense)               (None, 4)            596         dropout_309[0][0]                
==================================================================================================
Total params: 8,813,159
Trainable params: 8,813,159
Non-trainable params: 0
__________________________________________________________________________________________________
None
==================================================================================================
…
	Token occurrences: 42020
	MWE number: 451
	MWE occurrences: 670
	Continuous occurrences: 75.0 %
	MWE length: 2.14
	Seen occurrences : 57% 
	Recognizable MWEs: 100.0 %
	MWT occurrences: 1

==================================================================================================
__________________________________________________________________________________________________
Layer (type)                    Output Shape         Param #     Connected to                     
==================================================================================================
S0_toks (InputLayer)            (None, 4)            0                                            
__________________________________________________________________________________________________
S0_Pos (InputLayer)             (None, 4)            0                                            
__________________________________________________________________________________________________
S1_toks (InputLayer)            (None, 4)            0                                            
__________________________________________________________________________________________________
S1_Pos (InputLayer)             (None, 4)            0                                            
__________________________________________________________________________________________________
S0_toksEmb (Embedding)          (None, 4, 300)       2793900     S0_toks[0][0]                    
__________________________________________________________________________________________________
S0_tPosEmb (Embedding)          (None, 4, 15)        285         S0_Pos[0][0]                     
__________________________________________________________________________________________________
S1_toksEmb (Embedding)          (None, 4, 300)       2793900     S1_toks[0][0]                    
__________________________________________________________________________________________________
S1_PosEmb (Embedding)           (None, 4, 15)        285         S1_Pos[0][0]                     
__________________________________________________________________________________________________
B_toks (InputLayer)             (None, 3)            0                                            
__________________________________________________________________________________________________
B_Pos (InputLayer)              (None, 3)            0                                            
__________________________________________________________________________________________________
concatenate_310 (Concatenate)   (None, 4, 315)       0           S0_toksEmb[0][0]                 
                                                                 S0_tPosEmb[0][0]                 
__________________________________________________________________________________________________
concatenate_311 (Concatenate)   (None, 4, 315)       0           S1_toksEmb[0][0]                 
                                                                 S1_PosEmb[0][0]                  
__________________________________________________________________________________________________
B_toksEmb (Embedding)           (None, 3, 300)       2793900     B_toks[0][0]                     
__________________________________________________________________________________________________
B_PosEmb (Embedding)            (None, 3, 15)        285         B_Pos[0][0]                      
__________________________________________________________________________________________________
s0Rnn (GRU)                     (None, 100)          124800      concatenate_310[0][0]            
__________________________________________________________________________________________________
s1Rnn (GRU)                     (None, 100)          124800      concatenate_311[0][0]            
__________________________________________________________________________________________________
B_toksFlat (Flatten)            (None, 900)          0           B_toksEmb[0][0]                  
__________________________________________________________________________________________________
B_PosFlat (Flatten)             (None, 45)           0           B_PosEmb[0][0]                   
__________________________________________________________________________________________________
dropout_310 (Dropout)           (None, 100)          0           s0Rnn[0][0]                      
__________________________________________________________________________________________________
dropout_311 (Dropout)           (None, 100)          0           s1Rnn[0][0]                      
__________________________________________________________________________________________________
concatenate_312 (Concatenate)   (None, 1145)         0           B_toksFlat[0][0]                 
                                                                 B_PosFlat[0][0]                  
                                                                 dropout_310[0][0]                
                                                                 dropout_311[0][0]                
__________________________________________________________________________________________________
dense_207 (Dense)               (None, 148)          169608      concatenate_312[0][0]            
__________________________________________________________________________________________________
dropout_312 (Dropout)           (None, 148)          0           dense_207[0][0]                  
__________________________________________________________________________________________________
dense_208 (Dense)               (None, 4)            596         dropout_312[0][0]                
==================================================================================================
Total params: 8,802,359
Trainable params: 8,802,359
Non-trainable params: 0
__________________________________________________________________________________________________
None
==================================================================================================
…
