…
 Number of projective examples : 15875

__________________________________________________________________________________________________
	Optimizer : Adagrad,  learning rate = 0.01
__________________________________________________________________________________________________
__________________________________________________________________________________________________
Layer (type)                    Output Shape         Param #     Connected to                     
==================================================================================================
input_1 (InputLayer)            (None, 18)           0                                            
__________________________________________________________________________________________________
input_2 (InputLayer)            (None, 18)           0                                            
__________________________________________________________________________________________________
input_3 (InputLayer)            (None, 12)           0                                            
__________________________________________________________________________________________________
embedding_1 (Embedding)         (None, 18, 223)      7231667     input_1[0][0]                    
__________________________________________________________________________________________________
embedding_2 (Embedding)         (None, 18, 89)       1780        input_2[0][0]                    
__________________________________________________________________________________________________
embedding_3 (Embedding)         (None, 12, 19)       969         input_3[0][0]                    
__________________________________________________________________________________________________
flatten_1 (Flatten)             (None, 4014)         0           embedding_1[0][0]                
__________________________________________________________________________________________________
flatten_2 (Flatten)             (None, 1602)         0           embedding_2[0][0]                
__________________________________________________________________________________________________
flatten_3 (Flatten)             (None, 228)          0           embedding_3[0][0]                
__________________________________________________________________________________________________
concatenate_1 (Concatenate)     (None, 5844)         0           flatten_1[0][0]                  
                                                                 flatten_2[0][0]                  
                                                                 flatten_3[0][0]                  
__________________________________________________________________________________________________
dense_1 (Dense)                 (None, 28)           163660      concatenate_1[0][0]              
__________________________________________________________________________________________________
activation_2 (Activation)       (None, 28)           0           dense_1[0][0]                    
__________________________________________________________________________________________________
dropout_1 (Dropout)             (None, 28)           0           activation_2[0][0]               
__________________________________________________________________________________________________
dense_2 (Dense)                 (None, 86)           2494        dropout_1[0][0]                  
==================================================================================================
Total params: 7,400,570
Trainable params: 7,400,570
Non-trainable params: 0
__________________________________________________________________________________________________
None
==================================================================================================
…
 Number of projective examples : 15875

__________________________________________________________________________________________________
	Optimizer : Adagrad,  learning rate = 0.01
__________________________________________________________________________________________________
__________________________________________________________________________________________________
Layer (type)                    Output Shape         Param #     Connected to                     
==================================================================================================
input_4 (InputLayer)            (None, 18)           0                                            
__________________________________________________________________________________________________
input_5 (InputLayer)            (None, 18)           0                                            
__________________________________________________________________________________________________
input_6 (InputLayer)            (None, 12)           0                                            
__________________________________________________________________________________________________
embedding_4 (Embedding)         (None, 18, 223)      9415060     input_4[0][0]                    
__________________________________________________________________________________________________
embedding_5 (Embedding)         (None, 18, 89)       1780        input_5[0][0]                    
__________________________________________________________________________________________________
embedding_6 (Embedding)         (None, 12, 19)       969         input_6[0][0]                    
__________________________________________________________________________________________________
flatten_4 (Flatten)             (None, 4014)         0           embedding_4[0][0]                
__________________________________________________________________________________________________
flatten_5 (Flatten)             (None, 1602)         0           embedding_5[0][0]                
__________________________________________________________________________________________________
flatten_6 (Flatten)             (None, 228)          0           embedding_6[0][0]                
__________________________________________________________________________________________________
concatenate_2 (Concatenate)     (None, 5844)         0           flatten_4[0][0]                  
                                                                 flatten_5[0][0]                  
                                                                 flatten_6[0][0]                  
__________________________________________________________________________________________________
dense_3 (Dense)                 (None, 28)           163660      concatenate_2[0][0]              
__________________________________________________________________________________________________
activation_4 (Activation)       (None, 28)           0           dense_3[0][0]                    
__________________________________________________________________________________________________
dropout_2 (Dropout)             (None, 28)           0           activation_4[0][0]               
__________________________________________________________________________________________________
dense_4 (Dense)                 (None, 86)           2494        dropout_2[0][0]                  
==================================================================================================
Total params: 9,583,963
Trainable params: 9,583,963
Non-trainable params: 0
__________________________________________________________________________________________________
None
==================================================================================================
…
