…
 Number of valid (projective) examples : 15875

__________________________________________________________________________________________________
	Optimizer : Adagrad,  learning rate = 0.015
__________________________________________________________________________________________________
__________________________________________________________________________________________________
Layer (type)                    Output Shape         Param #     Connected to                     
==================================================================================================
input_1 (InputLayer)            (None, 18)           0                                            
__________________________________________________________________________________________________
input_2 (InputLayer)            (None, 18)           0                                            
__________________________________________________________________________________________________
input_3 (InputLayer)            (None, 12)           0                                            
__________________________________________________________________________________________________
embedding_1 (Embedding)         (None, 18, 300)      12666000    input_1[0][0]                    
__________________________________________________________________________________________________
embedding_2 (Embedding)         (None, 18, 50)       1000        input_2[0][0]                    
__________________________________________________________________________________________________
embedding_3 (Embedding)         (None, 12, 50)       2550        input_3[0][0]                    
__________________________________________________________________________________________________
flatten_1 (Flatten)             (None, 5400)         0           embedding_1[0][0]                
__________________________________________________________________________________________________
flatten_2 (Flatten)             (None, 900)          0           embedding_2[0][0]                
__________________________________________________________________________________________________
flatten_3 (Flatten)             (None, 600)          0           embedding_3[0][0]                
__________________________________________________________________________________________________
concatenate_1 (Concatenate)     (None, 6900)         0           flatten_1[0][0]                  
                                                                 flatten_2[0][0]                  
                                                                 flatten_3[0][0]                  
__________________________________________________________________________________________________
dense_1 (Dense)                 (None, 200)          1380200     concatenate_1[0][0]              
__________________________________________________________________________________________________
activation_2 (Activation)       (None, 200)          0           dense_1[0][0]                    
__________________________________________________________________________________________________
dropout_1 (Dropout)             (None, 200)          0           activation_2[0][0]               
__________________________________________________________________________________________________
dense_2 (Dense)                 (None, 3)            603         dropout_1[0][0]                  
==================================================================================================
Total params: 14,050,353
Trainable params: 14,050,353
Non-trainable params: 0
__________________________________________________________________________________________________
None
==================================================================================================
…
 Number of valid (projective) examples : 15875

__________________________________________________________________________________________________
	Optimizer : Adagrad,  learning rate = 0.015
__________________________________________________________________________________________________
__________________________________________________________________________________________________
Layer (type)                    Output Shape         Param #     Connected to                     
==================================================================================================
input_7 (InputLayer)            (None, 18)           0                                            
__________________________________________________________________________________________________
input_8 (InputLayer)            (None, 18)           0                                            
__________________________________________________________________________________________________
input_9 (InputLayer)            (None, 12)           0                                            
__________________________________________________________________________________________________
embedding_7 (Embedding)         (None, 18, 300)      9728700     input_7[0][0]                    
__________________________________________________________________________________________________
embedding_8 (Embedding)         (None, 18, 50)       1000        input_8[0][0]                    
__________________________________________________________________________________________________
embedding_9 (Embedding)         (None, 12, 50)       2550        input_9[0][0]                    
__________________________________________________________________________________________________
flatten_7 (Flatten)             (None, 5400)         0           embedding_7[0][0]                
__________________________________________________________________________________________________
flatten_8 (Flatten)             (None, 900)          0           embedding_8[0][0]                
__________________________________________________________________________________________________
flatten_9 (Flatten)             (None, 600)          0           embedding_9[0][0]                
__________________________________________________________________________________________________
concatenate_3 (Concatenate)     (None, 6900)         0           flatten_7[0][0]                  
                                                                 flatten_8[0][0]                  
                                                                 flatten_9[0][0]                  
__________________________________________________________________________________________________
dense_5 (Dense)                 (None, 200)          1380200     concatenate_3[0][0]              
__________________________________________________________________________________________________
activation_6 (Activation)       (None, 200)          0           dense_5[0][0]                    
__________________________________________________________________________________________________
dropout_3 (Dropout)             (None, 200)          0           activation_6[0][0]               
__________________________________________________________________________________________________
dense_6 (Dense)                 (None, 3)            603         dropout_3[0][0]                  
==================================================================================================
Total params: 11,113,053
Trainable params: 11,113,053
Non-trainable params: 0
__________________________________________________________________________________________________
None
==================================================================================================
…
