…
	MWT occurrences: 1

==================================================================================================
	Compact Vocabulary cleaning:
==================================================================================================
	Before : 9312
	After : 2800
# Parameters = 1374886
__________________________________________________________________________________________________
Layer (type)                    Output Shape         Param #     Connected to
==================================================================================================
input_1 (InputLayer)            (None, 4)            0
__________________________________________________________________________________________________
input_2 (InputLayer)            (None, 4)            0
__________________________________________________________________________________________________
embedding_1 (Embedding)         (None, 4, 387)       1083600     input_1[0][0]
__________________________________________________________________________________________________
embedding_2 (Embedding)         (None, 4, 48)        7296        input_2[0][0]
__________________________________________________________________________________________________
flatten_1 (Flatten)             (None, 1548)         0           embedding_1[0][0]
__________________________________________________________________________________________________
flatten_2 (Flatten)             (None, 192)          0           embedding_2[0][0]
__________________________________________________________________________________________________
input_3 (InputLayer)            (None, 8)            0
__________________________________________________________________________________________________
concatenate_1 (Concatenate)     (None, 1748)         0           flatten_1[0][0]
                                                                 flatten_2[0][0]
                                                                 input_3[0][0]
__________________________________________________________________________________________________
dense_1 (Dense)                 (None, 162)          283338      concatenate_1[0][0]
__________________________________________________________________________________________________
dropout_1 (Dropout)             (None, 162)          0           dense_1[0][0]
__________________________________________________________________________________________________
dense_2 (Dense)                 (None, 4)            652         dropout_1[0][0]
==================================================================================================
Total params: 1,374,886
Trainable params: 1,374,886
Non-trainable params: 0
__________________________________________________________________________________________________
None

__________________________________________________________________________________________________
…
	Interleaving occurrences: 8

==================================================================================================
	Compact Vocabulary cleaning:
==================================================================================================
	Before : 9194
	After : 2808
# Parameters = 1378798
__________________________________________________________________________________________________
Layer (type)                    Output Shape         Param #     Connected to
==================================================================================================
input_10 (InputLayer)           (None, 4)            0
__________________________________________________________________________________________________
input_11 (InputLayer)           (None, 4)            0
__________________________________________________________________________________________________
embedding_7 (Embedding)         (None, 4, 387)       1086696     input_10[0][0]
__________________________________________________________________________________________________
embedding_8 (Embedding)         (None, 4, 48)        8112        input_11[0][0]
__________________________________________________________________________________________________
flatten_7 (Flatten)             (None, 1548)         0           embedding_7[0][0]
__________________________________________________________________________________________________
flatten_8 (Flatten)             (None, 192)          0           embedding_8[0][0]
__________________________________________________________________________________________________
input_12 (InputLayer)           (None, 8)            0
__________________________________________________________________________________________________
concatenate_4 (Concatenate)     (None, 1748)         0           flatten_7[0][0]
                                                                 flatten_8[0][0]
                                                                 input_12[0][0]
__________________________________________________________________________________________________
dense_7 (Dense)                 (None, 162)          283338      concatenate_4[0][0]
__________________________________________________________________________________________________
dropout_4 (Dropout)             (None, 162)          0           dense_7[0][0]
__________________________________________________________________________________________________
dense_8 (Dense)                 (None, 4)            652         dropout_4[0][0]
==================================================================================================
Total params: 1,378,798
Trainable params: 1,378,798
Non-trainable params: 0
__________________________________________________________________________________________________
None

__________________________________________________________________________________________________
…
	Recognizable MWEs: 100.0 %

==================================================================================================
	Compact Vocabulary cleaning:
==================================================================================================
	Before : 10506
	After : 3177
# Parameters = 1518721
__________________________________________________________________________________________________
Layer (type)                    Output Shape         Param #     Connected to
==================================================================================================
input_19 (InputLayer)           (None, 4)            0
__________________________________________________________________________________________________
input_20 (InputLayer)           (None, 4)            0
__________________________________________________________________________________________________
embedding_13 (Embedding)        (None, 4, 387)       1229499     input_19[0][0]
__________________________________________________________________________________________________
embedding_14 (Embedding)        (None, 4, 48)        5232        input_20[0][0]
__________________________________________________________________________________________________
flatten_13 (Flatten)            (None, 1548)         0           embedding_13[0][0]
__________________________________________________________________________________________________
flatten_14 (Flatten)            (None, 192)          0           embedding_14[0][0]
__________________________________________________________________________________________________
input_21 (InputLayer)           (None, 8)            0
__________________________________________________________________________________________________
concatenate_7 (Concatenate)     (None, 1748)         0           flatten_13[0][0]
                                                                 flatten_14[0][0]
                                                                 input_21[0][0]
__________________________________________________________________________________________________
dense_13 (Dense)                (None, 162)          283338      concatenate_7[0][0]
__________________________________________________________________________________________________
dropout_7 (Dropout)             (None, 162)          0           dense_13[0][0]
__________________________________________________________________________________________________
dense_14 (Dense)                (None, 4)            652         dropout_7[0][0]
==================================================================================================
Total params: 1,518,721
Trainable params: 1,518,721
Non-trainable params: 0
__________________________________________________________________________________________________
None

__________________________________________________________________________________________________
…
	MWT occurrences: 1

==================================================================================================
	Compact Vocabulary cleaning:
==================================================================================================
	Before : 9312
	After : 2800
# Parameters = 878042
__________________________________________________________________________________________________
Layer (type)                    Output Shape         Param #     Connected to
==================================================================================================
input_28 (InputLayer)           (None, 4)            0
__________________________________________________________________________________________________
input_29 (InputLayer)           (None, 4)            0
__________________________________________________________________________________________________
embedding_19 (Embedding)        (None, 4, 229)       641200      input_28[0][0]
__________________________________________________________________________________________________
embedding_20 (Embedding)        (None, 4, 77)        11704       input_29[0][0]
__________________________________________________________________________________________________
flatten_19 (Flatten)            (None, 916)          0           embedding_19[0][0]
__________________________________________________________________________________________________
flatten_20 (Flatten)            (None, 308)          0           embedding_20[0][0]
__________________________________________________________________________________________________
input_30 (InputLayer)           (None, 8)            0
__________________________________________________________________________________________________
concatenate_10 (Concatenate)    (None, 1232)         0           flatten_19[0][0]
                                                                 flatten_20[0][0]
                                                                 input_30[0][0]
__________________________________________________________________________________________________
dense_19 (Dense)                (None, 182)          224406      concatenate_10[0][0]
__________________________________________________________________________________________________
dropout_10 (Dropout)            (None, 182)          0           dense_19[0][0]
__________________________________________________________________________________________________
dense_20 (Dense)                (None, 4)            732         dropout_10[0][0]
==================================================================================================
Total params: 878,042
Trainable params: 878,042
Non-trainable params: 0
__________________________________________________________________________________________________
None

__________________________________________________________________________________________________
…
	Interleaving occurrences: 8

==================================================================================================
	Compact Vocabulary cleaning:
==================================================================================================
	Before : 9194
	After : 2808
# Parameters = 881183
__________________________________________________________________________________________________
Layer (type)                    Output Shape         Param #     Connected to
==================================================================================================
input_37 (InputLayer)           (None, 4)            0
__________________________________________________________________________________________________
input_38 (InputLayer)           (None, 4)            0
__________________________________________________________________________________________________
embedding_25 (Embedding)        (None, 4, 229)       643032      input_37[0][0]
__________________________________________________________________________________________________
embedding_26 (Embedding)        (None, 4, 77)        13013       input_38[0][0]
__________________________________________________________________________________________________
flatten_25 (Flatten)            (None, 916)          0           embedding_25[0][0]
__________________________________________________________________________________________________
flatten_26 (Flatten)            (None, 308)          0           embedding_26[0][0]
__________________________________________________________________________________________________
input_39 (InputLayer)           (None, 8)            0
__________________________________________________________________________________________________
concatenate_13 (Concatenate)    (None, 1232)         0           flatten_25[0][0]
                                                                 flatten_26[0][0]
                                                                 input_39[0][0]
__________________________________________________________________________________________________
dense_25 (Dense)                (None, 182)          224406      concatenate_13[0][0]
__________________________________________________________________________________________________
dropout_13 (Dropout)            (None, 182)          0           dense_25[0][0]
__________________________________________________________________________________________________
dense_26 (Dense)                (None, 4)            732         dropout_13[0][0]
==================================================================================================
Total params: 881,183
Trainable params: 881,183
Non-trainable params: 0
__________________________________________________________________________________________________
None

__________________________________________________________________________________________________
…
	Recognizable MWEs: 100.0 %

==================================================================================================
	Compact Vocabulary cleaning:
==================================================================================================
	Before : 10506
	After : 3177
# Parameters = 961064
__________________________________________________________________________________________________
Layer (type)                    Output Shape         Param #     Connected to
==================================================================================================
input_46 (InputLayer)           (None, 4)            0
__________________________________________________________________________________________________
input_47 (InputLayer)           (None, 4)            0
__________________________________________________________________________________________________
embedding_31 (Embedding)        (None, 4, 229)       727533      input_46[0][0]
__________________________________________________________________________________________________
embedding_32 (Embedding)        (None, 4, 77)        8393        input_47[0][0]
__________________________________________________________________________________________________
flatten_31 (Flatten)            (None, 916)          0           embedding_31[0][0]
__________________________________________________________________________________________________
flatten_32 (Flatten)            (None, 308)          0           embedding_32[0][0]
__________________________________________________________________________________________________
input_48 (InputLayer)           (None, 8)            0
__________________________________________________________________________________________________
concatenate_16 (Concatenate)    (None, 1232)         0           flatten_31[0][0]
                                                                 flatten_32[0][0]
                                                                 input_48[0][0]
__________________________________________________________________________________________________
dense_31 (Dense)                (None, 182)          224406      concatenate_16[0][0]
__________________________________________________________________________________________________
dropout_16 (Dropout)            (None, 182)          0           dense_31[0][0]
__________________________________________________________________________________________________
dense_32 (Dense)                (None, 4)            732         dropout_16[0][0]
==================================================================================================
Total params: 961,064
Trainable params: 961,064
Non-trainable params: 0
__________________________________________________________________________________________________
None

__________________________________________________________________________________________________
…
	MWT occurrences: 1

==================================================================================================
	Compact Vocabulary cleaning:
==================================================================================================
	Before : 9312
	After : 2800
# Parameters = 1150857
__________________________________________________________________________________________________
Layer (type)                    Output Shape         Param #     Connected to
==================================================================================================
input_55 (InputLayer)           (None, 4)            0
__________________________________________________________________________________________________
input_56 (InputLayer)           (None, 4)            0
__________________________________________________________________________________________________
embedding_37 (Embedding)        (None, 4, 389)       1089200     input_55[0][0]
__________________________________________________________________________________________________
embedding_38 (Embedding)        (None, 4, 89)        13528       input_56[0][0]
__________________________________________________________________________________________________
flatten_37 (Flatten)            (None, 1556)         0           embedding_37[0][0]
__________________________________________________________________________________________________
flatten_38 (Flatten)            (None, 356)          0           embedding_38[0][0]
__________________________________________________________________________________________________
input_57 (InputLayer)           (None, 8)            0
__________________________________________________________________________________________________
concatenate_19 (Concatenate)    (None, 1920)         0           flatten_37[0][0]
                                                                 flatten_38[0][0]
                                                                 input_57[0][0]
__________________________________________________________________________________________________
dense_37 (Dense)                (None, 25)           48025       concatenate_19[0][0]
__________________________________________________________________________________________________
dropout_19 (Dropout)            (None, 25)           0           dense_37[0][0]
__________________________________________________________________________________________________
dense_38 (Dense)                (None, 4)            104         dropout_19[0][0]
==================================================================================================
Total params: 1,150,857
Trainable params: 1,150,857
Non-trainable params: 0
__________________________________________________________________________________________________
None

__________________________________________________________________________________________________
…
	Interleaving occurrences: 8

==================================================================================================
	Compact Vocabulary cleaning:
==================================================================================================
	Before : 9194
	After : 2808
# Parameters = 1155482
__________________________________________________________________________________________________
Layer (type)                    Output Shape         Param #     Connected to
==================================================================================================
input_64 (InputLayer)           (None, 4)            0
__________________________________________________________________________________________________
input_65 (InputLayer)           (None, 4)            0
__________________________________________________________________________________________________
embedding_43 (Embedding)        (None, 4, 389)       1092312     input_64[0][0]
__________________________________________________________________________________________________
embedding_44 (Embedding)        (None, 4, 89)        15041       input_65[0][0]
__________________________________________________________________________________________________
flatten_43 (Flatten)            (None, 1556)         0           embedding_43[0][0]
__________________________________________________________________________________________________
flatten_44 (Flatten)            (None, 356)          0           embedding_44[0][0]
__________________________________________________________________________________________________
input_66 (InputLayer)           (None, 8)            0
__________________________________________________________________________________________________
concatenate_22 (Concatenate)    (None, 1920)         0           flatten_43[0][0]
                                                                 flatten_44[0][0]
                                                                 input_66[0][0]
__________________________________________________________________________________________________
dense_43 (Dense)                (None, 25)           48025       concatenate_22[0][0]
__________________________________________________________________________________________________
dropout_22 (Dropout)            (None, 25)           0           dense_43[0][0]
__________________________________________________________________________________________________
dense_44 (Dense)                (None, 4)            104         dropout_22[0][0]
==================================================================================================
Total params: 1,155,482
Trainable params: 1,155,482
Non-trainable params: 0
__________________________________________________________________________________________________
None

__________________________________________________________________________________________________
…
	Recognizable MWEs: 100.0 %

==================================================================================================
	Compact Vocabulary cleaning:
==================================================================================================
	Before : 10506
	After : 3177
# Parameters = 1293683
__________________________________________________________________________________________________
Layer (type)                    Output Shape         Param #     Connected to
==================================================================================================
input_73 (InputLayer)           (None, 4)            0
__________________________________________________________________________________________________
input_74 (InputLayer)           (None, 4)            0
__________________________________________________________________________________________________
embedding_49 (Embedding)        (None, 4, 389)       1235853     input_73[0][0]
__________________________________________________________________________________________________
embedding_50 (Embedding)        (None, 4, 89)        9701        input_74[0][0]
__________________________________________________________________________________________________
flatten_49 (Flatten)            (None, 1556)         0           embedding_49[0][0]
__________________________________________________________________________________________________
flatten_50 (Flatten)            (None, 356)          0           embedding_50[0][0]
__________________________________________________________________________________________________
input_75 (InputLayer)           (None, 8)            0
__________________________________________________________________________________________________
concatenate_25 (Concatenate)    (None, 1920)         0           flatten_49[0][0]
                                                                 flatten_50[0][0]
                                                                 input_75[0][0]
__________________________________________________________________________________________________
dense_49 (Dense)                (None, 25)           48025       concatenate_25[0][0]
__________________________________________________________________________________________________
dropout_25 (Dropout)            (None, 25)           0           dense_49[0][0]
__________________________________________________________________________________________________
dense_50 (Dense)                (None, 4)            104         dropout_25[0][0]
==================================================================================================
Total params: 1,293,683
Trainable params: 1,293,683
Non-trainable params: 0
__________________________________________________________________________________________________
None

__________________________________________________________________________________________________
…
	MWT occurrences: 1

==================================================================================================
	Non frequent word cleaning:
==================================================================================================
	Before : 9312
	After : 7545
# Parameters = 3240884
__________________________________________________________________________________________________
Layer (type)                    Output Shape         Param #     Connected to
==================================================================================================
input_82 (InputLayer)           (None, 4)            0
__________________________________________________________________________________________________
input_83 (InputLayer)           (None, 4)            0
__________________________________________________________________________________________________
embedding_55 (Embedding)        (None, 4, 411)       3100995     input_82[0][0]
__________________________________________________________________________________________________
embedding_56 (Embedding)        (None, 4, 98)        14896       input_83[0][0]
__________________________________________________________________________________________________
flatten_55 (Flatten)            (None, 1644)         0           embedding_55[0][0]
__________________________________________________________________________________________________
flatten_56 (Flatten)            (None, 392)          0           embedding_56[0][0]
__________________________________________________________________________________________________
input_84 (InputLayer)           (None, 8)            0
__________________________________________________________________________________________________
concatenate_28 (Concatenate)    (None, 2044)         0           flatten_55[0][0]
                                                                 flatten_56[0][0]
                                                                 input_84[0][0]
__________________________________________________________________________________________________
dense_55 (Dense)                (None, 61)           124745      concatenate_28[0][0]
__________________________________________________________________________________________________
dropout_28 (Dropout)            (None, 61)           0           dense_55[0][0]
__________________________________________________________________________________________________
dense_56 (Dense)                (None, 4)            248         dropout_28[0][0]
==================================================================================================
Total params: 3,240,884
Trainable params: 3,240,884
Non-trainable params: 0
__________________________________________________________________________________________________
None

__________________________________________________________________________________________________
…
	MWT occurrences: 1

==================================================================================================
	Non frequent word cleaning:
==================================================================================================
	Before : 9312
	After : 7540
# Parameters = 3238829
__________________________________________________________________________________________________
Layer (type)                    Output Shape         Param #     Connected to
==================================================================================================
input_85 (InputLayer)           (None, 4)            0
__________________________________________________________________________________________________
input_86 (InputLayer)           (None, 4)            0
__________________________________________________________________________________________________
embedding_57 (Embedding)        (None, 4, 411)       3098940     input_85[0][0]
__________________________________________________________________________________________________
embedding_58 (Embedding)        (None, 4, 98)        14896       input_86[0][0]
__________________________________________________________________________________________________
flatten_57 (Flatten)            (None, 1644)         0           embedding_57[0][0]
__________________________________________________________________________________________________
flatten_58 (Flatten)            (None, 392)          0           embedding_58[0][0]
__________________________________________________________________________________________________
input_87 (InputLayer)           (None, 8)            0
__________________________________________________________________________________________________
concatenate_29 (Concatenate)    (None, 2044)         0           flatten_57[0][0]
                                                                 flatten_58[0][0]
                                                                 input_87[0][0]
__________________________________________________________________________________________________
dense_57 (Dense)                (None, 61)           124745      concatenate_29[0][0]
__________________________________________________________________________________________________
dropout_29 (Dropout)            (None, 61)           0           dense_57[0][0]
__________________________________________________________________________________________________
dense_58 (Dense)                (None, 4)            248         dropout_29[0][0]
==================================================================================================
Total params: 3,238,829
Trainable params: 3,238,829
Non-trainable params: 0
__________________________________________________________________________________________________
None

__________________________________________________________________________________________________
…
	MWT occurrences: 1

==================================================================================================
	Non frequent word cleaning:
==================================================================================================
	Before : 9312
	After : 7508
# Parameters = 3225677
__________________________________________________________________________________________________
Layer (type)                    Output Shape         Param #     Connected to
==================================================================================================
input_88 (InputLayer)           (None, 4)            0
__________________________________________________________________________________________________
input_89 (InputLayer)           (None, 4)            0
__________________________________________________________________________________________________
embedding_59 (Embedding)        (None, 4, 411)       3085788     input_88[0][0]
__________________________________________________________________________________________________
embedding_60 (Embedding)        (None, 4, 98)        14896       input_89[0][0]
__________________________________________________________________________________________________
flatten_59 (Flatten)            (None, 1644)         0           embedding_59[0][0]
__________________________________________________________________________________________________
flatten_60 (Flatten)            (None, 392)          0           embedding_60[0][0]
__________________________________________________________________________________________________
input_90 (InputLayer)           (None, 8)            0
__________________________________________________________________________________________________
concatenate_30 (Concatenate)    (None, 2044)         0           flatten_59[0][0]
                                                                 flatten_60[0][0]
                                                                 input_90[0][0]
__________________________________________________________________________________________________
dense_59 (Dense)                (None, 61)           124745      concatenate_30[0][0]
__________________________________________________________________________________________________
dropout_30 (Dropout)            (None, 61)           0           dense_59[0][0]
__________________________________________________________________________________________________
dense_60 (Dense)                (None, 4)            248         dropout_30[0][0]
==================================================================================================
Total params: 3,225,677
Trainable params: 3,225,677
Non-trainable params: 0
__________________________________________________________________________________________________
None

__________________________________________________________________________________________________
…
	Interleaving occurrences: 8

==================================================================================================
	Non frequent word cleaning:
==================================================================================================
	Before : 9194
	After : 7172
# Parameters = 3089247
__________________________________________________________________________________________________
Layer (type)                    Output Shape         Param #     Connected to
==================================================================================================
input_91 (InputLayer)           (None, 4)            0
__________________________________________________________________________________________________
input_92 (InputLayer)           (None, 4)            0
__________________________________________________________________________________________________
embedding_61 (Embedding)        (None, 4, 411)       2947692     input_91[0][0]
__________________________________________________________________________________________________
embedding_62 (Embedding)        (None, 4, 98)        16562       input_92[0][0]
__________________________________________________________________________________________________
flatten_61 (Flatten)            (None, 1644)         0           embedding_61[0][0]
__________________________________________________________________________________________________
flatten_62 (Flatten)            (None, 392)          0           embedding_62[0][0]
__________________________________________________________________________________________________
input_93 (InputLayer)           (None, 8)            0
__________________________________________________________________________________________________
concatenate_31 (Concatenate)    (None, 2044)         0           flatten_61[0][0]
                                                                 flatten_62[0][0]
                                                                 input_93[0][0]
__________________________________________________________________________________________________
dense_61 (Dense)                (None, 61)           124745      concatenate_31[0][0]
__________________________________________________________________________________________________
dropout_31 (Dropout)            (None, 61)           0           dense_61[0][0]
__________________________________________________________________________________________________
dense_62 (Dense)                (None, 4)            248         dropout_31[0][0]
==================================================================================================
Total params: 3,089,247
Trainable params: 3,089,247
Non-trainable params: 0
__________________________________________________________________________________________________
None

__________________________________________________________________________________________________
…
	Interleaving occurrences: 8

==================================================================================================
	Non frequent word cleaning:
==================================================================================================
	Before : 9194
	After : 7200
# Parameters = 3100755
__________________________________________________________________________________________________
Layer (type)                    Output Shape         Param #     Connected to
==================================================================================================
input_94 (InputLayer)           (None, 4)            0
__________________________________________________________________________________________________
input_95 (InputLayer)           (None, 4)            0
__________________________________________________________________________________________________
embedding_63 (Embedding)        (None, 4, 411)       2959200     input_94[0][0]
__________________________________________________________________________________________________
embedding_64 (Embedding)        (None, 4, 98)        16562       input_95[0][0]
__________________________________________________________________________________________________
flatten_63 (Flatten)            (None, 1644)         0           embedding_63[0][0]
__________________________________________________________________________________________________
flatten_64 (Flatten)            (None, 392)          0           embedding_64[0][0]
__________________________________________________________________________________________________
input_96 (InputLayer)           (None, 8)            0
__________________________________________________________________________________________________
concatenate_32 (Concatenate)    (None, 2044)         0           flatten_63[0][0]
                                                                 flatten_64[0][0]
                                                                 input_96[0][0]
__________________________________________________________________________________________________
dense_63 (Dense)                (None, 61)           124745      concatenate_32[0][0]
__________________________________________________________________________________________________
dropout_32 (Dropout)            (None, 61)           0           dense_63[0][0]
__________________________________________________________________________________________________
dense_64 (Dense)                (None, 4)            248         dropout_32[0][0]
==================================================================================================
Total params: 3,100,755
Trainable params: 3,100,755
Non-trainable params: 0
__________________________________________________________________________________________________
None

__________________________________________________________________________________________________
…
	Interleaving occurrences: 8

==================================================================================================
	Non frequent word cleaning:
==================================================================================================
	Before : 9194
	After : 7208
# Parameters = 3104043
__________________________________________________________________________________________________
Layer (type)                    Output Shape         Param #     Connected to
==================================================================================================
input_97 (InputLayer)           (None, 4)            0
__________________________________________________________________________________________________
input_98 (InputLayer)           (None, 4)            0
__________________________________________________________________________________________________
embedding_65 (Embedding)        (None, 4, 411)       2962488     input_97[0][0]
__________________________________________________________________________________________________
embedding_66 (Embedding)        (None, 4, 98)        16562       input_98[0][0]
__________________________________________________________________________________________________
flatten_65 (Flatten)            (None, 1644)         0           embedding_65[0][0]
__________________________________________________________________________________________________
flatten_66 (Flatten)            (None, 392)          0           embedding_66[0][0]
__________________________________________________________________________________________________
input_99 (InputLayer)           (None, 8)            0
__________________________________________________________________________________________________
concatenate_33 (Concatenate)    (None, 2044)         0           flatten_65[0][0]
                                                                 flatten_66[0][0]
                                                                 input_99[0][0]
__________________________________________________________________________________________________
dense_65 (Dense)                (None, 61)           124745      concatenate_33[0][0]
__________________________________________________________________________________________________
dropout_33 (Dropout)            (None, 61)           0           dense_65[0][0]
__________________________________________________________________________________________________
dense_66 (Dense)                (None, 4)            248         dropout_33[0][0]
==================================================================================================
Total params: 3,104,043
Trainable params: 3,104,043
Non-trainable params: 0
__________________________________________________________________________________________________
None

__________________________________________________________________________________________________
…
	Recognizable MWEs: 100.0 %

==================================================================================================
	Non frequent word cleaning:
==================================================================================================
	Before : 10506
	After : 8666
# Parameters = 3697401
__________________________________________________________________________________________________
Layer (type)                    Output Shape         Param #     Connected to
==================================================================================================
input_100 (InputLayer)          (None, 4)            0
__________________________________________________________________________________________________
input_101 (InputLayer)          (None, 4)            0
__________________________________________________________________________________________________
embedding_67 (Embedding)        (None, 4, 411)       3561726     input_100[0][0]
__________________________________________________________________________________________________
embedding_68 (Embedding)        (None, 4, 98)        10682       input_101[0][0]
__________________________________________________________________________________________________
flatten_67 (Flatten)            (None, 1644)         0           embedding_67[0][0]
__________________________________________________________________________________________________
flatten_68 (Flatten)            (None, 392)          0           embedding_68[0][0]
__________________________________________________________________________________________________
input_102 (InputLayer)          (None, 8)            0
__________________________________________________________________________________________________
concatenate_34 (Concatenate)    (None, 2044)         0           flatten_67[0][0]
                                                                 flatten_68[0][0]
                                                                 input_102[0][0]
__________________________________________________________________________________________________
dense_67 (Dense)                (None, 61)           124745      concatenate_34[0][0]
__________________________________________________________________________________________________
dropout_34 (Dropout)            (None, 61)           0           dense_67[0][0]
__________________________________________________________________________________________________
dense_68 (Dense)                (None, 4)            248         dropout_34[0][0]
==================================================================================================
Total params: 3,697,401
Trainable params: 3,697,401
Non-trainable params: 0
__________________________________________________________________________________________________
None

__________________________________________________________________________________________________
…
	Recognizable MWEs: 100.0 %

==================================================================================================
	Non frequent word cleaning:
==================================================================================================
	Before : 10506
	After : 8733
# Parameters = 3724938
__________________________________________________________________________________________________
Layer (type)                    Output Shape         Param #     Connected to
==================================================================================================
input_103 (InputLayer)          (None, 4)            0
__________________________________________________________________________________________________
input_104 (InputLayer)          (None, 4)            0
__________________________________________________________________________________________________
embedding_69 (Embedding)        (None, 4, 411)       3589263     input_103[0][0]
__________________________________________________________________________________________________
embedding_70 (Embedding)        (None, 4, 98)        10682       input_104[0][0]
__________________________________________________________________________________________________
flatten_69 (Flatten)            (None, 1644)         0           embedding_69[0][0]
__________________________________________________________________________________________________
flatten_70 (Flatten)            (None, 392)          0           embedding_70[0][0]
__________________________________________________________________________________________________
input_105 (InputLayer)          (None, 8)            0
__________________________________________________________________________________________________
concatenate_35 (Concatenate)    (None, 2044)         0           flatten_69[0][0]
                                                                 flatten_70[0][0]
                                                                 input_105[0][0]
__________________________________________________________________________________________________
dense_69 (Dense)                (None, 61)           124745      concatenate_35[0][0]
__________________________________________________________________________________________________
dropout_35 (Dropout)            (None, 61)           0           dense_69[0][0]
__________________________________________________________________________________________________
dense_70 (Dense)                (None, 4)            248         dropout_35[0][0]
==================================================================================================
Total params: 3,724,938
Trainable params: 3,724,938
Non-trainable params: 0
__________________________________________________________________________________________________
None

__________________________________________________________________________________________________
…
	Recognizable MWEs: 100.0 %

==================================================================================================
	Non frequent word cleaning:
==================================================================================================
	Before : 10506
	After : 8741
# Parameters = 3728226
__________________________________________________________________________________________________
Layer (type)                    Output Shape         Param #     Connected to
==================================================================================================
input_106 (InputLayer)          (None, 4)            0
__________________________________________________________________________________________________
input_107 (InputLayer)          (None, 4)            0
__________________________________________________________________________________________________
embedding_71 (Embedding)        (None, 4, 411)       3592551     input_106[0][0]
__________________________________________________________________________________________________
embedding_72 (Embedding)        (None, 4, 98)        10682       input_107[0][0]
__________________________________________________________________________________________________
flatten_71 (Flatten)            (None, 1644)         0           embedding_71[0][0]
__________________________________________________________________________________________________
flatten_72 (Flatten)            (None, 392)          0           embedding_72[0][0]
__________________________________________________________________________________________________
input_108 (InputLayer)          (None, 8)            0
__________________________________________________________________________________________________
concatenate_36 (Concatenate)    (None, 2044)         0           flatten_71[0][0]
                                                                 flatten_72[0][0]
                                                                 input_108[0][0]
__________________________________________________________________________________________________
dense_71 (Dense)                (None, 61)           124745      concatenate_36[0][0]
__________________________________________________________________________________________________
dropout_36 (Dropout)            (None, 61)           0           dense_71[0][0]
__________________________________________________________________________________________________
dense_72 (Dense)                (None, 4)            248         dropout_36[0][0]
==================================================================================================
Total params: 3,728,226
Trainable params: 3,728,226
Non-trainable params: 0
__________________________________________________________________________________________________
None

__________________________________________________________________________________________________
…
	MWT occurrences: 1

==================================================================================================
	Non frequent word cleaning:
==================================================================================================
	Before : 9312
	After : 7545
# Parameters = 1472247
__________________________________________________________________________________________________
Layer (type)                    Output Shape         Param #     Connected to
==================================================================================================
input_109 (InputLayer)          (None, 4)            0
__________________________________________________________________________________________________
input_110 (InputLayer)          (None, 4)            0
__________________________________________________________________________________________________
embedding_73 (Embedding)        (None, 4, 187)       1410915     input_109[0][0]
__________________________________________________________________________________________________
embedding_74 (Embedding)        (None, 4, 99)        15048       input_110[0][0]
__________________________________________________________________________________________________
flatten_73 (Flatten)            (None, 748)          0           embedding_73[0][0]
__________________________________________________________________________________________________
flatten_74 (Flatten)            (None, 396)          0           embedding_74[0][0]
__________________________________________________________________________________________________
input_111 (InputLayer)          (None, 8)            0
__________________________________________________________________________________________________
concatenate_37 (Concatenate)    (None, 1152)         0           flatten_73[0][0]
                                                                 flatten_74[0][0]
                                                                 input_111[0][0]
__________________________________________________________________________________________________
dense_73 (Dense)                (None, 40)           46120       concatenate_37[0][0]
__________________________________________________________________________________________________
dropout_37 (Dropout)            (None, 40)           0           dense_73[0][0]
__________________________________________________________________________________________________
dense_74 (Dense)                (None, 4)            164         dropout_37[0][0]
==================================================================================================
Total params: 1,472,247
Trainable params: 1,472,247
Non-trainable params: 0
__________________________________________________________________________________________________
None

__________________________________________________________________________________________________
…
	MWT occurrences: 1

==================================================================================================
	Non frequent word cleaning:
==================================================================================================
	Before : 9312
	After : 7540
# Parameters = 1471312
__________________________________________________________________________________________________
Layer (type)                    Output Shape         Param #     Connected to
==================================================================================================
input_112 (InputLayer)          (None, 4)            0
__________________________________________________________________________________________________
input_113 (InputLayer)          (None, 4)            0
__________________________________________________________________________________________________
embedding_75 (Embedding)        (None, 4, 187)       1409980     input_112[0][0]
__________________________________________________________________________________________________
embedding_76 (Embedding)        (None, 4, 99)        15048       input_113[0][0]
__________________________________________________________________________________________________
flatten_75 (Flatten)            (None, 748)          0           embedding_75[0][0]
__________________________________________________________________________________________________
flatten_76 (Flatten)            (None, 396)          0           embedding_76[0][0]
__________________________________________________________________________________________________
input_114 (InputLayer)          (None, 8)            0
__________________________________________________________________________________________________
concatenate_38 (Concatenate)    (None, 1152)         0           flatten_75[0][0]
                                                                 flatten_76[0][0]
                                                                 input_114[0][0]
__________________________________________________________________________________________________
dense_75 (Dense)                (None, 40)           46120       concatenate_38[0][0]
__________________________________________________________________________________________________
dropout_38 (Dropout)            (None, 40)           0           dense_75[0][0]
__________________________________________________________________________________________________
dense_76 (Dense)                (None, 4)            164         dropout_38[0][0]
==================================================================================================
Total params: 1,471,312
Trainable params: 1,471,312
Non-trainable params: 0
__________________________________________________________________________________________________
None

__________________________________________________________________________________________________
…
	MWT occurrences: 1

==================================================================================================
	Non frequent word cleaning:
==================================================================================================
	Before : 9312
	After : 7508
# Parameters = 1465328
__________________________________________________________________________________________________
Layer (type)                    Output Shape         Param #     Connected to
==================================================================================================
input_115 (InputLayer)          (None, 4)            0
__________________________________________________________________________________________________
input_116 (InputLayer)          (None, 4)            0
__________________________________________________________________________________________________
embedding_77 (Embedding)        (None, 4, 187)       1403996     input_115[0][0]
__________________________________________________________________________________________________
embedding_78 (Embedding)        (None, 4, 99)        15048       input_116[0][0]
__________________________________________________________________________________________________
flatten_77 (Flatten)            (None, 748)          0           embedding_77[0][0]
__________________________________________________________________________________________________
flatten_78 (Flatten)            (None, 396)          0           embedding_78[0][0]
__________________________________________________________________________________________________
input_117 (InputLayer)          (None, 8)            0
__________________________________________________________________________________________________
concatenate_39 (Concatenate)    (None, 1152)         0           flatten_77[0][0]
                                                                 flatten_78[0][0]
                                                                 input_117[0][0]
__________________________________________________________________________________________________
dense_77 (Dense)                (None, 40)           46120       concatenate_39[0][0]
__________________________________________________________________________________________________
dropout_39 (Dropout)            (None, 40)           0           dense_77[0][0]
__________________________________________________________________________________________________
dense_78 (Dense)                (None, 4)            164         dropout_39[0][0]
==================================================================================================
Total params: 1,465,328
Trainable params: 1,465,328
Non-trainable params: 0
__________________________________________________________________________________________________
None

__________________________________________________________________________________________________
…
	Interleaving occurrences: 8

==================================================================================================
	Non frequent word cleaning:
==================================================================================================
	Before : 9194
	After : 7172
# Parameters = 1404179
__________________________________________________________________________________________________
Layer (type)                    Output Shape         Param #     Connected to
==================================================================================================
input_118 (InputLayer)          (None, 4)            0
__________________________________________________________________________________________________
input_119 (InputLayer)          (None, 4)            0
__________________________________________________________________________________________________
embedding_79 (Embedding)        (None, 4, 187)       1341164     input_118[0][0]
__________________________________________________________________________________________________
embedding_80 (Embedding)        (None, 4, 99)        16731       input_119[0][0]
__________________________________________________________________________________________________
flatten_79 (Flatten)            (None, 748)          0           embedding_79[0][0]
__________________________________________________________________________________________________
flatten_80 (Flatten)            (None, 396)          0           embedding_80[0][0]
__________________________________________________________________________________________________
input_120 (InputLayer)          (None, 8)            0
__________________________________________________________________________________________________
concatenate_40 (Concatenate)    (None, 1152)         0           flatten_79[0][0]
                                                                 flatten_80[0][0]
                                                                 input_120[0][0]
__________________________________________________________________________________________________
dense_79 (Dense)                (None, 40)           46120       concatenate_40[0][0]
__________________________________________________________________________________________________
dropout_40 (Dropout)            (None, 40)           0           dense_79[0][0]
__________________________________________________________________________________________________
dense_80 (Dense)                (None, 4)            164         dropout_40[0][0]
==================================================================================================
Total params: 1,404,179
Trainable params: 1,404,179
Non-trainable params: 0
__________________________________________________________________________________________________
None

__________________________________________________________________________________________________
…
	Interleaving occurrences: 8

==================================================================================================
	Non frequent word cleaning:
==================================================================================================
	Before : 9194
	After : 7200
# Parameters = 1409415
__________________________________________________________________________________________________
Layer (type)                    Output Shape         Param #     Connected to
==================================================================================================
input_121 (InputLayer)          (None, 4)            0
__________________________________________________________________________________________________
input_122 (InputLayer)          (None, 4)            0
__________________________________________________________________________________________________
embedding_81 (Embedding)        (None, 4, 187)       1346400     input_121[0][0]
__________________________________________________________________________________________________
embedding_82 (Embedding)        (None, 4, 99)        16731       input_122[0][0]
__________________________________________________________________________________________________
flatten_81 (Flatten)            (None, 748)          0           embedding_81[0][0]
__________________________________________________________________________________________________
flatten_82 (Flatten)            (None, 396)          0           embedding_82[0][0]
__________________________________________________________________________________________________
input_123 (InputLayer)          (None, 8)            0
__________________________________________________________________________________________________
concatenate_41 (Concatenate)    (None, 1152)         0           flatten_81[0][0]
                                                                 flatten_82[0][0]
                                                                 input_123[0][0]
__________________________________________________________________________________________________
dense_81 (Dense)                (None, 40)           46120       concatenate_41[0][0]
__________________________________________________________________________________________________
dropout_41 (Dropout)            (None, 40)           0           dense_81[0][0]
__________________________________________________________________________________________________
dense_82 (Dense)                (None, 4)            164         dropout_41[0][0]
==================================================================================================
Total params: 1,409,415
Trainable params: 1,409,415
Non-trainable params: 0
__________________________________________________________________________________________________
None

__________________________________________________________________________________________________
…
	Interleaving occurrences: 8

==================================================================================================
	Non frequent word cleaning:
==================================================================================================
	Before : 9194
	After : 7208
# Parameters = 1410911
__________________________________________________________________________________________________
Layer (type)                    Output Shape         Param #     Connected to
==================================================================================================
input_124 (InputLayer)          (None, 4)            0
__________________________________________________________________________________________________
input_125 (InputLayer)          (None, 4)            0
__________________________________________________________________________________________________
embedding_83 (Embedding)        (None, 4, 187)       1347896     input_124[0][0]
__________________________________________________________________________________________________
embedding_84 (Embedding)        (None, 4, 99)        16731       input_125[0][0]
__________________________________________________________________________________________________
flatten_83 (Flatten)            (None, 748)          0           embedding_83[0][0]
__________________________________________________________________________________________________
flatten_84 (Flatten)            (None, 396)          0           embedding_84[0][0]
__________________________________________________________________________________________________
input_126 (InputLayer)          (None, 8)            0
__________________________________________________________________________________________________
concatenate_42 (Concatenate)    (None, 1152)         0           flatten_83[0][0]
                                                                 flatten_84[0][0]
                                                                 input_126[0][0]
__________________________________________________________________________________________________
dense_83 (Dense)                (None, 40)           46120       concatenate_42[0][0]
__________________________________________________________________________________________________
dropout_42 (Dropout)            (None, 40)           0           dense_83[0][0]
__________________________________________________________________________________________________
dense_84 (Dense)                (None, 4)            164         dropout_42[0][0]
==================================================================================================
Total params: 1,410,911
Trainable params: 1,410,911
Non-trainable params: 0
__________________________________________________________________________________________________
None

__________________________________________________________________________________________________
…
	Recognizable MWEs: 100.0 %

==================================================================================================
	Non frequent word cleaning:
==================================================================================================
	Before : 10506
	After : 8666
# Parameters = 1677617
__________________________________________________________________________________________________
Layer (type)                    Output Shape         Param #     Connected to
==================================================================================================
input_127 (InputLayer)          (None, 4)            0
__________________________________________________________________________________________________
input_128 (InputLayer)          (None, 4)            0
__________________________________________________________________________________________________
embedding_85 (Embedding)        (None, 4, 187)       1620542     input_127[0][0]
__________________________________________________________________________________________________
embedding_86 (Embedding)        (None, 4, 99)        10791       input_128[0][0]
__________________________________________________________________________________________________
flatten_85 (Flatten)            (None, 748)          0           embedding_85[0][0]
__________________________________________________________________________________________________
flatten_86 (Flatten)            (None, 396)          0           embedding_86[0][0]
__________________________________________________________________________________________________
input_129 (InputLayer)          (None, 8)            0
__________________________________________________________________________________________________
concatenate_43 (Concatenate)    (None, 1152)         0           flatten_85[0][0]
                                                                 flatten_86[0][0]
                                                                 input_129[0][0]
__________________________________________________________________________________________________
dense_85 (Dense)                (None, 40)           46120       concatenate_43[0][0]
__________________________________________________________________________________________________
dropout_43 (Dropout)            (None, 40)           0           dense_85[0][0]
__________________________________________________________________________________________________
dense_86 (Dense)                (None, 4)            164         dropout_43[0][0]
==================================================================================================
Total params: 1,677,617
Trainable params: 1,677,617
Non-trainable params: 0
__________________________________________________________________________________________________
None

__________________________________________________________________________________________________
…
	Recognizable MWEs: 100.0 %

==================================================================================================
	Non frequent word cleaning:
==================================================================================================
	Before : 10506
	After : 8733
# Parameters = 1690146
__________________________________________________________________________________________________
Layer (type)                    Output Shape         Param #     Connected to
==================================================================================================
input_130 (InputLayer)          (None, 4)            0
__________________________________________________________________________________________________
input_131 (InputLayer)          (None, 4)            0
__________________________________________________________________________________________________
embedding_87 (Embedding)        (None, 4, 187)       1633071     input_130[0][0]
__________________________________________________________________________________________________
embedding_88 (Embedding)        (None, 4, 99)        10791       input_131[0][0]
__________________________________________________________________________________________________
flatten_87 (Flatten)            (None, 748)          0           embedding_87[0][0]
__________________________________________________________________________________________________
flatten_88 (Flatten)            (None, 396)          0           embedding_88[0][0]
__________________________________________________________________________________________________
input_132 (InputLayer)          (None, 8)            0
__________________________________________________________________________________________________
concatenate_44 (Concatenate)    (None, 1152)         0           flatten_87[0][0]
                                                                 flatten_88[0][0]
                                                                 input_132[0][0]
__________________________________________________________________________________________________
dense_87 (Dense)                (None, 40)           46120       concatenate_44[0][0]
__________________________________________________________________________________________________
dropout_44 (Dropout)            (None, 40)           0           dense_87[0][0]
__________________________________________________________________________________________________
dense_88 (Dense)                (None, 4)            164         dropout_44[0][0]
==================================================================================================
Total params: 1,690,146
Trainable params: 1,690,146
Non-trainable params: 0
__________________________________________________________________________________________________
None

__________________________________________________________________________________________________
…
	Recognizable MWEs: 100.0 %

==================================================================================================
	Non frequent word cleaning:
==================================================================================================
	Before : 10506
	After : 8741
# Parameters = 1691642
__________________________________________________________________________________________________
Layer (type)                    Output Shape         Param #     Connected to
==================================================================================================
input_133 (InputLayer)          (None, 4)            0
__________________________________________________________________________________________________
input_134 (InputLayer)          (None, 4)            0
__________________________________________________________________________________________________
embedding_89 (Embedding)        (None, 4, 187)       1634567     input_133[0][0]
__________________________________________________________________________________________________
embedding_90 (Embedding)        (None, 4, 99)        10791       input_134[0][0]
__________________________________________________________________________________________________
flatten_89 (Flatten)            (None, 748)          0           embedding_89[0][0]
__________________________________________________________________________________________________
flatten_90 (Flatten)            (None, 396)          0           embedding_90[0][0]
__________________________________________________________________________________________________
input_135 (InputLayer)          (None, 8)            0
__________________________________________________________________________________________________
concatenate_45 (Concatenate)    (None, 1152)         0           flatten_89[0][0]
                                                                 flatten_90[0][0]
                                                                 input_135[0][0]
__________________________________________________________________________________________________
dense_89 (Dense)                (None, 40)           46120       concatenate_45[0][0]
__________________________________________________________________________________________________
dropout_45 (Dropout)            (None, 40)           0           dense_89[0][0]
__________________________________________________________________________________________________
dense_90 (Dense)                (None, 4)            164         dropout_45[0][0]
==================================================================================================
Total params: 1,691,642
Trainable params: 1,691,642
Non-trainable params: 0
__________________________________________________________________________________________________
None

__________________________________________________________________________________________________
…
	MWT occurrences: 1

==================================================================================================
	Compact Vocabulary cleaning:
==================================================================================================
	Before : 9312
	After : 2800
# Parameters = 1188907
__________________________________________________________________________________________________
Layer (type)                    Output Shape         Param #     Connected to
==================================================================================================
input_136 (InputLayer)          (None, 4)            0
__________________________________________________________________________________________________
input_137 (InputLayer)          (None, 4)            0
__________________________________________________________________________________________________
embedding_91 (Embedding)        (None, 4, 382)       1069600     input_136[0][0]
__________________________________________________________________________________________________
embedding_92 (Embedding)        (None, 4, 55)        8360        input_137[0][0]
__________________________________________________________________________________________________
flatten_91 (Flatten)            (None, 1528)         0           embedding_91[0][0]
__________________________________________________________________________________________________
flatten_92 (Flatten)            (None, 220)          0           embedding_92[0][0]
__________________________________________________________________________________________________
input_138 (InputLayer)          (None, 8)            0
__________________________________________________________________________________________________
concatenate_46 (Concatenate)    (None, 1756)         0           flatten_91[0][0]
                                                                 flatten_92[0][0]
                                                                 input_138[0][0]
__________________________________________________________________________________________________
dense_91 (Dense)                (None, 63)           110691      concatenate_46[0][0]
__________________________________________________________________________________________________
dropout_46 (Dropout)            (None, 63)           0           dense_91[0][0]
__________________________________________________________________________________________________
dense_92 (Dense)                (None, 4)            256         dropout_46[0][0]
==================================================================================================
Total params: 1,188,907
Trainable params: 1,188,907
Non-trainable params: 0
__________________________________________________________________________________________________
None

__________________________________________________________________________________________________
…
	Interleaving occurrences: 8

==================================================================================================
	Compact Vocabulary cleaning:
==================================================================================================
	Before : 9194
	After : 2808
# Parameters = 1192898
__________________________________________________________________________________________________
Layer (type)                    Output Shape         Param #     Connected to
==================================================================================================
input_145 (InputLayer)          (None, 4)            0
__________________________________________________________________________________________________
input_146 (InputLayer)          (None, 4)            0
__________________________________________________________________________________________________
embedding_97 (Embedding)        (None, 4, 382)       1072656     input_145[0][0]
__________________________________________________________________________________________________
embedding_98 (Embedding)        (None, 4, 55)        9295        input_146[0][0]
__________________________________________________________________________________________________
flatten_97 (Flatten)            (None, 1528)         0           embedding_97[0][0]
__________________________________________________________________________________________________
flatten_98 (Flatten)            (None, 220)          0           embedding_98[0][0]
__________________________________________________________________________________________________
input_147 (InputLayer)          (None, 8)            0
__________________________________________________________________________________________________
concatenate_49 (Concatenate)    (None, 1756)         0           flatten_97[0][0]
                                                                 flatten_98[0][0]
                                                                 input_147[0][0]
__________________________________________________________________________________________________
dense_97 (Dense)                (None, 63)           110691      concatenate_49[0][0]
__________________________________________________________________________________________________
dropout_49 (Dropout)            (None, 63)           0           dense_97[0][0]
__________________________________________________________________________________________________
dense_98 (Dense)                (None, 4)            256         dropout_49[0][0]
==================================================================================================
Total params: 1,192,898
Trainable params: 1,192,898
Non-trainable params: 0
__________________________________________________________________________________________________
None

__________________________________________________________________________________________________
…
	Recognizable MWEs: 100.0 %

==================================================================================================
	Compact Vocabulary cleaning:
==================================================================================================
	Before : 10506
	After : 3177
# Parameters = 1330556
__________________________________________________________________________________________________
Layer (type)                    Output Shape         Param #     Connected to
==================================================================================================
input_154 (InputLayer)          (None, 4)            0
__________________________________________________________________________________________________
input_155 (InputLayer)          (None, 4)            0
__________________________________________________________________________________________________
embedding_103 (Embedding)       (None, 4, 382)       1213614     input_154[0][0]
__________________________________________________________________________________________________
embedding_104 (Embedding)       (None, 4, 55)        5995        input_155[0][0]
__________________________________________________________________________________________________
flatten_103 (Flatten)           (None, 1528)         0           embedding_103[0][0]
__________________________________________________________________________________________________
flatten_104 (Flatten)           (None, 220)          0           embedding_104[0][0]
__________________________________________________________________________________________________
input_156 (InputLayer)          (None, 8)            0
__________________________________________________________________________________________________
concatenate_52 (Concatenate)    (None, 1756)         0           flatten_103[0][0]
                                                                 flatten_104[0][0]
                                                                 input_156[0][0]
__________________________________________________________________________________________________
dense_103 (Dense)               (None, 63)           110691      concatenate_52[0][0]
__________________________________________________________________________________________________
dropout_52 (Dropout)            (None, 63)           0           dense_103[0][0]
__________________________________________________________________________________________________
dense_104 (Dense)               (None, 4)            256         dropout_52[0][0]
==================================================================================================
Total params: 1,330,556
Trainable params: 1,330,556
Non-trainable params: 0
__________________________________________________________________________________________________
None

__________________________________________________________________________________________________
…
	MWT occurrences: 1

==================================================================================================
	Non frequent word cleaning:
==================================================================================================
	Before : 9312
	After : 7545
# Parameters = 1904719
__________________________________________________________________________________________________
Layer (type)                    Output Shape         Param #     Connected to
==================================================================================================
input_163 (InputLayer)          (None, 4)            0
__________________________________________________________________________________________________
input_164 (InputLayer)          (None, 4)            0
__________________________________________________________________________________________________
embedding_109 (Embedding)       (None, 4, 239)       1803255     input_163[0][0]
__________________________________________________________________________________________________
embedding_110 (Embedding)       (None, 4, 61)        9272        input_164[0][0]
__________________________________________________________________________________________________
flatten_109 (Flatten)           (None, 956)          0           embedding_109[0][0]
__________________________________________________________________________________________________
flatten_110 (Flatten)           (None, 244)          0           embedding_110[0][0]
__________________________________________________________________________________________________
input_165 (InputLayer)          (None, 8)            0
__________________________________________________________________________________________________
concatenate_55 (Concatenate)    (None, 1208)         0           flatten_109[0][0]
                                                                 flatten_110[0][0]
                                                                 input_165[0][0]
__________________________________________________________________________________________________
dense_109 (Dense)               (None, 76)           91884       concatenate_55[0][0]
__________________________________________________________________________________________________
dropout_55 (Dropout)            (None, 76)           0           dense_109[0][0]
__________________________________________________________________________________________________
dense_110 (Dense)               (None, 4)            308         dropout_55[0][0]
==================================================================================================
Total params: 1,904,719
Trainable params: 1,904,719
Non-trainable params: 0
__________________________________________________________________________________________________
None

__________________________________________________________________________________________________
…
	MWT occurrences: 1

==================================================================================================
	Non frequent word cleaning:
==================================================================================================
	Before : 9312
	After : 7540
# Parameters = 1903524
__________________________________________________________________________________________________
Layer (type)                    Output Shape         Param #     Connected to
==================================================================================================
input_166 (InputLayer)          (None, 4)            0
__________________________________________________________________________________________________
input_167 (InputLayer)          (None, 4)            0
__________________________________________________________________________________________________
embedding_111 (Embedding)       (None, 4, 239)       1802060     input_166[0][0]
__________________________________________________________________________________________________
embedding_112 (Embedding)       (None, 4, 61)        9272        input_167[0][0]
__________________________________________________________________________________________________
flatten_111 (Flatten)           (None, 956)          0           embedding_111[0][0]
__________________________________________________________________________________________________
flatten_112 (Flatten)           (None, 244)          0           embedding_112[0][0]
__________________________________________________________________________________________________
input_168 (InputLayer)          (None, 8)            0
__________________________________________________________________________________________________
concatenate_56 (Concatenate)    (None, 1208)         0           flatten_111[0][0]
                                                                 flatten_112[0][0]
                                                                 input_168[0][0]
__________________________________________________________________________________________________
dense_111 (Dense)               (None, 76)           91884       concatenate_56[0][0]
__________________________________________________________________________________________________
dropout_56 (Dropout)            (None, 76)           0           dense_111[0][0]
__________________________________________________________________________________________________
dense_112 (Dense)               (None, 4)            308         dropout_56[0][0]
==================================================================================================
Total params: 1,903,524
Trainable params: 1,903,524
Non-trainable params: 0
__________________________________________________________________________________________________
None

__________________________________________________________________________________________________
…
	MWT occurrences: 1

==================================================================================================
	Non frequent word cleaning:
==================================================================================================
	Before : 9312
	After : 7508
# Parameters = 1895876
__________________________________________________________________________________________________
Layer (type)                    Output Shape         Param #     Connected to
==================================================================================================
input_169 (InputLayer)          (None, 4)            0
__________________________________________________________________________________________________
input_170 (InputLayer)          (None, 4)            0
__________________________________________________________________________________________________
embedding_113 (Embedding)       (None, 4, 239)       1794412     input_169[0][0]
__________________________________________________________________________________________________
embedding_114 (Embedding)       (None, 4, 61)        9272        input_170[0][0]
__________________________________________________________________________________________________
flatten_113 (Flatten)           (None, 956)          0           embedding_113[0][0]
__________________________________________________________________________________________________
flatten_114 (Flatten)           (None, 244)          0           embedding_114[0][0]
__________________________________________________________________________________________________
input_171 (InputLayer)          (None, 8)            0
__________________________________________________________________________________________________
concatenate_57 (Concatenate)    (None, 1208)         0           flatten_113[0][0]
                                                                 flatten_114[0][0]
                                                                 input_171[0][0]
__________________________________________________________________________________________________
dense_113 (Dense)               (None, 76)           91884       concatenate_57[0][0]
__________________________________________________________________________________________________
dropout_57 (Dropout)            (None, 76)           0           dense_113[0][0]
__________________________________________________________________________________________________
dense_114 (Dense)               (None, 4)            308         dropout_57[0][0]
==================================================================================================
Total params: 1,895,876
Trainable params: 1,895,876
Non-trainable params: 0
__________________________________________________________________________________________________
None

__________________________________________________________________________________________________
…
	Interleaving occurrences: 8

==================================================================================================
	Non frequent word cleaning:
==================================================================================================
	Before : 9194
	After : 7172
# Parameters = 1816609
__________________________________________________________________________________________________
Layer (type)                    Output Shape         Param #     Connected to
==================================================================================================
input_172 (InputLayer)          (None, 4)            0
__________________________________________________________________________________________________
input_173 (InputLayer)          (None, 4)            0
__________________________________________________________________________________________________
embedding_115 (Embedding)       (None, 4, 239)       1714108     input_172[0][0]
__________________________________________________________________________________________________
embedding_116 (Embedding)       (None, 4, 61)        10309       input_173[0][0]
__________________________________________________________________________________________________
flatten_115 (Flatten)           (None, 956)          0           embedding_115[0][0]
__________________________________________________________________________________________________
flatten_116 (Flatten)           (None, 244)          0           embedding_116[0][0]
__________________________________________________________________________________________________
input_174 (InputLayer)          (None, 8)            0
__________________________________________________________________________________________________
concatenate_58 (Concatenate)    (None, 1208)         0           flatten_115[0][0]
                                                                 flatten_116[0][0]
                                                                 input_174[0][0]
__________________________________________________________________________________________________
dense_115 (Dense)               (None, 76)           91884       concatenate_58[0][0]
__________________________________________________________________________________________________
dropout_58 (Dropout)            (None, 76)           0           dense_115[0][0]
__________________________________________________________________________________________________
dense_116 (Dense)               (None, 4)            308         dropout_58[0][0]
==================================================================================================
Total params: 1,816,609
Trainable params: 1,816,609
Non-trainable params: 0
__________________________________________________________________________________________________
None

__________________________________________________________________________________________________
…
	Interleaving occurrences: 8

==================================================================================================
	Non frequent word cleaning:
==================================================================================================
	Before : 9194
	After : 7200
# Parameters = 1823301
__________________________________________________________________________________________________
Layer (type)                    Output Shape         Param #     Connected to
==================================================================================================
input_175 (InputLayer)          (None, 4)            0
__________________________________________________________________________________________________
input_176 (InputLayer)          (None, 4)            0
__________________________________________________________________________________________________
embedding_117 (Embedding)       (None, 4, 239)       1720800     input_175[0][0]
__________________________________________________________________________________________________
embedding_118 (Embedding)       (None, 4, 61)        10309       input_176[0][0]
__________________________________________________________________________________________________
flatten_117 (Flatten)           (None, 956)          0           embedding_117[0][0]
__________________________________________________________________________________________________
flatten_118 (Flatten)           (None, 244)          0           embedding_118[0][0]
__________________________________________________________________________________________________
input_177 (InputLayer)          (None, 8)            0
__________________________________________________________________________________________________
concatenate_59 (Concatenate)    (None, 1208)         0           flatten_117[0][0]
                                                                 flatten_118[0][0]
                                                                 input_177[0][0]
__________________________________________________________________________________________________
dense_117 (Dense)               (None, 76)           91884       concatenate_59[0][0]
__________________________________________________________________________________________________
dropout_59 (Dropout)            (None, 76)           0           dense_117[0][0]
__________________________________________________________________________________________________
dense_118 (Dense)               (None, 4)            308         dropout_59[0][0]
==================================================================================================
Total params: 1,823,301
Trainable params: 1,823,301
Non-trainable params: 0
__________________________________________________________________________________________________
None

__________________________________________________________________________________________________
…
	Interleaving occurrences: 8

==================================================================================================
	Non frequent word cleaning:
==================================================================================================
	Before : 9194
	After : 7208
# Parameters = 1825213
__________________________________________________________________________________________________
Layer (type)                    Output Shape         Param #     Connected to
==================================================================================================
input_178 (InputLayer)          (None, 4)            0
__________________________________________________________________________________________________
input_179 (InputLayer)          (None, 4)            0
__________________________________________________________________________________________________
embedding_119 (Embedding)       (None, 4, 239)       1722712     input_178[0][0]
__________________________________________________________________________________________________
embedding_120 (Embedding)       (None, 4, 61)        10309       input_179[0][0]
__________________________________________________________________________________________________
flatten_119 (Flatten)           (None, 956)          0           embedding_119[0][0]
__________________________________________________________________________________________________
flatten_120 (Flatten)           (None, 244)          0           embedding_120[0][0]
__________________________________________________________________________________________________
input_180 (InputLayer)          (None, 8)            0
__________________________________________________________________________________________________
concatenate_60 (Concatenate)    (None, 1208)         0           flatten_119[0][0]
                                                                 flatten_120[0][0]
                                                                 input_180[0][0]
__________________________________________________________________________________________________
dense_119 (Dense)               (None, 76)           91884       concatenate_60[0][0]
__________________________________________________________________________________________________
dropout_60 (Dropout)            (None, 76)           0           dense_119[0][0]
__________________________________________________________________________________________________
dense_120 (Dense)               (None, 4)            308         dropout_60[0][0]
==================================================================================================
Total params: 1,825,213
Trainable params: 1,825,213
Non-trainable params: 0
__________________________________________________________________________________________________
None

__________________________________________________________________________________________________
…
	Recognizable MWEs: 100.0 %

==================================================================================================
	Non frequent word cleaning:
==================================================================================================
	Before : 10506
	After : 8666
# Parameters = 2170015
__________________________________________________________________________________________________
Layer (type)                    Output Shape         Param #     Connected to
==================================================================================================
input_181 (InputLayer)          (None, 4)            0
__________________________________________________________________________________________________
input_182 (InputLayer)          (None, 4)            0
__________________________________________________________________________________________________
embedding_121 (Embedding)       (None, 4, 239)       2071174     input_181[0][0]
__________________________________________________________________________________________________
embedding_122 (Embedding)       (None, 4, 61)        6649        input_182[0][0]
__________________________________________________________________________________________________
flatten_121 (Flatten)           (None, 956)          0           embedding_121[0][0]
__________________________________________________________________________________________________
flatten_122 (Flatten)           (None, 244)          0           embedding_122[0][0]
__________________________________________________________________________________________________
input_183 (InputLayer)          (None, 8)            0
__________________________________________________________________________________________________
concatenate_61 (Concatenate)    (None, 1208)         0           flatten_121[0][0]
                                                                 flatten_122[0][0]
                                                                 input_183[0][0]
__________________________________________________________________________________________________
dense_121 (Dense)               (None, 76)           91884       concatenate_61[0][0]
__________________________________________________________________________________________________
dropout_61 (Dropout)            (None, 76)           0           dense_121[0][0]
__________________________________________________________________________________________________
dense_122 (Dense)               (None, 4)            308         dropout_61[0][0]
==================================================================================================
Total params: 2,170,015
Trainable params: 2,170,015
Non-trainable params: 0
__________________________________________________________________________________________________
None

__________________________________________________________________________________________________
…
	Recognizable MWEs: 100.0 %

==================================================================================================
	Non frequent word cleaning:
==================================================================================================
	Before : 10506
	After : 8733
# Parameters = 2186028
__________________________________________________________________________________________________
Layer (type)                    Output Shape         Param #     Connected to
==================================================================================================
input_184 (InputLayer)          (None, 4)            0
__________________________________________________________________________________________________
input_185 (InputLayer)          (None, 4)            0
__________________________________________________________________________________________________
embedding_123 (Embedding)       (None, 4, 239)       2087187     input_184[0][0]
__________________________________________________________________________________________________
embedding_124 (Embedding)       (None, 4, 61)        6649        input_185[0][0]
__________________________________________________________________________________________________
flatten_123 (Flatten)           (None, 956)          0           embedding_123[0][0]
__________________________________________________________________________________________________
flatten_124 (Flatten)           (None, 244)          0           embedding_124[0][0]
__________________________________________________________________________________________________
input_186 (InputLayer)          (None, 8)            0
__________________________________________________________________________________________________
concatenate_62 (Concatenate)    (None, 1208)         0           flatten_123[0][0]
                                                                 flatten_124[0][0]
                                                                 input_186[0][0]
__________________________________________________________________________________________________
dense_123 (Dense)               (None, 76)           91884       concatenate_62[0][0]
__________________________________________________________________________________________________
dropout_62 (Dropout)            (None, 76)           0           dense_123[0][0]
__________________________________________________________________________________________________
dense_124 (Dense)               (None, 4)            308         dropout_62[0][0]
==================================================================================================
Total params: 2,186,028
Trainable params: 2,186,028
Non-trainable params: 0
__________________________________________________________________________________________________
None

__________________________________________________________________________________________________
…
	Recognizable MWEs: 100.0 %

==================================================================================================
	Non frequent word cleaning:
==================================================================================================
	Before : 10506
	After : 8741
# Parameters = 2187940
__________________________________________________________________________________________________
Layer (type)                    Output Shape         Param #     Connected to
==================================================================================================
input_187 (InputLayer)          (None, 4)            0
__________________________________________________________________________________________________
input_188 (InputLayer)          (None, 4)            0
__________________________________________________________________________________________________
embedding_125 (Embedding)       (None, 4, 239)       2089099     input_187[0][0]
__________________________________________________________________________________________________
embedding_126 (Embedding)       (None, 4, 61)        6649        input_188[0][0]
__________________________________________________________________________________________________
flatten_125 (Flatten)           (None, 956)          0           embedding_125[0][0]
__________________________________________________________________________________________________
flatten_126 (Flatten)           (None, 244)          0           embedding_126[0][0]
__________________________________________________________________________________________________
input_189 (InputLayer)          (None, 8)            0
__________________________________________________________________________________________________
concatenate_63 (Concatenate)    (None, 1208)         0           flatten_125[0][0]
                                                                 flatten_126[0][0]
                                                                 input_189[0][0]
__________________________________________________________________________________________________
dense_125 (Dense)               (None, 76)           91884       concatenate_63[0][0]
__________________________________________________________________________________________________
dropout_63 (Dropout)            (None, 76)           0           dense_125[0][0]
__________________________________________________________________________________________________
dense_126 (Dense)               (None, 4)            308         dropout_63[0][0]
==================================================================================================
Total params: 2,187,940
Trainable params: 2,187,940
Non-trainable params: 0
__________________________________________________________________________________________________
None

__________________________________________________________________________________________________
…
	MWT occurrences: 1

==================================================================================================
	Non frequent word cleaning:
==================================================================================================
	Before : 9312
	After : 7545
# Parameters = 2968924
__________________________________________________________________________________________________
Layer (type)                    Output Shape         Param #     Connected to
==================================================================================================
input_190 (InputLayer)          (None, 4)            0
__________________________________________________________________________________________________
input_191 (InputLayer)          (None, 4)            0
__________________________________________________________________________________________________
embedding_127 (Embedding)       (None, 4, 389)       2935005     input_190[0][0]
__________________________________________________________________________________________________
embedding_128 (Embedding)       (None, 4, 18)        2736        input_191[0][0]
__________________________________________________________________________________________________
flatten_127 (Flatten)           (None, 1556)         0           embedding_127[0][0]
__________________________________________________________________________________________________
flatten_128 (Flatten)           (None, 72)           0           embedding_128[0][0]
__________________________________________________________________________________________________
input_192 (InputLayer)          (None, 8)            0
__________________________________________________________________________________________________
concatenate_64 (Concatenate)    (None, 1636)         0           flatten_127[0][0]
                                                                 flatten_128[0][0]
                                                                 input_192[0][0]
__________________________________________________________________________________________________
dense_127 (Dense)               (None, 19)           31103       concatenate_64[0][0]
__________________________________________________________________________________________________
dropout_64 (Dropout)            (None, 19)           0           dense_127[0][0]
__________________________________________________________________________________________________
dense_128 (Dense)               (None, 4)            80          dropout_64[0][0]
==================================================================================================
Total params: 2,968,924
Trainable params: 2,968,924
Non-trainable params: 0
__________________________________________________________________________________________________
None

__________________________________________________________________________________________________
…
	MWT occurrences: 1

==================================================================================================
	Non frequent word cleaning:
==================================================================================================
	Before : 9312
	After : 7540
# Parameters = 2966979
__________________________________________________________________________________________________
Layer (type)                    Output Shape         Param #     Connected to
==================================================================================================
input_193 (InputLayer)          (None, 4)            0
__________________________________________________________________________________________________
input_194 (InputLayer)          (None, 4)            0
__________________________________________________________________________________________________
embedding_129 (Embedding)       (None, 4, 389)       2933060     input_193[0][0]
__________________________________________________________________________________________________
embedding_130 (Embedding)       (None, 4, 18)        2736        input_194[0][0]
__________________________________________________________________________________________________
flatten_129 (Flatten)           (None, 1556)         0           embedding_129[0][0]
__________________________________________________________________________________________________
flatten_130 (Flatten)           (None, 72)           0           embedding_130[0][0]
__________________________________________________________________________________________________
input_195 (InputLayer)          (None, 8)            0
__________________________________________________________________________________________________
concatenate_65 (Concatenate)    (None, 1636)         0           flatten_129[0][0]
                                                                 flatten_130[0][0]
                                                                 input_195[0][0]
__________________________________________________________________________________________________
dense_129 (Dense)               (None, 19)           31103       concatenate_65[0][0]
__________________________________________________________________________________________________
dropout_65 (Dropout)            (None, 19)           0           dense_129[0][0]
__________________________________________________________________________________________________
dense_130 (Dense)               (None, 4)            80          dropout_65[0][0]
==================================================================================================
Total params: 2,966,979
Trainable params: 2,966,979
Non-trainable params: 0
__________________________________________________________________________________________________
None

__________________________________________________________________________________________________
…
	MWT occurrences: 1

==================================================================================================
	Non frequent word cleaning:
==================================================================================================
	Before : 9312
	After : 7508
# Parameters = 2954531
__________________________________________________________________________________________________
Layer (type)                    Output Shape         Param #     Connected to
==================================================================================================
input_196 (InputLayer)          (None, 4)            0
__________________________________________________________________________________________________
input_197 (InputLayer)          (None, 4)            0
__________________________________________________________________________________________________
embedding_131 (Embedding)       (None, 4, 389)       2920612     input_196[0][0]
__________________________________________________________________________________________________
embedding_132 (Embedding)       (None, 4, 18)        2736        input_197[0][0]
__________________________________________________________________________________________________
flatten_131 (Flatten)           (None, 1556)         0           embedding_131[0][0]
__________________________________________________________________________________________________
flatten_132 (Flatten)           (None, 72)           0           embedding_132[0][0]
__________________________________________________________________________________________________
input_198 (InputLayer)          (None, 8)            0
__________________________________________________________________________________________________
concatenate_66 (Concatenate)    (None, 1636)         0           flatten_131[0][0]
                                                                 flatten_132[0][0]
                                                                 input_198[0][0]
__________________________________________________________________________________________________
dense_131 (Dense)               (None, 19)           31103       concatenate_66[0][0]
__________________________________________________________________________________________________
dropout_66 (Dropout)            (None, 19)           0           dense_131[0][0]
__________________________________________________________________________________________________
dense_132 (Dense)               (None, 4)            80          dropout_66[0][0]
==================================================================================================
Total params: 2,954,531
Trainable params: 2,954,531
Non-trainable params: 0
__________________________________________________________________________________________________
None

__________________________________________________________________________________________________
…
	Interleaving occurrences: 8

==================================================================================================
	Non frequent word cleaning:
==================================================================================================
	Before : 9194
	After : 7172
# Parameters = 2824133
__________________________________________________________________________________________________
Layer (type)                    Output Shape         Param #     Connected to
==================================================================================================
input_199 (InputLayer)          (None, 4)            0
__________________________________________________________________________________________________
input_200 (InputLayer)          (None, 4)            0
__________________________________________________________________________________________________
embedding_133 (Embedding)       (None, 4, 389)       2789908     input_199[0][0]
__________________________________________________________________________________________________
embedding_134 (Embedding)       (None, 4, 18)        3042        input_200[0][0]
__________________________________________________________________________________________________
flatten_133 (Flatten)           (None, 1556)         0           embedding_133[0][0]
__________________________________________________________________________________________________
flatten_134 (Flatten)           (None, 72)           0           embedding_134[0][0]
__________________________________________________________________________________________________
input_201 (InputLayer)          (None, 8)            0
__________________________________________________________________________________________________
concatenate_67 (Concatenate)    (None, 1636)         0           flatten_133[0][0]
                                                                 flatten_134[0][0]
                                                                 input_201[0][0]
__________________________________________________________________________________________________
dense_133 (Dense)               (None, 19)           31103       concatenate_67[0][0]
__________________________________________________________________________________________________
dropout_67 (Dropout)            (None, 19)           0           dense_133[0][0]
__________________________________________________________________________________________________
dense_134 (Dense)               (None, 4)            80          dropout_67[0][0]
==================================================================================================
Total params: 2,824,133
Trainable params: 2,824,133
Non-trainable params: 0
__________________________________________________________________________________________________
None

__________________________________________________________________________________________________
…
	Interleaving occurrences: 8

==================================================================================================
	Non frequent word cleaning:
==================================================================================================
	Before : 9194
	After : 7200
# Parameters = 2835025
__________________________________________________________________________________________________
Layer (type)                    Output Shape         Param #     Connected to
==================================================================================================
input_202 (InputLayer)          (None, 4)            0
__________________________________________________________________________________________________
input_203 (InputLayer)          (None, 4)            0
__________________________________________________________________________________________________
embedding_135 (Embedding)       (None, 4, 389)       2800800     input_202[0][0]
__________________________________________________________________________________________________
embedding_136 (Embedding)       (None, 4, 18)        3042        input_203[0][0]
__________________________________________________________________________________________________
flatten_135 (Flatten)           (None, 1556)         0           embedding_135[0][0]
__________________________________________________________________________________________________
flatten_136 (Flatten)           (None, 72)           0           embedding_136[0][0]
__________________________________________________________________________________________________
input_204 (InputLayer)          (None, 8)            0
__________________________________________________________________________________________________
concatenate_68 (Concatenate)    (None, 1636)         0           flatten_135[0][0]
                                                                 flatten_136[0][0]
                                                                 input_204[0][0]
__________________________________________________________________________________________________
dense_135 (Dense)               (None, 19)           31103       concatenate_68[0][0]
__________________________________________________________________________________________________
dropout_68 (Dropout)            (None, 19)           0           dense_135[0][0]
__________________________________________________________________________________________________
dense_136 (Dense)               (None, 4)            80          dropout_68[0][0]
==================================================================================================
Total params: 2,835,025
Trainable params: 2,835,025
Non-trainable params: 0
__________________________________________________________________________________________________
None

__________________________________________________________________________________________________
…
	Interleaving occurrences: 8

==================================================================================================
	Non frequent word cleaning:
==================================================================================================
	Before : 9194
	After : 7208
# Parameters = 2838137
__________________________________________________________________________________________________
Layer (type)                    Output Shape         Param #     Connected to
==================================================================================================
input_205 (InputLayer)          (None, 4)            0
__________________________________________________________________________________________________
input_206 (InputLayer)          (None, 4)            0
__________________________________________________________________________________________________
embedding_137 (Embedding)       (None, 4, 389)       2803912     input_205[0][0]
__________________________________________________________________________________________________
embedding_138 (Embedding)       (None, 4, 18)        3042        input_206[0][0]
__________________________________________________________________________________________________
flatten_137 (Flatten)           (None, 1556)         0           embedding_137[0][0]
__________________________________________________________________________________________________
flatten_138 (Flatten)           (None, 72)           0           embedding_138[0][0]
__________________________________________________________________________________________________
input_207 (InputLayer)          (None, 8)            0
__________________________________________________________________________________________________
concatenate_69 (Concatenate)    (None, 1636)         0           flatten_137[0][0]
                                                                 flatten_138[0][0]
                                                                 input_207[0][0]
__________________________________________________________________________________________________
dense_137 (Dense)               (None, 19)           31103       concatenate_69[0][0]
__________________________________________________________________________________________________
dropout_69 (Dropout)            (None, 19)           0           dense_137[0][0]
__________________________________________________________________________________________________
dense_138 (Dense)               (None, 4)            80          dropout_69[0][0]
==================================================================================================
Total params: 2,838,137
Trainable params: 2,838,137
Non-trainable params: 0
__________________________________________________________________________________________________
None

__________________________________________________________________________________________________
…
	Recognizable MWEs: 100.0 %

==================================================================================================
	Non frequent word cleaning:
==================================================================================================
	Before : 10506
	After : 8666
# Parameters = 3404219
__________________________________________________________________________________________________
Layer (type)                    Output Shape         Param #     Connected to
==================================================================================================
input_208 (InputLayer)          (None, 4)            0
__________________________________________________________________________________________________
input_209 (InputLayer)          (None, 4)            0
__________________________________________________________________________________________________
embedding_139 (Embedding)       (None, 4, 389)       3371074     input_208[0][0]
__________________________________________________________________________________________________
embedding_140 (Embedding)       (None, 4, 18)        1962        input_209[0][0]
__________________________________________________________________________________________________
flatten_139 (Flatten)           (None, 1556)         0           embedding_139[0][0]
__________________________________________________________________________________________________
flatten_140 (Flatten)           (None, 72)           0           embedding_140[0][0]
__________________________________________________________________________________________________
input_210 (InputLayer)          (None, 8)            0
__________________________________________________________________________________________________
concatenate_70 (Concatenate)    (None, 1636)         0           flatten_139[0][0]
                                                                 flatten_140[0][0]
                                                                 input_210[0][0]
__________________________________________________________________________________________________
dense_139 (Dense)               (None, 19)           31103       concatenate_70[0][0]
__________________________________________________________________________________________________
dropout_70 (Dropout)            (None, 19)           0           dense_139[0][0]
__________________________________________________________________________________________________
dense_140 (Dense)               (None, 4)            80          dropout_70[0][0]
==================================================================================================
Total params: 3,404,219
Trainable params: 3,404,219
Non-trainable params: 0
__________________________________________________________________________________________________
None

__________________________________________________________________________________________________
…
	Recognizable MWEs: 100.0 %

==================================================================================================
	Non frequent word cleaning:
==================================================================================================
	Before : 10506
	After : 8733
# Parameters = 3430282
__________________________________________________________________________________________________
Layer (type)                    Output Shape         Param #     Connected to
==================================================================================================
input_211 (InputLayer)          (None, 4)            0
__________________________________________________________________________________________________
input_212 (InputLayer)          (None, 4)            0
__________________________________________________________________________________________________
embedding_141 (Embedding)       (None, 4, 389)       3397137     input_211[0][0]
__________________________________________________________________________________________________
embedding_142 (Embedding)       (None, 4, 18)        1962        input_212[0][0]
__________________________________________________________________________________________________
flatten_141 (Flatten)           (None, 1556)         0           embedding_141[0][0]
__________________________________________________________________________________________________
flatten_142 (Flatten)           (None, 72)           0           embedding_142[0][0]
__________________________________________________________________________________________________
input_213 (InputLayer)          (None, 8)            0
__________________________________________________________________________________________________
concatenate_71 (Concatenate)    (None, 1636)         0           flatten_141[0][0]
                                                                 flatten_142[0][0]
                                                                 input_213[0][0]
__________________________________________________________________________________________________
dense_141 (Dense)               (None, 19)           31103       concatenate_71[0][0]
__________________________________________________________________________________________________
dropout_71 (Dropout)            (None, 19)           0           dense_141[0][0]
__________________________________________________________________________________________________
dense_142 (Dense)               (None, 4)            80          dropout_71[0][0]
==================================================================================================
Total params: 3,430,282
Trainable params: 3,430,282
Non-trainable params: 0
__________________________________________________________________________________________________
None

__________________________________________________________________________________________________
…
	Recognizable MWEs: 100.0 %

==================================================================================================
	Non frequent word cleaning:
==================================================================================================
	Before : 10506
	After : 8741
# Parameters = 3433394
__________________________________________________________________________________________________
Layer (type)                    Output Shape         Param #     Connected to
==================================================================================================
input_214 (InputLayer)          (None, 4)            0
__________________________________________________________________________________________________
input_215 (InputLayer)          (None, 4)            0
__________________________________________________________________________________________________
embedding_143 (Embedding)       (None, 4, 389)       3400249     input_214[0][0]
__________________________________________________________________________________________________
embedding_144 (Embedding)       (None, 4, 18)        1962        input_215[0][0]
__________________________________________________________________________________________________
flatten_143 (Flatten)           (None, 1556)         0           embedding_143[0][0]
__________________________________________________________________________________________________
flatten_144 (Flatten)           (None, 72)           0           embedding_144[0][0]
__________________________________________________________________________________________________
input_216 (InputLayer)          (None, 8)            0
__________________________________________________________________________________________________
concatenate_72 (Concatenate)    (None, 1636)         0           flatten_143[0][0]
                                                                 flatten_144[0][0]
                                                                 input_216[0][0]
__________________________________________________________________________________________________
dense_143 (Dense)               (None, 19)           31103       concatenate_72[0][0]
__________________________________________________________________________________________________
dropout_72 (Dropout)            (None, 19)           0           dense_143[0][0]
__________________________________________________________________________________________________
dense_144 (Dense)               (None, 4)            80          dropout_72[0][0]
==================================================================================================
Total params: 3,433,394
Trainable params: 3,433,394
Non-trainable params: 0
__________________________________________________________________________________________________
None

__________________________________________________________________________________________________
…
	MWT occurrences: 1

==================================================================================================
	Compact Vocabulary cleaning:
==================================================================================================
	Before : 9312
	After : 2800
# Parameters = 556248
__________________________________________________________________________________________________
Layer (type)                    Output Shape         Param #     Connected to
==================================================================================================
input_217 (InputLayer)          (None, 4)            0
__________________________________________________________________________________________________
input_218 (InputLayer)          (None, 4)            0
__________________________________________________________________________________________________
embedding_145 (Embedding)       (None, 4, 161)       450800      input_217[0][0]
__________________________________________________________________________________________________
embedding_146 (Embedding)       (None, 4, 72)        10944       input_218[0][0]
__________________________________________________________________________________________________
flatten_145 (Flatten)           (None, 644)          0           embedding_145[0][0]
__________________________________________________________________________________________________
flatten_146 (Flatten)           (None, 288)          0           embedding_146[0][0]
__________________________________________________________________________________________________
input_219 (InputLayer)          (None, 8)            0
__________________________________________________________________________________________________
concatenate_73 (Concatenate)    (None, 940)          0           flatten_145[0][0]
                                                                 flatten_146[0][0]
                                                                 input_219[0][0]
__________________________________________________________________________________________________
dense_145 (Dense)               (None, 100)          94100       concatenate_73[0][0]
__________________________________________________________________________________________________
dropout_73 (Dropout)            (None, 100)          0           dense_145[0][0]
__________________________________________________________________________________________________
dense_146 (Dense)               (None, 4)            404         dropout_73[0][0]
==================================================================================================
Total params: 556,248
Trainable params: 556,248
Non-trainable params: 0
__________________________________________________________________________________________________
None

__________________________________________________________________________________________________
…
	Interleaving occurrences: 8

==================================================================================================
	Compact Vocabulary cleaning:
==================================================================================================
	Before : 9194
	After : 2808
# Parameters = 558760
__________________________________________________________________________________________________
Layer (type)                    Output Shape         Param #     Connected to
==================================================================================================
input_226 (InputLayer)          (None, 4)            0
__________________________________________________________________________________________________
input_227 (InputLayer)          (None, 4)            0
__________________________________________________________________________________________________
embedding_151 (Embedding)       (None, 4, 161)       452088      input_226[0][0]
__________________________________________________________________________________________________
embedding_152 (Embedding)       (None, 4, 72)        12168       input_227[0][0]
__________________________________________________________________________________________________
flatten_151 (Flatten)           (None, 644)          0           embedding_151[0][0]
__________________________________________________________________________________________________
flatten_152 (Flatten)           (None, 288)          0           embedding_152[0][0]
__________________________________________________________________________________________________
input_228 (InputLayer)          (None, 8)            0
__________________________________________________________________________________________________
concatenate_76 (Concatenate)    (None, 940)          0           flatten_151[0][0]
                                                                 flatten_152[0][0]
                                                                 input_228[0][0]
__________________________________________________________________________________________________
dense_151 (Dense)               (None, 100)          94100       concatenate_76[0][0]
__________________________________________________________________________________________________
dropout_76 (Dropout)            (None, 100)          0           dense_151[0][0]
__________________________________________________________________________________________________
dense_152 (Dense)               (None, 4)            404         dropout_76[0][0]
==================================================================================================
Total params: 558,760
Trainable params: 558,760
Non-trainable params: 0
__________________________________________________________________________________________________
None

__________________________________________________________________________________________________
…
	Recognizable MWEs: 100.0 %

==================================================================================================
	Compact Vocabulary cleaning:
==================================================================================================
	Before : 10506
	After : 3177
# Parameters = 613849
__________________________________________________________________________________________________
Layer (type)                    Output Shape         Param #     Connected to
==================================================================================================
input_235 (InputLayer)          (None, 4)            0
__________________________________________________________________________________________________
input_236 (InputLayer)          (None, 4)            0
__________________________________________________________________________________________________
embedding_157 (Embedding)       (None, 4, 161)       511497      input_235[0][0]
__________________________________________________________________________________________________
embedding_158 (Embedding)       (None, 4, 72)        7848        input_236[0][0]
__________________________________________________________________________________________________
flatten_157 (Flatten)           (None, 644)          0           embedding_157[0][0]
__________________________________________________________________________________________________
flatten_158 (Flatten)           (None, 288)          0           embedding_158[0][0]
__________________________________________________________________________________________________
input_237 (InputLayer)          (None, 8)            0
__________________________________________________________________________________________________
concatenate_79 (Concatenate)    (None, 940)          0           flatten_157[0][0]
                                                                 flatten_158[0][0]
                                                                 input_237[0][0]
__________________________________________________________________________________________________
dense_157 (Dense)               (None, 100)          94100       concatenate_79[0][0]
__________________________________________________________________________________________________
dropout_79 (Dropout)            (None, 100)          0           dense_157[0][0]
__________________________________________________________________________________________________
dense_158 (Dense)               (None, 4)            404         dropout_79[0][0]
==================================================================================================
Total params: 613,849
Trainable params: 613,849
Non-trainable params: 0
__________________________________________________________________________________________________
None

…
__________________________________________________________________________________________________
Layer (type)                    Output Shape         Param #     Connected to
==================================================================================================
input_856 (InputLayer)          (None, 4)            0
__________________________________________________________________________________________________
input_857 (InputLayer)          (None, 4)            0
__________________________________________________________________________________________________
embedding_571 (Embedding)       (None, 4, 468)       4055688     input_856[0][0]
__________________________________________________________________________________________________
embedding_572 (Embedding)       (None, 4, 92)        10028       input_857[0][0]
__________________________________________________________________________________________________
flatten_571 (Flatten)           (None, 1872)         0           embedding_571[0][0]
__________________________________________________________________________________________________
flatten_572 (Flatten)           (None, 368)          0           embedding_572[0][0]
__________________________________________________________________________________________________
input_858 (InputLayer)          (None, 8)            0
__________________________________________________________________________________________________
concatenate_286 (Concatenate)   (None, 2248)         0           flatten_571[0][0]
                                                                 flatten_572[0][0]
                                                                 input_858[0][0]
__________________________________________________________________________________________________
dense_571 (Dense)               (None, 64)           143936      concatenate_286[0][0]
__________________________________________________________________________________________________
dropout_286 (Dropout)           (None, 64)           0           dense_571[0][0]
__________________________________________________________________________________________________
dense_572 (Dense)               (None, 4)            260         dropout_286[0][0]
==================================================================================================
Total params: 4,209,912
Trainable params: 4,209,912
Non-trainable params: 0
__________________________________________________________________________________________________
None

__________________________________________________________________________________________________
…
	Recognizable MWEs: 100.0 %

==================================================================================================
	Non frequent word cleaning:
==================================================================================================
	Before : 10506
	After : 8733
# Parameters = 4241268
__________________________________________________________________________________________________
Layer (type)                    Output Shape         Param #     Connected to
==================================================================================================
input_859 (InputLayer)          (None, 4)            0
__________________________________________________________________________________________________
input_860 (InputLayer)          (None, 4)            0
__________________________________________________________________________________________________
embedding_573 (Embedding)       (None, 4, 468)       4087044     input_859[0][0]
__________________________________________________________________________________________________
embedding_574 (Embedding)       (None, 4, 92)        10028       input_860[0][0]
__________________________________________________________________________________________________
flatten_573 (Flatten)           (None, 1872)         0           embedding_573[0][0]
__________________________________________________________________________________________________
flatten_574 (Flatten)           (None, 368)          0           embedding_574[0][0]
__________________________________________________________________________________________________
input_861 (InputLayer)          (None, 8)            0
__________________________________________________________________________________________________
concatenate_287 (Concatenate)   (None, 2248)         0           flatten_573[0][0]
                                                                 flatten_574[0][0]
                                                                 input_861[0][0]
__________________________________________________________________________________________________
dense_573 (Dense)               (None, 64)           143936      concatenate_287[0][0]
__________________________________________________________________________________________________
dropout_287 (Dropout)           (None, 64)           0           dense_573[0][0]
__________________________________________________________________________________________________
dense_574 (Dense)               (None, 4)            260         dropout_287[0][0]
==================================================================================================
Total params: 4,241,268
Trainable params: 4,241,268
Non-trainable params: 0
__________________________________________________________________________________________________
None

__________________________________________________________________________________________________
…
	Recognizable MWEs: 100.0 %

==================================================================================================
	Non frequent word cleaning:
==================================================================================================
	Before : 10506
	After : 8741
# Parameters = 4245012
__________________________________________________________________________________________________
Layer (type)                    Output Shape         Param #     Connected to
==================================================================================================
input_862 (InputLayer)          (None, 4)            0
__________________________________________________________________________________________________
input_863 (InputLayer)          (None, 4)            0
__________________________________________________________________________________________________
embedding_575 (Embedding)       (None, 4, 468)       4090788     input_862[0][0]
__________________________________________________________________________________________________
embedding_576 (Embedding)       (None, 4, 92)        10028       input_863[0][0]
__________________________________________________________________________________________________
flatten_575 (Flatten)           (None, 1872)         0           embedding_575[0][0]
__________________________________________________________________________________________________
flatten_576 (Flatten)           (None, 368)          0           embedding_576[0][0]
__________________________________________________________________________________________________
input_864 (InputLayer)          (None, 8)            0
__________________________________________________________________________________________________
concatenate_288 (Concatenate)   (None, 2248)         0           flatten_575[0][0]
                                                                 flatten_576[0][0]
                                                                 input_864[0][0]
__________________________________________________________________________________________________
dense_575 (Dense)               (None, 64)           143936      concatenate_288[0][0]
__________________________________________________________________________________________________
dropout_288 (Dropout)           (None, 64)           0           dense_575[0][0]
__________________________________________________________________________________________________
dense_576 (Dense)               (None, 4)            260         dropout_288[0][0]
==================================================================================================
Total params: 4,245,012
Trainable params: 4,245,012
Non-trainable params: 0
__________________________________________________________________________________________________
None

__________________________________________________________________________________________________
…
	MWT occurrences: 1

==================================================================================================
	Non frequent word cleaning:
==================================================================================================
	Before : 9312
	After : 7545
# Parameters = 1630770
__________________________________________________________________________________________________
Layer (type)                    Output Shape         Param #     Connected to
==================================================================================================
input_865 (InputLayer)          (None, 4)            0
__________________________________________________________________________________________________
input_866 (InputLayer)          (None, 4)            0
__________________________________________________________________________________________________
embedding_577 (Embedding)       (None, 4, 195)       1471275     input_865[0][0]
__________________________________________________________________________________________________
embedding_578 (Embedding)       (None, 4, 58)        8816        input_866[0][0]
__________________________________________________________________________________________________
flatten_577 (Flatten)           (None, 780)          0           embedding_577[0][0]
__________________________________________________________________________________________________
flatten_578 (Flatten)           (None, 232)          0           embedding_578[0][0]
__________________________________________________________________________________________________
input_867 (InputLayer)          (None, 8)            0
__________________________________________________________________________________________________
concatenate_289 (Concatenate)   (None, 1020)         0           flatten_577[0][0]
                                                                 flatten_578[0][0]
                                                                 input_867[0][0]
__________________________________________________________________________________________________
dense_577 (Dense)               (None, 147)          150087      concatenate_289[0][0]
__________________________________________________________________________________________________
dropout_289 (Dropout)           (None, 147)          0           dense_577[0][0]
__________________________________________________________________________________________________
dense_578 (Dense)               (None, 4)            592         dropout_289[0][0]
==================================================================================================
Total params: 1,630,770
Trainable params: 1,630,770
Non-trainable params: 0
__________________________________________________________________________________________________
None

__________________________________________________________________________________________________
…
	MWT occurrences: 1

==================================================================================================
	Non frequent word cleaning:
==================================================================================================
	Before : 9312
	After : 7540
# Parameters = 1629795
__________________________________________________________________________________________________
Layer (type)                    Output Shape         Param #     Connected to
==================================================================================================
input_868 (InputLayer)          (None, 4)            0
__________________________________________________________________________________________________
input_869 (InputLayer)          (None, 4)            0
__________________________________________________________________________________________________
embedding_579 (Embedding)       (None, 4, 195)       1470300     input_868[0][0]
__________________________________________________________________________________________________
embedding_580 (Embedding)       (None, 4, 58)        8816        input_869[0][0]
__________________________________________________________________________________________________
flatten_579 (Flatten)           (None, 780)          0           embedding_579[0][0]
__________________________________________________________________________________________________
flatten_580 (Flatten)           (None, 232)          0           embedding_580[0][0]
__________________________________________________________________________________________________
input_870 (InputLayer)          (None, 8)            0
__________________________________________________________________________________________________
concatenate_290 (Concatenate)   (None, 1020)         0           flatten_579[0][0]
                                                                 flatten_580[0][0]
                                                                 input_870[0][0]
__________________________________________________________________________________________________
dense_579 (Dense)               (None, 147)          150087      concatenate_290[0][0]
__________________________________________________________________________________________________
dropout_290 (Dropout)           (None, 147)          0           dense_579[0][0]
__________________________________________________________________________________________________
dense_580 (Dense)               (None, 4)            592         dropout_290[0][0]
==================================================================================================
Total params: 1,629,795
Trainable params: 1,629,795
Non-trainable params: 0
__________________________________________________________________________________________________
None

__________________________________________________________________________________________________
…
	MWT occurrences: 1

==================================================================================================
	Non frequent word cleaning:
==================================================================================================
	Before : 9312
	After : 7508
# Parameters = 1623555
__________________________________________________________________________________________________
Layer (type)                    Output Shape         Param #     Connected to
==================================================================================================
input_871 (InputLayer)          (None, 4)            0
__________________________________________________________________________________________________
input_872 (InputLayer)          (None, 4)            0
__________________________________________________________________________________________________
embedding_581 (Embedding)       (None, 4, 195)       1464060     input_871[0][0]
__________________________________________________________________________________________________
embedding_582 (Embedding)       (None, 4, 58)        8816        input_872[0][0]
__________________________________________________________________________________________________
flatten_581 (Flatten)           (None, 780)          0           embedding_581[0][0]
__________________________________________________________________________________________________
flatten_582 (Flatten)           (None, 232)          0           embedding_582[0][0]
__________________________________________________________________________________________________
input_873 (InputLayer)          (None, 8)            0
__________________________________________________________________________________________________
concatenate_291 (Concatenate)   (None, 1020)         0           flatten_581[0][0]
                                                                 flatten_582[0][0]
                                                                 input_873[0][0]
__________________________________________________________________________________________________
dense_581 (Dense)               (None, 147)          150087      concatenate_291[0][0]
__________________________________________________________________________________________________
dropout_291 (Dropout)           (None, 147)          0           dense_581[0][0]
__________________________________________________________________________________________________
dense_582 (Dense)               (None, 4)            592         dropout_291[0][0]
==================================================================================================
Total params: 1,623,555
Trainable params: 1,623,555
Non-trainable params: 0
__________________________________________________________________________________________________
None

__________________________________________________________________________________________________
…
	Interleaving occurrences: 8

==================================================================================================
	Non frequent word cleaning:
==================================================================================================
	Before : 9194
	After : 7172
# Parameters = 1559021
__________________________________________________________________________________________________
Layer (type)                    Output Shape         Param #     Connected to
==================================================================================================
input_874 (InputLayer)          (None, 4)            0
__________________________________________________________________________________________________
input_875 (InputLayer)          (None, 4)            0
__________________________________________________________________________________________________
embedding_583 (Embedding)       (None, 4, 195)       1398540     input_874[0][0]
__________________________________________________________________________________________________
embedding_584 (Embedding)       (None, 4, 58)        9802        input_875[0][0]
__________________________________________________________________________________________________
flatten_583 (Flatten)           (None, 780)          0           embedding_583[0][0]
__________________________________________________________________________________________________
flatten_584 (Flatten)           (None, 232)          0           embedding_584[0][0]
__________________________________________________________________________________________________
input_876 (InputLayer)          (None, 8)            0
__________________________________________________________________________________________________
concatenate_292 (Concatenate)   (None, 1020)         0           flatten_583[0][0]
                                                                 flatten_584[0][0]
                                                                 input_876[0][0]
__________________________________________________________________________________________________
dense_583 (Dense)               (None, 147)          150087      concatenate_292[0][0]
__________________________________________________________________________________________________
dropout_292 (Dropout)           (None, 147)          0           dense_583[0][0]
__________________________________________________________________________________________________
dense_584 (Dense)               (None, 4)            592         dropout_292[0][0]
==================================================================================================
Total params: 1,559,021
Trainable params: 1,559,021
Non-trainable params: 0
__________________________________________________________________________________________________
None

__________________________________________________________________________________________________
…
	Interleaving occurrences: 8

==================================================================================================
	Non frequent word cleaning:
==================================================================================================
	Before : 9194
	After : 7200
# Parameters = 1564481
__________________________________________________________________________________________________
Layer (type)                    Output Shape         Param #     Connected to
==================================================================================================
input_877 (InputLayer)          (None, 4)            0
__________________________________________________________________________________________________
input_878 (InputLayer)          (None, 4)            0
__________________________________________________________________________________________________
embedding_585 (Embedding)       (None, 4, 195)       1404000     input_877[0][0]
__________________________________________________________________________________________________
embedding_586 (Embedding)       (None, 4, 58)        9802        input_878[0][0]
__________________________________________________________________________________________________
flatten_585 (Flatten)           (None, 780)          0           embedding_585[0][0]
__________________________________________________________________________________________________
flatten_586 (Flatten)           (None, 232)          0           embedding_586[0][0]
__________________________________________________________________________________________________
input_879 (InputLayer)          (None, 8)            0
__________________________________________________________________________________________________
concatenate_293 (Concatenate)   (None, 1020)         0           flatten_585[0][0]
                                                                 flatten_586[0][0]
                                                                 input_879[0][0]
__________________________________________________________________________________________________
dense_585 (Dense)               (None, 147)          150087      concatenate_293[0][0]
__________________________________________________________________________________________________
dropout_293 (Dropout)           (None, 147)          0           dense_585[0][0]
__________________________________________________________________________________________________
dense_586 (Dense)               (None, 4)            592         dropout_293[0][0]
==================================================================================================
Total params: 1,564,481
Trainable params: 1,564,481
Non-trainable params: 0
__________________________________________________________________________________________________
None

__________________________________________________________________________________________________
…
	Interleaving occurrences: 8

==================================================================================================
	Non frequent word cleaning:
==================================================================================================
	Before : 9194
	After : 7208
# Parameters = 1566041
__________________________________________________________________________________________________
Layer (type)                    Output Shape         Param #     Connected to
==================================================================================================
input_880 (InputLayer)          (None, 4)            0
__________________________________________________________________________________________________
input_881 (InputLayer)          (None, 4)            0
__________________________________________________________________________________________________
embedding_587 (Embedding)       (None, 4, 195)       1405560     input_880[0][0]
__________________________________________________________________________________________________
embedding_588 (Embedding)       (None, 4, 58)        9802        input_881[0][0]
__________________________________________________________________________________________________
flatten_587 (Flatten)           (None, 780)          0           embedding_587[0][0]
__________________________________________________________________________________________________
flatten_588 (Flatten)           (None, 232)          0           embedding_588[0][0]
__________________________________________________________________________________________________
input_882 (InputLayer)          (None, 8)            0
__________________________________________________________________________________________________
concatenate_294 (Concatenate)   (None, 1020)         0           flatten_587[0][0]
                                                                 flatten_588[0][0]
                                                                 input_882[0][0]
__________________________________________________________________________________________________
dense_587 (Dense)               (None, 147)          150087      concatenate_294[0][0]
__________________________________________________________________________________________________
dropout_294 (Dropout)           (None, 147)          0           dense_587[0][0]
__________________________________________________________________________________________________
dense_588 (Dense)               (None, 4)            592         dropout_294[0][0]
==================================================================================================
Total params: 1,566,041
Trainable params: 1,566,041
Non-trainable params: 0
__________________________________________________________________________________________________
None

__________________________________________________________________________________________________
…
	Recognizable MWEs: 100.0 %

==================================================================================================
	Non frequent word cleaning:
==================================================================================================
	Before : 10506
	After : 8666
# Parameters = 1846871
__________________________________________________________________________________________________
Layer (type)                    Output Shape         Param #     Connected to
==================================================================================================
input_883 (InputLayer)          (None, 4)            0
__________________________________________________________________________________________________
input_884 (InputLayer)          (None, 4)            0
__________________________________________________________________________________________________
embedding_589 (Embedding)       (None, 4, 195)       1689870     input_883[0][0]
__________________________________________________________________________________________________
embedding_590 (Embedding)       (None, 4, 58)        6322        input_884[0][0]
__________________________________________________________________________________________________
flatten_589 (Flatten)           (None, 780)          0           embedding_589[0][0]
__________________________________________________________________________________________________
flatten_590 (Flatten)           (None, 232)          0           embedding_590[0][0]
__________________________________________________________________________________________________
input_885 (InputLayer)          (None, 8)            0
__________________________________________________________________________________________________
concatenate_295 (Concatenate)   (None, 1020)         0           flatten_589[0][0]
                                                                 flatten_590[0][0]
                                                                 input_885[0][0]
__________________________________________________________________________________________________
dense_589 (Dense)               (None, 147)          150087      concatenate_295[0][0]
__________________________________________________________________________________________________
dropout_295 (Dropout)           (None, 147)          0           dense_589[0][0]
__________________________________________________________________________________________________
dense_590 (Dense)               (None, 4)            592         dropout_295[0][0]
==================================================================================================
Total params: 1,846,871
Trainable params: 1,846,871
Non-trainable params: 0
__________________________________________________________________________________________________
None

__________________________________________________________________________________________________
…
	Recognizable MWEs: 100.0 %

==================================================================================================
	Non frequent word cleaning:
==================================================================================================
	Before : 10506
	After : 8733
# Parameters = 1859936
__________________________________________________________________________________________________
Layer (type)                    Output Shape         Param #     Connected to
==================================================================================================
input_886 (InputLayer)          (None, 4)            0
__________________________________________________________________________________________________
input_887 (InputLayer)          (None, 4)            0
__________________________________________________________________________________________________
embedding_591 (Embedding)       (None, 4, 195)       1702935     input_886[0][0]
__________________________________________________________________________________________________
embedding_592 (Embedding)       (None, 4, 58)        6322        input_887[0][0]
__________________________________________________________________________________________________
flatten_591 (Flatten)           (None, 780)          0           embedding_591[0][0]
__________________________________________________________________________________________________
flatten_592 (Flatten)           (None, 232)          0           embedding_592[0][0]
__________________________________________________________________________________________________
input_888 (InputLayer)          (None, 8)            0
__________________________________________________________________________________________________
concatenate_296 (Concatenate)   (None, 1020)         0           flatten_591[0][0]
                                                                 flatten_592[0][0]
                                                                 input_888[0][0]
__________________________________________________________________________________________________
dense_591 (Dense)               (None, 147)          150087      concatenate_296[0][0]
__________________________________________________________________________________________________
dropout_296 (Dropout)           (None, 147)          0           dense_591[0][0]
__________________________________________________________________________________________________
dense_592 (Dense)               (None, 4)            592         dropout_296[0][0]
==================================================================================================
Total params: 1,859,936
Trainable params: 1,859,936
Non-trainable params: 0
__________________________________________________________________________________________________
None

__________________________________________________________________________________________________
…
	Recognizable MWEs: 100.0 %

==================================================================================================
	Non frequent word cleaning:
==================================================================================================
	Before : 10506
	After : 8741
# Parameters = 1861496
__________________________________________________________________________________________________
Layer (type)                    Output Shape         Param #     Connected to
==================================================================================================
input_889 (InputLayer)          (None, 4)            0
__________________________________________________________________________________________________
input_890 (InputLayer)          (None, 4)            0
__________________________________________________________________________________________________
embedding_593 (Embedding)       (None, 4, 195)       1704495     input_889[0][0]
__________________________________________________________________________________________________
embedding_594 (Embedding)       (None, 4, 58)        6322        input_890[0][0]
__________________________________________________________________________________________________
flatten_593 (Flatten)           (None, 780)          0           embedding_593[0][0]
__________________________________________________________________________________________________
flatten_594 (Flatten)           (None, 232)          0           embedding_594[0][0]
__________________________________________________________________________________________________
input_891 (InputLayer)          (None, 8)            0
__________________________________________________________________________________________________
concatenate_297 (Concatenate)   (None, 1020)         0           flatten_593[0][0]
                                                                 flatten_594[0][0]
                                                                 input_891[0][0]
__________________________________________________________________________________________________
dense_593 (Dense)               (None, 147)          150087      concatenate_297[0][0]
__________________________________________________________________________________________________
dropout_297 (Dropout)           (None, 147)          0           dense_593[0][0]
__________________________________________________________________________________________________
dense_594 (Dense)               (None, 4)            592         dropout_297[0][0]
==================================================================================================
Total params: 1,861,496
Trainable params: 1,861,496
Non-trainable params: 0
__________________________________________________________________________________________________
None

__________________________________________________________________________________________________
…
	MWT occurrences: 1

==================================================================================================
	Compact Vocabulary cleaning:
==================================================================================================
	Before : 9312
	After : 2800
# Parameters = 667478
__________________________________________________________________________________________________
Layer (type)                    Output Shape         Param #     Connected to
==================================================================================================
input_892 (InputLayer)          (None, 4)            0
__________________________________________________________________________________________________
input_893 (InputLayer)          (None, 4)            0
__________________________________________________________________________________________________
embedding_595 (Embedding)       (None, 4, 231)       646800      input_892[0][0]
__________________________________________________________________________________________________
embedding_596 (Embedding)       (None, 4, 17)        2584        input_893[0][0]
__________________________________________________________________________________________________
flatten_595 (Flatten)           (None, 924)          0           embedding_595[0][0]
__________________________________________________________________________________________________
flatten_596 (Flatten)           (None, 68)           0           embedding_596[0][0]
__________________________________________________________________________________________________
input_894 (InputLayer)          (None, 8)            0
__________________________________________________________________________________________________
concatenate_298 (Concatenate)   (None, 1000)         0           flatten_595[0][0]
                                                                 flatten_596[0][0]
                                                                 input_894[0][0]
__________________________________________________________________________________________________
dense_595 (Dense)               (None, 18)           18018       concatenate_298[0][0]
__________________________________________________________________________________________________
dropout_298 (Dropout)           (None, 18)           0           dense_595[0][0]
__________________________________________________________________________________________________
dense_596 (Dense)               (None, 4)            76          dropout_298[0][0]
==================================================================================================
Total params: 667,478
Trainable params: 667,478
Non-trainable params: 0
__________________________________________________________________________________________________
None

__________________________________________________________________________________________________
…
	Interleaving occurrences: 8

==================================================================================================
	Compact Vocabulary cleaning:
==================================================================================================
	Before : 9194
	After : 2808
# Parameters = 669615
__________________________________________________________________________________________________
Layer (type)                    Output Shape         Param #     Connected to
==================================================================================================
input_901 (InputLayer)          (None, 4)            0
__________________________________________________________________________________________________
input_902 (InputLayer)          (None, 4)            0
__________________________________________________________________________________________________
embedding_601 (Embedding)       (None, 4, 231)       648648      input_901[0][0]
__________________________________________________________________________________________________
embedding_602 (Embedding)       (None, 4, 17)        2873        input_902[0][0]
__________________________________________________________________________________________________
flatten_601 (Flatten)           (None, 924)          0           embedding_601[0][0]
__________________________________________________________________________________________________
flatten_602 (Flatten)           (None, 68)           0           embedding_602[0][0]
__________________________________________________________________________________________________
input_903 (InputLayer)          (None, 8)            0
__________________________________________________________________________________________________
concatenate_301 (Concatenate)   (None, 1000)         0           flatten_601[0][0]
                                                                 flatten_602[0][0]
                                                                 input_903[0][0]
__________________________________________________________________________________________________
dense_601 (Dense)               (None, 18)           18018       concatenate_301[0][0]
__________________________________________________________________________________________________
dropout_301 (Dropout)           (None, 18)           0           dense_601[0][0]
__________________________________________________________________________________________________
dense_602 (Dense)               (None, 4)            76          dropout_301[0][0]
==================================================================================================
Total params: 669,615
Trainable params: 669,615
Non-trainable params: 0
__________________________________________________________________________________________________
None

__________________________________________________________________________________________________
…
	Recognizable MWEs: 100.0 %

==================================================================================================
	Compact Vocabulary cleaning:
==================================================================================================
	Before : 10506
	After : 3177
# Parameters = 753834
__________________________________________________________________________________________________
Layer (type)                    Output Shape         Param #     Connected to
==================================================================================================
input_910 (InputLayer)          (None, 4)            0
__________________________________________________________________________________________________
input_911 (InputLayer)          (None, 4)            0
__________________________________________________________________________________________________
embedding_607 (Embedding)       (None, 4, 231)       733887      input_910[0][0]
__________________________________________________________________________________________________
embedding_608 (Embedding)       (None, 4, 17)        1853        input_911[0][0]
__________________________________________________________________________________________________
flatten_607 (Flatten)           (None, 924)          0           embedding_607[0][0]
__________________________________________________________________________________________________
flatten_608 (Flatten)           (None, 68)           0           embedding_608[0][0]
__________________________________________________________________________________________________
input_912 (InputLayer)          (None, 8)            0
__________________________________________________________________________________________________
concatenate_304 (Concatenate)   (None, 1000)         0           flatten_607[0][0]
                                                                 flatten_608[0][0]
                                                                 input_912[0][0]
__________________________________________________________________________________________________
dense_607 (Dense)               (None, 18)           18018       concatenate_304[0][0]
__________________________________________________________________________________________________
dropout_304 (Dropout)           (None, 18)           0           dense_607[0][0]
__________________________________________________________________________________________________
dense_608 (Dense)               (None, 4)            76          dropout_304[0][0]
==================================================================================================
Total params: 753,834
Trainable params: 753,834
Non-trainable params: 0
__________________________________________________________________________________________________
None

__________________________________________________________________________________________________
…
	MWT occurrences: 1

==================================================================================================
	Non frequent word cleaning:
==================================================================================================
	Before : 9312
	After : 7545
# Parameters = 3269493
__________________________________________________________________________________________________
Layer (type)                    Output Shape         Param #     Connected to
==================================================================================================
input_919 (InputLayer)          (None, 4)            0
__________________________________________________________________________________________________
input_920 (InputLayer)          (None, 4)            0
__________________________________________________________________________________________________
embedding_613 (Embedding)       (None, 4, 419)       3161355     input_919[0][0]
__________________________________________________________________________________________________
embedding_614 (Embedding)       (None, 4, 46)        6992        input_920[0][0]
__________________________________________________________________________________________________
flatten_613 (Flatten)           (None, 1676)         0           embedding_613[0][0]
__________________________________________________________________________________________________
flatten_614 (Flatten)           (None, 184)          0           embedding_614[0][0]
__________________________________________________________________________________________________
input_921 (InputLayer)          (None, 8)            0
__________________________________________________________________________________________________
concatenate_307 (Concatenate)   (None, 1868)         0           flatten_613[0][0]
                                                                 flatten_614[0][0]
                                                                 input_921[0][0]
__________________________________________________________________________________________________
dense_613 (Dense)               (None, 54)           100926      concatenate_307[0][0]
__________________________________________________________________________________________________
dropout_307 (Dropout)           (None, 54)           0           dense_613[0][0]
__________________________________________________________________________________________________
dense_614 (Dense)               (None, 4)            220         dropout_307[0][0]
==================================================================================================
Total params: 3,269,493
Trainable params: 3,269,493
Non-trainable params: 0
__________________________________________________________________________________________________
None

__________________________________________________________________________________________________
…
==================================================================================================
	Non frequent word cleaning:
==================================================================================================
	Before : 9312
	After : 7540
# Parameters = 3267398
__________________________________________________________________________________________________
Layer (type)                    Output Shape         Param #     Connected to                     
==================================================================================================
input_922 (InputLayer)          (None, 4)            0                                            
__________________________________________________________________________________________________
input_923 (InputLayer)          (None, 4)            0                                            
__________________________________________________________________________________________________
embedding_615 (Embedding)       (None, 4, 419)       3159260     input_922[0][0]                  
__________________________________________________________________________________________________
embedding_616 (Embedding)       (None, 4, 46)        6992        input_923[0][0]                  
__________________________________________________________________________________________________
flatten_615 (Flatten)           (None, 1676)         0           embedding_615[0][0]              
__________________________________________________________________________________________________
flatten_616 (Flatten)           (None, 184)          0           embedding_616[0][0]              
__________________________________________________________________________________________________
input_924 (InputLayer)          (None, 8)            0                                            
__________________________________________________________________________________________________
concatenate_308 (Concatenate)   (None, 1868)         0           flatten_615[0][0]                
                                                                 flatten_616[0][0]                
                                                                 input_924[0][0]                  
__________________________________________________________________________________________________
dense_615 (Dense)               (None, 54)           100926      concatenate_308[0][0]            
__________________________________________________________________________________________________
dropout_308 (Dropout)           (None, 54)           0           dense_615[0][0]                  
__________________________________________________________________________________________________
dense_616 (Dense)               (None, 4)            220         dropout_308[0][0]                
==================================================================================================
Total params: 3,267,398
Trainable params: 3,267,398
Non-trainable params: 0
__________________________________________________________________________________________________
None

__________________________________________________________________________________________________
…
